04_Experiments/2022_08_01 18-38-17 100_runs_train_val_split_custom_loss/models/Model_run54_train_val_split0.8_alcalinity_of_ash.pt (torch, 283873 bytes, 318 tensors)

weight f4 [12]
000000 00 00 80 3f 00 00 80 3f 00 00 80 3f 00 00 80 3f
       1.0 1.0 1.0 1.0
000010 00 00 80 3f 00 00 80 3f 00 00 80 3f 00 00 80 3f
       1.0 1.0 1.0 1.0
000020 00 00 80 3f 00 00 80 3f 00 00 80 3f 00 00 80 3f
       1.0 1.0 1.0 1.0

bias f4 [12]
000000 00 00 00 00 00 00 00 00 00 00 00 00 00 00 00 00
       0.0 0.0 0.0 0.0
000010 00 00 00 00 00 00 00 00 00 00 00 00 00 00 00 00
       0.0 0.0 0.0 0.0
000020 00 00 00 00 00 00 00 00 00 00 00 00 00 00 00 00
       0.0 0.0 0.0 0.0

running_mean f4 [12]
000000 00 00 00 00 00 00 00 00 00 00 00 00 00 00 00 00
       0.0 0.0 0.0 0.0
000010 00 00 00 00 00 00 00 00 00 00 00 00 00 00 00 00
       0.0 0.0 0.0 0.0
000020 00 00 00 00 00 00 00 00 00 00 00 00 00 00 00 00
       0.0 0.0 0.0 0.0

running_var f4 [12]
000000 00 00 80 3f 00 00 80 3f 00 00 80 3f 00 00 80 3f
       1.0 1.0 1.0 1.0
000010 00 00 80 3f 00 00 80 3f 00 00 80 3f 00 00 80 3f
       1.0 1.0 1.0 1.0
000020 00 00 80 3f 00 00 80 3f 00 00 80 3f 00 00 80 3f
       1.0 1.0 1.0 1.0

weight f4 [12]
000000 60 8e 19 3f b0 b8 8b 3f b3 9e bb 3f b3 a6 90 3f
       0.5998287 1.0915737 1.4657806 1.1300873
000010 89 05 3c 3f 4c ad a1 3f 0a 76 1a 3f 0a 54 c5 3f
       0.73445946 1.2631011 0.60336363 1.5416272
000020 b4 b8 95 3f a6 ca be 3f ec 5f cd 3f b9 2e 71 3f
       1.1696992 1.4905593 1.6044898 0.9421192

bias f4 [12]
000000 2c dc 9b be 83 f0 eb bc de d2 b3 3c be 78 75 3e
       -0.30441415 -0.028801208 0.021951135 0.2397184
000010 71 8a e8 3d 33 7b 22 3e dd e3 0a 3c d3 0f ac 3e
       0.113545306 0.1586731 0.008477178 0.33605823
000020 88 8d c8 3e d0 db 82 bf da a5 7f 3e 5d ea 3d bf
       0.3917048 -1.0223331 0.24965611 -0.74185735

running_mean f4 [12]
000000 0d 02 32 41 1a c6 0d 40 c4 4b 8c 40 6f 86 f8 3f
       11.125501 2.2152162 4.3842487 1.9416026
000010 dd f9 aa 42 5c 6e 20 44 40 83 da 3f bc 3f 01 40
       85.488014 641.72437 1.7071304 2.019515
000020 11 fe ab 3f f7 2f 03 40 b7 43 50 3f 57 c0 9c 3e
       1.343691 2.0498025 0.81353325 0.30615494

running_var f4 [12]
000000 26 dc 30 3f 99 59 17 3f dd 63 a2 40 2c 50 ee 3e
       0.6908592 0.5912109 5.0746903 0.4654554
000010 e4 95 33 43 01 19 9e 47 89 31 7e 3f f5 d0 57 3e
       179.58551 80946.01 0.99294335 0.21075805
000020 d4 e3 d9 3e bd 35 a2 3f 2a 1f 40 3e a3 8c 21 3e
       0.42556632 1.267265 0.18761888 0.15776305

weight f4 [32, 12]
000000 25 44 0c bf 97 ae cb 3f 96 83 0d 3f 01 43 eb 3d
       -0.5479148 1.5912656 0.5527891 0.11487389
000010 11 f8 99 bf 62 d9 b0 be ed aa b1 be d7 d6 e0 be
       -1.2028829 -0.3454085 -0.3470072 -0.4391391
000020 2e db d4 be fe b9 0e 40 5c e7 83 bf 8c 3f bd 3d
       -0.4157347 2.230102 -1.030498 0.09240636
000030 df a0 5d 3e 56 01 f1 3e 2b 1a 97 3f 25 c1 0e 3c
       0.21643399 0.47071332 1.1804861 0.008713041
000040 59 f5 0b bf 72 0c a4 be 1a 95 c0 3d fa 1b bd 3e
       -0.54671246 -0.32040745 0.09403439 0.36935407
000050 a1 b1 cd bd 62 4d 2c 3f 96 7c 15 c0 82 4e 68 bd
       -0.10043646 0.67305577 -2.3357291 -0.056715496
000060 13 59 11 3f 57 d9 9d be 07 5c 40 be dd 23 c0 bd
       0.5677654 -0.3082988 -0.18785106 -0.093818404
000070 68 b3 ab 3c d9 1b 1a c0 02 60 23 bf 96 14 50 3f
       0.020959571 -2.4079497 -0.6381837 0.8128141
000080 94 7c 83 3d dd db a4 3f 6b 98 99 bc f8 1c a0 bf
       0.06420246 1.2879597 -0.018749436 -1.250884
000090 54 c3 5a 3f 1e 29 1e 3f 0d 7c 0c 3f 5c a5 8b bf
       0.854543 0.6178149 0.54876786 -1.0909839
0000a0 3d 9e 32 be b6 e5 04 be 63 79 9b 3e 18 38 8d 3f
       -0.17443176 -0.12978253 0.30366048 1.1032743
0000b0 f6 b6 81 3f 8b 5f ca 3f aa 47 6e bf 20 0b 23 be
       1.013396 1.5810407 -0.930781 -0.15922213
0000c0 70 39 83 bf 58 2c a0 3f fe 33 ca 3f bd 37 46 3f
       -1.0251904 1.2513533 1.5797117 0.774288
0000d0 08 7d 3f 3f 85 5f 4e 3f 4d b1 81 3c 2b 3f db 3f
       0.7480016 0.806145 0.015831614 1.7128652
0000e0 d1 2f 3b bf bc 3d 07 3e 6c 2b f3 3f ef 7c 71 3f
       -0.7311984 0.13207144 1.8997626 0.9433126
0000f0 96 b6 a0 bf 4f 42 8d 3f 5f 83 66 bf f4 e5 0d be
       -1.2555721 1.1035861 -0.90044206 -0.13857251
000100 4f 75 97 be cb cc 72 bd 63 cb 29 bf 25 52 5f bf
       -0.29581687 -0.059277337 -0.6632597 -0.8723472
000110 81 57 92 be bc 69 2d bf 4a 61 41 bf 21 bc 85 bf
       -0.28582385 -0.6773946 -0.75539076 -1.0448037
000120 d8 8b 54 bf 87 f9 2e bf 16 6d 3d 3e b8 10 a4 be
       -0.83025885 -0.683495 0.18498644 -0.32044005
000130 b6 81 8f be 17 f3 f8 bf 35 53 99 bf 06 80 04 bf
       -0.2802865 -1.9449185 -1.1978518 -0.5175785
000140 00 6f 77 3f 83 55 a4 bf 2e b3 2e bf 56 cc 28 bf
       0.9665375 -1.2838596 -0.68242157 -0.6593679
000150 e9 f1 77 bd ad 0b 11 be d4 28 8d 3d ac fc 4c bf
       -0.060533438 -0.1416461 0.06892553 -0.80073047
000160 16 75 06 40 f7 e7 ff 3f 1c 2f 87 3f 2e 42 9f bf
       2.1008964 1.9992665 1.0561252 -1.2442071
000170 dc e4 f0 3e 3e b1 ce 3f 3b 8c cc be 5e 29 56 bd
       0.47049606 1.614784 -0.39950737 -0.052285545
000180 b9 98 93 3f 59 7b 48 3f e5 82 5f 3f 12 b4 51 3f
       1.1530982 0.78313214 0.87309104 0.8191539
000190 fa 0f ef 3d 0e 8c 59 3e 10 ab 3b 3f fd c9 ba 3e
       0.11672969 0.21244833 0.73307896 0.3648223
0001a0 76 36 c6 3d 3d 69 82 3f 12 10 7f 3f fb 13 82 3f
       0.09678356 1.0188366 0.99633896 1.0162348
0001b0 ca 86 6e 3f 1a 3e c0 be 0f e2 d6 be 0c 9a 62 bf
       0.9317442 -0.3754738 -0.41969344 -0.88516307
0001c0 5c 25 b1 be 57 76 a9 3e de 8d 1b 3f 2c 61 eb bf
       -0.34598815 0.330981 0.6076335 -1.838903
0001d0 5d 0c 35 3f 81 50 82 be e0 33 3b 3f a2 f5 84 3e
       0.7072199 -0.25452045 0.7312603 0.25968653
0001e0 43 e7 41 be 1f 9d 61 bf d8 64 16 bd 16 03 9a 3f
       -0.18935876 -0.8813037 -0.036717266 1.2032192
0001f0 2a 26 35 3f d3 c3 ed be 0a d3 1e be df 33 3e be
       0.7076136 -0.46438465 -0.15510193 -0.18574475
000200 e3 02 f3 bf 84 1c 6a 3d 8d 81 1f 3e 94 1c 93 3d
       -1.8985256 0.0571561 0.15576763 0.07183185
000210 4e 3e 2d be af 50 f4 3e 51 72 07 bf 80 65 75 bf
       -0.16918299 0.47717807 -0.5290881 -0.95858
000220 00 05 b6 3f 13 c0 9a bf 54 46 0f bf 8a b9 ce bd
       1.4220276 -1.2089866 -0.5596669 -0.100939825
000230 59 2d 94 bf cc ad 41 be 06 e6 3e 3e 16 ee 84 3f
       -1.1576339 -0.18913954 0.18642434 1.0385158
000240 29 33 b0 bf 29 93 66 3f f8 99 8c bf 7a fb 77 be
       -1.3765613 0.900683 -1.0984488 -0.24217024
000250 92 be 42 bf 0d 6e ef be 56 12 f1 3d 45 c4 37 be
       -0.7607204 -0.4676365 0.117710754 -0.17945965
000260 53 17 5e bf 56 b4 b4 3f ca 47 88 3f e1 40 75 3f
       -0.8675434 1.4117534 1.0646908 0.9580212
000270 f4 27 b5 bc bf a6 56 3f ef 03 7a 3f 1d 65 66 3f
       -0.022113778 0.83848184 0.9766225 0.89998037
000280 54 94 f1 bd 4b ac 61 3f 6d 1f 9b bf ef 1d a7 bd
       -0.117958695 0.88153523 -1.2118965 -0.08160006
000290 93 8d e3 3e 1d 09 51 bf ea 2a 97 bf 7d 1c 4f 3f
       0.4444395 -0.8165453 -1.1809971 0.80902845
0002a0 14 ad 7d 3e e0 c0 75 3e 90 61 72 3f de 1a bd bf
       0.24773055 0.23999357 0.9468012 -1.4773824
0002b0 02 5b 9e bf 14 53 48 bf a4 06 43 bf 05 f8 85 3f
       -1.2371523 -0.7825177 -0.7618201 1.0466315
0002c0 d1 4f 09 3e bd 6a 0b 3f ec 3f 28 bf 76 24 72 3e
       0.13409354 0.54459745 -0.6572254 0.23646721
0002d0 7c 88 16 bb 61 75 8a bf 78 78 a1 3f 2f a0 b9 3e
       -0.0022969535 -1.0817071 1.2614889 0.36255023
0002e0 c3 cf 24 bf 84 eb 50 3f 4d bc f0 be 2a 4b cc 3e
       -0.6437952 0.8160937 -0.47018662 0.39901096
0002f0 f1 3f a4 be 01 2d 06 bf 74 f3 24 3e a5 d2 76 bf
       -0.32080033 -0.5241242 0.16108495 -0.9641517
000300 34 a3 51 3f bb f2 1d bf fc 32 2a bd 72 53 ab 3f
       0.81889653 -0.616985 -0.04155253 1.338484
000310 17 03 b3 bf e3 25 c8 bf 50 fe c0 bd 62 88 a0 3e
       -1.3985318 -1.5636562 -0.09423506 0.31354052
000320 0e 0f 9e be e2 5d 19 40 92 e1 31 3a 2e e7 93 bf
       -0.3087086 2.3963552 0.0006785627 -1.1554925
000330 e7 98 d6 3e 8b 2e fd 3d 31 76 bb be 13 23 a1 bd
       0.4191353 0.12362393 -0.3661361 -0.07868018
000340 54 a5 0a 3f b4 31 d7 bf 0a 52 c1 3e 47 a5 cd 3e
       0.5415852 -1.6812043 0.37757903 0.4016516
000350 bb 7c 99 be 8a 4a d1 bf d0 c2 85 3f e9 f9 61 bd
       -0.29977974 -1.6350873 1.0450077 -0.055169974
000360 7c 5c f6 bf 5b 26 2a 3f f6 a2 c9 be 38 4b b6 3e
       -1.9246974 0.66464776 -0.39382142 0.35604262
000370 51 45 54 3f 00 97 3e bf 29 0a 06 bf cd 77 2e bf
       0.8291827 -0.7444916 -0.52359253 -0.6815155
000380 ff 89 05 3f 21 a8 a2 3f c5 ed 4b bf e4 60 b7 3f
       0.5216369 1.2707559 -0.7965968 1.4326444
000390 f1 85 87 bf c7 38 55 bf ef 2b cf be 73 85 92 bf
       -1.0587751 -0.8328976 -0.40463206 -1.1446975
0003a0 89 a9 87 be d3 58 fe be 43 ee b1 bf a7 ee 8f 3f
       -0.26496533 -0.49677143 -1.3900837 1.1244706
0003b0 c7 0c e3 3f 1f 7c bc 3f 77 28 0b 3f 55 e0 36 3f
       1.7738274 1.4725379 0.5435862 0.71436054
0003c0 41 9f 16 bf 41 db 9d 3e 67 99 97 3f 51 44 87 3e
       -0.5883675 0.3083134 1.184369 0.2641931
0003d0 9b ba 88 3f f6 60 54 bf 0d 09 e4 3e 86 a0 f9 be
       1.0681947 -0.8296045 0.44538155 -0.48755282
0003e0 a5 a2 7d 3f eb cf 43 bf a5 9f e3 bd 4f 49 06 c0
       0.990763 -0.7648913 -0.11114434 -2.0982244
0003f0 f3 b6 a6 bf aa 6b 2a 3f cf 29 f4 3e 69 ee 61 3f
       -1.3024582 0.6657053 0.47688147 0.8825441

weight f4 [32, 16]
000000 c3 21 a4 3e d1 3d e8 3f 7a 66 e3 3f 81 20 2c be
       0.32057008 1.8143865 1.7765648 -0.16809274
000010 b0 0b 7d bf 2a dc 30 be 05 84 9d 3f 69 10 1a 3e
       -0.9884596 -0.17271486 1.2305914 0.15045322
000020 ee a8 03 bf 7a 01 e0 bc 81 8b 13 3e ac e3 5a 3f
       -0.5142964 -0.027344454 0.14408685 0.8550365
000030 0c a3 96 3f 70 b7 e6 be ae e7 8e 3e 7b d2 91 3f
       1.1768508 -0.45061827 0.27911133 1.1392359
000040 b0 26 de 3f ca c5 4b bd 0a 65 aa 3f a1 df d4 3f
       1.7355556 -0.049749173 1.3312085 1.6630746
000050 34 57 45 bf 05 16 ad 3d 14 65 05 be f8 18 87 be
       -0.77086186 0.084514655 -0.1302684 -0.26386237
000060 34 80 ef be 35 97 c1 be d1 d2 14 3e ce 49 51 3e
       -0.467775 -0.37810674 0.14533545 0.2043831
000070 a4 ec 5f 3f 91 b8 f6 3e 57 d5 55 3d 8f 4e e2 be
       0.8747046 0.48187688 0.05220541 -0.4420056
000080 7f 87 39 bd 47 72 a7 bf dd 7a a3 bf c1 ca 10 c0
       -0.045295235 -1.308175 -1.277187 -2.262375
000090 e2 c2 48 3e 0f e5 cd bf 4e 84 fe bb a8 ac 5e bf
       0.19605592 -1.6085528 -0.007767237 -0.869822
0000a0 52 5d 64 3e 43 d0 48 3f 00 48 10 bf c9 af ef bf
       0.22301224 0.7844278 -0.56359863 -1.872552
0000b0 4b 13 5c 3f f1 6c f4 3e 9a 87 50 3f 1c 76 3d 3f
       0.8596694 0.47739366 0.8145691 0.74008346
0000c0 b8 f7 1e 3f 59 f5 55 3f 5e f9 81 bf e5 f4 bf be
       0.6209674 0.83577496 -1.0154226 -0.37491527
0000d0 68 1b 29 3f be ec 15 bf 8b 93 83 bf 33 8e 9c 3f
       0.66057444 -0.58564365 -1.0279402 1.2230896
0000e0 7a ae 82 3f ec 4c 11 bd 50 38 f4 be 4b fa 6c be
       1.0209496 -0.03547375 -0.47699213 -0.23142354
0000f0 aa 09 ba bd f0 ef ae 3e c1 b0 fa 3e 47 0e 14 bf
       -0.090838745 0.34167433 0.48962978 -0.57834285
000100 07 85 16 3f 75 21 8e 3e 07 25 20 bf 2b 58 d6 3e
       0.58796734 0.277599 -0.625565 0.41864142
000110 a3 3b 88 3e 52 59 19 be 8c 70 2a 3e f3 70 78 3f
       0.26608 -0.14975479 0.16644496 0.97047347
000120 ef cd f6 3f e1 64 83 be f9 44 99 bf 3f 74 4f bf
       1.9281596 -0.25662902 -1.1974174 -0.8103675
000130 1a a2 88 be 21 1d af bf 5a ae 2a bd 2f 15 b2 3f
       -0.26686174 -1.3680764 -0.04167018 1.3912715
000140 c2 70 81 bf b3 1f d3 bf 4e cd 70 be 8c f4 52 3e
       -1.0112536 -1.6494049 -0.23515818 0.206011
000150 cc 9a c5 bf 13 17 00 3f c3 fd 71 3f c8 89 f4 3e
       -1.5437865 0.5003521 0.94527835 0.4776137
000160 73 7f 9c bf b3 55 fe be 04 4d f6 ba a1 c0 02 bf
       -1.2226394 -0.49674758 -0.0018791263 -0.5107518
000170 9e 70 d4 bf 6e 3f 83 be 80 43 2e bf 21 e7 69 3e
       -1.6596868 -0.2563433 -0.68071747 0.22842075
000180 67 cc 34 3e 2c 73 aa 3e 44 6a c4 bc 6f d7 a4 3f
       0.17656098 0.33290994 -0.023976453 1.2878245
000190 a6 9e a9 be 18 9e 1c 3f 61 b7 64 3f 0f fc c4 3d
       -0.33128852 0.6117873 0.89342314 0.09618389
0001a0 33 20 e3 be f9 d8 13 3f b0 f9 ec 3d 3e 9e 5c 3d
       -0.44360504 0.5775295 0.115710616 0.05386185
0001b0 d0 a1 8b 3f ab 32 05 be 91 a2 08 40 4f 48 6a bf
       1.0908756 -0.1300761 2.1349223 -0.91516584
0001c0 94 ca 4a 3e 41 9c d7 bf 8d e8 ce bf 39 8a ae bf
       0.1980384 -1.684456 -1.6164719 -1.3635932
0001d0 16 76 d6 3e 28 c2 83 bd a8 47 d0 3d ab ba a4 3d
       0.41886967 -0.06433517 0.10169917 0.080434166
0001e0 42 7b 9e bf 6f 06 b8 3f a0 20 86 bf b7 9c cd 3e
       -1.2381365 1.4376963 -1.0478706 0.40158626
0001f0 69 61 8d bf 4a d8 ee bd 43 fd 4f bf 09 31 51 be
       -1.1045352 -0.116623476 -0.8124582 -0.20428862
000200 5c c0 76 bf 00 aa 54 3e 73 28 29 bf 4a 68 9e 3b
       -0.9638727 0.20767975 -0.66077346 0.0048342096
000210 70 03 b3 bf 0e ae 15 40 e7 7b 87 bf a0 de 73 3e
       -1.3985424 2.3387485 -1.0584687 0.23815393
000220 36 17 87 bf fb 14 a9 be 9f 06 0a bf cb 85 82 3e
       -1.0553958 -0.3302382 -0.53916353 0.254927
000230 9d 96 af 3f 6e a9 82 bd 61 41 7e bd e3 c6 a2 bd
       1.3717839 -0.063799724 -0.06207407 -0.07948091
000240 a8 73 26 bf d6 5f 7c bf 22 27 9a bf 58 a5 d8 be
       -0.6502023 -0.98583734 -1.2043192 -0.42313647
000250 68 0a a2 bf 68 7a 50 3f c5 f2 35 bf 7b 43 7f be
       -1.2659426 0.8143678 -0.7107356 -0.24928086
000260 18 5f 8d 3f d7 3e a0 3f eb 77 b1 be 36 e5 4b be
       1.1044645 1.2519177 -0.34661803 -0.19911656
000270 6f 2d 33 3d 15 37 84 bf 16 ea 65 be 12 87 34 bf
       0.0437445 -1.032931 -0.22452578 -0.705186
000280 d3 ce e8 3e df 9d ac bb 51 c9 b1 3f 9c 52 aa 3e
       0.45470294 -0.005267843 1.3889562 0.3326615
000290 53 a6 32 bf 0d f0 0a be 06 e1 98 bc 8a 9e a0 3f
       -0.6978504 -0.13568135 -0.018661987 1.2548382
0002a0 f9 f7 d9 be ae ba 34 bf 8a 64 8d bf a2 6a a2 bf
       -0.42572 -0.7059735 -1.1046307 -1.2688792
0002b0 57 87 1c 3f d4 c8 3b bf 2a 53 be 3e 4f de 31 3f
       0.6114401 -0.73353314 0.37172824 0.6947984
0002c0 5a 48 0f bf bf 99 ce bd 8b 95 a2 bd 00 4a 6f be
       -0.55969775 -0.100879185 -0.07938679 -0.23368073
0002d0 1a 5e 1f c0 d8 06 39 3f 95 f9 88 be b7 5e 21 3f
       -2.4901185 0.7227607 -0.26752916 0.6303515
0002e0 b7 36 b3 3e 9b 25 66 3f 61 28 0c c0 88 56 80 3e
       0.35002682 0.8990113 -2.1899645 0.25066018
0002f0 b6 e8 15 3e 38 5d 19 bf 51 8e 2f 3f 96 ef ab bf
       0.14639553 -0.59907866 0.6857653 -1.3432491
000300 50 2d 98 3d de f8 ad be d8 63 8d bf 08 f0 cd be
       0.07430518 -0.33978933 -1.1046095 -0.40222192
000310 48 36 9d 3f 92 c1 7a be b8 29 a4 be 2c f6 cd bf
       1.228219 -0.24487904 -0.3206308 -1.6090751
000320 c9 d9 23 3f d7 7b bb bf 42 04 27 bd 47 a4 fe 3e
       0.6400419 -1.4647168 -0.040775545 0.4973471
000330 ac e0 39 be 36 c4 e2 3e 61 a0 c6 3e f3 af a0 3f
       -0.18152112 0.44290322 0.38794234 1.2553695
000340 95 b0 1d 3e d8 8c 47 be 44 af fe be d0 1d 1f 3f
       0.15399392 -0.19487321 -0.49743092 0.62154865
000350 f4 a7 a1 be ff 8e e2 bf f9 5b bc 3f bd d1 57 3f
       -0.3157345 -1.7699889 1.4715568 0.8430441
000360 c1 32 07 3d d1 59 9b bd c6 94 df bb 60 c4 3d bf
       0.033007387 -0.075854905 -0.006823155 -0.7412777
000370 44 94 ef bf 02 2a 66 3f 69 e4 fa 3e bd d4 6a 3f
       -1.8717122 0.8990785 0.49002388 0.9173086
000380 2a 25 04 bf 26 02 76 3f 16 d2 f4 be 09 ab ae be
       -0.5161921 0.9609703 -0.47816533 -0.34114864
000390 fc d1 99 3e 35 60 4a bf 17 c7 36 bf 88 95 f3 3e
       0.30043018 -0.7905305 -0.71397537 0.4757502
0003a0 f9 a7 b2 be 40 9d 63 bf fe d1 fa bf 1a ce 27 3e
       -0.34893778 -0.8891182 -1.9595335 0.16387215
0003b0 47 dd d3 3e cd 61 04 40 bd d7 38 3f 8e 03 3c 3f
       0.4137976 2.0684693 0.7220419 0.73442924
0003c0 20 8a b0 be 41 3d d3 be 8e c9 65 3f a7 c4 a5 3d
       -0.3448038 -0.4125767 0.89760673 0.08094149
0003d0 64 68 ab bc 5a 5c 3a bf 05 46 a3 bf 44 8a 96 bf
       -0.0209238 -0.7279717 -1.2755743 -1.1760945
0003e0 57 75 34 3e 98 49 b0 3f 84 82 e9 3c 23 ab 9b 3f
       0.17622887 1.3772459 0.028504618 1.2161602
0003f0 a2 d7 2e 3f 23 ec 13 bf 68 0c eb 3f 3a e5 a9 be
       0.6829778 -0.5778219 1.8363161 -0.33182698

weight f4 [32]
000000 88 f1 ac 3f bc a8 95 3f 38 40 26 3f d1 a7 51 3f
       1.351121 1.1692119 0.6494174 0.8189669
000010 52 f6 bf 3f 4b 75 87 3f 25 67 86 3f e2 ac 5f 3f
       1.4997046 1.058267 1.0500227 0.87373173
000020 cf ea 70 3f d5 ec 9c 3f 21 ef 71 3f 86 dc 8a 3f
       0.9410829 1.2259775 0.94505507 1.0848548
000030 c0 38 9f 3f 57 c7 cb 3f 8a 7d 82 3f a7 9a a4 3f
       1.2439194 1.5920209 1.0194561 1.2859696
000040 f7 60 99 3f b5 48 fe 3e c5 4c 30 3f ef 68 82 3f
       1.1982716 0.49664846 0.6886714 1.0188273
000050 6f d9 2f 3e e7 39 12 40 03 dd 99 3f a5 cb ab 3f
       0.17172788 2.284784 1.2020572 1.3421522
000060 15 89 7d 3f bd 09 92 3f ac c2 02 3f 04 4d 12 3f
       0.99037296 1.1409222 0.51078296 0.57148767
000070 84 1d b0 3f b0 2a e3 3f 60 8f f3 3e 7e 92 d5 3f
       1.3759007 1.7747402 0.47570324 1.6685331

bias f4 [32]
000000 bd 04 bb 3e 64 91 00 be af b5 65 be 19 2c e9 bd
       0.36527053 -0.12555462 -0.22432588 -0.11385364
000010 bb e0 06 3e aa 80 30 bf de 04 83 be 97 9c 94 3e
       0.13171665 -0.68946326 -0.2558965 0.2902572
000020 96 81 a2 bd 7c 4e 02 bf 59 70 12 be 5a 54 dd 3d
       -0.07934873 -0.5090101 -0.1430067 0.108071044
000030 51 37 2b bd 3d 73 fd 3e c3 eb 35 bf f8 1b 25 3d
       -0.0418008 0.49501982 -0.7106287 0.040309876
000040 74 b3 e9 3e 7a 2b 02 3f 44 66 be 3c c8 78 62 be
       0.45644724 0.5084759 0.023242123 -0.22116387
000050 78 b5 2e 3f a4 60 06 bf ea 9b 16 3d 07 5b 48 be
       0.6824565 -0.5249121 0.036769785 -0.19565974
000060 c6 89 2b be c6 44 69 3c 6b ae 85 bc 60 b8 a3 3e
       -0.16751775 0.014237588 -0.01631852 0.31976604
000070 f0 95 14 be a6 1b c4 3e 9d 1e bb 3e 57 35 12 bf
       -0.14510322 0.38302344 0.36546794 -0.5711264

running_mean f4 [32]
000000 3d 79 2c c0 76 45 a1 bf 03 f9 21 bf 78 8a b5 bf
       -2.6948998 -1.2599323 -0.63270587 -1.4182882
000010 44 c9 19 3f 41 66 91 3f 4c 13 c6 3f 79 cb cc bf
       0.6007273 1.135933 1.5474639 -1.5999595
000020 18 a2 ac bf e4 3d e0 be 49 cd 0f bf 7a 51 a1 bf
       -1.3486967 -0.4379722 -0.56172615 -1.260299
000030 f7 b8 fe bf 1c 0b c6 3e 83 b6 8a bf f7 15 be 3f
       -1.9900197 0.3868035 -1.0836948 1.4850453
000040 5e cf d2 bf 77 d2 c7 3f 5b 32 02 c0 b9 f4 53 bf
       -1.6469533 1.5611104 -2.0343235 -0.8279529
000050 53 fc 29 40 66 09 26 3f a1 8f f0 be d4 03 9b 3f
       2.6560256 0.6485809 -0.4698458 1.2110543
000060 d2 59 06 40 6b 94 96 be f6 7c 6c bf 55 9c 04 3e
       2.0992322 -0.2941011 -0.92378175 0.12950261
000070 70 db 29 40 4c 45 a4 bf 51 60 45 40 c2 00 33 c0
       2.6540184 -1.2833648 3.0840037 -2.7969213

running_var f4 [32]
000000 02 cb a0 41 44 f0 dc 41 27 48 6b 41 b5 8e 93 41
       20.099125 27.617317 14.705115 18.444681
000010 a0 4b c2 41 48 67 28 41 45 15 55 41 c5 a4 50 41
       24.286926 10.525215 13.317693 13.040227
000020 ff 72 27 41 0e be 3c 41 30 7d 96 40 65 e3 38 41
       10.465575 11.7964 4.7027817 11.555516
000030 eb e6 80 41 a6 a8 05 41 89 3a 9d 41 a0 2a d7 40
       16.112753 8.353674 19.653582 6.7239532
000040 bd 12 87 41 bc 5c 5f 41 9d 66 49 41 f2 d9 6a 41
       16.88415 13.96014 12.587552 14.678209
000050 fa b1 31 41 f3 c4 c2 40 24 89 42 41 4c 66 b9 41
       11.105951 6.0865417 12.158482 23.17495
000060 7e 36 27 41 be 18 12 41 09 68 5e 41 a4 01 32 41
       10.450804 9.131041 13.900399 11.125401
000070 1f b9 d9 41 75 79 53 41 47 ff b9 41 c4 5b ce 41
       27.215391 13.217153 23.249647 25.794807

weight f4 [32]
000000 80 01 a5 3f 7a f9 4a 3f 9e b2 87 3f 76 62 bb 3f
       1.2891083 0.7928692 1.0601385 1.4639423
000010 3e 20 53 3f 98 81 db 3e ce a7 3c 3f bb 08 af 3f
       0.8247107 0.4287231 0.7369355 1.3674539
000020 7a 6a 64 3f c3 29 74 3f bd d1 bc 3f 8b 6b b2 3e
       0.8922497 0.95376223 1.4751507 0.34847674
000030 f6 5c 88 3f 6b d2 87 3f a5 39 b6 3f 0a 32 41 3f
       1.065337 1.061109 1.4236342 0.7546698
000040 81 b5 ee 3e 44 35 a7 3f 9e 94 54 3f f8 ab cc 3f
       0.46622851 1.306313 0.8303927 1.5989981
000050 47 d1 b1 3e a4 63 74 3e 74 0f 4a 3f eb d3 2e 3f
       0.34729978 0.23866135 0.7892983 0.6829211
000060 ec 49 6e 3f d5 94 36 3f 1f ed 89 3f bd 65 6a 3f
       0.93081546 0.7132085 1.0775489 0.9156149
000070 2f cf 35 3f 83 13 88 3e de 1f 5d 3f da 8f de 3f
       0.7101926 0.26577386 0.8637675 1.738765

bias f4 [32]
000000 06 e0 52 3f 91 17 63 3e 9e f1 23 bf 40 7e ed 3c
       0.8237308 0.22176959 -0.64040554 0.028990865
000010 65 bc 2c bf 92 0b 9e 3d 6b 66 07 3f cf af 31 3e
       -0.6747497 0.077170506 0.5289065 0.17352222
000020 9b 49 b6 bd 65 00 9f 3e 1e dc 8f 3d 6b e3 fe 3e
       -0.08900758 0.31054989 0.07024406 0.4978288
000030 c6 22 07 39 20 c5 3b be 1d aa 7b be 15 e0 69 be
       0.00012887557 -0.18336916 -0.24576612 -0.22839387
000040 a8 3c 64 3f 39 33 c3 be 67 6c 8c 3e ac 95 a3 3e
       0.89155054 -0.38125017 0.27426454 0.31950128
000050 f7 9b 0f 3e 08 46 f6 be 1f 3b be 3d 73 2c 64 3f
       0.1402434 -0.48100305 0.0928862 0.89130324
000060 cc 92 35 be 82 b5 a2 3e 7b d0 e9 3e c5 64 fb be
       -0.1773178 0.31779104 0.4566687 -0.4910032
000070 ab 30 0f 3e 6e ee c6 3e f4 a3 e7 3e 54 94 b3 be
       0.13983409 0.38853782 0.45242274 -0.35074103

running_mean f4 [32]
000000 19 b7 a3 bf 64 b7 46 3f b3 70 c7 be 0f 75 00 3f
       -1.2790252 0.7762358 -0.3895317 0.5017862
000010 9b 43 a4 be 88 a5 e5 3e 43 7c b3 bf 6f 6c 8c 3f
       -0.3208283 0.44852853 -1.4022297 1.0970591
000020 ea ff 68 bf c2 ad 36 bf e0 8e b1 be 4c 61 70 bf
       -0.91015494 -0.71358883 -0.34679317 -0.93898463
000030 4f 53 1f 3e 09 95 5a 3f 11 08 de 3e 52 12 cf bf
       0.15559123 0.8538366 0.4336553 -1.6177466
000040 a6 e1 91 bf 23 e8 e9 bd f9 27 0c 3f 91 a6 6d 3f
       -1.1396987 -0.1142123 0.54748493 0.92832285
000050 61 c1 70 bf 53 01 69 bf 99 8f 17 be f2 03 49 bf
       -0.9404507 -0.91017646 -0.14800872 -0.78521645
000060 c6 ec ac be 3d 95 a0 bf ce b5 99 3f 08 63 63 be
       -0.33774394 -1.2545544 1.2008607 -0.22205746
000070 8b 15 8f 3e ff 72 15 3f e1 b7 77 be 30 77 53 be
       0.27946123 0.58378595 -0.24191238 -0.20650935

running_var f4 [32]
000000 53 78 24 41 da 1d 27 41 72 0e bd 40 c7 f6 b5 40
       10.279376 10.444788 5.9080133 5.686374
000010 70 08 7d 40 29 ec df 40 dc 50 e6 40 05 8c 14 41
       3.95364 6.997578 7.1973705 9.284184
000020 4a 7a f7 40 41 23 22 41 af a0 20 40 9b 21 3b 41
       7.733678 10.133607 2.5098073 11.695704
000030 fe 40 07 41 2a 47 59 41 e8 83 71 41 07 51 a4 40
       8.453367 13.579874 15.094704 5.134891
000040 c0 6a fc 40 79 2b 98 40 5a 8f d3 40 12 31 41 41
       7.888031 4.7553067 6.611249 12.07448
000050 72 64 87 40 e9 6d db 40 6a ce ae 40 61 df 14 41
       4.2310114 6.857167 5.462697 9.304536
000060 5f 0f 03 41 c0 31 92 40 ec c5 4b 41 72 ef d5 40
       8.191253 4.568573 12.735821 6.685479
000070 1e be b1 40 b2 d7 dc 40 7c fb d0 40 db cc 9f 40
       5.5544577 6.90133 6.530699 4.993757

weight f4 [32, 16]
000000 42 7c 01 3f 82 7c 86 3e ff e9 e7 be 7d 0b c0 3e
       0.5058023 0.26266867 -0.45295712 0.37508765
000010 89 a7 93 bf 1e 54 c0 bf 4c 61 83 be 59 33 5c bf
       -1.1535503 -1.502567 -0.2566017 -0.8601585
000020 a4 eb 10 bf 05 68 17 bf 9f 8d 34 bf 77 a4 51 3f
       -0.5660956 -0.59143096 -0.70528597 0.8189158
000030 f5 68 0d bf 04 37 4c 3f 67 ad 8c 3f 5f 2c 4d 3f
       -0.55238277 0.7977145 1.0990418 0.8014583
000040 1b 2c 61 bf 55 c2 89 bf cb cb b3 bf a1 e5 8e be
       -0.87957925 -1.076243 -1.4046568 -0.27909568
000050 db d3 b3 3e b4 c4 02 3f 43 d1 09 bf 60 f2 3f bf
       0.3512257 0.51081395 -0.53834933 -0.7497921
000060 1f 7d 11 3f f7 44 ec bf e2 cc b9 bf 71 54 02 3f
       0.56831545 -1.8458546 -1.451565 0.509101
000070 fd 72 1d 3f b0 ec e0 3d 44 c2 ba bc b6 2c 3a bf
       0.61503583 0.109826446 -0.022797711 -0.72724473
000080 15 8b 6c bf dc 46 da 3f 06 b2 58 bf c6 16 6c 3f
       -0.9239972 1.7052875 -0.8464664 0.9222225
000090 2d c4 a8 3f 96 64 91 be 7d 75 a9 bf 2d 35 1b bf
       1.3184868 -0.28397053 -1.323898 -0.60628015
0000a0 fb a3 23 3e 2c 27 84 be 39 70 12 bf d4 28 07 3f
       0.15980522 -0.25811136 -0.5720249 0.52796674
0000b0 76 fb 0a bf 46 dc 67 3f c8 8e 62 be 51 17 ae bf
       -0.5428995 0.90570486 -0.22124779 -1.3600866
0000c0 21 ab 2c bf 52 da 7e be c8 b9 f4 3e e0 25 83 3f
       -0.6744862 -0.2488797 0.4779799 1.0245934
0000d0 90 28 92 3f da 12 cf bf a4 6e 65 bf 12 c4 24 bf
       1.1418629 -1.6177628 -0.8962195 -0.6436168
0000e0 41 6e 93 3e e9 40 1a 3f 33 44 4f bf e9 92 27 3f
       0.28795055 0.60255295 -0.8096344 0.6545854
0000f0 33 79 8a 3f 81 f7 02 3f 4b 3f 22 3f 3a d3 9d 3d
       1.0818237 0.5115891 0.6337783 0.07706304
000100 de 56 e1 bf df 06 c3 3e 3a 8b f7 3e ea 98 2f be
       -1.7604635 0.3809118 0.4834841 -0.17148176
000110 3d 1a bf 3f 0a f0 be 3e 3c 66 fb bd 47 fc 23 bf
       1.4929882 0.3729251 -0.12275359 -0.6405682
000120 a7 7b b5 be 4e 5a a0 3e 46 7b 5e bd 07 f7 72 bf
       -0.35445902 0.31318897 -0.05431678 -0.94908184
000130 bc 56 9a be 44 4f 9d bf 8d d3 83 3e 4f 7e b8 3f
       -0.30144298 -1.2289815 0.25747338 1.4413546
000140 b5 ff 28 3f 7a de cf 3d df 2d 35 bf 1e 8f b7 3e
       0.6601518 0.10149856 -0.7077312 0.35851377
000150 ef ce 3e 3f 64 f1 0e be 61 fb 6d 3c be 52 00 3f
       0.74534506 -0.1395927 0.014525265 0.50126255
000160 60 2e 85 3f 66 60 06 bf 33 6b 42 3f d3 df b6 3e
       1.0404778 -0.5249084 0.75944823 0.3571764
000170 92 e0 e5 bd 32 28 a0 bf 4f e1 40 3f 02 43 08 3f
       -0.11224474 -1.2512267 0.75343794 0.53227246
000180 16 fb db 3f 4d 0a 83 bf 05 3a ae 3e 4a 50 53 3f
       1.7186 -1.0237519 0.3402864 0.82544386
000190 b2 42 a7 bf 82 56 0c 3d a1 df d4 3d 2c 07 8d 3e
       -1.3067229 0.034262188 0.10394216 0.27544534
0001a0 72 24 5b 3f cf f4 83 3e a5 52 84 3f 96 6e 14 3f
       0.85602486 0.25772712 1.0337721 0.5798124
0001b0 e5 5f 26 bf a5 16 a4 3e 73 0f ad bf 5c 2f 33 3d
       -0.64990073 0.32048526 -1.352034 0.043746337
0001c0 23 69 51 bf 49 7d b5 bf b6 f4 21 3f af 40 c1 3e
       -0.8180105 -1.4178859 0.63264024 0.37744662
0001d0 0c 4c 29 be 8b 3e 2c bf 1b c1 29 bf 39 5b f4 be
       -0.16532916 -0.67282933 -0.6631028 -0.47725847
0001e0 2e 07 e4 be 9b 1d 44 3f 42 2a 16 bf 98 c4 68 3f
       -0.44536728 0.76607674 -0.5865823 0.9092498
0001f0 8a a8 1a bf 25 eb cc 3e 15 a8 f7 be f1 e6 71 bf
       -0.6041342 0.4002315 -0.48370424 -0.94493014
000200 9f ae 2d bf 83 b6 1b bf 22 ab db bf 99 6b 31 3f
       -0.67844576 -0.60825366 -1.71616 0.69304806
000210 f1 65 64 3f 45 8c 74 3f aa bb 2a bf ac cb 3f bf
       0.8921805 0.95526534 -0.666926 -0.74920154
000220 3f d6 2e bf 18 3f 04 c0 d3 1c 87 3f ee 4a 67 3f
       -0.68295664 -2.066351 1.0555671 0.9034871
000230 ff 10 3a 3f 69 fa 3c be c5 71 cb 3e f0 d8 7c be
       0.72682184 -0.18454899 0.39735237 -0.2469213
000240 d7 81 06 3e e7 1e 24 bf 04 99 74 3f ae 8a 69 bf
       0.13135467 -0.64109653 0.95545983 -0.91227233
000250 4a 6a 07 bf 1f 74 fa bd 0f c5 0b 3e a2 3c 9d bd
       -0.5289656 -0.122291796 0.1364939 -0.076775804
000260 fc dd 29 3f 51 a2 ae 3e a6 16 c8 be 47 f3 5e bf
       0.66354346 0.34108213 -0.3907978 -0.8708996
000270 66 30 91 bf 3d 61 ea 3e 56 ac f4 bf 06 a3 18 be
       -1.1342895 0.45777312 -1.9115093 -0.14905939
000280 22 31 d4 3f 32 df 71 bf a0 3f 33 3f 60 aa 03 bf
       1.6577494 -0.94481194 0.7001896 -0.51431847
000290 36 e7 fb 3e c4 03 08 3e 8b 69 db 3f 9c 24 c7 3e
       0.49199837 0.13282686 1.7141584 0.38895118
0002a0 43 c2 21 3f c1 5f 4b 3f 3d b1 12 bf 4e 65 79 3f
       0.63187045 0.79442984 -0.57301694 0.97420204
0002b0 6c f2 8b 3d fc f6 5e 3f f5 36 0c 3f d2 49 3e be
       0.06833348 0.8709562 0.5477136 -0.18582848
0002c0 c4 57 c4 3e 60 2a c8 bb 2e 16 19 3f f9 64 1b bf
       0.3834821 -0.006108567 0.5979947 -0.6070095
0002d0 91 98 41 be a5 50 7a 3e 50 4f 5e 3f 4a f8 b9 bf
       -0.18905856 0.24444826 0.8683977 -1.4528897
0002e0 d7 a8 b7 3e 5a 1e 1d bf ac 70 0d 3f 56 0f 4f bf
       0.35871002 -0.6137444 0.5525005 -0.80882776
0002f0 1b a5 43 be e1 8c 5f bc b6 c5 a0 3f ff dc dc 3e
       -0.19105951 -0.013644428 1.2560337 0.43137357
000300 a8 8c 3c bf 77 58 be bb 8d d1 69 be eb 2e 1b 3f
       -0.73652124 -0.0058088857 -0.22833844 0.60618466
000310 91 23 41 3f 97 30 88 3f 03 1d a4 be 9d 90 81 bf
       0.75444895 1.0639828 -0.32053384 -1.0122257
000320 63 60 bd 3f fd e2 b7 3f b1 27 7b 3e 3d f5 3d bf
       1.479504 1.4366146 0.2452686 -0.7420233
000330 8c 86 1a 3f c7 4e cd bf 94 9b 32 bf 17 56 8e bf
       0.6036155 -1.6039666 -0.69768643 -1.1120023
000340 c9 3b c5 bf 88 78 7d bf f3 80 f3 3e 84 f5 60 3b
       -1.540887 -0.9901204 0.47559318 0.0034326026
000350 7b e6 9d be a0 ac 17 3f f3 b4 1a 3f 87 68 b2 3e
       -0.30839905 0.5924778 0.60432357 0.34845373
000360 9d 25 07 3f 7b c7 00 bf 3a 01 c9 bc 34 71 88 3e
       0.5279177 -0.50304383 -0.024536718 0.26648867
000370 2d b0 8a bf a5 70 9b 3e 2b 0f 4d bf 98 4c e1 3e
       -1.0835015 0.30359378 -0.8010127 0.4400375
000380 76 ed c3 bd 62 71 76 be 5a c2 95 bf a7 89 41 3f
       -0.095667765 -0.2406669 -1.1699936 0.75600666
000390 0b 9f 8f 3f 67 43 18 3f 25 86 39 3f 2e 0b a9 3e
       1.1220411 0.5947785 0.72470313 0.33016342
0003a0 cc fb 39 3f 8e 92 3b bf ae 3b cf be ab 0f 7a 3d
       0.72649837 -0.732705 -0.4047522 0.0610501
0003b0 2a 93 50 3f a1 3e 81 3f 0f 8d ca 3f 65 88 e3 3e
       0.81474555 1.0097238 1.5824298 0.44439998
0003c0 c4 d8 94 3c 94 d9 40 3e 33 68 68 3f 68 8d 5a 3f
       0.018169768 0.18833 0.90783995 0.8537202
0003d0 5a a0 6d 3f 61 a7 41 bf 54 57 08 bf bf 81 12 bf
       0.928228 -0.75646025 -0.5325825 -0.57229227
0003e0 84 df 8a 3f 6b 79 fe be e4 ab ca be 58 fe 94 bf
       1.0849462 -0.4970201 -0.39584267 -1.164012
0003f0 ac 76 9d 3e 60 97 43 3e 7d e1 4c 3f f0 5a 8b 3f
       0.30754602 0.19100714 0.8003157 1.0887127

weight f4 [32]
000000 c2 2e 1a 3f 57 6c be 3f aa 25 2d 3f 56 fc ab 3f
       0.60227597 1.4876813 0.67635596 1.3436382
000010 66 5d 32 3f 3a 7b 1b 3f bd 3e 7f 3f f7 27 83 3f
       0.69673765 0.60734904 0.99705106 1.0246571
000020 71 09 7b 3f 73 98 a4 3f c5 be 00 3f c0 af c8 3f
       0.9806128 1.2859024 0.5029109 1.5678635
000030 f7 8b a3 3f 22 da c3 3e f3 d7 91 3e d6 17 ae 3f
       1.2777089 0.3825236 0.2848507 1.3601024
000040 12 c2 7f 3f e1 9c b1 3f 3f 83 65 3f 17 b3 8d 3f
       0.999055 1.3876001 0.8965339 1.1070279
000050 56 28 83 3f f3 20 49 3f 48 b9 a4 3f 1f 0f 9c 3f
       1.0246685 0.785659 1.2869043 1.2192115
000060 88 ca 7a 3f 3e 06 86 3e fe 24 d4 3e 68 61 58 3f
       0.9796529 0.26176637 0.41434473 0.8452363
000070 f4 5a 67 3f 28 73 ed 3e 0e 07 77 3f b4 58 05 40
       0.9037316 0.4637692 0.9649514 2.083539

bias f4 [32]
000000 6e 3f a9 be 96 f4 58 be 88 b2 a6 3e a2 00 c6 bc
       -0.33056206 -0.21187052 0.32558084 -0.024170224
000010 43 29 0d 3e b0 5f 40 be 0b 07 2e 3e 92 fa a0 be
       0.13785271 -0.18786502 0.16994874 -0.3144117
000020 59 5a bc be 3b a6 ca be 39 74 00 3d 11 4e 7d 3e
       -0.3678768 -0.3957995 0.03136084 0.24736811
000030 87 2f 58 bf 1b 53 70 bd cf fd 8d be 22 50 04 be
       -0.8444752 -0.058673006 -0.27732703 -0.12921193
000040 88 08 83 bd 12 cd 28 be 43 d6 1f bd 77 e9 c3 3e
       -0.063981116 -0.16484478 -0.039022695 0.38264057
000050 c9 1e 84 be 50 25 be be 16 2a a0 be bb f5 9f 3c
       -0.25804737 -0.37137842 -0.3128211 0.019526353
000060 8e 35 5c 3e 95 b0 08 3f 37 38 ef be 78 8d 06 3f
       0.21504804 0.5339444 -0.46722576 0.52559614
000070 2f 5e ab 3e 13 90 14 bf b5 5d 30 bf 9c 28 9e be
       0.33470294 -0.5803234 -0.68892986 -0.30890357

running_mean f4 [32]
000000 8f 68 82 3e d6 8d 0f bf 5b 15 63 be 94 bb 9c bf
       0.25470397 -0.560758 -0.22176115 -1.2244744
000010 5a 37 3e c0 f4 b8 b0 bd d9 55 3c 40 46 a5 95 3e
       -2.9721284 -0.08629027 2.9427397 0.29227656
000020 b4 52 f8 bd 90 13 5e 3f f3 f4 91 3f dc 6e a3 bf
       -0.12125149 0.867486 1.1402878 -1.2768207
000030 7e 78 77 bf eb ec cb be 9c a6 fe be 64 60 c8 bf
       -0.9666823 -0.39829192 -0.49736488 -1.5654416
000040 49 89 26 bf e3 25 a5 bf 20 88 e4 3f 1a e4 ab bf
       -0.6505323 -1.2902187 1.7854042 -1.3428986
000050 32 b4 2c 3d ea 05 f7 bd 31 37 cf bf cb 0d a2 3d
       0.042164035 -0.12061675 -1.6188718 0.07912787
000060 bf bd 19 40 1f 7d 93 3e 3e c9 49 3e 0d f9 84 3f
       2.4022062 0.28806397 0.19705674 1.0388504
000070 ec 9b a7 3e 46 e5 27 3f ce a3 25 bd 35 8a cf 3e
       0.32736146 0.6558422 -0.04043942 0.4053513

running_var f4 [32]
000000 6e 11 6c 41 52 db fa 40 ed 1c 3a 41 30 47 32 41
       14.754255 7.8392725 11.632062 11.14238
000010 4c 04 2a 41 14 e3 b4 40 44 e6 2f 41 b6 df a5 40
       10.626049 5.6527195 10.993717 5.1835585
000020 85 65 10 41 b8 26 d3 40 f5 82 73 40 12 49 c7 40
       9.024785 6.5984764 3.804868 6.2276697
000030 5d f5 76 41 93 97 cf 40 0d ba 1c 41 6e 4b 3e 41
       15.434903 6.4872527 9.795423 11.893415
000040 bf ed 35 40 3a 9e 1a 41 e2 ca 24 41 8f d7 c7 40
       2.8426359 9.66363 10.299532 6.2450633
000050 88 75 db 40 1c de 45 40 45 b7 28 41 5d 74 be 40
       6.858097 3.0916815 10.544744 5.9517045
000060 3f 67 ea 40 1b d4 df 40 c6 85 9a 41 c2 3d be 40
       7.3251033 6.994642 19.31532 5.945039
000070 fd 07 09 41 b7 af d4 40 8c d1 eb 40 e1 75 fe 40
       8.56445 6.6464496 7.3693295 7.9518895

weight f4 [32, 16]
000000 51 6d 3e 3d 32 77 4a 3e d6 70 43 bf bb 2b 5a 3e
       0.04649097 0.19772032 -0.7634405 0.21305744
000010 01 d9 36 3f 52 5a ac bd 81 d2 97 bd 5d ed 25 3f
       0.7142487 -0.08415665 -0.07413197 0.6481531
000020 99 49 bd be ad af af 3e 5b 0a 5d bf ea 11 b9 3f
       -0.36970213 0.34313717 -0.86343926 1.4458592
000030 75 80 f2 be 68 e6 b9 3d 2d 18 69 3d a1 ec 86 3e
       -0.4736363 0.0907715 0.05690782 0.2635241
000040 6e 77 06 bd cd 9f 04 bf 90 4a 8f be db e6 11 3c
       -0.03282874 -0.51806337 -0.27986574 0.008905138
000050 aa ef f6 bd 02 e2 ff be 25 25 1c bf 06 1c 55 bf
       -0.12057431 -0.49977118 -0.6099418 -0.83245885
000060 8e 98 6a 3e 4c 10 34 bf 90 b5 63 bf 7e 33 9b bf
       0.22909757 -0.7033737 -0.8894892 -1.2125089
000070 9e ab 65 3e 55 29 4c bf 93 ec dc 3e f9 9f 70 bf
       0.22428748 -0.7975057 0.43149242 -0.939941
000080 de b2 ec be fe 5b 38 be ec 45 e2 3d 51 52 c5 3e
       -0.46230215 -0.18003842 0.11048493 0.38539365
000090 56 be 6e be a1 07 cd 3e cf cd 26 bf 17 74 f8 be
       -0.23314795 0.40044883 -0.6515779 -0.4852607
0000a0 35 f1 47 bc 38 19 8d 3e 64 b1 93 be e9 38 74 3e
       -0.012203504 0.27558303 -0.28846276 0.23849835
0000b0 84 df 08 3f 2b 42 55 3f 9b 36 88 be fd 04 ac bd
       0.5346606 0.8330409 -0.2660416 -0.08399389
0000c0 73 73 98 be b3 a7 9a bf f8 e7 75 3e 54 f2 3e bf
       -0.2977558 -1.2082428 0.2401427 -0.74588513
0000d0 9b 7d 1c 3e 82 16 aa 3f df dd 26 3e cc 83 31 bf
       0.1528229 1.3288119 0.16295575 -0.6934173
0000e0 f9 9a 3d 3f 2c 60 01 c0 37 11 0f bf 3c 24 4d 3d
       0.74064595 -2.0214949 -0.5588564 0.050083384
0000f0 8a f5 7b bf aa 41 5a bf 00 d7 b8 3f e7 dd 13 3f
       -0.9842154 -0.85256445 1.4440613 0.5776047
000100 b5 b2 4f be cd ac 79 3f 2a 41 98 3f 14 c2 37 3f
       -0.20283015 0.975293 1.1894886 0.71780515
000110 23 5f 6c bf 70 24 07 3e 42 18 40 bf ea 38 b4 3f
       -0.9233267 0.13197494 -0.75037014 1.4079869
000120 50 ab cc bd c1 3c 56 3d 10 92 39 3f b6 a4 aa 3c
       -0.09993613 0.052304033 0.724885 0.020830493
000130 11 3b f6 bd f9 d3 83 bf fd 06 a9 3e 3c 74 ec be
       -0.12022985 -1.0299064 0.33013144 -0.4618243
000140 51 5c 95 3e 42 ce b3 3e d0 2b da 3f 9c 54 22 bf
       0.29171994 0.351183 1.704462 -0.63410354
000150 27 11 9a be 49 c9 ee 3c ff d9 c4 be a9 47 33 3f
       -0.3009121 0.029148715 -0.38447568 0.7003122
000160 a1 50 2a bf a8 c3 64 3f e2 56 a8 3e 15 8c 7f bf
       -0.6652928 0.8936105 0.32878786 -0.99823123
000170 69 7a 41 3f 80 d8 ff 3f 43 fd 8d be c4 56 51 3f
       0.7557741 1.9987946 -0.27732286 0.8177302
000180 35 04 7f bf 24 40 2c 3f e5 99 20 bf 09 4c 05 3c
       -0.99615794 0.6728537 -0.62734824 0.008135804
000190 fa f9 19 3f 40 29 29 3f ea a4 8c 3e e4 cb f7 3f
       0.6014706 0.6607857 0.2746957 1.9359097
0001a0 7c e7 b4 3f d1 37 c9 be 2a 0c 17 3e a0 6b ca bf
       1.4133143 -0.39300397 0.14750734 -1.5814095
0001b0 be 9d 4f bf 8e 1b 2f 3f 61 e4 f3 3e 86 e2 8a 3d
       -0.8110007 0.6840142 0.47635177 0.06781487
0001c0 c6 fd 14 3f 72 85 bb 3f 30 7b 8d 3e fd 26 0a 3f
       0.5819973 1.4650099 0.27633047 0.5396574
0001d0 12 27 95 be 9a 1d 7b bf 95 7a c6 be 0f 5c 7d be
       -0.2913137 -0.98092043 -0.38765398 -0.24742149
0001e0 e7 83 a3 3f 18 57 37 bf a8 72 0d 3f 58 e8 6a 3d
       1.2774628 -0.7161727 0.55253077 0.057350487
0001f0 fa bf 63 3f d2 bb 35 bf 77 b6 68 bf 1e 51 2a bf
       0.8896481 -0.70989716 -0.9090342 -0.66530025
000200 57 eb e6 3e 3f df d9 be 83 7a b0 be 47 71 11 bf
       0.45101425 -0.42553136 -0.3446847 -0.5681347
000210 b7 8e 5a bf 1a 00 98 be c2 a0 3b 3f 9d 19 1d 3d
       -0.85374016 -0.29687577 0.7329217 0.038354505
000220 f2 be 0c be f1 01 23 3f 27 dd 68 3f b4 15 6b 3e
       -0.13744715 0.6367484 0.9096245 0.22957498
000230 96 7b 46 be 33 25 87 bf 76 d9 77 3d 49 6f 22 bf
       -0.19383082 -1.0558227 0.06051012 -0.6345106
000240 71 b9 d6 3d 08 79 61 bd af 99 0f bf 63 fc c4 3e
       0.10484589 -0.055047065 -0.5609388 0.38473806
000250 f0 cc 62 3f a7 ef be 3d 9e 9b b8 3e b8 a8 11 40
       0.8859396 0.09323054 0.36056226 2.2759228
000260 44 2b 18 bf 1b 83 22 3f 01 1f 96 bf 39 34 b4 be
       -0.5944102 0.634813 -1.1728212 -0.35196093
000270 fc 63 85 bf 26 06 11 3f d2 7f 93 be ff da b7 3e
       -1.0421138 0.56650007 -0.28808457 0.35909268
000280 7d d6 34 3e 6e 98 52 3e 3b d1 fc 3b 1c ab f3 be
       0.17659946 0.2056596 0.007715372 -0.47591484
000290 1e 3f 35 3e f6 2c 4a be 3f 96 4e bf 7f 6e 72 be
       0.17699859 -0.19743714 -0.8069801 -0.23674963
0002a0 30 7a e0 3e 91 ff c4 bf 02 2b 71 3e 91 d1 34 3f
       0.43843222 -1.5390493 0.23551562 0.7063227
0002b0 a2 26 0c bf 91 e5 f6 3e 6b 43 64 3f da ea ab 3e
       -0.5474645 0.4822202 0.8916537 0.33577615
0002c0 37 c7 70 3d 8f 25 fb 3e de 1f 4e bf 7d 3d 06 c0
       0.058783736 0.49052092 -0.80517375 -2.097503
0002d0 de c2 a2 bc 9f e0 6c be 22 75 de 3e bc 67 9f bf
       -0.01986831 -0.23132561 0.4344874 -1.2453532
0002e0 8c 9a 59 3e 7c 0e 81 3f 24 9a e1 3e 0f ee d6 3e
       0.21250361 1.0082545 0.44062912 0.419785
0002f0 a5 d0 4b 3f a8 97 40 bf 8f ae 7c 3e 21 89 29 bf
       0.7961524 -0.7523141 0.24675964 -0.6622487
000300 39 9f 0f c0 33 b1 81 3f cb 7c 85 be 03 02 0e 3f
       -2.2440932 1.0132202 -0.26071772 0.5547182
000310 2b fa 0e 3e 50 86 b7 bd a3 c1 ab bf 47 14 bf 3f
       0.13962619 -0.08961165 -1.3418468 1.4928063
000320 6a da b1 be 2a a6 98 3f cd 39 d3 be ae ee ec bd
       -0.3473695 1.1925709 -0.41255036 -0.11568962
000330 1c c8 52 bb 94 df c6 be 1f 93 55 be e1 e7 08 3e
       -0.0032162732 -0.38842452 -0.20856903 0.13369705
000340 fd f2 07 be eb c9 49 3f c0 d1 02 bf bd 5e 13 bf
       -0.13276286 0.7882373 -0.51101303 -0.57566434
000350 a4 7f 9f bd 83 40 4b bf 32 22 9f 3c ab a0 86 bf
       -0.077880174 -0.7939531 0.019425485 -1.0517782
000360 51 f2 e1 3e 2e b3 98 bf c3 2a 3b be 3c 2b 7c be
       0.44130185 -1.1929681 -0.18278031 -0.24625868
000370 95 bc 9b bb a8 65 e6 bf 41 8d 8d be f6 57 d2 be
       -0.0047527053 -1.7999773 -0.2764683 -0.41082734
000380 c5 74 84 bf 16 14 d0 3f de d8 6d 3d 0f dc 16 3f
       -1.0348135 1.625613 0.05806815 0.5892953
000390 09 8c 0b be 4c e8 1e bf 23 24 62 bf d3 07 43 3c
       -0.13627638 -0.62073207 -0.8833639 0.011903721
0003a0 63 d0 2c bf 22 a9 e0 3d 19 20 78 3d 6e aa 46 3e
       -0.6750547 0.109697595 0.060577486 0.19400951
0003b0 e8 d0 e9 bf 7c fb 03 be b9 ef 55 be 35 d7 1b 3f
       -1.8266878 -0.12888902 -0.20892228 0.60875255
0003c0 cc 92 66 3d 84 fa 87 3e e7 68 4a bf f7 37 41 bf
       0.05629234 0.26558316 -0.7906632 -0.7547602
0003d0 ac d0 3c 3f e8 d6 2b 40 8e d2 6e bd 56 77 04 3e
       0.7375591 2.6849918 -0.05830627 0.12936148
0003e0 a8 c6 b9 3e a1 58 8b 3e c4 0e fa be d8 98 c8 be
       0.36284375 0.27216056 -0.4883939 -0.3917911
0003f0 91 6b 66 3f 56 61 9e bf aa 70 8a 3e ce b6 fa bd
       0.90007883 -1.2373455 0.2703908 -0.122418985

weight f4 [32]
000000 00 00 80 3f 00 00 80 3f 00 00 80 3f 00 00 80 3f
       1.0 1.0 1.0 1.0
000010 00 00 80 3f 00 00 80 3f 00 00 80 3f 00 00 80 3f
       1.0 1.0 1.0 1.0
000020 3d 0f 51 3f db 11 47 3f e9 63 c6 3e dc fe 8f 3f
       0.81663877 0.7776162 0.387481 1.1249652
000030 42 d6 d8 3f bf 6b 18 3f d7 bc 98 3f 3b 24 b2 3f
       1.6940386 0.5953941 1.1932629 1.3917307
000040 00 00 80 3f 00 00 80 3f 00 00 80 3f 00 00 80 3f
       1.0 1.0 1.0 1.0
000050 00 00 80 3f 00 00 80 3f 00 00 80 3f 00 00 80 3f
       1.0 1.0 1.0 1.0
000060 44 db b0 3f c8 5a 2f 3f da 40 3a 3f 97 dd 96 3f
       1.3816915 0.68497896 0.72755206 1.1786374
000070 fb 39 96 3f ee f7 b8 3e 8d d8 3a 3f ec a2 d6 3f
       1.1736444 0.36126655 0.7298668 1.676847

bias f4 [32]
000000 00 00 00 00 00 00 00 00 00 00 00 00 00 00 00 00
       0.0 0.0 0.0 0.0
000010 00 00 00 00 00 00 00 00 00 00 00 00 00 00 00 00
       0.0 0.0 0.0 0.0
000020 59 eb 2d 3e cb 8d 0f 3f b1 39 bb be 24 a4 17 be
       0.1698431 0.56075734 -0.36567453 -0.14808708
000030 d0 67 51 be 10 18 1a 3e 14 b3 14 bf 3c 99 3d bd
       -0.20449758 0.15048242 -0.5808575 -0.046288714
000040 00 00 00 00 00 00 00 00 00 00 00 00 00 00 00 00
       0.0 0.0 0.0 0.0
000050 00 00 00 00 00 00 00 00 00 00 00 00 00 00 00 00
       0.0 0.0 0.0 0.0
000060 ab b9 26 bf a6 a5 41 bd b5 b0 9d be da 11 fc bd
       -0.65127057 -0.047277115 -0.3079888 -0.123080924
000070 41 13 76 3f 29 96 a7 be e5 e2 fc 3d 01 3f 34 be
       0.9612313 -0.3273175 0.12347964 -0.17602159

running_mean f4 [32]
000000 b7 d2 1e 3f 0e c7 91 be d8 e5 31 bd ee 56 7d bf
       0.62040275 -0.2847218 -0.043432087 -0.9896077
000010 02 60 95 bd c4 3b 58 bf 6f 85 6b bf 3c 24 7c 3e
       -0.07293703 -0.84466195 -0.9200048 0.24623197
000020 cf 33 d3 3e 3d 25 2f 3f 02 1b 2f 3b e5 2b 91 bf
       0.41250464 0.68416196 0.0026718979 -1.134152
000030 9f 6f 4c bf e4 be cb bd 37 2c 6c 3f 9c ae c8 bf
       -0.7985782 -0.09948519 0.92254966 -1.5678287
000040 e3 7d 91 bf 83 14 4b 3f bc c5 0e 3f d6 8e 09 bf
       -1.1366543 0.79328173 0.5577047 -0.53733575
000050 2b 4a 15 bf 0f 34 46 be e9 e0 54 3f a1 c2 c6 be
       -0.58316296 -0.19355796 0.83155686 -0.38820365
000060 0e 3c 2f 3f 1c 63 a7 3f 2b 1d 17 3e b3 f5 71 bf
       0.6845101 1.3077121 0.1475722 -0.9451553
000070 66 b7 71 bf 41 42 78 be a4 3c 10 bd 56 4b 8b 3e
       -0.9442047 -0.24244024 -0.03521408 0.27205914

running_var f4 [32]
000000 57 c7 9f 3f 41 bd a3 3f df aa 36 3f e8 b2 1f 41
       1.2482709 1.2792131 0.7135448 9.981178
000010 5f 01 d1 3f c1 b0 d2 40 e5 34 3f 41 9f 6b c9 40
       1.6328543 6.5840764 11.950414 6.2943873
000020 6f 69 52 41 8b 91 5f 41 f0 50 52 41 67 28 87 41
       13.150741 13.973033 13.14476 16.894728
000030 8d 2c cc 41 03 3b cc 40 82 1d 05 41 43 34 50 41
       25.521753 6.3822036 8.319704 13.012759
000040 f3 72 e0 3f de 26 8c 41 11 92 c2 3f 95 38 73 40
       1.753508 17.518978 1.5200826 3.8003285
000050 61 50 3c 40 64 04 f3 40 4e 1d cd 40 5f a5 d7 3f
       2.942406 7.594286 6.409827 1.6847342
000060 d7 40 26 41 d3 eb 3c 41 b7 f7 28 41 3b 60 f4 40
       10.39083 11.807574 10.560477 7.636747
000070 e6 4f 9c 40 60 23 76 41 e7 b9 37 41 65 57 a0 41
       4.884753 15.383636 11.482886 20.042673

weight f4 [32]
000000 dd b8 64 3f ae 7c b5 3f ac e7 c4 3f cf 57 98 3f
       0.8934458 1.4178674 1.5383201 1.1901797
000010 3b 51 a3 3f ff 2e 58 3f ae 8b 2f 3f d0 59 c8 3f
       1.2759165 0.8444671 0.6857251 1.5652409
000020 c8 3c 35 3f b5 83 68 3f 28 93 9a 3f ea e2 94 3f
       0.7079587 0.9082597 1.2076159 1.1631749
000030 9a 8a ca 3f 27 55 75 3f 9a 1e 1c 3f d2 b1 a0 3f
       1.5823548 0.9583306 0.60984194 1.2554266
000040 0f f2 4b 3f ab cd c2 3f d6 bd ec 3f 17 ac b4 3f
       0.7966623 1.5219015 1.8495433 1.4115018
000050 a1 82 b0 3f 1d 5a 77 3f 80 c5 ba 3f 8a 4d 92 3f
       1.3789865 0.96621877 1.4591522 1.1429913
000060 29 b0 7b 3f 08 e9 70 3f f5 63 97 3f a0 69 7e 3e
       0.98315674 0.9410558 1.182738 0.2484498
000070 3a 36 76 3f 19 58 d5 3e 8e af 9c 3f 1b 11 43 3f
       0.96176493 0.41668776 1.2241075 0.76197976

bias f4 [32]
000000 0b 75 3c 3d ab e3 40 be d5 9e 36 bf 20 37 5b 3f
       0.04601006 -0.18836848 -0.7133611 0.8563099
000010 1f c0 ec be 08 f7 16 3f 2e 44 34 bf 06 4f a2 3e
       -0.46240327 0.5897069 -0.70416534 0.31700915
000020 d8 a3 91 3e 98 d2 c1 3e e2 bd fb bd 47 11 8a 3d
       0.28445315 0.37855983 -0.12292077 0.06741577
000030 d5 74 d1 be e0 90 72 3e ff 97 f3 bc c3 a9 0d bf
       -0.40909448 0.23688078 -0.029735563 -0.5533716
000040 aa 7d f7 3c 17 a2 da be 31 16 6d 3f 30 58 eb 3e
       0.030211288 -0.4270179 0.92611986 0.4596572
000050 38 61 79 3c 39 50 d6 3d 1d 15 29 be 57 28 09 3f
       0.015220933 0.1046452 -0.1651196 0.5357718
000060 03 06 1c ba f2 5d 9d be 65 b0 01 3f 8c 9a 08 3f
       -0.00059518236 -0.30735737 0.5065978 0.5336082
000070 2c 9e 40 3f 6e ac 37 3e cf de 1d bf e9 89 f3 3e
       0.7524135 0.1793687 -0.61668104 0.47566155

running_mean f4 [32]
000000 ab 67 3d be 19 de cb be c9 e5 d2 be 9f 79 79 3d
       -0.18496577 -0.39817885 -0.41190937 0.060907003
000010 00 6c 29 3f 0a d3 6a be 50 e5 da be 65 c0 b5 3e
       0.6618042 -0.22932068 -0.42753077 0.35498348
000020 c3 70 88 3e e8 7c 9a 3e 1b 69 8a be 5f 2b 49 bd
       0.2664853 0.3017342 -0.27033314 -0.049113628
000030 5d dc 99 3d 89 9d f9 bd 15 40 cd 3d 25 28 74 3e
       0.07512734 -0.121882506 0.10021988 0.23843439
000040 e9 59 fe be 16 d4 93 bd 6f 5e cb be 3b a9 20 3e
       -0.4967797 -0.072181866 -0.39720485 0.15689556
000050 87 ee 2c bd c8 b5 c5 be 24 9d 9a 3e 1c 12 d2 3e
       -0.042219665 -0.3861525 0.30198014 0.4102944
000060 93 16 27 3d 0e ee 8a 3e 85 10 72 bd 9e cd 14 bf
       0.040793013 0.27134746 -0.059097786 -0.58126247
000070 61 9c 45 be ff f3 f1 3d 20 52 87 be aa 05 09 be
       -0.19297935 0.11814117 -0.26429844 -0.13381067

running_var f4 [32]
000000 f5 d1 0f 3f 97 f9 06 40 e2 3d a6 3f a5 88 2f 3f
       0.56179744 2.1089838 1.2987635 0.6856788
000010 b5 6f 07 40 f8 65 f1 3e 7b 1d 88 3f a0 cb 90 3f
       2.116193 0.47148108 1.0633997 1.1312141
000020 14 01 40 3f 9f fd c2 3e a0 9e a8 3e 6d 10 41 3f
       0.75001645 0.38084123 0.3293352 0.7541569
000030 e6 08 7d 3f 96 72 95 3f 59 0e 97 3f b7 9e 41 3f
       0.988417 1.1675594 1.1801254 0.75632805
000040 e7 b1 4b 3f d8 e6 89 3f 2b 54 d2 3e 15 49 01 3f
       0.7956833 1.0773573 0.4107984 0.5050214
000050 65 6e 35 3f 85 2c 20 3f 68 93 c6 3f 77 36 81 3f
       0.70871574 0.6256793 1.5513735 1.0094746
000060 2d 19 f3 3e b3 ff 51 3f cd df c0 3e f1 e2 9c 3f
       0.47480145 0.8203079 0.37670746 1.2256757
000070 95 84 00 40 c3 31 31 3f 2e 4f 53 3e 42 d0 08 3f
       2.0080922 0.69216555 0.20635673 0.53442776

weight f4 [32]
000000 19 0c bd 3e 49 4f ad 3f d8 31 22 3f 82 7f b2 3f
       0.36923292 1.3539821 0.63357306 1.3945162
000010 82 50 3a 3f 54 79 d9 bd 74 8d 28 3f 8d ca c3 3f
       0.72779095 -0.10618845 0.6584084 1.5296189
000020 a5 52 c8 3f d4 72 80 3f 61 9b 80 3f 6e 23 c0 3f
       1.5650221 1.0035043 1.0047418 1.5010812
000030 a8 d1 59 3f 92 f6 a8 3f 4b 44 8d 3f 0f a4 8f 3f
       0.85085535 1.3200247 1.1036466 1.1221942
000040 0c e1 86 be f1 9a 69 3f a7 d8 78 3f 3f 74 bc 3f
       -0.26343572 0.91252047 0.97205585 1.4722975
000050 60 c0 52 3f 51 42 42 3f 77 68 a3 3f 6f 5c 72 3f
       0.8232479 0.7588244 1.2766255 0.9467229
000060 e2 c2 84 3f 7a 79 86 3f 29 c3 94 3f d9 7f 83 3f
       1.0371974 1.0505822 1.1622058 1.0273391
000070 fc ff 2c 3f 57 4a 36 40 41 a2 c1 3f 68 87 50 3f
       0.675781 2.8482873 1.5127641 0.81456614

bias f4 [32]
000000 a0 37 c5 3e 3a e8 94 bf 19 90 8b be a2 88 65 3f
       0.38519 -1.163337 -0.27258375 0.8966161
000010 33 df 25 bf d5 89 64 3f 26 ba 59 bf aa 9c 9a 3d
       -0.647937 0.89272815 -0.85049665 0.075494125
000020 51 97 2f bf ce 96 2e be 8c e2 7b be e4 62 69 3e
       -0.68590266 -0.17049715 -0.2459814 0.2279163
000030 9f 11 6a be 30 d5 14 3f 2c 4e e9 be d1 fd 0d bf
       -0.22858284 0.581378 -0.45567453 -0.5546542
000040 c2 7f f9 be ad 54 10 3f 59 5e f0 be 87 f8 64 3f
       -0.48730284 0.56379205 -0.46946982 0.8944172
000050 bb 95 8d be 0b 89 10 bf 9f 78 fc bd f0 48 fa 3e
       -0.27653298 -0.5645911 -0.12327694 0.48883772
000060 d4 67 d0 3e ed c5 88 3d 58 a4 16 bf bb d2 39 3e
       0.40704215 0.06678376 -0.5884452 0.18146794
000070 91 bd 58 3b e7 6f 4f be 06 66 2c 3e 74 76 88 3e
       0.0033071975 -0.20257531 0.16835794 0.26652873

running_mean f4 [32]
000000 58 d4 13 c0 85 97 0e 3f 10 23 eb bf 65 99 29 3f
       -2.3098354 0.5569995 -1.8370075 0.66249686
000010 74 10 95 be 9c f1 91 3f a8 07 d3 3e 06 3f 37 3f
       -0.29114115 1.1401858 0.4121678 0.7158054
000020 44 fb 1b 3f e9 58 ac 3f 28 5e 2d bf 7e 2f a6 3f
       0.60930276 1.3464633 -0.67721796 1.2983243
000030 60 38 94 bf 8d f1 7b 3e d2 c0 51 bf 40 cc 86 be
       -1.1579704 0.24603863 -0.81934845 -0.26327705
000040 76 53 c6 bf cc 7e 30 bf 8f e6 f9 3f 14 e7 01 3f
       -1.549422 -0.68943477 1.9523486 0.5074322
000050 f1 ea 47 bf 31 a4 8c bf 39 1a 1c bf b1 21 97 bf
       -0.7809287 -1.0987607 -0.6097751 -1.1807157
000060 19 ac c9 be 12 c9 25 c0 7f eb aa 3f b0 87 ef bf
       -0.39389113 -2.5903974 1.3353118 -1.8713284
000070 63 a3 25 3f e2 0e 10 bf 6f c5 d9 be 86 ff 87 bf
       0.64702433 -0.5627271 -0.42533442 -1.0624855

running_var f4 [32]
000000 0b 4f 2a 41 d0 aa 29 41 f0 3b b6 41 59 99 fc 40
       10.644298 10.604202 22.779266 7.893719
000010 45 7a ce 40 81 03 14 40 d8 81 20 41 63 f5 10 41
       6.4524255 2.3127139 10.0317 9.059909
000020 ff 49 8e 41 1a f9 43 41 9d dc d5 40 03 74 69 41
       17.78613 12.248316 6.6831803 14.590823
000030 e8 73 0e 41 19 68 af 41 1f 53 25 41 08 fb 6d 41
       8.903297 21.925829 10.332793 14.873787
000040 e7 3a be 40 28 41 04 41 6c c9 3c 41 34 ff 19 41
       5.94469 8.265907 11.799175 9.624805
000050 38 bb 8b 40 ee d0 17 41 61 4e da 3f 40 0b 16 41
       4.366604 9.488508 1.7055169 9.377747
000060 90 66 f0 40 a2 75 54 41 0a ba c0 40 ea 8f b4 40
       7.51252 13.278719 6.02271 5.6425676
000070 a0 c0 89 41 55 24 a7 40 e9 fa 48 41 63 68 9d 40
       17.219055 5.223185 12.561257 4.9189925
