04_Experiments/2022_08_01 18-38-17 100_runs_train_val_split_custom_loss/models/Model_run82_train_val_split0.5_alcalinity_of_ash.pt (torch, 270433 bytes, 318 tensors)

weight f4 [12]
000000 00 00 80 3f 00 00 80 3f 00 00 80 3f 00 00 80 3f
       1.0 1.0 1.0 1.0
000010 00 00 80 3f 00 00 80 3f 00 00 80 3f 00 00 80 3f
       1.0 1.0 1.0 1.0
000020 00 00 80 3f 00 00 80 3f 00 00 80 3f 00 00 80 3f
       1.0 1.0 1.0 1.0

bias f4 [12]
000000 00 00 00 00 00 00 00 00 00 00 00 00 00 00 00 00
       0.0 0.0 0.0 0.0
000010 00 00 00 00 00 00 00 00 00 00 00 00 00 00 00 00
       0.0 0.0 0.0 0.0
000020 00 00 00 00 00 00 00 00 00 00 00 00 00 00 00 00
       0.0 0.0 0.0 0.0

running_mean f4 [12]
000000 00 00 00 00 00 00 00 00 00 00 00 00 00 00 00 00
       0.0 0.0 0.0 0.0
000010 00 00 00 00 00 00 00 00 00 00 00 00 00 00 00 00
       0.0 0.0 0.0 0.0
000020 00 00 00 00 00 00 00 00 00 00 00 00 00 00 00 00
       0.0 0.0 0.0 0.0

running_var f4 [12]
000000 00 00 80 3f 00 00 80 3f 00 00 80 3f 00 00 80 3f
       1.0 1.0 1.0 1.0
000010 00 00 80 3f 00 00 80 3f 00 00 80 3f 00 00 80 3f
       1.0 1.0 1.0 1.0
000020 00 00 80 3f 00 00 80 3f 00 00 80 3f 00 00 80 3f
       1.0 1.0 1.0 1.0

weight f4 [12]
000000 b0 35 18 3f 25 14 08 3f 52 ce 6b 3f 29 59 c1 3f
       0.5945692 0.5315574 0.92111695 1.5105335
000010 1f ca a4 3f 73 33 87 3f 26 d9 77 3f e8 9a 0d 3f
       1.2874182 1.0562576 0.9681572 0.55314493
000020 8f 29 d5 3f f4 c1 8b 3f ec 63 5c 3f 3a a7 88 3f
       1.6653308 1.0918565 0.8608997 1.0676033

bias f4 [12]
000000 71 97 94 be cb 40 e8 3e 16 9f e4 3e 97 67 bb be
       -0.2902179 0.45361933 0.44652623 -0.3660247
000010 99 cc cc 3e 26 64 80 3e e7 a2 05 3f 14 78 c2 be
       0.39999846 0.25076407 0.52201694 -0.37982237
000020 fe d1 76 3f 97 0e 10 ba af 8a cc be d0 55 11 be
       0.9641417 -0.0005495338 -0.39949557 -0.14192891

running_mean f4 [12]
000000 01 1a 16 3f d6 f2 5a 40 3f 68 34 3f 5b cc a6 3f
       0.5863343 3.4210715 0.70471567 1.3031114
000010 e3 49 49 43 85 08 bb 3d 18 87 83 3e c1 f0 d7 3e
       201.28862 0.09132484 0.25689006 0.42175868
000020 25 62 0b 3f 81 33 1e 3f 5d ef 1a 3f c4 96 d1 41
       0.5444663 0.6179734 0.6052149 26.198616

running_var f4 [12]
000000 aa 16 8a 3f a1 1d 6b 3f 74 1c 60 3f 51 2f 0c 40
       1.0788167 0.91842085 0.87543416 2.190388
000010 4a ef d8 46 94 52 3e 3f 87 fb 40 3f 8e fe 54 3f
       27767.645 0.74344754 0.753838 0.8320092
000020 04 b6 81 3f ec dd 43 3f 2d 52 57 3f 62 6f 88 42
       1.0133672 0.765105 0.84109765 68.217545

weight f4 [32, 12]
000000 9e a5 bc 3e 96 05 d3 3e 14 b2 63 3f 21 8f bf 3e
       0.36845106 0.412152 0.889436 0.37413886
000010 ca 33 8e bf 48 90 2f 3e fe 58 6c be 7e 28 8a be
       -1.1109555 0.17144883 -0.23080823 -0.26984018
000020 80 4f b7 3e 70 b3 e0 3f 6c d1 6a bf 31 b9 55 be
       0.3580284 1.755476 -0.917258 -0.20871426
000030 e3 ef 0e 3e e7 a3 67 3e 5a 20 ea 3e 93 36 5b 3f
       0.13958697 0.22621118 0.45727807 0.8563015
000040 54 9f eb be f5 b4 43 3c 81 85 19 3f 77 2c 54 3f
       -0.46019995 0.011944999 0.59969336 0.8288035
000050 60 8e 37 3f 41 10 17 3f 8b 32 ac bf a5 34 09 bf
       0.7170162 0.59009176 -1.3452924 -0.53595954
000060 dc 8d ca 3e c5 94 04 3f d9 74 6f bf aa 0f bd 3e
       0.39561355 0.51789504 -0.9353767 0.36926013
000070 ad ee 6f be 40 4a 0a c0 1e 71 a4 be cf 75 a7 3e
       -0.23430891 -2.1607819 -0.32117552 0.32707068
000080 81 6b a1 3e e1 df 89 3f e2 9e 86 3e a9 36 85 bf
       0.3152733 1.0771447 0.26293093 -1.0407306
000090 63 fb 63 3f ae 52 b6 3e 55 cd 36 3f 31 a3 82 bf
       0.8905546 0.35609955 0.7140706 -1.0206052
0000a0 d1 98 bd be cb 5e 93 3e 26 de a9 be 7e f7 e9 3e
       -0.37030652 0.2878326 -0.33177298 0.45696634
0000b0 32 8e 9f 3f 91 93 c7 3f 8a 97 ce 3e 1b 5d 83 bf
       1.246527 1.5591909 0.4034999 -1.0262789
0000c0 59 ef 12 bf ec 41 74 3f 9e f3 45 3f db 13 05 3f
       -0.57396466 0.9541309 0.77324855 0.5198342
0000d0 01 e8 8d 3f 56 d2 cd 3e 24 3d 27 bf b4 99 af 3f
       1.1086427 0.40199536 -0.6532767 1.3718781
0000e0 3d 38 48 3e 46 ff 5d be 77 fb 2e 40 8f 73 bf 3f
       0.19552703 -0.2167941 2.7340982 1.4957141
0000f0 b9 4c 25 bf c5 c6 40 3f 02 c4 b7 be 67 f6 be be
       -0.64570194 0.753033 -0.3589173 -0.37297365
000100 1c 29 95 bf e1 e8 e5 3e 65 60 3d bf da 81 32 be
       -1.165317 0.44904235 -0.7397521 -0.17432347
000110 a2 fb 6f bf 2d ea 07 bf 9d 7a 95 bf 29 4c 8b bf
       -0.93743336 -0.530917 -1.1678044 -1.0882617
000120 b7 3c 3d bf 0e 70 33 bf ce b6 9e 3e 00 66 3a bf
       -0.7392077 -0.70092857 0.30998844 -0.7281189
000130 27 90 bd be 0d 25 6e bf 90 85 95 be 12 98 e2 bd
       -0.37024042 -0.93025285 -0.29203463 -0.11064161
000140 91 2f 3e 3e 64 81 ff bf 4a ac ef be af a2 7c 3f
       0.18572833 -1.9961362 -0.46811134 0.98685735
000150 8a e4 7f bf af cd 2d bf ea 50 9b 3e 09 a0 d2 bf
       -0.999581 -0.67891973 0.3033517 -1.6455089
000160 71 e2 6d 3f b9 6a 9c 3f 27 8c e0 3f 00 73 a3 be
       0.9292365 1.2220069 1.7542771 -0.31923676
000170 b5 b4 60 3f 51 c7 b4 3f ca a2 67 bd 0d 6b b3 3d
       0.8777574 1.4123327 -0.056551732 0.08760653
000180 0a 89 91 3f 2a bd bc be 02 41 c9 3d 7d 1d 89 3f
       1.1369946 -0.3686307 0.098268524 1.0712124
000190 a1 cd 8e be bd 66 91 3e 1c 87 ae bc 12 4b 99 bc
       -0.27891257 0.28398696 -0.02130466 -0.018712554
0001a0 41 cb 82 3f 52 b6 3c 3f 0b 7b 2b 3f a8 b9 27 3f
       1.0218278 0.737157 0.66984624 0.65517664
0001b0 e4 58 9e 3f 29 12 ce 3e b4 f6 1c 3f ab 75 13 bf
       1.2370877 0.4024823 0.6131394 -0.5760142
0001c0 90 c7 e1 3e 3d 5a 3f 3f c8 d8 67 3f 44 5a 8d bf
       0.44097567 0.7474707 0.90565157 -1.1043172
0001d0 35 e4 b5 3e 8a 94 4b be 9c a1 8e 3e 02 d7 27 3f
       0.3552567 -0.19880882 0.27857673 0.6556245
0001e0 66 85 22 bf b8 65 3b be 46 4e d8 3d b8 c9 3e 3f
       -0.634848 -0.18300521 0.105618045 0.7452655
0001f0 ff 8b 38 3f 36 60 81 3d 2a f8 43 be f5 b1 d2 be
       0.7208862 0.06317179 -0.19137636 -0.41151395
000200 94 69 ba bf 16 98 07 bd fc e8 c2 3e 8f 1c b5 3e
       -1.456347 -0.033104025 0.38068378 0.3537335
000210 fa a2 bb 3e 1d 30 04 3e d0 97 fe be a4 56 01 bd
       0.3664778 0.12908979 -0.497252 -0.031576768
000220 58 a3 cf 3f 62 1f 32 bf 1c 20 3a be 29 a4 d2 be
       1.6221724 -0.69579136 -0.18176311 -0.4114087
000230 aa 3f d2 bf 25 a8 91 3d f6 fa 81 3c 8b 69 eb bd
       -1.6425679 0.07112149 0.015866738 -0.1149474
000240 bc 0a c3 be a9 a6 74 3f a8 84 f6 bf eb f6 53 bd
       -0.38094127 0.95566803 -1.9259233 -0.05174915
000250 45 f2 0b bf fb 21 74 bf c4 1a 14 be c9 b7 48 bf
       -0.5466655 -0.9536435 -0.14463335 -0.78405434
000260 9e b7 3a bf 50 2b 09 3f 62 23 79 3e f9 33 d0 3e
       -0.7293643 0.53581715 0.24329904 0.40664652
000270 ea 97 d4 be 85 1a 8d bd c4 c7 8a 3f 70 eb 23 be
       -0.4152215 -0.06889824 1.0842214 -0.16007781
000280 5b f5 4d 3f 1c a1 88 3f 80 ef 5c bf 76 45 81 3e
       0.8045251 1.0674167 -0.8630295 0.25248307
000290 03 82 0e 3f c8 57 eb be b3 b3 49 bf 2d d8 0a 3f
       0.5566713 -0.4596541 -0.78789824 0.5423611
0002a0 18 12 30 3f 46 43 94 bd cb b7 44 3f bb f0 89 bf
       0.6877761 -0.07239394 0.76842946 -1.077659
0002b0 d3 ff c3 bf f0 4b 6d bf 94 f8 a3 bf 2b 3b 03 3f
       -1.5312446 -0.92693996 -1.2810235 0.5126216
0002c0 8e 9a 9d 3e cb 0b a3 3e 59 9f 37 be 7a 24 4e be
       0.30781978 0.31844935 -0.1793188 -0.20131102
0002d0 cf 16 28 3e 7a a7 41 bf f8 2b 3f 3f a8 54 61 3f
       0.16414951 -0.75646174 0.74676466 0.880198
0002e0 94 f5 87 bf 89 0d 90 3f 8c 39 ab 3b 39 d8 6e 3e
       -1.062182 1.1254131 0.005225366 0.2332467
0002f0 8a 9f e6 be 74 26 cc be 98 cc 59 3d 0a 98 80 be
       -0.45043594 -0.39873087 0.05317363 -0.25115997
000300 be 63 cd 3e b3 1b 45 bf a0 31 d5 3e 70 93 a7 3f
       0.4011516 -0.7699539 0.41639423 1.3091869
000310 66 5a a7 bf c3 da a2 bf 01 4b 3d 3e 41 ae 78 3f
       -1.3074462 -1.2723011 0.18485643 0.9714089
000320 fd af d6 3d 1f 86 c3 3f a1 e8 a0 bf f6 dc 4e 3e
       0.10482786 1.5275306 -1.2570993 0.20201477
000330 a5 79 a3 3f 3b e4 9a be 61 89 d4 3e e9 5f d7 be
       1.2771498 -0.3025225 0.41511062 -0.4206536
000340 a7 d5 b4 bd 35 52 90 bf c4 0b dd be 26 14 16 be
       -0.088298135 -1.1275088 -0.4317304 -0.14656124
000350 d9 cf b4 be f8 99 a9 bf 93 ae 1a 3f 4d b0 bb 3e
       -0.35314825 -1.3250113 0.6042263 0.36657944
000360 d5 2f e6 bf c2 26 98 3f dd f6 77 be d6 52 4f 3d
       -1.7983347 1.1886828 -0.24215265 0.050616108
000370 b7 df e2 3d ae 06 16 bf 21 ec 55 bd f7 56 9d bf
       0.110778265 -0.5860394 -0.052227143 -1.2292165
000380 fe c9 42 3f b9 2b 47 3f 1e 7c 44 3f e0 f5 92 3e
       0.76089466 0.7780109 0.7675189 0.28703213
000390 df 7c 20 bf fa ae b9 be 15 b2 cb bd 46 db 17 bf
       -0.6269054 -0.3626631 -0.09946076 -0.5931896
0003a0 54 16 c9 bf 2a aa c2 be ab 70 dc bf 73 55 3f 3f
       -1.5709939 -0.3802045 -1.7221884 0.7473976
0003b0 77 23 0e 40 03 db 66 3f db bf 86 3e 0d 00 a4 3e
       2.2209146 0.90177935 0.2631825 0.3203129
0003c0 1b 62 22 bf 91 57 c3 3d 97 6f 95 3e d1 23 7c 3e
       -0.6343095 0.09538186 0.291867 0.24623038
0003d0 4a 8c 31 3d 33 88 51 3e e7 78 1a 3f fb 7f e2 be
       0.04334668 0.20462112 0.6034073 -0.44238266
0003e0 be d8 14 bf 4a 11 bf bd a0 8d dc be 49 05 f6 bf
       -0.5814322 -0.093294695 -0.430768 -1.9220363
0003f0 00 a9 fc be a9 f3 9a 3d 10 6d fe 3e c6 38 87 be
       -0.49347687 0.07566006 0.49692583 -0.26410502

weight f4 [32, 16]
000000 9e c4 29 bd dd f2 db 3f 71 49 0e 3f 95 3c 02 bf
       -0.041447274 1.7183491 0.5558081 -0.5087369
000010 20 e4 86 bf 80 05 0c 3f ad 64 11 3f f5 c9 bf 3e
       -1.0538368 0.5469589 0.56794244 0.37458768
000020 2b 65 fd be ac 5a ad be f7 5d 1b 3f 89 0d ef bd
       -0.49491248 -0.3385824 0.60690254 -0.116725035
000030 d6 08 2e 3f 3e 48 a8 3d d8 d0 0e bf 5c a6 f3 3f
       0.6798223 0.08216904 -0.5578742 1.9035144
000040 8a f9 83 3f 83 a8 05 bf ce 2a 3a 3f e2 5f a9 3f
       1.0310528 -0.52210253 0.72721565 1.3232386
000050 f3 e9 a1 bd 62 e3 4d bf e9 29 16 bf 68 85 f9 bd
       -0.079059504 -0.80425084 -0.586577 -0.12183648
000060 c3 e8 23 3e 47 2c 1c be 4f c9 90 be 6d 12 79 3e
       0.1600676 -0.15251265 -0.28278586 0.24323435
000070 3d f0 f2 3e cd a2 65 3f d8 d1 03 bf 54 ba 9b 3c
       0.47448912 0.8970154 -0.5149207 0.019009747
000080 76 ac d0 be 5f 88 8b bf f5 3e 03 c0 af 9f 05 c0
       -0.40756577 -1.0900992 -2.0507176 -2.0878713
000090 fe 4a 19 be 9e b0 5f bf 15 c5 e7 3d 81 fe 49 bf
       -0.14970013 -0.8737887 0.11316887 -0.7890397
0000a0 49 7c 1e 3e fc 4e 67 3f c5 53 b8 be a3 fb ca bf
       0.15477099 0.90354896 -0.3600141 -1.5858043
0000b0 80 9e 2c 3f 60 50 80 3f d1 ca 15 3f 3a ae 4a 3f
       0.6742935 1.0024529 0.585126 0.791721
0000c0 12 c2 32 3f 87 73 33 3f 43 b8 09 bf 17 de 7b 3e
       0.6982738 0.70098156 -0.53796786 0.2459644
0000d0 62 dc 24 3f ee 8b 0e bf ca c6 34 bf 5a a8 a5 3f
       0.6439878 -0.55682266 -0.7061583 1.2942002
0000e0 d0 f1 5f 3f 57 60 83 3e a8 f2 29 bf 6f 02 c0 be
       0.8747835 0.2565944 -0.6638589 -0.37501857
0000f0 43 c1 55 bf 32 fa a0 be 90 bf 01 3e 3b 33 50 bf
       -0.8349802 -0.31440884 0.12670732 -0.8132817
000100 2c 8b 96 be 6a 13 f2 be 11 63 20 3e 42 ec 44 bf
       -0.29403055 -0.47280437 0.15662791 -0.76923
000110 8a 06 2c 3f a9 bc 1c bf 12 c0 92 3f 12 ec f9 3e
       0.6719748 -0.6122537 1.1464865 0.4881292
000120 f6 4e cf 3f ae 19 80 be e9 64 90 bf 8c de fd be
       1.6195972 -0.25019592 -1.1280795 -0.49583852
000130 db ba 78 be cf a5 94 bf f6 6f b9 bd aa 64 e8 3e
       -0.2429003 -1.1613101 -0.09054558 0.453893
000140 1f 01 19 bf 34 87 24 bc 65 38 8a 3c 4c ac c1 3e
       -0.59767336 -0.010042001 0.016872594 0.37826765
000150 5e 01 08 c0 e5 02 09 3e fb b1 21 3f 42 ee ad 3e
       -2.1250834 0.1338001 0.631622 0.3397084
000160 7f d4 14 bf f9 a1 48 bf d6 7c 29 be 4b 35 9b bf
       -0.58136743 -0.7837215 -0.16551527 -1.2125639
000170 76 e5 b7 bf 6c a1 54 3e 17 e5 6f 3e f0 ac 10 3f
       -1.4366901 0.20764703 0.23427235 0.5651388
000180 ca 97 e3 bd f8 41 b6 be 7c 5d 90 be f2 c3 96 3f
       -0.11112936 -0.35597205 -0.28196323 1.1778548
000190 4e eb 27 3f e1 67 b0 3e ad 4b be 3e 1b 5b a7 3e
       0.6559342 0.34454253 0.3716711 0.32686695
0001a0 20 98 a0 be cb 5f 59 3f 5d 4b 9d 3d 5c ba 9e 3e
       -0.31366062 0.84911793 0.0768039 0.31001556
0001b0 f6 7a f6 3e f4 38 00 be 81 c0 f1 3f a3 f0 6f bf
       0.48140687 -0.12521726 1.8886873 -0.9372656
0001c0 f8 20 ac be 4f e2 d7 bf 91 69 8c bf 35 03 99 bf
       -0.33618903 -1.6865939 -1.0969716 -1.1954104
0001d0 ad 8e e6 bc 81 5b 8f be 38 71 a5 3e e3 a8 e2 3d
       -0.028144205 -0.279995 0.32312942 0.11067369
0001e0 00 0b 05 c0 02 ff 22 3f a5 eb 7d bf 34 30 73 3f
       -2.0787964 0.6367036 -0.9918769 0.9499543
0001f0 3b 70 8b bf c0 4e a3 be 1b 74 15 bf 7b 64 64 3d
       -1.0893625 -0.3189602 -0.5838029 0.05575989
000200 82 f4 e9 be 72 80 9f 3e b4 f0 20 bf ea c3 16 bd
       -0.45694357 0.31152683 -0.62867284 -0.036807932
000210 96 b3 7e bf 29 b0 c9 3f f7 df 95 bf 41 dc 0a 3f
       -0.99492776 1.5756885 -1.1708974 0.5424233
000220 df 18 ae bf 53 3d 85 bf 4f ad f9 be 7f d8 55 3f
       -1.360134 -1.040934 -0.48765036 0.8353347
000230 bb d9 bf 3f 59 5d b0 be 78 d6 91 3e e6 6e 9f 3e
       1.4988321 -0.3444622 0.2848394 0.31139296
000240 9c ba c7 be 77 26 db bb 7a 25 fc bf fc fc 73 be
       -0.3900956 -0.006687935 -1.9698937 -0.23826975
000250 a7 8b 48 bf 74 84 38 3f bc 1d ea be c9 8a 35 be
       -0.7833809 0.7207711 -0.4572581 -0.17728724
000260 fb 2c 1f 3f b0 70 16 3f 29 99 8b bf 9d 68 88 bf
       0.6217801 0.587657 -1.0906116 -1.0656925
000270 82 c2 0d bf 84 ca 48 be 36 73 94 3e c9 cb 50 be
       -0.5537492 -0.19608504 0.2899415 -0.20390238
000280 6a 56 be bd cb c4 17 bf 7f a9 8e 3f ef 53 4e 3f
       -0.09293826 -0.5928466 1.1145476 0.8059682
000290 c6 c2 f5 be 5f 25 d7 be b9 af dc 3e 8a 59 33 3e
       -0.48000163 -0.420207 0.43102816 0.17514625
0002a0 f6 ed df be 37 15 b4 bf d3 b0 a0 bf 65 ec 33 bf
       -0.43736237 -1.4068974 -1.2553962 -0.70282584
0002b0 42 fe 5f 3e e1 bf 33 bf 93 42 41 3f 35 2c fa 3c
       0.21874335 -0.7021466 0.7549221 0.030538658
0002c0 3f 3d a6 3e 9c d0 a0 3e 41 e1 df 3c 4a dd 30 3e
       0.32468602 0.31409156 0.02732909 0.17271915
0002d0 d1 ed f5 bf 68 13 06 3f 9f 29 61 bf c9 0a 3d 3f
       -1.9213201 0.5237336 -0.87954134 0.7384458
0002e0 fb 10 71 3f bd 55 39 3e 96 b7 ff bf 4d 54 d1 bc
       0.94166535 0.18099113 -1.9977901 -0.025552893
0002f0 73 57 0c bf 9a 1a 7a bf b1 16 3f 3e 6d 3c a9 bf
       -0.54820937 -0.9769684 0.18661 -1.3221565
000300 6b d6 1c 3e c9 d5 03 3f f9 e1 63 bf 8d f6 e3 3c
       0.15316169 0.51498085 -0.8901668 0.027827526
000310 c1 bb 5b 3f 2d ae 46 bf 54 75 dc be 8e 33 90 bf
       0.85833365 -0.7760952 -0.43058264 -1.1265733
000320 25 15 17 3f 30 43 96 bf 02 c2 d8 bd 8c fd 21 3e
       0.5901664 -1.1739254 -0.10583879 0.15819377
000330 39 6f 3a bf 7e 4a 3f 3f 78 d0 7b 3e 6a 86 a1 3f
       -0.7282596 0.7472304 0.24591243 1.2619145
000340 97 3e 6c be eb 96 ad bf 68 00 e6 be 4b 8e 47 3f
       -0.23070751 -1.3561682 -0.44922185 0.77951497
000350 b4 d8 33 3c c2 3f 9f bf 84 8c 95 3f 7d 8b 82 3f
       0.010976959 -1.2441332 1.1683507 1.0198818
000360 98 61 ad be c4 13 cb 3e 8d c7 26 3f f8 9f 63 bf
       -0.3386352 0.39663517 0.6514824 -0.8891597
000370 dd 81 92 bf 5f 34 52 bd 94 3c 94 3e fd 59 42 3f
       -1.1445881 -0.051319476 0.28952467 0.7591856
000380 a4 8c 13 bf 03 91 74 3f f9 7f 08 3f b3 3e 96 be
       -0.57636476 0.9553377 0.5332027 -0.2934471
000390 7c 72 4f 3c 76 17 03 bf 7e 0c 6a be 70 f2 13 bc
       0.012661573 -0.51207674 -0.22856328 -0.00902997
0003a0 bb 38 a8 be 42 47 b6 bf 7f 7b d6 bf 13 42 4c bd
       -0.32855782 -1.4240496 -1.6756438 -0.0498677
0003b0 57 9c d7 3e 1f 85 7b 3f db 10 9c 3f be ad 88 3e
       0.42111465 0.9825 1.2192644 0.26695055
0003c0 55 68 08 be b5 32 7d 3e 3d 9f 9c 3f 97 08 65 3d
       -0.1332105 0.24726374 1.2236096 0.055916395
0003d0 94 b0 d7 be c4 d0 2c bf 74 8c 9e bf de 7f aa bf
       -0.42126906 -0.6750605 -1.2386613 -1.3320272
0003e0 96 a0 18 3e 00 62 eb 3f f0 25 01 be a5 e0 23 3f
       0.14905009 1.8389282 -0.12612128 0.64014655
0003f0 88 33 c2 3e d7 0a 26 3d 8c 40 b9 3f c3 3c 86 3d
       0.3792994 0.04053768 1.4472823 0.06554558

weight f4 [32]
000000 97 fc 8c 3f 08 1b 9b 3f eb ea 79 3f aa 63 96 3f
       1.1014584 1.2117624 0.9762408 1.1749165
000010 2c d4 81 3f dc 76 26 3f a4 d8 40 3f b0 d0 9b 3f
       1.0142875 0.65025115 0.7533057 1.2173061
000020 4c 00 85 3f 4f de b1 3f c7 4a 52 3f 34 4d 38 3f
       1.0390716 1.3895968 0.8214535 0.719928
000030 30 3e be 3f a0 b2 22 3f a8 a0 9e 3f 8a 10 89 3f
       1.4862728 0.6355381 1.2392778 1.0708172
000040 02 38 64 3f 9e 7a b0 3f 86 2e 97 3f 0d 06 81 3f
       0.8914796 1.378742 1.1811073 1.0079972
000050 6a ce 5e 3f 7a 68 1b 3f 59 ec 7f 3f 8a 00 7f 3f
       0.8703371 0.60706294 0.9997001 0.996102
000060 c4 d7 87 3f f2 72 b7 3f 6e 21 61 3f 6f c1 23 3f
       1.0612721 1.4331954 0.87941635 0.6396703
000070 f5 c0 aa 3f 9c 68 90 3f 0e 30 23 3f bd eb 75 3f
       1.3340136 1.1281924 0.637452 0.96062833

bias f4 [32]
000000 bd b8 a4 3e 14 1e 0f bc 7e a9 88 3d cd 46 ca be
       0.32172194 -0.0087351985 0.06672953 -0.39507142
000010 22 5d b9 be f0 6c ad be 58 96 b7 3e e4 00 cc be
       -0.36203867 -0.33872175 0.3585689 -0.3984443
000020 10 39 d9 bd 98 20 c3 3d e0 25 ae bd cd e3 00 be
       -0.10606587 0.09527701 -0.08503318 -0.12586899
000030 ff 10 25 3f 11 f3 ad 3e 1a 0e a5 bd c3 c5 2b 3e
       0.6447906 0.33974507 -0.0805933 0.16774659
000040 e9 f8 1d 3e 01 c4 27 3d b5 1d 8c be 31 0b fc 3c
       0.15426983 0.04095841 -0.27366415 0.030767055
000050 0d fa c0 3d ec 82 5d be 71 9c 45 be 6f b7 24 3e
       0.094226934 -0.21631974 -0.19297959 0.160856
000060 c9 66 66 be 87 e0 c1 3e 02 27 3d bd 51 68 8c be
       -0.22500147 0.37866613 -0.04617978 -0.27423337
000070 5f 6e f9 3e 53 82 db be 46 b2 b4 3e a9 db 38 3c
       0.4871702 -0.42872867 0.35292262 0.01128284

running_mean f4 [32]
000000 fd a0 31 3e 18 49 88 3e 97 7e d3 be f7 ac 7a 3e
       0.17346568 0.26618266 -0.41307518 0.24480043
000010 7b 32 91 bb 63 d8 4e bd 62 14 15 3e 33 2a 46 3f
       -0.0044310666 -0.05049933 0.14558557 0.7740814
000020 a6 70 b3 bd c7 f8 f8 3e 19 12 d0 be b5 a5 d3 be
       -0.0876172 0.48627302 -0.40638807 -0.41337362
000030 07 5f cf be df 13 08 3f 4b 10 29 be d1 33 88 be
       -0.40502188 0.5315532 -0.16510122 -0.26602033
000040 21 49 cd be 0b 52 8f be 26 22 e3 3e cf 2d c6 3d
       -0.40094855 -0.2799228 0.4436199 0.09676706
000050 f0 3a 6c 3d 9e e4 a1 3d ba 26 18 3e c6 c6 25 be
       0.057673395 0.079049334 0.14858523 -0.16189107
000060 d9 42 4d be 84 a5 d3 be fe b1 d4 bd db 24 44 be
       -0.20045032 -0.41337216 -0.10385512 -0.19154684
000070 75 ef b9 3e 0e e4 db 3d a7 b2 81 3e 4e 3c 8f bc
       0.36315504 0.10736857 0.25331613 -0.01748481

running_var f4 [32]
000000 3a e8 5f 40 3f 96 af 3f bb 1a 41 40 75 40 9b 40
       3.498549 1.3717726 3.0172565 4.8516183
000010 2a 7d 53 41 34 08 04 41 d7 cf ac 40 6b 54 0f 41
       13.218058 8.252003 5.400371 8.95811
000020 9d 3f 6d 40 4b 95 f4 3f e4 90 2e 40 e3 87 47 40
       3.7070076 1.9108061 2.7275934 3.1176689
000030 c8 53 40 40 1b de f1 3f 24 1a 81 40 99 06 57 40
       3.0051136 1.8895906 4.034441 3.3597777
000040 b6 7d 77 40 34 98 20 40 59 dc 88 40 99 3f ae 40
       3.8670478 2.5092897 4.276898 5.4452634
000050 85 61 3d 40 fa 85 0f 40 15 fd 2c 40 80 04 a7 40
       2.9590771 2.2425523 2.702947 5.2192993
000060 1a 53 8e 40 83 08 74 40 0e 77 04 41 33 9d c8 40
       4.447644 3.8130195 8.279066 6.2691894
000070 a7 74 da 40 77 a2 6d 40 16 f6 7f 40 bb d4 00 41
       6.82674 3.713041 3.999395 8.051936

weight f4 [32]
000000 ee f7 94 3f 54 23 8c 3f 2b 2f 91 3f fa 05 2c 3f
       1.1638162 1.0948281 1.134252 0.6719662
000010 d9 c6 69 3f 81 ac 36 3f cc e5 4a 3f f4 d4 cf 3f
       0.9131904 0.7135697 0.7925689 1.6236863
000020 6c 3c a0 3f c2 35 52 3f 0a bb cd 3f aa 58 85 3f
       1.2518439 0.8211328 1.6072705 1.0417683
000030 eb df 80 3f cc c1 be 3f fd 37 65 3f b6 bf 98 3f
       1.0068334 1.4902892 0.89538556 1.1933506
000040 16 81 9e 3f c7 bf 30 3f aa a1 a6 3f ae 24 7f 3f
       1.2383144 0.6904263 1.3018086 0.99665344
000050 c0 6b 85 3f 5d 70 8e 3f 21 93 29 3f f0 30 ce 3f
       1.0423508 1.112804 0.66240126 1.6108685
000060 50 0d 59 3f f4 fe 3f 3f 8b f8 bc 3f bd 88 fc 3e
       0.8478594 0.749984 1.4763349 0.49323073
000070 63 f0 8d 3f 0e 08 8e 3f 75 ce d3 3e d2 ea 75 3f
       1.1088985 1.1096208 0.41368452 0.9606143

bias f4 [32]
000000 30 f1 dc 3e 62 0b 92 be 94 42 7d be 60 0d b5 bc
       0.4315276 -0.2852431 -0.24732429 -0.022101104
000010 7e 55 bd be be 02 43 3d 00 1e f6 3e 54 d7 a4 be
       -0.36979288 0.047610037 0.48069763 -0.32195532
000020 e6 f9 b6 bd ea 37 85 3c 67 ad 87 3e 20 32 b3 3e
       -0.08934383 0.016262013 0.26499483 0.3499918
000030 61 87 d0 be fe cc cd be e4 ba 42 3b 36 ae d7 3e
       -0.40728286 -0.4019546 0.0029713446 0.421251
000040 a2 d6 da 3d ad da 22 3e ed ff 6b bd 80 c1 c4 be
       0.10685469 0.1590373 -0.057617117 -0.3842888
000050 8c fb 22 bd 63 af 72 be a7 43 e5 3d f0 48 d1 3e
       -0.039790675 -0.23699717 0.11194544 0.4087596
000060 3e 7a 95 3e d9 ad f7 3d f8 97 11 3f 38 59 10 3e
       0.29194826 0.12093706 0.5687251 0.14096534
000070 42 56 09 be 3e a2 b3 3e 62 95 f7 3d 30 b2 99 3e
       -0.13411811 0.35084718 0.120890394 0.3001876

running_mean f4 [32]
000000 22 66 d8 3e a9 8b 92 3e 13 87 fd 3d 4b 02 f0 be
       0.4226542 0.28622177 0.12379279 -0.4687675
000010 b5 57 43 be 90 60 a3 bc 43 c6 9f bd 11 83 7f be
       -0.19076426 -0.019943506 -0.07801487 -0.24952342
000020 a4 6c 2d 3e 24 cb a8 be 66 44 55 3e 61 ba 72 be
       0.16935974 -0.32967484 0.20826873 -0.2370391
000030 bd ef 24 bd a1 2a 00 be 89 e0 07 3c 6c fc 6d 3e
       -0.040267695 -0.12516262 0.008293279 0.23240823
000040 8d 43 dc 3d 16 af 18 be f0 d6 61 3c 41 ee 81 be
       0.10755072 -0.1491054 0.013784155 -0.25377086
000050 f2 2c 1f be 44 52 c3 bd d6 11 28 3d f0 40 d8 3e
       -0.15544489 -0.09537175 0.041032635 0.42237043
000060 f0 b8 a0 be 54 0b ef 3e 73 61 53 bd 58 8a 22 3e
       -0.31391096 0.4668833 -0.051606607 0.15873086
000070 44 32 82 be 66 6e dd 3d 1f d2 a1 3e 42 2d fe 3d
       -0.25428975 0.108120725 0.31605622 0.12410976

running_var f4 [32]
000000 68 47 4f 40 10 90 d3 3f df d8 71 40 4d f4 7b 40
       3.2387333 1.6528339 3.7788618 3.936786
000010 b0 4f 9f 3f bf 8d fc 3f ad fb 21 40 d5 db a8 40
       1.2446194 1.9730757 2.530986 5.276835
000020 a6 77 8b 40 6e e5 1e 40 9e c9 15 40 24 f0 69 40
       4.3583555 2.4827533 2.3404307 3.655282
000030 77 dc 0a 40 ce ad 36 40 ac 55 02 40 9c a0 c0 3f
       2.169706 2.8543582 2.036479 1.5049014
000040 5d 71 e7 3f 6f 0b a0 3f 08 cd f3 3f 0c 54 58 40
       1.8081471 1.2503489 1.9046946 3.3801298
000050 9e 20 f9 3f c8 4d 04 40 a8 93 c2 3f f4 d4 ac 40
       1.9463079 2.0672474 1.5201311 5.4009953
000060 6f f1 5c 40 d2 2a c0 40 fc b0 66 40 be fd 45 40
       3.452236 6.005227 3.6045523 3.0936122
000070 42 a7 5c 40 5c 65 4c 40 93 1e 85 40 63 c0 ee 3f
       3.4477086 3.1936865 4.159982 1.8652462

weight f4 [32, 16]
000000 cc 22 19 3f 54 f5 9d 3d 24 f1 58 bf f9 6a a5 3c
       0.5981872 0.07712808 -0.8474295 0.02019261
000010 5b 86 86 bf 78 d4 9a bf e3 34 c4 be 60 ed e9 bf
       -1.0509752 -1.209609 -0.383216 -1.8275566
000020 e9 f7 06 3f 01 f7 b6 3b 41 45 8a bf da 8a ef 3e
       0.5272203 0.0055836444 -1.0802385 0.46785623
000030 6b 7f 05 bf b5 d2 f6 3e db 22 28 3f 2b 25 fd 3e
       -0.5214755 0.48207632 0.65678185 0.4944242
000040 95 4d d8 be 45 b9 4e bf e9 1b 74 bf 4c c5 9e bc
       -0.4224669 -0.8075145 -0.9535509 -0.019381188
000050 0e d0 5f 3e d3 2c 7c 3f 9a bc 84 bf cb 71 80 bf
       0.2185671 0.98505896 -1.0370057 -1.0034727
000060 1d a0 5b 3d 01 39 c4 bf d5 cd 82 bf 9f 05 d7 3e
       0.053619493 -1.5329896 -1.0219065 0.41996476
000070 24 c0 be 3e 48 f4 27 3f 53 0c b0 3e 8e 38 52 bf
       0.37255967 0.6560712 0.34384403 -0.82117546
000080 27 cf 3f bf 9f 69 e6 3f 14 c7 3c bf ec ba 18 be
       -0.74925464 1.8000983 -0.7374127 -0.14915055
000090 57 34 dd 3e 3d 46 1d 3e c4 36 08 bf 62 d3 d9 bf
       0.43203995 0.15358825 -0.53208566 -1.7017634
0000a0 90 56 ac bd 15 74 86 bf ba 53 5e bd 1c 88 16 3f
       -0.08414948 -1.0504175 -0.054279067 0.58801436
0000b0 68 77 05 bf 8e 74 2c 3f aa c2 16 be aa db cd bf
       -0.52135324 0.6736535 -0.14722696 -1.6082661
0000c0 47 80 46 bf 11 b3 3d 3e 06 bd 8c 3e 50 53 b4 3e
       -0.77539486 0.1852534 0.27487963 0.35219812
0000d0 a0 12 c6 3e 25 aa 03 bf 47 ca 12 bd c2 cd d1 bf
       0.38686085 -0.51431495 -0.035837438 -1.6390917
0000e0 f5 e6 33 3f 7e e0 92 be 00 27 50 bd 75 e9 e8 3d
       0.7027429 -0.286869 -0.050818443 0.113726534
0000f0 56 e1 8a 3f d0 3c 2c bf 20 4a b7 3f e3 56 98 3d
       1.0850017 -0.6728029 1.4319496 0.07438447
000100 e7 ee de bf 37 ba 0f 3f ee 39 60 3e 3f 2c 8f 3e
       -1.7416657 0.56143516 0.21897098 0.27963445
000110 0c 39 08 40 94 ee db be 90 63 1e bf 6e 9a 06 be
       2.1284819 -0.42955458 -0.6187067 -0.13144848
000120 fd 9c 8b be 6b 73 a2 3e 93 05 12 bf f9 01 97 be
       -0.2726821 0.31728682 -0.57039756 -0.29493693
000130 53 50 84 bf 10 d7 fc bd fb 0e 08 3f ad 88 7d 3f
       -1.0337013 -0.123457074 0.5314786 0.99036676
000140 ad 6b ae 3f d4 6e e1 3e b5 be 48 bf ab 74 9f be
       1.362661 0.44029868 -0.78415996 -0.31143698
000150 1b 6f f5 3d 8d d3 53 3e 0a 97 15 3f 2c 98 b1 be
       0.11984082 0.20686169 0.5843359 -0.3468641
000160 78 f2 80 3e fe a4 43 bf 92 2b 29 3f a4 96 89 3e
       0.2518499 -0.76423633 0.6608211 0.26872742
000170 e8 2d ca 3e 88 5f c3 bf 2d c6 f0 3e d7 40 d8 3e
       0.3948815 -1.5263529 0.47026196 0.4223697
000180 d6 06 81 3f 62 db e2 be f9 d6 01 3f 5a d4 8f 3f
       1.0080211 -0.44308 0.5071865 1.123668
000190 df fd b2 be cc a1 0a bf 00 48 06 bf c9 93 8a 3e
       -0.34959313 -0.5415313 -0.52453613 0.27065876
0001a0 d5 9d 03 40 88 f4 2c 3e db b5 ef 3e f0 48 e1 be
       2.0565083 0.16890156 0.46818432 -0.4400096
0001b0 86 ee ec bc 14 94 8c 3f 4b 74 42 be a5 07 a5 3e
       -0.02892233 1.098269 -0.18989675 0.32232395
0001c0 41 69 84 3e 32 04 c6 be 4f bd 0f 3e e6 1f 9b 3e
       0.25861552 -0.38675076 0.14037059 0.30297774
0001d0 84 c3 ae bf 9e f0 94 bb 14 03 4a 3e 46 c6 9e bf
       -1.3653417 -0.0045452854 0.19727737 -1.2404258
0001e0 11 83 61 bf cc 2f 19 3f cf 85 c8 3d 14 d0 54 3f
       -0.88090616 0.5983856 0.09791147 0.8313
0001f0 60 7e af be 4f 4e 6c be 2a 84 1a 3d 42 8a 56 bf
       -0.34276104 -0.23076747 0.037723698 -0.83804715
000200 82 d4 52 be e2 74 34 be 1e cb 10 c0 35 c2 69 3e
       -0.20588878 -0.17622712 -2.2623973 0.2282799
000210 23 2b 80 3f 5d e3 56 3f 4b ea 28 bf c8 b3 92 bf
       1.0013164 0.8394068 -0.659825 -1.1461115
000220 47 9c e8 be ab 18 c6 bf 3f c3 84 3f 38 1a 52 3f
       -0.4543173 -1.5476278 1.0372084 0.82071257
000230 38 79 87 3f 25 a1 17 bf bd bb 72 3e 1b 88 0f 3f
       1.0583868 -0.5923026 0.23704429 0.56067055
000240 2c 3e 00 3f 43 e5 5d be ff 1e 0f 3f 8a 7c a0 bf
       0.50094867 -0.21669488 0.5590667 -1.2538006
000250 7e 39 82 bf e0 a1 84 be 6b 3c 03 3f c5 31 6b be
       -1.0173795 -0.2590475 0.51264066 -0.22968204
000260 e7 35 a3 3e a4 81 a2 3c 0b db 57 be 6d 3d 66 bf
       0.31877062 0.019837208 -0.21079652 -0.8993748
000270 95 ab 8c be 34 a5 44 be 5d ca b2 bf d5 31 1a 3f
       -0.27474657 -0.19203645 -1.3968006 0.6023229
000280 6f ed 9f 3f ab 55 a4 be d4 6a ba 3e 35 c5 a6 3e
       1.2494334 -0.3209661 0.36409628 0.32572332
000290 e4 50 ce 3e ca ed 4d be 09 00 84 3f b5 7d 8f 3e
       0.4029609 -0.2011024 1.0312511 0.28025594
0002a0 d7 3a 95 3d a9 99 32 3f 08 53 45 bf cd 9a 91 3f
       0.072866134 0.69765717 -0.7707982 1.1375366
0002b0 0a 24 1f 3e 43 eb d2 3f 44 15 3c 3f 71 3f d5 be
       0.15541092 1.6478046 0.7346995 -0.41649964
0002c0 70 04 e9 bc 71 9f 7b bf 54 c0 cd 3e 4f f9 89 bf
       -0.028444499 -0.98290163 0.40185797 -1.0779208
0002d0 d1 92 c4 bd f6 f0 87 3e ad 2b 93 3f 80 57 d6 be
       -0.095983155 0.26551026 1.1497704 -0.41863632
0002e0 a3 3e 29 3f 35 2b bf 3e 62 10 ea bd 7d a4 cd be
       0.661112 0.37337652 -0.11428906 -0.40164557
0002f0 02 42 1e bf 60 7c 8b be cb b1 e0 3e ca b2 ae 3e
       -0.6181947 -0.27243328 0.43885645 0.3412078
000300 7d 47 09 3e 15 4f 3f 3f 70 f2 ce be 1e e7 8e 3f
       0.13406177 0.74730045 -0.4041934 1.1164281
000310 da c0 50 3e e7 90 2b bc 12 07 60 be a8 3e 4a bf
       0.20386067 -0.010471559 -0.21877697 -0.79001856
000320 57 54 35 3f e5 5c d7 3f a9 22 05 bf f6 d5 c1 be
       0.7083182 1.6825224 -0.5200601 -0.37858552
000330 86 73 c4 3f 26 9a ab bf 88 4d 42 be 88 df a3 bf
       1.5347755 -1.3406417 -0.18974888 -1.2802591
000340 89 09 c6 bf a0 07 33 bf cb 16 29 bd 80 67 13 3f
       -1.547166 -0.6993351 -0.041281503 0.57579803
000350 bb 92 96 be 4a 7b f6 3c 58 2b 72 3f ba 4f 6b 3f
       -0.2940882 0.030088086 0.9459739 0.9191853
000360 e2 10 7e 3f 92 46 02 bf bd 1f 7d be 1d 23 75 3f
       0.9924451 -0.5088893 -0.24719138 0.95756704
000370 b0 2e 86 bf 46 59 b3 3e 9e b2 68 bf 7d 87 f6 3e
       -1.0482998 0.35029048 -0.9089755 0.48150244
000380 96 f2 5b 3e c5 86 85 be 87 6e bd bf 95 8e 8e 3e
       0.21479258 -0.26079383 -1.4799355 0.27843156
000390 9a 64 0d 3f 0f df 8d 3f 28 1a a9 3f bf ce 6b be
       0.5523163 1.1083697 1.3211107 -0.23028086
0003a0 24 a9 05 3f 8f e5 19 bf 12 4a af 3e c0 7f 27 3e
       0.52211213 -0.60115904 0.342362 0.16357327
0003b0 8e 29 da 3e 61 32 b8 3e cf dc c9 3f 7a ec ad 3e
       0.4260983 0.35975936 1.577051 0.3396948
0003c0 b4 85 2c 3f 23 23 1b 3e ad 6e 79 3f ae c7 09 3f
       0.67391515 0.15150122 0.974345 0.5382031
0003d0 c6 12 c0 3d 47 1c d5 be b5 9e a4 be 84 bd 87 bf
       0.09378581 -0.41623136 -0.32152334 -1.060471
0003e0 33 58 d4 3d 48 d5 58 be 6b 55 dd 3d c7 5a a7 bf
       0.10368385 -0.2117511 0.10807308 -1.3074578
0003f0 81 e5 28 3f 83 77 6b 3c b0 06 bf bc c1 e1 9b 3f
       0.65975195 0.0143717555 -0.023318619 1.217827

weight f4 [32]
000000 2c c9 b1 3f 22 c6 8b 3f 98 3c ac 3f 71 5a 9d 3f
       1.3889518 1.091984 1.3455992 1.2293226
000010 d9 6f 2a 3f a0 83 88 3f 28 6c a3 3f e5 0f bd 3f
       0.66576916 1.0665169 1.2767382 1.4770476
000020 bc 21 51 3f f8 6c 49 3f bc b3 88 3f 34 3a 13 3f
       0.816921 0.786819 1.067985 0.57510686
000030 8d 7b 80 3f 68 96 af 3f 15 3e a3 3f db ab 19 3f
       1.0037705 1.3717775 1.2753321 0.60027856
000040 e7 95 a7 3f f3 e6 a7 3f 75 98 94 3f 82 45 a0 3f
       1.3092622 1.3117355 1.1609026 1.2521212
000050 c9 49 71 3f 0d 4a a5 3f 08 fc 99 3f 57 dd 6d 3f
       0.9425321 1.2913224 1.2030039 0.9291586
000060 ee a3 21 3f 29 45 23 3f 67 46 a2 3f a2 81 0d 3f
       0.6314076 0.63777405 1.2677735 0.5527593
000070 c2 66 42 3f df f0 7e 3f 9a e9 30 3f 60 eb e5 3e
       0.75938046 0.9958629 0.6910645 0.4490614

bias f4 [32]
000000 15 2d 03 3f fe 79 ee bd cd 31 12 be 52 03 c3 3d
       0.51240665 -0.11644362 -0.1427681 0.09522118
000010 32 7e b8 3b e4 b8 c9 3e a2 74 b4 3d ae d5 b3 3d
       0.005630278 0.39398873 0.088113084 0.087809905
000020 bd 31 8a be f2 47 4a 3d 46 30 e5 3d 51 9d 3d 3e
       -0.26991072 0.04938502 0.11190848 0.18517043
000030 f9 cf 9a bd 43 fb c9 be ab 2e bd 3e 93 2c 63 3e
       -0.07559199 -0.3944951 0.36949667 0.22184972
000040 cb f3 59 bb 60 35 df be d8 a4 eb 3d 16 e5 0f 3e
       -0.0033256884 -0.4359541 0.11506051 0.14052233
000050 6e e1 8f be f7 15 8a 3e 05 6c 96 3e 70 79 90 3e
       -0.28101677 0.26969883 0.29379287 0.2821765
000060 48 45 28 be 34 f4 17 be ef 8b aa 3e e5 58 b2 be
       -0.16432679 -0.1483925 0.33309886 -0.34833446
000070 6a 2b 5f 3d ad 36 7d 3e 85 99 f8 3e 34 a5 3d bb
       0.054484762 0.24727888 0.48554626 -0.002893758

running_mean f4 [32]
000000 77 18 ab 3e 57 29 af bd 45 d3 ce be 5c 4b 0b 3e
       0.33417103 -0.08552807 -0.4039556 0.13602966
000010 67 56 1d bf 4e 53 1d 3f e6 33 6a bb fb 84 cf 3e
       -0.61459965 0.6145524 -0.00357365 0.40531144
000020 68 d8 10 3f 2f 3c 38 3e 31 57 07 3e a1 f0 0b 3e
       0.5658021 0.17991708 0.13216855 0.13666011
000030 63 21 81 bc 95 44 b2 be df 21 b4 3e 73 e0 81 3e
       -0.01576299 -0.3481795 0.35182092 0.25366554
000040 34 0f 02 3e 64 16 92 bd 6f 5b d3 3e 59 e8 7b be
       0.12701112 -0.07133177 0.41280696 -0.24600352
000050 0b dc 14 3f 0d 19 2d 3e fa dc 14 3e 20 5e 1c 3f
       0.5814826 0.16904087 0.14537421 0.61081123
000060 e4 a2 0a be 9f bd 6b 3e 9b 2f 84 3e 86 db a9 3e
       -0.135387 0.23021553 0.2581757 0.33175296
000070 90 2d 1e be 77 88 a3 3d 8f d9 eb 3e 75 a9 43 3e
       -0.15447068 0.07985013 0.46064422 0.19107611

running_var f4 [32]
000000 dd 47 0f 40 91 cd f7 3f c2 ca 74 40 d4 c7 ba 40
       2.2387612 1.9359609 3.8248754 5.836893
000010 18 08 5b 40 5d 4a e0 40 18 61 a0 3f 3e 4c 61 3f
       3.422369 7.0090775 1.2529631 0.8800696
000020 51 cd d4 40 c2 cb 0f 40 4d b8 36 40 04 9e d7 3f
       6.650063 2.2468114 2.8549988 1.6845098
000030 cc 68 19 40 21 0e 96 40 6e 34 37 40 c0 f4 95 40
       2.3970213 4.6892247 2.862575 4.6861267
000040 05 5b 0c 40 75 1c a1 40 fd 15 20 40 05 9d 90 3f
       2.1930554 5.0347238 2.501342 1.1297919
000050 35 ab a5 40 ba 59 33 40 e6 f8 1c 40 f9 a6 b8 40
       5.1771493 2.8023515 2.4526916 5.7703824
000060 69 63 b1 40 cf 31 01 40 83 81 e1 40 49 6e dd 3f
       5.543385 2.018665 7.0470595 1.7299281
000070 01 d5 f7 40 ba 15 34 40 26 50 94 40 87 06 7c 40
       7.7447515 2.813826 4.6347837 3.9378984

weight f4 [32, 16]
000000 51 6d 3e 3d 32 77 4a 3e d6 70 43 bf bb 2b 5a 3e
       0.04649097 0.19772032 -0.7634405 0.21305744
000010 01 d9 36 3f 52 5a ac bd 81 d2 97 bd 5d ed 25 3f
       0.7142487 -0.08415665 -0.07413197 0.6481531
000020 99 49 bd be ad af af 3e 5b 0a 5d bf ea 11 b9 3f
       -0.36970213 0.34313717 -0.86343926 1.4458592
000030 75 80 f2 be 68 e6 b9 3d 2d 18 69 3d a1 ec 86 3e
       -0.4736363 0.0907715 0.05690782 0.2635241
000040 6e 77 06 bd cd 9f 04 bf 90 4a 8f be db e6 11 3c
       -0.03282874 -0.51806337 -0.27986574 0.008905138
000050 aa ef f6 bd 02 e2 ff be 25 25 1c bf 06 1c 55 bf
       -0.12057431 -0.49977118 -0.6099418 -0.83245885
000060 8e 98 6a 3e 4c 10 34 bf 90 b5 63 bf 7e 33 9b bf
       0.22909757 -0.7033737 -0.8894892 -1.2125089
000070 9e ab 65 3e 55 29 4c bf 93 ec dc 3e f9 9f 70 bf
       0.22428748 -0.7975057 0.43149242 -0.939941
000080 de b2 ec be fe 5b 38 be ec 45 e2 3d 51 52 c5 3e
       -0.46230215 -0.18003842 0.11048493 0.38539365
000090 56 be 6e be a1 07 cd 3e cf cd 26 bf 17 74 f8 be
       -0.23314795 0.40044883 -0.6515779 -0.4852607
0000a0 35 f1 47 bc 38 19 8d 3e 64 b1 93 be e9 38 74 3e
       -0.012203504 0.27558303 -0.28846276 0.23849835
0000b0 84 df 08 3f 2b 42 55 3f 9b 36 88 be fd 04 ac bd
       0.5346606 0.8330409 -0.2660416 -0.08399389
0000c0 73 73 98 be b3 a7 9a bf f8 e7 75 3e 54 f2 3e bf
       -0.2977558 -1.2082428 0.2401427 -0.74588513
0000d0 9b 7d 1c 3e 82 16 aa 3f df dd 26 3e cc 83 31 bf
       0.1528229 1.3288119 0.16295575 -0.6934173
0000e0 f9 9a 3d 3f 2c 60 01 c0 37 11 0f bf 3c 24 4d 3d
       0.74064595 -2.0214949 -0.5588564 0.050083384
0000f0 8a f5 7b bf aa 41 5a bf 00 d7 b8 3f e7 dd 13 3f
       -0.9842154 -0.85256445 1.4440613 0.5776047
000100 b5 b2 4f be cd ac 79 3f 2a 41 98 3f 14 c2 37 3f
       -0.20283015 0.975293 1.1894886 0.71780515
000110 23 5f 6c bf 70 24 07 3e 42 18 40 bf ea 38 b4 3f
       -0.9233267 0.13197494 -0.75037014 1.4079869
000120 50 ab cc bd c1 3c 56 3d 10 92 39 3f b6 a4 aa 3c
       -0.09993613 0.052304033 0.724885 0.020830493
000130 11 3b f6 bd f9 d3 83 bf fd 06 a9 3e 3c 74 ec be
       -0.12022985 -1.0299064 0.33013144 -0.4618243
000140 51 5c 95 3e 42 ce b3 3e d0 2b da 3f 9c 54 22 bf
       0.29171994 0.351183 1.704462 -0.63410354
000150 27 11 9a be 49 c9 ee 3c ff d9 c4 be a9 47 33 3f
       -0.3009121 0.029148715 -0.38447568 0.7003122
000160 a1 50 2a bf a8 c3 64 3f e2 56 a8 3e 15 8c 7f bf
       -0.6652928 0.8936105 0.32878786 -0.99823123
000170 69 7a 41 3f 80 d8 ff 3f 43 fd 8d be c4 56 51 3f
       0.7557741 1.9987946 -0.27732286 0.8177302
000180 35 04 7f bf 24 40 2c 3f e5 99 20 bf 09 4c 05 3c
       -0.99615794 0.6728537 -0.62734824 0.008135804
000190 fa f9 19 3f 40 29 29 3f ea a4 8c 3e e4 cb f7 3f
       0.6014706 0.6607857 0.2746957 1.9359097
0001a0 7c e7 b4 3f d1 37 c9 be 2a 0c 17 3e a0 6b ca bf
       1.4133143 -0.39300397 0.14750734 -1.5814095
0001b0 be 9d 4f bf 8e 1b 2f 3f 61 e4 f3 3e 86 e2 8a 3d
       -0.8110007 0.6840142 0.47635177 0.06781487
0001c0 c6 fd 14 3f 72 85 bb 3f 30 7b 8d 3e fd 26 0a 3f
       0.5819973 1.4650099 0.27633047 0.5396574
0001d0 12 27 95 be 9a 1d 7b bf 95 7a c6 be 0f 5c 7d be
       -0.2913137 -0.98092043 -0.38765398 -0.24742149
0001e0 e7 83 a3 3f 18 57 37 bf a8 72 0d 3f 58 e8 6a 3d
       1.2774628 -0.7161727 0.55253077 0.057350487
0001f0 fa bf 63 3f d2 bb 35 bf 77 b6 68 bf 1e 51 2a bf
       0.8896481 -0.70989716 -0.9090342 -0.66530025
000200 7b b6 04 3f df cc 04 3f c4 28 a8 3e 41 5f 8e bd
       0.51840943 0.5187511 0.32843602 -0.06951762
000210 d0 c5 27 be 8d 91 ef 3d e6 34 b9 bd 6f 6e 01 bf
       -0.16384053 0.116976835 -0.09043293 -0.50559133
000220 30 72 17 3d 05 7c 86 3e 28 f7 fd 3d 0b 8a 80 3e
       0.036974132 0.26266494 0.12400657 0.25105318
000230 d7 74 83 3e 8a 8b b6 bf e3 2d c3 3e b1 f7 d4 3e
       0.2567508 -1.4261334 0.38120946 0.41595224
000240 79 57 8d 3f 0f 76 b7 3e f2 c8 e8 bd bd 39 84 3f
       1.104232 0.3583226 -0.11366452 1.033012
000250 b5 e0 2c 3f 28 12 14 3f 09 97 28 3f 8e 5e b1 3f
       0.67530376 0.57840204 0.6585546 1.3856981
000260 f9 d8 96 be 94 4e 1a 3e 40 8b 0b bf bf 1d a3 3c
       -0.29462412 0.15069038 -0.54509354 0.019911645
000270 78 bc bc 3d ae 01 8f be b9 35 43 3f c8 8a 39 3f
       0.09215635 -0.2793097 0.7625385 0.7247739
000280 c8 30 04 3d b6 3c 96 be 1d 1c a0 be 71 c1 6f bf
       0.032273084 -0.29343194 -0.3127145 -0.93654543
000290 75 d5 db be da 36 26 bf 14 f3 3c bd 82 3f 1e 3f
       -0.42936292 -0.64927447 -0.046130255 0.61815655
0002a0 7b a9 3d be 7e ff 24 bf 79 26 68 3f 60 f3 71 3f
       -0.18521683 -0.6445235 0.90683705 0.94511986
0002b0 d9 0b 85 bf 0b e5 4d 3f 39 00 f3 3e d4 86 c7 3d
       -1.0394241 0.80427617 0.47461107 0.09742513
0002c0 80 7b f8 be b0 34 9d 3e 74 66 6d bf d7 44 98 bf
       -0.48531723 0.3070426 -0.92734456 -1.1896008
0002d0 d9 4c 6f 3f c9 a4 6d bf 97 a4 c4 3d cb fe d4 be
       0.93476635 -0.9282957 0.096017055 -0.41600642
0002e0 53 18 01 be 26 6e b9 3f 38 a2 07 3e cf d2 0e bf
       -0.12606935 1.448674 0.13245475 -0.5579042
0002f0 2c 9e 02 3f 41 21 e7 bd 71 8c e0 bb 19 5a 8f be
       0.510226 -0.112856396 -0.0068526794 -0.27998427
000300 11 0e aa bf 73 a2 23 3f 4a e4 4a be 6b c5 59 3e
       -1.3285543 0.6391975 -0.19813648 0.21266715
000310 e0 9e 8f bf b5 b4 ee 3e 09 1c 89 bf f9 70 a7 3f
       -1.122036 0.46622244 -1.0711681 1.3081352
000320 e8 ca 87 bf 4f 3d 88 3f f4 6e 8c 3e 9e 76 27 3f
       -1.0608797 1.064371 0.274284 0.6541537
000330 41 51 1a 3f f8 d0 aa bf 78 5f 4a bd 25 3d 58 3d
       0.60280234 -1.3345022 -0.049407452 0.052792687
000340 df 50 e5 3e b8 4f 19 3f 52 41 b1 bd 3b 36 37 3e
       0.44788262 0.59887266 -0.08655037 0.17891781
000350 96 ac 4e bc fb 41 d1 bf 79 e2 b5 3d 55 60 64 bf
       -0.01261439 -1.6348261 0.08881087 -0.8920949
000360 01 61 35 3e d7 79 a6 bf 2e 66 90 ba b8 b4 ee be
       0.17712785 -1.3005933 -0.001101678 -0.46622252
000370 88 0f 90 3e 50 af bf bf d9 95 8d be 85 1a 81 3e
       0.2813685 -1.4975376 -0.27653387 0.25215545
000380 b7 37 39 bf 26 0b 7d 3f 87 d8 60 3e 58 4f 94 3f
       -0.7235064 0.98845136 0.21957599 1.1586714
000390 9b a9 51 be b0 25 84 be d5 3b 19 bf 5d b1 4e be
       -0.20474856 -0.25810003 -0.5985692 -0.20184846
0003a0 df 84 ae be b3 e6 f5 bd 69 c0 a0 3e bf 1d cb be
       -0.34085748 -0.12006893 0.31396797 -0.39671132
0003b0 a2 b9 06 c0 ae 5f 46 3e 17 65 ce 3d fd b2 1c 3e
       -2.1050801 0.19372436 0.10077875 0.15302654
0003c0 5d 3d ac 3f 4f 4b 37 3f b6 52 fd 3e d2 97 f0 be
       1.3456227 0.71599287 0.49477166 -0.4699083
0003d0 46 9c 98 3e 8a b9 06 40 82 f8 4e be 18 c2 b5 be
       0.29806727 2.1050744 -0.20211986 -0.35499644
0003e0 94 d0 8b bd 73 f1 87 bd 2a 56 9f 3e 42 79 06 bf
       -0.068268925 -0.0663785 0.31120425 -0.52528775
0003f0 e7 59 d6 3e a3 aa 5c bf 42 e0 ce 3e 89 2f d3 3e
       0.41865465 -0.8619787 0.4040547 0.41247204

weight f4 [32]
000000 00 00 80 3f 00 00 80 3f 00 00 80 3f 00 00 80 3f
       1.0 1.0 1.0 1.0
000010 00 00 80 3f 00 00 80 3f 00 00 80 3f 00 00 80 3f
       1.0 1.0 1.0 1.0
000020 91 ab 62 3f 33 df 73 3f 0f c5 59 3f 46 ce b1 3f
       0.8854304 0.9526245 0.8506631 1.3891075
000030 8d ca 5c 3f a7 0c fb 3e 89 de 21 3f dc 57 86 3f
       0.8624657 0.4903309 0.63230187 1.0495563
000040 00 00 80 3f 00 00 80 3f 00 00 80 3f 00 00 80 3f
       1.0 1.0 1.0 1.0
000050 00 00 80 3f 00 00 80 3f 00 00 80 3f 00 00 80 3f
       1.0 1.0 1.0 1.0
000060 78 b9 21 3f 74 c0 a5 3f 6b 8e 81 3f 29 03 56 3f
       0.6317363 1.2949357 1.0121588 0.8359857
000070 e5 53 a5 3f 44 ac 90 3f dc 4d 1f 3f 2d 54 59 3f
       1.2916228 1.1302571 0.6222818 0.8489407

bias f4 [32]
000000 00 00 00 00 00 00 00 00 00 00 00 00 00 00 00 00
       0.0 0.0 0.0 0.0
000010 00 00 00 00 00 00 00 00 00 00 00 00 00 00 00 00
       0.0 0.0 0.0 0.0
000020 d3 95 4d 3e 4b df 96 be 03 9a 3a be eb f5 f3 bd
       0.20076685 -0.29467234 -0.18222813 -0.119121395
000030 8f d3 c2 3d 91 b0 77 be 83 37 ec 3d 3b 50 ca 3e
       0.09513008 -0.24188448 0.115340255 0.39514336
000040 00 00 00 00 00 00 00 00 00 00 00 00 00 00 00 00
       0.0 0.0 0.0 0.0
000050 00 00 00 00 00 00 00 00 00 00 00 00 00 00 00 00
       0.0 0.0 0.0 0.0
000060 5e ee 17 3e e8 77 97 be 49 31 89 be ec 6d 08 3f
       0.14837024 -0.2958367 -0.26795414 0.5329273
000070 ab 9a ec be 1c ab f6 be e8 bd 85 be db 5f c2 3d
       -0.46211752 -0.4817742 -0.2612145 0.09490939

running_mean f4 [32]
000000 d6 de 98 3d 2e 6f 95 bd 74 3e 52 be a0 c8 80 3e
       0.074643776 -0.072965965 -0.20531636 0.25153065
000010 01 29 a6 bd db ff 9c be 76 b0 48 bf f8 69 c2 bd
       -0.081132896 -0.30663952 -0.7839426 -0.09492868
000020 8a 96 00 3f d9 31 c0 3e 33 00 4d bd d5 ec 35 be
       0.50229704 0.3753803 -0.050049018 -0.17766126
000030 69 fe 52 3c 18 21 7e 3e b3 89 96 be dd ab 08 3f
       0.012878039 0.24817312 -0.2940193 0.5338724
000040 08 ad 72 3e 7e 17 85 3e de 1c 96 3d 11 9f 11 bf
       0.23698819 0.25994486 0.07329725 -0.5688334
000050 d1 3d a9 3e ed 61 32 3e 11 9a e1 bd c9 9d 5b 3e
       0.33054975 0.17420168 -0.11015714 0.21446909
000060 51 c8 c5 3e 57 80 24 bf ff 64 ff bc b9 64 09 3e
       0.38629392 -0.6425833 -0.031176088 0.13417329
000070 e2 bc 09 3f a1 2e 2e bf f4 56 9e 3e c8 1f 04 3f
       0.5380384 -0.680399 0.30925715 0.51610994

running_var f4 [32]
000000 aa c0 c0 3f 3c ce e2 3f 8d 4c 86 3f f8 2f bb 40
       1.5058796 1.7719188 1.0492111 5.8496056
000010 50 d5 06 40 52 b9 2d 40 e6 2f 31 40 bf f9 b0 40
       2.1067696 2.714436 2.7685485 5.5304866
000020 b1 16 a6 40 96 f0 27 40 f1 10 4e 40 20 0f 0c 40
       5.19027 2.6240592 3.219784 2.1884232
000030 a3 4b f3 3f 4a a0 96 40 12 08 25 40 04 8b 0d 41
       1.9007457 4.7070665 2.5786176 8.846439
000040 96 9f aa 3f 46 1b 46 40 c8 25 cd 3f 50 de 5e 40
       1.3329952 3.0954146 1.6027155 3.4823189
000050 5f 64 05 40 7b 86 d1 3f 43 a8 c1 40 5c 00 84 3f
       2.0842512 1.6369165 6.0517898 1.031261
000060 67 91 f0 3f ed 2e cc 40 77 48 dc 3f 9c 11 cc 3f
       1.8794373 6.3807282 1.7209615 1.5942874
000070 78 6b 38 40 6e 39 71 40 bb e8 de 40 3a 7b e7 40
       2.8815594 3.7691302 6.9659095 7.2337923

weight f4 [32]
000000 9b 1f a5 3f 68 68 3a 3f 31 87 4a 3f 4a c8 cd 3f
       1.290027 0.7281556 0.79112536 1.6076748
000010 fc 97 c7 3f b1 2b 60 3f 88 23 82 3f 45 7c a0 3f
       1.5593257 0.8756667 1.0167093 1.2537924
000020 95 76 7b 3f a2 c0 1d 3f 1e 20 8a 3f 25 51 c6 3f
       0.98227817 0.6162206 1.0791051 1.5493513
000030 83 8f 63 3f e8 52 97 3f 05 fb 27 3f 64 07 0d 3f
       0.88890857 1.1822176 0.656174 0.550894
000040 c7 99 98 3f d3 4c 89 3f bb 3a d9 3e ca 44 da 3f
       1.1921929 1.072657 0.4242762 1.7052243
000050 d3 61 b3 3f d0 a2 ba 3f 74 0e 5e 3f 33 a7 a3 3f
       1.4014229 1.4580936 0.86740804 1.27854
000060 57 78 bc 3f 6d 54 49 3f a9 25 67 3f e0 69 c5 3f
       1.4724225 0.7864445 0.9029184 1.5422935
000070 2c ca 2f 3f 34 87 2b 3f 34 86 18 3f 22 8b 09 3f
       0.68667865 0.6700318 0.5957978 0.53727925

bias f4 [32]
000000 d6 36 e4 3e b5 a3 e5 be b4 cc 19 be 4a 00 3d 3f
       0.44573087 -0.4485146 -0.15019494 0.73828566
000010 99 1e 40 bf d4 68 21 3f 5a 2d 8c be 6b f0 14 3f
       -0.7504669 0.6305058 -0.2737835 0.5817935
000020 be c7 15 3f 4b c8 0b be ab d9 46 3e d3 89 a3 be
       0.5850791 -0.13650624 0.19418971 -0.3194109
000030 95 87 16 bd b4 41 99 bd d0 59 c5 3c 8e 1d ec be
       -0.036750395 -0.07483235 0.024090677 -0.46116298
000040 3a 9a 2a 3f af 12 e4 3c 32 a8 0a 3e 88 5d 03 3f
       0.6664158 0.02784094 0.13540724 0.5131459
000050 c4 c6 ec 3e 48 ec 8b 3d 41 ac 25 3f 80 c5 99 3d
       0.46245396 0.068321764 0.64715964 0.07508373
000060 2f 4d 70 be 4a f0 b9 be 81 f4 43 3e bc 89 b8 be
       -0.23466943 -0.36316139 0.1913624 -0.36042583
000070 3e cd 2d 3e 5c cf b2 3e a5 a1 9a be 38 40 8e be
       0.16972825 0.34923828 -0.3020145 -0.2778337

running_mean f4 [32]
000000 54 f4 8d bd ee 80 8b bc 94 a3 1e bd 11 89 9f bc
       -0.069313675 -0.017029252 -0.03873022 -0.019474538
000010 cb c0 df bc 67 ce 73 bd ef 80 24 bd 27 1b 20 3e
       -0.02731361 -0.059523012 -0.040162023 0.15635358
000020 42 8e 85 bd 84 35 a1 3d c0 88 a2 3c 8c 68 23 3e
       -0.06521274 0.078715354 0.019840598 0.1595785
000030 b7 f2 99 bd a9 e3 93 3d 7c c8 0b be 40 bb f8 bd
       -0.07516997 0.07221157 -0.13650697 -0.1214509
000040 01 2d 07 be 69 28 97 3b ef 91 0a bd 4e ce 30 be
       -0.13200761 0.0046129716 -0.03383058 -0.17266199
000050 5a ff 3d 3d 9c f8 44 bd 9d 78 89 3d 37 25 13 bd
       0.0463861 -0.048088655 0.06712458 -0.035924163
000060 fb 09 cc bc de b8 de bd 2f 8e 8a bc d5 0f 92 3d
       -0.024907103 -0.10875104 -0.016913502 0.07131926
000070 19 9a 5a 3d 74 46 0b be 8b 6f 47 3c dc 36 c7 3d
       0.053369615 -0.13601094 0.01217259 0.097272605

running_var f4 [32]
000000 42 76 40 3f 0c c7 22 3f ed 4d 41 3f 52 66 39 3f
       0.7518045 0.6358497 0.7550953 0.72421753
000010 90 c0 72 3f ef ed 49 3f f1 75 36 3f 05 f1 53 3f
       0.9482508 0.7887868 0.71273714 0.8278964
000020 73 fa 24 3f 41 49 25 3f e1 5d 26 3f d5 ea 57 3f
       0.64444655 0.645649 0.64987 0.843427
000030 17 68 1d 3f 4c 65 28 3f 69 71 75 3f ee 3c 3b 3f
       0.61486953 0.65779567 0.95876175 0.73139846
000040 e9 85 67 3f c2 6f 24 3f 7b 3a 23 3f de 53 56 3f
       0.90438706 0.6423303 0.6376111 0.8372172
000050 85 17 37 3f c9 35 25 3f 13 0c 2b 3f bf c7 2b 3f
       0.7152026 0.64535195 0.668153 0.67101663
000060 65 97 3d 3f 75 bb 44 3f a4 82 32 3f 6f 37 4b 3f
       0.74059135 0.76848537 0.6973059 0.7938146
000070 e2 21 59 3f d1 b9 55 3f 39 5f 3f 3f b6 72 24 3f
       0.84817326 0.8348666 0.74754673 0.64237535

weight f4 [32]
000000 7e b3 a5 3f f9 5a d2 3f 52 ce a9 3f ee e5 c6 3f
       1.2945402 1.6434013 1.3266089 1.5538919
000010 e3 a0 78 3f 48 5a 5d 3e e6 ae 29 3f 33 0c f9 3e
       0.97120494 0.21616471 0.662825 0.4864212
000020 d1 84 bc 3f 04 b1 a0 3f d2 89 39 3f 84 8a 94 3f
       1.4728032 1.2554021 0.7247592 1.1604772
000030 71 60 44 3f 92 a1 a2 3f 8d d5 6a 3f a2 69 ad 3f
       0.7670966 1.2705557 0.917321 1.3547862
000040 77 aa 76 3f bb c9 93 3f a4 d4 b8 3f 4a 8a b6 3f
       0.9635386 1.1545938 1.4439893 1.4260952
000050 ed 4f a8 3f 18 e0 90 3d 08 22 b1 3f 14 39 f4 3e
       1.3149391 0.070739925 1.383851 0.47699797
000060 38 e1 00 3f 90 da c1 3f b9 ba 56 3f 3c 94 63 3f
       0.50343657 1.5144825 0.83878666 0.8889806
000070 b9 d9 59 3f bf 15 a5 3f e4 93 99 3f 9c 12 a4 3f
       0.85097843 1.2897261 1.1998258 1.2818179

bias f4 [32]
000000 20 22 1f 3f 45 6b 07 bf 73 a0 fd be 79 8e 43 3f
       0.62161446 -0.52898055 -0.49536476 0.7638927
000010 74 18 91 be 60 bf 42 3f 07 88 07 bf c2 0d ee 3e
       -0.2833897 0.76073265 -0.52941936 0.4649487
000020 0f 04 cc 3d 95 48 45 3e 19 22 e0 be 38 e4 1a be
       0.099617116 0.19265969 -0.43776014 -0.15126121
000030 0f 92 53 3e 42 d0 2b 3e d4 af 73 3e ab 0d d5 be
       0.20661186 0.16778663 0.23797542 -0.4161199
000040 39 b8 d7 3e c8 79 16 3f 90 1d c6 bc 1f 4b 2c 3f
       0.42132738 0.58779573 -0.024184018 0.67302126
000050 c4 ea ef bd 73 c8 93 be 01 47 0a bf dc fc da be
       -0.117147 -0.28863868 -0.54014593 -0.4277104
000060 a6 ca fc 3e f3 9c d3 be 42 89 7c be 51 a1 ce 3e
       0.49373358 -0.4133068 -0.24661735 0.4035745
000070 e4 b9 e4 be 87 29 30 3e e7 3b 41 be c5 72 c1 3e
       -0.44673073 0.17203341 -0.18870507 0.37782875

running_mean f4 [32]
000000 f3 1c e5 bd c2 7b db 3e bf 20 76 bf a0 8f 44 3e
       -0.11187162 0.42867857 -0.96143717 0.19195414
000010 c6 e6 ef be ad 7c 96 3e ca b9 b6 3e c7 1d 9e be
       -0.46855754 0.29391995 0.3568862 -0.30882093
000020 df 2c e0 3e 4e 90 60 3e 44 72 e7 3d 47 7a 39 3f
       0.43784234 0.21930048 0.11301091 0.72452205
000030 9a 1b ea be b2 f0 01 3d 4e ae 00 bf 0f d2 46 be
       -0.45724183 0.031723686 -0.5026597 -0.19416068
000040 6f 26 54 3e cd 10 75 be 89 24 52 3f 41 fc 59 bd
       0.20717786 -0.2393219 0.82087 -0.053219084
000050 e8 a8 eb be 26 40 91 be 8e 59 82 3e 28 21 43 be
       -0.46027303 -0.28369254 0.2545895 -0.19055617
000060 d0 36 01 be 96 3d ca be 74 9a 1b 3f 13 3b 8a 3c
       -0.12618566 -0.3950011 0.6078255 0.016873872
000070 38 e7 24 3e 6c c8 22 bf dc 2b a9 bd 3d 66 20 be
       0.16103828 -0.6358707 -0.08260319 -0.15664001

running_var f4 [32]
000000 b6 aa 41 40 1b 38 f2 3f a7 5f c7 40 22 e9 d4 3f
       3.0260444 1.8923372 6.2304263 1.6633646
000010 90 4e e8 3f 6e 57 72 40 b2 0f d3 3f 8b 05 8f 40
       1.8148975 3.7865863 1.6489165 4.4694266
000020 45 01 38 40 4e 34 02 40 82 94 8c 40 38 c6 aa 40
       2.8750775 2.0344424 4.3931284 5.3366966
000030 5a 9d ac 3f 6f 3e e0 3f 1e fa be 3f b8 0f c0 3f
       1.348552 1.7519053 1.492008 1.5004797
000040 5c f0 d5 3f bd 3d af 3f d6 6c 4d 40 6f 06 56 40
       1.6713977 1.3690716 3.2097678 3.3441427
000050 ad 79 1a 40 4b d6 37 40 a5 e9 f1 3f 51 ef 06 40
       2.4136765 2.8724544 1.8899428 2.1083567
000060 4d 21 00 40 4e e8 37 40 c1 79 89 40 1d 54 20 40
       2.0020325 2.8735538 4.2961125 2.5051339
000070 e7 d3 3a 40 d6 64 44 40 cc d1 d1 3f fa f2 3a 40
       2.9191835 3.0686545 1.639215 2.92108
