04_Experiments/2022_08_01 18-38-17 100_runs_train_val_split_custom_loss/models/Model_run51_train_val_split0.6_alcalinity_of_ash.pt (torch, 278113 bytes, 318 tensors)

weight f4 [12]
1.0 1.0 1.0 1.0 1.0 1.0 1.0 1.0
1.0 1.0 1.0 1.0
00000000: 0000 803f 0000 803f 0000 803f 0000 803f
00000010: 0000 803f 0000 803f 0000 803f 0000 803f
00000020: 0000 803f 0000 803f 0000 803f 0000 803f

bias f4 [12]
0.0 0.0 0.0 0.0 0.0 0.0 0.0 0.0
0.0 0.0 0.0 0.0
00000000: 0000 0000 0000 0000 0000 0000 0000 0000
00000010: 0000 0000 0000 0000 0000 0000 0000 0000
00000020: 0000 0000 0000 0000 0000 0000 0000 0000

running_mean f4 [12]
0.0 0.0 0.0 0.0 0.0 0.0 0.0 0.0
0.0 0.0 0.0 0.0
00000000: 0000 0000 0000 0000 0000 0000 0000 0000
00000010: 0000 0000 0000 0000 0000 0000 0000 0000
00000020: 0000 0000 0000 0000 0000 0000 0000 0000

running_var f4 [12]
1.0 1.0 1.0 1.0 1.0 1.0 1.0 1.0
1.0 1.0 1.0 1.0
00000000: 0000 803f 0000 803f 0000 803f 0000 803f
00000010: 0000 803f 0000 803f 0000 803f 0000 803f
00000020: 0000 803f 0000 803f 0000 803f 0000 803f

weight f4 [12]
0.7945922 1.0929437 1.0502847 1.2351227 0.8492915 1.4309853 1.5263795 1.290916
1.2914801 1.4107244 1.2363024 0.69351804
00000000: 656a 4b3f 94e5 8b3f bb6f 863f 8018 9e3f
00000010: 2b6b 593f 872a b73f 6760 c33f bc3c a53f
00000020: 384f a53f 9e92 b43f 283f 9e3f 668a 313f

bias f4 [12]
-0.2987641 -0.35887527 -0.13984409 0.12685458 0.6911682 -0.42413363 0.19895133 0.523036
-0.4715341 0.20203036 0.6335242 -0.8361097
00000000: 9cf7 98be 80be b7be 4a33 0fbe 2be6 013e
00000010: 66f0 303f 0b28 d9be e6b9 4b3e b0e5 053f
00000020: eb6c f1be 0ce1 4e3e a42e 223f 490b 56bf

running_mean f4 [12]
1.6979017 1.6394727 1.4128478 1.681212 3.6847818 1.8793693 528.4615 0.6657738
0.2555914 70.62566 1.1257875 9.222063
00000000: d854 d93f 3eda d13f 32d8 b43f f431 d73f
00000010: 77d3 6b40 2c8f f03f 891d 0444 2770 2a3f
00000020: e0dc 823e 5740 8d42 ce19 903f 928d 1341

running_var f4 [12]
0.34659937 0.53383946 1.0155044 1.1762401 4.550839 0.6497018 57807.19 0.32221797
0.30071467 152.81122 0.5325367 0.79430884
00000000: 7975 b13e b4a9 083f 0cfc 813f 098f 963f
00000010: 79a0 9140 db52 263f 31cf 6147 c1f9 a43e
00000020: 46f7 993e accf 1843 5354 083f d357 4b3f

weight f4 [32, 12]
0.031955358 0.39753988 0.33130035 -0.22077624 -0.8266163 0.8713628 0.59371465 0.5222853
-0.8612441 1.9146581 -0.8378963 -0.04168963 0.8428611 -0.69833964 -0.58112055 0.5987433
-0.070874505 -0.61868304 1.4993111 -0.2998992 0.39599216 0.7491836 -1.7446882 -0.3210701
-0.48992032 0.3174229 -1.1748749 0.262392 0.0848945 -2.1219928 -0.77198255 0.20712438
0.87084436 0.87446886 0.17078216 -1.4118769 0.55686814 -0.64588284 -0.64820623 -0.6003698
-1.3112978 0.8948771 -0.7762279 1.1850369 0.9577941 1.0348622 -0.07867145 -0.030259741
-0.94663614 0.4815667 0.86652863 0.35975963 0.5583588 0.48193637 -0.78432053 1.53838
0.53577995 0.35025576 2.6135805 1.9328384 -1.4641567 0.83026344 -0.33087087 -0.11707423
-0.5139989 -0.23957735 -1.3064923 0.21159413 -1.2911054 -0.93402445 -1.7025045 -0.32803687
-1.369028 -0.57084405 0.41833454 -0.35605407 0.4858265 -1.3676428 -0.023800135 0.32518715
0.49184525 -1.5228767 -0.49365973 0.64600813 -0.38537207 -0.37378037 -0.52004576 -1.3577564
1.9144716 1.3422723 2.5425315 -0.95274705 0.81865245 0.841957 -0.9996904 -0.061301265
0.0751123 -0.450432 0.25770947 1.0116596 -0.26272398 0.08837414 0.22772907 0.40468517
1.0851859 0.9604562 0.9451713 0.8534131 1.3707441 0.5416255 0.27097484 -0.98749477
0.37201992 0.9563652 1.2754039 -0.71144676 -0.012606122 -0.9417473 -0.44807634 0.3619738
0.26324975 0.30441996 0.091425516 1.6693732 0.42821875 -0.09347737 -0.49434873 -1.100768
-0.9076945 0.51633793 0.5130577 -0.374332 0.12556604 -0.8948803 -1.1046796 0.06834637
0.20001727 -1.602512 -0.6456766 -0.24543326 -1.5006202 -0.85652244 -0.060290355 -0.22481255
0.023325512 0.9792305 -1.679425 -0.61948544 -0.9067648 -0.962894 -0.021041133 -0.2028011
-0.661066 0.8588265 0.027073357 0.5612937 -0.24857275 0.048607457 0.46127865 0.5894766
0.63837296 1.2684778 -1.3633208 0.10066866 1.5012876 -0.58366174 -0.6924478 -0.19287139
-0.2560973 -0.38791543 1.2193868 -0.51610464 -1.8830066 -1.2486703 -0.19430608 1.1172261
0.11435184 0.82682884 0.14298263 -0.12191386 -0.1951539 -1.5155823 0.8693419 0.36739993
-0.9767377 0.99008083 -0.41997316 0.54119337 -0.5658029 -0.07866098 0.47439212 -1.1790001
-0.08034791 -0.33815226 0.6041832 0.0068504256 -1.2179843 -0.5175162 0.7326503 2.1696715
-0.9017063 2.1048057 -0.57322544 0.117338404 1.3064381 0.13261151 -0.03598919 -0.58600265
0.16863501 -1.0219327 0.4691662 0.15932418 -0.046445098 -1.3299928 0.7281563 0.18164021
-0.6517448 1.373279 -0.22382589 0.71016335 1.1270789 -0.9462203 -0.3539721 -1.7151845
1.0681454 0.7118321 -0.3169309 0.9793398 -0.47459507 -0.3865547 0.090683706 0.05110816
-1.6779689 0.70229346 -1.5662601 1.1414378 1.2072293 1.439137 0.5344257 -0.10170711
-0.3340657 -0.0014996439 1.0305163 0.3820914 0.14215428 0.8665375 0.37246755 -0.4018368
-0.17138354 -0.3764937 0.22546753 -1.9494387 -1.4536732 0.32374966 0.6207696 -0.5323093
00000000: 9fe3 023d 598a cb3e 33a0 a93e 2b13 62be
00000010: 209d 53bf a211 5f3f affd 173f 7db4 053f
00000020: 7e7a 5cbf 8413 f53f 5f80 56bf bfc2 2abd
00000030: bfc5 573f 63c6 32bf 51c4 14bf 3e47 193f
00000040: a726 91bd 0362 1ebf 6de9 bf3f 638c 99be
00000050: 7cbf ca3e 7fca 3f3f f151 dfbf 4d63 a4be
00000060: d6d6 fabe 4185 a23e 4d62 96bf 3f58 863e
00000070: 2bdd ad3d bbce 07c0 a6a0 45bf 6a18 543e
00000080: a8ef 5e3f 31dd 5f3f 85e1 2e3e 62b8 b4bf
00000090: e98e 0e3f 9458 25bf d8f0 25bf d6b1 19bf
000000a0: 9bd8 a7bf aa16 653f dfb6 46bf 4aaf 973f
000000b0: fe31 753f 5d76 843f 7f1e a1bd 47e3 f7bc
000000c0: bf56 72bf e98f f63e d2d4 5d3f 6a32 b83e
000000d0: 9af0 0e3f 5dc0 f63e 3bc9 48bf a3e9 c43f
000000e0: e028 093f b954 b33e e744 2740 4067 f73f
000000f0: 7d69 bbbf 258c 543f e867 a9be 9dc4 efbd
00000100: 6f95 03bf c453 75be 243b a7bf 22ac 583e
00000110: f142 a5bf 3a1c 6fbf abeb d9bf 73f4 a7be
00000120: 4f3c afbf d622 12bf f22f d63e b84c b6be
00000130: 40be f83e eb0e afbf 80f8 c2bc ee7e a63e
00000140: 24d3 fb3e a0ed c2bf f8c0 fcbe ca60 253f
00000150: 7d4f c5be 2460 bfbe b821 05bf f6ca adbf
00000160: 680d f53f 94cf ab3f d6b8 2240 3be7 73bf
00000170: 3593 513f 7e8a 573f b6eb 7fbf 0917 7bbd
00000180: 7ad4 993d 069f e6be 7ff2 833e 107e 813f
00000190: c283 86be 80fd b43d cf31 693e e532 cf3e
000001a0: 5fe7 8a3f 75e0 753f bff6 713f 4879 5a3f
000001b0: 8b74 af3f f8a7 0a3f 37bd 8a3e 75cc 7cbf
000001c0: 6579 be3e 5ad4 743f 6f40 a33f 6021 36bf
000001d0: e889 4ebc 5a16 71bf 436a e5be a154 b93e
000001e0: acc8 863e efdc 9b3e 4d3d bb3d 05ae d53f
000001f0: 7d3f db3e 1071 bfbd 471b fdbe f7e5 8cbf
00000200: ab5e 68bf b92e 043f c057 033f 72a8 bfbe
00000210: 6294 003e e016 65bf 2466 8dbf 2ef9 8b3d
00000220: 54d1 4c3e 1d1f cdbf 104b 25bf db52 7bbe
00000230: 5314 c0bf 0e45 5bbf 05f3 76bd 4335 66be
00000240: 2515 bf3c daae 7a3f 66f7 d6bf 9996 1ebf
00000250: bd21 68bf 3980 76bf 745e acbc 17ab 4fbe
00000260: 9f3b 29bf 0edc 5b3f f2c8 dd3c f2b0 0f3f
00000270: db89 7ebe 9d18 473d b72c ec3e f0e7 163f
00000280: 696c 233f 7b5d a23f 4c81 aebf 5f2b ce3d
00000290: 312a c03f db6a 15bf 4244 31bf 1480 45be
000002a0: 2f1f 83be da9c c6be de14 9c3f 6f1f 04bf
000002b0: 5c06 f1bf 6ed4 9fbf 2cf8 46be 4401 8f3f
000002c0: 4c31 ea3d 0eab 533f 0a6a 123e f9ad f9bd
000002d0: 6dd6 47be 9afe c1bf 318d 5e3f d81b bc3e
000002e0: 7b0b 7abf f075 7d3f b906 d7be a68b 0a3f
000002f0: 75d8 10bf 0219 a1bd 86e3 f23e 7ae9 96bf
00000300: 728d a4bd 4b22 adbe c0ab 1a3f 8979 e03b
00000310: e9e6 9bbf f17b 04bf f88e 3b3f e6db 0a40
00000320: 39d6 66bf 23b5 0640 e7be 12bf 1e4f f03d
00000330: 5d39 a73f 50cb 073e 6769 13bd 4504 16bf
00000340: a8ae 2c3e b1ce 82bf 8d36 f03e e125 233e
00000350: 373d 3ebd 343d aabf 7468 3a3f e4ff 393e
00000360: bfd8 26bf 9bc7 af3f 9d32 65be 44cd 353f
00000370: 1f44 903f 7e3b 72bf d53b b5be 2a8b dbbf
00000380: fdb8 883f a13a 363f c444 a2be 03b6 7a3f
00000390: 20fe f2be 7fea c5be 61b8 b93d ca56 513d
000003a0: afc7 d6bf 81c9 333f 367b c8bf a21a 923f
000003b0: 7d86 9a3f a435 b83f 1fd0 083f d14b d0bd
000003c0: a90a abbe b38f c4ba f5e7 833f 7ca1 c33e
000003d0: e490 113e 67d5 5d3f 11b4 be3e 8ebd cdbe
000003e0: 2b7f 2fbe c8c3 c0be f6e0 663e 3587 f9bf
000003f0: f711 babf 84c2 a53e c2ea 1e3f 6c45 08bf

weight f4 [32, 16]
-0.53093725 1.0551876 0.37459108 -0.25451434 -1.9613872 0.74190575 0.7389679 0.24062558
-0.5032845 0.3808212 0.35851777 0.16405822 0.8376495 0.18342544 -0.88876057 1.9751321
0.93165445 -0.80709636 0.68727005 1.1916847 -0.1421906 0.059088316 -0.65340084 0.07805284
-0.4033071 0.13206924 -0.2955908 1.1619481 0.37144783 0.92031515 -1.4262263 0.07941078
0.11600821 -1.6751795 -1.8617011 -1.1246142 0.918662 -0.28479356 -0.5957088 -1.7013336
0.28124252 0.20398645 -0.4609872 -1.7211537 1.1953092 1.2487044 0.9423983 1.3427944
0.44154686 0.5680796 -0.88740027 0.021852482 0.52552295 -1.3448088 -0.44195542 1.3142054
1.0163633 0.53081965 -0.5400649 -0.3352587 -0.36556304 -0.2861781 -0.13033271 -0.77916616
0.9289743 -0.16876903 0.0093878945 0.13653271 0.12781179 -0.97429043 -0.13123973 1.2960088
1.7922636 -0.6425965 -0.68468565 -0.35847464 -1.0340683 -1.0711772 -0.35464892 1.3352256
-0.8578615 -0.28652966 0.23019311 -0.009597453 -1.5469569 0.212759 0.77807534 -0.21272343
-0.7905584 -0.66037536 -0.14231755 -0.60438687 -2.0954158 0.22232018 0.56072557 1.161566
-0.5969549 0.091323875 0.39961818 0.77191585 0.5373522 1.2005928 0.88889694 -0.22553213
-0.40392834 0.49724796 -0.35771078 0.033178855 0.3874621 0.4270121 2.2088687 -1.1843001
-0.13742693 -0.562245 -1.1371257 -2.043006 -0.0054652686 -0.5489766 0.5439224 0.08581364
-2.253506 0.4474043 0.10870573 1.3747637 -0.67188776 -0.6464234 -0.9134445 -0.18994348
-0.8581557 1.6975222 -0.08572213 0.026225507 -0.6005846 1.6031891 -0.72599584 0.50836754
-0.8513907 -0.6347915 -0.71021616 0.17633498 1.449963 -0.6057143 0.7484256 -0.20028713
-0.3311287 -0.6830558 -2.3790195 -0.450831 -0.19915125 0.034690514 -1.0848824 0.5210144
0.51476747 1.2766963 -0.5415842 -0.81463367 -1.1878476 -0.29017144 0.61994636 -0.02987305
0.15059371 -0.13590232 1.5465189 0.37150165 -0.29652032 -0.44452396 -0.0044656163 0.061504062
-0.47598326 -1.6808456 -1.0643303 -1.1225312 0.60507864 -0.7538179 0.31200355 -0.007030141
-0.6573598 0.46088627 -0.59953254 -0.91296893 -2.0504262 -0.09007772 -0.6150755 0.6037349
0.5146659 0.6335248 -1.5524195 0.72967106 -0.52396405 -0.46589124 -0.8127345 -1.9491575
0.8722782 0.4337187 -0.5088948 0.4602348 0.36636475 -1.1210318 -0.85871017 -0.6764858
0.97758347 -1.2948582 -0.6337356 -0.2914918 -0.6728502 0.24431244 0.37449637 1.4086118
0.23921965 -1.6630876 0.055154044 1.2058648 -0.44804934 -1.4173568 0.8660392 0.598255
0.3407803 0.053743638 0.55855024 -0.7117764 -1.8468057 0.08031572 -0.27831024 -0.25485516
-0.32143107 1.0303564 0.55202407 0.20691805 -0.0024667194 -1.5264143 -0.6390249 0.26260313
0.34303743 -1.3351686 -1.4614775 -0.26120082 0.3870813 0.26641497 1.1768503 0.1300911
-0.12220562 0.010200381 0.5358483 -0.28170815 0.04384778 -1.2829609 -1.1111983 -1.7283825
0.34843436 1.0624827 -0.10858299 1.0415617 0.28585494 -0.16625582 1.6881828 0.67865175
00000000: 81eb 07bf 6310 873f 67ca bf3e b44f 82be
00000010: bc0e fbbf 89ed 3d3f 002d 3d3f 8d66 763e
00000020: 41d7 00bf fffa c23e a48f b73e e1fe 273e
00000030: 3370 563f e1d3 3b3e d085 63bf 21d1 fc3f
00000040: e880 6e3f de9d 4ebf eef0 2f3f 2089 983f
00000050: 6a9a 11be 9706 723d 4745 27bf 2bda 9f3d
00000060: 457e cebe 293d 073e ad57 97be b7ba 943f
00000070: 692e be3e c699 6b3f 958e b6bf 1ea2 a23d
00000080: b695 ed3d 486c d6bf 394c eebf 5cf3 8fbf
00000090: 6f2d 6b3f 76d0 91be 5f80 18bf 4dc5 d9bf
000000a0: 05ff 8f3e d3e1 503e 8406 ecbe c44e dcbf
000000b0: e4ff 983f 8cd5 9f3f 0441 713f b0e0 ab3f
000000c0: 6e12 e23e aa6d 113f aa2c 63bf fa03 b33c
000000d0: ac88 063f b222 acbf fb47 e2be e237 a83f
000000e0: 3118 823f cce3 073f b141 0abf 07a7 abbe
000000f0: 142b bbbe f085 92be f075 05be 6f77 47bf
00000100: 42d1 6d3f cad1 2cbe afcf 193c 3bcf 0b3e
00000110: 18e1 023e 196b 79bf b563 06be 9ee3 a53f
00000120: e568 e53f 3481 24bf 8f47 2fbf fd89 b7be
00000130: 5a5c 84bf 561c 89bf 8b94 b5be ace8 aa3f
00000140: d09c 5bbf 04b4 92be beb7 6b3e a33e 1dbc
00000150: af02 c6bf 7fdd 593e f22f 473f 2cd4 59be
00000160: 0962 4abf 5c0e 29bf b1bb 11be 19b9 1abf
00000170: 4b1b 06c0 e7a7 633e b68b 0f3f 32ae 943f
00000180: 09d2 18bf 0308 bb3d c19a cc3e 479c 453f
00000190: ea8f 093f 06ad 993f c08e 633f e5f1 66be
000001a0: b2cf cebe 4997 fe3e de25 b7be 8de6 073d
000001b0: 6f61 c63e 54a1 da3e 1b5e 0d40 2597 97bf
000001c0: a5b9 0cbe 4aef 0fbf 568d 91bf 9cc0 02c0
000001d0: ff15 b3bb bb89 0cbf 803e 0b3f 10bf af3d
000001e0: 7139 10c0 2d12 e53e 1ca1 de3d 42f8 af3f
000001f0: d600 2cbf 017c 25bf 80d7 69bf 8b80 42be
00000200: 18b0 5bbf 6848 d93f 168f afbd e0d6 d63c
00000210: eabf 19bf 4d35 cd3f ddda 39bf 6024 023f
00000220: bef4 59bf b281 22bf bad0 35bf 2891 343e
00000230: 6398 b93f 1810 1bbf d298 3f3f 1218 4dbe
00000240: b389 a9be bfdc 2ebf db41 18c0 52d3 e6be
00000250: 4eee 4bbe a417 0e3d 6ddd 8abf 3361 053f
00000260: cdc7 033f c96a a33f 43a5 0abf d58b 50bf
00000270: 640b 98bf 5a91 94be ceb4 1e3f 54b8 f4bc
00000280: 3d35 1a3e fa29 0bbe 55f4 c53f 7735 be3e
00000290: 83d1 97be a598 e3be 4e54 92bb afeb 7b3d
000002a0: 14b4 f3be f325 d7bf fa3b 88bf 1aaf 8fbf
000002b0: 6fe6 1a3f 36fa 40bf eebe 9f3e 195d e6bb
000002c0: bb48 28bf 49f9 eb3e f77a 19bf 55b8 69bf
000002d0: 2f3a 03c0 ab7a b8bd 9775 1dbf 5f8e 1a3f
000002e0: 25c1 033f ae2e 223f afb5 c6bf b9cb 3a3f
000002f0: 8222 06bf 4c89 eebe 5e0f 50bf fe7d f9bf
00000300: a04d 5f3f 6110 de3e ee46 02bf e5a3 eb3e
00000310: 2994 bb3e f87d 8fbf 6ed4 5bbf 2c2e 2dbf
00000320: e942 7a3f eabd a5bf 7f3c 22bf 6a3e 95be
00000330: e93f 2cbf 0a2d 7a3e fdbd bf3e 644d b43f
00000340: fff5 743e 0ee0 d4bf 35e9 613d c759 9a3f
00000350: b966 e5be f36b b5bf bfb4 5d3f 3d27 193f
00000360: c17a ae3e 4a22 5c3d 26fd 0e3f fa36 36bf
00000370: 2164 ecbf 917c a43d ae7e 8ebe 607c 82be
00000380: 9d92 a4be b8e2 833f 7351 0d3f 53e2 533e
00000390: afa8 21bb 8b61 c3bf 2397 23bf eb73 863e
000003a0: 9aa2 af3e cee6 aabf b211 bbbf 1dbc 85be
000003b0: 852f c63e 8b67 883e 08a3 963f 9a36 053e
000003c0: f146 fabd 801f 273c 5b2d 093f 0d3c 90be
000003d0: bb99 333d 1038 a4bf bf3b 8ebf a33b ddbf
000003e0: fd65 b23e 6fff 873f c260 debd e551 853f
000003f0: 945b 923e f73e 2abe 6016 d83f 1fbc 2d3f

weight f4 [32]
1.2523494 1.0833509 0.7353334 0.76158595 0.61674494 0.8255957 1.0984727 0.9169802
1.337541 0.8860098 1.5097169 0.4491575 1.5654866 0.5682969 1.3670372 1.7922789
1.4949946 1.2232403 0.7936193 0.77795357 0.7842892 0.3086884 0.6834493 1.2750187
0.9034441 0.8450655 1.203208 0.5668354 2.284776 0.24116264 1.3703367 1.8901565
00000000: fc4c a03f 3eab 8a3f cf3e 3c3f 4cf7 423f
00000010: ffe2 1d3f 3d5a 533f c19a 8c3f 37bf 6a3f
00000020: 8b34 ab3f 8ad1 623f 673e c13f f9f7 e53e
00000030: dd61 c83f e87b 113f 13fb ae3f 6569 e53f
00000040: fc5b bf3f 2393 9c3f a22a 4b3f f727 473f
00000050: 2dc7 483f 680c 9e3e 89f6 2e3f d033 a33f
00000060: 1d48 673f 3656 583f b802 9a3f 201c 113f
00000070: c539 1240 57f3 763e 3167 af3f a6f0 f13f

bias f4 [32]
0.09163321 -0.43457848 0.23157121 0.49556303 -0.4326496 -0.11739904 -0.14094225 -1.0548731
-0.22930388 0.2365764 0.23789783 0.081152745 -0.2073714 0.056230195 0.12235718 0.8820484
-0.12549771 0.5386712 -0.289136 0.0409107 -0.047417644 -0.20554952 0.14771636 0.15632804
0.4607189 -0.18415278 0.44111118 -0.5894704 -0.019745054 -0.29531172 -0.0784479 0.6262702
00000000: 31aa bb3d 1281 debe 0121 6d3e 70ba fd3e
00000010: 4084 ddbe e86e f0bd 2a53 10be 1506 87bf
00000020: a3ce 6abe 1541 723e 7d9b 733e 6933 a63d
00000030: 2b59 54be a251 663d 6796 fa3d edcd 613f
00000040: 7982 00be 5be6 093f a209 94be fa91 273d
00000050: 0139 42bd 937b 52be f542 173e 7514 203e
00000060: 59e3 eb3e 8c92 3cbe 53d9 e13e 88e7 16bf
00000070: 61c0 a1bc 1933 97be 4ba9 a0bd 3e53 203f

running_mean f4 [32]
-0.29749733 -0.10258049 2.1150422 -0.934255 0.46725816 -0.77271366 -0.082022145 0.31936455
-0.19146426 -1.5402827 0.79314375 1.5651414 -0.38686347 -1.2632293 -0.083055235 0.9079302
0.95326495 0.41252735 -1.2719826 -0.9750082 1.382509 -0.7085042 -1.3491993 -0.871205
0.4251476 -0.8517096 0.21185257 0.043779127 -0.59703547 -2.6280944 0.35371926 -1.2861669
00000000: 9251 98be b815 d2bd da5c 0740 562b 6fbf
00000010: 763c ef3e 90d0 45bf 3afb a7bd c083 a33e
00000020: 350f 44be fc27 c5bf 780b 4b3f 8e56 c83f
00000030: f812 c6be 7fb1 a1bf dd18 aabd 1d6e 683f
00000040: 2c09 743f c936 d33e 53d0 a2bf 239a 79bf
00000050: 0ef6 b03f 8860 35bf 90b2 acbf 4a07 5fbf
00000060: f2ac d93e a409 5abf e1ef 583e be51 333d
00000070: 51d7 18bf b332 28c0 b11a b53e 1ea1 a4bf

running_var f4 [32]
17.708887 15.542089 20.386518 9.243356 22.932745 15.873506 11.918603 19.289753
6.018404 9.119626 8.06555 14.786919 3.5518808 9.0680065 7.628118 10.091326
19.806479 3.4970274 22.776775 12.543013 4.641991 11.426954 7.5395126 25.386456
13.415123 5.9644737 15.045289 9.361748 15.0365505 3.9870272 8.428741 8.855578
00000000: cdab 8d41 66ac 7841 9717 a341 c9e4 1341
00000010: 4376 b741 e1f9 7d41 99b2 3e41 6a51 9a41
00000020: c496 c040 fde9 1141 7e0c 0141 3897 6c41
00000030: 0452 6340 8e16 1141 8b19 f440 1276 2141
00000040: ab73 9e41 4ccf 5f40 d636 b641 2eb0 4841
00000050: 318b 9440 ced4 3641 b043 f140 7617 cb41
00000060: 58a4 5641 f8dc be40 81b9 7041 b8c9 1541
00000070: b695 7041 742b 7f40 20dc 0641 73b0 0d41

weight f4 [32]
1.3582386 1.3081642 1.3347722 1.1204708 0.5233151 0.9153628 0.7498523 1.1893889
0.5315858 1.2496353 0.27636042 0.9867243 0.92783177 0.5374685 1.1375571 1.3177409
2.004813 0.9106296 0.9562574 1.4686853 0.82353073 1.4495236 1.1574899 0.96738106
1.3184117 2.1137695 0.5518198 1.5650992 1.5417737 0.5120512 1.6062688 2.2239368
00000000: c3da ad3f ed71 a73f d1d9 aa3f 966b 8f3f
00000010: faf7 053f 3755 6a3f 52f6 3f3f e53d 983f
00000020: 0216 083f 0df4 9f3f 1d7f 8d3e f799 7c3f
00000030: 6286 6d3f 8997 093f 799b 913f bcab a83f
00000040: db4e 0040 051f 693f 49cd 743f e1fd bb3f
00000050: e9d2 523f fd89 b93f a128 943f 49a6 773f
00000060: b7c1 a83f 0048 0740 1044 0d3f 2c55 c83f
00000070: d758 c53f ca15 033f 379a cd3f fb54 0e40

bias f4 [32]
-0.10992649 -0.17917383 -0.11780526 0.21205424 0.22849211 -0.2935744 -0.647275 0.6356881
0.4485586 -0.1413905 -0.2354144 -0.6358673 0.15164982 -0.44438902 0.047792297 0.4840659
-0.03513498 0.55078614 0.40322372 -0.08155351 -0.23264526 -0.33586013 -0.18455599 0.20830974
-0.6829138 0.05240654 -0.91968894 -0.8838843 -0.5441111 -0.2643333 0.23271433 -0.3331924
00000000: 2421 e1bd 5879 37be e243 f1bd bf24 593e
00000010: d6f9 693e 624f 96be d0b3 25bf 75bc 223f
00000020: 79a9 e53e acc8 10be 7910 71be 33c8 22bf
00000030: 174a 1b3e f586 e3be dbc1 433d 7cd7 f73e
00000040: b2e9 0fbd 5200 0d3f 5773 ce3e 8705 a7bd
00000050: 8f3a 6ebe dcf5 abbe 3ffc 3cbe 264f 553e
00000060: 70d3 2ebf 3da8 563d bc70 6bbf 3e46 62bf
00000070: dd4a 0bbf b256 87be aa4c 6e3e 3298 aabe

running_mean f4 [32]
0.28665316 1.0056123 0.08086244 -1.1011782 -0.022944523 1.3584609 -0.7420793 0.3054897
-1.7392199 -0.22058313 -0.46509215 -1.3383422 0.6175087 1.3918438 -1.2320315 0.6510973
0.4425174 -0.22695915 0.022185946 -0.6668011 -1.1562134 0.6811102 0.87508434 -0.14744586
-0.9518979 -0.5745667 -1.0642219 -1.2401311 -2.0739386 -1.9280337 -0.07690676 0.6227913
00000000: 34c4 923e e7b7 803f 359b a53d 68f3 8cbf
00000010: 27f6 bbbc 0ce2 ad3f e9f8 3dbf 2569 9c3e
00000020: c29e debf 8be0 61be 8f20 eebe cc4e abbf
00000030: 0d15 1e3f f027 b23f 35b3 9dbf 50ae 263f
00000040: a491 e23e fb67 68be 4dbf b53c 7ab3 2abf
00000050: cdfe 93bf 3d5d 2e3f 8705 603f 0cfc 16be
00000060: 95af 73bf ce16 13bf 6c38 88bf 9ebc 9ebf
00000070: 69bb 04c0 cfc9 f6bf 4b81 9dbd 406f 1f3f

running_var f4 [32]
4.141436 1.1659253 10.767845 5.0975266 7.1435804 10.912576 5.261197 7.298712
7.1573462 7.4416585 2.8874037 7.338981 7.962391 4.926142 4.2836823 3.8994932
7.503681 3.946918 4.595058 8.286861 7.521075 4.602434 3.8586085 2.979274
5.082904 11.777736 6.901567 10.686373 9.651257 14.649404 4.7413354 3.8348773
00000000: a586 8440 0a3d 953f 1849 2c41 f01e a340
00000010: 3698 e440 e999 2e41 ba5b a840 0c8f e940
00000020: fb08 e540 1122 ee40 39cb 3840 efd8 ea40
00000030: e8cb fe40 f5a2 9d40 ed13 8940 4c91 7940
00000040: 281e f040 4e9a 7c40 b70a 9340 fc96 0441
00000050: a5ac f040 2447 9340 71f3 7640 6dac 3e40
00000060: 26a7 a240 9b71 3c41 a3d9 dc40 62fb 2a41
00000070: 8c6b 1a41 f563 6a41 05b9 9740 a16e 7540

weight f4 [32, 16]
-0.28959084 -0.34779805 0.3406726 0.058554657 -0.41801766 -0.85082674 -0.34094226 -1.89333
0.45409217 -0.26392728 -0.7359783 0.1898331 -0.17504263 1.3567373 0.82380235 0.81721616
-1.0987558 -1.2710358 -0.83862895 0.5518035 0.5303037 0.809229 -0.5463127 -0.9688225
-0.32086536 -0.9299675 -1.876058 0.14556922 0.100353785 0.35675794 0.35895622 -1.6786456
-0.50963396 2.0030403 -0.2654611 0.63950425 1.3824265 -0.84014845 -0.6968412 -1.52921
1.0161397 -0.35614416 -0.17954864 0.51434505 -0.11397243 0.52940863 -0.60577506 -1.4594111
-0.7717086 -0.06211185 0.39162558 0.6449802 0.36386737 -1.0091275 0.04342264 -1.4846201
0.6603926 -0.099435784 -0.4721428 0.49241498 0.52652156 -1.1037577 1.7898846 -0.7776436
-1.6983441 0.38456494 0.51468545 0.24715482 2.0925288 -0.10071285 -0.034855973 -0.34177053
-0.6759791 0.8749827 -0.6212937 -0.62646055 -0.65168965 -0.115254514 0.5216346 0.7293812
1.8339648 0.007468359 -1.569462 -0.039512362 0.029679367 -0.46996787 0.37278274 1.2845188
0.37166864 -0.3988301 0.34114847 0.482302 0.71474916 -1.0627866 0.2574012 0.38517633
0.45759305 -1.1394985 0.8071725 1.4066695 -0.16555573 -0.36743075 -0.03331662 0.1247624
1.8077935 0.43941298 0.2622789 -0.40452328 -0.66710424 0.91177446 -0.014232279 0.0029158774
-0.1019226 -1.2039832 0.054257248 -0.05323822 -0.9349517 -0.13540505 0.31543064 -0.6630724
-0.7297743 0.5677086 -0.19842467 1.425021 -0.25729036 -0.66877687 -0.073346965 -0.6182733
-0.18720517 0.1087505 -1.6223563 0.60573137 0.9736579 0.48877296 -0.67315096 -1.145424
-0.64309 -1.5088489 1.0422164 1.2030332 1.3517219 -0.2556961 1.3402654 0.33281168
0.4849032 -0.45230842 0.8747339 -0.7939455 -0.39456448 -0.88105124 0.732385 0.96328545
-0.29114667 0.57889074 0.12311153 -0.4023321 0.2980804 -0.09883254 -1.9874485 -0.21789451
1.2273872 -1.0045534 1.3589705 -0.12706837 0.37122747 0.2755396 0.91052955 -0.50345814
0.01434263 0.791193 -0.7540578 0.35553342 -0.20090634 1.5643654 0.8880183 -0.6008258
-0.028547056 -0.435906 0.4889503 -0.29174903 0.08162179 0.6785486 0.003392298 -1.406238
-0.46624753 -0.35219067 0.544918 -1.2005442 -0.46909806 0.6137489 0.9446132 0.7001484
0.79518306 0.50912863 -0.15813833 1.7117633 0.5873957 -0.107045405 -0.65130514 -0.72096825
0.54132766 1.686962 0.48049808 -0.78442144 1.488258 -1.0854445 0.67304826 -0.9891791
-1.8944454 -0.2566295 -0.06537723 0.33672407 0.23957112 0.3135658 0.35295522 -0.25246608
1.4873669 -0.90503347 -0.37544683 1.0807887 -0.8291283 -0.080841765 -0.71561325 0.58705574
-0.47395617 -0.6194544 -1.2589644 0.28618807 0.85883254 1.0763448 1.4224772 0.2079569
0.6794602 -0.5753081 -0.8281294 0.72219664 -0.098320946 -0.42895994 1.2698405 0.0011366196
0.5188301 -0.07901853 0.32888225 0.7831938 -0.062002257 -0.3468911 -0.6463895 -0.5411462
0.14321895 0.74652135 -0.86279434 -1.0847633 0.58141094 0.8167606 0.3726644 1.6744381
00000000: 4045 94be 9612 b2be a46c ae3e 02d7 6f3d
00000010: 6906 d6be c8cf 59bf fc8f aebe a358 f2bf
00000020: c57e e83e 7a21 87be 1369 3cbf 9c63 423e
00000030: 603e 33be 91a9 ad3f b6e4 523f 1435 513f
00000040: 08a4 8cbf 4db1 a2bf 63b0 56bf ff42 0d3f
00000050: fcc1 073f a229 4f3f 26db 0bbf c004 78bf
00000060: 7748 a4be 5a12 6ebf ab22 f0bf 1910 153e
00000070: 4986 cd3d faa8 b63e 1cc9 b73e dcdd d6bf
00000080: 5f77 02bf d031 0040 84ea 87be 8db6 233f
00000090: 5af3 b03f f813 57bf 2f64 32bf 27bd c3bf
000000a0: de10 823f 8758 b6be 99db 37be 1eac 033f
000000b0: 616a e9bd 5387 073f 1314 1bbf fccd babf
000000c0: b28e 45bf ff68 7ebd 2683 c83e 6c1d 253f
000000d0: d34c ba3e 172b 81bf f0db 313d 0808 bebf
000000e0: 7d0f 293f fda4 cbbd b3bc f1be d11d fc3e
000000f0: 1eca 063f ef47 8dbf f01a e53f a713 47bf
00000100: 5763 d9bf b2e5 c43e 6dc2 033f 2716 7d3e
00000110: feeb 0540 8a42 cebd 23c5 0ebd 8cfc aebe
00000120: f70c 2dbf defe 5f3f 1b0d 1fbf b85f 20bf
00000130: 22d5 26bf 8f0a ecbd d889 053f bab8 3a3f
00000140: 5cbf ea3f 23b9 f43b 21e4 c8bf b7d7 21bd
00000150: 2522 f33c a19f f0be 61dd be3e 1d6b a43f
00000160: 5a4b be3e 7533 ccbe 03ab ae3e 4af0 f63e
00000170: cdf9 363f 6409 88bf 17ca 833e d535 c53e
00000180: a349 ea3e 16db 91bf dba2 4e3f bf0d b43f
00000190: 7187 29be e21f bcbe 0277 08bd 6e83 ff3d
000001a0: c765 e73f bdfa e03e 6c49 863e ad1d cfbe
000001b0: 58c7 2abf 0d6a 693f 812e 69bc 4e18 3f3b
000001c0: ccbc d0bd 1f1c 9abf d93c 5e3d 5210 5abd
000001d0: ff58 6fbf 9fa7 0abe 2080 a13e 1dbf 29bf
000001e0: 7dd2 3abf 5a55 113f d62f 4bbe 1767 b63f
000001f0: 90bb 83be f634 2bbf ef36 96bd 2947 1ebf
00000200: b6b2 3fbe 95b8 de3d 5fa9 cfbf 3611 1b3f
00000210: a541 793f 7340 fa3e 9f53 2cbf 419d 92bf
00000220: 8ca1 24bf f621 c1bf 5967 853f fefc 993f
00000230: 3905 ad3f 99ea 82be d18d ab3f 4b66 aa3e
00000240: 3b45 f83e f894 e7be 90ee 5f3f 0340 4bbf
00000250: 5b04 cabe 938c 61bf 957d 3b3f e099 763f
00000260: 2d11 95be 2f32 143f e621 fc3d 79fe cdbe
00000270: ff9d 983e b768 cabd b664 febf bd1f 5fbe
00000280: 061b 9d3f 3595 80bf bff2 ad3f 361e 02be
00000290: 8711 be3e 8713 8d3e 7718 693f a2e2 00bf
000002a0: 5afd 6a3c a08b 4a3f ef09 41bf 7a08 b63e
000002b0: 64ba 4dbe 203d c83f 2b55 633f b8cf 19bf
000002c0: 84db e9bc 122f dfbe b257 fa3e 2160 95be
000002d0: 5329 a73d 5cb5 2d3f 5151 5e3b 9bff b3bf
000002e0: ffb7 eebe 5652 b4be bf7f 0b3f 6fab 99bf
000002f0: 9f2d f0be a61e 1d3f 2cd2 713f ed3c 333f
00000300: 1e91 4b3f 4156 023f 04ef 21be 0f1b db3f
00000310: 915f 163f 9f3a dbbd efbb 26bf 6091 38bf
00000320: 7394 0a3f 5fee d73f d803 f63e d8cf 48bf
00000330: 3d7f be3f d8ef 8abf e44c 2c3f d73a 7dbf
00000340: 307d f2bf f164 83be 7fe4 85bd 1967 ac3e
00000350: 2252 753e b28b a03e 8cb6 b43e 3c43 81be
00000360: 0a62 be3f 46b0 67bf 913a c0be 4957 8a3f
00000370: c141 54bf 5e90 a5bd 6e32 37bf 4949 163f
00000380: 62aa f2be 9094 1ebf bf25 a1bf 3e87 923e
00000390: 73dc 5b3f abc5 893f bc13 b63f a7f2 543e
000003a0: 1bf1 2d3f 6447 13bf 4a00 54bf e1e1 383f
000003b0: 7e5c c9bd a3a0 dbbe 228a a23f a0fa 943a
000003c0: 0dd2 043f 78d4 a1bd 4163 a83e 647f 483f
000003d0: 14f6 7dbd b69b b1be c879 25bf 8f88 0abf
000003e0: fda7 123e 061c 3f3f 17e0 5cbf 86d9 8abf
000003f0: 59d7 143f 3917 513f decd be3e fd53 d63f

weight f4 [32]
0.93116105 0.94125617 0.98948777 0.97833663 0.41726673 1.6578524 0.6978596 0.8517545
-0.009291654 0.74847966 1.3298653 0.96018225 1.1978973 1.6834273 1.0956366 0.7122894
1.4264615 0.64583343 0.89365375 0.59395695 0.5433028 1.1130878 0.6609907 1.3198488
0.56688875 1.2454817 1.527828 1.1581047 0.1372217 1.586312 0.88748217 1.597712
00000000: 9260 6e3f 2af6 703f 124f 7d3f 4574 7a3f
00000010: fca3 d53e 8234 d43f eda6 323f 950c 5a3f
00000020: 063c 18bc 5d9c 3f3f 0739 aa3f 81ce 753f
00000030: b354 993f 8c7a d73f d23d 8c3f 9958 363f
00000040: 4a96 b63f 5755 253f 7ec6 643f 900d 183f
00000050: e415 0b3f a979 8e3f b036 293f cef0 a83f
00000060: 9f1f 113f f26b 9f3f de8f c33f c63c 943f
00000070: d883 0c3e 460c cb3f 0832 633f d481 cc3f

bias f4 [32]
-0.15948033 -0.21539141 0.21088237 0.0687931 -0.21064566 -0.19863383 -0.16084647 0.08852995
0.15296705 0.20402965 -0.4102945 0.49491084 0.03782298 -0.40146118 -0.19716698 0.5990911
-0.078910425 0.15737684 -0.05042883 0.11819346 -0.24733946 0.4104107 -0.19495815 -0.53382635
-0.9332911 -0.5275359 -0.16106002 -0.102359764 0.49706322 0.67487276 0.21314725 -0.017686531
00000000: d04e 23be 918f 5cbe 8cf1 573e 66e3 8c3d
00000010: 7fb3 57be ab66 4bbe f0b4 24be 314f b53d
00000020: 65a3 1c3e 26ed 503e 1f12 d2be f464 fd3e
00000030: 45ec 1a3d 528c cdbe 24e6 49be 095e 193f
00000040: ca9b a1bd 6527 213e 768e 4ebd 6a0f f23d
00000050: 8e46 7dbe 5a21 d23e 1ca3 47be d8a8 08bf
00000060: 2aec 6ebf 980c 07bf ebec 24be ffa1 d1bd
00000070: 127f fe3e 76c4 2c3f 4643 5a3e 58e3 90bc

running_mean f4 [32]
0.34932053 -0.5741962 -1.068534 -0.7684978 -0.13319786 0.24374788 1.0052564 0.07276022
0.04118202 -0.07228841 -0.5369711 0.51898026 -0.31093347 0.3833286 -0.3785065 0.8184818
-0.0017340215 -0.23187119 0.9891464 -0.80295587 0.6657603 0.1554994 -0.41749534 0.3043505
0.7573819 0.58651173 0.50808334 0.36209324 0.51778346 -0.13187882 0.4962745 0.3533152
00000000: 24da b23e 86fe 12bf b9c5 88bf 46bc 44bf
00000010: 0565 08be 0b99 793e 3eac 803f 4f03 953d
00000020: 7aae 283d f20b 94bd f076 09bf e4db 043f
00000030: ac32 9fbe a543 c43e 9bcb c1be 0688 513f
00000040: 1b48 e3ba a46f 6dbe b338 7d3f 848e 4dbf
00000050: 446f 2a3f 3c3b 1f3e f3c1 d5be d4d3 9b3e
00000060: c8e3 413f a225 163f c011 023f 4964 b93e
00000070: 758d 043f 3e0b 07be b117 fe3e bbe5 b43e

running_var f4 [32]
4.532616 5.433644 10.364255 7.353903 5.288912 4.5736694 3.8773723 2.3858857
5.2987967 4.324106 4.3774285 5.126292 10.179447 4.5135837 5.6208224 10.620387
1.9927526 2.6598353 5.4430323 3.7987435 3.0229757 4.9812975 6.244006 4.8927746
8.7976055 5.6219563 9.52481 5.2837753 3.5638618 4.857266 5.101884 5.131824
00000000: 310b 9140 69e0 ad40 fdd3 2541 2c53 eb40
00000010: c43e a940 805b 9240 de26 7840 5ab2 1840
00000020: be8f a940 145f 8a40 e513 8c40 960a a440
00000030: 04df 2241 476f 9040 c7dd b340 1bed 2941
00000040: 8412 ff3f be3a 2a40 522d ae40 9d1e 7340
00000050: 6f78 4140 ca66 9f40 e6ce c740 9c91 9c40
00000060: fec2 0c41 11e7 b340 9f65 1841 b014 a940
00000070: 5016 6440 b96e 9b40 a242 a340 e737 a440

weight f4 [32, 16]
0.04649097 0.19772032 -0.7634405 0.21305744 0.7142487 -0.08415665 -0.07413197 0.6481531
-0.36970213 0.34313717 -0.86343926 1.4458592 -0.4736363 0.0907715 0.05690782 0.2635241
-0.03282874 -0.51806337 -0.27986574 0.008905138 -0.12057431 -0.49977118 -0.6099418 -0.83245885
0.22909757 -0.7033737 -0.8894892 -1.2125089 0.22428748 -0.7975057 0.43149242 -0.939941
-0.46230215 -0.18003842 0.11048493 0.38539365 -0.23314795 0.40044883 -0.6515779 -0.4852607
-0.012203504 0.27558303 -0.28846276 0.23849835 0.5346606 0.8330409 -0.2660416 -0.08399389
-0.2977558 -1.2082428 0.2401427 -0.74588513 0.1528229 1.3288119 0.16295575 -0.6934173
0.74064595 -2.0214949 -0.5588564 0.050083384 -0.9842154 -0.85256445 1.4440613 0.5776047
-0.20283015 0.975293 1.1894886 0.71780515 -0.9233267 0.13197494 -0.75037014 1.4079869
-0.09993613 0.052304033 0.724885 0.020830493 -0.12022985 -1.0299064 0.33013144 -0.4618243
0.29171994 0.351183 1.704462 -0.63410354 -0.3009121 0.029148715 -0.38447568 0.7003122
-0.6652928 0.8936105 0.32878786 -0.99823123 0.7557741 1.9987946 -0.27732286 0.8177302
-0.99615794 0.6728537 -0.62734824 0.008135804 0.6014706 0.6607857 0.2746957 1.9359097
1.4133143 -0.39300397 0.14750734 -1.5814095 -0.8110007 0.6840142 0.47635177 0.06781487
0.5819973 1.4650099 0.27633047 0.5396574 -0.2913137 -0.98092043 -0.38765398 -0.24742149
1.2774628 -0.7161727 0.55253077 0.057350487 0.8896481 -0.70989716 -0.9090342 -0.66530025
0.12068581 0.25411373 0.4824395 0.42608112 0.048142873 -0.9564872 0.27187964 -0.5246544
-0.4038147 0.8769653 1.1117465 0.4656608 0.09315206 -1.0985714 0.29867277 0.02234199
0.15888976 -0.01462196 -0.6358728 1.094088 0.9724859 0.7037356 0.7226308 1.8580762
0.24000901 0.13422187 -0.16466457 0.6589802 -0.1802545 0.073061004 1.0134255 0.20616233
0.04243724 -0.0443527 -0.06529105 -1.0188692 -0.013392018 -0.09961448 -0.75593305 0.52529913
0.22614503 -0.906047 0.032612547 0.92431694 -1.0261115 1.0171217 0.9452237 0.6434858
-0.32483345 -0.23253734 -0.8558506 -1.4257009 1.0348533 -0.8238698 -0.34870657 -0.3527337
-0.11684217 2.084387 0.20683095 -0.6032898 -0.035318192 -0.089354515 -0.043090552 0.2709463
-1.3445461 0.60085696 -0.580084 0.497503 -1.0205454 0.51019907 -0.9319452 1.1404972
-0.9026054 0.7140586 0.26442203 0.01278804 0.65968317 -2.0585117 -0.25969684 0.07447728
0.104761325 1.2457536 -0.022109576 -0.38564825 -0.6982274 -1.0452104 0.4490894 -0.041496523
-0.023172075 -1.8122036 -0.002064969 0.32746118 -0.52944547 -1.5155491 -0.52411455 -0.7051886
-1.4253334 1.1800903 -0.10372944 0.62931764 -0.20225355 0.07868079 -0.17464907 0.20121606
-0.48024723 -0.07368122 0.036676593 -0.1830747 -1.8403406 -0.11755798 -0.044657826 -0.8034
0.4451078 -0.1253157 -0.12581524 -0.66539484 0.4134728 1.9242134 0.30094153 0.09313377
0.1677898 1.2077595 -0.4814364 -1.0782892 0.35427272 -1.1182867 0.1491892 0.52099097
00000000: 516d 3e3d 3277 4a3e d670 43bf bb2b 5a3e
00000010: 01d9 363f 525a acbd 81d2 97bd 5ded 253f
00000020: 9949 bdbe adaf af3e 5b0a 5dbf ea11 b93f
00000030: 7580 f2be 68e6 b93d 2d18 693d a1ec 863e
00000040: 6e77 06bd cd9f 04bf 904a 8fbe dbe6 113c
00000050: aaef f6bd 02e2 ffbe 2525 1cbf 061c 55bf
00000060: 8e98 6a3e 4c10 34bf 90b5 63bf 7e33 9bbf
00000070: 9eab 653e 5529 4cbf 93ec dc3e f99f 70bf
00000080: deb2 ecbe fe5b 38be ec45 e23d 5152 c53e
00000090: 56be 6ebe a107 cd3e cfcd 26bf 1774 f8be
000000a0: 35f1 47bc 3819 8d3e 64b1 93be e938 743e
000000b0: 84df 083f 2b42 553f 9b36 88be fd04 acbd
000000c0: 7373 98be b3a7 9abf f8e7 753e 54f2 3ebf
000000d0: 9b7d 1c3e 8216 aa3f dfdd 263e cc83 31bf
000000e0: f99a 3d3f 2c60 01c0 3711 0fbf 3c24 4d3d
000000f0: 8af5 7bbf aa41 5abf 00d7 b83f e7dd 133f
00000100: b5b2 4fbe cdac 793f 2a41 983f 14c2 373f
00000110: 235f 6cbf 7024 073e 4218 40bf ea38 b43f
00000120: 50ab ccbd c13c 563d 1092 393f b6a4 aa3c
00000130: 113b f6bd f9d3 83bf fd06 a93e 3c74 ecbe
00000140: 515c 953e 42ce b33e d02b da3f 9c54 22bf
00000150: 2711 9abe 49c9 ee3c ffd9 c4be a947 333f
00000160: a150 2abf a8c3 643f e256 a83e 158c 7fbf
00000170: 697a 413f 80d8 ff3f 43fd 8dbe c456 513f
00000180: 3504 7fbf 2440 2c3f e599 20bf 094c 053c
00000190: faf9 193f 4029 293f eaa4 8c3e e4cb f73f
000001a0: 7ce7 b43f d137 c9be 2a0c 173e a06b cabf
000001b0: be9d 4fbf 8e1b 2f3f 61e4 f33e 86e2 8a3d
000001c0: c6fd 143f 7285 bb3f 307b 8d3e fd26 0a3f
000001d0: 1227 95be 9a1d 7bbf 957a c6be 0f5c 7dbe
000001e0: e783 a33f 1857 37bf a872 0d3f 58e8 6a3d
000001f0: fabf 633f d2bb 35bf 77b6 68bf 1e51 2abf
00000200: 1f2a f73d 321b 823e 4f02 f73e 4e27 da3e
00000210: 7631 453d 58dc 74bf cf33 8b3e c04f 06bf
00000220: cdc0 cebe cc80 603f b64d 8e3f 186b ee3e
00000230: 82c6 be3d fd9d 8cbf a3eb 983e 8d06 b73c
00000240: ffb3 223e f290 6fbc 8fc8 22bf 130b 8c3f
00000250: d6f4 783f 0428 343f 55fe 383f 71d5 ed3f
00000260: ecc4 753e 7571 093e d49d 28be edb2 283f
00000270: a394 38be 02a1 953d edb7 813f 381c 533e
00000280: acd2 2d3d 2dab 35bd 50b7 85bd 4e6a 82bf
00000290: 326a 5bbc ad02 ccbd d484 41bf 017a 063f
000002a0: 9092 673e b2f2 67bf bc94 053d 09a0 6c3f
000002b0: 9f57 83bf 0b31 823f 2efa 713f 7cbb 243f
000002c0: 9250 a6be 451e 6ebe 0619 5bbf 5e7d b6bf
000002d0: 1376 843f 22e9 52bf ab89 b2be 8399 b4be
000002e0: f34a efbd 9966 0540 7ecb 533e 3371 1abf
000002f0: cfa9 10bd 80ff b6bd b87f 30bd 79b9 8a3e
00000300: 161a acbf c3d1 193f 6380 14bf b7b8 fe3e
00000310: 3ba1 82bf 689c 023f f693 6ebf d0fb 913f
00000320: 2611 67bf 8bcc 363f 5362 873e ed84 513c
00000330: ffe0 283f a8be 03c0 fcf6 84be 8b87 983d
00000340: 1b8d d63d db74 9f3f 241f b5bc b073 c5be
00000350: 08bf 32bf 74c9 85bf 0cef e53e 42f8 29bd
00000360: 5dd3 bdbc 4af6 e7bf 6e54 07bb fea8 a73e
00000370: bd89 07bf 83fd c1bf 5f2c 06bf 3d87 34bf
00000380: 5371 b6bf 330d 973f 1a70 d4bd f61a 213f
00000390: 8e1b 4fbe 6523 a13d 35d7 32be 950b 4e3e
000003a0: f7e2 f5be 2ee6 96bd 323a 163d ef77 3bbe
000003b0: 4890 ebbf 3dc2 f0bd 20eb 36bd 9fab 4dbf
000003c0: 2be5 e33e c252 00be b6d5 00be 5157 2abf
000003d0: b5b2 d33e a04c f63f 0215 9a3e ebbc be3d
000003e0: 17d1 2b3e dd97 9a3f d57e f6be 6105 8abf
000003f0: 3c63 b53e 0524 8fbf 0ec5 183e aa5f 053f

weight f4 [32]
1.0 1.0 1.0 1.0 1.0 1.0 1.0 1.0
1.1147393 1.0236714 0.66258454 0.69985586 1.0618888 0.565912 1.2642795 1.5783908
1.0 1.0 1.0 1.0 1.0 1.0 1.0 1.0
1.0080452 0.77100885 1.2868148 0.52449435 1.6488667 0.8281139 0.9585929 1.8925344
00000000: 0000 803f 0000 803f 0000 803f 0000 803f
00000010: 0000 803f 0000 803f 0000 803f 0000 803f
00000020: c7af 8e3f aa07 833f 249f 293f c129 333f
00000030: f9eb 873f 9cdf 103f e9d3 a13f b608 ca3f
00000040: 0000 803f 0000 803f 0000 803f 0000 803f
00000050: 0000 803f 0000 803f 0000 803f 0000 803f
00000060: a007 813f d660 453f 59b6 a43f 4345 063f
00000070: 100e d33f 46ff 533f 5866 753f 913e f23f

bias f4 [32]
0.0 0.0 0.0 0.0 0.0 0.0 0.0 0.0
-0.3846372 -0.5012442 -0.2418852 -0.4050624 -0.11178293 0.032368354 0.21045922 -0.0631138
0.0 0.0 0.0 0.0 0.0 0.0 0.0 0.0
0.036070306 0.48092216 -0.7676547 0.0013114568 -0.4730755 -0.5124726 0.24324386 0.36774287
00000000: 0000 0000 0000 0000 0000 0000 0000 0000
00000010: 0000 0000 0000 0000 0000 0000 0000 0000
00000020: 2bef c4be 8a51 00bf c1b0 77be 5764 cfbe
00000030: 73ee e4bd ae94 043d 9f82 573e cf41 81bd
00000040: 0000 0000 0000 0000 0000 0000 0000 0000
00000050: 0000 0000 0000 0000 0000 0000 0000 0000
00000060: 75be 133d 6e3b f63e 0585 44bf 30e5 ab3a
00000070: f436 f2be 6831 03bf eb14 793e cb48 bc3e

running_mean f4 [32]
0.32155502 0.0639389 -0.042004284 0.58543 0.091582485 -0.5524404 -1.0208652 0.06425017
0.45100042 -0.3435852 0.1404917 -0.3934292 0.4702408 0.33179682 -0.2446084 -0.2872497
0.1141102 0.37841374 0.020305995 0.050840154 0.28229234 0.3179055 -0.15614916 -0.11654408
-0.9326108 0.50350595 1.0378463 -1.3094628 0.54645985 -1.3078017 -0.99445 0.7200288
00000000: dca2 a43e 66f2 823d af0c 2cbd bede 153f
00000010: 998f bb3d bc6c 0dbf b6ab 82bf 9895 833d
00000020: 87e9 e63e 66ea afbe 0edd 0f3e 8d6f c9be
00000030: 67c3 f03e 46e1 a93e a07a 7abe 6512 93be
00000040: 9cb2 e93d 72bf c13e c258 a63c c43d 503d
00000050: 9f88 903e 82c4 a23e 91e5 1fbe aaae eebd
00000060: 95bf 6ebf c4e5 003f 26d8 843f 7a9c a7bf
00000070: cbe4 0b3f 0c66 a7bf 4694 7ebf cf53 383f

running_var f4 [32]
1.95741 2.6183865 0.8062979 4.608917 2.0905278 2.144939 6.512171 6.225515
3.9996426 5.14172 5.801414 4.3122754 7.3322344 3.615324 6.4126077 8.01667
2.5478814 7.325261 3.4418573 1.6545652 3.169303 1.8784875 7.0631294 2.2751093
7.4083548 7.347004 6.258169 2.4366484 7.142962 8.674616 11.140696 10.225131
00000000: 698c fa3f a593 2740 8a69 4e3f 407c 9340
00000010: 35cb 0540 ae46 0940 b463 d040 6b37 c740
00000020: 25fa 7f40 f888 a440 2fa5 b940 29fe 8940
00000030: aaa1 ea40 7861 6740 1534 cd40 4844 0041
00000040: 7d10 2340 8a68 ea40 6447 5c40 cbc8 d33f
00000050: dcd5 4a40 4772 f03f 2805 e240 649b 1140
00000060: 3e11 ed40 a81a eb40 ec42 c840 0cf2 1b40
00000070: 2593 e440 3acb 0a41 4a40 3241 239a 2341

weight f4 [32]
0.49157605 0.8199478 0.6044194 1.2255937 1.2230518 2.146302 0.3897444 0.9433191
0.8423706 0.48851982 0.66507286 1.6572044 1.0594022 0.88874954 1.7459891 1.0662748
1.8921971 0.81351864 0.37661195 1.2724762 0.7316826 0.91453624 0.7325303 0.7354708
0.5846165 0.49557334 0.34900126 1.6810949 1.1763129 1.4618559 0.22415382 0.79170907
00000000: dbaf fb3e 19e8 513f 3bbb 1a3f 41e0 9c3f
00000010: f68c 9c3f 035d 0940 948c c73e 5c7d 713f
00000020: 9aa5 573f 451f fa3e 3742 2a3f 461f d43f
00000030: 7e9a 873f 1785 633f 927c df3f b17b 883f
00000040: 8433 f23f c242 503f 48d3 c03e 80e0 a23f
00000050: 8d4f 3b3f 0c1f 6a3f 1b87 3b3f d047 3c3f
00000060: 6da9 153f cabb fd3e 4bb0 b23e 1e2e d73f
00000070: 6c91 963f 181e bb3f 9488 653e 72ad 4a3f

bias f4 [32]
-0.71214795 -0.18953803 -0.63646626 0.77674425 -0.39813092 0.88307774 -0.3802249 0.20892191
0.060413305 -0.045920223 0.49080157 0.20743206 -0.18127428 -0.30122605 -0.076443024 -0.685961
-0.8676006 -0.34840092 -0.3010858 -0.026751047 0.7405237 1.2010976 -0.5880615 -0.019035088
0.25891 -0.34951252 -0.3593253 1.3302352 -0.20165382 0.09407991 0.88798374 0.59428036
00000000: 544f 36bf 4216 42be 74ef 22bf b6d8 463f
00000010: d1d7 cbbe 6211 623f d7ac c2be a0ef 553e
00000020: f173 773d d816 3cbd 584a fb3e 1269 543e
00000030: f79f 39be 4d3a 9abe 298e 9cbd 249b 2fbf
00000040: 131b 5ebf 9b61 b2be eb27 9abe 0325 dbbc
00000050: f692 3d3f 91bd 993f 338b 16bf 79ef 9bbc
00000060: da8f 843e 4ef3 b2be 7cf9 b7be 2645 aa3f
00000070: 577e 4ebe f8ac c03d e752 633f c222 183f

running_mean f4 [32]
0.052439764 0.0008589812 0.7221749 0.26681626 0.21951778 -0.39876184 -0.554998 0.28099796
0.1982291 -0.38669848 0.21038067 0.22457045 0.53250265 -0.29912946 -0.31094372 -0.16176844
0.028353967 -0.08146202 0.09036315 0.19546363 -0.109967746 -0.60695773 0.60664266 -0.25695702
-0.040742237 -0.08017906 0.39651352 0.056614906 -0.39852566 -0.8175484 -0.33181024 0.025750725
00000000: 14cb 563d 412d 613a 74e0 383f 249c 883e
00000010: 45c9 603e 832a ccbe 5914 0ebf f7de 8f3e
00000020: 92fc 4a3e 58fd c5be 086e 573e ccf5 653e
00000030: 1852 083f 7f27 99be 0434 9fbe a0a6 25be
00000040: 9446 e83c 8fd5 a6bd 5110 b93d 9e27 483e
00000050: c536 e1bd 9561 1bbf ef4c 1b3f df8f 83be
00000060: 55e1 26bd eb34 a4bd d203 cb3e 08e5 673d
00000070: 8e0b ccbe da4a 51bf 08e3 a9be 2ff3 d23c

running_var f4 [32]
2.6058774 1.5239007 0.8108152 1.0492775 3.1011124 1.395515 1.4689215 1.5154223
1.0107284 0.6341162 0.39999145 0.99164104 1.5972323 0.48864567 1.66063 0.86518043
3.1958988 1.2592707 0.8508434 1.7317908 0.98952156 0.78711766 1.6062182 0.8131614
0.8944408 0.5125339 2.597873 1.3140532 1.2886834 1.5399135 2.0083182 2.8758593
00000000: b2c6 2640 2e0f c33f 9691 4f3f ba4e 863f
00000010: a078 4640 3ca0 b23f 9f05 bc3f 5cf9 c13f
00000020: 8c5f 813f 7055 223f aecb cc3e 30dc 7d3f
00000030: 1c72 cc3f c42f fa3e 868f d43f 777c 5d3f
00000040: 9b89 4c40 c82f a13f e0d0 593f 52ab dd3f
00000050: 4951 7d3f 8b80 493f 8f98 cd3f 582b 503f
00000060: 13fa 643f 6c35 033f 8d43 2640 e532 a83f
00000070: 94f3 a43f e31b c53f 4988 0040 140e 3840

weight f4 [32]
1.5035356 1.3826054 1.2053567 1.378399 1.6341363 1.2300402 0.59571224 0.99921393
0.77761084 0.43261445 0.6027023 1.787649 1.5444375 1.7204769 1.152658 1.6626512
0.9337795 1.1162049 1.950475 2.1214547 1.1718217 1.2959936 1.1771106 1.079963
-0.22608835 1.187229 0.31903934 2.159261 0.62167776 1.049939 0.55239964 1.9065021
00000000: db73 c03f 37f9 b03f 2149 9a3f 616f b03f
00000010: 612b d13f f571 9d3f 9980 183f 7ccc 7f3f
00000020: 8111 473f a47f dd3e b34a 1a3f afd1 e43f
00000030: 21b0 c53f 9638 dc3f 4c8a 933f c1d1 d43f
00000040: 2c0c 6f3f cddf 8e3f 2aa9 f93f eac5 0740
00000050: 41fe 953f 1ee3 a53f 8fab 963f 3a3c 8a3f
00000060: b483 67be 1ff7 973f 2059 a33e 5531 0a40
00000070: 4626 1f3f 6764 863f 106a 0d3f 4308 f43f

bias f4 [32]
-0.17274135 -0.47660187 -0.70463955 0.8997436 -0.9098299 0.76499194 -0.15126723 0.5149398
0.2539111 0.2989677 -0.31974402 -1.2642039 0.48398727 -0.524401 0.09628775 0.15906094
0.79095495 0.1325599 -0.46499443 0.48652554 0.869108 0.65522265 -0.3823427 0.051925663
-0.028489098 -0.50828964 -0.22077286 0.5705987 0.6958232 1.0519731 0.59499854 0.5974641
00000000: 1ce3 30be 2905 f4be 4263 34bf 9955 663f
00000010: 9dea 68bf 83d6 433f cce5 1abe 18d3 033f
00000020: a300 823e 4b12 993e 7db5 a3be 6fd1 a1bf
00000030: 2ecd f73e 253f 06bf 8332 c53d dfe0 223e
00000040: 067c 4a3f c8bd 073e c013 eebe e019 f93e
00000050: dd7d 5e3f acbc 273f 6cc2 c3be 01b0 543d
00000060: f861 e9bc 451f 02bf 4812 62be c212 123f
00000070: 7821 323f 0ea7 863f d351 183f 68f3 183f

running_mean f4 [32]
-0.34976494 0.5693893 -1.6441653 -0.75393456 -1.180067 0.43326643 1.0924692 -0.4957754
1.0744789 0.7793911 -0.7718988 0.86095774 -1.0630602 0.16263163 -1.5901237 -1.482873
-0.28458485 -0.79643255 1.0371807 -0.7827826 -0.10203712 -0.61667293 0.51150405 -1.1546334
-0.33175513 -1.3329172 0.5654374 -2.676512 -0.46531415 -1.0762322 0.0014334407 -1.0777779
00000000: 6414 b3be 7fc3 113f 0274 d2bf db01 41bf
00000010: 6f0c 97bf 19d5 dd3e 08d6 8b3f 46d6 fdbe
00000020: 8688 893f 2d86 473f 299b 45bf ba67 5c3f
00000030: 5b12 88bf e888 263e 2c89 cbbf c8ce bdbf
00000040: 1bb5 91be 01e3 4bbf 56c2 843f 7164 48bf
00000050: d6f8 d0bd 47de 1dbf eef1 023f 07cb 93bf
00000060: cfdb a9be 089d aabf 81c0 103f f94b 2bc0
00000070: a83d eebe fac1 89bf 4ae2 bb3a a0f4 89bf

running_var f4 [32]
10.344998 7.679064 21.240244 4.538646 5.857934 8.085605 4.5007677 24.125137
8.788376 4.1081414 7.129335 19.335802 9.160359 9.804583 6.8777394 6.7252874
4.448408 4.385195 7.035886 8.52655 5.020464 10.909574 4.7343793 9.596603
3.2017324 2.9673903 9.082274 15.542157 4.9443636 14.804528 1.9080604 5.5622716
00000000: 1d85 2541 e4ba f540 05ec a941 973c 9140
00000010: 3274 bb40 a35e 0141 4a06 9040 4800 c141
00000020: 309d 0c41 e575 8340 8323 e440 b9af 9a41
00000030: d590 1241 92df 1c41 7116 dc40 8e35 d740
00000040: 5c59 8e40 8453 8c40 fa25 e140 c06c 0841
00000050: a4a7 a040 9d8d 2e41 0980 9740 b08b 1941
00000060: 2fe9 4c40 b9e9 3d40 ff50 1141 adac 7841
00000070: 3a38 9e40 59df 6c41 533b f43f 21fe b140

weight f4 [32, 16]
-0.44783324 -0.96783066 0.5326192 -0.53701425 -0.55341977 0.6425942 0.4734775 0.3886819
-0.38325733 0.17094602 0.3393634 0.67331874 -1.5322708 0.40915373 -1.3270106 -0.5744242
0.12106928 0.61904603 -0.3017344 -0.7748595 0.30675623 -0.89389783 -0.6973731 -0.014977237
-0.0062740087 -0.15277144 -0.42446914 0.9189929 -0.31203106 -1.8173348 -1.1977178 0.048875548
-0.60117906 -1.3142694 0.4030099 -0.41697475 -1.0620576 0.6876656 1.474731 0.21271762
0.18100306 1.3328822 -0.75269514 -0.2766672 0.17401502 -0.6666081 0.44294336 -0.42963892
0.715323 1.169965 -0.41592067 0.09380833 -0.72302026 -0.54760903 -0.39251858 1.1564908
0.47393215 0.12568593 -1.101073 1.7307893 0.3564363 -0.9909443 -0.7742687 0.03824675
-0.13052765 -0.11921963 -0.27326894 -0.34015214 -0.039697863 -1.943697 0.2596498 -1.0076611
-0.6098353 -1.160358 -0.3058236 -0.84940016 0.6913339 0.6898524 1.4737372 1.2869998
1.0875039 1.2927703 -0.11618631 -1.4919938 -0.47060013 0.26809075 -0.25907257 0.2923653
0.40977323 -0.029363766 -0.5698754 1.3225187 -0.5782889 0.032981228 -0.5729388 -0.29487002
0.549125 0.85746986 0.21988052 -0.96145016 -0.867525 0.14691427 -0.36048976 1.686286
1.1714796 -0.29371533 -0.56045705 1.6744651 -0.52163565 -0.4160206 -0.2444439 -0.7116923
0.56677586 -0.02670296 -1.5794214 0.21789311 1.3537225 -1.8717817 0.33538312 -0.2171653
0.14523612 -0.40951112 -0.73849463 -0.6446247 0.72053766 0.47883123 -0.64577997 -0.047490854
-1.7254016 0.11929523 0.38484538 0.07587408 -0.33803615 0.106779024 0.05439155 -0.52936924
-0.75361854 -1.3080018 -0.4107288 -0.8533806 0.3374301 -1.3403356 0.70738965 0.8977929
-0.94810724 0.21489595 0.086870976 0.016850097 1.287401 -0.98645526 -0.35007343 0.7361605
-0.020606373 -0.45676672 2.1100132 -0.48291746 0.3570631 -0.22210924 -0.00147289 -0.0067528323
0.048115704 -1.2799858 1.3942243 0.49601766 0.625566 -0.5778484 -1.018848 -1.031002
0.2409935 1.0589812 1.3218783 -1.2698158 -0.96782404 0.28054178 0.21407817 -0.53858006
0.72248185 1.2147845 0.06421969 0.40951666 -1.5706608 -0.6001286 0.6678192 0.06175508
-0.03119415 0.83912355 -1.9593735 0.11111383 -0.27549288 0.77184534 1.0075171 0.28337783
0.33032158 -0.37157407 -1.7076919 0.22824985 1.7630378 -1.1191876 0.7742641 -1.2515103
0.76081014 0.7204296 -0.8705441 -0.29115745 1.1734681 -0.6439769 0.10112958 1.7051213
0.31422964 0.56587327 -0.87916195 -0.07329352 -0.10037174 -1.0497744 -0.23023288 0.031180577
-0.48178777 -0.21805498 0.1808122 2.1409812 1.1951025 0.52763855 -0.5187132 -0.26890525
-0.14384668 -1.6558852 -1.1540331 1.2269291 1.0670705 1.1184356 -1.0407978 -0.06579058
-0.4574261 0.35296726 1.3201165 0.38992628 0.39596277 1.285556 1.1747437 -0.031915393
1.4545077 -0.45487452 -0.026156968 -0.99068266 0.49713594 -0.07758883 0.83581656 -0.0016762908
0.06539919 0.74178123 -0.26851934 0.09979387 0.90282327 -0.25588197 0.6464499 1.4417082
00000000: 664a e5be c0c3 77bf bb59 083f c479 09bf
00000010: ebac 0dbf 0e81 243f a56b f23e 5001 c73e
00000020: 4e3a c4be 790c 2f3e 0ac1 ad3e 9e5e 2c3f
00000030: 7321 c4bf 997c d13e 7cdb a9bf 770d 13bf
00000040: 2cf3 f73d cd79 1e3f ee7c 9abe 315d 46bf
00000050: 270f 9d3e 7dd6 64bf 0b87 32bf 1663 75bc
00000060: 3396 cdbb 1e70 1cbe 0554 d9be 1e43 6b3f
00000070: 89c2 9fbe 6d9e e8bf d14e 99bf ba31 483d
00000080: dfe6 19bf fb39 a8bf 5057 ce3e b77d d5be
00000090: 81f1 87bf da0a 303f fcc3 bc3f a6d2 593e
000000a0: de58 393e e29b aa3f a1b0 40bf 53a7 8dbe
000000b0: fe30 323e d4a6 2abf 79c9 e23e a2f9 dbbe
000000c0: 681f 373f 6ac1 953f 8ef3 d4be 951e c03d
000000d0: db17 39bf 1b30 0cbf 32f8 c8be e407 943f
000000e0: 3ca7 f23e d0b3 003e f6ef 8cbf 818a dd3f
000000f0: d27e b63e 87ae 7dbf 7936 46bf a0a8 1c3d
00000100: 0aa9 05be 6c29 f4bd e8e9 8bbe 6c28 aebe
00000110: 3a9a 22bd 10cb f8bf d2f0 843e 0afb 80bf
00000120: 2b1e 1cbf 9c86 94bf e994 9cbe 4a72 59bf
00000130: 42fb 303f 2b9a 303f 6ca3 bc3f 69bc a43f
00000140: 5433 8b3f 7f79 a53f 17f3 edbd a7f9 bebf
00000150: 80f2 f0be 3143 893e 29a5 84be e8b0 953e
00000160: cccd d13e 488c f0bc 5be3 11bf 4b48 a93f
00000170: be0a 14bf 5317 073d 1eac 12bf 34f9 96be
00000180: 7593 0c3f 2583 5b3f 5c28 613e 9921 76bf
00000190: 1e16 5ebf b270 163e 1d92 b8be 38d8 d73f
000001a0: 0bf3 953f db61 96be 1d7a 0fbf df54 d63f
000001b0: ea89 05bf a700 d5be 804f 7abe 7731 36bf
000001c0: 3918 113f 2ac0 dabc 7b2a cabf 5f1f 5f3e
000001d0: c746 ad3f 8b96 efbf 56b7 ab3e 9560 5ebe
000001e0: c7b8 143e 71ab d1be fc0d 3dbf 2006 25bf
000001f0: 2875 383f 5e29 f53e d651 25bf c585 42bd
00000200: f6d9 dcbf 0f51 f43d 740a c53e df63 9b3d
00000210: 1313 adbe f6ae da3d adc9 5e3d be84 07bf
00000220: 25ed 40bf 9a6c a7bf 0c4b d2be 2777 5abf
00000230: a3c3 ac3e 1e90 abbf 7d17 353f c1d5 653f
00000240: 28b7 72bf af0d 5c3e 69e9 b13d 3709 8a3c
00000250: 8ec9 a43f 5588 7cbf d33c b3be 0475 3c3f
00000260: b2ce a8bc 54dd e9be 750a 0740 f540 f7be
00000270: fad0 b63e 9b70 63be fd0d c1ba dd46 ddbb
00000280: f914 453d 93d6 a3bf f175 b23f 07f6 fd3e
00000290: 1825 203f dfed 13bf 9c69 82bf e0f7 83bf
000002a0: 00c7 763e b28c 873f 4f33 a93f 5389 a2bf
000002b0: 51c3 77bf 2ca3 8f3e 4f37 5b3e 62e0 09bf
000002c0: 92f4 383f 0f7e 9b3f 9d85 833d 2bac d13e
000002d0: 6a0b c9bf 07a2 19bf 33f6 2a3f e5f2 7c3d
000002e0: e08a ffbc cdd0 563f c0cc fabf a68f e33d
000002f0: 670d 8dbe a897 453f 52f6 803f e616 913e
00000300: e91f a93e f53e bebe a695 dabf 54ba 693e
00000310: 39ab e13f 8a41 8fbf 2c36 463f 7d31 a0bf
00000320: 74c4 423f 136e 383f fadb 5ebf 9712 95be
00000330: 3434 963f acdb 24bf 061d cf3d 6a41 da3f
00000340: b5e2 a03e 12dd 103f c210 61bf ea1a 96bd
00000350: b38f cdbd 025f 86bf 2bc2 6bbe 696e ff3c
00000360: e3ac f6be ce49 5fbe d526 393e d605 0940
00000370: 1ef9 983f 5213 073f 63ca 04bf f3ad 89be
00000380: 8b4c 13be 0cf4 d3bf 5bb7 93bf 030c 9d3f
00000390: c495 883f e628 8f3f dd38 85bf 36bd 86bd
000003a0: c133 eabe 20b8 b43e 94f9 a83f 6ba4 c73e
000003b0: a2bb ca3e 198d a43f 005e 963f b7b9 02bd
000003c0: 4f2d ba3f 50e5 e8be 2347 d6bc 619d 7dbf
000003d0: 9a88 fe3e e4e6 9ebd 13f8 553f fcb6 dbba
000003e0: 03f0 853d 60e5 3d3f 5e7b 89be ba60 cc3d
000003f0: 6d1f 673f f602 83be be7d 253f e589 b83f
