04_Experiments/2022_08_02 09-00-22 100-runs-train_val_split-rmse/models/Model_run35_train_val_split0.8_alcalinity_of_ash.pt (torch, 284513 bytes, 318 tensors)

weight f4 [12]
000000 00 00 80 3f 00 00 80 3f 00 00 80 3f 00 00 80 3f
       1.0 1.0 1.0 1.0
000010 00 00 80 3f 00 00 80 3f 00 00 80 3f 00 00 80 3f
       1.0 1.0 1.0 1.0
000020 00 00 80 3f 00 00 80 3f 00 00 80 3f 00 00 80 3f
       1.0 1.0 1.0 1.0

bias f4 [12]
000000 00 00 00 00 00 00 00 00 00 00 00 00 00 00 00 00
       0.0 0.0 0.0 0.0
000010 00 00 00 00 00 00 00 00 00 00 00 00 00 00 00 00
       0.0 0.0 0.0 0.0
000020 00 00 00 00 00 00 00 00 00 00 00 00 00 00 00 00
       0.0 0.0 0.0 0.0

running_mean f4 [12]
000000 00 00 00 00 00 00 00 00 00 00 00 00 00 00 00 00
       0.0 0.0 0.0 0.0
000010 00 00 00 00 00 00 00 00 00 00 00 00 00 00 00 00
       0.0 0.0 0.0 0.0
000020 00 00 00 00 00 00 00 00 00 00 00 00 00 00 00 00
       0.0 0.0 0.0 0.0

running_var f4 [12]
000000 00 00 80 3f 00 00 80 3f 00 00 80 3f 00 00 80 3f
       1.0 1.0 1.0 1.0
000010 00 00 80 3f 00 00 80 3f 00 00 80 3f 00 00 80 3f
       1.0 1.0 1.0 1.0
000020 00 00 80 3f 00 00 80 3f 00 00 80 3f 00 00 80 3f
       1.0 1.0 1.0 1.0

weight f4 [12]
000000 22 a5 a4 3f 24 cb 88 3f 3a 58 ad 3f 5d dc a5 3f
       1.2862895 1.0686994 1.354255 1.2957875
000010 96 90 8d 3f 33 88 82 3f 2f e6 95 3f 8f 27 bb 3f
       1.1059749 1.0197815 1.1710871 1.4621447
000020 3b 03 72 3f c7 2e a5 3f 7e b8 77 3f 57 be 35 3f
       0.9453618 1.29049 0.9676589 0.7099356

bias f4 [12]
000000 33 7f c3 bd 0d 23 03 bf 56 19 d7 3d 4c 64 1c be
       -0.09545746 -0.5122536 0.10502879 -0.15272635
000010 a7 41 3b bd 6f c9 93 3e 9a b5 b0 be 2f de e1 be
       -0.045716908 0.2886462 -0.3451355 -0.44114825
000020 b9 b3 2e 3e 1a a8 03 3f 7a 9c f6 3e a9 94 b3 bd
       0.17060746 0.5142838 0.48166257 -0.08768589

running_mean f4 [12]
000000 46 e8 91 40 25 0f 1a 40 ec 19 0b 40 78 15 a7 3e
       4.5596037 2.4071743 2.1734571 0.32633567
000010 da 95 f4 3f c5 b1 08 40 98 0f 3f 41 20 44 08 40
       1.9108231 2.1358502 11.941307 2.129158
000020 5c fa b8 42 84 fd bc 3f a0 66 2e 44 d3 69 66 3f
       92.48898 1.4764867 697.6035 0.90005225

running_var f4 [12]
000000 18 68 94 40 7b 0a 07 3f 3c 09 23 3e 06 0f c3 3d
       4.6377068 0.52750367 0.15921491 0.0952435
000010 61 b0 7f 3f fe 0b e7 3e 5b 9e 2c 3f 5e a8 a1 3f
       0.9987851 0.45126337 0.6742913 1.2629507
000020 af 6e 5c 43 0a 9e bd 3e 73 e9 b2 47 05 20 01 3e
       220.43236 0.37034637 91602.9 0.1260987

weight f4 [32, 12]
000000 99 64 0b 3f af 5b 76 3f 0f 39 aa 3f 28 68 73 be
       0.54450375 0.9623365 1.3298663 -0.23770201
000010 60 a6 22 bf 02 4b 51 3f d5 06 9f bd 1c 58 08 bf
       -0.6353512 0.8175508 -0.07764975 -0.53259444
000020 fa 02 a4 3e 4e 9d d7 3f 67 18 81 bf 38 e5 05 3d
       0.3203352 1.684488 -1.0085572 0.032689303
000030 64 2e e5 3d 90 6f 59 3f e7 06 da 3e d7 19 8d 3d
       0.11190489 0.84935856 0.4258339 0.06889694
000040 98 e9 c5 be 20 6c a1 3e 18 de 89 3f a3 ec 8e 3f
       -0.3865478 0.31527805 1.0770903 1.1165966
000050 37 65 58 3f 76 68 ba 3e c4 6d b1 bf 76 fb 0c 3f
       0.8452944 0.36407822 -1.3861623 0.550712
000060 91 3e be 3e 16 98 4d bf 5a 17 63 bf 2e c6 1f 3f
       0.3715711 -0.8031019 -0.88707507 0.62411773
000070 56 2e 4f bf 70 46 09 c0 68 7e 04 bf 4b 63 1b 3f
       -0.8093008 -2.1449242 -0.5175538 0.60698384
000080 c5 d5 c2 be 64 4e 49 3f d1 a9 4b 3d 42 e2 95 bf
       -0.38053718 0.7863524 0.049722496 -1.1709673
000090 8e 96 74 3f e6 49 a8 3d f8 f2 47 be ca c6 dc bf
       0.9554223 0.0821722 -0.19526279 -1.7248166
0000a0 19 0e 3e bf d2 5b ae bc 31 34 5a 3e 47 c0 54 3f
       -0.7424026 -0.021284018 0.21308972 0.8310589
0000b0 15 88 75 3f 1e 8f ac 3f f2 29 35 bd cf e6 88 be
       0.9591077 1.3481176 -0.044229455 -0.26738593
0000c0 dc 7f 59 bf b4 ce 3b 3f 57 53 bc 3f 50 6e 4e 3f
       -0.8496072 0.7336228 1.4712933 0.80637074
0000d0 f7 fd 66 3f 0e dc de 3e 48 7e 95 be 0b 31 0f 40
       0.9023127 0.43527263 -0.29197907 2.2373683
0000e0 d9 d4 84 be c6 2a 25 bf e4 89 0e 40 b0 32 4b 3f
       -0.2594364 -0.6451839 2.2271662 0.7937422
0000f0 67 21 e8 bf 30 7c b8 3f 67 44 08 bf de 72 06 be
       -1.8135194 1.4412899 -0.53229374 -0.13129756
000100 8a 3a 0e bf c4 38 1f bf 09 f1 6c bf ac 24 2a bf
       -0.55558074 -0.6219599 -0.9255529 -0.66462207
000110 25 5e 87 3e d1 b3 b9 be 49 3b 99 bf 68 ae f5 be
       0.26439014 -0.36270002 -1.1971217 -0.47984624
000120 12 23 96 bf 0b e0 4a bf 59 f3 08 bf 1b d9 36 be
       -1.1729453 -0.7924811 -0.5349632 -0.17856257
000130 a5 99 81 3f d8 eb 8d bf ba ed a4 bf 79 35 94 be
       1.0125014 -1.1087599 -1.2885048 -0.28947046
000140 e6 91 7c 3e ff 5a 9e bf 81 6b 85 be 00 0b 98 bd
       0.24665031 -1.237152 -0.2605858 -0.07423973
000150 2e 7e b2 3d ce 97 ac 3e fb fa 42 3f ca 67 50 bf
       0.08715473 0.33709568 0.76164216 -0.8140837
000160 eb 79 10 40 5c 49 92 3f 41 49 ee 3f 63 0e a5 be
       2.2574413 1.1428638 1.8616105 -0.3223754
000170 af 81 88 3e 3e 45 96 3f f5 dd 94 bf a6 c6 a8 bf
       0.2666144 1.1739881 -1.1630236 -1.3185623
000180 b5 2f ce 3f 44 bc 13 bf 68 0b d2 3e dc 91 4e 3e
       1.6108309 -0.57709146 0.41024327 0.20172828
000190 c4 34 f4 be 2e 5a fb 3e e7 17 27 3f f9 55 5b 3f
       -0.47696507 0.4909224 0.6527085 0.8567806
0001a0 f9 c6 9b 3e d8 d9 af be 96 8c 74 3f c8 ae 8d 3f
       0.30425242 -0.3434589 0.9552702 1.1068964
0001b0 b9 e9 da 3f 1a e8 1d 3f e8 58 bb 3e 71 da aa bf
       1.7102576 0.61682284 0.36591268 -1.3347913
0001c0 a4 a3 c7 bc aa 5f 17 3f 41 e9 a3 3e 22 b4 93 bf
       -0.024370022 0.59130347 0.32013896 -1.1539347
0001d0 c0 f1 d7 3d f6 c7 4e bf 7c d4 84 3e 18 c9 51 3e
       0.10544157 -0.80773866 0.25943363 0.20486867
0001e0 91 6c 04 bf 0a 38 57 bf 2e 85 1f bf c7 0f 8b 3f
       -0.5172816 -0.84069884 -0.6231259 1.086419
0001f0 51 7d b7 3e 15 46 b6 be 6d ac 0e bf 03 a4 7b 3e
       0.35837796 -0.35600343 -0.5573185 0.24574284
000200 ec 6e 8e bf ca 8a 03 3f 28 6a eb 3e fe 1d bc 3e
       -1.1127601 0.5138365 0.45979428 0.36741632
000210 ec b9 3b bd 0a 71 99 3e a5 8f 1e bf 72 d5 4e be
       -0.045831606 0.29969054 -0.61937934 -0.2019861
000220 9e 59 a5 3f 0e 34 e0 bf 17 65 62 bd 47 48 28 be
       1.2917974 -1.7515886 -0.055272188 -0.16433822
000230 3b 17 7c bf d8 58 77 3e bd 8f 58 bf 33 39 6d 3f
       -0.98472947 0.24154985 -0.8459433 0.92665404
000240 90 76 b8 be ce 48 86 3f c1 e8 d2 bf b1 b0 51 bf
       -0.36027956 1.0490968 -1.6477281 -0.81910235
000250 6b fa 8c bf 6b 66 6f bf 59 d6 9d 3e d9 4c 06 be
       -1.1013921 -0.9351565 0.30827597 -0.13115253
000260 04 9b 2b bf 81 7b de 3e f4 ef 34 3f 13 90 c6 3e
       -0.6703341 0.434536 0.7067864 0.38781795
000270 9d fb cb be 1f 1c d5 3e ae b1 21 3f 16 a4 10 3f
       -0.39840403 0.41623017 0.6316174 0.56500375
000280 52 74 b4 3f a2 70 dd 3f e6 66 cf be ec aa 1b 3f
       1.4097998 1.7299998 -0.40508193 0.6080768
000290 b3 b7 70 3f 6e ad bf 3e db 68 19 bf dd 66 b9 3e
       0.940303 0.37437004 -0.5992562 0.3621129
0002a0 60 f1 67 bd 5e e5 6b bf 23 81 7b 3f 6c 62 9c bf
       -0.056626678 -0.9214686 0.9824392 -1.2217536
0002b0 58 b5 74 bf 9f 59 00 bf 82 65 a0 bf 17 4b 7f 3f
       -0.9558921 -0.5013675 -1.2530978 0.99723953
0002c0 00 0f cd be f8 21 60 3f 82 c8 09 be 71 af 1c be
       -0.40050507 0.8755183 -0.13455394 -0.153013
0002d0 47 cd ea 3c 4a ec 52 bf 5f 8a f2 3e fd 04 55 3f
       0.028662337 -0.823918 0.47371194 0.83210737
0002e0 d8 07 a2 bf b4 86 b2 3f 34 a9 44 3e 22 5c c1 3e
       -1.2658644 1.3947358 0.19205171 0.37765604
0002f0 61 09 49 be ee 69 35 bf 98 ce 79 3f f8 2d 45 bf
       -0.19632484 -0.7086476 0.9758086 -0.7702327
000300 30 21 d7 be a0 84 af bf 63 66 8c 3f 24 1e de 3e
       -0.42017508 -1.3712349 1.0968746 0.4338237
000310 d4 b7 5d bf 67 32 be bf 18 72 45 be 53 5f c9 3f
       -0.86608624 -1.4859132 -0.19281805 1.5732216
000320 dd 37 46 bf dc ed ca 3f 4b 5c 18 bf 74 86 d5 bd
       -0.7742899 1.5853839 -0.5951583 -0.104260355
000330 e1 25 50 3f 93 eb ed be 29 f8 15 3f 75 1f 9f bf
       0.813078 -0.4646879 0.5858179 -1.2431475
000340 69 68 e8 3e f0 79 06 bf 9f 1a 2c bd f6 cb b1 be
       0.4539216 -0.5252981 -0.042017575 -0.34725922
000350 26 72 13 bf be 16 f7 bf 4a b9 22 3f a3 93 a1 be
       -0.5759605 -1.9303815 0.6356398 -0.3155795
000360 51 b9 b7 bf 26 1d 95 3f 69 76 25 be d5 e0 15 3f
       -1.4353429 1.164952 -0.16158451 0.5854619
000370 db b1 85 3e 58 c3 0e bf 96 c5 1b bf 8e 4f 8b bf
       0.26112255 -0.5576682 -0.6084837 -1.0883653
000380 fb f9 7f 3f c3 12 86 3f 47 ae 1c 3d 5a f0 cc 3f
       0.99990815 1.0474476 0.03825214 1.601085
000390 7d 5d 4d bf d2 50 96 be 7c 70 cd bd 81 a1 c9 bd
       -0.80220777 -0.29358536 -0.1003122 -0.098452576
0003a0 64 9d 9a bf 65 9c 9d bc bc 23 21 bf af 49 db 3f
       -1.2079282 -0.019239614 -0.6294515 1.7131861
0003b0 04 77 e9 3f 08 95 91 3f 8a 36 8d 3f b6 1f e9 3f
       1.8239446 1.1373606 1.1032269 1.8212802
0003c0 9e bf 98 bf 76 ea 5d be c7 dc a0 3f 65 bf da 3d
       -1.1933477 -0.21671471 1.2567376 0.10681037
0003d0 ff 6e 8c bc c9 8f dd 3d d7 ac 06 be 31 a9 bd be
       -0.01714277 0.108184405 -0.1315187 -0.37043145
0003e0 02 5d 60 3e df 1b f0 be 86 5a 0a 3e f3 3d 05 c0
       0.2191048 -0.46896264 0.13511094 -2.081906
0003f0 95 ab c0 bf 54 20 fd 3e 72 23 ab 3e 1f 52 0a bf
       -1.5052363 0.49438727 0.3342548 -0.54031557

weight f4 [32, 16]
000000 7c 53 49 bf 0a fc 9c 3f 58 4b 1d 3e ba 69 58 bf
       -0.7864301 1.2264416 0.15360773 -0.84536326
000010 86 96 9e bf 26 c1 ba 3e 7d e4 c2 3f d6 f8 77 be
       -1.2389686 0.36475486 1.5225979 -0.24216017
000020 37 2a 43 3b 34 86 fa 3e 38 b4 6b 3e 89 1c 96 3e
       0.00297798 0.48930514 0.23017967 0.29318646
000030 54 c9 83 3f 92 3b d1 3d 76 24 69 bf 64 c8 b2 3f
       1.0295815 0.1021644 -0.9107126 1.3967404
000040 90 16 34 3f 4a 92 ad be 10 b2 8c 3f f2 18 7e 3f
       0.7034693 -0.33900672 1.099184 0.99256814
000050 22 3c 4d bd 0e 44 0c be e9 af 89 3d f9 4e 3e bf
       -0.050106175 -0.13697836 0.06723005 -0.7433925
000060 5f 63 0a 3f 3d ad 98 be b0 71 ac 3e be 8c 7d 3f
       0.5405788 -0.2981967 0.33680487 0.9904288
000070 8c 59 5a 3f 1f af 7c 3f 6a 31 b6 bf 61 86 24 bf
       0.8529289 0.98704714 -1.423383 -0.64267546
000080 1d 0c 52 bd bf fd ac bf 9c 57 0c c0 d5 14 bf bf
       -0.051281083 -1.3514937 -2.1928473 -1.4928232
000090 58 c8 38 3e 06 40 98 bf 95 36 d5 bd c7 5a 21 bf
       0.18045175 -1.1894538 -0.10410801 -0.6302914
0000a0 96 80 7e 3e 83 75 fe 3e 11 41 02 bf d4 f8 06 c0
       0.24853739 0.4969903 -0.50880533 -2.1089373
0000b0 ba 3b 80 3f 92 97 20 3f be 95 4c 3f 24 00 a4 3f
       1.0018227 0.6273128 0.7991599 1.2812543
0000c0 71 64 80 3f ae 26 2f 3f ce e6 83 bf a4 6a 60 3e
       1.0030652 0.68418396 -1.0304811 0.2191568
0000d0 7a 18 8e 3e 91 54 24 bf ec ad 1c bf 41 ff b4 3f
       0.2775305 -0.6419154 -0.61202884 1.4140397
0000e0 8e b9 44 3f 50 6b bf 3e ff 99 74 bf 67 1b 04 be
       0.76845634 0.3738656 -0.9554748 -0.12901078
0000f0 41 f4 a1 3d 83 2e 95 be a9 7b 06 3e 14 3e 77 bf
       0.07907916 -0.29137048 0.1313311 -0.965791
000100 07 8b 47 3f 41 39 95 bd d2 be 41 bf 0b a2 28 bf
       0.77946514 -0.07286311 -0.75681794 -0.6587226
000110 98 e0 53 3f 30 36 ff be 43 cb 80 3e 05 a6 ef 3e
       0.8276458 -0.4984603 0.25155076 0.4680635
000120 53 88 c3 3f b8 28 16 3f 8b 33 30 bf 1f 04 63 bf
       1.5275978 0.5865588 -0.6882865 -0.88678163
000130 11 80 a2 bf f1 0e f3 be de d0 58 bf d1 aa fb 3f
       -1.2695333 -0.47472337 -0.84693706 1.9661504
000140 07 01 87 bf dc 93 77 bf eb 4e 2a 3f 5a b3 15 bf
       -1.0547189 -0.9670999 0.6652667 -0.58476794
000150 5b 6d 82 bf e9 4f fe 3e 48 fb 2b 3f 8d 1c 56 3d
       -1.0189623 0.49670342 0.671803 0.052273322
000160 34 43 27 bf c2 02 b3 bf 64 88 19 3f 4b 00 a8 be
       -0.6533692 -1.3985217 0.5997374 -0.32812724
000170 bc 75 d6 bf 5b 06 89 be 83 0b d6 bd 54 ad ec 3e
       -1.675468 -0.2676266 -0.104514144 0.4622599
000180 33 ac f2 bd 19 9c b5 3d 20 0b b7 3a 30 d9 4f 3f
       -0.11849251 0.08867664 0.0013965108 0.81190777
000190 f0 d6 66 3e 3d ce 3b 3e 5e 0e 57 3f a0 80 b9 3d
       0.2254293 0.18340392 0.840063 0.090577364
0001a0 9d 72 73 be 00 31 07 3f 25 d4 e7 3e 51 7b 1c 3f
       -0.2377419 0.52809143 0.4527904 0.61125666
0001b0 bc ce 94 3f 23 75 c6 3e c9 3b fd 3f 96 b3 81 bf
       1.162559 0.38761243 1.978387 -1.013293
0001c0 15 98 be 3e ad 9a 96 bf 99 67 6b bf 7c 72 fe bf
       0.37225404 -1.1765953 -0.9195495 -1.9878688
0001d0 9d d3 22 3e 97 6e 6e be ca 49 f4 3d 54 b7 4d 3f
       0.15901037 -0.23284374 0.11928137 0.8035786
0001e0 14 9d d7 bf 99 23 01 3f 39 1e 05 be bc ad c5 3f
       -1.6844811 0.5044494 -0.1299981 1.5443645
0001f0 2c 6a 61 bf 34 28 20 be c0 36 3a bf eb 24 35 bf
       -0.8805263 -0.15640336 -0.7273979 -0.7075946
000200 42 57 4c bf 3b aa 4a 3f 6b 53 33 bf d7 23 85 3f
       -0.79820645 0.79166 -0.7004916 1.0401562
000210 2d f8 d5 bf df ee 94 3f bb 14 3f bf c3 1f fb 3e
       -1.6716362 1.1635398 -0.7464101 0.4904767
000220 2c 5f 7e bf 54 8d 82 be 65 66 92 bf df 88 91 3e
       -0.9936397 -0.2549845 -1.1437498 0.28424737
000230 57 ba bf 3f f7 e2 80 be 3f 65 e5 3e 04 e3 aa be
       1.4978741 -0.2517316 0.44803807 -0.33376324
000240 86 fc 0a bf 2e b2 6c be c0 fc f8 bf ba 10 0b bf
       -0.5429157 -0.23114845 -1.9452133 -0.543224
000250 f0 d4 2d bf 40 a0 44 3f 9f f0 8b bf 3f b0 68 be
       -0.6790304 0.7680702 -1.0932807 -0.22723483
000260 05 4d 38 3f c2 4a ab 3f 90 ee 6a bf fb 45 1f bf
       0.7199252 1.3382189 -0.9177027 -0.62216157
000270 ed 84 75 bd 34 7d 0e bf f4 69 b2 bb 51 e7 c6 bb
       -0.05994122 -0.55659795 -0.0054447595 -0.0060700555
000280 81 88 dd 3e 33 7a 8b 3d 45 a0 20 3f ed 52 01 3f
       0.43268207 0.06810417 0.6274455 0.5051716
000290 8a be 74 bf bc 2f c7 be 97 2b 99 be d6 84 dd 3e
       -0.9560324 -0.38903606 -0.2991607 0.43265408
0002a0 8e 73 44 bf 1f 6f 9f bf c0 b9 63 bf 74 86 86 bf
       -0.7673882 -1.2455786 -0.88955307 -1.0509782
0002b0 8a 55 09 3f d8 a1 9a bf 5f be 55 3f 66 95 59 3f
       0.5364615 -1.2080641 0.8349361 0.8499359
0002c0 c3 a3 b4 bd e6 bc 4e 3e 70 85 01 be d4 ed aa 3d
       -0.088202976 0.20189247 -0.12648559 0.08346143
0002d0 72 8b 13 c0 36 36 94 3e c3 fc 56 be 40 dd 36 3f
       -2.305386 0.2894761 -0.20994858 0.7143135
0002e0 47 a1 b0 bc ef 22 6b 3e 19 51 03 c0 d5 45 cf 3e
       -0.021561278 0.22962545 -2.0518248 0.40482965
0002f0 27 b6 d1 bd 90 a9 32 bf a9 71 09 3f 61 dd 0c c0
       -0.10239821 -0.6978998 0.53689057 -2.201012
000300 d4 19 d3 bd 34 e1 ae 3e 76 51 d2 be e1 98 6e be
       -0.10307661 0.3415619 -0.41077775 -0.23300506
000310 48 c1 91 3e d9 02 1f bf c6 c8 2d 3d 8c ba bf bf
       0.28467774 -0.6211372 0.0424278 -1.4978805
000320 bd 96 96 3e 3e ce b7 bf 7b e5 94 3d d6 27 8c bc
       0.2941188 -1.4359815 0.072703324 -0.017108839
000330 7a 17 3c bf fb 49 41 3f dd ed 11 3f 8c 2c b9 3f
       -0.7347332 0.7550351 0.57003576 1.446672
000340 ad 21 36 3e 59 55 b2 bf ad 4a 13 3e 05 8f 99 3f
       0.17786284 -1.3932296 0.14383955 1.1996771
000350 f4 84 8c be 64 a6 b7 bf c9 e2 9a 3f d7 97 94 3f
       -0.27445185 -1.4347653 1.2100459 1.1608838
000360 89 25 0d 3e f9 fe ec 3e cd 1e 04 3f 4f 50 f0 be
       0.1378385 0.4628828 0.516095 -0.4693627
000370 77 b2 a6 bf 2b 29 6c bc ce 53 27 3f 6c a0 6a 3e
       -1.3023213 -0.014414112 0.6536225 0.22912759
000380 89 79 d7 bc 3c 74 28 3f 3e 6c 26 bf ab d8 73 bd
       -0.02630307 0.6580236 -0.65008914 -0.059532803
000390 5f 95 b0 3d 13 1a c2 bf 9c 1e cb bf 91 1d 69 3f
       0.0862224 -1.5164207 -1.5868716 0.9106074
0003a0 00 c3 dd 3e b3 e4 30 bf cb d8 a0 bf 7b 4f ed bd
       0.43312836 -0.6909897 -1.256616 -0.11587425
0003b0 8f be 57 be 78 96 88 3f 78 9d de 3e d6 86 64 3f
       -0.21068786 1.067092 0.43479514 0.89268243
0003c0 a6 41 7d be 58 8a b8 be d7 f6 dc 3e 76 31 88 bc
       -0.24732074 -0.36043048 0.43157074 -0.016625147
0003d0 c5 47 cf bd bc 7c 86 bf 77 01 bd bf 4b 24 a6 bf
       -0.10121111 -1.0506816 -1.4766072 -1.2979826
0003e0 42 44 18 3f bc d5 9f 3f 82 ae 95 3e 51 a1 20 3f
       0.59479153 1.2487102 0.292347 0.6274615
0003f0 5b ea 77 3f 87 93 28 bf 7b a6 b5 3f 8a 11 b7 3e
       0.96841973 -0.6585011 1.4191431 0.3575557

weight f4 [32]
000000 51 0a 9d 3f 5d 6a 85 3f 1b 68 b0 3e e6 fc 92 3f
       1.2268773 1.0423084 0.34454426 1.1483428
000010 26 db 95 3f 50 f1 ac 3f 16 46 b1 3f 10 bf c9 3f
       1.1707504 1.3511143 1.3849514 1.5761433
000020 a3 98 70 3f 2e c8 a5 3f 9c 8c 8e 3f b4 4f c7 3f
       0.93982905 1.2951715 1.113666 1.5571198
000030 21 8f d1 3f 09 de 93 3f 39 0a a0 3f 78 4b d2 3f
       1.6371804 1.1552135 1.250312 1.6429281
000040 a7 0b 41 3f 57 b4 a2 3f ec d4 2d 3f 44 db aa 3f
       0.75408405 1.2711285 0.6790302 1.3348165
000050 d1 c9 79 3f d7 85 ae 3f 3e 6e 08 40 11 5a ca 3f
       0.9757357 1.3634595 2.1317286 1.5808736
000060 1f 93 bd 3f 13 8b 89 3f f1 a3 2b 3f d4 5b 93 3f
       1.4810523 1.0745567 0.6704703 1.1512399
000070 72 47 a0 3f 3e 6d d1 3e c4 57 9c 3f 84 d8 76 3f
       1.2521803 0.40903658 1.2214284 0.96424127

bias f4 [32]
000000 c8 ca 9c 3d 00 b2 e0 3c 3d 6d 8d 3e 9c 82 54 bd
       0.07655865 0.027428627 0.27622405 -0.05188237
000010 5e 84 2c 3f c6 f8 a3 3e e0 7d e5 3e 81 ed ae be
       0.67389476 0.32025737 0.44822598 -0.34165576
000020 e9 42 7a 3e 73 ff 40 be 87 84 15 3f 2f 6d cb 3e
       0.24439587 -0.18847446 0.58405346 0.39731738
000030 a8 33 af be c4 13 ed be fd 1e d4 be 43 65 2e bf
       -0.34219098 -0.46304142 -0.41429892 -0.68123263
000040 99 6d c2 3e 07 e9 48 3e 38 34 02 bf 44 47 2c 3e
       0.3797424 0.19620143 -0.5086093 0.1682406
000050 74 b3 8b 3e 9d e9 41 bc d1 c9 96 bd eb f1 c0 bd
       0.2728535 -0.011835483 -0.07362712 -0.09421142
000060 89 6f 71 be e8 ea ee 3e b0 cb 06 3f 37 15 8b 3e
       -0.23577704 0.46663594 0.5265455 0.27164623
000070 7f f8 d1 3e 75 ff 10 3f a9 82 c0 3d e7 97 c8 3e
       0.410099 0.56639796 0.093999214 0.39178392

running_mean f4 [32]
000000 06 05 19 3f b1 9b bf bf f5 7b 02 3d 7b 72 10 3f
       0.5977329 -1.4969388 0.031856496 0.56424683
000010 e5 8b e2 be 16 d6 51 bf 85 da 6e bd 56 57 1a bd
       -0.44247356 -0.81967294 -0.058313865 -0.037680946
000020 eb 16 e2 bc 75 4f c8 3b 9e 90 f7 3e 69 f5 94 bf
       -0.027598819 0.0061129876 0.48352522 -1.1637393
000030 e7 d7 cd be 48 f2 e5 3d 50 c3 77 3f 0c 1c 36 3f
       -0.40203783 0.11227852 0.967824 0.71136546
000040 0c 83 64 3e 46 dd be be 42 4c 07 3f e5 eb 80 3f
       0.22315615 -0.37278193 0.52850735 1.0071989
000050 a3 74 1c 3f 60 cf e9 bd 1d 16 d7 3f 57 12 75 3f
       0.61115474 -0.11416507 1.6803623 0.9573111
000060 b9 72 51 3f 8d 74 35 be 12 a8 a4 3f ab 26 0a 3f
       0.8181568 -0.17720242 1.2863791 0.5396525
000070 e4 20 8f bf 18 ff bb be 69 59 14 bc 46 07 73 3f
       -1.1181912 -0.3671806 -0.00905452 0.94932973

running_var f4 [32]
000000 9c a5 4b 41 95 f0 b3 40 47 13 d0 41 38 d7 32 41
       12.727932 5.623118 26.009413 11.177544
000010 4d f1 a5 41 6f d5 ae 41 9d 7c 6b 41 b4 28 0c 42
       20.742823 21.854216 14.717923 35.03975
000020 ba 23 62 41 ec 08 51 41 9a 66 ba 40 d7 9b b7 40
       14.133722 13.064678 5.8250246 5.7377734
000030 d7 5f 33 41 e0 94 6e 41 e5 85 f0 40 bb 7c 1f 41
       11.210898 14.911346 7.5163445 9.967952
000040 f2 38 c2 41 00 51 f8 40 54 ad cb 41 24 27 19 41
       24.277805 7.7598877 25.459633 9.572056
000050 20 bc 7d 40 53 9d 90 41 a5 fc 9e 41 79 44 fc 40
       3.9646072 18.076818 19.873362 7.8833585
000060 55 51 0c 41 68 49 a7 40 40 77 84 41 b3 5b 0d 41
       8.769856 5.2277107 16.558228 8.8348875
000070 bc a6 53 41 30 6f f3 41 15 0a 27 41 2b cc 33 41
       13.228207 30.42929 10.439961 11.237346

weight f4 [32]
000000 af 8d f9 3e 98 76 29 3f c8 3e 8e 3f 33 6e a3 3f
       0.48740909 0.66196585 1.1112909 1.2768005
000010 8d 04 68 3f 35 1c ab 3f a6 5b 93 3f cd 65 8c 3e
       0.90631944 1.3367983 1.1512344 0.27421418
000020 73 67 73 3f 82 ca 69 3f c6 93 80 3f 95 fd 3d 3f
       0.95079726 0.9132463 1.0045097 0.7421506
000030 44 a1 c7 3e 6d ac b1 3f 0d 56 50 3f 13 17 4a 3f
       0.38990223 1.3880745 0.81381303 0.7894146
000040 ad 54 49 3e f9 eb 04 bd 67 7a b2 3f 6c a7 25 3f
       0.19661207 -0.032451604 1.3943604 0.6470859
000050 04 ab b4 3f ae 00 d3 3f 41 38 73 3f d3 15 19 3e
       1.411469 1.6484582 0.9500771 0.14949732
000060 bf 08 d2 3e e6 e0 95 3f d7 ca ba 3f 7b 4f a0 3f
       0.41022298 1.1709259 1.4593152 1.2524256
000070 02 38 22 3f 86 0d 13 40 e3 cf 9c 3f 11 fa 71 3f
       0.6336671 2.2977004 1.2250942 0.94522196

bias f4 [32]
000000 f4 70 14 3e 8b f4 5f be a1 42 89 be 1b dc 18 3f
       0.14496213 -0.2187063 -0.26808646 0.59710854
000010 d2 06 33 be b7 65 0a 3d 3e 1b 19 be 7c 44 13 bf
       -0.1748307 0.03378841 -0.14951798 -0.57526374
000020 7f 43 85 3c ab fb c9 be 19 f2 13 be 01 5a 37 3e
       0.016267536 -0.3944982 -0.14447822 0.17905428
000030 df 93 c7 be 2f 2f 0b bf c5 ed a3 be b2 2b e0 3d
       -0.38980004 -0.5436887 -0.3201734 0.10945834
000040 7b 47 fb be 7e c6 5a bd fc 52 30 bf 6c 5f a4 3e
       -0.49077973 -0.053411953 -0.68876624 0.3210405
000050 3f 80 39 be e6 c8 a5 3e cd 37 7c 3e 71 90 01 bf
       -0.18115328 0.32379836 0.24630661 -0.50611025
000060 fd f3 a6 3d bb 77 ac bd ae 9b df be 3a b6 e5 be
       0.08152006 -0.08421274 -0.43673462 -0.4486559
000070 14 c6 20 bf f1 ac da 3e d4 b6 d2 bd c2 09 41 be
       -0.62802243 0.4271007 -0.10288778 -0.18851379

running_mean f4 [32]
000000 b3 10 8c bf c0 b6 91 3f 96 f6 46 c0 f5 48 1c bf
       -1.0942596 1.1383896 -3.1088004 -0.61048824
000010 88 6a b1 be 05 e2 4c 3f a6 b0 09 bf a3 46 10 3f
       -0.3465159 0.8003238 -0.5378517 0.56357783
000020 a3 9e ba bf 6a 6b dc be 53 bf ef bf 0b c6 15 bf
       -1.4579662 -0.430507 -1.8730263 -0.58505315
000030 c0 1f 3f be 1d 35 66 bf f7 ef 11 c0 11 32 60 bf
       -0.18664455 -0.89924794 -2.2802713 -0.87576395
000040 fe 03 ae 3e 2d 26 2c bf 84 94 0e 40 c5 0d 23 bf
       0.3398742 -0.6724575 2.2278147 -0.63692886
000050 40 77 a4 3e 40 81 1c bd 0c cf f4 bf a0 30 6e bf
       0.3212223 -0.0382092 -1.9125686 -0.93042946
000060 63 88 f6 be eb 6c 54 3f d9 3e 90 bf b9 4b c0 bf
       -0.4815093 0.82978696 -1.126918 -1.5023109
000070 ff 8d a7 bf ba d0 04 bf 68 78 89 3f 00 ec be bf
       -1.3090209 -0.5188099 1.073987 -1.4915771

running_var f4 [32]
000000 e5 69 f7 40 ac fb ee 40 c8 a1 44 41 34 56 54 41
       7.7316766 7.4682217 12.289497 13.271046
000010 17 9c dc 41 a2 40 32 41 56 43 31 41 fc 80 20 41
       27.576216 11.1407795 11.078939 10.03149
000020 1f 36 43 41 ee cc a6 40 64 34 98 40 74 20 63 41
       12.200713 5.212516 4.7563953 14.195423
000030 e3 bd 45 41 df 3b c6 40 f4 8c 9c 41 72 35 d5 40
       12.358859 6.1948085 19.568825 6.662774
000040 2d 2d 85 40 f9 69 91 40 f8 7f 56 41 e3 d9 91 41
       4.1617646 4.544186 13.406242 18.23139
000050 7b c6 51 41 b0 79 5a 41 9d ab 34 41 65 dc 34 41
       13.110957 13.654709 11.291898 11.303807
000060 53 a3 07 41 8f af 87 41 44 de cd 40 db 0b a8 40
       8.477374 16.960722 6.433382 5.251447
000070 57 82 6e 41 d1 90 d1 40 07 17 89 41 e1 5b e2 40
       14.906821 6.548928 17.136244 7.0737157

weight f4 [32, 16]
000000 b4 68 e0 3d 64 e0 6d 3e 09 0c 62 bf 45 7a 05 3f
       0.109574705 0.2323013 -0.88299614 0.52139693
000010 7b 22 a0 bf 08 ee 3a bf 27 45 5f be c8 7d 88 bf
       -1.2510523 -0.73019457 -0.21803723 -1.0663385
000020 2e 9f c6 be 4a b7 45 3e ef a0 c9 bf b1 c2 77 3f
       -0.3879332 0.193082 -1.5752238 0.9678145
000030 d0 27 9f bf d3 99 b5 3f 2d ff 46 3e 2c 97 c7 bd
       -1.2434025 1.4187568 0.1943328 -0.097456306
000040 62 e3 2f bf 29 4d 9c bf 34 1e 85 bf c1 cf 38 3d
       -0.68706334 -1.2211047 -1.0399842 0.045120005
000050 fe 0e ee bd 19 00 3b 3f 85 a2 90 bf 3c 6e a2 bf
       -0.11623953 0.73047024 -1.1299597 -1.2689891
000060 fb 25 8c 3d 70 32 b9 bf 22 5f 10 bf f2 39 86 3f
       0.06843182 -1.4468517 -0.5639516 1.0486434
000070 c2 6b eb 3e 72 6e 4b be 10 01 9e be 2f b7 7d bf
       0.4598065 -0.1986635 -0.30860186 -0.9910764
000080 ff 8b 29 bf 69 f5 0f 40 5a 12 94 bf 16 d1 e5 be
       -0.6622924 2.2493536 -1.15681 -0.44886082
000090 97 8b 89 3f 86 92 7b bb d7 0f ef be d0 43 c9 bf
       1.0745724 -0.0038386895 -0.46691772 -1.572382
0000a0 21 a1 aa be e8 cd 9a bf 01 62 35 be 17 6f 81 be
       -0.33326057 -1.2094088 -0.17713167 -0.25280067
0000b0 c1 52 34 bf d0 54 76 3f bd 09 99 3e 1d b1 9e bf
       -0.7043877 0.96223164 0.29890242 -1.2397801
0000c0 63 68 08 be 6e cd 01 3f af 28 c7 3e 2b ca 8c 3f
       -0.1332107 0.50704086 0.38898227 1.0999197
0000d0 b8 b2 94 3f 5f 96 e9 bf ba 28 12 bf 4e 48 4d bf
       1.1617041 -1.8249015 -0.57093394 -0.80188453
0000e0 47 0f 41 3e cf 7a aa 3d c0 3e fc be 4c 43 20 3f
       0.18853484 0.08324205 -0.49266624 0.62602687
0000f0 cb bd 0a 3f de 0c 0e bf af 05 88 3f cc f3 a4 be
       0.5419585 -0.55488384 1.0626734 -0.32217252
000100 fa 39 ed bf 2c a2 ab 3e 06 48 5b 3f 9f 04 4c 3e
       -1.8533318 0.33522165 0.85656774 0.19923638
000110 8b 51 ed 3f 36 dd 73 be b4 7f dc be a0 8e 18 bf
       1.854051 -0.23814854 -0.4306618 -0.5959263
000120 a3 f0 dc be d7 0c 18 3f ea 16 eb be 0f c1 93 bf
       -0.4315234 0.5939459 -0.4591592 -1.1543292
000130 11 15 51 bf c6 86 87 3e 7a 5a 04 3e ab f7 82 3f
       -0.8167277 0.2647001 0.12925139 1.0231832
000140 52 ad 8a 3f 2d 15 71 3f 2d 61 51 bf 58 0f a6 3e
       1.0834143 0.94172937 -0.81788903 0.3243358
000150 14 4a ba 3f 9d 1d f0 be fc 16 8c be 8d 81 79 3f
       1.4553857 -0.46897593 -0.27361286 0.97463304
000160 23 84 4d 3f 37 3f 9a be 6e 25 a7 3c 61 8b a5 bc
       0.8027975 -0.30126354 0.02040359 -0.020208063
000170 09 bf d5 be db 06 fa be 39 cf 85 3f bd 5b fd 3e
       -0.4174731 -0.48833355 1.0453864 0.49484053
000180 f2 87 28 3f 38 03 7d bf 19 72 f4 3e 77 91 eb 3f
       0.65832436 -0.98833036 0.477433 1.8403767
000190 ae 70 8c bf 52 47 05 bf cd b1 0b 3e ef ef a7 3e
       -1.0971887 -0.5206195 0.13642044 0.32800242
0001a0 bf fe a8 3f 0a b8 fc 3b 86 cd 38 3f 14 cc 38 3f
       1.3202742 0.007712369 0.72188604 0.721864
0001b0 b3 33 e0 3e e4 72 85 3f aa 9d 73 bf e5 9b a3 be
       0.43789443 1.0425687 -0.9516245 -0.31954876
0001c0 d4 e2 95 bd 3d 53 78 bf 90 47 06 3f 3b 3a 85 3e
       -0.07318655 -0.9700201 0.52452946 0.2602099
0001d0 9b d7 47 bf 67 89 fa be 91 fd fd be b5 cc 58 be
       -0.7806336 -0.48932955 -0.49607518 -0.2117184
0001e0 68 98 a3 be 91 3f a3 3f d7 57 ad be df d0 ba 3f
       -0.31952214 1.2753774 -0.3385608 1.4594992
0001f0 65 3d 4c bf e7 dd 82 be 15 f0 21 bf 0f b0 01 bf
       -0.7978118 -0.25559923 -0.6325696 -0.5065927
000200 3f 37 bd be 6e 0c 5f be f0 99 d9 bf 56 e7 8f 3e
       -0.36956212 -0.21782085 -1.7000103 0.28106183
000210 80 83 1b 3f 45 a6 19 3f 82 e3 e5 3d 0d 87 b2 bf
       0.6074753 0.6001933 0.11225034 -1.3947464
000220 24 59 70 bf a7 fa 96 bf 5e b9 70 3f aa 4e ae 3f
       -0.9388602 -1.1795243 0.9403285 1.3617756
000230 93 1e e7 3f 32 3e be be 1d e8 89 3f fe 41 1f 3f
       1.8056206 -0.37156826 1.077396 0.6221007
000240 2c c3 73 3d 77 3c 9c be 59 d6 c7 3f 62 b2 ce be
       0.059512302 -0.3051488 1.5612289 -0.4037047
000250 30 00 37 bf 45 38 89 bf 77 92 a4 3e 72 5b 79 3d
       -0.7148466 -1.0720297 0.32142994 0.060878225
000260 63 4e 62 3f a2 07 da 3e 38 67 82 3d 1b f4 3e bf
       0.8840086 0.42583948 0.06367344 -0.74591225
000270 a6 81 9c bd 71 8b a6 3e cc b9 8f bf 10 60 77 3f
       -0.07641916 0.3252826 -1.1228576 0.96630955
000280 82 a5 99 3f fd d9 54 bf 98 48 ee 3e 14 b3 37 be
       1.2003634 -0.83145124 0.4653976 -0.17939407
000290 96 b3 aa 3e f5 88 df bd 4a 80 b7 3f 93 12 ed 3c
       0.33340138 -0.10914794 1.4336026 0.028939521
0002a0 b5 d1 b8 3e 9c d1 2d 3f e3 f8 77 bf a5 00 7b 3f
       0.36097494 0.67897964 -0.96864146 0.9804786
0002b0 82 c0 ca 3e db e1 b5 3f 03 27 1a 3f e3 34 ce bd
       0.39599997 1.4209551 0.6021578 -0.10068681
0002c0 3e 69 b1 3d 2f b8 3a bf 01 14 a4 3e d0 43 0b bf
       0.086626515 -0.7293729 0.32046512 -0.5440035
0002d0 c5 de 1f bf 46 a7 2f 3f 44 d9 9f 3f a1 56 e3 bf
       -0.62449294 0.68614614 1.2488179 -1.7760812
0002e0 8e 20 28 3f ff d1 e6 bd 4a 8f 87 3e f3 c8 86 be
       0.65674675 -0.11270522 0.26476508 -0.26325187
0002f0 0a 4c ec bc 24 7d 2e 3e 04 24 54 3e bb c4 de 3e
       -0.028844852 0.17039925 0.20716864 0.43509468
000300 eb d1 fd be eb b9 55 3e d7 8b f6 be 7e 38 45 3f
       -0.49574217 0.20871703 -0.48153564 0.77039325
000310 55 95 b5 be 69 27 92 3f 7e 30 af bd 09 aa 45 bf
       -0.35465494 1.1418277 -0.08554171 -0.7721258
000320 15 37 d4 3f f9 93 f4 3f b4 92 0c bf 22 37 8a be
       1.657931 1.9107658 -0.5491135 -0.26995188
000330 ba 04 74 3f d5 49 b9 bf 9b b8 96 be a2 01 b3 bf
       0.9531971 -1.4475657 -0.29437718 -1.3984873
000340 6d 1f 88 bf 24 a2 03 bf d4 b9 07 3e 7b 92 c8 3e
       -1.063459 -0.5141928 0.13254482 0.39174256
000350 14 eb 04 3e d2 68 84 3f 89 fb 1a 3f 5f a3 ac 3e
       0.129803 1.0344489 0.6054006 0.33718392
000360 d4 d3 40 3f 98 29 56 bf e0 28 fb bb df c8 3a 3f
       0.75323224 -0.8365722 -0.007664785 0.72962755
000370 96 87 9b bf e0 3c d1 3e c0 41 59 bf bc d0 5c 3d
       -1.2150753 0.40866756 -0.8486595 0.053910002
000380 fa bf b3 be e3 19 ad be 62 d1 7f bf 6b 24 31 3f
       -0.35107404 -0.33808812 -0.9992887 0.69196194
000390 bc ef 7b 3f 1c b2 2f 3f ab bf 9a 3f 58 85 4b be
       0.9841268 0.6863115 1.2089742 -0.19875085
0003a0 52 d0 15 3f 66 17 3a bf 31 f8 a7 3e a2 25 56 3e
       0.58520997 -0.72691953 0.32806543 0.20912793
0003b0 33 63 ed bd a6 78 3e 3f 13 d5 09 40 a7 28 a5 3e
       -0.115911864 0.74402845 2.15363 0.32257578
0003c0 87 54 fb be 09 4b a5 be 8a 80 63 3f 5c 8a 27 3f
       -0.49087927 -0.3228381 0.8886801 0.65445495
0003d0 23 0a 82 3f 07 16 59 bf bd d5 c3 bf 7f f6 ef bd
       1.0159343 -0.84799236 -1.5299603 -0.11716937
0003e0 c6 10 71 3f 14 e2 cb 3e ea 49 46 bf fd 73 63 bf
       0.9416622 0.3982092 -0.77456534 -0.8884886
0003f0 2e d8 28 3e 10 0f 37 3f fc dc a0 be ab 38 84 3f
       0.16488716 0.7150736 -0.31418598 1.0329794

weight f4 [32]
000000 1d 47 5d 3f 10 23 54 3f 08 bd 38 3f 59 7b b9 3f
       0.86436635 0.82866 0.7216344 1.4490768
000010 e9 0e 92 3f 3b c1 df 3e ef e4 0c 3f 9d c6 0b 3f
       1.14108 0.4370211 0.55036825 0.54599935
000020 09 0f b8 3f e3 53 46 3f 23 88 86 3f 2c a5 8b 3f
       1.4379588 0.7747175 1.0510296 1.0909781
000030 75 da 87 3f 60 3a b0 3e 34 a6 17 3f 87 ef 92 3f
       1.0613543 0.34419537 0.5923798 1.1479348
000040 0e 5f 7d 3f ef 41 eb 3e 8f f1 36 3f 25 ec b8 3f
       0.98973167 0.4594874 0.7146234 1.4447066
000050 72 20 d5 3f 70 df a2 3f 54 89 4c 3f 56 c4 a1 3f
       1.6650527 1.2724438 0.79897046 1.2638042
000060 7f fe 92 3f 4d 69 1d 3f 95 18 ff 3f 49 98 a9 3f
       1.1483916 0.614888 1.9929377 1.3249599
000070 a6 b1 95 3f ca c4 21 3f d6 9a ca 3f e9 66 60 3f
       1.1694839 0.631909 1.5828502 0.8765703

bias f4 [32]
000000 02 df cc be 18 36 8a bc 4f 61 0f bf f3 ab 49 3f
       -0.4001389 -0.016871497 -0.56007856 0.78778
000010 b0 38 ac be 1f 02 27 3c 62 bd c4 be 7e 4e 4f 3d
       -0.33637 0.010193377 -0.38425738 0.050611965
000020 09 cc 04 bf b2 1f 8b 3d 29 8f 14 be ec eb 96 bd
       -0.5187383 0.06793155 -0.14507736 -0.07369217
000030 76 c9 02 3d 96 b3 27 3e 43 70 9e bd 28 a3 14 3e
       0.03193041 0.163771 -0.07736256 0.14515364
000040 b9 0c 7d 3e 4c 4b 3c be 26 d3 80 be 48 bd cf bd
       0.24711885 -0.18388098 -0.25161093 -0.101435244
000050 6c 29 57 be 94 8a 3e bf 66 b2 4d be 0f 0f 1c bf
       -0.21011895 -0.74430203 -0.20087585 -0.6096048
000060 1b bd 05 3e 6b 99 91 3e f2 2c 31 be 67 c0 a7 bd
       0.1306042 0.2843736 -0.17302302 -0.08190995
000070 bd 46 a4 3e 34 a3 ce be f1 b0 35 bf c7 3f f1 3d
       0.3208522 -0.4035889 -0.70973116 0.11779743

running_mean f4 [32]
000000 34 15 ee be a3 c0 1b 40 69 17 54 3f ef e3 9b be
       -0.46500552 2.4336326 0.8284822 -0.30447337
000010 b5 11 58 bf 15 26 01 be 67 77 36 3f dd 2f 21 3f
       -0.8440202 -0.12612183 0.71275944 0.6296366
000020 00 bf 8f 3f 6b 5c 96 bf bf 75 e8 bf 90 b0 d7 3e
       1.1230164 -1.1746954 -1.8160933 0.42126894
000030 08 5b c3 3f 09 fa e3 3f 6d 17 37 be cc 3b 91 bf
       1.5262156 1.781068 -0.1788003 -1.1346374
000040 7c 3b 6e 3f fc 14 f1 3f a7 31 9c be 77 75 17 bf
       0.93059516 1.8834529 -0.30506632 -0.5916361
000050 5f 02 c0 3f 53 d6 59 3f 7a c6 dc 3f ca 19 1b 3f
       1.5000724 0.8509266 1.724807 0.60586226
000060 48 34 28 bf 35 9f 2f 3f 50 ac 32 3f af dd d1 3f
       -0.65704775 0.68602306 0.6979418 1.6395777
000070 d0 ef cd 3e 6a 82 a5 3f 33 cc 26 3e c8 00 cc 3f
       0.40222025 1.2930424 0.16288833 1.5937738

running_var f4 [32]
000000 26 2f c5 40 3e 42 0d 41 ea 53 cb 40 1b d9 03 41
       6.1620054 8.828672 6.3539934 8.240504
000010 83 30 9e 41 02 64 d9 40 c6 43 0f 41 4e 46 a6 40
       19.773687 6.793458 8.954046 5.196082
000020 e6 62 8a 41 5d 5f a7 40 c1 11 95 40 ea 1a 24 41
       17.29829 5.230391 4.658417 10.256571
000030 5f 73 2d 41 e4 fe 20 40 3a f0 d9 40 a1 7a ba 41
       10.840667 2.5155573 6.8105745 23.309877
000040 eb e0 96 40 ab cc 10 41 61 88 5c 41 cf c6 37 41
       4.714956 9.049968 13.783296 11.486037
000050 e8 86 c5 40 fc 08 19 41 08 b8 ab 41 4a c6 88 40
       6.172718 9.564693 21.464859 4.274205
000060 2e d5 8f 41 70 02 5f 40 49 ba 69 41 c0 bf fd 40
       17.979092 3.4845238 14.60798 7.929657
000070 cf 53 19 41 31 96 92 40 76 26 b5 40 3a 2b 10 41
       9.582961 4.580834 5.660945 9.010553

weight f4 [32, 16]
000000 51 6d 3e 3d 32 77 4a 3e d6 70 43 bf bb 2b 5a 3e
       0.04649097 0.19772032 -0.7634405 0.21305744
000010 01 d9 36 3f 52 5a ac bd 81 d2 97 bd 5d ed 25 3f
       0.7142487 -0.08415665 -0.07413197 0.6481531
000020 99 49 bd be ad af af 3e 5b 0a 5d bf ea 11 b9 3f
       -0.36970213 0.34313717 -0.86343926 1.4458592
000030 75 80 f2 be 68 e6 b9 3d 2d 18 69 3d a1 ec 86 3e
       -0.4736363 0.0907715 0.05690782 0.2635241
000040 6e 77 06 bd cd 9f 04 bf 90 4a 8f be db e6 11 3c
       -0.03282874 -0.51806337 -0.27986574 0.008905138
000050 aa ef f6 bd 02 e2 ff be 25 25 1c bf 06 1c 55 bf
       -0.12057431 -0.49977118 -0.6099418 -0.83245885
000060 8e 98 6a 3e 4c 10 34 bf 90 b5 63 bf 7e 33 9b bf
       0.22909757 -0.7033737 -0.8894892 -1.2125089
000070 9e ab 65 3e 55 29 4c bf 93 ec dc 3e f9 9f 70 bf
       0.22428748 -0.7975057 0.43149242 -0.939941
000080 de b2 ec be fe 5b 38 be ec 45 e2 3d 51 52 c5 3e
       -0.46230215 -0.18003842 0.11048493 0.38539365
000090 56 be 6e be a1 07 cd 3e cf cd 26 bf 17 74 f8 be
       -0.23314795 0.40044883 -0.6515779 -0.4852607
0000a0 35 f1 47 bc 38 19 8d 3e 64 b1 93 be e9 38 74 3e
       -0.012203504 0.27558303 -0.28846276 0.23849835
0000b0 84 df 08 3f 2b 42 55 3f 9b 36 88 be fd 04 ac bd
       0.5346606 0.8330409 -0.2660416 -0.08399389
0000c0 73 73 98 be b3 a7 9a bf f8 e7 75 3e 54 f2 3e bf
       -0.2977558 -1.2082428 0.2401427 -0.74588513
0000d0 9b 7d 1c 3e 82 16 aa 3f df dd 26 3e cc 83 31 bf
       0.1528229 1.3288119 0.16295575 -0.6934173
0000e0 f9 9a 3d 3f 2c 60 01 c0 37 11 0f bf 3c 24 4d 3d
       0.74064595 -2.0214949 -0.5588564 0.050083384
0000f0 8a f5 7b bf aa 41 5a bf 00 d7 b8 3f e7 dd 13 3f
       -0.9842154 -0.85256445 1.4440613 0.5776047
000100 b5 b2 4f be cd ac 79 3f 2a 41 98 3f 14 c2 37 3f
       -0.20283015 0.975293 1.1894886 0.71780515
000110 23 5f 6c bf 70 24 07 3e 42 18 40 bf ea 38 b4 3f
       -0.9233267 0.13197494 -0.75037014 1.4079869
000120 50 ab cc bd c1 3c 56 3d 10 92 39 3f b6 a4 aa 3c
       -0.09993613 0.052304033 0.724885 0.020830493
000130 11 3b f6 bd f9 d3 83 bf fd 06 a9 3e 3c 74 ec be
       -0.12022985 -1.0299064 0.33013144 -0.4618243
000140 51 5c 95 3e 42 ce b3 3e d0 2b da 3f 9c 54 22 bf
       0.29171994 0.351183 1.704462 -0.63410354
000150 27 11 9a be 49 c9 ee 3c ff d9 c4 be a9 47 33 3f
       -0.3009121 0.029148715 -0.38447568 0.7003122
000160 a1 50 2a bf a8 c3 64 3f e2 56 a8 3e 15 8c 7f bf
       -0.6652928 0.8936105 0.32878786 -0.99823123
000170 69 7a 41 3f 80 d8 ff 3f 43 fd 8d be c4 56 51 3f
       0.7557741 1.9987946 -0.27732286 0.8177302
000180 35 04 7f bf 24 40 2c 3f e5 99 20 bf 09 4c 05 3c
       -0.99615794 0.6728537 -0.62734824 0.008135804
000190 fa f9 19 3f 40 29 29 3f ea a4 8c 3e e4 cb f7 3f
       0.6014706 0.6607857 0.2746957 1.9359097
0001a0 7c e7 b4 3f d1 37 c9 be 2a 0c 17 3e a0 6b ca bf
       1.4133143 -0.39300397 0.14750734 -1.5814095
0001b0 be 9d 4f bf 8e 1b 2f 3f 61 e4 f3 3e 86 e2 8a 3d
       -0.8110007 0.6840142 0.47635177 0.06781487
0001c0 c6 fd 14 3f 72 85 bb 3f 30 7b 8d 3e fd 26 0a 3f
       0.5819973 1.4650099 0.27633047 0.5396574
0001d0 12 27 95 be 9a 1d 7b bf 95 7a c6 be 0f 5c 7d be
       -0.2913137 -0.98092043 -0.38765398 -0.24742149
0001e0 e7 83 a3 3f 18 57 37 bf a8 72 0d 3f 58 e8 6a 3d
       1.2774628 -0.7161727 0.55253077 0.057350487
0001f0 fa bf 63 3f d2 bb 35 bf 77 b6 68 bf 1e 51 2a bf
       0.8896481 -0.70989716 -0.9090342 -0.66530025
000200 f5 78 ec bd 8c 92 1d 3f b4 df 9c bd 8d 5f 36 3e
       -0.11546508 0.6155174 -0.076598555 0.17809887
000210 4d 31 44 bf f0 ce e5 be e1 02 12 3f 8f 3a da be
       -0.7663773 -0.44884443 0.5703564 -0.42622802
000220 98 86 0a 3f f2 88 4c 3e d6 75 24 3f a5 d0 b2 3f
       0.54111624 0.19974115 0.64242303 1.3969923
000230 9d 8d 5c 3e 05 37 84 bf 65 79 14 3f de ba af 3d
       0.21538396 -1.0329291 0.57997733 0.08580564
000240 37 0a 78 3f df 48 1f be e4 6c 07 bf 06 40 a1 3f
       0.96890587 -0.15555142 -0.5290053 1.2597663
000250 ce f9 e3 3e ba 2d b4 be d1 ff 1b 3f b0 1e eb 3f
       0.44526523 -0.35191137 0.6093722 1.836874
000260 78 fb ca be d8 02 24 3f 1c c2 40 be a6 20 d3 3e
       -0.3964498 0.6406684 -0.18824047 0.41235846
000270 41 51 59 be a3 a7 60 3d 79 8a 7a 3e 79 46 8d 3f
       -0.21222402 0.05484737 0.24466886 1.1037132
000280 6d ba 92 3e 9f 47 69 be 04 7f 85 be b7 3d a1 bf
       0.28657857 -0.22781228 -0.26073468 -1.2596959
000290 c9 2b a3 be 44 a2 d9 be a6 98 04 bf ed 1b 9a bd
       -0.31869343 -0.4250661 -0.51795423 -0.07524858
0002a0 45 98 17 3e 7e c7 e0 be 1a 9a 01 3f b9 88 3b 3f
       0.1480418 -0.439022 0.50625765 0.732555
0002b0 1f 82 7a bf a5 ef 05 3f 83 a4 0f 3f f0 f0 4c 3f
       -0.978548 0.52318794 0.561104 0.8005514
0002c0 e2 38 28 3d 76 17 eb bb 08 18 9b be 98 2c c7 bf
       0.041069873 -0.0071744276 -0.30291772 -1.5560484
0002d0 a6 9d b9 3e fd e5 01 bf b9 8f ad 3e 37 dd a4 bf
       0.3625309 -0.5074156 0.33898714 -1.288001
0002e0 41 62 a7 3e ca d9 af 3f 14 f7 5b 3f d3 ce d5 bc
       0.3269215 1.3738339 0.85923886 -0.026099598
0002f0 b7 7f 35 3f c2 e1 a8 be b4 77 17 be 3e 96 3e be
       0.70898 -0.3298474 -0.14791757 -0.18612
000300 b1 9d e6 bf 07 d3 bf 3e e2 2a ad be 25 84 b6 3d
       -1.8016874 0.3746569 -0.3382178 0.08911923
000310 8c c6 5e bf d3 9f b3 bd bc 07 6a bf 03 f8 dc 3f
       -0.8702171 -0.087707184 -0.9141805 1.7263187
000320 89 4c eb be 64 c7 9b 3f e3 fc cb be 9f a6 b6 3d
       -0.4595683 1.2170224 -0.39841375 0.08918499
000330 33 c3 13 3f 99 e3 95 bf d7 12 5c bf b2 ae 57 bd
       0.57719725 -1.1710082 -0.8596625 -0.052656837
000340 96 ce a9 3c 12 15 30 3f 2b 1d 9d 3d b6 3e 80 be
       0.02072839 0.6878215 0.07671579 -0.25047845
000350 87 4e 4c bf 40 90 56 bf c3 e8 a7 3e 62 1e 9e be
       -0.79807323 -0.8381386 0.3279477 -0.30882555
000360 d6 73 f0 3e 67 8b 8c bf 24 ef 5e 3e 9c 19 24 3e
       0.46963376 -1.0980042 0.21770912 0.16025394
000370 4a 81 85 3d 53 f9 d6 bf db de 5c bf 4a a5 5e bf
       0.065188006 -1.6794838 -0.8627755 -0.8697096
000380 ff 5e 48 bf 10 38 22 3f 95 3e 9a 3d 58 4a 57 3f
       -0.7826995 0.63366795 0.07531468 0.84097815
000390 63 d5 f5 3d 60 5f e0 be a9 1f 8b bf c6 13 8e ba
       0.12003591 -0.43822765 -1.0869037 -0.0010839633
0003a0 e5 00 c8 3d 38 ef 8d 3e 45 9c bb 3e b0 25 43 be
       0.097657956 0.27721572 0.36642662 -0.19057345
0003b0 bd 29 ef bf 65 48 2e bf 6e a5 d9 be 7e 0f 5a 3f
       -1.8684613 -0.68079215 -0.42509025 0.8517989
0003c0 c0 21 3d 3d 32 12 67 be 27 59 8e 3e c0 3b 84 bf
       0.046174765 -0.22565535 0.27802393 -1.0330734
0003d0 40 9c 86 3f 57 91 fd 3f c4 01 d3 be fa 88 96 3d
       1.0516434 1.9809979 -0.41212285 0.07350345
0003e0 7c b8 77 3d 1d e0 15 3f c1 4a a8 be d3 4d 85 bf
       0.060478672 0.58545095 -0.32869533 -1.0414375
0003f0 72 05 8f 3e d8 a7 1f 3d 55 35 32 3e 01 fe b4 3e
       0.27933842 0.038978428 0.17403157 0.3535004

weight f4 [32]
000000 00 00 80 3f 00 00 80 3f 00 00 80 3f 00 00 80 3f
       1.0 1.0 1.0 1.0
000010 00 00 80 3f 00 00 80 3f 00 00 80 3f 00 00 80 3f
       1.0 1.0 1.0 1.0
000020 29 cb ae 3f e6 9d 87 3f 76 cf 15 bd fb a9 3e 3f
       1.365575 1.0595062 -0.036574803 0.7447812
000030 ce 24 9b 3f 49 70 0d 3f c6 5f 89 3f 48 c2 b0 3f
       1.2120607 0.5524946 1.0732353 1.380929
000040 00 00 80 3f 00 00 80 3f 00 00 80 3f 00 00 80 3f
       1.0 1.0 1.0 1.0
000050 00 00 80 3f 00 00 80 3f 00 00 80 3f 00 00 80 3f
       1.0 1.0 1.0 1.0
000060 94 0d 79 3f 33 13 56 3f 2b 9e d3 3e 0e 2d 03 3f
       0.97286344 0.83623046 0.4133161 0.51240623
000070 4c 9c e4 3e c6 00 72 3f 1a 8c 5b 3f 04 c2 18 40
       0.44650495 0.9453243 0.85760653 2.3868418

bias f4 [32]
000000 00 00 00 00 00 00 00 00 00 00 00 00 00 00 00 00
       0.0 0.0 0.0 0.0
000010 00 00 00 00 00 00 00 00 00 00 00 00 00 00 00 00
       0.0 0.0 0.0 0.0
000020 29 2b 90 be ff 19 0e bf 56 f9 0f be 88 9a ac 3e
       -0.2815793 -0.55508417 -0.14059958 0.33711648
000030 23 0f 8c 3e 76 79 01 3f 0f 22 32 be 50 8f 7c bf
       0.27355298 0.5057596 -0.17395805 -0.9865618
000040 00 00 00 00 00 00 00 00 00 00 00 00 00 00 00 00
       0.0 0.0 0.0 0.0
000050 00 00 00 00 00 00 00 00 00 00 00 00 00 00 00 00
       0.0 0.0 0.0 0.0
000060 39 de 31 3e b3 77 49 3e 30 e3 73 bf b8 94 90 bd
       0.17369927 0.19674568 -0.95268536 -0.07059616
000070 1d a4 2b 3f 71 e1 f1 be 37 5c 3b bd f8 33 95 3e
       0.6704729 -0.4724231 -0.04574224 0.29141212

running_mean f4 [32]
000000 11 a1 cb 3e ad 6c 90 3e cc b5 da 3e f4 38 11 bd
       0.3977132 0.28207913 0.42716825 -0.035454705
000010 13 e7 42 3f ac 4c 28 c0 84 0e a0 bf 5e ba 4e 3f
       0.7613384 -2.6296797 -1.250443 0.80753124
000020 ec 1a 2b 3f a2 e4 02 be 09 c0 5e bf 41 cd af bf
       0.66837955 -0.12782529 -0.8701177 -1.3734514
000030 5f 1a 46 3f 8e 1d 9d 3f d9 fb a6 3f 94 78 b2 bf
       0.7738399 1.2274644 1.3045608 -1.3943048
000040 84 b1 73 bf 03 59 1a 3f 74 a4 04 3f 64 82 36 be
       -0.9519274 0.6029207 0.51813436 -0.17823178
000050 12 30 44 bf 34 33 8c 3d 92 37 e9 3e 42 4a 4d be
       -0.7663585 0.06845704 0.4555021 -0.20047858
000060 61 87 88 bc 81 06 bc be 05 80 80 3f 39 f7 8a be
       -0.016666116 -0.36723712 1.0039068 -0.2714174
000070 10 a0 8a be d7 2a e5 3f b3 7b 6b be d1 a5 02 3f
       -0.27075243 1.7903699 -0.22996406 0.51034266

running_var f4 [32]
000000 32 53 91 3f 22 c6 82 3f df f6 01 3f 89 42 8f 41
       1.1353514 1.0216715 0.5076732 17.907488
000010 2d 79 0d 40 2a 51 e5 40 60 b5 95 40 9b 90 00 41
       2.210521 7.1661577 4.6783905 8.035304
000020 d3 33 16 41 ba b9 59 41 3d 99 a6 40 05 e5 d3 40
       9.387652 13.607843 5.206206 6.6217065
000030 3c 73 c7 40 d7 ae 4a 41 8f a7 0f 41 c9 ed c3 40
       6.2328167 12.6676855 8.978408 6.1227765
000040 b8 b6 c0 3f af ce 45 40 be 4f 15 40 d5 7d 4f 40
       1.5055761 3.09074 2.332992 3.2420552
000050 49 c6 72 40 33 13 57 41 84 01 2d 40 80 7e 15 40
       3.7933524 13.442187 2.7032175 2.335846
000060 8a 38 f1 40 67 00 92 41 5c 0a e4 40 2a 5d 40 40
       7.5381517 18.250196 7.1262646 3.0056863
000070 64 ad 39 41 7b 05 85 41 45 f9 0b 41 05 df d4 40
       11.604832 16.627676 8.748357 6.652224

weight f4 [32]
000000 27 12 7e 3f ae cd 30 3f ca 4d 90 3f 47 4a a6 3f
       0.9924645 0.6906384 1.1273739 1.2991418
000010 f7 a4 b0 3f 89 49 88 3f 68 1c 83 3f b8 74 ba 3f
       1.3800343 1.0647441 1.0243044 1.456687
000020 36 2c 9d 3f cf ed 92 3f 8a 8d 87 3f e2 75 92 3f
       1.2279117 1.1478823 1.0590069 1.1442225
000030 77 f7 a1 3f 33 1d 66 3e 13 8c 17 3e 67 ca 8b 3f
       1.2653645 0.22472076 0.14799528 1.0921143
000040 86 e1 91 3f 17 ce b2 3f d9 ce 88 3f fb 45 0e 40
       1.1396949 1.3969144 1.0688125 2.2230213
000050 af a9 3c 3f 73 31 ce 3f 8d 6c 10 3f 79 40 00 3f
       0.73696417 1.6108841 0.56415635 0.5009838
000060 a6 de ea 3f 23 8b b8 3f d3 a1 b2 3f a4 21 b2 3f
       1.8349197 1.4417461 1.3955635 1.3916516
000070 f9 9f a9 3f df dc 42 3f 67 fa 1f 3f 48 f9 b8 3f
       1.3251945 0.7611827 0.6249146 1.4451075

bias f4 [32]
000000 26 a7 a5 be b7 7c 12 bf 0b b3 86 3c a4 b2 80 3f
       -0.32354087 -0.5722155 0.016442796 1.0054517
000010 3b 85 c4 3e 23 b1 2e 3f 52 ab 1c bf bd e9 df 3d
       0.38382897 0.6823904 -0.61198914 0.10933254
000020 ae 4d ea 3e ce d7 74 be 71 01 b2 be 73 a0 d8 3e
       0.4576239 -0.23910448 -0.34766725 0.42309913
000030 a1 ee 83 be 0b 12 3b 3e 72 eb b6 3e a6 42 81 3f
       -0.25767997 0.18268602 0.35726506 1.0098464
000040 82 44 35 bf 46 f9 40 bf 7c 05 a7 3e 7b b4 fd 3e
       -0.7080766 -0.7538036 0.32621372 0.49551758
000050 1f f0 06 3f 5b 10 86 3f cc 74 43 3e 15 69 66 3f
       0.52710146 1.0473741 0.19087523 0.9000409
000060 38 8e 31 3f 7c 0d cc bd 9e d1 80 bd 62 6e 78 3e
       0.69357634 -0.099635094 -0.06289981 0.24260858
000070 78 5a 56 be 9f c6 5f bf 8a 00 43 bf 87 b0 fd 3e
       -0.20932949 -0.87412447 -0.761727 0.49548742

running_mean f4 [32]
000000 49 8b 2b 3d 2f e7 1b bc 54 af c4 be 7e b0 5b bd
       0.04188088 -0.009515568 -0.38415015 -0.053635113
000010 db e0 cb 3e 16 0d 90 be 1f 03 34 be 73 95 d1 3d
       0.3981999 -0.28134984 -0.17579316 0.10233583
000020 a2 6c 63 3e 3a 1e 54 bd 4d 0f 00 3d 4e 33 0b bf
       0.22209409 -0.05178664 0.031264592 -0.5437516
000030 a5 da b3 be 4a c1 e8 3e 02 5f 87 bd 81 d6 f8 3e
       -0.3512775 0.45459968 -0.06609918 0.48601153
000040 29 36 4c be 09 bb 20 be b7 3d 02 be f5 56 84 3e
       -0.19942535 -0.15696348 -0.12718855 0.25847593
000050 2d a5 f9 3d ea 9d 6c be 13 ee 9d 3d c5 f4 6d 3e
       0.12189708 -0.23107114 0.07711425 0.23237903
000060 0f 22 84 3d f8 cd 95 3d e7 52 cb 3e ec c8 66 3d
       0.06451809 0.07314676 0.39711687 0.056343958
000070 20 fb d4 3e 04 ee 12 be 72 da 60 bd e2 22 0d be
       0.41597843 -0.14348608 -0.054895826 -0.13782838

running_var f4 [32]
000000 24 1b bf 3e d5 75 a3 3e 91 33 bc 3f 39 36 e6 3e
       0.37325394 0.31925836 1.4703237 0.44963244
000010 34 fb 3e 3f b2 78 c5 3e b0 1f ee 3e c5 b9 46 3f
       0.74602056 0.38568646 0.4650855 0.7762721
000020 25 93 59 3e 1f 7c fe 3e 02 15 ce 3e 84 59 6a 3f
       0.21247537 0.49704072 0.40250403 0.9154284
000030 3a 63 d1 3e 97 23 65 3f 0a ad e5 3e 88 ad 1e 3f
       0.40896016 0.8950743 0.4485858 0.6198354
000040 85 60 99 3f e6 47 98 3e af 0e b1 3e 3b fd cc 3e
       1.198258 0.29742354 0.34581515 0.4003695
000050 d4 00 32 3d 0b 14 c5 3e 2a b5 12 3f 6c 09 0d 3f
       0.04345782 0.38491854 0.57307684 0.550925
000060 4b 12 8b 3e e3 cc b3 3e b5 2b 5e 3f 11 38 b8 3e
       0.27162394 0.35117254 0.8678544 0.35980275
000070 78 c1 a5 3f 32 b3 aa 3e b7 66 a5 3e 91 87 ab 3e
       1.2949667 0.3333984 0.32304928 0.33501866

weight f4 [32]
000000 ed ee 2d 3f 5e b2 dc 3f 6d 25 9d 3f 67 2d aa 3f
       0.67942697 1.7241933 1.2277046 1.3295106
000010 f1 2a b5 3f 85 f6 ae 3f 90 69 22 3f a7 c8 9d 3f
       1.415373 1.3668982 0.63442326 1.2326859
000020 20 97 1b 3f 70 4e bb 3f ca 14 74 3f ce 65 97 3e
       0.60777473 1.4633312 0.9534422 0.29569858
000030 79 3f e4 3e 3f 15 a6 3f 4e 17 75 3f 81 d1 86 3f
       0.44579676 1.2975234 0.95738685 1.0532686
000040 c1 0c 99 3f dc 56 e8 3f eb a0 d7 3f d2 0b c6 3f
       1.1957017 1.8151507 1.6845983 1.5472357
000050 52 a0 80 3f b5 bb 1e 3f 21 44 77 3f a1 e9 c5 3f
       1.0048926 0.6200517 0.9658833 1.5461923
000060 fc d0 db 3e fb 5c 94 3f 4c 7d ad 3f d2 89 03 3e
       0.4293288 1.1590875 1.3553863 0.12845543
000070 b3 0f c6 3e 87 d1 ce 3f a6 49 57 3f 0b 11 84 3f
       0.38683853 1.6157693 0.84096754 1.0317701

bias f4 [32]
000000 66 65 d0 3e 93 b8 38 bf df 12 ce be 1f a9 6d 3f
       0.4070236 -0.7215664 -0.40248773 0.92836183
000010 a8 3b 1d bf d4 38 47 3f 82 51 0a bf e3 84 8c 3e
       -0.61419153 0.7782109 -0.5403062 0.27445135
000020 25 94 02 3f 3e 5b 0a bf 96 e7 a7 3e d5 bc d1 bd
       0.510073 -0.54045475 0.32793874 -0.10241095
000030 68 2b aa 3e 4f bc 9f 3e e9 6c 9e be b7 77 76 3e
       0.3323624 0.31198356 -0.30942467 0.24069105
000040 74 65 62 be 5b 16 67 3e 84 e0 e6 bd 70 ff c0 3e
       -0.22109014 0.22567122 -0.11273292 0.37694883
000050 0e 8d 83 3e cc cd c4 3e 08 b8 03 bf 5f 78 d0 3d
       0.25693554 0.3843826 -0.51452684 0.10179209
000060 90 67 9b 3e 3e 61 45 3c 0a 7a 59 3e 29 d3 2b bf
       0.3035245 0.01204711 0.2123796 -0.6711908
000070 36 50 e9 be 28 3f 8e 3e 52 81 84 3e a6 e4 06 3f
       -0.4556901 0.2778256 0.25879914 0.5269264

running_mean f4 [32]
000000 c8 c4 6f bf ed 7a 67 3d 87 ac ac bf fe 83 1c bf
       -0.9365964 0.056513716 -1.3490151 -0.61138904
000010 9e 8a 81 3f 42 5a 5c 3f 44 13 01 bf b8 c7 e5 bf
       1.0120428 0.8607522 -0.5042002 -1.7951574
000020 b1 37 56 3f 4d 2a 00 3f 1b 3c bb 3e f4 19 59 bf
       0.8367873 0.50064546 0.36569294 -0.84805226
000030 6f 22 57 3f b9 07 a6 3e 28 b6 27 3f 25 0e 3a be
       0.84036916 0.32427767 0.65512323 -0.18169458
000040 52 63 e8 bd b0 c8 32 3f 06 dc 26 3f da b8 83 bf
       -0.11347069 0.69837475 0.6517948 -1.0290787
000050 00 5c 09 c0 61 67 c5 bf 20 00 ae 3f 45 12 0e c0
       -2.1462402 -1.5422174 1.3593788 -2.219865
000060 2c 43 9a 3f 79 91 49 c0 0d f4 bf 3f 83 9c 21 c0
       1.2051749 -3.149504 1.4996353 -2.5251777
000070 d8 bc 04 40 fa ec 6a bf ef c7 ee bf 29 fb d7 bf
       2.074026 -0.9176785 -1.8654765 -1.6873523

running_var f4 [32]
000000 3a 8c c0 40 f8 db 0a 41 bf 69 30 41 b7 19 55 41
       6.0171175 8.678703 11.025817 13.318778
000010 75 d5 cb 41 b9 d5 12 41 ec 8d fd 40 06 97 0b 41
       25.479227 9.177178 7.9235744 8.724371
000020 c2 e1 4d 41 99 87 fb 40 6a 7c 4c 40 d3 9e 4d 41
       12.867617 7.8603024 3.1950936 12.851275
000030 d6 98 05 41 62 5b fb 40 cd 6b 8a 41 2b 4e 8a 40
       8.349813 7.854905 17.302637 4.322042
000040 6d 74 75 40 79 bd ee 40 d4 5a 2c 41 4c 62 3a 41
       3.835231 7.460629 10.772175 11.648998
000050 91 d3 29 41 ae 3b b9 40 3c 2d 1d 41 11 58 18 41
       10.614152 5.788535 9.823544 9.521501
000060 72 ea f7 40 1b 6a da 41 ba aa 20 41 ed ab d7 40
       7.747369 27.30181 10.041681 6.739737
000070 84 70 ab 41 c8 60 88 40 29 b5 a5 41 f6 5c b8 40
       21.42994 4.261814 20.713457 5.761348
