04_Experiments/2022_08_02 09-00-22 100-runs-train_val_split-rmse/models/Model_run35_train_val_split0.6_alcalinity_of_ash.pt (torch, 283425 bytes, 318 tensors)

weight f4 [12]
0	0x3f800000	1.0
1	0x3f800000	1.0
2	0x3f800000	1.0
3	0x3f800000	1.0
4	0x3f800000	1.0
5	0x3f800000	1.0
6	0x3f800000	1.0
7	0x3f800000	1.0
8	0x3f800000	1.0
9	0x3f800000	1.0
10	0x3f800000	1.0
11	0x3f800000	1.0

bias f4 [12]
0	0x00000000	0.0
1	0x00000000	0.0
2	0x00000000	0.0
3	0x00000000	0.0
4	0x00000000	0.0
5	0x00000000	0.0
6	0x00000000	0.0
7	0x00000000	0.0
8	0x00000000	0.0
9	0x00000000	0.0
10	0x00000000	0.0
11	0x00000000	0.0

running_mean f4 [12]
0	0x00000000	0.0
1	0x00000000	0.0
2	0x00000000	0.0
3	0x00000000	0.0
4	0x00000000	0.0
5	0x00000000	0.0
6	0x00000000	0.0
7	0x00000000	0.0
8	0x00000000	0.0
9	0x00000000	0.0
10	0x00000000	0.0
11	0x00000000	0.0

running_var f4 [12]
0	0x3f800000	1.0
1	0x3f800000	1.0
2	0x3f800000	1.0
3	0x3f800000	1.0
4	0x3f800000	1.0
5	0x3f800000	1.0
6	0x3f800000	1.0
7	0x3f800000	1.0
8	0x3f800000	1.0
9	0x3f800000	1.0
10	0x3f800000	1.0
11	0x3f800000	1.0

weight f4 [12]
0	0x3f87d2ab	1.0611166
1	0x3f9d7b55	1.2303263
2	0x3f8cc498	1.0997496
3	0x3f954c25	1.1663862
4	0x3f2f4f25	0.6848014
5	0x3faff0fb	1.3745416
6	0x3f337889	0.701058
7	0x3f94828a	1.1602337
8	0x3fb06189	1.3779765
9	0x3f6dea19	0.9293533
10	0x3f8d0651	1.1017553
11	0x3fa4d9b7	1.2878941

bias f4 [12]
0	0x3f12291c	0.5709398
1	0xbf2a5d3e	-0.66548526
2	0x3f02716d	0.50954324
3	0x3da77e93	0.08178439
4	0x3f51db9e	0.81975734
5	0xbf0bb544	-0.54573464
6	0xbf485996	-0.782617
7	0x3e421210	0.18952203
8	0x3ea00ff6	0.31262177
9	0x3f18941b	0.5960099
10	0xbf303106	-0.68824804
11	0xbe3d7366	-0.18501052

running_mean f4 [12]
0	0x42abbcb0	85.86853
1	0x3fd5faa7	1.6717118
2	0x3e9de9d0	0.30842447
3	0x442184ec	646.0769
4	0x3ff3e69d	1.9054753
5	0x408fecf8	4.497677
6	0x3faafaba	1.3357766
7	0x3f5033c1	0.8132897
8	0x400b2b6b	2.174525
9	0x41318a26	11.096228
10	0x40016be2	2.0222096
11	0x40011534	2.0169191

running_var f4 [12]
0	0x431a180c	154.09393
1	0x3f5f6391	0.872613
2	0x3e289c1e	0.16465804
3	0x478fba92	73589.14
4	0x3ef00612	0.4687963
5	0x40b9dd51	5.808266
6	0x3ed27150	0.41102076
7	0x3e4d0edb	0.20025198
8	0x3f1fa110	0.62355137
9	0x3f38c5ba	0.72176707
10	0x3f97ea3a	1.1868355
11	0x3e584ca9	0.21122994

weight f4 [32, 12]
0	0x3f97b5cb	1.1852354
1	0x3e928ba2	0.28622156
2	0x3f7a0701	0.9766694
3	0x3f0c9f00	0.54930115
4	0xbfafedb4	-1.3744416
5	0x3e7f5a75	0.2493685
6	0xbe61797e	-0.22019002
7	0xbf876f0d	-1.0580765
8	0xbf008886	-0.5020832
9	0x3f91d140	1.1391983
10	0xbfa9dfb4	-1.3271394
11	0x3de406bd	0.11134098
12	0x3eed5ada	0.46358377
13	0x3ea28630	0.31743002
14	0x3f666f29	0.90013367
15	0x3f201f1f	0.6254749
16	0xbd99b571	-0.0750531
17	0xbe92a8d9	-0.28644446
18	0x3fbad184	1.4595189
19	0x3db6e0f6	0.08929627
20	0x3d118f2e	0.035536937
21	0xbed265a3	-0.41093168
22	0xc013c42f	-2.308849
23	0x3e00b7fd	0.12570186
24	0xbf5e406c	-0.8681705
25	0x3d9eec11	0.0775987
26	0xbf48a465	-0.78375846
27	0xbd00a555	-0.031407673
28	0x3cfb3e4d	0.030669356
29	0xbfd43ecb	-1.6581663
30	0xbf991177	-1.1958455
31	0x3d9f7d48	0.077875674
32	0x3c92ed6b	0.017935475
33	0x3f88378b	1.064195
34	0x3f9ba5d1	1.2159978
35	0xbfa8e096	-1.3193538
36	0x3faf90ac	1.3716025
37	0x3f7ef11d	0.9958666
38	0x3eff3972	0.49848515
39	0xbf1fcd10	-0.62422276
40	0xbef2821b	-0.47364888
41	0x3da92376	0.08258717
42	0x3c745f7e	0.014915345
43	0x3f99e2ee	1.2022378
44	0x3f6b8179	0.91994435
45	0x3fc3bbcf	1.529169
46	0x3e62aa31	0.22135235
47	0x3e9bcbc7	0.30428907
48	0xbef4b9c2	-0.47797972
49	0x3f098421	0.5371724
50	0x3f9bb5c1	1.2164842
51	0x3f3d0d5c	0.7384851
52	0x3f29ceaa	0.6633097
53	0x3f0d8987	0.55287975
54	0xbe8ee941	-0.27912334
55	0x3ff07515	1.8785731
56	0xbf8fe45c	-1.1241565
57	0xbebcb5c3	-0.36857423
58	0x400b8adc	2.1803503
59	0x3fd3e28b	1.655351
60	0xbf8daacd	-1.1067749
61	0x3fbfa63d	1.4972607
62	0xbf767323	-0.96269435
63	0xbf1dd37a	-0.6165081
64	0xbf5e7c90	-0.8690882
65	0xbe8073ee	-0.25088447
66	0x3d02665e	0.031835906
67	0x3d94dcac	0.07268652
68	0x3e0ebe7f	0.13939856
69	0xbf96f4b9	-1.1793433
70	0xbf84f414	-1.0386987
71	0xbf100826	-0.56262434
72	0xbfa6d0bf	-1.3032454
73	0xbfa6368b	-1.2985395
74	0xbebe749c	-0.3719834
75	0xbee9d145	-0.45667472
76	0xbf2cdeb0	-0.67527294
77	0xbf749f2d	-0.9555538
78	0xbf479658	-0.7796378
79	0xbe73372f	-0.2375152
80	0x3f0658d0	0.5247927
81	0xbfbb6f6b	-1.4643377
82	0xbf22dc54	-0.63617444
83	0x3f8c0a0b	1.0940565
84	0xbdc14b45	-0.09438185
85	0xbf2de37d	-0.67925245
86	0x3e7c8ad3	0.24662332
87	0xbface028	-1.3505907
88	0x3fc9a0ac	1.5752158
89	0x4001ee87	2.0301836
90	0x3f6f4f4c	0.9348037
91	0xbf3a5abe	-0.7279471
92	0x3f92a5e9	1.1456882
93	0x4000a95b	2.0103366
94	0xbf753f9c	-0.95800185
95	0x3d6596d0	0.05605203
96	0x3fbcda09	1.4754039
97	0x3f933e02	1.1503298
98	0x3f3b066c	0.73056674
99	0x3f0db182	0.5534898
100	0x3f04943e	0.517887
101	0x3d96b07e	0.07357882
102	0x3f387d3d	0.720661
103	0x3f4c047c	0.7969434
104	0x3eb822f9	0.35964182
105	0x3eacf022	0.33776957
106	0x3ee9c480	0.4565773
107	0x3f208c72	0.627143
108	0x3fa989ae	1.3245142
109	0xbe84858f	-0.25883147
110	0xb99e2fcb	-0.00030171717
111	0xbf424099	-0.7587982
112	0xbe1c37c6	-0.15255651
113	0x3fb744ae	1.4317834
114	0x3f0aceec	0.5422199
115	0xbf2e8e12	-0.6818553
116	0x3ed706cb	0.4199737
117	0xbd61c61b	-0.05512057
118	0xbecd7196	-0.40125722
119	0x3fa718a4	1.3054395
120	0xbf12a6a1	-0.57285506
121	0x3cca6558	0.024706528
122	0xbecba7af	-0.3977637
123	0x3f84b911	1.0368978
124	0x3ea93a23	0.33052167
125	0xbf88cee4	-1.0688138
126	0xbe9f8c6b	-0.31161818
127	0xbe7c2daa	-0.24626794
128	0xbf6bcb4f	-0.921071
129	0x3e0be665	0.13662107
130	0x3defef25	0.11715535
131	0x3f691f69	0.91063553
132	0x3e031cd5	0.12803967
133	0x3e30ab88	0.17252934
134	0xbc5626ea	-0.013070801
135	0x3dc56662	0.096386686
136	0x3fb38634	1.402533
137	0xbf887210	-1.0659809
138	0xbe9517b0	-0.29119635
139	0xbed1e80e	-0.40997356
140	0xbfe979ed	-1.8240334
141	0xbe34caf4	-0.17655545
142	0x3f8b37af	1.0876368
143	0x3e9f8568	0.31156468
144	0xbf12827a	-0.5723034
145	0x3fa6881c	1.3010287
146	0xbf814c63	-1.0101436
147	0xbf828ccd	-1.0199219
148	0xbe88d033	-0.26721343
149	0xbf3e6350	-0.7437029
150	0x3eb161ef	0.3464503
151	0xbe897ea2	-0.26854426
152	0xbf62eb52	-0.8864032
153	0x3f6fe8ff	0.937149
154	0x3ea7db7a	0.32784635
155	0x3f909445	1.1295248
156	0xbe87ee3e	-0.26548952
157	0xbf222c4c	-0.6334884
158	0x3f61416c	0.8799045
159	0x3fa84f9a	1.3149292
160	0x3dc71ce5	0.09722308
161	0x40036cf1	2.0535243
162	0xbe4b2286	-0.19837388
163	0xbe41b269	-0.18915714
164	0x3e985b6c	0.2975725
165	0x3e0b885c	0.13626236
166	0xbf0786a3	-0.52939814
167	0x3e9f6a67	0.31135866
168	0x3f3455e0	0.70443535
169	0xbf7cf718	-0.98814535
170	0x3f50a0f1	0.8149558
171	0xbfb60777	-1.4221028
172	0xbfcfa43b	-1.6221994
173	0xbf5a3c1b	-0.85247964
174	0xbf7e9790	-0.99450016
175	0x3f4829c6	0.7818874
176	0x3f2d1055	0.67603046
177	0xbe1941bd	-0.14966483
178	0xbe818c4b	-0.25302348
179	0xbafb83d6	-0.001918907
180	0x3e266681	0.1625004
181	0xbfb16666	-1.3859375
182	0x3fa7a69c	1.309772
183	0x3f3d8d1b	0.74043435
184	0xbf617901	-0.8807526
185	0x3f39d7c8	0.7259488
186	0xbe87d93e	-0.2653293
187	0x3e9771b1	0.29578927
188	0xbecc009b	-0.39844212
189	0xbf40cd8a	-0.7531363
190	0xbbbf77a3	-0.005843119
191	0xbf4671c7	-0.7751736
192	0xbe15f0f3	-0.14642696
193	0xbd83700f	-0.06417858
194	0x3f0395a9	0.5140024
195	0x3f423c7d	0.7587355
196	0xbfb99a13	-1.4500145
197	0xbf5d45b7	-0.864345
198	0xbf9d0e10	-1.2269917
199	0x3fcf61c1	1.6201707
200	0x3e8cddd2	0.27512985
201	0x3f8c3fc3	1.0956959
202	0xbfb20b77	-1.3909749
203	0xbf79e350	-0.97612476
204	0x3fb8bbc3	1.44323
205	0xbdf0bcc6	-0.11754756
206	0xbe91eda3	-0.28501615
207	0xbfaa29b3	-1.3293976
208	0x3e9a664d	0.30156174
209	0xbd4c1d5b	-0.049832683
210	0xbfab4b8b	-1.3382429
211	0x3eb51d16	0.35373753
212	0xbf8384ee	-1.0274942
213	0xbfc6bc82	-1.5526278
214	0xbdb0d6f2	-0.086347476
215	0xbe9a8f90	-0.30187654
216	0xbef182e1	-0.47170165
217	0x3facc2f6	1.3496997
218	0xbf20f5df	-0.6287517
219	0x3ee4e74f	0.44707724
220	0x3ea66c07	0.32504293
221	0xbedf93a6	-0.43667334
222	0xbf75acdf	-0.95966905
223	0xbe6b11cb	-0.22956006
224	0x3fdd4ab5	1.7288424
225	0x3f59eea6	0.85129774
226	0xbef120af	-0.47095248
227	0x3fadd370	1.3580151
228	0xbf1563e7	-0.58355564
229	0xbe8c4cfb	-0.2740248
230	0xbf2353d1	-0.6379977
231	0xbf4f2e1d	-0.8092974
232	0xbf988c48	-1.191781
233	0x3fa1fede	1.2655904
234	0xbf345bd9	-0.7045265
235	0x3fd246a3	1.6427807
236	0x3f904b5e	1.1273
237	0x3fc42dde	1.5326498
238	0x3ceebd41	0.029142978
239	0x3e242e25	0.16033228
240	0xbe18ee4e	-0.14934656
241	0x3db2e733	0.08735504
242	0x3f1611bd	0.58620816
243	0xbf439973	-0.7640602
244	0xbe809cd4	-0.2511965
245	0x3f454981	0.77065283
246	0xbec2693e	-0.37970918
247	0x3eef71e8	0.4676659
248	0xbebeea76	-0.37288254
249	0xbf038537	-0.51375145
250	0xbed311d3	-0.41224536
251	0xc0129e18	-2.2908993
252	0xbfba08c4	-1.4533925
253	0x3de6815b	0.11255141
254	0x3e4da808	0.2008363
255	0xbf92836b	-1.1446356

weight f4 [32, 16]
0	0x3e095b7c	0.13413805
1	0x3ff1962e	1.8873956
2	0xbd6a6ddd	-0.05723368
3	0xbebbb168	-0.36658788
4	0xbfe3ce92	-1.7797415
5	0x3e4377f7	0.19088732
6	0x3f7d690c	0.98988414
7	0x3ef1b5ea	0.47209102
8	0xbed62038	-0.41821456
9	0x3f317e72	0.69333565
10	0xbf00a903	-0.5025789
11	0xbed3a632	-0.41337734
12	0x3f7c0434	0.98443913
13	0x3dc62670	0.096753
14	0xbf0e8fc4	-0.5568812
15	0x3fa55bf1	1.2918683
16	0x3f186c2b	0.5954005
17	0xbf0e1f20	-0.55516243
18	0x3f928b22	1.144871
19	0x3f3e047e	0.74225605
20	0xbea9ccf3	-0.33164176
21	0x3ca6fd3b	0.020384422
22	0xbf8b1754	-1.0866494
23	0xbee457ed	-0.44598332
24	0xbf1024c8	-0.56306124
25	0xbef3aa4f	-0.47590873
26	0x3ed65f7c	0.41869724
27	0x3f60999e	0.877344
28	0x3f8c4bb0	1.0960598
29	0x3e4c17e2	0.19930986
30	0xbf8a2154	-1.0791421
31	0xbf4af06e	-0.79273117
32	0xbf321fad	-0.69579583
33	0xbfeb33bc	-1.8375163
34	0xbf5d862b	-0.8653285
35	0xbff905fd	-1.9454952
36	0xbdc2d535	-0.09513322
37	0xbf8e549e	-1.1119573
38	0x3e31a6aa	0.17348734
39	0xbe8ee767	-0.2791092
40	0x3e8e04dd	0.27738085
41	0x3f8b889f	1.0901068
42	0xbf8d48d5	-1.1037852
43	0xbfb477d1	-1.4099065
44	0x3ff04ccd	1.8773438
45	0x3f17a84e	0.5924119
46	0x3f336b82	0.7008592
47	0x3f26befa	0.6513516
48	0x3e59efe6	0.2128292
49	0x3f865ff3	1.0498031
50	0xbf9725b6	-1.1808383
51	0x3dd0587e	0.101731285
52	0x3f066346	0.5249523
53	0xbf3bee92	-0.73410904
54	0xbf352194	-0.7075436
55	0x3f1ebf0f	0.6201028
56	0x3fcf8894	1.6213555
57	0x3eccaf89	0.39977673
58	0xbf3ee717	-0.74571365
59	0x3e4ccc5f	0.19999836
60	0x3e4ad144	0.19806391
61	0xbe3412ba	-0.17585269
62	0xbd9be08f	-0.076111905
63	0xbf553b16	-0.83293283
64	0x3f15cd11	0.5851603
65	0xbdc42b8d	-0.09578619
66	0xbf76e449	-0.96442086
67	0x3c9780f7	0.018494112
68	0x3e51a1bf	0.20471857
69	0xbe377718	-0.17916524
70	0x3e02e8b7	0.12784086
71	0x3f17b7ee	0.5926503
72	0x4005fdd5	2.0936177
73	0x3f0fb2f7	0.56132454
74	0xbfabd797	-1.3425168
75	0xbf022e00	-0.5085144
76	0xbf88bb79	-1.0682212
77	0xbf6cee00	-0.9255066
78	0xbc58b555	-0.013226827
79	0x3fb36c80	1.4017487
80	0xbf6bdb2f	-0.9213132
81	0xbf105288	-0.5637593
82	0x3f1c269b	0.6099641
83	0x3ef9000b	0.48632845
84	0xbfd6c0fb	-1.6777643
85	0x3f5b34e5	0.85627586
86	0x3f7c2266	0.9848999
87	0xbe9a570b	-0.30144534
88	0xbf0102e7	-0.50395054
89	0xbf54e65b	-0.83163995
90	0xbea31485	-0.31851593
91	0xbfa52923	-1.2903179
92	0xbfbf56dc	-1.4948382
93	0xbf4821ba	-0.7817646
94	0x3f37a74e	0.7173966
95	0xbd4ce08c	-0.050018832
96	0xbe70f689	-0.23531546
97	0xbef98aeb	-0.48738798
98	0xbddac687	-0.10682397
99	0x3dc5ebea	0.09664138
100	0x3ee711ab	0.45130667
101	0x3f01f799	0.5076843
102	0x3fa47605	1.2848517
103	0x3f9f7e57	1.2460431
104	0xbed4be2d	-0.41551343
105	0x3f97b97b	1.1853479
106	0xbd771b36	-0.060328685
107	0x3f08b2d1	0.5339785
108	0x3f36b2e4	0.71366715
109	0x3f3473fb	0.7048947
110	0x3fe99835	1.8249575
111	0xbed6a508	-0.41922784
112	0xbed6b78f	-0.4193692
113	0xbf8e62d5	-1.1123911
114	0xbf470373	-0.7773964
115	0xc00b7a2c	-2.1793318
116	0x3f17f454	0.5935719
117	0xbeba6ac4	-0.3640958
118	0x3f7b9c7d	0.9828566
119	0xbdd6698d	-0.10469351
120	0xc01484b7	-2.3206003
121	0x3e8bfed7	0.27342865
122	0xbf9c47bc	-1.2209392
123	0xbd7a4d3f	-0.061108824
124	0xbeb4cc6a	-0.35312206
125	0x3d4c2f09	0.049849544
126	0xbf388df3	-0.720916
127	0xbda73687	-0.08164697
128	0xbed67067	-0.4188263
129	0x3f0db4eb	0.55354184
130	0xbea58cde	-0.32334036
131	0x3dc48611	0.09595884
132	0xbf8807d5	-1.062739
133	0x40121f1f	2.2831495
134	0xbf442bf2	-0.76629555
135	0x3f113558	0.5672202
136	0xbf9de16d	-1.233442
137	0xbec89f6d	-0.39184132
138	0xbf252ea8	-0.64524317
139	0x3f5fb06e	0.87378585
140	0x3fa8b927	1.3181504
141	0xbf095974	-0.5365212
142	0x3eda1c40	0.42599678
143	0x3c0cf430	0.008603141
144	0x3e812160	0.25220776
145	0x3ea07b97	0.31344292
146	0xc00aed1f	-2.1707227
147	0xbce4a48b	-0.027910491
148	0xbefbbd3b	-0.4916781
149	0x3db9806f	0.090577
150	0xbf78c31f	-0.9717273
151	0x3dc8da95	0.09807316
152	0x3f98d1b5	1.1938998
153	0x3fbcc666	1.4748046
154	0xbf86d2c0	-1.0533066
155	0xbf9377ce	-1.1520936
156	0xbf050672	-0.5196296
157	0x3d78718b	0.060655158
158	0xbd73c15d	-0.059510577
159	0xbf47a4ef	-0.77986044
160	0xbd689056	-0.056778274
161	0xbe3dc92f	-0.18533777
162	0x3f2e9e23	0.6821005
163	0x3f3ac66d	0.72959024
164	0x3f021e0e	0.5082711
165	0xbe9f7afb	-0.31148514
166	0x3ec26046	0.37964076
167	0xbe64c242	-0.22339728
168	0xbe26be61	-0.16283561
169	0xbfd0e68a	-1.6320355
170	0xbf9d3f0f	-1.2284869
171	0xbfc24850	-1.5178318
172	0x3e8fcbcc	0.28085172
173	0xbf24fa28	-0.6444421
174	0x3fb87d24	1.441319
175	0xbb4e689e	-0.0031495462
176	0xbe368c11	-0.17826869
177	0x3e8616b1	0.26189187
178	0xbefdd3b0	-0.49575567
179	0x3e42a669	0.19008793
180	0xbfbbb046	-1.4663169
181	0x3f774da3	0.9660284
182	0xbf27c0c1	-0.65528494
183	0x3f9e8490	1.2384205
184	0x3ecd7982	0.40131766
185	0x3f2686bb	0.6504933
186	0xbfd5fa54	-1.6717019
187	0xbea77fff	-0.3271484
188	0x3e3cb863	0.18429713
189	0xbec67c66	-0.38766783
190	0xbf70a636	-0.9400362
191	0xbfe64270	-1.7989025
192	0x3f1c01f4	0.6094048
193	0x3ee85bae	0.45382446
194	0xbf993b5f	-1.1971244
195	0x3eb0d77c	0.34539402
196	0x3f68c2e3	0.90922374
197	0xbf42f58d	-0.7615593
198	0xbf297d31	-0.6620665
199	0xbfad4e6c	-1.3539557
200	0x3f09270e	0.5357522
201	0xbf4b31dd	-0.7937296
202	0x3eaa14c1	0.3321896
203	0x3f0f244d	0.55914766
204	0xbf1d7177	-0.6150126
205	0x3f029baf	0.51018804
206	0x3ea5bb1f	0.32369325
207	0x3f511ae8	0.8168168
208	0x3dc108d5	0.09425513
209	0xbf85d89f	-1.0456733
210	0xbefae46c	-0.49002397
211	0x3f100da6	0.56270826
212	0xbe6db2dd	-0.23212762
213	0xbfc3b4f1	-1.5289594
214	0x3fb1c0ed	1.3887001
215	0x3fc5b1a1	1.5444833
216	0x3e41d971	0.18930604
217	0x3ed1c2e0	0.4096899
218	0xbe4952b6	-0.19660458
219	0xbf542dd2	-0.82882416
220	0xbf9173da	-1.136348
221	0x3e2b7d3f	0.16746996
222	0x3da55ff9	0.08074946
223	0x3f1d59b9	0.6146503
224	0xbe1ad72f	-0.15121149
225	0x3f421342	0.75810635
226	0xbed09f97	-0.40746757
227	0x3e9b129c	0.30287635
228	0xbedd4e66	-0.43223876
229	0xbf8ddec2	-1.1083605
230	0xbf2e9f06	-0.682114
231	0x3e4f3b03	0.20237355
232	0x3e26fd67	0.16307603
233	0xbf202ed3	-0.6257145
234	0xc0018ede	-2.024345
235	0xbe992426	-0.29910392
236	0xbc9cf770	-0.019160956
237	0x3fa23bf4	1.2674546
238	0x3f524fb9	0.821529
239	0x3f1e36a5	0.6180213
240	0xbdebf491	-0.11521257
241	0xbf21f98f	-0.6327142
242	0x3f972237	1.1807317
243	0x3eb6fbdd	0.3573903
244	0xbf2ea071	-0.68213564
245	0xbf5b6885	-0.8570636
246	0xbfd4a0f9	-1.6611625
247	0xbf9806df	-1.1877097
248	0x3e3d8174	0.18506414
249	0x3fb7ccd4	1.4359384
250	0xbf7624fc	-0.96150184
251	0x3f2eafe8	0.6823716
252	0x3dd89453	0.105751656
253	0xbe1fd717	-0.15609394
254	0x3f5a5850	0.85291004
255	0x3e79eeea	0.24407545

weight f4 [32]
0	0x3f4c3994	0.7977536
1	0x3f8e7e81	1.1132356
2	0x3f2ee7b6	0.6832231
3	0x3f6b2292	0.91849625
4	0x3f771902	0.96522534
5	0x3f7af0b3	0.9802353
6	0x3fa19976	1.2624958
7	0x3fbbd75e	1.46751
8	0x3f6fb6fb	0.9363858
9	0x3f90462b	1.1271414
10	0x3fbee4a1	1.4913522
11	0x3f472c2b	0.7780177
12	0x3f712112	0.94191086
13	0x3f38aea3	0.72141474
14	0x3f3d25a6	0.7388557
15	0x3f843215	1.0327784
16	0x3fb61e19	1.4227935
17	0x3f927b21	1.1443826
18	0x3fa18131	1.2617551
19	0x3fd8fa5b	1.6951402
20	0xbd94f133	-0.072725676
21	0x3fbe68b8	1.4875708
22	0x40008a62	2.0084462
23	0x3fc314c1	1.5240709
24	0x3f505706	0.8138279
25	0x3f7ab741	0.97935873
26	0x3fa913ed	1.3209206
27	0x3f80793c	1.0036998
28	0x3f3fd24f	0.7493028
29	0x3f66507f	0.8996658
30	0x3f9d4ef0	1.2289715
31	0x3f6d2747	0.9263806

bias f4 [32]
0	0xbdc662c8	-0.0968681
1	0x3ddfd905	0.10930065
2	0x3e24c7cd	0.16091843
3	0xbe8aa93a	-0.27082235
4	0xbde9e34f	-0.11420309
5	0xbf0e8b98	-0.55681753
6	0x3f52f533	0.82405394
7	0xbeb119d1	-0.3459001
8	0x3cf10eeb	0.029426059
9	0x3e75f4ca	0.24019161
10	0x3e01f981	0.12692834
11	0xbe601b79	-0.2188548
12	0x3e919334	0.2843262
13	0x3ebe139b	0.37124333
14	0x3f430834	0.7618439
15	0x3e14ef52	0.14544418
16	0xbf7d3541	-0.98909384
17	0xbe06835b	-0.13136046
18	0xbd679979	-0.056542847
19	0xbe7dcbdd	-0.24784799
20	0x3ea64290	0.32472658
21	0xbef81ef6	-0.4846112
22	0xbe30e552	-0.17274979
23	0x3ed95065	0.4244415
24	0x3d55028c	0.052004382
25	0xbddd0f82	-0.107939735
26	0x3effdcc6	0.49973124
27	0xbe088167	-0.13330613
28	0xbde74b29	-0.112936325
29	0xbe9cb2d9	-0.306052
30	0xbee2b73a	-0.44280416
31	0x3d4f8987	0.050668266

running_mean f4 [32]
0	0x3f838334	1.0274415
1	0x3f318292	0.6933986
2	0x3f808a5b	1.0042223
3	0x3f85ed7c	1.04631
4	0xbfae5314	-1.3619103
5	0xc01d08a8	-2.4536533
6	0xbc01c499	-0.007920408
7	0x3fe14422	1.7598917
8	0x3eb79ae7	0.3586037
9	0xbee0b5f7	-0.43888828
10	0x3e0e301d	0.13885541
11	0x3eb5626e	0.35426658
12	0xbff4972b	-1.9108633
13	0x3eba9de5	0.3644859
14	0x3fcba24c	1.5908904
15	0x3ee68bdc	0.4502858
16	0x4023147c	2.5481253
17	0x3f54e836	0.83166826
18	0x3f4f8e0b	0.81076115
19	0xbdb213e2	-0.086951986
20	0x3e2abf11	0.16674449
21	0xbfff9fb3	-1.9970611
22	0x3fb4bf42	1.4120867
23	0xbff17d0e	-1.8866289
24	0xbff29ca2	-1.895405
25	0xbfba7c3d	-1.4569165
26	0x3fdb8e36	1.7152774
27	0xbd30d19f	-0.04316866
28	0xbfe1d546	-1.7643211
29	0xbfafa7a4	-1.3723035
30	0xbfe7a1b6	-1.8096225
31	0x3ecb3b1f	0.39693543

running_var f4 [32]
0	0x410921ae	8.570723
1	0x4132882d	11.158246
2	0x413a119d	11.6293
3	0x412db6c6	10.857122
4	0x418a5fcf	17.296782
5	0x413f2d65	11.948583
6	0x41674a46	14.455633
7	0x418413fe	16.509762
8	0x4174f751	15.31038
9	0x412a5df7	10.647941
10	0x401f76b6	2.4916205
11	0x40a43a58	5.132122
12	0x407f48bd	3.9888146
13	0x4159c5da	13.610804
14	0x416f1feb	14.945292
15	0x4154c289	13.297494
16	0x415d4fc6	13.831976
17	0x414a8617	12.657737
18	0x41c62557	24.768232
19	0x4090793b	4.5147986
20	0x41420994	12.127338
21	0x4179cb0e	15.612074
22	0x4173df31	15.24199
23	0x419db547	19.713514
24	0x4195aed2	18.710361
25	0x411189cc	9.096142
26	0x4153f52b	13.247355
27	0x4183f26f	16.493376
28	0x41bf2ef6	23.89793
29	0x4205c95c	33.44664
30	0x41a5600a	20.671894
31	0x40f6c92b	7.7120566

weight f4 [32]
0	0x3fc95fbe	1.5732343
1	0x3f599207	0.84988445
2	0x3fc3578f	1.5261096
3	0x3f9d58bd	1.2292706
4	0x3fafc0fc	1.3730769
5	0x3f5d5f6c	0.8647373
6	0x3f57675a	0.84142077
7	0x3f7569ab	0.9586436
8	0x3f51b9b2	0.81923974
9	0x3fbecdfd	1.4906613
10	0x3edcc9d5	0.43122736
11	0x3f93f03e	1.1557691
12	0x3fbec3cd	1.4903504
13	0x3fdd0f85	1.7270361
14	0x3fb3cbf4	1.4046617
15	0x3f6c4cff	0.92304987
16	0x3fafb93f	1.3728408
17	0x3f2d6fbf	0.67748636
18	0x3f864de4	1.049252
19	0x3fd545f5	1.6661974
20	0x3fcb8403	1.5899662
21	0x3ee1d366	0.44106597
22	0x3c0c154d	0.00855
23	0x3f7b2b7d	0.9811323
24	0x3f03f6c2	0.515484
25	0x3fcb0e8f	1.5863818
26	0x3ec4babc	0.38423717
27	0x3f72eb6f	0.94890493
28	0x3fab7218	1.3394194
29	0x3eb329d6	0.34992856
30	0x3fe2e43d	1.7725903
31	0x3e31b003	0.173523

bias f4 [32]
0	0xbe578b37	-0.210492
1	0xbdd0a575	-0.101878084
2	0xbe77ae6e	-0.24187633
3	0x3e34fc86	0.17674455
4	0xbee8cd50	-0.4546914
5	0x3c97fa06	0.018551838
6	0x3e084643	0.13308053
7	0xbebc8c76	-0.36825913
8	0xbdc6e7e3	-0.09712198
9	0xbec73415	-0.38906923
10	0xbf032b03	-0.51237506
11	0xbdb3a076	-0.0877084
12	0xbeb22f80	-0.34801865
13	0xbd90468d	-0.070447065
14	0x3e6f1c2c	0.2335059
15	0x3bc764c2	0.0060850093
16	0x3f0ba121	0.5454274
17	0xbd943ca1	-0.072381265
18	0x3f311a44	0.69180703
19	0x3f09d43f	0.53839487
20	0x3e995bf4	0.29952967
21	0x3e7d2d3b	0.24724285
22	0x3ddbf517	0.107401066
23	0xbe31ccde	-0.17363307
24	0x3eb09074	0.3448521
25	0x3eb02efe	0.34410852
26	0xbe4b0aeb	-0.19828384
27	0x3e622b5d	0.22086854
28	0x3eaec001	0.34130862
29	0x3f73c431	0.9522124
30	0x3e371299	0.17878188
31	0x3e58d2c5	0.21174152

running_mean f4 [32]
0	0x3f3c6f1c	0.7360704
1	0xbf090a1e	-0.5353106
2	0x3f924379	1.1426841
3	0xbf4bc2a5	-0.7959388
4	0xbef94fe4	-0.48693764
5	0x3ec78fea	0.38976985
6	0x3f7f7536	0.99788225
7	0x3eb68d0f	0.35654494
8	0xbef013c5	-0.46890083
9	0xbed93448	-0.424227
10	0x3e230c15	0.15922578
11	0xbf616f6a	-0.8806063
12	0xbec36e42	-0.38170058
13	0x3f17ad2a	0.592486
14	0xbd3bcce6	-0.045849703
15	0x3d0d2c2a	0.034465946
16	0xbea67722	-0.32512766
17	0x3dda63e5	0.106635846
18	0xbf338acc	-0.7013366
19	0xbf459cc7	-0.7719235
20	0x3e386244	0.18006235
21	0x3e184410	0.14869714
22	0x3ec7877a	0.38970548
23	0x3f0340e2	0.5127088
24	0xbdfd25a7	-0.12360697
25	0x3ea4256f	0.3205981
26	0xbe0b5c7e	-0.13609502
27	0x3f857ecc	1.042932
28	0xbf277f5e	-0.6542872
29	0x3e60824d	0.21924706
30	0xbea530d5	-0.32263818
31	0x3f36ad3d	0.7135809

running_var f4 [32]
0	0x4080740a	4.014165
1	0x403e3aed	2.9723465
2	0x40ac0674	5.3757877
3	0x4088ecff	4.27893
4	0x40528eae	3.2899585
5	0x410e059c	8.876369
6	0x40891816	4.28419
7	0x4107aa86	8.479132
8	0x406467bd	3.5688317
9	0x409c4789	4.8837323
10	0x408a41ed	4.3205476
11	0x4105fabc	8.373714
12	0x4087ffaa	4.249959
13	0x409fef0f	4.997932
14	0x40985a49	4.761021
15	0x403c8d86	2.946138
16	0x405157c5	3.270982
17	0x409407aa	4.6259356
18	0x41068b07	8.408942
19	0x40df16e0	6.9715424
20	0x40463559	3.097006
21	0x40a24cb9	5.0718656
22	0x40514576	3.2698646
23	0x40c9a9d2	6.30198
24	0x40854666	4.1648436
25	0x41261252	10.379473
26	0x409fb8b7	4.991298
27	0x40c0ce18	6.025158
28	0x40cd0b25	6.4076104
29	0x41074cee	8.456282
30	0x40982036	4.753932
31	0x409b6352	4.855874

weight f4 [32, 16]
0	0x3f5138c5	0.8172725
1	0x3eb920dc	0.36157882
2	0xbf6085c9	-0.8770414
3	0x3de637ca	0.1124111
4	0xbfa25f91	-1.2685415
5	0xbd850944	-0.06495908
6	0xbf553155	-0.832784
7	0xbf7a72fc	-0.978317
8	0x3e4b4d72	0.19853762
9	0xbbc1eed0	-0.0059183612
10	0xbf876d40	-1.0580215
11	0x3ed2223e	0.4104175
12	0xbf8963c9	-1.0733577
13	0x3f1920b2	0.59815514
14	0x3fa7d205	1.3110968
15	0x3f189417	0.5960097
16	0xbf356e4b	-0.7087142
17	0xbfe75b59	-1.8074752
18	0xbf64e815	-0.8941663
19	0x3d526da6	0.0513741
20	0x3ed0247c	0.40652835
21	0x3f4c0272	0.7969123
22	0xbe35cbb1	-0.17753483
23	0xbf56f1a3	-0.8396246
24	0xbeda2002	-0.42602545
25	0xbf9ad2d6	-1.2095592
26	0xbfc85b55	-1.5652872
27	0x3f54ece4	0.83173966
28	0xbe971e84	-0.2951547
29	0x3f19d26a	0.6008669
30	0xbd02c3a2	-0.03192485
31	0xbf5b4ae7	-0.85661167
32	0xbf5d2732	-0.8638793
33	0x4002975c	2.0404882
34	0xbf13156c	-0.5745456
35	0xbf3da442	-0.7407876
36	0x3ca0397f	0.019558666
37	0x3f4949bf	0.7862815
38	0xbf3df6bf	-0.7420463
39	0xc00eac9e	-2.2292857
40	0x3eaded42	0.33970076
41	0xbf182cda	-0.5944344
42	0xbe90ba03	-0.28266916
43	0x3f0d7c10	0.5526743
44	0xbfafc7bf	-1.3732833
45	0x3ed7f8c3	0.42181978
46	0x3e849824	0.25897324
47	0xbf1da4ed	-0.6157978
48	0xbf14b024	-0.5808127
49	0x3edd84ad	0.43265286
50	0x3dd1ea9c	0.10249826
51	0x3f9243a0	1.1426888
52	0xbedbdfb8	-0.4294412
53	0xbee5a9c8	-0.44856095
54	0xbf40c9af	-0.75307745
55	0xbfce36d7	-1.6110486
56	0x3f972b44	1.1810079
57	0x3f7831e3	0.9695112
58	0xbf5c082e	-0.8594998
59	0x3fa9dd94	1.3270745
60	0x3e6677ec	0.22506684
61	0xbee6a3b8	-0.45046782
62	0x3f7bc8ff	0.9835357
63	0xbf1df7e7	-0.61706394
64	0xbf9157f5	-1.1354967
65	0x3f82ff78	1.0234213
66	0x3eb5fb76	0.35543412
67	0x3e355981	0.17709924
68	0x3fe8324f	1.8140353
69	0xbe8189c0	-0.25300407
70	0xbf94d709	-1.1628124
71	0x3d60ce67	0.05488434
72	0xbf282a22	-0.6568929
73	0x3eba743a	0.364168
74	0xbf9c05f1	-1.2189313
75	0xbefcb6a3	-0.4935809
76	0xbf36f35f	-0.71465105
77	0xbf13a094	-0.576669
78	0x3f7d5644	0.98959756
79	0x3fc0bb48	1.5057154
80	0x3f76109b	0.9611909
81	0x3f06b0b4	0.5261338
82	0xbf6dca95	-0.9288724
83	0x3e0c4d34	0.13701326
84	0x3e99f77c	0.30071628
85	0xbee6e12b	-0.45093665
86	0x3db638f1	0.088975795
87	0xbe598e11	-0.212456
88	0x3e4f6de0	0.20256758
89	0xbf263311	-0.6492167
90	0x3f308847	0.6895794
91	0x3e618020	0.22021532
92	0x3ed90ae7	0.4239113
93	0xbfbc8e72	-1.4730971
94	0x3f7fa240	0.9985695
95	0x3f50a2c5	0.81498367
96	0x3fd1856e	1.6368845
97	0xbecf5bd3	-0.40499744
98	0xbe95a720	-0.2922907
99	0x3ff508c1	1.9143296
100	0xbf63b09c	-0.8894136
101	0xbe8b9879	-0.27264765
102	0xbf169f5a	-0.588369
103	0x3edf2e8e	0.43590206
104	0x3f9199cf	1.1375064
105	0x3f0e4146	0.5556835
106	0xbd38d773	-0.045127343
107	0xbe349f99	-0.17639007
108	0x3ec357c5	0.381529
109	0x3f849a03	1.0359501
110	0xbe99329d	-0.29921427
111	0xbbb43862	-0.0054998854
112	0xbeda18aa	-0.42596942
113	0xbe25cc26	-0.16191158
114	0x3ebe07f9	0.37115458
115	0x3ebe9780	0.3722496
116	0xbf7514c0	-0.95734787
117	0xbef9e9d6	-0.48811215
118	0x3e488fc7	0.19586097
119	0xbfd0a268	-1.6299562
120	0xbf0b9944	-0.5453074
121	0x3ee950ca	0.4556945
122	0x3f19e0e4	0.6010878
123	0x3f07dd22	0.53071797
124	0xbe9bd65d	-0.30436984
125	0xbf3eaf32	-0.74486077
126	0x3e8d6a2c	0.27620065
127	0xbf32ee2c	-0.6989467
128	0xbe491f89	-0.19640936
129	0xbec88a67	-0.39168093
130	0xc02639b9	-2.597273
131	0x3f2d47c1	0.6768761
132	0x3f8f6265	1.1201903
133	0x3f6667f8	0.90002394
134	0xbf018601	-0.505951
135	0xbf4cb334	-0.7996094
136	0xbf587014	-0.8454602
137	0xbf9a8562	-1.2071955
138	0x3f127fab	0.57226056
139	0x3f9f85d5	1.2462717
140	0x3f962c4e	1.1732271
141	0xbe27877a	-0.16360274
142	0x3ed54af5	0.4165875
143	0x3ea31310	0.3185048
144	0x3e9dda65	0.30830684
145	0xbf87b506	-1.0602119
146	0x3f846119	1.0342132
147	0xbf11d529	-0.5696588
148	0xbea1b7e0	-0.31585598
149	0xbf3406c3	-0.7032282
150	0x3f4c822e	0.7988614
151	0x3e5a56db	0.21322195
152	0xbe2d17b8	-0.16903579
153	0x3f6b3a15	0.918855
154	0xbf57a760	-0.8423977
155	0xbecd2059	-0.40063742
156	0xbeb5d205	-0.35511795
157	0x3f6e03d1	0.92974573
158	0xbf73b825	-0.9520286
159	0x3f85c87f	1.0451812
160	0x3f147442	0.57989895
161	0xbfa492ac	-1.2857261
162	0x3f1eacc1	0.6198235
163	0xbead9616	-0.3390357
164	0x3faa4934	1.330359
165	0xbf28d724	-0.6595328
166	0x3fc73cff	1.556549
167	0x3d1b0e34	0.037855342
168	0xbe530109	-0.20605864
169	0x3f41ff09	0.7577978
170	0xbfca785a	-1.5817978
171	0x3ef5518b	0.47913775
172	0x3e88b686	0.26701754
173	0x3fab55c2	1.3385546
174	0xbe2668b4	-0.16250879
175	0x3e61b127	0.22040235
176	0x3ec1ea07	0.3787386
177	0xbf2942ff	-0.6611785
178	0x3f886b72	1.065779
179	0xbdf7f514	-0.12107292
180	0x3e6b28fe	0.22964856
181	0x3e8026a4	0.2502948
182	0x3f6cd9ac	0.9251964
183	0xbc00651a	-0.0078366045
184	0x3f4d6315	0.8022931
185	0x3ed11f7b	0.4084433
186	0xbf021022	-0.50805867
187	0xbf850636	-1.039252
188	0xbe89bec6	-0.2690336
189	0x3f2bb64d	0.67075044
190	0x3f92be8e	1.1464403
191	0x3ee378e3	0.44428167
192	0xbed36390	-0.41286898
193	0x3f882051	1.0634862
194	0xbea94927	-0.33063623
195	0x3f5a5806	0.85290563
196	0x3f24488d	0.64173204
197	0xbe149813	-0.14511137
198	0xbe837ce8	-0.25681233
199	0xbf8ac47d	-1.0841213
200	0x3f57e3de	0.8433207
201	0x3fa82439	1.3136054
202	0x3e2d921e	0.1695027
203	0xbf4d0d16	-0.8009809
204	0x3fcdeaa6	1.6087234
205	0xbfc42afb	-1.5325617
206	0xbe7feb58	-0.2499212
207	0xbf9994fe	-1.1998594
208	0xbfb3eeed	-1.4057289
209	0xbf667a31	-0.900302
210	0x3f84e65b	1.0382799
211	0x3da192eb	0.078893505
212	0x3c9bb391	0.019006522
213	0x3e718971	0.23587586
214	0x3f756bca	0.958676
215	0x3f70e035	0.9409211
216	0x3f338ca2	0.70136464
217	0xbf989ef4	-1.1923509
218	0xbebb0045	-0.36523643
219	0x3eff8321	0.4990473
220	0xbf5a95a8	-0.8538461
221	0x3e48b792	0.19601277
222	0xbec54dbe	-0.38535875
223	0x3ed35d41	0.41282085
224	0xbea471e8	-0.32118154
225	0xbef56a76	-0.47932786
226	0xbf77f489	-0.96857506
227	0x3f3c9aad	0.73673517
228	0x3f8282a0	1.0196114
229	0x3f74a6c5	0.9556697
230	0x3f9ba1c7	1.2158746
231	0xbe777b8e	-0.24168226
232	0x3f938309	1.1524364
233	0xbb273215	-0.002551203
234	0xbf5e002e	-0.86719024
235	0x3f8309a7	1.0237321
236	0xbf2a246a	-0.66461813
237	0x3f078a8b	0.52945775
238	0x3fcb3cba	1.5877907
239	0x3e61c260	0.22046804
240	0xbad480d7	-0.0016212714
241	0xbef2a545	-0.47391716
242	0x3f3dcfc1	0.7414513
243	0x3f7cb843	0.9871866
244	0x3f765252	0.9621936
245	0xbf9a1096	-1.2036312
246	0xbf5391f0	-0.8264456
247	0xbfb322cd	-1.3994995
248	0x3e1883f9	0.14894094
249	0xbd8c5164	-0.068514615
250	0x3e137e6b	0.14403693
251	0xbf3894bb	-0.72101945
252	0x3e9735f5	0.29533353
253	0xbd2c17a2	-0.042014726
254	0xbe196d36	-0.14983067
255	0x3f991b12	1.1961386

weight f4 [32]
0	0x3f704742	0.9385873
1	0x3f825db5	1.0184847
2	0x3fc96e30	1.5736752
3	0x3fb0f35e	1.382427
4	0x3f5cb6cf	0.86216444
5	0x3fa8e5b7	1.3195103
6	0x3fccd79c	1.6003299
7	0x3f9ee834	1.2414613
8	0x3f5dbbe8	0.8661485
9	0x3f0efdd4	0.5585606
10	0x3fae1680	1.3600616
11	0x3f4b62c2	0.7944757
12	0x3f88dfa2	1.0693247
13	0x3f9f6957	1.2454022
14	0x3f47fa97	0.78116745
15	0x3ef67823	0.48138532
16	0x3f2a5d72	0.66548836
17	0x3edc3c83	0.43014917
18	0x3f7df8a5	0.99207526
19	0x4000d1a3	2.0127952
20	0x3fce0741	1.6095964
21	0x3fac3df8	1.3456411
22	0x3fef1520	1.8678322
23	0x3f8ac530	1.0841427
24	0x3fb4e660	1.4132805
25	0x3f87689b	1.0578798
26	0x3faf5b95	1.3699824
27	0x3edd6409	0.43240383
28	0x3f5b33b7	0.85625786
29	0x3ff0c21a	1.8809235
30	0x3f09f3c5	0.5388759
31	0x3d966008	0.07342535

bias f4 [32]
0	0xbe175a3b	-0.14780514
1	0xbeeb0b73	-0.45907173
2	0x3e7ddade	0.24790522
3	0x3e81cddf	0.2535238
4	0x3e99f370	0.3006854
5	0xbd829e53	-0.06377854
6	0xbf8f6807	-1.1203622
7	0x3f50566b	0.81381863
8	0x3dd00717	0.10157602
9	0x3e1e6232	0.15467146
10	0xbec812c1	-0.39076808
11	0xbf82c3ee	-1.0216043
12	0xbde0d5f9	-0.10978312
13	0xbe843cd5	-0.2582766
14	0xbee40f12	-0.44542748
15	0x3e87e003	0.26538095
16	0xbd33dade	-0.0439099
17	0x3e891e81	0.26781085
18	0x3ee46c5a	0.44613916
19	0x3dc81127	0.097688965
20	0xbe954414	-0.29153502
21	0xbdb6b980	-0.089221
22	0x3f055e19	0.52096707
23	0x3ea14b7a	0.31502897
24	0x3e3578ef	0.17721914
25	0xbf0213f7	-0.50811714
26	0xbbd0cc70	-0.006372027
27	0x3f0ceb9d	0.5504702
28	0x3e337e07	0.17528544
29	0xbe970b49	-0.29500797
30	0xbe259ab2	-0.16172293
31	0xbeec008a	-0.4609416

running_mean f4 [32]
0	0x3f0747fd	0.5284422
1	0x3eff7611	0.49894765
2	0xbe75d798	-0.24008024
3	0xbeb1f9ab	-0.34760794
4	0xbec25f12	-0.37963158
5	0xbd5c6be9	-0.05381385
6	0x3ef89f48	0.48559022
7	0x3e33391d	0.17502256
8	0x3e85bc2e	0.26120132
9	0x3ea9efb5	0.33190694
10	0x3e5bc16e	0.21460506
11	0x3eccef8a	0.40026504
12	0xbf1ec7d2	-0.6202365
13	0x3ea0b783	0.31390008
14	0x3f151405	0.5823367
15	0x3dd9da9b	0.10637399
16	0xbe851a35	-0.25996557
17	0x3c66fddf	0.0140986135
18	0xbb9853ee	-0.004648677
19	0x3d134499	0.03595409
20	0xbeb1f222	-0.34755045
21	0x3e967e90	0.29393435
22	0xbf36fcad	-0.714793
23	0x3e7d8d55	0.24760945
24	0x3eb51a3c	0.35371578
25	0x3e4de8c2	0.20108321
26	0x3f06fc63	0.5272886
27	0x3e60dfc2	0.21960357
28	0x3ed3a06e	0.41333336
29	0x3ed1faa0	0.41011524
30	0x3f1667fc	0.5875242
31	0xbe507db4	-0.20360452

running_var f4 [32]
0	0x409a4c8b	4.8218436
1	0x402bf3ee	2.6867633
2	0x40c89df2	6.2692804
3	0x41014394	8.078999
4	0x40fb6b90	7.85688
5	0x40da4eee	6.822135
6	0x4104e4ae	8.30583
7	0x40a1bf64	5.054613
8	0x40ee04f4	7.4381046
9	0x412c13a1	10.754792
10	0x41a5ea88	20.739517
11	0x40ec3cd7	7.3824267
12	0x41a1c4b5	20.221048
13	0x40f9f0f4	7.810663
14	0x411262f1	9.149156
15	0x40c25619	6.07301
16	0x40f36b54	7.6068516
17	0x40cbfb7a	6.374448
18	0x416d8a7f	14.8463125
19	0x4085931d	4.174208
20	0x40e71a18	7.2219353
21	0x402cc776	2.6996741
22	0x415bd77b	13.740108
23	0x415465ef	13.274886
24	0x412e005e	10.87509
25	0x402987f6	2.6489234
26	0x40e32996	7.0988264
27	0x40a6ae32	5.208764
28	0x41820bdf	16.255796
29	0x40d6fb33	6.718164
30	0x40cebfe1	6.4609227
31	0x4142d5c3	12.177188

weight f4 [32, 16]
0	0x3d3e6d51	0.04649097
1	0x3e4a7732	0.19772032
2	0xbf4370d6	-0.7634405
3	0x3e5a2bbb	0.21305744
4	0x3f36d901	0.7142487
5	0xbdac5a52	-0.08415665
6	0xbd97d281	-0.07413197
7	0x3f25ed5d	0.6481531
8	0xbebd4999	-0.36970213
9	0x3eafafad	0.34313717
10	0xbf5d0a5b	-0.86343926
11	0x3fb911ea	1.4458592
12	0xbef28075	-0.4736363
13	0x3db9e668	0.0907715
14	0x3d69182d	0.05690782
15	0x3e86eca1	0.2635241
16	0xbd06776e	-0.03282874
17	0xbf049fcd	-0.51806337
18	0xbe8f4a90	-0.27986574
19	0x3c11e6db	0.008905138
20	0xbdf6efaa	-0.12057431
21	0xbeffe202	-0.49977118
22	0xbf1c2525	-0.6099418
23	0xbf551c06	-0.83245885
24	0x3e6a988e	0.22909757
25	0xbf34104c	-0.7033737
26	0xbf63b590	-0.8894892
27	0xbf9b337e	-1.2125089
28	0x3e65ab9e	0.22428748
29	0xbf4c2955	-0.7975057
30	0x3edcec93	0.43149242
31	0xbf709ff9	-0.939941
32	0xbeecb2de	-0.46230215
33	0xbe385bfe	-0.18003842
34	0x3de245ec	0.11048493
35	0x3ec55251	0.38539365
36	0xbe6ebe56	-0.23314795
37	0x3ecd07a1	0.40044883
38	0xbf26cdcf	-0.6515779
39	0xbef87417	-0.4852607
40	0xbc47f135	-0.012203504
41	0x3e8d1938	0.27558303
42	0xbe93b164	-0.28846276
43	0x3e7438e9	0.23849835
44	0x3f08df84	0.5346606
45	0x3f55422b	0.8330409
46	0xbe88369b	-0.2660416
47	0xbdac04fd	-0.08399389
48	0xbe987373	-0.2977558
49	0xbf9aa7b3	-1.2082428
50	0x3e75e7f8	0.2401427
51	0xbf3ef254	-0.74588513
52	0x3e1c7d9b	0.1528229
53	0x3faa1682	1.3288119
54	0x3e26dddf	0.16295575
55	0xbf3183cc	-0.6934173
56	0x3f3d9af9	0.74064595
57	0xc001602c	-2.0214949
58	0xbf0f1137	-0.5588564
59	0x3d4d243c	0.050083384
60	0xbf7bf58a	-0.9842154
61	0xbf5a41aa	-0.85256445
62	0x3fb8d700	1.4440613
63	0x3f13dde7	0.5776047
64	0xbe4fb2b5	-0.20283015
65	0x3f79accd	0.975293
66	0x3f98412a	1.1894886
67	0x3f37c214	0.71780515
68	0xbf6c5f23	-0.9233267
69	0x3e072470	0.13197494
70	0xbf401842	-0.75037014
71	0x3fb438ea	1.4079869
72	0xbdccab50	-0.09993613
73	0x3d563cc1	0.052304033
74	0x3f399210	0.724885
75	0x3caaa4b6	0.020830493
76	0xbdf63b11	-0.12022985
77	0xbf83d3f9	-1.0299064
78	0x3ea906fd	0.33013144
79	0xbeec743c	-0.4618243
80	0x3e955c51	0.29171994
81	0x3eb3ce42	0.351183
82	0x3fda2bd0	1.704462
83	0xbf22549c	-0.63410354
84	0xbe9a1127	-0.3009121
85	0x3ceec949	0.029148715
86	0xbec4d9ff	-0.38447568
87	0x3f3347a9	0.7003122
88	0xbf2a50a1	-0.6652928
89	0x3f64c3a8	0.8936105
90	0x3ea856e2	0.32878786
91	0xbf7f8c15	-0.99823123
92	0x3f417a69	0.7557741
93	0x3fffd880	1.9987946
94	0xbe8dfd43	-0.27732286
95	0x3f5156c4	0.8177302
96	0xbf7f0435	-0.99615794
97	0x3f2c4024	0.6728537
98	0xbf2099e5	-0.62734824
99	0x3c054c09	0.008135804
100	0x3f19f9fa	0.6014706
101	0x3f292940	0.6607857
102	0x3e8ca4ea	0.2746957
103	0x3ff7cbe4	1.9359097
104	0x3fb4e77c	1.4133143
105	0xbec937d1	-0.39300397
106	0x3e170c2a	0.14750734
107	0xbfca6ba0	-1.5814095
108	0xbf4f9dbe	-0.8110007
109	0x3f2f1b8e	0.6840142
110	0x3ef3e461	0.47635177
111	0x3d8ae286	0.06781487
112	0x3f14fdc6	0.5819973
113	0x3fbb8572	1.4650099
114	0x3e8d7b30	0.27633047
115	0x3f0a26fd	0.5396574
116	0xbe952712	-0.2913137
117	0xbf7b1d9a	-0.98092043
118	0xbec67a95	-0.38765398
119	0xbe7d5c0f	-0.24742149
120	0x3fa383e7	1.2774628
121	0xbf375718	-0.7161727
122	0x3f0d72a8	0.55253077
123	0x3d6ae858	0.057350487
124	0x3f63bffa	0.8896481
125	0xbf35bbd2	-0.70989716
126	0xbf68b677	-0.9090342
127	0xbf2a511e	-0.66530025
128	0x3ef62ab4	0.48079455
129	0x3f3b6c4f	0.7321214
130	0xbeff00e5	-0.4980537
131	0xbd8f5258	-0.06998128
132	0xbf2d32a8	-0.6765542
133	0xbe606d43	-0.2191668
134	0x3f6e3767	0.9305329
135	0x3e15b839	0.14621057
136	0x3eee14b9	0.46500185
137	0x3f05a709	0.52208
138	0x3e5dcdcd	0.21660538
139	0x3f68f35e	0.9099635
140	0xbe737913	-0.23776655
141	0xbf660344	-0.8984873
142	0x3eff90fb	0.499153
143	0xbe9f0bd9	-0.31063727
144	0x3f598f30	0.8498411
145	0xbd82f1b4	-0.063937575
146	0x3e35e37e	0.17762563
147	0x3f87e7ec	1.0617652
148	0x3f323afc	0.69621253
149	0x3ee87276	0.45399827
150	0x3fb928d5	1.4465586
151	0x3fbef83d	1.4919506
152	0xbe82fc5d	-0.25583163
153	0x3f09dd14	0.53852963
154	0xbf5a3c2c	-0.85248065
155	0xbe4cfc94	-0.20018226
156	0xbe816166	-0.25269622
157	0xbe085cd0	-0.13316655
158	0x3f5790d7	0.84205383
159	0x3e8b8ccf	0.27255866
160	0xbe01f17d	-0.12689777
161	0xbeddf045	-0.43347374
162	0xbd85c076	-0.0653085
163	0xbf937477	-1.1519917
164	0x39a11aa3	0.0003072816
165	0xbefbe809	-0.49200466
166	0xbde5c109	-0.11218459
167	0xbc62e7ca	-0.013849208
168	0xbed36b6b	-0.4129289
169	0xbf11f0db	-0.5700814
170	0x3ef6d37e	0.4820823
171	0x3f6ca8bb	0.9244496
172	0xbf80c183	-1.0059055
173	0x3f5f2e3d	0.8717993
174	0x3f3ec677	0.74521583
175	0x3f4c6a8b	0.7985007
176	0xbe8d5cae	-0.2760977
177	0x3d83312e	0.06405865
178	0xbf086e53	-0.5329334
179	0xbf5c64e3	-0.8609144
180	0x3fa2f726	1.2731674
181	0xbf7dece1	-0.99189574
182	0x3ee41d51	0.44553617
183	0xbed3543b	-0.412752
184	0xbd8a84bd	-0.06763599
185	0x3fe7bb5b	1.8104051
186	0x3f10cb60	0.56560326
187	0x3da52b0a	0.0806485
188	0x3eda2432	0.4260574
189	0x3f03dbbd	0.5150717
190	0x3d972c3a	0.073814824
191	0xbf0df49a	-0.5545136
192	0xc00df074	-2.217801
193	0x3e7fa0c7	0.24963675
194	0x3d08bc2f	0.03338259
195	0x3ee2da1e	0.44307035
196	0xbf14ae41	-0.5807839
197	0xbe615bd8	-0.22007692
198	0xbf239c15	-0.6391004
199	0x3f890262	1.0703852
200	0xbea46a5d	-0.321124
201	0x3f38ba73	0.721595
202	0x3ed1b3ad	0.40957394
203	0x3e6621d6	0.22473845
204	0x3f607ece	0.8769349
205	0xbfde887f	-1.7385405
206	0xbeeb342a	-0.45938236
207	0x3d0479bd	0.03234266
208	0xbe9bc384	-0.30422604
209	0xbe0488d3	-0.1294282
210	0xbf54d545	-0.83137923
211	0xbf6c2936	-0.9225038
212	0xbe8043ed	-0.25051823
213	0xbfa8c17b	-1.3184046
214	0x3f003588	0.5008168
215	0xbf0580bd	-0.52149564
216	0xbd17f8cb	-0.0371025
217	0xbf54a856	-0.8306936
218	0x3f5f42b3	0.8721115
219	0xbe176283	-0.14783673
220	0xbf125434	-0.57159734
221	0xbf9419f0	-1.1570415
222	0xbf4d3e1c	-0.80172896
223	0x3dc6408c	0.0968028
224	0xbf8fd3a6	-1.1236465
225	0x3efc7a15	0.4931189
226	0x3f38696b	0.72035855
227	0x3f41a67c	0.7564466
228	0xbd3589a0	-0.044320703
229	0xbf0b2b08	-0.54362535
230	0xbe53a916	-0.2066997
231	0x3f59ff02	0.85154736
232	0xbe15d5dc	-0.14632362
233	0x3d7feb96	0.06248053
234	0x3f75940d	0.9592903
235	0xbb4bf924	-0.0031123841
236	0xc014db16	-2.325872
237	0x3e06cc57	0.13163887
238	0xbe78d490	-0.24299836
239	0xbe554d46	-0.20830259
240	0x3eece84e	0.46270984
241	0x3e3a3df9	0.18187703
242	0x3f20bd3f	0.62788767
243	0xbf01de99	-0.5073028
244	0x3f44af76	0.7683023
245	0x4014cd3a	2.325026
246	0xbf27dcd3	-0.65571326
247	0xbea5882e	-0.3233046
248	0x3ee15d5e	0.44016546
249	0xbe800444	-0.25003254
250	0xbe95ba32	-0.29243618
251	0xbef01aff	-0.46895596
252	0x3ed74dad	0.4205145
253	0xbf9cc83d	-1.2248608
254	0x3f38718d	0.72048265
255	0x3f147142	0.5798532

weight f4 [32]
0	0x3f800000	1.0
1	0x3f800000	1.0
2	0x3f800000	1.0
3	0x3f800000	1.0
4	0x3f800000	1.0
5	0x3f800000	1.0
6	0x3f800000	1.0
7	0x3f800000	1.0
8	0x3ec891c6	0.39173716
9	0x3fdb5961	1.7136651
10	0x3ef92eeb	0.48668608
11	0x3f9c7de9	1.2225925
12	0x3f4deb29	0.8043695
13	0x3f1c2ede	0.61009014
14	0x3f6c6884	0.9234698
15	0x3f21c5d7	0.63192505
16	0x3f800000	1.0
17	0x3f800000	1.0
18	0x3f800000	1.0
19	0x3f800000	1.0
20	0x3f800000	1.0
21	0x3f800000	1.0
22	0x3f800000	1.0
23	0x3f800000	1.0
24	0x3f0961fd	0.53665143
25	0x3fd46436	1.6593082
26	0x3f2677ff	0.6502685
27	0x3fc691f9	1.5513297
28	0x3f1553d6	0.5833105
29	0x3f74df9a	0.9565369
30	0x3e754f43	0.23956017
31	0x3f2d9f75	0.6782144

bias f4 [32]
0	0x00000000	0.0
1	0x00000000	0.0
2	0x00000000	0.0
3	0x00000000	0.0
4	0x00000000	0.0
5	0x00000000	0.0
6	0x00000000	0.0
7	0x00000000	0.0
8	0x3e9c2fac	0.3050512
9	0xbf05d34e	-0.5227555
10	0xbe1fab7a	-0.15592757
11	0x3e2a46ed	0.16628619
12	0xbd3deefd	-0.046370495
13	0xbe81f13b	-0.25379357
14	0xbef57f03	-0.47948465
15	0x3cfe3a2b	0.031033596
16	0x00000000	0.0
17	0x00000000	0.0
18	0x00000000	0.0
19	0x00000000	0.0
20	0x00000000	0.0
21	0x00000000	0.0
22	0x00000000	0.0
23	0x00000000	0.0
24	0xbede47d5	-0.43414178
25	0x3f3cc254	0.7373402
26	0xbee34c09	-0.44393948
27	0xbe8edd41	-0.27903178
28	0x3df809ed	0.12111268
29	0xbeb407db	-0.35162243
30	0x3eacb5ed	0.33732548
31	0xbeac502c	-0.33654916

running_mean f4 [32]
0	0xbe92e172	-0.28687626
1	0x3f9355cf	1.1510562
2	0x3e81b480	0.25333023
3	0x3e6bb49c	0.23018116
4	0x3e94f71f	0.29094788
5	0x3d50b7bd	0.050956476
6	0x3fa265a5	1.268727
7	0xbe9e2461	-0.3088713
8	0xbf919fa7	-1.1376847
9	0x3ed4972c	0.41521585
10	0xbf6bf82b	-0.9217555
11	0xbf9d2a47	-1.2278527
12	0x3ee7d507	0.45279714
13	0xbee87c92	-0.4540754
14	0x3f058f6e	0.5217198
15	0x3e8bb478	0.27286124
16	0xbd025c67	-0.031826403
17	0xbf3a604e	-0.728032
18	0xbfd9f2d8	-1.7027235
19	0x3f0351a4	0.5129645
20	0x3ec75d92	0.38938576
21	0xbfbdc1e0	-1.4824791
22	0x3dcbd17c	0.09952065
23	0x3e979416	0.29605168
24	0xbf999fd6	-1.2001903
25	0xbf6b47eb	-0.91906613
26	0xbd55e6d6	-0.052222095
27	0xbff3543a	-1.9010079
28	0xbf4a325d	-0.789831
29	0x3ce08160	0.02740544
30	0xbe54c28c	-0.20777339
31	0xbea85281	-0.32875445

running_var f4 [32]
0	0x407f6a09	3.9908469
1	0x40963929	4.6944776
2	0x3f46b73c	0.77623343
3	0x410e89be	8.908628
4	0x40bcb4a8	5.897053
5	0x40856790	4.168892
6	0x3fbb5a0b	1.4636854
7	0x40e9678c	7.29389
8	0x407b62f1	3.927914
9	0x412fd633	10.989795
10	0x414affd1	12.687455
11	0x4108ecfd	8.557858
12	0x41673aa9	14.451821
13	0x4061b2d3	3.5265396
14	0x40aa09d0	5.313698
15	0x41761391	15.379777
16	0x3ff5f782	1.9216158
17	0x411f2355	9.946126
18	0x40beaf59	5.9589047
19	0x4008d0b6	2.1377387
20	0x403d1a9d	2.9547493
21	0x4067f799	3.6244872
22	0x40d0a668	6.5203133
23	0x40016f71	2.0224268
24	0x4100b9f5	8.0454
25	0x41503994	13.014057
26	0x41066b62	8.4012165
27	0x40df3c5f	6.9761195
28	0x410e7566	8.903662
29	0x4198d6f4	19.104958
30	0x4103ea18	8.244652
31	0x40bb800c	5.8593807

weight f4 [32]
0	0x3eff7d41	0.4990025
1	0x3fa7af24	1.3100324
2	0x3fd2a50d	1.645662
3	0x3fa2b1b5	1.2710482
4	0x3f63827e	0.8887099
5	0x3f82baaa	1.0213215
6	0x3f93c5f7	1.1544789
7	0x3f4410ac	0.7658794
8	0x3f56d31a	0.83915865
9	0x3f5b5c80	0.8568802
10	0x3f61bcd2	0.8817874
11	0x3fa9c3d9	1.3262893
12	0x3ed4ef88	0.41588998
13	0x3f6ba937	0.92055076
14	0x3f8495d3	1.0358223
15	0x3fb04865	1.3772093
16	0x3f5af5bb	0.85531205
17	0x3f8c0b9b	1.0941042
18	0x3fec71ef	1.847227
19	0x3f3a48aa	0.72767127
20	0x3f759829	0.959353
21	0x3f4a779c	0.7908876
22	0x3fc1eedd	1.515102
23	0x3ec69eff	0.3879318
24	0x3e2cfbcf	0.16892932
25	0x3f9d8607	1.2306527
26	0x3f92901b	1.1450227
27	0x3fba1e6e	1.4540536
28	0x3e603a72	0.21897295
29	0x3fdbd521	1.7174417
30	0x3f845cf3	1.0340866
31	0x3fbae4c7	1.4601067

bias f4 [32]
0	0xbebf534e	-0.37368244
1	0xbf0965a9	-0.53670746
2	0xbe82d053	-0.25549564
3	0x3f5d5469	0.86456925
4	0xbf090be0	-0.53533745
5	0x3f34158b	0.7034537
6	0xbf883503	-1.0641178
7	0x3ebfc539	0.37455156
8	0x3d595f0b	0.053069156
9	0x3e51cbc4	0.20487887
10	0x3ea4c1e5	0.3217918
11	0x3e4ccb15	0.19999345
12	0x3e429a7d	0.19004245
13	0x3f43d295	0.764932
14	0xbf2f4bee	-0.68475235
15	0xbdd88d24	-0.105737954
16	0xbec6b698	-0.38811183
17	0x3f05aed3	0.52219886
18	0x3ec7a5ee	0.38993782
19	0x3f02393a	0.5086857
20	0xbed48075	-0.41504255
21	0x3e8bbdc9	0.27293232
22	0x3e7eed77	0.24895273
23	0xbdfd1964	-0.123583585
24	0x3e8fb41d	0.28067103
25	0xbe2a77f6	-0.16647324
26	0x3e6b64df	0.22987698
27	0xbd2a23b6	-0.041537963
28	0xbebc88f6	-0.36823243
29	0x3c9ab71b	0.01888614
30	0x3eb3cb6c	0.35116136
31	0x3e92eaeb	0.28694853

running_mean f4 [32]
0	0x3d867580	0.0656538
1	0x3ded5fb1	0.11590517
2	0x3ce96d3b	0.028494468
3	0x3e30826f	0.17237256
4	0xbe0ea4d1	-0.1393006
5	0xbebfbeb0	-0.3745017
6	0xbd8d3665	-0.068951406
7	0x3d7d0aeb	0.06177799
8	0x3d80723a	0.06271787
9	0xbcadd857	-0.021221323
10	0xbe270bc7	-0.16313086
11	0xbd8ab27d	-0.06772325
12	0xbeefc9a1	-0.46833518
13	0x3ce9c176	0.028534632
14	0x3ed245ff	0.41069028
15	0x3eba0a1c	0.36335838
16	0x3ee4825c	0.44630706
17	0x3e9c6c9d	0.30551615
18	0xbec00d02	-0.37509924
19	0x3dd3b68d	0.10337553
20	0x3e834f7a	0.25646573
21	0xbe92bfc3	-0.28661928
22	0x3e2ef87b	0.17086975
23	0xbe9da73f	-0.3079166
24	0x3e296f5d	0.16546388
25	0xbe9e2d30	-0.3089385
26	0xbdcb646a	-0.09931262
27	0xbe90cea8	-0.28282666
28	0xbe93b8b2	-0.2885185
29	0xbe6f3883	-0.23361401
30	0xbe6ccd6b	-0.23125236
31	0xbcd25fd0	-0.025680453

running_var f4 [32]
0	0x3ebbde6a	0.36693126
1	0x3e7b6b4b	0.24552648
2	0x3f0907d2	0.5352756
3	0x3f2eb4db	0.68244714
4	0x3f5c8613	0.8614208
5	0x3f1f682a	0.62268317
6	0x3f341709	0.7034765
7	0x3efa4c93	0.48886546
8	0x3f30f8ad	0.6912945
9	0x3efe10b4	0.49622118
10	0x3e48bf20	0.19604158
11	0x3e4ca80e	0.19985983
12	0x3f031940	0.51210403
13	0x3ea57908	0.32318902
14	0x3eac5b15	0.3366324
15	0x3f12ba54	0.57315564
16	0x3ec7b420	0.39004612
17	0x3e926230	0.28590536
18	0x3f1706fb	0.58995026
19	0x3ec842af	0.39113376
20	0x3f2bf54f	0.67171186
21	0x3e981d93	0.29710063
22	0x3e69fdba	0.22850695
23	0x3eefa2e4	0.46803963
24	0x3ee2c8e3	0.4429389
25	0x3ee17788	0.44036508
26	0x3f16d222	0.5891439
27	0x3e8cfd31	0.2753692
28	0x3ef6e190	0.48218966
29	0x3f80ba31	1.0056821
30	0x3ef0cb35	0.47030035
31	0x3eb4e3ea	0.35330135

weight f4 [32]
0	0x3f555860	0.83337975
1	0x3f1f443f	0.6221351
2	0x3f5eeec3	0.8708307
3	0x3fcf7342	1.6207049
4	0x3fadc188	1.3574686
5	0x3e0b54e5	0.13606603
6	0x3f43ef51	0.7653704
7	0x3ffc83f4	1.9727769
8	0x3f60e8c9	0.878552
9	0x3f2c6e79	0.6735607
10	0x3f8f7d6a	1.1210148
11	0x3f8efdd0	1.1171207
12	0x3eed83bb	0.46389565
13	0x3fb539b9	1.415824
14	0x3fb07aeb	1.3787512
15	0x3fa86bbd	1.3157879
16	0x3ed912c8	0.4239714
17	0x3f855d0e	1.0419023
18	0x3f231d47	0.6371655
19	0x40014bfc	2.0202627
20	0x3fb19e1a	1.3876374
21	0x3f01bc27	0.5067772
22	0x400df3aa	2.217997
23	0x3fa3f402	1.280884
24	0x3f4106b4	0.75400853
25	0x3ebaf21a	0.36512834
26	0x3ec066eb	0.3757852
27	0x3f6698c9	0.9007688
28	0x3f8532c0	1.0406113
29	0x3f72d5fd	0.9485777
30	0x3fa5526f	1.2915782
31	0x3f95ae37	1.1693791

bias f4 [32]
0	0xbe2010f4	-0.15631467
1	0xbf0d899c	-0.552881
2	0xbef81842	-0.48456007
3	0x3f58b287	0.8464741
4	0xbf3da1fe	-0.74075305
5	0x3f077bd3	0.52923316
6	0xbf9ada00	-1.2097778
7	0x3f33e06e	0.7026433
8	0x3ea24c26	0.31698722
9	0xbe39f869	-0.18161167
10	0xbc0d50fe	-0.008625267
11	0xbf0cc356	-0.5498556
12	0x3eb38162	0.3505965
13	0x3eeba3db	0.4602345
14	0xbf5e9e88	-0.8696065
15	0xbd28b3d4	-0.041187122
16	0xbe874762	-0.26421648
17	0xbe7ccf4e	-0.24688455
18	0x3e0c6f6a	0.13714376
19	0x3ee56aa9	0.44807938
20	0x3eb706d5	0.357474
21	0xbed677f6	-0.41888398
22	0xbf133168	-0.5749726
23	0x3f09e65c	0.53867126
24	0xbc8e0e7f	-0.017340897
25	0x3ead5426	0.33853263
26	0x3e897cf8	0.26853156
27	0x3e8c8b16	0.27449864
28	0xbf464743	-0.77452487
29	0x3f71c593	0.944421
30	0x3eb16d10	0.3465352
31	0x3ee33966	0.4437973

running_mean f4 [32]
0	0xbed9e336	-0.4255616
1	0x3fddc167	1.7324647
2	0xbf887be0	-1.0662804
3	0x3e42a8b9	0.19009675
4	0xbf576f4a	-0.8415419
5	0xbf115dce	-0.5678376
6	0xbed1e9b4	-0.40998614
7	0xbfb0e7b6	-1.3820713
8	0x3fc68576	1.5509479
9	0x3fa68836	1.3010318
10	0xbfe9e076	-1.8271625
11	0x400106e4	2.0160456
12	0xbe5f0648	-0.2177974
13	0xbf3a483b	-0.72766465
14	0xbcce4505	-0.025179395
15	0x3ec99dbc	0.39378154
16	0xbfd60a8f	-1.6721972
17	0xbfd6610e	-1.6748369
18	0x3ec385b8	0.38187957
19	0x3f688c34	0.90838933
20	0x3da3f9d4	0.08006635
21	0xbfdaa967	-1.7082947
22	0x4004cf28	2.0751438
23	0xc01a2a35	-2.408826
24	0xbfb9039b	-1.4454225
25	0xbfe3ea5e	-1.7805898
26	0x3f8dacb2	1.1068327
27	0xc06f7151	-3.7412913
28	0xbe25cfdf	-0.16192578
29	0xbf150ea9	-0.58225495
30	0x3f743968	0.95400095
31	0xbeed3f18	-0.463372

running_var f4 [32]
0	0x40cbd16f	6.3693156
1	0x4103c60a	8.235849
2	0x41817b20	16.18512
3	0x413081b6	11.031668
4	0x40a5ad66	5.177417
5	0x40e54dff	7.165771
6	0x40730d68	3.7976933
7	0x4184c9d1	16.598543
8	0x40981f64	4.753832
9	0x4185f988	16.746841
10	0x40b4fd88	5.6559486
11	0x413b1568	11.692726
12	0x4096aabd	4.708342
13	0x41025d2a	8.147745
14	0x4104edf6	8.308096
15	0x40a16ac4	5.044283
16	0x3ff20701	1.8908387
17	0x40bcb8df	5.8975673
18	0x415bb232	13.731005
19	0x418495bf	16.573118
20	0x4039e746	2.9047408
21	0x4112201a	9.132837
22	0x4084a117	4.1446643
23	0x41228514	10.15749
24	0x40c80a6c	6.251272
25	0x413249f2	11.143053
26	0x413b6e9b	11.714503
27	0x413bd846	11.740301
28	0x413f460e	11.954603
29	0x4119f030	9.62114
30	0x411b5974	9.709339
31	0x4125187a	10.318476
