04_Experiments/2022_08_02 09-00-22 100-runs-train_val_split-rmse/models/Model_run27_train_val_split0.8_alcalinity_of_ash.pt (torch, 284513 bytes, 318 tensors)

weight f4 [12]
1.0 1.0 1.0 1.0 1.0 1.0 1.0 1.0
1.0 1.0 1.0 1.0
00000000: 0000 803f 0000 803f 0000 803f 0000 803f
00000010: 0000 803f 0000 803f 0000 803f 0000 803f
00000020: 0000 803f 0000 803f 0000 803f 0000 803f

bias f4 [12]
0.0 0.0 0.0 0.0 0.0 0.0 0.0 0.0
0.0 0.0 0.0 0.0
00000000: 0000 0000 0000 0000 0000 0000 0000 0000
00000010: 0000 0000 0000 0000 0000 0000 0000 0000
00000020: 0000 0000 0000 0000 0000 0000 0000 0000

running_mean f4 [12]
0.0 0.0 0.0 0.0 0.0 0.0 0.0 0.0
0.0 0.0 0.0 0.0
00000000: 0000 0000 0000 0000 0000 0000 0000 0000
00000010: 0000 0000 0000 0000 0000 0000 0000 0000
00000020: 0000 0000 0000 0000 0000 0000 0000 0000

running_var f4 [12]
1.0 1.0 1.0 1.0 1.0 1.0 1.0 1.0
1.0 1.0 1.0 1.0
00000000: 0000 803f 0000 803f 0000 803f 0000 803f
00000010: 0000 803f 0000 803f 0000 803f 0000 803f
00000020: 0000 803f 0000 803f 0000 803f 0000 803f

weight f4 [12]
0.9505448 1.2357512 0.8578276 0.38555112 1.2604153 1.4805912 1.1366708 1.308129
1.3018014 1.3473085 0.825371 1.0004531
00000000: e756 733f 182d 9e3f 979a 5b3f f566 c53e
00000010: 4a55 a13f 0384 bd3f 6e7e 913f c570 a73f
00000020: 6ea1 a63f 9b74 ac3f 844b 533f d90e 803f

bias f4 [12]
0.297494 -0.2982661 0.078547075 -0.5548646 0.403867 -0.24131401 0.47174433 0.2723829
0.12259507 -0.2803333 -0.49945125 -0.9957884
00000000: 2251 983e 56b6 98be 4add a03d 9b0b 0ebf
00000010: a8c7 ce3e 051b 77be 7988 f13e c575 8b3e
00000020: 2013 fb3d d987 8fbe 13b8 ffbe fdeb 7ebf

running_mean f4 [12]
1.4323423 2.3495085 2.19152 4.755679 11.964655 1.8371594 0.88352454 2.0856762
0.33323762 2.1972387 92.28898 696.0163
00000000: fe56 b73f 595e 1640 dd41 0c40 862e 9840
00000010: 3a6f 3f41 0a28 eb3f aa2e 623f b87b 0540
00000020: 1f9e aa3e 8f9f 0c40 f593 b842 0b01 2e44

running_var f4 [12]
0.37990195 0.5576182 0.15785538 5.5476484 0.64948416 0.97770745 0.13060899 0.4204684
0.09508163 1.2612762 193.83914 91094.625
00000000: 8282 c23e 11c0 0e3f d7a4 213e 5686 b140
00000010: 9844 263f 094b 7a3f 5dbe 053e a247 d73e
00000020: 28ba c23d 8071 a13f d2d6 4143 50eb b147

weight f4 [32, 12]
1.39511 0.4561331 1.1932827 -0.023534877 -0.8541517 0.3272176 -0.022128725 -1.428235
-0.30579415 0.9293279 -0.31980976 -0.3836145 0.45144665 0.15841119 0.80142915 0.028127141
-1.017831 -0.045480605 0.6614802 -0.20706029 -0.03356789 0.94876736 -2.0264559 -0.4495886
-0.32093284 -0.3699111 -1.0770841 0.28043514 -0.08855419 -2.2607503 -0.6306033 -0.22092488
-0.23768148 1.1803671 0.394758 -1.4147791 0.76159304 0.57168764 0.72491705 -0.9511743
-0.7780239 0.90069985 -0.14601794 1.1423666 0.9313385 1.0210432 -0.37111408 0.21988752
-0.8995635 1.3178433 0.56856877 -0.19954197 0.31310052 1.3695801 0.021514844 2.286311
-0.6206908 -0.4595791 2.0661237 1.1389816 -1.093209 1.3715187 -0.69012445 -0.1135934
-0.6196669 0.24965252 -0.89379954 -0.39516968 -0.54973936 -1.0562798 -1.1393555 -1.3066423
-0.8165042 -0.6708262 -0.3336902 -0.3775182 -0.18204565 -2.0093749 -0.7985907 -0.45344362
0.42960325 -1.5380579 -0.26675406 -0.6740041 0.268198 0.018672077 -0.108962506 -1.0917768
1.9370426 1.0599352 1.6363536 -0.59312576 1.0844465 2.366083 -0.09470712 0.070770144
1.2542125 -0.62112486 -0.19253646 0.89090776 -0.62841034 0.46189106 0.7537394 0.052409645
0.94623786 0.109654404 0.6324817 0.7977923 1.9418211 -0.00039344127 0.65900916 -0.8170769
0.41476414 0.8382125 1.2050446 -0.62124705 0.07977968 -0.3012408 0.084083416 0.23942436
-0.64752716 -0.35233986 -0.48920584 0.8673004 0.9701526 -1.4554538 -0.5054319 0.18921039
-1.2660582 0.19094084 0.44460866 -0.36824408 1.0192077 0.6169398 0.30557838 0.16428857
1.2440392 -1.3300426 -0.26004434 -0.41274634 -1.5174041 0.065148085 -0.34905496 0.6794205
-0.1813247 1.3968467 -1.8095071 -0.18047892 -0.6762308 -0.76861346 0.0074259485 -0.054332506
-0.6632255 -0.11360029 0.47127634 1.0252827 -0.26997298 0.4537875 0.5263767 0.47781044
0.7589823 0.61067617 -1.0432426 0.41792426 1.0080146 -0.5129181 -1.2109805 0.4607024
0.29730862 -0.017877338 1.4942931 -0.42806122 -1.626913 -0.4176858 -1.3201107 0.33598372
0.5859396 0.7638115 0.6818486 0.21809536 -0.06538593 -1.3959002 0.7298173 -0.083259776
-0.9305098 1.0355766 0.21179779 -0.28633332 -0.38531512 -0.6220235 0.38575503 -0.90406936
-0.571393 -1.3754057 0.45520997 -0.1535933 -2.1345296 -1.0259076 -0.48294526 1.8259432
0.6324096 0.798617 -0.71783143 -0.59901035 0.63530284 -0.097014956 -0.61104655 -0.46174076
0.6379053 -0.38758016 0.073402114 0.2917889 0.106951736 -1.226822 1.0246919 -0.6879712
-0.7863645 1.7542132 -0.36103946 0.7889139 0.20680404 -0.4003659 -0.34070018 -1.2357291
0.76133883 0.6826014 -0.47095916 0.5286147 -0.44017217 0.27437252 0.29780287 -0.058129895
-1.590606 1.2408829 -0.40383258 1.2987739 2.3979006 0.8456812 0.41860875 1.0425143
-0.41971043 0.5491409 0.546319 0.8272189 0.46822903 0.6299764 0.21081047 -1.332584
-0.075007685 0.7749201 -0.063048474 -1.4221743 -0.6167191 0.20384814 1.379167 -0.28018376
00000000: f792 b23f 478a e93e 7dbd 983f 37cc c0bc
00000010: b0a9 5abf 1189 a73e 4d47 b5bc 68d0 b6bf
00000020: 0d91 9cbe 6fe8 6d3f 1bbe a3be 1f69 c4be
00000030: 0424 e73e 8b36 223e 762a 4d3f e46a e63c
00000040: 4948 82bf df49 3abd c456 293f 9d07 54be
00000050: 7c7e 09bd 6be2 723f 74b1 01c0 7a30 e6be
00000060: 4f51 a4be fd64 bdbe e4dd 89bf 3295 8f3e
00000070: e65b b5bd 22b0 10c0 386f 21bf 223a 62be
00000080: c662 73be 4516 973f b81d ca3e 7b17 b5bf
00000090: c3f7 423f 1f5a 123f 2a94 393f 2980 73bf
000000a0: 932c 47bf 4494 663f ba85 15be 1239 923f
000000b0: 336c 6e3f 8bb1 823f aa02 bebe 322a 613e
000000c0: cb49 66bf 17af a83f b98d 113f bb54 4cbe
000000d0: b64e a03e 674e af3f e63f b03c eb52 1240
000000e0: 98e5 1ebf f44d ebbe 5f3b 0440 26ca 913f
000000f0: 46ee 8bbf ed8d af3f ffab 30bf a8a3 e8bd
00000100: 7da2 1ebf e9a4 7f3e 0cd0 64bf ae53 cabe
00000110: b8bb 0cbf 2d34 87bf 67d6 91bf 0e40 a7bf
00000120: 6b06 51bf 44bb 2bbf 71d9 aabe 114a c1be
00000130: 2d6a 3abe 9999 00c0 7170 4cbf c329 e8be
00000140: f5f4 db3e 15df c4bf fd93 88be 888b 2cbf
00000150: 4051 893e 2ff6 983c bc27 dfbd 58bf 8bbf
00000160: 03f1 f73f f5ab 873f 0974 d13f 17d7 17bf
00000170: 25cf 8a3f e76d 1740 cef5 c1bd f0ef 903d
00000180: 098a a03f 0a02 1fbf 4728 45be 8812 643f
00000190: 80df 20bf fc7c ec3e 11f5 403f 7fab 563d
000001a0: a53c 723f 7d92 e03d 52ea 213f 1e3c 4c3f
000001b0: 988d f83f cb46 ceb9 d3b4 283f f42b 51bf
000001c0: f75b d43e 1895 563f e73e 9a3f 0c0a 1fbf
000001d0: 8763 a33d 3c3c 9abe ed33 ac3d a92b 753e
000001e0: 57c4 25bf e465 b4be 3079 fabe 6607 5e3f
000001f0: ec5b 783f 4f4c babf fc63 01bf 5ec0 413e
00000200: 320e a2bf ff85 433e bfa3 e33e 7d8a bcbe
00000210: 6675 823f c4ef 1d3f c574 9c3e 433b 283e
00000220: ad3c 9f3f d63e aabf 8824 85be 7d53 d3be
00000230: 4c3a c2bf 5c6c 853d 55b7 b2be 80ee 2d3f
00000240: 2fad 39be dfcb b23f ee9d e7bf 77cf 38be
00000250: 761d 2dbf dac3 44bf 5f55 f33b c38b 5ebd
00000260: 25c9 29bf 45a7 e8bd 224b f13e 773c 833f
00000270: e639 8abe d656 e83e a0c0 063f 92a3 f43e
00000280: aa4c 423f 4655 1c3f f988 85bf 2bfa d53e
00000290: 9f06 813f 9a4e 03bf 6901 9bbf 2fe1 eb3e
000002a0: d638 983e 7f73 92bc ff44 bf3f d72a dbbe
000002b0: af3e d0bf eada d5be 63f9 a8bf 0f06 ac3e
000002c0: 2300 163f 2789 433f a18d 2e3f 6454 5f3e
000002d0: 0fe9 85bd dcac b2bf 4ed5 3a3f 1a84 aabd
000002e0: e435 6ebf c68d 843f 85e1 583e 489a 92be
000002f0: 0648 c5be ef3c 1fbf af81 c53e 1771 67bf
00000300: d046 12bf 4b0d b0bf 4811 e93e 9047 1dbe
00000310: 229c 08c0 f150 83bf 9a44 f7be 82b8 e93f
00000320: 98e5 213f 2a72 4c3f cdc3 37bf be58 19bf
00000330: 35a3 223f c7af c6bd 8c6d 1cbf 4969 ecbe
00000340: c34d 233f e870 c6be d953 963d 5b65 953e
00000350: 8309 db3d 8108 9dbf 1b29 833f e11e 30bf
00000360: 2f4f 49bf 0f8a e03f 2ada b8be 43f6 493f
00000370: 70c4 533e c2fc ccbe 4170 aebe 5f2c 9ebf
00000380: 1ae7 423f f7be 2e3f 8f21 f1be 4b53 073f
00000390: 3f5e e1be 8e7a 8c3e 9e79 983e 9d19 6ebd
000003a0: fa98 cbbf 40d5 9e3f 25c3 cebe 393e a63f
000003b0: 3477 1940 907e 583f e353 d63e 1c71 853f
000003c0: 49e4 d6be 7f94 0c3f 90db 0b3f 9ec4 533f
000003d0: b7bb ef3e 2246 213f b3de 573e 1d92 aabf
000003e0: a19d 99bd 2a61 463f 8f1f 81bd cf09 b6bf
000003f0: 4ee1 1dbf 91bd 503e 8b88 b03f 3f74 8fbe

weight f4 [32, 16]
-0.3610816 1.5196297 1.1456712 -1.0046631 -1.8070062 -0.45504376 1.3922973 0.22804038
-0.22580995 0.49473515 0.560872 0.40908858 0.5359965 -0.30721572 -0.18346903 1.1692789
1.1371044 0.4150107 0.71331286 1.1145495 -0.27368373 -0.32508853 0.13016455 0.27008998
-0.9266885 -0.4547051 -0.17090778 0.74205893 0.25779954 1.0690084 -0.8814256 -0.21299228
-0.022622373 -1.3473616 -1.723316 -1.8221632 0.18244125 -1.3179375 -0.09346369 -0.8908486
0.31713322 0.35607406 -0.2487437 -2.1236942 1.40724 0.73311037 0.5006172 0.61058694
0.32410368 1.1391106 -1.2068707 -0.2231268 1.1973854 -0.48272827 -0.6048242 1.8522807
0.64857936 0.39112076 -0.8223866 -0.43098608 -0.03944488 -0.11923228 0.17810522 -0.5653347
1.117848 0.54572886 -0.55500424 0.060493123 -0.8528727 -0.028842734 -0.058606576 1.6182032
0.7817435 -0.37688023 -1.2917562 -0.9363412 -0.0053135385 -1.6678637 -0.09920494 1.4129622
-0.3226738 -1.5332428 0.15431002 0.004981615 -1.4638603 0.33085433 0.69401926 -0.023209717
-0.59787595 -1.1461604 0.44086212 -0.73731 -1.648205 -0.3928813 0.3789721 0.7585133
-0.3814849 0.714611 -0.22999144 1.4283189 0.31522924 1.0488904 0.9198032 -0.08675788
-0.13056858 0.7304896 -0.39151937 0.17663267 0.7637225 0.35289648 1.4585015 -0.8569734
0.233434 -0.9919054 -1.3666174 -2.1287515 0.7552823 -0.9160328 0.37107888 0.23880494
-1.0999027 0.7438087 -0.20432752 0.67241687 -1.3931696 0.4608164 -0.7769383 -0.602274
-1.0554212 0.23531741 -0.91778356 -0.4348595 -1.5744634 2.041236 -0.9118943 0.29810083
-0.790753 -0.03686503 -0.5543615 0.6428175 0.7253336 0.030701635 -0.43367478 0.2704422
-0.42840165 0.24596472 -1.4307364 -0.0069317133 -0.9810753 0.5849155 -0.57520926 0.2623696
0.62832254 1.3419895 -1.3305659 -1.4695574 -0.4370987 -0.4970214 0.40225926 -0.41182414
0.081632264 -0.22371458 0.9784019 0.22169462 -0.8870464 -0.47904095 -0.23305757 0.10714869
-0.30927554 -1.0814629 -0.7439116 -0.4385413 1.3325386 -1.4981731 -0.2020906 0.26831993
0.78248215 0.39660054 -0.07514712 -0.2650495 -2.2445092 0.23297374 -1.1968242 0.81683296
0.6806854 0.4175175 -1.8023276 0.1997633 -0.5516762 -0.5713827 0.58229655 -1.7000073
0.32896563 0.7149299 -1.3136199 0.28943056 0.15116185 -0.4892017 -0.37910387 -0.92782056
-0.067631155 -1.3355523 -0.77076715 0.06438508 -0.57985246 1.4852513 0.13242143 1.1730062
-0.019590981 -1.0760807 0.555875 1.0907278 -0.7661871 -0.8052878 1.5959004 1.5580482
0.20032614 0.31636766 0.6916053 -1.003588 -0.84658194 -0.6504106 0.13969363 -0.14249484
-0.11561833 0.2668157 0.22838692 -0.2665014 -0.030876458 -1.2319814 -0.8736948 -0.28067437
0.15747838 -1.822434 -1.0113686 -0.5322788 0.25215963 1.3830366 0.90567887 0.5417565
-0.407319 0.14732137 0.5815301 -0.059682064 0.117010646 -1.8106712 -1.1224821 -0.7002559
0.84470546 1.3743248 -0.70730704 0.19667968 -0.07440614 -0.40107623 1.5551245 0.66090524
00000000: b0df b8be 3a83 c23f 5ba5 923f cd98 80bf
00000010: fb4b e7bf 7ffb e8be cc36 b23f 6b83 693e
00000020: b93a 67be ed4d fd3e 4f95 0f3f 0f74 d13e
00000030: 1137 093f 614b 9dbe 4edf 3bbe eeaa 953f
00000040: a38c 913f 487c d43e ac9b 363f 8fa9 8e3f
00000050: 4620 8cbe 0172 a6be db49 053e 3c49 8a3e
00000060: 753b 6dbf 1bcf e8be 7302 2fbe 93f7 3d3f
00000070: 4dfe 833e 44d5 883f 1ca5 61bf a61a 5abe
00000080: 8e52 b9bc 5876 acbf 9e95 dcbf a53c e9bf
00000090: e1d1 3a3e 2db2 a8bf e469 bfbd a70e 64bf
000000a0: 495f a23e 574f b63e abb6 7ebe 9bea 07c0
000000b0: 7120 b43f 1fad 3b3f 7328 003f 6d4f 1c3f
000000c0: ebf0 a53e 60ce 913f bd7a 9abf 5a7b 64be
000000d0: ed43 993f 2928 f7be c2d5 1abf 8917 ed3f
000000e0: 4c09 263f fb40 c83e ee87 52bf 35aa dcbe
000000f0: f490 21bd 0e30 f4bd 3761 363e c6b9 10bf
00000100: a515 8f3f e3b4 0b3f c214 0ebf a3c7 773d
00000110: de55 5abf 9947 ecbc 730d 70bd 4821 cf3f
00000120: 5820 483f 72f6 c0be 4458 a5bf 0fb4 6fbf
00000130: 311d aebb 8f7c d5bf f62b cbbd f2db b43f
00000140: 8035 a5be 4d41 c4bf 7203 1e3e d13c a33b
00000150: c65f bbbf bd65 a93e 3fab 313f 4e22 bebc
00000160: 660e 19bf 62b5 92bf aeb8 e13e 59c0 3cbf
00000170: 62f8 d2bf bd27 c9be a208 c23e ed2d 423f
00000180: fd51 c3be bff0 363f e082 6bbe 27d3 b63f
00000190: ba65 a13e 0a42 863f 3978 6b3f 1eae b1bd
000001a0: c5b3 05be 5e01 3b3f 3a75 c8be 32df 343e
000001b0: 5183 433f d9ae b43e 2db0 ba3f 9c62 5bbf
000001c0: 5309 6f3e 83ed 7dbf 52ed aebf 773d 08c0
000001d0: 2e5a 413f 2081 6abf 0dfe bd3e 4889 743e
000001e0: 9dc9 8cbf 3f6a 3e3f 3c3b 51be 8323 2c3f
000001f0: 6253 b2bf 21f0 eb3e 6ee5 46bf a12e 1abf
00000200: 0b18 87bf 0cf7 703e ddf3 6abf e8a5 debe
00000210: 0488 c9bf 9ca3 0240 e871 69bf aca0 983e
00000220: ca6e 4abf c9ff 16bd a3ea 0dbf b08f 243f
00000230: 76af 393f ff81 fb3c 9f0a debe 6677 8a3e
00000240: 7657 dbbe 2dde 7b3e 5f22 b7bf 6d23 e3bb
00000250: c027 7bbf 06bd 153f ea40 13bf 4f55 863e
00000260: bfd9 203f 50c6 ab3f fc4f aabf 751a bcbf
00000270: 67cb dfbe 9779 febe edf4 cd3e 9dda d2be
00000280: d12e a73d 6f15 65be 8c78 7a3f ea03 633e
00000290: 7915 63bf db44 f5be a5a6 6ebe c670 db3d
000002a0: 5d59 9ebe 606d 8abf fe70 3ebf 7c88 e0be
000002b0: a090 aa3f 23c4 bfbf d7f0 4ebe 3b61 893e
000002c0: c050 483f 3a0f cb3e bce6 99bd 91b4 87be
000002d0: 0aa6 0fc0 ab90 6e3e 8931 99bf f71b 513f
000002e0: 6641 2e3f dbc4 d53e acb2 e6bf c08e 4c3e
000002f0: a73a 0dbf 2346 12bf 6311 153f d799 d9bf
00000300: 2f6e a83e a505 373f b224 a8bf 3e30 943e
00000310: 2cca 1a3e a578 fabe e719 c2be a685 6dbf
00000320: 3482 8abd 61f3 aabf ff50 45bf 53dc 833d
00000330: 3671 14bf b71c be3f 7c99 073e 1125 963f
00000340: 447d a0bc 03bd 89bf d34d 0e3f f89c 8b3f
00000350: d624 44bf 5727 4ebf 7746 cc3f 206e c73f
00000360: 4c22 4d3e f1fa a13e 0c0d 313f 9275 80bf
00000370: 98b9 58bf 4f81 26bf d90b 0f3e 2bea 11be
00000380: 4ec9 ecbd 119c 883e 43de 693e df72 88be
00000390: a0f0 fcbc 91b1 9dbf 76aa 5fbf 8db4 8fbe
000003a0: 0342 213e 8445 e9bf 8774 81bf 6c43 08bf
000003b0: 111b 813e 5807 b13f 92da 673f 8eb0 0a3f
000003c0: 1e8c d0be 6adb 163e 28df 143f 2e75 74bd
000003d0: 47a3 ef3d 13c4 e7bf 7ead 8fbf f843 33bf
000003e0: 9e3e 583f e0e9 af3f 1312 35bf 6666 493e
000003f0: 3f62 98bd dd59 cdbe 520e c73f 1631 293f

weight f4 [32]
0.16745591 0.5522548 0.72726256 0.58908355 1.2551105 1.6087056 0.557251 1.3748928
1.097128 1.5635844 0.8523098 0.9555588 1.3866391 0.98545885 1.4693283 1.2078849
0.93158394 0.9298832 0.7224837 0.48323026 1.765437 1.5833311 1.1446106 0.7108226
1.6968523 1.9659795 1.2261771 1.3904653 1.4551488 2.0847702 1.1266629 0.7915119
00000000: 9079 2b3e 9260 0d3f e12d 3a3f 2ece 163f
00000010: 76a7 a03f 11ea cd3f 00a8 0e3f 7dfc af3f
00000020: b16e 8c3f 8923 c83f fa30 5a3f 809f 743f
00000030: 647d b13f 0847 7c3f f312 bc3f f99b 9a3f
00000040: 497c 6e3f d30c 6e3f b1f4 383f f569 f73e
00000050: d7f9 e13f 98aa ca3f 9a82 923f 78f8 353f
00000060: 7532 d93f 37a5 fb3f 5ff3 9c3f c4fa b13f
00000070: 5142 ba3f e06c 0540 7d36 903f 86a0 4a3f

bias f4 [32]
-0.2824881 0.45248303 0.018873928 0.15646464 -0.65773624 -0.022562522 0.46346503 0.0029671008
0.5110383 -0.3827494 1.0065747 0.2056647 0.32562113 -0.580433 0.4522527 0.13658611
-0.6367819 -0.4551325 -0.03469196 -0.5235929 0.12074483 0.17854947 -0.17814869 0.34470436
-0.082418226 0.44659323 0.103321515 -0.13336311 0.21336277 -0.4330448 0.1634634 0.3760469
00000000: 48a2 90be dbab e73e 7f9d 9a3c 4438 203e
00000010: 6761 28bf 0ad5 b8bc 4a4b ed3e b173 423b
00000020: 68d3 023f bbf7 c3be 71d7 803f c499 523e
00000030: d0b7 a63e 4297 14bf aa8d e73e 3bdd 0b3e
00000040: 2304 23bf 2107 e9be 2819 0ebd 2f0a 06bf
00000050: 1149 f73d acd5 363e 9c6c 36be 177d b03e
00000060: e3ca a8bd dea7 e43e 3b9a d33d 5790 08be
00000070: c57b 5a3e 0cb8 ddbe f362 273e 3889 c03e

running_mean f4 [32]
-0.18865803 1.1801753 0.79288644 0.1810814 -2.1638346 0.5246685 1.3078059 1.223005
-0.944477 1.237674 -0.1178813 -0.06040526 -1.8776467 -0.26179996 -1.2837795 0.7042434
0.83304703 1.3996891 -1.8953848 -2.0710752 0.29091245 0.27602956 -0.15523662 -0.8835915
1.6192429 -3.882639 -0.20937882 -2.014163 0.1208538 -0.93598014 2.5209727 0.5835129
00000000: 922f 41be fc0f 973f 9bfa 4a3f 676d 393e
00000010: 447c 0ac0 ad50 063f 2f66 a73f 6e8b 9c3f
00000020: 3fc9 71bf 1a6c 9e3f c06b f1bd 826b 77bd
00000030: ba56 f0bf a50a 86be e352 a4bf 4c49 343f
00000040: 9242 553f 0329 b33f f89b f2bf 7f8c 04c0
00000050: 7af2 943e bf53 8d3e 59f6 1ebe 0d33 62bf
00000060: 5a43 cf3f 287d 78c0 6767 56be 0ce8 00c0
00000070: 3282 f73d 659c 6fbf 9e57 2140 1a61 153f

running_var f4 [32]
6.011353 8.118667 38.549404 12.002134 61.569332 11.101366 31.090448 14.420343
4.2850943 12.504803 9.958831 7.5099583 6.674315 5.7033505 11.52277 4.74225
21.718674 4.0409355 6.3615565 13.292318 4.2750583 3.496835 22.485477 4.1901493
7.8343945 6.222321 26.43888 12.539805 28.240946 11.0867605 21.498213 22.546719
00000000: 015d c040 0fe6 0141 9732 1a42 be08 4041
00000010: ff46 7642 329f 3141 3db9 f841 bab9 6641
00000020: 7e1f 8940 ac13 4841 5f57 1f41 9451 f040
00000030: fd93 d540 d981 b640 445d 3841 83c0 9740
00000040: d8bf ad41 584f 8140 df91 cb40 56ad 5441
00000050: 47cd 8840 25cc 5f40 42e2 b341 b415 8640
00000060: 5cb3 fa40 411d c740 d482 d341 0ba3 4841
00000070: 75ed e141 5f63 3141 57fc ab41 ae5f b441

weight f4 [32]
0.5111611 0.93776613 1.1904334 0.31905225 0.6707589 0.91012555 1.4648712 0.39223117
1.0682827 1.503429 1.4232937 0.94038606 1.6506275 1.2759525 1.1236609 1.2525675
1.1529759 0.5169316 0.8419194 1.392554 -0.042480316 0.891205 1.2789595 0.48924133
1.3138943 1.4354976 1.3658905 1.1202314 0.9631822 0.80468154 0.07315188 2.0269618
00000000: 74db 023f 7111 703f 1f60 983f d15a a33e
00000010: dbb6 2b3f fdfd 683f e680 bb3f 86d2 c83e
00000020: 7dbd 883f 5d70 c03f 7d2e b63f 24bd 703f
00000030: c347 d33f 6952 a33f 1fd4 8f3f 2254 a03f
00000040: b794 933f a155 043f 0888 573f 363f b23f
00000050: d7ff 2dbd 0326 643f f2b4 a33f d77d fa3e
00000060: b02d a83f 63be b73f 80d5 ae3f be63 8f3f
00000070: 1c93 763f 9cff 4d3f a7d0 953d beb9 0140

bias f4 [32]
-0.34429172 -0.34835142 0.09450096 -0.5526325 0.051520694 0.14422113 0.281534 -0.53221023
-0.089845516 -0.01697312 0.2705272 0.32143047 -0.14784728 0.38629672 0.23318534 0.09983263
-0.2882298 0.19154915 0.10261511 -0.64932674 -0.15158774 -0.0050292993 0.4923801 -0.39476857
-0.112428956 0.36611763 0.33792922 0.070493534 0.3007587 0.2770903 0.2868345 -0.23574716
00000000: 0147 b0be 1e5b b2be b889 c13d 5379 0dbf
00000010: 5d07 533d b4ae 133e 3925 903e ee3e 08bf
00000020: ed00 b8bd 360b 8bbc 8b82 8a3e 8992 a43e
00000030: 4765 17be afc8 c53e 23c8 6e3e 0d75 cc3d
00000040: db92 93be 7625 443e df27 d23d 473a 26bf
00000050: d139 1bbe d2cc a4bb 3f19 fc3e 1b1f cabe
00000060: 2741 e6bd c573 bb3e 0f05 ad3e ea5e 903d
00000070: 0bfd 993e c8de 8d3e f9db 923e b467 71be

running_mean f4 [32]
2.202009 -0.41161042 -0.92165506 -1.6323726 0.036850467 0.9498039 0.80950576 -2.0746996
0.7261869 -0.49354392 0.6358491 -0.11458303 -1.1123531 0.94792914 -1.0583262 -0.33392018
-0.41092154 0.12387852 1.3514583 -2.4400716 0.15904853 0.9850747 -1.2483765 1.5310718
-0.52761555 2.8044372 0.081079185 -1.0706065 -0.15239926 -0.57986516 1.77159 -0.73072094
00000000: b7ed 0c40 9abe d2be 96f1 6bbf 96f1 d0bf
00000010: 84f0 163d 5926 733f c53b 4f3f e1c7 04c0
00000020: 62e7 393f cab1 fcbe 02c7 223f 82aa eabd
00000030: 9661 8ebf 7cab 723f 3c77 87bf 96f7 aabe
00000040: 4f64 d2be 06b4 fd3d 96fc ac3f 222a 1cc0
00000050: 9edd 223e db2d 7c3f cdca 9fbf 29fa c33f
00000060: d011 07bf e67b 3340 d80c a63d a209 89bf
00000070: 8d0e 1cbe 0b72 14bf 76c3 e23f 8710 3bbf

running_var f4 [32]
5.7494926 2.8091266 4.1163197 10.193071 5.079714 13.883346 2.3157878 6.979302
7.0006037 6.395096 4.4024873 4.6604304 3.2024243 7.0319934 3.9900584 8.7701845
1.7450297 5.3025723 3.7009726 13.257679 3.3219984 10.840782 5.828411 8.279459
6.622995 10.98689 6.4152646 5.4636703 5.928003 5.5762987 11.711048 8.206504
00000000: d8fb b740 bbc8 3340 e4b8 8340 d216 2341
00000010: 048d a240 2f22 5e41 de35 1440 7156 df40
00000020: f204 e040 a0a4 cc40 2de1 8c40 3f22 9540
00000030: 85f4 4c40 1706 e140 1e5d 7f40 ad52 0c41
00000040: 225d df3f acae a940 bcdc 6c40 741f 5441
00000050: 9f9b 5440 d873 2d41 5882 ba40 aa78 0441
00000060: 93ef d340 4dca 2f41 d949 cd40 63d6 ae40
00000070: 33b2 bd40 0a71 b240 7460 3b41 d74d 0341

weight f4 [32, 16]
-0.37579048 0.21741688 -0.9418513 0.6496486 -0.8332877 -0.39050144 -0.64382046 -1.4051044
-0.1131877 -0.2514599 -1.8599072 0.59680706 -0.5452163 0.5365575 0.62153053 0.94046277
-0.7505484 -1.278413 -1.0708925 0.50068325 0.70087457 0.6021647 -0.897067 -0.3837845
-0.20443867 -1.1794215 -1.5530734 0.39189664 0.8236727 0.4012416 0.25395477 -1.4572407
-1.1124675 1.5103043 -0.7830299 0.08127732 0.97986054 -0.25287694 -1.3657959 -1.1121027
0.52044284 -1.3716838 0.1376875 0.69744533 -0.66933686 0.5683014 -0.13750614 -1.4742904
-1.226554 -0.57851505 1.232143 0.25928977 0.87811285 -1.1705661 -0.3903784 -1.2526598
0.3331693 0.6175854 -0.2678374 0.03151809 0.93410355 -0.5607536 0.8805478 0.532017
-1.4024094 0.91247004 -0.40642977 0.06076121 1.3051498 0.6722969 -0.57083565 -0.6073977
-1.0344225 0.54811716 -0.7355585 -0.4326137 -0.5840391 -1.1139042 -0.13861386 1.1591543
0.8319509 0.3672339 -1.4162861 0.43070713 1.0159514 0.1656936 -0.5017109 0.3895946
0.05027082 -1.3236426 0.045476623 -0.6551681 -0.03347373 -0.6244884 0.8175 0.7298357
0.63089335 -1.539444 0.65603375 1.3093601 -0.55166876 0.066467285 -0.2380256 -0.44732627
2.0282679 0.7968809 0.15193586 0.012458931 0.009969452 0.29511887 -0.3122899 0.45997187
-0.118116535 -1.1795181 0.7082484 -0.3631237 -0.7374394 -0.08744026 -0.14695677 -1.5932164
-0.86736214 0.95750517 0.5505426 -0.1003908 -0.24124955 -0.17667282 0.1290683 -0.098490395
-0.5150726 -0.30720654 -1.7231952 0.3632398 0.69987476 1.1873393 0.083106525 -1.1395674
-0.31242874 -1.5440192 0.86724085 1.0837052 1.8691319 -0.4056497 0.70499915 0.43690655
0.5169552 -0.08993776 0.3782305 -0.50960267 -0.99045885 -0.039262794 0.98133314 0.36754578
0.20046496 1.1320469 -0.1563495 -0.6308565 -0.8354521 0.009182645 -2.0406291 -0.00377629
1.7094004 -1.0701431 0.5874656 -0.22226298 0.11465985 0.25201052 1.772313 -0.6328255
0.46305096 0.23028648 -0.9172862 0.69426763 0.43672734 1.2505714 0.54697895 -0.5777615
0.17989036 -0.4165646 0.94748306 -0.7865446 -0.4384604 0.44710433 0.74995416 -1.7206043
0.7497181 0.22515853 -0.14733396 -0.22862095 0.07550291 -0.55351466 0.3417442 0.5534045
-0.7416743 0.30837893 -0.63528126 0.80457497 0.6353214 0.6546917 -0.17252572 -0.9615248
0.9840517 1.7787446 -0.7014119 -0.6515841 1.422237 -1.5367942 -0.17103101 -0.68897897
-0.90080905 0.17777315 0.040919974 0.58800286 -0.20328711 0.21139435 0.52447456 1.1437082
0.73292357 -1.057435 0.27653626 1.361456 -1.0280995 0.10617706 -0.81956625 -0.12806575
0.36048523 -0.95113456 -0.2777912 0.19350244 1.0447202 0.38863814 0.7118799 -0.0093307365
0.5859634 -0.5825281 0.5930551 -0.11781561 -0.0598376 0.46619478 2.0902843 1.007591
0.2919961 -0.3577763 0.7812986 0.5630504 0.76341796 -1.5166745 -1.0598602 -0.23925774
0.054231524 -0.48236418 -0.16887741 -1.0096138 0.69722086 0.49031344 0.10431228 1.1087506
00000000: 9c67 c0be 88a2 5e3e 2b1d 71bf 5f4f 263f
00000010: 5852 55bf ceef c7be 6bd1 24bf 76da b3bf
00000020: f4ce e7bd 5abf 80be 7011 eebf 59c8 183f
00000030: 4c93 0bbf d55b 093f a01c 1f3f 2bc2 703f
00000040: f123 40bf 0aa3 a3bf 0113 89bf c72c 003f
00000050: 846c 333f 7727 1a3f 2fa6 65bf 677f c4be
00000060: 5f58 51be 49f7 96bf 1ccb c6bf ada6 c83e
00000070: 37dc 523f 8a6f cd3e 5c06 823e dd86 babf
00000080: 5665 8ebf a751 c13f a674 48bf b974 a63d
00000090: 24d8 7a3f 1679 81be 66d2 aebf 6259 8ebf
000000a0: be3b 053f 5693 afbf f4fd 0c3e c78b 323f
000000b0: a959 2bbf 337c 113f 69ce 0cbe 8cb5 bcbf
000000c0: b9ff 9cbf 9019 14bf ddb6 9d3f a1c1 843e
000000d0: 01cc 603f 1cd5 95bf addf c7be 2857 a0bf
000000e0: 2b95 aa3e 141a 1e3f fc21 89be 1d19 013d
000000f0: 6921 6f3f 8c8d 0fbf 956b 613f 4432 083f
00000100: 2782 b3bf a397 693f 9017 d0be bfe0 783d
00000110: 260f a73f a61b 2c3f 4922 12bf 6a7e 1bbf
00000120: f567 84bf 6851 0c3f 904d 3cbf 8b7f ddbe
00000130: 9683 15bf 6a94 8ebf cbf0 0dbe 2b5f 943f
00000140: bcfa 543f 1506 bc3e dd48 b5bf a585 dc3e
00000150: b20a 823f 95ab 293e 2070 00bf f278 c73e
00000160: c6e8 4d3d 1f6d a9bf b245 3a3d 19b9 27bf
00000170: c01b 09bd 79de 1fbf ae47 513f 83d6 3a3f
00000180: 3a82 213f 800c c5bf d4f1 273f 1d99 a73f
00000190: 2a3a 0dbf 0020 883d fcbc 73be f307 e5be
000001a0: 24cf 0140 6300 4c3f 1395 1b3e 8b20 4c3c
000001b0: ea56 233c d219 973e 76e4 9fbe 6f81 eb3e
000001c0: 15e7 f1bd 73fa 96bf c44f 353f 59eb b9be
000001d0: d4c8 3cbf e113 b3bd d67b 16be 84ee cbbf
000001e0: 720b 5ebf 0f1f 753f 5cf0 0c3f b199 cdbd
000001f0: 1f0a 77be b8e9 34be 7b2a 043e 55b5 c9bd
00000200: ccdb 03bf 2d4a 9dbe a991 dcbf 91fa b93e
00000210: fe2a 333f bcfa 973f c133 aa3d 58dd 91bf
00000220: a9f6 9fbe 6ca2 c5bf 7f03 5e3f dab6 8a3f
00000230: b73f ef3f 51b1 cfbe d37a 343f 37b2 df3e
00000240: 2d57 043f 4a31 b8bd 6ea7 c13e 5275 02bf
00000250: b68e 7dbf 06d2 20bd a638 7b3f f62e bc3e
00000260: b046 4d3e eae6 903f 151a 20be d07f 21bf
00000270: 30e0 55bf ce72 163c ab99 02c0 a27b 77bb
00000280: a2cd da3f 73fa 88bf 2564 163f e898 63be
00000290: c9d2 ea3d 8607 813e 27db e23f da00 22bf
000002a0: 0415 ed3e 38d0 6b3e 45d3 6abf 86bb 313f
000002b0: ba9a df3e b912 a03f d006 0c3f 2de8 13bf
000002c0: 2e35 383e f547 d5be 408e 723f fd5a 49bf
000002d0: e27d e0be dcea e43e fffc 3f3f c33c dcbf
000002e0: 87ed 3f3f f58f 663e b7de 16be 9c1b 6abe
000002f0: 45a1 9a3d 23b3 0dbf 19f9 ae3e ebab 0d3f
00000300: 5ede 3dbf d8e3 9d3e cba1 22bf a0f8 4d3f
00000310: 6ca4 223f e099 273f 95aa 30be 7d26 76bf
00000320: d0ea 7b3f e7ad e33f bb8f 33bf 37ce 26bf
00000330: dd0b b63f acb5 c4bf c122 2fbe ed60 30bf
00000340: 6c9b 66bf 2a0a 363e b49b 273d 5b87 163f
00000350: 7f2a 50be c377 583e f743 063f 0865 923f
00000360: e1a0 3b3f 085a 87bf 2996 8d3e 3144 ae3f
00000370: c498 83bf 5c73 d93d 18cf 51bf ab23 03be
00000380: 8591 b83e 8e7d 73bf a63a 8ebe 8125 463e
00000390: 64b9 853f 94fb c63e c33d 363f f2df 18bc
000003a0: b301 163f 9020 15bf 76d2 173f 4f49 f1bd
000003b0: 4518 75bd 15b1 ee3e 38c7 0540 bef8 803f
000003c0: 8380 953e 752e b7be 2f03 483f 1224 103f
000003d0: 5c6f 433f 6422 c2bf 80a9 87bf fbff 74be
000003e0: e021 5e3d 70f8 f6be 33ee 2cbe 063b 81bf
000003f0: 117d 323f 5d0a fb3e ada1 d53d 8aeb 8d3f

weight f4 [32]
1.4189643 0.4488145 0.88987523 1.1392843 1.0300999 0.83213156 0.7297965 1.2494028
0.95687073 0.88666755 0.6196004 1.3245311 0.9830807 0.44396493 0.71058995 1.2947586
1.676723 0.58942866 1.0378278 1.2523344 0.8341052 1.1826795 1.163712 1.6770386
1.2483989 0.86048 0.7375247 1.5374286 1.1206374 0.9402938 0.7741482 1.6683836
00000000: 9fa0 b53f 04cb e53e ddce 633f 11d4 913f
00000010: 50da 833f 9306 553f f2d3 3a3f 6eec 9f3f
00000020: 7bf5 743f a5fc 623f 229e 1e3f 3c8a a93f
00000030: 2dab 7b3f 5f4f e33e 39e9 353f a6ba a53f
00000040: dc9e d63f cce4 163f 8bd7 843f 7e4c a03f
00000050: eb87 553f 0b62 973f 84f4 943f 33a9 d63f
00000060: 89cb 9f3f 6b48 5c3f 6bce 3c3f 76ca c43f
00000070: 0c71 8f3f 18b7 703f 942e 463f 988d d53f

bias f4 [32]
0.36797795 -0.037066557 0.009254073 -0.059634797 0.5826081 0.6080721 -0.1090783 0.49409068
-0.50467175 -0.49049765 0.31488016 0.22615516 -0.18186277 0.07517829 -0.22589418 0.69853604
-0.21571146 -0.57441634 -0.03247886 0.18280894 0.032506246 -0.3088675 -0.4254445 0.38487452
-0.3531669 0.23881821 -0.16433206 0.27945408 0.09189348 -0.5907361 -0.048003566 0.21588787
00000000: 9b67 bc3e 1ad3 17bd 659e 173c 9e43 74bd
00000010: ce25 153f 9daa 1b3f 7264 dfbd 74f9 fc3e
00000020: 2b32 01bf 8222 fbbe f937 a13e 3895 673e
00000030: 3c3a 3abe 13f7 993d ce50 67be 42d3 323f
00000040: 77e3 5cbe f30c 13bf 8e08 05bd 4432 3b3e
00000050: 4525 053d e223 9ebe ddd3 d9be 460e c53e
00000060: 4bd2 b4be c38c 743e aa46 28be 9b14 8f3e
00000070: a632 bc3d 7b3a 17bf 639f 44bd b611 5d3e

running_mean f4 [32]
-0.3423585 -0.31308612 -0.45856416 -0.00061211403 -0.9211903 -0.417281 0.05013743 0.796356
2.1282918 -0.6997353 0.62526166 1.0593559 -0.50415456 0.45296457 1.0637563 -1.1667267
-0.768416 0.12866262 -0.8227935 0.10595471 -0.1062555 -1.1265653 -0.11144986 -0.77920574
-2.94357 1.4793228 0.32843503 0.27583078 -0.039085865 -0.4726732 0.36359432 0.15805566
00000000: 9d49 afbe d34c a0be ecc8 eabe 4776 20ba
00000010: 21d3 6bbf dba5 d5be e85c 4d3d fddd 4b3f
00000020: ef35 0840 da21 33bf 2611 203f f998 873f
00000030: 4610 01bf f9ea e73e 2b29 883f 4d57 95bf
00000040: e9b6 44bf 22c0 033e 98a2 52bf c8fe d83d
00000050: 7c9c d9bd 4b33 90bf d33f e4bd 077a 47bf
00000060: 7363 3cc0 735a bd3f a328 a83e b139 8d3e
00000070: 8018 20bd 3902 f2be 0929 ba3e 58d9 213e

running_var f4 [32]
4.14008 3.1485643 7.842906 8.402592 5.657982 5.7050853 5.097143 3.1047742
16.734488 9.145798 3.6437552 6.5441494 17.087997 4.0142217 9.759849 5.5001473
3.2337692 6.3541203 8.955951 4.7878976 2.9984353 9.94989 3.6966815 14.197579
23.74026 8.547468 11.41639 3.5815609 11.138727 7.148403 4.198453 7.6155906
00000000: 897b 8440 1482 4940 16f9 fa40 0471 0641
00000010: 300e b540 0f90 b640 cc1b a340 9fb4 4640
00000020: 3be0 8541 3055 1241 4933 6940 ac69 d140
00000030: 38b4 8841 8174 8040 5728 1c41 3501 b040
00000040: 13f6 4e40 f454 cb40 934b 0f41 7536 9940
00000050: 5de6 3f40 c032 1f41 6e96 6c40 4929 6341
00000060: 0dec bd41 6ec2 0841 89a9 3641 4b38 6540
00000070: 3a38 3241 b8bf e440 ba59 8640 ebb2 f340

weight f4 [32, 16]
0.04649097 0.19772032 -0.7634405 0.21305744 0.7142487 -0.08415665 -0.07413197 0.6481531
-0.36970213 0.34313717 -0.86343926 1.4458592 -0.4736363 0.0907715 0.05690782 0.2635241
-0.03282874 -0.51806337 -0.27986574 0.008905138 -0.12057431 -0.49977118 -0.6099418 -0.83245885
0.22909757 -0.7033737 -0.8894892 -1.2125089 0.22428748 -0.7975057 0.43149242 -0.939941
-0.46230215 -0.18003842 0.11048493 0.38539365 -0.23314795 0.40044883 -0.6515779 -0.4852607
-0.012203504 0.27558303 -0.28846276 0.23849835 0.5346606 0.8330409 -0.2660416 -0.08399389
-0.2977558 -1.2082428 0.2401427 -0.74588513 0.1528229 1.3288119 0.16295575 -0.6934173
0.74064595 -2.0214949 -0.5588564 0.050083384 -0.9842154 -0.85256445 1.4440613 0.5776047
-0.20283015 0.975293 1.1894886 0.71780515 -0.9233267 0.13197494 -0.75037014 1.4079869
-0.09993613 0.052304033 0.724885 0.020830493 -0.12022985 -1.0299064 0.33013144 -0.4618243
0.29171994 0.351183 1.704462 -0.63410354 -0.3009121 0.029148715 -0.38447568 0.7003122
-0.6652928 0.8936105 0.32878786 -0.99823123 0.7557741 1.9987946 -0.27732286 0.8177302
-0.99615794 0.6728537 -0.62734824 0.008135804 0.6014706 0.6607857 0.2746957 1.9359097
1.4133143 -0.39300397 0.14750734 -1.5814095 -0.8110007 0.6840142 0.47635177 0.06781487
0.5819973 1.4650099 0.27633047 0.5396574 -0.2913137 -0.98092043 -0.38765398 -0.24742149
1.2774628 -0.7161727 0.55253077 0.057350487 0.8896481 -0.70989716 -0.9090342 -0.66530025
-0.0070419456 -0.1749052 -0.37369207 0.0021738054 0.025319435 0.20910606 0.6093993 -0.14327091
0.7438656 0.40847284 0.7188352 0.92832077 0.46637106 -1.4218843 0.5174811 0.39282185
0.2797449 -0.3909008 -0.73072785 0.607652 0.73688257 0.39777786 0.8805927 2.2794647
-0.6537365 1.1899512 -0.61764485 0.26009545 -0.5455393 -0.39500222 0.1399369 0.6637872
0.4054945 0.29664287 -0.07506098 -0.8231638 -0.3417071 -0.23355226 -0.5635977 -0.32148919
0.06052072 -1.6118162 0.11472179 1.5098652 -0.5202199 0.08826551 0.51781744 0.59438604
0.00912867 0.7341659 -0.41252628 -1.4260513 0.17134999 -0.45880857 0.3163341 -0.83890235
-0.50623626 1.0621214 0.51871 -0.6874329 0.62634027 -0.5707303 -0.3228613 -1.1074659
-1.990807 -0.3164937 -0.2523982 0.28249973 -0.14544998 -0.06474109 -0.81958675 1.3840808
-0.86071974 1.264267 0.15356356 0.033339005 0.46346375 -1.3295715 0.15826283 0.819432
-0.116088256 0.38743225 0.14712717 -0.34763736 -0.74457955 -0.80541825 0.7388415 -0.1289184
-0.1044797 -1.5406564 0.9133217 -0.39106283 -0.69257694 -1.3571415 0.0645627 -0.50528973
-1.174515 -0.022102145 0.50204706 0.74463075 -0.42559165 -0.23020113 -0.15748364 0.33470806
-0.32751676 -0.051517777 1.0860543 -0.38771978 -2.1263194 -0.6804452 -0.03914351 0.22394489
0.59709084 0.5524755 0.7393927 -0.79029113 0.63628304 2.008268 -0.46830902 -0.49825296
0.4909514 -0.3911955 -0.549613 -1.2528046 0.54691917 -0.6035972 0.53382605 0.30131832
00000000: 516d 3e3d 3277 4a3e d670 43bf bb2b 5a3e
00000010: 01d9 363f 525a acbd 81d2 97bd 5ded 253f
00000020: 9949 bdbe adaf af3e 5b0a 5dbf ea11 b93f
00000030: 7580 f2be 68e6 b93d 2d18 693d a1ec 863e
00000040: 6e77 06bd cd9f 04bf 904a 8fbe dbe6 113c
00000050: aaef f6bd 02e2 ffbe 2525 1cbf 061c 55bf
00000060: 8e98 6a3e 4c10 34bf 90b5 63bf 7e33 9bbf
00000070: 9eab 653e 5529 4cbf 93ec dc3e f99f 70bf
00000080: deb2 ecbe fe5b 38be ec45 e23d 5152 c53e
00000090: 56be 6ebe a107 cd3e cfcd 26bf 1774 f8be
000000a0: 35f1 47bc 3819 8d3e 64b1 93be e938 743e
000000b0: 84df 083f 2b42 553f 9b36 88be fd04 acbd
000000c0: 7373 98be b3a7 9abf f8e7 753e 54f2 3ebf
000000d0: 9b7d 1c3e 8216 aa3f dfdd 263e cc83 31bf
000000e0: f99a 3d3f 2c60 01c0 3711 0fbf 3c24 4d3d
000000f0: 8af5 7bbf aa41 5abf 00d7 b83f e7dd 133f
00000100: b5b2 4fbe cdac 793f 2a41 983f 14c2 373f
00000110: 235f 6cbf 7024 073e 4218 40bf ea38 b43f
00000120: 50ab ccbd c13c 563d 1092 393f b6a4 aa3c
00000130: 113b f6bd f9d3 83bf fd06 a93e 3c74 ecbe
00000140: 515c 953e 42ce b33e d02b da3f 9c54 22bf
00000150: 2711 9abe 49c9 ee3c ffd9 c4be a947 333f
00000160: a150 2abf a8c3 643f e256 a83e 158c 7fbf
00000170: 697a 413f 80d8 ff3f 43fd 8dbe c456 513f
00000180: 3504 7fbf 2440 2c3f e599 20bf 094c 053c
00000190: faf9 193f 4029 293f eaa4 8c3e e4cb f73f
000001a0: 7ce7 b43f d137 c9be 2a0c 173e a06b cabf
000001b0: be9d 4fbf 8e1b 2f3f 61e4 f33e 86e2 8a3d
000001c0: c6fd 143f 7285 bb3f 307b 8d3e fd26 0a3f
000001d0: 1227 95be 9a1d 7bbf 957a c6be 0f5c 7dbe
000001e0: e783 a33f 1857 37bf a872 0d3f 58e8 6a3d
000001f0: fabf 633f d2bb 35bf 77b6 68bf 1e51 2abf
00000200: 1fc0 e6bb 591a 33be 9154 bfbe 6776 0e3b
00000210: b46a cf3c e61f 563e 9801 1c3f 9cb5 12be
00000220: fa6d 3e3f 5a23 d13e 9505 383f 6ea6 6d3f
00000230: 30c8 ee3e 4e00 b6bf a479 043f f21f c93e
00000240: b93a 8f3e 2624 c8be fb10 3bbf 158f 1b3f
00000250: 56a4 3c3f 8aa9 cb3e 866e 613f c0e2 1140
00000260: 465b 27bf 5250 983f f91d 1ebf 3b2b 853e
00000270: 77a8 0bbf bb3d cabe 9e4b 0f3e f5ed 293f
00000280: fa9c cf3e 93e1 973e 92b9 99bd ddba 52bf
00000290: 3cf4 aebe 5328 6fbe f047 10bf 3b9a a4be
000002a0: 93e4 773d fe4f cebf 42f3 ea3d 4343 c13f
000002b0: 222d 05bf 8cc4 b43d af8f 043f af29 183f
000002c0: 6b90 153c 4cf2 3b3f a536 d3be d988 b6bf
000002d0: 5f76 2f3e f5e8 eabe 8bf6 a13e 4ec2 56bf
000002e0: b398 01bf 98f3 873f 2eca 043f 9afb 2fbf
000002f0: d657 203f 621b 12bf 144e a5be 71c1 8dbf
00000300: c4d2 febf 760b a2be 563a 81be cea3 903e
00000310: d7f0 14be fa96 84bd 70d0 51bf 8f29 b13f
00000320: 2158 5cbf 80d3 a13f c43f 1d3e 7b8e 083d
00000330: 1f4b ed3e 662f aabf a70f 223e 4cc6 513f
00000340: aebf edbd 855d c63e 81a8 163e 86fd b1be
00000350: c49c 3ebf e42f 4ebf b724 3d3f 2f03 04be
00000360: 74f9 d5bd 3b34 c5bf 73cf 693f 6339 c8be
00000370: b94c 31bf d0b6 adbf 7339 843d ab5a 01bf
00000380: 8256 96bf 8f0f b5bc 2886 003f 1fa0 3e3f
00000390: 26e7 d9be d8b9 6bbe 6443 21be db5e ab3e
000003a0: 47b0 a7be 4e04 53bd d403 8b3f 3583 c6be
000003b0: 9e15 08c0 a831 2ebf f254 20bd cf51 653e
000003c0: f2da 183f 096f 0d3f d748 3d3f 8550 4abf
000003d0: 72e3 223f 7787 0040 33c6 efbe 031b ffbe
000003e0: fb5d fb3e c74a c8be 70b3 0cbf e75b a0bf
000003f0: e502 0c3f 5985 1abf d3a8 083f 6546 9a3e

weight f4 [32]
1.0 1.0 1.0 1.0 1.0 1.0 1.0 1.0
0.8381536 0.91471136 0.7670779 0.69843006 0.8468875 0.5167291 1.0825224 1.325663
1.0 1.0 1.0 1.0 1.0 1.0 1.0 1.0
1.4761679 1.4428748 0.8130908 1.4245939 0.76970124 0.45669106 1.1554729 1.5806657
00000000: 0000 803f 0000 803f 0000 803f 0000 803f
00000010: 0000 803f 0000 803f 0000 803f 0000 803f
00000020: 3c91 563f 862a 6a3f 385f 443f 50cc 323f
00000030: 9fcd 583f 5c48 043f 1890 8a3f 53af a93f
00000040: 0000 803f 0000 803f 0000 803f 0000 803f
00000050: 0000 803f 0000 803f 0000 803f 0000 803f
00000060: 12f3 bc3f 1fb0 b83f b826 503f 1859 b63f
00000070: 240b 453f 69d3 e93e 89e6 933f 4153 ca3f

bias f4 [32]
0.0 0.0 0.0 0.0 0.0 0.0 0.0 0.0
-0.13346758 0.3984873 -0.05546291 0.07356069 0.64064544 0.5775422 -0.050510053 0.28325436
0.0 0.0 0.0 0.0 0.0 0.0 0.0 0.0
-0.5082706 0.09392468 -0.47555757 -0.6007901 0.39139596 -0.17460728 -0.02076792 0.023152098
00000000: 0000 0000 0000 0000 0000 0000 0000 0000
00000010: 0000 0000 0000 0000 0000 0000 0000 0000
00000020: baab 08be 8706 cc3e 142d 63bd fda6 963d
00000030: 5701 243f ced9 133f a1e3 4ebd b706 913e
00000040: 0000 0000 0000 0000 0000 0000 0000 0000
00000050: 0000 0000 0000 0000 0000 0000 0000 0000
00000060: 061e 02bf 955b c03d 487c f3be 61cd 19bf
00000070: 0d65 c83e 40cc 32be 7c21 aabc 78a9 bd3c

running_mean f4 [32]
0.041350637 -0.98362863 -0.41605872 1.3503087 0.20722398 -0.18985327 -0.091197684 -0.6339105
0.58623827 0.5375896 1.0286258 -0.9985608 -0.19276838 0.7086662 0.37943718 0.31539404
0.050760396 0.18976241 -0.30849758 -0.16954589 -0.1738444 1.2216192 0.42419183 0.18428874
0.20475549 -1.1589363 -0.5222227 0.3537733 1.5149993 0.9853086 0.13530391 -0.28296766
00000000: 495f 293d 16cf 7bbf a605 d5be ead6 ac3f
00000010: 8632 543e e568 42be dac5 babd f547 22bf
00000020: b613 163f 799f 093f 03aa 833f aea1 7fbf
00000030: 1365 45be 266b 353f 9745 c23e 547b a13e
00000040: 22ea 4f3d 1451 423e 65f3 9dbe 709d 2dbe
00000050: 4404 32be 055e 9c3f ac2f d93e 30b6 3c3e
00000060: 6cab 513e 0658 94bf 63b0 05bf c621 b53e
00000070: 7feb c13f 2f3d 7c3f 1c8d 0a3e 23e1 90be

running_var f4 [32]
3.8925192 1.983308 0.5722246 21.476452 3.1694353 3.991737 3.6749837 2.6656377
4.924536 13.940225 11.2690735 8.001318 9.352399 9.484746 7.100868 7.858459
4.2421794 7.4464145 4.868791 1.8647732 2.4170153 6.3786716 6.85705 2.8352063
8.826925 7.542203 12.812436 9.501459 13.182831 21.945833 6.6951795 7.869789
00000000: 091f 7940 09dd fd3f 507d 123f c6cf ab41
00000010: 07d8 4a40 9e78 7f40 ef32 6b40 cf99 2a40
00000020: cd95 9d40 290b 5f41 204e 3441 6605 0041
00000030: 6da3 1541 85c1 1741 503a e340 7f78 fb40
00000040: efbf 8740 0749 ee40 23cd 9b40 e3b0 ee3f
00000050: 61b0 1a40 141e cc40 f46c db40 0574 3540
00000060: 163b 0d41 ba59 f140 bdff 4c41 fa05 1841
00000070: e0ec 5241 1191 af41 e93e d640 50d5 fb40

weight f4 [32]
1.2741588 1.705633 1.1245174 1.6504977 0.81766856 1.0628387 1.3312274 0.8615516
0.5876731 1.1704665 0.72378343 1.4542525 0.6878343 1.1978351 0.773396 1.5505786
1.805937 1.30806 0.94767576 1.3484972 0.30313063 1.7282736 1.4125701 0.6847763
0.16853993 1.0695428 0.25505555 1.7076911 1.3863815 1.1709602 1.0809959 0.46363705
00000000: a317 a33f 2f52 da3f 30f0 8f3f 8243 d33f
00000010: ba52 513f 190b 883f a965 aa3f a58e 5c3f
00000020: bf71 163f d9d1 953f df49 393f f224 ba3f
00000030: e915 303f a952 993f 48fd 453f 5c79 c63f
00000040: f228 e73f 836e a73f e19a 723f 8e9b ac3f
00000050: f033 9b3e 1238 dd3f 19cf b43f 804d 2f3f
00000060: bb95 2c3e c7e6 883f a496 823e 9f95 da3f
00000070: f374 b13f 06e2 953f 135e 8a3f d661 ed3e

bias f4 [32]
-0.3436641 -0.5454844 -0.61862683 0.88519025 -0.5246349 0.77868885 -0.4204848 0.48821044
0.29005396 -0.1531436 -0.28030518 -0.30660233 1.0085366 -0.32020742 -0.124945514 -0.41949853
0.5290552 0.3721983 0.42984226 0.8985938 0.07695242 0.21979296 0.9455996 0.50706816
0.15820342 0.07023015 0.30719957 0.53708714 -0.38781586 0.40487936 0.13041987 0.658825
00000000: bef4 afbe dea4 0bbf 545e 1ebf d49b 623f
00000010: 794e 06bf 2758 473f c949 d7be b8f6 f93e
00000020: f481 943e add1 1cbe 2984 8fbe fbfa 9cbe
00000030: ba17 813f 3af2 a3be 6fe3 ffbd 83c8 d6be
00000040: 2970 073f c790 be3e 4914 dc3e 3e0a 663f
00000050: 3b99 9d3d 6811 613e d112 723f 38cf 013f
00000060: 1400 223e d3d4 8f3d 4349 9d3e 8b7e 093f
00000070: cd8f c6be 594c cf3e c98c 053e c1a8 283f

running_mean f4 [32]
-0.022958849 0.18585922 -0.008054304 0.08133034 -0.017532831 0.09923771 0.043276202 -0.027372789
-0.09758742 0.039603606 0.010187363 0.14871857 -0.012875254 0.10151439 -0.07951073 -0.14483199
0.07139516 0.021085512 0.0059701595 -0.11225878 -0.04261081 0.08266988 -0.19870467 -0.22826843
-0.038331613 -0.20605664 -0.06212173 -0.11482432 0.07772449 -0.132218 0.07395286 -0.092594996
00000000: 3214 bcbc e151 3e3e 33f6 03bc 8590 a63d
00000010: 03a1 8fbc 243d cb3d 6342 313d e63c e0bc
00000020: eadb c7bd 6437 223d e6e8 263c ae49 183e
00000030: bbf2 52bc c7e6 cf3d 86d6 a2bd d64e 14be
00000040: a037 923d 86bb ac3c 54a1 c33b eee7 e5bd
00000050: ac88 2ebd d34e a93d 3d79 4bbe 33bf 69be
00000060: 9c01 1dbd 8300 53be 5b73 7ebd 0329 ebbd
00000070: 042e 9f3d 2864 07be 9974 973d 72a2 bdbd

running_var f4 [32]
0.38318223 0.87596774 0.3628552 0.3690397 1.7969633 0.5290746 0.3645036 0.41079518
0.18877277 0.23288718 0.20516476 0.19893791 0.25669423 0.4656939 0.3412816 0.2116024
0.7461493 0.25034404 0.45621362 0.45733106 0.32057858 0.4019433 0.3702515 0.73579836
0.21611118 0.2182829 0.8179631 0.22196607 0.54476637 0.4988651 0.57568276 0.5252835
00000000: 7630 c43e 6c3f 603f 28c8 b93e c6f2 bc3e
00000010: e502 e63f 6f71 073f 37a0 ba3e bf53 d23e
00000020: a64d 413e fa79 6e3e b616 523e 61b6 4b3e
00000030: 6d6d 833e 6e6f ee3e 76bc ae3e 4dae 583e
00000040: a403 3f3f 182d 803e d594 e93e 4c27 ea3e
00000050: e022 a43e 83cb cd3e 9b91 bd3e 485d 3c3f
00000060: 404c 5d3e 8d85 5f3e 0866 513f 134b 633e
00000070: cf75 0b3f 3f6b ff3e f25f 133f fb78 063f

weight f4 [32]
0.71640503 1.278447 0.82687014 1.8134997 0.90037984 0.82791466 0.6612001 0.68447214
0.7762682 1.1739575 0.6663878 0.9475667 0.8615528 0.79021925 0.8377483 1.232753
0.513691 1.3720316 1.0760008 2.0850616 1.9168779 0.8597643 0.9851598 0.5163289
1.0706701 1.3323857 0.7465946 0.8491038 0.82245326 1.7996337 1.2452918 1.5065111
00000000: 5266 373f 27a4 a33f c3ad 533f c220 e83f
00000010: 4b7f 663f 37f2 533f 6944 293f 9139 2f3f
00000020: 83b9 463f 3d44 963f 6498 2a3f bb93 723f
00000030: b98e 5c3f cf4b 4a3f ac76 563f daca 9d3f
00000040: 4181 033f bb9e af3f 65ba 893f a671 0540
00000050: 415c f53f 8319 5c3f 6f33 7c3f 212e 043f
00000060: b80b 893f 9d8b aa3f d320 3f3f de5e 593f
00000070: 4c8c 523f 665a e63f b965 9f3f 5bd5 c03f

bias f4 [32]
0.384385 -0.5332232 -0.6653186 0.954854 -0.76534677 0.71133095 -0.27193278 0.60333914
0.17809063 -0.119876705 -0.104556315 0.69423246 0.3673732 -0.010551595 0.4951167 0.52969366
-0.07511215 0.1466126 0.3929943 0.9206572 -0.49244642 0.1272247 -0.40499502 -0.14219703
-0.4861532 0.22525111 -0.078594 0.10159761 0.089203045 -0.52338153 0.13802424 0.15598032
00000000: 1cce c43e 5181 08bf 5252 2abf 5071 743f
00000010: c4ed 43bf c919 363f c63a 8bbe 6f74 1a3f
00000020: 645d 363e eb81 f5bd 9f21 d6bd 38b9 313f
00000030: 5718 bc3e 99e0 2cbc f07f fd3e 019a 073f
00000040: 66d4 99bd 9d21 163e 8d36 c93e 31b0 6b3f
00000050: f021 fcbe 3147 023e 825b cfbe 199c 11be
00000060: 12e9 f8be 3aa8 663e e4f5 a0bd 6812 d03d
00000070: 16b0 b63d 55fc 05bf 3a56 0d3e 4eb9 1f3e

running_mean f4 [32]
-1.9939728 -0.3082073 -0.59348327 -0.084309176 0.97822005 0.6419276 1.6889626 -2.3413882
2.161251 1.993709 1.1009316 1.2638792 -1.3864919 1.3836031 -1.4676415 -1.4866817
-0.51726836 0.0257701 1.1065532 -0.6011104 -1.4720607 -2.300254 0.41372916 -1.995976
-0.29684904 -2.3016973 -0.26536822 -1.0959826 1.2985314 -2.6571114 -0.09384468 -1.6031369
00000000: 803a ffbf 59cd 9dbe 85ee 17bf 4aaa acbd
00000010: a16c 7a3f 5e55 243f ed2f d83f 4ed9 15c0
00000020: f051 0a40 db31 ff3f 54eb 8c3f cbc6 a13f
00000030: 9178 b1bf e819 b13f addb bbbf 964b bebf
00000040: b36b 04bf d11b d33c 89a3 8d3f 5fe2 19bf
00000050: 7c6c bcbf 5d37 13c0 4fd4 d33e 247c ffbf
00000060: 99fc 97be 024f 13c0 58de 87be 2849 8cbf
00000070: 4736 a63f 1d0e 2ac0 a431 c0bd 9733 cdbf

running_var f4 [32]
17.020971 9.84184 22.4287 9.931251 13.655817 10.834485 11.738336 10.889037
6.5905976 12.87757 2.8725355 8.688791 9.727717 8.919724 4.0314884 8.425997
6.876865 8.315866 9.720442 17.59401 7.0708456 11.780128 11.38848 11.92784
6.4143276 12.545373 7.6417246 20.795797 9.144077 6.1748147 10.520544 7.8910522
00000000: f32a 8841 2d78 1d41 fa6d b341 67e6 1e41
00000010: 3a7e 5a41 0d5a 2d41 39d0 3b41 7f39 2e41
00000020: 2de6 d240 870a 4e41 9fd7 3740 4a05 0b41
00000030: bba4 1b41 31b7 0e41 f401 8140 e2d0 0641
00000040: 470f dc40 ca0d 0541 ee86 1b41 88c0 8c41
00000050: 5e44 e240 677b 3c41 3737 3641 6fd8 3e41
00000060: 2c42 cd40 d9b9 4841 0289 f440 cb5d a641
00000070: 244e 1241 1598 c540 2654 2841 8083 fc40

weight f4 [32, 16]
-0.0747814 -1.5333155 0.8472089 -0.7603522 -0.21132684 0.15102524 0.38258678 0.19043128
-0.12619011 0.21873589 0.4583609 0.6908234 -0.66924596 -0.16946091 -1.0292553 -0.6795881
0.74978393 1.2740259 -0.8061393 -0.6712911 -0.13018186 -1.3110399 -0.14953159 0.10489896
0.198337 -0.50142276 -0.5770714 0.7623092 -0.16972397 -1.00307 -0.43285272 0.21014482
-0.9756489 -2.1304178 0.46945015 -0.1017903 -0.6255719 0.9836373 1.4661586 0.2645465
-0.5105375 0.9143106 -0.05898806 -0.24490081 -0.28999436 -0.470654 0.36246988 -0.1457522
0.3961454 0.708439 0.106963605 0.38834545 0.31694645 -1.7150005 -1.5350227 0.98101294
0.5440762 0.434205 -1.2410086 0.7318556 0.30679452 -0.37836155 0.024424829 0.7759736
-0.092986666 0.49964958 -0.20928875 0.44883594 -0.7992847 -1.6811041 0.61131924 -1.5175284
0.20790999 -1.3106929 -0.22601439 -1.0759275 0.7690846 0.17918433 1.5352862 0.5067996
1.746662 0.69365627 0.04090783 -1.4576073 -0.48540267 -0.4029029 -0.4871765 0.59104234
-0.3649602 -0.14628294 -0.1549575 0.93426543 -0.42902973 -0.48875156 -0.3691795 -0.047564182
0.5879746 0.6989993 -0.31128955 -0.4333368 -1.0064516 -0.16834271 -1.187618 1.2011615
0.80397236 -1.2459267 0.04964285 1.26085 -0.11059513 -0.45784998 0.26320142 -1.4935796
1.1420863 0.6044712 -1.5379398 0.30452266 0.8587495 -1.0954814 1.0602332 -0.24238539
-0.04851957 -0.43503398 -1.3273706 -0.7142207 -0.026516363 1.2367841 -0.08027526 -0.45152813
-1.9235109 -0.104627 0.4929778 0.15370503 0.06348313 0.04865026 -0.9616163 -0.34288844
-1.0341597 -1.1940385 0.20515983 0.50203776 0.020896133 -1.5786833 0.04689018 1.2935424
-0.79073256 0.86944956 -0.4843577 1.2634532 1.0113411 -0.65303004 -0.6973669 0.46358392
0.6247686 0.2979828 1.4055054 -0.80851763 0.8257096 0.19417718 0.11679063 -0.03095842
0.9868364 -1.2132927 1.337847 -0.032914355 -0.263382 -0.6163467 -1.1913763 -0.37131032
0.46460512 0.91441995 1.1260991 -0.5753368 -1.788587 0.680248 0.3790859 -0.16124398
0.9484736 1.013641 -0.017879106 0.7502446 -0.9870829 -1.1760293 -0.22153649 -0.055763338
-0.17064577 0.44938186 -1.6035895 -0.17495249 -0.6894216 1.2290019 0.9576777 -0.1010388
1.0834997 0.53975046 -2.3384469 0.4525807 -0.42187035 0.39485213 1.4757426 -1.1096522
0.31470552 0.13913423 -1.6797005 0.121806964 0.74790996 0.49238357 0.7003288 0.8171227
0.047814652 0.21556538 -0.19553813 -0.71550363 -0.67018867 -0.36245224 0.906804 -0.5291162
-0.7970881 0.21951362 -0.3141781 1.6858182 1.6503732 -0.23234493 -0.43634972 -0.54440635
0.084936954 -1.8242567 -0.93213344 0.09163207 0.7281358 1.1732872 -1.7764775 -0.3182362
-0.03861086 0.5482855 1.0652953 1.1338146 0.26741353 0.50920033 1.0189203 -0.38407272
1.0597739 -0.86551994 0.769505 -0.79784644 0.7106073 -0.07149891 0.45682558 0.6964882
-0.41458595 0.9528071 0.24957116 -0.102753714 0.5693256 -0.13315558 -0.47222093 1.1925154
00000000: fe26 99bd af43 c4bf afe2 583f 71a6 42bf
00000010: 1066 58be 5ca6 1a3e 6ae2 c33e 6b00 433e
00000020: fb37 01be 4dfc 5f3e 48ae ea3e cdd9 303f
00000030: b453 2bbf 2987 2dbe a3be 83bf 7cf9 2dbf
00000040: d7f1 3f3f 4813 a33f 255f 4ebf bcd9 2bbf
00000050: 654e 05be 28d0 a7bf cf1e 19be 44d5 d63d
00000060: db18 4b3e 3e5d 00bf f4ba 13bf b226 433f
00000070: 1fcc 2dbe 9964 80bf df9e ddbe 3430 573e
00000080: 20c4 79bf c458 08c0 c55b f03e 6f77 d0bd
00000090: 7b25 20bf a7cf 7b3f 16ab bb3f a472 873e
000000a0: 96b2 02bf 4210 6a3f 779d 71bd 47c7 7abe
000000b0: 247a 94be 90f9 f0be a795 b93e 1140 15be
000000c0: 92d3 ca3e 425c 353f bc0f db3d 37d5 c63e
000000d0: ce46 a23e 2385 dbbf a07b c4bf aa23 7b3f
000000e0: 9448 0b3f 1e50 de3e 5fd9 9ebf e35a 3b3f
000000f0: 2c14 9d3e 9bb8 c1be 9416 c83c 35a6 463f
00000100: cb6f bebd 12d2 ff3e ca4f 56be d3cd e53e
00000110: ec9d 4cbf 6b2e d7bf 6b7f 1c3f 5f3e c2bf
00000120: 5be6 543e c9c4 a7bf 5170 67be feb7 89bf
00000130: bae2 443f 197c 373e 4284 c43f 9ebd 013f
00000140: 9f92 df3f 7593 313f f88e 273d e092 babf
00000150: b386 f8be 4a49 cebe 336f f9be 8d4e 173f
00000160: 10dc babe 32cb 15be 2ead 1ebe 052c 6f3f
00000170: c9a9 dbbe a53d fabe 1805 bdbe a9d2 42bd
00000180: 8185 163f 9ef1 323f 5861 9fbe 52de ddbe
00000190: 68d3 80bf 0862 2cbe de03 98bf a9bf 993f
000001a0: 22d1 4d3f 877a 9fbf 4d56 4b3d 8863 a13f
000001b0: b37f e2bd 506b eabe 56c2 863e 9e2d bfbf
000001c0: e22f 923f a0be 1a3f 36db c4bf 65ea 9b3e
000001d0: 02d7 5b3f bc38 8cbf b9b5 873f e033 78be
000001e0: 75bc 46bd c6bc debe 48e7 a9bf 2bd7 36bf
000001f0: d838 d9bc f14e 9e3f 5b67 a4bd b22e e7be
00000200: 9b35 f6bf ae46 d6bd 9667 fc3e da64 1d3e
00000210: 7103 823d 7f45 473d 7c2c 76bf 138f afbe
00000220: 585f 84bf 41d6 98bf 6b15 523e 8c85 003f
00000230: 5e2e ab3c 4b12 cabf eb0f 403d cc92 a53f
00000240: 736d 4abf 3f94 5e3f bcfd f7be d6b8 a13f
00000250: a073 813f fa2c 27bf a386 32bf df5a ed3e
00000260: d6f0 1f3f 3491 983e 9ae7 b33f 03fb 4ebf
00000270: b461 533f 62d6 463e ed2f ef3d 839c fdbc
00000280: 4fa1 7c3f 2d4d 9bbf 923e ab3f 34d1 06bd
00000290: 01da 86be e6c8 1dbf 057f 98bf 631c bebe
000002a0: b9e0 ed3e 6d17 6a3f 0424 903f 4649 13bf
000002b0: 6bf0 e4bf bc24 2e3f 8c17 c23e 241d 25be
000002c0: 2acf 723f fdbe 813f 3477 92bc 0810 403f
000002d0: 77b1 7cbf 2188 96bf 76da 62be 1968 64bd
000002e0: c4bd 2ebe 6115 e63e 6c42 cdbf bf26 33be
000002f0: ef7d 30bf ef4f 9d3f 5e2a 753f 6eed cebd
00000300: 1eb0 8a3f 162d 0a3f 1da9 15c0 a8b8 e73e
00000310: 64ff d7be 0f2a ca3e 22e5 bc3f 1509 8ebf
00000320: 1521 a13e 3479 0e3e 6d00 d7bf ee75 f93d
00000330: 0777 3f3f b319 fc3e c048 333f f42e 513f
00000340: 4cd9 433d 2cbd 5c3e 263b 48be 3f2b 37bf
00000350: 7c91 2bbf 5793 b9be 4f24 683f 2974 07bf
00000360: f70d 4cbf 2ec8 603e f4db a0be e4c8 d73f
00000370: 6e3f d33f d4eb 6dbe 3b69 dfbe 375e 0bbf
00000380: 6df3 ad3d 3e81 e9bf 4ca0 6ebf 98a9 bb3d
00000390: 1c67 3a3f 462e 963f 9d63 e3bf dbef a2be
000003a0: 6c26 1ebd 705c 0c3f 995b 883f d620 913f
000003b0: 6dea 883e f45a 023f fb6b 823f 2ea5 c4be
000003c0: aca6 873f b792 5dbf 48fe 443f aa3f 4cbf
000003d0: 5cea 353f 056e 92bd 0be5 e93e 0d4d 323f
000003e0: 9c44 d4be 2beb 733f 958f 7f3e 8a70 d2bd
000003f0: 53bf 113f f059 08be f1c6 f1be 58a4 983f
