04_Experiments/2022_08_02 09-00-22 100-runs-train_val_split-rmse/models/Model_run71_train_val_split0.7_alcalinity_of_ash.pt (torch, 270625 bytes, 318 tensors)

weight f4 [12]
1.0 1.0 1.0 1.0 1.0 1.0 1.0 1.0
1.0 1.0 1.0 1.0
00000000: 0000 803f 0000 803f 0000 803f 0000 803f
00000010: 0000 803f 0000 803f 0000 803f 0000 803f
00000020: 0000 803f 0000 803f 0000 803f 0000 803f

bias f4 [12]
0.0 0.0 0.0 0.0 0.0 0.0 0.0 0.0
0.0 0.0 0.0 0.0
00000000: 0000 0000 0000 0000 0000 0000 0000 0000
00000010: 0000 0000 0000 0000 0000 0000 0000 0000
00000020: 0000 0000 0000 0000 0000 0000 0000 0000

running_mean f4 [12]
0.0 0.0 0.0 0.0 0.0 0.0 0.0 0.0
0.0 0.0 0.0 0.0
00000000: 0000 0000 0000 0000 0000 0000 0000 0000
00000010: 0000 0000 0000 0000 0000 0000 0000 0000
00000020: 0000 0000 0000 0000 0000 0000 0000 0000

running_var f4 [12]
1.0 1.0 1.0 1.0 1.0 1.0 1.0 1.0
1.0 1.0 1.0 1.0
00000000: 0000 803f 0000 803f 0000 803f 0000 803f
00000010: 0000 803f 0000 803f 0000 803f 0000 803f
00000020: 0000 803f 0000 803f 0000 803f 0000 803f

weight f4 [12]
0.72131634 0.6835901 1.0947583 1.2618115 1.1146986 0.66671795 0.49974412 1.550333
1.1152065 0.7069492 0.8641978 1.2367018
00000000: 30a8 383f c3ff 2e3f 0a21 8c3f 0a83 a13f
00000010: 72ae 8e3f 07ae 2a3f 76de ff3e 5071 c63f
00000020: 16bf 8e3f 9ffa 343f 113c 5d3f 3f4c 9e3f

bias f4 [12]
-0.11254686 0.1898457 -0.09479914 0.5239498 0.9856608 -0.021477135 -0.29712006 -0.3587
-0.15405643 0.8262193 -0.03212947 -0.61206746
00000000: f87e e6bd e966 423e 0d26 c2bd 9321 063f
00000010: 4454 7c3f d1f0 afbc 1f20 98be 87a7 b7be
00000020: f8c0 1dbe 1c83 533f 319a 03bd 74b0 1cbf

running_mean f4 [12]
0.5712852 1.4294969 0.6713216 0.73570704 0.09896366 217.63258 0.44231635 28.238247
0.64662284 3.682771 0.2698779 0.6691482
00000000: bf3f 123f c1f9 b63f bbdb 2b3f 4c57 3c3f
00000010: 76ad ca3d f1a1 5943 4a77 e23e eee7 e141
00000020: 1389 253f 85b2 6b40 702d 8a3e 4c4d 2b3f

running_var f4 [12]
0.996413 2.1607745 0.7395908 0.8685917 0.72188485 29488.5 0.8128618 58.026527
0.8354892 0.8806077 0.73165315 1.0320034
00000000: ec14 7f3f 214a 0a40 d355 3d3f 075c 5e3f
00000010: 72cd 383f 0061 e646 b617 503f 2a1b 6842
00000020: 9fe2 553f 826f 613f 9f4d 3b3f b018 843f

weight f4 [32, 12]
1.0778248 0.38817057 0.77442575 -0.103174075 -1.1009585 0.8456399 -0.00058074755 -0.39831635
-0.29383704 1.4358331 -0.94222313 -0.2511538 0.49373507 0.45291504 0.59336615 -0.21634865
-0.44373676 0.08936501 1.113809 0.831109 0.5311591 0.34944272 -1.4177592 -0.42415637
0.19754016 -0.115601905 -0.14195429 0.3311325 0.23837307 -1.6698749 0.04962391 0.9973323
0.56796575 0.86972713 0.58286935 -1.5389735 1.0687716 0.40570226 0.29526514 -0.84805614
-0.91064805 -0.4958727 0.11250285 0.9488076 1.1427073 0.42139202 0.35800564 -1.0593365
-1.031786 1.1199915 1.232984 0.6728071 0.24824126 0.6376797 -0.14802073 2.1545372
0.05145154 -0.07442322 2.4324565 1.3564885 -1.2209786 0.9899704 -0.65908235 -0.8705761
-0.16360062 -0.22261779 -0.67798483 -0.12464976 -1.0270714 -0.7621765 -0.7771438 -0.9895516
-0.352395 -0.37953484 -0.47972092 0.20465516 0.16916855 -1.7113109 -0.7476933 -0.6064845
-0.2556844 -1.711545 -0.44323164 0.4370524 -0.60962105 0.22500557 -0.048391856 -1.2135651
1.4165044 1.4171596 0.8850856 -1.2015237 0.7525334 1.7011807 -0.79188627 0.22319783
1.1356851 0.08034405 -0.17799552 0.30113626 -0.3432586 0.79631305 0.57051444 0.27169126
1.121453 0.6376691 1.4183447 0.91023827 1.0172288 0.19580796 -0.304774 -1.1477367
-0.48910826 0.41266996 0.35853627 -1.3922317 -0.18283884 -0.17430827 -0.29281002 0.9151966
-0.46959144 -0.6674351 -0.5811836 1.1244999 0.5374172 -0.48574373 0.0056887344 -0.11874482
-1.1085752 -0.25566077 0.041024096 0.2518922 0.2817459 0.3255824 0.032010898 -0.10919739
1.5837595 -1.1585882 -0.69327986 -0.0100751035 -1.0929998 -0.42419806 -0.03250005 0.1926273
0.1489114 0.9815539 -1.6449044 -1.1175619 -0.412007 -0.35501844 0.068610236 0.50221634
-0.4256365 1.1912147 0.53357357 0.15758936 -0.6347665 -0.054866437 0.5081086 0.89423907
1.160801 1.399673 -0.18248865 0.20817403 0.5234156 -0.76550186 -0.4877759 0.5623705
0.5488483 0.33908936 1.3532034 -0.5801713 -1.4279877 -0.82089543 -0.93637776 0.14625683
0.75389713 0.71901846 0.042723645 0.1798946 0.6024932 -1.4082638 1.165543 0.8437703
-0.92684644 0.70918983 0.2458323 0.2684609 -0.624212 0.13939056 0.029002007 -0.3179244
0.35007215 -0.22265568 0.710524 0.82886624 -1.2718657 -1.2279476 -0.12477855 1.2093282
0.2972377 1.8698087 -0.41042826 -0.6298046 0.7635962 -0.22269459 -0.3968329 -0.5566396
0.50387675 -1.1094046 -0.48352677 0.21871158 -0.8920472 -0.74545354 0.6558682 -0.116920814
-1.68684 1.540305 -0.29365975 0.07261798 0.24660324 -0.017700631 -0.8322891 -1.0555458
0.24342953 1.2957101 -0.043099757 0.8662415 -1.2204114 0.28801736 -0.20779148 -0.77593917
-1.296419 0.10831326 -1.2821442 1.1009687 1.1671263 0.8880296 0.31140673 1.3185443
0.103257164 0.40742517 0.14603698 -0.01656808 0.058643293 0.75833976 0.374897 -1.0338216
0.411713 -0.12453598 0.13682756 -2.1962392 -0.6897194 -0.43268186 -0.03677648 -0.57744116
00000000: 2af6 893f 4bbe c63e c440 463f ee4c d3bd
00000010: 35ec 8cbf db7b 583f 4f3d 18ba 1ff0 cbbe
00000020: cf71 96be 61c9 b73f 8935 71bf 3b97 80be
00000030: d8ca fc3e 7be4 e73e d8e6 173f 808a 5dbe
00000040: 7731 e3be 0105 b73d 4b91 8e3f 8fc3 543f
00000050: 0bfa 073f 28ea b23e 2279 b5bf 062b d9be
00000060: f847 4a3e b1c0 ecbd 775c 11be 338a a93e
00000070: 1218 743e 76be d5bf 7142 4b3d 2b51 7f3f
00000080: 3466 113f 70a6 5e3f ed36 153f 15fd c4bf
00000090: 82cd 883f 35b8 cf3e fe2c 973e 351a 59bf
000000a0: 3b20 69bf 07e3 fdbe e567 e63d 0ee5 723f
000000b0: 3c44 923f b2c0 d73e 844c b73e 5798 87bf
000000c0: 9011 84bf e25b 8f3f 6bd2 9d3f 163d 2c3f
000000d0: f532 7e3e fa3e 233f bf92 17be f0e3 0940
000000e0: dabe 523d 336b 98bd 5ead 1b40 6aa1 ad3f
000000f0: 0749 9cbf b36e 7d3f 9fb9 28bf 13de 5ebf
00000100: ec86 27be ebf5 63be 6a90 2dbf 6048 ffbd
00000110: 1377 83bf 001e 43bf e5f2 46bf 4153 7dbf
00000120: 1e6d b4be 6452 c2be fb9d f5be 1f91 513e
00000130: 853a 2d3e 3c0c dbbf d468 3fbf 9142 1bbf
00000140: 11e9 82be e813 dbbf 42ef e2be 55c5 df3e
00000150: 2010 1cbf dc67 663e 8a36 46bd 1a56 9bbf
00000160: 0450 b53f 7c65 b53f f894 623f 87cb 99bf
00000170: 07a6 403f 4ac0 d93f 0fb9 4abf f98d 643e
00000180: 215e 913f 6c8b a43d 7544 36be 882e 9a3e
00000190: 97bf afbe 2cdb 4b3f 3c0d 123f 1e1b 8b3e
000001a0: c68b 8f3f 483e 233f 528c b53f 6005 693f
000001b0: 8e34 823f e281 483e 560b 9cbe 09e9 92bf
000001c0: 666c fabe 7a49 d33e 1192 b73e a634 b2bf
000001d0: 1b3a 3bbe de7d 32be 32eb 95be 534a 6a3f
000001e0: 4a6e f0be 07dd 2abf 73c8 14bf 9def 8f3f
000001f0: 2c94 093f 67b3 f8be 9068 ba3b 7c30 f3bd
00000200: cbe5 8dbf f8e5 82be e208 283d 04f8 803e
00000210: 0041 903e bdb2 a63e dc1d 033d e2a2 dfbd
00000220: a2b8 ca3f 9e4c 94bf ca7a 31bf 0c12 25bc
00000230: 6be7 8bbf 7d30 d9be c61e 05bd 1740 453e
00000240: 3b7c 183e 1e47 7b3f 3a8c d2bf 450c 8fbf
00000250: 95f2 d2be fac4 b5be 8683 8c3d 4091 003f
00000260: 07ed d9be b979 983f 4798 083f 1b5f 213e
00000270: 0f80 22bf a1bb 60bd 6813 023f daec 643f
00000280: 2195 943f 7c28 b33f 4ede 3abe 932b 553e
00000290: 91fe 053f eef7 43bf c3bd f9be 83f7 0f3f
000002a0: 5281 0c3f 1f9d ad3e c535 ad3f 1b86 14bf
000002b0: 4dc8 b6bf 3426 52bf 74b6 6fbf 5ac4 153e
000002c0: 67ff 403f 9811 383f fdfe 2e3d 4a36 383e
000002d0: ff3c 1a3f fd41 b4bf 8330 953f 5501 583f
000002e0: cf45 6dbf 778d 353f 76bb 7b3e b573 893e
000002f0: 5ccc 1fbf 66bc 0e3e 9e95 ed3c fdc6 a2be
00000300: a83c b33e daff 63be e7e4 353f 9430 543f
00000310: 7fcc a2bf 632d 9dbf e58b ffbd 44cb 9a3f
00000320: 8a2f 983e e455 ef3f a723 d2be e03a 21bf
00000330: 0a7b 433f 0d0a 64be af2d cbbe ef7f 0ebf
00000340: 11fe 003f f800 8ebf d290 f7be eef5 5f3e
00000350: 355d 64bf 0bd6 3ebf fae6 273f 2e74 efbd
00000360: 60ea d7bf b728 c53f 925a 96be bcb8 943d
00000370: 8f85 7c3e ea00 91bc e610 55bf 201c 87bf
00000380: 9745 793e d4d9 a53f 5f89 30bd 01c2 5d3f
00000390: 7136 9cbf 0377 933e 4ac7 54be f3a3 46bf
000003a0: 0ff1 a5bf 58d3 dd3d 4d1d a4bf 8bec 8c3f
000003b0: 6564 953f e855 633f b470 9f3e 0fc6 a83f
000003c0: 7e78 d33d 089a d03e b88a 153e c8b9 87bc
000003d0: f333 703d 8e22 423f 80f2 bf3e 4454 84bf
000003e0: 0ccc d23e b80c ffbd 861c 0c3e 2f8f 0cc0
000003f0: 7391 30bf 7a88 ddbe efa2 16bd 2fd3 13bf

weight f4 [32, 16]
-0.60898644 1.3151498 -0.057757635 -0.5930492 -1.4275892 0.49386513 0.8315402 0.5736844
-0.35008088 0.7857437 0.23942576 0.5142594 0.87422585 -0.21801348 -0.7315071 1.4203383
0.8611469 -0.45075342 1.1257827 1.7933197 -0.4571437 -0.6415915 -0.6949502 -0.112857856
-0.15060315 -0.12733601 -0.30052727 0.29433435 0.26121357 0.42755696 -0.6362782 0.49120295
-0.31884933 -1.524602 -1.7422166 -1.9133441 0.56604195 -1.3231413 0.2637299 -0.48337588
0.113342434 0.79448366 -0.331243 -1.4296871 0.8011877 0.5638298 0.7137535 0.47098657
-0.00079485506 1.0277246 -0.47916633 0.4373566 1.3203655 0.07297405 -0.31009743 1.0775996
0.8124105 0.02776136 -0.9594352 -0.40747136 0.2676377 -0.40757895 0.595384 -0.5922867
0.67396444 0.28794193 -0.68634075 -0.28795 -0.16037945 -0.7484183 0.22341359 0.8762135
2.2388856 0.25175345 -0.78508013 -0.35374483 -0.41547498 -1.443896 0.009081781 0.9149936
-0.6360442 -0.7260129 0.52139914 -0.7081794 -1.7533644 0.3792135 0.76754826 -0.17315583
-1.4250532 -0.8313109 0.8067231 -0.26129517 -1.3555562 -0.35108122 -0.23818071 -0.106500156
-0.2947112 -0.57723707 0.35020748 0.53298455 0.41289166 0.43521097 0.65098566 -0.088542365
0.13353747 0.90298295 0.29309276 1.4177781 0.9769736 0.009871025 1.2201598 -1.526127
0.7110101 -0.8615259 -1.6792475 -2.0321016 -0.06527044 -0.315526 0.6254724 0.26290822
-1.5809486 1.1287972 -0.663206 1.0745466 -0.55518687 0.37344584 -0.44478375 -0.566431
-0.5512121 0.60560745 -0.55950254 0.14886919 -1.3102297 1.3063017 -1.0938351 0.9371369
-1.390615 -0.092283376 -0.8005962 0.4708186 0.9020995 -0.32049116 -0.4149542 -0.035252247
0.18671696 -0.49970773 -1.7187563 -0.19327284 -0.8697914 0.9484846 -0.5121199 -0.61484075
0.73418474 0.80978745 -0.50057584 -0.44959775 0.13616768 -0.78324884 0.42247632 -0.7758365
0.5004119 -0.16801414 1.4119029 0.23970097 -0.41663575 -0.03664407 -0.22676754 0.26343775
-0.3283998 -1.2750212 -1.0332336 -0.8947879 0.32530862 -0.90970445 0.008569841 0.13040674
-0.013925819 -0.4274702 -0.6143026 -0.43383276 -1.5468662 -0.03403995 -0.87649685 1.3837439
0.89397997 0.1578211 -1.634794 0.81654274 -0.68497705 -0.62628657 0.023584645 -1.6487993
0.2793846 0.36594996 -0.5849156 0.25347853 0.99545026 -0.72734636 -0.8324831 -0.58365965
1.0218138 -1.039014 -0.12658215 -0.275409 -0.1715161 0.5160576 0.050364625 1.6373909
-0.04911209 -1.1088747 -0.30742317 0.64155924 -0.36590394 -1.8451984 1.0861768 0.63898504
0.29289728 0.64236057 0.79298145 -0.7963279 -1.1956196 -0.32704714 0.16413805 0.19235283
-0.08496927 0.685073 -0.23453556 -0.0860822 -0.09244572 -1.1492674 -0.5037306 0.53511864
0.7671385 -1.0010574 -1.4998447 0.29194322 0.050597712 1.5496972 1.3035855 -0.10760167
-0.054065123 0.09962811 0.73244447 0.29149976 -0.13754794 -1.0467974 -1.5285456 -1.1658276
0.57101613 1.5619605 -0.7959317 0.448997 0.011993059 0.08591363 1.356618 -0.035766024
00000000: 89e6 1bbf d456 a83f 4593 6cbd 13d2 17bf
00000010: 3ebb b6bf e4db fc3e d2df 543f fbdc 123f
00000020: cd3d b3be 8026 493f 072c 753e 81a6 033f
00000030: 44cd 5f3f ed3e 5fbe 0d44 3bbf a5cd b53f
00000040: 2074 5c3f 27c9 e6be a619 903f 808b e53f
00000050: bd0e eabe 573f 24bf 42e8 31bf 0522 e7bd
00000060: b637 1abe 5f64 02be b6de 99be feb2 963e
00000070: c9bd 853e bfe8 da3e 21e3 22bf f47e fb3e
00000080: 3840 a3be 2926 c3bf f400 dfbf 76e8 f4bf
00000090: 20e8 103f b25c a9bf 9b07 873e 0b7d f7be
000000a0: 1420 e83d 4863 4b3f af98 a9be fdff b6bf
000000b0: a31a 4d3f 2657 103f 8db8 363f 2725 f13e
000000c0: d25d 50ba 7b8c 833f 4a55 f5be 34ed df3e
000000d0: bd01 a93f 6b73 953d 17c5 9ebe c9ee 893f
000000e0: 22fa 4f3f cb6b e33c 8c9d 75bf 16a0 d0be
000000f0: cf07 893e 30ae d0be 166b 183f 1aa0 17bf
00000100: ef88 2c3f 206d 933e 07b4 2fbf 2f6e 93be
00000110: 833a 24be 5798 3fbf 88c6 643e 874f 603f
00000120: e749 0f40 d4e5 803e 03fb 48bf 0b1e b5be
00000130: 23b9 d4be 96d1 b8bf c0cb 143c 053d 6a3f
00000140: cbd3 22bf fbdb 39bf 6a7a 053f 3f4b 35bf
00000150: 3f6e e0bf 4628 c23e 0b7e 443f c34f 31be
00000160: 2568 b6bf cbd0 54bf 6885 4e3f 7bc8 85be
00000170: de82 adbf ebc0 b3be a5e5 73be c11c dabd
00000180: 63e4 96be cfc5 13bf 654e b33e ad71 083f
00000190: 8966 d33e f9d3 de3e ffa6 263f b355 b5bd
000001a0: 0cbe 083e e429 673f 4110 963e c179 b53f
000001b0: f11a 7a3f 14ba 213c 322e 9c3f 2158 c3bf
000001c0: c204 363f f68c 5cbf 95f1 d6bf f40d 02c0
000001d0: 82ac 85bd a08c a1be f61e 203f e89b 863e
000001e0: 865c cabf 6d7c 903f dec7 29bf be8a 893f
000001f0: ba20 0ebf 4b34 bf3e b2ba e3be 9f01 11bf
00000200: 3c1c 0dbf 1709 1b3f 8f3b 0fbf 2a71 183e
00000210: 9bb5 a7bf e534 a73f ca02 8cbf 34e8 6f3f
00000220: acff b1bf 11ff bcbd dff3 4cbf 230f f13e
00000230: feef 663f 6b17 a4be e074 d4be a964 10bd
00000240: bb32 3f3e b1d9 ffbe 3500 dcbf 51e9 45be
00000250: a6aa 5ebf e3cf 723f 4a1a 03bf 3466 1dbf
00000260: 88f3 3b3f 3b4e 4f3f bd25 00bf ad31 e6be
00000270: 8a6f 0b3e ff82 48bf d14e d83e 399d 46bf
00000280: ff1a 003f e60b 2cbe 3cb9 b43f 2c74 753e
00000290: 4851 d5be 1818 16bd c035 68be 50e1 863e
000002a0: 0524 a8be e533 a3bf 0041 84bf d210 65bf
000002b0: da8e a63e 64e2 68bf 8568 0c3c 5889 053e
000002c0: 1e29 64bc 60dd dabe ef42 1dbf 541f debe
000002d0: b6ff c5bf 7a6d 0bbd 1962 60bf 851e b13f
000002e0: dfdb 643f db9b 213e ee40 d1bf f208 513f
000002f0: a85a 2fbf 5154 20bf 9634 c13c db0b d3bf
00000300: 800b 8f3e cb5d bb3e 07bd 15bf f0c7 813e
00000310: d4d5 7e3f 5f33 3abf 9d1d 55bf b86a 15bf
00000320: cbca 823f 69fe 84bf c09e 01be 6902 8dbe
00000330: eba1 2fbe 5a1c 043f 234b 4e3d 0696 d13f
00000340: c229 49bd 9bef 8dbf 9266 9dbe 3a3d 243f
00000350: c357 bbbe 762f ecbf d707 8b3f 8694 233f
00000360: a2f6 953e be71 243f d500 4b3f 25dc 4bbf
00000370: 100a 99bf b972 a7be ce13 283e 24f8 443e
00000380: 5e04 aebd f260 2f3f 172a 70be dd4b b0bd
00000390: 2f54 bdbd 321b 93bf 7df4 00bf 89fd 083f
000003a0: 3063 443f a622 80bf e9fa bfbf 9579 953e
000003b0: 8c3f 4f3d 7a5c c63f e4db a63f 445e dcbd
000003c0: 6473 5dbd d309 cc3d 7b81 3b3f 753f 953e
000003d0: 5ed9 0cbe 75fd 85bf 62a7 c3bf d739 95bf
000003e0: 1d2e 123f 52ee c73f 2ec2 4bbf efe2 e53e
000003f0: 897e 443c 7cf3 af3d a9a5 ad3f 657f 12bd

weight f4 [32]
1.0304948 1.3546648 0.6398317 1.2598399 1.0926193 1.3674858 1.5175835 1.3800765
0.77747864 0.926869 0.6089253 0.7983827 1.3617359 1.3720183 1.0548502 0.72390723
1.1972066 0.99711674 1.168915 1.2140145 1.0715426 1.4768519 1.026038 1.1253484
1.1275864 1.2392623 1.3898847 1.0732051 1.498208 1.2233541 0.902917 1.1622795
00000000: 41e7 833f a865 ad3f 03cc 233f 6f42 a13f
00000010: f3da 8b3f c609 af3f 2d40 c23f 59a6 b03f
00000020: d708 473f 4947 6d3f 87e2 1b3f cf62 4c3f
00000030: 5d4d ae3f 4c9e af3f 5505 873f fc51 393f
00000040: 113e 993f 0b43 7f3f 029f 953f d464 9b3f
00000050: 4f28 893f 7c09 bd3f 3755 833f 6b0b 903f
00000060: c054 903f 26a0 9e3f bee7 b13f c95e 893f
00000070: 48c5 bf3f de96 9c3f 9225 673f 93c5 943f

bias f4 [32]
0.072691515 0.19328263 -0.271025 -0.19634238 -0.08313118 -0.2512949 -0.08326947 -0.026909225
0.18646653 0.24152867 0.13093054 -0.29313198 0.28363585 -0.24683069 -0.36599392 0.20472759
-0.20562144 0.19211955 -0.43575135 0.28425723 0.023750097 0.22654448 0.6095067 0.29764175
-0.3207285 -0.22343372 -0.3929771 -0.067819685 0.0017238733 0.27316937 0.013977554 0.2032812
00000000: 4adf 943d e2eb 453e cac3 8abe fa0d 49be
00000010: ae40 aabd baa9 80be 2f89 aabd bc70 dcbc
00000020: 15f1 3e3e 4b53 773e a812 063e 6515 96be
00000030: b838 913e 2fc1 7cbe 8e63 bbbe 1ca4 513e
00000040: 6d8e 52be fdba 443e cd1a dfbe 2a8a 913e
00000050: 908f c23c 47fb 673e a208 1c3f 8064 983e
00000060: 8736 a4be cfcb 64be 4b34 c9be 0ce5 8abd
00000070: 97f3 e13a dbdc 8b3e 1c02 653c f228 503e

running_mean f4 [32]
0.1789478 -0.21662025 0.4885563 -0.30919185 -0.2780105 0.06961731 -0.24807918 0.5755377
-0.18301028 -0.42209262 0.34454647 0.4194156 0.005583259 0.17222932 -0.30649862 -0.21822982
0.26452848 -0.15642005 0.6897089 -0.5470452 0.45567945 -0.46613762 0.10060297 0.40483692
-0.36573464 -0.21671942 0.9963033 0.67515904 0.26928934 -0.7778832 0.3753245 0.40837073
00000000: 183e 373e b3d1 5dbe 0d24 fa3e 654e 9ebe
00000010: 6457 8ebe 8593 8e3d 7808 7ebe 7056 133f
00000020: 0c67 3bbe 861c d8be 6568 b03e a4bd d63e
00000030: c5f3 b63b e25c 303e 63ed 9cbe a377 5fbe
00000040: 4770 873e 942c 20be c390 303f 270b 0cbf
00000050: d14e e93e 97a9 eebe ee08 ce3d c946 cf3e
00000060: 9241 bbbe b2eb 5dbe bc0d 7f3f 39d7 2c3f
00000070: 4be0 893e 5a23 47bf 882a c03e f815 d13e

running_var f4 [32]
3.9093914 3.6448197 3.6853082 6.0349913 9.633438 6.1768217 7.294741 5.4190993
6.99954 2.8785472 2.338964 6.3202486 3.2242954 2.304763 3.2603204 4.0421886
7.7135096 2.5460496 4.826374 4.0353675 4.761644 3.4433136 2.2463653 3.414055
4.8787966 2.5327256 6.4444942 3.3542428 3.4579175 3.623955 8.1527 4.594859
00000000: 7833 7a40 ba44 6940 17dc 6b40 a61e c140
00000010: 9022 1a41 86a8 c540 856e e940 4369 ad40
00000020: 3bfc df40 1e3a 3840 96b1 1540 7a3f ca40
00000030: db5a 4e40 3d81 1340 17a9 5040 9c59 8140
00000040: 12d5 f640 7af2 2240 a871 9a40 bb21 8140
00000050: 635f 9840 405f 5c40 73c4 0f40 e17f 5a40
00000060: 1a1f 9c40 2d18 2240 4c39 ce40 eaab 5640
00000070: 854e 5d40 e1ee 6740 7671 0241 1609 9340

weight f4 [32]
1.0013733 1.1287605 0.98317295 0.50382733 0.8171826 0.96966165 1.4881804 1.4113984
1.323525 1.1958824 1.1588941 1.1487299 0.75135106 1.0306222 0.8305779 1.3048837
0.7557804 0.9197953 0.9047175 0.6646361 1.0291984 0.7679176 0.73090345 1.278684
0.97238016 1.3260099 1.22088 1.332121 1.0010967 1.2029853 1.3675058 0.56002426
00000000: 002d 803f 397b 903f 39b1 7b3f d4fa 003f
00000010: e132 513f bf3b 783f b27c be3f b4a8 b43f
00000020: 4469 a93f ad12 993f a456 943f 9509 933f
00000030: 8b58 403f 6eeb 833f c1a0 543f 6e06 a73f
00000040: d37a 413f b477 6b3f 919b 673f 9725 2a3f
00000050: c6bc 833f 3f96 443f 7d1c 3b3f ebab a33f
00000060: e8ed 783f b1ba a93f cc45 9c3f f182 aa3f
00000070: f023 803f 6cfb 993f 6e0a af3f c05d 0f3f

bias f4 [32]
-0.02735804 -0.06775712 0.26186186 -0.29354888 0.361427 -0.1429876 -0.37153417 0.23680285
-0.1314387 0.1488357 0.45435664 0.18338975 0.5480487 0.4747409 -0.10461609 0.3410482
0.22046229 0.23970869 0.3016358 -0.33778292 0.2990538 0.089148484 0.47591662 0.47638932
0.3000641 0.03803153 -0.45543998 0.12034536 -0.19763039 0.15638934 -0.104579054 0.24584529
00000000: f81d e0bc 3fc4 8abd c212 863e 0a4c 96be
00000010: f60c b93e 576b 12be ba39 bebe 727c 723e
00000020: de97 06be 6368 183e 6fa1 e83e 86ca 3b3e
00000030: eb4c 0c3f 3d11 f33e f640 d6bd df9d ae3e
00000040: dec0 613e 3276 753e 0270 9a3e e2f1 acbe
00000050: 941d 993e 7b93 b63d 58ab f33e 4de9 f33e
00000060: 00a2 993e f3c6 1b3d 6e2f e9be a177 f63d
00000070: 9f5f 4abe 8724 203e 8b2d d6bd debe 7b3e

running_mean f4 [32]
-0.008214318 0.0010825645 -0.03660766 0.03300515 0.28989926 -0.08343301 -0.14323114 0.29385936
0.10734549 0.45619687 -0.10142805 0.3080744 -0.0017134096 -0.09942126 -0.38553357 -0.085487
0.1463917 0.13859393 0.15538512 0.17729618 -0.2613781 0.04628277 -0.059812516 0.076071255
0.03029206 -0.12878342 0.2789525 0.09870329 -0.084926136 -0.3131732 -0.20045164 0.028273974
00000000: 5995 06bc d6e4 8d3a eaf1 15bd 6830 073d
00000010: ad6d 943e edde aabd 2fab 12be bc74 963e
00000020: f4d7 db3d a392 e93e 82b9 cfbd eebb 9d3e
00000030: 7c94 e0ba 609d cbbd a864 c5be cf13 afbd
00000040: b5e7 153e 91eb 0d3e 471d 1f3e 218d 353e
00000050: 5ad3 85be 0093 3d3d f8fd 74bd 3fcb 9b3d
00000060: 0e27 f83c cddf 03be ddd2 8e3e f324 ca3d
00000070: c1ed adbd 3d58 a0be 3243 4dbe d29e e73c

running_var f4 [32]
3.0083685 2.8662004 3.1865757 2.5928142 1.893105 4.747658 1.8384771 7.2807803
3.14315 1.7983953 2.465086 2.0521705 5.167556 2.115593 5.451725 3.0458822
2.3281152 2.4756181 1.445313 3.1802287 3.0607514 2.7231581 1.7841707 4.2518873
3.6530895 1.7677897 3.5982525 2.74588 5.6200786 4.918049 3.3002338 2.218533
00000000: 1c89 4040 d46f 3740 dbf0 4b40 abf0 2540
00000010: 4451 f23f d0ec 9740 3853 eb3f 27fc e840
00000020: 5f29 4940 d131 e63f f8c3 1d40 c356 0340
00000030: 9e5c a540 e065 0740 8874 ae40 bcef 4240
00000040: d7ff 1440 8770 1e40 0400 b93f de88 4b40
00000050: 5ae3 4340 3948 2e40 b55f e43f 760f 8840
00000060: 38cc 6940 ef46 e23f c549 6640 7fbc 2f40
00000070: afd7 b340 a860 9d40 0837 5340 72fc 0d40

weight f4 [32, 16]
-0.092182875 0.17913519 -0.50421697 -0.16266976 -1.0466864 -0.6919076 -0.29856855 -1.8099952
-0.2679662 -0.25217387 -0.9717029 0.087547265 -1.2351942 0.6848478 0.5410643 0.799535
-0.26388747 -0.60106736 -1.2001307 0.4400126 0.3383748 0.455326 -1.4721167 -0.5031645
0.16626823 -1.5238944 -1.4145445 0.4928785 -0.15730311 0.6548507 0.31912267 -1.0770975
-0.83689445 1.573192 -0.85214007 -0.17188075 0.49861732 0.37996262 -0.737371 -1.4379357
-0.0023280007 -0.8718568 -0.18329327 0.48374808 -0.6509715 0.8654067 0.17341518 -1.5900147
-1.2569169 -0.5880973 0.8564777 0.68632406 0.48846546 -0.83686644 -0.47873455 -1.4103624
0.60047305 -0.13829415 -0.16122532 0.076111 1.3614774 -0.55213904 1.1677834 -0.5209702
-1.9318976 0.35240012 -0.020135287 -0.06290736 1.2035253 -0.108742915 0.022375578 -0.6953128
-0.98118997 0.4922256 0.10885271 -0.4049719 -0.49435818 -1.1106201 0.42242718 0.8096633
1.3540438 -0.19530277 -0.8168524 -0.1689685 0.271574 0.084905446 0.4514903 0.1394794
0.5816487 -0.22092319 1.0278795 0.43323633 0.018140621 -1.4222221 0.5416829 0.44291258
0.6111868 -0.52923614 0.114683725 1.3272194 -1.2048422 -0.29823637 -0.19811304 0.03471922
1.9352176 0.23453607 0.44975802 0.044853576 -0.034123402 0.18784682 -1.0947765 -0.08951114
-0.17233852 -1.1809528 0.4448739 0.6048826 -0.8111305 0.1148 -0.1728463 -0.6738658
-0.54066277 0.31500214 0.3799869 1.046787 0.34127715 0.21201959 0.060480453 -0.92695695
-0.42005402 -0.19437379 -1.7099502 0.78860146 1.5741532 0.5628263 -0.7042035 -0.76941586
-0.5350146 -1.3035475 0.5076375 1.268454 1.1396934 -0.11284549 0.7442983 0.6494471
-0.044711493 -0.65513176 1.1810288 -0.32945463 -0.7065141 -0.7632654 0.7670141 -0.13985522
0.089165546 -0.0988155 0.21391803 -0.89504933 0.35453662 -0.15456636 -1.7956098 0.42114228
1.883552 -0.29115865 0.049478833 0.3312575 0.41611016 -0.29694805 0.7263907 0.4146815
0.7387138 0.7478623 -0.89370364 1.2557615 -0.0041619954 1.7266752 0.55557 -0.6359926
-0.23453629 -1.0560511 0.19537319 -0.7274252 -0.28650463 0.18181105 1.4047205 -0.325889
0.18389527 0.19033638 0.11172495 -0.18350382 -0.2530606 -0.22415866 0.4411233 -0.044123393
0.07260178 0.5011282 -0.19782776 1.0847327 0.58384764 0.30094054 -0.44482908 -0.7869911
1.0761122 1.468637 -0.31647167 -0.7100705 1.6692609 -1.8075294 -0.044522878 -1.1238935
-0.8832856 -0.48625705 0.42843467 -0.08561339 -0.15519892 0.079169974 -0.075579576 0.7906052
0.920746 -1.0312135 0.5330104 0.9134831 -1.2504698 0.60697156 -1.0781645 0.5302629
-0.122818425 -0.72735447 -1.3510815 0.29932773 0.92988175 0.9565743 1.352591 0.24809729
0.6925185 -0.48943648 -0.17020994 0.7534753 0.025264971 0.35356337 1.3516902 0.17080222
0.3280401 -0.009608501 0.6645447 1.0282621 0.65285254 -0.9991037 -0.7382292 -0.45867077
0.41803116 0.18275526 -0.46126717 -1.1783487 0.028853288 0.71086174 0.13550974 0.55170375
00000000: 60ca bcbd 376f 373e 5d14 01bf e792 26be
00000010: d2f9 85bf db20 31bf fadd 98be ecad e7bf
00000020: de32 89be ef1c 81be 85c1 78bf fb4b b33d
00000030: d81a 9ebf 2f52 2f3f 3183 0a3f 53ae 4c3f
00000040: 421c 87be 8ddf 19bf e29d 99bf 5549 e13e
00000050: 763f ad3e 7d20 e93e 526e bcbf 64cf 00bf
00000060: 3842 2a3e f90e c3bf cb0f b5bf 925a fc3e
00000070: 1114 21be 4ca4 273f 0c64 a33e 55de 89bf
00000080: b73e 56bf 5b5e c93f da25 5abf 8201 30be
00000090: c54a ff3e 768a c23e 59c4 3cbf 470e b8bf
000000a0: 5f91 18bb 0232 5fbf 3bb1 3bbe d4ad f73e
000000b0: 11a6 26bf 4b8b 5d3f c093 313e 9a85 cbbf
000000c0: a7e2 a0bf 8b8d 16bf 1f42 5b3f efb2 2f3f
000000d0: 2518 fa3e e13c 56bf b21c f5be c186 b4bf
000000e0: 9ab8 193f fb9c 0dbe 4018 25be 15e0 9b3d
000000f0: e444 ae3f fc58 0dbf ed79 953f 4e5e 05bf
00000100: 6c48 f7bf ca6d b43e c2f2 a4bc 93d5 80bd
00000110: 1e0d 9a3f 9bb4 debd fd4c b73c 0500 32bf
00000120: 442f 7bbf fe04 fc3e 2bee de3d 7a58 cfbe
00000130: 841c fdbe cd28 8ebf 6048 d83e 1846 4f3f
00000140: 4f51 ad3f 73fd 47be 3d1d 51bf 1406 2dbe
00000150: bf0b 8b3e e8e2 ad3d bd29 e73e b0d3 0e3e
00000160: eee6 143f b039 62be 8e91 833f 27d1 dd3e
00000170: a49b 943c 600b b6bf bbab 0a3f 70c5 e23e
00000180: bd76 1c3f 057c 07bf 4ddf ea3d 53e2 a93f
00000190: 4538 9abf 70b2 98be 25de 4abe be35 0e3d
000001a0: 36b5 f73f 392a 703e af46 e63e 62b8 373d
000001b0: fbc4 0bbd eb5a 403e a321 8cbf 9e51 b7bd
000001c0: 8279 30be 7629 97bf 83c6 e33e 96d9 1a3f
000001d0: 40a6 4fbf 431c eb3d 9ffe 30be 7882 2cbf
000001e0: e068 0abf f647 a13e a58d c23e 1efd 853f
000001f0: e1bb ae3e aa1b 593e 5aba 773d 0d4d 6dbf
00000200: 5211 d7be ec09 47be a6df dabf c9e1 493f
00000210: da7d c93f 6215 103f ae46 34bf 70f8 44bf
00000220: b8f6 08bf a5da a6bf 88f4 013f b35c a23f
00000230: 79e1 913f 891b e7bd 558a 3e3f 2a42 263f
00000240: 6623 37bd b7b6 27bf f42b 973f 47ae a8be
00000250: 1cde 34bf 5c65 43bf 095b 443f 3536 0fbe
00000260: 6d9c b63d c85f cabd 540d 5b3e f421 65bf
00000270: d385 b53e a546 1ebe 8bd6 e5bf f69f d73e
00000280: 3b18 f13f bf12 95be 51aa 4a3d 959a a93e
00000290: 640c d53e 9309 98be bef4 393f 2251 d43e
000002a0: 591c 3d3f e773 3f3f c3c9 64bf cbbc a03f
000002b0: 5961 88bb b103 dd3f d639 0e3f 69d0 22bf
000002c0: 482a 70be af2c 87bf e90f 483e 8a38 3abf
000002d0: bcb0 92be ad2c 3a3e e2cd b33f ecda a6be
000002e0: 0b4f 3c3e 8ae7 423e 0dd0 e43d 6de8 3bbe
000002f0: 2991 81be d989 65be eada e13e bbba 34bd
00000300: 3eb0 943d f049 003f 5c93 4abe 85d8 8a3f
00000310: 0a77 153f e114 9a3e a3c0 e3be 4078 49bf
00000320: 0bbe 893f 4cfc bb3f 9308 a2be 2ec7 35bf
00000330: 57aa d53f 205d e7bf 9f5d 36bd bedb 8fbf
00000340: 011f 62bf aff6 f8be ca5b db3e 1356 afbd
00000350: 77ec 1ebe de23 a23d 77c9 9abd 1a65 4a3f
00000360: 03b6 6b3f cefe 83bf 5f73 083f 07da 693f
00000370: 650f a0bf 7d62 1b3f 4b01 8abf 4fbf 073f
00000380: 3a88 fbbd e733 3abf 3df0 acbf 7c41 993e
00000390: bb0c 6e3f 0ee2 743f b421 ad3f 370d 7e3e
000003a0: e448 313f 6b97 fabe 844b 2ebe c2e3 403f
000003b0: 7cf8 ce3c 4206 b53e 2f04 ad3f c7e6 2e3e
000003c0: dff4 a73e f96c 1dbc 9a1f 2a3f 189e 833f
000003d0: 5821 273f 43c5 7fbf 97fc 3cbf e5d6 eabe
000003e0: 2e08 d63e 3224 3b3e 362b ecbe 21d4 96bf
000003f0: bb5d ec3c 09fb 353f 11c3 0a3e 753c 0d3f

weight f4 [32]
1.2121292 0.7317317 0.5937899 0.70895517 0.718444 0.92019945 1.3751955 1.3449595
0.55918866 1.3907552 0.79661137 0.7800985 1.4993725 1.2325908 1.0816225 0.85272413
1.3290489 1.5113144 0.61100125 0.80395293 0.9466318 1.2898896 1.4404323 0.8326757
1.3167365 1.2581006 0.7884018 0.6057528 0.84018713 0.6775129 1.0835507 0.9559035
00000000: 0d27 9b3f c552 3b3f 9d02 183f 167e 353f
00000010: f2eb 373f 3192 6b3f 6806 b03f a227 ac3f
00000020: fd26 0f3f 4404 b23f b9ee 4b3f 89b4 473f
00000030: 70eb bf3f 89c5 9d3f 9b72 8a3f 214c 5a3f
00000040: 461e aa3f c072 c13f 946a 1c3f dccf 4d3f
00000050: 7656 723f 1a1b a53f 1660 b83f 3c2a 553f
00000060: d28a a83f 7109 a13f b3d4 493f 9e12 1b3f
00000070: 8116 573f 7c71 2d3f cab1 8a3f 17b6 743f

bias f4 [32]
0.28193572 0.10260249 -0.042411078 -0.18703169 -0.06198841 -0.16843195 0.25617334 -0.44200778
0.030813372 -0.2628469 0.47061917 0.28061646 -0.16375586 -0.21981238 -0.33028814 -0.21109635
-0.00010704248 -0.554815 -0.37139103 -0.25971553 -0.2748162 -0.33825287 0.047897547 0.256766
-0.41586128 0.20056489 -0.016563414 0.20452665 0.5223805 0.31241715 0.316899 -0.07931441
00000000: e159 903e 4121 d23d 3db7 2dbd 3c85 3fbe
00000010: 8fe7 7dbd 6d79 2cbe 2729 833e d84e e2be
00000020: 536c fc3c de93 86be fff4 f03e f6ac 8f3e
00000030: 9eaf 27be 7f16 61be 871b a9be a429 58be
00000040: fe7b e0b8 5b08 0ebf f726 bebe 6ff9 84be
00000050: b5b4 8cbe 7b2f adbe 3830 443d d576 833e
00000060: c5eb d4be e260 4d3e ffaf 87bc 6f6f 513e
00000070: baba 053f 24f5 9f3e 9640 a23e 986f a2bd

running_mean f4 [32]
-0.3190543 -0.18627372 -0.5145693 -0.3322333 -0.17389677 0.11008835 0.20214705 0.09539479
0.13534556 0.19368397 0.02259159 -0.11836067 -0.07232537 0.12903297 -0.1276161 -0.12734489
-0.043483537 -0.36178216 0.30247843 -0.25247425 0.23465022 -0.030946894 0.11826269 -0.102446504
0.15269205 0.0052284743 -0.17354164 0.30887708 0.025934193 -0.25122976 0.179006 -0.053252343
00000000: 165b a3be 8abe 3ebe d0ba 03bf 7c1a aabe
00000010: ff11 32be 0076 e13d a3ff 4e3e 585e c33d
00000020: 0798 0a3e 1755 463e 0012 b93c 1467 f2bd
00000030: 531f 94bd 3821 043e cbad 02be b366 02be
00000040: cb1b 32bd 833b b9be 74de 9a3e 4e44 81be
00000050: 2648 703e 5784 fdbc b633 f23d 79cf d1bd
00000060: 4e5b 1c3e 9f53 ab3b e6b4 31be 2325 9e3e
00000070: f273 d43c 30a1 80be 594d 373e 211f 5abd

running_var f4 [32]
3.6441758 1.9438918 3.9409075 3.811841 3.695611 1.5133226 1.7793698 1.5487409
4.8333254 3.1718824 4.191915 3.5394228 3.9467897 1.6706904 2.187526 5.8855863
2.6657684 3.725772 4.8688507 2.8904543 2.1841123 1.8576585 1.6976031 1.6452812
3.0732002 1.6515598 6.578308 1.0241783 2.8618832 2.2194777 2.202029 3.3098404
00000000: 2d3a 6940 72d1 f83f d437 7c40 34f5 7340
00000010: e484 6c40 8eb4 c13f 64c2 e33f 243d c63f
00000020: 9aaa 9a40 1f00 4b40 2b24 8640 e785 6240
00000030: 3498 7c40 2fd9 d53f 6d00 0c40 b956 bc40
00000040: f39b 2a40 0c73 6e40 a0cd 9b40 34fd 3840
00000050: 7fc8 0b40 c1c7 ed3f 0f4b d93f 9398 d23f
00000060: 50af 4440 5066 d33f 8081 d240 4618 833f
00000070: 1829 3740 ec0b 0e40 0bee 0c40 6dd4 5340

weight f4 [32, 16]
0.04649097 0.19772032 -0.7634405 0.21305744 0.7142487 -0.08415665 -0.07413197 0.6481531
-0.36970213 0.34313717 -0.86343926 1.4458592 -0.4736363 0.0907715 0.05690782 0.2635241
-0.03282874 -0.51806337 -0.27986574 0.008905138 -0.12057431 -0.49977118 -0.6099418 -0.83245885
0.22909757 -0.7033737 -0.8894892 -1.2125089 0.22428748 -0.7975057 0.43149242 -0.939941
-0.46230215 -0.18003842 0.11048493 0.38539365 -0.23314795 0.40044883 -0.6515779 -0.4852607
-0.012203504 0.27558303 -0.28846276 0.23849835 0.5346606 0.8330409 -0.2660416 -0.08399389
-0.2977558 -1.2082428 0.2401427 -0.74588513 0.1528229 1.3288119 0.16295575 -0.6934173
0.74064595 -2.0214949 -0.5588564 0.050083384 -0.9842154 -0.85256445 1.4440613 0.5776047
-0.20283015 0.975293 1.1894886 0.71780515 -0.9233267 0.13197494 -0.75037014 1.4079869
-0.09993613 0.052304033 0.724885 0.020830493 -0.12022985 -1.0299064 0.33013144 -0.4618243
0.29171994 0.351183 1.704462 -0.63410354 -0.3009121 0.029148715 -0.38447568 0.7003122
-0.6652928 0.8936105 0.32878786 -0.99823123 0.7557741 1.9987946 -0.27732286 0.8177302
-0.99615794 0.6728537 -0.62734824 0.008135804 0.6014706 0.6607857 0.2746957 1.9359097
1.4133143 -0.39300397 0.14750734 -1.5814095 -0.8110007 0.6840142 0.47635177 0.06781487
0.5819973 1.4650099 0.27633047 0.5396574 -0.2913137 -0.98092043 -0.38765398 -0.24742149
1.2774628 -0.7161727 0.55253077 0.057350487 0.8896481 -0.70989716 -0.9090342 -0.66530025
0.36369452 0.3789598 0.20054647 0.37949023 -0.10809926 -0.18861765 0.57087046 -0.27803987
0.3969609 0.77457565 0.26950628 0.18452094 0.29921797 -1.423916 0.20923363 0.20153739
0.093160115 -0.48970258 -0.46882182 0.43278 0.35912576 0.09216796 1.380104 2.037708
-0.40568668 0.8847598 -0.57102793 -0.057005167 -0.09387595 0.097858556 0.026940031 0.2094946
0.013937564 0.54957765 -0.36158246 -0.73702455 -0.3124145 -0.6005899 0.027777307 0.586912
0.19846854 -1.1954116 0.73397416 0.2540867 -0.5076532 1.0345955 0.6780978 0.066222176
-0.008203771 0.39697844 -0.5250652 -1.1534741 0.7960291 -0.9360135 0.09770065 -1.2024249
-0.30368766 1.1569593 -0.010488328 -0.40456882 0.647936 -0.47120032 -0.42181718 -0.22256747
-1.8338567 0.7755719 0.18846883 0.8822907 -0.6500512 0.3151765 -0.70765567 1.8544399
-0.28656322 0.6859229 0.5896692 0.16749144 0.9047897 -1.0412897 0.101143554 -0.00019536483
0.43587935 0.8414285 0.08555592 0.06683219 0.017875923 -1.6356059 -0.14664222 -0.9026757
0.57878804 -1.241276 -0.42189056 -0.66700804 -0.03536499 -1.1559191 -0.4619494 0.2358366
-0.45708063 1.046873 0.48578933 1.0032034 -0.3584014 -0.38316995 -0.93013954 -0.15234783
-0.030331824 0.037837997 0.15030207 -0.6016821 -1.7593325 -0.66896784 -0.08550902 0.3706194
0.82043236 0.4530206 0.2951477 -0.5625289 0.6488247 1.9355043 -0.13778345 -0.155255
-0.35938686 0.40447554 -0.17201394 -0.65365374 0.45675153 -1.1316488 0.27197516 0.23020305
00000000: 516d 3e3d 3277 4a3e d670 43bf bb2b 5a3e
00000010: 01d9 363f 525a acbd 81d2 97bd 5ded 253f
00000020: 9949 bdbe adaf af3e 5b0a 5dbf ea11 b93f
00000030: 7580 f2be 68e6 b93d 2d18 693d a1ec 863e
00000040: 6e77 06bd cd9f 04bf 904a 8fbe dbe6 113c
00000050: aaef f6bd 02e2 ffbe 2525 1cbf 061c 55bf
00000060: 8e98 6a3e 4c10 34bf 90b5 63bf 7e33 9bbf
00000070: 9eab 653e 5529 4cbf 93ec dc3e f99f 70bf
00000080: deb2 ecbe fe5b 38be ec45 e23d 5152 c53e
00000090: 56be 6ebe a107 cd3e cfcd 26bf 1774 f8be
000000a0: 35f1 47bc 3819 8d3e 64b1 93be e938 743e
000000b0: 84df 083f 2b42 553f 9b36 88be fd04 acbd
000000c0: 7373 98be b3a7 9abf f8e7 753e 54f2 3ebf
000000d0: 9b7d 1c3e 8216 aa3f dfdd 263e cc83 31bf
000000e0: f99a 3d3f 2c60 01c0 3711 0fbf 3c24 4d3d
000000f0: 8af5 7bbf aa41 5abf 00d7 b83f e7dd 133f
00000100: b5b2 4fbe cdac 793f 2a41 983f 14c2 373f
00000110: 235f 6cbf 7024 073e 4218 40bf ea38 b43f
00000120: 50ab ccbd c13c 563d 1092 393f b6a4 aa3c
00000130: 113b f6bd f9d3 83bf fd06 a93e 3c74 ecbe
00000140: 515c 953e 42ce b33e d02b da3f 9c54 22bf
00000150: 2711 9abe 49c9 ee3c ffd9 c4be a947 333f
00000160: a150 2abf a8c3 643f e256 a83e 158c 7fbf
00000170: 697a 413f 80d8 ff3f 43fd 8dbe c456 513f
00000180: 3504 7fbf 2440 2c3f e599 20bf 094c 053c
00000190: faf9 193f 4029 293f eaa4 8c3e e4cb f73f
000001a0: 7ce7 b43f d137 c9be 2a0c 173e a06b cabf
000001b0: be9d 4fbf 8e1b 2f3f 61e4 f33e 86e2 8a3d
000001c0: c6fd 143f 7285 bb3f 307b 8d3e fd26 0a3f
000001d0: 1227 95be 9a1d 7bbf 957a c6be 0f5c 7dbe
000001e0: e783 a33f 1857 37bf a872 0d3f 58e8 6a3d
000001f0: fabf 633f d2bb 35bf 77b6 68bf 1e51 2abf
00000200: 2b36 ba3e 0507 c23e 0e5c 4d3e 8b4c c23e
00000210: 2563 ddbd fc24 41be 9124 123f 3e5b 8ebe
00000220: 763e cb3e 974a 463f bafc 893e 0ff3 3c3e
00000230: 1933 993e e142 b6bf 5741 563e d15f 4e3e
00000240: bbca be3d 4cba fabe 6a09 f0be 5795 dd3e
00000250: 55df b73e 8ec2 bc3d 3fa7 b03f cf69 0240
00000260: 2ab6 cfbe 9e7f 623f e32e 12bf 407e 69bd
00000270: 0942 c0bd 116a c83d 57b1 dc3c c185 563e
00000280: 615a 643c 1fb1 0c3f 5621 b9be a4ad 3cbf
00000290: cbf4 9fbe 42c0 19bf 3c8d e33c dd3f 163f
000002a0: 563b 4b3e 3f03 99bf bbe5 3b3f a717 823e
000002b0: 8ff5 01bf a06d 843f d197 2d3f 7e9f 873d
000002c0: 1c69 06bc c240 cb3e ac6a 06bf 0aa5 93bf
000002d0: 90c8 4b3f 959e 6fbf 4717 c83d 0fe9 99bf
000002e0: f37c 9bbe 3e17 943f 3cd7 2bbc a523 cfbe
000002f0: 22df 253f 2b41 f1be 6cf8 d7be bae8 63be
00000300: d1bb eabf e18b 463f f9fd 403e cedd 613f
00000310: c169 26bf d05e a13e ec28 35bf 495e ed3f
00000320: 6ab8 92be a598 2f3f 90f4 163f e082 2b3e
00000330: 4ca0 673f fb48 85bf 5a24 cf3d d9da 4cb9
00000340: 942b df3e dc67 573f f137 af3d 51df 883d
00000350: 8770 923c 895b d1bf 6129 16be c115 67bf
00000360: 742b 143f 22e2 9ebf 0a02 d8be 0ac1 2abf
00000370: e1da 10bd 28f5 93bf a284 ecbe 267f 713e
00000380: 7906 eabe efff 853f 61b9 f83e f868 803f
00000390: 6380 b7be da2e c4be a01d 6ebf 1201 1cbe
000003a0: 727a f8bc 04fc 1a3d c9e8 193e d707 1abf
000003b0: cf31 e1bf 7a41 2bbf 5a1f afbd d3c1 bd3e
000003c0: db07 523f 51f2 e73e 991d 973e e501 10bf
000003d0: 6019 263f 9bbe f73f 1b17 0dbe 2bfb 1ebe
000003e0: 8e01 b8be 6b17 cf3e 6c24 30be da55 27bf
000003f0: 56db e93e ded9 90bf 5440 8b3e 59ba 6b3e

weight f4 [32]
1.0 1.0 1.0 1.0 1.0 1.0 1.0 1.0
0.75281054 0.9893234 0.5591996 1.2122817 0.52933186 1.2832552 0.52216643 0.86524045
1.0 1.0 1.0 1.0 1.0 1.0 1.0 1.0
1.2712619 1.234247 0.5906912 0.88044053 0.3640171 0.9986978 1.0076448 1.2211448
00000000: 0000 803f 0000 803f 0000 803f 0000 803f
00000010: 0000 803f 0000 803f 0000 803f 0000 803f
00000020: 31b8 403f 4c44 7d3f b427 0f3f 0c2c 9b3f
00000030: 4b82 073f b541 a43f b3ac 053f 6680 5d3f
00000040: 0000 803f 0000 803f 0000 803f 0000 803f
00000050: 0000 803f 0000 803f 0000 803f 0000 803f
00000060: b6b8 a23f cefb 9d3f 8a37 173f 8d64 613f
00000070: 7360 ba3e a9aa 7f3f 81fa 803f 794e 9c3f

bias f4 [32]
0.0 0.0 0.0 0.0 0.0 0.0 0.0 0.0
-0.24203873 0.39027977 -0.40212297 -0.39427543 0.011972034 -0.8492607 0.046333566 0.13751931
0.0 0.0 0.0 0.0 0.0 0.0 0.0 0.0
-0.41430598 -0.33891633 -0.4762801 -0.19109438 -0.46180093 0.41353908 -0.24626893 -0.14763376
00000000: 0000 0000 0000 0000 0000 0000 0000 0000
00000010: 0000 0000 0000 0000 0000 0000 0000 0000
00000020: 00d9 77be c0d2 c73e 10e3 cdbe 78de c9be
00000030: 5a26 443c 2669 59bf 44c8 3d3d ddd1 0c3e
00000040: 0000 0000 0000 0000 0000 0000 0000 0000
00000050: 0000 0000 0000 0000 0000 0000 0000 0000
00000060: ea1f d4be 7186 adbe fcda f3be 3fae 43be
00000070: 2c71 ecbe 65bb d33e ec2d 7cbe 4e2d 17be

running_mean f4 [32]
0.14339621 -0.2553364 -0.010949606 -0.17999715 -0.08010374 -0.1789184 -0.29464823 0.16972844
0.04680473 -0.025102593 -0.03822579 0.0076117544 0.013783315 0.11233738 0.014743512 -0.19789834
-0.112406306 -0.06199258 0.38172653 0.09758 -0.07081213 0.21588713 -0.03907478 -0.043975465
-0.054129437 0.010978377 0.28655416 0.15299888 0.25427124 -0.08924704 -0.42851883 -0.051453948
00000000: 75d6 123e 74bb 82be fa65 33bc 2c51 38be
00000010: 6e0d a4bd 6336 37be 22dc 96be 4bcd 2d3e
00000020: 51b6 3f3d f4a3 cdbc a592 1cbd 066c f93b
00000030: 6ad3 613c 2411 e63d c58e 713c dda5 4abe
00000040: 4735 e6bd eeeb 7dbd a971 c33e 06d8 c73d
00000050: f305 91bd 8411 5d3e e00c 20bd 9e1f 34bd
00000060: d4b6 5dbd a7de 333c 3ab7 923e bdab 1c3e
00000070: d72f 823e 27c7 b6bd d266 dbbe 60c1 52bd

running_var f4 [32]
1.5545408 3.004957 0.6813815 2.8497512 0.95926 2.0035748 2.3605814 4.9649954
1.9077392 6.179309 2.7331133 1.5374098 3.703768 7.958835 3.784989 2.793967
1.5765176 2.46565 1.0022414 1.072721 2.093725 0.79324216 5.6494083 1.101812
1.0218316 5.515647 3.97273 1.2258402 2.1673093 7.0180073 2.6677096 4.9140444
00000000: 31fb c63f 3751 4040 056f 2e3f 5362 3640
00000010: 1092 753f 923a 0040 c413 1740 3ee1 9e40
00000020: cc30 f43f e6bc c540 54eb 2e40 d8c9 c43f
00000030: 890a 6d40 c7ae fe40 433d 7240 5bd0 3240
00000040: 54cb c93f 36cd 1d40 7249 803f ec4e 893f
00000050: 97ff 0540 eb11 4b3f f4c7 b440 2d08 8d3f
00000060: 61cb 823f 2e80 b040 3541 7e40 55e8 9c3f
00000070: 32b5 0a40 8493 e040 c1bb 2a40 da3f 9d40

weight f4 [32]
0.3935635 1.0821598 1.3682321 1.7842407 1.1621977 1.5426512 0.89120454 1.073321
0.70444393 0.97636193 1.3273954 1.0350473 0.41413608 1.0433738 0.9364181 1.2102674
1.0269935 1.0375477 0.34854022 1.9733479 0.777717 1.4872994 0.778626 0.6348923
1.0136106 1.2091823 1.1444668 1.9052241 0.9044925 1.2401078 1.3413849 0.7941815
00000000: 2881 c93e 3684 8a3f 3b22 af3f 0062 e43f
00000010: e5c2 943f 9875 c53f fb25 643f 9562 893f
00000020: 7056 343f dbf2 793f 18e8 a93f 6e7c 843f
00000030: a509 d43e 468d 853f 19b9 6f3f 0bea 9a3f
00000040: 8674 833f 5dce 843f dd73 b23e aa96 fc3f
00000050: 7618 473f d45f be3f 0954 473f 4d88 223f
00000060: febd 813f 7cc6 9a3f e37d 923f 62de f33f
00000070: d28c 673f dabb 9e3f 80b2 ab3f 7b4f 4b3f

bias f4 [32]
-0.43756995 -0.43804684 -0.7064726 0.788072 -0.3601688 0.8030314 -0.16981702 0.13230713
0.42721042 0.03732681 -0.6265578 0.2804152 0.5777555 0.14418814 0.07560393 0.055414435
-0.5023467 0.10176151 0.5569394 0.86525494 0.21740916 0.4627154 0.43397745 0.05390591
0.01003788 0.06627891 0.48728904 -0.11618189 -0.44580805 0.22012927 -0.22175816 0.4133445
00000000: 2b09 e0be ad47 e0be 63db 34bf 16bf 493f
00000010: 0c68 b8be 7793 4d3f 83e4 2dbe 857b 073e
00000020: 53bb da3e ffe3 183d 1866 20bf 9592 8f3e
00000030: c9e7 133f 0ea6 133e 3cd6 9a3d 3ffa 623d
00000040: cb99 00bf 5768 d03d 9593 0e3f 5981 5d3f
00000050: 82a0 5e3e 08e9 ec3e 4b32 de3e 72cc 5c3d
00000060: ec75 243c 3dbd 873d f37d f93e c5f0 edbd
00000070: f440 e4be 9169 613e 9214 63be e4a1 d33e

running_mean f4 [32]
0.18567173 0.12592722 -0.1020917 -0.06193196 -0.19192469 -0.061480504 -0.10587684 0.23080188
-0.0048795235 0.010449694 0.009458771 -0.04942268 -0.10526862 0.16893034 -0.06575261 0.072426066
0.08047489 -0.14986475 0.028943919 -0.085366115 0.032109622 -0.02312594 -0.012760014 0.024389468
-0.15367721 -0.027345091 0.14349179 0.1022323 0.14146891 -0.111478746 -0.09599768 0.21072896
00000000: bb20 3e3e 11f3 003e 7415 d1bd 5eac 7dbd
00000010: e887 44be fbd2 7bbd f5d5 d8bd 5457 6c3e
00000020: 69e4 9fbb 3135 2b3c f6f8 1a3c 706f 4abd
00000030: 1397 d7bd 13fc 2c3e 4ea9 86bd 1e54 943d
00000040: 05d0 a43d 2576 19be cc1b ed3c 6ed4 aebd
00000050: 6185 033d 9c72 bdbc 610f 51bc 6ccc c73c
00000060: 8f5d 1dbe d002 e0bc 83ef 123e 2b5f d13d
00000070: 3add 103e f84e e4bd 6f9a c4bd 55c9 573e

running_var f4 [32]
0.71150285 0.7402871 0.67275167 0.62741965 1.2900892 0.66662824 0.7765923 0.8035231
0.7956973 0.64961106 0.6281991 0.62989503 0.6061096 0.6138293 0.5915878 0.59779954
0.68503886 0.5971491 0.5856471 0.6367644 0.60035366 0.66591966 0.6816735 0.71219355
0.6837377 0.7253818 0.7957922 0.61145675 0.7426555 0.6259686 0.66640335 0.8092001
00000000: 0d25 363f 7583 3d3f 7439 2c3f 939e 203f
00000010: a521 a53f 26a8 2a3f c1ce 463f b1b3 4d3f
00000020: d1b2 4b3f e94c 263f a8d1 203f cd40 213f
00000030: 002a 1b3f eb23 1d3f 4c72 173f 6409 193f
00000040: b55e 2f3f c3de 183f f8ec 153f fe02 233f
00000050: c7b0 193f b679 2a3f 2882 2e3f 5152 363f
00000060: 6f09 2f3f 9fb2 393f 0ab9 4b3f 6e88 1c3f
00000070: ac1e 3e3f 7a3f 203f 6999 2a3f bd27 4f3f

weight f4 [32]
1.6763935 0.9899134 0.8005471 1.664533 1.044384 1.3307257 0.31513506 0.602379
1.5668201 0.9595488 0.69940054 1.2648618 0.71613586 0.5703326 0.78564495 0.9215896
1.0346206 1.2713013 1.4004965 0.99912673 1.6380869 0.36747757 0.6740969 1.0539583
0.68868697 0.9309593 1.0936497 0.78381693 1.0164467 0.6324196 1.2206126 1.4476959
00000000: 1094 d63f f76a 7d3f a8f0 4c3f 6b0f d53f
00000010: 60ae 853f 3855 aa3f 6259 a13e 8335 1a3f
00000020: 908d c83f fda4 753f ea0b 333f fee6 a13f
00000030: ae54 373f 5101 123f 0720 493f 4ced 6b3f
00000040: 736e 843f 00ba a23f 7843 b33f c5c6 7f3f
00000050: d5ac d13f 0526 bc3e 9d91 2c3f 1be8 863f
00000060: ca4d 303f 5953 6e3f b7fc 8b3f 3aa8 483f
00000070: ed1a 823f 40e6 213f 093d 9c3f 194e b93f

bias f4 [32]
-0.46670482 -0.5607054 -0.48252958 0.80639106 -0.79205555 0.61022377 -0.36465523 0.5985442
0.09684363 -0.29212973 -0.301363 0.17043948 0.45655686 0.45805377 0.015648996 0.41383284
0.7936599 0.25433096 -0.19292465 0.83580816 -0.19815974 0.62382513 -0.86017805 -0.500756
0.8184394 0.095109545 -0.38547048 0.2085471 -0.27992412 -0.25825262 -0.17120804 -0.22621202
00000000: eff3 eebe 648a 0fbf 1e0e f7be a56f 4e3f
00000010: 27c4 4abf a037 1c3f 17b4 babe 313a 193f
00000020: f455 c63d 0792 95be 404c 9abe b087 2e3e
00000030: d2c1 e93e 0686 ea3e 5332 803c e6e1 d33e
00000040: 4c2d 4b3f ab37 823e 0a8e 45be 86f7 553f
00000050: 63ea 4abe 01b3 1f3f a134 5cbf 8c31 00bf
00000060: 3f85 513f cbc8 c23d 635c c5be 5f8d 553e
00000070: 3752 8fbe b039 84be 2951 2fbe 20a4 67be

running_mean f4 [32]
-0.092243455 0.3651802 -0.58149165 0.19925533 0.01408329 -0.24791509 0.3816845 -0.38272792
0.6774665 0.6686023 -0.100967504 0.57276547 0.089999266 -0.41190663 -0.17509383 -0.054916244
-0.06842755 0.19675338 0.5895071 0.16865514 -0.5904424 -0.4650292 0.47130978 -0.486428
0.29007906 -1.0801761 0.48246002 -0.5153973 0.7894717 -0.8485363 -0.19582362 -0.39543405
00000000: 23ea bcbd e6f8 ba3e a3dc 14bf 9709 4c3e
00000010: 99bd 663c 74dd 7dbe 276c c33e eaf4 c3be
00000020: 726e 2d3f 8529 2b3f 0dc8 cebd c2a0 123f
00000030: 8951 b83d 6de5 d2be cc4b 33be dbef 60bd
00000040: be23 8cbd b879 493e f0e9 163f efb3 2c3e
00000050: 3c27 17bf 4f18 eebe 844f f13e 170d f9be
00000060: 3e85 943e 3643 8abf 0005 f73e 14f1 03bf
00000070: d11a 4a3f ad39 59bf fd85 48be 5576 cabe

running_var f4 [32]
2.331581 3.9787045 5.6441517 2.8909256 2.946589 4.101361 2.3776987 6.8762302
5.013453 3.8695664 2.466283 5.6541133 3.5742135 2.8103948 3.3780699 3.3173845
1.6130837 2.3838205 3.941187 5.40862 1.8581829 1.8552088 3.0448015 4.8169165
4.9283004 6.755457 4.579627 3.7298417 8.809945 3.653763 5.967833 2.9817548
00000000: a038 1540 18a3 7e40 e49c b440 ed04 3940
00000010: ea94 3c40 593e 8340 372c 1840 140a dc40
00000020: 356e a040 faa6 7740 95d7 1d40 7fee b440
00000030: eabf 6440 82dd 3340 4c32 5840 0750 5440
00000040: 8779 ce3f 8490 1840 683c 7c40 6a13 ad40
00000050: f0d8 ed3f 7b77 ed3f 07de 4240 2e24 9a40
00000060: a3b4 9d40 b42c d840 4e8c 9240 bab5 6e40
00000070: 89f5 0c41 41d7 6940 7df8 be40 12d5 3e40

weight f4 [32, 16]
0.13862972 -0.73510545 0.1875747 -0.41497236 -0.43848526 0.83068836 0.53454226 0.7728539
0.4622345 0.6178052 -0.21535046 -0.08659284 -0.95052177 1.1135192 -0.21559751 -0.37647676
0.6137377 1.2453295 -1.3703718 0.0506813 -0.33405066 -0.92873466 -0.9060972 0.47256324
0.90210575 0.3363758 -0.94596416 0.95709294 -0.851369 -0.7022309 -0.6156991 -0.106155336
-0.5886947 -1.1791092 -0.11866354 0.08541201 -1.5265256 1.1010085 1.8812646 -0.013704711
-0.021554742 0.61115783 0.47893465 -0.5495552 -0.45488012 -1.30803 0.37706822 -0.5634181
0.31802633 1.1768435 -0.4346866 0.6331149 -0.3023793 -0.7233717 -0.91282785 0.56888855
0.42293012 0.29433584 -1.215273 0.86254644 0.88977647 -0.6714901 1.090543 0.25849864
-0.26456183 -0.22842552 0.5641633 -0.48512068 -0.82690173 -1.7975307 0.05577578 -1.2482151
-0.33993676 -0.8110092 -0.6566373 -0.7582783 0.6231257 -0.24684817 1.7734364 1.520881
1.1705941 0.96137595 -0.3766296 -1.0683396 -0.2409296 0.05859029 -0.45440868 0.13608068
-0.75323 -0.3066956 0.27338403 0.5685519 -0.13084117 -0.8552114 -0.96513325 -0.26809528
0.64006686 0.85278904 -0.503242 -0.09061937 -0.68418634 -0.048153795 -0.7648762 1.8011979
1.2841675 -0.3789036 -0.26918712 0.88228446 -0.03240432 -0.50257695 -0.06933186 -1.0325938
1.1203002 -0.020590648 -1.4542066 0.20026864 0.94716126 -1.0823823 0.8788199 -0.049864687
0.39086676 0.013531055 -1.6865596 -0.85685354 0.24326429 1.03941 0.069418654 -0.22952458
-1.2163229 1.0475307 -0.43815884 0.629432 -0.50501746 0.07846634 -0.14571403 -0.2888976
-0.4282321 -1.7044792 -0.5566074 0.046870932 0.00043402906 -0.99253726 0.23817822 0.8014773
-1.209461 0.6319927 0.2436109 0.4081453 0.7584329 -0.54727143 -0.42670864 0.15284427
-0.2539709 -0.22620906 1.988143 -0.7950565 0.48803562 -0.884341 -0.08605744 0.09595542
1.0877472 -0.61175966 0.0880969 0.9938469 -0.30284852 0.19617182 -0.5415191 -0.43425593
1.0174786 1.0371383 0.84316933 -0.58168054 -1.9011886 1.067578 0.40449068 -1.1502719
0.37367243 0.58149993 0.049202155 0.6827953 -1.5144721 -0.33314186 0.30154926 0.15995212
-0.38583383 0.6325975 -1.1086012 -0.3966582 -0.13263269 0.7237615 1.4685606 -0.38091022
0.38471106 0.12800454 -1.618871 0.9625112 0.16075568 -0.6286459 0.75547814 -0.80252177
1.1090455 0.84322894 -2.168214 0.272091 0.94789344 0.0078600645 0.08043794 1.5207129
0.17454778 0.29759663 0.43948558 -1.2100946 0.12591788 -1.2815741 -0.18196611 -0.518202
-0.4104598 0.31286722 0.04504726 1.1558802 1.9656549 -0.0805573 -0.02415256 -0.024529312
0.26210982 -1.6415833 -1.1555927 0.66343737 1.1309681 0.8314238 -1.3561316 0.34075406
0.5237163 0.8078318 0.8716333 1.0046122 -0.15354684 1.0129434 0.6257946 -0.5442536
1.811406 -0.5088065 -0.053948607 -0.7239975 0.3435115 -0.052257493 0.4288702 0.6398155
0.09263107 0.6741564 0.12300054 0.12086935 0.76520616 -0.010800405 -0.833099 0.81495494
00000000: f3f4 0d3e df2f 3cbf 9513 403e 4277 d4be
00000010: 2481 e0be fea7 543f c3d7 083f c1d9 453f
00000020: 00aa ec3e 7b28 1e3f d584 5cbe 9657 b1bd
00000030: 6555 73bf cc87 8e3f 98c5 5cbe 90c1 c0be
00000040: ea1d 1d3f f566 9f3f 5868 afbf 3297 4f3d
00000050: b008 abbe 8ec1 6dbf fcf5 67bf cff3 f13e
00000060: 67f0 663f 7339 ac3e b52a 72bf 0b04 753f
00000070: 52f3 59bf 67c5 33bf 759e 1dbf f867 d9bd
00000080: b2b4 16bf 0ded 96bf df05 f3bd 7eec ae3d
00000090: 3165 c3bf d9ed 8c3f 47cd f03f b989 60bc
000000a0: 9293 b0bc d774 1c3f ec36 f53e a6af 0cbf
000000b0: 0ce6 e8be 876d a7bf 160f c13e 2b3c 10bf
000000c0: 59d4 a23e cfa2 963f 3e8f debe d113 223f
000000d0: 76d1 9abe e32e 39bf 16af 69bf aea2 113f
000000e0: 4c8a d83e 30b3 963e 118e 9bbf d8cf 5c3f
000000f0: 64c8 633f c6e6 2bbf ea96 8b3f ef59 843e
00000100: a674 87be 61e8 69be 026d 103f bd61 f8be
00000110: d5af 53bf 7c15 e6bf 2575 643d 83c5 9fbf
00000120: 310c aebe 4d9e 4fbf 6219 28bf 871e 42bf
00000130: 2a85 1f3f c4c5 7cbe f7ff e23f 3bac c23f
00000140: 07d6 953f bc1c 763f 98d5 c0be 5abf 88bf
00000150: 40b6 76be 5ffc 6f3d 41a8 e8be bc58 0b3e
00000160: aed3 40bf 3507 9dbe fef8 8b3e 9e8c 113f
00000170: 3afb 05be 22ef 5abf f912 77bf c943 89be
00000180: 6cdb 233f 6250 5a3f 78d4 00bf a696 b9bd
00000190: d626 2fbf ea3c 45bd edce 43bf a78d e63f
000001a0: 9a5f a43f a7ff c1be e5d2 89be 65dd 613f
000001b0: 64ba 04bd e2a8 00bf ddfd 8dbd 092c 84bf
000001c0: ff65 8f3f b8ad a8bc 7123 babf 3913 4d3e
000001d0: 2979 723f 818b 8abf 57fa 603f ea3e 4cbd
000001e0: b01f c83e 5cb1 5d3c 2fe1 d7bf c15a 5bbf
000001f0: 461a 793e 630b 853f 5e2b 8e3d 7e08 6bbe
00000200: 78b0 9bbf 7c15 863f 5b56 e0be 7522 213f
00000210: d348 01bf f6b2 a03d 0f36 15be 63ea 93be
00000220: 3d41 dbbe 602c dabf d37d 0ebf bcfb 3f3d
00000230: 658e e339 ec16 7ebf fee4 733e 9e2d 4d3f
00000240: 9ecf 9abf 46ca 213f 2375 793e 6cf8 d03e
00000250: a928 423f fb19 0cbf 8e79 dabe 3583 1c3e
00000260: 7908 82be 59a3 67be 787b fe3f d388 4bbf
00000270: cedf f93e 2c64 62bf e23e b0bd 4684 c43d
00000280: 4d3b 8b3f 489c 1cbf 266c b43d c06c 7e3f
00000290: f60e 9bbe 44e1 483e ffa0 0abf cb56 debe
000002a0: bd3c 823f f3c0 843f f2d9 573f 04e9 14bf
000002b0: 265a f3bf 65a6 883f 6719 cf3e 1c3c 93bf
000002c0: fe51 bf3e 2edd 143f 3388 493d accb 2e3f
000002d0: 39da c1bf 9291 aabe aa64 9a3e 7dca 233e
000002e0: 038c c5be e9f1 213f a5e6 8dbf c916 cbbe
000002f0: ddd0 07be 6f48 393f cbf9 bb3f aa06 c3be
00000300: d9f8 c43e 9f13 033e 2a37 cfbf 2267 763f
00000310: 239d 243e f0ee 20bf 0467 413f 1172 4dbf
00000320: 34f5 8d3f dadd 573f 05c4 0ac0 834f 8b3e
00000330: 25a9 723f 80c7 003c a6bc a43d b8a6 c23f
00000340: a7bc 323e 965e 983e 4104 e13e 61e4 9abf
00000350: 9ef0 003e 9f0a a4bf 5355 3abe e3a8 04bf
00000360: c927 d2be 2230 a03e 7a83 383d e2f3 933f
00000370: 949a fb3f 3afb a4bd 97db c5bc b2f1 c8bc
00000380: 4233 863e 671f d2bf 76ea 93bf 08d7 293f
00000390: 90c3 903f 31d8 543f b895 adbf 5177 ae3e
000003a0: 4512 063f 11ce 4e3f 5c23 5f3f 2297 803f
000003b0: 623b 1dbe 21a8 813f 1334 203f 3454 0bbf
000003c0: 27dc e73f 2541 02bf 37f9 5cbd e657 39bf
000003d0: bde0 af3e f40b 56bd e094 db3e f3ca 233f
000003e0: 5cb5 bd3d 8495 2c3f b5e7 fb3d 5a8a f73d
000003f0: 8de4 433f 2ff4 30bc fa45 55bf e3a0 503f
