Experiments/2022_07_26 13-51-41 wine_100runs_learning-rate_3mv-features_custom-loss /models/Model_run25_optimizer_params0.02_malic_acid.pt (torch, 250381 bytes, 318 tensors)

weight f4 [12]
0	0x3f800000	1.0
1	0x3f800000	1.0
2	0x3f800000	1.0
3	0x3f800000	1.0
4	0x3f800000	1.0
5	0x3f800000	1.0
6	0x3f800000	1.0
7	0x3f800000	1.0
8	0x3f800000	1.0
9	0x3f800000	1.0
10	0x3f800000	1.0
11	0x3f800000	1.0

bias f4 [12]
0	0x00000000	0.0
1	0x00000000	0.0
2	0x00000000	0.0
3	0x00000000	0.0
4	0x00000000	0.0
5	0x00000000	0.0
6	0x00000000	0.0
7	0x00000000	0.0
8	0x00000000	0.0
9	0x00000000	0.0
10	0x00000000	0.0
11	0x00000000	0.0

running_mean f4 [12]
0	0x00000000	0.0
1	0x00000000	0.0
2	0x00000000	0.0
3	0x00000000	0.0
4	0x00000000	0.0
5	0x00000000	0.0
6	0x00000000	0.0
7	0x00000000	0.0
8	0x00000000	0.0
9	0x00000000	0.0
10	0x00000000	0.0
11	0x00000000	0.0

running_var f4 [12]
0	0x3f800000	1.0
1	0x3f800000	1.0
2	0x3f800000	1.0
3	0x3f800000	1.0
4	0x3f800000	1.0
5	0x3f800000	1.0
6	0x3f800000	1.0
7	0x3f800000	1.0
8	0x3f800000	1.0
9	0x3f800000	1.0
10	0x3f800000	1.0
11	0x3f800000	1.0

weight f4 [12]
0	0x3f8a0104	1.078156
1	0x3f8d2922	1.1028178
2	0x3f8d7dc8	1.105401
3	0x3f7ddf9b	0.9916932
4	0x3f795e53	0.9740955
5	0x3f72f24d	0.9490097
6	0x3f7e55b0	0.993495
7	0x3f8353cb	1.0259947
8	0x3f8cf3e5	1.1011931
9	0x3f87de2b	1.0614675
10	0x3f70ee5a	0.94113696
11	0x3f607581	0.87679297

bias f4 [12]
0	0x3c0c9de4	0.008582566
1	0xbc97c9a4	-0.018528767
2	0x3e22de67	0.15905152
3	0xbd5a043d	-0.0532267
4	0x3db2f660	0.087383986
5	0x3e34f6cc	0.1767227
6	0xbce59fcc	-0.028030299
7	0x3e37f616	0.17964968
8	0x3daf4ca5	0.08559541
9	0xbe342bdd	-0.17594858
10	0xbd7d5b76	-0.061854802
11	0x3da0f3c7	0.07858997

running_mean f4 [12]
0	0x3f11290d	0.56703264
1	0x43394850	185.28247
2	0x4093538f	4.60395
3	0x3ed6a187	0.4192011
4	0x3f1fb8fc	0.6239164
5	0x40460220	3.0938797
6	0x3db01f0d	0.085996725
7	0x4197ad9b	18.959768
8	0x3ebb9a21	0.3664103
9	0x3f9be39c	1.2178836
10	0x3e69a9a4	0.22818619
11	0x3f0b4bc9	0.54412514

running_var f4 [12]
0	0x3f484163	0.7822477
1	0x46bf0662	24451.191
2	0x406d4c32	3.7077756
3	0x3f991b87	1.1961526
4	0x3f636001	0.88818365
5	0x3f665091	0.89966685
6	0x3f44043b	0.76568955
7	0x43e4fd8f	457.98093
8	0x3f5509a5	0.8321784
9	0x40045e0b	2.06824
10	0x3f45ca35	0.7726167
11	0x3f5b3191	0.8562251

weight f4 [32, 12]
0	0x3ef75341	0.48305705
1	0x3e971937	0.29511425
2	0x3f3c5408	0.7356572
3	0x3cb90dc7	0.022589577
4	0xbf7e6bff	-0.9938354
5	0x3f03d5db	0.5149819
6	0xbe524ed6	-0.20537886
7	0xbe9b9e5e	-0.30394262
8	0xbe0f5b13	-0.13999586
9	0x3fcff75b	1.6247362
10	0xbf8ded58	-1.1088057
11	0x3cc424a0	0.023943245
12	0x3e129d41	0.143178
13	0xbe224569	-0.1584679
14	0x3e33e0c8	0.17566216
15	0x3f02d2b9	0.5110279
16	0xbf2a68f6	-0.6656641
17	0xbdc8195e	-0.097704634
18	0x3f395713	0.7239849
19	0x3f235e62	0.6381589
20	0x3eb2edde	0.34947103
21	0x3d3ed29e	0.04658758
22	0xbfd34847	-1.6506432
23	0xbec4864a	-0.38383704
24	0xbd9ae8bf	-0.07563924
25	0x3ea14e94	0.31505263
26	0xbf4d0a94	-0.80094266
27	0x3db7cb58	0.089743316
28	0x3e27c552	0.16383865
29	0xbfd69335	-1.6763674
30	0xbdf23c38	-0.11827892
31	0x3f183877	0.5946116
32	0x3e86c788	0.26324105
33	0x3f9f3d23	1.2440532
34	0x3ec98902	0.3936234
35	0xbf9894fc	-1.1920466
36	0x3fa3421f	1.2754554
37	0x3dcdaaa6	0.10042314
38	0x3e50cd41	0.20390798
39	0xbf809f2d	-1.0048577
40	0xbf9b4fb7	-1.2133702
41	0x3e0c905f	0.13726948
42	0x3e20928b	0.15680902
43	0x3f1a4b14	0.6027081
44	0x3f090277	0.53519386
45	0x3f4ba7c7	0.7955288
46	0xbe1c58d7	-0.15268265
47	0xbf23901a	-0.63891757
48	0xbf8af1e4	-1.0855069
49	0x3f8ebd0f	1.1151446
50	0x3f59f9ee	0.8514699
51	0x3f2ed578	0.6829448
52	0x3f5c4cfa	0.86054957
53	0x3f10c46c	0.56549716
54	0xbf226252	-0.63431275
55	0x3fd2ba22	1.6463053
56	0xbeab3365	-0.33437648
57	0xbe8c3553	-0.27384433
58	0x400768df	2.1157758
59	0x3f88eaec	1.0696692
60	0xbf764ef6	-0.96214235
61	0x3fc28c37	1.519904
62	0xbeed0bed	-0.4629816
63	0xbe9a24c5	-0.30106178
64	0xbf237246	-0.6384624
65	0x3df1a3ff	0.11798858
66	0xbf104f27	-0.56370777
67	0x3dbc4ee2	0.09194733
68	0xbea82db9	-0.32847384
69	0xbf18aef2	-0.59641945
70	0xbf28f2eb	-0.65995663
71	0xbf3494cd	-0.7053955
72	0xbf65fed6	-0.89841974
73	0xbec05275	-0.3756291
74	0xbe62c8e5	-0.22146948
75	0xbed3c7a1	-0.41363242
76	0x3e8701e2	0.26368624
77	0xbfa33676	-1.2750995
78	0xbf106a64	-0.5641234
79	0x3dbc5a50	0.09196913
80	0x3edb6d69	0.4285691
81	0xbfb9b880	-1.450943
82	0xbf172880	-0.59046173
83	0x3ebb636a	0.36599284
84	0xbe432c2a	-0.19059816
85	0xbea00c4c	-0.31259382
86	0xbd94d8f6	-0.072679445
87	0xbf716d13	-0.9430706
88	0x3fc952a3	1.5728344
89	0x3fb3948b	1.4029707
90	0x3fbdbb23	1.4822735
91	0xbf2f0430	-0.68365765
92	0x3f3e53f1	0.74346834
93	0x3fd4c836	1.66236
94	0xbf016dc5	-0.5055812
95	0x3e7393ca	0.23786846
96	0x3f44a868	0.7681947
97	0x3dc9882c	0.09840426
98	0x3e505540	0.2034502
99	0x3f6beb22	0.9215566
100	0xbe268940	-0.16263294
101	0x3eae0d93	0.3399473
102	0x3f08ef8c	0.5349052
103	0x3f132005	0.5747073
104	0x3efe6274	0.4968449
105	0x3ece6ffb	0.4031981
106	0x3f0c068d	0.54697496
107	0x3f54deed	0.8315266
108	0x3fa6b679	1.3024436
109	0xbe324ebe	-0.1741285
110	0x3e8d89a1	0.27644065
111	0xbf5dc092	-0.86621964
112	0xbdbdb436	-0.09262888
113	0x3f1b62cd	0.60697633
114	0x3f44b4f3	0.76838607
115	0xbf4e5669	-0.806006
116	0xbbfc07e0	-0.0076913685
117	0xbeff9d37	-0.49924633
118	0xbd88f2d8	-0.06686944
119	0x3f1be0d4	0.60889935
120	0xbea91c62	-0.33029467
121	0xbe268f7d	-0.16265674
122	0xbe9f30ac	-0.3109182
123	0x3f805444	1.0025716
124	0x3e8ec11d	0.2788171
125	0xbefa1539	-0.48844317
126	0xbe28a802	-0.1647034
127	0xbe1335e5	-0.14376028
128	0xbf87bf18	-1.0605192
129	0xbc625a41	-0.0138154635
130	0x3e204ffa	0.15655509
131	0x3e831447	0.25601408
132	0xbe2f1522	-0.17097905
133	0xbe01d7fd	-0.12680049
134	0xbeb4e880	-0.35333633
135	0x3e0c34f3	0.13692074
136	0x3f7446bd	0.9542044
137	0xbf44ddde	-0.7690104
138	0xbe8a565a	-0.27019006
139	0xbe4e13d6	-0.20124754
140	0xbfc21dfc	-1.51654
141	0xbead93ae	-0.33901733
142	0x3eb8e959	0.3611553
143	0x3f0fc17b	0.561546
144	0xbef1e556	-0.47245282
145	0x3f0db514	0.5535443
146	0xbfdd095f	-1.7268485
147	0xbef832f0	-0.48476362
148	0xbf2bad37	-0.6706118
149	0xbf3d83d6	-0.7402929
150	0xbc89ac5b	-0.016805818
151	0xbe827737	-0.2548158
152	0xbf0200b2	-0.5078231
153	0x3f486e4d	0.78293306
154	0x3ea25d73	0.3171192
155	0x3ec70ecd	0.3887848
156	0xbeb06eeb	-0.34459624
157	0x3eee56b9	0.4655054
158	0x3f3c149b	0.7346894
159	0x3f1527d9	0.5826393
160	0x3f3005ba	0.6875874
161	0x3f936111	1.1513997
162	0xbef88dc2	-0.48545653
163	0x3e9e07e2	0.3086539
164	0x3f3e72ca	0.74393904
165	0xbeda5072	-0.426395
166	0xbf4d2b0a	-0.801438
167	0x3ec544e4	0.38529122
168	0x3ecc51ee	0.39906257
169	0x3e540fcb	0.2070915
170	0x3f55d766	0.83531797
171	0xbf43553e	-0.76301944
172	0xbfba02e8	-1.4532137
173	0xbf5f0f63	-0.87132853
174	0xbf690062	-0.9101621
175	0x3f1ade16	0.60495126
176	0x3e695a6d	0.22788401
177	0x3f239699	0.6390167
178	0x3dd5501c	0.1041567
179	0xbe3e91aa	-0.18610254
180	0x3e4e27b5	0.20132335
181	0xbf91f1bb	-1.1401895
182	0x3f3426cc	0.703717
183	0x3f15ac48	0.58466005
184	0xbf1ba1b9	-0.60793644
185	0x3f5491a2	0.8303472
186	0x3e860eb1	0.26183084
187	0x3e367dd2	0.17821434
188	0xbe655520	-0.22395754
189	0xbf0942d0	-0.5361757
190	0x3e81b66b	0.25334486
191	0xbf1c95e3	-0.6116621
192	0x3f0661d1	0.52493006
193	0xbf1de483	-0.61676806
194	0x3f20424a	0.6260115
195	0x3f531210	0.82449436
196	0xbfaffcf2	-1.3749068
197	0xbf956bd8	-1.1673536
198	0xbe096e86	-0.13421068
199	0x3f96d13f	1.1782607
200	0xbd9168e8	-0.071000874
201	0x3fb8c18b	1.4434065
202	0xbf519476	-0.8186716
203	0xbf28329c	-0.65702224
204	0x3f96523d	1.1743847
205	0x3caecd79	0.021338211
206	0x3c9094c9	0.017649071
207	0xbf121e5b	-0.5707757
208	0x3d75157d	0.059834946
209	0xbf67d0b0	-0.90552807
210	0xbe8f9be7	-0.28048632
211	0x3e9bc043	0.30420122
212	0xbe961807	-0.29315206
213	0xbf582f15	-0.8444684
214	0x3f0661bf	0.524929
215	0xbe3841c2	-0.17993835
216	0xbf941096	-1.1567562
217	0x3f82f86a	1.023206
218	0xb93c402c	-0.00017952983
219	0x3ed6f338	0.41982436
220	0x3dd23db7	0.102656774
221	0xbecb38f3	-0.39691886
222	0xbef7009d	-0.48242655
223	0xbf94707f	-1.1596831
224	0x3f3f0683	0.7461931
225	0x3fa12706	1.2590034
226	0xbe3e55fd	-0.1858749
227	0x3f5d1c4d	0.8637131
228	0xbf943ba9	-1.1580707
229	0xbe98e8e9	-0.29865196
230	0xbf17782b	-0.59167737
231	0xbdba0a72	-0.090840235
232	0xbf5f17de	-0.87145793
233	0x3eaf8984	0.34284604
234	0xbfd13b2d	-1.6346184
235	0x3ed68a72	0.419025
236	0x3fe5adfc	1.7943721
237	0x3eebe0c4	0.4606992
238	0x3f602d39	0.87569004
239	0x3f5449ad	0.8292492
240	0xbed6c661	-0.41948226
241	0x3e82844c	0.2549156
242	0x3f437204	0.7634585
243	0x3e0f90b8	0.1402005
244	0x3f1dcaa6	0.6163734
245	0x3d980a59	0.07423849
246	0x3e897d0d	0.2685322
247	0xbe6f812a	-0.23389116
248	0x3d24d007	0.040237453
249	0xbe579995	-0.2105468
250	0x3dd428fb	0.10359379
251	0xbfd0be02	-1.6307986
252	0xbeea8dd3	-0.45811328
253	0xbec3d56c	-0.38248765
254	0x3f3ed7d2	0.74548066
255	0x3d47beb7	0.048765864

weight f4 [32, 16]
0	0xbea94dfd	-0.33067313
1	0x3fbe2a85	1.4856726
2	0x3eacf112	0.33777672
3	0xbede6506	-0.4343645
4	0xbf9be211	-1.2178365
5	0x3d848134	0.06469956
6	0x3f5e07a5	0.86730415
7	0x3f080b8e	0.5314263
8	0x3e096386	0.13416871
9	0x3df35c2d	0.118828155
10	0x3e913751	0.28362516
11	0x3e1bf9af	0.15231965
12	0x3f36d521	0.7141896
13	0xbe2240a4	-0.15844971
14	0xbf277818	-0.65417624
15	0x3fc0ee34	1.5072694
16	0x3f1b040e	0.6055306
17	0xbe978174	-0.29590952
18	0x3f6d8e3b	0.9279515
19	0x3f9def48	1.2338648
20	0xbeeddb9c	-0.4645661
21	0xbecfbba3	-0.40572843
22	0xbed336df	-0.412528
23	0xbe19f538	-0.1503495
24	0xbd024598	-0.03180465
25	0xbeab5358	-0.33462024
26	0xbc4d6315	-0.01253583
27	0x3f1869e0	0.5953655
28	0x3f20b360	0.62773705
29	0x3f0c6342	0.54838955
30	0xbf40aa51	-0.7525988
31	0x3e5f713c	0.21820539
32	0xbe18fb93	-0.14939718
33	0xbfb01f75	-1.37596
34	0xbfc69683	-1.5514683
35	0xbfccecf1	-1.6009809
36	0x3ec2f6d8	0.38078952
37	0xbf96806d	-1.1757942
38	0xbdb2b4ed	-0.08725915
39	0xbf0c22cc	-0.54740596
40	0x3ed68cac	0.419042
41	0x3f04eb84	0.5192187
42	0xbeec104f	-0.46106192
43	0xbfe7561a	-1.8073151
44	0x3f8885e9	1.0665866
45	0x3f51418c	0.8174064
46	0x3f0108df	0.5040416
47	0x3f2043b5	0.6260331
48	0x3e9945c8	0.2993605
49	0x3e51c559	0.20485438
50	0xbf0eefe9	-0.55834824
51	0xbeb509f9	-0.3535917
52	0x3f0faea5	0.5612586
53	0x3e439581	0.191
54	0xbd9a9639	-0.07548184
55	0x3f62c9d1	0.885892
56	0x3ed6ed8d	0.41978112
57	0xbe935977	-0.28779194
58	0xbe043f61	-0.12914802
59	0x3e286a3f	0.1644678
60	0xbee68824	-0.45025742
61	0x3e3bc9df	0.18338726
62	0xbe5892aa	-0.21149698
63	0xbf85c2c4	-1.0450063
64	0x3e9145c0	0.28373528
65	0x3de4a0f3	0.11163511
66	0xbe9e2ddd	-0.30894366
67	0xbf15b457	-0.584783
68	0x3cd6d35d	0.026223833
69	0xbeaaad1e	-0.33335203
70	0x3ee897be	0.4542827
71	0x3f8200d4	1.0156503
72	0x3fd441e0	1.6582603
73	0x3e086a68	0.13321841
74	0xbf5a297f	-0.8521957
75	0xbec30d40	-0.38096046
76	0xbe9a68ae	-0.3015799
77	0xbf9adac0	-1.2098007
78	0xbe98599b	-0.29755864
79	0x3f7e360e	0.9930123
80	0xbf3c1f99	-0.73485714
81	0xbf74cd85	-0.956261
82	0x3f0f77f3	0.56042403
83	0x3d04a098	0.032379717
84	0xbfc28385	-1.5196387
85	0xbd973474	-0.073830515
86	0x3ee13b14	0.43990386
87	0x3eb00bfd	0.34384146
88	0xbf65a161	-0.8969937
89	0xbf86cf4c	-1.0532012
90	0x3eaf2076	0.34204453
91	0xbf000002	-0.5000001
92	0xbfc68c64	-1.5511594
93	0xbec9e057	-0.3942897
94	0x3ccd20c0	0.02504003
95	0xbd8bfe99	-0.0683567
96	0xbe95afea	-0.29235774
97	0x3e0a8659	0.13527812
98	0xbdb676ee	-0.08909403
99	0x3f842700	1.0324402
100	0x3ebfe46f	0.37478969
101	0x3f19fb23	0.6014883
102	0x3f4a77eb	0.7908923
103	0x3dd7cf5a	0.10537596
104	0xbaae9856	-0.0013320546
105	0x3ee6ce99	0.45079497
106	0x3e32a21f	0.17444657
107	0x3f0ca6ee	0.54942214
108	0x3f1a03cb	0.6016204
109	0x3de6da53	0.11272111
110	0x3fc1f453	1.5152687
111	0xbf7e4e31	-0.9933806
112	0x3e37b452	0.1793988
113	0xbf7b2699	-0.9810577
114	0xbfb28f42	-1.3949969
115	0xbfa5b0c6	-1.2944572
116	0x3ef6f120	0.4823084
117	0xbf1a29fe	-0.60220325
118	0x3f16c555	0.58894855
119	0x3e176e12	0.14788082
120	0xbfbc3deb	-1.4706396
121	0x3f585deb	0.8451831
122	0xbf43bfda	-0.7646462
123	0x3f6f69c8	0.93520784
124	0xbf89c567	-1.0763367
125	0x3d911ef1	0.0708598
126	0xbf00ef6e	-0.5036534
127	0xbe5ce6bb	-0.21572392
128	0xbf403257	-0.7507681
129	0x3f4d11b6	0.8010515
130	0xbf57e4dc	-0.84333587
131	0x3da45936	0.08024828
132	0xbf86c70a	-1.0529492
133	0x3fbbc36d	1.4669014
134	0xbf83ee48	-1.0307093
135	0x3f30b5ad	0.69027215
136	0xbf22f2d2	-0.63651764
137	0xbeb911e4	-0.36146462
138	0xbf310467	-0.6914734
139	0x3ee2d653	0.4430414
140	0x3f5eafcc	0.86986995
141	0xbdaf8325	-0.08569936
142	0x3db7b5bc	0.0897021
143	0x3e865787	0.26238653
144	0xbeb2b063	-0.34900197
145	0xbeb4b473	-0.35293922
146	0xbff6bc61	-1.9276239
147	0xbea3fe61	-0.32030013
148	0xbf0d300f	-0.55151457
149	0x3f262858	0.6490531
150	0xbf0252a9	-0.5090738
151	0xbed3c39d	-0.4136018
152	0x3f6c0d1b	0.922075
153	0x3f6f3071	0.9343329
154	0xbf0de793	-0.5543148
155	0xbef7197b	-0.48261628
156	0xbf195038	-0.5988803
157	0xbed516dd	-0.41619006
158	0x3df37e3a	0.1188931
159	0xbef47715	-0.47747102
160	0x3e0ab742	0.1354647
161	0xbe3af230	-0.1825645
162	0x3f8c8259	1.0977279
163	0x3eec7580	0.46183395
164	0xbed73e5d	-0.42039767
165	0xbe0c079f	-0.13674782
166	0x3d02c5e0	0.03192699
167	0x3e7c7cbd	0.24656959
168	0xbe76a44e	-0.24086115
169	0xbf9f77d5	-1.2458445
170	0xbf8f6f4e	-1.1205842
171	0xbf81736c	-1.0113349
172	0x3e4eddf0	0.2020185
173	0xbf636235	-0.8882173
174	0x3e498050	0.19677854
175	0x3e11c043	0.14233498
176	0xbe11fd62	-0.14256814
177	0xbe49d738	-0.19711006
178	0xbf1a5c68	-0.6029725
179	0xbe21c0b5	-0.15796168
180	0xbfddcb18	-1.7327604
181	0x3ec1d318	0.37856364
182	0xbf599c1c	-0.8500383
183	0x3f698060	0.9121151
184	0x3f35a8dc	0.70960784
185	0x3ef1ccc8	0.47226548
186	0xbfe25c71	-1.7684461
187	0x3e864b60	0.26229382
188	0xbf15f653	-0.58578986
189	0xbf58168b	-0.844094
190	0xbd7b0899	-0.061287496
191	0xbfaef24a	-1.3667691
192	0x3df72c88	0.120690405
193	0x3e28acaa	0.16472116
194	0xbf73d2d5	-0.9524358
195	0x3d8c3c1b	0.06847402
196	0x3ef2012c	0.4726652
197	0xbf4dac45	-0.8034099
198	0xbecf53d6	-0.4049365
199	0xbf56c7ca	-0.83898604
200	0x3f0a511a	0.5403
201	0xbf7aa44b	-0.9790694
202	0xbea93447	-0.33047697
203	0x3e822718	0.2542045
204	0xbf033727	-0.5125603
205	0x3f4c9835	0.7991975
206	0x3e23a6b7	0.15981565
207	0x3facd0a9	1.3501178
208	0x3e23d1f6	0.15998062
209	0xbf8e8ea6	-1.1137283
210	0xbd999fba	-0.075011685
211	0x3f684a5d	0.9073847
212	0xbecb447d	-0.3970069
213	0xbfa89375	-1.317
214	0x3f636779	0.8882976
215	0x3f833115	1.0249354
216	0x3e0ea05b	0.13928358
217	0x3e103bca	0.14085308
218	0x3f1382a3	0.5762121
219	0xbf6ca7ed	-0.92443734
220	0xbf9c7fd2	-1.2226508
221	0xbdc4652a	-0.09589608
222	0x3e7bc422	0.24586537
223	0x3e34cbc8	0.17655861
224	0xbe892028	-0.26782346
225	0x3ee38f67	0.44445345
226	0x3e29669f	0.16543053
227	0xbe8a928a	-0.27064925
228	0xbde53950	-0.11192572
229	0xbf4de6c4	-0.80430245
230	0xbf3cb42b	-0.73712415
231	0x3e61a140	0.22034168
232	0x3e6af45b	0.22944777
233	0xbfa71f64	-1.3056455
234	0xbfa309ff	-1.2737426
235	0x3da8086e	0.08204733
236	0x3eabb24e	0.33534473
237	0x3faf6e97	1.3705624
238	0x3f56476f	0.8370275
239	0x3ea2891e	0.31745237
240	0xbecd2119	-0.40064314
241	0xbc84619e	-0.016159829
242	0x3f7fca9d	0.9991854
243	0xbe0cad47	-0.13737975
244	0xbe9b9f5f	-0.30395028
245	0xbf649ea0	-0.8930454
246	0xbf90a292	-1.1299613
247	0xbf9186ad	-1.1369225
248	0x3d32b762	0.04363192
249	0x3fa4ebde	1.2884481
250	0xbd9769c7	-0.07393222
251	0x3f6b453c	0.9190252
252	0x3ebbb368	0.36660314
253	0xbe6a3576	-0.22871956
254	0x3fb47fc6	1.4101493
255	0x3e4a8331	0.19776608

weight f4 [32]
0	0x3f61f71f	0.882677
1	0x3f63db46	0.8900646
2	0x3f8d4b0e	1.103853
3	0x3f69722d	0.91189843
4	0x3f676959	0.9039512
5	0x3f789d9d	0.971155
6	0x3f802f6e	1.0014474
7	0x3f85b0e7	1.0444611
8	0x3f8347cd	1.0256287
9	0x3f81b7ac	1.0134177
10	0x3f657500	0.8963165
11	0x3f747d51	0.9550372
12	0x3f75697f	0.958641
13	0x3f64b609	0.89340264
14	0x3f7afc7e	0.9804152
15	0x3f92bd13	1.1463951
16	0x3f8dcc0d	1.1077896
17	0x3f5050dd	0.8137339
18	0x3f871179	1.0552207
19	0x3f688867	0.90833133
20	0x3f7161ad	0.94289666
21	0x3f6dbc26	0.92865217
22	0x3f840b65	1.0315977
23	0x3f6bc6fe	0.92100513
24	0x3f807721	1.0036355
25	0x3f95cb7d	1.1702725
26	0x3f6d476a	0.92687094
27	0x3f89a51c	1.0753512
28	0x3f6e4cde	0.9308604
29	0x3f62817b	0.8847882
30	0x3f84f9df	1.0388755
31	0x3f88f957	1.0701092

bias f4 [32]
0	0xbdecce77	-0.115628175
1	0xbdbbea9b	-0.09175607
2	0xbdd71589	-0.105021544
3	0x3d16face	0.03686028
4	0x3d590d19	0.052991007
5	0x3db0caaa	0.08632405
6	0x3c8760e6	0.016525697
7	0xbcd79237	-0.026314838
8	0xbd5bbee1	-0.053648833
9	0xbdada967	-0.084795766
10	0x3d76b925	0.06023516
11	0xbd8971e9	-0.0671118
12	0x3c7de263	0.015495869
13	0xbd942093	-0.072327755
14	0x3d7779e5	0.060418982
15	0x3dc5dd12	0.096613064
16	0xbd0643b8	-0.032779425
17	0xbd91dde1	-0.07122398
18	0x3ddecb5c	0.108786315
19	0xbd86b511	-0.065775044
20	0xbdc7958c	-0.09745321
21	0x3d33f4b3	0.043934535
22	0xbb52368c	-0.003207597
23	0x3da8ac20	0.08235955
24	0x3c53d080	0.012928128
25	0xbd8f0c25	-0.06984738
26	0xbd012c5f	-0.031536456
27	0xbdacb255	-0.08432452
28	0xbd1bd884	-0.038048282
29	0xbd98105e	-0.07424997
30	0xbcaa8317	-0.020814462
31	0x3e32349c	0.17402881

running_mean f4 [32]
0	0xbd881c8d	-0.06646071
1	0x3ccf5e5c	0.025313549
2	0xbe3f16c5	-0.1866103
3	0x3c0f02c5	0.008728688
4	0x3e1d1fcb	0.1534416
5	0xbd0397b4	-0.032127097
6	0x3d0f6179	0.035005067
7	0x3c8487eb	0.016178092
8	0x3d168e87	0.03675702
9	0x3d6d2db0	0.0579049
10	0xbda6c133	-0.081423186
11	0xbd8543ad	-0.06507049
12	0xbe55bdff	-0.20873259
13	0x3e242edb	0.16033499
14	0xbcc1ea48	-0.023671284
15	0x3de248b0	0.1104902
16	0xbda86674	-0.082226664
17	0x3c9f86df	0.019473491
18	0xbe2a6198	-0.16638792
19	0x3cd3a048	0.025833264
20	0x3cb32419	0.021867799
21	0x3d859f4d	0.06524525
22	0xbd6de372	-0.058078237
23	0x3d09aa74	0.033609822
24	0x3b517102	0.0031958227
25	0xbc3a42b7	-0.011368445
26	0x3c46e370	0.012139186
27	0xbd81f4e2	-0.06345536
28	0x3e50b746	0.20382413
29	0x3c8a1256	0.016854446
30	0xbdeabab5	-0.11461393
31	0xbe0bd337	-0.13654791

running_var f4 [32]
0	0x40acbeca	5.3982897
1	0x40509998	3.2593746
2	0x3fcd821b	1.605533
3	0x4091e1e0	4.5588226
4	0x41205a54	10.022053
5	0x402e30d4	2.7217302
6	0x408831a9	4.256062
7	0x4088fa0e	4.2805243
8	0x40644843	3.5669105
9	0x40148f73	2.3212554
10	0x3fb53502	1.4156802
11	0x40202d12	2.5027509
12	0x404c86c1	3.1957247
13	0x40533127	3.299875
14	0x403efb95	2.9841053
15	0x40100816	2.2504935
16	0x40cfb118	6.490368
17	0x400c27dd	2.189933
18	0x40882433	4.254419
19	0x40dbf9c9	6.8742414
20	0x3fca644a	1.5811856
21	0x3fd12d44	1.6341939
22	0x4068ca79	3.637358
23	0x4010e44a	2.2639337
24	0x405a3afd	3.4098504
25	0x4046dcc4	3.1072245
26	0x41007208	8.02784
27	0x401de495	2.4670765
28	0x40d83a87	6.7571445
29	0x40606359	3.5060637
30	0x4082b99f	4.085159
31	0x40bc15b1	5.877648

weight f4 [32]
0	0x3f81049c	1.0079532
1	0x3f7dfc01	0.9921265
2	0x3f78872f	0.97081274
3	0x3f63d3b2	0.88994896
4	0x3f81b9f4	1.0134873
5	0x3f6566e9	0.89610153
6	0x3f844877	1.0334615
7	0x3f688fe4	0.9084456
8	0x3f8b0402	1.0860598
9	0x3f8d87d3	1.1057075
10	0x3f8a6e2f	1.0814875
11	0x3f92c57c	1.1466517
12	0x3f82127d	1.0161892
13	0x3f8a38b6	1.0798557
14	0x3f88540d	1.065065
15	0x3f8269f7	1.0188588
16	0x3f7e7556	0.9939779
17	0x3f76367d	0.9617689
18	0x3f84c6d7	1.0373181
19	0x3f646579	0.89217335
20	0x3f6b75f6	0.9197687
21	0x3f87c625	1.0607344
22	0x3f90e393	1.131945
23	0x3f89bf52	1.0761511
24	0x3f898a34	1.0745301
25	0x3f7ffad0	0.99992085
26	0x3f855f88	1.0419779
27	0x3f8a6347	1.0811547
28	0x3f84f522	1.0387309
29	0x3f93cf93	1.1547722
30	0x3f8fef37	1.1244878
31	0x3f6b8e3c	0.9201391

bias f4 [32]
0	0x3d416e38	0.047224253
1	0x3990a0a8	0.0002758552
2	0x3dd68179	0.10473914
3	0x3db9664a	0.09052713
4	0xbd431433	-0.047626685
5	0xbdac3b7a	-0.08409782
6	0xbc91252d	-0.017717922
7	0x3db2f244	0.08737615
8	0xbda12d1d	-0.07869933
9	0xbcb48af5	-0.022038916
10	0x3d963ba7	0.073355965
11	0x3d33dfcf	0.043914612
12	0xbd1bfd68	-0.038083464
13	0x3c9b3e58	0.018950626
14	0x3c5682ab	0.013092677
15	0x3dd853bd	0.10562847
16	0x3d5a9602	0.053365715
17	0x3d9b7305	0.075902976
18	0xbbaa7040	-0.0052013695
19	0xbd49a92c	-0.0492336
20	0x3d52be21	0.051450852
21	0xbe0519c6	-0.12998113
22	0xbc9b2a4a	-0.018941063
23	0xbdbfa4a1	-0.09357572
24	0x3d909710	0.07060063
25	0x3ddc9ed1	0.10772479
26	0x3ddc7661	0.107647665
27	0x3bca2c60	0.0061698407
28	0x3c90981f	0.017650662
29	0xbb94d2f6	-0.00454175
30	0x3b443e0a	0.0029944205
31	0x3d043c66	0.032284163

running_mean f4 [32]
0	0xbc1ca3e1	-0.009560556
1	0x3c6a7c14	0.014311809
2	0xbc5b98cf	-0.013403132
3	0xbd714dea	-0.058912195
4	0xbd27de44	-0.040983453
5	0x3e349816	0.17636141
6	0xbe13b44b	-0.14424245
7	0x3e22cc82	0.15898326
8	0x3db94a3f	0.090473644
9	0xbd0e9198	-0.034806818
10	0x3dc862e6	0.097844884
11	0x3bf35cc4	0.00742683
12	0x3d8280bc	0.063722104
13	0xbb2a619f	-0.0025998128
14	0x3b50b2c9	0.0031844846
15	0xbc847b5f	-0.01617211
16	0x3e46ff39	0.19433297
17	0x3d248c55	0.040172894
18	0xbda926d5	-0.0825936
19	0xbd49f48e	-0.04930549
20	0xbe0f99d0	-0.14023519
21	0xbcc73e2c	-0.024321638
22	0x3d877b45	0.06615309
23	0x3e3c67b4	0.18398935
24	0xbe06884c	-0.1313793
25	0x3ca87101	0.020561697
26	0xbd26b509	-0.040699992
27	0x3e063392	0.1310561
28	0xbd8a846b	-0.06763538
29	0xbd70869a	-0.058722116
30	0x3c43b352	0.011944609
31	0x3dedcdda	0.11611529

running_var f4 [32]
0	0x3fddca9a	1.7327454
1	0x3f771d1e	0.96528804
2	0x3ff0b726	1.8805892
3	0x3fa3cd5a	1.2797043
4	0x3fb8ee35	1.4447695
5	0x3f9b878c	1.2150741
6	0x3f735a21	0.950594
7	0x4023969f	2.5560682
8	0x3fdd979b	1.7311891
9	0x3fe3a76c	1.7785468
10	0x4002c99e	2.0435557
11	0x3ffa8710	1.9572468
12	0x3fd00bf1	1.6253644
13	0x3fc08259	1.5039779
14	0x3fa481da	1.2852128
15	0x3fab3eae	1.3378503
16	0x3f798b00	0.9747772
17	0x3f4d8afa	0.80290186
18	0x3faf4f2f	1.369604
19	0x3fcdd6b4	1.6081147
20	0x3fb4ed2b	1.4134878
21	0x3fe0f2a0	1.7574043
22	0x3fa47fc1	1.2851487
23	0x3fc85a06	1.5652473
24	0x3fd5ccb6	1.6703098
25	0x3fda2a4b	1.7044157
26	0x40555a08	3.33362
27	0x3fd7d6fe	1.6862485
28	0x401cbe08	2.4490986
29	0x3f87c9b6	1.0608432
30	0x3fffa82a	1.9973195
31	0x3fc2b2f8	1.5210867

weight f4 [32, 16]
0	0x3d7e8a95	0.06214388
1	0x3dba8c75	0.09108821
2	0xbf3c9520	-0.73665047
3	0x3e6a9564	0.2290855
4	0xbf5c9348	-0.86162233
5	0xbf55e9a4	-0.8355963
6	0xbe812dc9	-0.25230244
7	0xbfa61d02	-1.2977602
8	0x3d851089	0.064972945
9	0xbd9ae72a	-0.07563622
10	0xbf9bd5e2	-1.2174647
11	0x3f0ceb3a	0.5504643
12	0xbf838414	-1.0274682
13	0x3f5f53d6	0.872373
14	0x3f59ab8c	0.85027385
15	0x3f0b5d6b	0.5443942
16	0xbeaf6309	-0.34255245
17	0xbf653611	-0.89535624
18	0xbf97e76a	-1.1867497
19	0x3d083e28	0.0332624
20	0xbdcdcb47	-0.10048538
21	0x3f5d1b67	0.8636994
22	0xbf64c862	-0.8936826
23	0xbf4db011	-0.8034678
24	0xbe5fc5bd	-0.21852775
25	0xbfb1e295	-1.3897272
26	0xbf847f0c	-1.0351272
27	0x3f5903ae	0.8477124
28	0x3e22863c	0.15871519
29	0x3e10cc85	0.14140518
30	0xbd604119	-0.054749582
31	0xbf70bed8	-0.94041204
32	0xbf53f49e	-0.8279513
33	0x3feca2f6	1.8487232
34	0xbf003f56	-0.5009664
35	0xbda4086d	-0.080094196
36	0x3f37685b	0.7164361
37	0x3d0bb859	0.034111355
38	0xbf573e69	-0.84079605
39	0xbfbcf95f	-1.4763602
40	0x3e07f9b3	0.13278846
41	0xbf498591	-0.7871943
42	0xbe9e0753	-0.30864963
43	0x3ecec3c4	0.40383732
44	0xbf1b71e1	-0.6072064
45	0x3f284366	0.6572784
46	0x3d0a22ef	0.03372472
47	0xbfac2b0b	-1.3450636
48	0xbf604170	-0.8759985
49	0xbe48c576	-0.19606575
50	0x3f25d138	0.6477237
51	0x3f0b7666	0.54477537
52	0x3f40715c	0.7517297
53	0xbf89d504	-1.0768132
54	0xbeb6e620	-0.35722446
55	0xbf9cf761	-1.2262994
56	0x3f4a169f	0.7894077
57	0x3d579072	0.05262799
58	0xbee7b864	-0.45257866
59	0x3eeb61f6	0.45973176
60	0x3f7eec3f	0.9957923
61	0xbe9dce3e	-0.30821413
62	0x3f8c06d6	1.0939586
63	0xbe0dfbbf	-0.13865565
64	0xbfce0b76	-1.6097248
65	0x3f2fd9c9	0.6869169
66	0x3e8953f1	0.26821855
67	0x3e4a8e40	0.19780827
68	0x3fe7f063	1.8120235
69	0xbe497929	-0.19675125
70	0xbe82232c	-0.2541746
71	0xbf06fed1	-0.5273257
72	0xbf1b69be	-0.60708225
73	0x3ea022e9	0.31276634
74	0xbea9b03b	-0.33142266
75	0xbf20acec	-0.6276386
76	0xbf22c7fa	-0.6358639
77	0xbf16a1ff	-0.58840936
78	0x3ee5a09e	0.44849104
79	0x3f5bcaca	0.85856307
80	0x3f8cdcfc	1.1004939
81	0x3e7f2582	0.24916652
82	0xbf3a2e67	-0.72727054
83	0x3b12826b	0.0022355567
84	0x3f085319	0.53251797
85	0xbd35ba64	-0.04436721
86	0x3e2aa7bd	0.1666555
87	0x3eda788b	0.42670092
88	0x3f039fac	0.51415515
89	0xbf2a6dcf	-0.66573805
90	0x3f2ca455	0.6743825
91	0xbd550e02	-0.052015312
92	0x3dc66824	0.09687832
93	0xbf9ca77c	-1.2238612
94	0x3f2a1462	0.6643735
95	0x3eb4a88a	0.35284835
96	0x3f78f46c	0.9724796
97	0xbf54506d	-0.8293522
98	0x3e067776	0.13131508
99	0x3fa0538c	1.2525496
100	0xbf3974cd	-0.7244385
101	0xbea4bf68	-0.3217728
102	0xbdbd0773	-0.092299365
103	0x3ea4ef25	0.32213703
104	0x3fe4c9a5	1.7874037
105	0x3ea3f9a1	0.3202639
106	0x3e85f54e	0.26163715
107	0x3d964931	0.07338179
108	0xbdbbbc23	-0.091667436
109	0x3f46462e	0.77450836
110	0xbf245d32	-0.64204705
111	0x3e08446e	0.13307354
112	0xbd288f82	-0.041152485
113	0xbf5b2950	-0.8560991
114	0x3e2e1ce1	0.17003204
115	0x3e9cc59a	0.30619508
116	0xbf4fb8cf	-0.8114137
117	0xbeb1d464	-0.34732354
118	0xbe01658e	-0.12636396
119	0xbf500d10	-0.8126993
120	0xbf09f905	-0.538956
121	0x3f364c20	0.7120991
122	0x3de71f53	0.112852715
123	0x3f9de111	1.233431
124	0xbeb4c2a5	-0.35304752
125	0xbd2e6e80	-0.04258585
126	0xbd46e354	-0.04855664
127	0xbedbe0c4	-0.4294492
128	0xbedc1e15	-0.429917
129	0xbeee3e07	-0.46531698
130	0xc003726b	-2.0538585
131	0x3f0c304c	0.54761195
132	0x3fa09214	1.254458
133	0x3f2090a6	0.62720716
134	0xbf0b7983	-0.5448229
135	0xbf18c7e4	-0.5968001
136	0xbf1a682b	-0.603152
137	0xbf889e68	-1.0673342
138	0x3ef4deb1	0.4782615
139	0x3fbe243d	1.4854809
140	0x3f99573a	1.1979744
141	0xbdef4793	-0.116835736
142	0x3ecb7acf	0.39742133
143	0x3edd223f	0.4319019
144	0x3eb8f4a7	0.36124155
145	0xbede2ea0	-0.43394947
146	0x3f429627	0.76010364
147	0xbf541d8d	-0.8285759
148	0xbf1f43f4	-0.62213063
149	0xbf068ebf	-0.52561563
150	0x3f012b9a	0.50457156
151	0xbdaefdfb	-0.08544537
152	0x3e8c363b	0.27385125
153	0x3ec2a03e	0.3801288
154	0xbe533bfb	-0.2062835
155	0xbf3dadd7	-0.74093384
156	0xbe204f99	-0.15655364
157	0x3ea91755	0.33025613
158	0xbfc5e474	-1.5460343
159	0x3f1f2557	0.6216635
160	0x3fab528e	1.3384569
161	0xbf28a8d5	-0.6588262
162	0x3ee194b0	0.44058752
163	0x3cd1a9b7	0.025593622
164	0x3f00f0a1	0.5036717
165	0x3cfdf564	0.0310008
166	0x3f8f610f	1.1201495
167	0xbdca80b8	-0.098878324
168	0x3e8babd4	0.27279532
169	0x3f33c1f2	0.7021781
170	0xbf3631c7	-0.71169704
171	0x3f6a5e84	0.9155047
172	0xbe88c1fa	-0.26710492
173	0x3fbf8cc9	1.4964839
174	0x3eddc6c0	0.43315697
175	0xbe7dd0f3	-0.24786739
176	0x3dcf0060	0.101074934
177	0xbf367b71	-0.71282107
178	0x3f2d1f69	0.67626053
179	0xbeb95ed9	-0.36205176
180	0x3d69438c	0.056949183
181	0x3e3a8679	0.1821536
182	0x3f6c4dc8	0.92306185
183	0xbf607fae	-0.87694824
184	0x3ee4f895	0.44720903
185	0xbd09840a	-0.033573188
186	0x3e1a1142	0.15045646
187	0xbf425a4a	-0.7591902
188	0xbe3b07de	-0.1826472
189	0x3d8bbf9e	0.068236575
190	0x3f364811	0.71203715
191	0x3e154040	0.1457529
192	0xbe56c1e3	-0.209724
193	0x3f19f43a	0.60138285
194	0xbea97d44	-0.33103383
195	0x3f6ba9d2	0.92056
196	0x3f0d17b9	0.5511432
197	0x3d7cc099	0.061707113
198	0xbefafe2b	-0.4902204
199	0xbf10d716	-0.56578195
200	0x3fa1482f	1.2600154
201	0x3fe014d0	1.7506351
202	0xbe83c4ad	-0.2573599
203	0xbf038163	-0.51369303
204	0x3f8724c4	1.0558095
205	0xbf9cb04e	-1.2241304
206	0x3d8ee0ec	0.06976494
207	0xbf8d642b	-1.1046194
208	0xbfaa2e80	-1.3295441
209	0xbe91e0bc	-0.2849177
210	0x3eb37f9d	0.350583
211	0x3f0441f2	0.51663125
212	0xbd85fed9	-0.06542749
213	0x3e6018d4	0.21884471
214	0x3f182bb6	0.594417
215	0x3ead3966	0.33832854
216	0x3f81737d	1.0113369
217	0xbf745859	-0.9544731
218	0x3dda09c1	0.10646392
219	0x3ef9d448	0.4879477
220	0xbf6603be	-0.8984946
221	0x3da9835d	0.08277009
222	0xbf25cbce	-0.64764106
223	0x3e4768f3	0.19473629
224	0x3d32f240	0.04368806
225	0xbf1ed109	-0.6203771
226	0xbf90f954	-1.1326089
227	0x3db774e4	0.08957842
228	0x3f53cdc5	0.82735854
229	0x3f8da334	1.1065431
230	0x3f4b317f	0.793724
231	0xbd95b379	-0.07309622
232	0x3f65b528	0.8972955
233	0xbf31dca6	-0.6947731
234	0x3e4c3834	0.19943315
235	0x3eb85585	0.36002746
236	0x3ed5a13a	0.4172457
237	0x3e891738	0.26775527
238	0x3fab697c	1.3391566
239	0x3ef0e903	0.47052774
240	0x3ea3136d	0.31850758
241	0xbe51855a	-0.20461026
242	0x3f58eb5f	0.8473415
243	0x3f345f5a	0.70457995
244	0x3ef8e722	0.4861384
245	0xbf560447	-0.83600277
246	0xbf4f7815	-0.81042606
247	0xbf05b9e8	-0.52236795
248	0x3ead11ec	0.33802736
249	0x3ce3f41d	0.027826363
250	0xbe129efa	-0.14318457
251	0xbf62f3a6	-0.8865303
252	0x3c6e94c3	0.014561835
253	0x3e813010	0.2523198
254	0xbd98ba01	-0.074573524
255	0x3f94dca1	1.1629831

weight f4 [32]
0	0x3f7d3162	0.9890348
1	0x3f71fa3b	0.94522446
2	0x3f6d7af7	0.92765754
3	0x3f81ee08	1.0150766
4	0x3f8b07f3	1.0861801
5	0x3f804907	1.0022286
6	0x3f613737	0.87974876
7	0x3f749668	0.95542
8	0x3f72ce4a	0.9484602
9	0x3f7c2c9c	0.9850557
10	0x3f87aa80	1.0598907
11	0x3f723615	0.9461377
12	0x3f75c8c8	0.9600949
13	0x3f789122	0.97096455
14	0x3f6264dd	0.88435155
15	0x3f82ed23	1.0228618
16	0x3f7c1305	0.9846652
17	0x3f897bd1	1.0740911
18	0x3f6d8a96	0.9278959
19	0x3f97040b	1.1798109
20	0x3f896de4	1.0736661
21	0x3f8376ca	1.0270627
22	0x3f841499	1.0318786
23	0x3f6e8de8	0.9318528
24	0x3f699f26	0.91258466
25	0x3f7534c3	0.95783633
26	0x3f8cb7ba	1.0993569
27	0x3f6cac20	0.9245014
28	0x3f778913	0.96693534
29	0x3f7a94c4	0.9788325
30	0x3f7fd647	0.99936336
31	0x3f7caf53	0.98705024

bias f4 [32]
0	0x3d04ef27	0.032454636
1	0x3c75a666	0.014993286
2	0x3b37f176	0.0028067506
3	0xbd99c2ff	-0.07507896
4	0xbdbe2e00	-0.092861176
5	0xbd85b454	-0.065285355
6	0x3e44b8e3	0.19211154
7	0x3cb5f114	0.022209682
8	0x3d0edd7f	0.034879204
9	0x3c9eecc1	0.019400002
10	0x3d3ef340	0.0466187
11	0xbe3a346a	-0.18184057
12	0xbc83a619	-0.016070412
13	0x3dafda63	0.08586576
14	0xbcd5d6e4	-0.026103444
15	0x3bf51e58	0.007480424
16	0xbd01ec01	-0.03171921
17	0xbe1d7dd2	-0.15380028
18	0xbded7e36	-0.115963385
19	0xbc91914e	-0.017769482
20	0xbd0e9764	-0.034812346
21	0xbd65fad0	-0.056147397
22	0xbd7b0f6e	-0.06129401
23	0xbd28b8d3	-0.041191887
24	0x3da3a9f1	0.07991398
25	0x3d9443d7	0.07239502
26	0x3d8a921d	0.0676615
27	0xbb0d10bb	-0.0021524865
28	0xbd0fd242	-0.035112627
29	0x3ce13560	0.027491271
30	0xbe210b59	-0.15726985
31	0x3d00e301	0.031466488

running_mean f4 [32]
0	0x3daa00d7	0.083009414
1	0x3dd227c8	0.10261494
2	0xbe2d0070	-0.16894698
3	0xbe332bc4	-0.17497164
4	0xbe18a291	-0.14905764
5	0x3e0d9c13	0.13829069
6	0xbd0fb1fd	-0.035081852
7	0x3dc66e0e	0.0968896
8	0x3e60ed25	0.21965463
9	0x3c179020	0.009250671
10	0xbd8abd15	-0.06774346
11	0xbd9d7927	-0.076891236
12	0xbeb8c032	-0.36084133
13	0xbcaf2490	-0.021379739
14	0xbc367157	-0.011135421
15	0xbc8e1e5f	-0.017348466
16	0x3d284f4b	0.041091245
17	0x3cc46aaf	0.023976652
18	0x3e50b28e	0.20380613
19	0xbdece734	-0.11567536
20	0x3e229e38	0.15880668
21	0x3cc8d6a1	0.024516406
22	0x3e36fe7a	0.17870513
23	0xbdd1ff64	-0.1025379
24	0x3d3f1eb4	0.04666014
25	0x3d02d8fc	0.031945214
26	0x3e03c409	0.1286775
27	0x3e2ece09	0.17070784
28	0x3da6b05c	0.08139107
29	0xbc4e4ceb	-0.012591581
30	0x3dcc18b0	0.09965646
31	0x3d7126e0	0.058874965

running_var f4 [32]
0	0x3faef320	1.3667946
1	0x3fdad1ee	1.7095315
2	0x3fab4c60	1.3382683
3	0x3ff3313e	1.8999403
4	0x3fe0de5b	1.7567858
5	0x3fb5981d	1.4187046
6	0x3fc6a495	1.5518976
7	0x3f7d2e61	0.98898894
8	0x3f82cf2e	1.0219476
9	0x3f8fee75	1.1244646
10	0x3fba6d2a	1.4564564
11	0x3fa96476	1.3233783
12	0x40136a24	2.3033533
13	0x3fb57712	1.4176962
14	0x3f89230e	1.0713823
15	0x3fdb8877	1.7151021
16	0x3f753ea2	0.95798695
17	0x400f45c4	2.2386332
18	0x3ffc2b7a	1.9700768
19	0x3f5fe68e	0.87461174
20	0x3fb3ffa8	1.4062395
21	0x3f938080	1.152359
22	0x3fb1b77f	1.3884124
23	0x3fcf610e	1.6201494
24	0x40022925	2.0337613
25	0x3f837d83	1.0272678
26	0x3fd36a7a	1.6516869
27	0x3f96feda	1.1796525
28	0x400a808c	2.1640959
29	0x3fcfd4cc	1.6236815
30	0x3f9ad114	1.2095056
31	0x3f9d40a5	1.2285353

weight f4 [32, 16]
0	0x3d3e6d51	0.04649097
1	0x3e4a7732	0.19772032
2	0xbf4370d6	-0.7634405
3	0x3e5a2bbb	0.21305744
4	0x3f36d901	0.7142487
5	0xbdac5a52	-0.08415665
6	0xbd97d281	-0.07413197
7	0x3f25ed5d	0.6481531
8	0xbebd4999	-0.36970213
9	0x3eafafad	0.34313717
10	0xbf5d0a5b	-0.86343926
11	0x3fb911ea	1.4458592
12	0xbef28075	-0.4736363
13	0x3db9e668	0.0907715
14	0x3d69182d	0.05690782
15	0x3e86eca1	0.2635241
16	0xbd06776e	-0.03282874
17	0xbf049fcd	-0.51806337
18	0xbe8f4a90	-0.27986574
19	0x3c11e6db	0.008905138
20	0xbdf6efaa	-0.12057431
21	0xbeffe202	-0.49977118
22	0xbf1c2525	-0.6099418
23	0xbf551c06	-0.83245885
24	0x3e6a988e	0.22909757
25	0xbf34104c	-0.7033737
26	0xbf63b590	-0.8894892
27	0xbf9b337e	-1.2125089
28	0x3e65ab9e	0.22428748
29	0xbf4c2955	-0.7975057
30	0x3edcec93	0.43149242
31	0xbf709ff9	-0.939941
32	0xbeecb2de	-0.46230215
33	0xbe385bfe	-0.18003842
34	0x3de245ec	0.11048493
35	0x3ec55251	0.38539365
36	0xbe6ebe56	-0.23314795
37	0x3ecd07a1	0.40044883
38	0xbf26cdcf	-0.6515779
39	0xbef87417	-0.4852607
40	0xbc47f135	-0.012203504
41	0x3e8d1938	0.27558303
42	0xbe93b164	-0.28846276
43	0x3e7438e9	0.23849835
44	0x3f08df84	0.5346606
45	0x3f55422b	0.8330409
46	0xbe88369b	-0.2660416
47	0xbdac04fd	-0.08399389
48	0xbe987373	-0.2977558
49	0xbf9aa7b3	-1.2082428
50	0x3e75e7f8	0.2401427
51	0xbf3ef254	-0.74588513
52	0x3e1c7d9b	0.1528229
53	0x3faa1682	1.3288119
54	0x3e26dddf	0.16295575
55	0xbf3183cc	-0.6934173
56	0x3f3d9af9	0.74064595
57	0xc001602c	-2.0214949
58	0xbf0f1137	-0.5588564
59	0x3d4d243c	0.050083384
60	0xbf7bf58a	-0.9842154
61	0xbf5a41aa	-0.85256445
62	0x3fb8d700	1.4440613
63	0x3f13dde7	0.5776047
64	0xbe4fb2b5	-0.20283015
65	0x3f79accd	0.975293
66	0x3f98412a	1.1894886
67	0x3f37c214	0.71780515
68	0xbf6c5f23	-0.9233267
69	0x3e072470	0.13197494
70	0xbf401842	-0.75037014
71	0x3fb438ea	1.4079869
72	0xbdccab50	-0.09993613
73	0x3d563cc1	0.052304033
74	0x3f399210	0.724885
75	0x3caaa4b6	0.020830493
76	0xbdf63b11	-0.12022985
77	0xbf83d3f9	-1.0299064
78	0x3ea906fd	0.33013144
79	0xbeec743c	-0.4618243
80	0x3e955c51	0.29171994
81	0x3eb3ce42	0.351183
82	0x3fda2bd0	1.704462
83	0xbf22549c	-0.63410354
84	0xbe9a1127	-0.3009121
85	0x3ceec949	0.029148715
86	0xbec4d9ff	-0.38447568
87	0x3f3347a9	0.7003122
88	0xbf2a50a1	-0.6652928
89	0x3f64c3a8	0.8936105
90	0x3ea856e2	0.32878786
91	0xbf7f8c15	-0.99823123
92	0x3f417a69	0.7557741
93	0x3fffd880	1.9987946
94	0xbe8dfd43	-0.27732286
95	0x3f5156c4	0.8177302
96	0xbf7f0435	-0.99615794
97	0x3f2c4024	0.6728537
98	0xbf2099e5	-0.62734824
99	0x3c054c09	0.008135804
100	0x3f19f9fa	0.6014706
101	0x3f292940	0.6607857
102	0x3e8ca4ea	0.2746957
103	0x3ff7cbe4	1.9359097
104	0x3fb4e77c	1.4133143
105	0xbec937d1	-0.39300397
106	0x3e170c2a	0.14750734
107	0xbfca6ba0	-1.5814095
108	0xbf4f9dbe	-0.8110007
109	0x3f2f1b8e	0.6840142
110	0x3ef3e461	0.47635177
111	0x3d8ae286	0.06781487
112	0x3f14fdc6	0.5819973
113	0x3fbb8572	1.4650099
114	0x3e8d7b30	0.27633047
115	0x3f0a26fd	0.5396574
116	0xbe952712	-0.2913137
117	0xbf7b1d9a	-0.98092043
118	0xbec67a95	-0.38765398
119	0xbe7d5c0f	-0.24742149
120	0x3fa383e7	1.2774628
121	0xbf375718	-0.7161727
122	0x3f0d72a8	0.55253077
123	0x3d6ae858	0.057350487
124	0x3f63bffa	0.8896481
125	0xbf35bbd2	-0.70989716
126	0xbf68b677	-0.9090342
127	0xbf2a511e	-0.66530025
128	0x3e69614b	0.2279102
129	0x3e435118	0.19073904
130	0xbe942c17	-0.28939888
131	0x3dc1309a	0.09433098
132	0xbeb38800	-0.35064697
133	0xbec8511c	-0.39124382
134	0x3ec8d2e9	0.39223412
135	0xbded1642	-0.11576511
136	0x3eee7741	0.4657536
137	0x3f1b525c	0.60672545
138	0x3ec22f74	0.3792683
139	0x3f035238	0.5129733
140	0x3e2daf30	0.1696136
141	0xbf7f51dc	-0.9973428
142	0x3e93ae6e	0.28844017
143	0x3dd6f9e4	0.104968816
144	0x3f168bbc	0.5880697
145	0xbda5330f	-0.08066379
146	0xbec41310	-0.38295794
147	0x3f14d091	0.5813075
148	0x3f50a7d1	0.8150607
149	0x3ebfb85b	0.3744534
150	0x3f676326	0.90385664
151	0x3fd1054a	1.6329739
152	0xbe5b2617	-0.21401249
153	0x3f23f603	0.6404726
154	0xbf0b14e0	-0.5432873
155	0x3d4244aa	0.047428764
156	0xbf13b3cd	-0.5769623
157	0xbd8b0c0d	-0.06789408
158	0x3e8a3b3e	0.26998323
159	0x3f2f764b	0.68539876
160	0x3e2c6cf8	0.16838443
161	0x3d5429d9	0.05179772
162	0x3daa4ec7	0.08315807
163	0xbf27e14e	-0.6557816
164	0x3e021aca	0.12705532
165	0xbf36061c	-0.7110307
166	0xbe9713f2	-0.29507405
167	0x3e576de3	0.21038012
168	0x3e8008f7	0.2500684
169	0xbf625987	-0.8841786
170	0x3f503c95	0.8134244
171	0x3eed7aa3	0.46382627
172	0xbf42204d	-0.7583054
173	0x3f27d15c	0.6555383
174	0x3eef89a7	0.46784708
175	0x3efde0f4	0.49585688
176	0xbe65282f	-0.2237861
177	0x3e81aea0	0.2532854
178	0xbee4d172	-0.44691044
179	0xbfa706f6	-1.3048999
180	0x3f208ffe	0.62719715
181	0xbf325abb	-0.69669694
182	0x3dffe68a	0.12495144
183	0xbf367744	-0.71275735
184	0x3e1ef7bd	0.15524192
185	0x3f953b45	1.1658713
186	0x3f048d4d	0.5177811
187	0xbea65583	-0.32487115
188	0x3f095d9d	0.5365847
189	0xbec4043f	-0.3828449
190	0xbe4846a5	-0.19558199
191	0xbf1605d2	-0.5860263
192	0xbfdef7a7	-1.7419327
193	0x3f064d95	0.5246213
194	0xbe113727	-0.14181195
195	0x3ee22014	0.441651
196	0xbf0cd936	-0.5501894
197	0x3d0a3f7d	0.033751953
198	0xbf58a654	-0.84628797
199	0x3fbff8fd	1.499786
200	0xbf4d0848	-0.8009076
201	0x3f8c9d57	1.0985516
202	0x3ec6ce55	0.38829294
203	0x3e2aa180	0.1666317
204	0x3f075d8f	0.52877134
205	0xbf8519b4	-1.0398469
206	0xbcac2e38	-0.021018133
207	0x3e712177	0.23547922
208	0x3e998f16	0.29991978
209	0x3f116cc5	0.56806594
210	0xbe4853cd	-0.19563217
211	0xbeddd968	-0.4332993
212	0xbedc17aa	-0.42986804
213	0xbf960bf7	-1.1722401
214	0x3ea3134f	0.3185067
215	0xbf16f07d	-0.58960706
216	0x3dd36589	0.10322101
217	0xbf7328f2	-0.9498435
218	0x3e7a3d90	0.24437547
219	0xbd567a1e	-0.052362554
220	0xbf0febdf	-0.56219286
221	0xbfb12226	-1.3838546
222	0xbf070360	-0.52739525
223	0xbd62d03a	-0.05537436
224	0xbf3ea350	-0.74467945
225	0x3f4fa416	0.8110975
226	0xbc5d4767	-0.013505793
227	0x3f0b48bc	0.5440786
228	0xbf23eca8	-0.64032984
229	0x3e09adfa	0.13445273
230	0xbf04eb39	-0.5192142
231	0x3cd70c38	0.026250944
232	0xbe981169	-0.29700783
233	0x3e3fcad4	0.18729717
234	0x3ebd2bc0	0.3694744
235	0xbd250f35	-0.040297706
236	0xbfef7a18	-1.8709135
237	0xbf039f60	-0.5141506
238	0xbe840749	-0.25786808
239	0xbcd33618	-0.02578263
240	0x3f0d9911	0.55311686
241	0x3ec0e75e	0.3767652
242	0x3ebcfd34	0.3691193
243	0xbf389d86	-0.7211536
244	0x3f047ff5	0.51757747
245	0x3ff7be08	1.9354868
246	0xbed2d4db	-0.4117802
247	0x3c9f7f66	0.019469928
248	0xbe143987	-0.1447507
249	0x3e8609f4	0.2617947
250	0xbe236ac8	-0.15958703
251	0xbf613d1e	-0.8798388
252	0x3e17261e	0.14760634
253	0xbf60998c	-0.87734294
254	0x3dd573c5	0.10422472
255	0x3e89ea63	0.26936635

weight f4 [32]
0	0x3f800000	1.0
1	0x3f800000	1.0
2	0x3f800000	1.0
3	0x3f800000	1.0
4	0x3f800000	1.0
5	0x3f800000	1.0
6	0x3f800000	1.0
7	0x3f800000	1.0
8	0x3f7d6f34	0.9899781
9	0x3f6de7b6	0.9293169
10	0x3f89259f	1.0714606
11	0x3f5c70e4	0.8610976
12	0x3f8533b5	1.0406405
13	0x3f91aa69	1.138013
14	0x3f883f9a	1.064441
15	0x3f91f514	1.1402917
16	0x3f800000	1.0
17	0x3f800000	1.0
18	0x3f800000	1.0
19	0x3f800000	1.0
20	0x3f800000	1.0
21	0x3f800000	1.0
22	0x3f800000	1.0
23	0x3f800000	1.0
24	0x3f6dda7b	0.929115
25	0x3f88ef25	1.0697981
26	0x3f89280f	1.071535
27	0x3f637aff	0.8885955
28	0x3f723ac2	0.9462091
29	0x3f82a0c2	1.0205309
30	0x3f88bc99	1.0682555
31	0x3f6df567	0.9295258

bias f4 [32]
0	0x00000000	0.0
1	0x00000000	0.0
2	0x00000000	0.0
3	0x00000000	0.0
4	0x00000000	0.0
5	0x00000000	0.0
6	0x00000000	0.0
7	0x00000000	0.0
8	0x3cfcd53e	0.0308634
9	0x3a9bad7b	0.0011877263
10	0xbd903ac5	-0.070424594
11	0x3a4950b4	0.0007679567
12	0x3d176e65	0.036970515
13	0xbc3b19c5	-0.011419718
14	0xbd1ffe65	-0.03906097
15	0xbd79d27c	-0.06099175
16	0x00000000	0.0
17	0x00000000	0.0
18	0x00000000	0.0
19	0x00000000	0.0
20	0x00000000	0.0
21	0x00000000	0.0
22	0x00000000	0.0
23	0x00000000	0.0
24	0x3d96399c	0.07335207
25	0xbe1f9931	-0.15585782
26	0x3d175f3c	0.036956057
27	0xbe0c3415	-0.13691743
28	0x3d4abfb0	0.049499214
29	0x3dddffcd	0.10839806
30	0x3b18fbbc	0.0023343405
31	0x3e37d6dc	0.17953056

running_mean f4 [32]
0	0xbd129818	-0.03578958
1	0x3d606ef6	0.05479332
2	0xbd103acf	-0.035212334
3	0x3c9b990a	0.018993873
4	0x3d18b4ff	0.037281986
5	0xbda65840	-0.08122301
6	0xbe45a500	-0.19301224
7	0x3dd71d77	0.10503667
8	0xba8d8c62	-0.0010799284
9	0xbd12295c	-0.035683975
10	0x3d2c701d	0.042099107
11	0xbe54fb0e	-0.20798895
12	0xbd2d3da3	-0.04229511
13	0x3e3ff377	0.18745218
14	0x3cb661fb	0.022263518
15	0xbdf9e81b	-0.12202474
16	0x3c96bdb8	0.018401012
17	0x3d525985	0.051354904
18	0xbdd75f74	-0.10516253
19	0xbe2d9a09	-0.16953291
20	0x3e190352	0.14942673
21	0x3d890ee1	0.06692291
22	0x3e0c4678	0.13698757
23	0xbd27b3d6	-0.04094299
24	0xbd33f0bc	-0.043930754
25	0xbdda8e9e	-0.10671733
26	0x3ddf0084	0.1088877
27	0xbe311a67	-0.17295228
28	0x3d1a8b3e	0.037730448
29	0xbdd7126e	-0.10501562
30	0xbdb1c7bc	-0.086806744
31	0x3dba0af4	0.090841204

running_var f4 [32]
0	0x3f76fc42	0.96478665
1	0x3f9ae09f	1.2099799
2	0x3f3edbb6	0.74554
3	0x406c6ba0	3.694069
4	0x3fc14206	1.5098274
5	0x3fa93eb6	1.3222263
6	0x3fdd22ea	1.727628
7	0x3fe30860	1.7736931
8	0x3f817ba6	1.011586
9	0x3fb33d96	1.400317
10	0x3f921b43	1.141457
11	0x3fa6c921	1.303013
12	0x3feacd99	1.8343993
13	0x3f689927	0.9085869
14	0x3f873f9a	1.0566285
15	0x3ffbbfd1	1.9667913
16	0x3f8adaea	1.0848057
17	0x3fc8a8f7	1.5676564
18	0x3fdee57e	1.7413785
19	0x3faea401	1.36438
20	0x3f97b0b8	1.1850805
21	0x3faff99b	1.3748049
22	0x3fea52f1	1.8306562
23	0x3f5e73a9	0.86895233
24	0x3f809b96	1.0047481
25	0x401a228f	2.4083593
26	0x3f86d801	1.0534669
27	0x3f8f77cc	1.1208434
28	0x401e9bc4	2.4782572
29	0x408ae762	4.340745
30	0x3fdfa28c	1.747148
31	0x4002701b	2.0380924

weight f4 [32]
0	0x3f80e7df	1.0070761
1	0x3f79716f	0.9743871
2	0x3f8bbb06	1.091645
3	0x3f728eb1	0.9474898
4	0x3f6ef3aa	0.9334055
5	0x3f85c5d7	1.0451001
6	0x3f89e5cd	1.0773255
7	0x3f7c968c	0.98667216
8	0x3f759123	0.95924586
9	0x3f846e38	1.0346136
10	0x3f76fe50	0.964818
11	0x3f84e82d	1.0383354
12	0x3f6b4f2d	0.9191769
13	0x3f90dbc9	1.1317073
14	0x3f809b68	1.0047426
15	0x3f8523d2	1.0401556
16	0x3f74e1e1	0.95657164
17	0x3f876db9	1.058036
18	0x3f895bf0	1.0731182
19	0x3f4e1cd4	0.8051274
20	0x3f7ceb15	0.98796207
21	0x3f83040d	1.0235611
22	0x3f86ef5c	1.0541797
23	0x3f88bff1	1.0683576
24	0x3f771e2b	0.9653041
25	0x3f83b082	1.0288241
26	0x3f85f4da	1.0465348
27	0x3f8ad6e9	1.0846835
28	0x3f89398a	1.0720685
29	0x3f9ae4e5	1.2101103
30	0x3f8bcda3	1.092213
31	0x3f84d0ac	1.0376182

bias f4 [32]
0	0xbb4cb7ee	-0.003123756
1	0xbe4a4076	-0.19751152
2	0xbe472cdb	-0.19450705
3	0x3e119995	0.14218743
4	0xbdf01b1b	-0.1172392
5	0x3e6a2ffc	0.22869867
6	0xbe3d01cd	-0.18457718
7	0xbe427ead	-0.18993635
8	0xbce761e8	-0.028244928
9	0x3c96353c	0.018335931
10	0xbdb5584f	-0.08854734
11	0x3a3f8014	0.0007305157
12	0x3db94373	0.09046068
13	0xbd907985	-0.07054428
14	0x3b054cf9	0.0020340069
15	0xbd049a81	-0.03237391
16	0x3dc45e55	0.09588305
17	0xbd721263	-0.059099566
18	0x3e0d7a93	0.1381629
19	0x3bbbfc24	0.0057368446
20	0xbbdeff7e	-0.0068053594
21	0x3d23509f	0.03987181
22	0x3d991012	0.07473768
23	0x3d8faa2a	0.07014878
24	0xbd35d295	-0.04439028
25	0x3d90f4d2	0.07077946
26	0xbc80b135	-0.015709499
27	0xbdd1253f	-0.10212182
28	0xbd99bee8	-0.075071156
29	0x3e097c06	0.13426217
30	0xbdb23526	-0.087015435
31	0x3d9f5a3e	0.07780884

running_mean f4 [32]
0	0xbd181f81	-0.03713942
1	0xbd8b2fc4	-0.0679622
2	0x3bc04067	0.0058670524
3	0xbccebb67	-0.025235845
4	0x3d53a49c	0.051670656
5	0xbca808be	-0.020511981
6	0xbc8ea956	-0.01741473
7	0xbc6bb98e	-0.014387501
8	0xbc8118dc	-0.015758924
9	0x3bfde2d0	0.0077479854
10	0x3d1e3862	0.03862799
11	0x3db9379d	0.090438105
12	0x3c492b2c	0.012278359
13	0xbcef3581	-0.029200317
14	0xbce3b59a	-0.027796555
15	0xbbc7b9e0	-0.006095156
16	0xbd269bf2	-0.040676065
17	0x3d50bf20	0.05096352
18	0xbd79e90c	-0.061013266
19	0xbd7f06d2	-0.062262364
20	0xbbadd934	-0.0053054336
21	0xbd0a749e	-0.03380262
22	0x3bd4b09e	0.006490781
23	0x3d29d082	0.041458614
24	0xb913cba2	-0.00014094872
25	0x3c7fb9eb	0.015608291
26	0x3b31e60f	0.0027145182
27	0x3c902e0e	0.017600086
28	0x3a8ba8f0	0.0010655206
29	0xbce76c04	-0.028249748
30	0xbd536c6c	-0.05161707
31	0x3d1ab010	0.037765563

running_var f4 [32]
0	0x3f2376a4	0.63852906
1	0x3f1ebd90	0.62008
2	0x3f23d868	0.64002085
3	0x3f2c95d5	0.67416126
4	0x3f40b191	0.75270945
5	0x3f29146b	0.6604678
6	0x3f21eb73	0.6324989
7	0x3f316560	0.6929531
8	0x3f28cd03	0.65937823
9	0x3f2263b4	0.63433385
10	0x3f273a23	0.65323085
11	0x3f2a3c05	0.6649783
12	0x3f30fe7b	0.69138306
13	0x3f26d717	0.6517195
14	0x3f25fa8e	0.6483544
15	0x3f240cc1	0.6408196
16	0x3f283ad7	0.6571478
17	0x3f1e736d	0.61894876
18	0x3f2b4870	0.66907406
19	0x3f3eeaef	0.7457723
20	0x3f22d69b	0.6360871
21	0x3f1da2c9	0.61576515
22	0x3f39f2ad	0.7263592
23	0x3f1eeb12	0.6207744
24	0x3f2bd1ea	0.6711718
25	0x3f2a3841	0.66492087
26	0x3f33e335	0.70268565
27	0x3f2ad972	0.66738045
28	0x3f3b8243	0.7324564
29	0x3f284d61	0.6574307
30	0x3f2a7933	0.66591185
31	0x3f32b5fc	0.69808936

weight f4 [32]
0	0x3f8e7ad8	1.1131239
1	0x3f81af5a	1.0131638
2	0x3f8bf946	1.0935447
3	0x3f5f1023	0.87134
4	0x3f631cbd	0.88715726
5	0x3f80eea2	1.0072825
6	0x3f69f1f5	0.9138482
7	0x3f717966	0.94325864
8	0x3f7c9adc	0.98673797
9	0x3f7cfbaf	0.9882154
10	0x3f63863b	0.88876694
11	0x3f7c3c2a	0.98529303
12	0x3f701402	0.9378053
13	0x3f6b19a5	0.91836005
14	0x3f7dde79	0.9916759
15	0x3f73ef01	0.95286566
16	0x3f5a1a93	0.851968
17	0x3f7b8491	0.98249155
18	0x3f768c4f	0.96307844
19	0x3f6a37dd	0.9149149
20	0x3f7071e1	0.93923765
21	0x3f8f02d4	1.1172738
22	0x3f8a9246	1.0825889
23	0x3f6a8f47	0.91624874
24	0x3f70be6c	0.9404056
25	0x3f80f49d	1.007465
26	0x3f5f76e2	0.87290776
27	0x3f824e56	1.0180156
28	0x3f77692a	0.9664484
29	0x3f79c4d1	0.97565943
30	0x3f72405c	0.94629455
31	0x3f7cdbe1	0.9877301

bias f4 [32]
0	0xbc172f77	-0.009227625
1	0xbe01b93c	-0.12668318
2	0xbe2b3450	-0.16719174
3	0x3e21b028	0.15789855
4	0xbe0851a5	-0.13312395
5	0x3e40ad98	0.18816221
6	0xbe4bbad8	-0.19895494
7	0x3df4fa41	0.11961795
8	0x3da96c63	0.08272626
9	0xbde92f8c	-0.11386022
10	0xbdb38d51	-0.08767188
11	0x3db04c6b	0.086083256
12	0x3d914f35	0.07095186
13	0x3de6e126	0.112734124
14	0x3e00fafb	0.12595741
15	0x3e015f3b	0.12633984
16	0x3e1b813c	0.15186018
17	0xb9071a50	-0.00012884405
18	0x3dcd5450	0.10025847
19	0xbe21fd5b	-0.15819304
20	0xbdfcb11c	-0.123384684
21	0xbd0f1817	-0.034935083
22	0xbdc1d18d	-0.09463797
23	0x3d5cefbd	0.05393957
24	0x3d1d9033	0.038467597
25	0x3d99daa0	0.075124025
26	0xbc079aa9	-0.00827662
27	0x3d106eb6	0.035261832
28	0xbc8a54c8	-0.01688613
29	0xba79978c	-0.00095211784
30	0xbb76162b	-0.0037549834
31	0xbd4fa130	-0.05069083

running_mean f4 [32]
0	0xbe16fa97	-0.1474403
1	0x3da631f7	0.08114999
2	0xbda2be2c	-0.07946429
3	0xbd7a43c4	-0.061099783
4	0xbdce0081	-0.1005869
5	0x3dc542aa	0.09631856
6	0xbc9c4db4	-0.01908002
7	0x3e1b0f5b	0.15142576
8	0x3d21a8cc	0.039467618
9	0x3d53b5f0	0.05168718
10	0x3d3602be	0.04443621
11	0x3dad24f6	0.08454315
12	0x3d87fb5d	0.066397406
13	0xbd69ba92	-0.057062693
14	0xbd2dea6b	-0.042459887
15	0x3da7c97a	0.081927255
16	0x3e3bd576	0.18343148
17	0x3d999574	0.07499209
18	0x3d1fb93c	0.038995013
19	0xbd4ec73b	-0.05048297
20	0xbe0066da	-0.12539235
21	0xbdb956d3	-0.090497635
22	0x3ce4b9bd	0.027920598
23	0x3df772cb	0.12082442
24	0xbd3190af	-0.04335087
25	0xbde07948	-0.109606326
26	0x3b0c3b51	0.002139766
27	0xbcf16056	-0.029464882
28	0xbd8a4746	-0.067518756
29	0xbe200571	-0.15627076
30	0x3ccc1993	0.024914538
31	0x3d1e78d2	0.038689442

running_var f4 [32]
0	0x3fc7cda5	1.5609633
1	0x3f85b801	1.0446779
2	0x403b6e5e	2.9286113
3	0x3f93f1d1	1.1558172
4	0x3fbbcdf7	1.467223
5	0x3fe0f3d5	1.7574412
6	0x3fd6b87b	1.6775049
7	0x401ce02d	2.4511826
8	0x3ffce2d2	1.975672
9	0x4000af67	2.0107057
10	0x3ff77b30	1.9334469
11	0x402a1f61	2.6581652
12	0x3ff8b00d	1.9428726
13	0x3fb6784d	1.4255463
14	0x3f8f1f4d	1.1181427
15	0x4008d54e	2.138019
16	0x3fa6d329	1.3033191
17	0x3f5f2d9c	0.8717897
18	0x4006bf53	2.1054275
19	0x40186fe8	2.3818302
20	0x3fbf3fb9	1.4941322
21	0x3fd73ca0	1.6815376
22	0x3faca4a8	1.3487749
23	0x3faf215f	1.3682059
24	0x3fd1c767	1.6388978
25	0x3fe484bd	1.7853009
26	0x40524847	3.2856615
27	0x400a400a	2.1601586
28	0x40057555	2.0852864
29	0x3fb06067	1.377942
30	0x401f54f4	2.4895601
31	0x3f9429b3	1.1575226
