Experiments/2022_07_26 13-51-41 wine_100runs_learning-rate_3mv-features_custom-loss /models/Model_run96_optimizer_params0.5_magnesium.pt (torch, 264781 bytes, 318 tensors)

weight f4 [12]
00000000: 0000 803f 0000 803f 0000 803f 0000 803f
00000010: 0000 803f 0000 803f 0000 803f 0000 803f
00000020: 0000 803f 0000 803f 0000 803f 0000 803f
1.0 1.0 1.0 1.0 1.0 1.0 1.0 1.0
1.0 1.0 1.0 1.0

bias f4 [12]
00000000: 0000 0000 0000 0000 0000 0000 0000 0000
00000010: 0000 0000 0000 0000 0000 0000 0000 0000
00000020: 0000 0000 0000 0000 0000 0000 0000 0000
0.0 0.0 0.0 0.0 0.0 0.0 0.0 0.0
0.0 0.0 0.0 0.0

running_mean f4 [12]
00000000: 0000 0000 0000 0000 0000 0000 0000 0000
00000010: 0000 0000 0000 0000 0000 0000 0000 0000
00000020: 0000 0000 0000 0000 0000 0000 0000 0000
0.0 0.0 0.0 0.0 0.0 0.0 0.0 0.0
0.0 0.0 0.0 0.0

running_var f4 [12]
00000000: 0000 803f 0000 803f 0000 803f 0000 803f
00000010: 0000 803f 0000 803f 0000 803f 0000 803f
00000020: 0000 803f 0000 803f 0000 803f 0000 803f
1.0 1.0 1.0 1.0 1.0 1.0 1.0 1.0
1.0 1.0 1.0 1.0

weight f4 [12]
00000000: 1ac0 0e40 2246 01c0 4783 c43f 9e2d 16bf
00000010: 985f e23f f5d1 2640 20da 9ebc 4d9d 3040
00000020: df75 eabf caad af3f 0edd ddbf f48f a340
2.230475 -2.0199056 1.5352563 -0.58663356 1.7685423 2.6065648 -0.01939112 2.7596009
-1.8317221 1.3724911 -1.7333086 5.1113224

bias f4 [12]
00000000: 579e 2ac0 74bb 1340 caf7 02c0 e406 0fc0
00000010: 9b07 0240 c9b5 7b40 5bf3 aabd 1242 a53f
00000020: b513 59c0 862f 0940 f1f7 89c0 d573 d1bf
-2.6659143 2.3083162 -2.0463738 -2.2347956 2.0317142 3.9329703 -0.083471976 1.2910788
-3.3918278 2.1435256 -4.3115163 -1.6363474

running_mean f4 [12]
00000000: 66ea b43f 205d 8b41 1d7a 9740 8ef1 3a41
00000010: 2cb1 1340 70ff 2c44 0280 d23f 680e a03e
00000020: 0374 593f e0c6 c83f 4b09 0740 b815 0840
1.4134033 17.420471 4.7336564 11.683973 2.3076887 691.9912 1.6445315 0.3126099
0.84942645 1.5685692 2.1099422 2.1263256

running_var f4 [12]
00000000: cd50 b03e 25e8 1741 0e8f a940 3b76 2a3f
00000010: 4c86 113f b93c b447 d633 c43f af90 f53d
00000020: 8c11 1d3e 3abb 2940 6eca e43e fced 2b3e
0.34436646 9.494176 5.2987127 0.66586655 0.56845546 92281.445 1.5328319 0.11990487
0.15338725 2.6520524 0.44685692 0.16790003

weight f4 [32, 12]
00000000: c58d ddbf 5520 9bbf ccf3 0840 5ff2 0f40
00000010: 42c2 6d3f 9bf6 3f3f 7408 1540 3e6f f83e
00000020: 8325 83c0 ce4a 933f e7bf 8ac0 029f 49c0
00000030: 69eb 55c0 268b 45c0 c578 d43f c54e f4bf
00000040: bb31 3c3f f00b 2e40 6014 ed3e a822 debf
00000050: e2f0 b4bf 101b 2440 c8b0 8bc0 4f51 75be
00000060: 6c9c c2be b527 45c0 d515 0dc0 13ed aabf
00000070: b8c9 29c0 040b 19bc fab9 383f 6af2 7640
00000080: 79c1 2f40 c068 203e 9aed a1bf 4d03 4dc0
00000090: 90c0 6040 f9fb f53f 4990 3740 64fc a33f
000000a0: 47c5 71c0 ae13 a83f 7b63 e33f 9661 6440
000000b0: 9500 38bf 6d17 933f c5c2 1840 5e93 6d40
000000c0: 8420 61c0 ac79 8abf aef4 44bf 3375 ccbf
000000d0: 60a5 c5bf b627 28be fb14 36c0 8944 6140
000000e0: c56b 0bc0 ae43 3440 59e0 bfbf 8458 0cc0
000000f0: dbd6 3bc0 2e2b fa3f e84f e8bf e9a7 d5bf
00000100: b888 59c0 940b 3bbf d348 47c0 7105 c53f
00000110: f19e 5c3f 5837 0bc0 adda 7c40 e82a bd3e
00000120: 43b0 45c0 8cfd 73c0 15db 4ec0 802c 0d40
00000130: 6af9 2140 f674 89c0 fe50 9d3f eccd b33e
00000140: 2d33 9b40 1789 ddbf dd3a 953f 0198 46c0
00000150: 1557 21bf 4ea4 39c0 1118 de3f 3aee 993f
00000160: 99ee e1be 4683 c640 2b1b a5bf 4266 50c0
00000170: c1a5 5840 5aa7 be3f 3e81 0ac0 d6d6 bb3f
00000180: 7dba ce3f 5194 af3f 075a edbd 44e7 93bf
00000190: cbf1 14c0 64ba 1dc0 d42d 0140 6b3c 40c0
000001a0: 207c e8bf 95a0 a5be a53f 553f 5226 8840
000001b0: b0f5 5f3f b8a4 d03f 5712 26c0 e5a4 953f
000001c0: ed54 05c0 cc15 71c0 0be9 0d40 46dc 4ac0
000001d0: c41f 1240 567e c83f 040b a23f 235c 3740
000001e0: 8f7f a0bf ce49 ddbf d59c 01c0 aec0 a0bf
000001f0: 1729 1340 fc12 1f40 0de0 0040 3c97 04bf
00000200: b7f9 5fc0 06b5 e43f 4fa7 53c0 b692 2ac0
00000210: 6328 333f 9586 0d40 34bd 9abf 6f76 0ec0
00000220: a442 6240 e375 88c0 13d0 c2bf b2d4 82bf
00000230: 6b97 723f 9f46 96bf b57c 5bc0 1005 9a3f
00000240: a565 d0bf 5c14 2340 1993 303e b488 85bf
00000250: 347a 753f 5806 1640 63e2 ab3f c451 cb3e
00000260: 2ff6 99c0 c10b 6140 8474 8bbe 8a87 7640
00000270: 94ed b7bf 01a1 01c0 205e 1140 0b52 cdbe
00000280: 1770 9dbf 9860 7940 9f50 6f3f d216 2940
00000290: 60ee cdbf 3218 81c0 adb6 df3f a1b3 bbbf
000002a0: b3ac 1a40 5144 a53f f40b e13f d176 c33f
000002b0: 0496 0ac0 ffd8 21c0 28e5 46be fecb 5c3f
000002c0: e28d 4a40 a9c2 8abe 2f94 003f ccbb 9b40
000002d0: 660f 8e3e 55e6 27c0 3a99 bfbf c00e 2840
000002e0: 397e ca3f 7762 f83f cdfa 9c3f 2920 173f
000002f0: 6bd6 47c0 a53f 49c0 931d a6bf 7340 81c0
00000300: d820 3cc0 05e1 cd3f 8512 c53f e551 0040
00000310: a2b1 e3be 8d9f 9bc0 9d81 553f 767c 303e
00000320: ff86 c6bf 3568 9340 4c0f 2cc0 0f3b 4fbe
00000330: 58be 4440 1112 40c0 6ae2 0dc0 a00b 1ec0
00000340: 1742 1840 9357 11c0 140f 0540 02fb fc3f
00000350: 6d49 e13f 7728 eebf b8ac 0640 75a5 13bf
00000360: d046 babf ddd8 7640 b9f7 7b3e 42ea 2840
00000370: 2c41 8fbf 4bab e93f 8c1c 64c0 a191 5540
00000380: b490 303f 33b2 d33f 15a4 4440 572f 22c0
00000390: df01 0a40 58d8 95c0 ac81 1940 2ca0 3e40
000003a0: 1ba4 39c0 29d3 b23f 74db c3bf 8b55 e73f
000003b0: 779f 17c0 9722 6240 0a54 87bf 9d50 f13f
000003c0: 8f08 22c0 f4b5 1e3f 238f 30c0 68e7 febf
000003d0: 6816 8cbf b35b 5cc0 8603 3740 4fe8 6f3e
000003e0: 12c7 bfbf 39ec 0640 cebe 40c0 59d0 7fc0
000003f0: 3c5d 873e 8f4d e7bf f45b e6bf 3fce dd3f
-1.730889 -1.2119242 2.1398802 2.2491682 0.9287454 0.74985665 2.328641 0.4852237
-4.098329 1.1507204 -4.3359256 -3.15033 -3.3424933 -3.086618 1.6599356 -1.9086539
0.7351338 2.7194786 0.46304607 -1.7354326 -1.4136012 2.5641518 -4.3653297 -0.23956798
-0.38009965 -3.0805485 -2.2044575 -1.3353599 -2.652937 -0.009341005 0.7215878 3.8585458
2.7461836 0.15664959 -1.2650635 -3.2033265 3.511753 1.9217521 2.8681815 1.2811399
-3.7776659 1.3131006 1.7764734 3.5684562 -0.7187589 1.1491524 2.3868878 3.7121196
-3.5176096 -1.0818381 -0.7693585 -1.5973266 -1.5441093 -0.16421399 -2.8450305 3.519808
-2.1784527 2.8166308 -1.499034 -2.1929026 -2.9349887 1.9544427 -1.8149385 -1.6691867
-3.3989697 -0.7306454 -3.1138198 1.5392286 0.86180025 -2.175253 3.950847 0.36946797
-3.0888832 -3.8123503 -3.2321217 2.205841 2.530848 -4.2955275 1.2290342 0.35118043
4.849997 -1.7307462 1.1658589 -3.1030276 -0.630235 -2.9006534 1.7351094 1.2025826
-0.44127348 6.2035246 -1.2898916 -3.2562413 3.3851168 1.4894822 -2.1641383 1.4674938
1.6150662 1.3717138 -0.11589437 -1.1554952 -2.3272579 -2.4645014 2.0184221 -3.0036876
-1.816288 -0.32349077 0.8330024 4.254678 0.87484264 1.6300268 -2.5948694 1.1690947
-2.0833085 -3.7669554 2.2173488 -3.1696944 2.2831888 1.5663555 1.2659612 2.8649986
-1.2538928 -1.7288148 -2.0251973 -1.2558801 2.299383 2.4855337 2.013675 -0.51793265
-3.4996164 1.7867744 -3.3070867 -2.6652045 0.699835 2.2113392 -1.208899 -2.2259786
3.5353174 -4.2643905 -1.5219749 -1.022116 0.94762295 -1.1740302 -3.4294865 1.2032795
-1.628102 2.5481176 0.17243613 -1.0432343 0.9588959 2.3441372 1.3428463 0.3971082
-4.8113017 3.5163424 -0.27237332 3.8520226 -1.4369378 -2.025452 2.27137 -0.40101656
-1.2299832 3.8965206 0.93482393 2.6420178 -1.6088371 -4.0342035 1.7477623 -1.4664193
2.4167907 1.2911474 1.7581773 1.5270635 -2.1654062 -2.5288694 -0.19423354 0.8624877
3.1649098 -0.2710164 0.5022611 4.8666744 0.27746123 -2.6234334 -1.4968636 2.6259003
1.581977 1.9405049 1.2264038 0.5903345 -3.122462 -3.1445096 -1.2977775 -4.0391173
-2.9395046 1.6084296 1.5396277 2.0049984 -0.4447146 -4.8632264 0.834009 0.17234978
-1.5509948 4.6064706 -2.6884336 -0.20237373 3.0741177 -3.0011027 -2.2169442 -2.4694595
2.3790338 -2.27097 2.0790453 1.9764102 1.7600533 -1.8606099 2.104292 -0.5767434
-1.455286 3.8569863 0.24606217 2.639298 -1.1191764 1.82554 -3.5642424 3.3370135
0.689708 1.6538757 3.0725148 -2.5341394 2.1563642 -4.682659 2.3985395 2.978526
-2.9006412 1.3970691 -1.5301347 1.8072981 -2.369108 3.5333612 -1.0572522 1.8852726
-2.5317724 0.6199639 -2.7587364 -1.991437 -1.0944338 -3.4430969 2.85959 0.23428462
-1.4982626 2.108168 -3.0116458 -3.9970915 0.2643832 -1.8070544 -1.7996812 1.7328566

weight f4 [32, 16]
00000000: 7fe1 3dc0 05f8 fe3f 4ebf 24bf 8d2d 0dc0
00000010: bb9e f03f 9868 a3bf b969 7e40 e136 f73d
00000020: 783b c13e adf8 07c0 e680 3540 fdc2 1abf
00000030: b96c b3bf d43d 6a40 d574 23c0 9130 aabf
00000040: 7e35 0f40 2704 1c40 8bba b0bf e7e9 c33f
00000050: 6fa2 2f40 9204 823e a2f4 50c0 fa87 eb3f
00000060: c460 a73c 086c 7dc0 5672 a13f 68bf 23c0
00000070: 0cac 2cbf 64ca 8440 1e13 7fc0 c16a 113f
00000080: c9a4 0040 4d96 813f 789e 4ac0 1d99 1040
00000090: b7f6 853f 4c54 82bf 4519 9bbf 0b0c de3f
000000a0: a8c4 cd3e ad80 d33f 6483 01bf d758 aac0
000000b0: 8937 b33e 12a4 5d40 f39e 0dc0 de24 8440
000000c0: 21f5 bb3f 1758 6140 4a92 83c0 a54d 0d40
000000d0: 6044 3cbf d7f1 68c0 ad7b b8bf 0bd1 8140
000000e0: c2ac 8a3f ed39 e83f be6a b33f e8ec de3c
000000f0: c221 03c0 5e41 a43f 401a 15c0 3c2c 4dbe
00000100: 4edf 2940 aa2b 553f f315 c23f c9e3 d13f
00000110: 2b08 673f d3e8 1240 5f9c fb3f 83f8 36bf
00000120: 2bf2 06c0 206a 20bf 04ab 82c0 d6bc 7c40
00000130: 47ac debf 738b 5ac0 386e 17bf c3a9 0540
00000140: 3374 8e3f 4db8 e53f cfe4 f4bf 8a7c 7c3f
00000150: 5fbb 883f 33de 22bf df1c 2540 a566 1ec0
00000160: 831f d5bf 8fb3 7ac0 4f7e f3bf b044 44c0
00000170: ac89 37c0 7981 2240 d15a af40 1ecc bfbe
00000180: eff7 913f 5d97 dcbf ef03 dd3e c9bd ef3f
00000190: c30d 5e40 20c0 193f d6f9 4ec0 eeee ddbf
000001a0: 911a f63e a18c febf 61bc 49bd bb14 1fc0
000001b0: 2dd2 4b40 9b00 3dbf 5310 6540 824f 75c0
000001c0: 15d4 3840 8640 103f e495 b6c0 6c84 67bf
000001d0: 8c47 90be bb5f 6cbf b677 cb3e ed5b d2bf
000001e0: 8f75 bdc0 fbdb 4a40 6452 09c0 1431 07c0
000001f0: 19c1 babf 544a ef3f 4c65 57c0 c797 b03d
00000200: c5c5 803e 2701 99bf f546 003f fb6b a940
00000210: 11d4 90c0 516e 9f3f a902 eebe a946 bc3d
00000220: e0f9 2ec0 1cbc 65c0 6f4e a9bf 3b6d ef3f
00000230: bf8f 5540 279f acbf cee1 f13f 3b19 b9bf
00000240: 5716 b23f d7d7 25c0 0ef9 74c0 a775 1fc0
00000250: 833f bf3f ff88 afbf 072d 1cc0 eadc ee3f
00000260: 8045 5040 d27f 3040 cf8a b93f a9ad e33f
00000270: 3e62 1f40 68bf babf 5490 ebbf c933 79c0
00000280: 9c14 4840 5897 28bf 38c0 52c0 cbec 7abe
00000290: 20d8 3dc0 0938 52bf e8d9 4bc0 5992 823d
000002a0: 024d 503f 308e a93f ae30 60c0 ab0d e73f
000002b0: af26 1d3f e7fb 52c0 fa54 6b40 baac b3be
000002c0: 98b6 3d40 8a99 5dc0 c647 fa3e cda1 5dbe
000002d0: a46c d9bf f53a 7e40 bd34 3e40 eba4 99bf
000002e0: b90e cdbf ebf8 01bf cced 67c0 135a 1540
000002f0: 019a c9be 4da4 82c0 f637 c83f 19f9 5bc0
00000300: caff f33f 1d36 c7bf ba16 873f 99f6 32bf
00000310: de51 5740 92a0 00c0 a7fd 013f ae4d 9e3c
00000320: bdee 70be 8710 6ec0 30cd 0840 6e62 3cbf
00000330: dbde cd3f 4d04 8640 6562 0a3f 4eac 83bf
00000340: 2e82 f4bf b10e 1f3f 2dd3 6440 6616 df3f
00000350: 0323 6ec0 ca26 43c0 b369 953f 8a23 1f3e
00000360: c47e e4bd 1a2b a23e 6de3 5dbf e28d 2ac0
00000370: 89fb 1abe b6af ddbf 161b 74c0 fed9 5240
00000380: 2ca5 b9bf d5db f73f 6154 afbf 3487 01bf
00000390: 2d6f 4c40 a920 84c0 86cd a13e b918 8abf
000003a0: 3f59 803f bc05 10c0 3298 32c0 0d5a 29c0
000003b0: 8edf 89bf c31a 5f40 5d66 b9be 9831 a93f
000003c0: 177b fe3e 3d08 c03f 8eda 6740 844c 133f
000003d0: f8f3 e0bf 5f71 d03f 4132 0640 df26 52c0
000003e0: 5cb9 1540 6ff7 07c0 00fb 4fc0 2418 e33f
000003f0: acc4 153d 13a7 37c0 5bad 9240 ef58 833e
-2.9668882 1.991944 -0.6435441 -2.2059052 1.8798441 -1.2766294 3.9752028 0.12071014
0.37740684 -2.124553 2.8359923 -0.6045378 -1.4017555 3.6600237 -2.5540059 -1.3296071
2.23764 2.4377534 -1.3806928 1.5305756 2.7442892 0.25394112 -3.2649312 1.8400872
0.020431884 -3.9597187 1.2613018 -2.5585575 -0.6745002 4.149706 -3.9855418 0.5680352
2.0100577 1.0123993 -3.1659222 2.2593453 1.0465916 -1.0181975 -1.2117087 1.7347425
0.401891 1.6523644 -0.5059111 -5.3233447 0.35003307 3.463139 -2.2128265 4.1295004
1.4684182 3.5210016 -4.1116076 2.207864 -0.7354183 -3.6397607 -1.4412743 4.056768
1.0833972 1.8142678 1.401695 0.027212575 -2.0489354 1.2832448 -2.3297272 -0.20036405
2.6542544 0.8326975 1.5162948 1.639764 0.9024684 2.2954605 1.9657096 -0.7147295
-2.1085308 -0.62661934 -4.083376 3.9490256 -1.7396325 -3.4147613 -0.59152555 2.0884864
1.1129211 1.7946869 -1.9132327 0.9862753 1.0682181 -0.636203 2.5798872 -2.475015
-1.6650242 -3.9172094 -1.9022921 -3.0666924 -2.8677778 2.5391524 5.479836 -0.37460417
1.1403788 -1.7233692 0.43167064 1.8729793 3.46959 0.60058784 -3.2339988 -1.733854
0.48067144 -1.9886667 -0.049251918 -2.4856403 3.184703 -0.7382905 3.5791214 -3.8329778
2.8879445 0.56348455 -5.705797 -0.90436435 -0.28179586 -0.92333573 0.3973977 -1.6434304
-5.9206004 3.1696765 -2.1456537 -2.1123705 -1.4590179 1.8694558 -3.3655577 0.08622699
0.25150886 -1.1953477 0.5010827 5.294431 -4.525887 1.2455541 -0.46486405 0.09193165
-2.7340012 -3.5896063 -1.3227061 1.870521 3.3368986 -1.348607 1.8897035 -1.4460825
1.3913068 -2.5912988 -3.827701 -2.491556 1.4941257 -1.3713683 -2.4402483 1.8661168
3.254242 2.7578015 1.4495486 1.7787372 2.4903712 -1.4589663 -1.840342 -3.8937857
3.126258 -0.6585593 -3.292982 -0.24504392 -2.9663162 -0.8211675 -3.185175 0.0637557
0.81367505 1.3246517 -3.5029712 1.8051046 0.6138715 -3.296625 3.6770616 -0.35092717
2.9642696 -3.4624963 0.48882884 -0.21643753 -1.698628 3.9723485 2.971969 -1.2003454
-1.6020118 -0.50770444 -3.623889 2.3336227 -0.39375308 -4.0825562 1.5642078 -3.4370787
1.9062436 -1.5563389 1.0553811 -0.6990753 3.3643718 -2.0098004 0.5077767 0.01932415
-0.23528571 -3.7197587 2.1375237 -0.7358769 1.6083635 4.188025 0.5405639 -1.0286958
-1.9102228 0.6213179 3.5753891 1.742871 -3.720887 -3.0492425 1.1672882 0.15540901
-0.11156991 0.3167351 -0.8667515 -2.6649098 -0.15135016 -1.7319248 -3.8141532 3.2945552
-1.4503531 1.9363962 -1.3697625 -0.5059693 3.1942856 -4.128987 0.31602114 -1.0788795
1.0027236 -2.25035 -2.7905393 -2.6461213 -1.0771348 3.4860084 -0.3621091 1.321826
0.49703285 1.5002514 3.6227145 0.5753863 -1.7574453 1.6284598 2.0968173 -3.2836225
2.3394384 -2.1244771 -3.2496948 1.7741742 0.036564514 -2.8695724 4.5836616 0.25653788

weight f4 [32]
00000000: cda4 b9be 625d 0bc0 96ec 0a40 7ac7 753f
00000010: e7fe b5bf a456 2440 ff7c 6f3f a809 70bf
00000020: 9bdf 813f dd36 81bf eb8e 943e c3eb 3dc0
00000030: 83e5 6140 bf18 32bf aa37 9a40 3166 043f
00000040: 3265 cc3e b0c7 4d3e 9b65 06c0 ff81 4e40
00000050: d1bb f1be 4f1a 63c0 7e0a cabf 4041 fa3f
00000060: 863c 183e 6f0a 32bf 036d 83be 48f1 9ebe
00000070: a351 a340 3750 6840 683c 5c40 be9f c13e
-0.36258546 -2.1775746 2.17069 0.960075 -1.4218415 2.5677881 0.93550104 -0.93764734
1.0146364 -1.0094868 0.29015288 -2.9675148 3.5296333 -0.6956901 4.819295 0.5171843
0.39920956 0.20095706 -2.0999515 3.2266843 -0.47213605 -3.5484807 -1.5784452 1.9551163
0.14866838 -0.6954717 -0.25669107 -0.31043458 5.1037154 3.629896 3.441187 0.37817186

bias f4 [32]
00000000: addc c8be c509 803f b50b 0dc0 0349 95bf
00000010: 60e7 843f 7c8e d53f 8e5f 4e40 483f 4440
00000020: 06c7 a3bf 13c9 a83f f41f 7abf 6ef4 8bbf
00000030: 21c8 153f 1211 8340 e175 80bf e91e 24bd
00000040: 695d 13c0 ccd5 81c0 1a9e d03f c5c6 673f
00000050: 963e 87c0 89aa 0140 c9f8 a53f 88d4 17bf
00000060: 6594 acbf f5c5 01c0 b85e 04c0 819d 4940
00000070: a679 2b40 773d 06c0 a1a5 0440 f5fc 85c0
-0.39230862 1.0002981 -2.2038395 -1.1662906 1.038311 1.6684108 3.2245822 3.0663624
-1.2795112 1.3186363 -0.97705007 -1.0933969 0.585085 4.095834 -1.0035974 -0.04006854
-2.3025763 -4.0573483 1.6298249 0.90537673 -4.22639 2.0260336 1.2966548 -0.5930867
-1.3482786 -2.0277073 -2.0682812 3.1502383 2.6792998 -2.0975015 2.0726092 -4.1871285

running_mean f4 [32]
00000000: 690a 1542 320a 2642 a02e 3540 e457 b6c1
00000010: 8884 0f42 7f3d 4cc1 0d66 edc1 24c6 d240
00000020: 227b adc1 3567 05c2 0784 5542 3c6c da40
00000030: 0ea3 2642 6910 5240 a9cf 31c2 cc35 8e41
00000040: ab5e 2e41 c2d8 c2c1 56dd ff40 8e04 0ec1
00000050: 1693 f941 4729 a9c1 73c1 b9c1 ca86 d541
00000060: 3e4b 30c1 b569 d2c0 1057 2142 c291 f540
00000070: f1bd 9441 e3c7 9bc1 ca80 c6bf b346 07c0
37.260166 41.509956 2.8309708 -22.792915 35.879425 -12.765014 -29.67483 6.586687
-21.685123 -33.35079 53.378933 6.825712 41.659233 3.2822516 -44.452793 17.776268
10.898112 -24.355839 7.9957685 -8.876112 31.19682 -21.145155 -23.219458 26.690815
-11.01837 -6.5754037 40.335022 7.6740427 18.592745 -19.4726 -1.5508053 -2.1136901

running_var f4 [32]
00000000: 9263 9143 ffc3 1843 bf74 da43 2cbc 1e44
00000010: c50e 9d43 14ee a243 c63e 4b44 e854 fb43
00000020: a472 c843 fac5 8843 9c7c b343 8486 4b43
00000030: 6e66 1244 479c 3343 fcf1 2c44 9476 0344
00000040: 78ed 4943 0a24 3c43 7b1b d743 5159 d743
00000050: 3dc5 1b44 0e72 cf43 4041 5a43 f907 4d44
00000060: aaab a843 bbdd 9c42 1a5d 7343 2a9e 3444
00000070: fe9e 5243 4f9c c743 d193 cc43 e514 0d44
290.7779 152.76561 436.91208 634.9402 314.1154 325.86 812.98083 502.66333
400.89563 273.5467 358.9735 203.52545 585.60046 179.61046 691.781 525.8528
201.92761 188.14078 430.2147 430.69778 623.08185 414.89105 218.25488 820.1246
337.34113 78.43307 243.36368 722.4713 210.62106 399.22116 409.15482 564.3265

weight f4 [32]
00000000: b495 e53f fa63 b6bf 4d16 4d3f 3369 4140
00000010: be48 b740 accf 3a40 a7d5 2740 e7bb 71bf
00000020: fd49 1ec0 ec2a bbbf 2d81 4040 59a3 643f
00000030: c57c da3f 4f44 0640 7847 9040 62e9 ef3f
00000040: 7d31 3f3e 87de 12be 02f8 09c0 8699 5640
00000050: 2717 d1bf 2dd0 2240 e7a5 333f 106b 13c0
00000060: 2336 9e3e 7b35 07c0 e50f 4140 3997 a93d
00000070: 6728 8a3f 9ac7 a9bf c29e 82be 7591 6740
1.7936311 -1.424926 0.80112153 3.0220459 5.7276297 2.9189253 2.6224153 -0.9442734
-2.473266 -1.4622474 3.0078843 0.8931175 1.7069327 2.0979192 4.508724 1.8743098
0.18671222 -0.143427 -2.1557622 3.3531203 -1.633519 2.543956 0.7017502 -2.3034096
0.30900678 -2.1126392 3.0165951 0.082807966 1.079358 -1.3264039 -0.25511748 3.618253

bias f4 [32]
00000000: d11b 1ac0 06cf 2ebe 2cc3 4b3e 8a33 f9be
00000010: 9062 773e cebe 423f f0b3 cebf 2584 34c0
00000020: 25b4 4cbf 6951 2740 2a8c 8b3f 276f a93f
00000030: dbbd d13d b319 c3bf 0257 31c0 1db6 9b3d
00000040: 1872 9d3f 7d38 28c0 8110 84bf fedb dd3f
00000050: e08b 0140 6b57 6c40 7dc8 4140 4d1c e0bf
00000060: a59a 0dc0 4253 b6bf 4089 353f a272 cfbf
00000070: 40dd 59c0 9da6 3340 a433 7040 fc92 1bbf
-2.4079478 -0.1707116 0.19898671 -0.48672134 0.24158692 0.76072395 -1.6148663 -2.8205655
-0.7996238 2.614344 1.090215 1.3237046 0.1024129 -1.5242218 -2.7709355 0.07603095
1.2300444 -2.6284478 -1.0317537 1.7332761 2.0241623 3.6928356 3.0278618 -1.7508637
-2.2125638 -1.4244158 0.7091255 -1.6206858 -3.404129 2.8070443 3.753152 -0.60771155

running_mean f4 [32]
00000000: 587e 9f41 1c0a 3941 4b01 9741 4157 3441
00000010: bcbb cbc0 909e 1040 6ffc 69c1 375c b441
00000020: b25d 0bc1 2926 8340 beb1 5cc1 cb01 4bc0
00000030: f503 6c40 b612 e2be 39b2 e440 76b1 a1c1
00000040: f13f 2cc1 0e80 e340 e983 3340 bcd0 7d41
00000050: 1e62 8dc1 d7d3 efc0 a4a1 6541 274b 0bc0
00000060: dc56 49c0 af80 a540 64d1 5141 9200 93c0
00000070: 6bc5 4b40 c59e 0bc1 13b3 e040 a93a eac0
19.936691 11.564968 18.875631 11.271302 -6.366667 2.259678 -14.624129 22.545027
-8.710375 4.098408 -13.793394 -3.1719844 3.6877415 -0.441549 7.1467557 -20.21165
-10.765611 7.1093817 2.8049262 15.863461 -17.672909 -7.4946094 14.351963 -2.176462
-3.1459265 5.1719584 13.113621 -4.5938196 3.1839244 -8.726262 7.0218596 -7.3196607

running_var f4 [32]
00000000: 038f 3043 ec21 f043 3310 3644 41a0 c243
00000010: 7306 1644 dc1a 1c44 4a1d 0744 ff24 b443
00000020: e17f 8143 e1de 3243 f222 9943 9e16 f743
00000030: 7469 0c43 e27f e843 1aad b343 a9fd 2344
00000040: 9a77 6f43 ccc5 8043 fea0 e842 c1c0 ec43
00000050: 7c09 0844 f9d2 5d43 e73e 0744 b4d7 c543
00000060: 8d3c f442 eca2 a043 9e89 e943 b253 3a43
00000070: 2d22 9a43 9d44 9243 1938 7143 f405 b843
176.55864 480.265 728.2531 389.25198 600.10077 624.4197 540.45764 360.28903
258.99905 178.87062 306.273 494.1767 140.41193 464.99908 359.35236 655.96344
239.4672 257.5453 116.31444 473.5059 544.1482 221.82411 540.98285 395.68518
122.11826 321.27283 467.07513 186.32693 308.267 292.53604 241.21913 368.0465

weight f4 [32, 16]
00000000: 9c0c e1be 3e04 0cc0 1dd2 7040 4d22 c4bf
00000010: c30d 0f40 c412 31c0 650d 2840 6e7e 59c0
00000020: 30e9 6c3e e726 99bf 865c 8bc0 1404 3040
00000030: c354 433f 7c1a 92bf 45e9 4ac0 8fc1 f03f
00000040: 26b0 36c0 9240 4ec0 25e7 693f 4030 89bf
00000050: d91b 1640 1010 11bf 8e52 51c0 b287 b73f
00000060: 33e1 0c40 174f 603f c432 55c0 35e9 4040
00000070: 83c6 19c0 cfa1 0540 9195 0bc0 e546 32c0
00000080: 8787 0b40 db4d d5bf a076 4ec0 d83a 1c40
00000090: 31fc 2fbe b6c3 2bbe 93cb e3bf a2ab a73f
000000a0: 505d 3b40 9e14 f83f 7a7d dcbe 07f3 63bf
000000b0: 4ec8 66c0 65da 6e40 0e61 9a3e 28fa e33d
000000c0: c523 cbbf 8770 0ac0 3496 e4bf 032d 5e40
000000d0: cf26 1040 18c0 87c0 b032 22c0 3fea c33f
000000e0: 7ae9 7640 ff06 3540 50d6 b5be 09bf a9bf
000000f0: 1920 bfbf 5f01 f93f c026 3d3f d1c0 0fbf
00000100: d325 5ec0 eeea b4bf 4994 0340 cc57 03c0
00000110: cf94 3f40 e7f3 38c0 712f 81bf 6806 cc3f
00000120: 7f3b d13f 705f 01c0 59e2 5240 5048 d53f
00000130: 8438 0840 7759 3dc0 1474 d5bf 88fe 4740
00000140: b7ff d2bf b97c a83e 9153 113f bdc1 6bbf
00000150: 2f34 12c0 b654 1f40 d480 00c0 068b 22c0
00000160: e902 e93e f2b3 34c0 3547 29c0 f495 36c0
00000170: 07e0 6bbf 5b0e 1e40 9901 6340 45e6 0fc0
00000180: 3cd2 3140 75dc 3bc0 bbcf 6740 0c61 5ebf
00000190: e264 bf3f 20e2 23c0 6a19 13c0 f6f1 1a40
000001a0: ed58 7b40 c168 f4bf e4d0 2640 b3ef 0740
000001b0: 721c 4640 cf8b bdbf a08c 2bc0 bd7b 0a40
000001c0: 9ad0 2ac0 a79d 37c0 f2cf 1a40 fd72 f73f
000001d0: 1229 e63f 9075 15c0 070a f0bf c18a b63f
000001e0: 9220 c53f 7eb8 d8bf 65c2 2840 dd8b 913f
000001f0: 0ade 0e40 63f9 903f 6db0 28c0 30bf 00c0
00000200: 35cb 1ac0 13aa 42c0 a9a7 d7bc 8eb9 3840
00000210: 6c22 c6bf 54a3 8d40 9221 f93f 1abb 34c0
00000220: 4dd9 51c0 8d74 55c0 3a97 1f40 aaef ec3f
00000230: bdce 22c0 503b dcbf 965c 56bf 834d e2bf
00000240: 6d82 bbbf ef89 dcbf 4a21 5640 c9ad 98be
00000250: 2653 9dc0 7c1e 01bf 5d34 4440 f83e 0cc0
00000260: 0cfe 5840 330b d8bf 3a04 0040 9304 f8bf
00000270: 116b 2540 b725 a8bf 2b2f fb3f 9aa0 d4bf
00000280: 915f 6340 50ee 9e3f 0823 0640 63b6 cdbf
00000290: dbef 9e3d d555 31c0 e5c2 ff3f c453 033f
000002a0: ff7d b7bf 8162 4040 af71 a43f 1222 8440
000002b0: 1b2e 1a40 37c2 e7bf 0bb5 73c0 e119 423f
000002c0: fe75 1cc0 c593 e2bf 7eaf 1540 92c0 25c0
000002d0: a833 8abd f0f3 b23f 5b81 cc3f 5279 7d3f
000002e0: 905f 2940 dae8 4dc0 8b1f 2740 bd45 f63f
000002f0: ac08 6b40 3835 32c0 cd75 bcbf 6063 ee3e
00000300: 6442 d13f 6acb 3340 aca1 c2be 2ce0 ec3f
00000310: 3929 3ec0 650f 1cc0 4998 43bf adf0 37c0
00000320: 7c57 313e f4be 14bf b8f3 743f 5bd9 74c0
00000330: 5ac4 8940 17a0 90bf e80c 7b40 cd70 7dc0
00000340: b5a5 03bf 64c4 2440 cfac b3bf 8af1 6bbf
00000350: 9f3a 6240 672c 283f f65d 19c0 c6ed 743e
00000360: dfb0 1ebe 1f0d 2e40 33ae d53c 16b1 4b40
00000370: c8d7 8a3f eab9 40c0 3ff2 7fc0 f6d0 b73f
00000380: 6475 93bf 5424 ec3f 8301 a43f 015f 3f40
00000390: 6f27 64c0 885d 5d3d f40d a93f c812 a33d
000003a0: 96cc 81bf 128b c13f 191e cbbf eb52 20c0
000003b0: a6c4 a9bf 3504 8c40 13de 8140 959b dabf
000003c0: ae62 b6bf 4263 bebf 08d6 6d40 a118 4540
000003d0: 4e57 4e40 270c 82c0 669d 52c0 dad1 d73f
000003e0: 370e 2340 077d 0a40 54fb 0fc0 d000 983f
000003f0: 1532 97bf 1aeb edbe 6f31 f7bf dc36 fd3f
-0.43954933 -2.187759 3.7628243 -1.5322968 2.235215 -2.7667704 2.6258175 -3.3983417
0.23135829 -1.1964997 -4.3550444 2.750249 0.7630121 -1.1414332 -3.1704876 1.8809069
-2.8545012 -3.222691 0.91368324 -1.071785 2.3454497 -0.56665134 -3.2706637 1.4338286
2.201245 0.8762068 -3.3312235 3.0142338 -2.4027412 2.088001 -2.1810038 -2.785577
2.180147 -1.6664385 -3.2259903 2.4410915 -0.17186047 -0.16773877 -1.7796501 1.3099253
2.9275703 1.9381292 -0.4306448 -0.89042705 -3.6059756 3.7320797 0.30152172 0.11131698
-1.5870291 -2.1631181 -1.7858338 3.4714973 2.2523687 -4.242199 -2.5343437 1.5305861
3.8580003 2.828552 -0.3551507 -1.3261424 -1.493167 1.9453543 0.7388725 -0.5615359
-3.4710586 -1.4134195 2.0559256 -2.0522337 2.9934576 -2.8898866 -1.0092603 1.5939455
1.6346282 -2.02145 3.2950652 1.6662693 2.1284494 -2.9585855 -1.6676049 3.1249104
-1.6484288 0.32907656 0.5676814 -0.92092496 -2.284435 2.4895453 -2.007863 -2.5397353
0.45510033 -2.823483 -2.6449711 -2.8529024 -0.92138714 2.4696262 3.5469725 -2.2484295
2.7784567 -2.9353306 3.6220539 -0.8686683 1.4952662 -2.5606766 -2.2984262 2.4210181
3.9273026 -1.9094468 2.6064997 2.124005 3.0954862 -1.4808291 -2.680458 2.1638024
-2.668982 -2.8689973 2.418942 1.9331967 1.7981284 -2.3353004 -1.875306 1.4261094
1.5400565 -1.6931303 2.636865 1.1370808 2.2323022 1.1326107 -2.6357682 -2.0116692
-2.4186528 -3.0416305 -0.026325064 2.8863254 -1.5479255 4.4261875 1.946337 -2.8239198
-3.278888 -3.3352387 2.4936051 1.851064 -2.5438683 -1.7205601 -0.83735025 -1.7679905
-1.4649178 -1.7229594 3.3457818 -0.29820088 -4.9164 -0.5043714 3.065696 -2.1913433
3.3905058 -1.6878418 2.000258 -1.9376396 2.5846598 -1.313651 1.962377 -1.6611512
3.552708 1.2416477 2.0958881 -1.6071285 0.077605926 -2.7708638 1.9981352 0.5129969
-1.4335326 3.0060122 1.2847193 4.129159 2.409064 -1.8106145 -3.807925 0.7582074
-2.4447017 -1.7701346 2.3388362 -2.5898786 -0.06748134 1.3980694 1.5976976 0.99013245
2.6464577 -3.2173371 2.6113002 1.9240032 3.6724043 -2.7844982 -1.472345 0.46560192
1.6348386 2.8092904 -0.3801397 1.8505912 -2.971266 -2.4384396 -0.76404244 -2.8740647
0.17318529 -0.5810387 0.95684385 -3.8257663 4.3052187 -1.1298856 3.9226627 -3.9600098
-0.51424724 2.5744867 -1.4037112 -0.92165434 3.534828 0.6569275 -2.39636 0.23918828
-0.15497158 2.7195508 0.026084041 3.1826835 1.0847101 -3.0113473 -3.9991605 1.4360645
-1.15202 1.8448586 1.2812961 2.9901736 -3.5649068 0.054044276 1.3207383 0.079625666
-1.014056 1.5120566 -1.586856 -2.505061 -1.3263137 4.3755136 4.0583587 -1.707873
-1.4248865 -1.4874041 3.7161884 3.0796282 3.2240787 -4.0639834 -3.2908568 1.6860917
2.5477426 2.163881 -2.2497149 1.1875248 -1.1812159 -0.4646843 -1.9311961 1.9782367

weight f4 [32]
00000000: 339b 0b40 dc52 80bf 1c76 3a40 73cb 953f
00000010: fa14 10bf ae27 ae3e 6a53 64bf 1eec f2bf
00000020: 2b54 853e 0a18 0740 fcd9 b53f f782 0040
00000030: 1f06 1840 31dd ba3f ced1 8240 269b 5fbf
00000040: a840 3b40 c293 07bf e5b7 27c0 1f21 713d
00000050: 4f3e 38bf 0f34 723e a0ef 0f3f 2a09 7640
00000060: 1adb a83f e175 5b40 e72d 0840 0853 d83f
00000070: 9fd4 d63f 03dd 1bc0 63b1 12bf 2b63 493e
2.1813476 -1.0025287 2.9134588 1.1702713 -0.5628201 0.34014648 -0.8918978 -1.8978307
0.26040778 2.1108422 1.4207149 2.0079935 2.3753736 1.4598752 4.088111 -0.8734611
2.9258213 -0.52959836 -2.620599 0.058869477 -0.71970075 0.23652671 0.56225014 3.8443093
1.3191864 3.4290698 2.1278017 1.6900339 1.6783637 -2.4353645 -0.5730192 0.19666736

bias f4 [32]
00000000: abb4 693f 0861 bebf 69bc 2fc0 1e92 ba3f
00000010: 1fd6 f43f b6a0 913f 5f6a e63f 6f91 3740
00000020: 7456 09c0 3291 9540 c35f 03c0 52da e5be
00000030: 8b85 13be cff0 6c3f 3cde 03bf 4949 01c0
00000040: 2700 b9bf e848 18c0 9a98 a73f 926b 0cbd
00000050: 1055 49c0 01ff 45bf f270 40c0 7ee6 6dbf
00000060: d3c9 acbf 99c0 3840 eb7e 2ec0 d4de cd3f
00000070: b370 0b40 375a 993f 1369 6240 6524 3ec0
0.912913 -1.4873362 -2.7458746 1.4575841 1.9127845 1.137717 1.8001212 2.8682516
-2.1459017 4.673974 -2.0527198 -0.44893128 -0.14406411 0.92554945 -0.5151098 -2.020098
-1.4453171 -2.3794498 1.3093445 -0.034282275 -3.1458168 -0.7734223 -3.0068936 -0.9292983
-1.3499092 2.8867552 -2.7264965 1.6083627 2.1787536 1.1980656 3.5376632 -2.9709713

running_mean f4 [32]
00000000: c0d5 91bc 7270 4a40 a40c 433e 541d 90c0
00000010: c18f abbc 0f09 f0c0 e42d dcc0 fcab c33f
00000020: 23be 0641 749e c5c0 c719 1240 f556 9d40
00000030: f963 76c1 8c7d 4b41 c510 f2c0 1188 9ec0
00000040: ea2e 5e40 39e8 18bf 841d 15c1 2ce9 ff40
00000050: 3763 b4c0 a10e a9c0 e48c 22c1 e4d4 4bc1
00000060: 57d3 f440 063b 8440 97f5 48c0 8973 3940
00000070: 818b 2040 1b6b 20c0 0847 4241 61f1 6141
-0.01780212 3.163113 0.19047791 -4.50358 -0.02094257 -7.501106 -6.880602 1.528686
8.42142 -6.1755924 2.2828233 4.916865 -15.399407 12.718151 -7.564547 -4.9541097
3.4716134 -0.59729344 -9.319706 7.9972134 -5.637111 -5.2830358 -10.159397 -12.739475
7.6507983 4.132205 -3.1399896 2.8976767 2.5085146 -2.5065372 12.142342 14.12143

running_var f4 [32]
00000000: dad4 4e44 ed0e 7944 8d8e d543 fb1c e343
00000010: 7f03 3344 8adc 2c44 2a44 0d44 70b6 c843
00000020: 2c86 7043 06e5 8244 00fa 1344 667e 0544
00000030: 2654 b544 6eb9 8c44 1e93 8b44 91b9 a744
00000040: 6d03 2d44 9823 2e44 a2ae e543 0fd2 c543
00000050: 5051 0a44 98aa 4a44 cd46 3a44 cb5d be43
00000060: 5f4d eb43 0eaf 3444 8203 2344 3af0 8f44
00000070: e420 0c44 0b41 7843 ffb4 ee43 e3eb 4143
827.3258 996.2332 427.11368 454.2264 716.0546 691.4459 565.06506 401.4253
240.52411 1047.157 591.90625 533.975 1450.6296 1125.7947 1116.5974 1341.799
692.0535 696.55615 459.36432 395.64108 553.2705 810.6655 745.10626 380.73276
470.60446 722.7352 652.0548 1151.5071 560.5139 248.25407 477.41403 193.92143

weight f4 [32, 16]
00000000: 516d 3e3d 3277 4a3e d670 43bf bb2b 5a3e
00000010: 01d9 363f 525a acbd 81d2 97bd 5ded 253f
00000020: 9949 bdbe adaf af3e 5b0a 5dbf ea11 b93f
00000030: 7580 f2be 68e6 b93d 2d18 693d a1ec 863e
00000040: 6e77 06bd cd9f 04bf 904a 8fbe dbe6 113c
00000050: aaef f6bd 02e2 ffbe 2525 1cbf 061c 55bf
00000060: 8e98 6a3e 4c10 34bf 90b5 63bf 7e33 9bbf
00000070: 9eab 653e 5529 4cbf 93ec dc3e f99f 70bf
00000080: deb2 ecbe fe5b 38be ec45 e23d 5152 c53e
00000090: 56be 6ebe a107 cd3e cfcd 26bf 1774 f8be
000000a0: 35f1 47bc 3819 8d3e 64b1 93be e938 743e
000000b0: 84df 083f 2b42 553f 9b36 88be fd04 acbd
000000c0: 7373 98be b3a7 9abf f8e7 753e 54f2 3ebf
000000d0: 9b7d 1c3e 8216 aa3f dfdd 263e cc83 31bf
000000e0: f99a 3d3f 2c60 01c0 3711 0fbf 3c24 4d3d
000000f0: 8af5 7bbf aa41 5abf 00d7 b83f e7dd 133f
00000100: b5b2 4fbe cdac 793f 2a41 983f 14c2 373f
00000110: 235f 6cbf 7024 073e 4218 40bf ea38 b43f
00000120: 50ab ccbd c13c 563d 1092 393f b6a4 aa3c
00000130: 113b f6bd f9d3 83bf fd06 a93e 3c74 ecbe
00000140: 515c 953e 42ce b33e d02b da3f 9c54 22bf
00000150: 2711 9abe 49c9 ee3c ffd9 c4be a947 333f
00000160: a150 2abf a8c3 643f e256 a83e 158c 7fbf
00000170: 697a 413f 80d8 ff3f 43fd 8dbe c456 513f
00000180: 3504 7fbf 2440 2c3f e599 20bf 094c 053c
00000190: faf9 193f 4029 293f eaa4 8c3e e4cb f73f
000001a0: 7ce7 b43f d137 c9be 2a0c 173e a06b cabf
000001b0: be9d 4fbf 8e1b 2f3f 61e4 f33e 86e2 8a3d
000001c0: c6fd 143f 7285 bb3f 307b 8d3e fd26 0a3f
000001d0: 1227 95be 9a1d 7bbf 957a c6be 0f5c 7dbe
000001e0: e783 a33f 1857 37bf a872 0d3f 58e8 6a3d
000001f0: fabf 633f d2bb 35bf 77b6 68bf 1e51 2abf
00000200: 2623 07c0 3e54 1e40 cc11 0340 df9c 4d40
00000210: 0691 1cc0 8b2b 2440 db9b 1c40 6ce1 f43f
00000220: f74d 7240 e2f6 fbbf e36c 09c0 ef8e 2f40
00000230: a404 ee3f b218 183f c5a7 30bf 8f61 08c0
00000240: bfed e0bf b87a 1ac0 b30f 773f 4923 f2bf
00000250: 4fb0 3b40 c74f 25c0 a334 4abe 4ffa 8040
00000260: 3953 2cc0 8ae3 4e40 7bb3 15c0 8995 d9bf
00000270: e4b1 453f aaa2 53c0 0d12 f7bf 2650 2840
00000280: a754 edbf 0195 0bc0 2aaa 2440 6d15 57c0
00000290: 3aeb ddbf 283f 37c0 5366 0d40 6d5a 3040
000002a0: 64bb 0fc0 8830 b43f c87b 2040 18cd e93f
000002b0: ec8f 4fc0 d675 84bf c191 f1bf 5bba 2840
000002c0: e935 17c0 3ce1 14bf 729d 1fbf 3dd0 d7bf
000002d0: 3521 a7bf 2ef0 f43e 91b2 f73e 9156 29c0
000002e0: b075 59bf 331f 73bf 05bc e5bf 3d38 e53f
000002f0: 473c 8540 bc7f 64c0 8b23 91be f8bb 0dc0
00000300: d3cf 9ac0 4614 3140 611a b73f 6ff2 2f40
00000310: 2278 42c0 ff12 c2bf 3fd2 4dbf 62cf 8ebf
00000320: 34a0 0340 183f 95bf 4c2f 0f40 7129 eabf
00000330: 24d5 3740 5f8b 6ec0 3c19 8abe efc5 0840
00000340: ce71 f7be c418 bfbf d49f 37c0 d917 47c0
00000350: 2be0 9540 b5c5 43bf e05b 6fbf 3560 3d3f
00000360: 779d 34be 0e0b 353f 4197 a83f 9d14 eb3d
00000370: 2797 45c0 a327 42c0 83e5 5bc0 f636 2240
00000380: 422e 56c0 ce86 9fbf b683 3840 a3ff 963f
00000390: 8ec9 3b3f fb15 653e 6b64 003f 79b6 0ec0
000003a0: ff18 50c0 4d8d c83f f453 fc3f b639 42c0
000003b0: cb02 8cc0 6185 353f 42ad a2bf 87fd 0640
000003c0: b730 6c3f 5909 2dc0 bb97 d73f 0b0d cb3f
000003d0: e521 4cc0 6d37 073f f1c9 1740 c5fc 2740
000003e0: 25bc 7ebf a418 3640 cc82 bc3f c601 86bf
000003f0: c69a c23f 6491 8abf d856 4d40 eab3 33c0
0.04649097 0.19772032 -0.7634405 0.21305744 0.7142487 -0.08415665 -0.07413197 0.6481531
-0.36970213 0.34313717 -0.86343926 1.4458592 -0.4736363 0.0907715 0.05690782 0.2635241
-0.03282874 -0.51806337 -0.27986574 0.008905138 -0.12057431 -0.49977118 -0.6099418 -0.83245885
0.22909757 -0.7033737 -0.8894892 -1.2125089 0.22428748 -0.7975057 0.43149242 -0.939941
-0.46230215 -0.18003842 0.11048493 0.38539365 -0.23314795 0.40044883 -0.6515779 -0.4852607
-0.012203504 0.27558303 -0.28846276 0.23849835 0.5346606 0.8330409 -0.2660416 -0.08399389
-0.2977558 -1.2082428 0.2401427 -0.74588513 0.1528229 1.3288119 0.16295575 -0.6934173
0.74064595 -2.0214949 -0.5588564 0.050083384 -0.9842154 -0.85256445 1.4440613 0.5776047
-0.20283015 0.975293 1.1894886 0.71780515 -0.9233267 0.13197494 -0.75037014 1.4079869
-0.09993613 0.052304033 0.724885 0.020830493 -0.12022985 -1.0299064 0.33013144 -0.4618243
0.29171994 0.351183 1.704462 -0.63410354 -0.3009121 0.029148715 -0.38447568 0.7003122
-0.6652928 0.8936105 0.32878786 -0.99823123 0.7557741 1.9987946 -0.27732286 0.8177302
-0.99615794 0.6728537 -0.62734824 0.008135804 0.6014706 0.6607857 0.2746957 1.9359097
1.4133143 -0.39300397 0.14750734 -1.5814095 -0.8110007 0.6840142 0.47635177 0.06781487
0.5819973 1.4650099 0.27633047 0.5396574 -0.2913137 -0.98092043 -0.38765398 -0.24742149
1.2774628 -0.7161727 0.55253077 0.057350487 0.8896481 -0.70989716 -0.9090342 -0.66530025
-2.1115203 2.4738917 2.0479612 3.2126997 -2.4463515 2.5651577 2.4470127 1.9131293
3.7860086 -1.9684718 -2.147271 2.743099 1.8595166 0.5941268 -0.69005996 -2.1309545
-1.7572554 -2.4137402 0.9650833 -1.8917018 2.932636 -2.5829942 -0.19746642 4.0305552
-2.6925795 3.232638 -2.3390796 -1.699876 0.77224565 -3.3068032 -1.9302384 2.6298919
-1.8541459 -2.1809695 2.572886 -3.3606827 -1.733741 -2.8632298 2.2093704 2.7555192
-2.2458124 1.407731 2.507555 1.8265715 -3.2431593 -1.0348461 -1.8872606 2.6363742
-2.3626654 -0.5815618 -0.6234962 -1.6860424 -1.3057009 0.47839493 0.48378423 -2.6459086
-0.849452 -0.9496948 -1.7948004 1.7907788 4.163608 -3.5702963 -0.2834743 -2.2145977
-4.837869 2.7668624 1.4304925 2.749172 -3.0385823 -1.5162047 -0.80398935 -1.1157038
2.056653 -1.165988 2.2372618 -1.8293897 2.872384 -3.7272565 -0.26972377 2.137081
-0.48329014 -1.4929433 -2.8691301 -3.1108305 4.6836143 -0.7647355 -0.93499565 0.73974925
-0.17638193 0.70719993 1.3171159 0.11478541 -3.0873506 -3.0336692 -3.4358833 2.5346045
-3.3465734 -1.2463014 2.883039 1.1796764 0.73354423 0.22371666 0.50153226 -2.2298872
-3.2515256 1.5668122 1.971312 -3.0347724 -4.375341 0.70906645 -1.2709124 2.109224
0.9226183 -2.7036955 1.684318 1.5863355 -3.1895688 0.5281895 2.3717005 2.6248028
-0.99505836 2.845254 1.4727416 -1.0469291 1.5203483 -1.082562 3.2084255 -2.807856

weight f4 [32]
00000000: 0000 803f 0000 803f 0000 803f 0000 803f
00000010: 0000 803f 0000 803f 0000 803f 0000 803f
00000020: a902 00c0 da21 88bf 7c58 06c0 6bed 8c40
00000030: b00d cfbf f45f 9040 dca1 60bf 8ada 193f
00000040: 0000 803f 0000 803f 0000 803f 0000 803f
00000050: 0000 803f 0000 803f 0000 803f 0000 803f
00000060: 9425 61bf 17e2 8bbe d0a6 1dc0 d408 f7bf
00000070: 65d3 9ebf f4c0 b53f 08a3 6340 032a adbe
1.0 1.0 1.0 1.0 1.0 1.0 1.0 1.0
-2.0001624 -1.0635331 -2.0991507 4.4039817 -1.6176052 4.511713 -0.8774698 0.6009909
1.0 1.0 1.0 1.0 1.0 1.0 1.0 1.0
-0.87947965 -0.2732093 -2.4633064 -1.9299569 -1.2408262 1.419951 3.5568256 -0.33821115

bias f4 [32]
00000000: 0000 0000 0000 0000 0000 0000 0000 0000
00000010: 0000 0000 0000 0000 0000 0000 0000 0000
00000020: d6ee 4340 6105 a43f 4c5d 3abf 7a39 cc3f
00000030: 81b9 f6bf c8ae e13e deb2 2d40 811f cc3f
00000040: 0000 0000 0000 0000 0000 0000 0000 0000
00000050: 0000 0000 0000 0000 0000 0000 0000 0000
00000060: 8c13 5dc0 059e 2ec0 4f80 d2bf 4cca 3e40
00000070: dfe1 09c0 f75e 5640 444f 35c0 9f82 e8bf
0.0 0.0 0.0 0.0 0.0 0.0 0.0 0.0
3.0614524 1.2814142 -0.7279861 1.595504 -1.9275361 0.4407866 2.7140422 1.5947114
0.0 0.0 0.0 0.0 0.0 0.0 0.0 0.0
-3.454318 -2.7283947 -1.6445407 2.9810972 -2.154411 3.3495462 -2.832963 -1.8164862

running_mean f4 [32]
00000000: 8af0 0f40 f135 47c0 39c8 0d40 d2bd 12c1
00000010: d2ad 18c0 0f2a 993f 89da 3640 7ef8 59c0
00000020: 78e0 6d3d 6ae3 7341 01f5 ed3f 311c f33e
00000030: 4fec ffbf bce4 3541 39b0 bb40 4d1a 8d3f
00000040: a612 07bf 455b 9cc0 eed1 e33f 0450 6e40
00000050: 61e7 b3bf c11f b2c0 37ed 0b40 fd38 883e
00000060: 7521 b6c1 e1cc c5c1 e08a b241 e977 ae41
00000070: dae2 d540 34bd 86c1 7ac7 bebf 38d6 6041
2.2490563 -3.1126673 2.2153456 -9.171343 -2.3856091 1.196596 2.8570883 -3.4057918
0.0580754 15.243021 1.8590394 0.47482446 -1.9993991 11.368343 5.8652616 1.1023651
-0.5276283 -4.8861413 1.779844 3.7236338 -1.4054986 -5.566376 2.1863534 0.2660598
-22.766336 -24.725039 22.31781 21.80855 6.683942 -16.842384 -1.4904625 14.0522995

running_var f4 [32]
00000000: 5657 d841 17eb 0842 0d25 fe3f f5ff 9f42
00000010: 92ca f941 a0a1 0842 bf29 0a42 dadb 7941
00000020: c82f 9942 d4a1 9543 77da 9d43 2fe9 c943
00000030: 81ca a543 3187 ac44 b6c6 5e43 4ef6 6244
00000040: 1f72 ed41 c27e 0e42 70d1 ae42 de9a e040
00000050: a374 5342 7a60 fa41 65dd 9441 6a2f 2940
00000060: ed59 bf43 a7d7 6c43 5145 e543 f19f 2244
00000070: 7947 6f43 3bc5 1443 57c0 4f44 5018 9243
27.042645 34.22958 1.9855057 79.999916 31.223911 34.157837 34.540768 15.616175
76.59332 299.26428 315.70676 403.82175 331.58206 1380.2247 222.77621 907.8485
29.680723 35.623787 87.40906 7.0189047 52.863903 31.297108 18.608103 2.643519
382.70255 236.84239 458.54153 650.4991 239.27919 148.77043 831.0053 292.18994

weight f4 [32]
00000000: ea8b c5bf 6fcc 19c0 77ee 2840 134f 0740
00000010: 94a7 10c0 dc8e 443f 2f81 923f c5b8 3dbf
00000020: 24ed cf3f 6a30 5140 2d26 6740 29f8 aa40
00000030: fa1e 10bf f910 4740 2b80 e8bf 774d b3be
00000040: af4c a6be 27f3 7240 63ff 4dc0 dd2c d9bf
00000050: 324a d1bf 9b01 6740 4cf6 3d40 74b7 06c0
00000060: 3957 5c40 514f 7540 7a0d 0a40 b87c 0a40
00000070: db07 4840 5151 f7bf 2409 6340 30dc ec3f
-1.5433323 -2.4031026 2.6395547 2.1142013 -2.2602282 0.76780486 1.1445674 -0.7411006
1.6244245 3.26858 3.611705 5.342793 -0.56297266 3.110411 -1.8164114 -0.35020038
-0.3248038 3.7960908 -3.2187126 -1.6966816 -1.6350768 3.609473 2.9681578 -2.104947
3.4428236 3.832966 2.1570725 2.1638622 3.1254795 -1.9321691 3.547433 1.8504696

bias f4 [32]
00000000: 9741 103f 3b49 ffbf 2312 44c0 9512 3940
00000010: 982c 08c0 2a71 1d40 9eda 1f40 1581 623f
00000020: 05dd ffbd 1f24 65c0 795b 883e 0a00 3cbb
00000030: c2ca e3bf 0af9 1fc0 8770 7640 8937 15c0
00000040: 679b 0bc0 6fbf e6be ecb3 3740 ad05 2140
00000050: c449 10c0 2cc3 ad3f b168 9ebf 8032 63bf
00000060: 721f 58c0 7e1c 793d 8906 7740 4beb 7740
00000070: 3adf 23c0 dddc 4d40 fb40 0dc0 3dc6 fb3f
0.5635008 -1.9944223 -3.063607 2.8917592 -2.1277218 2.460032 2.4977183 0.88478214
-0.12493328 -3.5803297 0.26632288 -0.0028686547 -1.7796252 -2.4995751 3.8506181 -2.3315146
-2.18136 -0.45067927 2.8703566 2.5159714 -2.2545023 1.3575187 -1.2375699 -0.8874893
-3.3769193 0.060818188 3.8597739 3.8737361 -2.5604997 3.2166054 -2.207091 1.9669873

running_mean f4 [32]
00000000: 5241 f83f b9e3 f640 f589 efbf f3e1 3bc0
00000010: 90c4 a140 56d7 b440 b90f 3abf a3ad d440
00000020: 9d47 29c0 474c 46c0 2d45 2d40 dc27 78c0
00000030: cb60 fe40 e88d 9b40 c555 7bc0 9701 d5bf
00000040: 6217 c63f ac37 10c1 c5e9 8540 bfaf 51c0
00000050: 01f7 21be 71ac d5c0 ba14 4ac0 368f 62c0
00000060: 5196 733e 41ca 67c0 c5df d540 8729 1441
00000070: 9490 0141 818c 0bc1 377d bcc0 07ac 1dc1
1.9394934 7.715298 -1.8713976 -2.9356658 5.0552444 5.651286 -0.7268024 6.646196
-2.644996 -3.0984056 2.7073472 -3.8774328 7.9493155 4.8610725 -3.92711 -1.664111
1.5475886 -9.013592 4.1847863 -3.2763517 -0.15816881 -6.6773 -3.157515 -3.539991
0.2378781 -3.6217196 6.6835656 9.2601385 8.097797 -8.721803 -5.890285 -9.854499

running_var f4 [32]
00000000: 7f92 8242 2bc4 9a42 ce6a 3e42 69a9 2543
00000010: 39dd d242 d6c6 4d42 c45a 5443 7537 f742
00000020: ef6b e142 1cac af42 7f42 7642 ff19 8e42
00000030: 0782 3d42 22a4 8542 c7fa 1b43 78dd a542
00000040: c7dd 2a43 7185 0b42 df3e 5e42 b58c 9242
00000050: de0d 2643 d003 be42 6305 b042 0652 2643
00000060: bb65 1541 367f 5342 119e 9c42 7619 8b42
00000070: 853a ae42 46d2 2e43 2168 9142 61b6 0942
65.286125 77.38314 47.6043 165.66176 105.432076 51.444176 212.35455 123.608315
112.71081 87.83615 61.564938 71.05077 47.37698 66.82057 155.9796 82.932556
170.86632 34.880314 55.561398 73.27482 166.05417 95.00745 88.01052 166.3204
9.337337 52.87423 78.30872 69.54973 87.114296 174.82138 72.70338 34.428104

weight f4 [32]
00000000: 4e2c e63f 4921 933f b429 3840 9976 723f
00000010: 292a 0240 b364 0f40 3e82 9cbf 8eab 933f
00000020: f2ca 94bf da0a 18bf fdbb 73c0 126b a440
00000030: b735 3dbf 144e f1bf 53c5 96bf bc9f 0abf
00000040: 0deb 6040 bb98 673f 9a63 8e40 734c 3d40
00000050: f066 a9bf 9e97 9cbe ff2a 1a40 b77b 16c0
00000060: c0f8 b4bf 908c 983e 07bc b140 669b 2ac0
00000070: 672e e93e 69e0 e13f baf7 82bf 3eaa a23f
1.7982271 1.1494533 2.8775454 0.94712216 2.0338233 2.2405212 -1.2227247 1.1536729
-1.1624434 -0.5939156 -3.808349 5.13807 -0.7391009 -1.8851953 -1.1778969 -0.54149985
3.5143464 0.90467423 4.4496584 2.957791 -1.3234539 -0.30584425 2.4088743 -2.351301
-1.4138412 0.2979474 5.5542026 -2.6657348 0.45543215 1.764661 -1.023185 1.2708204

bias f4 [32]
00000000: 9291 2dc0 a41e 98bf 6c3c 84c0 91cb 4140
00000010: d268 57c0 ac99 2640 c2c8 70bf 71b2 0d40
00000020: 3a64 fbbf 8bf9 373e 4670 3cc0 625c e33f
00000030: 3453 b03e 7db1 3240 e765 3940 10ad ddbf
00000040: 5e0e cdbe f93c d4be 0e4e a5be 44e7 663f
00000050: b38c e23f d0ea 6d40 58d2 68c0 b5c9 cabf
00000060: e606 7ec0 a602 e3bf 3145 2cc0 0ba7 6140
00000070: f665 26c0 1097 70be b8db 64c0 f2c0 a9bf
-2.71201 -1.1884351 -4.1323757 3.0280497 -3.3657727 2.6031294 -0.9405633 2.2140162
-1.9639962 0.17966287 -2.9443526 1.7762568 0.3443848 2.792083 2.8968446 -1.731844
-0.40050024 -0.41452768 -0.32286114 0.90196633 1.7699188 3.7174568 -3.6378384 -1.5842806
-3.969171 -1.7735183 -2.691723 3.5258205 -2.5999732 -0.23495126 -3.5759106 -1.3262007

running_mean f4 [32]
00000000: ed81 83c0 5f9f 2d40 a323 fbc0 772c 203f
00000010: ae1b 9540 7153 8241 6ad4 9041 0874 bbc0
00000020: 9f52 c041 3104 5040 6c55 1441 4128 b141
00000030: 9da5 6fc0 e85d 8cc1 02f4 39c1 9857 ee40
00000040: eecb e3c0 d334 cbbf 6e92 2a41 8e65 03c1
00000050: 77eb 9e40 fe4f b340 4757 64c0 84c9 5cc1
00000060: bd8d 0ac1 c98d 5641 0a8e 10c1 5121 98c0
00000070: b510 8341 93ff 733e d741 02c1 d8e7 a9c0
-4.10961 2.7128522 -7.8481 0.6256785 4.659629 16.290743 18.103718 -5.857914
24.040342 3.2502558 9.270855 22.144655 -3.7444832 -17.545853 -11.622072 7.4481926
-7.1186438 -1.5875496 10.660749 -8.212294 4.9662433 5.6035147 -3.567827 -13.799198
-8.659604 13.4096155 -9.0346775 -4.754067 16.383158 0.23827963 -8.141074 -5.3095512

running_var f4 [32]
00000000: 9a06 0244 025f 7344 4b90 1644 85e9 3b43
00000010: 99b5 9244 ffab 8944 a3ed d543 a578 c442
00000020: bf76 8f43 ebe5 3244 af72 6244 44df 4044
00000030: 817b 7044 b50a 8443 c526 1044 94e5 9143
00000040: 57b0 e243 b287 8143 3715 f643 94b1 5e44
00000050: a984 af44 c247 2444 88fd b843 3053 d043
00000060: dbd4 a343 b05c 9042 c26c 3a43 2742 de42
00000070: 7c35 6043 aded 8943 33a6 9b43 50fc d743
520.10315 973.4845 602.2546 187.91219 1173.6749 1101.3749 427.85654 98.235634
286.9277 715.59247 905.79193 771.4885 961.92975 264.08365 576.6058 291.79358
453.37766 259.06012 492.16574 890.77466 1404.1456 657.1212 369.9807 416.6499
327.66293 72.18103 186.42484 111.1292 224.20892 275.85684 311.29843 431.9712

weight f4 [32, 16]
00000000: d4e5 883f e587 66c0 eaac 11c0 2318 48c0
00000010: 8101 17c0 eecc acbf bb1e 0940 54dc 3540
00000020: 3a50 c6bf 48c9 0140 c9d5 323f 9777 2f40
00000030: bbfe 2e3f 84fc 25c0 853d 6ac0 6f46 b2bf
00000040: 0753 0cc0 be6f bebe 13da 13bf 6498 99bf
00000050: 0ecc b8bf b035 aac0 e8fc 323e bdfb 2940
00000060: 8972 98bf 779d f33f 9a1d 20c0 4859 2340
00000070: 44d1 633f eb46 7cc0 6504 fe3f 59b6 1440
00000080: 558a 0c40 4d44 40c0 68e2 1c40 0584 9e3f
00000090: 1627 47c0 b0c8 6440 e29e 7040 25c1 d9bf
000000a0: 1dbf 46c0 a4c7 fdbf 0749 2340 758f 34c0
000000b0: 7863 3bbf dea6 1140 5235 0b40 561a b1be
000000c0: ecf9 6d40 3b90 1d40 ab55 6ac0 a689 a93f
000000d0: 1d77 55c0 10b6 94be 7c50 9a3e 541d 433f
000000e0: c01b 053f 97e5 dc3f fbb8 96c0 3bdc 1c40
000000f0: 6c94 a33f ee2f 8c3f f415 133f 4916 11c0
00000100: 705e 4340 a30d e5bf 9c81 2f40 bb29 86c0
00000110: f71c 58c0 5a99 6e3e 7691 d93f 3517 2e3f
00000120: 8344 5bc0 ed05 b2bf 99fd 3c40 bf33 2cc0
00000130: 9ffa 813f 09da 8cbf 2142 8a3e 6dad 9dbf
00000140: 005d 62be 7c2e 5840 280c bb3f 1097 983e
00000150: 23eb bdbf 604a 1840 2b6f 05c0 eff2 cbbf
00000160: f607 72be 3880 46c0 be0c 0440 bf61 5cc0
00000170: 76e0 e0bf 5ca2 e43f 1776 0e40 f1e0 03c0
00000180: de07 8140 bab4 a53f 26d1 bf3d 0e6a 69bf
00000190: df06 3c3d 1d16 84bf 3967 db3f 6eef e9be
000001a0: 5ef4 633f fc2f c43d b826 28c0 6e95 0940
000001b0: 42f4 223f 2f21 60bf 8667 fabf 8bc7 5bc0
000001c0: c24b 74be 5373 e5bf e8bf 2e3f 2361 09c0
000001d0: 998c 3840 0456 b23e cdd5 3c40 6fc4 10c0
000001e0: cfaf c3bf 67b3 4ac0 35c3 46be 3c61 82c0
000001f0: 75a2 f93f ce4a 3040 bf43 d73f 1473 63c0
00000200: d29a 853f 1a11 133f ab51 3bc0 3700 8bbf
00000210: e076 41c0 47d4 2f40 5d6d 1640 ec54 c7be
00000220: bdea 6ac0 3f0c 3ac0 e06c ecbf 80ad 1b40
00000230: 0085 963f 1a51 70c0 1504 1fc0 3586 4e40
00000240: a7b4 8cbe de57 cc3e 5c6e fdbf 99ac 7b3f
00000250: f07c 3c3f 0d9e 39c0 7eaf c43f ac1a 5d3f
00000260: dade efbd 296d 7f40 c051 4abf d17d 4f40
00000270: 7fb5 633f 8485 2dc0 177b cb3e 84a8 1240
00000280: 2d7c 98be affa afbf 2475 b53f 1c54 51c0
00000290: 96c8 3c3f be18 3540 7186 4bc0 178a c9bf
000002a0: 5d80 983f 7b5b fcbe e2d6 9140 aa11 acbf
000002b0: 08ea 28c0 09d8 2740 1846 bb3f 9a32 ee3e
000002c0: c74d 21c0 4bc3 82be 12ab 2ec0 a350 8040
000002d0: 683e 3fc0 e30a 433f ded7 4bbe 1f35 29c0
000002e0: 3447 093f 378f 4940 e23e 2abf f213 d73d
000002f0: 0323 09c0 8f09 3640 d764 5dbf 1d24 8cbf
00000300: bd25 c33f a49e de3e 4b67 ae3f 0bbb 35c0
00000310: 7c29 b3bf 0f52 c1bf bb05 3240 928f 573f
00000320: c165 17c0 1312 9b3e b3e9 a43f 2d31 c83f
00000330: d3be dabf 9b6d 2ac0 f6c9 81c0 7262 7240
00000340: ad1a b63f b205 f93f 69a2 1240 ef36 a73f
00000350: 174d 27c0 3d95 cfbf b8f4 2f40 eed6 1ec0
00000360: fc0d 9a3e c517 f93f d7cb 0ec0 1279 aabf
00000370: ba5c 7e40 557f 5cbf 32d1 d73f 2335 50c0
00000380: c46d 1d40 2e58 46c0 1276 18c0 83b6 f9bd
00000390: f5ea 8040 afc3 c8bf 11af 28bf 2be0 c83e
000003a0: d229 1140 f9b6 633f b64a 81bf dc54 a240
000003b0: 4c6a 1b40 d05a 39c0 c17f 1bc0 3d78 9abf
000003c0: 9cf1 4f40 b8c8 0240 beb1 40bf bc13 12c0
000003d0: 243a 8bbf fe5c 2d40 c6ad f3bf 4f31 693f
000003e0: ac1e 48c0 5392 b2bf 2a62 2740 16f1 ad3f
000003f0: b2ff 28c0 fc4e 10c0 5413 16c0 78dd 8640
1.0695138 -3.6020443 -2.2761788 -3.1264732 -2.3594668 -1.350004 2.1425006 2.8415728
-1.5493233 2.0279102 0.6985746 2.7416742 0.6835744 -2.5935373 -3.6600049 -1.3927745
-2.1925676 -0.37194628 -0.5775463 -1.1999631 -1.4437273 -5.3190536 0.17479289 2.65599
-1.1909953 1.903243 -2.5018067 2.5523243 0.8899119 -3.9418285 1.9845091 2.3236296
2.195943 -3.0041687 2.4513187 1.2384039 -3.1117606 3.574749 3.7596974 -1.7012068
-3.1054146 -1.982655 2.5513322 -2.821256 -0.7319865 2.2758098 2.1751294 -0.34590405
3.718379 2.4619281 -3.6614788 1.3245132 -3.335395 -0.29045153 0.3013953 0.76216626
0.5199547 1.7257565 -4.7100806 2.4509418 1.277967 1.0952127 0.5745537 -2.2669852
3.052639 -1.7894787 2.7422857 -4.192594 -3.3767679 0.23300686 1.6997516 0.6800416
-3.4260566 -1.3908058 2.9529784 -2.6906583 1.0154608 -1.1004039 0.27003577 -1.231855
-0.22105789 3.3778372 1.4613085 0.29802752 -1.4837383 2.3795395 -2.0849102 -1.5933512
-0.2363585 -3.1015759 2.0632777 -3.443466 -1.75685 1.7862048 2.2259576 -2.0606043
4.0322104 1.2945778 0.09366064 -0.9117745 0.04590499 -1.0319248 1.7140876 -0.45690483
0.8904475 0.09579465 -2.6273632 2.1497455 0.6365396 -0.87550634 -1.9562843 -3.4340541
-0.23857024 -1.7925819 0.68261576 -2.1465538 2.8835814 0.3483125 2.9505494 -2.2619894
-1.5288028 -3.1671999 -0.19410403 -4.0743694 1.9502703 2.7545657 1.681755 -3.5538988
1.0437872 0.5744797 -2.9268596 -1.085944 -3.0228806 2.7473314 2.350425 -0.38931978
-3.6705773 -2.9069974 -1.8470726 2.4324646 1.1759338 -3.75495 -2.4846241 3.2269413
-0.27481577 0.39910787 -1.9799304 0.9831024 0.7362814 -2.9002717 1.5366056 0.86368823
-0.117124274 3.9910376 -0.7903099 3.2420542 0.88948816 -2.7112741 0.39742348 2.2915354
-0.2978224 -1.3748378 1.4176373 -3.2707586 0.7374357 2.8296351 -3.1800807 -1.5745267
1.1914173 -0.49288544 4.557481 -1.3442891 -2.6392841 2.6225607 1.4630766 0.4652298
-2.5203722 -0.25539622 -2.7291913 4.0098433 -2.988184 0.76188487 -0.19906566 -2.6438673
0.5362427 3.1493661 -0.665022 0.10501851 -2.142762 2.8443334 -0.86481994 -1.0948521
1.5245892 0.43480408 1.3625273 -2.8395412 -1.3997035 -1.5103167 2.7815998 0.84203446
-2.3655856 0.30287227 1.2883819 1.5640007 -1.7089485 -2.6629398 -4.0559034 3.7872586
1.4226891 1.9454863 2.2911627 1.3063639 -2.6140802 -1.6217419 2.7493114 -2.4818683
0.30088794 1.9460379 -2.2311914 -1.3318198 3.9744096 -0.86131793 1.6860716 -3.2532432
2.4598246 -3.099132 -2.3822064 -0.121930145 4.0286813 -1.5684718 -0.6589213 0.39233527
2.2681775 0.8895107 -1.0100925 5.072859 2.4283628 -2.8961678 -2.4296725 -1.2067944
3.2491217 2.043501 -0.75271213 -2.2824545 -1.0877118 2.7088008 -1.9037406 0.91090864
-3.126872 -1.3950905 2.6153665 1.3589199 -2.6406064 -2.2548208 -2.3449297 4.2145348

weight f4 [32]
00000000: 979d 0c3f ca43 12bf e1a6 a8bf 2125 8640
00000010: 977d a03f c3df 9ebf e76d 1f40 22bc f03f
00000020: e5ce 2bbe cf5b 0740 c321 4040 6329 c2bc
00000030: d53a d4bf 0046 82bf f012 2840 a525 c0bf
00000040: fd1c 0dc0 7103 2fc0 1012 42bf 99b6 5340
00000050: 5e71 3540 df80 ff40 756f f63f eb49 4140
00000060: 9f53 37bc e9d9 b03f 0ffe 2240 d267 9640
00000070: dbcf 8340 7268 5b3e c2a3 2b40 b00d 653f
0.54927963 -0.5713469 -1.3175927 4.1920323 1.2538327 -1.2412037 2.491083 1.8807414
-0.16778143 2.1149786 3.0020607 -0.023701375 -1.6580454 -1.0177612 2.6261559 -1.5011488
-2.2048943 -2.734585 -0.7580881 3.3080199 2.8350444 7.9844813 1.9252764 3.0201366
-0.01118937 1.3816501 2.5467565 4.7001734 4.119123 0.21426561 2.68187 0.8947401
