Experiments/2022_07_26 13-51-41 wine_100runs_learning-rate_3mv-features_custom-loss /models/Model_run94_optimizer_params0.1_malic_acid.pt (torch, 255629 bytes, 318 tensors)

weight f4 [12]
0	0x3f800000	1.0
1	0x3f800000	1.0
2	0x3f800000	1.0
3	0x3f800000	1.0
4	0x3f800000	1.0
5	0x3f800000	1.0
6	0x3f800000	1.0
7	0x3f800000	1.0
8	0x3f800000	1.0
9	0x3f800000	1.0
10	0x3f800000	1.0
11	0x3f800000	1.0

bias f4 [12]
0	0x00000000	0.0
1	0x00000000	0.0
2	0x00000000	0.0
3	0x00000000	0.0
4	0x00000000	0.0
5	0x00000000	0.0
6	0x00000000	0.0
7	0x00000000	0.0
8	0x00000000	0.0
9	0x00000000	0.0
10	0x00000000	0.0
11	0x00000000	0.0

running_mean f4 [12]
0	0x00000000	0.0
1	0x00000000	0.0
2	0x00000000	0.0
3	0x00000000	0.0
4	0x00000000	0.0
5	0x00000000	0.0
6	0x00000000	0.0
7	0x00000000	0.0
8	0x00000000	0.0
9	0x00000000	0.0
10	0x00000000	0.0
11	0x00000000	0.0

running_var f4 [12]
0	0x3f800000	1.0
1	0x3f800000	1.0
2	0x3f800000	1.0
3	0x3f800000	1.0
4	0x3f800000	1.0
5	0x3f800000	1.0
6	0x3f800000	1.0
7	0x3f800000	1.0
8	0x3f800000	1.0
9	0x3f800000	1.0
10	0x3f800000	1.0
11	0x3f800000	1.0

weight f4 [12]
0	0x3e61531d	0.22004361
1	0x3fdda317	1.7315396
2	0x3f7457ca	0.95446455
3	0x3f92ad0f	1.1459063
4	0x3f8609db	1.0471758
5	0x3f8a0255	1.0781962
6	0x3fc9b035	1.5756899
7	0x3f83fc16	1.0311306
8	0x3f6063f1	0.876525
9	0x3f94a9ff	1.1614379
10	0x3f5b3208	0.85623217
11	0x3faf3c60	1.36903

bias f4 [12]
0	0xbef00741	-0.46880534
1	0x3dc7e6bc	0.09760806
2	0x3d8075e7	0.06272488
3	0x3f0c0edc	0.54710174
4	0x3eb09b04	0.34493268
5	0xbe98d10c	-0.2984699
6	0x3eb1ec21	0.34750465
7	0x3d49eb33	0.04929657
8	0xbe817b1a	-0.25289232
9	0xbf1aeec4	-0.6052058
10	0x3e2da515	0.16957505
11	0xbe78deef	-0.24303792

running_mean f4 [12]
0	0x3fab49fe	1.3381956
1	0x3f65c4a6	0.89753187
2	0x3f100b3f	0.5626716
3	0x3f7a283e	0.97717655
4	0x3e6261bb	0.22107594
5	0x40f8b105	7.771609
6	0x40461cbe	3.0955043
7	0x3fb4f456	1.4137065
8	0x43dee3a7	445.77853
9	0x3fc59ab1	1.5437833
10	0x413918f7	11.568595
11	0x4235aabd	45.416737

running_var f4 [12]
0	0x3f1d3698	0.6141143
1	0x3f0fc455	0.56158954
2	0x3edd7b9a	0.43258363
3	0x3fb95fba	1.4482338
4	0x3ed3c52a	0.41361362
5	0x3f40472a	0.7510859
6	0x4083e238	4.1213646
7	0x3ee4fa9d	0.44722453
8	0x473fe2da	49122.85
9	0x3f36724d	0.7126816
10	0x40e4d11f	7.1505275
11	0x449866ec	1219.2163

weight f4 [32, 12]
0	0x3ed00d9b	0.4063538
1	0x3f078091	0.5293055
2	0x3fa59c7a	1.2938378
3	0x3ecc92f2	0.3995586
4	0x3df97a18	0.12181491
5	0x3f879e10	1.0595112
6	0x3f035671	0.51303774
7	0x3e5b3739	0.21407785
8	0x3e0810ef	0.1328771
9	0x3f997596	1.1989009
10	0xbfc6a72c	-1.5519767
11	0xbf1324e3	-0.5747816
12	0x3e2bd934	0.16782075
13	0xbe89b839	-0.26898363
14	0xbeca3cdf	-0.39499566
15	0x3f5f8308	0.8730931
16	0xbedc2bd9	-0.43002203
17	0xbe0a075e	-0.13479373
18	0x3eb60f7e	0.35558695
19	0x3f4d51b7	0.8020281
20	0x3eba87f7	0.36431858
21	0x3ed82c38	0.42221236
22	0xbff6484f	-1.9240817
23	0xbde55f35	-0.111998
24	0x3f5602d2	0.83598053
25	0x3eb9fe1f	0.36326692
26	0x3da77c26	0.08177976
27	0x3f09ec2a	0.5387598
28	0x3eaac6df	0.33354852
29	0xbf9f519d	-1.2446781
30	0xbf4960c1	-0.7866326
31	0x3f809ed9	1.0048476
32	0x3e47b3fc	0.19502252
33	0x3f9bdaa1	1.2176095
34	0x3f259e33	0.6469452
35	0xbfc2d767	-1.5221986
36	0x3f97bcae	1.1854455
37	0xbd84cd53	-0.06484475
38	0xbeee3421	-0.46524146
39	0xbf4a5bd8	-0.7904639
40	0xbf9c5e0d	-1.2216202
41	0x3e04fc51	0.12986876
42	0xbdc7dfff	-0.09759521
43	0x3fa5b407	1.2945565
44	0x3f1ab317	0.6042952
45	0x3f6f8831	0.93567187
46	0x3d99a53a	0.075022176
47	0xbf7f6229	-0.99759156
48	0xbf706f7f	-0.9392013
49	0x3fc68f55	1.5512491
50	0x3efed545	0.49772087
51	0x3f59de9b	0.85105294
52	0x3f131909	0.57460076
53	0x3e68f9a4	0.2275148
54	0xbe4d5d37	-0.2005509
55	0x3fd8c1c4	1.6934133
56	0xbe17f0c5	-0.1483794
57	0x3ebdf841	0.37103465
58	0x4012e99c	2.2955084
59	0x3f986fdf	1.190914
60	0xbf844381	-1.03331
61	0x3fa3f50c	1.2809157
62	0xbf1c8b7e	-0.6115035
63	0xbf01f166	-0.5075897
64	0xbf1e8524	-0.61921906
65	0xbef8d016	-0.48596257
66	0xbe78dd1a	-0.24303094
67	0x3ee0ce5d	0.43907443
68	0xbf27304e	-0.6530808
69	0xbf3a8d52	-0.7287189
70	0xbe934087	-0.28760168
71	0xbfa126d8	-1.2589979
72	0xbf0d5c67	-0.5521912
73	0x3d3af571	0.045644227
74	0xbeb1408a	-0.34619552
75	0xbf60d0fa	-0.8781887
76	0x3f51fa0b	0.8202216
77	0xbf917fdb	-1.1367143
78	0xbe9bbcf0	-0.30417585
79	0xbe0ea114	-0.13928634
80	0xbd8357cf	-0.064132325
81	0xbfe694a5	-1.8014113
82	0xbeda53ce	-0.42642063
83	0x3f1ce4ce	0.6128663
84	0xbedb0475	-0.42776838
85	0xbde8fd17	-0.11376398
86	0xbed05727	-0.40691492
87	0xbfda0d5e	-1.7035329
88	0x3fb6c1f6	1.4277942
89	0x3fa7d99f	1.3113288
90	0x4009407a	2.1445603
91	0xbf6a14cb	-0.9143798
92	0x3d5f6694	0.054541185
93	0x3f43ab95	0.7643369
94	0xbf4499b3	-0.76797026
95	0x3f58936d	0.84599954
96	0x3f13f1b7	0.577907
97	0xbe6b54e7	-0.22981606
98	0xbeadc4ea	-0.33939296
99	0x3e639349	0.22224154
100	0xbed0d3a2	-0.40786463
101	0x3f299ab6	0.66251695
102	0x3f6cd05e	0.92505443
103	0x3f509648	0.8147931
104	0x3f1ea1dd	0.61965734
105	0x3e2c1a79	0.16806974
106	0x3e90911f	0.2823572
107	0x3fc30c84	1.5238194
108	0x3f93c8ec	1.1545691
109	0xbf52db94	-0.823663
110	0xbf5fa512	-0.8736125
111	0xbf549ce5	-0.830519
112	0x3e99002c	0.29882944
113	0x3fad5ef9	1.3544608
114	0x3f4c4f8a	0.79808867
115	0xbe96bec7	-0.29442427
116	0xbf90de30	-1.1317806
117	0x38f62c34	0.000117384276
118	0xbe067f79	-0.13134564
119	0x3f75b7b7	0.9598345
120	0x3e8a079f	0.2695894
121	0x3f1e30bd	0.6179312
122	0x3f175590	0.59114933
123	0x3ff04c86	1.8773353
124	0x3ef90581	0.48637012
125	0x3ea3f269	0.32020882
126	0x3e183645	0.14864452
127	0xbee58fe9	-0.44836357
128	0xbf051fa6	-0.52001417
129	0x3f20ecf8	0.62861586
130	0x3e901fe5	0.28149334
131	0x3ea20b99	0.31649473
132	0x3d46aee8	0.048506647
133	0xbf6e7298	-0.93143606
134	0xbf85ba01	-1.0447389
135	0xbe6ccf1f	-0.23125885
136	0x3f14f0c5	0.58179885
137	0xbfb04f73	-1.3774246
138	0xbe6cbb7a	-0.23118392
139	0xbe097a6f	-0.13425611
140	0xbfaf1e0d	-1.3681046
141	0xbd5e2303	-0.05423261
142	0x3ebf1c2d	0.37326184
143	0x3f1507b8	0.582149
144	0x3f08f8e1	0.5350476
145	0x3f52cc14	0.8234265
146	0xbfb7d7a5	-1.4362684
147	0xbebb30b8	-0.36560607
148	0xbfae8dc4	-1.3637013
149	0xbe8ca9fe	-0.27473444
150	0xbeb234b1	-0.34805825
151	0x3dade13b	0.08490225
152	0x3e67ac84	0.22624403
153	0x3fb4185d	1.4069935
154	0xbdfaa8e2	-0.12239243
155	0x3f40f1d2	0.7536899
156	0xbf1886a7	-0.59580463
157	0x3f0268c6	0.5094112
158	0x3f200a33	0.6251556
159	0x3f8f5b02	1.1199648
160	0x3f7e8c73	0.9943306
161	0x3f2bef21	0.67161757
162	0xbf6d4931	-0.92689806
163	0xbe5cd7fd	-0.21566768
164	0x3e2ce52a	0.16884294
165	0xbf88121e	-1.0630529
166	0xbf9cf74e	-1.2262971
167	0x3e6332c0	0.22187328
168	0xbeee9a1d	-0.46601954
169	0xbef73c75	-0.48288313
170	0x3ecdd969	0.40204933
171	0xbf93d0bd	-1.1548077
172	0xbf711159	-0.94167095
173	0xbfb800fa	-1.4375298
174	0xbf5faaca	-0.8736998
175	0x3e83b0c8	0.2572081
176	0x3f29506b	0.66138333
177	0x3f44429a	0.76664126
178	0xbee0e75a	-0.43926507
179	0xbe6af1fa	-0.22943869
180	0x3ef1c019	0.4721687
181	0xbf741b3c	-0.95354056
182	0x3f9d2082	1.2275546
183	0xbdfae6ee	-0.122510776
184	0xbf5ea649	-0.8697248
185	0x3fee6095	1.8623224
186	0xbe0ab84e	-0.13546869
187	0x3e910e15	0.28331056
188	0x3dd15307	0.10220914
189	0xbe627537	-0.22115026
190	0xbe0ab47d	-0.13545413
191	0xbeaf1b6f	-0.34200618
192	0x3f20ee97	0.6286406
193	0xbdb968b8	-0.09053177
194	0x3fa4f97f	1.288864
195	0x3ed633b7	0.4183633
196	0xbfcca5a0	-1.5988045
197	0xbf9d1425	-1.2271773
198	0xbee365f9	-0.44413736
199	0x3f7c1ffd	0.9848631
200	0x3ec6d947	0.38837644
201	0x3fad9c6f	1.3563365
202	0xbf268c24	-0.6505759
203	0xbf6377c0	-0.888546
204	0x3f970196	1.1797359
205	0xbea6ad90	-0.32554293
206	0xbf093a43	-0.53604525
207	0xbfc43d13	-1.5331138
208	0x3ec37011	0.38171437
209	0xbe8f4951	-0.27985623
210	0x3eaa8507	0.33304617
211	0x3dec2055	0.11529604
212	0xbf229b3f	-0.63518137
213	0xbfb3251e	-1.3995702
214	0x3ef76955	0.4832255
215	0xbe9e7d94	-0.30955184
216	0xbf9cbbca	-1.2244809
217	0x3f975bd5	1.18249
218	0x3d8fd623	0.07023265
219	0x3f91ee75	1.1400896
220	0xbe90dd05	-0.28293625
221	0xbd6492e4	-0.05580415
222	0xbf6fa053	-0.9360401
223	0xbff496b7	-1.9108495
224	0x3fa91376	1.3209064
225	0x3f678453	0.90436286
226	0x3e81f11d	0.25379267
227	0x3eabdb22	0.33565623
228	0xbf85e431	-1.0460263
229	0xbf597649	-0.84946114
230	0xbf86107e	-1.0473783
231	0xbc921ee6	-0.017837
232	0xbf38a566	-0.7212738
233	0x3e0a6abe	0.13517281
234	0xbfa2a408	-1.2706308
235	0x3f842047	1.032235
236	0x400973ce	2.1476932
237	0x3ef2c60a	0.47416717
238	0x3f26a73a	0.6509892
239	0x3f4b7be2	0.79485905
240	0xbf45a0da	-0.77198565
241	0x3f2f9a0e	0.68594444
242	0xbdb0bbce	-0.08629571
243	0x3ea45fc8	0.32104325
244	0x3f9aebdb	1.2103227
245	0x3f521905	0.82069427
246	0xbec78af8	-0.38973212
247	0xbac0d3cb	-0.0014711557
248	0xbdd9cac2	-0.10634376
249	0xbf6d490c	-0.92689586
250	0xbf0a117f	-0.53932947
251	0xbf4f85cf	-0.8106355
252	0xbf63c43f	-0.8897132
253	0xbf4e67b6	-0.80627
254	0x3cc5c767	0.024142934
255	0xbe8ce07f	-0.27515027

weight f4 [32, 16]
0	0xbe516c5d	-0.20451494
1	0x3fd49965	1.6609312
2	0xbeed055c	-0.4629315
3	0xbf741303	-0.9534151
4	0xbf75a841	-0.9595986
5	0x3e2f8564	0.17140728
6	0x3f4b55a4	0.7942755
7	0x3f44d81b	0.7689225
8	0x3ed8d545	0.42350212
9	0x3f243c80	0.64154816
10	0x3eb5acc0	0.3548336
11	0xbdb441a3	-0.08801582
12	0x3f0d15e8	0.5511155
13	0x3f06f6b6	0.527202
14	0xbfa55509	-1.2916576
15	0x3fb5c959	1.4202071
16	0x3fc95e71	1.5731946
17	0xbe7e12d9	-0.24811877
18	0x3e4ef159	0.20209254
19	0x3fa44aaf	1.2835292
20	0xbe9ebaf8	-0.3100202
21	0x3ea2c96c	0.31794298
22	0xbf92fbf3	-1.1483139
23	0xbef7bb6e	-0.48385185
24	0xbe8e13e2	-0.27749544
25	0xbeffe3b9	-0.49978426
26	0xbce8aeaa	-0.028403599
27	0x3e285abc	0.16440862
28	0x3ee485a6	0.44633216
29	0x3fbef277	1.4917744
30	0xbf619e13	-0.8813183
31	0x3c383e10	0.011245266
32	0xbef6cc56	-0.4820277
33	0xbf4baaa2	-0.7955724
34	0xbff3fcdc	-1.9061542
35	0xbfb536fb	-1.4157404
36	0x3e85527c	0.26039493
37	0xbefcb08d	-0.49353448
38	0xbcb93b60	-0.02261132
39	0xbf0b4f91	-0.54418284
40	0x3f182e18	0.59445333
41	0x3f88899c	1.0666995
42	0xbf8dc3c1	-1.1075364
43	0xbfc38c5e	-1.5277212
44	0x3fa7f1e3	1.3120693
45	0x3f83328a	1.0249798
46	0x3f7d78e0	0.99012566
47	0x3fad6365	1.3545958
48	0xbccb2979	-0.02480005
49	0x3ecbdcca	0.39816886
50	0xbf102745	-0.5630992
51	0xbf1129c4	-0.56704354
52	0x3f777d91	0.96675974
53	0x3edd1b45	0.43184868
54	0x3ea2929e	0.31752485
55	0x3e0c24a4	0.13685852
56	0x3f833792	1.0251334
57	0xbf0afa77	-0.5428843
58	0xbe9879c4	-0.297804
59	0x3db6f973	0.089342974
60	0xbf2dc8c4	-0.6788447
61	0x3e13ffff	0.14453124
62	0xbedf860d	-0.4365696
63	0xbf5ebae8	-0.87003946
64	0x3e6029fc	0.21891016
65	0xbe2ddedc	-0.16979545
66	0xbec9dc6f	-0.3942599
67	0xbd918c42	-0.0710683
68	0x3e62986f	0.22128461
69	0xbd22ea21	-0.039774064
70	0x3d13cff4	0.03608699
71	0x3fa8439e	1.3145635
72	0x401d19b8	2.4546947
73	0x3e74a85a	0.23892346
74	0xbf477385	-0.77910644
75	0xbeeb553b	-0.45963463
76	0x3da93f53	0.08264031
77	0xbfc2e40f	-1.5225848
78	0xbeace63f	-0.33769414
79	0x3e97fc4e	0.2968468
80	0xbd8637d9	-0.06553621
81	0xbfa38c90	-1.2777271
82	0x3f93f87f	1.156021
83	0x3d293516	0.041310392
84	0xbfa98a34	-1.3245301
85	0xbde47820	-0.111557245
86	0x3e314fab	0.17315547
87	0xbcb02a66	-0.021504592
88	0xbf45f5dd	-0.7732828
89	0xbf8f5cb7	-1.1200169
90	0x3f14ed56	0.58174646
91	0xbf0931e4	-0.5359175
92	0xbfda58ae	-1.7058313
93	0xbf081093	-0.5315029
94	0xbe48be09	-0.19603743
95	0x3e973188	0.29529977
96	0xbf1a0ebb	-0.60178727
97	0x3ddce516	0.10785882
98	0xbe9c92ba	-0.30580693
99	0x3e914e10	0.2837987
100	0xbe10736a	-0.14106527
101	0x3f5ab88d	0.8543785
102	0x3f831c84	1.0243077
103	0x3ec13841	0.3773823
104	0xbe628b49	-0.22123446
105	0x3f8ddfd3	1.1083931
106	0x3e9ff127	0.31238672
107	0x3f889052	1.0669043
108	0x3fc1ab29	1.5130359
109	0xbedf7a69	-0.4364808
110	0x3f577b8b	0.84172887
111	0xbf94be40	-1.162056
112	0xbe120485	-0.14259537
113	0xbf802e52	-1.0014136
114	0xbfd5864d	-1.668161
115	0xbfb930d3	-1.4468025
116	0x3eb3aae3	0.35091314
117	0xbe577e73	-0.2104433
118	0x3f6d1e41	0.9262429
119	0xbd9c1f0a	-0.07623108
120	0xbfe26dc6	-1.768975
121	0x3fd7bf28	1.6855211
122	0xbf9282e8	-1.14462
123	0x3f62cd41	0.8859444
124	0xbf26dea5	-0.6518348
125	0xbef3d5b9	-0.47623995
126	0xbf3342d7	-0.70023865
127	0xbee572d4	-0.4481417
128	0xbee282dd	-0.44240466
129	0x3f9cfb0b	1.2264112
130	0xbf455ee0	-0.7709789
131	0x3f3c6fe7	0.7360825
132	0xbfc153a3	-1.5103649
133	0x3fa9ab21	1.3255349
134	0xbf709f26	-0.9399284
135	0x3f726a3a	0.9469334
136	0xbf495169	-0.7863985
137	0x3d1b7ae8	0.03795901
138	0xbf9665bb	-1.1749796
139	0x3d8e76ae	0.0695623
140	0x3f39060a	0.7227484
141	0x3e5328cd	0.20621033
142	0x3de163e4	0.11005381
143	0x3d67cd48	0.056592256
144	0xbf523897	-0.821176
145	0xbca2f74b	-0.01989331
146	0xc003de78	-2.0604534
147	0xbf2fd742	-0.6868783
148	0xbf8e3ce9	-1.1112338
149	0x3f74f175	0.95680934
150	0xbf831a75	-1.0242449
151	0x3dddbda6	0.10827188
152	0x3f354296	0.7080473
153	0x3f076a50	0.52896595
154	0xbe68b026	-0.22723445
155	0xbedb681d	-0.4285287
156	0xbe6bee2f	-0.23040079
157	0xbf10d4d9	-0.5657478
158	0xbe586cd4	-0.21135265
159	0xbf04f563	-0.5193693
160	0x3e0d90e8	0.13824809
161	0xbea1a1bc	-0.31568706
162	0x3f3bf3b6	0.7341875
163	0x3f24ce26	0.6437706
164	0xbe218d5f	-0.15776585
165	0xbd9349dc	-0.07191822
166	0x3e871ae1	0.26387694
167	0x3ee8c129	0.4545987
168	0xbd617b56	-0.055049263
169	0xbfb9df6d	-1.4521309
170	0xbfdc0cb6	-1.7191379
171	0xbfa620ff	-1.297882
172	0x3cd19ec8	0.025588408
173	0xbe49b57c	-0.19698137
174	0xbe7a6a54	-0.24454623
175	0x3b8469c3	0.004040928
176	0xbf388d90	-0.7209101
177	0xbf0b4b29	-0.5441156
178	0xbede600d	-0.43432656
179	0xbf4d114a	-0.80104506
180	0xc01ff656	-2.4994102
181	0xbe9959fb	-0.29951462
182	0xbe96b426	-0.29434317
183	0x3f31b632	0.69418633
184	0x3df85fa3	0.12127616
185	0x3e6b8b1c	0.23002285
186	0xc01698e6	-2.3530822
187	0x3f7ea7a1	0.9947453
188	0xbf4911a1	-0.78542525
189	0xbf4d8657	-0.8028311
190	0xbf598c72	-0.8497993
191	0xbf865599	-1.0494872
192	0x3e81e57f	0.25370404
193	0x3f752a09	0.95767266
194	0xbee78396	-0.4521758
195	0x3e607381	0.21919061
196	0xbdb545cc	-0.08851203
197	0xbf655e8f	-0.8959741
198	0xbf089ac5	-0.5336116
199	0xbf34eac0	-0.706707
200	0x3f209c1b	0.627382
201	0xbfb4ad8d	-1.4115463
202	0xbf4845d7	-0.7823157
203	0xbed770e5	-0.4207832
204	0xbed65a25	-0.4186565
205	0x3f0c4519	0.54792935
206	0x3f5403c9	0.82818276
207	0x3fb37376	1.4019611
208	0x3dcb8696	0.099377796
209	0xbffd5ff1	-1.9794904
210	0xbf50b50a	-0.81526244
211	0x3e1bbae4	0.15208012
212	0xbeaf7a50	-0.34273005
213	0xbfc1b4aa	-1.5133259
214	0x3f8043d5	1.0020701
215	0x3fde2ee4	1.735806
216	0xbe5f6250	-0.21814847
217	0x3f8ae95b	1.0852464
218	0x3f635d82	0.88814557
219	0xbd1c1b17	-0.038111772
220	0xbf25e0f0	-0.6479635
221	0xbe96c850	-0.294497
222	0xbf06dfe3	-0.52685374
223	0x3e97ea00	0.29670715
224	0xbf05d64c	-0.52280116
225	0x3f6dd2fa	0.9290005
226	0x3f2458ee	0.64198196
227	0xbf81e993	-1.0149406
228	0xbe91443a	-0.28372365
229	0xbf43758a	-0.76351225
230	0xbe668e62	-0.22515252
231	0x3eaf4992	0.34235817
232	0xbed347e2	-0.4126578
233	0xbfbfc592	-1.4982169
234	0xbf9dad1a	-1.2318451
235	0xbe6f020c	-0.23340625
236	0x3f36d861	0.7142392
237	0x3f6f1736	0.9339479
238	0x3f90c882	1.131119
239	0xbe0a26fb	-0.13491432
240	0xbecfde0e	-0.40599102
241	0x3e28f496	0.16499552
242	0x3f967bfe	1.175659
243	0x3e9a3791	0.3012052
244	0xbf58d5d6	-0.8470129
245	0xbf95bf7e	-1.1699064
246	0xbf8b0469	-1.0860721
247	0xbf50ff92	-0.8163997
248	0x3dc6a63f	0.09699678
249	0x3fb63751	1.4235631
250	0x3efe9430	0.49722433
251	0x3ead9f82	0.33910757
252	0x3f4d0d16	0.8009809
253	0xbefc6d05	-0.49301925
254	0x3faf4a78	1.3694601
255	0xbdb49d37	-0.08819049

weight f4 [32]
0	0x3f8ca67d	1.0988308
1	0x3f9d83ff	1.2305907
2	0x3f7db4ff	0.99104303
3	0x3f4393ae	0.76397216
4	0x3ee4becf	0.44676825
5	0x3f81cffc	1.0141597
6	0x3fae17f5	1.3601061
7	0x3f09cd3b	0.5382878
8	0x3f583bb0	0.84466076
9	0x3fd9063b	1.6955026
10	0x3fbeb33b	1.4898447
11	0x3fb13408	1.3844004
12	0x3f364083	0.7119219
13	0x3f9721af	1.1807154
14	0x3f9e93e9	1.2388889
15	0x3f296ca9	0.6618143
16	0x3f5c1dab	0.8598277
17	0x3ea4e129	0.32203034
18	0x3f8b3380	1.0875092
19	0x3da0885d	0.07838509
20	0x3ee9e7e6	0.45684737
21	0x3fc8ffec	1.5703101
22	0x3f4059f4	0.7513726
23	0x3f0ce1b9	0.55031925
24	0x3f00e4fe	0.50349414
25	0x3fb12263	1.3838619
26	0x3f693c22	0.9110738
27	0x3fb58b1a	1.4183075
28	0x3e98dcef	0.2985606
29	0x3f436695	0.763284
30	0x3fcb8d0c	1.5902419
31	0x3f642a46	0.89127004

bias f4 [32]
0	0xbc147ee1	-0.009063453
1	0xbe800de3	-0.25010595
2	0xbe0571f5	-0.13031752
3	0xbed50e0c	-0.4161228
4	0x3c8ba3d5	0.017045895
5	0x3f3df046	0.74194753
6	0xbeed75eb	-0.46379027
7	0xbf24e68e	-0.644143
8	0xbe573dba	-0.2101964
9	0x3efcfdcd	0.49412385
10	0x3e8a100f	0.26965377
11	0x3ef5a97b	0.47980866
12	0x3f001b95	0.50042087
13	0xbcd71a57	-0.026257677
14	0xbeb186d5	-0.3467318
15	0x3e88e540	0.26737404
16	0x3de57428	0.11203796
17	0x3ee93343	0.45546922
18	0xbd574b8c	-0.05256228
19	0x3e3cd5a4	0.18440872
20	0xbdad1585	-0.0845137
21	0xbf1a1fdd	-0.6020487
22	0x3ebc4c5a	0.36777002
23	0xbebcd867	-0.36883852
24	0x3e50248e	0.20326445
25	0x3f573a40	0.8407326
26	0x3f332ebc	0.69993186
27	0x3e4bde3f	0.19908999
28	0x3edef47d	0.43545905
29	0x3e892705	0.26787582
30	0xbf0137bf	-0.50475687
31	0xbeb55676	-0.35417527

running_mean f4 [32]
0	0xbf28b30a	-0.6589819
1	0xbe2af839	-0.16696252
2	0xbe05e790	-0.13076615
3	0xbfc54f84	-1.5414891
4	0x3f5aa54b	0.8540847
5	0x3f409639	0.7522922
6	0x3f71738a	0.94316924
7	0xbf173ef8	-0.5908046
8	0xbf1034b6	-0.5633043
9	0xbf57fe9f	-0.84372896
10	0x3f1f8330	0.6230955
11	0x3eec083f	0.4610004
12	0xbfd42f47	-1.6576928
13	0x3f606797	0.87658066
14	0xbf786885	-0.97034484
15	0xbf3b1d8b	-0.73091954
16	0xbf51f579	-0.82015187
17	0x3d78fe3a	0.060789324
18	0xbe35c2c1	-0.17750074
19	0xbf79023a	-0.9726902
20	0x3f829604	1.0202031
21	0x3f3d4cbe	0.73945224
22	0xbff32129	-1.8994495
23	0x3d7cb481	0.06169558
24	0x3e6527d9	0.22378482
25	0x3e9f2599	0.31083372
26	0xbf5deece	-0.8669251
27	0x3ea03ebf	0.3129787
28	0x3f824982	1.0178683
29	0xbd5a88e5	-0.05335321
30	0x3fafaf98	1.3725462
31	0xbf1de683	-0.6167986

running_var f4 [32]
0	0x415e6b89	13.901254
1	0x40a0d152	5.025552
2	0x4173e7db	15.244105
3	0x409e6092	4.9492884
4	0x41982be7	19.021437
5	0x40b2c49c	5.5865
6	0x4144ba14	12.295429
7	0x41c26869	24.300982
8	0x41539d4b	13.225902
9	0x414a4dce	12.643995
10	0x410d7a3e	8.842344
11	0x415ff083	13.996219
12	0x41183c42	9.514711
13	0x40a29d73	5.08172
14	0x41147951	9.279618
15	0x40acbf84	5.3983784
16	0x41a1530d	20.165552
17	0x41826cf4	16.3032
18	0x41a6b016	20.83598
19	0x40d1be0a	6.554448
20	0x4034c4d2	2.824513
21	0x40da556c	6.8229275
22	0x405e76be	3.4759974
23	0x41292f1d	10.574002
24	0x4143712e	12.215132
25	0x41149cfb	9.288325
26	0x42017a89	32.369663
27	0x406e2a7c	3.721343
28	0x41010b4e	8.06526
29	0x410b223d	8.695859
30	0x412311cf	10.191848
31	0x40d68edd	6.7049394

weight f4 [32]
0	0x3f7122ae	0.9419354
1	0x3fe28f81	1.7700044
2	0x3fa3b9c8	1.2791071
3	0x3e8db6f9	0.2767866
4	0x3ec81851	0.39081052
5	0x3f5155e7	0.817717
6	0x3f0c4cdc	0.5480478
7	0x3f6ac2b4	0.91703343
8	0x3f5d8c0d	0.86541826
9	0x3f7c8a35	0.9864839
10	0x3fb0cb9e	1.3812139
11	0x3f9bdca8	1.2176714
12	0x3f4ddede	0.80418193
13	0x3f560eb6	0.836162
14	0x3f453a65	0.7704223
15	0x3eb2be26	0.34910697
16	0x3ec2a869	0.38019112
17	0x3fde7a5c	1.7381091
18	0x3f8561e0	1.0420494
19	0x3eb31188	0.34974313
20	0x3f47f29e	0.7810458
21	0x3f44411b	0.76661843
22	0x3f1fb36d	0.62383157
23	0x3f31e9d3	0.6949741
24	0x3f3d1fb3	0.73876494
25	0x3ed7ddc6	0.42161387
26	0x3ff82a8a	1.9387982
27	0x3f41cde8	0.75704813
28	0x3f6b4415	0.9190076
29	0x3f00c243	0.5029642
30	0x3f9a4ada	1.2054093
31	0x3eb9079f	0.36138627

bias f4 [32]
0	0xbe86cdcd	-0.2632889
1	0xbf2d3a95	-0.67667514
2	0x3e8922d2	0.26784378
3	0xbe204614	-0.15651733
4	0xbeaf39fc	-0.34223926
5	0x3d28f904	0.041253105
6	0x3e6c39ba	0.23068896
7	0x3ee23234	0.44178927
8	0xbf00a21f	-0.5024738
9	0xbeba9c9a	-0.36447603
10	0xbdb0e2ec	-0.08637032
11	0xbe4349e3	-0.19071154
12	0x3ed7e6f2	0.42168385
13	0x3efc5d91	0.49290136
14	0x3eea994a	0.45820075
15	0xbe05adc1	-0.13054563
16	0xbd18895b	-0.037240367
17	0x3e808c29	0.25106934
18	0x3ebbb14b	0.366587
19	0xbf296267	-0.66165775
20	0xbe9267c5	-0.28594795
21	0x3d9c19fe	0.07622145
22	0xbecf17ca	-0.40447837
23	0xbdc1b2dd	-0.094579436
24	0xbe8ed2bc	-0.27895153
25	0x3ea8e672	0.32988316
26	0xbe7af036	-0.24505696
27	0x3f023816	0.5086683
28	0xbdc8837e	-0.09790705
29	0x3dd18f9a	0.10232468
30	0xbd91cdef	-0.07119357
31	0xbe97dfa7	-0.2966282

running_mean f4 [32]
0	0x3e8cef07	0.27526113
1	0x3f0e2a5c	0.55533385
2	0x3de1e9e3	0.110309385
3	0xbef60160	-0.48047924
4	0xbefeabe5	-0.4974052
5	0xbeae4d99	-0.34043577
6	0x3ee793aa	0.45229846
7	0x3f1df098	0.6169524
8	0xbe80aecc	-0.2513336
9	0x3eae7a13	0.3407751
10	0xbfae5724	-1.3620343
11	0xbefc5357	-0.49282333
12	0xbf8bc254	-1.0918679
13	0xbd4ce0f6	-0.050019227
14	0xbf9dbf84	-1.2324071
15	0x3f2e98ff	0.68202204
16	0x3e6e103c	0.2324838
17	0x3d8c7c55	0.06859652
18	0xbecb8a2c	-0.39753854
19	0x3e58f73f	0.21188067
20	0xbebf1992	-0.37324196
21	0xbef85600	-0.48503113
22	0x3dca3e15	0.098751225
23	0x3f4e447a	0.80573237
24	0xbf89eda6	-1.077565
25	0x3f4d520f	0.80203336
26	0xbf7ea61e	-0.99472225
27	0xbf4c4831	-0.79797655
28	0xc005d621	-2.0911944
29	0x3eab5f28	0.33471036
30	0x3f45766a	0.7713381
31	0xbdb8bc2d	-0.09020267

running_var f4 [32]
0	0x40ae0414	5.437998
1	0x40cdcbf2	6.4311457
2	0x408ed4fd	4.4634995
3	0x3f568404	0.8379519
4	0x40db7a0f	6.8586497
5	0x40581985	3.3765576
6	0x409ed3fb	4.9633765
7	0x41bfd3ac	23.978355
8	0x401bef7e	2.4364924
9	0x40738fab	3.8056438
10	0x403cf30e	2.952335
11	0x418bd865	17.480661
12	0x40e1e5d1	7.0593038
13	0x40fd7e06	7.9216337
14	0x40e6c0fc	7.2110577
15	0x40182119	2.3770201
16	0x3fe5de4d	1.7958466
17	0x4134580a	11.271494
18	0x3fd29faf	1.6454982
19	0x40c3c349	6.1175885
20	0x3fe75291	1.8072072
21	0x40a8ca32	5.274682
22	0x40bb91bb	5.8615394
23	0x40927373	4.576593
24	0x401c82d8	2.445486
25	0x4085e258	4.18388
26	0x408bf29f	4.373367
27	0x40afa7ad	5.489218
28	0x40513c0a	3.2692895
29	0x400eaa77	2.2291543
30	0x4110bb82	9.045778
31	0x407527a2	3.830544

weight f4 [32, 16]
0	0xbf0315bd	-0.51205045
1	0x3ef170a0	0.4715624
2	0xbed39077	-0.41321155
3	0x3f2689ba	0.65053904
4	0xbf0e4bd5	-0.5558446
5	0xbf8c8407	-1.0977792
6	0xbf50adfd	-0.81515485
7	0xbfaf1c07	-1.3680428
8	0xbe896f1f	-0.2684259
9	0xbe45f1dd	-0.19330545
10	0xbfadd762	-1.3581355
11	0xbe17c525	-0.14821298
12	0xbf274d35	-0.65352184
13	0x3fc554e2	1.5416529
14	0x3ee49295	0.44643083
15	0x3f311eb2	0.6918746
16	0xbefdbb22	-0.49556834
17	0xbf76d2b7	-0.96415275
18	0xbf81b5a6	-1.013356
19	0xbe06abb2	-0.13151434
20	0xbee3e6a8	-0.44511914
21	0x3fc4e258	1.5381575
22	0xbea7e17f	-0.32789227
23	0xbf3e0ea5	-0.74241096
24	0x3d3098f6	0.043114625
25	0xbf127773	-0.57213515
26	0xbfc6a312	-1.5518515
27	0x3fac391f	1.3454932
28	0xbe7f16de	-0.24911067
29	0xbdf7b4ca	-0.1209503
30	0x3e626622	0.22109273
31	0xbf96f1e9	-1.1792575
32	0xbf24ee77	-0.6442637
33	0x3fdaeaeb	1.7102941
34	0xbf38c841	-0.72180563
35	0xbeb7a00c	-0.35864294
36	0x3fa9190c	1.3210769
37	0xbf19a493	-0.60016745
38	0xbf9dcf12	-1.2328818
39	0xbfffae29	-1.9975024
40	0xbd88098a	-0.066424444
41	0xbf7a081e	-0.97668636
42	0x3e8d430c	0.27590215
43	0xbe427d7a	-0.18993178
44	0xbb3f3b7b	-0.002917974
45	0x3f25d59c	0.6477907
46	0xba1ee40f	-0.0006061205
47	0xbf5615b3	-0.8362686
48	0xbf056778	-0.52111006
49	0x3e37c95b	0.17947905
50	0x3f371684	0.7151873
51	0xbe07bce6	-0.13255653
52	0x3dea9f00	0.11456108
53	0xbf890077	-1.0703267
54	0x3dcdd00b	0.10049447
55	0xbfdf38a5	-1.7439162
56	0x3e846ff7	0.25866672
57	0xbd724e17	-0.059156504
58	0xbe0406e2	-0.1289325
59	0x3e7d9dae	0.24767181
60	0x3f8555b5	1.0416781
61	0xbf06b4a9	-0.52619416
62	0x3fd8d2a3	1.6939281
63	0x3e7a9a21	0.24472858
64	0xbffbc751	-1.9670202
65	0x3f80ed29	1.0072376
66	0x3ed46b31	0.4148803
67	0x3f45c6c3	0.7725641
68	0x3fe865b7	1.8156041
69	0xbf097057	-0.5368704
70	0xbf5ce09f	-0.86280245
71	0xbea67d54	-0.32517493
72	0xbd9b9f81	-0.07598782
73	0x3e84f324	0.25966752
74	0xbef38a9b	-0.47566685
75	0xbd9f1058	-0.07766789
76	0xbf69aa77	-0.91275734
77	0xbe3b0572	-0.18263796
78	0x3e7f4114	0.24927169
79	0x3f17a32f	0.59233373
80	0x3f9d9ef1	1.231413
81	0x3e98e1eb	0.29859862
82	0xbf01bf1f	-0.5068225
83	0x3f53b1ee	0.82693374
84	0x3f97cb65	1.1858946
85	0xbf0f32b5	-0.5593675
86	0xbf1b825f	-0.60745806
87	0x3deead6b	0.116541706
88	0x3f5b0ee2	0.85569584
89	0xbedb5856	-0.42840832
90	0x3f72cb28	0.9484124
91	0xbf13726c	-0.5759647
92	0xbe75a8af	-0.23990129
93	0xbddbd632	-0.10734214
94	0x3f5d5d8c	0.86470866
95	0x3e8c931e	0.27455992
96	0x3f24929c	0.6428621
97	0xbf836553	-1.0265297
98	0x3e517192	0.2045348
99	0x3f883e09	1.0643932
100	0xbe8b8d66	-0.27256316
101	0xbf3d61d7	-0.73977417
102	0xbf20b811	-0.62780863
103	0x3f38feed	0.72263986
104	0x3fa20d48	1.2660303
105	0x3f33add5	0.7018712
106	0xbede7790	-0.43450594
107	0x3dd928b6	0.10603468
108	0x3e9daa3c	0.3079394
109	0x3f2fca6c	0.68668246
110	0xbf81283a	-1.0090401
111	0x3c0389e9	0.008028486
112	0x3e44449d	0.19166799
113	0xbf6d532d	-0.9270504
114	0x3f64bed2	0.8935367
115	0xbeae8c75	-0.34091535
116	0xbf5b9ea6	-0.85788953
117	0xbf499aef	-0.78752035
118	0x3f041ede	0.516096
119	0xbf838c17	-1.0277127
120	0xbf0ceca3	-0.5504858
121	0x3f2ef706	0.6834568
122	0x3eb5469f	0.35405442
123	0x3fafef8e	1.3744981
124	0x3d6e557a	0.058186986
125	0xbf3b2605	-0.7310489
126	0x3ed4c23c	0.4155444
127	0xbe1efb28	-0.15525496
128	0xbe65412d	-0.22388144
129	0x3b828678	0.003983315
130	0xc0122480	-2.2834778
131	0x3f2cf733	0.67564696
132	0x3f40988f	0.75232786
133	0x3e97b7ad	0.2963232
134	0xbf604712	-0.87608445
135	0xbcbb99bf	-0.02290046
136	0xbf98b8bf	-1.193138
137	0xbfcd0672	-1.6017592
138	0x3f17d842	0.5931436
139	0x3fd40c38	1.6566229
140	0x3f72e6fa	0.9488369
141	0x3f204377	0.62602943
142	0x3f587a76	0.8456186
143	0x3e3ab24c	0.18232077
144	0x3f8cc275	1.0996844
145	0x3ec127b0	0.37725592
146	0x3e53b4c1	0.20674421
147	0xbe25a0a8	-0.16174567
148	0xbf4cdfd8	-0.8002906
149	0xbf63c435	-0.88971263
150	0xbe0f9a7f	-0.1402378
151	0x3ef26488	0.47342324
152	0x3f89ab9a	1.0755494
153	0x3f6c6335	0.9233888
154	0xbf69f1a5	-0.91384345
155	0xbe3c7599	-0.18404235
156	0xbebf01c9	-0.3730605
157	0x3f322194	0.69582486
158	0xbfe9a476	-1.8253314
159	0x3de09159	0.10965223
160	0x3f70a0fa	0.9399563
161	0xbf891d1e	-1.0712011
162	0x3f9e19d9	1.2351638
163	0xbf54c7e2	-0.83117497
164	0x3e809f68	0.25121617
165	0x3e20922d	0.15680762
166	0x3fefa619	1.8722564
167	0x3de5a3a7	0.11212855
168	0xbcd05e25	-0.025435517
169	0xbd1ae836	-0.03781911
170	0xbf604121	-0.8759938
171	0x3fd2bd8c	1.6464095
172	0x3e038b98	0.1284622
173	0x3f605938	0.87636137
174	0x3e8c6f2a	0.2742856
175	0xbe9e5d10	-0.30930376
176	0xbed259f7	-0.41084263
177	0xbfcaa356	-1.5831096
178	0x3f91abbd	1.1380535
179	0xbf14a276	-0.58060396
180	0x3e74a1c2	0.2388983
181	0x3f028f24	0.50999665
182	0x3fdf11dc	1.7427325
183	0x3dfe12e1	0.124059446
184	0xbdc78d3c	-0.09743735
185	0xbd3539ba	-0.044244505
186	0xbcba9395	-0.02277545
187	0x3e6e4bd1	0.23271109
188	0xbf170d05	-0.5900424
189	0x3ef62634	0.48076022
190	0x3dadd9d9	0.08488817
191	0xbf2093fc	-0.62725806
192	0x3ec906fd	0.39263144
193	0x3fbeb53b	1.4899057
194	0xbf5a35bc	-0.8523824
195	0x3fede2ca	1.8584836
196	0x3e0e1a2d	0.13877173
197	0x3f0f7cf2	0.56050026
198	0xbf832642	-1.024605
199	0xbf8888a6	-1.0666702
200	0x3fe0f064	1.7573361
201	0x3f840f26	1.0317123
202	0x3f066d2d	0.5251034
203	0xbeffa6f8	-0.49932075
204	0x3f1aa244	0.6040385
205	0xbf972f1f	-1.1811255
206	0x3e8b759f	0.27238175
207	0xbf9b9c27	-1.2157029
208	0xbff27820	-1.8942909
209	0xbf6e728d	-0.9314354
210	0x3f34a1ea	0.7055956
211	0x3f234d90	0.63790226
212	0x3f0799de	0.5296916
213	0xbec0ffa4	-0.37695038
214	0xbe1990c6	-0.14996633
215	0x3f0e2aab	0.55533856
216	0x3f20e43a	0.62848246
217	0xbf3e5b62	-0.7435819
218	0x3e0eecc5	0.13957508
219	0x3cf92daa	0.030417282
220	0xbf04312b	-0.51637524
221	0x3ec28792	0.37994057
222	0xbed217c1	-0.41033748
223	0x3f09716f	0.5368871
224	0x3c2f07f1	0.010683046
225	0xbf8f2b44	-1.1185079
226	0xbf32b81a	-0.69812167
227	0xbe75f3db	-0.24018805
228	0x3eb4741f	0.35244843
229	0x3fa2cc9b	1.2718691
230	0x3fc30201	1.5234987
231	0x3e05d061	0.13067771
232	0x3ecbbebd	0.3979396
233	0xbf8b01f2	-1.0859969
234	0x3e93100a	0.28723174
235	0x3ea1c656	0.3159663
236	0x3e8bff01	0.2734299
237	0x3e431ac2	0.19053176
238	0x3fb1a34d	1.387796
239	0x3b8c56aa	0.004282792
240	0x3eb30556	0.34965008
241	0x3d597019	0.05308542
242	0x3fa3049f	1.2735785
243	0x3f8f911d	1.121616
244	0x3e842ddd	0.2581624
245	0xbf3b6674	-0.73203206
246	0xbf0f8f90	-0.56078434
247	0xbf9fd2f7	-1.2486256
248	0x3ee565ad	0.44804135
249	0xbda40728	-0.080091774
250	0x3f0ce5c3	0.5503809
251	0xbfae14fa	-1.3600152
252	0xbd773142	-0.06034971
253	0x3e22bb09	0.15891661
254	0x3ec9ce1b	0.39415058
255	0x3f729c94	0.9477017

weight f4 [32]
0	0x3f827cc7	1.0194329
1	0x3fcb4228	1.5879564
2	0x3f2894f0	0.6585226
3	0x3f55058a	0.83211577
4	0x3fc2029a	1.5157044
5	0x3f9bc075	1.2168108
6	0x3f9d9d79	1.2313682
7	0x3f9f1489	1.2428142
8	0x3ec00709	0.37505367
9	0x3fa6f6c7	1.304406
10	0x3fbfe97f	1.4993132
11	0x3f079021	0.529543
12	0x3fe4b89c	1.7868838
13	0x3fa8037a	1.3126061
14	0x3f7613c9	0.9612394
15	0x3f9a0be5	1.203488
16	0x3f17af99	0.59252316
17	0x3f40a68f	0.7525415
18	0x3f853a38	1.0408392
19	0x3f381231	0.7190276
20	0x3f643f79	0.8915935
21	0x3e62fcba	0.2216672
22	0x3f27b242	0.65506375
23	0x3fc7e293	1.561602
24	0x3fada525	1.3566023
25	0x3f8b5c53	1.088755
26	0x3f3635ce	0.7117585
27	0x3f81d67e	1.0143583
28	0x3fd81dc3	1.6884083
29	0x3f1fde38	0.62448454
30	0x3fbee93b	1.4914926
31	0x3f965028	1.1743212

bias f4 [32]
0	0xbf25d9be	-0.64785373
1	0x3ededc94	0.43527663
2	0xbe31864d	-0.17336388
3	0xbe71a676	-0.23598656
4	0xbe65d65f	-0.22445057
5	0xbe2aee52	-0.16692474
6	0x3f1bedf3	0.60909957
7	0x3f0320a7	0.512217
8	0x3f3306ea	0.69932425
9	0xbe0f6f33	-0.14007263
10	0xbf1df344	-0.6169932
11	0xbd3c5a2b	-0.04598443
12	0xbe4ff0aa	-0.2030665
13	0xbf211b28	-0.6293206
14	0xbec1b0c2	-0.37830168
15	0x3f39a51a	0.7251755
16	0x3f217687	0.63071483
17	0x3efe2181	0.49634936
18	0x3cd16af1	0.025563689
19	0x3cd1c6eb	0.025607547
20	0x3f01bb00	0.50675964
21	0x3efc6da5	0.49302402
22	0x3eb520a0	0.35376453
23	0x3efc82e8	0.49318624
24	0xbefe4f77	-0.49670002
25	0xbc9d81ee	-0.019226994
26	0x3ef480e1	0.47754577
27	0xbf078bbd	-0.529476
28	0x3f549f7c	0.83055854
29	0x3ebadc2d	0.36496106
30	0xbed4911c	-0.4151696
31	0x3e84cd3e	0.25937837

running_mean f4 [32]
0	0xbf3c72c7	-0.73612636
1	0x3ed45ff8	0.41479468
2	0xbf960394	-1.1719842
3	0xbdb341d9	-0.08752794
4	0xbf9ba5df	-1.2159995
5	0xbf0c6d11	-0.5485392
6	0x3ed71c59	0.42013815
7	0x3f343e0b	0.7040717
8	0x3eddaad8	0.43294406
9	0xbf0b786c	-0.54480624
10	0x3f121d50	0.5707598
11	0x3f52c0b5	0.823253
12	0xbf936976	-1.1516559
13	0x3e1d4c79	0.15361203
14	0x3f30945d	0.68976384
15	0xbe64846f	-0.22316144
16	0x3e48d689	0.19613089
17	0xbf0f8bf9	-0.56072956
18	0xbe466951	-0.19376113
19	0xbf22d488	-0.63605547
20	0x3ee619de	0.4494161
21	0x3f8f0ead	1.1176354
22	0xbf1dfc20	-0.6171284
23	0xbf3e1a17	-0.7425856
24	0xbe73124f	-0.23737453
25	0x3fa99413	1.3248314
26	0xbf8a741c	-1.0816684
27	0x3f251ec7	0.6450009
28	0xbf532eab	-0.82493085
29	0x3cfcf550	0.030878693
30	0xbef5780d	-0.47943154
31	0x3f844b99	1.033557

running_var f4 [32]
0	0x401b7938	2.4292736
1	0x413141db	11.078578
2	0x419963a9	19.173662
3	0x40883002	4.2558603
4	0x3fbaa269	1.4580814
5	0x410c250c	8.759045
6	0x40f65e17	7.6989856
7	0x40d29a64	6.5813465
8	0x414fa32b	12.977336
9	0x413ed1ef	11.926253
10	0x4195a0cb	18.703512
11	0x415d1d41	13.819642
12	0x41702875	15.009877
13	0x40222b4a	2.5338922
14	0x40f713fd	7.72119
15	0x41129e40	9.163635
16	0x4117e8ea	9.494364
17	0x4096d725	4.7137628
18	0x400a609c	2.1621466
19	0x4037cc00	2.8718262
20	0x404e241d	3.2209542
21	0x405ed447	3.4817064
22	0x40b45cbb	5.6363196
23	0x40c8e342	6.2777414
24	0x412a7118	10.652611
25	0x40bd3255	5.912394
26	0x418386dc	16.44085
27	0x41132f5f	9.199065
28	0x4090d037	4.525417
29	0x41531d82	13.194704
30	0x40bc996a	5.8937273
31	0x409fdc27	4.995624

weight f4 [32, 16]
0	0x3d3e6d51	0.04649097
1	0x3e4a7732	0.19772032
2	0xbf4370d6	-0.7634405
3	0x3e5a2bbb	0.21305744
4	0x3f36d901	0.7142487
5	0xbdac5a52	-0.08415665
6	0xbd97d281	-0.07413197
7	0x3f25ed5d	0.6481531
8	0xbebd4999	-0.36970213
9	0x3eafafad	0.34313717
10	0xbf5d0a5b	-0.86343926
11	0x3fb911ea	1.4458592
12	0xbef28075	-0.4736363
13	0x3db9e668	0.0907715
14	0x3d69182d	0.05690782
15	0x3e86eca1	0.2635241
16	0xbd06776e	-0.03282874
17	0xbf049fcd	-0.51806337
18	0xbe8f4a90	-0.27986574
19	0x3c11e6db	0.008905138
20	0xbdf6efaa	-0.12057431
21	0xbeffe202	-0.49977118
22	0xbf1c2525	-0.6099418
23	0xbf551c06	-0.83245885
24	0x3e6a988e	0.22909757
25	0xbf34104c	-0.7033737
26	0xbf63b590	-0.8894892
27	0xbf9b337e	-1.2125089
28	0x3e65ab9e	0.22428748
29	0xbf4c2955	-0.7975057
30	0x3edcec93	0.43149242
31	0xbf709ff9	-0.939941
32	0xbeecb2de	-0.46230215
33	0xbe385bfe	-0.18003842
34	0x3de245ec	0.11048493
35	0x3ec55251	0.38539365
36	0xbe6ebe56	-0.23314795
37	0x3ecd07a1	0.40044883
38	0xbf26cdcf	-0.6515779
39	0xbef87417	-0.4852607
40	0xbc47f135	-0.012203504
41	0x3e8d1938	0.27558303
42	0xbe93b164	-0.28846276
43	0x3e7438e9	0.23849835
44	0x3f08df84	0.5346606
45	0x3f55422b	0.8330409
46	0xbe88369b	-0.2660416
47	0xbdac04fd	-0.08399389
48	0xbe987373	-0.2977558
49	0xbf9aa7b3	-1.2082428
50	0x3e75e7f8	0.2401427
51	0xbf3ef254	-0.74588513
52	0x3e1c7d9b	0.1528229
53	0x3faa1682	1.3288119
54	0x3e26dddf	0.16295575
55	0xbf3183cc	-0.6934173
56	0x3f3d9af9	0.74064595
57	0xc001602c	-2.0214949
58	0xbf0f1137	-0.5588564
59	0x3d4d243c	0.050083384
60	0xbf7bf58a	-0.9842154
61	0xbf5a41aa	-0.85256445
62	0x3fb8d700	1.4440613
63	0x3f13dde7	0.5776047
64	0xbe4fb2b5	-0.20283015
65	0x3f79accd	0.975293
66	0x3f98412a	1.1894886
67	0x3f37c214	0.71780515
68	0xbf6c5f23	-0.9233267
69	0x3e072470	0.13197494
70	0xbf401842	-0.75037014
71	0x3fb438ea	1.4079869
72	0xbdccab50	-0.09993613
73	0x3d563cc1	0.052304033
74	0x3f399210	0.724885
75	0x3caaa4b6	0.020830493
76	0xbdf63b11	-0.12022985
77	0xbf83d3f9	-1.0299064
78	0x3ea906fd	0.33013144
79	0xbeec743c	-0.4618243
80	0x3e955c51	0.29171994
81	0x3eb3ce42	0.351183
82	0x3fda2bd0	1.704462
83	0xbf22549c	-0.63410354
84	0xbe9a1127	-0.3009121
85	0x3ceec949	0.029148715
86	0xbec4d9ff	-0.38447568
87	0x3f3347a9	0.7003122
88	0xbf2a50a1	-0.6652928
89	0x3f64c3a8	0.8936105
90	0x3ea856e2	0.32878786
91	0xbf7f8c15	-0.99823123
92	0x3f417a69	0.7557741
93	0x3fffd880	1.9987946
94	0xbe8dfd43	-0.27732286
95	0x3f5156c4	0.8177302
96	0xbf7f0435	-0.99615794
97	0x3f2c4024	0.6728537
98	0xbf2099e5	-0.62734824
99	0x3c054c09	0.008135804
100	0x3f19f9fa	0.6014706
101	0x3f292940	0.6607857
102	0x3e8ca4ea	0.2746957
103	0x3ff7cbe4	1.9359097
104	0x3fb4e77c	1.4133143
105	0xbec937d1	-0.39300397
106	0x3e170c2a	0.14750734
107	0xbfca6ba0	-1.5814095
108	0xbf4f9dbe	-0.8110007
109	0x3f2f1b8e	0.6840142
110	0x3ef3e461	0.47635177
111	0x3d8ae286	0.06781487
112	0x3f14fdc6	0.5819973
113	0x3fbb8572	1.4650099
114	0x3e8d7b30	0.27633047
115	0x3f0a26fd	0.5396574
116	0xbe952712	-0.2913137
117	0xbf7b1d9a	-0.98092043
118	0xbec67a95	-0.38765398
119	0xbe7d5c0f	-0.24742149
120	0x3fa383e7	1.2774628
121	0xbf375718	-0.7161727
122	0x3f0d72a8	0.55253077
123	0x3d6ae858	0.057350487
124	0x3f63bffa	0.8896481
125	0xbf35bbd2	-0.70989716
126	0xbf68b677	-0.9090342
127	0xbf2a511e	-0.66530025
128	0x3e8267d3	0.25469837
129	0x3ee5b6c0	0.4486599
130	0xbf0b99b6	-0.5453142
131	0xbeb4b8fb	-0.3529738
132	0xbf3baed1	-0.73313624
133	0xbf0deb86	-0.55437505
134	0x3f7cecfc	0.9879911
135	0x3eaa67c5	0.33282295
136	0xbd5aaaeb	-0.053385656
137	0x3f76f33c	0.96464896
138	0x3f8500e7	1.03909
139	0x3dba8a59	0.09108419
140	0xbed1b43e	-0.40957826
141	0xbecea544	-0.40360463
142	0xbdefc394	-0.117072254
143	0xbf0b218f	-0.5434808
144	0x3f16a3a3	0.5884344
145	0x3e34cbbd	0.17655845
146	0xbe7e37e5	-0.2482601
147	0x3fa54e08	1.2914438
148	0x3fa1f95e	1.2654226
149	0x3ef4362c	0.4769758
150	0x3ef4ca94	0.47810805
151	0x3fb104f3	1.3829635
152	0xbe8b3130	-0.27185965
153	0x3f6ae75d	0.9175928
154	0xbfbcea4e	-1.4759004
155	0xbefd4389	-0.49465588
156	0x3e2089b3	0.15677528
157	0xbf206a60	-0.62662315
158	0x3dee310a	0.11630447
159	0x3f4457c5	0.76696426
160	0xbe5db0db	-0.21649496
161	0xbf1d3c59	-0.6142021
162	0x3e222bb2	0.15836981
163	0xbf8b5356	-1.0884807
164	0x3e892272	0.26784092
165	0xbf903dd4	-1.1268868
166	0x3ebc00a0	0.36719227
167	0x3f657141	0.89625937
168	0xbe73e0f3	-0.2381628
169	0xbf270076	-0.6523508
170	0x3f025b76	0.5092081
171	0x3fa8f444	1.3199544
172	0xbf28ffad	-0.6601513
173	0x3f43c2c7	0.7646908
174	0x3ecc81b3	0.39942703
175	0x3ec11c55	0.37716928
176	0xbf152428	-0.58258295
177	0x3f334736	0.70030534
178	0xbf28b9ad	-0.6590832
179	0xbf753bce	-0.9579438
180	0x3f5f75ad	0.87288934
181	0xbf6ea744	-0.9322398
182	0x3f039f68	0.5141511
183	0xbe816671	-0.2527347
184	0x3ec1fa97	0.37886497
185	0x3f9b1d86	1.2118385
186	0x3e342d20	0.17595339
187	0xbec26b1d	-0.37972346
188	0x3f1c6419	0.61090237
189	0x3e37e6b0	0.17959094
190	0xbf27e866	-0.65588987
191	0xbfa4ecc7	-1.2884759
192	0xbfa7b952	-1.310343
193	0x3f186f4f	0.59544843
194	0x3dd9ca04	0.106342345
195	0x3f2e2d34	0.68037724
196	0xbf6dff62	-0.9296781
197	0x3f4ccf45	0.8000377
198	0xbe7ad039	-0.24493493
199	0x3fa6aafb	1.3020929
200	0x3c8f5b2f	0.017499534
201	0x3e4da2f9	0.200817
202	0x3f03a237	0.51419395
203	0x3f6dbc0d	0.9286507
204	0x3f6beb29	0.921557
205	0xbfd33567	-1.6500672
206	0x3f41481d	0.7550066
207	0xbb00b37e	-0.0019638236
208	0xbea57dff	-0.3232269
209	0x3f218a2f	0.63101476
210	0xbe7b9311	-0.2456782
211	0x3d4e6185	0.05038597
212	0xbee3a04c	-0.44458234
213	0xbf3773b7	-0.7166094
214	0x3c43faea	0.011961678
215	0xbf5f0eb1	-0.8713179
216	0x3e0a861f	0.13527726
217	0xbfcce709	-1.6008006
218	0xbe37821c	-0.17920727
219	0x3f023964	0.5086882
220	0xbf6537d7	-0.8953833
221	0xc0059b6b	-2.087611
222	0xbda6f9af	-0.08153092
223	0xbe63eda9	-0.22258629
224	0xbf9d746b	-1.2301153
225	0x3d1cf1d4	0.038316563
226	0xbf066d08	-0.5251012
227	0xbd047db4	-0.032346442
228	0xbf4516cf	-0.7698793
229	0x3ebd3c3a	0.36960012
230	0xbc36cc55	-0.011157115
231	0x3f122112	0.5708171
232	0xbf00e99d	-0.50356466
233	0x3f6478a7	0.892466
234	0x3dc1b026	0.09457426
235	0x3d6eb5d5	0.058278877
236	0xc02113bf	-2.5168302
237	0xbf68f49d	-0.9099825
238	0xbd76f0b5	-0.06028815
239	0xbebbd425	-0.3668529
240	0x3f13dc8c	0.577584
241	0x3e12feb9	0.14354981
242	0x3f0c3701	0.5477143
243	0xbebefdb4	-0.37302935
244	0x3f1b36d2	0.60630524
245	0x401929b7	2.393171
246	0xbe67589b	-0.22592394
247	0xbf3c4ac2	-0.7355157
248	0x3eb04ba4	0.3443271
249	0xbe95476a	-0.29156047
250	0xbeaf2ebe	-0.3421535
251	0xbf5dc34c	-0.86626124
252	0x3f2c760a	0.67367613
253	0xbf941b7e	-1.157089
254	0x3f1528bf	0.582653
255	0x3e12baed	0.14329119

weight f4 [32]
0	0x3f800000	1.0
1	0x3f800000	1.0
2	0x3f800000	1.0
3	0x3f800000	1.0
4	0x3f800000	1.0
5	0x3f800000	1.0
6	0x3f800000	1.0
7	0x3f800000	1.0
8	0x3f8bc072	1.0918105
9	0x3fab2bc7	1.3372735
10	0x3f591230	0.84793377
11	0x3f93cafc	1.1546321
12	0xbe18b8db	-0.14914267
13	0x3e83ea5d	0.25764742
14	0x3f9f6caf	1.2455043
15	0x3ff1dc75	1.8895403
16	0x3f800000	1.0
17	0x3f800000	1.0
18	0x3f800000	1.0
19	0x3f800000	1.0
20	0x3f800000	1.0
21	0x3f800000	1.0
22	0x3f800000	1.0
23	0x3f800000	1.0
24	0x3ed5c792	0.41753823
25	0x3fc8e18f	1.5693835
26	0x3f7639ac	0.9618175
27	0x3fae20c7	1.3603753
28	0x3f35f458	0.71075964
29	0x3f63fa47	0.8905377
30	0x3f4bde49	0.79636055
31	0x3f687115	0.9079755

bias f4 [32]
0	0x00000000	0.0
1	0x00000000	0.0
2	0x00000000	0.0
3	0x00000000	0.0
4	0x00000000	0.0
5	0x00000000	0.0
6	0x00000000	0.0
7	0x00000000	0.0
8	0xbed54947	-0.4165747
9	0x3e184208	0.14868939
10	0xbf31fda6	-0.6952766
11	0xbc697627	-0.014249361
12	0xbebc4d3a	-0.3677767
13	0x3f589623	0.8460409
14	0x3e35fd04	0.17772299
15	0x3eac3183	0.33631524
16	0x00000000	0.0
17	0x00000000	0.0
18	0x00000000	0.0
19	0x00000000	0.0
20	0x00000000	0.0
21	0x00000000	0.0
22	0x00000000	0.0
23	0x00000000	0.0
24	0x3eb69c43	0.35666093
25	0x3f075448	0.5286298
26	0x3eed72a8	0.46376538
27	0xbd99a2ae	-0.07501732
28	0xbf8b32c6	-1.087487
29	0xbf52b791	-0.8231135
30	0x3eba65bf	0.3640575
31	0x3f067df6	0.5253595

running_mean f4 [32]
0	0x3db9329a	0.090428546
1	0x3da6098d	0.081072904
2	0xbcf160a0	-0.02946502
3	0x3f893ff2	1.072264
4	0xbece936d	-0.40346852
5	0xbe8ca5a0	-0.27470112
6	0xbe0cb2cb	-0.13740079
7	0xbf50cea6	-0.8156532
8	0xbed0198f	-0.406445
9	0x3cc4bcb8	0.02401577
10	0x3f029ce4	0.51020646
11	0xbf1411c7	-0.57839626
12	0x3e8a32d5	0.26991907
13	0x3ee53305	0.44765487
14	0x3f0fcc0b	0.5617072
15	0xbd35800e	-0.044311576
16	0x3e8333fe	0.25625604
17	0xbed4f139	-0.41590288
18	0xbf23644f	-0.63824934
19	0x3eee2865	0.46515194
20	0x3f19abb3	0.6002762
21	0x3f5420e3	0.8286268
22	0x3eab4705	0.3345262
23	0xbe490f26	-0.19634685
24	0xbf5d22bb	-0.8638112
25	0x3f886e74	1.0658708
26	0xbbd5a612	-0.0065200413
27	0xbf8113aa	-1.0084126
28	0x3cad53cd	0.021158123
29	0xbce1c15c	-0.027558021
30	0xbf61723f	-0.8806495
31	0xbf0da60a	-0.5533148

running_var f4 [32]
0	0x4063749a	3.5539918
1	0x40ad1936	5.4093275
2	0x3efc8eee	0.49327797
3	0x4126362f	10.388228
4	0x3ff2b1c3	1.8960499
5	0x40177b18	2.366888
6	0x3ff5bc2a	1.9198048
7	0x40a0b8b9	5.022549
8	0x40f75cea	7.730092
9	0x40b7a9dc	5.739485
10	0x4146875e	12.408049
11	0x40d247a7	6.5712466
12	0x408857c8	4.2607155
13	0x408d9282	4.4241343
14	0x41895b4b	17.169577
15	0x41a1ee3a	20.241322
16	0x3fba665c	1.4562488
17	0x411fc653	9.985919
18	0x4096b12c	4.7091274
19	0x3ff1bee1	1.8886377
20	0x400be33f	2.185745
21	0x3ff9e2f4	1.9522386
22	0x417e4887	15.892707
23	0x403aa45d	2.916282
24	0x413a316f	11.637069
25	0x4143ea88	12.244759
26	0x40967fb8	4.7030907
27	0x40ae4550	5.445961
28	0x40238deb	2.555537
29	0x40d9929e	6.7991476
30	0x4032e13a	2.7949967
31	0x40a21906	5.0655546

weight f4 [32]
0	0x3f91714a	1.1362698
1	0x3fe1e30b	1.7647413
2	0x3f41770e	0.7557229
3	0x3ed43178	0.41443992
4	0x3f9ed5a2	1.2408946
5	0x3f3f855a	0.74812853
6	0x3f67d2f8	0.9055629
7	0x3f366e5a	0.71262133
8	0x3f8a2b66	1.0794494
9	0x3f8fbfa0	1.1230354
10	0x3f5c4c80	0.8605423
11	0x3f9b792d	1.2146355
12	0x3f58280a	0.84436095
13	0x3fb13fb8	1.384757
14	0x3f8bdf05	1.0927435
15	0x3f88f0cb	1.0698484
16	0x3f65d09e	0.8977145
17	0x3fc23aff	1.5174254
18	0x3ea2e28a	0.3181346
19	0x3f17476c	0.59093356
20	0x3fcc32d4	1.5953012
21	0x3fd8b1a8	1.6929216
22	0x3efc6e66	0.49302977
23	0x3f61d15c	0.8821008
24	0x3f7a850f	0.9785928
25	0x3f406a86	0.7516254
26	0x3f8842b8	1.0645361
27	0x3f901978	1.1257772
28	0x3f4379c6	0.76357687
29	0x3f605f80	0.8764572
30	0x3f9acf86	1.2094581
31	0x3fb88d9c	1.4418216

bias f4 [32]
0	0xbed6ef58	-0.4197948
1	0xbe1edaa7	-0.15513097
2	0xbe90e75e	-0.2830152
3	0x3ec29d4d	0.38010636
4	0xbe6b0e21	-0.22954609
5	0xbf68ea65	-0.9098266
6	0xbdcf5eb5	-0.10125486
7	0x3d974022	0.07385279
8	0xbd2862fe	-0.04111003
9	0xbe98cab1	-0.2984214
10	0x3f5dcfd9	0.86645275
11	0x3ea908f8	0.33014655
12	0xbe78a2fa	-0.2428092
13	0xbe0d7faf	-0.13818239
14	0x3e92a5bc	0.2864207
15	0x3edf89c1	0.43659785
16	0x3ec91adc	0.39278305
17	0x3eb86d65	0.3602096
18	0x3ebf2733	0.37334594
19	0xbe9b9c73	-0.303928
20	0xbf11e5e3	-0.56991404
21	0xbf1d8515	-0.6153119
22	0x3d6aad88	0.0572944
23	0x3ddaab35	0.106771864
24	0xbdbce5b7	-0.09223502
25	0x3e1bcc2a	0.15214601
26	0xbe7588a0	-0.239779
27	0x3eecd220	0.46254063
28	0xbd01cbd5	-0.03168853
29	0x3eafaef1	0.34313157
30	0x3e168812	0.14700344
31	0xbcec8264	-0.028870769

running_mean f4 [32]
0	0xbdcc7e5e	-0.0998504
1	0xbdab84b2	-0.08374919
2	0x3e3dd23e	0.18537232
3	0xbd53595d	-0.051598895
4	0x3e372a6b	0.17887275
5	0x3d0973da	0.03355775
6	0x3e10d651	0.14144255
7	0xbd53f961	-0.051751498
8	0xbd6bf592	-0.05760724
9	0xbe64185e	-0.2227492
10	0x3bc2f90f	0.0059501003
11	0xbbe7edc7	-0.007077906
12	0xbcb2c5a9	-0.021822767
13	0x3d578c04	0.052623764
14	0x3d0742a8	0.033022553
15	0xbe813bfc	-0.25241077
16	0xbd538c0b	-0.051647227
17	0x3c82c02a	0.015960772
18	0x3e2ffcc9	0.17186274
19	0x3daa23e0	0.08307624
20	0x3da393b6	0.07987158
21	0xbd809a96	-0.06279485
22	0x3e49ffda	0.19726506
23	0xbc0aa772	-0.008462774
24	0xbcf6449a	-0.030062009
25	0xbd0dc0aa	-0.034607567
26	0x3e066682	0.13125041
27	0x3cf5c1d1	0.029999645
28	0x3e004b68	0.12528765
29	0xbdd75c75	-0.10515682
30	0x3e5695e6	0.20955619
31	0xbe5a0f70	-0.21294951

running_var f4 [32]
0	0x3ecc416a	0.39893657
1	0x3e94d813	0.29071102
2	0x3f007185	0.5017322
3	0x3eb8d1ef	0.36097667
4	0x3f782db7	0.96944755
5	0x3f4a4da8	0.79024744
6	0x3e8f1861	0.27948287
7	0x3eeb87f7	0.4600217
8	0x3f1130e3	0.5671522
9	0x3f1f391c	0.62196517
10	0x3e9ca505	0.3059465
11	0x3f68f60e	0.9100045
12	0x3f0c414d	0.5478714
13	0x3eb5e2d4	0.3552462
14	0x3ed267a1	0.41094688
15	0x3f08f517	0.5349898
16	0x3ef2488f	0.47320983
17	0x3e9cf6d5	0.30657068
18	0x3f4aba36	0.79190385
19	0x3f922e74	1.1420426
20	0x3ef88a84	0.4854318
21	0x3ea34852	0.31891114
22	0x3f545563	0.8294279
23	0x3ef21093	0.4727827
24	0x3eaf5c69	0.3425019
25	0x3f208dc8	0.6271634
26	0x3f4f1261	0.8088742
27	0x3ef357af	0.47527835
28	0x3f1f802e	0.6230496
29	0x3f018072	0.50586617
30	0x3f394ede	0.72385967
31	0x3f5ec265	0.8701537

weight f4 [32]
0	0x3f93ac8b	1.1537031
1	0x3f9e8c28	1.2386522
2	0x3f20b54c	0.6277664
3	0x3d3236cf	0.0435093
4	0x3ef6f00e	0.48230022
5	0x3f8ca25e	1.098705
6	0x3f90bddd	1.1307942
7	0x3ecb1bf9	0.3966978
8	0x3fba11e1	1.4536706
9	0x3f19244f	0.5982103
10	0x3fce4f97	1.6118039
11	0x3f828f2f	1.0199946
12	0x3f5f13f3	0.87139815
13	0x3f8a5cf9	1.0809623
14	0x3f864a81	1.0491487
15	0x3f2211e5	0.63308555
16	0x3f989d13	1.1922935
17	0x3f9f4988	1.2444315
18	0x3fc4407c	1.5332179
19	0x3b0767bb	0.0020661193
20	0x3ec5ada0	0.38609028
21	0x3f4e2550	0.80525684
22	0x3f489d36	0.78364885
23	0x3f8272b1	1.0191251
24	0x3fa7146d	1.3053108
25	0x3f217f77	0.6308512
26	0x3fa01cc4	1.2508779
27	0x3f815ae7	1.0105866
28	0x3f516ed0	0.8180971
29	0x3f2e7839	0.68152195
30	0x3f4ae414	0.7925427
31	0x3fc8744a	1.5660489

bias f4 [32]
0	0xbef2511a	-0.473275
1	0xbf018700	-0.5059662
2	0xbedf0480	-0.4355812
3	0x3eaf565e	0.3424558
4	0x3dc0012b	0.09375223
5	0x3cc23597	0.023707194
6	0xbdd6e6db	-0.10493251
7	0x3e9464c8	0.2898314
8	0x3e5c17e5	0.2149349
9	0x3dca9d5e	0.09893297
10	0xbdcab134	-0.0989708
11	0xbf0e5fbd	-0.55614835
12	0x3e974916	0.29547948
13	0xbeefecbd	-0.46860304
14	0xbedad7ff	-0.42742917
15	0x3f1559f6	0.58340394
16	0x3e5c6eb3	0.21526603
17	0xbea03451	-0.31289914
18	0xbea20792	-0.316464
19	0xbf357f10	-0.70897007
20	0xbea15c10	-0.3151555
21	0x3e0cde67	0.13756715
22	0x3e92abad	0.28646603
23	0xbef74525	-0.4829494
24	0xbe9eb16e	-0.30994743
25	0x3e7d1af4	0.24717313
26	0x3f0a4587	0.5401234
27	0xbe260d4c	-0.1621601
28	0xbdf2551e	-0.11832641
29	0x3cbafaad	0.02282461
30	0x3e3b2134	0.18274385
31	0xbebf1a53	-0.3732477

running_mean f4 [32]
0	0xbf0e18ec	-0.5550678
1	0xbeeb1e53	-0.45921573
2	0xbe883dd0	-0.2660966
3	0xbf154057	-0.583013
4	0xbe3d079a	-0.18459931
5	0x3f49a9ff	0.7877502
6	0xbd997d24	-0.07494572
7	0xbd06042a	-0.032718815
8	0xbf23438a	-0.6377493
9	0xbdd0ec74	-0.1020135
10	0xbf1fab30	-0.62370586
11	0xbe7aaf4f	-0.24480937
12	0x3e8220ce	0.25415653
13	0x3fa5ad53	1.2943519
14	0xbeeb89f8	-0.460037
15	0x3f38cee0	0.72190666
16	0x3dba5f1c	0.09100172
17	0x3e85d3c5	0.2613813
18	0x3d9d9c4d	0.07695828
19	0x3e7ce42f	0.2469642
20	0xbed81bb2	-0.4220863
21	0x3e1e4041	0.15454198
22	0x3eb1c3f6	0.3471982
23	0x3e91af7a	0.2845419
24	0x3edf4074	0.4360386
25	0xbdc07ead	-0.093991615
26	0xbf172dba	-0.5905415
27	0x3eeafbb3	0.45895156
28	0xbe3627b6	-0.17788586
29	0x3e73b136	0.2379807
30	0x3f2ad62e	0.6673306
31	0xbe87e1a7	-0.26539347

running_var f4 [32]
0	0x40c93534	6.2877445
1	0x40ba6090	5.8242874
2	0x409d77de	4.920882
3	0x3ff1dd43	1.8895649
4	0x40ac3b4b	5.382238
5	0x40d72180	6.7228394
6	0x409f5c45	4.9800134
7	0x41366321	11.399201
8	0x40f65625	7.6980157
9	0x406195b5	3.5247624
10	0x4013987c	2.306182
11	0x41b48a25	22.567453
12	0x40ac00f7	5.375118
13	0x411fda81	9.990846
14	0x40aab98f	5.335151
15	0x408f0a1f	4.4699855
16	0x403310e9	2.797907
17	0x40abd237	5.369411
18	0x3fc6b6a8	1.5524492
19	0x4050c512	3.2620282
20	0x4088618b	4.261907
21	0x40ae1bf4	5.4409122
22	0x40f94995	7.790232
23	0x40ae49a3	5.446489
24	0x40a8c0b6	5.2735243
25	0x405458d4	3.3179216
26	0x40cb67af	6.3564067
27	0x409199de	4.5500326
28	0x40b851cf	5.7599864
29	0x40afd315	5.494517
30	0x40fbded9	7.870953
31	0x40abb476	5.365779
