Experiments/2022_07_26 13-51-41 wine_100runs_learning-rate_3mv-features_custom-loss /models/Model_run5_optimizer_params1.0_malic_acid.pt (torch, 261325 bytes, 318 tensors)

weight f4 [12]
0	0x3f800000	1.0
1	0x3f800000	1.0
2	0x3f800000	1.0
3	0x3f800000	1.0
4	0x3f800000	1.0
5	0x3f800000	1.0
6	0x3f800000	1.0
7	0x3f800000	1.0
8	0x3f800000	1.0
9	0x3f800000	1.0
10	0x3f800000	1.0
11	0x3f800000	1.0

bias f4 [12]
0	0x00000000	0.0
1	0x00000000	0.0
2	0x00000000	0.0
3	0x00000000	0.0
4	0x00000000	0.0
5	0x00000000	0.0
6	0x00000000	0.0
7	0x00000000	0.0
8	0x00000000	0.0
9	0x00000000	0.0
10	0x00000000	0.0
11	0x00000000	0.0

running_mean f4 [12]
0	0x00000000	0.0
1	0x00000000	0.0
2	0x00000000	0.0
3	0x00000000	0.0
4	0x00000000	0.0
5	0x00000000	0.0
6	0x00000000	0.0
7	0x00000000	0.0
8	0x00000000	0.0
9	0x00000000	0.0
10	0x00000000	0.0
11	0x00000000	0.0

running_var f4 [12]
0	0x3f800000	1.0
1	0x3f800000	1.0
2	0x3f800000	1.0
3	0x3f800000	1.0
4	0x3f800000	1.0
5	0x3f800000	1.0
6	0x3f800000	1.0
7	0x3f800000	1.0
8	0x3f800000	1.0
9	0x3f800000	1.0
10	0x3f800000	1.0
11	0x3f800000	1.0

weight f4 [12]
0	0x4066f75e	3.608848
1	0x3e02e368	0.12782061
2	0x40a4611e	5.136855
3	0x40668bbc	3.6022787
4	0x40526afc	3.2877798
5	0x403c6a9c	2.944007
6	0xbfe95d5c	-1.8231616
7	0xc09a71d6	-4.826396
8	0xbf959837	-1.1687077
9	0x3fb519ed	1.4148537
10	0xc03ad7ce	-2.9194217
11	0x40ab715e	5.357589

bias f4 [12]
0	0xbfff39dd	-1.9939533
1	0x40a304f2	5.0943537
2	0x3dc7546e	0.097329006
3	0xc01544ac	-2.3323164
4	0x3ed09b2e	0.40743393
5	0xc0f76337	-7.730861
6	0xc0f6462e	-7.696067
7	0xc0b70b44	-5.720125
8	0xc060771e	-3.5072703
9	0xbea7f213	-0.32801875
10	0xc08c6078	-4.386776
11	0xc118dcb3	-9.553882

running_mean f4 [12]
0	0x40845108	4.1348915
1	0x3e91d268	0.2848084
2	0x3f41dc55	0.75726825
3	0x427b73e7	62.863186
4	0x441627e9	600.6236
5	0x40038cff	2.0554807
6	0x3fe77c90	1.8084888
7	0x4179afa0	15.605377
8	0x41267805	10.404302
9	0x3fa04973	1.2522415
10	0x3fb51137	1.4145879
11	0x3ff346ac	1.9005942

running_var f4 [12]
0	0x409d31b1	4.912316
1	0x3e5b122b	0.2139365
2	0x3e79fca5	0.24412782
3	0x44c8cb04	1606.3442
4	0x4798cddc	78235.72
5	0x3f1eb238	0.6199069
6	0x3f06e8e1	0.52699095
7	0x4124d0c7	10.300971
8	0x3f381477	0.71906227
9	0x3ef216d4	0.4728304
10	0x3fc1930b	1.5122999
11	0x3e8ab35d	0.27089968

weight f4 [32, 12]
0	0xc07e5b43	-3.9743202
1	0xc07d49ec	-3.9576368
2	0x40acfd1d	5.4058976
3	0x40da7a8b	6.827459
4	0x400e4ae0	2.22332
5	0x408aa821	4.3330235
6	0x40b58631	5.672631
7	0xc08f8408	-4.484867
8	0xc0c2b59a	-6.084668
9	0x40cbfb54	6.3744297
10	0x408207cb	4.0634513
11	0xbe9fbb33	-0.3119751
12	0x40213a18	2.5191708
13	0xc099ff12	-4.8123865
14	0x40a0b825	5.0224786
15	0x40a1076a	5.032155
16	0xc09e3ef7	-4.945186
17	0x407f7ad9	3.991873
18	0x40a0d73c	5.0262737
19	0xc081be38	-4.05447
20	0xc08c3f0a	-4.382695
21	0x3fd39821	1.6530801
22	0x404ce47d	3.2014458
23	0x40a3fcd6	5.124614
24	0x40a1858f	5.0475535
25	0xc074b5b0	-3.8235893
26	0xc05de464	-3.4670649
27	0xc0a3eeda	-5.1229067
28	0xc056e689	-3.3578207
29	0xbf8fb930	-1.122839
30	0xc0909df0	-4.5192795
31	0x40a0a8fa	5.020627
32	0xc0d94bd1	-6.790505
33	0xc0acb072	-5.3965387
34	0xc0b8a4c2	-5.770112
35	0x3f836cae	1.0267541
36	0x4023b74c	2.5580626
37	0xc01e881c	-2.4770575
38	0x4108c8af	8.548995
39	0xbfda6496	-1.7061946
40	0xbf21d267	-0.63211673
41	0x40d3883f	6.6103816
42	0x40e9d7db	7.3075995
43	0x3eecfb33	0.462854
44	0x3fe1a61b	1.7628816
45	0xc004acd2	-2.073048
46	0x3fd1c4d4	1.6388192
47	0xbfa4242e	-1.2823541
48	0x4035511b	2.8330753
49	0x3fce718a	1.6128399
50	0xbf69253f	-0.9107246
51	0x407ff7ec	3.999507
52	0x409175b6	4.545619
53	0xbfdf02ad	-1.7422692
54	0x40ae2f84	5.4433002
55	0xc038730d	-2.8820221
56	0xc0f05cfc	-7.5113506
57	0xc10af9ef	-8.686019
58	0x408723fb	4.223142
59	0x40260431	2.5940058
60	0xc00d5f54	-2.2089434
61	0xbe854abb	-0.26033577
62	0xc0372120	-2.8613968
63	0x40c18d30	6.048485
64	0x40870f70	4.2206345
65	0xc0a300ad	-5.0938325
66	0xc0c41258	-6.127239
67	0xc07fae78	-3.9950237
68	0x4005206b	2.0801036
69	0x408c918b	4.3927665
70	0xc02135dc	-2.5189123
71	0xc0be3410	-5.9438553
72	0xc0b279a0	-5.577347
73	0x3e32e994	0.17471915
74	0x3f237960	0.6385708
75	0xbfe8783f	-1.8161696
76	0x40c88696	6.266429
77	0xc08c6942	-4.387849
78	0x409a9255	4.830363
79	0x3eba4239	0.3637865
80	0xc084be2d	-4.148215
81	0xc00cbbe8	-2.198969
82	0x40842929	4.1300244
83	0x3fea5be5	1.8309294
84	0x408402a7	4.125324
85	0x4090f001	4.5292974
86	0xc028ba39	-2.6363661
87	0xbf70e9ca	-0.94106734
88	0xbeec274c	-0.4612373
89	0x40a2fd3e	5.0934134
90	0x40c575b2	6.170617
91	0xc097ba02	-4.741456
92	0x409b51c9	4.8537335
93	0x3e11c2d0	0.14234471
94	0x3f906d23	1.1283306
95	0x40ed3912	7.4132166
96	0x40a1eca5	5.0601373
97	0x403ffb98	2.999731
98	0xc056e4b9	-3.3577101
99	0xc020a5be	-2.510116
100	0xc09d3687	-4.912906
101	0xbfdc4cd0	-1.7210941
102	0x408700b2	4.218835
103	0xc09d390d	-4.913214
104	0xc02efc49	-2.7341483
105	0xc099af38	-4.802639
106	0x40eaf11d	7.341933
107	0x40d905ae	6.7819433
108	0x40b57e3f	5.671661
109	0x40894672	4.2898493
110	0x40ba28d3	5.8174834
111	0x40508871	3.2583277
112	0x4081d5a2	4.057328
113	0xc05f41ef	-3.4883993
114	0xc08097dc	-4.0185375
115	0x4061a583	3.525727
116	0x40830180	4.093933
117	0x40c65488	6.1978188
118	0x404f4909	3.2388327
119	0x409a960f	4.8308177
120	0xc0061d3a	-2.0955338
121	0xc05d41c1	-3.4571383
122	0x40ae5cb8	5.448818
123	0x4096d725	4.7137628
124	0x40a00525	5.000628
125	0x3fa2e3a6	1.2725723
126	0x40b35049	5.6035504
127	0x4086c784	4.211855
128	0xc09d2d55	-4.9117837
129	0x40860bb1	4.188927
130	0x40b82d3e	5.7555227
131	0x3fc650e3	1.5493435
132	0x3f90a57d	1.1300503
133	0x3f58c620	0.84677315
134	0xc0b080d4	-5.515726
135	0x3f1034d5	0.56330615
136	0x40648a1b	3.5709293
137	0x3f18d95e	0.59706676
138	0x40a425b1	5.129601
139	0xc07ee9c4	-3.983018
140	0x40a032fd	5.006224
141	0x400bbda7	2.1834505
142	0x407f68b7	3.9907663
143	0x40c7e416	6.2465925
144	0x4039a308	2.9005756
145	0x409dafe8	4.927723
146	0xc105fe16	-8.374533
147	0x409ab4aa	4.8345537
148	0xbdfa1737	-0.12211459
149	0xbe0a2b6c	-0.13493127
150	0xbfe47484	-1.7848058
151	0xc097a888	-4.7393227
152	0xc0aff3c4	-5.4985065
153	0xc06d25c1	-3.7054293
154	0x3ea2ca54	0.3179499
155	0x408a19ba	4.3156404
156	0x3f9c2e88	1.22017
157	0xc07a5e9e	-3.912025
158	0xc08ac1bc	-4.336149
159	0xc09dc8a3	-4.930742
160	0x4076cad3	3.8561294
161	0x409b6995	4.8566384
162	0x3f0e048c	0.5547569
163	0x40c3246f	6.0981975
164	0x3ff5aa89	1.9192668
165	0x408e13c2	4.439912
166	0x3ff41baf	1.9070948
167	0x40e3bddf	7.1169276
168	0x403537c2	2.8315282
169	0x3eb9fdbf	0.36326405
170	0x405b3f69	3.4257452
171	0xbd86f91c	-0.065904826
172	0xc0c32fda	-6.0995913
173	0x3e89a098	0.26880336
174	0x4098c71e	4.7743063
175	0xc056047c	-3.3440237
176	0x402ad7d2	2.6694226
177	0x3e2bc82d	0.1677558
178	0xc09e080b	-4.938482
179	0xc094618f	-4.636909
180	0xc0a22b7a	-5.067807
181	0x4043cb10	3.059269
182	0xbf8ec3e9	-1.1153537
183	0xc0dbabd9	-6.8647275
184	0xc0823f3a	-4.070218
185	0xc06e4588	-3.7229939
186	0x3ea7f7d5	0.32806268
187	0x4057a455	3.369405
188	0xc0b37d44	-5.609041
189	0xc03e8b2a	-2.977244
190	0xc00bb820	-2.183113
191	0x403bdec4	2.9354715
192	0xc08a22c7	-4.3167453
193	0x407fccda	3.9968781
194	0xc049e206	-3.1544204
195	0x402ad9e8	2.66955
196	0x405726bd	3.3617394
197	0xc09928da	-4.786237
198	0xc0c43a95	-6.132151
199	0x40c40d84	6.12665
200	0xc09fee8e	-4.9978704
201	0x3f86c956	1.0530193
202	0x3f9e8f80	1.2387543
203	0xbf3bf2a0	-0.7341709
204	0x40bdf8b5	5.9366097
205	0xc10ca307	-8.789802
206	0xc0c0a9e3	-6.020738
207	0x405b77e5	3.4291928
208	0x3fd484be	1.660301
209	0xc07481a5	-3.8204129
210	0xbf8f6179	-1.1201621
211	0xc07a88da	-3.9146028
212	0x40b8a7f8	5.770504
213	0x3e7362ef	0.23768209
214	0x40c809cb	6.2511954
215	0x403d2f9a	2.9560304
216	0xc0dc2e46	-6.8806486
217	0x40a6e6ac	5.215658
218	0xc0f3de77	-7.6209064
219	0xc0bb619c	-5.855665
220	0x3f20b42b	0.62774915
221	0x3f32f975	0.6991189
222	0xc0a87295	-5.263987
223	0xc0a06f62	-5.0135965
224	0xbfcbcbc1	-1.5921556
225	0xc0a0ec3e	-5.028838
226	0xc0ad5398	-5.4164543
227	0xc08a88ff	-4.329223
228	0x40412ecb	3.018481
229	0xc07868a5	-3.881387
230	0xc01a1fec	-2.4081984
231	0xc0591961	-3.392174
232	0xc0a2019d	-5.062697
233	0x3ec21b68	0.37911534
234	0xc096c189	-4.711125
235	0x4106381d	8.3887
236	0x3fbe7b42	1.4881365
237	0x4012ca45	2.2935956
238	0xc0702935	-3.752515
239	0xc00f0c75	-2.2351353
240	0xc08ba4cf	-4.363868
241	0xc08d5c5a	-4.4175234
242	0x4042c7c9	3.043444
243	0xbea4ff12	-0.32225853
244	0x40578f69	3.368128
245	0x40f93c64	7.788622
246	0xc08c8ae2	-4.3919535
247	0x4073135e	3.798057
248	0xbfdfbd49	-1.747964
249	0x4006d3ea	2.1066842
250	0x3ee259d2	0.44209152
251	0xc1118e22	-9.0972
252	0xc0f298a8	-7.581135
253	0xc02b052a	-2.6721902
254	0x40527b7b	3.2887866
255	0x3fae76bf	1.3629988

weight f4 [32, 16]
0	0xc0cd6fb9	-6.419888
1	0xc08d20da	-4.41026
2	0xbfa90cd6	-1.3207042
3	0x4036f6c5	2.8588116
4	0xbf50024a	-0.8125349
5	0xc0408373	-3.008023
6	0x4117ff1b	9.499782
7	0xc0be5090	-5.9473343
8	0xc024df91	-2.5761454
9	0xc005e3aa	-2.0920205
10	0xc00080eb	-2.0078685
11	0x3f46624f	0.77493757
12	0xc01a2cb1	-2.4089777
13	0xc05151be	-3.2706141
14	0x3f0e6d05	0.556351
15	0x40c46c09	6.138188
16	0xc062a533	-3.541333
17	0xc095b2eb	-4.6780906
18	0xbfe294c6	-1.7701652
19	0x40799e55	3.9002888
20	0xbfde78ef	-1.7380656
21	0xc0892ec3	-4.286958
22	0x3fe9fe72	1.8280776
23	0xc0a17f93	-5.046823
24	0x407e66c1	3.9750216
25	0x40b65a6d	5.6985383
26	0xbff23788	-1.8923197
27	0x400c3189	2.1905234
28	0x409016fd	4.502806
29	0x40b18200	5.547119
30	0xc0d93cf4	-6.7886906
31	0x409f7415	4.98292
32	0xc027314f	-2.6123846
33	0xbf18fca0	-0.59760475
34	0xbfd3b608	-1.6539927
35	0xbebd3529	-0.3695462
36	0x40924b60	4.571701
37	0x40548cae	3.3210864
38	0x411a2a29	9.635293
39	0xc0aef8e8	-5.467884
40	0xbf8d65ef	-1.1046733
41	0x40c8005b	6.2500434
42	0xc0b5abed	-5.677237
43	0xc017d45b	-2.3723361
44	0x40585cb3	3.380658
45	0x40167ed3	2.3514907
46	0xc08df523	-4.436174
47	0xc0324625	-2.7855313
48	0x40949f4c	4.6444454
49	0x409bcbb3	4.8686156
50	0xc09da83c	-4.9267864
51	0x40840597	4.1256824
52	0xc00a3836	-2.1596808
53	0xbe9555ab	-0.29166922
54	0xc075e534	-3.8421144
55	0xbe8748e3	-0.26422796
56	0x409a6176	4.824397
57	0x4075a3af	3.8381155
58	0xc0afd437	-5.494655
59	0x4087a0f6	4.2383986
60	0xc0748472	-3.8205838
61	0xc08e73c4	-4.4516315
62	0x40a80b50	5.251381
63	0xc0b717f3	-5.7216735
64	0xbfe71d7b	-1.8055872
65	0xc0a6b5df	-5.209701
66	0x40225960	2.536705
67	0x4065e512	3.5921063
68	0xc0e3e0fb	-7.1212134
69	0xc0335ec5	-2.8026593
70	0xbf995c0d	-1.1981217
71	0xc0702cd4	-3.752736
72	0xbe36ef1d	-0.17864652
73	0xbf8ca198	-1.0986814
74	0xbf0d5478	-0.55207014
75	0xc0a7829c	-5.2346935
76	0x4031c410	2.7775917
77	0xc0fc5379	-7.8851895
78	0x4078d4ce	3.8879886
79	0x407dfdf9	3.9686263
80	0x406bb431	3.682873
81	0x402802f6	2.6251807
82	0x40a23f70	5.070244
83	0x404de44c	3.2170591
84	0xbee07da8	-0.43845868
85	0xc00377ce	-2.0541873
86	0xc065c18c	-3.5899382
87	0x4057acc0	3.3699188
88	0xbf4a32ce	-0.7898377
89	0xc09a6b78	-4.8256187
90	0xc039bda9	-2.902201
91	0xc0df5fd9	-6.98045
92	0xc1021a1d	-8.131375
93	0x40915740	4.5419006
94	0x408c8000	4.390625
95	0x3f5a21b3	0.8520767
96	0xc09420f1	-4.629021
97	0xc08abbb4	-4.335413
98	0x40afd67b	5.4949317
99	0x40d97cb4	6.7964725
100	0x409cd31e	4.900771
101	0xc0717acc	-3.77312
102	0x4060004e	3.5000186
103	0x404ad6eb	3.1693676
104	0x406d60fb	3.7090442
105	0xc0754b7b	-3.832732
106	0x402f0f1f	2.735298
107	0xc057b799	-3.370581
108	0x40d1d32b	6.5570273
109	0x3f5b84a5	0.85749274
110	0xc090e6e2	-4.528184
111	0xc0b95858	-5.792034
112	0xbf5d6692	-0.86484635
113	0x40514dc4	3.2703714
114	0xc01b834f	-2.4298894
115	0xc0f15c76	-7.5425367
116	0x3ff2522d	1.8931328
117	0xc048abac	-3.135478
118	0x3f7facf8	0.99873304
119	0xc075aa34	-3.8385134
120	0x404f82f7	3.2423685
121	0xbc624d49	-0.0138123715
122	0x40af709e	5.482497
123	0x411101d5	9.062947
124	0x40c109ea	6.03246
125	0x3dacca75	0.08437053
126	0xc095ddab	-4.683309
127	0xc08cb9ca	-4.3976793
128	0xc0202013	-2.5019577
129	0x40887ba1	4.2650914
130	0xbf888296	-1.0664852
131	0xc0adf614	-5.436289
132	0x3fd66972	1.6750929
133	0x40cc9931	6.3937
134	0x40415db5	3.0213444
135	0xc06f35e2	-3.7376637
136	0x403c80a8	2.9453526
137	0x40988218	4.7658806
138	0x40256db6	2.5848212
139	0x40cf4002	6.4765635
140	0x403e54eb	2.973933
141	0xc0a5180c	-5.1591854
142	0xc0a96195	-5.293162
143	0xc0a274c6	-5.0767546
144	0xc09754af	-4.7290874
145	0xc07bd38d	-3.934787
146	0xc0ff46e0	-7.9774017
147	0x3f85932a	1.0435536
148	0xc08d28d0	-4.411232
149	0x3ef2e155	0.4743754
150	0x403238fa	2.7847276
151	0xc0dc1c51	-6.8784566
152	0xbe6a8d43	-0.2290545
153	0xbfd36240	-1.6514359
154	0xc0be2496	-5.941966
155	0xc0a3f324	-5.1234303
156	0xbf3381a9	-0.7011972
157	0x3fb52635	1.4152285
158	0x3ef4bdd9	0.47801092
159	0x40df5c36	6.980006
160	0xc089290d	-4.286261
161	0xc06e6232	-3.7247434
162	0xc05c0e83	-3.4383857
163	0x40b384de	5.609969
164	0xc0c7de48	-6.245884
165	0x3f003673	0.5008308
166	0x40f528db	7.6612372
167	0x4090c096	4.523509
168	0xc0894d62	-4.290696
169	0x4055aaed	3.3385575
170	0xc0ace5f2	-5.4030695
171	0xbe783128	-0.24237502
172	0x40bbccdd	5.8687577
173	0xbf896913	-1.0735191
174	0xbf5c35e3	-0.86019725
175	0xc07e229e	-3.9708629
176	0xc0a1b828	-5.05373
177	0xbf5529d3	-0.83266944
178	0x401cb4c8	2.448534
179	0x40821de9	4.066151
180	0xc0af1670	-5.471489
181	0x3facf6bf	1.3512801
182	0xc052635f	-3.2873151
183	0xc01cde9c	-2.451087
184	0xc092913a	-4.580228
185	0x4074239a	3.814673
186	0xc06b9a73	-3.6813018
187	0xc0fe1ae5	-7.940783
188	0x4046cdcb	3.1063106
189	0xc069e870	-3.6548119
190	0x40633543	3.5501258
191	0xbe8d1d0e	-0.2756123
192	0x408717a3	4.2216353
193	0x40c38615	6.1101174
194	0x3de98580	0.11402416
195	0xc0b9ec52	-5.8100977
196	0xc0d41a83	-6.6282363
197	0xbf813872	-1.0095351
198	0xc089786b	-4.2959495
199	0xbf2b7470	-0.66974545
200	0x408485a8	4.1413155
201	0xbfc36d27	-1.5267686
202	0xc01f03e3	-2.4846122
203	0x402c64c5	2.6936505
204	0xc030061b	-2.7503726
205	0xbf8213ff	-1.0162352
206	0x3ca6e52c	0.02037295
207	0x41030f10	8.191177
208	0xc0975b52	-4.7298975
209	0x4086b7d8	4.209942
210	0xc0822a5b	-4.0676703
211	0xc05348b3	-3.3013122
212	0x409dda58	4.9329033
213	0xc0902e08	-4.505619
214	0x411ac520	9.673126
215	0x405f8572	3.4925199
216	0x3fd87b1e	1.6912572
217	0xbed7df06	-0.4216234
218	0x4030d962	2.763268
219	0x3f9cfb83	1.2264255
220	0xc08b552f	-4.3541484
221	0xc00c0fea	-2.1884713
222	0xc0ae9978	-5.456234
223	0xc091e52f	-4.5592265
224	0x3f9400e0	1.1562767
225	0x3fe55cf9	1.7918998
226	0x3fd9a70d	1.7004105
227	0x40b35240	5.6037903
228	0xc0955553	-4.6666656
229	0x3fb2ea2c	1.3977714
230	0x40cd1790	6.4091263
231	0xbfd0274c	-1.6261992
232	0x403338ae	2.8003345
233	0x403ad498	2.9192257
234	0xc0cc2297	-6.3792224
235	0xc0b97b10	-5.7962723
236	0xc08188a5	-4.0479302
237	0xc0b67cdd	-5.702742
238	0x4083eaf1	4.1224294
239	0x40cae713	6.3407073
240	0x3fd9f8da	1.7029068
241	0x40648db2	3.5711484
242	0x410000be	8.000181
243	0x3fe78fc9	1.8090755
244	0x409979e6	4.79613
245	0x3ff4782c	1.9099174
246	0xbd1f68bb	-0.038918238
247	0xc0446d0b	-3.0691555
248	0x400abdd8	2.1678371
249	0xc092624b	-4.5744987
250	0x4091051b	4.531873
251	0x40875bbc	4.229948
252	0x40a99d42	5.3004465
253	0xbeb40dc7	-0.3516676
254	0x40e24afc	7.0716534
255	0xc0bfc89f	-5.99324

weight f4 [32]
0	0xc0726524	-3.7874231
1	0xbe5c7eb3	-0.21532707
2	0xc045b091	-3.0889018
3	0x40e72413	7.2231536
4	0x3e173d4f	0.14769481
5	0x400d73c4	2.2101908
6	0x41291f3c	10.570126
7	0x3ed4aacc	0.41536558
8	0xc06b4b29	-3.6764624
9	0x3e14ff9b	0.14550631
10	0xc0265bce	-2.5993533
11	0x40c585ea	6.172597
12	0x40cb54c5	6.354098
13	0x3f0f7af8	0.5604701
14	0x4105e827	8.369178
15	0xbebd77d2	-0.37005478
16	0x3ee48121	0.44629768
17	0xbfca91f3	-1.582579
18	0x40161e05	2.3455822
19	0x410e65a0	8.899811
20	0x3fd757bb	1.6823648
21	0x40d46171	6.6368947
22	0x3fae27c3	1.3605884
23	0x3fc1ec5a	1.5150254
24	0x3f31f5cd	0.6951569
25	0x3f52bae5	0.8231643
26	0x4069cade	3.653007
27	0x3f4ad5fd	0.7923277
28	0x3f46d69e	0.7767123
29	0x4008b6fa	2.136168
30	0x3e216c68	0.1576401
31	0x40650fea	3.5790963

bias f4 [32]
0	0x400e4d5b	2.2234714
1	0xc002f495	-2.046178
2	0xc0450c51	-3.0788767
3	0xc023200c	-2.548831
4	0xc00105ff	-2.015991
5	0xc0dd7b24	-6.921282
6	0xc0591354	-3.3918047
7	0x4039a060	2.9004135
8	0x40862340	4.191803
9	0x4051139f	3.2668226
10	0x3fe9527e	1.82283
11	0x4018bf15	2.3866627
12	0xbffdf619	-1.9840728
13	0x3fc5dacd	1.5457398
14	0xc0a9b2ed	-5.3030915
15	0xc0b9994b	-5.7999625
16	0xc0d9b35b	-6.803144
17	0xc0c34a20	-6.1027985
18	0xc0b74e12	-5.72828
19	0x3f74c541	0.95613486
20	0x40330d23	2.7976768
21	0xbf9a81e4	-1.207089
22	0x40e3e827	7.122089
23	0x40a2e5dd	5.0905595
24	0xc086dfe5	-4.214831
25	0xc0d5434d	-6.6644654
26	0xc05e2b17	-3.47138
27	0x40b69cab	5.7066245
28	0x40fa3fc9	7.8202863
29	0x4103ce15	8.237813
30	0x40dc92d5	6.892924
31	0xc0829b1a	-4.0814333

running_mean f4 [32]
0	0xc28be888	-69.95416
1	0xc302923c	-130.57123
2	0x420a42a8	34.565094
3	0xc2ec036a	-118.00667
4	0xc1e60d03	-28.756353
5	0x4316c3fe	150.7656
6	0xc0cadf1c	-6.339735
7	0xc3012ef2	-129.18338
8	0xc2813425	-64.601845
9	0xc201ef71	-32.48383
10	0xc2ea047b	-117.00875
11	0xc2da156a	-109.041824
12	0x41d3c2d2	26.470127
13	0xc322208b	-162.12712
14	0x41ea9bc1	29.326052
15	0x42397912	46.368233
16	0x42af0a6d	87.52036
17	0xc2981760	-76.045654
18	0x4334732a	180.44986
19	0xc0627189	-3.5381796
20	0x41ea0e77	29.257063
21	0xc2964e29	-75.15266
22	0x42719403	60.394543
23	0x40778981	3.8677676
24	0x42ae2371	87.06922
25	0xc2ab2cdf	-85.58764
26	0x428fd02e	71.9066
27	0xc2b28eba	-89.27876
28	0xc2a6bdad	-83.37046
29	0xc32d861d	-173.52388
30	0x3f3079fc	0.68936133
31	0xc30da4f9	-141.64442

running_var f4 [32]
0	0x45062086	2146.0327
1	0x4501391b	2067.569
2	0x44c1cc8e	1550.3923
3	0x44f1d6aa	1934.7083
4	0x450668c0	2150.5469
5	0x449a7784	1235.7349
6	0x443a628d	745.53986
7	0x456330ad	3635.0422
8	0x45da4b06	6985.378
9	0x453192bc	2841.171
10	0x45233563	2611.3367
11	0x4558aba2	3466.727
12	0x4594ad34	4757.6504
13	0x4507b778	2171.4668
14	0x449c729e	1251.5818
15	0x448a39af	1105.8026
16	0x44c2fa5d	1559.8239
17	0x45956ea4	4781.83
18	0x4519019f	2448.1013
19	0x44f77036	1979.5066
20	0x45d676d3	6862.853
21	0x452799e2	2681.6177
22	0x455dca12	3548.6294
23	0x459c340c	4998.506
24	0x45917a4d	4655.2876
25	0x45bc17d6	6018.9795
26	0x44d40b78	1696.3584
27	0x44b7403c	1466.0073
28	0x45e04007	7176.0034
29	0x45578852	3448.52
30	0x45291cef	2705.8083
31	0x454007ff	3072.4998

weight f4 [32]
0	0xc065d8b0	-3.5913506
1	0xc001e29a	-2.0294557
2	0x401d18af	2.4546316
3	0xbfb51be7	-1.414914
4	0x40f931b6	7.787318
5	0x3f9d6c71	1.2298719
6	0xc038550d	-2.880191
7	0x3e94c5e9	0.29057243
8	0x3f878293	1.0586723
9	0xc093f446	-4.6235685
10	0x3fbd2887	1.4777993
11	0x4055c14e	3.3399234
12	0xbf5c9c51	-0.8617602
13	0x40ab2d7d	5.349303
14	0x400135be	2.0189052
15	0x403a7349	2.9132864
16	0x3ff527ad	1.9152733
17	0x3f93ec01	1.1556398
18	0xc0ad01c9	-5.406468
19	0xbf34a1aa	-0.7055918
20	0x40e4380c	7.1318417
21	0x41015922	8.084261
22	0xbfb6c0e8	-1.427762
23	0xc0ee6417	-7.449718
24	0x40f9afc3	7.8027053
25	0x40d35d7f	6.605163
26	0x3fdf632a	1.7452137
27	0x408b5e3c	4.355253
28	0xbfa899aa	-1.3171895
29	0x40311294	2.766759
30	0x3fcffdbe	1.6249311
31	0xc06a24c3	-3.6584938

bias f4 [32]
0	0xc0234428	-2.551035
1	0xbecdc165	-0.4018661
2	0x40c2a5ad	6.082724
3	0x40064a7b	2.098296
4	0xc04fb5db	-3.2454746
5	0x40916561	4.5436254
6	0xc044cf82	-3.0751653
7	0xc0925eed	-4.5740876
8	0x3f5dd01b	0.8664567
9	0x40a7c74f	5.2430797
10	0x3ffc3c66	1.9705932
11	0x3f53706a	0.82593405
12	0x40d7d65c	6.744917
13	0x40870d3b	4.220365
14	0xbfe1c0c4	-1.7636952
15	0xc0648841	-3.5708163
16	0xc04fb307	-3.245302
17	0xbf0c2089	-0.54737145
18	0x3f3d7cad	0.74018365
19	0xc0c1030b	-6.0316215
20	0x405e390d	3.472232
21	0xbeac8f25	-0.3370296
22	0xc101e912	-8.119402
23	0xc07d37b4	-3.9565248
24	0x3e75dd13	0.24010114
25	0x3f99b913	1.2009605
26	0xc0662b4f	-3.5963933
27	0x3f8a0043	1.078133
28	0xc0b304e9	-5.5943494
29	0x40da890b	6.829229
30	0x3e94b5c4	0.29044926
31	0xbff42a96	-1.9075496

running_mean f4 [32]
0	0xc23bfb70	-46.995544
1	0x41cac4d4	25.346107
2	0xc23c65e1	-47.09949
3	0xbf75ca59	-0.96011883
4	0xc22b0ad4	-42.760574
5	0x40bfcb76	5.9935865
6	0xbe898279	-0.26857355
7	0x421b3896	38.80526
8	0xbfbc9c90	-1.4735279
9	0xc21dcf34	-39.452347
10	0xc185095e	-16.629574
11	0xc2303d72	-44.060005
12	0x4211ed73	36.481884
13	0x41d67fc0	26.812378
14	0xc28a0c05	-69.023476
15	0xc25ff58a	-55.989784
16	0x425e15a7	55.521145
17	0xc11953eb	-9.582988
18	0xc2159ce3	-37.40321
19	0x428706b3	67.513084
20	0xc0958e94	-4.6736546
21	0xc18dc324	-17.720284
22	0xc1b4f761	-22.62079
23	0x41ca8652	25.315586
24	0xc08e38d3	-4.4444366
25	0xc0731fc1	-3.798813
26	0xc2978753	-75.764305
27	0x4271b629	60.42789
28	0xc2236d8a	-40.85697
29	0x4206d3f7	33.706997
30	0xc1a79c62	-20.951359
31	0xc11bc8d0	-9.7365265

running_var f4 [32]
0	0x4634e6a3	11577.659
1	0x45a2a581	5204.688
2	0x4660768f	14365.64
3	0x458f70f3	4590.1187
4	0x4587e083	4348.064
5	0x467ce2ae	16184.67
6	0x45880c78	4353.5586
7	0x4680dcfb	16494.49
8	0x465b2686	14025.631
9	0x453fa574	3066.3408
10	0x46004520	8209.281
11	0x45b34734	5736.9004
12	0x45297cc1	2711.797
13	0x466fdf7e	15351.873
14	0x464716d1	12741.704
15	0x4596ae82	4821.8135
16	0x45a168ca	5165.0986
17	0x45e6e902	7389.126
18	0x465c3e72	14095.611
19	0x4542239e	3106.226
20	0x454ccee0	3276.9297
21	0x46035d98	8407.398
22	0x462c9857	11046.085
23	0x45ec5f96	7563.948
24	0x4591a42f	4660.523
25	0x46aaa681	21843.252
26	0x46173625	9677.536
27	0x45863edd	4295.858
28	0x45496a88	3222.6582
29	0x460c9a95	8998.6455
30	0x45acce83	5529.814
31	0x45dd8530	7088.6484

weight f4 [32, 16]
0	0xc085c12d	-4.179831
1	0xc07eca45	-3.9810956
2	0xc0a35946	-5.1046476
3	0x408032da	4.0062075
4	0xc0c399b6	-6.1125135
5	0xc03f30d3	-2.987355
6	0x407f925d	3.9933083
7	0xc0b7e252	-5.746377
8	0xc089fc1c	-4.312025
9	0xc09899d6	-4.768779
10	0xc0b70409	-5.7192426
11	0xc07c30e0	-3.940483
12	0x40784f38	3.8798351
13	0xc080ae54	-4.0212803
14	0x40ae8e39	5.454861
15	0x409acba0	4.8373566
16	0xc0a7fdd7	-5.2497363
17	0x40470446	3.1096358
18	0x405a3bde	3.409904
19	0xc04bf9d2	-3.1871228
20	0xc084796d	-4.1398225
21	0x409bed76	4.872737
22	0x40d1c77f	6.5556026
23	0x404c0456	3.1877646
24	0x408cff02	4.406129
25	0x4065dc9d	3.5915902
26	0xc0af5951	-5.479653
27	0x409d9339	4.9242215
28	0xc084f2b7	-4.1546283
29	0x4097f086	4.748111
30	0x409508ff	4.657348
31	0xc0a6b317	-5.2093616
32	0x408b2645	4.3484216
33	0x4080437c	4.008238
34	0xc04e29dd	-3.2213051
35	0xc108b36f	-8.543807
36	0xc0196991	-2.3970683
37	0x40bec7b4	5.961878
38	0xc0230d8f	-2.5477026
39	0xc0b01fff	-5.503906
40	0xc005a3af	-2.0881155
41	0xc0522ce4	-3.28399
42	0x40a22db1	5.0680776
43	0xc0a83bf7	-5.25732
44	0x40574988	3.363863
45	0x401bf23c	2.4366598
46	0x4021c97d	2.5279229
47	0xbedd10b6	-0.43176812
48	0xbfe27968	-1.76933
49	0x40847735	4.1395516
50	0x3f9b663f	1.2140578
51	0xc0d4d9be	-6.65158
52	0xbfd33d36	-1.6503055
53	0x407c8a3c	3.9459372
54	0xc07dce9e	-3.965736
55	0xc09077de	-4.514632
56	0x40b91200	5.7834473
57	0x40897954	4.2960606
58	0x40a861c2	5.2619333
59	0x40583a88	3.3785725
60	0xbf62f6e6	-0.8865799
61	0xc0ef4dff	-7.478271
62	0x4053cc71	3.309353
63	0x40369a7c	2.853179
64	0xc09bfe0f	-4.874763
65	0xc02b4bae	-2.6764941
66	0xc104c369	-8.297708
67	0x403f6572	2.9905667
68	0x40bfc0f3	5.9923034
69	0x411817fc	9.505856
70	0x403713c2	2.860581
71	0x3e03bf7b	0.12866013
72	0xc0c8ab85	-6.2709374
73	0xc0848a57	-4.141887
74	0xc0a83de3	-5.2575545
75	0xc0c3b077	-6.115291
76	0x3fee0ed6	1.8598278
77	0x40014571	2.0198634
78	0x3fa07248	1.2534876
79	0xc03844ea	-2.8792062
80	0x3f111ab6	0.5668138
81	0xbefa6a74	-0.48909342
82	0x3f5ef24c	0.87088466
83	0x3faf7bb6	1.3709629
84	0xc091b513	-4.553354
85	0x40e0c279	7.0237393
86	0x4092d318	4.5882683
87	0xc0bac72f	-5.8368144
88	0xc0622b56	-3.533895
89	0xc0fe9596	-7.95576
90	0x3ed5040a	0.41604644
91	0xc0a81834	-5.2529545
92	0xbfd1b749	-1.6384059
93	0x4008e78a	2.139132
94	0x405ef48f	3.4836767
95	0xbff81874	-1.9382463
96	0xc0938b88	-4.6107826
97	0xbfc1e9d6	-1.5149486
98	0xc0c5ee2f	-6.185325
99	0x40e3175a	7.0966005
100	0x409d84c1	4.9224553
101	0x3e672d22	0.2257581
102	0xbf9cfdae	-1.2264917
103	0xbea13ad3	-0.31490192
104	0xc04ee1a9	-3.2325232
105	0x3ebfc2b2	0.37453228
106	0xc018c1d5	-2.3868306
107	0xc0a85035	-5.259791
108	0xc0beda74	-5.9641666
109	0x3fb1fc37	1.3905095
110	0x40b61204	5.689699
111	0x40cd7748	6.4208107
112	0x40913e98	4.538891
113	0x40444ebf	3.0673063
114	0x3ec7b899	0.39008024
115	0xbf73f1eb	-0.9529101
116	0xc08ce413	-4.402841
117	0x4035d802	2.841309
118	0xc0d62f14	-6.693247
119	0xc0a5f1f8	-5.185787
120	0x3f8eb8f2	1.1150191
121	0x3f930cdd	1.14883
122	0x4093f610	4.623787
123	0xbf9afd65	-1.210858
124	0x40ada635	5.426539
125	0xc0c8516c	-6.259939
126	0x406124a7	3.517862
127	0x4009a3e7	2.1506288
128	0x40702884	3.7524729
129	0xbe8bd964	-0.27314293
130	0xc11311b3	-9.191821
131	0xc0472d46	-3.1121383
132	0x3fdb9d6e	1.7157419
133	0x40c1e78f	6.0595164
134	0xc000e156	-2.0137534
135	0xc0846a3d	-4.1379685
136	0x407062cf	3.7560308
137	0xc0dd09fa	-6.907468
138	0x40c41f53	6.1288238
139	0x406b658c	3.678073
140	0xc0846a60	-4.137985
141	0xc0a4cc2b	-5.149923
142	0x3fd43d87	1.6581277
143	0x40a4e3b6	5.1527967
144	0x40917fb2	4.546838
145	0xbf446c2e	-0.7672757
146	0x40dd7001	6.9199224
147	0xc0d70fb7	-6.7206683
148	0xc0cbe085	-6.371157
149	0x402a1c97	2.657995
150	0x40805ce0	4.0113373
151	0xbfbd86f1	-1.4806806
152	0x40be73b6	5.951625
153	0xc055015e	-3.3282084
154	0x40136f06	2.3036513
155	0x4041f09e	3.030311
156	0xc0c8be1f	-6.273208
157	0x3f02381e	0.5086688
158	0xc0517c5a	-3.2732148
159	0xbf188b10	-0.5958719
160	0xc08f875f	-4.485275
161	0xc028e6da	-2.63909
162	0x404c5cc6	3.1931624
163	0x40db6de6	6.8571653
164	0x3f7e1d67	0.99263614
165	0xc0164c7a	-2.3484178
166	0x401d112e	2.4541736
167	0x4038d69a	2.8880982
168	0xc0dd211d	-6.910292
169	0xc04d5a47	-3.208635
170	0xc0dd5d68	-6.917652
171	0xc04e689b	-3.2251346
172	0xbf287fa9	-0.65819794
173	0x4109b59f	8.606841
174	0x3fdb21d7	1.7119702
175	0xbf5a8596	-0.85360086
176	0xc088b2ed	-4.2718415
177	0xc0a55535	-5.1666512
178	0x40a978cc	5.2959957
179	0x4081ce40	4.056427
180	0x408d0bee	4.4077063
181	0xc08c4382	-4.3832407
182	0xc06159ea	-3.521113
183	0x407327f0	3.7993126
184	0x401fce6f	2.4969747
185	0x40921de1	4.5661473
186	0xc08baecd	-4.365088
187	0xc0964344	-4.695711
188	0xc08a5cd4	-4.3238316
189	0x408fbe4d	4.49198
190	0x4088157b	4.252622
191	0x40386465	2.8811276
192	0x40b88b70	5.767021
193	0x404f3845	3.2378094
194	0xc089a725	-4.3016534
195	0xc02f64ea	-2.7405343
196	0xc0e47a04	-7.1398945
197	0x4010e6f8	2.2640972
198	0xc0a4235b	-5.129316
199	0x40013a23	2.0191734
200	0x3fdbd754	1.7175088
201	0x3fc1d819	1.5144073
202	0x4087da21	4.245377
203	0x4020d538	2.5130138
204	0x40bc9aae	5.893882
205	0xc0a6afd2	-5.2089624
206	0xc0c29d4e	-6.081702
207	0xc09fe76f	-4.997001
208	0xbf1fb791	-0.62389475
209	0xc08385a7	-4.110065
210	0x4015e563	2.3421257
211	0x3fa72212	1.3057272
212	0x3f496eb5	0.7868455
213	0xc0b5bd72	-5.6793756
214	0x410ce3a1	8.805573
215	0x3f536f25	0.8259147
216	0x3faefbe4	1.3670621
217	0xbe8797c9	-0.2648299
218	0x3fd4396c	1.6580024
219	0xbff2038f	-1.8907336
220	0xc04e37c1	-3.222153
221	0xbfb9a950	-1.4504795
222	0xc096d07b	-4.7129493
223	0xc0694980	-3.645111
224	0xbe53ef2d	-0.20696707
225	0x40952989	4.66132
226	0xc0670a37	-3.6099985
227	0x402f22eb	2.7365062
228	0x40ab6717	5.356334
229	0x4058e6ca	3.3890862
230	0x400b1efb	2.173766
231	0xc08f2bd2	-4.474099
232	0xbf953d34	-1.1659303
233	0xc045a40b	-3.0881374
234	0x401489f1	2.3209193
235	0x3fe73a91	1.8064748
236	0xc071d898	-3.7788448
237	0xbe9b81bd	-0.3037242
238	0x4106990a	8.412363
239	0x40d852d1	6.7601094
240	0xc0c9bbec	-6.3041897
241	0x40512e5f	3.2684553
242	0x3f23dbdd	0.6400736
243	0x40d9b883	6.8037734
244	0xc0af2694	-5.4734592
245	0xbf0e5c08	-0.5560918
246	0x40b85469	5.760304
247	0xc0b56087	-5.668033
248	0xbefc7a80	-0.4931221
249	0xc0323f47	-2.7851121
250	0xbfb40a36	-1.4065616
251	0x405dff41	3.4687045
252	0x40a0f617	5.0300403
253	0xbf8c1e21	-1.0946695
254	0x3e868315	0.26271883
255	0xc010bf96	-2.2616935

weight f4 [32]
0	0xc04338d5	-3.0503438
1	0xbfd655c3	-1.6744922
2	0xc094d539	-4.651028
3	0xc0a0add0	-5.0212173
4	0x4056d143	3.3565223
5	0x40428248	3.0392017
6	0x3fbb5688	1.4635782
7	0x40e9e88c	7.309637
8	0xc09772eb	-4.732778
9	0x3f62d4ef	0.8860616
10	0x411de606	9.868658
11	0xbffca8c1	-1.9739
12	0xbf5534f0	-0.832839
13	0x41079858	8.474693
14	0x40e5c36e	7.180106
15	0x3fb01bb7	1.3758458
16	0xc091b4a9	-4.5533032
17	0x3fa7e32f	1.3116206
18	0x4081c773	4.055597
19	0xbfce30c3	-1.6108631
20	0x40d0128b	6.5022635
21	0xc04850bc	-3.1299276
22	0xbd9868b1	-0.07441843
23	0xc0b0a565	-5.52019
24	0xc0052b05	-2.0807507
25	0xc098ff5c	-4.781172
26	0x409c1793	4.8778777
27	0x404669d8	3.1002102
28	0x4037d039	2.872084
29	0x40839c9e	4.1128683
30	0x403e26df	2.9711225
31	0xc04ac7c6	-3.1684432

bias f4 [32]
0	0x407ef02b	3.9834087
1	0xc01b570c	-2.427188
2	0xbff4592b	-1.9089712
3	0xc09438dd	-4.6319413
4	0xbf6cc31d	-0.9248522
5	0x3fd3be49	1.6542445
6	0x40ab6acd	5.356787
7	0x3fa3edc1	1.2806932
8	0xbe395e85	-0.18102463
9	0xc0aa73b0	-5.326622
10	0xc00492d4	-2.0714617
11	0x405607c9	3.3442252
12	0xc005206a	-2.0801034
13	0xc0493d7a	-3.1443772
14	0x40c03724	6.006731
15	0xbfc3c9c6	-1.5295951
16	0xc034818a	-2.8204064
17	0xc0d79a4f	-6.7375865
18	0x40958424	4.6723804
19	0x40820a19	4.0637326
20	0xc05ccad2	-3.4498792
21	0x40d4518c	6.6349545
22	0xc0a53362	-5.1625223
23	0x405d977e	3.4623713
24	0xc06a9274	-3.6651888
25	0xbe2508c3	-0.16116624
26	0x40bd3826	5.913104
27	0xc0d065f7	-6.512447
28	0xc00175a7	-2.022806
29	0x40787401	3.8820803
30	0x40ce09f9	6.4387174
31	0x40661cfc	3.595519

running_mean f4 [32]
0	0xc2badd89	-93.432686
1	0x41f12363	30.142279
2	0xc1b73a9c	-22.903618
3	0xc153b8b6	-13.232595
4	0xc2814e4a	-64.65291
5	0xc22b5449	-42.83231
6	0xc264adbe	-57.16967
7	0xc1f03e72	-30.03049
8	0xc27f5933	-63.83711
9	0x4242ca6d	48.69768
10	0x4132b572	11.169298
11	0x41bdf138	23.742783
12	0x41dbafe0	27.460876
13	0x4108c49c	8.548
14	0xc29dbb34	-78.86563
15	0xc1df4c31	-27.912203
16	0xc153d366	-13.239111
17	0xc1f87dd8	-31.061447
18	0x4227a0d8	41.907074
19	0xc101a867	-8.103614
20	0xc220bf05	-40.186543
21	0xc0ebbe5e	-7.366988
22	0x40ad8e12	5.4235926
23	0x41b8a20f	23.07913
24	0x4209b519	34.426853
25	0x40399dae	2.900249
26	0xc163f6a6	-14.247717
27	0xc121f2af	-10.121749
28	0x4110c8e2	9.049044
29	0x420071dd	32.111195
30	0xc291db6a	-72.92854
31	0xc29a4bf9	-77.148384

running_var f4 [32]
0	0x452201c7	2592.111
1	0x45a2e509	5212.6294
2	0x44f20652	1936.1975
3	0x45a63c1d	5319.514
4	0x4564dc34	3661.7627
5	0x45ab09ec	5473.24
6	0x463be6d7	12025.71
7	0x45bfd291	6138.321
8	0x45e15f16	7211.8857
9	0x45ce2367	6596.4253
10	0x45a6aed3	5333.853
11	0x453995ba	2969.358
12	0x461b92d5	9956.708
13	0x45f3bb90	7799.4453
14	0x4616b48f	9645.14
15	0x4585950c	4274.631
16	0x45e59614	7346.76
17	0x450ed49d	2285.2883
18	0x454fd972	3325.5903
19	0x44dba85c	1757.2612
20	0x461c0f4c	9987.824
21	0x450413c5	2113.2356
22	0x45074bae	2164.73
23	0x45d8ce8e	6937.8193
24	0x453dc95c	3036.585
25	0x45a6b24f	5334.2886
26	0x459e0c05	5057.5024
27	0x452074a1	2567.2893
28	0x44a022fa	1281.093
29	0x45c6d8f6	6363.12
30	0x45843db2	4231.712
31	0x457e7bdc	4071.7412

weight f4 [32, 16]
0	0x3d3e6d51	0.04649097
1	0x3e4a7732	0.19772032
2	0xbf4370d6	-0.7634405
3	0x3e5a2bbb	0.21305744
4	0x3f36d901	0.7142487
5	0xbdac5a52	-0.08415665
6	0xbd97d281	-0.07413197
7	0x3f25ed5d	0.6481531
8	0xbebd4999	-0.36970213
9	0x3eafafad	0.34313717
10	0xbf5d0a5b	-0.86343926
11	0x3fb911ea	1.4458592
12	0xbef28075	-0.4736363
13	0x3db9e668	0.0907715
14	0x3d69182d	0.05690782
15	0x3e86eca1	0.2635241
16	0xbd06776e	-0.03282874
17	0xbf049fcd	-0.51806337
18	0xbe8f4a90	-0.27986574
19	0x3c11e6db	0.008905138
20	0xbdf6efaa	-0.12057431
21	0xbeffe202	-0.49977118
22	0xbf1c2525	-0.6099418
23	0xbf551c06	-0.83245885
24	0x3e6a988e	0.22909757
25	0xbf34104c	-0.7033737
26	0xbf63b590	-0.8894892
27	0xbf9b337e	-1.2125089
28	0x3e65ab9e	0.22428748
29	0xbf4c2955	-0.7975057
30	0x3edcec93	0.43149242
31	0xbf709ff9	-0.939941
32	0xbeecb2de	-0.46230215
33	0xbe385bfe	-0.18003842
34	0x3de245ec	0.11048493
35	0x3ec55251	0.38539365
36	0xbe6ebe56	-0.23314795
37	0x3ecd07a1	0.40044883
38	0xbf26cdcf	-0.6515779
39	0xbef87417	-0.4852607
40	0xbc47f135	-0.012203504
41	0x3e8d1938	0.27558303
42	0xbe93b164	-0.28846276
43	0x3e7438e9	0.23849835
44	0x3f08df84	0.5346606
45	0x3f55422b	0.8330409
46	0xbe88369b	-0.2660416
47	0xbdac04fd	-0.08399389
48	0xbe987373	-0.2977558
49	0xbf9aa7b3	-1.2082428
50	0x3e75e7f8	0.2401427
51	0xbf3ef254	-0.74588513
52	0x3e1c7d9b	0.1528229
53	0x3faa1682	1.3288119
54	0x3e26dddf	0.16295575
55	0xbf3183cc	-0.6934173
56	0x3f3d9af9	0.74064595
57	0xc001602c	-2.0214949
58	0xbf0f1137	-0.5588564
59	0x3d4d243c	0.050083384
60	0xbf7bf58a	-0.9842154
61	0xbf5a41aa	-0.85256445
62	0x3fb8d700	1.4440613
63	0x3f13dde7	0.5776047
64	0xbe4fb2b5	-0.20283015
65	0x3f79accd	0.975293
66	0x3f98412a	1.1894886
67	0x3f37c214	0.71780515
68	0xbf6c5f23	-0.9233267
69	0x3e072470	0.13197494
70	0xbf401842	-0.75037014
71	0x3fb438ea	1.4079869
72	0xbdccab50	-0.09993613
73	0x3d563cc1	0.052304033
74	0x3f399210	0.724885
75	0x3caaa4b6	0.020830493
76	0xbdf63b11	-0.12022985
77	0xbf83d3f9	-1.0299064
78	0x3ea906fd	0.33013144
79	0xbeec743c	-0.4618243
80	0x3e955c51	0.29171994
81	0x3eb3ce42	0.351183
82	0x3fda2bd0	1.704462
83	0xbf22549c	-0.63410354
84	0xbe9a1127	-0.3009121
85	0x3ceec949	0.029148715
86	0xbec4d9ff	-0.38447568
87	0x3f3347a9	0.7003122
88	0xbf2a50a1	-0.6652928
89	0x3f64c3a8	0.8936105
90	0x3ea856e2	0.32878786
91	0xbf7f8c15	-0.99823123
92	0x3f417a69	0.7557741
93	0x3fffd880	1.9987946
94	0xbe8dfd43	-0.27732286
95	0x3f5156c4	0.8177302
96	0xbf7f0435	-0.99615794
97	0x3f2c4024	0.6728537
98	0xbf2099e5	-0.62734824
99	0x3c054c09	0.008135804
100	0x3f19f9fa	0.6014706
101	0x3f292940	0.6607857
102	0x3e8ca4ea	0.2746957
103	0x3ff7cbe4	1.9359097
104	0x3fb4e77c	1.4133143
105	0xbec937d1	-0.39300397
106	0x3e170c2a	0.14750734
107	0xbfca6ba0	-1.5814095
108	0xbf4f9dbe	-0.8110007
109	0x3f2f1b8e	0.6840142
110	0x3ef3e461	0.47635177
111	0x3d8ae286	0.06781487
112	0x3f14fdc6	0.5819973
113	0x3fbb8572	1.4650099
114	0x3e8d7b30	0.27633047
115	0x3f0a26fd	0.5396574
116	0xbe952712	-0.2913137
117	0xbf7b1d9a	-0.98092043
118	0xbec67a95	-0.38765398
119	0xbe7d5c0f	-0.24742149
120	0x3fa383e7	1.2774628
121	0xbf375718	-0.7161727
122	0x3f0d72a8	0.55253077
123	0x3d6ae858	0.057350487
124	0x3f63bffa	0.8896481
125	0xbf35bbd2	-0.70989716
126	0xbf68b677	-0.9090342
127	0xbf2a511e	-0.66530025
128	0x409257b9	4.5732083
129	0xc083f2e0	-4.123398
130	0xc038756f	-2.8821676
131	0xc056d1fc	-3.3565664
132	0x40935fcb	4.6054435
133	0x4086e4f5	4.215449
134	0xbf9ef186	-1.2417457
135	0xc0cae091	-6.339913
136	0x4088de11	4.2771077
137	0x4092f286	4.592105
138	0x40cab1d7	6.334209
139	0x404963db	3.1467197
140	0xc08ffcd9	-4.499615
141	0xc0659dca	-3.5877557
142	0x40ac73c2	5.3891306
143	0x4095a08d	4.6758485
144	0xc0741618	-3.8138485
145	0xc06d52f5	-3.7081883
146	0x4046f6b3	3.1088073
147	0x3f89ed15	1.0775477
148	0x4079534b	3.8957088
149	0xc09afd7a	-4.843442
150	0xc0bffa93	-5.9993377
151	0x410ca54c	8.790356
152	0xc090b2af	-4.521812
153	0x409e55b1	4.9479604
154	0xc081053d	-4.0318894
155	0x40a6241a	5.191907
156	0xc01e227a	-2.4708543
157	0x400be988	2.1861286
158	0xc09c3ebb	-4.8826575
159	0xc0823818	-4.0693474
160	0xc0861d16	-4.1910505
161	0xc09c3590	-4.8815384
162	0xc05a3322	-3.409371
163	0x4064a5fb	3.5726306
164	0x407ad120	3.919014
165	0xc0b4f3a3	-5.654741
166	0xc0782536	-3.8772712
167	0xc0c38141	-6.109528
168	0xc076438e	-3.8478732
169	0x405c9e6e	3.4471698
170	0x403a873a	2.9145036
171	0xbe906b28	-0.28206754
172	0x403dfbb6	2.9684882
173	0x40c75d3f	6.2301326
174	0x3eaa3067	0.33240053
175	0xc0b8c893	-5.774484
176	0xc0895d2e	-4.2926245
177	0x409dbae0	4.929062
178	0x3fa23850	1.2673435
179	0xc0895634	-4.291773
180	0x40149097	2.321325
181	0xc03bdd52	-2.9353833
182	0xc0cbfd89	-6.374699
183	0x40ac722b	5.3889365
184	0x40a93733	5.287988
185	0x3f34be9a	0.70603335
186	0xc0eba019	-7.363293
187	0xbfcb3859	-1.5876571
188	0x402edd32	2.7322507
189	0xc03252c9	-2.7863028
190	0xc0bbd1fb	-5.8693824
191	0x3f40edcf	0.7536287
192	0x404a2efa	3.1591172
193	0x3ee1f1f1	0.441299
194	0x40a3296d	5.098807
195	0x40d28a19	6.5793576
196	0xc0c72882	-6.223695
197	0xc0b957c7	-5.791965
198	0xc0190f66	-2.3915648
199	0xc0889d6d	-4.269217
200	0x404c43f6	3.191648
201	0x3e4f71fe	0.20258328
202	0x3fa4c0f1	1.2871381
203	0x405fb5cc	3.495471
204	0x403c3bf9	2.9411604
205	0xbf4f2f1e	-0.8093127
206	0xc0c719b9	-6.22189
207	0xc0c76603	-6.2312026
208	0xc0226a37	-2.5377328
209	0xc027d984	-2.622651
210	0x40c32915	6.098765
211	0x408f3822	4.475602
212	0x407300ab	3.7969158
213	0xc0bc8a9a	-5.891919
214	0x407c1659	3.938864
215	0xc073e9dc	-3.8111486
216	0xc07be396	-3.9357657
217	0x3fbf863a	1.4962838
218	0x40b9c27c	5.804991
219	0xbfc6ef99	-1.5541869
220	0xbe776d7b	-0.24162857
221	0x3fb116f5	1.3835131
222	0xbfd469c1	-1.6594774
223	0x3ea9ccd4	0.33164084
224	0x406b2753	3.6742752
225	0x4082f220	4.0920563
226	0x40a1571b	5.041883
227	0x40b8bd24	5.7730885
228	0xc0a323a5	-5.098101
229	0xc0a3d14d	-5.1192994
230	0xc0b67507	-5.7017856
231	0xc0996d8b	-4.794622
232	0xc094ac32	-4.64602
233	0xbf826a04	-1.0188603
234	0x40862178	4.1915855
235	0xbeae6127	-0.34058496
236	0xc0d7326c	-6.724905
237	0x40a4d8a5	5.151446
238	0x3f922c72	1.1419814
239	0xbf8d2560	-1.1027031
240	0x409ca9c6	4.8957243
241	0x4094e2ef	4.652702
242	0x4096ff60	4.7186737
243	0x406d8bab	3.7116497
244	0x40a52abd	5.161467
245	0xc02066d3	-2.506276
246	0xc09d43c3	-4.9145217
247	0xc08f9d86	-4.487979
248	0xc098d103	-4.775514
249	0xc08de87a	-4.4346285
250	0x407236f4	3.784604
251	0xc0a6a44b	-5.2075553
252	0x4091578f	4.5419383
253	0xc0a7c65b	-5.2429633
254	0x4097ae22	4.7400064
255	0x4094e3a7	4.6527896

weight f4 [32]
0	0x3f800000	1.0
1	0x3f800000	1.0
2	0x3f800000	1.0
3	0x3f800000	1.0
4	0x3f800000	1.0
5	0x3f800000	1.0
6	0x3f800000	1.0
7	0x3f800000	1.0
8	0x40049197	2.071386
9	0xc04ae7dc	-3.1704016
10	0xc00b67de	-2.1782146
11	0x3f94e962	1.1633723
12	0xbf7d0edd	-0.98850805
13	0x40f79362	7.736741
14	0xc0958136	-4.672023
15	0xbf071e4b	-0.527806
16	0x3f800000	1.0
17	0x3f800000	1.0
18	0x3f800000	1.0
19	0x3f800000	1.0
20	0x3f800000	1.0
21	0x3f800000	1.0
22	0x3f800000	1.0
23	0x3f800000	1.0
24	0x407758b1	3.8647883
25	0x3e6f67ed	0.23379488
26	0xc06f6462	-3.7405019
27	0xbffdac3f	-1.981819
28	0x406e886c	3.7270765
29	0xbebfd166	-0.37464446
30	0x3f66e2fb	0.90190095
31	0xbeb01b99	-0.34396055

bias f4 [32]
0	0x00000000	0.0
1	0x00000000	0.0
2	0x00000000	0.0
3	0x00000000	0.0
4	0x00000000	0.0
5	0x00000000	0.0
6	0x00000000	0.0
7	0x00000000	0.0
8	0xbfaceb70	-1.350935
9	0x3f9026af	1.1261805
10	0x4046c639	3.1058486
11	0x3eece387	0.4626734
12	0xc020e84e	-2.5141788
13	0xc018094f	-2.3755682
14	0x3efb188c	0.49042165
15	0x4004c81b	2.0747135
16	0x00000000	0.0
17	0x00000000	0.0
18	0x00000000	0.0
19	0x00000000	0.0
20	0x00000000	0.0
21	0x00000000	0.0
22	0x00000000	0.0
23	0x00000000	0.0
24	0xc0354274	-2.832181
25	0xc0926dec	-4.575918
26	0xc0939ac1	-4.612641
27	0x40b29686	5.5808744
28	0xbe409264	-0.18805844
29	0x4108b7c1	8.544862
30	0xc0e4972d	-7.143454
31	0xc0b6a18d	-5.7072206

running_mean f4 [32]
0	0x40583fd6	3.3788962
1	0xbf88f321	-1.0699197
2	0x3edda3fb	0.4328917
3	0x406d982b	3.7124126
4	0x3f77129d	0.96512777
5	0x40b74a83	5.7278457
6	0x40303601	2.7532961
7	0xc0b49bd8	-5.644024
8	0xc1027da1	-8.155671
9	0x4229cf21	42.452274
10	0xc1b1d21f	-22.227598
11	0x41e19cb3	28.201513
12	0xc1c5483b	-24.660269
13	0xc239aab4	-46.416702
14	0xc0e4bbe0	-7.147934
15	0xc23639ba	-45.556374
16	0xbfd7fe6b	-1.6874517
17	0x3f872841	1.055916
18	0xbf9dc5eb	-1.2326025
19	0xc01ea17d	-2.4786065
20	0x3f8a2065	1.0791136
21	0xbfb951fc	-1.4478145
22	0x3f72ea9d	0.9488924
23	0x3f24c378	0.6436076
24	0x42489dc0	50.154053
25	0x41440c3f	12.25299
26	0x4230ed0b	44.231487
27	0x421e9220	39.6427
28	0xc186a687	-16.831312
29	0xc1b6bab6	-22.841167
30	0x425e257f	55.536617
31	0x4020275e	2.5024028

running_var f4 [32]
0	0x42dc1f20	110.06079
1	0x43151ecb	149.12029
2	0x4281f002	64.968765
3	0x43f0f3a2	481.90338
4	0x4292bfca	73.37459
5	0x43a4bb91	329.46536
6	0x43377b96	183.48276
7	0x42bed1dc	95.40988
8	0x45cc178d	6530.944
9	0x45eec7d2	7640.9775
10	0x45835b3f	4203.406
11	0x4697ce7a	19431.238
12	0x46525e8b	13463.636
13	0x464eed7f	13243.374
14	0x463224e2	11401.221
15	0x46039e3a	8423.557
16	0x433541b5	181.25667
17	0x437c2bce	252.17111
18	0x426d3d83	59.31007
19	0x42ea1d56	117.0573
20	0x42d31e1a	105.55879
21	0x41ee232d	29.767176
22	0x422be1ca	42.970497
23	0x42c2f8cb	97.48592
24	0x466cace3	15147.222
25	0x45a6bb38	5335.4023
26	0x4623d57d	10485.372
27	0x459ca7f6	5012.995
28	0x462a2b2c	10890.793
29	0x456d9075	3801.0286
30	0x460317ba	8389.932
31	0x45e77947	7407.1597

weight f4 [32]
0	0xc052b34e	-3.292194
1	0xc018f19d	-2.389747
2	0xc05081cc	-3.2579222
3	0xbefc84f7	-0.49320194
4	0x405ac07e	3.4179988
5	0x40b91730	5.7840805
6	0x3f7cb9ce	0.98721015
7	0x40a333ef	5.1000896
8	0xc0b12390	-5.535591
9	0xbe837b6e	-0.25680107
10	0xbf548042	-0.83008206
11	0x4032c155	2.79305
12	0xbfbba315	-1.4659144
13	0xc03275db	-2.7884433
14	0xc082cdef	-4.0876384
15	0x410bf39c	8.746975
16	0x3ec82fea	0.39099056
17	0x401078ae	2.2573657
18	0x41068804	8.408207
19	0x4084b366	4.146899
20	0xc06b72b3	-3.6788757
21	0x408d0fe2	4.408189
22	0x409a20f0	4.8165207
23	0x403aab26	2.916696
24	0x40f8dab9	7.7766995
25	0x406c3317	3.6906183
26	0xc0957919	-4.6710324
27	0x40c84f26	6.2596617
28	0x3fbbb597	1.4664792
29	0xbebd33ea	-0.3695367
30	0xc0b3ab98	-5.6146965
31	0x4091eeed	4.5604157

bias f4 [32]
0	0xbee1aca5	-0.4407703
1	0xc08037d6	-4.006816
2	0xc0ee05fa	-7.4382296
3	0x4030cd54	2.7625322
4	0x3e80aed3	0.2513338
5	0xc0706e40	-3.7567291
6	0xc0e8cd19	-7.2750363
7	0xc0f04b04	-7.509157
8	0xc10b3e78	-8.702751
9	0x3fc4b732	1.5368407
10	0xc099c861	-4.8057103
11	0xc04eb852	-3.23
12	0x3f0d5471	0.5520697
13	0xc02b80d3	-2.6797378
14	0x4033911a	2.8057313
15	0xc0e4db95	-7.1518044
16	0xc0cc5a85	-6.3860497
17	0xc0ba0936	-5.8136244
18	0x407bfa8f	3.937168
19	0xbf89a122	-1.0752299
20	0x3f5dd1db	0.8664834
21	0xc008f58d	-2.1399872
22	0xc03165ad	-2.7718308
23	0x40852bb5	4.1615853
24	0x3f8277c9	1.0192806
25	0xc0c009bd	-6.0011888
26	0xbfb7e00e	-1.4365251
27	0xc033d492	-2.8098493
28	0x40379456	2.8684287
29	0xc0804c1c	-4.0092907
30	0xbede7e3f	-0.43455693
31	0x409dd3c7	4.9321017

running_mean f4 [32]
0	0xc1809a67	-16.075392
1	0xc16330fc	-14.199459
2	0x40e50b5e	7.1576376
3	0xc19c58bd	-19.54333
4	0x3fcd32b0	1.6031094
5	0x419bc850	19.472809
6	0x41508555	13.032552
7	0xc1b92083	-23.140875
8	0xc0859a58	-4.175091
9	0x4174ad8a	15.292368
10	0xc0c16220	-6.043228
11	0xc1380889	-11.502084
12	0xc0ecef33	-7.404199
13	0xc1c55062	-24.66425
14	0x40ec8f50	7.392494
15	0x417894e1	15.536347
16	0x41648904	14.283451
17	0x402fbc98	2.7458858
18	0xc079ba79	-3.9020064
19	0x3de74b77	0.11293691
20	0xc1de073c	-27.753532
21	0xc1b33146	-22.39906
22	0xc1351aa8	-11.319008
23	0x40776b36	3.8659186
24	0x414f5938	12.959282
25	0x414853ac	12.520428
26	0xc1ed2c7a	-29.646717
27	0x415a4b95	13.643453
28	0xc1abd045	-21.476694
29	0xc15760f9	-13.461175
30	0x41c2320f	24.274443
31	0xc04b2eac	-3.1747236

running_var f4 [32]
0	0x442551b8	661.27686
1	0x440b3055	556.7552
2	0x438e7634	284.92346
3	0x44c34564	1562.1685
4	0x43644b0b	228.29314
5	0x441041e8	577.0298
6	0x44156300	597.5469
7	0x43c36ac2	390.83405
8	0x43fff58d	511.91837
9	0x43e83b0e	464.46136
10	0x43d2b702	421.42975
11	0x432ac9cd	170.78828
12	0x43bd3dc7	378.48264
13	0x43a61e5f	332.23727
14	0x4335df3c	181.87201
15	0x4381ee33	259.86093
16	0x4420e718	643.61084
17	0x4473a334	974.55005
18	0x440be5ff	559.5937
19	0x430cb93f	140.72362
20	0x44a74af2	1338.342
21	0x4422eb08	651.67236
22	0x445958e0	869.3887
23	0x4353a5c8	211.64758
24	0x445dba2d	886.909
25	0x44689298	930.2905
26	0x449ca910	1253.2832
27	0x43141a6f	148.10326
28	0x44e274ce	1811.6501
29	0x447b4344	1005.051
30	0x43b08c79	353.09744
31	0x435dbef3	221.7459

weight f4 [32]
0	0x3e985b92	0.29757363
1	0x4088399b	4.257032
2	0x406a035a	3.6564546
3	0xbf2da815	-0.678346
4	0xc00066fe	-2.0062861
5	0xc003b8d5	-2.0581563
6	0xc04d8724	-3.2113733
7	0xc0880188	-4.250187
8	0xc04f376f	-3.2377584
9	0x40b8c329	5.7738233
10	0x405201f6	3.2813697
11	0xbf225b47	-0.6342053
12	0x3fdbc6c7	1.7170037
13	0xbfe5ab53	-1.7942909
14	0xbfcb3bae	-1.5877588
15	0xc0bf2db9	-5.9743314
16	0xb8dc4a57	-0.00010504264
17	0x40f538f8	7.663204
18	0xbf416254	-0.7554066
19	0xbf49482b	-0.78625745
20	0xc01d2cd3	-2.4558609
21	0xbdc39e6f	-0.09551703
22	0x408a56b3	4.3230834
23	0xc0cbef80	-6.372986
24	0x40621389	3.5324423
25	0x40d432e3	6.6312118
26	0x41127016	9.152365
27	0xc080db67	-4.0267825
28	0x3ff1172c	1.8835196
29	0xbf6d04e9	-0.9258562
30	0x3e5d864d	0.21633263
31	0x4080f349	4.029698

bias f4 [32]
0	0xbf84a2fd	-1.036224
1	0xc0bddba3	-5.933061
2	0xc0d02ae9	-6.505238
3	0x401c5968	2.442957
4	0xbf96d7bd	-1.1784588
5	0x3e2991a8	0.1655947
6	0xbf5461cd	-0.8296173
7	0xc1064ed7	-8.394248
8	0xc00ec47d	-2.2307427
9	0xc0e6bd8e	-7.210639
10	0xc0d8a2b2	-6.7698603
11	0xc045349d	-3.0813363
12	0x3ef4bde3	0.47801122
13	0x402b01fc	2.671996
14	0xc015cedb	-2.3407505
15	0x4030579f	2.755348
16	0x3cdda324	0.02705533
17	0x3fb4b983	1.4119114
18	0x40db8312	6.85975
19	0xc0b7389d	-5.725661
20	0xc0cf5a93	-6.4798064
21	0xc0f11fbb	-7.5351233
22	0xbfe9f4e2	-1.8277857
23	0xbef90386	-0.486355
24	0xc084395b	-4.1320014
25	0x3f63b130	0.8894224
26	0x3fa03366	1.2515686
27	0xbf86daa1	-1.053547
28	0xc0d3edc9	-6.6227765
29	0xc10c5fc5	-8.773381
30	0xc0b472f7	-5.639034
31	0x407c9a16	3.9469047

running_mean f4 [32]
0	0x417c5b4f	15.772292
1	0xbf8e9bde	-1.1141317
2	0x424a0838	50.508026
3	0x4259e416	54.47274
4	0x40146d01	2.319153
5	0xc1de8b38	-27.817978
6	0xc20a54a6	-34.582664
7	0x41faa715	31.331583
8	0x3f4a0317	0.78910965
9	0x426d4ad2	59.323067
10	0x41efb52e	29.963467
11	0x42445ace	49.088676
12	0xc28733d8	-67.60126
13	0xbf27807a	-0.65430415
14	0xc26f64ec	-59.848557
15	0xc1551d7d	-13.319699
16	0x41b8f914	23.12162
17	0x413c7d57	11.780601
18	0xc240646c	-48.09807
19	0x42103d0b	36.059612
20	0x41648c03	14.284183
21	0x411f0d2c	9.940716
22	0xc2901193	-72.034325
23	0xc1342188	-11.258186
24	0x4173505a	15.207117
25	0xc0691c40	-3.6423492
26	0x41db61c6	27.42274
27	0xc1d1f289	-26.243425
28	0x40a6c3f7	5.2114215
29	0x42584ca2	54.074837
30	0x4251e059	52.46909
31	0x4254854e	53.13018

running_var f4 [32]
0	0x46372ab9	11722.681
1	0x451ee96d	2542.589
2	0x459a3c45	4935.5337
3	0x45a607e9	5312.989
4	0x442fc6e5	703.1077
5	0x43ab018a	342.01202
6	0x462b2e94	10955.645
7	0x454fe937	3326.576
8	0x4396e812	301.81305
9	0x4675db15	15734.7705
10	0x44656a6d	917.6629
11	0x44662327	920.54926
12	0x45195c86	2453.7827
13	0x451ef5ce	2543.3628
14	0x45907be5	4623.487
15	0x45e096e1	7186.86
16	0x46449b50	12582.828
17	0x4679cf89	15987.884
18	0x44cfccc2	1662.3987
19	0x45cc82fd	6544.3735
20	0x45057a14	2135.63
21	0x451d5fe7	2517.994
22	0x457959c1	3989.6096
23	0x4660534a	14356.822
24	0x459fd716	5114.8857
25	0x45dff559	7166.6685
26	0x460cb5d9	9005.462
27	0x4693089c	18820.305
28	0x45961d4a	4803.661
29	0x45a28630	5200.7734
30	0x45867fb3	4303.9624
31	0x457ffdf5	4095.8723
