Experiments/2022_07_26 13-51-41 wine_100runs_learning-rate_3mv-features_custom-loss /models/Model_run32_optimizer_params0.2_flavanoids.pt (torch, 252429 bytes, 318 tensors)

weight f4 [12]
00000000: 0000 803f 0000 803f 0000 803f 0000 803f
00000010: 0000 803f 0000 803f 0000 803f 0000 803f
00000020: 0000 803f 0000 803f 0000 803f 0000 803f
1.0 1.0 1.0 1.0 1.0 1.0 1.0 1.0
1.0 1.0 1.0 1.0

bias f4 [12]
00000000: 0000 0000 0000 0000 0000 0000 0000 0000
00000010: 0000 0000 0000 0000 0000 0000 0000 0000
00000020: 0000 0000 0000 0000 0000 0000 0000 0000
0.0 0.0 0.0 0.0 0.0 0.0 0.0 0.0
0.0 0.0 0.0 0.0

running_mean f4 [12]
00000000: 0000 0000 0000 0000 0000 0000 0000 0000
00000010: 0000 0000 0000 0000 0000 0000 0000 0000
00000020: 0000 0000 0000 0000 0000 0000 0000 0000
0.0 0.0 0.0 0.0 0.0 0.0 0.0 0.0
0.0 0.0 0.0 0.0

running_var f4 [12]
00000000: 0000 803f 0000 803f 0000 803f 0000 803f
00000010: 0000 803f 0000 803f 0000 803f 0000 803f
00000020: 0000 803f 0000 803f 0000 803f 0000 803f
1.0 1.0 1.0 1.0 1.0 1.0 1.0 1.0
1.0 1.0 1.0 1.0

weight f4 [12]
00000000: 05ce d93f 4c6f 683f 2f0e c83f f6f7 613f
00000010: a8d5 e83f af5b 923e 1c9a 9c3f 1a31 b13e
00000020: 4cf7 633f 6e9c 60bd deb9 d23f 51ce a33f
1.7015997 0.90794826 1.5629328 0.88268983 1.8190203 0.28585574 1.223453 0.34607774
0.8904922 -0.054836683 1.6462972 1.2797338

bias f4 [12]
00000000: ce7d 83be e696 a2bd 2293 853f d1e2 18bd
00000010: fec3 e43d 04fc a43e 6a68 38bd 5932 823f
00000020: 813c 68bf 1353 ebbf b5d9 b3bc e78d 163f
-0.2568192 -0.07938938 1.0435526 -0.037325684 0.11170195 0.32223523 -0.045021452 1.0171615
-0.9071732 -1.8384727 -0.021954397 0.58810276

running_mean f4 [12]
00000000: ba55 ff40 9a6a 143e 47a8 ee41 b0f7 363f
00000010: 725e 6d3f 15e2 283f 4f4e 863f f3c5 0440
00000020: a7e3 a940 df75 c63e ddec 9743 a65f 763f
7.9792147 0.1449379 29.832167 0.7147169 0.9272224 0.65969974 1.0492648 2.0745819
5.3090396 0.38761804 303.8505 0.962397

running_var f4 [12]
00000000: c54e ad40 2b59 193f 0549 5444 3728 d73f
00000010: 6441 3f3f a515 3c3f 6dcc 4b3f 50ad 3c40
00000020: 5e45 573f f1c9 1d3f 12ec 2c47 e04b 1f3f
5.4158654 0.59901685 849.1409 1.6809148 0.74709153 0.73470527 0.79608804 2.9480782
0.8409022 0.61636263 44268.07 0.6222515

weight f4 [32, 12]
00000000: cd17 1f3f 9428 21bd 1f52 133f 6ffa 07bf
00000010: 8a46 523c 8f8b bf3f 30d4 9e3e 1d8f 6fbf
00000020: 568f 66bf 1bb3 2140 1844 d1bf 4c34 86bf
00000030: bb71 71bf 5035 f23e a6ba 1a3f 50c5 6c3f
00000040: 1ed6 57be 6e78 693f 4204 07be e170 353f
00000050: febd b53f 0b14 5e3a 831b 59c0 ff32 b5be
00000060: 3de7 aa3e 8a16 de3f 3af3 b8bf 4c36 97be
00000070: 9a6a 023e 7665 86bf 3000 803f 180b 2d3e
00000080: c7e6 423f f10a b93f 2f4c d03f 2077 c9bf
00000090: 271f 1f40 c509 3c3f fe0e bb3e 6c34 1d3e
000000a0: ddce fdbf 3216 70bf 085c 2fbf 1a7e aabe
000000b0: 5474 83be 8e49 15bf 6763 90bf 5a92 30bf
000000c0: 1361 e7bf 71fe cf3e ed59 603f 44f2 1c3f
000000d0: 0c11 2fbf 9a36 503f be0c babf b8a9 f83f
000000e0: 453d 3cbf 7881 5d3f 4344 2940 3dd4 1f3f
000000f0: fcb8 0cc0 470f 073f b276 0c3f e871 63bf
00000100: 04ab bcbf bc8e d2bd 12e3 9d3f 5904 ce3e
00000110: a412 393f 9079 f03e 2ffb 27bf 9003 e0bf
00000120: fb22 7fbf 16da 8dbf 58bd 073f 2083 c3bf
00000130: aa7f ad3f 36af bbbe 9e47 403f 4e6c af3f
00000140: d957 a13f 1ace a5bf 1963 483d 248d e23f
00000150: d455 89bf 758b 5f3e 66bf 1d3e 4b50 153f
00000160: a996 d43e 4a9f a03f 50f6 1c40 f426 ecbf
00000170: 94f9 7c3f 0207 0040 cd08 193f 6bbb 413f
00000180: d37c c33f 2825 af3f f7db f53d ee0e 8fbe
00000190: 0c51 19bf 1472 323e f130 313e 8574 8d3f
000001a0: 3023 b03f 2181 dd3e 2bd0 893f 3204 b03f
000001b0: 44d6 203f 4819 733f f4fa 6cbf a68f dcbf
000001c0: 1fda 9b3e e85c 4e3f 47ac d23f 99d0 8bbd
000001d0: dc33 8dbf 0d50 8bbe d0e1 c63f 98da 8d3e
000001e0: b114 0cbf eaaf 60bf 2c7e 5bbf 9217 ee3f
000001f0: 2526 9e3f 2855 e43e a0f7 983f 6c20 3f3e
00000200: 0d86 fbbe a39c 5b3f 256d 593f 5bec ad3e
00000210: 6bea 7c3e d63b 6dbe ade8 aebf e9c6 6fbf
00000220: ca42 cb3f bc22 523e 6944 353f 0b20 c4be
00000230: 37bd c7bf f7be 18bf 4d03 9b3d 060a 3c3f
00000240: d66e 54be 72e7 a03f 6352 4ec0 711b 5fbe
00000250: bb1a 94bf b229 8dbf 2a08 8dbf b5af 573f
00000260: 22d2 a7bf 2a2e 42bf 0ddf 09bf 0fc2 d3bd
00000270: d706 8f3e d729 183f ae02 0c40 39d1 ca3f
00000280: fbe5 4c3f 8f9d b23f 6d1a 43bf 9c3a eabe
00000290: c100 ed3e 6e64 c0be 69f9 d1bf 6cbc 3fbd
000002a0: 419b 003f d190 c03f c84c 8d3f ffad e73c
000002b0: 5d1e 01c0 33ed 82bf 525d 74bf 0dab b73f
000002c0: 1175 b93f bf9d d73e 26e6 583e 0f5d 733f
000002d0: 56b4 5b3f 5874 9abf 2e8e 823e fd01 80bf
000002e0: 6059 b0bf 702f 8bbd cf94 a73b 47da 343e
000002f0: 5bd3 83bf d62e 9dbf 8e11 19be 5984 1abf
00000300: 977f 4c3f ecb6 afbf 2585 4d3f f6e1 643d
00000310: e098 4abf a081 2dc0 2e75 d93e a02b 673e
00000320: fb4a 3cbf 2072 bc3f 1db6 05c0 6019 8cbe
00000330: d830 a33f 6ff5 85bf d828 313f 66ae 803e
00000340: d283 de3f 8e36 9dbe 2095 1e3e a530 a23f
00000350: 4820 e43e 1ae7 c6be 3049 963f e82b 2c3f
00000360: 0921 053f fccf 0740 b62d 31bf f3f3 e63f
00000370: f82e 3d3f 169a 6dbe d1a0 f4be c089 1f3e
00000380: 69ef ba3f 9d1c c53f abcc 83bf e394 f83f
00000390: b228 ffbf a0a0 8cbf 78c5 b3bf 065f 24bf
000003a0: 088d 9abf 76f7 713f 274a bcbf 0eaa 2a3d
000003b0: 3799 853f 6579 183e a476 a93f 7d0d c2be
000003c0: ce03 e8be cdbc 60bf 6cd8 a5be 38ce 1bbf
000003d0: 3208 103f 9f64 a43f ea76 ac3f 812b 9e3e
000003e0: ec7a 88bf 5bba 4dbf b5d6 95bf 8a05 f4bf
000003f0: bd6d 8ebf 3b99 0c3e db92 d23f c13e 0a3f
0.6214569 -0.03934534 0.5754718 -0.53116506 0.012834201 1.4964465 0.3102126 -0.9357775
-0.90062463 2.5265567 -1.6348906 -1.048471 -0.94314164 0.473063 0.6044105 0.92488575
-0.21077773 0.91199386 -0.13185218 0.70875365 1.4198606 0.00084716146 -3.3923042 -0.3539047
0.33379546 1.7350628 -1.4449227 -0.29533613 0.12735978 -1.0499713 1.0000057 0.16898763
0.7613339 1.4456464 1.6273249 -1.5739479 2.4862764 0.7345241 0.36534876 0.15352029
-1.9828755 -0.9378387 -0.68499804 -0.33299333 -0.2567469 -0.5831536 -1.1280335 -0.68973315
-1.80765 0.4062381 0.87637216 0.6130717 -0.68385386 0.81333315 -1.4535139 1.9426794
-0.7353099 0.8652568 2.6447914 0.62433225 -2.1987906 0.52757686 0.54868615 -0.8884568
-1.473969 -0.10281131 1.2334921 0.40237692 0.7229407 0.46967745 -0.6561765 -1.7501087
-0.9966275 -1.108218 0.5302329 -1.5274391 1.3554585 -0.36657113 0.7510928 1.3704927
1.2604934 -1.2953522 0.048922632 1.7699323 -1.0729318 0.21830542 0.15405044 0.5832564
0.41521195 1.2548611 2.4525337 -1.8449388 0.98818326 2.0004277 0.59779054 0.756766
1.5272468 1.3683214 0.120048456 -0.27941078 -0.5988929 0.1742633 0.17303826 1.1051184
1.3760738 0.4326258 1.0766653 1.375128 0.62826943 0.9496045 -0.92570424 -1.7231338
0.3043985 0.80610514 1.6458825 -0.06826896 -1.1031451 -0.2720951 1.5537663 0.27705836
-0.5471907 -0.87768424 -0.857394 1.8600943 1.2355391 0.4459622 1.1950569 0.18664712
-0.4912571 0.85785884 0.84932166 0.33969387 0.24698798 -0.23167357 -1.3664757 -0.9366289
1.5879757 0.20521063 0.7080751 -0.38305697 -1.5604619 -0.5966639 0.07568989 0.73452795
-0.20745406 1.2570632 -3.2237785 -0.21787812 -1.1570657 -1.1028349 -1.1018116 0.8425248
-1.3111002 -0.7585169 -0.53855973 -0.10339748 0.27934906 0.5943884 2.1876636 1.58451
0.8003842 1.3954333 -0.762122 -0.4574784 0.46289638 -0.37576622 -1.6404239 -0.046810552
0.502369 1.5044194 1.1039057 0.02828121 -2.0174782 -1.0228637 -0.95454895 1.4349076
1.4488851 0.42112538 0.21181545 0.9506387 0.85822046 -1.2066755 0.254991 -1.0000607
-1.3777275 -0.06796157 0.005114175 0.17661391 -1.0298876 -1.2279918 -0.14948103 -0.60358196
0.79882187 -1.3727698 0.8028129 0.055879556 -0.7913952 -2.7110367 0.42472214 0.22575235
-0.7355191 1.4722328 -2.0892403 -0.2736311 1.2749281 -1.0465525 0.6920295 0.25133055
1.7383978 -0.30705684 0.15486574 1.2671095 0.4455588 -0.38848191 1.1741085 0.67254496
0.5200353 2.1220694 -0.69210374 1.8043197 0.73899794 -0.2320331 -0.47778943 0.15579891
1.4604312 1.5399357 -1.0296835 1.9420437 -1.9934294 -1.0986519 -1.4044638 -0.64207494
-1.2074289 0.9451822 -1.471013 0.041666083 1.0437382 0.14890058 1.3239331 -0.37900916
-0.45315403 -0.8778809 -0.3239168 -0.6086154 0.56262505 1.2843207 1.347379 0.30892566
-1.0662513 -0.8036248 -1.1706148 -1.906419 -1.112724 0.13730328 1.6451067 0.54002005

weight f4 [32, 16]
00000000: 32a5 aebf 9efd e53d 9129 643f 604d 12bf
00000010: def5 93bf 96ee 24bf 3281 3b3f 11ea 133f
00000020: 96e1 c9be 142d 213f f805 2e3f 4da4 263f
00000030: 7391 9a3f ec80 84bf 8310 e0bf dd4d ed3f
00000040: 0e9d 6c3f b46f 86bf 56f6 18bf 8aee 2e3e
00000050: c7d2 d2bf 1a1b 7b3f e8fe e2bc 37ff 4cbf
00000060: c077 d3bf 2078 09be c841 843f 784f b43f
00000070: 744b 0c3f 1758 f13e f8cf ecbf f6d6 bdbf
00000080: 8766 99bf b03c b8bf ac71 1cc0 3ad8 55c0
00000090: 7b7a 2fbf ddea 76be 9b7f c23e 4f99 c93d
000000a0: b905 44bf 961a d53f d651 7d3f 0d62 51be
000000b0: fb7e c53f f054 4cbe f865 86bf 9035 81be
000000c0: d688 0abe 7ec7 b73f 7da0 9dbf a621 7abf
000000d0: 9aa7 f9bd 1acd 13bb 8657 613f 7697 1440
000000e0: dfda b03f 8fc3 d3be 09fb 263f ac9d 06bf
000000f0: d28e b5be 22a2 953f c46e b4bf 25c0 5dbf
00000100: 6d08 c53c 9d46 c3bf 2b55 15bf 6d1e 06bd
00000110: e1e8 693d cd8c 9cbd 70d6 dc3f 93cb 903e
00000120: 8a9c 403f 85d6 01be affb d6bf c749 babf
00000130: 3fce 54bf 4391 8ebf 1015 4c3f e3ea b53f
00000140: e20d 96bf a87e 2ebf 4199 64be 8ec4 85bf
00000150: ccf7 9cbf d352 52bf 3562 923f 0d27 e63e
00000160: 107f b93d 7865 9e3e ddcc 03bf 5c2c bebf
00000170: ad04 30c0 02f8 bc3e 6853 6cbe f53b 503f
00000180: 12ff 21bf 3d1c 10bf ca13 5dbe 8b4d e53e
00000190: 813e b63f e887 0cbe f30c 12be 58c3 c13f
000001a0: bc6c 823f 3c65 0140 e267 f13e ca72 c83f
000001b0: 4031 b33f f5c5 bdbf 4fa9 333e 9e15 ddbf
000001c0: 6c17 00bf 0e06 a9bf e35b 01bf 06d0 12c0
000001d0: 403e e43f 40d8 99bf 8b44 803f 3ff2 463f
000001e0: aea2 76be c715 db3d 3618 4b3f 2804 593e
000001f0: 923f c2bf e565 9b3f 3ed5 b3bf d155 4fbf
00000200: 28fb 49be cd8b f13f bfdd a23d 2d0a 953f
00000210: 8b7f 0bbe efd2 1b40 dccf 88bf da7d 343f
00000220: 3fa3 ecbf b7e7 f0bf a498 acbf 2484 44be
00000230: 10dc ae3f 7de7 9a3e 8d45 803f 5f7e 0b3e
00000240: 4d7c 7fbf c3fb 57bf c8c3 babf cbe3 213f
00000250: daab a9bf 5ded 393d 6896 40bf 8958 33bf
00000260: 8e84 18be b03f cd3f c22d e9bf cd56 043e
00000270: d91f 963f d59e c6bf dc0f 13bf 7648 223d
00000280: ecbf 4b3f 9194 f03d 4a0b 0140 ec78 683f
00000290: 04ce 973e 198b aabf a2a3 2fbf 5851 a03c
000002a0: bac3 053e 9762 86bf 00dc dbbf 01dd a6bf
000002b0: ba4d 353f e16b ba3e bde4 a03f 25c4 acbd
000002c0: 657d cb3d 0b55 a9bf 384d 5a3f b170 82bf
000002d0: e6cf 51bf 3722 963f c22b 21c0 5ebf 813f
000002e0: d3cb 233f 4673 f9bd 87de 91bf 9db8 ffbe
000002f0: 2ff8 813e c909 edbf b72c 6ebf c274 e2bf
00000300: 2ebd 393f 9fbe 333f 2203 80bf 4e56 9fbd
00000310: 06b4 19bf 6511 fe3e aa7d 7d3f 4417 04c0
00000320: a4a8 77bf 66fa a2bf 613e 76be 8509 77bf
00000330: 748f a9bf 0671 083f 0229 223f b14e 0740
00000340: f637 ae3e 15e9 eebf 30b4 f73e f8ab b13f
00000350: e3ee 883b 473f e1bf a668 babd a5a0 0e40
00000360: 0779 913f e5d8 85bf 4f72 003f fc39 89bd
00000370: f931 02c0 fc56 2ebf 36a0 373e 03f9 48bf
00000380: e71d 08bf 422f cb3f 8ddf 4ebe 8aa5 41bf
00000390: cf70 123e 1abc 713e f0dc 3c3f 311c 2fbf
000003a0: ec56 fc3e 47d9 27c0 50e3 f7bd 39f6 b8be
000003b0: 5930 02bf c8f9 2640 6417 ee3f 8bfe 503e
000003c0: 0318 a6be ef72 b2bf daf8 6f3e c2eb 17bf
000003d0: 3720 c13e 56c7 f5bf b581 c2bf e391 e8be
000003e0: ada0 643f 27c5 f43f 17bb 96bf 6c3d 0640
000003f0: cfcd 9dbe fd89 cabf d198 1e3f 719a 2e3f
-1.3644164 0.11230014 0.89125925 -0.57149315 -1.1559408 -0.64426553 0.7324401 0.5777903
-0.3942992 0.6295941 0.6797786 0.65094453 1.2075638 -1.0351844 -1.7505039 1.8539387
0.92427146 -1.0502839 -0.5975088 0.17083183 -1.6470574 0.9808823 -0.02770944 -0.80076927
-1.652092 -0.1342473 1.0332575 1.4086752 0.5480263 0.4713752 -1.8500967 -1.4831226
-1.1984414 -1.439352 -2.444438 -3.3413224 -0.68546265 -0.2411303 0.3798798 0.098436944
-0.7657123 1.6648738 0.98952997 -0.2044756 1.5429376 -0.19954276 -1.0499868 -0.25236177
-0.13528761 1.4357755 -1.2314602 -0.97707593 -0.121901706 -0.002255267 0.88024175 2.3217444
1.3816794 -0.41360137 0.652268 -0.5258434 -0.35460526 1.1690104 -1.4096303 -0.86621314
0.02405187 -1.5255924 -0.5833308 -0.03274386 0.057106856 -0.07644043 1.7252941 0.28280315
0.7523886 -0.12679489 -1.6795558 -1.4553765 -0.83127207 -1.113808 0.7971964 1.4212307
-1.1722987 -0.6816201 -0.22324087 -1.0450609 -1.2263122 -0.8215763 1.143622 0.44951668
0.090574384 0.3093679 -0.5148447 -1.4857287 -2.7502854 0.36907965 -0.23078692 0.8134149
-0.6327983 -0.5629309 -0.2158958 0.44785723 1.4237825 -0.13723719 -0.14262752 1.5137739
1.0189433 2.0218039 0.4714957 1.5660031 1.3999405 -1.4826037 0.17545055 -1.7272222
-0.5003574 -1.3204973 -0.50530833 -2.2939467 1.7831497 -1.2019119 1.0020918 0.7771339
-0.24085495 0.10697513 0.7933382 0.21192992 -1.517565 1.2140471 -1.4049451 -0.8099032
-0.19724715 1.8870789 0.07952451 1.164373 -0.13622873 2.4347494 -1.0688434 0.70504534
-1.8487319 -1.8820714 -1.3484082 -0.19191033 1.3660908 0.30254737 1.0021225 0.13622425
-0.9979904 -0.8436853 -1.4590998 0.6323821 -1.325557 0.045392383 -0.752295 -0.7005697
-0.14894316 1.6035061 -1.8217089 0.12923737 1.1728469 -1.5517222 -0.57446074 0.039619885
0.79589725 0.11747087 2.016314 0.9080951 0.29649365 -1.3323699 -0.6860906 0.019570038
0.13062945 -1.0498837 -1.7176514 -1.3036195 0.70821726 0.3641043 1.2569805 -0.08435849
0.099360265 -1.3229078 0.85274076 -1.0190641 -0.8195785 1.1729192 -2.5182958 1.0136526
0.63982886 -0.1218019 -1.1396035 -0.49945536 0.25384662 -1.8518611 -0.9303698 -1.7691882
0.7255429 0.7021274 -1.0000956 -0.07780133 -0.6004032 0.49622646 0.99019873 -2.06392
-0.967417 -1.2732666 -0.24047233 -0.964989 -1.3246903 0.5329746 0.6334382 2.114178
0.3402707 -1.8664881 0.4837966 1.3880606 0.004178868 -1.7597436 -0.09101991 2.228555
1.136506 -1.0456816 0.5017442 -0.06700513 -2.0343 -0.6810148 0.1793221 -0.7850496
-0.5317063 1.5873797 -0.20202465 -0.7564322 0.14300846 0.23606911 0.73774624 -0.6840239
0.49285066 -2.6226366 -0.12103903 -0.36125353 -0.5085502 2.6089954 1.8600888 0.204096
-0.32440194 -1.3941325 0.23434773 -0.5934411 0.3771989 -1.9201458 -1.5195833 -0.45423803
0.8930767 1.9122666 -1.1775845 2.097499 -0.30821082 -1.5823361 0.6195193 0.6820441

weight f4 [32]
00000000: 5f85 5e3e b6a4 0a40 1244 1dbf 08c1 0340
00000010: 57f8 963f 8610 823e 8d08 903d 0ff2 1e40
00000020: ee24 ea3f 0785 d63f b647 b0be e85d cb3f
00000030: ff83 0f40 f903 0740 f7b9 5e3f a134 ca3f
00000040: feee e23f cf79 d13f 4e70 523f 11af 2940
00000050: 9b18 133f 6ac4 8b3e 175e 563e eac1 1d40
00000060: 1d24 f13f 2173 cc3f fe5d d4be 91c2 0740
00000070: 0f17 773f d77e b13f 60d4 603f 8fec 563f
0.21730565 2.1663032 -0.6143199 2.0586567 1.1794537 0.2540323 0.07032881 2.483524
1.829252 1.6759347 -0.3442971 1.5888033 2.2424314 2.1096175 0.8700251 1.5797311
1.7729185 1.6365298 0.82202613 2.6513102 0.5745942 0.2729829 0.2093433 2.4649606
1.8839146 1.5972635 -0.4147796 2.1212504 0.9651956 1.3866833 0.8782406 0.8395471

bias f4 [32]
00000000: 80be b3bc 45af 833f 58c5 0abf d46e 91bf
00000010: 8189 c8bd 0faf 68bf da1e 803f 56fb 9f3f
00000020: 5583 473f 35c2 87bf b12d 863f b84f 673f
00000030: 091d 383e dbe6 fe3f f530 9abf 1f2b 903f
00000040: 91a5 d8be 47fe 7c3f 7509 b8bf 40e6 833f
00000050: e46e ba3f 1621 20bf 10c0 76bf 5a91 0c3f
00000060: f447 883d 8d6c 203f 5b54 9abf c776 d83e
00000070: f134 8d3f b850 053f 7d4b 483e fa0c 163f
-0.021941423 1.0287863 -0.5420737 -1.1361947 -0.09791852 -0.9089212 1.0009415 1.2498577
0.7793477 -1.0606142 1.0482694 0.90356016 0.17979826 1.9914201 -1.204619 1.126316
-0.42313817 0.98825496 -1.4377886 1.0304642 1.4565091 -0.62550485 -0.96386814 0.5490929
0.06654349 0.62665635 -1.2056993 0.4227812 1.1031781 0.5207629 0.19560046 0.5861355

running_mean f4 [32]
00000000: 166b 25c0 4091 6c3e 6d70 71c0 0d89 bdbe
00000010: 77b4 0240 d7de 5bbf 55b3 2240 fa4e 41c0
00000020: a64e fabe 135b 283e eca5 07bf 6289 383f
00000030: 1397 0cbf e9c3 d03f 01c7 21bd 42cb d93f
00000040: 7adb b7bf 7381 c73f f5ae 17c0 55c9 41bf
00000050: 57d6 8d3f a8dc 4740 3651 85c0 01bb 6a3f
00000060: f4ae 99be 4a93 953f f2e3 7ebf bf26 e7bf
00000070: 8974 4440 200a dd3e 7605 803e 8d40 57c0
-2.584661 0.23102283 -3.772487 -0.37018624 2.0422647 -0.858869 2.5421956 -3.0204453
-0.4888813 0.16440992 -0.5298755 0.7208463 -0.5491802 1.6309787 -0.039496426 1.7015154
-1.4363854 1.558638 -2.3700535 -0.75697833 1.1081036 3.1228428 -4.1661634 0.91691595
-0.3001629 1.1685574 -0.99566567 -1.8058699 3.0696127 0.43171787 0.25004166 -3.3633149

running_var f4 [32]
00000000: c18d 1c41 3fe4 7041 eb2f 0941 7469 3142
00000010: e51f a241 5843 8d41 6443 b441 faad a241
00000020: 7a58 4941 c674 3c41 60d0 5e41 153c 4241
00000030: 4efe 0942 9179 3641 d5ba b541 d65a e940
00000040: d490 7f41 fe5d 8841 f9be 6341 2a8e 8e41
00000050: 7c6c 6641 a4cd 2f41 93b0 cf41 dab8 b240
00000060: 857d 7841 3824 7041 072e 7741 f9fc 9341
00000070: da07 5341 b787 4341 4fcd f340 2720 2241
9.784608 15.055724 8.574199 44.35298 20.265574 17.657883 22.532906 20.33495
12.584101 11.778509 13.925873 12.139668 34.498344 11.404679 22.716227 7.2923384
15.972858 17.045895 14.234124 17.819416 14.401485 10.987705 25.961218 5.585065
15.530644 15.008842 15.448737 18.498522 13.189417 12.2206335 7.618812 10.13285

weight f4 [32]
00000000: cf49 ca3e 3c25 3f3e 39c1 903f e2ef bf3e
00000010: 4d7c c23f 353f 1240 4e98 c83f 4c20 ba3d
00000020: fabd 843e 2056 af3f 5488 4b3f cd56 1340
00000030: 98b7 7c3f be99 1e40 2796 903f b3c5 563e
00000040: 6e74 0540 01de 8abd 7f60 273f 6eab ef3f
00000050: d480 be3f 26f3 49be 89dc a43f 4871 4c3f
00000060: 1297 f03f 48e4 c73f 997e ab3d c98c cb3f
00000070: dd61 a73f 95b6 0540 93ba f63f 7492 8e3f
0.39509436 0.18666548 1.1308967 0.37487704 1.5194184 2.2851079 1.567148 0.090881914
0.2592619 1.3698158 0.79504895 2.302173 0.9871764 2.4781337 1.1295823 0.20973854
2.0852313 -0.06780625 0.65381616 1.8724191 1.4883065 -0.1972166 1.2879802 0.79860353
1.8796103 1.5616541 0.08373756 1.5902339 1.307674 2.089269 1.9275688 1.1138444

bias f4 [32]
00000000: 7de3 1f3f 0298 bb3d 1866 213f 6961 f7bb
00000010: 14a1 6c3f c7b6 05bf 2292 88bf ba82 e8bd
00000020: 30e7 153f 3c99 6fbf 9674 ea3d 6765 773f
00000030: 2d72 3dbf ce25 833f 75ad 483f 0f6e 173f
00000040: 1729 41bf 461e 0cbf fbd8 5b3e 138a 25bf
00000050: 8bb5 ba3e 94ed a83f dfed ac3e 713b 2dbf
00000060: e6ff 81bf 5e75 c93e a2b8 953f 5312 c3be
00000070: 46ea b53e c85b 813f 1d2f 98be b4f4 87bf
0.62456495 0.091598526 0.6304641 -0.007549454 0.92433286 -0.5223202 -1.0669596 -0.11353059
0.5855589 -0.9359319 0.11448018 0.966391 -0.74002343 1.0245912 0.78389674 0.5915231
-0.75453323 -0.54733694 0.2146949 -0.6466381 0.3646663 1.3197503 0.3377523 -0.67668825
-1.0156219 0.39347357 1.169697 -0.38099918 0.355303 1.0106134 -0.29723445 -1.0621552

running_mean f4 [32]
00000000: 7abc c13f 84a1 fc3e d698 a33f 44a3 3f40
00000010: 7403 84bf 55b7 5c3f 9bac 02c0 624b 3840
00000020: aea0 04be 1cec 2fc0 2cac 76bf 9296 04c0
00000030: 1584 5a3f 57f1 96be cda3 4540 7a2b abbf
00000040: 642e 88bf f7f9 843f e698 e9bf bb74 9dbf
00000050: 9e57 203f 545f 13c0 ee8f 0140 615f ce3f
00000060: 2ac2 16c0 b98f 923f aed0 fbbf 3131 a7bf
00000070: 9dee cb3e 9f54 ef3f 4c4a 0b3f 4c63 ddbf
1.5135643 0.49341977 1.2781017 2.99434 -1.0313554 0.8621724 -2.041785 2.879601
-0.1295192 -2.748786 -0.96356463 -2.07169 0.8535779 -0.29481003 3.0881226 -1.3372643
-1.0639157 1.0388783 -1.8249786 -1.2301248 0.62633693 -2.3026934 2.0244098 1.6122857
-2.3556008 1.1450111 -1.9673059 -1.3061887 0.39830485 1.8697699 0.54410243 -1.7295928

running_var f4 [32]
00000000: 051b 5541 8757 d740 b051 2242 358e 5341
00000010: 3fba fe40 739e a141 7d92 2142 8c22 5b42
00000020: 8aa6 ff41 1e93 8441 689d 6941 8a47 f541
00000030: 650b 0942 343e f841 423b 4d42 0bad ff41
00000040: 4e16 a241 b0b5 8b40 fea6 1d41 6b70 fc41
00000050: f3df ce41 8306 1141 8b13 e241 083a 4f42
00000060: d1ae 4e41 7a2e cc41 cd50 aa41 db3e 5b42
00000070: e4ef cf41 3db0 0342 cb7f 1c42 9caa d541
13.319097 6.7294345 40.579773 13.2222185 7.960235 20.202368 40.393055 54.783737
31.956318 16.571835 14.600929 30.659931 34.261127 31.030373 51.30787 31.959494
20.260891 4.3659286 9.85327 31.554892 25.85935 9.06409 28.259542 51.80667
12.91768 25.522694 21.289454 54.811382 25.992134 32.922108 39.124798 26.708305

weight f4 [32, 16]
00000000: 7b05 893f 7f02 58bf ba41 d0bf 4b4e 1abf
00000010: e05f 16bf 473c b0bf 891b 8cbf 8bb8 e8be
00000020: 3a7b 0abf dd6a 2c3f 486c b9bf 000f e33f
00000030: 5205 f5bf 21d0 2abe 47f8 5abd ec3f 883f
00000040: 7fe1 cebf b902 f7bf c7c8 9bbf 05e4 943f
00000050: 2cc1 993f 822f 20be 1ce2 73bf 3479 fbbe
00000060: 1937 6b3f dc71 92be 3b04 14c0 e460 babd
00000070: 92f9 89bf 0553 bd3f 4edf 1a3d d1df 82bf
00000080: 716e 573d 9ef2 2d40 7983 02c0 8db0 83bf
00000090: a23a f9be 844d a33f 7a55 bfbf 50b1 09c0
000000a0: f8d9 e03d 0682 ddbf ee0a 1c3f 403f 8a3e
000000b0: aa14 f1bf 26dc 513f 4a59 bf3f e611 29bf
000000c0: 9cb2 2fbd b08e 283f bad9 0d3e 826d af3f
000000d0: 9400 b03b b258 1bbf 8a28 47be d66d 0ac0
000000e0: 143e e73f 1673 83bf 45d5 1e3f 2322 763d
000000f0: 3d66 0240 1b50 95bf a035 e23f 2e5c e53e
00000100: 7c34 2bc0 6783 85bf 3287 8e3f 07d9 12bf
00000110: 04d0 3340 61af 23bf e1a7 82bf 3368 333f
00000120: 9dfa 75bf af5c a33f 2cb4 5cbf c11c 563f
00000130: 76f1 86be c753 74bf 6dd9 cbbe a7ea 7e3e
00000140: 6e78 0e40 239a a53f 6c72 c5bf 7156 7ebf
00000150: c5fc 1dbf cf79 943f c691 89bf 0ee4 a73f
00000160: 8708 3fbf 6125 153d ecea c13f c6be 8dbf
00000170: 3c53 d0bf 251a f0bf 3fd4 98be cae9 8dbc
00000180: eef9 07be 7655 5cbf 65d0 c23f b821 cf3f
00000190: ec23 413e d10a cfbf ae2c 31bf 7fd5 c43e
000001a0: b1e6 2e40 d09a 57bb 1953 773f afe6 44be
000001b0: a69d bb3f 12cb 0b3f 9b4a bbbf 7d39 86bd
000001c0: 307f 713f 7c0d e8bc 0263 bdbd 88f2 673f
000001d0: 9918 dbbf 53bd c53e 68fc 29bf da8c cbbf
000001e0: afb2 683e a874 be3f 50e1 803f da04 b53f
000001f0: 4670 fe3e 1487 90bf f8c1 4dbe cf68 bc3e
00000200: 46fd cbbf 0c75 023e f33c 0abf 9428 b93f
00000210: b586 d13f aa2b efbe 108c 9e3e 3154 36bf
00000220: 47dc 7e3e 1be4 adbf b2ef 243c d6e7 b93f
00000230: 6bef dc3f bd82 583f 2346 c93e d53b 013f
00000240: fab8 fdbe 1457 bfbf 66ce f63f 3212 61bc
00000250: 20ab 023f ebf9 bebf b915 b5be 23f9 5f3f
00000260: 8175 a03f b547 893f 8834 7cbf 0adc 803e
00000270: b8b7 bfbd d4f1 813f 6e28 15c0 dc1b bf3f
00000280: 9357 423e 97c4 17bf ca76 893e f82d c13f
00000290: a1c7 d53f 14ce 81bf 854e 713d a3a7 613e
000002a0: b492 f63f d173 073f 529f cabf 0706 943f
000002b0: a5de 753f 11ec 2840 4bdb 0640 d641 2e3f
000002c0: bd7b 4bbf 732e dfbf d3c0 d53f c261 993e
000002d0: 7807 383f 856e 18bf 8cd8 1540 b4a7 b3be
000002e0: 7c3e 8a3f 7004 283e 6baa 20bf b296 573f
000002f0: c897 923f 12a9 6ebf ff93 2b3f 0adc 3cbf
00000300: e019 843f da79 e03f e00e 9abe def2 c6be
00000310: 1f70 05bf bf75 613f 1da7 c53e c695 08c0
00000320: c3b6 e93d 41a8 cc3f 0354 fe3e 552e 0ac0
00000330: 7881 1d40 8faf 18c0 dd7f 393f 9f13 b2bb
00000340: 71d6 23c0 95c2 b4bf f349 003f bf98 263d
00000350: 9fb7 633f 9e13 3abf fba2 6cbe 166e 9d3f
00000360: ebeb 0b3f 9e77 78bf 12ea 8b3a 442f 053f
00000370: 5596 12bf 085a 883f 6f24 11bf 5b34 5a3f
00000380: 0eb1 11bf d415 c53e 7d4a 0ac0 260b 9f3f
00000390: a826 823f 8e93 7e3e 4466 3c3f 819e 843e
000003a0: 07f0 f83f b50e 65be fbaf 31bf 3d29 863e
000003b0: 5606 74bf f39a c43f ff86 bb3f 66c7 013f
000003c0: 7c22 c13f 15cb a8bf b1cd e83d 8ced 94be
000003d0: 81cb 133f 826b 16bf 8e81 f9bf aed0 bd3e
000003e0: 13d5 02be eebe 963f cfd3 84bf aa31 91be
000003f0: dc80 86bf dfd9 923f 733f 8ebf 7661 0240
1.0704798 -0.8437881 -1.6270058 -0.60275716 -0.58740044 -1.3768395 -1.0945903 -0.45453295
-0.5409428 0.6735056 -1.448617 1.7738953 -1.9142249 -0.16680957 -0.053459432 1.0644507
-1.6162566 -1.9297706 -1.2170647 1.1632086 1.2012076 -0.15643123 -0.9526689 -0.49115908
0.9188095 -0.28602493 -2.3127582 -0.09100512 -1.0779288 1.479096 0.037810616 -1.0224553
0.05259556 2.7179332 -2.0392745 -1.0288254 -0.48677546 1.2758031 -1.494796 -2.1514473
0.10979074 -1.7305305 0.6095418 0.2700138 -1.8834431 0.81976545 1.4949124 -0.66042936
-0.042894945 0.65842724 0.13852587 1.3705294 0.0053711627 -0.60682213 -0.19449058 -2.1629539
1.806582 -1.0269496 0.62044173 0.06009115 2.0374901 -1.1665071 1.7672615 0.4479689
-2.6750784 -1.0430726 1.1135008 -0.5736241 2.8095713 -0.6393948 -1.0207483 0.7008087
-0.9608553 1.276266 -0.8621242 0.83637625 -0.26356095 -0.95440334 -0.3981432 0.248942
2.2261004 1.2937664 -1.5425544 -0.9935065 -0.6171382 1.1599673 -1.0747612 1.3116472
-0.74622387 0.0364126 1.5149817 -1.1073844 -1.6275401 -1.8757979 -0.2984943 -0.017323393
-0.13278934 -0.86067903 1.5219847 1.6182165 0.1886136 -1.6175176 -0.692088 0.38444135
2.7328303 -0.0032898672 0.9661117 -0.19228624 1.4657485 0.54606736 -1.4632143 -0.06553934
0.943347 -0.028326742 -0.092474 0.9060445 -1.7116882 0.38621005 -0.66400766 -1.590236
0.22724412 1.4879351 1.006876 1.4142106 0.49695033 -1.1291223 -0.20093524 0.36798713
-1.5936668 0.12739962 -0.5399925 1.4465508 1.6369234 -0.46713 0.30966234 -0.71222216
0.24888717 -1.3585237 0.010066913 1.4523876 1.7260565 0.8457449 0.39311323 0.5048192
-0.49555188 -1.4948449 1.9281738 -0.013737248 0.51042366 -1.4920019 -0.35368136 0.8748953
1.2535859 1.0725008 -0.98517656 0.25167876 -0.093612134 1.0151925 -2.3305926 1.4930377
0.1897872 -0.5928435 0.2684844 1.5092154 1.6701547 -1.0141015 0.058912773 0.22036605
1.926352 0.52911097 -1.5829871 1.1564339 0.96042854 2.6394083 2.1071346 0.6806921
-0.79485685 -1.743605 1.669947 0.29957396 0.71886396 -0.5954364 2.341342 -0.35088885
1.0800319 0.16407943 -0.6276004 0.8421432 1.145257 -0.9322673 0.670227 -0.7377325
1.0320396 1.7537186 -0.30089474 -0.38857168 -0.5212421 0.8807029 0.3860406 -2.1341414
0.11411812 1.5988847 0.4967347 -2.159078 2.4610271 -2.3857152 0.7246073 -0.005434468
-2.5599635 -1.4121882 0.5011284 0.040673014 0.8895206 -0.72686183 -0.23109047 1.229922
0.5465686 -0.9705752 0.0010674617 0.52025247 -0.5726064 1.0652475 -0.5669622 0.8523614
-0.5691079 0.38493216 -2.1607964 1.2425277 1.0168047 0.24860975 0.73593545 0.2590218
1.944825 -0.22368892 -0.6940915 0.26203337 -0.9532217 1.5359787 1.4650573 0.5069488
1.5088649 -1.3186976 0.113673575 -0.29087484 0.577324 -0.58757794 -1.9492662 0.37073272
-0.12776594 1.1777017 -1.0377139 -0.28358203 -1.0508075 1.1472739 -1.1113113 2.0371985

weight f4 [32]
00000000: 3540 cab8 1683 d53f 930e 8abe 0c46 883e
00000010: a6f3 8d3f 5442 633e bf7f 0140 efcd 9f3f
00000020: 77ce 2bbe 6f60 7b3f f024 c33f 4aeb 2b3e
00000030: 3a4c 063f 740b ae3f 7527 0840 e04d 893e
00000040: 3386 f23f 6574 b13d 8709 08bc b135 e03f
00000050: 7bce 9dbe b436 373f e8dd 0740 c343 1540
00000060: b3bd 333e 82e8 403f d910 41bf 466a 213f
00000070: a38f 86be bb69 8b3e 8b25 0240 a46e fb3e
-9.64407e-05 1.6680629 -0.26964244 0.26615942 1.1089981 0.22193271 2.023422 1.2484721
-0.16777979 0.9819402 1.5245647 0.16788974 0.5246006 1.3597245 2.1274083 0.26817226
1.8947204 0.086647786 -0.008303053 1.7516385 -0.30821595 0.71567845 2.122919 2.3322608
0.17552833 0.7535478 -0.7541633 0.63052785 -0.2628146 0.27229103 2.0335414 0.4910785

bias f4 [32]
00000000: aed4 a53f a097 46bf 62c3 6bbe c6fb adbd
00000010: a7eb 78bf 2146 923f a986 2f3e 02f1 17bf
00000020: de40 ab3e 26e7 06be 46e4 fcbe 2c86 9fbe
00000030: 4e92 19bf d017 3bbf 5288 2e3f 4100 cdbb
00000040: 4a8d 7abf 742b 643f cf73 a0bf 1ce9 57bf
00000050: 264e 493e b49f 9fbf 8058 7d3f 5b1e 43bf
00000060: 9712 e4bd 0e08 82be 1788 523f 6905 56bf
00000070: 682a 8dbe 9478 413f 0744 9f3f 1fc1 50bd
1.295553 -0.7757511 -0.23023751 -0.084952876 -0.97234577 1.1427652 0.17141213 -0.59352124
0.33447927 -0.13174114 -0.4939291 -0.31157053 -0.5998887 -0.7308321 0.6817676 -0.006256134
-0.9787184 0.89128804 -1.2535342 -0.8434007 0.19658718 -1.2470613 0.98963165 -0.76218194
-0.11136358 -0.2539677 0.82238907 -0.83602005 -0.27571416 0.7557461 1.2442635 -0.050965425

running_mean f4 [32]
00000000: 3488 fa3f aff2 fa3e 63ac 1740 d405 95bf
00000010: 9eab 57be 4d1e 90bf b094 fa3e c15f e3bf
00000020: 6e87 0240 4c8b cc3f c842 4f40 c952 e3bf
00000030: 0058 b6c0 caad 2340 ecb0 d33f 1d8d 0640
00000040: 6f06 26c0 04ad 3a3e 0f7a dcbf f2a8 c9bf
00000050: 1a06 1d3f d7cd e8be 896c 1440 c9ac ffbf
00000060: c613 5abf 0847 2d3b 9a30 c6be d888 ec3f
00000070: 9741 a6bf 7184 72be 746b efbf c94a f3bd
1.9572816 0.49013278 2.3698967 -1.1642404 -0.2106156 -1.1259247 0.48941565 -1.7763597
2.039516 1.598001 3.238451 -1.7759639 -5.698242 2.5574822 1.6538367 2.1023629
-2.5941427 0.18230063 -1.7224749 -1.5754683 0.61337435 -0.45469543 2.3191245 -1.9974605
-0.8518642 0.0026440043 -0.38708955 1.8479261 -1.2988766 -0.23683335 -1.8704667 -0.118794985

running_var f4 [32]
00000000: 21da 1e41 d851 b441 7baa 1c42 56db 8542
00000010: a15e ed41 69a9 3641 5dfb 3641 7d67 9741
00000020: 3a05 5441 4175 a941 39bd df41 5c14 7b41
00000030: d47c 8b42 8779 8c41 6253 a141 0663 3641
00000040: a7da 8241 31fb 2641 9614 ff42 04e1 0442
00000050: 1d3f b640 2c33 1542 a65e 0441 cf8b e541
00000060: 1844 2141 231b 9d41 c1c5 1842 8add 3c42
00000070: 9e6a dc41 f7c9 9041 5661 3b42 8a06 0b41
9.928254 22.539963 39.166485 66.92839 29.671206 11.41636 11.436368 18.925531
13.251276 21.182253 27.967394 15.692471 69.743805 17.55934 20.165714 11.399176
16.356764 10.436326 127.54021 33.21974 5.6952043 37.299973 8.273108 28.693266
10.079124 19.63825 38.19312 47.216347 27.55206 18.098616 46.845055 8.689096

weight f4 [32, 16]
00000000: 516d 3e3d 3277 4a3e d670 43bf bb2b 5a3e
00000010: 01d9 363f 525a acbd 81d2 97bd 5ded 253f
00000020: 9949 bdbe adaf af3e 5b0a 5dbf ea11 b93f
00000030: 7580 f2be 68e6 b93d 2d18 693d a1ec 863e
00000040: 6e77 06bd cd9f 04bf 904a 8fbe dbe6 113c
00000050: aaef f6bd 02e2 ffbe 2525 1cbf 061c 55bf
00000060: 8e98 6a3e 4c10 34bf 90b5 63bf 7e33 9bbf
00000070: 9eab 653e 5529 4cbf 93ec dc3e f99f 70bf
00000080: deb2 ecbe fe5b 38be ec45 e23d 5152 c53e
00000090: 56be 6ebe a107 cd3e cfcd 26bf 1774 f8be
000000a0: 35f1 47bc 3819 8d3e 64b1 93be e938 743e
000000b0: 84df 083f 2b42 553f 9b36 88be fd04 acbd
000000c0: 7373 98be b3a7 9abf f8e7 753e 54f2 3ebf
000000d0: 9b7d 1c3e 8216 aa3f dfdd 263e cc83 31bf
000000e0: f99a 3d3f 2c60 01c0 3711 0fbf 3c24 4d3d
000000f0: 8af5 7bbf aa41 5abf 00d7 b83f e7dd 133f
00000100: b5b2 4fbe cdac 793f 2a41 983f 14c2 373f
00000110: 235f 6cbf 7024 073e 4218 40bf ea38 b43f
00000120: 50ab ccbd c13c 563d 1092 393f b6a4 aa3c
00000130: 113b f6bd f9d3 83bf fd06 a93e 3c74 ecbe
00000140: 515c 953e 42ce b33e d02b da3f 9c54 22bf
00000150: 2711 9abe 49c9 ee3c ffd9 c4be a947 333f
00000160: a150 2abf a8c3 643f e256 a83e 158c 7fbf
00000170: 697a 413f 80d8 ff3f 43fd 8dbe c456 513f
00000180: 3504 7fbf 2440 2c3f e599 20bf 094c 053c
00000190: faf9 193f 4029 293f eaa4 8c3e e4cb f73f
000001a0: 7ce7 b43f d137 c9be 2a0c 173e a06b cabf
000001b0: be9d 4fbf 8e1b 2f3f 61e4 f33e 86e2 8a3d
000001c0: c6fd 143f 7285 bb3f 307b 8d3e fd26 0a3f
000001d0: 1227 95be 9a1d 7bbf 957a c6be 0f5c 7dbe
000001e0: e783 a33f 1857 37bf a872 0d3f 58e8 6a3d
000001f0: fabf 633f d2bb 35bf 77b6 68bf 1e51 2abf
00000200: 5aaf 85be 3bdd 303f 3e4b 9e3f c111 883f
00000210: ff09 453f 80ce d2bf 4abc d13f dc49 223f
00000220: ae48 b33f 4b08 123f 746e ab3d 0263 423f
00000230: 7940 ba3f 4d84 1a3e 4d48 47be 423a 303f
00000240: db95 193f 1afe c7be 2cae 813f fe41 523f
00000250: 86a1 993f 115e 643f bc4b c53f 0a54 0e40
00000260: 38aa 0ebe be19 873f 86df 3d3e 838f 04be
00000270: bd3a a5bd f451 053f 8696 05bf 54e4 d03f
00000280: debf 05bf aca1 3cbe 1aa5 c33e e548 8f3e
00000290: 9e98 7c3e d158 b2bf eea5 8fbf 36ba 86bf
000002a0: 244b 713f 8640 a7bf 8b10 69be d2f6 923e
000002b0: 878e 70bd 33fc 6d3f 54a3 ee3f 8045 7a3f
000002c0: 52a6 9dbf 02cb 36bf 3b15 533f d159 43bf
000002d0: 91bc ce3f aca5 bbbf 7ffc a73f 4412 49bd
000002e0: 0ee7 903f f332 273e 18c7 223f b2b2 9f3f
000002f0: 698c 953f 71df 253f 1273 383f 6375 c3bf
00000300: 2968 10bf 341d 94bd db4d 36bf d065 3dbf
00000310: 2c2b bbbf d752 9f3f 5e07 aabf 1cac 593f
00000320: 1046 05c0 1afc 8c3f 81a5 05bf e6ec adbf
00000330: d6dc b43f e518 1fc0 2017 85bc 1c00 843f
00000340: 9e72 89bf c2d4 7abe 3e8f 213f ddda 8d3f
00000350: f02f 523f d8ef 16c0 3823 a63f 3d7d babf
00000360: 180b b63f 034b 4bbf 139e f93e 0dd4 34be
00000370: 1acd 503f 47b8 f6be 5528 2f3e aeb0 843f
00000380: 66d9 29be 9dc4 f03f 46d2 823e da9c 0f40
00000390: f746 43bf cd61 633f f355 293f 83dc 43bf
000003a0: ad8b 823f 9fc3 13bf eefe 993f 3962 5ebf
000003b0: 6546 3cc0 dc4c d9be a75c 083f 84bf 253e
000003c0: d15e ba3f 97cc 3fbf e9b6 0ebf b330 f1bf
000003d0: e8f6 193f 9f31 e93f 9f79 083c e25d 083e
000003e0: 5a3d 68bf 1b60 b13f b242 af3f 39cf 76bf
000003f0: e185 a3bf eb4a 403f ffc2 39be 0242 7cbe
0.04649097 0.19772032 -0.7634405 0.21305744 0.7142487 -0.08415665 -0.07413197 0.6481531
-0.36970213 0.34313717 -0.86343926 1.4458592 -0.4736363 0.0907715 0.05690782 0.2635241
-0.03282874 -0.51806337 -0.27986574 0.008905138 -0.12057431 -0.49977118 -0.6099418 -0.83245885
0.22909757 -0.7033737 -0.8894892 -1.2125089 0.22428748 -0.7975057 0.43149242 -0.939941
-0.46230215 -0.18003842 0.11048493 0.38539365 -0.23314795 0.40044883 -0.6515779 -0.4852607
-0.012203504 0.27558303 -0.28846276 0.23849835 0.5346606 0.8330409 -0.2660416 -0.08399389
-0.2977558 -1.2082428 0.2401427 -0.74588513 0.1528229 1.3288119 0.16295575 -0.6934173
0.74064595 -2.0214949 -0.5588564 0.050083384 -0.9842154 -0.85256445 1.4440613 0.5776047
-0.20283015 0.975293 1.1894886 0.71780515 -0.9233267 0.13197494 -0.75037014 1.4079869
-0.09993613 0.052304033 0.724885 0.020830493 -0.12022985 -1.0299064 0.33013144 -0.4618243
0.29171994 0.351183 1.704462 -0.63410354 -0.3009121 0.029148715 -0.38447568 0.7003122
-0.6652928 0.8936105 0.32878786 -0.99823123 0.7557741 1.9987946 -0.27732286 0.8177302
-0.99615794 0.6728537 -0.62734824 0.008135804 0.6014706 0.6607857 0.2746957 1.9359097
1.4133143 -0.39300397 0.14750734 -1.5814095 -0.8110007 0.6840142 0.47635177 0.06781487
0.5819973 1.4650099 0.27633047 0.5396574 -0.2913137 -0.98092043 -0.38765398 -0.24742149
1.2774628 -0.7161727 0.55253077 0.057350487 0.8896481 -0.70989716 -0.9090342 -0.66530025
-0.26110345 0.6908757 1.2366712 1.0630418 0.7696838 -1.6469269 1.6385586 0.6339395
1.4006555 0.57043904 0.08370677 0.75932324 1.4550925 0.15089531 -0.19461174 0.68838894
0.59994286 -0.39061052 1.0131278 0.82131946 1.2002418 0.89206034 1.5413737 2.2238793
-0.13932121 1.0554731 0.18542299 -0.1294537 -0.08067844 0.52078176 -0.52182806 1.631968
-0.5224589 -0.18421048 0.382119 0.27985302 0.24667594 -1.3933355 -1.1222513 -1.0525577
0.9425528 -1.3066566 -0.22760217 0.28703934 -0.058729675 0.9296295 1.8643594 0.977623
-1.2316382 -0.71403515 0.8245427 -0.76308924 1.6151296 -1.4659934 1.3123931 -0.049089685
1.1320512 0.1632803 0.6358504 1.2476408 1.1683475 0.6479407 0.72050583 -1.5270199
-0.56408936 -0.072321326 -0.7121255 -0.7398348 -1.462255 1.2447156 -1.3283498 0.85028243
-2.0824013 1.1014435 -0.52205664 -1.3587921 1.4129894 -2.4858944 -0.016246378 1.0312533
-1.0738103 -0.24495223 0.63109195 1.1082417 0.82104397 -2.358389 1.2979498 -1.456947
1.4222136 -0.79411334 0.48753414 -0.17659016 0.8156296 -0.48187467 0.17105229 1.0366418
-0.16586837 1.8810002 0.2555105 2.2439485 -0.7628016 0.8882111 0.66146773 -0.7650835
1.0198876 -0.5772037 1.2030923 -0.86868626 -2.9417965 -0.42441452 0.53266376 0.16186339
1.4560186 -0.74921554 -0.5574785 -1.8842987 0.60142374 1.8218268 0.008329778 0.13317063
-0.90718615 1.3857454 1.3692229 -0.96409947 -1.2775232 0.75114316 -0.18140791 -0.24634555

weight f4 [32]
00000000: 0000 803f 0000 803f 0000 803f 0000 803f
00000010: 0000 803f 0000 803f 0000 803f 0000 803f
00000020: 37fa bc3c d7aa c63f 7ade 133f 4fa3 9d3f
00000030: ddbb ea3e 7ef5 5d3f 8285 013f 0201 2c3f
00000040: 0000 803f 0000 803f 0000 803f 0000 803f
00000050: 0000 803f 0000 803f 0000 803f 0000 803f
00000060: 2f60 0e3f 8b58 ad3f b719 bd3f 4781 1a3f
00000070: 1ac7 8f3f 6276 0e40 8164 1440 bdf5 133e
1.0 1.0 1.0 1.0 1.0 1.0 1.0 1.0
0.02306853 1.5520886 0.5776135 1.2315463 0.45846453 0.86702716 0.5059434 0.6718904
1.0 1.0 1.0 1.0 1.0 1.0 1.0 1.0
0.55615515 1.3542646 1.4773473 0.6035351 1.1232636 2.2259755 2.3186343 0.1444921

bias f4 [32]
00000000: 0000 0000 0000 0000 0000 0000 0000 0000
00000010: 0000 0000 0000 0000 0000 0000 0000 0000
00000020: 4bd8 403f be24 b8be 709a 26bf 5b9d a1bc
00000030: 35e5 96bf 5d4c 223f 73d1 333f 7ab7 4fbf
00000040: 0000 0000 0000 0000 0000 0000 0000 0000
00000050: 0000 0000 0000 0000 0000 0000 0000 0000
00000060: ecdb c2bf 68c6 1d3f ed05 71bf 250c 8d3e
00000070: a01e 0fbf 8444 88bf 40b4 30bf bd11 7d3d
0.0 0.0 0.0 0.0 0.0 0.0 0.0 0.0
0.75330037 -0.35965532 -0.650794 -0.019728353 -1.1788698 0.6339777 0.7024147 -0.8113934
0.0 0.0 0.0 0.0 0.0 0.0 0.0 0.0
-1.5223365 0.6163087 -0.9414967 0.27548328 -0.55906105 -1.0645909 -0.6902504 0.061784495

running_mean f4 [32]
00000000: 3c2d 413f 2e67 39bf 8fa4 aa3d 67d2 983f
00000010: 9a72 26bf 58cb 053f c374 0bbe d026 a7be
00000020: 5baf 0ebf 2f7e 7cbe 2ea4 ed3f 4f02 59bd
00000030: 8879 0ec0 3b8e 31bf a1ea 59bf 7914 663e
00000040: 8629 e5bd 68ef ac3f 530b 953e 73ce c9be
00000050: 79b0 873c c6cd 083f aaef 7b3e 2924 a8be
00000060: 6d7e b23f 9d23 cc3f ab4c 1d40 cf5d 673f
00000070: 4795 133f 379f 07c0 bec1 77bf c1ab 3fbd
0.7545965 -0.72423065 0.08332168 1.193921 -0.6501862 0.522634 -0.1361876 -0.326468
-0.5573632 -0.2465751 1.8565729 -0.052980717 -2.2261677 -0.6935765 -0.8512364 0.22468747
-0.111895606 1.3510561 0.29110202 -0.3941532 0.01656364 0.53438985 0.24603143 -0.32840088
1.3944832 1.5948368 2.4578044 0.90377516 0.57649654 -2.1190927 -0.9678 -0.046794657

running_var f4 [32]
00000000: 29bc ca40 5dcf 5541 c8db 733f 5fd2 0f41
00000010: 7e30 0040 8e1e e140 375d 5c41 b614 f740
00000020: 27ab 3d41 2ada a441 8917 a941 41f0 9f41
00000030: fb3f 0d42 08da c241 2ee1 9941 986a b541
00000040: 575e 2740 1278 f440 2d7b 0441 3c21 8940
00000050: 64e9 2641 3fa2 0a40 caa9 8040 a9a4 d73f
00000060: 3433 6741 b1d4 9741 9429 9241 4aa4 1942
00000070: 962f 0842 7bd6 2e42 f970 be41 2d6e 7a42
6.335469 13.363126 0.95257235 8.98886 2.0029597 7.03498 13.772758 7.721278
11.854285 20.606525 21.136492 19.992311 35.31248 24.35646 19.234951 22.677048
2.615133 7.639657 8.280072 4.285307 10.43198 2.1661527 4.020726 1.6847125
14.450001 18.978853 18.270302 38.41044 34.04647 43.709454 23.805162 62.607594

weight f4 [32]
00000000: fb5d 30bf 9145 55be b463 e63e a7c0 aa3f
00000010: c613 ee3f b423 103e 6e74 28bf af5f 7d3f
00000020: 6ae0 07be ce8e ad3f 0411 113f ac14 883e
00000030: 48ec 493f f955 c33e 460e aa3f 225f a33f
00000040: 4e9c fcbd 163d 103f 4f75 6e3f 02b9 2040
00000050: 798c 4f3f ba24 bfbe 571a 643d f467 df3f
00000060: 7cec 26be 0d1a ce3e 1636 b73f 9d7c 623e
00000070: 60f8 9d3e 998a 663e 6c4a 313d 4f6c 663f
-0.688934 -0.20827319 0.44997942 1.3340043 1.8599784 0.1407612 -0.6580266 0.98974127
-0.13269201 1.3559206 0.5666659 0.2657827 0.7887616 0.3815153 1.3285606 1.2763407
-0.123345 0.5634321 0.9314775 2.511292 0.8107372 -0.37332708 0.055689182 1.7453599
-0.16301149 0.4025425 1.4313381 0.22117849 0.30853558 0.22513808 0.043283865 0.90009016

bias f4 [32]
00000000: e7f0 b5be 90dc f5be 1996 11bf 8759 a43e
00000010: 641c 0bbf 3e80 853f e174 49bf 9b20 81bd
00000020: 7bd5 b33e f5e6 6e3f 1443 203f 9f17 303f
00000030: d571 223e 6b44 23bf c9fb cb3d 1a69 973f
00000040: 71b3 e8bf 5cbc e1bf b3b3 e5bd 431e 14bf
00000050: e009 6c3f d2f9 1f3f 34d4 c7bf 7439 0dbe
00000060: 4d25 96bf 3ef7 223f d673 1bbf bdf6 64bf
00000070: a5f0 563f ec31 8c3f 3625 863f f8c9 103f
-0.35535356 -0.48019838 -0.56869656 0.32099554 -0.54340196 1.0429761 -0.7869397 -0.06305047
0.3512381 0.9332116 0.62602353 0.6878604 0.15863736 -0.6377627 0.099601336 1.182895
-1.8179761 -1.7635608 -0.112159155 -0.57858676 0.9220257 0.6249057 -1.5611634 -0.13791448
-1.1730133 0.6365851 -0.60723627 -0.8943899 0.83960944 1.0952735 1.0480106 0.5655818

running_mean f4 [32]
00000000: ac2a acbd 3487 113e 14f4 3fbe e3cc 7cbe
00000010: e9f1 003f 79c8 58be 83ff 5a3e eeba e4be
00000020: e4ca 173d 4ae3 24be b332 bebc 88e6 933c
00000030: 3fc0 9c3d c195 523e fb4b 513d 7469 eebd
00000040: 3051 97be 4353 843e 24b2 ce3d 133e 783e
00000050: 7b33 0dbc 7835 603e b4a7 0bbe 25e1 793e
00000060: 0a8f 2e3d c888 8d3d 2379 133f 7cae 133d
00000070: 27d0 cb3e 16e8 95be 5977 73be 8673 20be
-0.084065765 0.14211732 -0.18745452 -0.24687533 0.50369126 -0.21170224 0.21386532 -0.44673866
0.037058726 -0.16102329 -0.023217535 0.018054262 0.076538555 0.20564939 0.05109785 -0.11641207
-0.2955413 0.25844774 0.100925714 0.2424243 -0.008618231 0.21895397 -0.13638192 0.24402292
0.04261688 0.069108546 0.57606715 0.036055073 0.39807245 -0.2927863 -0.23775996 -0.15669069

running_var f4 [32]
00000000: 6de7 0a3f 6445 ee3e adf3 2b3f edf6 e63f
00000010: 06f9 bd3f 1134 c13f 67ea 903f bdc9 3140
00000020: 3d6b 253f 5bc1 b23f 0f8b a13f d420 a93f
00000030: 6e0d a83f 645d 393f 360a 0a40 a6dd 583f
00000040: db7f 2f3f 9a68 a13f a7d0 133f cb05 d63f
00000050: 4f1f 913f e04c 413f cdc7 8b3f 6964 423f
00000060: c3f5 553f 7058 0240 9748 1140 dd46 823f
00000070: b4bd 5e3f 473c b33f 3b6d 5d3f aa65 3d3f
0.5425938 0.46537316 0.67168695 1.8044106 1.4841621 1.5094014 1.1321534 2.7779381
0.6461676 1.3965257 1.2620562 1.3213143 1.3129098 0.7240813 2.1568732 0.8471321
0.68554467 1.2610047 0.57740253 1.6720518 1.133768 0.75507927 1.0920349 0.75934464
0.8357813 2.0366478 2.2700555 1.0177876 0.87008214 1.400277 0.864948 0.7398325

weight f4 [32]
00000000: 2669 8d3f de99 873d 16d8 893f 5927 e83f
00000010: 5067 e23f 7a0e 1f40 06be a03d 15ff 033f
00000020: 6ed2 303f 6522 2840 6918 1b40 8f9b c83f
00000030: c698 2140 e4a8 2d40 3196 363f b119 e03f
00000040: c514 003f bcac 8d3d 5ac6 923f 8113 de3f
00000050: f773 653f 302d 6a3f f444 723f fbed e53f
00000060: 3da2 c9be 3f7f 8c3f 4398 0040 12fb cb3e
00000070: ba54 8c3f 0fdf cd3f 2142 0740 023f 0040
1.1047714 0.06621145 1.0769069 1.8137008 1.7687778 2.4852586 0.07848744 0.515611
0.6907109 2.6270993 2.4233649 1.5672473 2.5249496 2.7134333 0.71322924 1.750784
0.5003169 0.06917712 1.1466782 1.7349702 0.89630073 0.914752 0.94636464 1.7963251
-0.3938159 1.0976332 2.0092933 0.3983999 1.0963356 1.6083697 2.1134112 2.0038457

bias f4 [32]
00000000: 5d5a e6be b21d 7ebf d44d 5cbf 24e2 9f3e
00000010: 0483 a8bf e373 113f 593f 1cbf 3039 3ebf
00000020: d723 12bf c546 4a3e f5ef 1bbf 24e3 b5be
00000030: 05d1 af3f 9177 f5be 79e6 d33f 2edf 7dbf
00000040: 4864 013e cf48 6bbf 4422 e63d 118f c13e
00000050: 4fb2 023f be79 d93f 89cf 96bf a278 9abf
00000060: 8fda f13e 0126 a13f 451d 8f3f 6d7e 383f
00000070: 4284 813f 04e4 7e3f 9db0 52be 6208 7f3e
-0.44990817 -0.9926406 -0.86056256 0.3122722 -1.3164983 0.56817454 -0.6103416 -0.7430601
-0.5708594 0.19753559 -0.6091302 -0.35524857 1.3735663 -0.47942784 1.655471 -0.9916867
0.1263591 -0.9190797 0.112370044 0.37804464 0.5105333 1.6990278 -1.1782085 -1.2068064
0.4723706 1.2589723 1.1180807 0.7206791 1.0118487 0.99566674 -0.20575185 0.24905542

running_mean f4 [32]
00000000: fdf4 863f ad8f 1c3f fc90 c83e 051c 94bf
00000010: 2c00 dc3e 785c 8cbe 155f 293e 80cc 15c0
00000020: def0 123f bfe7 fb3f 0dee acbf 1c8c 0b3e
00000030: 89db 253f 2037 89bf 2d4f c0bf a628 333f
00000040: 76f2 933f ef29 813f 5962 a2be 1cd8 0640
00000050: 3306 e7bf 103c b0be aeb3 413f 97b4 69bd
00000060: 69ec 093e 6f84 29be 84fc da3e 3eb4 76bf
00000070: 88dc 793d 8315 a9bf 6b25 4cbf 8aaa 9d3f
1.0543514 0.6115673 0.39173114 -1.1571051 0.4296888 -0.27414298 0.16540177 -2.3406067
0.57398784 1.9680098 -1.3510147 0.13627666 0.6478811 -1.0719948 -1.5024163 0.699839
1.1558368 1.0090922 -0.31715658 2.1069403 -1.8048767 -0.34420824 0.75664794 -0.05705699
0.1346909 -0.16554426 0.4277078 -0.9636878 0.06100133 -1.320969 -0.79744595 1.2317669

running_var f4 [32]
00000000: ed99 d440 6b4f 1e41 dd91 1f41 fefd fa40
00000010: 65e8 3840 36be 0041 dcd0 3b40 fdbd 0441
00000020: d01f e740 25af 2640 41a0 c640 99a7 1341
00000030: 9032 ca40 fe82 0040 ce84 1c41 6d6f 1040
00000040: 6141 eb3f a24c 3240 3116 9040 651c 3640
00000050: ef4a a440 d2ad 8f40 933a a040 f068 1741
00000060: f4f4 a53f 0d86 8d3f 1e43 9140 ef54 ef40
00000070: 9b57 8b40 4210 d740 6232 8f40 ad97 8140
6.64379 9.894389 9.973111 7.843505 2.8891842 8.046438 2.9346228 8.296384
7.2226334 2.60444 6.2070622 9.228417 6.318672 2.0079951 9.782423 2.256801
1.8379327 2.7859273 4.502709 2.845483 5.134147 4.4899683 5.00715 9.4631195
1.2965379 1.1056534 4.539443 7.479118 4.354444 6.7207346 4.4749002 4.049765

weight f4 [32, 16]
00000000: 2184 e73e bbcd 953e e311 4e3f c907 b1bf
00000010: 8a82 093f 6802 0840 7908 8f3f f269 fa3d
00000020: d570 5dbf 8112 bbbe 8eff 103f 6096 b1bf
00000030: 24a9 8bbe 20a7 613e 04b9 26bf 716d 493e
00000040: dd67 793f 6104 613e cc44 bbbf d345 e0bf
00000050: 7e07 59bc 78a4 01bf 7ab0 20be cc67 eb3f
00000060: 62c8 28bf e2d1 a4bd 436f 35bf a865 e63e
00000070: 151f 8fbe c3fc e7bf 1538 81bf 493a 313e
00000080: f946 23bf 6ad3 fbbf a8d6 8e3f a0e9 723e
00000090: 13ae c0bf 965c 063f 80d5 0d3e 9d20 69be
000000a0: 8784 1b3f 4620 e63f 4e24 a3bf b60b 203f
000000b0: 72a1 cfbf 78ca e1be f4bc 1a3e 1fc4 27bd
000000c0: b2b2 6a3e a8b2 d83f bce9 29bf bcfc bf3f
000000d0: b36c 04bf a923 13bf 1cdd 52bf eda1 c2be
000000e0: bb1c e33d c755 4b3d ce47 8fbf 7e8b 573e
000000f0: c7f6 df3f b2ef 0ebf a5e9 f6bc c7b5 6bbe
00000100: 4e82 883f 1613 21be 03ce d3be 72a8 32bf
00000110: 9cbb fcbf 4fe5 9bbf 6992 923f 8101 e5bf
00000120: 20c9 f43c 20dd bebf de15 35bf 0266 843d
00000130: 5c91 09be 975f 6ebe 5d94 c03f 8c00 dcbe
00000140: 4893 c63e bdef cd3f 3290 193f 7373 97be
00000150: c6fe a3be b3f1 1cbf f160 a0bf 753b 223f
00000160: eb69 8bbe edf1 843f 1494 45bf 88c2 273f
00000170: 4ba0 fcbe 296b e93e 80e6 a7be 83f8 b53f
00000180: 66d3 f0be 2647 2a3f 76b6 40be d8d6 893f
00000190: 49c2 07bf e317 f63e 55b1 84bd 5608 1540
000001a0: bb3d 6abe 4fd8 aabf 4f6f 85be af16 6b3e
000001b0: 06f2 cc3e b056 21bd 3128 a6bf 82c5 d6bf
000001c0: 1b20 b63d 5e5d 87bf 1750 b3be 404b b8bf
000001d0: be63 f93f 3da0 9cbe 41ba 923f f1ee 8cbf
000001e0: d464 80bf 79d4 d0bf 25f7 c8bc d667 ecbf
000001f0: 80d9 bf3e 7dbf 973f 089c c63e 7bfb 713f
00000200: 629e 96bf 0594 223f b639 90bf 6ac3 203e
00000210: a1af 17bf 4ef9 733e a485 7a3f b413 64bf
00000220: 3647 66be d1e8 c6bf 4fda 253f 04f0 c8be
00000230: 7a40 543f fc8e 0bc0 2e66 0540 4c87 a63e
00000240: 3dd4 80be d912 9d3f a410 5dbe e176 ae3f
00000250: 68a0 9d3f 8e5d 6dbf 93e7 88bf 8649 c2be
00000260: 1f4c 853e 7eb7 bd3e 214d b83f b01a 89be
00000270: bea4 e63f e1aa 60bf 0ca1 913f 5a41 f0be
00000280: 2a1d 92bd 5ff0 ddbf 38db ec3f 9388 78be
00000290: 4fde a6bf 419a 513f e819 5a3e 8379 f9bd
000002a0: b72f bbbd f5c1 923f 8d26 a83f a56b 36bc
000002b0: b36a 30c0 1fc5 fc3e 1808 d73f ee56 a9be
000002c0: ce2a 5dbf b045 91be 63c5 3a3e 3ee4 b03f
000002d0: 66ba 3dbf 6e1f a9bf 444b 09bf b321 8a3f
000002e0: ba13 f83e 03cd b83f 85c7 18c0 d1f9 15be
000002f0: f739 e53d 3e4e 1e3f 2e45 c83e 4ea4 96be
00000300: 42c9 ef3f caa0 293f 18fc 20c0 c69a 4c3f
00000310: 92b9 203f c1b6 573f 546b 923d a28e b4be
00000320: 0929 413f de46 f63e 4a57 fabf 8942 ec3e
00000330: 4a01 f93c bec3 25be 5146 cbbf 3ed2 813f
00000340: 53be 523f 9ac1 9f3f a679 3abf e3c7 52bf
00000350: 419c 3abf 7145 57bf 862c 0bbf 3795 afbf
00000360: d611 e03e e75d 9e3f 8f24 84bf 131e 3540
00000370: b195 c43f d80b 533f f26e 44bf d296 393b
00000380: 40c1 be3f 7534 27c0 3336 cdbf 815d 79bf
00000390: ef15 b63f 4aad bd3f 0d72 5bbf 4c0c 513f
000003a0: 629b f4be f0e9 a73e 1b5a ad3f 644e 4c3f
000003b0: f9e1 6ebf d688 ba3f dcfb 91be 59f3 f53e
000003c0: 0c2e f33f 57a7 d93d 9a4b 773f 25e5 a2bf
000003d0: 4c27 083f 643f 2abd e11d c13f d733 a43f
000003e0: 15ac 46bf 1f5c b73f 0f5e 753f 534c 773f
000003f0: 940b 1e3e 2de3 77be 2996 783f f973 e13f
0.45217994 0.29258522 0.8049604 -1.3830501 0.5371481 2.1251469 1.1174461 0.12227239
-0.86500293 -0.36537555 0.56639946 -1.3874016 -0.27277482 0.2203641 -0.6512606 0.19670655
0.9742411 0.21974327 -1.463037 -1.7521309 -0.013246415 -0.50641584 -0.1569232 1.8391051
-0.6593076 -0.080478445 -0.70872897 0.44999433 -0.279534 -1.8124012 -1.009524 0.1730739
-0.6378017 -1.9673893 1.1159258 0.23721933 -1.5053123 0.52485025 0.13850975 -0.22766347
0.60749096 1.7978599 -1.2745454 0.6251787 -1.6221144 -0.44099784 0.15111142 -0.04095852
0.2291973 1.6929522 -0.66372275 1.4999003 -0.5172836 -0.5747629 -0.82368636 -0.38014165
0.11089464 0.04964235 -1.1193788 0.21049306 1.7497185 -0.55834496 -0.030140707 -0.23018561
1.0664766 -0.15729937 -0.41368112 -0.6978828 -1.9744754 -1.2179354 1.1450931 -1.7891084
0.02988106 -1.4911232 -0.7073649 0.06464769 -0.13434356 -0.23278652 1.5045277 -0.42969167
0.38784242 1.6088787 0.5998565 -0.29580268 -0.32030314 -0.61306304 -1.2529584 0.63371974
-0.27229246 1.038633 -0.77179074 0.65531206 -0.49341044 0.4558957 -0.32793045 1.4216465
-0.47036284 0.66514814 -0.18819603 1.076869 -0.5303083 0.480651 -0.06479136 2.3286338
-0.22875111 -1.3347262 -0.26061484 0.22957872 0.400284 -0.039389312 -1.2981015 -1.6779025
0.088928424 -1.0575368 -0.3502204 -1.4397964 1.9483564 -0.30591002 1.146309 -1.1010419
-1.003077 -1.6314842 -0.02453191 -1.8469188 0.37470627 1.1855313 0.38790917 0.94524354
-1.1767085 0.6350711 -1.1267612 0.15699545 -0.59252363 0.23825571 0.9786017 -0.89092565
-0.22488102 -1.55398 0.6478624 -0.39245617 0.82910883 -2.180602 2.0843616 0.32525098
-0.25161925 1.2271377 -0.21588379 1.3630029 1.2314577 -0.9272088 -1.0695671 -0.3794672
0.26034638 0.37054056 1.4398538 -0.26778173 1.8019025 -0.8776074 1.1377273 -0.4692486
-0.07134469 -1.733898 1.85044 -0.24270849 -1.3036593 0.81876 0.21298945 -0.1218138
-0.0913996 1.1465441 1.3136765 -0.011134063 -2.7565124 0.4936914 1.6799345 -0.33074135
-0.8639344 -0.2837348 0.1823936 1.3819654 -0.74112546 -1.3212717 -0.5363047 1.0791534
0.4845255 1.4437565 -2.3871777 -0.14646079 0.111926965 0.6183814 0.3911528 -0.2942223
1.8733294 0.6626097 -2.5153866 0.79923666 0.6278316 0.84263235 0.071493775 -0.3526507
0.7545324 0.48100942 -1.9557889 0.46144512 0.030396122 -0.16187951 -1.5880834 1.0142286
0.8232166 1.2480958 -0.7284187 -0.8233625 -0.72894675 -0.84090334 -0.5436481 -1.3717412
0.43763608 1.2372407 -1.0323657 2.8299606 1.5358182 0.8243995 -0.7673179 0.0028318656
1.4902725 -2.6125767 -1.6032165 -0.974083 1.4225444 1.4818509 -0.857209 0.8165939
-0.47774798 0.32795668 1.3543123 0.79807115 -0.93313557 1.4573009 -0.28512466 0.48037222
1.8998427 0.10627621 0.96599734 -1.2726179 0.5318496 -0.04156436 1.5087243 1.282832
-0.77606326 1.4324988 0.9584665 0.96600837 0.15434104 -0.24207754 0.97104126 1.7613517

weight f4 [32]
00000000: 9169 9b3f 0ac8 533f abb5 e53d 5b01 0abc
00000010: 62e9 a63e fbe6 0640 2a14 8b3f 8ceb 8f3f
00000020: 5b2d e33f 1e59 313f cc84 fd3d 67ba f3bd
00000030: 77f4 953f 5a1e d73f 047a 8ebe 6e96 343f
00000040: 132e e43f 3595 0840 c1cc ecbe 69f8 813f
00000050: 8708 753f 1cb8 e8be 58f3 823f 97ad ba3f
00000060: f2f8 f0be 8849 bc3e c05e 8f3e 75af 6dbe
00000070: 8114 0740 b032 d33f 1d7f b8be 4965 9b3f
1.2141591 0.8272711 0.11216291 -0.008423175 0.32599932 2.107848 1.0865529 1.1243758
1.7748216 0.6927661 0.123788446 -0.11900788 1.171523 1.6806138 -0.27827466 0.7054204
1.7826561 2.1341069 -0.46249965 1.0153934 0.95716137 -0.45452964 1.0230513 1.4584225
-0.4706493 0.3677485 0.28001976 -0.23211463 2.1106265 1.6499844 -0.3603448 1.2140285
