Experiments/2022_07_26 13-51-41 wine_100runs_learning-rate_3mv-features_custom-loss /models/Model_run99_optimizer_params0.02_malic_acid.pt (torch, 254669 bytes, 318 tensors)

weight f4 [12]
0	0x3f800000	1.0
1	0x3f800000	1.0
2	0x3f800000	1.0
3	0x3f800000	1.0
4	0x3f800000	1.0
5	0x3f800000	1.0
6	0x3f800000	1.0
7	0x3f800000	1.0
8	0x3f800000	1.0
9	0x3f800000	1.0
10	0x3f800000	1.0
11	0x3f800000	1.0

bias f4 [12]
0	0x00000000	0.0
1	0x00000000	0.0
2	0x00000000	0.0
3	0x00000000	0.0
4	0x00000000	0.0
5	0x00000000	0.0
6	0x00000000	0.0
7	0x00000000	0.0
8	0x00000000	0.0
9	0x00000000	0.0
10	0x00000000	0.0
11	0x00000000	0.0

running_mean f4 [12]
0	0x00000000	0.0
1	0x00000000	0.0
2	0x00000000	0.0
3	0x00000000	0.0
4	0x00000000	0.0
5	0x00000000	0.0
6	0x00000000	0.0
7	0x00000000	0.0
8	0x00000000	0.0
9	0x00000000	0.0
10	0x00000000	0.0
11	0x00000000	0.0

running_var f4 [12]
0	0x3f800000	1.0
1	0x3f800000	1.0
2	0x3f800000	1.0
3	0x3f800000	1.0
4	0x3f800000	1.0
5	0x3f800000	1.0
6	0x3f800000	1.0
7	0x3f800000	1.0
8	0x3f800000	1.0
9	0x3f800000	1.0
10	0x3f800000	1.0
11	0x3f800000	1.0

weight f4 [12]
0	0x3f6b82a1	0.919962
1	0x3f7aa609	0.979096
2	0x3f88ee95	1.069781
3	0x3f8ae32d	1.0850579
4	0x3f84a3b9	1.0362464
5	0x3f641c8b	0.89106053
6	0x3f6b27ce	0.9185761
7	0x3f83331f	1.0249976
8	0x3f8a8162	1.0820735
9	0x3f8d4046	1.103524
10	0x3f870b1d	1.0550267
11	0x3f6acbfe	0.9171752

bias f4 [12]
0	0x3dc72a1a	0.09724827
1	0x3da38fe3	0.079864286
2	0xbdd476fa	-0.103742555
3	0x3cf3cd86	0.029761087
4	0x3e11da66	0.14243469
5	0xbb503324	-0.0031768763
6	0x3e42708a	0.18988243
7	0xbe5e2ef3	-0.21697597
8	0xbe846ee5	-0.25865856
9	0x3c410ef2	0.011783348
10	0xbcc9773f	-0.024592994
11	0x3d945ee3	0.07244661

running_mean f4 [12]
0	0x3e4ff92f	0.203099
1	0x412bab2d	10.729291
2	0x3f9936a4	1.19698
3	0x43cf0c81	414.0977
4	0x3f68e606	0.9097599
5	0x3fa6d356	1.3033245
6	0x40e5007c	7.156309
7	0x4236fa0f	45.744198
8	0x3f030cbb	0.511913
9	0x3fae42ed	1.3614174
10	0x40380195	2.8750966
11	0x3f510d29	0.81660706

running_var f4 [12]
0	0x3eeb5dad	0.45969906
1	0x40d702a7	6.719074
2	0x3f289cd3	0.65864295
3	0x47380c63	47116.387
4	0x3fa68865	1.3010374
5	0x3efe289a	0.49640352
6	0x3f46e192	0.77687943
7	0x446bd728	943.3618
8	0x3ef61d2d	0.48069134
9	0x3f39f051	0.7263232
10	0x407c6864	3.9438715
11	0x3f1fc6db	0.62412804

weight f4 [32, 12]
0	0x3f24223b	0.6411473
1	0x3efec70b	0.49761233
2	0x3f29cb49	0.66325814
3	0x3d847413	0.06467452
4	0xbf6bd9b9	-0.92129093
5	0x3eeffcc5	0.46872535
6	0xbe866db6	-0.26255578
7	0xbe6cf5d2	-0.23140648
8	0xbe206a51	-0.15665556
9	0x3fc2d75f	1.5221976
10	0xbf7bf0a8	-0.9841409
11	0xbda7a912	-0.081865445
12	0x3e14fa1e	0.14548537
13	0xbe01da9c	-0.12681049
14	0x3ef10da2	0.47080714
15	0x3effd71e	0.4996881
16	0xbf14fa1f	-0.58194155
17	0xbea15820	-0.31512547
18	0x3f435c12	0.76312363
19	0x3ea53ac4	0.32271397
20	0x3edee059	0.4353054
21	0x3dbca2a1	0.092107065
22	0xbfc677a5	-1.5505263
23	0xbe84151a	-0.2579735
24	0x3cef5805	0.029216776
25	0x3ea12078	0.31470084
26	0xbf4865a6	-0.78280103
27	0x3cf393f2	0.029733632
28	0x3df18f0a	0.11794861
29	0xbfecf705	-1.8512884
30	0xbe9594cb	-0.29215083
31	0x3ee6b2d2	0.45058304
32	0x3e8243a4	0.2544223
33	0x3fa2cc5c	1.2718616
34	0x3e9db8a5	0.30804935
35	0xbf950259	-1.1641341
36	0x3f92da75	1.1472918
37	0x3d06f575	0.03294893
38	0x3dd1a773	0.102370165
39	0xbf7b444f	-0.98151106
40	0xbfa4e89a	-1.2883484
41	0x3b4a128c	0.0030833809
42	0xbc8bac5f	-0.017049966
43	0x3f16be3f	0.5888404
44	0x3ee36a20	0.44416904
45	0x3f80ee37	1.0072697
46	0xbdf7a565	-0.120920934
47	0xbf1a2ffa	-0.60229456
48	0xbfab8a6c	-1.3401618
49	0x3f5fab50	0.8737078
50	0x3f34c3ed	0.7061146
51	0x3f3adca7	0.7299294
52	0x3f319de3	0.6938154
53	0x3e885ad5	0.266318
54	0xbf224d26	-0.6339897
55	0x3fe554a9	1.7916461
56	0xbe90dbac	-0.28292596
57	0xbe6c1c09	-0.2305757
58	0x400868be	2.131393
59	0x3f97778e	1.183336
60	0xbf816d4f	-1.0111483
61	0x3fae3a2b	1.3611501
62	0xbe9d47b6	-0.30718774
63	0xbe97d9df	-0.2965841
64	0xbf14309f	-0.5788669
65	0x3ccce5e7	0.02501197
66	0xbf0fc003	-0.5615236
67	0x3e54bc36	0.20774922
68	0xbee11acd	-0.4396576
69	0xbedda8d7	-0.43292877
70	0xbf437ded	-0.7636402
71	0xbf74b362	-0.95586216
72	0xbf128efe	-0.5724944
73	0xbf0a5d9d	-0.5404909
74	0xbd9eaae8	-0.077474415
75	0xbe9547a8	-0.29156232
76	0x3e9b0472	0.3027683
77	0xbf9a6878	-1.2063131
78	0xbf2027c9	-0.6256071
79	0xbdad0fb2	-0.08450259
80	0x3ee0ee0d	0.43931618
81	0xbfc83b1c	-1.5643039
82	0xbf324b44	-0.69646096
83	0x3e919f63	0.28441915
84	0xbd54e90d	-0.051980067
85	0xbe9f7dee	-0.31150764
86	0xbe12be4d	-0.14330406
87	0xbf616f37	-0.88060325
88	0x3fc6d88e	1.5534837
89	0x3fba8981	1.4573213
90	0x3fbb2d10	1.4623127
91	0xbf1112d7	-0.5666937
92	0x3f4d5f7c	0.8022382
93	0x3fd34fb4	1.6508698
94	0xbf30927d	-0.68973523
95	0x3e03efc5	0.12884434
96	0x3f5189e4	0.8185103
97	0x3d4feb40	0.05076146
98	0x3e3328f2	0.17496088
99	0x3f65f805	0.8983157
100	0xbbcf1a02	-0.006320239
101	0x3e463674	0.1935671
102	0x3efc2ddb	0.49253735
103	0x3eefddb5	0.46848837
104	0x3f020603	0.50790423
105	0x3edbd9c9	0.42939594
106	0x3f3473ed	0.7048939
107	0x3f408a92	0.7521144
108	0x3faeb8b8	1.3650122
109	0xbdf5093f	-0.11964654
110	0x3d8ae0d4	0.06781164
111	0xbf82e375	-1.0225664
112	0xbd405f71	-0.04696602
113	0x3f215847	0.63025326
114	0x3f07cce7	0.5304703
115	0xbf7e9066	-0.99439085
116	0xbc1bd0b8	-0.009510212
117	0xbeeb0a5c	-0.4590634
118	0x3cb13add	0.021634514
119	0x3f1b4425	0.60650855
120	0xbe15ae5c	-0.14617294
121	0xbe4c86ba	-0.19973269
122	0xbec77492	-0.38956124
123	0x3f9bfe5d	1.2187
124	0x3eeacbb7	0.45858547
125	0xbec2dea3	-0.38060483
126	0xbe909bd4	-0.28243887
127	0xbe8690cb	-0.26282343
128	0xbf50329e	-0.81327236
129	0xbe1d8660	-0.15383291
130	0x3d9a5caf	0.07537209
131	0x3e82db7e	0.25558084
132	0xbe8b1f5a	-0.27172357
133	0xbdb6f3e9	-0.08933241
134	0xbe50de82	-0.2039738
135	0x3e439fd8	0.19103944
136	0x3f8c4f44	1.096169
137	0xbf3ba1d3	-0.732938
138	0xbe165080	-0.14679146
139	0xbe63520e	-0.2219927
140	0xbfbef6be	-1.491905
141	0xbd170aef	-0.03687566
142	0x3eeab614	0.4584204
143	0x3f033cb0	0.51264477
144	0xbee7bb04	-0.4525987
145	0x3f176066	0.5913147
146	0xbfc683dd	-1.5508991
147	0xbefbc159	-0.4917095
148	0xbf199306	-0.59989965
149	0xbf526ff1	-0.8220206
150	0x3d7641af	0.060121235
151	0xbed1405e	-0.4086942
152	0xbf177df1	-0.59176546
153	0x3f31cf9e	0.69457424
154	0x3eb7570f	0.35808608
155	0x3ef70bc8	0.48251176
156	0xbf04b000	-0.51831055
157	0x3ebbb54d	0.3666176
158	0x3f0e6dc7	0.55636257
159	0x3f05a65f	0.5220699
160	0x3f3a1e59	0.72702557
161	0x3f8855ec	1.0651221
162	0xbf292cc3	-0.66083926
163	0x3e39b8f3	0.18136959
164	0x3f2b2acf	0.66862196
165	0xbf0c3eff	-0.54783624
166	0xbf733b2c	-0.95012164
167	0x3e4fdf26	0.20299968
168	0x3eafc543	0.34330186
169	0x3d7a87ce	0.06116467
170	0x3f746e22	0.9548055
171	0xbf0c5473	-0.5481636
172	0xbfb550f1	-1.4165326
173	0xbf63fc3d	-0.8905676
174	0xbf818739	-1.0119392
175	0x3f21c9c0	0.6319847
176	0x3ebf929b	0.3741654
177	0x3eee142d	0.46499768
178	0x3ca5a8eb	0.020222148
179	0xbe4b2f21	-0.19842197
180	0x3df75f56	0.12078731
181	0xbf853fe3	-1.0410122
182	0x3f652e66	0.89523923
183	0x3f07aeaa	0.5300089
184	0xbf347191	-0.7048579
185	0x3f3639bd	0.7118185
186	0x3e35fe44	0.17772776
187	0x3e36c17b	0.17847244
188	0xbe88a725	-0.2669002
189	0xbf11c4c5	-0.5694087
190	0x3e7b914b	0.24567144
191	0xbf0a0efc	-0.53929114
192	0x3ee5463c	0.44780147
193	0xbe846e4a	-0.25865394
194	0x3f534a25	0.8253501
195	0x3f401e23	0.75045985
196	0xbf91f034	-1.1401429
197	0xbf69dc46	-0.91351736
198	0xbe16e91f	-0.14737366
199	0x3f98935d	1.1919972
200	0xbd617355	-0.05504163
201	0x3fe3d91d	1.7800633
202	0xbf6ae897	-0.91761154
203	0xbf046922	-0.5172292
204	0x3f8419b7	1.0320348
205	0x3d9d4611	0.0767938
206	0xbe03b950	-0.1286366
207	0xbf043424	-0.5164206
208	0x3e325d69	0.17418446
209	0xbf797299	-0.9744049
210	0xbea60f0e	-0.3243336
211	0x3eacbd23	0.3373805
212	0xbee63c2b	-0.4496778
213	0xbf77a3b6	-0.9673418
214	0x3ed52956	0.416331
215	0xbec26975	-0.37971082
216	0xbfa05778	-1.2526693
217	0x3f9a6bba	1.2064126
218	0xbe0a2e3a	-0.13494197
219	0x3edc3268	0.43007207
220	0x3d4f2320	0.050570607
221	0xbedf0e88	-0.43565774
222	0xbf0a61ac	-0.54055285
223	0xbf87d4c2	-1.0611804
224	0x3f2cd6d8	0.67515326
225	0x3f9223ce	1.1417177
226	0xbe3d2436	-0.18470845
227	0x3f53f192	0.8279048
228	0xbf9b7f34	-1.2148194
229	0xbe923055	-0.285525
230	0xbf36fe4d	-0.7148178
231	0xbe3145ce	-0.17311785
232	0xbf5a48ea	-0.8526751
233	0x3e6b7402	0.22993472
234	0xbfbe5bee	-1.4871805
235	0x3eb38e0b	0.35069308
236	0x3fdeca35	1.7405459
237	0x3ef3ca25	0.47615162
238	0x3f7c1733	0.984729
239	0x3f727fad	0.9472607
240	0xbe318bd0	-0.1733849
241	0x3e9a7b01	0.3017197
242	0x3f45fffa	0.77343714
243	0x3e7788df	0.24173306
244	0x3ee5637d	0.44802466
245	0x3ebbd700	0.3668747
246	0x3e8245ef	0.2544398
247	0xbede5fe2	-0.43432528
248	0xbd4a1a47	-0.049341466
249	0xbd829fb2	-0.06378116
250	0x3dafd305	0.08585171
251	0xbfd18c75	-1.6370989
252	0xbf01c304	-0.50688195
253	0xbee7addf	-0.4524984
254	0x3f3e4b87	0.74333996
255	0xbdd00b39	-0.101583906

weight f4 [32, 16]
0	0xbe972967	-0.29523775
1	0x3fb7aeb2	1.4350188
2	0x3ebe1318	0.37123942
3	0xbec3ea37	-0.3826463
4	0xbfb5f158	-1.4214277
5	0x3e591735	0.21200259
6	0x3f58a44f	0.84625715
7	0x3efc2556	0.49247235
8	0xbc915845	-0.017742286
9	0x3eb9af13	0.36266384
10	0x3dff7af4	0.12474623
11	0x3a670094	0.0008812037
12	0x3f356187	0.7085194
13	0xbe31f357	-0.17377983
14	0xbf08823d	-0.5332373
15	0x3fc15d1f	1.5106543
16	0x3f37d896	0.7181486
17	0xbe941c8d	-0.28928033
18	0x3f822a9b	1.0169252
19	0x3f9cab2c	1.2239738
20	0xbe9ba92e	-0.3040251
21	0xbf0246fd	-0.5088957
22	0xbebf8fde	-0.3741445
23	0xbe4e7a78	-0.20163906
24	0xbdc2422e	-0.09485279
25	0xbeae80a5	-0.34082523
26	0xbd7b2650	-0.061315835
27	0x3f226da3	0.6344854
28	0x3f2f1426	0.6839012
29	0x3f1ca403	0.6118776
30	0xbf2010c7	-0.625256
31	0x3dc3bad2	0.095571175
32	0xbeb80502	-0.3594132
33	0xbfc48256	-1.5352275
34	0xbfc8c4bb	-1.5685037
35	0xbfd5e2b4	-1.6709809
36	0x3e9bccd1	0.304297
37	0xbf884390	-1.0645618
38	0xbcd1e3f8	-0.0256214
39	0xbf3301f7	-0.69924873
40	0x3ead3b09	0.33834103
41	0x3f1394be	0.5764884
42	0xbef01568	-0.46891332
43	0xbfcdb258	-1.6070051
44	0x3fa2abd8	1.2708693
45	0x3f03c0f7	0.51466316
46	0x3f0f8fc9	0.56078774
47	0x3f32cbd4	0.6984227
48	0x3ea45883	0.3209878
49	0x3ebc4e4d	0.3677849
50	0xbedf880f	-0.43658492
51	0xbe9ad256	-0.302386
52	0x3f2fc973	0.6866676
53	0x3e8b90d6	0.2725894
54	0xbe19997c	-0.14999956
55	0x3f3e8a4d	0.7442978
56	0x3eb82fe7	0.35974047
57	0xbee3698d	-0.44416466
58	0xbe1bf319	-0.15229453
59	0x3e3df8cc	0.1855194
60	0xbee236bc	-0.44182384
61	0x39499912	0.00019225877
62	0xbdbce16a	-0.09222682
63	0xbf870157	-1.0547284
64	0x3dedb789	0.11607272
65	0x3df9e7a1	0.12202383
66	0xbefd9ebe	-0.49535173
67	0xbf3c48c9	-0.7354856
68	0x3cd2f9c7	0.025753869
69	0xbeed4779	-0.46343592
70	0x3f34d451	0.7063647
71	0x3f4a49d1	0.79018885
72	0x3fbe35c8	1.4860163
73	0x3e88319b	0.26600346
74	0xbf26fa67	-0.65225834
75	0xbe9add70	-0.30247068
76	0xbef3833b	-0.47561058
77	0xbf9c613f	-1.2217177
78	0xbec4dfab	-0.38451895
79	0x3f86f68d	1.0543991
80	0xbf33aadb	-0.7018258
81	0xbf671700	-0.9026947
82	0x3f077d0c	0.5292518
83	0x3e4b55f0	0.19857001
84	0xbfb02e3b	-1.3764108
85	0xbe237fe2	-0.15966752
86	0x3ec98f7d	0.39367285
87	0x3e80fc15	0.25192323
88	0xbf46557b	-0.7747418
89	0xbf84e77a	-1.0383141
90	0x3e8aa14d	0.27076188
91	0xbebd88e8	-0.37018514
92	0xbfdced3d	-1.7259899
93	0xbe75f4ae	-0.24019119
94	0x3d83a90d	0.06428728
95	0x3e50ad20	0.20378542
96	0xbec8cff0	-0.39221144
97	0x3e09442d	0.13404913
98	0xbe2c66c4	-0.16836077
99	0x3f89e3c8	1.0772638
100	0x3e173a5b	0.14768355
101	0x3f155f57	0.583486
102	0x3f3bcb07	0.7335667
103	0x3c97382b	0.0184594
104	0xbde5fd65	-0.11229972
105	0x3f2f658a	0.6851431
106	0x3e97c5cc	0.29643095
107	0x3f1efb31	0.6210204
108	0x3f2e90c5	0.6818965
109	0xbd863048	-0.06552178
110	0x3fbbd55b	1.4674486
111	0xbf494980	-0.7862778
112	0x3d8d46e1	0.06898285
113	0xbf644f7b	-0.8918378
114	0xbfb60551	-1.4220372
115	0xbfa0c89e	-1.2561224
116	0x3ed1a463	0.4094573
117	0xbf58559c	-0.8450563
118	0x3f08d776	0.5345377
119	0x3e45640a	0.19276443
120	0xbfb4868a	-1.4103558
121	0x3f49eda0	0.7887821
122	0xbf382afa	-0.7194058
123	0x3f807480	1.0035553
124	0xbf99b43a	-1.2008126
125	0xbcc5bbc2	-0.024137381
126	0xbf1894ba	-0.5960194
127	0xbdf330f2	-0.1187457
128	0xbf28a491	-0.6587611
129	0x3f446d34	0.7672913
130	0xbf346c77	-0.70478004
131	0x3d9469b2	0.07246722
132	0xbf95c8e3	-1.1701931
133	0x3fb7e42e	1.436651
134	0xbf7854cc	-0.9700439
135	0x3f272d77	0.6530375
136	0xbf4b654c	-0.7945144
137	0xbe4b1ffc	-0.1983642
138	0xbf55f8a1	-0.835825
139	0x3ee663a8	0.44997907
140	0x3f73b6e9	0.95200974
141	0xbd64eeac	-0.055891678
142	0x3e45e701	0.19326402
143	0x3e13ae8c	0.14422053
144	0xbeab2ce9	-0.334327
145	0xbe4e8813	-0.20169096
146	0xbfd15ffb	-1.6357416
147	0xbe151331	-0.14558102
148	0xbf46e2f6	-0.77690065
149	0x3f46513f	0.7746772
150	0xbf1be860	-0.6090145
151	0xbec42fa6	-0.38317603
152	0x3f51c1b2	0.8193618
153	0x3f7cde15	0.9877637
154	0xbf3e452e	-0.7432431
155	0xbf198869	-0.5997377
156	0xbec14cf5	-0.37754026
157	0xbf0a8301	-0.54106146
158	0x3e0b72f3	0.13618068
159	0xbee900e8	-0.45508504
160	0x3e99ddf0	0.30052137
161	0x3d06d305	0.032916088
162	0x3f86c320	1.0528297
163	0x3f23c307	0.63969463
164	0xbeeb0ca0	-0.4590807
165	0xbe0fca31	-0.14041974
166	0xbc5af0b5	-0.013363053
167	0x3e21c1cb	0.15796582
168	0xbeb2cecd	-0.349234
169	0xbf9d6684	-1.229691
170	0xbf9a0572	-1.2032912
171	0xbf8d8fdc	-1.1059527
172	0x3dd6dd85	0.1049147
173	0xbf19325b	-0.5984246
174	0x3e85ba74	0.26118815
175	0x3e5abcd4	0.21361095
176	0xbd8cf4ae	-0.068826064
177	0xbea4b7b0	-0.32171392
178	0xbf1b01e9	-0.6054979
179	0xbebcc353	-0.3686777
180	0xbfca3583	-1.579758
181	0x3ea7f15b	0.32801327
182	0xbf89dd76	-1.077071
183	0x3f6169ae	0.8805188
184	0x3f4adc20	0.79242134
185	0x3eec7a6c	0.4618715
186	0xbfcfc200	-1.6231079
187	0x3ebdb986	0.37055606
188	0xbf380570	-0.71883297
189	0xbf3af5f7	-0.7303156
190	0xbe7f7865	-0.2494827
191	0xbfb81b6e	-1.4383371
192	0x3d4537a7	0.048148777
193	0x3e29cb9a	0.16581574
194	0xbf4f5244	-0.809849
195	0x3c165e7c	0.0091778
196	0x3f2a6dcc	0.66573787
197	0xbf6ec4d9	-0.93269116
198	0xbec23bd0	-0.37936258
199	0xbf6b9298	-0.9202056
200	0x3f179b53	0.5922138
201	0xbf95f527	-1.171544
202	0xbe725017	-0.23663364
203	0x3eb97740	0.36223793
204	0xbf1eddbb	-0.62057084
205	0x3f2b20b3	0.6684677
206	0x3e79c0d4	0.24389964
207	0x3f9889fc	1.191711
208	0xbd82b067	-0.06381302
209	0xbf97418d	-1.181688
210	0xbdf3089a	-0.11866875
211	0x3f65c676	0.8975595
212	0xbefca74e	-0.49346393
213	0xbf9d32c6	-1.228112
214	0x3f8e838d	1.1133896
215	0x3f6c4459	0.9229179
216	0x3cca5196	0.024697106
217	0x3e8e96ad	0.27849331
218	0x3f10c292	0.5654689
219	0xbf6d8cbf	-0.92792886
220	0xbf8e8eab	-1.1137289
221	0x3c36bdd8	0.011153661
222	0x3e0a1848	0.13485825
223	0x3e87feaa	0.2656148
224	0xbeb82148	-0.35962892
225	0x3f168ddc	0.5881021
226	0x3de799d1	0.11308635
227	0xbe8e3fda	-0.2778309
228	0xbdf50115	-0.11963097
229	0xbf5964a2	-0.8491918
230	0xbefcbd02	-0.49362952
231	0x3d80533c	0.06265876
232	0x3ca0687a	0.019581068
233	0xbfa7fe1f	-1.3124427
234	0xbf9f1707	-1.2428902
235	0x3dd37f33	0.10326996
236	0x3e400935	0.18753512
237	0x3fb96a56	1.4485576
238	0x3f62e5e6	0.8863205
239	0x3efae3a4	0.490018
240	0xbebee0c0	-0.37280846
241	0xbe1a7ca3	-0.15086608
242	0x3f5cbeeb	0.8622882
243	0xbdf8c296	-0.12146489
244	0xbe354629	-0.17702545
245	0xbf6980a2	-0.91211903
246	0xbf8f9f03	-1.1220402
247	0xbf9ebc8b	-1.2401289
248	0x3e16e39d	0.14735265
249	0x3faf9a87	1.3719033
250	0xbd7e5c42	-0.062099703
251	0x3f802269	1.0010501
252	0x3ee3c407	0.44485494
253	0xbda202a0	-0.07910657
254	0x3fa4bfec	1.287107
255	0x3dc05169	0.09390528

weight f4 [32]
0	0x3f8d5dfd	1.1044308
1	0x3f6ba26a	0.920447
2	0x3f7bdd82	0.9838487
3	0x3f800a25	1.0003096
4	0x3f87ed6a	1.0619328
5	0x3f866ab9	1.0501319
6	0x3f79744d	0.97443086
7	0x3f89bc99	1.076068
8	0x3f6bbeae	0.9208783
9	0x3f8ac1c7	1.0840386
10	0x3f8c6ebd	1.0971295
11	0x3f7ea0c9	0.9946409
12	0x3f81da34	1.0144715
13	0x3f6c26d6	0.9224676
14	0x3f80da06	1.0066535
15	0x3f832063	1.0244259
16	0x3f7e6800	0.9937744
17	0x3f81f143	1.0151752
18	0x3f92a8c2	1.1457751
19	0x3f78d5c7	0.972012
20	0x3f685907	0.90760845
21	0x3f804a5a	1.002269
22	0x3f65bc70	0.8974066
23	0x3f812dc2	1.0092089
24	0x3f810fa4	1.0082898
25	0x3f8cad40	1.0990372
26	0x3f8a8992	1.0823233
27	0x3f727fcb	0.94726247
28	0x3f77482e	0.9659451
29	0x3f78d058	0.9719291
30	0x3f93c3b1	1.1544095
31	0x3f83a78c	1.0285506

bias f4 [32]
0	0xbcff9d43	-0.031202918
1	0xbddabe20	-0.10680795
2	0x3c118eaa	0.008884111
3	0x3e14dd20	0.14537477
4	0xbdb29d94	-0.08721462
5	0xbd4f5a12	-0.050623007
6	0x3d9886a9	0.074475594
7	0xbdba18d4	-0.09086767
8	0x3d0b6fbe	0.034042113
9	0xbd8d9b4b	-0.069143854
10	0xbd526487	-0.0513654
11	0x3daeef28	0.08541709
12	0x3d39492f	0.04523581
13	0xbcd6ac31	-0.026205154
14	0xbc99e3ff	-0.018785475
15	0xbca933fc	-0.02065467
16	0x3e00b23e	0.12567994
17	0xbd8f5a3f	-0.06999635
18	0xbd28fee7	-0.04125872
19	0xbd20ccee	-0.039257936
20	0x3db2d07c	0.087311715
21	0x3d90c005	0.07067875
22	0x3bc83ba5	0.006110626
23	0x3d319e60	0.04336393
24	0xbd24f98e	-0.040277056
25	0x3d86be39	0.06579251
26	0x3db85e12	0.090023175
27	0xbba13c7e	-0.0049205413
28	0x3d160a87	0.036631133
29	0xbd599f81	-0.05313063
30	0xbd8b9add	-0.06816647
31	0x3c3770ac	0.011196297

running_mean f4 [32]
0	0xbd080f7a	-0.033217885
1	0xbddfacea	-0.109216526
2	0xbddcb902	-0.10777475
3	0xbe9ba47d	-0.30398932
4	0xbe8ac220	-0.2710123
5	0xbdc372b4	-0.09543362
6	0xbe2977c8	-0.16549599
7	0x3e8ef999	0.27924803
8	0xbc1e2b8a	-0.009653935
9	0x3e97483f	0.29547307
10	0x3e87ed35	0.26548162
11	0x3ee1fbd2	0.44137436
12	0x3e89a914	0.2688681
13	0xbe47f689	-0.1952764
14	0xbf059ab9	-0.52189213
15	0xbe365be8	-0.17808497
16	0xbeb4213f	-0.35181615
17	0x3d40add5	0.04704078
18	0x3d4d04fe	0.05005359
19	0xbf2ca579	-0.6743999
20	0x3c990870	0.018680781
21	0xbe891cfe	-0.26779932
22	0xbde5be41	-0.11217929
23	0x3d11d295	0.035601217
24	0xbe7f1f7c	-0.24914354
25	0x3e2d7502	0.16939166
26	0xbec51dea	-0.38499385
27	0x3e75df44	0.2401095
28	0x3d89fda6	0.06737833
29	0xbcd9215f	-0.02650517
30	0x3df7111d	0.12063811
31	0x3ed9bf85	0.4252893

running_var f4 [32]
0	0x4083cb25	4.118548
1	0x4048c429	3.1369727
2	0x404bd23f	3.1847074
3	0x408c6724	4.3875904
4	0x418c415d	17.531916
5	0x40ddf4db	6.9361396
6	0x409c9a17	4.89381
7	0x416269cc	14.150829
8	0x40a434cd	5.1314454
9	0x4085a57a	4.17645
10	0x3fe89433	1.8170227
11	0x404b70b5	3.178754
12	0x40b38fb5	5.6112924
13	0x40a06563	5.0123763
14	0x405bafd1	3.432606
15	0x40423a5f	3.0348127
16	0x40d31619	6.5964475
17	0x40c64d98	6.196972
18	0x40f712bc	7.721037
19	0x4083efd2	4.123025
20	0x3ff69e0f	1.9266986
21	0x4010a0d6	2.2598166
22	0x40d15744	6.5419025
23	0x40ed9c20	7.425308
24	0x410c0040	8.750061
25	0x4053f655	3.31191
26	0x4121527e	10.08264
27	0x40b2f2e3	5.5921493
28	0x40eaf7cc	7.3427486
29	0x40bd5443	5.916536
30	0x409b6769	4.8563733
31	0x4097c30b	4.742559

weight f4 [32]
0	0x3f89fe19	1.078067
1	0x3f6dfc83	0.9296343
2	0x3f64e8e1	0.89417845
3	0x3f8450a1	1.0337106
4	0x3f85761e	1.0426672
5	0x3f8c154d	1.0944
6	0x3f7a370e	0.97740257
7	0x3f82f724	1.0231671
8	0x3f91defb	1.1396173
9	0x3f6f7122	0.93532
10	0x3f6731d3	0.903104
11	0x3f93ae25	1.153752
12	0x3f82afed	1.0209938
13	0x3f88acf6	1.0677783
14	0x3f866f12	1.0502646
15	0x3f85c425	1.0450484
16	0x3f7cc507	0.9873814
17	0x3f84860f	1.0353411
18	0x3f854477	1.0411519
19	0x3f767d6e	0.9628514
20	0x3f91464e	1.134958
21	0x3f87a593	1.0597404
22	0x3f8c6166	1.0967224
23	0x3f64ea31	0.8941985
24	0x3f6ea37e	0.9321822
25	0x3f723cda	0.946241
26	0x3f70c748	0.9405408
27	0x3f88fec8	1.0702753
28	0x3f5e837f	0.869194
29	0x3f840461	1.0313836
30	0x3f79e282	0.9761125
31	0x3f7d7e01	0.9902039

bias f4 [32]
0	0x3d0ef8e8	0.034905344
1	0x3d098046	0.033569597
2	0x3d4ec0e8	0.05047694
3	0xbd1fcdb0	-0.03901452
4	0x3d619173	0.05507035
5	0x3d98391e	0.07432769
6	0x3e0fa598	0.14028013
7	0xbd84998b	-0.064745985
8	0x3d3ec7a8	0.046577126
9	0x3da1a23f	0.07892274
10	0x3c9c4e42	0.019080285
11	0xbdca7fef	-0.09887683
12	0xbc97778c	-0.018489622
13	0x3d81dbfb	0.06340786
14	0x3d78d234	0.06074734
15	0x3cbbe7c3	0.022937661
16	0x3ddfe410	0.10932171
17	0xbdf55edb	-0.11980983
18	0xbd4db5aa	-0.050222076
19	0x3b988f0f	0.004655726
20	0x3d9c48ac	0.076310486
21	0x3da47a37	0.08031123
22	0xbd9c8e1f	-0.07644295
23	0x3d62e453	0.05539353
24	0x3e0836f2	0.1330221
25	0xbd76f083	-0.060287964
26	0xbdd32836	-0.10310404
27	0x3df4b57f	0.1194868
28	0x3d85da42	0.0653577
29	0x3d8cefe7	0.06881695
30	0x3d8d7646	0.069073245
31	0x3d292924	0.041299

running_mean f4 [32]
0	0xbed36c46	-0.41293544
1	0x3e5c98ad	0.21542616
2	0xbe85d680	-0.26140213
3	0xbd51bade	-0.0512036
4	0xbe2b6913	-0.16739301
5	0x3eb8766f	0.36027858
6	0x3ca4ddd3	0.020125305
7	0x3ecce95f	0.40021798
8	0xbeb5f904	-0.35541546
9	0xbdba18ae	-0.090867385
10	0x3e2249c4	0.15848452
11	0x3e014f38	0.12627876
12	0xbc940b8d	-0.018071914
13	0x3e369761	0.17831184
14	0xbe7cf849	-0.24704088
15	0x3e037744	0.12838465
16	0x3e37c7cb	0.17947309
17	0x3d9c0239	0.076176114
18	0x3ed0ef45	0.40807548
19	0xbe8d6f4a	-0.2762397
20	0xbdc64091	-0.09680284
21	0xbdf65d7c	-0.120295495
22	0xbe9abc8b	-0.30221972
23	0x3e3345d6	0.17507109
24	0xbb55a3e8	-0.0032598916
25	0xbe4e17a8	-0.20126212
26	0xbd6e8fc0	-0.05824256
27	0x3ddea8d0	0.10872042
28	0xbe986649	-0.29765537
29	0xbedba338	-0.42897964
30	0x3e2f2aad	0.17106123
31	0x3e008bf8	0.12553394

running_var f4 [32]
0	0x4000d510	2.0130043
1	0x3f81a168	1.0127382
2	0x4076d03d	3.8564599
3	0x3ff6e1db	1.9287676
4	0x3fed97d8	1.8561964
5	0x3fb0b114	1.380404
6	0x404708e8	3.1099186
7	0x404ac961	3.1685412
8	0x402b3ab0	2.675457
9	0x404fa171	3.2442286
10	0x404be3a9	3.1857703
11	0x4064a778	3.5727215
12	0x408ec95f	4.4620814
13	0x3fa8e485	1.3194739
14	0x402807cb	2.6254756
15	0x404655d1	3.0989878
16	0x3f6f5c19	0.93499905
17	0x3f0a4c8d	0.5402306
18	0x4007c639	2.1214736
19	0x3fa437de	1.2829549
20	0x3faaed48	1.3353662
21	0x3febfa23	1.8435711
22	0x3f4d8b0d	0.802903
23	0x4000c325	2.0119107
24	0x402ae18b	2.670016
25	0x405a1899	3.4077513
26	0x40b68d6f	5.704765
27	0x40265ff8	2.5996075
28	0x40a2067b	5.063291
29	0x403e05b1	2.9690974
30	0x40338bf3	2.8054168
31	0x3fc8aa79	1.5677024

weight f4 [32, 16]
0	0x3e830bf0	0.25595045
1	0x3e785acb	0.24253385
2	0xbf3d13f8	-0.73858595
3	0x3de3a219	0.11114902
4	0xbf8701d4	-1.0547433
5	0xbf41f291	-0.7576075
6	0xbecba733	-0.39776
7	0xbfb5c355	-1.4200236
8	0x3de70aea	0.112813786
9	0xbd7adf62	-0.06124819
10	0xbf8562ca	-1.0420773
11	0x3ee2ebad	0.4432043
12	0xbf65e837	-0.89807457
13	0x3f3f1877	0.74646705
14	0x3f580220	0.8437824
15	0x3f0756b7	0.5286669
16	0xbf17e8d3	-0.59339637
17	0xbf7f3884	-0.9969561
18	0xbf80cdfe	-1.0062864
19	0x3e7b87de	0.24563548
20	0x3d707496	0.058704935
21	0x3f4adabf	0.7924003
22	0xbf490a5c	-0.7853143
23	0xbf4c03c4	-0.79693246
24	0xbdbd3cb8	-0.09240097
25	0xbfb1d488	-1.3892984
26	0xbf96f862	-1.179455
27	0x3f3ef3a4	0.74590516
28	0x3e02b34a	0.12763706
29	0x3e735098	0.23761213
30	0x3e342ec4	0.17595965
31	0xbf8fb2e4	-1.1226468
32	0xbf2fed44	-0.68721414
33	0x3ffa7e5a	1.956981
34	0xbf147400	-0.579895
35	0xbe41aa83	-0.18912701
36	0x3f03ea01	0.51528937
37	0x3e6443cf	0.22291492
38	0xbf2643bd	-0.6494711
39	0xbfcf6048	-1.6201258
40	0x3d9e093d	0.07716606
41	0xbf6b1e52	-0.9184314
42	0xbe36116d	-0.17780085
43	0x3eb9c373	0.36281928
44	0xbf3342a6	-0.7002357
45	0x3f0d5eaf	0.552226
46	0x3cae4b03	0.021276003
47	0xbfaf36ba	-1.3688576
48	0xbf5b7c56	-0.85736597
49	0xbe74b8ee	-0.2389867
50	0x3f5195a5	0.81868964
51	0x3f13f273	0.57791823
52	0x3f281b6e	0.65666854
53	0xbf6b5051	-0.9191943
54	0xbe814943	-0.25251207
55	0xbfa833c2	-1.3140795
56	0x3f405f82	0.75145733
57	0xbd7b51c8	-0.06135729
58	0xbecb511a	-0.39710313
59	0x3ec0b46a	0.37637645
60	0x3f8e2361	1.1104547
61	0xbeaea6ab	-0.34111533
62	0x3f908dc7	1.1293267
63	0xbebad9eb	-0.36494383
64	0xbfc5dc60	-1.5457878
65	0x3f2b41a4	0.66897035
66	0x3ddf0670	0.108899
67	0xbc6311b2	-0.013859199
68	0x3fcf9fa6	1.6220596
69	0xbe844e5f	-0.25841042
70	0xbe88f6c2	-0.2675076
71	0xbf0c73da	-0.54864275
72	0xbf2f9e8f	-0.68601316
73	0x3eaa0d5b	0.33213314
74	0xbe8c841d	-0.27444544
75	0xbf06e71b	-0.5269639
76	0xbf3d89f6	-0.74038637
77	0xbf22149b	-0.6331269
78	0x3f002d2d	0.5006893
79	0x3f86e096	1.0537288
80	0x3f645dbb	0.8920552
81	0x3e315028	0.17315733
82	0xbf47fb62	-0.78117955
83	0x3cadf090	0.021232873
84	0x3f0daa98	0.5533843
85	0xbe118517	-0.14210926
86	0x3ea658ee	0.32489723
87	0x3ea87706	0.32903308
88	0x3ecf100b	0.40441927
89	0xbf2facc6	-0.68623006
90	0x3f21fcc2	0.632763
91	0xbdbc1da2	-0.091853395
92	0xb9df9cbb	-0.00042650648
93	0xbf908732	-1.1291258
94	0x3f40fe00	0.75387573
95	0x3efe78d8	0.4970157
96	0x3f8c2cf2	1.0951216
97	0xbf36bc45	-0.71381027
98	0x3e92bc35	0.28659216
99	0x3f905974	1.1277299
100	0xbf51e461	-0.81989104
101	0xbec89289	-0.39174297
102	0xbdff1fef	-0.12457263
103	0x3e86b4cf	0.2630982
104	0x3fe065d3	1.7531074
105	0x3ed6b7e1	0.41937163
106	0x3e6fa2c2	0.23401931
107	0x3d17c935	0.03705712
108	0xbcaf9e5b	-0.021437814
109	0x3f3f5142	0.74733365
110	0xbf0d2944	-0.5514109
111	0x3defcbb4	0.11708775
112	0x3ae3c9ad	0.001737883
113	0xbf67461c	-0.90341353
114	0x3e8d28e7	0.2757027
115	0x3e9e31ce	0.30897373
116	0xbf6d6273	-0.92728347
117	0xbe3b3c58	-0.18284738
118	0x3d31c200	0.043397903
119	0xbf672d69	-0.90303665
120	0xbf0bce17	-0.54611343
121	0x3f17a102	0.59230053
122	0x3e18e38f	0.14930557
123	0x3f8fd6e0	1.123745
124	0xbea02fea	-0.31286556
125	0xbdf2e958	-0.11860913
126	0xbcbc8785	-0.02301384
127	0xbf1d6d6c	-0.6149509
128	0xbf145b5a	-0.5795189
129	0xbe8834fe	-0.2660293
130	0xc002b291	-2.0421488
131	0x3f54f4f8	0.8318629
132	0x3fa8ccea	1.3187535
133	0x3f0eb0c9	0.557385
134	0xbf05af1c	-0.5222032
135	0xbf1e20a6	-0.6176857
136	0xbf2915a1	-0.6604863
137	0xbf8bb16b	-1.0913519
138	0x3f00c15c	0.50295043
139	0x3fc67c10	1.5506611
140	0x3f8b33cb	1.0875181
141	0x3cbaa3ad	0.022783125
142	0x3ed752d7	0.4205539
143	0x3e7a9073	0.24469166
144	0x3eec8e5c	0.46202362
145	0xbeaa839f	-0.33303544
146	0x3f4acb8e	0.7921685
147	0xbf6f532f	-0.93486303
148	0xbf27258b	-0.6529166
149	0xbee07515	-0.43839327
150	0x3f29615f	0.661642
151	0xbd8bc955	-0.068255104
152	0x3e72e3e9	0.23719753
153	0x3e889c68	0.26681828
154	0xbe4797ee	-0.1949155
155	0xbf2471bb	-0.6423604
156	0xbea80b54	-0.32821143
157	0x3e5e9c08	0.21739209
158	0xbfa30c42	-1.2738116
159	0x3f1a9911	0.6038981
160	0x3fa29ec5	1.2704703
161	0xbf237ffe	-0.63867176
162	0x3edf09b1	0.4356208
163	0xbd964cbb	-0.07338854
164	0x3ee485b6	0.44633263
165	0xbd0047ad	-0.031318355
166	0x3f8652bb	1.0493997
167	0xbcbd7216	-0.02312569
168	0x3e717a98	0.23581922
169	0x3f4651bc	0.77468467
170	0xbf58b32b	-0.8464839
171	0x3f70d57a	0.9407574
172	0xbdcc6aea	-0.0998133
173	0x3fc5f2d6	1.5464733
174	0x3e6e774b	0.23287694
175	0xbe9b0edd	-0.30284777
176	0x3dd89965	0.10576133
177	0xbf596d8d	-0.84932786
178	0x3f2bd649	0.6712385
179	0xbf2a58fd	-0.66542035
180	0xbd94ab92	-0.07259287
181	0x3df3b33f	0.11899423
182	0x3f60297b	0.87563294
183	0xbf3be9fb	-0.734039
184	0x3ebe9ac3	0.3722745
185	0x3e1eae1d	0.15496106
186	0x3d884e73	0.06655588
187	0xbf0ec159	-0.55763775
188	0xbe0cb13e	-0.13739488
189	0xbd5d6da1	-0.05405963
190	0x3f093916	0.5360273
191	0x3ebfb681	0.37443927
192	0xbea1f756	-0.31634015
193	0x3ef051ec	0.469375
194	0xbe725a43	-0.23667245
195	0x3f6b22da	0.91850054
196	0x3f1974fa	0.5994412
197	0x3e2812ea	0.16413465
198	0xbed258fc	-0.41083515
199	0xbf515ccf	-0.8178224
200	0x3f951f1a	1.1650116
201	0x3fd0b71e	1.6305883
202	0xbe41c661	-0.18923332
203	0xbf103eda	-0.56345904
204	0x3f8225e3	1.0167812
205	0xbfa8f8af	-1.3200892
206	0x3e17ad07	0.14812098
207	0xbf96af7f	-1.1772307
208	0xbf99d86d	-1.2019173
209	0xbefcc13e	-0.49366182
210	0x3dc28489	0.09497935
211	0x3e885847	0.2662985
212	0xbdb12fdf	-0.08651709
213	0x3e5aecc1	0.21379377
214	0x3eeda345	0.46413627
215	0x3efe02d9	0.49611548
216	0x3f5dff51	0.86717707
217	0xbf589ffd	-0.8461912
218	0x3e46be3c	0.19408506
219	0x3f1d0eab	0.61350507
220	0xbf5ae8aa	-0.8551127
221	0x3d6fb451	0.058521573
222	0xbf67cd4e	-0.90547645
223	0x3ea4c481	0.3218117
224	0x3d8ae5c6	0.06782107
225	0xbeff7937	-0.49897167
226	0xbf8180ad	-1.0117394
227	0x3e6c2787	0.23061953
228	0x3f342c4a	0.7038008
229	0x3f8b83cd	1.0899597
230	0x3f863f93	1.0488151
231	0xbe14b47c	-0.14521974
232	0x3f3f25b3	0.746669
233	0xbf4bf929	-0.79677063
234	0x3dfe28f9	0.12410159
235	0x3e8d5b97	0.2760894
236	0x3eb64e69	0.35606697
237	0x3eccf944	0.40033925
238	0x3fbfb4db	1.4977068
239	0x3eb85f72	0.3601032
240	0x3e29939f	0.16560219
241	0xbe6defc1	-0.2323599
242	0x3f632cb9	0.88740116
243	0x3f6118d2	0.879285
244	0x3f0c2ab5	0.54752666
245	0xbf52d8a7	-0.82361835
246	0xbf5087c7	-0.8145718
247	0xbf24403e	-0.64160526
248	0x3ea869b4	0.32893145
249	0xbd92b993	-0.07164302
250	0xbe3155a2	-0.17317823
251	0xbf81d2b9	-1.0142432
252	0x3df2321c	0.11825964
253	0x3eb322f6	0.3498761
254	0x3bf6a6ed	0.0075272233
255	0x3f605b55	0.8763936

weight f4 [32]
0	0x3f75f4e5	0.96076804
1	0x3f7f2c24	0.9967673
2	0x3f6cb3d3	0.9246189
3	0x3f6d52c2	0.92704403
4	0x3f780ed5	0.9689763
5	0x3f85cbed	1.0452858
6	0x3f8c5b8f	1.0965441
7	0x3f73945d	0.9514826
8	0x3f5893f4	0.8460076
9	0x3f6d752c	0.92756915
10	0x3f88abdd	1.0677449
11	0x3f620b1f	0.8829822
12	0x3f66143e	0.8987464
13	0x3f67b86c	0.9051578
14	0x3f8ce712	1.1008017
15	0x3f88a6b2	1.0675871
16	0x3f673c24	0.9032614
17	0x3f873dbd	1.0565716
18	0x3f7a4556	0.9776205
19	0x3f7b6653	0.9820301
20	0x3f819859	1.0124618
21	0x3f6730bf	0.90308756
22	0x3f721a7e	0.94571674
23	0x3f7fc029	0.9990259
24	0x3f75944c	0.9592941
25	0x3f6c4dd0	0.9230623
26	0x3f65bcb7	0.8974108
27	0x3f8e4e87	1.1117715
28	0x3f80d19e	1.006397
29	0x3f8bcf2d	1.09226
30	0x3f838c02	1.0277102
31	0x3f8348d5	1.0256602

bias f4 [32]
0	0x3dc96bf4	0.098350435
1	0xbd4be1f7	-0.049776044
2	0xbd6fb3c5	-0.05852105
3	0xbd467cd4	-0.04845889
4	0x3d42ec89	0.04758886
5	0x3d03934d	0.0321229
6	0x3d2ee4a9	0.042698536
7	0xbd92ad66	-0.071619794
8	0x3ca2599f	0.019818125
9	0xbdbec106	-0.0931416
10	0xbcf0eb14	-0.029408969
11	0x3e02a84d	0.12759514
12	0xbe32645d	-0.17421098
13	0xbd941d5f	-0.072321646
14	0xbd5d2a43	-0.053995382
15	0x3d1e2539	0.038609717
16	0xbd3d9998	-0.046289057
17	0xbd001ec1	-0.03127933
18	0xbda62b1b	-0.081136905
19	0xbd1864ca	-0.037205495
20	0xbd848aa6	-0.064717576
21	0x3d917cad	0.07103858
22	0x3e011c57	0.12608467
23	0x3c4ab095	0.012371202
24	0xbe1d8425	-0.1538244
25	0xbdae4532	-0.08509292
26	0x3d9ae975	0.0756406
27	0xbddc9e9b	-0.10772439
28	0xbddfe247	-0.10931831
29	0xbd857350	-0.06516135
30	0x3dea74b3	0.1144804
31	0x3dcc8241	0.099857815

running_mean f4 [32]
0	0x3e348e15	0.17632325
1	0x3e8ddc27	0.27707025
2	0x3cd58811	0.026065858
3	0x3c6ed4dc	0.014577117
4	0xbea51e4c	-0.32249677
5	0x3d6742a3	0.056460034
6	0x3df97a47	0.12181526
7	0x3ed5a221	0.41725257
8	0x3e936098	0.28784633
9	0x3d92dd9d	0.07171176
10	0x3e576e17	0.2103809
11	0x3e163683	0.14669232
12	0xbe483697	-0.19552074
13	0x3e30b463	0.17256312
14	0x3e41ce2a	0.18926302
15	0xbe3a4bfd	-0.1819305
16	0x3d7635cc	0.0601099
17	0x3d925576	0.07145207
18	0x3d1352dd	0.035967696
19	0xbd6b370a	-0.057425536
20	0x3d36e1f1	0.04464907
21	0x3d839cc1	0.06426383
22	0x3e168709	0.1469995
23	0x3e460b94	0.19340354
24	0xbea0be01	-0.3139496
25	0xbb98066a	-0.0046394365
26	0x3c5263f7	0.012841216
27	0x3e691349	0.22761263
28	0x3cf6351a	0.030054618
29	0xbc0edeea	-0.008720139
30	0x3e088712	0.13332775
31	0xbd6bab8d	-0.05753665

running_var f4 [32]
0	0x3fcb89f1	1.5901471
1	0x4015e816	2.3422904
2	0x40484e0b	3.1297634
3	0x3ff1ace6	1.888089
4	0x40586da1	3.3816912
5	0x3fa47713	1.2848839
6	0x3fefd657	1.8737286
7	0x3fcda327	1.6065415
8	0x405c3e1d	3.441291
9	0x4009d5d1	2.1536753
10	0x3fe54210	1.7910786
11	0x3ff70c7a	1.9300683
12	0x4037493d	2.863845
13	0x3faa4fda	1.3305619
14	0x401172f7	2.272642
15	0x3fe3af8f	1.7787951
16	0x3fbf86cf	1.4963015
17	0x4001f7a2	2.0307393
18	0x40215eae	2.5214038
19	0x3f26c227	0.6514
20	0x3f65367d	0.8953627
21	0x3fc453c8	1.5338068
22	0x4049bea0	3.1522598
23	0x4016cc77	2.3562295
24	0x4023f182	2.5616155
25	0x3fbe755b	1.4879564
26	0x409e9f99	4.956982
27	0x3f8cc256	1.0996807
28	0x4035e321	2.8419878
29	0x4003ed42	2.061356
30	0x3fc6b25c	1.5523181
31	0x3fb0660f	1.3781146

weight f4 [32, 16]
0	0x3d3e6d51	0.04649097
1	0x3e4a7732	0.19772032
2	0xbf4370d6	-0.7634405
3	0x3e5a2bbb	0.21305744
4	0x3f36d901	0.7142487
5	0xbdac5a52	-0.08415665
6	0xbd97d281	-0.07413197
7	0x3f25ed5d	0.6481531
8	0xbebd4999	-0.36970213
9	0x3eafafad	0.34313717
10	0xbf5d0a5b	-0.86343926
11	0x3fb911ea	1.4458592
12	0xbef28075	-0.4736363
13	0x3db9e668	0.0907715
14	0x3d69182d	0.05690782
15	0x3e86eca1	0.2635241
16	0xbd06776e	-0.03282874
17	0xbf049fcd	-0.51806337
18	0xbe8f4a90	-0.27986574
19	0x3c11e6db	0.008905138
20	0xbdf6efaa	-0.12057431
21	0xbeffe202	-0.49977118
22	0xbf1c2525	-0.6099418
23	0xbf551c06	-0.83245885
24	0x3e6a988e	0.22909757
25	0xbf34104c	-0.7033737
26	0xbf63b590	-0.8894892
27	0xbf9b337e	-1.2125089
28	0x3e65ab9e	0.22428748
29	0xbf4c2955	-0.7975057
30	0x3edcec93	0.43149242
31	0xbf709ff9	-0.939941
32	0xbeecb2de	-0.46230215
33	0xbe385bfe	-0.18003842
34	0x3de245ec	0.11048493
35	0x3ec55251	0.38539365
36	0xbe6ebe56	-0.23314795
37	0x3ecd07a1	0.40044883
38	0xbf26cdcf	-0.6515779
39	0xbef87417	-0.4852607
40	0xbc47f135	-0.012203504
41	0x3e8d1938	0.27558303
42	0xbe93b164	-0.28846276
43	0x3e7438e9	0.23849835
44	0x3f08df84	0.5346606
45	0x3f55422b	0.8330409
46	0xbe88369b	-0.2660416
47	0xbdac04fd	-0.08399389
48	0xbe987373	-0.2977558
49	0xbf9aa7b3	-1.2082428
50	0x3e75e7f8	0.2401427
51	0xbf3ef254	-0.74588513
52	0x3e1c7d9b	0.1528229
53	0x3faa1682	1.3288119
54	0x3e26dddf	0.16295575
55	0xbf3183cc	-0.6934173
56	0x3f3d9af9	0.74064595
57	0xc001602c	-2.0214949
58	0xbf0f1137	-0.5588564
59	0x3d4d243c	0.050083384
60	0xbf7bf58a	-0.9842154
61	0xbf5a41aa	-0.85256445
62	0x3fb8d700	1.4440613
63	0x3f13dde7	0.5776047
64	0xbe4fb2b5	-0.20283015
65	0x3f79accd	0.975293
66	0x3f98412a	1.1894886
67	0x3f37c214	0.71780515
68	0xbf6c5f23	-0.9233267
69	0x3e072470	0.13197494
70	0xbf401842	-0.75037014
71	0x3fb438ea	1.4079869
72	0xbdccab50	-0.09993613
73	0x3d563cc1	0.052304033
74	0x3f399210	0.724885
75	0x3caaa4b6	0.020830493
76	0xbdf63b11	-0.12022985
77	0xbf83d3f9	-1.0299064
78	0x3ea906fd	0.33013144
79	0xbeec743c	-0.4618243
80	0x3e955c51	0.29171994
81	0x3eb3ce42	0.351183
82	0x3fda2bd0	1.704462
83	0xbf22549c	-0.63410354
84	0xbe9a1127	-0.3009121
85	0x3ceec949	0.029148715
86	0xbec4d9ff	-0.38447568
87	0x3f3347a9	0.7003122
88	0xbf2a50a1	-0.6652928
89	0x3f64c3a8	0.8936105
90	0x3ea856e2	0.32878786
91	0xbf7f8c15	-0.99823123
92	0x3f417a69	0.7557741
93	0x3fffd880	1.9987946
94	0xbe8dfd43	-0.27732286
95	0x3f5156c4	0.8177302
96	0xbf7f0435	-0.99615794
97	0x3f2c4024	0.6728537
98	0xbf2099e5	-0.62734824
99	0x3c054c09	0.008135804
100	0x3f19f9fa	0.6014706
101	0x3f292940	0.6607857
102	0x3e8ca4ea	0.2746957
103	0x3ff7cbe4	1.9359097
104	0x3fb4e77c	1.4133143
105	0xbec937d1	-0.39300397
106	0x3e170c2a	0.14750734
107	0xbfca6ba0	-1.5814095
108	0xbf4f9dbe	-0.8110007
109	0x3f2f1b8e	0.6840142
110	0x3ef3e461	0.47635177
111	0x3d8ae286	0.06781487
112	0x3f14fdc6	0.5819973
113	0x3fbb8572	1.4650099
114	0x3e8d7b30	0.27633047
115	0x3f0a26fd	0.5396574
116	0xbe952712	-0.2913137
117	0xbf7b1d9a	-0.98092043
118	0xbec67a95	-0.38765398
119	0xbe7d5c0f	-0.24742149
120	0x3fa383e7	1.2774628
121	0xbf375718	-0.7161727
122	0x3f0d72a8	0.55253077
123	0x3d6ae858	0.057350487
124	0x3f63bffa	0.8896481
125	0xbf35bbd2	-0.70989716
126	0xbf68b677	-0.9090342
127	0xbf2a511e	-0.66530025
128	0x3e0f9bf4	0.14024335
129	0x3e92b9af	0.2865729
130	0x3d171683	0.036886703
131	0x3e2a5f82	0.16637996
132	0xbed47097	-0.4149215
133	0xbed54c61	-0.41659835
134	0x3f349d48	0.7055249
135	0xbcc32f37	-0.023826225
136	0x3eb3b38f	0.3509793
137	0x3f176ef1	0.5915366
138	0x3f0e27d0	0.555295
139	0x3ef93aca	0.48677665
140	0x3dd65237	0.104649
141	0xbf48444b	-0.78229207
142	0x3ebe3d6b	0.37156233
143	0xbdde0a61	-0.10841823
144	0x3f225385	0.6340869
145	0xbd59bcca	-0.05315856
146	0xbef444fa	-0.47708875
147	0x3ef9be07	0.48777792
148	0x3f3cbbb3	0.73723906
149	0x3ebe3f42	0.37157637
150	0x3f64105e	0.89087474
151	0x3fd50896	1.6643245
152	0xbebf18f0	-0.37323713
153	0x3f152e0d	0.5827339
154	0xbf1ecce9	-0.6203142
155	0x3e2ecb97	0.17069851
156	0xbea97739	-0.33098772
157	0xbd820685	-0.063489
158	0x3e85c11f	0.26123902
159	0x3f11e144	0.56984353
160	0x3e6bee20	0.23040056
161	0x3dded358	0.10880154
162	0x3d883a71	0.06651772
163	0xbf52b68d	-0.823098
164	0xbd056075	-0.03256269
165	0xbf1d9827	-0.6156029
166	0xbf041034	-0.51587224
167	0x3e51d79c	0.20492405
168	0x3d56f5e6	0.0524806
169	0xbf65ebe0	-0.8981304
170	0x3f15412e	0.5830258
171	0x3ef63668	0.48088384
172	0xbf4ecd05	-0.80781585
173	0x3f2fe299	0.68705136
174	0x3eadd845	0.33954063
175	0x3ecd74fe	0.4012832
176	0xbddce7c6	-0.10786395
177	0x3eac8f5e	0.3370313
178	0xbf03579d	-0.5130556
179	0xbf9d0e90	-1.2270069
180	0x3f1a18bd	0.60194
181	0xbf4dfc38	-0.8046298
182	0x3def914e	0.116976365
183	0xbf1d2c38	-0.613956
184	0x3dc8a5f8	0.09797281
185	0x3f9e606d	1.2373177
186	0x3ee53667	0.44768068
187	0xbe68ef59	-0.22747554
188	0x3f0c1fde	0.54736125
189	0xbe9acfd1	-0.30236676
190	0xbe51f259	-0.20502605
191	0xbeffe88c	-0.49982107
192	0xbffc056f	-1.9689158
193	0x3ece4492	0.4028669
194	0xbd479d47	-0.048733976
195	0x3f0b4fdb	0.54418725
196	0xbee95293	-0.45570812
197	0x3d1c48c9	0.03815535
198	0xbf54d411	-0.8313609
199	0x3fb22f25	1.3920637
200	0xbf1cf2f2	-0.61308205
201	0x3f6b231d	0.91850454
202	0x3e9a4986	0.3013422
203	0x3e9350ac	0.28772485
204	0x3ecfe136	0.4060151
205	0xbf848477	-1.0352925
206	0x3da4fc3a	0.08055921
207	0x3e4e3cfa	0.20140448
208	0x3d690032	0.056884952
209	0x3f006ebd	0.50168973
210	0xbe26364e	-0.16231653
211	0xbe042cb5	-0.1290768
212	0xbe5f9f89	-0.21838202
213	0xbfa77acc	-1.308435
214	0x3e6febf5	0.23429854
215	0xbf10f626	-0.5662559
216	0x3eb12ee8	0.346061
217	0xbf6dd33b	-0.9290044
218	0x3db3fd02	0.08788492
219	0xbe819a0c	-0.2531284
220	0xbe2fb08c	-0.17157191
221	0xbfc8e28c	-1.5694137
222	0xbf3016c6	-0.6878475
223	0xbd0a02cf	-0.033694085
224	0xbf461e98	-0.7739043
225	0x3f50cc3d	0.8156164
226	0x3da3c5e3	0.07996728
227	0x3f307645	0.68930465
228	0xbf1a9a53	-0.6039173
229	0x3ca8bb71	0.020597192
230	0xbe8a663d	-0.27031127
231	0xbcaefc0a	-0.021360416
232	0xbe8e3971	-0.277782
233	0x3df3346b	0.11875232
234	0x3ee52016	0.44751042
235	0xbdadef53	-0.08492913
236	0xbffd27b5	-1.9777743
237	0xbebca067	-0.36841127
238	0xbe07d404	-0.13264471
239	0x3c537e1c	0.012908485
240	0x3f199cf8	0.6000514
241	0x3e920c16	0.28524846
242	0x3ef630e4	0.48084176
243	0xbf17aff7	-0.59252876
244	0x3f2fda5b	0.6869256
245	0x3fe6e590	1.8038807
246	0xbe855a11	-0.26045278
247	0xbe513258	-0.20429361
248	0xbd5538ae	-0.052056007
249	0x3e0e504b	0.13897817
250	0xbe967efc	-0.29393756
251	0xbf51db2a	-0.8197504
252	0x3e3fcaf1	0.1872976
253	0xbf62f6e5	-0.8865798
254	0x3ec42330	0.38308096
255	0x3ea55f22	0.32299143

weight f4 [32]
0	0x3f800000	1.0
1	0x3f800000	1.0
2	0x3f800000	1.0
3	0x3f800000	1.0
4	0x3f800000	1.0
5	0x3f800000	1.0
6	0x3f800000	1.0
7	0x3f800000	1.0
8	0x3f920f7b	1.1410974
9	0x3f7fba75	0.99893886
10	0x3f6c17c9	0.92223793
11	0x3f885f72	1.0654128
12	0x3f77cb3a	0.96794474
13	0x3f81cfb1	1.0141507
14	0x3f7ae4c1	0.980053
15	0x3f695968	0.9115205
16	0x3f800000	1.0
17	0x3f800000	1.0
18	0x3f800000	1.0
19	0x3f800000	1.0
20	0x3f800000	1.0
21	0x3f800000	1.0
22	0x3f800000	1.0
23	0x3f800000	1.0
24	0x3f8dfd02	1.1092837
25	0x3f64e5ca	0.8941313
26	0x3f657070	0.8962469
27	0x3f7b8176	0.98244417
28	0x3f7ee53a	0.9956852
29	0x3f725dce	0.94674385
30	0x3f747cda	0.9550301
31	0x3f76eaea	0.964522

bias f4 [32]
0	0x00000000	0.0
1	0x00000000	0.0
2	0x00000000	0.0
3	0x00000000	0.0
4	0x00000000	0.0
5	0x00000000	0.0
6	0x00000000	0.0
7	0x00000000	0.0
8	0xbcb7456d	-0.022371972
9	0xbd056536	-0.032567225
10	0x3df82fd3	0.12118497
11	0x3d8e1705	0.069379844
12	0xbc520bdf	-0.012820213
13	0xbd995f4d	-0.0748888
14	0x3d9b22e2	0.07575013
15	0x3e1c8c0d	0.152878
16	0x00000000	0.0
17	0x00000000	0.0
18	0x00000000	0.0
19	0x00000000	0.0
20	0x00000000	0.0
21	0x00000000	0.0
22	0x00000000	0.0
23	0x00000000	0.0
24	0x3ddc193b	0.10747
25	0x3c394542	0.011308016
26	0x3d59d8aa	0.053185143
27	0x3d3bef5c	0.045882568
28	0xbd270682	-0.04077769
29	0x3d10d11d	0.035355676
30	0x3d93a3dc	0.07208988
31	0xbd9604f0	-0.073251605

running_mean f4 [32]
0	0x3cf5f6f6	0.030024987
1	0x3d505709	0.050864253
2	0xbd884bfa	-0.066551164
3	0x3ec18d5e	0.37803167
4	0xbe771110	-0.24127603
5	0xbf147cca	-0.58002913
6	0xbed2f86a	-0.4120515
7	0x3cc3d40e	0.023904826
8	0x3cc86800	0.024463654
9	0xbd8bfeab	-0.068356834
10	0x3d90a01a	0.07061787
11	0xbe930e94	-0.2872206
12	0xbeae4ed2	-0.3404451
13	0x3e8f462c	0.27983224
14	0x3da26d84	0.07931045
15	0xbe4b7ad2	-0.19871071
16	0xbdabf111	-0.08395589
17	0x3e968fcc	0.29406583
18	0xbdd2c9bb	-0.10292383
19	0xbdf104a9	-0.11768467
20	0x3dce3507	0.10068708
21	0x3ebc1f1f	0.36742494
22	0x3e39f09b	0.1815819
23	0xbe0b1ee4	-0.13586003
24	0x3b071a8d	0.002061519
25	0xbc3db80f	-0.0115795275
26	0x3e67a7e1	0.22622634
27	0xbe11b6c2	-0.14229873
28	0x3d7a74aa	0.061146416
29	0x3dc91b8d	0.09819708
30	0xbe3ab94f	-0.18234752
31	0x3e55e935	0.20889743

running_var f4 [32]
0	0x3fb0e56c	1.3820014
1	0x3f786404	0.9702761
2	0x3f24d459	0.64386517
3	0x40cecd87	6.462589
4	0x4029ea24	2.6549158
5	0x3f813da6	1.0096939
6	0x408b1b3d	4.347075
7	0x401af858	2.4214077
8	0x3ff5b358	1.9195356
9	0x3f8dc282	1.1074984
10	0x3fde3cbc	1.7362285
11	0x3fe7b653	1.8102516
12	0x401affdf	2.4218671
13	0x3f51ab1d	0.81901723
14	0x3f4e76ed	0.80650216
15	0x404472c1	3.069504
16	0x3fbe4fca	1.48681
17	0x3ffac212	1.9590476
18	0x4057c645	3.3714764
19	0x4003e079	2.0605757
20	0x3fcc6f81	1.5971528
21	0x3f2d22e6	0.67631376
22	0x4013701b	2.3037174
23	0x3f3fea86	0.7496723
24	0x3f97dd51	1.1864415
25	0x4082a548	4.082676
26	0x3fde15ff	1.7350463
27	0x3f5cccd7	0.8625006
28	0x409bd9aa	4.8703203
29	0x40934660	4.6023407
30	0x40b2df79	5.5897794
31	0x4004aead	2.0731614

weight f4 [32]
0	0x3f575c8b	0.84125584
1	0x3f8376ba	1.0270607
2	0x3f84b9eb	1.0369238
3	0x3f6ac532	0.91707146
4	0x3f73f8fb	0.9530179
5	0x3f846720	1.0343971
6	0x3f9158ec	1.1355262
7	0x3f7ad7d4	0.9798558
8	0x3f7ba0ae	0.9829205
9	0x3f7cf9f4	0.988189
10	0x3f6afdf6	0.91793764
11	0x3f7a784c	0.9783981
12	0x3f877fb4	1.0585847
13	0x3f807864	1.003674
14	0x3f7c801f	0.98633
15	0x3f865637	1.0495061
16	0x3f7d80fb	0.99024934
17	0x3f86989c	1.0515323
18	0x3f80e0ed	1.0068642
19	0x3f67ad5b	0.90498894
20	0x3f6ad8c6	0.9173702
21	0x3f7c2733	0.98497313
22	0x3f842d00	1.0326233
23	0x3f80920a	1.0044568
24	0x3f7bfb54	0.9843037
25	0x3f83b9e2	1.0291102
26	0x3f7144f1	0.9424582
27	0x3f7440c6	0.95411336
28	0x3f86db18	1.0535612
29	0x3f8d41bf	1.1035689
30	0x3f5245aa	0.8213755
31	0x3f815771	1.010481

bias f4 [32]
0	0xbd8a385d	-0.06749032
1	0xbdfa0a9f	-0.12209057
2	0xbe076c2b	-0.13224857
3	0x3e051cf9	0.12999333
4	0xbddeb771	-0.108748324
5	0x3e06ed78	0.13176525
6	0x3d8e4a7d	0.06947801
7	0x3d028ba1	0.03187144
8	0x3dc43b2e	0.095816
9	0x3b290abe	0.0025793756
10	0x3cdeef35	0.027213672
11	0x3d545b2f	0.051844772
12	0xbe2f3689	-0.17110647
13	0x3e33bab6	0.17551693
14	0x3d7c2df3	0.061567258
15	0xbc5e5c4d	-0.013571811
16	0xbe4fc798	-0.20290983
17	0xbba2f573	-0.0049731075
18	0x3d61dc16	0.05514153
19	0xbd57b8a9	-0.05266634
20	0xbd1dfa96	-0.038569055
21	0xbcb547a9	-0.022128897
22	0x3d96e1e1	0.07367302
23	0xbe0243ce	-0.12721178
24	0xbd900758	-0.07032651
25	0xbbe60581	-0.007019699
26	0xbd1eadc9	-0.038739953
27	0x3dbdbab0	0.092641234
28	0x3cf48a43	0.029851085
29	0xbd3b767a	-0.045767285
30	0xbcc9b534	-0.024622537
31	0x3d4a4734	0.04938431

running_mean f4 [32]
0	0xbe33bc3e	-0.17552277
1	0x3c31d2e4	0.010853503
2	0xbe2f1168	-0.17096484
3	0xbe257e2d	-0.16161413
4	0x3d1e7e23	0.038694512
5	0xbcb722a5	-0.022355387
6	0x3d80806f	0.06274497
7	0xbc3959f5	-0.011312951
8	0x3c9bc5cd	0.019015217
9	0x3def8d10	0.116968274
10	0x3d34f750	0.044181168
11	0x3dca348d	0.098733045
12	0xbd143377	-0.036181893
13	0xbc112a3d	-0.008860168
14	0xbe4cdc54	-0.20005924
15	0x3ce78b45	0.028264651
16	0xbe6bb2fa	-0.23017493
17	0x3db1bc30	0.08678472
18	0xbe137858	-0.14401376
19	0xbe8d5752	-0.27605683
20	0x3c8b28dd	0.016987259
21	0xbcbcee92	-0.023062978
22	0xbe1c5828	-0.15268004
23	0xbc80977c	-0.015697233
24	0xbcf511d0	-0.02991572
25	0x3c91c698	0.017794892
26	0xbea623e6	-0.32449263
27	0xbcb19a31	-0.02167997
28	0x3e1d6d34	0.15373689
29	0x3d35e7a6	0.04441037
30	0x3de871d6	0.113498375
31	0xbde59bdc	-0.112113684

running_var f4 [32]
0	0x3ee89ce8	0.4543221
1	0x3ee91f8c	0.4553188
2	0x3ebbafbd	0.36657515
3	0x3ead9506	0.33902758
4	0x3f43801b	0.7636735
5	0x3ebc9f40	0.36840248
6	0x3eeb6cf1	0.45981553
7	0x3f4cce8e	0.8000268
8	0x3eab5014	0.33459532
9	0x3e922b3f	0.2854862
10	0x3e8b01b5	0.2714974
11	0x3e9dd230	0.30824423
12	0x3e9347c9	0.28765705
13	0x3eb36ebd	0.35045424
14	0x3e9f655c	0.3113202
15	0x3e86241c	0.26199424
16	0x3f0a23de	0.5396098
17	0x3eaf7335	0.34267583
18	0x3ebfa081	0.37427142
19	0x3f077bdc	0.5292337
20	0x3e7cbbd4	0.24681026
21	0x3ea7bd08	0.32761407
22	0x3ec30485	0.38089386
23	0x3edfa894	0.43683302
24	0x3eb67532	0.35636288
25	0x3e9d39f6	0.30708283
26	0x3f0a0661	0.53915983
27	0x3ea9452a	0.3306058
28	0x3ef96dc3	0.48716554
29	0x3eace548	0.33768678
30	0x3ed0c3e0	0.4077444
31	0x3f1bea3d	0.60904294

weight f4 [32]
0	0x3f8c764a	1.0973599
1	0x3f82acb2	1.0208952
2	0x3f741444	0.9534342
3	0x3f805127	1.0024766
4	0x3f881c8c	1.0633712
5	0x3f859f10	1.0439167
6	0x3f873fdd	1.0566365
7	0x3f6d37e6	0.9266342
8	0x3f7f88de	0.9981822
9	0x3f88d8c7	1.0691155
10	0x3f7e93b8	0.9944415
11	0x3f807fba	1.0038979
12	0x3f7cbe86	0.98728216
13	0x3f6d1f46	0.92625844
14	0x3f818731	1.0119382
15	0x3f760376	0.9609903
16	0x3f835439	1.0260078
17	0x3f6baad8	0.9205756
18	0x3f6d190f	0.9261636
19	0x3f7e0f3f	0.99242014
20	0x3f89c027	1.0761765
21	0x3f71f8ef	0.9452047
22	0x3f59b5dd	0.85043126
23	0x3f6f6b9d	0.9352358
24	0x3f80a25c	1.0049548
25	0x3f83f61d	1.0309483
26	0x3f762edc	0.9616525
27	0x3f66bc4d	0.90131074
28	0x3f8733bf	1.0562667
29	0x3f937828	1.1521044
30	0x3f7afddd	0.98043615
31	0x3f8b1ecd	1.0868775

bias f4 [32]
0	0xbd6060e9	-0.05477992
1	0xbdcf0664	-0.10108641
2	0xbe14592d	-0.14487143
3	0x3e0e7010	0.13909936
4	0xbe3eeba6	-0.1864458
5	0x3e11a7c6	0.14224157
6	0xbe4bad5e	-0.19890353
7	0xbe3f590f	-0.18686317
8	0x3cf333d7	0.029687805
9	0xbba17467	-0.0049272063
10	0x3c579d22	0.013160022
11	0x3d3c3a6f	0.045954164
12	0x3be1cb7e	0.0068907132
13	0x3d7c8a72	0.06165547
14	0x3d01bff5	0.031677205
15	0xbd9f8e01	-0.07790757
16	0xbd62cb94	-0.05536993
17	0x3d40e483	0.047092926
18	0xbe259f1f	-0.16173981
19	0xbcbb8504	-0.022890575
20	0xbb2c7184	-0.0026312778
21	0x3e02d2db	0.12775747
22	0x3dbdb185	0.09262375
23	0x3d79446b	0.060856264
24	0x3d28f8ff	0.041253086
25	0x3d3a29bb	0.045449954
26	0x3ca6fc51	0.020383986
27	0xbd9d5b31	-0.07683409
28	0x3ca57ddb	0.020201614
29	0xbdbee3cf	-0.09320795
30	0xbc933b3a	-0.017972577
31	0xbd8106e9	-0.06300146

running_mean f4 [32]
0	0xbef2bb7d	-0.47408667
1	0x3e2f4aed	0.17118426
2	0xbf0072c4	-0.5017512
3	0x3da36d34	0.07979813
4	0xbeb07164	-0.3446151
5	0x3ed7aae2	0.4212256
6	0xbd4003e8	-0.046878725
7	0x3e1f0d24	0.15532357
8	0xbe4b5e7d	-0.19860263
9	0x3db6f681	0.08933736
10	0xbda8cd85	-0.08242325
11	0x3e5be203	0.21472935
12	0x3c7f1b8a	0.015570531
13	0x3dae0a3c	0.08498046
14	0xbe729808	-0.23690808
15	0xbdd9121e	-0.10599159
16	0xbdee3cc7	-0.11632686
17	0x3d3f7e9c	0.046751603
18	0x3ec1dab7	0.3786218
19	0xbeed63ba	-0.46365148
20	0xbe95c20e	-0.29249614
21	0xbe25b2e9	-0.1618153
22	0x3cc14de1	0.023596706
23	0xbe1c5fef	-0.15270971
24	0xbe43b6cd	-0.19112702
25	0xbed382f0	-0.41310835
26	0x3d932b74	0.071860224
27	0xbed85932	-0.4225555
28	0xbe8fd460	-0.28091717
29	0xbef3e518	-0.47635722
30	0x3dcd4e9a	0.10024758
31	0x3d44c8d1	0.048043076

running_var f4 [32]
0	0x4093d422	4.619645
1	0x3f8db1ff	1.1069945
2	0x40630bcc	3.547595
3	0x3f1bf332	0.6091796
4	0x40129cc5	2.2908185
5	0x3fd68644	1.6759725
6	0x400f35e4	2.2376642
7	0x40979cd8	4.737896
8	0x403a62d7	2.9122827
9	0x40181640	2.376358
10	0x403bea3e	2.936172
11	0x40570e09	3.3602316
12	0x4016b5e4	2.3548517
13	0x3f9610ad	1.1723839
14	0x3fe8ae70	1.8178234
15	0x403bbaf9	2.933287
16	0x3fcb037f	1.5860442
17	0x3f7d0f22	0.98851216
18	0x40229bf5	2.5407689
19	0x402af77f	2.671356
20	0x3fa06120	1.252964
21	0x3f9f38c5	1.24392
22	0x40293756	2.6440024
23	0x3f936df4	1.151793
24	0x407177fb	3.772948
25	0x403b7f7b	2.9296558
26	0x40814c9a	4.040601
27	0x4068cb5d	3.6374123
28	0x40709ada	3.7594514
29	0x3ff360b1	1.9013883
30	0x400dc54f	2.2151678
31	0x40342868	2.8149662
