Experiments/2022_07_26 13-51-41 wine_100runs_learning-rate_3mv-features_custom-loss /models/Model_run86_optimizer_params0.02_magnesium.pt (torch, 249293 bytes, 318 tensors)

weight f4 [12]
000000 00 00 80 3f 00 00 80 3f 00 00 80 3f 00 00 80 3f
       1.0 1.0 1.0 1.0
000010 00 00 80 3f 00 00 80 3f 00 00 80 3f 00 00 80 3f
       1.0 1.0 1.0 1.0
000020 00 00 80 3f 00 00 80 3f 00 00 80 3f 00 00 80 3f
       1.0 1.0 1.0 1.0

bias f4 [12]
000000 00 00 00 00 00 00 00 00 00 00 00 00 00 00 00 00
       0.0 0.0 0.0 0.0
000010 00 00 00 00 00 00 00 00 00 00 00 00 00 00 00 00
       0.0 0.0 0.0 0.0
000020 00 00 00 00 00 00 00 00 00 00 00 00 00 00 00 00
       0.0 0.0 0.0 0.0

running_mean f4 [12]
000000 00 00 00 00 00 00 00 00 00 00 00 00 00 00 00 00
       0.0 0.0 0.0 0.0
000010 00 00 00 00 00 00 00 00 00 00 00 00 00 00 00 00
       0.0 0.0 0.0 0.0
000020 00 00 00 00 00 00 00 00 00 00 00 00 00 00 00 00
       0.0 0.0 0.0 0.0

running_var f4 [12]
000000 00 00 80 3f 00 00 80 3f 00 00 80 3f 00 00 80 3f
       1.0 1.0 1.0 1.0
000010 00 00 80 3f 00 00 80 3f 00 00 80 3f 00 00 80 3f
       1.0 1.0 1.0 1.0
000020 00 00 80 3f 00 00 80 3f 00 00 80 3f 00 00 80 3f
       1.0 1.0 1.0 1.0

weight f4 [12]
000000 db a7 68 3f ef 0d 64 3f d2 ae 82 3f 3d c3 85 3f
       0.9088113 0.8908376 1.0209601 1.0450207
000010 53 61 76 3f 77 ab 86 3f d7 aa 86 3f b1 39 7f 3f
       0.96242255 1.0521077 1.0520886 0.99697405
000020 81 91 8a 3f 07 02 89 3f 42 4a 81 3f 24 45 5d 3f
       1.0825654 1.0703744 1.0100787 0.86433625

bias f4 [12]
000000 ed 1b 97 3d 12 ae 07 3e f3 83 98 3d 84 b5 10 be
       0.07378373 0.13249996 0.07447042 -0.14131743
000010 dd bd 04 3c ca b8 de 3d 8b 18 d3 3d c2 dc 7e 3d
       0.008101908 0.108750895 0.103074156 0.06222225
000020 e2 21 7d bd d0 f9 ee 3b 5f 77 39 3e 90 4f c8 bd
       -0.06179989 0.0072929636 0.18111943 -0.097808

running_mean f4 [12]
000000 e7 75 76 3e 4a 58 af 3e 92 a3 3b 3d f5 ef 01 3e
       0.24068414 0.34247047 0.04581029 0.12689193
000010 e4 b5 9f 3e bf 51 23 40 84 89 29 3f 39 37 db 3f
       0.3119346 2.5518644 0.6622546 1.7126228
000020 49 82 c7 42 0c fe 9e 3e 67 83 76 3e 24 b6 5b 3e
       99.75446 0.31053197 0.24073564 0.214562

running_var f4 [12]
000000 4b f2 99 3f 12 70 6f 3f 6b ee 5e 3f 79 3d 60 3f
       1.2027067 0.9353038 0.87082547 0.875938
000010 fd de 60 3f ad 1f 12 40 85 c3 d1 3f d7 37 75 3f
       0.87840253 2.2831833 1.6387793 0.9578833
000020 f1 cc 56 46 ff 43 6b 3f 12 dd 8a 3f 0d c0 69 3f
       13747.235 0.9190063 1.0848715 0.9130867

weight f4 [32, 12]
000000 41 4f 37 3f 0e 42 96 3e 56 a0 40 3f a5 09 60 3e
       0.71605307 0.2934727 0.75244653 0.21878679
000010 08 56 69 bf 08 00 aa 3e a5 1a 63 be b2 24 c4 be
       -0.911469 0.3320315 -0.22178133 -0.38309246
000020 6b ae ef bd b0 8b c7 3f 4f ac 92 bf 13 d1 2d bd
       -0.117031895 1.5589504 -1.1458834 -0.042435717
000030 f3 8b 83 3e 03 87 7f bd b0 f4 b3 3e 49 8f 06 3f
       0.2569271 -0.062384617 0.3514762 0.52562386
000040 85 23 eb be a6 f5 b4 be 95 43 52 3f 02 88 d7 3e
       -0.45925537 -0.35343665 0.8213437 0.42095953
000050 00 db fe 3e 61 40 20 3d 35 fd cf bf 99 3f 63 be
       0.4977646 0.039123897 -1.6249148 -0.2219223
000060 4f 21 83 3d 39 36 5a 3e dd 75 28 bf 9f 71 ba 3d
       0.064028375 0.21309747 -0.65804845 0.09103703
000070 4a 38 c9 3d 0b ec e5 bf 19 f6 bf be 1d d1 e1 3e
       0.098251894 -1.796266 -0.37492445 0.44104853
000080 1b 7a 8a 3e 1d 29 97 3f 57 86 f2 3e 58 fb ab bf
       0.27046284 1.1809422 0.47368118 -1.3436079
000090 9b 1b a3 3f 31 b4 37 3e 39 ee 05 3d a2 39 51 bf
       1.27428 0.17939831 0.03269789 -0.81728566
0000a0 71 0c 89 bf d6 e9 d8 bd 24 81 ed 3d ba 4f 28 3f
       -1.0706922 -0.10591476 0.11596897 0.65746653
0000b0 6c f2 34 3f 7d b2 73 3f 77 f9 25 3c d7 f2 eb be
       0.70682406 0.95194227 0.010130278 -0.4608371
0000c0 37 db a5 bf 87 d6 8c 3f 32 0d 3d 3f 67 89 42 3f
       -1.2957524 1.1002969 0.7384826 0.7599091
0000d0 67 fd 1c 3f 54 9d bd 3e 0e 7c 26 bf 45 6d cf 3f
       0.6132416 0.37034094 -0.6503304 1.6205221
0000e0 00 f9 bc be c3 7b 4d be 85 cc 09 40 a6 87 93 3f
       -0.36908722 -0.20066743 2.153108 1.1525772
0000f0 c9 94 75 bf 6d 5d bc 3f 82 57 fd be ec 04 96 be
       -0.95930153 1.4716011 -0.49480826 -0.2930063
000100 82 b5 46 bf a0 c3 5c 3e 81 ae 1a bf 96 38 f6 3d
       -0.7762071 0.21559 -0.6042252 0.12022512
000110 15 1c dd be f2 60 eb be 2f 52 38 bf ed 95 34 bf
       -0.43185487 -0.459724 -0.720004 -0.7054127
000120 60 a7 3d bf 83 96 f6 be 34 d4 92 bd c5 8f e1 be
       -0.7408352 -0.48161706 -0.07169381 -0.44055
000130 e7 96 f5 3d da ee a3 bf a7 8d 23 bf 56 33 3e be
       0.11991673 -1.2807267 -0.6388802 -0.1857427
000140 ec 5f 66 3e 18 19 c3 bf 6b 0a 06 bf 5a e5 de 3d
       0.22497529 -1.5242033 -0.52359647 0.10883589
000150 58 40 a7 bc 2f 49 a7 be 4a aa a5 bd 19 5b 7e bf
       -0.020416424 -0.32673022 -0.08089121 -0.99357754
000160 9c 46 b6 3f 3c f7 b5 3f 7e 40 c5 3f 34 95 36 bf
       1.4240298 1.4216075 1.5410306 -0.71321416
000170 8b ab 34 3f d4 9f d6 3f b2 fa 0e bf 14 8b 34 3e
       0.70574254 1.6767526 -0.5585128 0.17631179
000180 79 a6 33 3f bb ab 3f bd 9e 85 4f 3e 59 5a 77 3f
       0.7017589 -0.046794634 0.20265815 0.96622235
000190 4c 7f 0f be 70 19 3d 3d bc ce d2 3e 90 9a f1 3e
       -0.14013404 0.046166837 0.4117335 0.47188234
0001a0 85 03 21 3f 76 d1 ed 3e 82 01 15 3f 45 36 44 3f
       0.62895995 0.4644887 0.58205426 0.7664531
0001b0 fe 0e 98 3f d6 02 04 be 05 13 00 3e 7c 79 84 bf
       1.1879575 -0.12891707 0.12507255 -1.0349574
0001c0 bb 93 df bd 8a a8 38 3f 8b d6 36 3f 7c 7c 5c bf
       -0.10916849 0.7213217 0.71421117 -0.8612745
0001d0 12 96 86 3d 9f 5d f3 be 9e 04 da bd 0c fc 05 3f
       0.065715924 -0.47532365 -0.10645412 0.5233772
0001e0 47 ba bd be 1d a8 80 be de fa 9a be 27 5c 7d 3f
       -0.3705618 -0.2512826 -0.3026952 0.9896874
0001f0 99 26 8b 3e 43 23 d5 be d6 04 4b bd 3d 4d 78 be
       0.27177885 -0.41628465 -0.04956516 -0.24248214
000200 d4 cd 8c bf de 6f b6 bd 0a 58 7d 3e bd bd 86 3e
       -1.1000314 -0.08908056 0.24740615 0.26316634
000210 0a 8f 06 bd 03 fe e3 bd 0f 77 97 be fd 97 64 3e
       -0.032851256 -0.11132433 -0.29583022 0.22323604
000220 f3 cc 98 3f 21 a2 69 bf c9 fd 42 be 2c 1e 82 be
       1.1937546 -0.91263014 -0.19042124 -0.25413644
000230 db 39 a3 bf 82 fa 1f be d1 5e 78 3e 6f 24 17 3f
       -1.2752031 -0.15622905 0.2425492 0.5903997
000240 e5 51 ba be 24 0c 34 3f 12 95 e0 bf 56 db c5 be
       -0.36390606 0.70331025 -1.7545493 -0.38643903
000250 36 f0 eb be ed 48 48 bf f4 2c a0 bd 1c 6a ba be
       -0.46081704 -0.78236276 -0.07821074 -0.3640908
000260 6b a4 13 bf 92 6c 35 3f 10 a6 b6 3e 93 41 fc 3e
       -0.57672757 0.7086879 0.3567357 0.4926878
000270 22 ed 08 bf 80 8c a3 3e 32 0a f3 3e 1e 78 01 3f
       -0.53486836 0.3194313 0.47468716 0.5057391
000280 84 9f 3c 3f 00 bc 9f 3f 1d 52 09 bf 3e 82 86 3e
       0.736809 1.2479248 -0.5364092 0.26271242
000290 ae 6a 0d 3f 5a ad 11 bf 20 69 48 bf c5 a7 f0 3e
       0.55240905 -0.5690514 -0.7828541 0.47002998
0002a0 1b a3 bf 3e 80 e0 9a 3b 66 e5 63 3f 7a b4 32 bf
       0.37429127 0.0047264695 0.8902191 -0.69806635
0002b0 c1 11 d4 bf 81 b6 3a bf 8f 7d 60 bf 38 a8 00 3f
       -1.6567918 -0.7293473 -0.8769159 0.5025668
0002c0 49 be 82 3e 41 cd 06 3f a8 ac 09 3d 4c 71 59 be
       0.255358 0.5265694 0.033611923 -0.21234626
0002d0 b1 e1 8d bc 23 bf 67 bf 99 e2 62 3f ee 38 1b 3f
       -0.017319532 -0.90526026 0.8862701 0.6063374
0002e0 f8 94 1b bf f8 a1 4e 3f e0 0c cf 3d ce 28 77 3e
       -0.60774183 0.80715895 0.101098776 0.2413666
0002f0 5c 1c b5 be 86 56 ca be 89 d1 7a 3e 0e ea 22 bf
       -0.353732 -0.39519137 0.24493994 -0.6363839
000300 21 5f 15 3f f7 46 c5 be d8 97 4a 3f 54 6f 52 3f
       0.5834828 -0.38530704 0.79137945 0.82201123
000310 7d e9 a7 bf db 7b 88 bf 9a 4d 86 be b3 f2 77 3f
       -1.311813 -1.0662798 -0.2623108 0.96854705
000320 89 9c 3a be bb 63 c0 3f 9b c5 80 bf 85 c6 13 bf
       -0.18223776 1.5030435 -1.0060304 -0.5772479
000330 b1 c9 80 3f d5 10 29 3d 7b 94 eb 3d 8c ba dd be
       1.0061551 0.041275818 0.1150293 -0.43306386
000340 54 67 fe 3b 10 df 90 bf 16 ff b8 be 59 13 75 3e
       0.0077637825 -1.1318073 -0.36132115 0.23933162
000350 22 2c 02 bf bc dc 43 bf c3 57 08 3f 73 79 67 be
       -0.5084859 -0.7650869 0.53258914 -0.22604923
000360 48 aa 97 bf 71 d3 75 3f 61 74 b0 3d 17 bf fd 3e
       -1.1848841 0.9602576 0.086159475 0.49559852
000370 61 fc 15 3e d7 d5 da be b3 aa 0f bf f5 c9 91 bf
       0.14647056 -0.42741272 -0.5611984 -1.1389757
000380 da f5 1e 3f e9 d1 9f 3f d4 b2 03 bd 64 d1 75 3f
       0.6209389 1.2485934 -0.032152966 0.9602263
000390 22 73 89 bf af 55 8c be d2 e9 c3 be 58 83 3c be
       -1.0738261 -0.2740912 -0.38264328 -0.18409479
0003a0 ab f7 6f bf 39 fb 33 3e f2 34 b4 bf 45 32 1b 3f
       -0.93737286 0.17576303 -1.4078658 0.6062358
0003b0 de cd d8 3f d1 a1 20 3f 23 e3 68 3f 52 7f 4b 3f
       1.6937826 0.6274691 0.90971583 0.7949115
0003c0 6b 1d 85 be 01 99 0b 3e bd d5 29 3f d0 51 18 3e
       -0.25999007 0.13632585 0.66341764 0.14874959
0003d0 aa 6a 0a 3f 5e 8a b0 3e b3 31 b2 3e 33 a9 96 be
       0.54069006 0.34480566 0.34803542 -0.29425964
0003e0 9e a8 08 3c c6 97 9a be dc 72 82 bd 49 d4 df bf
       0.008340983 -0.3019392 -0.06369564 -1.7486659
0003f0 49 52 04 bf af 7b 2f be db 84 36 3f 31 3e 58 be
       -0.5168806 -0.17137025 0.7129647 -0.21117474

weight f4 [32, 16]
000000 82 b5 47 be 9d 43 c4 3f 31 08 df 3e 43 5f ea be
       -0.19502833 1.5333134 0.43560937 -0.45775804
000010 62 b3 a8 bf db 72 50 3d 1a ff 63 3f 54 25 e2 3e
       -1.3179743 0.050890785 0.8906113 0.44169104
000020 53 e4 15 3e d3 47 84 3e ed 90 68 3e 73 77 4a 3e
       0.1463788 0.25836048 0.22711535 0.19772129
000030 29 33 22 3f f8 0d 0c be 62 3b fb be 73 26 c5 3f
       0.63359314 -0.13677204 -0.49068743 1.5402359
000040 3f 66 38 3f 3e f4 7b be 86 40 82 3f d9 04 9c 3f
       0.72031015 -0.2460489 1.0175941 1.2188979
000050 ed c2 af be 1b 57 05 bf ec 60 db be f3 0e d9 bd
       -0.34328404 -0.5208604 -0.42847383 -0.105985545
000060 6d 75 8d bd a1 9d 76 be d3 cd 17 be 57 65 0b 3f
       -0.06907163 -0.24083568 -0.1482461 0.5445151
000070 e3 31 d0 3e 2d c5 2f 3f a3 a8 3a bf 73 31 a3 3d
       0.4066306 0.6866024 -0.7291357 0.07968416
000080 1d 60 91 be 4c 82 c6 bf db a9 c2 bf 21 9e dc bf
       -0.2839364 -1.5508513 -1.5208086 -1.7235757
000090 06 4d 96 3e e8 29 87 bf e0 50 ed bc 4e c9 29 bf
       0.2935564 -1.0559664 -0.028969228 -0.6632279
0000a0 28 0a 83 3e e0 22 0f 3f 0f 7d e0 be 60 23 d8 bf
       0.25593686 0.5591259 -0.43845412 -1.6885796
0000b0 db aa 89 3f fc 0f 27 3f da 52 fb 3e ad f0 32 3f
       1.0755266 0.65258765 0.49086648 0.6989849
0000c0 85 07 d2 3e 14 07 fa 3e fb d6 e4 be d6 2b 27 be
       0.41021362 0.48833525 -0.44695267 -0.16325316
0000d0 c3 b8 d9 3e 41 4a 78 3c ee a0 40 be eb 14 61 3f
       0.42523775 0.015154422 -0.1881139 0.87922543
0000e0 75 19 09 3f 69 14 74 be 5d e0 8c be 65 ef 87 3d
       0.5355447 -0.23835911 -0.27514926 0.06637458
0000f0 70 4e f2 be c0 50 1e b9 27 1a 84 bd 08 b3 94 bf
       -0.47325468 -0.00015098136 -0.06450301 -1.1617136
000100 ae 79 ab 3e d8 7c 3f 3c ec 22 a1 be 29 89 3c bf
       0.33491272 0.01168748 -0.31471956 -0.7364679
000110 fe b2 0e 3e dd 88 c3 be fa b7 fe 3e 86 a4 4e 3f
       0.13935468 -0.38190356 0.49749738 0.8071979
000120 de d1 cd 3f ce b5 91 3d 7d 98 4e bf 1e f1 c8 be
       1.6079671 0.071147546 -0.8070143 -0.39246458
000130 a7 ed 98 be 2a f2 a2 bf 7c f6 95 be 3e 07 90 3f
       -0.29868814 -1.2730153 -0.29289615 1.125221
000140 b9 30 20 bf b0 2d 85 bf 6e 70 e7 3e eb f3 64 3d
       -0.62574345 -1.0404568 0.45202965 0.05589668
000150 ed ce b5 bf 18 fb 13 be c4 17 f1 3e 7a 84 9a 3e
       -1.4203774 -0.14451253 0.47088444 0.30179197
000160 5d 2a 2f bf 41 1c 82 bf 06 ac 69 3e af 76 f8 be
       -0.68424016 -1.0164872 0.22819528 -0.48528048
000170 38 70 d9 bf 48 8f 43 be 45 c7 29 bd 98 f9 36 3e
       -1.6987371 -0.19097626 -0.041449804 0.1786865
000180 18 b2 8e be c4 85 cb 3d e8 d9 91 bc 20 e2 94 3f
       -0.2787025 0.09937623 -0.017804101 1.1631508
000190 a2 4c c1 3e 96 c0 01 3f ef 32 1f 3f 60 34 5f 3e
       0.3775378 0.5068449 0.62187093 0.21797323
0001a0 6b a4 02 bd 3a fe 18 3f 72 15 49 3e 3f bc 19 3f
       -0.031895082 0.5976292 0.19637087 0.60052866
0001b0 d9 1a 3b 3f d5 b1 24 be 83 f4 bf 3f 5a c8 74 bf
       0.7308784 -0.16083463 1.4996494 -0.9561821
0001c0 c2 70 39 bc 29 3d 88 bf 8c f1 a8 bf 8b 07 9a bf
       -0.011318387 -1.0643665 -1.3198714 -1.2033552
0001d0 c3 0a 15 3f c6 62 48 bf 03 52 ea 3e 90 48 48 3d
       0.58219546 -0.78275716 0.45765695 0.048897326
0001e0 55 d1 a5 bf 98 b7 66 3f 10 07 42 bf a8 55 90 3f
       -1.2954508 0.9012389 -0.75792027 1.127614
0001f0 42 e5 85 bf 3d 93 f7 bd 38 88 08 bf 64 d4 2a be
       -1.0460589 -0.1208863 -0.53332853 -0.16682583
000200 6e 74 2e bf 0e b5 43 3f d2 00 5e bf 4a 0a 4e 3c
       -0.6814641 0.7644814 -0.8672 0.012575695
000210 e5 d6 92 bf 09 93 b8 3f b1 c2 6f bf f3 6d 43 3f
       -1.1471831 1.4419872 -0.9365645 0.76339644
000220 5d 11 41 bf 96 1b 49 be 0f 91 50 bf c0 50 f2 3e
       -0.7541712 -0.1963943 -0.8147134 0.47327232
000230 b5 ab 49 3f 3e da 8c 3d 47 e8 d7 3d b2 40 49 3e
       0.7877763 0.06877564 0.1054235 0.19653586
000240 c6 7c 8b be 2c 03 ec bd 66 e1 d8 bf 20 48 5e be
       -0.27243632 -0.115240425 -1.6943786 -0.21707201
000250 77 f0 25 bf 81 74 2f 3f ae 87 19 bf bd bb a9 be
       -0.64820045 0.68537146 -0.59972656 -0.33151045
000260 74 50 6a 3f 24 d2 4b 3f c8 7d 38 bf 72 5f 33 bf
       0.9152901 0.79617524 -0.72066927 -0.70067513
000270 09 92 e2 be d2 89 0b bf be 46 98 3e 62 e1 fc be
       -0.4425204 -0.5450717 0.29741472 -0.49390703
000280 28 39 82 3e 2d 22 90 be 5a 44 89 3f cc f5 f4 3e
       0.25434232 -0.28151074 1.0723984 0.47843778
000290 87 7f f1 be 00 b2 8a be fe 13 9a 3d 7d 77 62 3e
       -0.47167608 -0.27088928 0.075233445 0.22115894
0002a0 23 0e a4 be 94 28 96 bf b2 da 8b bf ff b3 5f bf
       -0.32042035 -1.1731133 -1.0926116 -0.8738403
0002b0 db 11 7d 3e e8 36 77 bf 79 26 b8 3e 36 a7 74 3e
       0.24713843 -0.96568155 0.35966852 0.23891911
0002c0 52 da 09 bd cb 8b 4f be a8 79 b9 be c2 23 01 be
       -0.033655472 -0.2026817 -0.3622563 -0.12611297
0002d0 b7 92 cf bf 2e 7c 90 3e 48 ac 51 bf 94 b5 63 3f
       -1.6216649 0.28219742 -0.81903505 0.8894894
0002e0 f6 64 43 3f 2c a4 95 3e 5c 06 ec bf 07 33 84 3e
       0.7632593 0.29226816 -1.8439441 0.2582018
0002f0 ab d1 2e bf df 24 4a bf 97 85 84 bd 84 a2 ba bf
       -0.6828868 -0.7896251 -0.06470793 -1.4580846
000300 83 77 28 3e f2 34 16 3e 14 32 60 bf 9d 99 8c 3d
       0.1645184 0.14668635 -0.87576413 0.06865237
000310 32 8f fb 3e fe a3 34 bf bb c2 01 bf 8f 91 7f bf
       0.49132687 -0.7056273 -0.5068776 -0.9983148
000320 53 1f 17 3f d3 42 88 bf cb 74 91 be 0d a9 84 3e
       0.5903217 -1.0645393 -0.28409418 0.25910226
000330 05 ae 14 bf 26 a2 51 3f 5e 17 1d 3e aa ac 9f 3f
       -0.5807803 0.81888044 0.15340945 1.2474568
000340 30 07 b3 3d bd cc a3 bf c4 0b 9c bd 11 01 71 3f
       0.08741605 -1.2796856 -0.076194316 0.9414225
000350 c7 f3 cb be 45 7f a3 bf 40 43 83 3f 2a a6 7c 3f
       -0.39834425 -1.2773215 1.0254898 0.98691046
000360 52 34 19 3d 94 0d 89 3e fa 01 08 3f 8d 5c 57 bf
       0.037403412 0.26768172 0.53128016 -0.84125596
000370 d3 07 88 bf 36 0b 30 be 02 7e 87 3e 3a 68 2b 3e
       -1.0627388 -0.17191777 0.26463324 0.16738978
000380 c1 42 17 be c3 9d 1c 3f 2a e7 2f 3e 5b b5 82 be
       -0.14771558 0.61178225 0.17178026 -0.25528988
000390 c4 c4 0d be d0 02 6f bf cf b2 2e bf 24 fa 63 3e
       -0.13844591 -0.93363667 -0.6824159 0.2226339
0003a0 c6 6d ec 3d 8f bf aa bf ac 21 9a bf ee 84 10 3d
       0.11544375 -1.3339709 -1.2041526 0.03528302
0003b0 a8 00 8b 3e 3b e6 ad 3f 5f a0 47 3f 12 8a e5 3e
       0.27148938 1.3585886 0.7797908 0.44831902
0003c0 2e 17 91 be 2f 51 17 bc e6 ac 73 3f b8 79 8f bd
       -0.28337997 -0.009235664 0.951857 -0.07005638
0003d0 d9 fc b4 be 50 88 65 bf 05 46 9c bf 9e c3 a5 bf
       -0.35349157 -0.8966112 -1.2208868 -1.2950323
0003e0 c1 1b ee 3d 37 1a a9 3f 1f a3 61 be f3 37 69 3f
       0.116263874 1.3211125 -0.22034882 0.91100997
0003f0 a5 b3 6e 3e 3e 37 de bd 89 e8 b3 3f 54 33 4f 3e
       0.23310716 -0.1085038 1.4055339 0.20234424

weight f4 [32]
000000 16 8c 8b 3f a1 59 82 3f f8 ab 80 3f 56 dd 70 3f
       1.0902126 1.0183603 1.0052481 0.9408773
000010 7c 6b 7f 3f b6 2c 7f 3f 4e 01 7c 3f 2f e8 8e 3f
       0.99773383 0.996776 0.9843949 1.1164607
000020 a0 7f 6f 3f dd 9b 81 3f 61 35 68 3f 8e f4 6c 3f
       0.93554115 1.0125691 0.9070645 0.9256066
000030 aa 33 66 3f 00 9f 6f 3f 98 bb 78 3f 30 0b 87 3f
       0.89922583 0.9360199 0.97161245 1.0550289
000040 d4 b4 88 3f 63 59 87 3f ef 0f 82 3f fd c0 65 3f
       1.0680184 1.0574154 1.0161113 0.897476
000050 df 10 6a 3f dd a9 73 3f 04 0c 80 3f 27 94 87 3f
       0.91431993 0.95181066 1.0003667 1.0592088
000060 95 d0 80 3f 55 66 83 3f c5 a3 7f 3f de f3 6a 3f
       1.0063654 1.0265604 0.9985927 0.9177836
000070 c4 c4 72 3f 73 8e 81 3f 99 68 70 3f 55 b7 95 3f
       0.9483149 1.0121597 0.93909603 1.1696573

bias f4 [32]
000000 2b 66 9a 3d 30 a9 4d bd 5c 90 53 bd cc 8b ac bd
       0.07539018 -0.050210178 -0.051651344 -0.08425102
000010 89 3e 46 3b c9 95 a6 3d 08 6d bf 3d e9 73 43 bc
       0.0030249676 0.08134038 0.09346968 -0.011929491
000020 0a 3f c2 3c 21 03 bf bd bf 27 ee bd e9 b3 06 bc
       0.0237117 -0.09326769 -0.11628675 -0.008221605
000030 e7 54 af 3d b6 43 cc bc fa 6f 9e 3d 54 52 8d 3d
       0.08561116 -0.02493463 0.077362016 0.069004685
000040 6b 49 a3 3d 23 29 00 3d 1c f7 dd 3b 20 d7 18 bd
       0.07972988 0.03128923 0.0067738425 -0.037314534
000050 a2 5a ac 3d 53 70 84 3c 6a a0 0f bd d9 b8 dc 3d
       0.08415724 0.016166842 -0.035065092 0.107774444
000060 89 22 fe bd 64 86 15 bd 75 52 ab bd 3a cd 91 bd
       -0.12408931 -0.036505118 -0.08365337 -0.07119222
000070 5f c9 8e bd 7a 1b 6a bd 72 69 01 3c 2e a4 e5 3b
       -0.06972002 -0.05715511 0.007898675 0.007008097

running_mean f4 [32]
000000 40 42 ce bb ac 2f 09 bd 26 9d 8e 3b 08 b1 5a 3d
       -0.0062945187 -0.03349273 0.0043522296 0.053391486
000010 e3 33 2e 3d 45 1d 8b 3c fd ef 82 bd e4 26 f5 3c
       0.04252995 0.01698173 -0.063934304 0.029925771
000020 3d 0f 3a bb 91 5e 12 3d 67 d9 02 bd b5 17 d0 bc
       -0.002839043 0.035734717 -0.031945612 -0.02540193
000030 7b 02 b8 bb 9a a6 ec bc 47 5f 6f 3c 00 42 84 3c
       -0.00561553 -0.028888036 0.014610118 0.016144753
000040 ca 80 e2 bc 37 a0 ce 3c 6b 74 65 bd 58 f9 30 bd
       -0.027649302 0.02522288 -0.056019228 -0.043206543
000050 c1 84 19 3d ee 5a 42 bd 17 44 08 3c 49 f0 54 3d
       0.03748012 -0.04745 0.008317015 0.051986966
000060 d3 c5 64 3d e7 6a ab bc 8e 04 96 3c 75 93 84 bd
       0.055852722 -0.020924998 0.018312719 -0.06473438
000070 65 d7 c8 3a cf f4 55 bc 6d 15 ae 3c 60 e3 ab bc
       0.0015322982 -0.013058855 0.021250451 -0.020982444

running_var f4 [32]
000000 47 0e c1 3f 45 a3 01 40 2e 79 65 40 8e b7 05 40
       1.5082482 2.0255902 3.5855212 2.0893283
000010 c4 24 a9 40 18 90 e6 3f 12 b5 e4 3f c9 e0 84 40
       5.285738 1.8012724 1.7867758 4.1524396
000020 79 05 04 40 82 16 27 40 ca ef b4 3f 31 6a 9d 3f
       2.062834 2.6107488 1.4135678 1.2298032
000030 4e 5d 67 40 49 69 e6 3f 08 53 fc 3f 3f b7 0e 40
       3.6150699 1.800088 1.9712839 2.2299345
000040 2e 47 2d 40 e3 4c c5 3f 84 e5 a6 40 46 13 8c 40
       2.7074695 1.5414089 5.215517 4.3773527
000050 da 39 f3 3f 2b f0 c5 3f ac c4 21 40 6b e5 34 40
       1.900203 1.5463918 2.527629 2.8265026
000060 22 ce f0 3f 11 31 24 40 c8 bc 8f 40 e2 e3 1b 40
       1.8812907 2.5654948 4.4917946 2.4357839
000070 d0 ae 8b 40 fa 81 3d 40 6c de ce 3f c3 46 05 40
       4.3650894 2.9610581 1.6161628 2.082444

weight f4 [32]
000000 11 2d 86 3f 8e f3 7a 3f 15 5c 6d 3f ec 32 84 3f
       1.0482503 0.98027885 0.9271863 1.032804
000010 d7 64 76 3f 10 76 68 3f b5 18 86 3f 30 2d 8a 3f
       0.9624762 0.9080515 1.047629 1.079504
000020 5f 15 8f 3f 32 43 89 3f 14 93 83 3f 56 6c 8a 3f
       1.1178397 1.0723631 1.027926 1.0814312
000030 79 77 81 3f b2 c3 87 3f b2 e3 78 3f 32 0c 91 3f
       1.0114585 1.0606596 0.97222435 1.1331847
000040 ef 4a 8a 3f a7 ce 8d 3f 04 ff 87 3f a7 54 80 3f
       1.0804118 1.107869 1.06247 1.0025834
000050 10 52 86 3f 60 f7 74 3f 70 f1 87 3f aa da 79 3f
       1.0493793 0.95689964 1.0620556 0.9759928
000060 05 22 76 3f a9 2a 64 3f 40 71 85 3f c7 99 78 3f
       0.9614566 0.89127594 1.0425186 0.97109646
000070 96 46 6a 3f 0f 4b 83 3f e3 04 65 3f d0 a2 79 3f
       0.91513956 1.0257281 0.8946058 0.9751406

bias f4 [32]
000000 c9 f1 f9 3d 88 b5 63 bd fe 05 fc 3c c1 74 9c bd
       0.1220432 -0.055593044 0.030764576 -0.076394565
000010 f6 2a 8f bd d6 81 51 bd 44 c7 d7 bd ee 7c cd bd
       -0.06990616 -0.05114921 -0.10536054 -0.10033594
000020 4e 0b dc bb f0 8c 2a bd 17 21 b3 3d c0 70 25 3e
       -0.006715215 -0.041638315 0.08746546 0.16156292
000030 ca eb 74 bd 1d 21 39 bd a1 56 03 3d 60 8b 84 3d
       -0.05979518 -0.045197595 0.032065038 0.06471896
000040 f7 f5 e9 3c bb 5e 85 bd f2 1d a5 bd 91 0a 68 3d
       0.028559668 -0.06512209 -0.08062352 0.056650702
000050 d8 fa fc bc 49 e3 41 bd 83 fc 24 3d 62 c5 f7 3d
       -0.03088133 -0.047335897 0.040279876 0.12098195
000060 8d 70 ce 3d ad c5 bf 3d 4e b7 12 bc 24 88 95 3d
       0.10080061 0.093638755 -0.008954836 0.073013574
000070 69 93 46 3d 8a 17 90 3d 50 1e 7a bb 90 7e f2 3d
       0.048480425 0.0703574 -0.003816504 0.11840546

running_mean f4 [32]
000000 fd 48 6b 3d 35 a7 c3 3c 36 c7 17 be 38 67 fe bc
       0.057442654 0.023883441 -0.14822087 -0.031055078
000010 b9 f3 dc bc e4 63 a5 3d fc d2 72 bd a4 cb 39 bd
       -0.026971685 0.08075693 -0.05928324 -0.045360222
000020 5d c4 ff 3c e6 a0 78 bd 14 50 26 3d fa 92 0d bd
       0.031221563 -0.06070032 0.040603712 -0.034563996
000030 e2 09 72 3d 47 3e 87 bd 80 6b b1 3c 56 99 03 3d
       0.059091456 -0.06603675 0.021657705 0.032128654
000040 51 02 c1 3d 85 20 4f 3d e9 ed b6 3b 7d 10 ac bd
       0.0942427 0.050568122 0.0055825603 -0.084015824
000050 a7 bd bb bd bc 26 16 3d ff f9 97 3d 90 77 92 3d
       -0.09167033 0.036658034 0.0742073 0.07151711
000060 81 98 44 bd 22 29 b4 3d 78 70 00 bc a1 d5 f5 bc
       -0.047997 0.08796908 -0.007839315 -0.030009093
000070 4f d5 cb bc 8b 83 a2 bc 9e 6d 8c 3c 87 2a b0 3c
       -0.024881987 -0.019838115 0.017142113 0.021504654

running_var f4 [32]
000000 0f 33 ce 3f e9 60 7a 3f 3b e5 a5 3f df ea 7d 3f
       1.6109332 0.97804123 1.296058 0.9918651
000010 ed 32 83 3f 39 69 8f 3f 80 57 9c 3f 39 31 01 40
       1.0249916 1.1203986 1.2214203 2.0186293
000020 6b 0f 87 3f c5 59 7a 3f aa d5 ca 3f f6 17 c2 3f
       1.055158 0.9779323 1.5846455 1.5163562
000030 38 a5 95 3f f0 a2 a2 3f b4 01 91 3f 25 8b 8b 3f
       1.1691046 1.2705975 1.1328645 1.0901839
000040 76 b6 6f 3f 30 a7 56 3f e9 75 c5 3f 1c 16 95 3f
       0.9363779 0.8384886 1.5426608 1.1647372
000050 35 2a 80 3f af 0b ac 3f 4e 8b 84 3f 49 77 ca 3f
       1.001288 1.3441066 1.0355012 1.5817653
000060 4f 37 e8 3f 2d 61 d3 3f f4 05 f5 3f 0f bf b4 3f
       1.8141879 1.6514031 1.9142442 1.4120806
000070 4d a9 ef 3f 2a 11 a2 3f 61 71 ac 3f f8 8b bb 3f
       1.8723541 1.2661488 1.34721 1.465209

weight f4 [32, 16]
000000 94 fe 86 3e a4 e3 13 3e ee 3c 2f bf 48 01 40 3e
       0.26366103 0.14442307 -0.68452346 0.18750489
000010 4c 4e 93 bf 5d 7a 15 bf d1 77 80 be 1c d1 bc bf
       -1.1508269 -0.58389837 -0.25091413 -1.4751315
000020 0c db 46 bd e3 f4 98 be 55 49 6b bf 1b 30 f7 3e
       -0.048548743 -0.29874334 -0.9190877 0.4827889
000030 3a 14 80 bf d6 fc 39 3f 05 88 72 3f 28 36 eb 3e
       -1.0006173 0.7265142 0.947388 0.45939755
000040 83 bd 0e bf 06 8a 85 bf e7 b6 88 bf d1 23 dd 3d
       -0.5575792 -1.0432746 -1.0680817 0.10797847
000050 03 a8 45 3e 3d f1 33 3f 63 03 5f bf fe 43 42 bf
       0.19302373 0.70289975 -0.8711454 -0.75885
000060 47 7c 20 be 5a 3b ae bf 93 40 9d bf f2 bd 30 3f
       -0.15672408 -1.3611863 -1.2285331 0.69039834
000070 75 58 b6 3e a7 93 87 3e 24 71 84 3c 70 8a 84 bf
       0.35614362 0.26479837 0.01616723 -1.0354748
000080 f3 9a 4c bf dc ba e8 3f d0 ad 3b bf 74 c8 53 be
       -0.79923934 1.8182025 -0.7331209 -0.20681936
000090 dd bd 05 3f 21 4c 64 3e 11 54 45 bf e0 a4 c4 bf
       0.52242833 0.22294666 -0.770814 -1.5362816
0000a0 b8 31 06 3e a5 91 4f bf 44 c9 85 be ad cc f5 3e
       0.13104904 -0.8108161 -0.26130116 0.48007718
0000b0 48 f9 3d bf 99 84 25 3f 63 06 57 be 52 30 b1 bf
       -0.742085 0.6465545 -0.2099853 -1.3842871
0000c0 3f 24 7c bf 00 a4 7b be ba dc 36 3f c4 e8 ec 3e
       -0.9849281 -0.2457428 0.7143055 0.46271336
0000d0 4c 6b 52 3f 08 ff 77 bf 5f b3 a3 be a6 d4 a8 bf
       0.8219497 -0.9687352 -0.31972787 -1.3189895
0000e0 dd c5 46 3f ce 8a 87 3d 39 0f 12 bf 92 9d b1 3e
       0.77645665 0.06618272 -0.5705448 0.3469053
0000f0 22 22 85 3f ee 14 7c be cb f6 70 3f 35 fe b2 be
       1.0401042 -0.24617359 0.94126576 -0.3495957
000100 9a 1a b6 bf 51 d4 3f 3f c0 ac 85 3e db 3e 1d 3e
       -1.4226868 0.74933344 0.2610836 0.15356009
000110 c9 0c c6 3f 08 9e c8 bd d0 19 8b be e6 e6 3b bf
       1.5472652 -0.09795767 -0.2716813 -0.733992
000120 d6 33 32 bf c3 82 8b 3e 88 ba 2a bd 25 f4 fc be
       -0.69610345 0.272482 -0.041681796 -0.49405017
000130 2e a4 19 bf 6e fd 3d bf 13 a9 1a 3f 77 69 8d 3f
       -0.60016143 -0.7421483 0.60414237 1.104781
000140 4e 16 95 3f c8 e0 9b 3e ab dc 64 bf 31 f5 71 3d
       1.1647432 0.30444932 -0.8939921 0.059071723
000150 fe 95 d0 3e 22 af c6 3d d5 23 53 3e 32 84 75 3e
       0.40739435 0.09701373 0.20619138 0.2397621
000160 65 0c 13 3f 93 84 32 bf 43 3c 26 3f db 71 60 3d
       0.5744079 -0.6973354 0.649357 0.05479608
000170 36 43 a0 bd eb 93 82 bf 06 12 2c 3f 75 5a e4 3e
       -0.078253195 -1.0201391 0.67215 0.44600263
000180 db 51 86 3f e3 4c 52 bf 28 18 85 3e 8c 6c a5 3f
       1.049373 -0.8214857 0.25994992 1.2923751
000190 91 5b 47 bf bf af 89 be 4b c0 92 bd 44 2b 83 3e
       -0.77874094 -0.26891896 -0.07165583 0.25618947
0001a0 d1 61 dc 3f 3d 75 b8 3e c6 48 a1 3e 78 c9 30 3c
       1.7217351 0.36026946 0.31500834 0.010790221
0001b0 a4 ec a1 bb 8e f0 40 3f d5 97 ee be bd d9 9b 3d
       -0.00494154 0.7536706 -0.46600214 0.0760989
0001c0 b7 0d 6d bd ec b7 52 bf ac b6 61 3e 81 3d ad 3e
       -0.057874408 -0.8231189 0.2204234 0.33835986
0001d0 f4 fc 60 bf 15 77 0f be 63 44 7a 3d e1 7c 7b bf
       -0.87885976 -0.1401027 0.061100375 -0.98237425
0001e0 c2 7b fe be af 3c 07 3f 2d fc 3b 3e 4b 05 82 3f
       -0.49703795 0.5282697 0.18357916 1.0157865
0001f0 ab 21 9d be 2b 93 a4 bc 2c 27 b5 bd b9 30 2a bf
       -0.3068975 -0.020089706 -0.08845362 -0.66480595
000200 70 16 d6 be b2 b0 ce be 32 a3 f0 bf d0 7b 38 3f
       -0.41813993 -0.40369183 -1.8799803 0.7206392
000210 11 6b a1 3f c2 82 1e 3f 9f 50 cb be d6 4a 1d bf
       1.2610799 0.6191827 -0.39709947 -0.61442316
000220 5e 13 21 bf b1 bc 9a bf ce 22 1e 3f 54 43 b7 3f
       -0.62920177 -1.2088834 0.6177186 1.4317422
000230 60 23 a4 3f b5 bf ac bd 6b 1b 08 3f b9 89 60 3e
       1.2823296 -0.08435003 0.53166837 0.21927537
000240 95 c5 b7 3e f5 5d 05 bf 53 8e 7d 3f d2 d0 4e bf
       0.3589293 -0.5209649 0.99045295 -0.80787385
000250 8f d1 16 bf 62 f6 00 bf 74 ad 25 3f 26 26 89 bd
       -0.5891351 -0.5037595 0.64717793 -0.06696729
000260 3b ae c8 3e 7d eb 96 3e 08 f0 e4 bd 42 4e 3c bf
       0.39195427 0.29476538 -0.11178595 -0.7355691
000270 f0 a1 43 be 42 a3 4b 3e 0d a6 a6 bf 9e 99 14 3f
       -0.19104743 0.19886497 -1.3019425 0.580469
000280 8d 68 b8 3f 52 06 1c bf f2 fe f5 3e 0a 00 aa 3c
       1.4406906 -0.60947144 0.4804607 0.020751972
000290 19 4f ce 3e 65 7e 53 3d bc 3c 9b 3f 01 99 e7 bd
       0.40294722 0.05163421 1.212791 -0.1130848
0002a0 94 24 29 3e 64 7b 21 3f 6c 49 45 bf 8f 3d 5c 3f
       0.1651786 0.63078904 -0.7706516 0.8603143
0002b0 9f 38 38 bd f4 81 ac 3f 09 1c e6 3e 3b f0 67 be
       -0.044975873 1.3477159 0.44943264 -0.22650234
0002c0 97 74 2f 3e 36 ed 3e bf 2e 5d 44 3f a8 20 f2 be
       0.17134319 -0.74580705 0.7670468 -0.4729054
0002d0 f6 e3 19 bc e1 37 38 3e 8a f3 77 3f c3 36 1e bf
       -0.009392729 0.17990066 0.96855986 -0.6180231
0002e0 0e a3 f5 3e 05 58 eb 3d 71 19 fc 3d bd 88 14 bf
       0.47975963 0.11491398 0.1230954 -0.58021146
0002f0 47 df 29 be 7d 50 ec bc 8a 1b 32 3f 1a 40 8e 3e
       -0.1658908 -0.028846974 0.6957327 0.2778328
000300 91 53 45 be 2e 83 0c 3f da dd cc be bc 17 78 3f
       -0.1927016 0.54887664 -0.4001301 0.96911216
000310 c7 06 c6 3e ea a3 80 3e 65 a0 c5 be e5 b4 44 bf
       0.38677046 0.25125057 -0.38598934 -0.76838523
000320 81 42 a7 3f 5d 14 d9 3f 5d aa 5b be 16 a5 08 bf
       1.306717 1.6959339 -0.21451707 -0.533769
000330 18 b2 6e 3f ae 04 93 bf 84 bf 2e 3e 0d a3 a1 bf
       0.932405 -1.1485803 0.17065245 -1.2627884
000340 1d b1 8f bf 96 b8 be be 80 bf 2f 3e 1d 82 87 3e
       -1.1225926 -0.37250203 0.17162895 0.26466456
000350 f6 bb 60 be a6 ad ad 3e 78 1e 12 3f 46 69 a3 3e
       -0.21946701 0.33921546 0.5707774 0.31916255
000360 00 ae 46 3f 27 4d 62 bf 91 11 84 3e 4c ce 2f 3f
       0.7760925 -0.88398975 0.25794652 0.6867416
000370 8c bb 85 bf bd e6 db bd bd 2e 36 bf b1 93 cf 3e
       -1.044786 -0.10737369 -0.71165067 0.40542367
000380 2e ca 27 3c 6c 2e 12 bf 89 d0 8e bf 96 66 5b 3e
       0.0102410745 -0.57102084 -1.115739 0.21425852
000390 da 08 56 3f f9 1c 8c 3f b7 88 76 3f a1 3d 1c be
       0.83607256 1.0946342 0.9630236 -0.15257885
0003a0 92 b8 60 3f 46 74 50 bf bb 18 d3 3d e0 cc 98 3e
       0.8778163 -0.8142742 0.10307451 0.29843807
0003b0 62 9c 05 3f 3b d9 bd 3e 80 57 a3 3f 77 f6 ad 3e
       0.52191746 0.37079796 1.2761078 0.339771
0003c0 d9 48 a3 3e 8a 38 76 be bd 73 54 3f 97 4e 4d 3f
       0.31891516 -0.24045005 0.829891 0.80198044
0003d0 2c c3 ed 3e cb 9f 33 bf 59 13 49 bf 5e 84 31 bf
       0.46437967 -0.701657 -0.7854515 -0.693426
0003e0 79 f1 a0 3e b3 d6 cd bd 21 ac 2d be 90 8e 8d bf
       0.3143423 -0.10050716 -0.16960193 -1.1059132
0003f0 0d e2 ac 3d 80 11 bd 3e 61 e8 73 3d 64 e3 81 3f
       0.08441553 0.36927414 0.059547786 1.0147519

weight f4 [32]
000000 67 fa 8a 3f 04 9e 86 3f 8e 44 83 3f 75 9c 68 3f
       1.0857667 1.0516973 1.0255296 0.90863734
000010 9e a9 77 3f a1 73 78 3f 7e d3 7f 3f d3 e6 8f 3f
       0.9674319 0.97051436 0.99932086 1.1242317
000020 ab 4f 74 3f 55 8e 7f 3f e9 08 89 3f ce cb 80 3f
       0.95434064 0.99826556 1.0705844 1.0062196
000030 c0 4f 76 3f 36 88 60 3f c4 a8 75 3f 21 53 6f 3f
       0.9621544 0.8770784 0.9596064 0.9348622
000040 33 d4 8c 3f 20 99 8c 3f 8d 73 7e 3f cf d3 7c 3f
       1.1002258 1.098423 0.99395066 0.98760694
000050 af 02 84 3f cf bb 8b 3f 99 59 6d 3f 8a 2e 8d 3f
       1.0313319 1.091669 0.9271484 1.1029828
000060 08 fd 8e 3f 2d c2 79 3f 32 0b 89 3f d1 a0 83 3f
       1.1170969 0.97561914 1.0706542 1.0283452
000070 20 e7 82 3f d7 2d 6c 3f 69 d2 78 3f f7 e6 79 3f
       1.0226784 0.92257446 0.9719606 0.9761805

bias f4 [32]
000000 e0 d0 e6 3d e6 fd 4b 3a e0 57 73 39 9c 16 8d bc
       0.112703085 0.0007781669 0.00023207022 -0.017222695
000010 a1 6a e0 3d af e2 07 3d ab 68 00 bd 1e 89 5e bc
       0.10957838 0.033175167 -0.03134982 -0.013582496
000020 f2 fd e6 3c de 0c 96 3d ec 3d 89 bc 1f 23 d9 bd
       0.028197262 0.07326673 -0.01675316 -0.10602402
000030 c8 bd 2d bd 46 0a 5d bd f0 3f 9f 3d d9 46 c3 3d
       -0.042417318 -0.053964876 0.07775867 0.095349975
000040 71 13 33 3d 13 f0 db 3c 99 ae e1 3d 10 bf f6 bd
       0.043719713 0.026847875 0.1101963 -0.12048161
000050 9f 0d 9b 3a 8e 2c ed 3c 89 c1 7c 3b 7f 8b 0e 3e
       0.0011829621 0.02895191 0.0038567504 0.13920401
000060 49 f6 a3 bd 52 3f 24 3d 92 14 7b 3d 0d 6c 02 bd
       -0.080059595 0.04009945 0.061298914 -0.031841327
000070 f7 25 36 bd 86 98 1d be 2a 17 12 bd 74 6a 4a bd
       -0.0444698 -0.15390214 -0.035666622 -0.049417928

running_mean f4 [32]
000000 0c 5b 2c 3d 7a b7 16 3d 13 00 a8 bc ea 6a ea bd
       0.042079017 0.03679607 -0.020507848 -0.114461735
000010 d9 e5 5c bd 64 b9 c3 3d 22 b5 6c 3b a3 f8 43 3d
       -0.053930137 0.09556845 0.0036118706 0.04784454
000020 55 8e d6 3d 99 29 fe bc b3 89 03 bd d7 bd b0 bc
       0.104763664 -0.031025695 -0.032113742 -0.021574898
000030 bd 60 26 be a1 ec 13 3d 75 ec a4 3b 8e 9f 8b bc
       -0.1624784 0.03611434 0.0050330707 -0.017043855
000040 cf 52 e1 3c f9 70 1d 3d d3 9f 4c 3d 7a e6 ba bd
       0.027505307 0.038437817 0.049957108 -0.09125991
000050 ed bd b3 3d ec 04 28 3d a9 a1 9b 3d 78 e8 98 bd
       0.0877646 0.04102032 0.075991936 -0.07466215
000060 3f 3c 97 bd 98 76 3a 3d 50 b9 52 3d 89 7a fc 3d
       -0.07384538 0.045523256 0.05144626 0.12328059
000070 91 36 0e bd 69 fb ff 3c 9b 02 32 3c 32 54 41 3d
       -0.034720007 0.031247811 0.010864879 0.047199436

running_var f4 [32]
000000 87 6f 9b 3f af 3e aa 3f 7b 9e ab 3f 2d 9e d1 3f
       1.214341 1.330038 1.3407739 1.6376396
000010 97 9a b8 3f d8 0d a1 3f da 5e 88 3f 41 c1 72 3f
       1.4422177 1.258235 1.0653946 0.9482613
000020 79 5a b2 3f cd 3a 82 3f ce 3a a2 3f d8 a9 a2 3f
       1.393386 1.0174195 1.2674196 1.2708082
000030 7f aa a6 3f 75 5a 8e 3f 20 e2 96 3f 15 17 9c 3f
       1.3020781 1.1121355 1.1787758 1.2194544
000040 60 3c 7b 3f 8c 90 bd 3f cf e1 a2 3f 10 7a 83 3f
       0.98139 1.4809737 1.2725161 1.0271626
000050 06 f8 98 3f 88 f7 86 3f 6e a6 aa 3f 9d 0f b6 3f
       1.1950691 1.054429 1.333204 1.4223515
000060 48 95 ca 3f 71 12 76 3f 8c 3b bb 3f be 21 8a 3f
       1.5826807 0.9612189 1.4627547 1.0791547
000070 91 1a e8 3f 3f f1 a3 3f a8 50 8f 3f 3a e1 8b 3f
       1.8133107 1.2807997 1.1196489 1.0928109

weight f4 [32, 16]
000000 51 6d 3e 3d 32 77 4a 3e d6 70 43 bf bb 2b 5a 3e
       0.04649097 0.19772032 -0.7634405 0.21305744
000010 01 d9 36 3f 52 5a ac bd 81 d2 97 bd 5d ed 25 3f
       0.7142487 -0.08415665 -0.07413197 0.6481531
000020 99 49 bd be ad af af 3e 5b 0a 5d bf ea 11 b9 3f
       -0.36970213 0.34313717 -0.86343926 1.4458592
000030 75 80 f2 be 68 e6 b9 3d 2d 18 69 3d a1 ec 86 3e
       -0.4736363 0.0907715 0.05690782 0.2635241
000040 6e 77 06 bd cd 9f 04 bf 90 4a 8f be db e6 11 3c
       -0.03282874 -0.51806337 -0.27986574 0.008905138
000050 aa ef f6 bd 02 e2 ff be 25 25 1c bf 06 1c 55 bf
       -0.12057431 -0.49977118 -0.6099418 -0.83245885
000060 8e 98 6a 3e 4c 10 34 bf 90 b5 63 bf 7e 33 9b bf
       0.22909757 -0.7033737 -0.8894892 -1.2125089
000070 9e ab 65 3e 55 29 4c bf 93 ec dc 3e f9 9f 70 bf
       0.22428748 -0.7975057 0.43149242 -0.939941
000080 de b2 ec be fe 5b 38 be ec 45 e2 3d 51 52 c5 3e
       -0.46230215 -0.18003842 0.11048493 0.38539365
000090 56 be 6e be a1 07 cd 3e cf cd 26 bf 17 74 f8 be
       -0.23314795 0.40044883 -0.6515779 -0.4852607
0000a0 35 f1 47 bc 38 19 8d 3e 64 b1 93 be e9 38 74 3e
       -0.012203504 0.27558303 -0.28846276 0.23849835
0000b0 84 df 08 3f 2b 42 55 3f 9b 36 88 be fd 04 ac bd
       0.5346606 0.8330409 -0.2660416 -0.08399389
0000c0 73 73 98 be b3 a7 9a bf f8 e7 75 3e 54 f2 3e bf
       -0.2977558 -1.2082428 0.2401427 -0.74588513
0000d0 9b 7d 1c 3e 82 16 aa 3f df dd 26 3e cc 83 31 bf
       0.1528229 1.3288119 0.16295575 -0.6934173
0000e0 f9 9a 3d 3f 2c 60 01 c0 37 11 0f bf 3c 24 4d 3d
       0.74064595 -2.0214949 -0.5588564 0.050083384
0000f0 8a f5 7b bf aa 41 5a bf 00 d7 b8 3f e7 dd 13 3f
       -0.9842154 -0.85256445 1.4440613 0.5776047
000100 b5 b2 4f be cd ac 79 3f 2a 41 98 3f 14 c2 37 3f
       -0.20283015 0.975293 1.1894886 0.71780515
000110 23 5f 6c bf 70 24 07 3e 42 18 40 bf ea 38 b4 3f
       -0.9233267 0.13197494 -0.75037014 1.4079869
000120 50 ab cc bd c1 3c 56 3d 10 92 39 3f b6 a4 aa 3c
       -0.09993613 0.052304033 0.724885 0.020830493
000130 11 3b f6 bd f9 d3 83 bf fd 06 a9 3e 3c 74 ec be
       -0.12022985 -1.0299064 0.33013144 -0.4618243
000140 51 5c 95 3e 42 ce b3 3e d0 2b da 3f 9c 54 22 bf
       0.29171994 0.351183 1.704462 -0.63410354
000150 27 11 9a be 49 c9 ee 3c ff d9 c4 be a9 47 33 3f
       -0.3009121 0.029148715 -0.38447568 0.7003122
000160 a1 50 2a bf a8 c3 64 3f e2 56 a8 3e 15 8c 7f bf
       -0.6652928 0.8936105 0.32878786 -0.99823123
000170 69 7a 41 3f 80 d8 ff 3f 43 fd 8d be c4 56 51 3f
       0.7557741 1.9987946 -0.27732286 0.8177302
000180 35 04 7f bf 24 40 2c 3f e5 99 20 bf 09 4c 05 3c
       -0.99615794 0.6728537 -0.62734824 0.008135804
000190 fa f9 19 3f 40 29 29 3f ea a4 8c 3e e4 cb f7 3f
       0.6014706 0.6607857 0.2746957 1.9359097
0001a0 7c e7 b4 3f d1 37 c9 be 2a 0c 17 3e a0 6b ca bf
       1.4133143 -0.39300397 0.14750734 -1.5814095
0001b0 be 9d 4f bf 8e 1b 2f 3f 61 e4 f3 3e 86 e2 8a 3d
       -0.8110007 0.6840142 0.47635177 0.06781487
0001c0 c6 fd 14 3f 72 85 bb 3f 30 7b 8d 3e fd 26 0a 3f
       0.5819973 1.4650099 0.27633047 0.5396574
0001d0 12 27 95 be 9a 1d 7b bf 95 7a c6 be 0f 5c 7d be
       -0.2913137 -0.98092043 -0.38765398 -0.24742149
0001e0 e7 83 a3 3f 18 57 37 bf a8 72 0d 3f 58 e8 6a 3d
       1.2774628 -0.7161727 0.55253077 0.057350487
0001f0 fa bf 63 3f d2 bb 35 bf 77 b6 68 bf 1e 51 2a bf
       0.8896481 -0.70989716 -0.9090342 -0.66530025
000200 35 aa ef 3d 3e d3 da 3d 93 f4 ce bd f9 46 44 3e
       0.11702386 0.106848225 -0.101052426 0.19167699
000210 28 48 83 be d2 09 f7 be c3 1b 2f 3f 56 94 01 bd
       -0.25640988 -0.4824968 0.68401736 -0.031635605
000220 41 56 d8 3e ca 2e 22 3f 4f f2 27 3f 05 99 f6 3e
       0.42253307 0.63352644 0.6560411 0.4816362
000230 ee 1a d3 3d d2 13 3c bf 01 f6 ab 3e 58 a1 ca bd
       0.10307871 -0.73467743 0.33586124 -0.09894055
000240 6c 04 0d 3f 3f e7 7b bd 43 71 0b bf a1 b3 f9 3e
       0.5508487 -0.06149983 -0.544697 0.48769858
000250 0b d9 31 3f e5 7f ee 3e 72 53 74 3f b6 c6 d5 3f
       0.69471806 0.4658195 0.9543983 1.6701267
000260 54 2f d0 be f8 8c 07 3f 9e 9c fb be d8 e7 1e 3e
       -0.40661108 0.52949476 -0.49142927 0.15518129
000270 cf 49 c3 be 7e 46 99 bd fd 61 b3 3e 3a b0 f4 3e
       -0.3814225 -0.074841484 0.35035697 0.477907
000280 51 46 87 3e e3 86 ad 3d 19 9b 33 bd 8f 5f 60 bf
       0.26420835 0.08472993 -0.043849085 -0.8764581
000290 d1 b8 04 be 67 4e fa be b0 a0 b2 be 2f 75 66 3e
       -0.12961127 -0.4888794 -0.3488822 0.2250564
0002a0 2f f7 3c 3b c4 8e 60 bf 47 4a 3f 3f 04 c9 1e 3f
       0.0028833856 -0.87717843 0.74722713 0.62025476
0002b0 fd 18 61 bf ff de e5 3e b7 12 ff 3e 35 9a be 3e
       -0.87928754 0.44896695 0.49818966 0.37227026
0002c0 a2 d7 87 be a5 f4 39 3e 24 29 07 bf a7 15 92 bf
       -0.26531702 0.1815973 -0.5279715 -1.1412858
0002d0 fd 58 49 3f f5 c0 58 bf f8 1b b6 3d 7d cf 55 bf
       0.7865141 -0.8466943 0.08892053 -0.83519727
0002e0 50 9e 76 3e f8 34 8d 3f c3 d1 ce 3e 3a d7 1e be
       0.24083829 1.103179 0.4039441 -0.1551179
0002f0 97 f1 33 3f 8e 93 f6 be c4 f7 80 bd 0c 0e b1 be
       0.7029051 -0.4815945 -0.062972575 -0.3458103
000300 ab fe e4 bf ec 76 0b 3f 0f 26 e1 bd 9c 04 e2 3e
       -1.7890218 0.54478335 -0.10993587 0.44144142
000310 ae 1f 0d bf 45 ed ac bc c7 d0 55 bf 1f d7 cc 3f
       -0.55126464 -0.021109233 -0.83521694 1.600315
000320 e9 69 35 bf 9f 64 83 3f 43 e5 9d 3e eb 47 48 3e
       -0.7086473 1.0265082 0.30838975 0.19558685
000330 b6 d4 de 3e 88 0b 79 bf 59 f6 84 bd e8 3f 97 3d
       0.4352166 -0.9728322 -0.064922996 0.07385236
000340 43 dd e4 3d 0f 66 08 3f 1c 78 62 be 91 eb bd be
       0.11175015 0.5328073 -0.2211613 -0.37093785
000350 4c 8b a3 be 8e e2 9f bf 49 57 9c 3e 4c 64 19 bf
       -0.31942213 -1.2491014 0.30535343 -0.59918666
000360 3c e8 21 3e d2 b9 72 bf 03 9b af 3d 21 cf 4a be
       0.15811247 -0.9481479 0.08574488 -0.19805576
000370 5f 1b b7 be 86 80 bb bf c8 b4 27 bf 9a dc 11 be
       -0.3576307 -1.4648597 -0.65510225 -0.14244309
000380 f6 70 6f bf 3b b6 4b 3f be 46 96 3d 29 f1 2a 3f
       -0.9353174 0.79574937 0.07337712 0.6677423
000390 80 df dd be 10 15 ce bc 88 0a 05 bf 6e a3 db bc
       -0.4333458 -0.025156528 -0.51969194 -0.026811328
0003a0 ee 8b 14 be de 1d 2c 3e 71 e5 82 3e 0b 29 62 be
       -0.14506504 0.16808268 0.25565675 -0.22085969
0003b0 4b 38 eb bf ca 9d 93 be 4a af 87 be 5e 2c 1a 3e
       -1.8376554 -0.2883132 -0.26500922 0.15055987
0003c0 70 b9 25 3f 41 72 a5 3e c7 c0 c3 3e fe 32 33 bf
       0.6473608 0.3231373 0.38233015 -0.6999968
0003d0 07 55 14 3f da 6f 02 40 16 2b 15 be 4a 88 76 bd
       0.5794224 2.0380769 -0.14567217 -0.06018857
0003e0 d3 d2 0b 3d 60 8c 04 3e 78 6d 1d be 91 14 53 bf
       0.034136605 0.12944174 -0.1537379 -0.82453257
0003f0 96 3c 5c 3e 5c e2 6c bf 2e aa 91 3e a6 d6 56 3e
       0.21507487 -0.92532897 0.2845015 0.2098032

weight f4 [32]
000000 00 00 80 3f 00 00 80 3f 00 00 80 3f 00 00 80 3f
       1.0 1.0 1.0 1.0
000010 00 00 80 3f 00 00 80 3f 00 00 80 3f 00 00 80 3f
       1.0 1.0 1.0 1.0
000020 25 5f 8e 3f 2c e1 82 3f d8 67 69 3f 3c ea 89 3f
       1.1122786 1.0224967 0.9117408 1.0774608
000030 9d 77 71 3f b8 44 68 3f 3a 4c 80 3f 0a 1e 88 3f
       0.9432314 0.90729856 1.0023263 1.0634167
000040 00 00 80 3f 00 00 80 3f 00 00 80 3f 00 00 80 3f
       1.0 1.0 1.0 1.0
000050 00 00 80 3f 00 00 80 3f 00 00 80 3f 00 00 80 3f
       1.0 1.0 1.0 1.0
000060 32 1a 8f 3f 43 c6 80 3f ee 30 70 3f 10 84 8f 3f
       1.1179869 1.0060505 0.9382466 1.1212177
000070 98 9b 8b 3f 55 aa 7e 3f 83 7a 79 3f c8 94 7d 3f
       1.0906858 0.99478656 0.97452563 0.9905515

bias f4 [32]
000000 00 00 00 00 00 00 00 00 00 00 00 00 00 00 00 00
       0.0 0.0 0.0 0.0
000010 00 00 00 00 00 00 00 00 00 00 00 00 00 00 00 00
       0.0 0.0 0.0 0.0
000020 33 c7 a8 bd 22 3f 70 bd b9 cc 2b 3d 92 0a c2 bd
       -0.08241119 -0.05865396 0.041943286 -0.094746724
000030 1a 7c 8e bd 53 0d 5d bd 57 fa e4 bd 5c 7c b9 3b
       -0.06957264 -0.053967785 -0.11180561 0.0056605767
000040 00 00 00 00 00 00 00 00 00 00 00 00 00 00 00 00
       0.0 0.0 0.0 0.0
000050 00 00 00 00 00 00 00 00 00 00 00 00 00 00 00 00
       0.0 0.0 0.0 0.0
000060 44 79 d1 3d 02 93 80 bc 8b 62 8b 3d aa 43 d5 bb
       0.10228208 -0.015695099 0.06805905 -0.0065083103
000070 63 4b e4 bd f4 35 b7 bd 1c 98 e6 38 fe e2 92 3d
       -0.111471914 -0.089458376 0.00010995587 0.071722016

running_mean f4 [32]
000000 94 d3 82 3c 51 7c 91 3c 06 fd 2c bc 5e 8d bf 3d
       0.015970029 0.017759474 -0.010558372 0.093531355
000010 88 05 99 3d f9 91 41 bd 13 85 d1 bd 51 bc 3d 3c
       0.07471758 -0.04725835 -0.1023046 0.011580543
000020 33 61 f8 bc 88 a0 5d 3c 17 f8 59 3d 94 aa 0f be
       -0.030319786 0.013527043 0.053215113 -0.14029914
000030 07 af 11 bd 7b 7b 6c 3c c0 4d 97 3c fc 9b 6b 3d
       -0.03556731 0.014433737 0.018469691 0.057521805
000040 cb e7 93 bc 78 56 81 3d 87 b0 01 bd 4e a6 e8 bd
       -0.018054863 0.06315321 -0.03166249 -0.11359845
000050 ba e9 8a 3c 27 20 57 bc 51 10 a2 bc 62 23 46 3d
       0.016957153 -0.013130224 -0.01978317 0.048373587
000060 75 3f af 3d fa 71 c0 bd 8a 0a ea 3c e1 56 08 bd
       0.08557025 -0.09396739 0.028569479 -0.03328598
000070 ed 3f 00 3d 9d 64 1e bd bc 33 5d bb e0 a8 72 3d
       0.031310964 -0.03867017 -0.003375276 0.059243083

running_var f4 [32]
000000 46 86 79 3f 2f c9 91 3f 37 bc 67 3f 95 22 32 40
       0.9747051 1.1389521 0.9052157 2.7833607
000010 0a e5 93 3f a3 73 a8 3f a3 71 af 3f 70 53 e0 3f
       1.1554272 1.316029 1.3706554 1.7525463
000020 a1 e1 8c 3f c2 ee aa 3f 7b 65 7b 3f 22 2b 86 3f
       1.1006356 1.3354113 0.9820172 1.0481913
000030 98 e0 d6 3f 51 24 7d 3f 94 43 83 3f ce 02 d9 3f
       1.678729 0.9888354 1.0254998 1.6953981
000040 4e 04 8f 3f ad 18 d2 3f b0 13 92 3f 22 2e 97 3f
       1.1173189 1.641378 1.1412258 1.1810954
000050 b3 87 8c 3f fa e3 81 3f d5 95 c7 3f f9 40 71 3f
       1.0978912 1.0147698 1.55926 0.94239765
000060 48 eb 8a 3f cc 54 07 40 a4 56 98 3f 07 fa 92 3f
       1.0853052 2.1145506 1.1901441 1.1482552
000070 e5 2c e7 3f bb 29 26 40 a3 a4 a5 3f bb c0 c2 3f
       1.8060576 2.596297 1.2940868 1.5215067

weight f4 [32]
000000 0a 46 6a 3f db 69 88 3f 30 a4 7d 3f cd 62 91 3f
       0.9151312 1.0657305 0.99078655 1.1358277
000010 18 e3 81 3f ea de 64 3f 2a 92 6e 3f 05 e5 6c 3f
       1.0147429 0.8940264 0.9319178 0.92536956
000020 cf bf 84 3f 84 da 63 3f cc df 6b 3f 91 74 94 3f
       1.0371035 0.89005303 0.9213836 1.1598073
000030 48 e1 64 3f f8 32 77 3f 76 f7 60 3f 95 71 80 3f
       0.8940625 0.9656215 0.87877595 1.0034662
000040 6d 5b 73 3f 99 77 89 3f 5e 3a 68 3f 61 68 8e 3f
       0.9506138 1.0739623 0.9071406 1.1125604
000050 13 36 81 3f 24 7e 8b 3f 0a 7b 84 3f d2 a8 78 3f
       1.0094627 1.089787 1.0350049 0.971326
000060 23 62 86 3f 6e 7a 8c 3f 53 aa 7b 3f 9a 34 97 3f
       1.0498699 1.0974863 0.9830677 1.1812928
000070 7f 26 6d 3f 75 14 86 3f 0a 91 6e 3f bd cd 72 3f
       0.92636865 1.0474993 0.9319006 0.9484518

bias f4 [32]
000000 11 f8 06 be 0a de 2c be 14 ec 33 be 28 64 56 3e
       -0.13180567 -0.16881576 -0.17570525 0.20936644
000010 02 dc 13 be fb 0f 57 3e ba 6f d4 bd 80 ce c6 3c
       -0.14439395 0.2100219 -0.10372873 0.024268389
000020 7c 83 46 3d 5a 48 d9 3d 64 f6 55 3d c5 01 cc 3d
       0.048465237 0.10609503 0.05223693 0.09961275
000030 75 01 04 3d 6b 60 18 3d 25 b6 b0 bc 42 93 67 bc
       0.032227952 0.037201326 -0.021571228 -0.01413423
000040 e5 b1 0f be 2c 09 95 3c 71 85 85 3d 62 db 19 3e
       -0.14032705 0.01819285 0.065195926 0.15025094
000050 b2 3e 89 bc 9b cf c2 bd 47 1d 9b bc 8c 17 7d bd
       -0.016753528 -0.09512254 -0.018934859 -0.061790034
000060 48 87 3d 3c 11 78 ee bd d3 f8 6d bd 11 48 5c 3d
       0.011567898 -0.116439946 -0.058098625 0.053779665
000070 31 fc 46 bd 31 68 22 bd da 5e 32 3b c2 b2 f6 3d
       -0.048580352 -0.039650146 0.002721718 0.12045814

running_mean f4 [32]
000000 9c 83 76 3b 11 58 86 bc fd a8 0c 3d ff 3a e6 3c
       0.0037615066 -0.016399415 0.034340847 0.028104303
000010 e8 8c 08 bd 79 02 96 bc b3 9f 46 bc 72 15 86 3d
       -0.033337504 -0.018311726 -0.012123036 0.06547059
000020 68 a4 89 bc 7e 99 7d 3c 98 ac 5a bc 92 54 80 3c
       -0.016802028 0.01547849 -0.013346814 0.015665326
000030 3d cc 01 3d 91 6f 08 bd 58 06 9d 3a 46 60 fc bc
       0.031688917 -0.033309523 0.001198004 -0.030807626
000040 46 88 c1 b9 91 84 e5 3b 4d 45 a0 bb 05 61 29 bc
       -0.0003691336 0.0070043285 -0.004891074 -0.010338073
000050 52 00 23 bc 29 91 c1 bc cd 23 16 3d d7 32 f6 bc
       -0.009948807 -0.023628788 0.036655236 -0.03005354
000060 75 a4 8c 3c 9f cd d2 bc 65 71 6a bc a3 34 14 bb
       0.017168263 -0.025732813 -0.014309262 -0.0022614382
000070 58 65 99 bd a5 ef 06 bd 10 8f bb bc fe 6e 54 3d
       -0.07490033 -0.032943387 -0.022895366 0.051863663

running_var f4 [32]
000000 4e 06 4e 3f e2 26 46 3f ce 47 51 3f 5f 2b 4f 3f
       0.8047837 0.7740308 0.8175019 0.80925554
000010 54 8f 58 3f 81 2f 4e 3f 86 e7 50 3f 59 72 5f 3f
       0.845937 0.80541235 0.81603277 0.87283856
000020 5c 68 4a 3f 1e 7e 4e 3f 11 d8 47 3f 93 0b 47 3f
       0.7906549 0.8066119 0.78064066 0.77752036
000030 be b5 4d 3f fe 5a 4b 3f 13 7e 4f 3f df 45 49 3f
       0.8035544 0.7943572 0.8105175 0.7862224
000040 eb 6c 55 3f 74 8a 49 3f 05 e6 52 3f 78 73 4f 3f
       0.8336932 0.7872689 0.8238223 0.81035566
000050 cd 00 44 3f 4b de 46 3f cf 8b 4b 3f 2c a6 4c 3f
       0.7656372 0.7768294 0.79510206 0.7994106
000060 00 f8 49 3f d0 4f 47 3f 6f d2 67 3f b3 29 4d 3f
       0.7889404 0.7785616 0.9055547 0.8014175
000070 27 3b 65 3f d7 24 51 3f c6 5b 4b 3f 1c b7 4f 3f
       0.89543384 0.8169684 0.7943691 0.8113878

weight f4 [32]
000000 6f d6 6b 3f 70 c8 8a 3f 1e 8f 8e 3f 88 f0 82 3f
       0.92124075 1.0842419 1.1137426 1.0229654
000010 77 9f 7c 3f 95 5e 8a 3f 6b 6b 5c 3f 30 62 65 3f
       0.98680824 1.0810114 0.86101407 0.8960295
000020 03 2c 85 3f 31 79 67 3f c5 d9 81 3f cc 19 96 3f
       1.0404056 0.904193 1.0144583 1.1726623
000030 54 02 7d 3f f1 3d 88 3f 2f 64 64 3f f1 e4 83 3f
       0.9883168 1.0643903 0.8921537 1.0304242
000040 b4 9e 60 3f 3e 1b 90 3f e4 76 91 3f bb 36 71 3f
       0.8774216 1.1258314 1.1364408 0.9422414
000050 b6 1f 92 3f 4a c0 6b 3f a2 e0 62 3f bc 6c 6e 3f
       1.1415927 0.92090285 0.8862401 0.93134665
000060 7c 42 83 3f 1f d5 6b 3f b5 83 8b 3f 67 85 65 3f
       1.0254664 0.9212207 1.0899569 0.8965668
000070 1a 14 78 3f b0 f4 87 3f 29 29 6e 3f 0d 2f 5b 3f
       0.9690567 1.0621548 0.93031555 0.8561867

bias f4 [32]
000000 2f ad a5 bb 0f 6b 31 be fe e4 34 be 7e 3d 57 3e
       -0.0050560455 -0.17325996 -0.17665479 0.21019551
000010 87 a3 39 be f5 51 54 3e 93 7b a4 bd 6a b8 c8 3c
       -0.18128787 0.20734389 -0.080313824 0.024501998
000020 68 f9 6d 3d fd 47 ac 3d 70 b4 0c be cd 99 ae bc
       0.05809918 0.08412168 -0.13740706 -0.021313572
000030 f2 ef 9c 3d dd 98 4b 3d ae 15 56 bd 7d 22 b0 bd
       0.076629534 0.04970633 -0.05226677 -0.08600328
000040 df 5f 19 3d 97 c8 21 3e a0 22 a4 3c e9 38 3d 3e
       0.037444945 0.15799175 0.020036042 0.18478741
000050 b6 ba bb bc 73 84 0e 3e 2b 75 fa bd e4 c4 b3 bd
       -0.02291618 0.13917713 -0.12229379 -0.08777788
000060 c6 79 b4 3d 48 06 de bd 52 6e 07 bd ae 1d 49 3e
       0.08812289 -0.10841042 -0.033064194 0.19640228
000070 b4 5f de 3a 71 0b 44 3d 31 a9 ef bc 97 a5 c6 3d
       0.0016965778 0.047862474 -0.029255481 0.096995525

running_mean f4 [32]
000000 ec ca 72 bd 1c e2 7f 3d ca 8f 2b be c6 3f 10 bc
       -0.059275553 0.062471494 -0.1675407 -0.008804267
000010 ee fc a5 bd 89 4e 89 3d 36 6a db bc 61 b0 05 3d
       -0.08104883 0.067044325 -0.026784044 0.03263891
000020 4f df 93 3c 21 90 56 bd 15 eb 54 3b 92 c2 90 bc
       0.018050818 -0.052383546 0.0032488753 -0.017670903
000030 7f 23 4c 3c be 4f 10 bd 19 ba 69 bd b7 dc 8b bc
       0.012459635 -0.035232298 -0.057062242 -0.017073018
000040 6b 85 5b 3d f6 00 93 3c c6 a5 8f 3d bd 66 59 bd
       0.053594034 0.017944794 0.07014041 -0.053076494
000050 ed 8d 94 bd 82 7c 73 bd 16 18 82 3d b8 38 ee bb
       -0.07253633 -0.05944491 0.0635225 -0.007269945
000060 47 48 6d bd b9 08 7e bd a6 3d 69 bd 73 23 88 bd
       -0.057930257 -0.062020037 -0.05694356 -0.066473864
000070 ae ae 48 bd e0 33 07 bd 63 75 19 3c 7a e0 28 3c
       -0.048994713 -0.033008456 0.009366366 0.010307426

running_var f4 [32]
000000 f6 c0 e4 3f 27 d4 b9 3f 3e b6 1c 40 76 2d 7b 3f
       1.7871387 1.4517869 2.4486232 0.9811624
000010 d2 0b b8 3f 8f 8e a5 3f f6 61 b0 3f 7f 7e 26 40
       1.4378607 1.293413 1.3779895 2.6014707
000020 b0 af 92 3f 9e 06 a7 3f 30 8b d5 3f 80 52 b1 3f
       1.1459866 1.3048894 1.6683102 1.3853302
000030 d9 ec c9 3f 5b 93 b1 3f 22 d6 8d 3f 27 f0 9c 3f
       1.5775405 1.3873094 1.1080973 1.2260789
000040 6e 3d 6a 3f b5 d1 80 3f 5d 99 05 40 61 ed 92 3f
       0.91499984 1.0063998 2.0874856 1.1478692
000050 2b 4f a4 3f d2 78 cc 3f 17 79 65 3f 9e 30 9e 3f
       1.283666 1.5974371 0.89637893 1.2358587
000060 ca 05 c1 3f b8 c5 da 3f 0b 86 11 40 47 f1 04 40
       1.5079892 1.7091589 2.2738063 2.0772264
000070 3b d2 b7 3f 06 fa c4 3f f4 f4 9e 3f 86 f2 b5 3f
       1.4361032 1.5388801 1.2418504 1.4214637
