Experiments/2022_07_26 13-51-41 wine_100runs_learning-rate_3mv-features_custom-loss /models/Model_run77_optimizer_params0.05_flavanoids.pt (torch, 264781 bytes, 318 tensors)

weight f4 [12]
0	0x3f800000	1.0
1	0x3f800000	1.0
2	0x3f800000	1.0
3	0x3f800000	1.0
4	0x3f800000	1.0
5	0x3f800000	1.0
6	0x3f800000	1.0
7	0x3f800000	1.0
8	0x3f800000	1.0
9	0x3f800000	1.0
10	0x3f800000	1.0
11	0x3f800000	1.0

bias f4 [12]
0	0x00000000	0.0
1	0x00000000	0.0
2	0x00000000	0.0
3	0x00000000	0.0
4	0x00000000	0.0
5	0x00000000	0.0
6	0x00000000	0.0
7	0x00000000	0.0
8	0x00000000	0.0
9	0x00000000	0.0
10	0x00000000	0.0
11	0x00000000	0.0

running_mean f4 [12]
0	0x00000000	0.0
1	0x00000000	0.0
2	0x00000000	0.0
3	0x00000000	0.0
4	0x00000000	0.0
5	0x00000000	0.0
6	0x00000000	0.0
7	0x00000000	0.0
8	0x00000000	0.0
9	0x00000000	0.0
10	0x00000000	0.0
11	0x00000000	0.0

running_var f4 [12]
0	0x3f800000	1.0
1	0x3f800000	1.0
2	0x3f800000	1.0
3	0x3f800000	1.0
4	0x3f800000	1.0
5	0x3f800000	1.0
6	0x3f800000	1.0
7	0x3f800000	1.0
8	0x3f800000	1.0
9	0x3f800000	1.0
10	0x3f800000	1.0
11	0x3f800000	1.0

weight f4 [12]
0	0x3f760e13	0.96115226
1	0x3fa00f6a	1.2504704
2	0x3f4fb3e3	0.8113386
3	0x3f8c5941	1.0964738
4	0x3f845012	1.0336936
5	0x3f85e759	1.0461227
6	0x3f844ae4	1.0335355
7	0x3f87fabc	1.0623393
8	0x3f4c1d28	0.7973199
9	0x3f86c246	1.0528038
10	0x3f557d30	0.83394146
11	0x3f999c5e	1.2000844

bias f4 [12]
0	0x3ce146df	0.027499614
1	0x3cbdeaac	0.02318319
2	0xbddb69eb	-0.107135616
3	0x3e234f37	0.15948187
4	0xbd4bbcc1	-0.049740557
5	0xbcd16c06	-0.025564205
6	0xbe39ebcc	-0.18156356
7	0x3d4775ce	0.04869633
8	0x3decc9a5	0.11561898
9	0xbe2f22a8	-0.17103064
10	0x3e252b07	0.16129695
11	0xbea84608	-0.3286593

running_mean f4 [12]
0	0x442926cb	676.60614
1	0x4007b6a2	2.120522
2	0x418e5ed7	17.796309
3	0x401af340	2.4210968
4	0x3fb9d07e	1.4516752
5	0x3fbdff2c	1.4843497
6	0x400a033e	2.156448
7	0x4288cf4f	68.4049
8	0x408eb051	4.459023
9	0x3f5f7a15	0.8729566
10	0x3ea7e9e1	0.32795623
11	0x413cb627	11.794471

running_var f4 [12]
0	0x47bb8b1d	96022.23
1	0x3ee8a77d	0.45440283
2	0x4127d487	10.489387
3	0x3effcaf7	0.49959537
4	0x3ebe4c5e	0.3716764
5	0x402634dc	2.5969763
6	0x3e230b62	0.15922311
7	0x44d8c0db	1734.0267
8	0x409a6421	4.824723
9	0x3e0edec5	0.13952167
10	0x3dd8df75	0.10589496
11	0x3f3d4531	0.739337

weight f4 [32, 12]
0	0x3ed2254b	0.41044077
1	0x3e90ae81	0.28258136
2	0x3f1bac92	0.60810196
3	0xbd1e24ee	-0.038609438
4	0xbf952c00	-1.1654053
5	0x3f2da018	0.6782241
6	0xbdceb0b8	-0.100923
7	0xbf506944	-0.8141062
8	0xbd85bb86	-0.06529908
9	0x3fd4cad3	1.6624397
10	0xbf29ce19	-0.66330105
11	0xbe4af42c	-0.19819707
12	0x3e25da33	0.16196518
13	0x3e5633fd	0.2091827
14	0x3e038909	0.12845244
15	0x3efc0ecb	0.49230036
16	0xbf4a4a32	-0.79019463
17	0xbddc876f	-0.107680194
18	0x3f8d1047	1.1020592
19	0x3d9a9c49	0.0754934
20	0x3e903402	0.2816468
21	0x3e136779	0.1439494
22	0xbfa71416	-1.3053005
23	0xbec1cb92	-0.37850624
24	0xbc4f68ca	-0.012659261
25	0x3eb5a147	0.35474607
26	0xbef56ad5	-0.4793307
27	0x3eda83d7	0.4267871
28	0xbe4b5f51	-0.19860579
29	0xbff02d6e	-1.8763864
30	0xbdcbfa52	-0.09959854
31	0x3ef0884f	0.46978995
32	0x3e7dcb25	0.24784525
33	0x3f969b30	1.176611
34	0x3f3f7eee	0.74803054
35	0xbfb31c66	-1.3993042
36	0x3fb438ad	1.4079796
37	0x3ed58063	0.41699514
38	0x3c933f6e	0.017974582
39	0xbf32a215	-0.6977857
40	0xbf553ef7	-0.832992
41	0x3ce17a40	0.027524114
42	0x3de8ce21	0.11367441
43	0x3edf5407	0.43618795
44	0x3ecedc0f	0.40402266
45	0x3f9ebe19	1.2401763
46	0xbe6b7bdc	-0.22996467
47	0xbef52c23	-0.47885236
48	0xbf6d920e	-0.92800987
49	0x3f7d67a8	0.9898629
50	0x3ecd94ea	0.40152675
51	0x3f1fb314	0.62382627
52	0x3f684ecb	0.9074523
53	0x3ea1055a	0.31449395
54	0xbf33b139	-0.70192295
55	0x3fe63af3	1.798674
56	0xbeb2a10a	-0.34888488
57	0xbed87f63	-0.42284688
58	0x400b9c9e	2.1814342
59	0x3f97c501	1.1856996
60	0xbf8db82d	-1.1071831
61	0x3fa70f43	1.3051533
62	0xbd83071e	-0.06397842
63	0xbf3065b2	-0.68905175
64	0xbed8d62c	-0.423509
65	0xbc719432	-0.014744805
66	0xbf1191a4	-0.56862855
67	0xbe01e130	-0.12683558
68	0xbea0bd35	-0.31394354
69	0xbf38cf51	-0.7219134
70	0xbf9936f6	-1.1969898
71	0xbf2ecc32	-0.6828033
72	0xbf1b31b2	-0.60622704
73	0xbf535809	-0.82556206
74	0xbdd443ea	-0.10364516
75	0xbf2d9565	-0.6780608
76	0x3db7dd14	0.08977714
77	0xbfb66319	-1.4248992
78	0xbecee031	-0.4040542
79	0x3e7778b7	0.24167143
80	0x3e71b9ae	0.23605987
81	0xbf81c27d	-1.0137478
82	0xbedb0fd6	-0.4278552
83	0x3f2b8863	0.67004985
84	0xbe39e671	-0.18154313
85	0xbefd4255	-0.4946467
86	0xbe5cdada	-0.2156786
87	0xbf726458	-0.9468436
88	0x3f9e70a1	1.2378122
89	0x3fab4c30	1.3382626
90	0x3fbe5ecc	1.487268
91	0xbf24f92f	-0.64442724
92	0x3f54f02b	0.8317897
93	0x3fd7fa6e	1.68733
94	0xbf23049b	-0.636789
95	0x3f2934b3	0.6609604
96	0x3f8d7e7e	1.1054227
97	0xbe09a37a	-0.13441268
98	0xbdbd6603	-0.09247973
99	0x3f2fb75e	0.6863917
100	0x3d2814a8	0.041035324
101	0xbbbd31f0	-0.0057737753
102	0x3f19699b	0.59926766
103	0x3f2a3395	0.6648496
104	0x3dbad443	0.09122517
105	0x3f2feb2b	0.6871821
106	0x3de39423	0.11112239
107	0x3f38bed4	0.7216618
108	0x3fa502dd	1.2891499
109	0xbd64c4cf	-0.055851754
110	0xbe4eb464	-0.20186001
111	0xbf8c50f0	-1.09622
112	0xbe105330	-0.14094234
113	0x3f4dfbc1	0.8046227
114	0x3f453d87	0.7704701
115	0xbf4fedd4	-0.8122227
116	0xbd7a4859	-0.061104152
117	0xbe6ea37b	-0.2330455
118	0x3e04530e	0.12922308
119	0x3f204328	0.6260247
120	0xbf092f49	-0.53587776
121	0xbeecd3ba	-0.46255285
122	0xbd974f9f	-0.073882334
123	0x3fa18181	1.2617646
124	0x3d1cf412	0.0383187
125	0xbb8a48a2	-0.0042200843
126	0xbecd4e0d	-0.4009861
127	0xbf03833a	-0.5137211
128	0xbf4b9d08	-0.79536486
129	0xbe563180	-0.2091732
130	0x3ebce8a3	0.36896238
131	0x3e0eaefa	0.13933936
132	0xbcd25f0b	-0.025680086
133	0x3e1d9ff2	0.15393046
134	0xbf0e4996	-0.55581033
135	0x3e9ab7dc	0.302184
136	0x3f9c4836	1.2209537
137	0xbf1eeaa5	-0.6207679
138	0xbef3fe80	-0.47655106
139	0xbe8fe5d4	-0.28105032
140	0xbfa93a00	-1.3220825
141	0xbe31e273	-0.1737154
142	0x3d128e05	0.03577997
143	0x3f0dbf8b	0.55370396
144	0xbe718c6b	-0.23588721
145	0x3f0a141f	0.5393695
146	0xbfe6780a	-1.8005383
147	0xbf1dff4a	-0.61717665
148	0xbf2d8d40	-0.67793655
149	0xbf65b72e	-0.89732635
150	0x3e8d53e7	0.27603075
151	0xbe13ea1e	-0.14444777
152	0xbf140da6	-0.57833326
153	0x3ed88eef	0.4229655
154	0x3f3ffdd9	0.74996716
155	0x3e27eb99	0.16398467
156	0xbf3c6326	-0.7358879
157	0x3ea387f1	0.31939653
158	0x3f676576	0.9038919
159	0x3f1b1323	0.60576075
160	0x3f6292e9	0.8850542
161	0x3f943300	1.1578064
162	0xbee63368	-0.44961095
163	0x3ebf2942	0.37336165
164	0x3eda8c36	0.42685097
165	0xbed28fec	-0.4112543
166	0xbf1ad1f9	-0.6047664
167	0x3e9f55d7	0.31120178
168	0x3e95292b	0.2913297
169	0x3e844b38	0.25838637
170	0x3f6eb722	0.9324819
171	0xbf19e3ae	-0.60113037
172	0xbfab7f77	-1.3398274
173	0xbf6b0127	-0.91798633
174	0xbf5d7457	-0.86505646
175	0x3f76da57	0.9642691
176	0x3ed00afc	0.4063338
177	0x3f204053	0.6259815
178	0x3dfcd598	0.12345427
179	0xbe83f091	-0.25769475
180	0x3e71ae29	0.23601593
181	0xbf9379fc	-1.1521602
182	0x3f42710b	0.7595374
183	0x3debde8a	0.11517055
184	0xbf7f0fff	-0.99633783
185	0x3f60eb0b	0.8785865
186	0x3e106774	0.14101964
187	0x3edcfa86	0.43159884
188	0xbe52abf9	-0.20573415
189	0xbe2b91c9	-0.16754831
190	0x3ef29b33	0.47384033
191	0xbf24ea5c	-0.64420104
192	0x3e7ecc9c	0.2488274
193	0xbf1787f6	-0.59191835
194	0x3ee1ff79	0.44140223
195	0x3f5c9cf8	0.86177015
196	0xbf9b358b	-1.2125715
197	0xbf96e958	-1.1789961
198	0xbf06b33a	-0.5261723
199	0x3f702386	0.93804204
200	0xbe541b7b	-0.20713608
201	0x3fe24759	1.7678024
202	0xbf391770	-0.7230139
203	0xbf6f6058	-0.93506384
204	0x3f8ec663	1.1154293
205	0x3c34da12	0.01103832
206	0xbdb4c875	-0.08827297
207	0xbf163d55	-0.58687335
208	0x3df6e617	0.12055605
209	0xbf814742	-1.0099871
210	0xbed6747c	-0.41885746
211	0x3ea8bf08	0.32958245
212	0xbed176bf	-0.4091091
213	0xbf86923e	-1.051338
214	0x3e44e627	0.19228421
215	0xbeec2081	-0.4611855
216	0xbf8ecfa5	-1.1157118
217	0x3f9d1355	1.2271525
218	0xbea094a2	-0.31363398
219	0x3f1e282e	0.6178006
220	0x3e42e093	0.19030981
221	0xbeac0562	-0.33597857
222	0xbebd45c8	-0.369673
223	0xbf9e4d75	-1.2367388
224	0x3f3bb7e1	0.7332745
225	0x3f8891a9	1.0669452
226	0xbc6d68d9	-0.01449033
227	0x3f8765db	1.0577959
228	0xbf9878ae	-1.1911829
229	0xbf2dbd8c	-0.6786735
230	0xbf02c86d	-0.51087075
231	0xbea2e95a	-0.31818658
232	0xbf3bcac4	-0.7335627
233	0x3ec49cd5	0.38400903
234	0xbfe51521	-1.7897073
235	0x3f2d9c82	0.67816937
236	0x3fe49be2	1.7860072
237	0x3dbd9960	0.092577696
238	0x3f75e85b	0.9605767
239	0x3f829845	1.0202719
240	0xbed1917a	-0.40931302
241	0x3d9b4ed8	0.075833976
242	0x3edd9155	0.43274942
243	0x3eb8e7f1	0.36114457
244	0x3f097c71	0.5370551
245	0x3e715749	0.23568453
246	0x3e2d765d	0.16939683
247	0xbeae693c	-0.34064662
248	0x3e2b94b3	0.16755943
249	0x3e48b628	0.19600737
250	0x3e6b70af	0.22992204
251	0xbffd4d18	-1.9789152
252	0xbf0582d5	-0.5215276
253	0xbe976034	-0.29565585
254	0x3f23dfec	0.6401355
255	0xbdd2429a	-0.102666095

weight f4 [32, 16]
0	0x3dc5d5b6	0.09659903
1	0x3f9434f7	1.1578664
2	0x3f0dc41f	0.5537738
3	0xbcb0a8f2	-0.021564934
4	0xbfd1248a	-1.6339276
5	0x3e621848	0.22079575
6	0x3f4eb42b	0.80743665
7	0x3eb6bd5a	0.3569134
8	0xbdbf11d8	-0.09329575
9	0x3efd820f	0.4951329
10	0x3a8134e6	0.0009857684
11	0xbdcfec6e	-0.10152517
12	0x3f6884e3	0.9082777
13	0xbf03650b	-0.51326054
14	0xbecd110c	-0.40052068
15	0x3fbf6495	1.495257
16	0x3f7d43b0	0.9893141
17	0xbe580f03	-0.21099477
18	0x3f277284	0.6540911
19	0x3fade14b	1.3584379
20	0xbed4a4ac	-0.41531885
21	0xbf059b50	-0.52190113
22	0xbf2f01ed	-0.68362314
23	0x3ce8cfa2	0.02841932
24	0x3daecdfe	0.08535384
25	0xbe42a40c	-0.19007891
26	0xbe6fef09	-0.23431028
27	0x3e834422	0.2563792
28	0x3f39657c	0.7242048
29	0x3f418af3	0.75602645
30	0xbf3635ff	-0.7117614
31	0x3ea44072	0.32080418
32	0xbdc29622	-0.09501292
33	0xbf95ad68	-1.1693544
34	0xbfc87856	-1.5661724
35	0xbfb4af6f	-1.4116038
36	0x3e82c392	0.25539833
37	0xbf6b5d0f	-0.9193887
38	0xbd158bcc	-0.036510274
39	0xbf7e1e7f	-0.99265283
40	0x3e799521	0.24373294
41	0x3ed956e4	0.42449105
42	0xbf5430ee	-0.8288716
43	0xc000cbfc	-2.0124502
44	0x3f723997	0.94619125
45	0x3f44a288	0.76810503
46	0x3f416aff	0.7555389
47	0x3f6aadb4	0.916713
48	0x3dfb8fb8	0.122832716
49	0x3e69afa8	0.22820914
50	0xbf12bad0	-0.57316303
51	0xbf091c69	-0.53558975
52	0x3f0a069b	0.5391633
53	0x3e96a9b8	0.2942636
54	0x3d8d928a	0.06912716
55	0x3f811435	1.0084292
56	0x3e3d40ad	0.18481703
57	0xbec7010e	-0.38867992
58	0x3d654ea5	0.055983204
59	0x3e993eb7	0.2993066
60	0xbe9c002e	-0.30468887
61	0x3eec1b92	0.46114784
62	0xbe306812	-0.172272
63	0xbfa3fa80	-1.2810822
64	0x3e553ff9	0.20825185
65	0x3dc8af4b	0.097990595
66	0xbe9e679b	-0.3093842
67	0xbeb389df	-0.35066125
68	0xbe85a29f	-0.26100633
69	0xbee88d44	-0.45420277
70	0x3ea228de	0.31671804
71	0x3fa204fd	1.2657772
72	0x3fb348d8	1.4006605
73	0x3ee07ad0	0.43843699
74	0xbf859d9e	-1.0438726
75	0xbed70ebb	-0.42003426
76	0x3da8255d	0.082102515
77	0xbfc22bc8	-1.5169611
78	0xbe8ddcfa	-0.27707654
79	0x3f71c842	0.94446194
80	0xbf1708d8	-0.5899787
81	0xbf4341a5	-0.7627204
82	0x3ecd9880	0.4015541
83	0x3e5b11e4	0.21393543
84	0xbfafab14	-1.3724084
85	0x3cff28e2	0.031147424
86	0x3f14b187	0.58083385
87	0x3e20385f	0.15646504
88	0xbf6afc37	-0.917911
89	0xbf8d306b	-1.1030401
90	0x3e3f5183	0.18683438
91	0xbea9ff3c	-0.3320254
92	0xbfeb4b38	-1.838233
93	0xbda2a1d3	-0.07941022
94	0x3e816473	0.2527195
95	0x3e45abec	0.19303864
96	0xbe989fd9	-0.29809454
97	0xbe08d9a8	-0.1336428
98	0xbcd1e392	-0.02562121
99	0x3f58e329	0.8472162
100	0x3eb456a1	0.35222343
101	0x3ea08ec1	0.31358913
102	0x3f15765b	0.5838372
103	0x3ecb548a	0.39712936
104	0x3e7e2421	0.2481847
105	0x3ef296cf	0.47380683
106	0x3ef9be6c	0.48778093
107	0x3f6f2879	0.9342113
108	0x3f62b86f	0.88562673
109	0xbe12ea83	-0.14347272
110	0x3f9fdf9b	1.2490114
111	0xbf95e96f	-1.1711863
112	0xbdc31545	-0.09525541
113	0xbf8be1c7	-1.0928277
114	0xbf9dbe9c	-1.2323794
115	0xbfac8222	-1.3477213
116	0x3f2304ba	0.6367909
117	0xbf4e6df7	-0.80636543
118	0x3f35ba4a	0.7098738
119	0xbd1e5eae	-0.038664512
120	0xbf981825	-1.1882368
121	0x3f23a3b7	0.63921684
122	0xbf2dfa34	-0.67959905
123	0x3f926189	1.1436015
124	0xbf700452	-0.9375659
125	0xbd35c375	-0.044375855
126	0xbf1b39f0	-0.6063528
127	0xbe907c1b	-0.28219685
128	0xbf26ef7a	-0.6520916
129	0x3f3d726a	0.74002707
130	0xbf56d024	-0.8391135
131	0x3d958692	0.07301058
132	0xbf97ac88	-1.1849527
133	0x3fa8d7ca	1.3190854
134	0xbf52634e	-0.82182777
135	0x3f2999b6	0.6625017
136	0xbf0be15b	-0.5464074
137	0xbde8d431	-0.11368597
138	0xbf776230	-0.966342
139	0x3f09fb44	0.53899026
140	0x3f6ded11	0.9293986
141	0x3e907c11	0.28219655
142	0x3cf5d951	0.030010851
143	0xbc5f0aed	-0.013613445
144	0xbe33deb6	-0.17565426
145	0xbf016554	-0.5054524
146	0xbfb5cd39	-1.4203254
147	0x3e2084e4	0.15675694
148	0xbf5ca3c0	-0.8618736
149	0x3f3f7551	0.74788386
150	0xbf70d2dd	-0.9407175
151	0xbe059d06	-0.13048181
152	0x3f2e83cc	0.68169856
153	0x3f6283a4	0.8848212
154	0xbf824278	-1.0176535
155	0xbf24c657	-0.6436514
156	0xbf09a953	-0.53773993
157	0xbf34904a	-0.7053267
158	0x3e18ef90	0.14935136
159	0xbee2acd1	-0.44272473
160	0x3de256c4	0.110517055
161	0xbe82127b	-0.25404724
162	0x3f49c21a	0.788118
163	0x3f5d43f0	0.8643179
164	0xbf0889e5	-0.5333541
165	0xbe79055c	-0.2431845
166	0x3e856657	0.26054642
167	0x3db7784f	0.08958494
168	0xbec1192c	-0.37714517
169	0xbf752b3f	-0.95769113
170	0xbfb848c6	-1.4397209
171	0xbf8397c2	-1.0280688
172	0xbdb5c391	-0.08875192
173	0xbf6fab16	-0.9362043
174	0x3ecfb340	0.40566444
175	0x3ed6b7b0	0.41937017
176	0x3d034f8f	0.032058295
177	0x3aa224c6	0.0012370578
178	0xbe8b2acb	-0.27181086
179	0xbf08f59e	-0.5349978
180	0xbff49ad8	-1.9109755
181	0x3e26071d	0.16213651
182	0xbf802788	-1.0012064
183	0x3f6e2727	0.9302849
184	0x3f5680b7	0.83790153
185	0x3e905cdc	0.28195846
186	0xbfc538f7	-1.5408009
187	0x3f040df7	0.5158381
188	0xbf078971	-0.52944094
189	0xbe9a2ddb	-0.3011311
190	0xbed77631	-0.4208236
191	0xbfce845e	-1.6134145
192	0xbe6836ce	-0.22677156
193	0x3ce59c7e	0.028028723
194	0xbf47ee67	-0.7809815
195	0xbe98e7fe	-0.29864496
196	0x3f146cd1	0.5797854
197	0xbea9e76c	-0.33184373
198	0xbe4d7109	-0.2006265
199	0xbfa813a7	-1.3130997
200	0x3e6c8401	0.2309723
201	0xbf99088f	-1.1955737
202	0xbc07ede1	-0.008296461
203	0x3f259c2b	0.6469142
204	0xbf220422	-0.63287556
205	0x3f6bb007	0.9206547
206	0x3e2f57a0	0.1712327
207	0x3f96eb65	1.1790587
208	0x3e80d348	0.25161195
209	0xbfa35b6a	-1.2762272
210	0xbcd0309f	-0.02541381
211	0x3f3f1ccc	0.74653316
212	0xbe3dac6f	-0.1852281
213	0xbfad0cf0	-1.3519573
214	0x3f3c28fc	0.7350004
215	0x3f800ec1	1.0004503
216	0x3e35f835	0.17770465
217	0xbd9699e0	-0.07353568
218	0x3f54c1c3	0.83108157
219	0xbf7aae3a	-0.979221
220	0xbfa3e4a8	-1.2804155
221	0xbdd56220	-0.104191065
222	0x3e8b87d5	0.2725207
223	0x3e8e2804	0.27764904
224	0xbe32cb31	-0.17460324
225	0x3f46d71a	0.7767197
226	0x3e98bfe3	0.29833898
227	0xbc2ab830	-0.01041989
228	0xbe5d25ab	-0.215964
229	0xbf3d391d	-0.7391527
230	0xbef71ffe	-0.48266596
231	0xbd46d5de	-0.048543803
232	0xbd8a6fff	-0.06759643
233	0xbf893110	-1.0718098
234	0xbfbb7df3	-1.4647812
235	0x3bdf472c	0.0068139043
236	0x3e35981a	0.17733803
237	0x3fa4021a	1.2813141
238	0x3f99a57f	1.200363
239	0x3eb88403	0.36038217
240	0xbea4df98	-0.32201838
241	0xbec8dac4	-0.39229405
242	0x3f8a6c20	1.0814247
243	0xbe6643da	-0.22486821
244	0x3cc0db00	0.023541927
245	0xbf4e75e5	-0.8064864
246	0xbfade1a6	-1.3584487
247	0xbf775c27	-0.9662499
248	0x3e9f12b5	0.3106896
249	0x3f965bf5	1.1746813
250	0xbe0b98ac	-0.13632458
251	0x3f622143	0.88332003
252	0x3f2fd031	0.6867705
253	0xbf0d4151	-0.5517779
254	0x3f99810c	1.1992507
255	0xbde02712	-0.10944952

weight f4 [32]
0	0x3f315a5c	0.692785
1	0x3f891689	1.0710002
2	0x3f783794	0.96959805
3	0x3f4ffd9e	0.81246364
4	0x3f720390	0.94536686
5	0x3f53149d	0.8245333
6	0x3f51fec7	0.82029384
7	0x3fa3867b	1.2775415
8	0x3f30c1e3	0.6904585
9	0x3f8b3e25	1.087834
10	0x3f893e0a	1.0722058
11	0x3f971e7b	1.1806177
12	0x3f934e2a	1.1508229
13	0x3f7383cf	0.95123
14	0x3fa969ba	1.323539
15	0x3f52e313	0.8237774
16	0x3f601d12	0.8754436
17	0x3f9abf6f	1.2089671
18	0x3f2e334b	0.68047017
19	0x3f9110ed	1.133329
20	0x3f18b31f	0.5964832
21	0x3f64e672	0.8941413
22	0x3f8f7849	1.1208583
23	0x3fa327f6	1.274657
24	0x3f7c449c	0.9854219
25	0x3f5e3407	0.8679814
26	0x3f5a954a	0.8538405
27	0x3f961f07	1.1728219
28	0x3f8e8efe	1.1137388
29	0x3f9558f3	1.166777
30	0x3f99dc01	1.2020265
31	0x3f82e28f	1.022539

bias f4 [32]
0	0xbe45c485	-0.19313248
1	0x3db3f916	0.08787744
2	0xbddba61f	-0.107250445
3	0xbe319e46	-0.17345533
4	0x3dd49365	0.10379676
5	0x3d10505f	0.035232898
6	0x3ef7501e	0.48303312
7	0xbea86add	-0.3289403
8	0x3e905a9a	0.28194124
9	0x3de8aec6	0.113614604
10	0xbd2cec86	-0.042217754
11	0x3ea50ea4	0.32237732
12	0xbd4176e2	-0.047232516
13	0xbdd0a3ba	-0.10187478
14	0x3c6e2f59	0.014537656
15	0x3e18426a	0.14869085
16	0xbea98fbc	-0.33117473
17	0xbd80592c	-0.06267008
18	0x3e7b1d4f	0.24522899
19	0xbea5f110	-0.3241048
20	0x3d699a8c	0.057032153
21	0xbe29a5c0	-0.16567135
22	0xbe20e8c5	-0.15713795
23	0x3e745c13	0.23863249
24	0xbe77258a	-0.24135414
25	0x3e0d6936	0.13809666
26	0x3d4cab08	0.049967796
27	0x3dc0034a	0.09375627
28	0x3e1e8201	0.1547928
29	0xbe064b7d	-0.13114734
30	0x3e760064	0.24023587
31	0xbd9a7750	-0.07542288

running_mean f4 [32]
0	0xbeba6be6	-0.36410445
1	0xbe20ed34	-0.15715486
2	0x3f20561e	0.62631404
3	0xbd89150c	-0.066934675
4	0x3e548587	0.20754062
5	0x3e083332	0.1330078
6	0xbdd40d93	-0.103541516
7	0xbf85654a	-1.0421536
8	0xbe82cd6c	-0.2554735
9	0xbeeabeab	-0.45848593
10	0x3e3c7459	0.18403758
11	0xbe240f0f	-0.1602137
12	0x3cdb76f0	0.026790112
13	0xbd870c12	-0.06594099
14	0x3e1f2b4f	0.15543865
15	0x3e6cf369	0.23139729
16	0x3e349580	0.17635155
17	0x3ebda35e	0.37038702
18	0xbe9eff59	-0.3105419
19	0x3eb1c0c2	0.34717375
20	0x3f16debd	0.5893362
21	0xbe1cb7ec	-0.15304536
22	0x3e3e70e0	0.18597746
23	0x3f157d7c	0.583946
24	0x3f3c3a9b	0.73526925
25	0xbe8c530c	-0.2740711
26	0x3f014507	0.5049595
27	0xbf14169d	-0.57847005
28	0x3e829d41	0.255106
29	0xbe2f884b	-0.17141835
30	0x3f46633c	0.7749517
31	0xbf118017	-0.56836075

running_var f4 [32]
0	0x408c8287	4.3909335
1	0x402afd32	2.6717038
2	0x413ecd4f	11.925124
3	0x40517545	3.2727826
4	0x4110f643	9.0601225
5	0x406d44dd	3.707328
6	0x40a95d0b	5.292608
7	0x40eaf625	7.342547
8	0x40d6711e	6.7013083
9	0x40ef4c16	7.478038
10	0x403b5988	2.9273396
11	0x40c9f8a1	6.3116
12	0x4043c00c	3.0585966
13	0x404d448c	3.2073088
14	0x407961ae	3.896587
15	0x4139ad3b	11.604793
16	0x4150c573	13.048205
17	0x40078190	2.1172829
18	0x4119225e	9.57089
19	0x415c2618	13.7593
20	0x40fac02c	7.8359585
21	0x403cee8b	2.9520595
22	0x4112ea99	9.182275
23	0x40a02f72	5.0057917
24	0x410cddaa	8.804117
25	0x40f4b60b	7.647222
26	0x41498344	12.594547
27	0x40681407	3.6262224
28	0x41103327	9.012488
29	0x414a18f2	12.63109
30	0x40ee232a	7.4417925
31	0x4117474c	9.454906

weight f4 [32]
0	0x3f8257d6	1.0183055
1	0x3f533788	0.8250661
2	0x3f51272d	0.817004
3	0x3fa30343	1.273537
4	0x3f330641	0.6993142
5	0x3f8019a2	1.0007823
6	0x3f5cd2f9	0.8625942
7	0x3f9a3b75	1.2049395
8	0x3f9fa77d	1.2472988
9	0x3f95e342	1.1709979
10	0x3f4a9f3c	0.7914922
11	0x3f8c3d93	1.0956291
12	0x3f71d743	0.9446909
13	0x3f948152	1.1601965
14	0x3f56c61e	0.8389605
15	0x3f9b5d8e	1.2137926
16	0x3f89637a	1.0733483
17	0x3f98e709	1.1945506
18	0x3f314509	0.69245964
19	0x3fba6b21	1.4563943
20	0x3f31c803	0.6944582
21	0x3f6d002f	0.92578405
22	0x3f78e85e	0.97229564
23	0x3f3c74fc	0.73616004
24	0x3f9182e4	1.136807
25	0x3fc6363b	1.54853
26	0x3f5fefdd	0.8747538
27	0x3f42a867	0.7603821
28	0x3fa7342c	1.3062797
29	0x3f1cbec5	0.6122859
30	0x3f4dc006	0.8037113
31	0x3f6146fa	0.87998927

bias f4 [32]
0	0x3e4055bb	0.18782704
1	0x3dac4654	0.084118515
2	0xbda36c34	-0.079796225
3	0xbdd8662b	-0.10566362
4	0x3e88049e	0.26566023
5	0x3db56db1	0.088588126
6	0xbeb7c3ef	-0.35891673
7	0xbe61bb5f	-0.22044133
8	0x3c655122	0.013996394
9	0xbe815fbb	-0.2526835
10	0x3d63d5f5	0.055623967
11	0xbcf2d891	-0.029644283
12	0xbe932f17	-0.28746864
13	0x3e1824b4	0.14857751
14	0x3e0ac4ab	0.13551585
15	0xbd96cd01	-0.0736332
16	0x3dee4c86	0.116356894
17	0xbd9b1cea	-0.07573874
18	0x3d8b45ca	0.068004206
19	0xbe2a4f87	-0.166319
20	0xbe884b1b	-0.266198
21	0x3d86106e	0.065461025
22	0xbd9579d7	-0.0729863
23	0x3e73860a	0.237816
24	0x3e68a776	0.22720131
25	0xbcd53dec	-0.026030503
26	0xbe5e4c3c	-0.21708769
27	0x3e80473a	0.25054342
28	0xbe338494	-0.17531043
29	0x3e6ba13c	0.23010725
30	0x3ddf3e59	0.10900564
31	0x3e8c57a8	0.27410626

running_mean f4 [32]
0	0x3c7bb80b	0.0153637035
1	0xbf1a8779	-0.60362965
2	0xbf38e6ed	-0.72227365
3	0xb9830308	-0.00024988526
4	0xbe470742	-0.19436362
5	0x3e6fcdf4	0.23418409
6	0x3e9f2617	0.31083748
7	0x3f6d24b0	0.92634106
8	0xbec41c60	-0.38302898
9	0xbe7c9132	-0.24664763
10	0xbf0174c5	-0.505688
11	0xbe16686d	-0.14688273
12	0x3ec9964a	0.39372474
13	0xbe8a4130	-0.2700286
14	0xbf0679a4	-0.5252936
15	0x3e2f6c83	0.17131238
16	0x3e9acce2	0.30234438
17	0x3f317bf1	0.69329745
18	0x3f1ef5d0	0.6209383
19	0xbebc657e	-0.36796182
20	0x3eee0c11	0.4649358
21	0xbc54e25e	-0.012993423
22	0xbe8c8296	-0.2744338
23	0x3e9d724e	0.3075127
24	0xbea84169	-0.32862404
25	0x3ea2abe5	0.3177177
26	0xbf1b2c41	-0.606144
27	0xbf0a3d1f	-0.53999513
28	0xbf11bb29	-0.5692621
29	0xbf1af87b	-0.605354
30	0xbe36988e	-0.17831632
31	0xbe816474	-0.25271952

running_var f4 [32]
0	0x4042fda7	3.0467317
1	0x3fe02b27	1.7513169
2	0x40e656de	7.198104
3	0x3feecdac	1.8656516
4	0x408c6418	4.3872185
5	0x404330a4	3.0498438
6	0x403f6947	2.9908006
7	0x409d1b3d	4.909575
8	0x3ff803cd	1.937616
9	0x401a8217	2.41419
10	0x40327ad7	2.7887475
11	0x408f5ff2	4.480462
12	0x404871f5	3.1319554
13	0x4065373a	3.5814958
14	0x40279b95	2.618871
15	0x405f0c12	3.4851117
16	0x3f771d3a	0.9652897
17	0x3f85b5a6	1.044606
18	0x404951ce	3.145618
19	0x4080e90a	4.028447
20	0x3fed4cfd	1.853912
21	0x40419a6a	3.0250497
22	0x3f74ba8e	0.9559716
23	0x40246c58	2.5691128
24	0x4032c016	2.792974
25	0x4068a5f1	3.6351283
26	0x40686635	3.6312382
27	0x40f7b969	7.741383
28	0x4067138e	3.6105685
29	0x403e3b79	2.97238
30	0x4066306d	3.5967057
31	0x404c0b9b	3.1882083

weight f4 [32, 16]
0	0x3e89844e	0.26858753
1	0x3ed673dd	0.41885272
2	0xbf478b80	-0.77947235
3	0x3f0f4ce2	0.5597669
4	0xbf9514aa	-1.1646931
5	0xbf77d719	-0.9681259
6	0xbef08e8d	-0.46983758
7	0xbfa4dfe8	-1.2880831
8	0x3eb02d03	0.3440934
9	0x3ccee98a	0.025257844
10	0xbf8554bd	-1.0416485
11	0x3f216ad3	0.63053626
12	0xbf8e0147	-1.109414
13	0x3f2d5866	0.6771301
14	0x3f4e615e	0.8061732
15	0x3e86ea51	0.26350644
16	0xbed7b747	-0.42132017
17	0xbfb475ac	-1.4098411
18	0xbf4e6e84	-0.80637383
19	0xbd906873	-0.07051172
20	0x3e9ac3e2	0.30227572
21	0x3f7fb09a	0.9987885
22	0xbf801554	-1.0006509
23	0xbf86e4cf	-1.0538577
24	0xbece969b	-0.40349278
25	0xbfc4aa8b	-1.5364546
26	0xbf6b141e	-0.9182757
27	0x3eaa13b7	0.33218166
28	0x3ebae2b1	0.36501077
29	0x3dbae5f7	0.091258936
30	0x3e0c69c3	0.1371222
31	0xbf4c38c9	-0.7977415
32	0xbf2979fa	-0.66201746
33	0x4004af73	2.0732086
34	0xbf0e19ef	-0.5550832
35	0xbed2c3c7	-0.4116499
36	0x3f211f57	0.62938446
37	0x3ec8f62c	0.39250314
38	0xbf0694f0	-0.5257101
39	0xbff9239f	-1.9463996
40	0xbdc0a388	-0.09406191
41	0xbf3ac8cb	-0.72962636
42	0xbe0ad267	-0.13556825
43	0x3e2e624e	0.17029688
44	0xbf5862b9	-0.8452564
45	0x3f2c98ee	0.6742085
46	0xbcdd08ec	-0.026981793
47	0xbf7a3f2e	-0.97752655
48	0xbf611550	-0.87923145
49	0xbeac26b5	-0.3362328
50	0x3f19ac2f	0.60028356
51	0x3eac19a1	0.33613303
52	0x3f3311f1	0.6994925
53	0xbf4b8d67	-0.7951264
54	0xbe09cfea	-0.13458219
55	0xbfaa2f7d	-1.3295742
56	0x3f08fa07	0.5350651
57	0xbebf3794	-0.3734709
58	0xbeec0236	-0.46095437
59	0x3e593173	0.2121027
60	0x3fc29956	1.5203044
61	0xbe6c34c5	-0.23067005
62	0x3f9fd943	1.2488178
63	0xbe85d1c5	-0.26136604
64	0xbfb3d8e3	-1.4050564
65	0x3f359833	0.7093536
66	0x3e5bfaaf	0.21482347
67	0x3dd26376	0.10272877
68	0x3fec79dc	1.8474689
69	0xbe99097c	-0.29890049
70	0xbeee5c94	-0.46555007
71	0xbeb6edbd	-0.35728255
72	0xbee5674c	-0.44805372
73	0x3eee8f12	0.4659353
74	0xbcaf839d	-0.021425063
75	0xbeab4881	-0.33453754
76	0xbf7ddf19	-0.99168545
77	0xbf3dfdaf	-0.74215215
78	0x3f02bb3c	0.51066947
79	0x3f8ae4a5	1.0851027
80	0x3fa0df8a	1.2568219
81	0x3eb68046	0.3564474
82	0xbf46fdd1	-0.77731043
83	0xbc1182cf	-0.008881285
84	0x3ed670a7	0.41882822
85	0x3ea2974e	0.3175606
86	0x3f14463f	0.5791969
87	0x3d800afe	0.062520966
88	0x3e860b88	0.26180673
89	0xbf3241bb	-0.69631547
90	0x3f2550ce	0.64576423
91	0xbd261a82	-0.040552624
92	0xbda50065	-0.08056716
93	0xbf952611	-1.1652242
94	0x3f33fb58	0.70305395
95	0x3ebaca8d	0.3648266
96	0x3f276fbf	0.65404886
97	0xbf838908	-1.0276194
98	0x3eb695ab	0.35661063
99	0x3facc28f	1.3496875
100	0xbf0458b1	-0.5169783
101	0xbf1f8288	-0.6230855
102	0xbf06d7be	-0.52672946
103	0x3f216a27	0.630526
104	0x3fe50987	1.7893533
105	0x3f14d9b3	0.5814468
106	0x3e10019e	0.14063117
107	0xbda511d9	-0.08060045
108	0x3de422be	0.11139439
109	0x3f66ca6e	0.90152633
110	0xbebc61ea	-0.36793453
111	0x3c842e7e	0.01613545
112	0xbea409bc	-0.32038677
113	0xbf74afb5	-0.9558061
114	0x3e27f4b4	0.1640194
115	0x3e0bbcf8	0.13646305
116	0xbf5e6651	-0.8687487
117	0x3e42de89	0.19030203
118	0x3c8abe52	0.016936455
119	0xbf64f7c9	-0.8944059
120	0xbf7bdf39	-0.98387486
121	0x3f2358cd	0.63807374
122	0xbbc01943	-0.0058623864
123	0x3f6942d0	0.9111757
124	0xbe713edc	-0.23559135
125	0x3e85e551	0.26151517
126	0x3dd1a353	0.1023623
127	0xbf3257d1	-0.6966525
128	0xbf270d83	-0.6525499
129	0xbe9b14ac	-0.3028921
130	0xbff939ba	-1.9470742
131	0x3f565d89	0.83736473
132	0x3f90142e	1.1256158
133	0x3ee4cc86	0.4468729
134	0xbe8395cb	-0.2570022
135	0xbf7076b9	-0.93931156
136	0xbede2a1d	-0.43391505
137	0xbfb74a99	-1.431964
138	0x3ef2ddb1	0.47434762
139	0x3fb0c44a	1.3809903
140	0x3fca4ee8	1.580533
141	0xbcc3a1a3	-0.023880785
142	0x3ec000c2	0.37500578
143	0x3e2b9be0	0.1675868
144	0x3ea1e86b	0.31622633
145	0xbf47b956	-0.78017175
146	0x3f6e766b	0.9314944
147	0xbf665720	-0.8997669
148	0xbea6cadc	-0.32576644
149	0xbf2a29ad	-0.6646984
150	0x3e9b357b	0.3031424
151	0x3e467e1d	0.19384046
152	0x3e1f93e0	0.15583754
153	0x3e8bbe49	0.27293614
154	0xbda728ce	-0.0816208
155	0xbf6a9621	-0.9163533
156	0xbbcba756	-0.0062150164
157	0x3e9ab003	0.3021241
158	0xbfca0f9c	-1.5786014
159	0x3f150b97	0.5822081
160	0x3fb5c2d4	1.4200082
161	0xbf3c6bc2	-0.73601925
162	0x3e3798d3	0.17929392
163	0x3c7a61ff	0.015282153
164	0x3e2afedb	0.16698782
165	0x3e22ff0a	0.15917602
166	0x3fa54865	1.2912718
167	0xbd8c18b3	-0.068406485
168	0xbcc21bfa	-0.02369498
169	0x3f01bcdb	0.50678796
170	0xbeea586b	-0.45770583
171	0x3f918684	1.1369176
172	0xbf03c50d	-0.5147255
173	0x3fb3c35e	1.4043996
174	0x3e3bb493	0.18330602
175	0xbf198fd3	-0.59985083
176	0x3e97df6c	0.29662645
177	0xbf1b699b	-0.60708016
178	0x3f269109	0.65065056
179	0xbf3c5eea	-0.7358233
180	0xbe86e0f3	-0.26343498
181	0x3dc4d7a0	0.0961144
182	0x3f9b799f	1.2146491
183	0xbf5f28b6	-0.87171495
184	0x3ec63ae7	0.38716814
185	0xbe0ed55a	-0.13948575
186	0x3ed77dee	0.42088264
187	0xbeaf0aa5	-0.3418781
188	0x3d831808	0.06401068
189	0xbe81be96	-0.25340718
190	0x3ef9fc1f	0.48825166
191	0x3dbb30aa	0.09140141
192	0xbf04aa27	-0.5182213
193	0x3f0b486f	0.544074
194	0xbe8409d8	-0.2578876
195	0x3f8a0ca1	1.0785104
196	0x3e35897a	0.17728224
197	0x3ef8a813	0.4856573
198	0xbe9c5882	-0.30536276
199	0xbf477eb1	-0.7792769
200	0x3f7b1c72	0.9809028
201	0x3fe5751c	1.7926364
202	0xbeec15cc	-0.4611038
203	0xbf08cff9	-0.5344234
204	0x3f3e214e	0.7426957
205	0xbf9501e5	-1.1641203
206	0x3e125720	0.14291048
207	0xbfc026bc	-1.5011821
208	0xbfa063b2	-1.2530425
209	0xbf20d313	-0.62822074
210	0x3e4a699c	0.1976685
211	0x3e8c7d9c	0.27439582
212	0xbd8f899e	-0.0700867
213	0x3d680176	0.05664202
214	0x3ef65f3a	0.48119527
215	0x3f217ad3	0.6307804
216	0x3f84b4aa	1.0367634
217	0xbf6736e0	-0.9031811
218	0x3d66137f	0.056170937
219	0x3f4cc537	0.79988426
220	0xbf885f77	-1.0654134
221	0x3e0ded56	0.13860068
222	0xbf249686	-0.6429218
223	0x3e60d52a	0.21956316
224	0x3c3be43f	0.011467992
225	0xbf31bd5b	-0.6942956
226	0xbf767f10	-0.9628763
227	0x3ed73451	0.42032102
228	0x3f526b3a	0.82194865
229	0x3f84e3d5	1.0382029
230	0x3f9c7383	1.2222751
231	0xbe8e6f17	-0.2781913
232	0x3f2cae76	0.67453706
233	0xbf5798a4	-0.84217286
234	0x3e50271c	0.20327419
235	0x3e955c84	0.29172146
236	0x3f477f4c	0.77928615
237	0x3e9d3be3	0.30709752
238	0x3fa79e2e	1.3095148
239	0x3dec55e5	0.115398206
240	0xbe2f7197	-0.17133175
241	0xbf3ab1fc	-0.7292783
242	0x3f8b7628	1.0895433
243	0x3f1fb4cf	0.62385267
244	0x3e34f0c6	0.17669973
245	0xbed3cd9c	-0.41367805
246	0xbeebf6d1	-0.46086743
247	0xbf6f28d7	-0.9342169
248	0xbcb721dc	-0.022355013
249	0xbde4295d	-0.11140702
250	0x3de0af75	0.10970966
251	0xbfae7b22	-1.3631327
252	0x3df4037f	0.11914729
253	0x3c53993f	0.012914955
254	0xbd1c2702	-0.03812314
255	0x3fa03327	1.251561

weight f4 [32]
0	0x3f6526b4	0.8951218
1	0x3f9b44af	1.2130336
2	0x3f983186	1.1890113
3	0x3f92d62f	1.1471614
4	0x3f18992d	0.5960873
5	0x3f76a178	0.9634013
6	0x3f9c5e40	1.2216263
7	0x3f9d286c	1.2277961
8	0x3f5a32c8	0.85233736
9	0x3f5ca70f	0.8619241
10	0x3f617601	0.88070685
11	0x3f20d2cf	0.6282167
12	0x3f990f29	1.1957752
13	0x3fa11346	1.2584007
14	0x3fa3f1c5	1.2808157
15	0x3f4ccf0c	0.8000343
16	0x3f5fef62	0.87474644
17	0x3f795dc4	0.974087
18	0x3f78034e	0.9688004
19	0x3f4821b3	0.7817642
20	0x3f10f400	0.56622314
21	0x3f90cce2	1.1312525
22	0x3f925e47	1.1435021
23	0x3f29d782	0.66344464
24	0x3f6cb509	0.9246374
25	0x3f6abb5b	0.9169213
26	0x3f9b3f27	1.2128648
27	0x3f8f7493	1.1207451
28	0x3f4e5c8c	0.80609965
29	0x3fa8e1ab	1.3193868
30	0x3f9a65b8	1.2062292
31	0x3f9bbfe8	1.216794

bias f4 [32]
0	0xbe101ba9	-0.14073052
1	0x3eb62ab6	0.3557946
2	0xbe0881bb	-0.13330738
3	0xbe08d4cb	-0.13362424
4	0x3e15aa63	0.14615779
5	0x3e8bc127	0.272958
6	0x3d63e13e	0.05563473
7	0xbe8255c1	-0.2545605
8	0x3e01e73d	0.12685867
9	0x3e034081	0.12817575
10	0xbe369e30	-0.17833781
11	0x3e82cf48	0.25548768
12	0xbcb92d87	-0.022604717
13	0xbea1314d	-0.31482926
14	0x3d0194d0	0.03163606
15	0x3ecefd86	0.40427798
16	0x3de37d08	0.11107832
17	0xbd3eaa48	-0.04654911
18	0x3e2a2b0b	0.16617982
19	0x3e7328ed	0.2374608
20	0xbe2a3752	-0.16622666
21	0xbd4f80e7	-0.05066004
22	0x3e876a2f	0.264482
23	0x3ebe0b5a	0.37118036
24	0xbdeaf576	-0.11472599
25	0xbe195e86	-0.14977464
26	0xbd907b8a	-0.07054813
27	0xbe3dd6e5	-0.18539007
28	0x3e36740e	0.17817709
29	0x3e4af9c6	0.19821844
30	0x3e2294a3	0.15877013
31	0xbed044c6	-0.4067747

running_mean f4 [32]
0	0x3edaef51	0.4276071
1	0x3f143f8d	0.5790947
2	0x3f6563b4	0.8960526
3	0xbe3111f7	-0.1729201
4	0x3d26e313	0.0407439
5	0x3f0fd3fc	0.5618284
6	0xbed52b3d	-0.4163455
7	0x3ed89dc5	0.4230787
8	0x3f083037	0.5319857
9	0xbee09be1	-0.43868926
10	0x3f2de4f2	0.6792747
11	0x3ecd0b98	0.40047908
12	0xbe62dbfc	-0.2215423
13	0x3eac35bf	0.33634755
14	0x3ef4c52d	0.47806683
15	0xbed95ac0	-0.4245205
16	0x3f1b9292	0.60770524
17	0x3e75dff2	0.2401121
18	0xbf0d0810	-0.5509043
19	0xbe9b9015	-0.30383363
20	0x3dc1e99d	0.09468386
21	0x3e97e6c9	0.29668263
22	0x3efc57c5	0.49285713
23	0x3e68eba6	0.22746143
24	0xbf641731	-0.8909789
25	0xbed64276	-0.4184758
26	0x3d840eaa	0.064481094
27	0x3f4561fb	0.7710263
28	0x3cde4411	0.027132066
29	0x3f1f33fd	0.621887
30	0xbdb247fa	-0.08705135
31	0xbdbc2773	-0.09187212

running_var f4 [32]
0	0x4008df46	2.1386275
1	0x4087ea50	4.2473526
2	0x4090909d	4.517653
3	0x40d2ecd1	6.5914083
4	0x4049098a	3.1412072
5	0x4030e43e	2.7639308
6	0x408b5b45	4.3548913
7	0x3f66be3f	0.9013404
8	0x40c62c74	6.1929264
9	0x4036890d	2.852115
10	0x403e04a2	2.9690328
11	0x408fc2bc	4.4925213
12	0x407f1f0e	3.9862704
13	0x4032aef6	2.7919288
14	0x409350c9	4.6036115
15	0x40a7fd14	5.2496433
16	0x3f809e94	1.0048394
17	0x40cd7c6d	6.4214387
18	0x40ce454b	6.4459586
19	0x402b0809	2.6723654
20	0x401df0b6	2.4678168
21	0x404af7dd	3.1713784
22	0x4093ade4	4.614977
23	0x4073088a	3.7973962
24	0x40d87977	6.7648273
25	0x401f42f8	2.4884624
26	0x408f6705	4.4813256
27	0x405a6d10	3.4129066
28	0x40fc3aec	7.8821926
29	0x40970572	4.7194147
30	0x4014db2d	2.3258774
31	0x408beab8	4.372402

weight f4 [32, 16]
0	0x3d3e6d51	0.04649097
1	0x3e4a7732	0.19772032
2	0xbf4370d6	-0.7634405
3	0x3e5a2bbb	0.21305744
4	0x3f36d901	0.7142487
5	0xbdac5a52	-0.08415665
6	0xbd97d281	-0.07413197
7	0x3f25ed5d	0.6481531
8	0xbebd4999	-0.36970213
9	0x3eafafad	0.34313717
10	0xbf5d0a5b	-0.86343926
11	0x3fb911ea	1.4458592
12	0xbef28075	-0.4736363
13	0x3db9e668	0.0907715
14	0x3d69182d	0.05690782
15	0x3e86eca1	0.2635241
16	0xbd06776e	-0.03282874
17	0xbf049fcd	-0.51806337
18	0xbe8f4a90	-0.27986574
19	0x3c11e6db	0.008905138
20	0xbdf6efaa	-0.12057431
21	0xbeffe202	-0.49977118
22	0xbf1c2525	-0.6099418
23	0xbf551c06	-0.83245885
24	0x3e6a988e	0.22909757
25	0xbf34104c	-0.7033737
26	0xbf63b590	-0.8894892
27	0xbf9b337e	-1.2125089
28	0x3e65ab9e	0.22428748
29	0xbf4c2955	-0.7975057
30	0x3edcec93	0.43149242
31	0xbf709ff9	-0.939941
32	0xbeecb2de	-0.46230215
33	0xbe385bfe	-0.18003842
34	0x3de245ec	0.11048493
35	0x3ec55251	0.38539365
36	0xbe6ebe56	-0.23314795
37	0x3ecd07a1	0.40044883
38	0xbf26cdcf	-0.6515779
39	0xbef87417	-0.4852607
40	0xbc47f135	-0.012203504
41	0x3e8d1938	0.27558303
42	0xbe93b164	-0.28846276
43	0x3e7438e9	0.23849835
44	0x3f08df84	0.5346606
45	0x3f55422b	0.8330409
46	0xbe88369b	-0.2660416
47	0xbdac04fd	-0.08399389
48	0xbe987373	-0.2977558
49	0xbf9aa7b3	-1.2082428
50	0x3e75e7f8	0.2401427
51	0xbf3ef254	-0.74588513
52	0x3e1c7d9b	0.1528229
53	0x3faa1682	1.3288119
54	0x3e26dddf	0.16295575
55	0xbf3183cc	-0.6934173
56	0x3f3d9af9	0.74064595
57	0xc001602c	-2.0214949
58	0xbf0f1137	-0.5588564
59	0x3d4d243c	0.050083384
60	0xbf7bf58a	-0.9842154
61	0xbf5a41aa	-0.85256445
62	0x3fb8d700	1.4440613
63	0x3f13dde7	0.5776047
64	0xbe4fb2b5	-0.20283015
65	0x3f79accd	0.975293
66	0x3f98412a	1.1894886
67	0x3f37c214	0.71780515
68	0xbf6c5f23	-0.9233267
69	0x3e072470	0.13197494
70	0xbf401842	-0.75037014
71	0x3fb438ea	1.4079869
72	0xbdccab50	-0.09993613
73	0x3d563cc1	0.052304033
74	0x3f399210	0.724885
75	0x3caaa4b6	0.020830493
76	0xbdf63b11	-0.12022985
77	0xbf83d3f9	-1.0299064
78	0x3ea906fd	0.33013144
79	0xbeec743c	-0.4618243
80	0x3e955c51	0.29171994
81	0x3eb3ce42	0.351183
82	0x3fda2bd0	1.704462
83	0xbf22549c	-0.63410354
84	0xbe9a1127	-0.3009121
85	0x3ceec949	0.029148715
86	0xbec4d9ff	-0.38447568
87	0x3f3347a9	0.7003122
88	0xbf2a50a1	-0.6652928
89	0x3f64c3a8	0.8936105
90	0x3ea856e2	0.32878786
91	0xbf7f8c15	-0.99823123
92	0x3f417a69	0.7557741
93	0x3fffd880	1.9987946
94	0xbe8dfd43	-0.27732286
95	0x3f5156c4	0.8177302
96	0xbf7f0435	-0.99615794
97	0x3f2c4024	0.6728537
98	0xbf2099e5	-0.62734824
99	0x3c054c09	0.008135804
100	0x3f19f9fa	0.6014706
101	0x3f292940	0.6607857
102	0x3e8ca4ea	0.2746957
103	0x3ff7cbe4	1.9359097
104	0x3fb4e77c	1.4133143
105	0xbec937d1	-0.39300397
106	0x3e170c2a	0.14750734
107	0xbfca6ba0	-1.5814095
108	0xbf4f9dbe	-0.8110007
109	0x3f2f1b8e	0.6840142
110	0x3ef3e461	0.47635177
111	0x3d8ae286	0.06781487
112	0x3f14fdc6	0.5819973
113	0x3fbb8572	1.4650099
114	0x3e8d7b30	0.27633047
115	0x3f0a26fd	0.5396574
116	0xbe952712	-0.2913137
117	0xbf7b1d9a	-0.98092043
118	0xbec67a95	-0.38765398
119	0xbe7d5c0f	-0.24742149
120	0x3fa383e7	1.2774628
121	0xbf375718	-0.7161727
122	0x3f0d72a8	0.55253077
123	0x3d6ae858	0.057350487
124	0x3f63bffa	0.8896481
125	0xbf35bbd2	-0.70989716
126	0xbf68b677	-0.9090342
127	0xbf2a511e	-0.66530025
128	0x3e08680c	0.1332094
129	0x3dd5364f	0.10410749
130	0xbcbe7dab	-0.023253283
131	0x3ee91ec4	0.45531285
132	0xbe7de386	-0.24793825
133	0xbf0f3876	-0.5594553
134	0x3f23ea3f	0.64029306
135	0xbe0ee8dc	-0.13956016
136	0x3ef05549	0.46940067
137	0x3f13de55	0.57761127
138	0x3e99072f	0.29888293
139	0x3eacd1ff	0.33753964
140	0x3ee3881c	0.4443978
141	0xbf6f1edb	-0.93406457
142	0x3ea87554	0.32902014
143	0x3d5a8e80	0.053358555
144	0x3ef66b09	0.48128536
145	0xbe400867	-0.18753205
146	0xbf370aff	-0.71501154
147	0x3f3fe150	0.74953175
148	0x3ef9554c	0.4869789
149	0x3ea9ccfb	0.331642
150	0x3f606f41	0.8766976
151	0x3fe9d168	1.8267031
152	0xbf0bdb4c	-0.54631495
153	0x3f007be8	0.50189066
154	0xbf0d818d	-0.55275804
155	0x3e2e9bd4	0.17051631
156	0xbed16ded	-0.4090418
157	0x3db9e7d9	0.090774246
158	0x3ee6f53d	0.45108977
159	0x3ef69dc3	0.48167238
160	0x3de7af3d	0.11312721
161	0x3ea0ed6c	0.3143114
162	0x3bce0c6f	0.0062881033
163	0xbf6c7046	-0.92358816
164	0xbeb6c83c	-0.35699642
165	0xbf14a46d	-0.58063394
166	0xbe915d8d	-0.28391686
167	0x3ec18e98	0.37804103
168	0xbe9a9fd8	-0.30200076
169	0xbf8505c5	-1.0392386
170	0x3f5ebc67	0.8700623
171	0x3f280c73	0.65643996
172	0xbf835ac2	-1.0262072
173	0x3f32dc5c	0.6986749
174	0x3e474032	0.19458082
175	0x3dfc80b2	0.12329234
176	0xbea85bb8	-0.32882476
177	0x3de96d8d	0.11397848
178	0xbf1f2420	-0.621645
179	0xbf90dca3	-1.1317333
180	0x3f725d18	0.946733
181	0xbf92e00e	-1.1474626
182	0x3e5b620c	0.2142412
183	0xbeb9d7cf	-0.3629746
184	0x3e0da373	0.13831882
185	0x3f8821cd	1.0635315
186	0x3f184111	0.59474283
187	0xbee2e229	-0.44313172
188	0x3ed546fe	0.41655725
189	0xbe6dfebe	-0.23241708
190	0xbea835a1	-0.32853416
191	0xbe7c34f1	-0.2462957
192	0xbffc3897	-1.970477
193	0x3f18c1be	0.5967063
194	0x3c367883	0.011137131
195	0x3e9191b4	0.28431475
196	0xbf403cc6	-0.7509273
197	0x3eb40e67	0.35167238
198	0xbf917895	-1.1364924
199	0x3fa01214	1.2505517
200	0xbf51ccfd	-0.8195341
201	0x3f856ec8	1.0424433
202	0x3e41e0a2	0.18933347
203	0x3f0470d1	0.51734644
204	0x3e8ace26	0.27110404
205	0xbf6ab801	-0.9168702
206	0x3e462767	0.19350968
207	0xbdb6e2dd	-0.089299895
208	0xbdc5dc93	-0.09661212
209	0x3eb2e70a	0.34941894
210	0xbf0b7f81	-0.5449143
211	0x3e38ec33	0.18058853
212	0xbe8d550c	-0.27603948
213	0xbfa540d9	-1.2910415
214	0x3dc4c426	0.09607725
215	0xbef754f0	-0.4830699
216	0x3eecacc2	0.46225554
217	0xbf814cb7	-1.0101537
218	0xbe29ef7b	-0.16595261
219	0xbe6781d3	-0.22608118
220	0xbe8d23a9	-0.2756627
221	0xbfd94005	-1.6972662
222	0xbf1d1603	-0.6136171
223	0x3d411c45	0.0471461
224	0xbf6eda20	-0.9330158
225	0x3f06e024	0.5268576
226	0xbeca094c	-0.39460218
227	0x3e967960	0.29389477
228	0xbe60fcd7	-0.21971451
229	0x3e42a042	0.19006446
230	0xbf20e375	-0.6284707
231	0x3c7de50a	0.015496502
232	0xbdbb4350	-0.09143698
233	0xbb2194c6	-0.0024655326
234	0x3e4bca9b	0.19901507
235	0xbe457e56	-0.19286475
236	0xc004b4a0	-2.0735245
237	0xbf00605a	-0.5014702
238	0xbe19156a	-0.14949575
239	0x3e9754be	0.2955684
240	0x3f36ee3c	0.71457267
241	0x3e82a3d3	0.25515613
242	0x3f051bd2	0.51995575
243	0xbf3e5071	-0.74341494
244	0x3ec30185	0.38087097
245	0x4008140b	2.1262233
246	0xbde4164e	-0.11137067
247	0x3d42962a	0.04750649
248	0xbdcf317d	-0.10116861
249	0x3e4fb04a	0.20282093
250	0xbc6ab028	-0.0143242255
251	0xbf25bbf0	-0.64739895
252	0x3df03fb5	0.11730901
253	0xbf86ae44	-1.0521932
254	0x3e654668	0.22390139
255	0x3e366913	0.1781352

weight f4 [32]
0	0x3f800000	1.0
1	0x3f800000	1.0
2	0x3f800000	1.0
3	0x3f800000	1.0
4	0x3f800000	1.0
5	0x3f800000	1.0
6	0x3f800000	1.0
7	0x3f800000	1.0
8	0x3f87af8b	1.0600446
9	0x3f55acd1	0.8346682
10	0x3f681442	0.9065591
11	0x3f7f40c2	0.9970819
12	0x3f854675	1.0412127
13	0x3f2def9a	0.6794373
14	0x3f5d64f7	0.86482185
15	0x3f95d3c2	1.1705248
16	0x3f800000	1.0
17	0x3f800000	1.0
18	0x3f800000	1.0
19	0x3f800000	1.0
20	0x3f800000	1.0
21	0x3f800000	1.0
22	0x3f800000	1.0
23	0x3f800000	1.0
24	0x3f7b0005	0.98046905
25	0x3f684cfe	0.9074248
26	0x3f5d7fae	0.8652295
27	0x3f97e28d	1.1866013
28	0x3f414087	0.75489086
29	0x3f42e593	0.7613155
30	0x3f5baca9	0.85810333
31	0x3f92dc88	1.1473551

bias f4 [32]
0	0x00000000	0.0
1	0x00000000	0.0
2	0x00000000	0.0
3	0x00000000	0.0
4	0x00000000	0.0
5	0x00000000	0.0
6	0x00000000	0.0
7	0x00000000	0.0
8	0x3df3b17a	0.11899085
9	0x3db4f339	0.088354535
10	0x3d566138	0.05233881
11	0xbe9c6cbe	-0.30551714
12	0xbdf2f2c8	-0.11862713
13	0xbd62dab2	-0.055384345
14	0xbdeea33b	-0.116522275
15	0xbca4f3ad	-0.020135725
16	0x00000000	0.0
17	0x00000000	0.0
18	0x00000000	0.0
19	0x00000000	0.0
20	0x00000000	0.0
21	0x00000000	0.0
22	0x00000000	0.0
23	0x00000000	0.0
24	0xbbd33919	-0.0064460156
25	0xbcc4b47a	-0.02401184
26	0xbe951cb6	-0.29123467
27	0xbd31fe5d	-0.04345547
28	0x3e22ed31	0.15910794
29	0xbe901b5a	-0.28145868
30	0xbdf6ce09	-0.12051017
31	0x3e37bc00	0.1794281

running_mean f4 [32]
0	0x3e726153	0.23669939
1	0x3d077477	0.033070054
2	0xbe619f0e	-0.22033331
3	0x3f6b1bfd	0.9183958
4	0xbf030a7b	-0.51187867
5	0xbf8f01ce	-1.1172426
6	0xbf48d6b2	-0.784526
7	0x3e160a71	0.1465242
8	0x3de9edcf	0.114223115
9	0xbf00a0e1	-0.5024548
10	0x3da891a7	0.08230906
11	0x3dcd22b4	0.10016385
12	0xbed99981	-0.42499927
13	0x3f26fe46	0.6523174
14	0x3f00562e	0.501315
15	0x3f2027f1	0.62560946
16	0xbdc128ae	-0.09431587
17	0x3e856c6f	0.2605929
18	0x3f0a9238	0.5412936
19	0xbea9a294	-0.3313185
20	0xbf6c2a94	-0.9225247
21	0x3f6570d4	0.8962529
22	0xbf559539	-0.8343082
23	0xbe342b85	-0.17594726
24	0x3e04f2af	0.12983201
25	0x3e3777eb	0.17916839
26	0x3f28b192	0.6589595
27	0x3f6e66cc	0.93125606
28	0x3e29896a	0.16556326
29	0xbc976d7e	-0.018484827
30	0xbb940d2b	-0.0045181713
31	0x3f47ac3e	0.77997196

running_var f4 [32]
0	0x3f74b853	0.95593756
1	0x3fc91277	1.570876
2	0x3f0636f3	0.52427596
3	0x415b7b1a	13.717554
4	0x400ca1b6	2.19737
5	0x4069a0fe	3.6504512
6	0x409bedb3	4.872766
7	0x40c350b7	6.103603
8	0x40045a19	2.0679991
9	0x407235c9	3.7845328
10	0x404631f7	3.0967996
11	0x408a036e	4.3129187
12	0x40596d0b	3.3972805
13	0x400a3fdf	2.1601484
14	0x40224c79	2.5359175
15	0x40c6b3cc	6.209448
16	0x40362d2e	2.8465075
17	0x4051156a	3.266932
18	0x4012097f	2.2818296
19	0x3fc5d758	1.5456343
20	0x40428f02	3.0399785
21	0x4012275c	2.2836523
22	0x40c62974	6.19256
23	0x3f6dcd03	0.9289095
24	0x4011da1e	2.2789378
25	0x408dd5ae	4.432334
26	0x4054e27b	3.3263233
27	0x3fd92aab	1.6966146
28	0x407feb45	3.9987347
29	0x40c67c96	6.2027082
30	0x40ee43f1	7.4457936
31	0x411358e2	9.2092

weight f4 [32]
0	0x3f66dc42	0.90179837
1	0x3f802e31	1.0014096
2	0x3f2dbfe0	0.67870903
3	0x3f1fc576	0.62410676
4	0x3fb07317	1.3785123
5	0x3f879755	1.0593058
6	0x3f80a53c	1.0050426
7	0x3f89f253	1.0777076
8	0x3f7d0d6e	0.9884862
9	0x3f8f1c2a	1.118047
10	0x3f851506	1.0397041
11	0x3f8f16b3	1.1178802
12	0x3f808ec6	1.0043571
13	0x3f9af52a	1.2106068
14	0x3f7ecce2	0.99531376
15	0x3fa0ce98	1.2563047
16	0x3f8623f4	1.0479722
17	0x3f8191f9	1.0122672
18	0x3f2beefc	0.67161536
19	0x3f96bc92	1.1776297
20	0x3f975e7e	1.1825712
21	0x3f8e3a18	1.1111479
22	0x3f1c2f17	0.61009353
23	0x3f40f9f7	0.75381416
24	0x3fab4ab7	1.3382176
25	0x3f34cf5f	0.70628923
26	0x3f912afc	1.1341243
27	0x3f87770a	1.0583203
28	0x3f940de4	1.1566739
29	0x3f989a97	1.1922177
30	0x3f9740f4	1.1816697
31	0x3f238761	0.63878447

bias f4 [32]
0	0xbebe00a8	-0.37109876
1	0xbe756476	-0.23964104
2	0xbe06c7e7	-0.13162194
3	0x3e5a990e	0.21347448
4	0x3d8c51ab	0.068515144
5	0x3eaa2221	0.33229163
6	0xbd8166a8	-0.06318408
7	0xbe87a868	-0.2649567
8	0x3e8e91b2	0.27845532
9	0xbe0a84d2	-0.1352723
10	0x3e20199a	0.15634766
11	0xbdda61fc	-0.1066322
12	0x3da96cd3	0.0827271
13	0x3e13c124	0.14429146
14	0x3e1ddc1c	0.15415996
15	0xbd98cf81	-0.07461453
16	0xbe3da1bf	-0.18518732
17	0x3d8c830b	0.06860932
18	0xbe511569	-0.20418324
19	0xbeace752	-0.33770233
20	0x3dec572c	0.11540064
21	0xbd28060f	-0.041021403
22	0x3ebc7237	0.3680589
23	0x3e1ee692	0.15517643
24	0xbe0eaef4	-0.13933927
25	0x3e706958	0.23477685
26	0xbe8bb2d8	-0.27284884
27	0x3cbff6b4	0.023433067
28	0xbe03ce0a	-0.12871566
29	0x3e40755c	0.18794769
30	0xbe15a404	-0.14613348
31	0x3eb157a4	0.34637177

running_mean f4 [32]
0	0xbe09ea88	-0.13468373
1	0xbdf7a422	-0.12091853
2	0x3e056e2c	0.13030308
3	0x3d1894f8	0.037251443
4	0x3e179ebe	0.14806649
5	0xbe97d954	-0.29657996
6	0x3d5dc796	0.054145418
7	0xbdff09c2	-0.12453033
8	0x3e3d9ffc	0.1851806
9	0x3d81cc0d	0.06337748
10	0x3cedfe93	0.029052055
11	0x3e204d19	0.1565441
12	0x3cc698d8	0.024242803
13	0xbe0815d2	-0.13289574
14	0x3cd19495	0.025583545
15	0xbd76fd93	-0.06030042
16	0x3c7c1716	0.0153863635
17	0x3e49ffaa	0.19726434
18	0xbd6ed30b	-0.058306735
19	0xbdbe9a9e	-0.09306835
20	0xbdcf1149	-0.10110719
21	0xbd96a4d8	-0.0735566
22	0x3e0d3308	0.13788998
23	0xbd10cbbc	-0.035350546
24	0xbda3abc5	-0.07991747
25	0x3dc4a0c1	0.09600974
26	0xbdac8ef2	-0.08425702
27	0xbdbd4bbc	-0.09242961
28	0xbd9f17c5	-0.077682056
29	0x3e247b5b	0.16062681
30	0x3ccb24a9	0.024797754
31	0xbda939b7	-0.08262961

running_var f4 [32]
0	0x3e3e00cb	0.1855499
1	0x3e80122e	0.2501387
2	0x3f2a125a	0.6643425
3	0x3eabe7b7	0.33575222
4	0x3eef6327	0.46755335
5	0x3e99bb6c	0.30025804
6	0x3eeea37f	0.46609113
7	0x3f32f20f	0.699006
8	0x3e888713	0.26665553
9	0x3f017262	0.5056516
10	0x3dffe535	0.1249489
11	0x3e2edc43	0.1707621
12	0x3e6b29e2	0.22965196
13	0x3ebe9a03	0.37226877
14	0x3eb865a7	0.36015055
15	0x3e934e86	0.28770846
16	0x3ee3a8fd	0.44464865
17	0x3ebcffbc	0.3691386
18	0x3e9dae0c	0.3079685
19	0x3f3e67e1	0.74377257
20	0x3e189a13	0.14902525
21	0x3df234df	0.118264906
22	0x3ed860de	0.42261404
23	0x3ee312b5	0.4435021
24	0x3e1acd1f	0.1511731
25	0x3e03bebc	0.12865728
26	0x3f3b95e1	0.7327557
27	0x3ea88160	0.32911205
28	0x3f7ad601	0.97982794
29	0x3eb5d4d2	0.35513932
30	0x3f02c521	0.51082045
31	0x3e8feda8	0.28111005

weight f4 [32]
0	0x3f3fc620	0.7491169
1	0x3f897a0b	1.074037
2	0x3f9cfd03	1.2264713
3	0x3f540371	0.8281775
4	0x3f401c89	0.7504354
5	0x3f876bcf	1.0579776
6	0x3f78c707	0.9717869
7	0x3f4018bd	0.7503775
8	0x3f8025a1	1.0011483
9	0x3f6d7673	0.92758864
10	0x3f691e37	0.9106173
11	0x3f98a6f8	1.1925955
12	0x3f588434	0.84576726
13	0x3f86dfee	1.0537088
14	0x3f3003e8	0.6875596
15	0x3f7a20ac	0.97706103
16	0x3f3bdd79	0.73384815
17	0x3f9104a2	1.1329539
18	0x3fa6b1f8	1.3023062
19	0x3f0b0a1b	0.54312295
20	0x3f681f2c	0.90672565
21	0x3f909bd6	1.1297557
22	0x3f84374b	1.0329374
23	0x3f4da730	0.8033323
24	0x3f0bb5c1	0.5457421
25	0x3f83cf18	1.0297575
26	0x3f364524	0.7119925
27	0x3f97d8e7	1.1863068
28	0x3f5d5722	0.8646108
29	0x3fa13ef2	1.2597334
30	0x3f4318e8	0.7620988
31	0x3f8ad2b1	1.0845548

bias f4 [32]
0	0xbe904e27	-0.28184626
1	0xbe49aff8	-0.19696033
2	0xbe9e7ebf	-0.30956075
3	0x3e26c7e8	0.16287196
4	0xbe7b94b9	-0.24568452
5	0x3e95683b	0.29181084
6	0xbecac106	-0.3960039
7	0x3e069241	0.13141729
8	0x3d9efd24	0.077631265
9	0xbd1ee75a	-0.038794853
10	0x3d2c355c	0.042043075
11	0xbeadf7b8	-0.33978057
12	0xbe40da0b	-0.18833177
13	0x3d0c370e	0.03423219
14	0xbec3c050	-0.3823266
15	0x3e860710	0.26177263
16	0xbe35d8af	-0.1775844
17	0x3cf5726f	0.029961793
18	0x3b3f0a89	0.0029150567
19	0x3c4981d1	0.012299017
20	0xbe2818fd	-0.16415782
21	0x3d041603	0.032247555
22	0xbd3a79c0	-0.045526266
23	0xbbfe19cf	-0.0077545415
24	0x3dc3f17a	0.095675424
25	0xbe8ffbdf	-0.2812185
26	0xbd0003a1	-0.03125346
27	0x3e0f7026	0.14007625
28	0xbe0c7526	-0.13716564
29	0x3d139c47	0.03603771
30	0xbea94e2b	-0.3306745
31	0x3ca37a44	0.019955762

running_mean f4 [32]
0	0xbf1533f2	-0.5828239
1	0xbf195c37	-0.59906334
2	0xbe3916a7	-0.18075047
3	0x3d1e1e90	0.038603365
4	0xbec891d1	-0.3917375
5	0x3eacfc07	0.33786032
6	0x3e95591d	0.2916955
7	0xbe673181	-0.22577478
8	0xbd24c7b2	-0.040229507
9	0x3eb91e6d	0.36156026
10	0xbe15ee6d	-0.14641733
11	0xbeb10426	-0.34573478
12	0x3e4eab22	0.2018247
13	0xbd7d0c09	-0.061779056
14	0xbef90d27	-0.48642847
15	0xbb5b1062	-0.0033426513
16	0xbdb485cd	-0.08814583
17	0x3e2ff5ba	0.17183581
18	0x3e8d3367	0.2757828
19	0xbf0c7f0d	-0.54881364
20	0xbd0d6593	-0.034520697
21	0x3e10cdcc	0.14141005
22	0xbe6379f4	-0.2221449
23	0xbe532cfb	-0.20622627
24	0xbde4a0ef	-0.11163508
25	0xbecb4174	-0.39698374
26	0xbe90fd8c	-0.2831844
27	0xbef0b6a6	-0.4701435
28	0xbeca87fb	-0.3955687
29	0xbf2d8d94	-0.67794156
30	0x3de67367	0.1125248
31	0xbe37221e	-0.17884108

running_var f4 [32]
0	0x40a3400a	5.1015673
1	0x40293dca	2.6443963
2	0x40ac846e	5.3911657
3	0x3fcd5f1b	1.6044649
4	0x40dc4b47	6.884189
5	0x4053f142	3.3116002
6	0x40948508	4.641239
7	0x404a27f4	3.1586885
8	0x400f0b72	2.2350736
9	0x405ce3df	3.4514081
10	0x403c1909	2.939028
11	0x40de82a1	6.953446
12	0x403081de	2.7579265
13	0x3fa2c1b4	1.2715364
14	0x3fa56bb0	1.2923489
15	0x405f1f25	3.486276
16	0x3f7d40f5	0.9892724
17	0x3f5b4b91	0.8566218
18	0x40d3e904	6.6221943
19	0x40ca4001	6.320313
20	0x40598563	3.3987663
21	0x402a55d4	2.6614885
22	0x3fd347de	1.6506307
23	0x3fb84acc	1.4397826
24	0x405f52e3	3.489434
25	0x40430597	3.0472162
26	0x40f05af8	7.5111046
27	0x407ef87c	3.9839163
28	0x4060c01e	3.511726
29	0x407fe1c5	3.9981549
30	0x4059ea6e	3.4049335
31	0x40234b40	2.551468
