Experiments/2022_07_26 13-51-41 wine_100runs_learning-rate_3mv-features_custom-loss /models/Model_run40_optimizer_params0.1_malic_acid.pt (torch, 260045 bytes, 318 tensors)

weight f4 [12]
00000000: 0000 803f 0000 803f 0000 803f 0000 803f
00000010: 0000 803f 0000 803f 0000 803f 0000 803f
00000020: 0000 803f 0000 803f 0000 803f 0000 803f
1.0 1.0 1.0 1.0 1.0 1.0 1.0 1.0
1.0 1.0 1.0 1.0

bias f4 [12]
00000000: 0000 0000 0000 0000 0000 0000 0000 0000
00000010: 0000 0000 0000 0000 0000 0000 0000 0000
00000020: 0000 0000 0000 0000 0000 0000 0000 0000
0.0 0.0 0.0 0.0 0.0 0.0 0.0 0.0
0.0 0.0 0.0 0.0

running_mean f4 [12]
00000000: 0000 0000 0000 0000 0000 0000 0000 0000
00000010: 0000 0000 0000 0000 0000 0000 0000 0000
00000020: 0000 0000 0000 0000 0000 0000 0000 0000
0.0 0.0 0.0 0.0 0.0 0.0 0.0 0.0
0.0 0.0 0.0 0.0

running_var f4 [12]
00000000: 0000 803f 0000 803f 0000 803f 0000 803f
00000010: 0000 803f 0000 803f 0000 803f 0000 803f
00000020: 0000 803f 0000 803f 0000 803f 0000 803f
1.0 1.0 1.0 1.0 1.0 1.0 1.0 1.0
1.0 1.0 1.0 1.0

weight f4 [12]
00000000: 6669 de3e 9785 513f 7ec7 3d3f 826e a33f
00000010: c875 5b3f 4463 a93f e5ac b83f b506 0a3f
00000020: 20b5 b63f c96a bb3f bba2 983f f0b7 8c3f
0.43439788 0.81844467 0.74132526 1.2768099 0.85726595 1.3233418 1.4427763 0.53916484
1.4274025 1.4641963 1.1924661 1.0993633

bias f4 [12]
00000000: b8eb 22be b92c 93bd 8a4a fc3e 9933 c6be
00000010: 86dd 66bf 466c e2be c548 893e 98ff 1ebf
00000020: 6ce0 aebd 37c3 173f 3587 5cbe b6b2 cabe
-0.15910232 -0.071862645 0.4927562 -0.3871124 -0.9018177 -0.4422323 0.2681333 -0.62108755
-0.08538899 0.5928225 -0.21535952 -0.3958947

running_mean f4 [12]
00000000: 5dfd e93f d1bd 8e3e c8f9 a43f ceb0 963f
00000010: 4e3d dc3f c482 3b3f 5e05 1444 f9c0 7041
00000020: c3b5 7b40 df53 1f41 45a6 fa3f 6b80 7142
1.8280445 0.27879193 1.2888727 1.1772707 1.7206209 0.7324641 592.08386 15.047112
3.9329689 9.957976 1.9581991 60.37541

running_var f4 [12]
00000000: 6f10 983e 10c0 7b3e 2865 bf3f 67a4 e93e
00000010: 0504 023f dbd1 893e 4c0b 9147 3b07 1141
00000020: 56d7 9040 ceff 203f b2f9 1f3f 039d c044
0.29700038 0.24584985 1.4952745 0.45633242 0.50787383 0.2691792 74262.59 9.064265
4.526286 0.62890327 0.6249038 1540.9066

weight f4 [32, 12]
00000000: 89ff 1d3f 1538 9d3f 8552 e2bd 4727 393d
00000010: a25d bbbf f3f7 2c3f 48cb bebd ad19 95bf
00000020: 3178 37be b290 803f 7e8a c6bf a1ea a13c
00000030: 88bc 7fbe 6f6c 353e 3109 643d dff4 933f
00000040: f2cc a1bf 4a54 3b3e b5be 9a3f 515e f5bc
00000050: c542 183e 1227 8bbe 3182 a5bf c67f e63c
00000060: b846 18be 536b 3d3e 0add febe 89b8 613f
00000070: 15dc a43e dd3a a7bf 5b09 90be 0e89 a03e
00000080: 9df5 2a3f 059a e33f e096 1b3e 5af7 96bf
00000090: 041a 553f 7250 a03e c184 8c3c 6e8f 90bf
000000a0: 6410 00c0 a547 f9be 158b 98be 4a82 b23e
000000b0: 0b75 633f 6727 4f3f 7783 0cbe d67e dfbe
000000c0: 1202 bfbf 8eb4 203f b500 953e c6fc 2e3f
000000d0: ebe0 803f d701 033e 9172 70bf 641c ac3f
000000e0: 3e91 66bf 012f d6be 67a9 1740 ca6e bd3f
000000f0: 9597 2a3e 10b7 903f a102 843e 9544 79be
00000100: 4e92 8ebf b18f 103d 0054 073f 89f8 503f
00000110: a0c5 7e3e e25b 81bf 6dd1 9abf 3685 8cbf
00000120: 537d 16be e056 cdbe 0d06 883d 82c3 b2bf
00000130: 6b58 17bc d505 94bf 251d c7bf 9d62 113f
00000140: b363 673e df81 f1bf 9d34 0bbf 54cd 7fbe
00000150: 6529 ab3d 6098 1b3e 814b bb3e b244 5bbf
00000160: 3818 ad3f 00c1 f03f f312 0640 9b66 c1be
00000170: 5fb2 a6be fa67 ed3f a073 1fbf d15f da3d
00000180: 52c0 303e d151 4fbe 81da 41be 4a28 503f
00000190: 3432 62be 9f7b ab3e 25cb 063f 4628 d43d
000001a0: c652 3c3f 1ede 2b3d 27d1 2c3f d8e4 ac3f
000001b0: a3b5 0540 0bf2 7b3e d101 e8be f4ef d5bf
000001c0: 6185 7b3d c3de bd3e 2158 6f3f 1b98 9a3d
000001d0: 8988 b63e 893c 753e 0fd1 8bbc 27d6 943e
000001e0: adf9 a13e 2f56 1fbf 4abd 703e 449b c63f
000001f0: e2e7 5e3f a324 183e 47bb c23e 6643 933d
00000200: d89d d9be b151 1d3f 7c33 883f e62d 013f
00000210: 6dbc 85be 59af 3f3e 2cee 4b3e a4c4 d6bd
00000220: a5ca ee3e 7161 80bf 5eac 27bf b9e1 823e
00000230: 89d7 ffbf 937c 1cbf 3b21 f13e 298e 313f
00000240: 7ebb 25bf 1b74 443f 90a9 cdbf 5958 98be
00000250: 890f a9be 8744 4dbf 4665 763e ea97 52bf
00000260: 5c07 17bf 40b9 883f b1d0 3d3f 2b2a b83e
00000270: 9496 45be 9673 473e bfca bc3f 467f 5a3f
00000280: bc6f 873f 3e7a b93f 7954 07bf eb16 4abe
00000290: 73d8 d43e dd13 a7be f2f9 febe f3ef 8a3f
000002a0: 0278 b53e a2ca 363f 9dae f93e 9c08 e0be
000002b0: 5466 8cbf 32f0 98bf f16e 48bf 0869 7e3f
000002c0: 87bd 3b3f 8934 b13d 70c0 163f 64df 5f3e
000002d0: 11ab 423e 5271 8bbf d6d4 8d3f e7c2 223f
000002e0: 2de6 fabe b366 a53f 77e3 153e 36d8 53bd
000002f0: 508c 02be 2cd6 b5be aaa8 653f 2fcd 60bf
00000300: 0155 2c3f 33c3 bd3e 049a e0bd e1eb 473f
00000310: bb6e 4ebf 0642 c3bf 80b6 9dbe 4112 ca3f
00000320: ec2d 5b3f fef8 d53f 321d 8bbf d98f a03e
00000330: 80c7 fa3e bdba 243d 9b62 95be 01bd 90bf
00000340: 101e 063f f9e0 7dbf 90d0 57bf dcb0 1abe
00000350: 23a1 04bf 4910 afbf 1e06 0fbe 1b47 05be
00000360: e97f 44bf d97d c63f 0443 9cbe a2dd c13e
00000370: 181c 03bf 2267 5ebf e784 7abf b47f 11bf
00000380: 455d 953f 696a d93f 7580 d5be a433 dc3e
00000390: 06d5 8dbf 281e fcbd 934f 25bf 30ef 27bf
000003a0: 4e4c 0ebf c7c5 d6be 5007 b8bf 7966 813d
000003b0: 6b41 1d40 33cc 6c3f cf58 fd3e fb4d 803f
000003c0: 6169 e33d 8179 c43e eed8 113f 5d61 a7be
000003d0: c10c 973e 1257 cb3d 4690 fb3e de34 1abf
000003e0: f123 ed3e c740 44bd c54d 0a3f 3f1b f5bf
000003f0: 2670 943d f9bc 383e 8eaa 8b3f f54e 4fbf
0.6171804 1.228274 -0.110508956 0.045203473 -1.463795 0.6756584 -0.093161166 -1.1648461
-0.17916943 1.0044158 -1.5511014 0.0197652 -0.24974263 0.17717145 0.055672828 1.1559104
-1.2640669 0.18293872 1.2089449 -0.0299522 0.1486922 -0.27178246 -1.2930356 0.028137099
-0.14870727 0.18497972 -0.49778014 0.88172203 0.3219916 -1.3064839 -0.28132138 0.31354564
0.66781026 1.7781378 0.15194273 -1.1794236 0.8324282 0.31311375 0.017153146 -1.1293771
-2.0010004 -0.48687473 -0.2979361 0.34865028 0.8885047 0.809195 -0.13722025 -0.43651456
-1.4922507 0.62775505 0.29102102 0.6835445 1.006864 0.1279367 -0.93924814 1.3446164
-0.9006537 -0.41832736 2.3697145 1.4799435 0.16659386 1.1305866 0.25783256 -0.24342568
-1.1138399 0.035293285 0.5286255 0.81629235 0.24880075 -1.0106165 -1.2095162 -1.0978153
-0.14696245 -0.40105343 0.06641779 -1.3965914 -0.009237389 -1.156428 -1.5555769 0.56791097
0.22596626 -1.8867759 -0.54377156 -0.2498067 0.08357505 0.15194845 0.36581042 -0.85651696
1.3523016 1.8808899 2.0949066 -0.37773594 -0.3255796 1.8547356 -0.62285805 0.10662807
0.17260864 -0.20246054 -0.18931009 0.81311476 -0.22089463 0.33492753 0.52653724 0.10359244
0.735638 0.041959874 0.6750664 1.3507338 2.0892112 0.24604051 -0.45313886 -1.6713853
0.061406497 0.37084016 0.9349385 0.07548543 0.35651043 0.23948874 -0.01706746 0.29069635
0.316358 -0.6224088 0.23509708 1.5516133 0.87072575 0.14857726 0.38033506 0.071905896
-0.42503238 0.61452776 1.0640712 0.5046066 -0.2612032 0.18719234 0.19915074 -0.10486725
0.4663898 -1.0029737 -0.65497386 0.25562838 -1.9987651 -0.61127585 0.47095665 0.69357544
-0.64739215 0.7673966 -1.6067371 -0.29754904 -0.33019665 -0.8018269 0.2406207 -0.8226305
-0.58995605 1.0681534 0.7414656 0.35969672 -0.19295722 0.19477686 1.4749373 0.85350454
1.0580974 1.449043 -0.5286327 -0.19735305 0.41571388 -0.32632342 -0.49800068 1.0854477
0.3544312 0.71402943 0.48766032 -0.43756568 -1.0968728 -1.1948302 -0.78294283 0.99379015
0.7333607 0.086525984 0.58887386 0.2186256 0.19010569 -1.0893958 1.1080577 0.6357865
-0.49003735 1.2921966 0.14637552 -0.051719867 -0.12748837 -0.35514963 0.89710486 -0.87813085
0.67317206 0.37062988 -0.10966876 0.780943 -0.8063771 -1.5254524 -0.308033 1.5786821
0.85616946 1.6716611 -1.0868285 0.31359747 0.4898033 0.04021715 -0.29176793 -1.130768
0.5238962 -0.99171406 -0.84302616 -0.15106529 -0.51808375 -1.3676845 -0.13967177 -0.13015406
-0.76757675 1.5507156 -0.3051988 0.37864405 -0.5121474 -0.8687612 -0.9785904 -0.56835485
1.1669089 1.6985599 -0.41699567 0.4300815 -1.1080635 -0.12310439 -0.64574546 -0.65599346
-0.5558518 -0.41947767 -1.4377232 0.06318373 2.4571178 0.92499083 0.49481818 1.0023798
0.11104084 0.3837395 0.56971633 -0.3269147 0.29501918 0.09928717 0.4913351 -0.6023692
0.46316484 -0.04791334 0.54024917 -1.914894 0.07247953 0.18040837 1.0911424 -0.80979854

weight f4 [32, 16]
00000000: 06ff 333c 0a7a e93f 7d56 523f 386a 14be
00000010: 2b87 c4bf 80f7 66be c4d8 ba3e ca36 e63e
00000020: 5e60 003f 4095 c73e a50a b5bd 869f b0be
00000030: 184c c73f 6bf3 50bf 36e6 c2bd 7978 c23f
00000040: 3d77 9c3f 843b 37bf f421 c43e 613f 203f
00000050: 62c1 05bf 9631 0fbf 8d68 8bbf f5b1 293e
00000060: 8feb f3be 1061 8fbd 08ed 313d 76aa b33e
00000070: cb0e 0f3f 94fc 583f 6f47 9cbf a507 763f
00000080: 28d2 b7be 3faf 13c0 1ba7 e3bf 7efc 24c0
00000090: fb28 c23e 5a77 b3bf 4a35 a03c 08b0 a0be
000000a0: 38e2 c9be 0115 df3e f645 e33d 95c9 5dbf
000000b0: eb58 883e 91ba 853f 4002 82be bd25 2d3f
000000c0: 2059 02be c638 b83d 85e2 1cbf 180d d4be
000000d0: 3c3b a33f 9cef ac3e 5da4 103f 99d1 813e
000000e0: 8624 5a3f 2fdf 80bf 743a cd3e ff6a e3bd
000000f0: 64e3 6ebe d789 163e 4e9a 0c3d ab30 babf
00000100: 1d5a 1abe 276e 12bf 2968 42bf bcba b2bf
00000110: d9a4 d03e 7955 fabe 323f 0f3e 39f5 983f
00000120: 825f c23f 1ca4 81bc a6c6 8abe 1b98 28bc
00000130: 216d 7cbd a552 c3bf fbe6 c2be faab 903f
00000140: d931 d9be c4ff 20bf 01ef 463f 5c55 cf3e
00000150: 3d74 c0bf 585d 883e 7e1d 1fbe d5ad 4f3f
00000160: a358 d9be 73db 8fbf 589c ffbd 5a17 55bf
00000170: 3c5b 1bc0 3dd1 573e 6a5a 9a3e b89a cd3e
00000180: 07ed c3be 22af 14bf 4181 a2be d335 3e3f
00000190: 4748 3a3c a088 983f 9a93 6d3f 4d86 56bd
000001a0: 0430 b0be c293 8a3f 0df2 81bd 78ec 533f
000001b0: 83d3 8e3f 7040 3fbf a796 cb3f 9bd2 32bf
000001c0: 31bf c23e 7988 6bbf 620a d9bf 29f1 edbf
000001d0: c610 413f c50f 52bf 2d89 66be 7739 b4bb
000001e0: 6dde 99bf b9c8 943f fb8a 0cbf b7ef 663f
000001f0: b93e 67bf 2d7e fbbd 90ea 19bf fb4b d03e
00000200: bb3e 72bf fe94 223f 89dc 6bbf e464 883e
00000210: 23e5 a4bf 5b7b b03f 0a1c 9cbe ffdb 383f
00000220: 9c02 63bf 2040 173f f807 1bbf aceb 533f
00000230: 6cf8 ae3f 3e23 f1be 77d1 243e 19d6 48bd
00000240: 5832 1fbf daf6 00bf 8fe5 cfbf 1aa5 c4bc
00000250: 2d35 32bf b3ec 303f 2e31 99bf a601 bfbd
00000260: 9713 533f f1e3 9e3f 4f60 6dbf 462b 36bf
00000270: a846 b2be 90a5 70bf 0bb4 3cbe cdfc e5be
00000280: 90d2 6bbe 229c 78be 7baa b93f 7fda 0a3f
00000290: ee74 cbbe 94d4 00bf 9092 8c3e 1191 98be
000002a0: 0298 0f3d dbb9 87bf 3e14 9bbf b329 0cbf
000002b0: 52aa b63e c93b 3cbf 1d78 2c3f 5c8c 9e3e
000002c0: 238e 06bf c5cd 0a3e 0f6b 50bf b4c8 80be
000002d0: 9aed 0ac0 8e0c 463f 5761 3dbf a279 633f
000002e0: 2d3d 913e 02db e63e 9c44 dabf 982b fa3e
000002f0: 5bf2 55bf 0c65 22bf 733c c73d 300a 6cbf
00000300: b004 f8be cd01 16bf 0b7b a9bf c8af c8be
00000310: 8ae1 483f 0e38 33bf c522 0ebe d658 80bf
00000320: f380 933d bb24 3bbf 94e9 3f3e fdaa 613f
00000330: ff84 3abe b723 d93e 2859 febd ff80 e03f
00000340: de9d 0b3f 2a36 3fbf 3001 eabc 864f cb3f
00000350: f97a 5cbf aa80 0dbf aa3a 4b3f 0cd1 713f
00000360: d208 50bc 234b 473f 773b f4bb 2814 b5bf
00000370: 33a0 3ebf 7e16 ebbd 9286 463f 99fe 153e
00000380: 44dd 36bf 4003 903b dcc6 d6bd 1acf 4abf
00000390: 7e47 d63e b53e 52bf eee5 9ebe ac96 b8be
000003a0: 2ccc 2e3e 74a0 e2bf 3cc7 61bf aee9 223f
000003b0: 4a89 f33e 35f4 8d3f ad41 bb3f 3c61 bf3e
000003c0: 516b f1bb e000 1a3d 7f92 d73f ac58 9d3e
000003d0: e421 d63d 3451 90bf 74f9 a4bf af74 68bf
000003e0: 8bd7 073f 4f0f 463f b0c5 cabe cefa 5a3e
000003f0: 6cc3 d23e 1527 91be 7a23 0c40 3d34 a4be
0.010986095 1.8240368 0.8216322 -0.14493644 -1.535375 -0.22555351 0.36493504 0.44963676
0.50147045 0.38981056 -0.08839921 -0.34496707 1.5570097 -0.81621426 -0.095165655 1.5193015
1.2223889 -0.7157519 0.38307154 0.6259671 -0.52248204 -0.5593504 -1.0891281 0.16571791
-0.47640654 -0.07000935 0.04343894 0.3509099 0.5588195 0.84760404 -1.22093 0.96105415
-0.35902524 -2.3075712 -1.7785372 -2.577911 0.3792189 -1.4020798 0.01955666 -0.313843
-0.39430404 0.43570712 0.11097328 -0.86635715 0.2663034 1.044756 -0.25392342 0.6763571
-0.12729311 0.08995204 -0.6128314 -0.4141624 1.2752452 0.33776557 0.565008 0.25355223
0.8521198 -1.006811 0.4008366 -0.11104392 -0.2332893 0.14701019 0.034326844 -1.4546102
-0.15073438 -0.5719933 -0.75940186 -1.3963237 0.4075077 -0.48893335 0.13988951 1.1949836
1.5185397 -0.015825324 -0.27104682 -0.010290171 -0.06162751 -1.5259596 -0.3806685 1.1302483
-0.42420843 -0.6289027 0.7770844 0.40494812 -1.5035473 0.26633716 -0.15538594 0.8112462
-0.42450437 -1.1238846 -0.12480992 -0.83238757 -2.4274435 0.21075912 0.30147105 0.40157104
-0.38266775 -0.5807973 -0.31739238 0.7430088 0.011369771 1.1916695 0.9280335 -0.052374173
-0.34411633 1.0826342 -0.06344996 0.827827 1.1158298 -0.747077 1.590535 -0.6985261
0.38036492 -0.92005116 -1.6956294 -1.8589221 0.7541622 -0.8205531 -0.22513266 -0.0055000144
-1.2021004 1.1623756 -0.5489957 0.90209526 -0.9033008 -0.122799255 -0.6012354 0.40682968
-0.9462697 0.63508594 -0.92133385 0.26639473 -1.2882427 1.3787645 -0.30490142 0.7221069
-0.88675857 0.5908222 -0.60559034 0.8278148 1.3669562 -0.470972 0.1609553 -0.049032304
-0.62186193 -0.50376666 -1.6241931 -0.024004508 -0.6961239 0.69111174 -1.1968133 -0.09326486
0.82451767 1.2413312 -0.9272508 -0.7115978 -0.3481953 -0.9400263 -0.18428056 -0.44919434
-0.23029542 -0.2427831 1.4505152 0.5423965 -0.39737648 -0.5032437 0.27455568 -0.29798177
0.035057075 -1.0603594 -1.2115552 -0.5475113 0.3567682 -0.73528725 0.6737078 0.3096646
-0.52560633 0.13555057 -0.8141336 -0.25153124 -2.170752 0.77362907 -0.73976654 0.8885747
0.28366986 0.45088965 -1.7052188 0.48861384 -0.8357293 -0.63435435 0.09728327 -0.92203045
-0.48441076 -0.585965 -1.3240675 -0.3919661 0.78469145 -0.7000741 -0.13880451 -1.002711
0.072023295 -0.7310292 0.18741447 0.8815153 -0.18214796 0.4241006 -0.12419349 1.7539366
0.5453776 -0.7469202 -0.02856502 1.5883644 -0.8612514 -0.5527445 0.7938639 0.94459605
-0.012697415 0.77849025 -0.007453378 -1.4146776 -0.74463195 -0.114788994 0.7754909 0.14647903
-0.71431375 0.0043949187 -0.10487148 -0.7922226 0.4185142 -0.82126933 -0.31034797 -0.36052454
0.17070073 -1.7705216 -0.8819463 0.63637817 0.4756568 1.1090151 1.4629418 0.3737887
-0.0073675294 0.03759849 1.6841582 0.30731714 0.10455683 -1.1274781 -1.2888627 -0.90803045
0.5306327 0.7736711 -0.3960395 0.21384737 0.4116472 -0.2835013 2.1896653 -0.32071105

weight f4 [32]
00000000: 7a0b 8f3f d12b ad3f 273c cc3f 3ee7 773f
00000010: 7bd2 ab3f 011f 533f 2a88 163f 07d9 ed3e
00000020: a022 073f 3ef2 173f 4bba 1a3f 1f34 973f
00000030: 0c12 af3f ae30 a73f 1cfb 5d3f 48d2 213f
00000040: d0a0 723f d4ef d33f 8923 ae3f 168a 9c3f
00000050: 8dc5 d13f 37f0 9b3f 51ef bd3e 17f8 8d3f
00000060: 2e6c 383f 8ab8 a13f 9ba1 093f a632 ac3f
00000070: 26ff 873f efc6 8c3f 19c9 8c3f 41b0 873f
1.1175377 1.3528997 1.5955857 0.9683722 1.3423609 0.82469183 0.5880152 0.4645464
0.5278721 0.5935401 0.6044051 1.1812781 1.3677382 1.3061731 0.8671129 0.6321149
0.9477663 1.6557565 1.3604594 1.222964 1.6388413 1.2182683 0.37096646 1.1091336
0.7204007 1.2634442 0.53762215 1.3452957 1.062474 1.099821 1.099887 1.0600663

bias f4 [32]
00000000: 6fdd b43e 71f7 ebbe 4507 203f 68dd d73e
00000010: a7f6 f2be edc8 1fbf 1013 ce3e 6a68 193f
00000020: 55a6 1fbe ab41 97be e71a a23e fd30 0f3e
00000030: 8493 41bd 328f fc3e 4ad3 303e 89be cb3e
00000040: 862f 0abf ba0c 943e b039 e63e 1c99 8a3d
00000050: 922c 92bc 9bad 43be 2da7 27bc 29ad 11bf
00000060: 721f 06bf d938 2abf 2b26 b8be ba63 7d3d
00000070: 636d 8d3e 4809 993e 1bcc 99be 1001 d0be
0.3532519 -0.4608722 0.6251109 0.42161107 -0.47453806 -0.62415963 0.4024892 0.5992495
-0.15590794 -0.29542288 0.3166115 0.13983531 -0.047259822 0.49328 0.172681 0.39793804
-0.53978765 0.2891596 0.44965887 0.067674845 -0.017843518 -0.19109194 -0.010232729 -0.56904846
-0.5239173 -0.6649299 -0.3596662 0.061862685 0.27622518 0.29889894 -0.30038533 -0.4062581

running_mean f4 [32]
00000000: 97f1 0e40 ca0d 843f 4d04 4e3f 6d21 1d40
00000010: dce3 41c0 1bc3 473f f66c f6be 1e1f be3e
00000020: cab1 70bf a70e 473d 0068 9dbf d2ad 28bf
00000030: dd7a 643f 27dd d1bf fe26 3d3f 82b3 763e
00000040: fe9e 583f a7c1 15bf 59b2 ad3f b757 443e
00000050: ae4e 853f 03f9 363f 7153 37bf a840 063e
00000060: 28fd 5bbe c3c1 80be 49b5 41bf aedd a2bf
00000070: 314d 48c0 59f4 003f 85b0 d13f 7872 c63f
2.2334955 1.0316708 0.8047531 2.4551651 -3.0295324 0.7803208 -0.48130006 0.37133116
-0.94021285 0.048597958 -1.2297363 -0.6589023 0.89249974 -1.6395615 0.7388762 0.24091914
0.846176 -0.58498615 1.3570052 0.19174086 1.0414636 0.7147371 -0.71611696 0.13110602
-0.2148329 -0.25147828 -0.75667244 -1.2723901 -3.1297114 0.50372845 1.6381994 1.5503683

running_var f4 [32]
00000000: 836e f240 95b3 9b40 8cdb 5f41 fcbc 8141
00000010: 4323 a741 c7af 5341 7aff 1342 e388 1b42
00000020: 93e9 1541 2268 e740 14ab a741 6982 4a41
00000030: 54db 8740 d09a 2e41 302b 2941 8357 7241
00000040: 101e de41 4466 8741 f82a a141 3dcc 9c41
00000050: 9dd8 9940 a650 7d41 c4ad 0b41 6e86 0a41
00000060: 8b0b 6a40 2eac 5f41 bdcf 0841 e579 2441
00000070: 5bf0 eb41 3875 d740 ca88 e940 eb0a 0441
7.57599 4.8656716 13.9911 16.217278 20.892218 13.230414 36.99949 38.88368
9.369525 7.2314615 20.958534 12.656838 4.2455235 10.912796 10.573044 15.146365
27.764679 16.924934 20.14598 19.599726 4.807692 15.83219 8.729923 8.65782
3.6569545 13.979536 8.550717 10.279759 29.492361 6.733059 7.297948 8.2526655

weight f4 [32]
00000000: 868c 363e fe90 8e3f 7142 ac3f 53df a83f
00000010: 0249 a93f 5be8 503f 81e1 ae3f fc4f 193f
00000020: 2d22 943f 045f 743f bc4c e43e 1ed5 a13f
00000030: a629 bd3f ba1e 583f af0d 663f c207 b93f
00000040: 9c5a 1e3f 39f5 a43f eee7 c73f f1c3 aa3f
00000050: f19b c33f 6a5a af3f ec57 973f bcf1 f23e
00000060: d1f3 0d3f 8fe7 d13f 5c15 203f 7610 9c3f
00000070: 4a1d 8b3f 64de 533f 91f2 ab3f f017 bf3f
0.17827043 1.1137998 1.3457776 1.3193153 1.3225405 0.81604546 1.3662568 0.5988767
1.157293 0.9545748 0.44589794 1.2643163 1.4778335 0.84421885 0.8986463 1.4455492
0.6185701 1.2887336 1.5617654 1.3341047 1.5281965 1.3699467 1.1823707 0.47450054
0.5545016 1.6398791 0.6253259 1.2192523 1.0868313 0.82761216 1.34334 1.492918

bias f4 [32]
00000000: ab62 ad3e c8b8 bebe 6522 a2bd 106e 14bf
00000010: 013b ad3e ae08 193f 2af0 8cbd c81a debe
00000020: c417 c4be 91dc adbe 0036 4abe 6445 73be
00000030: b4db d2be efd1 8abe ebf6 d83d 8cfd bf3e
00000040: debd 0dbf 65c9 3cbf 1fc6 b43e 71fc 3f3e
00000050: 6337 e53e 41ee 93bd 364d 913e f736 94be
00000060: db74 a63e 66a8 a5be 8808 4c3e 4bf6 2c3e
00000070: c9d7 7bbe cd5c 05be e9a6 9abe 6e54 b93e
0.3386434 -0.37250352 -0.079167165 -0.5798044 0.3383408 0.5977887 -0.06881745 -0.43379807
-0.38299382 -0.3395734 -0.19747162 -0.23756939 -0.41183245 -0.27113292 0.10593971 0.37498128
-0.5536784 -0.73744804 0.35307404 0.18748643 0.4476882 -0.07223178 0.2837922 -0.28948185
0.3251103 -0.3235504 0.1992513 0.16890828 -0.24594034 -0.13023682 -0.30205467 0.36197227

running_mean f4 [32]
00000000: 0a65 5fbe 58d9 b43f e9b8 33bf 99a9 41bf
00000010: 437e 9ebf adc4 1040 e909 06bf b16a babf
00000020: a294 acbf 392a 00c0 520c 7b3f efdb 5cbf
00000030: 78fa 05bf 86e7 e03f 80e8 0e3e ea0d 033f
00000040: febb a1bf cd72 babf 6aec 933f c508 a3bf
00000050: 0cc1 95be 2b33 a1bf 9278 4bbd da16 8dbf
00000060: e52c 8bbe 1242 c7bf e0e0 cd3c 8070 e0be
00000070: 8cd7 063f a3bf 443e e7c2 19be 4e8d ff3d
-0.21815887 1.4128828 -0.70204026 -0.7564941 -1.2382282 2.2620041 -0.5235887 -1.456381
-1.3482859 -2.002577 0.98065674 -0.8627309 -0.5233531 1.7570655 0.13955879 0.51193106
-1.2635496 -1.4566284 1.1556523 -1.2737051 -0.29248846 -1.259374 -0.04967553 -1.1022599
-0.2718269 -1.5567038 0.025131643 -0.4383583 0.5267265 0.19213729 -0.15015756 0.124781236

running_var f4 [32]
00000000: abe4 6041 c9a8 7f3f 4be8 dc41 a0d1 4e40
00000010: 400c 9b40 7cd5 bd40 def3 de40 92ee 9741
00000020: fabb 9740 ee9c 4f40 e00c f140 1a0d 7040
00000030: 69da 5241 63f2 9d40 bd5b 7f40 cf39 0a41
00000040: f0af f440 fb1a 5c40 8e61 9c41 2cd1 2640
00000050: 5a68 b040 741e 3040 1050 5640 eee0 ea40
00000060: a3a2 8e3f 9fff 2b40 4d14 1f41 e014 ab40
00000070: e244 0341 dc4b a440 1128 bd40 aa07 e440
14.055827 0.9986692 27.613424 3.2315445 4.8452454 5.93231 6.967269 18.99149
4.7416964 3.2439532 7.5328217 3.7507997 13.178323 4.935838 3.9899743 8.639113
7.6464767 3.4391468 19.547634 2.6065168 5.512738 2.7518587 3.3486366 7.339957
1.1143383 2.6874769 9.942456 5.346298 8.204317 5.13426 5.911141 7.1259356

weight f4 [32, 16]
00000000: b82f 04bf d9f2 ee3e 0145 94bf 4ccc 823f
00000010: 5cca 2cbf 210a 81bf 9d32 80be 1bbc 9abf
00000020: ff5c 00bf e68b ce3d 29ca 99bf 95c8 853e
00000030: c74a 95bf b1f3 a43f 00e8 993f 8783 3e3e
00000040: 85c6 95be 9678 63bf 4780 51bf cd89 d6be
00000050: 541c 6a3d 28d2 803f fbf5 92bf eb25 3abf
00000060: 0d37 383f 0b57 a9bf 42a7 d9bf ac82 483f
00000070: a694 303f 2804 dabb 68e7 44bf 3d13 98bf
00000080: 9afc cabf bf64 c93f ac64 45bf 59ca 85be
00000090: c760 a73f 65fb 01be 2c9f 8cbf 59ce 54bf
000000a0: 68e8 d83d bdf5 f0be 9771 39bf 7989 0a3f
000000b0: 4e53 08bf eba4 853f 49d3 88be 9af3 c1bf
000000c0: 1ae4 aabf 8186 2fbf 322b 8a3f 112e 4b3e
000000d0: a125 643f 3149 05bf 5cf0 c6be f3f0 febf
000000e0: b7f0 e43d e715 bdbe 3463 99be 2d80 10be
000000f0: c816 a63f 3bd9 a53e be32 553f aac9 e73d
00000100: 8d83 c3bf ba1f 563f 46e6 113f 60ae 963e
00000110: 10d5 0840 eeb2 05bf 589b d6be d1ea 183d
00000120: bbc1 3bbf b052 163f fc35 48bd 86f1 d1be
00000130: 4ba1 a2be 15d8 05bf 1bc4 7b3f b54e 183f
00000140: 58d7 c33e b230 ca3a f566 35bf 1be0 d03e
00000150: 23d8 8c3f 8757 08bd 00af cdbd 204e 803f
00000160: 0195 01be b810 94bf c86f 773f d19f 5fbd
00000170: 17d2 ffbe be32 6fbf 94dd be3e f055 b7bd
00000180: 670f 3f3f 22bc 73bf 679f bd3e 30a8 fd3f
00000190: 8d53 51bf c7c6 47bf 8a34 ba3e 5ae4 debe
000001a0: 3137 813f b5c1 273f 9143 55bd d940 e5be
000001b0: 417d b73c c3da c43f 5e71 2a3e a2df cebd
000001c0: 3206 81be c9e7 5bbf 179e ed3c ae6a 183f
000001d0: 6f8a 4cbf 3218 5f3e 637b 523e be9b 9abf
000001e0: 8632 21bf a7dd 133f 576d dabd b30b 9a3f
000001f0: e485 33bf 6df1 de3e d7d0 5f3e bc31 89bf
00000200: d92b 5ebf 6cea 20bf bcef 02c0 227f 8d3e
00000210: 22e5 363f e37e 6b3f afa3 8c3e 1ad5 aebf
00000220: 04bf 72bf 2cd2 8fbf 05fc b93e 7d31 703f
00000230: f77d eb3f 5d70 2cbf 74cf 813f cf2a 823d
00000240: c138 083f d84f c3be 2019 de3f c866 94bf
00000250: 3454 dbbe 2721 09bf 7c6c 87bd cb9a 333e
00000260: 3182 5dbe 1dd7 7a3e 54e2 81bd b425 4ebe
00000270: b680 4fbe 28a4 c93e 2282 cdbf 2522 773f
00000280: 1642 bf3f 5a69 e8be 7344 023f 57b5 79bd
00000290: 6085 4d3d 5fb3 bdbd 5d0c b23f ea70 c9be
000002a0: 532d 4b3f c846 4b3f 0145 c5bf 47ea a53f
000002b0: e296 2d3e b036 513f 40c1 603f 7eba 19bf
000002c0: 6203 033e 252e 98bf 62ef 573f 9e02 85bf
000002d0: fc6b 53bc 68c7 4d3f 92e2 6f3f e43e 0cbf
000002e0: 031d 1a3f d0a5 973e 75db 70be 7f39 e03c
000002f0: 4c02 e73d fac8 49bf 752f 113e 59e4 f23e
00000300: 311a 64bf 24ea 9d3d df53 9fbc 9144 f93e
00000310: 3019 823f 5ac0 f33e 42bf 42bf 29c2 703d
00000320: 6f6d 903f 134e a83f d014 4ebf dcbe 47bf
00000330: ebb1 c33f 63b0 63bf 3def 07bf f9fd d5bf
00000340: 58ab d7bf 27f3 50bf ef72 773e 047d 7d3f
00000350: b775 233f 3ef0 243c 7ca7 a83e 7d68 553f
00000360: 4291 0e3f 977f e4be 4ce3 bd3e 24e5 d73e
00000370: 54c7 b1bf f04e a8bc 487b 1ebf 6d49 9e3e
00000380: 40b5 32bf 8ef8 67bf 9a2b 50bf 0f43 adbe
00000390: a7f3 883f 0381 8e3f fdc1 ca3e a944 2e3f
000003a0: 783d 863f fbe5 11bf afaf 14bf c0c7 663f
000003b0: 2781 8f3f 8233 6c3f 04b4 2e3f e326 f63e
000003c0: 44a5 e83e fc4f 1c3e 9f17 7c3f 2448 ab3f
000003d0: 3778 0c3f 7c6c 82bf ed84 65bf 30df 47bc
000003e0: 0e5a 663e 3fe5 d83e 17c4 11bf bba7 98bf
000003f0: c294 7ebd 2733 0f3f c00b 67be bbf7 0a3f
-0.51635313 0.46669653 -1.1583558 1.0218596 -0.67496276 -1.0081216 -0.25038615 -1.2088655
-0.501419 0.10085277 -1.2014819 0.26129594 -1.1663445 1.2886869 1.2023926 0.18604861
-0.2925302 -0.88855875 -0.8183636 -0.4190201 0.057155922 1.0064135 -1.1481317 -0.7271411
0.71959 -1.3229688 -1.7004168 0.7832439 0.6897682 -0.0066533275 -0.769156 -1.1880871
-1.5858338 1.573387 -0.7710674 -0.26130942 1.3076409 -0.12693556 -1.0986075 -0.8312736
0.10591203 -0.47062483 -0.7243895 0.54116017 -0.5325211 1.0440954 -0.26723698 -1.5152466
-1.3350861 -0.6856461 1.0794432 0.19841792 0.8911992 -0.52064806 -0.38855255 -1.9917282
0.11178725 -0.36930773 -0.29958498 -0.14111395 1.2975702 0.32392296 0.8328055 0.11317761
-1.5274521 0.8364216 0.56991994 0.29429913 2.1380043 -0.5222615 -0.41915393 0.037333313
-0.73342484 0.5871992 -0.04887961 -0.4100458 -0.31763682 -0.5228284 0.9834611 0.594951
0.38250232 0.0015425889 -0.70860225 0.4079598 1.100346 -0.033286598 -0.10043144 1.0023842
-0.12654497 -1.1567602 0.9665494 -0.054595772 -0.49964973 -0.934368 0.37278426 -0.08951938
0.7463288 -0.9520894 0.37035677 1.9816952 -0.81768113 -0.78037685 0.3636821 -0.43533593
1.0094968 0.6552995 -0.05206639 -0.44776037 0.022398593 1.5379261 0.16644809 -0.10101248
-0.2520004 -0.8590055 0.029006047 0.5953778 -0.7989873 0.21786574 0.20554881 -1.2078779
-0.6296772 0.5776009 -0.10665386 1.203482 -0.70126176 0.43543568 0.2185701 -1.0718303
-0.86785656 -0.628577 -2.0458822 0.27636057 0.7144338 0.9199049 0.2746863 -1.3658783
-0.94822717 -1.1236014 0.36325088 0.93825513 1.8397816 -0.6735895 1.0141435 0.06355821
0.532116 -0.38146853 1.7351418 -1.1593866 -0.4283768 -0.5356621 -0.066124886 0.17539518
-0.21631695 0.24496122 -0.06341997 -0.2013157 -0.20263943 0.39383054 -1.6055338 0.96536475
1.4942043 -0.45392877 0.50885695 -0.060963955 0.050176024 -0.09262728 1.3910023 -0.3934396
0.79366034 0.7940488 -1.5411683 1.2962121 0.16952088 0.8172407 0.87794876 -0.6005019
0.12794259 -1.1889082 0.84349644 -1.0391424 -0.012904163 0.80382395 0.93705094 -0.54783463
0.6020052 0.29618692 -0.23521216 0.027371166 0.11279735 -0.7882229 0.1417826 0.4743984
-0.89102465 0.077106744 -0.019449173 0.48685125 1.0163937 0.4760769 -0.76073086 0.058778916
1.1283396 1.3148826 -0.8050051 -0.78025603 1.5288671 -0.8894102 -0.53099424 -1.6718131
-1.6849165 -0.8162102 0.24164937 0.99018884 0.63851494 0.010067044 0.3294028 0.8336256
0.55690396 -0.44628593 0.37087476 0.42167008 -1.3888955 -0.020545453 -0.6190686 0.30915394
-0.69807816 -0.9061364 -0.8131653 -0.33840224 1.0699357 1.1133121 0.39601126 0.6807352
1.0487509 -0.5699155 -0.5808057 0.90148544 1.1211289 0.92266095 0.6824343 0.48076543
0.45438588 0.15264887 0.9847354 1.338139 0.54870933 -1.0189357 -0.89655954 -0.012199208
0.2249529 0.423624 -0.56939834 -1.1926187 -0.062153585 0.5593743 -0.22563076 0.54284257

weight f4 [32]
00000000: f071 623f f4d6 7a3f c13e 923f dd2b 7d3f
00000010: 6dc0 a63f 637a 763e 0a48 6e3f e4f5 643f
00000020: 194f 333f f1bf 943f 8863 273f a966 9b3f
00000030: a187 b53f bd71 be3f 80cf 9f3f 1a46 853f
00000040: 53dc 403f 9871 6d3f ea40 783f c2cd ff3f
00000050: 1159 253f 560a ea3e 725b a13f ca4f ac3f
00000060: 8caf f03f e82f ad3f 6b29 1fbe 4aec 6f3f
00000070: 3ae8 313f 4688 df3f b7ec b93f 63b0 a03f
0.88455105 0.9798424 1.1425401 0.98895055 1.3027474 0.24070124 0.9307867 0.894377
0.7004257 1.1621076 0.6538625 1.2140704 1.4182016 1.487846 1.2485199 1.0412018
0.7533619 0.92751455 0.9697405 1.9984667 0.6458903 0.4571101 1.2606032 1.346185
1.8803573 1.3530245 -0.15543143 0.93719923 0.69494975 1.7463462 1.4525365 1.2553829

bias f4 [32]
00000000: 8eda 24bf eb86 07be 0e13 afbc fb91 bebe
00000010: 35a3 11bf 791c cc3d f82d ccbb 3b93 b03d
00000020: bc30 393e 16d5 26bc a874 133e a045 2f3f
00000030: 1be8 7d3e 9daf 9fbe 47b1 47bf 5b7d aebe
00000040: b23a 053e fd52 273d 0a6e 083e e837 52be
00000050: 383e fc3e 03d3 3dbf e8db 8fbe 4113 ccbe
00000060: 2e3a 19bf 18b5 7f3e b5e1 e0bc 788d a23e
00000070: 079b e83e 9c8f a43e b00d 24be 3ef7 c7be
-0.6439599 -0.13235061 -0.02137139 -0.3722075 -0.5688966 0.09966368 -0.006231066 0.08621832
0.18084997 -0.01018264 0.1439997 0.68465614 0.24795572 -0.3118867 -0.7800488 -0.34080014
0.13010672 0.04085063 0.13323227 -0.20529139 0.4926622 -0.74150103 -0.28097463 -0.3985844
-0.598544 0.24971426 -0.027451375 0.31748557 0.45430776 0.32140815 -0.16020846 -0.39055818

running_mean f4 [32]
00000000: f338 443f 81c2 5abf ca39 f4bf 906e bcbe
00000010: 2333 10bf ba54 603e 7bb8 6a3f e28c 033f
00000020: 665d 30bf db5e 433f 50cb f8bc 469b e33e
00000030: 0fe6 2ac0 bb22 fc3e 07fb ccbe 8e22 d53e
00000040: 11fe 32bf c355 bf3e f27e 25be 39ab 4cbf
00000050: 28d9 333f 418c 2a3e 3c4d 7cbf 702e 1dbf
00000060: 6f07 703d d2b2 d0bb 7f51 713e 95b7 8abe
00000070: c36f 2cbf 32c7 9ebe f494 ae3e 8ca7 223f
0.766494 -0.8545304 -1.9080136 -0.36803102 -0.5632803 0.2190732 0.91687745 0.51386845
-0.68892515 0.7631661 -0.030370384 0.44454402 -2.6702917 0.49245247 -0.4003527 0.41627926
-0.69918925 0.37370118 -0.16161707 -0.79948765 0.7025323 0.16655065 -0.9855535 -0.61398983
0.05860084 -0.0063689733 0.23566245 -0.27093187 -0.67358035 -0.3101135 0.34098017 0.63536906

running_var f4 [32]
00000000: 3490 aa40 3269 e040 cd38 1641 308b 8840
00000010: 5118 9540 3082 df3f a3d3 4840 5f97 7d40
00000020: f570 d940 dd64 6a40 dab3 aa40 4b11 1440
00000030: 76a6 3441 7546 e33f 6149 cc40 053f 6540
00000040: e0fb 6340 9755 9840 4238 a840 9a73 3340
00000050: ba1d 1d40 45e1 d540 3588 8440 68dd 9e40
00000060: 29d9 8040 f00a eb3f 1a58 1640 d04e 8e40
00000070: ea4a a840 1838 d140 9b87 ec40 9eda 3040
5.330103 7.012841 9.388867 4.2669907 4.6592183 1.7461605 3.1379173 3.962364
6.7950387 3.6624062 5.3344545 2.3135555 11.29064 1.7755877 6.3839574 3.5819714
3.5622482 4.760448 5.2568674 2.8039308 2.4549394 6.6837487 4.141627 4.964527
4.026509 1.8362713 2.3491273 4.4471207 5.259145 6.5380974 7.3915534 2.7633433

weight f4 [32, 16]
00000000: 516d 3e3d 3277 4a3e d670 43bf bb2b 5a3e
00000010: 01d9 363f 525a acbd 81d2 97bd 5ded 253f
00000020: 9949 bdbe adaf af3e 5b0a 5dbf ea11 b93f
00000030: 7580 f2be 68e6 b93d 2d18 693d a1ec 863e
00000040: 6e77 06bd cd9f 04bf 904a 8fbe dbe6 113c
00000050: aaef f6bd 02e2 ffbe 2525 1cbf 061c 55bf
00000060: 8e98 6a3e 4c10 34bf 90b5 63bf 7e33 9bbf
00000070: 9eab 653e 5529 4cbf 93ec dc3e f99f 70bf
00000080: deb2 ecbe fe5b 38be ec45 e23d 5152 c53e
00000090: 56be 6ebe a107 cd3e cfcd 26bf 1774 f8be
000000a0: 35f1 47bc 3819 8d3e 64b1 93be e938 743e
000000b0: 84df 083f 2b42 553f 9b36 88be fd04 acbd
000000c0: 7373 98be b3a7 9abf f8e7 753e 54f2 3ebf
000000d0: 9b7d 1c3e 8216 aa3f dfdd 263e cc83 31bf
000000e0: f99a 3d3f 2c60 01c0 3711 0fbf 3c24 4d3d
000000f0: 8af5 7bbf aa41 5abf 00d7 b83f e7dd 133f
00000100: b5b2 4fbe cdac 793f 2a41 983f 14c2 373f
00000110: 235f 6cbf 7024 073e 4218 40bf ea38 b43f
00000120: 50ab ccbd c13c 563d 1092 393f b6a4 aa3c
00000130: 113b f6bd f9d3 83bf fd06 a93e 3c74 ecbe
00000140: 515c 953e 42ce b33e d02b da3f 9c54 22bf
00000150: 2711 9abe 49c9 ee3c ffd9 c4be a947 333f
00000160: a150 2abf a8c3 643f e256 a83e 158c 7fbf
00000170: 697a 413f 80d8 ff3f 43fd 8dbe c456 513f
00000180: 3504 7fbf 2440 2c3f e599 20bf 094c 053c
00000190: faf9 193f 4029 293f eaa4 8c3e e4cb f73f
000001a0: 7ce7 b43f d137 c9be 2a0c 173e a06b cabf
000001b0: be9d 4fbf 8e1b 2f3f 61e4 f33e 86e2 8a3d
000001c0: c6fd 143f 7285 bb3f 307b 8d3e fd26 0a3f
000001d0: 1227 95be 9a1d 7bbf 957a c6be 0f5c 7dbe
000001e0: e783 a33f 1857 37bf a872 0d3f 58e8 6a3d
000001f0: fabf 633f d2bb 35bf 77b6 68bf 1e51 2abf
00000200: 96d3 f43d 0e2b fc3d 2d11 bebe 897e b4be
00000210: 231b 7cbf 133e bfbe 8485 2b3f f776 8c3e
00000220: 6caa 4e3d 6388 833f 4c54 5a3e 767b 3abe
00000230: 8194 8c3c c770 54bf 3476 13be 2dc2 0fbe
00000240: 3ef4 123f dbf3 cebe 7c3f 143e 381e b33f
00000250: 063e 593f cb79 d83e 3818 853f edd4 ac3f
00000260: 8a74 7fbf 0d49 a33d 5449 09be 2c56 433f
00000270: bbab 25be 0076 a23d 86a7 473f f989 123f
00000280: cbf3 013f eda0 03be 3e91 f13e c78f 32be
00000290: 7268 31be 48c5 b7be cf5f 79be 6dcd c23c
000002a0: 4cee 9cbe ec81 bdbf 4691 063f dd6f 783f
000002b0: 0e9d 20bf 0ce2 503f dd0d 663f 9dd4 fa3e
000002c0: ccd9 afbe 9216 283e 8089 47bf 00dd f4bf
000002d0: 3fff 793e 9bb3 84be a418 b0be c18a d8be
000002e0: c3a9 e43e c1f0 de3f edea 333e 67d9 003e
000002f0: dd85 8b3e d01c 65bf d057 b4be e6be 9ebd
00000300: 6484 11c0 0c62 1e3f b45f fa3e 1810 80be
00000310: 4855 f2be daea 44be 591d 6dbf c783 ea3f
00000320: 8d74 b6bd 753b 863f 947b 74be 82a0 be3e
00000330: bbf2 3b3f d825 a3be f95a 14bf d77f 433d
00000340: 79ad 373f a4c1 373f a5f5 86bd 2bcc d73e
00000350: b900 23bf e1b4 48bf 6ae2 413f 07c4 8abf
00000360: e92f 7e3e 7783 7abf 178f 233f 8b34 59bc
00000370: 66c9 0ebe 54a7 ecbf a8be 3abd 5e73 81be
00000380: f507 9bbe 29a8 343f 1e7b ed3d ea16 6b3e
00000390: 6f38 4fbf 3d39 d73e ac46 04bf 8617 c33e
000003a0: 4ba6 30be 8495 623e f74a b63e f257 efbd
000003b0: 30d3 23c0 0531 b73e 59fc 533e 5368 243f
000003c0: cd07 363f 5f63 1a3f 4c21 833f ec78 1fbf
000003d0: 9b10 5f3f 65f4 a83f 835f 9cbe 76d9 aebe
000003e0: 4ed0 5fbe 462a f1be 56a2 b63c 029d 83bf
000003f0: 46dd 9f3e 6287 46bf c649 193f 70dc 273e
0.04649097 0.19772032 -0.7634405 0.21305744 0.7142487 -0.08415665 -0.07413197 0.6481531
-0.36970213 0.34313717 -0.86343926 1.4458592 -0.4736363 0.0907715 0.05690782 0.2635241
-0.03282874 -0.51806337 -0.27986574 0.008905138 -0.12057431 -0.49977118 -0.6099418 -0.83245885
0.22909757 -0.7033737 -0.8894892 -1.2125089 0.22428748 -0.7975057 0.43149242 -0.939941
-0.46230215 -0.18003842 0.11048493 0.38539365 -0.23314795 0.40044883 -0.6515779 -0.4852607
-0.012203504 0.27558303 -0.28846276 0.23849835 0.5346606 0.8330409 -0.2660416 -0.08399389
-0.2977558 -1.2082428 0.2401427 -0.74588513 0.1528229 1.3288119 0.16295575 -0.6934173
0.74064595 -2.0214949 -0.5588564 0.050083384 -0.9842154 -0.85256445 1.4440613 0.5776047
-0.20283015 0.975293 1.1894886 0.71780515 -0.9233267 0.13197494 -0.75037014 1.4079869
-0.09993613 0.052304033 0.724885 0.020830493 -0.12022985 -1.0299064 0.33013144 -0.4618243
0.29171994 0.351183 1.704462 -0.63410354 -0.3009121 0.029148715 -0.38447568 0.7003122
-0.6652928 0.8936105 0.32878786 -0.99823123 0.7557741 1.9987946 -0.27732286 0.8177302
-0.99615794 0.6728537 -0.62734824 0.008135804 0.6014706 0.6607857 0.2746957 1.9359097
1.4133143 -0.39300397 0.14750734 -1.5814095 -0.8110007 0.6840142 0.47635177 0.06781487
0.5819973 1.4650099 0.27633047 0.5396574 -0.2913137 -0.98092043 -0.38765398 -0.24742149
1.2774628 -0.7161727 0.55253077 0.057350487 0.8896481 -0.70989716 -0.9090342 -0.66530025
0.11954419 0.123128995 -0.3712248 -0.3525279 -0.9847891 -0.37352046 0.67000604 0.27434513
0.050455496 1.0275997 0.21321219 -0.18211159 0.017160656 -0.82984585 -0.1440056 -0.14038916
0.57403934 -0.40420422 0.14477342 1.3993597 0.84860265 0.4228042 1.0398016 1.350248
-0.997872 0.07972918 -0.13406879 0.7630336 -0.16178791 0.07932663 0.77989995 0.5724178
0.50762624 -0.12854357 0.47181123 -0.17437659 -0.17324999 -0.358927 -0.24352954 0.023779595
-0.30650556 -1.4805274 0.5256542 0.9704569 -0.62739646 0.8159492 0.89864904 0.48990336
-0.34345853 0.1641486 -0.77944183 -1.9129944 0.24413775 -0.25918278 -0.343938 -0.4229336
0.44660768 1.7417222 0.17570086 0.12582932 0.27250567 -0.8949709 -0.35223246 -0.07751255
-2.2737055 0.6186836 0.4890114 -0.2501228 -0.4733069 -0.19230214 -0.92622906 1.8321465
-0.08908949 1.0486895 -0.23875266 0.37231833 0.7341725 -0.3186481 -0.57951313 0.04772934
0.71749073 0.7177985 -0.06589822 0.42147955 -0.6367298 -0.78401 0.75736105 -1.0841073
0.24822964 -0.9785685 0.6389021 -0.013257156 -0.13944015 -1.8488564 -0.04559198 -0.2528333
-0.30279508 0.7056909 0.11595748 0.2295796 -0.80945486 0.42035857 -0.51670337 0.38103884
-0.17250936 0.22127348 0.3560407 -0.11686696 -2.5597649 0.35779586 0.20701732 0.64221686
0.71105653 0.6030788 1.0244536 -0.6229389 0.8713471 1.3199583 -0.3054162 -0.34150285
-0.21856806 -0.47102565 0.022294205 -1.028229 0.31223506 -0.7755033 0.59878194 0.16392684

weight f4 [32]
00000000: 0000 803f 0000 803f 0000 803f 0000 803f
00000010: 0000 803f 0000 803f 0000 803f 0000 803f
00000020: 9174 aa3f ac2b c13f 8d93 343f 1d32 a83f
00000030: 906f 883f 57f7 543e 3f23 603f 9d40 ab3f
00000040: 0000 803f 0000 803f 0000 803f 0000 803f
00000050: 0000 803f 0000 803f 0000 803f 0000 803f
00000060: 41f5 7e3f 3227 463f 803e 8a3f 63f1 773f
00000070: 13ce 493f 6c37 143f 1866 8e3f c1ac 873f
1.0 1.0 1.0 1.0 1.0 1.0 1.0 1.0
1.3316823 1.5091453 0.70537645 1.3140293 1.0659046 0.20797478 0.8755378 1.3379093
1.0 1.0 1.0 1.0 1.0 1.0 1.0 1.0
0.9959298 0.7740356 1.0800323 0.968527 0.7883007 0.5789707 1.1124907 1.0599595

bias f4 [32]
00000000: 0000 0000 0000 0000 0000 0000 0000 0000
00000010: 0000 0000 0000 0000 0000 0000 0000 0000
00000020: be30 13bf 9da0 a8be 6548 2fbf 2053 c2be
00000030: 1299 2ebe e752 2cbe a151 eabe 4d31 533d
00000040: 0000 0000 0000 0000 0000 0000 0000 0000
00000050: 0000 0000 0000 0000 0000 0000 0000 0000
00000060: 67a1 1b3f e805 113f 74c6 a1bd 8d59 6c3e
00000070: 0b47 fd3d a45e 46bf fcd1 90bd 82e2 543e
0.0 0.0 0.0 0.0 0.0 0.0 0.0 0.0
-0.5749625 -0.32935038 -0.6846984 -0.37954044 -0.17050579 -0.168285 -0.45765403 0.05156069
0.0 0.0 0.0 0.0 0.0 0.0 0.0 0.0
0.60793155 0.5664964 -0.0789918 0.23081036 0.12367066 -0.7748816 -0.07071301 0.20789531

running_mean f4 [32]
00000000: a6ad acbc 2778 0fbf 1e2c 723e 4967 173f
00000010: 5813 ea3d 418b 683e 7bb9 50bf 50c5 76bf
00000020: a570 113d 0843 cd3e 11b5 533f 81e2 6ebf
00000030: 00f2 03be e834 47be 8c80 8d3f 2708 62bf
00000040: 8e0b 1ebf 8262 6e3f c2df f0be 11b1 ab3e
00000050: 5703 bf3e eb97 013f 5df6 883f 1be7 dabe
00000060: 1ff8 97be 6dc1 bdbe 1392 9b3e 61f7 c6bf
00000070: 8051 033f 0974 78bf e9c4 ddbf 5429 b0be
-0.021078896 -0.5604271 0.23649642 0.59141976 0.11429471 0.22709371 -0.8153302 -0.96394825
0.035507817 0.40090203 0.8269816 -0.9331437 -0.12885284 -0.19453776 1.1054854 -0.8829369
-0.6173638 0.9311906 -0.47045714 0.33533528 0.37307236 0.50622433 1.0700184 -0.42754444
-0.2968149 -0.37061635 0.30384883 -1.5544244 0.51296234 -0.97052056 -1.7325717 -0.3440653

running_var f4 [32]
00000000: cb64 bc3f 4b1a 0f40 fe66 523f 7156 1b40
00000010: de0b 1840 d510 f240 c942 3e40 1153 ab40
00000020: d2ae bd40 9752 5c40 33ab 8540 7b2f ba40
00000030: ffc8 c040 7537 0041 c262 4b41 a0f6 fa40
00000040: eb38 5440 84c7 0d41 27f2 3a40 64bb 0740
00000050: 45e4 0240 de90 ea3f b0ce 1541 3c3d 4c40
00000060: 4e0b 0f41 ffc2 d840 077c 1f40 92f1 8541
00000070: b903 f540 2a85 e641 5157 5f41 60d3 3b40
1.471826 2.2359798 0.82188404 2.427151 2.3757243 7.5645547 2.9728262 5.35389
5.9275904 3.442541 4.1771483 5.818296 6.0245357 8.013539 12.711611 7.8426056
3.315974 8.86121 2.9210298 2.1208124 2.0451825 1.832546 9.362961 3.1912374
8.94026 6.773803 2.491945 16.742954 7.6567044 28.815022 13.9588175 2.9347763

weight f4 [32]
00000000: 1ea0 5f3f 1823 0c3f d3b7 a43f 9f0e e43f
00000010: f7a5 e23f 8ab6 9e3f d855 933f 262d 5f3f
00000020: d27f d43f faa4 953f cbcd 0f3f 42c8 d13e
00000030: 9df3 363f 8958 1e3f 51e8 ca3f 3fdb 493f
00000040: bd43 123f 292d 6b3f f722 723f 1185 5d3f
00000050: 75c5 e83f 3fba 843f ec9c b83f f453 bd3f
00000060: 31fc c63f 58c0 6c3f c6a1 e93e 1965 683f
00000070: 7032 8d3f 0ca6 8c3f 6f92 cb3f 8596 943f
0.87353694 0.5474105 1.2868599 1.7816962 1.7706898 1.2399457 1.1510572 0.87178266
1.6601508 1.1690972 0.5617339 0.40973097 0.71465474 0.61853844 1.5852147 0.7885017
0.5713461 0.91865784 0.945846 0.8653117 1.8185259 1.0369338 1.4422889 1.4791245
1.5545713 0.92480993 0.45631236 0.9077926 1.1031017 1.0988173 1.5904063 1.1608435

bias f4 [32]
00000000: a40b e9bd f937 cdbe d7cf 5ebe b1c5 f03e
00000010: aa99 d8be 9e18 c73e db73 3fbe ab41 803e
00000020: 093a a0be 6fbe b33e 8541 1f3f 998a 30bf
00000030: e709 943e b7e1 83be e217 053f 1b89 4bbe
00000040: b89f 333c 4d2c dbbe c25c 40bd 2d68 393f
00000050: ead9 e53e cd6e be3e abf4 d9bd 6921 fabe
00000060: 027c bb3e 86ad 7f3e cd42 623d e739 4fbf
00000070: bde6 7bbe 7d76 36bf 5373 fa3e ab13 ecbe
-0.113791734 -0.40081766 -0.21758972 0.47025827 -0.42304736 0.3888597 -0.18696539 0.250501
-0.31294277 0.35106227 0.6220935 -0.68961483 0.28913805 -0.25758144 0.5198957 -0.1987652
0.010963373 -0.42807236 -0.04696346 0.72424585 0.44892818 0.3719391 -0.1064237 -0.48853615
0.36618048 0.24968538 0.055239487 -0.80947727 -0.24599738 -0.7127455 0.4891611 -0.46108755

running_mean f4 [32]
00000000: f8c3 073f 51d5 8abd 2d10 683f bf25 1f3f
00000010: c4aa 13bf ecbb 64be 7e44 22bf 5337 193f
00000020: 6480 303c a806 c43d 994e b43c cf94 48bf
00000030: 2dea 633e 550d 66bd 907d 2a3e a9c8 44bd
00000040: bd7a 4c3f 7cfa 26bf fbd8 773f c520 633f
00000050: 1f9b 653e 354d b0be 1a6a 393f f34f aa3d
00000060: 34a5 97bd ce03 1fbf 48bb 763f b895 1e3e
00000070: 3786 45bf 116a d3be ed87 96be 079d 1a3e
0.530334 -0.06778968 0.9064968 0.6216697 -0.5768244 -0.22337312 -0.6338576 0.59850043
0.010772798 0.09571582 0.022010135 -0.78352064 0.222573 -0.05616506 0.16649461 -0.048042927
0.79874784 -0.6522596 0.9681546 0.8872188 0.22422455 -0.34433904 0.72427523 0.0831603
-0.07404557 -0.6211518 0.9637952 0.154868 -0.7715792 -0.4129186 -0.29400578 0.15098964

running_var f4 [32]
00000000: 47f8 7c3f b98e e93e 80ed 1140 38da 773f
00000010: 769c e53f 0010 b13f 8c76 3340 0f1f 4540
00000020: e07d 4f3f 65c7 893e cb84 393f 45c5 4040
00000030: 1398 a33f a5cc 113f 51bf 183f 6cad d73e
00000040: 51e5 1440 8d81 b43f a6cc 2840 41f4 9c40
00000050: d4a8 243f 9c3b 703f a3f3 e33f a5a2 d23e
00000060: 0a6d 623f 9447 ac3f 1729 e93f 1f43 cd3f
00000070: 8b11 4b40 cd1f b93f 8688 ad3f f5c8 6540
0.9881634 0.456167 2.2801208 0.9681735 1.7938373 1.3833008 2.8041105 3.0800207
0.81051445 0.26909938 0.7246825 3.0120404 1.2780784 0.5695289 0.59666926 0.42124498
2.3264964 1.4102036 2.6374907 4.904816 0.6432011 0.93840957 1.7808727 0.41139713
0.8844763 1.3459344 1.8215665 1.6036109 3.1729457 1.446283 1.3557289 3.5903904

weight f4 [32]
00000000: cc02 613f 4352 cc3e 957d 893f e7fd 6f3f
00000010: 282f be3f 4385 0f3f c682 193f c5dd 753f
00000020: 6c92 6a3e 313b 173e e073 9c3f 5af3 893f
00000030: 0eec 4e3f d488 073f 8c42 723f 5953 373f
00000040: 4025 503f c96c 803f 3141 9e3f fe19 943f
00000050: e211 893f 61b8 d73d feb3 9d3f 39bb ff3e
00000060: e87e c63f 4a6a 2f3e 1f0e 993f f2df a83f
00000070: 4c22 c13e 2979 3b3f f0f7 253f a7df 8a3f
0.8789489 0.3990651 1.074145 0.937468 1.4858141 0.56062716 0.5996517 0.9604152
0.22907418 0.14768673 1.2222862 1.077739 0.8082894 0.5294316 0.9463279 0.71611553
0.8130684 1.0033199 1.2363645 1.1570432 1.0708582 0.10533214 1.2320554 0.49947527
1.5507479 0.1713039 1.1957434 1.3193343 0.3772148 0.7323175 0.6483145 1.0849503

bias f4 [32]
00000000: b7d9 f1be b189 38bf 069e e3be 726c 233e
00000010: eea3 dbbd 6ac8 d23e f6a0 a4bd e12d f13d
00000020: 4032 cf3e b8c7 43bc bb81 e0bb 58d4 e93e
00000030: 22de 133e 247a 2cbc ef09 633d e2b0 73be
00000040: 0d39 173e 3008 2bbf 62b5 e3be 55d1 d7bd
00000050: 3a23 c43e a06b 4dbe d093 d9be 005d 38be
00000060: ad45 21bf 13d9 57bf f464 c83b 9640 4bbc
00000070: e7cd 863e 24bb 99be 970e 263d febd 8ebe
-0.47236416 -0.720851 -0.444565 0.15959337 -0.107246265 0.4116853 -0.08038513 0.11776329
0.40468025 -0.011949472 -0.0068514026 0.45669818 0.14440206 -0.0105271675 0.055429395 -0.23797944
0.14767857 -0.6680937 -0.44474322 -0.10537974 0.38308126 -0.20060587 -0.42495584 -0.18004227
-0.6299694 -0.84315604 0.00611555 -0.012405535 0.26328966 -0.3002559 0.040541258 -0.27879328

running_mean f4 [32]
00000000: d654 d13c 9aaf e13c 0a20 dabf 8a03 f1be
00000010: 37aa bbbf cf1b 9c3f 4019 a53f c4e8 febf
00000020: 4372 563f 1f5f e53e 6007 613e 3cc1 0b3f
00000030: 7091 a3bf 855f b53f 47e5 5bbf 889a 3a3f
00000040: 2b43 93bf 0569 89bf 38c5 da3f f10e 2cbf
00000050: 638c 643e 72c0 0bbf e21c 053f 0463 e83e
00000060: 7dba 90be 2125 c9be 9a82 cf3f abcf c73d
00000070: d1dd 8a3e cd82 98bf fb04 95be 33e0 b63e
0.025553148 0.027549554 -1.7041028 -0.47073013 -1.466132 1.2195987 1.2898331 -1.9914784
0.837681 0.44799134 0.2197547 0.5459173 -1.2778759 1.4169775 -0.85896724 0.72892046
-1.1504873 -1.0735174 1.7091436 -0.672103 0.22319178 -0.54590523 0.51997197 0.45388043
-0.2826728 -0.3928614 1.6211731 0.097564064 0.27122357 -1.1914917 -0.29105362 0.35717925

running_var f4 [32]
00000000: bc22 9940 fed6 e240 530f 0242 adde c440
00000010: 31ae 1d41 0482 1841 33c6 f640 39a8 f841
00000020: 3d11 0a41 597d 1f40 f9e6 a440 211d 2841
00000030: 00af 1a41 ef80 6b41 fc20 c940 57b3 9d41
00000040: 951b f340 7f13 3a41 3af6 be41 29c5 9f40
00000050: 96e2 4d40 6929 d940 116d a740 39cd 0a41
00000060: 74b7 4b41 43f7 af40 a052 c941 bfbd 2d41
00000070: f015 b841 3769 3e41 baec 9640 be2c 0941
4.78549 7.088744 32.514965 6.152182 9.855027 9.531742 7.7116942 31.08214
8.629209 2.4920256 5.153195 10.507112 9.667725 14.718978 6.2852764 19.712568
7.597117 11.62976 23.870228 4.9928174 3.2169547 6.786305 5.232064 8.675103
12.732288 5.4989333 25.165344 10.858825 23.010712 11.900687 4.7163973 8.573423

weight f4 [32, 16]
00000000: 61c4 663e e4f5 47be 99b9 f43e 02e0 a5be
00000010: 1e28 ddbe a6ce 98be 87c4 a23e e61c 953f
00000020: 60ce 063f 0927 943f b51d d83b 1967 b8be
00000030: 6796 99be 9c3d b93f 133f 83bf fdda 95bd
00000040: a66b 403f 6a01 8e3f 4381 f8bb 4593 2dbf
00000050: a7e2 a93d 948e ccbf e5e5 86bf 3557 693f
00000060: b168 683f 3e12 f93e 0a71 60bf c531 0e3d
00000070: ed3a 13be b4c4 64bf 1b90 edbe 3863 023f
00000080: c14a b1be 5628 85bf 747c 57ba 1d5b d4be
00000090: 7527 b6bf b642 853f 9eb6 bd3f 2348 d53e
000000a0: 9d56 1bbf 05ec 883f e837 8fbe b7c8 103f
000000b0: c932 24bf 05f7 58bf 1de4 ff3c 6d89 37bf
000000c0: 385a 37be c2c3 aa3e 4eb5 953e 6172 1bbf
000000d0: 552a 8c3e 5680 76bf ff77 4bbf 01c6 003f
000000e0: 68b4 953d 959f 43be 8463 41bf 18c3 923e
000000f0: 50a8 bc3f 153c 82bf b95f bd3e 6eac 743f
00000100: 863f f4bc 8d11 d7be d77a fc3e 6798 22bf
00000110: c7c8 4fbf 911d e6bf 4e49 ef3c b1fd abbf
00000120: a3fe 56bd 916f 4dbf 15b7 4dbf 3f53 b2be
00000130: 3fea 3d3f 952d d4bd 3a47 0d40 e8b6 113f
00000140: 799f 833f 09ff 6c3f 4c56 7a3e 59fa a1bf
00000150: d0b5 bb3b d700 8fbe 89be b5bf fb04 febc
00000160: 8acc 6e3e 3ecb d13e 71f0 03bf fc57 8a3e
00000170: ea26 e53e adaa e13d 817c 39be 97f2 2cbe
00000180: 2855 1a3f 6359 593e 2e64 bbbe 6c14 58bf
00000190: 59c2 b5be d379 283e c8b2 84bf 15d9 e73f
000001a0: 2a9f a23f a047 80bf 84c7 8f3d bf43 d73e
000001b0: d822 be3e c2fd 2dbf a870 13bf 10ca 2dbf
000001c0: 0769 6f3f a1a4 1b3f a27a 45bf 3431 263d
000001d0: 7850 ab3f 4df8 cdbf cdcc 013f e754 1fbe
000001e0: 79a8 823e c337 253e 7a4b dfbf 4e3a 5dbf
000001f0: 78dc 263f f9e6 7f3f 53bc 843d 900c ad3d
00000200: 5b25 a3bf b8f4 9f3f e723 a1be 9ab3 643f
00000210: fa68 22bf 4dbe aa3e 16f7 7b3e d1e2 7ebe
00000220: a2e7 cdbe 915a 03c0 04ce 513e 1ab4 403d
00000230: 804d 5abf c2a8 60bf b183 3a3e 5f6c d93e
00000240: 2d30 98bf 27cc 9d3d 9e5f 023e ff0d 383e
00000250: e927 763f dbdf eebe de81 bbbe 5304 763f
00000260: 203e f0be 6684 e3be 40b4 e63f c695 f9be
00000270: 7f5d 793e 3aa2 8cbe 1ce9 64bf fab2 bb3e
00000280: af40 863f 879e 67be f79a 923e 3bb2 9e3f
00000290: d7f9 e3be b2c3 60be 52f6 1cbf d76e 97bf
000002a0: ae48 403f f392 b63e 98cc 943f 3dad 233d
000002b0: adab cebf fe69 5d3f 38ad 933f 0b1d 28bf
000002c0: 8a71 593e 1dd4 803e 3472 bf3e b739 1a3f
000002d0: ba87 8cbf a843 24bd a5d0 c53e 84ba bfbe
000002e0: b4c8 6cbe 2754 bc3e 5dc6 a1bf 695e 88bf
000002f0: e389 3dbd 33d5 7d3f 475f ac3f 0157 0d3f
00000300: f46a 48bd 37a6 bdbe aade a4bf b7ac 633f
00000310: 9f69 393f fef6 d7be 9307 9b3f dbed 99bf
00000320: a8ed bd3f 0c14 443f b41c b2bf c710 1dbe
00000330: eaee 693f 2a7b 91bc 9dc3 163e 9ecd 7b3f
00000340: ba53 863e 5769 ca3e 5f77 bc3e 8675 b5bf
00000350: f04c 0abf bdd4 79bf 787d 70be bc80 a3be
00000360: bb33 a3bf 0b0e 54bd 7660 aabe 3287 d13f
00000370: e404 ce3f b208 2cbd 7153 57bd 9127 94bd
00000380: 0398 8bbe e55d 95bf 7157 93bf 3501 953f
00000390: 0db5 6c3f af17 ee3e 4c86 9dbf 2062 643c
000003a0: 6b82 a63e 98e5 8b3e 6977 b73f 6bf9 9a3f
000003b0: 8b08 07bf 03cb 643f 8888 ce3f c88e 9f3e
000003c0: d42a 8f3f 2a9e 08bf 15e1 053f f87c e4be
000003d0: 2d3f af3f c77f 6abe ccbb 003f 1d86 883f
000003e0: 3813 87be 9912 603f 927f 753e 60dd 38bd
000003f0: 4748 3b3f 0f58 593e 5b17 63bf 9f11 bb3e
0.2253585 -0.19527394 0.4779785 -0.32397467 -0.4319467 -0.2984516 0.31790563 1.1649444
0.52658653 1.1574413 0.006595338 -0.36016157 -0.2999756 1.4471927 -1.0253624 -0.07317159
0.7516426 1.1094182 -0.0075837686 -0.6780284 0.08295184 -1.5981011 -1.0538908 0.9114869
0.90784746 0.4864673 -0.87672484 0.034715433 -0.14377947 -0.89362645 -0.46399006 0.50932646
-0.34627345 -1.0402935 -0.0008220144 -0.41475764 -1.4230791 1.0410984 1.4821355 0.41656598
-0.60679036 1.0697027 -0.2797234 0.56556267 -0.6413999 -0.8475192 0.031236703 -0.7169407
-0.1790551 0.33352476 0.29239887 -0.60721403 0.27376047 -0.96289575 -0.79479975 0.5030213
0.073098004 -0.19103844 -0.75542474 0.2866447 1.4738865 -1.0174586 0.36987093 0.95575607
-0.029815447 -0.42005578 0.4931247 -0.635138 -0.81165737 -1.7977773 0.02920976 -1.3436795
-0.052488934 -0.8024836 -0.80357486 -0.34829137 0.74185556 -0.103602566 2.2074723 0.5691972
1.0283042 0.9257665 0.24446982 -1.2654525 0.005728461 -0.27930328 -1.4198772 -0.031008234
0.23320213 0.40975374 -0.5153876 0.27020252 0.44756252 0.11018882 -0.181139 -0.16889416
0.6028619 0.21225505 -0.3659987 -0.8440616 -0.35499838 0.16452722 -1.036706 1.8113123
1.2704823 -1.0021858 0.070204765 0.42043874 0.3713596 -0.6796533 -0.57593775 -0.6788645
0.93519634 0.6079808 -0.7714025 0.040574268 1.3383932 -1.60914 0.50703126 -0.15559731
0.2551916 0.16134553 -1.7444909 -0.8641709 0.6518016 0.9996181 0.064812325 0.08449662
-1.2745775 1.2496557 -0.31472704 0.8933655 -0.6344143 0.33348313 0.24605975 -0.24891211
-0.40215784 -2.0524027 0.20488745 0.04704676 -0.85274506 -0.87757504 0.18214299 0.42465493
-1.1889702 0.077049546 0.12731788 0.17974089 0.9615465 -0.46655163 -0.36622518 0.9610035
-0.46922398 -0.4443695 1.8023758 -0.4874708 0.24352072 -0.2746752 -0.89418197 0.36659986
1.048849 -0.22619067 0.28633854 1.2398142 -0.4452655 -0.21949652 -0.61313355 -1.1830701
0.751109 0.35658988 1.1624937 0.039960135 -1.6146141 0.86489856 1.1537237 -0.65669316
0.21234718 0.2516183 0.37391818 0.60244316 -1.097892 -0.040103585 0.38635746 -0.37446988
-0.23123437 0.36782953 -1.2638661 -1.0653812 -0.046274077 0.9915344 1.3466576 0.5521088
-0.048930123 -0.37040874 -1.2880452 0.88935417 0.7242679 -0.42180628 1.2111686 -1.2025713
1.4838152 0.7659309 -1.391501 -0.15338431 0.9138018 -0.017758925 0.14723058 0.9836062
0.26235753 0.39533493 0.36809823 -1.417649 -0.5402365 -0.9759024 -0.23485363 -0.31934154
-1.2750162 -0.051771205 -0.3327672 1.6369383 1.6095243 -0.04200048 -0.05256981 -0.07234109
-0.27264413 -1.1669279 -1.151106 1.1640993 0.9246376 0.46502444 -1.2306609 0.01393941
0.32521376 0.27323604 1.4333316 1.2107366 -0.5274741 0.8937227 1.6135416 0.3116362
1.1184945 -0.5336634 0.5229657 -0.44626594 1.3691155 -0.22900306 0.50286555 1.0665928
-0.2638185 0.8752838 0.23974445 -0.045132995 0.7315716 0.21224998 -0.8870751 0.3653688
