Experiments/2022_07_26 13-51-41 wine_100runs_learning-rate_3mv-features_custom-loss /models/Model_run35_optimizer_params0.5_magnesium.pt (torch, 254541 bytes, 318 tensors)

weight f4 [12]
00000000: 0000 803f 0000 803f 0000 803f 0000 803f
00000010: 0000 803f 0000 803f 0000 803f 0000 803f
00000020: 0000 803f 0000 803f 0000 803f 0000 803f
1.0 1.0 1.0 1.0 1.0 1.0 1.0 1.0
1.0 1.0 1.0 1.0

bias f4 [12]
00000000: 0000 0000 0000 0000 0000 0000 0000 0000
00000010: 0000 0000 0000 0000 0000 0000 0000 0000
00000020: 0000 0000 0000 0000 0000 0000 0000 0000
0.0 0.0 0.0 0.0 0.0 0.0 0.0 0.0
0.0 0.0 0.0 0.0

running_mean f4 [12]
00000000: 0000 0000 0000 0000 0000 0000 0000 0000
00000010: 0000 0000 0000 0000 0000 0000 0000 0000
00000020: 0000 0000 0000 0000 0000 0000 0000 0000
0.0 0.0 0.0 0.0 0.0 0.0 0.0 0.0
0.0 0.0 0.0 0.0

running_var f4 [12]
00000000: 0000 803f 0000 803f 0000 803f 0000 803f
00000010: 0000 803f 0000 803f 0000 803f 0000 803f
00000020: 0000 803f 0000 803f 0000 803f 0000 803f
1.0 1.0 1.0 1.0 1.0 1.0 1.0 1.0
1.0 1.0 1.0 1.0

weight f4 [12]
00000000: f25e d2bf daa6 913f 0303 5f40 3423 2c40
00000010: fdec f6be 7e71 2040 ad57 613e a85a fbbf
00000020: 774f 6d40 1e05 34c0 137b 1d3f 08cf 8440
-1.6435225 1.1379044 3.4845588 2.6896486 -0.48227683 2.506927 0.22006102 -1.9637041
3.7079751 -2.8128123 0.6151592 4.1502724

bias f4 [12]
00000000: 4a52 703f 5bc3 0f3f 3d68 f23f 9bc5 d8bf
00000010: 9fa9 0f40 8483 2840 0ad9 2c40 5ef4 5740
00000020: ba7a f23f f7c3 0940 9181 a83e cfc7 27c0
0.93875563 0.56157464 1.8938061 -1.6935304 2.2447278 2.633027 2.700747 3.37429
1.8943703 2.1525857 0.3291135 -2.6215703

running_mean f4 [12]
00000000: 0778 b53f ae12 443e 3ca8 723f 6081 053f
00000010: 9b0c cf43 2696 853f b847 a13f 7f17 613f
00000020: 7fab 2d40 7441 a53f 6554 2741 7dbb e140
1.4177254 0.1914775 0.94787955 0.52150536 414.09848 1.0436447 1.2600012 0.8792648
2.7135923 1.29106 10.458104 7.0541368

running_var f4 [12]
00000000: 7ef6 3b3f 987a f03e b21a f83f 5c97 fa3e
00000010: f4a4 5947 6434 a93f 26da 2b3f 5e55 263f
00000020: 929d 4e40 7ca0 ff3e 2783 d040 d2ad 593f
0.7342299 0.46968532 1.9383147 0.48943603 55716.953 1.3219113 0.67129743 0.6497401
3.2283673 0.49927127 6.51601 0.85030854

weight f4 [32, 12]
00000000: dd43 6540 9e01 cb3d eb8e e0bf 5560 2abe
00000010: 386d 2d40 b944 77be b9be 56bf f368 4bc0
00000020: e7a1 4040 191a 39bf cf37 dabf 7cdf 9040
00000030: b1f2 5f3e 41d5 09c0 117b 31c0 9e72 8840
00000040: f23c 2840 080c ef3f a8c9 3f40 c6c2 2fc0
00000050: d417 833f d16b c73f 532a 2fc0 9155 1540
00000060: 82ba 15c0 d3aa bf3f a28d afbf fbd8 3ec0
00000070: 509b 04c0 d364 aa3f d5b5 53c0 987e 05c0
00000080: fc91 6cc0 c0f6 2240 407d 1b3f 5df5 75c0
00000090: 2efb 143f fe15 cabe 3637 00bf a96e acbd
000000a0: 725c 183e 33b4 8540 f539 2abf b923 f73e
000000b0: 898a 3540 93e0 5940 5647 91bf 0fda ecbe
000000c0: ee43 58be 0246 1540 0893 35be 1141 cb3f
000000d0: 0878 91bf 0a72 c9be fd7d 1dc0 49ff aa40
000000e0: 8ae0 f9bf 1eed 84bf 9aa7 1c40 5851 8040
000000f0: b6cc 52c0 b3c1 7140 1ec3 2d40 16de 15c0
00000100: 3d56 d03f 1421 07c0 347c acbf 5be4 92c0
00000110: e37a aa3f d8d4 e83f ecd0 96bf d6a9 b5bf
00000120: f294 22c0 baa1 d33f 686d db3f c983 1ac0
00000130: b311 2e40 39c3 2e40 2c19 75c0 eb1c b9bf
00000140: b7d6 2540 827f 9fbf ee16 0240 653d cd3f
00000150: d07b 53bf 66de df3f 89ff d53f 2971 5ec0
00000160: 537d a540 ee15 7b40 6ed5 6140 1b8b c8bf
00000170: 129a 3740 b69b 4fbf c0dc 17be 45a3 98bf
00000180: 60d2 4640 6075 ecbf 9d45 edbf b672 7840
00000190: 2d82 da3f 9937 2c40 8d8c 833f 0fdd 8b40
000001a0: 455e 0440 1eef f2bf f0f4 c5bf eee9 f8bf
000001b0: 7419 2840 f440 2340 81a4 8240 15d0 49c0
000001c0: 80d6 903f 01cb 8e3f 7f7c fb3f 6898 623f
000001d0: 4945 5040 61e0 36c0 159f 40bf 6efb 623f
000001e0: b159 41c0 22af fb3f dabd 153f ae8c e63e
000001f0: 13ac 4040 e32e e83e a2c2 81bf 30fb 54c0
00000200: c667 80c0 ce31 22c0 9a41 b9bf 3d0a c5bf
00000210: 628b 05be 8915 863d d6b1 acc0 fbab c13f
00000220: f7cd 0f3f 3886 26c0 cc31 e43e d5ef 09c0
00000230: 2763 1cc0 1293 5540 6c44 0f40 b885 d8bf
00000240: 24ab 39be 5d36 66bf 5972 3bc0 bc70 5f3f
00000250: 9d60 fc3e 1c4d b63f 85b7 873f fd97 8dc0
00000260: b315 5dbf d14f b9bf 61c7 bebf 8fe1 7040
00000270: 829a 64be 3aa9 3340 ce14 7040 1db6 02c0
00000280: 715d 4c40 0d9a b63f 49c4 bdbc 7305 4e3f
00000290: baec a0bf 04e2 a63e 3112 fa3f c2a3 8d40
000002a0: 6295 cc3f ac20 5fbf fd8f 9fbf be37 30c0
000002b0: 7b87 6e3f 7519 9ec0 5a27 8bc0 220d 683f
000002c0: 2bd1 a3bf 7388 d2bf f53b 913e 7ea1 01c0
000002d0: ac30 3840 f4d0 2bc0 771c 7940 fa38 0fc0
000002e0: dde3 c33f acae 4b40 f973 c03f 6799 cf3f
000002f0: 6758 1940 4313 0240 4aa1 c33d 34c9 1c40
00000300: 2c44 10bf 8318 8bbf e639 ce3f 8cf3 4cbe
00000310: 32be 15be fa52 0f40 b43c cf3f bdc7 8640
00000320: d308 ba3f 2e08 6740 148b c63f 0307 a9c0
00000330: f30c a3be 8e1c 2440 b0ee af40 e0f4 19c0
00000340: 3d6e 49c0 c2b1 f2be fc5d 1bc0 37cb 48bf
00000350: 77a9 afbf 59c5 79c0 936e 6840 c04f 6d3f
00000360: bd49 a3bf 4fa1 9440 fd38 8940 9eff 293f
00000370: dbd2 58c0 9aa7 67bf f894 edbf 0d6a 30c0
00000380: a035 1540 921e 3fc0 d188 233f 08e8 67bf
00000390: 0e6b 2740 8268 70bf dcf5 193e 4a81 e8be
000003a0: 6d0d 91c0 e74b 5a40 c6e1 d8bf 4206 a03f
000003b0: 7b22 3e40 fdf2 85bf 1751 0ec0 72f7 4640
000003c0: ee77 393f f692 0fc0 3fff 8340 56c7 17c0
000003d0: 9ab5 4740 f356 c43f 460a 0c40 0b8a f2bf
000003e0: 0da9 75bf 7115 0b40 c69c bebf b112 64bf
000003f0: 3be2 50c0 deb2 2240 a854 c03f 80de 0d3e
3.582267 0.09912418 -1.7543615 -0.1663831 2.7097912 -0.2414731 -0.8388477 -3.1782806
3.0098817 -0.72305447 -1.7048281 4.527281 0.21869923 -2.153641 -2.7731364 4.2639914
2.6287198 1.8675547 2.9966831 -2.746263 1.0241647 1.5579778 -2.7369583 2.3333476
-2.3395085 1.4974006 -1.3715098 -2.9819934 -2.0719795 1.3312019 -3.3079731 -2.0858517
-3.6964102 2.5463104 0.6073799 -3.8431008 0.5819577 -0.39469904 -0.50084245 -0.08419544
0.14879015 4.178247 -0.66494685 0.48269442 2.8365805 3.404332 -1.1349895 -0.46260116
-0.21119663 2.332398 -0.17731869 1.5879232 -1.1364756 -0.39344817 -2.4608147 5.3436627
-1.9521649 -1.0384862 2.4477296 4.0099297 -3.2937446 3.7774475 2.715034 -2.34168
1.6276318 -2.111394 -1.3475404 -4.5903754 1.3318752 1.8189955 -1.1782508 -1.4192455
-2.540341 1.653373 1.7142763 -2.4142935 2.7198303 2.7306654 -3.8296614 -1.446195
2.5912302 -1.2460787 2.0326495 1.6034361 -0.826108 1.7489746 1.6718608 -3.4756567
5.1715484 3.9232135 3.5286517 -1.5667452 2.8687787 -0.8109697 -0.14830303 -1.1924826
3.1065903 -1.847332 -1.8536869 3.8820014 1.7070976 2.6908934 1.0277268 4.3707347
2.0682538 -1.8979223 -1.5465374 -1.944639 2.6265535 2.5508394 4.082581 -3.1533253
1.131546 1.1155702 1.9647368 0.88513803 3.2542288 -2.857445 -0.7524274 0.886649
-3.0210993 1.9662821 0.58492815 0.45029205 3.0105026 0.45348272 -1.0137522 -3.3278313
-4.0126677 -2.5342898 -1.4473145 -1.539375 -0.13041452 0.06547076 -5.3967085 1.5130609
0.5617365 -2.601942 0.44569242 -2.1552632 -2.4435518 3.3371015 2.2385511 -1.6915808
-0.18131691 -0.899267 -2.9288542 0.87281394 0.4929246 1.4242282 1.0602881 -4.4248033
-0.86361235 -1.4477483 -1.4904596 3.763767 -0.22324565 2.8072038 3.7512698 -2.0423653
3.1932032 1.4265763 -0.023164885 0.80477065 -1.2572243 0.3259431 1.9536802 4.42624
1.5983088 -0.8715923 -1.2465817 -2.7534022 0.93175477 -4.9406075 -4.3485537 0.9064504
-1.2798208 -1.6447891 0.28366056 -2.0254817 2.8779707 -2.6846285 3.8923624 -2.2378526
1.5303913 3.1825361 1.5035392 1.621869 2.3960207 2.0324256 0.09552248 2.4497805
-0.5635402 -1.0866855 1.6111419 -0.20014781 -0.14623335 2.2394395 1.61904 4.211882
1.4533943 3.6098742 1.5511193 -5.282106 -0.31845817 2.5642428 5.4978867 -2.405571
-3.1473534 -0.47401243 -2.4276114 -0.7843508 -1.3723592 -3.9026701 3.631749 0.92699814
-1.2756878 4.644691 4.2882066 0.66405666 -3.3878696 -0.90490115 -1.8561087 -2.7564728
2.331398 -2.9862409 0.6388064 -0.90588427 2.615909 -0.93909466 0.15035194 -0.4541114
-4.532889 3.4108827 -1.69439 1.250191 2.9708545 -1.0464779 -2.2236993 3.1088529
0.72448623 -2.2433448 4.124908 -2.3715415 3.120459 1.5339035 2.188127 -1.8948377
-0.95961076 2.1731837 -1.4891593 -0.8909102 -3.263808 2.5421672 1.5025835 0.13854408

weight f4 [32, 16]
00000000: 3fcb 2240 093d 8c40 09e8 3ac0 9156 3f3e
00000010: 165f c5bf ac42 1bc0 4775 473c a7a3 4940
00000020: ad32 7c3f d160 0d40 8775 01c0 a837 3d3f
00000030: ad78 fbbf 0a2f fa3f abc7 8cc0 eca9 0b40
00000040: 9dab 3f40 bd6c 8bbf 3c9e afbf ec1c 8fbf
00000050: aa4a 7c3f d5c8 b2c0 50ae 24c0 5630 b43f
00000060: 4ffd 0940 9dde 3940 bf5d fb3f 0c2d 8abf
00000070: 5c59 1e40 f654 1340 a26b 38c0 3de7 febf
00000080: 9d20 21bf 5457 0fc0 b1c2 0e3f 8cdc 95be
00000090: 21f1 9240 c0a0 b83f 4ffe 87bf 29eb 38c0
000000a0: 0b10 843f 2a12 14c0 4f0c 3fc0 5d78 60c0
000000b0: a78f 88bf 5bcb cfbf 532b 8a40 da07 dcbf
000000c0: c24c 3f40 1405 5540 e033 1fc0 b3e3 483f
000000d0: 1e58 a0bf 09b1 95c0 2eab 22c0 1d4f 893f
000000e0: 6af4 3c40 392f 1d40 e455 14be 2aeb 82bf
000000f0: b64f ed3f f2ae 0a40 4f55 26c0 26cd 653f
00000100: 182f 633f 970e 6640 a2dc 29c0 fc6d b73f
00000110: 56bb 4cc0 29bc 273f 18c1 2c40 9958 b63f
00000120: f980 91bf 4c66 5740 49e8 64c0 e388 3cc0
00000130: 19fb f9bf 388c 8d3f 65d7 20c0 6207 2840
00000140: 4637 bd3f 7a0c 223f 2947 2e40 d86f c9bf
00000150: d981 2ac0 9949 543f 01d9 953f f68d 51c0
00000160: b86b efbf 325a a3c0 7a59 2940 f276 fcbf
00000170: 82b4 93c0 1a12 78c0 e884 8a3f 2e40 47c0
00000180: 1cb6 2dc0 73f6 73c0 e4e2 483f 38b7 5240
00000190: f859 1f40 207d 0abf 9505 ddbf 2c15 c13f
000001a0: 9eb0 3340 4f32 873f 652a e4bf 6024 00c0
000001b0: d123 f9bf 389c 05c0 cad0 8440 482e 6d3f
000001c0: b031 563f caea 9d3f 518e fbbf 8e83 a4c0
000001d0: 7944 5840 3d0f 583f 7a0f c53f cf95 e6bf
000001e0: 8c1c 44c0 d82b 02c0 96fc 8dbf f89a 9240
000001f0: 7f31 eb3f e428 f9bf a79e c83f 5f32 4e3e
00000200: 1166 9ebf e1bb 043f ae62 e5bf 0ac1 53c0
00000210: bcfc 243f 0797 683f 19b0 14c0 cb8c b1be
00000220: a04a 4fbe 70c0 dabe 5274 2140 1b61 9440
00000230: ef28 be3f c1d4 7bbf f7c3 c4bf ce00 0040
00000240: 6a06 3d3f 855c cc3f edb7 aac0 9b0b 74c0
00000250: 32b7 bebf cb27 87bf da82 ef3f 4dfe 66c0
00000260: eb85 38bf efa1 4040 3886 00c0 52ae d6bf
00000270: 3b72 8ebf 3ccb 4d40 7520 f9be 53e9 e9bf
00000280: 29d1 78bf 40b8 04c0 b693 a2bf e163 1b40
00000290: 9f2c d2bf 9ad7 e53f 01fb 2140 f350 a2bf
000002a0: 11cb 18c0 50b0 4e3f 4168 94bf 76de bdbf
000002b0: 3159 7e40 8e56 b9bf de62 53c0 aa37 1640
000002c0: cc39 8ec0 9f7c bd3f 0172 7640 3d87 46c0
000002d0: c810 eebf b2c5 1740 2958 ca3f d073 0ec0
000002e0: d470 6240 cd49 003b c744 cebf 0d4e 923f
000002f0: ca51 fabf d828 ebbf fdeb 0140 169a cbbf
00000300: 8d73 d53f 7bdf 1640 949c 40c0 df27 0cc0
00000310: 7485 b7bf 7c41 2440 ae87 18c0 14df 78c0
00000320: ec46 18c0 af40 41c0 2d1c fc3f 511e 3e40
00000330: b194 1340 c51f 1340 9a7b f6bf 8529 dcbf
00000340: 5730 f4bf ef5f 8ac0 2742 17bf 9da8 b1bf
00000350: d6b4 2540 13c4 c4bf b7ab 6040 1eb3 b8bf
00000360: 3b78 09c0 da1d bebf c8a5 16bf cb99 fd3f
00000370: d32f 7cc0 7bb3 03c0 b415 0a40 99a5 ecbf
00000380: 0b64 edbf aa48 0a40 5123 fbbf 2e14 9abf
00000390: 17e8 7640 1dc8 babf c2e0 2340 2b43 debf
000003a0: fd17 38bf 770b 27c0 a56d 40be a051 2f40
000003b0: 279e 6440 562b 5640 1721 05c0 f518 1040
000003c0: fa10 6f3f 1d87 8dbe abc6 a2bf 04b2 76c0
000003d0: c147 34c0 95e1 d73f 8ed4 0abf 9e42 94c0
000003e0: 834a b23f 14f0 8340 1668 fd3f 3ec0 20c0
000003f0: 48e2 c63f 8425 85bf 7fc6 ea3e 635a f73f
2.5436552 4.3824506 -2.9204123 0.18685366 -1.5419643 -2.4259443 0.012173957 3.1506135
0.98514825 2.2090342 -2.0227983 0.7391305 -1.9646202 1.9545605 -4.3993735 2.1822462
2.9948494 -1.0892559 -1.3720164 -1.1180701 0.9855143 -5.5870156 -2.5731392 1.4077251
2.1560857 2.9042122 1.9637984 -1.0794997 2.474204 2.3020606 -2.8815694 -1.9914318
-0.6294039 -2.239705 0.55765826 -0.29269826 4.5919347 1.4424057 -1.0624484 -2.889353
1.0317396 -2.3136086 -2.9851263 -3.5073464 -1.0668839 -1.6233934 4.3177886 -1.7189896
2.98906 3.328435 -2.4875412 0.7847244 -1.2526891 -4.6778607 -2.541698 1.0727268
2.9524179 2.4560072 -0.1448589 -1.0228016 1.8539951 2.1669278 -2.5989568 0.89766157
0.88743734 3.5946405 -2.6540914 1.433044 -3.198934 0.65521485 2.6992855 1.4245788
-1.1367484 3.3656187 -3.5766776 -2.945855 -1.9529754 1.1058416 -2.5131466 2.6254506
1.4782493 0.6330029 2.7230933 -1.5737257 -2.6641753 0.829248 1.1706849 -3.2742896
-1.8704748 -5.10476 2.6460862 -1.9723799 -4.6157846 -3.8761048 1.082181 -3.1132922
-2.71424 -3.811917 0.7847121 3.2924328 2.4898663 -0.54097176 -1.7267329 1.5084586
2.8076549 1.0562228 -1.7825438 -2.0022202 -1.9464055 -2.0876598 4.150487 0.92648745
0.8366957 1.2337277 -1.9652807 -5.141059 3.3791792 0.8439825 1.5395348 -1.8014468
-3.0642424 -2.033926 -1.1092708 4.581417 1.837448 -1.9465604 1.5673417 0.20136403
-1.2374898 0.5184918 -1.792074 -3.3086572 0.6444814 0.9085545 -2.3232481 -0.3467773
-0.20243311 -0.42724943 2.5227246 4.6368537 1.4856242 -0.9837151 -1.5372304 2.000049
0.7383791 1.5965735 -5.334952 -3.8132083 -1.4899657 -1.0559019 1.8711808 -3.6092713
-0.7207934 3.0098836 -2.008192 -1.6771948 -1.112861 3.2155294 -0.48657575 -1.827433
-0.97194153 -2.0737457 -1.2701328 2.4279711 -1.6419867 1.7956421 2.530945 -1.2680954
-2.3873942 0.8073778 -1.1594316 -1.4833515 3.9741938 -1.4479539 -3.3029094 2.3471475
-4.4445553 1.4803656 3.8507082 -3.1020043 -1.8598871 2.3714414 1.5808154 -2.2258186
3.5381365 0.0019575239 -1.6114739 1.1430069 -1.955621 -1.837184 2.0300286 -1.5906398
1.6675888 2.3573902 -3.0095568 -2.1899335 -1.4337602 2.5664968 -2.3832812 -3.8886156
-2.3793287 -3.019573 1.9696099 2.9706004 2.3059504 2.298814 -1.925647 -1.7200171
-1.9077252 -4.3242106 -0.59085315 -1.3879582 2.5891623 -1.5372337 3.5104806 -1.4429662
-2.1479633 -1.485286 -0.5884671 1.9812559 -3.940419 -2.0578296 2.1575747 -1.8488036
-1.8546156 2.160685 -1.9620153 -1.2037408 3.8579156 -1.459232 2.5605931 -1.7364248
-0.71911603 -2.6100748 -0.18791826 2.739357 3.5721529 3.346395 -2.0801446 2.2515233
0.9338528 -0.27642146 -1.2716879 -3.8546152 -2.8168795 1.6865717 -0.5423058 -4.633132
1.3928989 4.1230564 1.979739 -2.5117335 1.5537806 -1.0402074 0.45854566 1.9324459

weight f4 [32]
00000000: 9d37 4cbe dcfc 1b40 80f7 0e40 e771 90bf
00000010: d051 0bc0 507c 9ebf bc7a c4be 69af 1ac0
00000020: 4245 35c0 eb3f a940 e48c e7bf 80dc 2c40
00000030: e9c6 8b40 3a8b 803e 92f2 013d dfe7 7740
00000040: b3a7 c93f d1c4 8840 69c6 7340 a4bf c140
00000050: 1e20 c73d aa82 0440 eecc 5a40 0be5 2340
00000060: e27c eb3e 1bd0 3440 8cae 5f40 1a15 9840
00000070: 2efb 6a3f c321 083f 5542 e33f 53a8 8dbe
-0.1994309 2.4373083 2.2338562 -1.128476 -2.1768684 -1.2381687 -0.3837489 -2.4169562
-2.8323522 5.2890525 -1.8089871 2.7009583 4.368031 0.2510622 0.031725474 3.8735273
1.5754303 4.2740254 3.808985 6.0546436 0.09722923 2.070475 3.418758 2.5608547
0.45993716 2.8252017 3.4950285 4.752576 0.9178952 0.53176516 1.7754618 -0.27667484

bias f4 [32]
00000000: 8b3f 37c0 2c48 f53d f0b5 9cbe ccd9 4440
00000010: c402 89bf 7d8d 4fc0 5c8b ae3f b2fe 27c0
00000020: d1a7 e23f 91b3 f7bf f382 46c0 11d1 5040
00000030: 33ea d33f f084 0fbf 2ca4 0b40 8941 d33f
00000040: b0fd 91bf 0c80 0640 0428 893f 45d0 e3bf
00000050: 376f 79c0 cd0a 32c0 e248 bcbf bd65 14c0
00000060: 9b7e ae3d 6d8c 2c40 31da 4cbf abfa 5fbf
00000070: bc42 2b40 1b91 6abe 4aaf 79bf 7513 6340
-2.8632534 0.11976656 -0.30607557 3.0757933 -1.0703969 -3.2430108 1.3636279 -2.6249204
1.7707464 -1.9351674 -3.1017425 3.2627604 1.6555847 -0.5606222 2.1818953 1.6504375
-1.1405544 2.1015654 1.0715337 -1.7797934 -3.897413 -2.7819092 -1.4709742 -2.3187096
0.08520242 2.696071 -0.80020434 -0.87491864 2.6759481 -0.22906916 -0.97533095 3.5480626

running_mean f4 [32]
00000000: 40ac 2ac1 42a0 63c0 b931 b0c0 e805 8a41
00000010: 17bf c5c0 0b4a e6bf 6937 2c40 1e9e f441
00000020: 8783 9041 2df2 a941 8211 45c1 38a9 4fc1
00000030: a547 b7c1 517c 3341 45fa 4cc1 3155 e241
00000040: d4d3 1742 ed93 3dc1 322f 3dc1 a21f 08c0
00000050: 9618 9241 0466 4e3e d9f5 3b41 8e41 c2c1
00000060: 2ee1 0241 6211 d740 f7e1 4641 3936 6740
00000070: e1e3 c441 aacc 9ec1 b555 b9bf 4575 c2c1
-10.667053 -3.5566564 -5.5060697 17.252884 -6.1795764 -1.7991346 2.690882 30.577206
18.064222 21.24325 -12.316774 -12.978813 -22.909983 11.217851 -12.811101 28.291597
37.956863 -11.848615 -11.824022 -2.1269307 18.262005 0.20156103 11.747521 -24.28201
8.1799755 6.720872 12.430167 3.6126845 24.611269 -19.849934 -1.4479281 -24.30726

running_var f4 [32]
00000000: b52c 0144 d385 f643 46f8 1a44 b795 1a43
00000010: 55cf 6143 58bf 5143 1371 9443 66a9 7843
00000020: 2011 1f43 f515 3f44 d0b3 aa43 dda8 3244
00000030: 39fc da43 da30 bc43 a738 a843 2414 ff43
00000040: 3ebb b043 4945 0a44 9f7c b543 3b5a d343
00000050: 7e18 4843 64c6 5a43 3095 b043 d940 2643
00000060: f328 8043 3bd9 8843 53fc 1944 cc33 d643
00000070: 3a20 0843 ab9e 8a43 eb91 0c44 5b55 a343
516.69855 493.0455 619.8793 154.58482 225.80989 209.74744 296.8834 248.66171
159.0669 764.3431 341.4048 714.6385 437.9705 376.38165 336.4426 510.15735
353.46283 553.0826 362.9736 422.70493 200.09567 218.77496 353.16553 166.25331
256.31992 273.6971 615.94257 428.40466 136.12589 277.2396 562.27997 326.66684

weight f4 [32]
00000000: 1c5c 2340 9bda 23bd af16 8040 1f57 2f40
00000010: 7570 1fbf 01be 333e e272 3740 28a4 20bf
00000020: 97c0 0b40 8e14 0940 337c a13e 2be2 2740
00000030: cbe5 f8be edec 6f40 f59b 2a3e bb7c b93f
00000040: b6fd 04c0 e120 f13d 2e69 7c40 eb61 ce3f
00000050: 1063 c03e 5a9e 3bbd 1245 7440 f8a3 94bf
00000060: 7979 0140 c0b9 1340 57ea 243f 8a10 1740
00000070: d632 a6bf 7e99 1e40 fa43 0240 5ff5 aabf
2.552497 -0.0400034 4.002769 2.7396924 -0.6228097 0.1755295 2.866387 -0.6275048
2.1836298 2.1418796 0.3154007 2.6231792 -0.48612818 3.7488358 0.16661055 1.449119
-2.0779853 0.11773849 3.9439197 1.6123632 0.3757558 -0.045805313 3.8167157 -1.1612539
2.023039 2.3082123 0.64420074 2.3603845 -1.2984264 2.4781184 2.035399 -1.3356131

bias f4 [32]
00000000: 9613 3e40 a2b1 b5bf d9fe fabf 17e6 fcbe
00000010: 60cd 093e 69fd 313f d0ae ae3d 494b b53f
00000020: 7ac9 49be 1af4 ee3f 1448 29bf fd8a 21c0
00000030: 47c1 13c0 2eb3 15c0 29c6 da3f 2da6 ef3f
00000040: f5a5 ab3f 1dc1 1fbf b855 8c3f 6d50 5b3d
00000050: a478 1ac0 0990 1ec0 90c9 dd3f 8758 a53f
00000060: e53d a43f 803f f83e 1979 9c3f 947e 13be
00000070: 3224 3bc0 66da fd3f 35a7 52c0 988a 3d3f
2.9699454 -1.4194834 -1.9609023 -0.49394295 0.1345725 0.695273 0.085294366 1.41636
-0.19705763 1.8668244 -0.6612561 -2.5241082 -2.3086717 -2.3390613 1.7091724 1.8722588
1.3410021 -0.6240404 1.0963659 0.053543497 -2.4136133 -2.4775412 1.7327137 1.2917641
1.2831389 0.48485947 1.2224456 -0.14403754 -2.9240842 1.9832275 -3.2914555 0.740396

running_mean f4 [32]
00000000: 5003 bac0 5bea 12c1 b529 cc40 6f72 f0bf
00000010: 6d8d b2c0 9a12 d4c0 b78a e040 7c30 ce40
00000020: 57f4 0f40 6ae7 f4c0 8c91 0a41 a9de 1d3f
00000030: 8c7e f63e de66 2f40 9886 6241 8623 d9c0
00000040: 0292 0b41 b2e4 4ec0 c71d 2bc0 80c1 df3f
00000050: 423a 873f f405 2540 e685 23be a9a8 6340
00000060: 5c8e 1540 f219 5bc0 e1d2 2e40 2c94 88c1
00000070: d170 5e41 95d9 89c0 1f16 813e e0b0 d1bf
-5.8129044 -9.182216 6.380091 -1.8784922 -5.579764 -6.6272707 7.016933 6.4434185
2.2492883 -7.653249 8.660534 0.6166788 0.48143423 2.7406535 14.15786 -6.7855864
8.723146 -3.2327085 -2.6736925 1.7480927 1.0564654 2.5784883 -0.15969047 3.5571692
2.336814 -3.4234586 2.731621 -17.07235 13.902543 -4.3078103 0.2521219 -1.6382103

running_var f4 [32]
00000000: 8fb4 7943 17ec 1143 0716 ba43 7fc8 8b43
00000010: 449e e843 262f 2f44 a3e6 ad43 0684 9043
00000020: 7506 5b43 4fbf 2343 967e 8c43 7651 9043
00000030: 06ac 2744 ea5b 0444 bb81 a143 b8f1 1144
00000040: 94fe c643 57e0 a843 278b 0744 a1f5 0a44
00000050: 8673 db43 bd5d d843 03b1 4644 b78b dc43
00000060: d80d 2f44 4c4e 8f43 18b3 e443 f7c9 2143
00000070: 3f9b b043 45a2 1244 36f2 e842 192c 3f44
249.7053 145.92223 372.1721 279.56638 465.23645 700.7367 347.80185 289.03143
219.02522 163.7473 280.98895 288.6364 670.68787 529.43616 323.01352 583.77686
397.9889 337.75266 542.17426 555.83795 438.90253 432.73233 794.7658 441.09152
700.2163 286.6117 457.39917 161.78893 353.21286 586.53546 116.47307 764.689

weight f4 [32, 16]
00000000: 1a66 2540 66f8 07c0 4ccc f93f 13c7 1540
00000010: d7c2 9b3f 3668 36c0 8c83 1ec0 06fa 393f
00000020: 7e57 3540 0e9a 0d40 8b61 57c0 0074 1fc0
00000030: ee81 3bc0 f056 4240 d44f 4740 cee9 74bf
00000040: b4cb 75c0 6f1d 9d3e 9392 e7bf 0614 13c0
00000050: 21e5 06c0 b516 4b40 6f2c 0940 f31b 48c0
00000060: f3bc a53f 3928 7dc0 8cb6 1740 489b 1740
00000070: 1d81 0940 ecf9 0bc0 cca1 d8bf 3a1f d33f
00000080: 0f1e 4940 6303 76bf 412f f03f 121a a73f
00000090: 84f2 3940 cbb3 f3bf 05d5 53c0 4cea 92c0
000000a0: 5e82 20c0 9a4d 31c0 db45 d93f ee6b 27c0
000000b0: 82e9 b13f 435b 7e3f d679 f9be 4192 8fbf
000000c0: 7d4b 5dbe a454 a93f fdff 4340 c455 d0bf
000000d0: e1c0 b6bf dd27 963f 75ba 1a40 a40d 5ec0
000000e0: f30c 1d40 b3d9 03c0 cf3d 1440 dbfe d9bf
000000f0: 48bf 4a40 c654 26c0 8330 82bf 9a74 0840
00000100: 5c9e 2c3f 94fc 2b3f 9833 043f 98f4 7240
00000110: 4659 3440 1d43 ba3f 182e 52bf bf3e d83f
00000120: a2c4 3b3f 37f0 8a40 ee3e 47c0 9b61 9ec0
00000130: 2d3b 52bf d3cc 993f 2b9d 173f 09cb 2d3e
00000140: ff04 5f40 40ec eebf 6ee4 f7bf ccd2 fcbf
00000150: cc80 2840 486a 0a40 ca9d 05c0 d6f6 eebf
00000160: 5226 01c0 b4b9 b23f a81d 3240 79a8 10c0
00000170: 68b7 0640 869b 55c0 8c46 4540 7526 c63f
00000180: 6e0a bb3e 001b bbbf 8248 2d40 6d6c 193f
00000190: 8835 ee3f 9f69 c73f 90c0 3b40 dad5 bc3f
000001a0: 5f55 9040 f375 bf3e c8eb 2fbb 985b b2bd
000001b0: 60bc 1240 1c69 8240 b2b2 00c0 1260 b03f
000001c0: b79b 3b40 42f6 1c40 0755 3ac0 80da 94bf
000001d0: adff 12c0 88af 0840 8bbb e0bf b5a7 39c0
000001e0: 38c2 11c0 d2f4 3440 f390 0cc0 7a6b 2ebf
000001f0: f54a e13f b287 fd3f 2912 66c0 7b0a 133f
00000200: 76f4 47c0 d4f9 9fbf d25a 58bf b707 8abf
00000210: 980f 0dbe 2605 eebf fdfb 643f 562f 3e3f
00000220: a9db 43bf 740f 60c0 ed28 0440 2c08 9b40
00000230: 64da 20bf 1a12 a4bf fd73 2bbf 754f 2c40
00000240: 5f41 2b40 34ce 153f 082d 93bf be72 943f
00000250: a1a9 3cc0 5e67 5cc0 b459 95be 277c 3440
00000260: 33e9 3240 3cae 5140 7e6c 2dc0 455d a33f
00000270: 82ca 2dc0 185c 5240 ca02 fcbf 7387 fc3e
00000280: 54ec ae3f 6f2e e43f 3a82 69c0 b0bb ce3f
00000290: f975 13c0 1f96 bc3f 125d 1a40 fad5 2840
000002a0: 96e5 4340 2dbd 463f c0fb 0cc0 c2fb 5a40
000002b0: b4b1 1dbf 968c b9bf e6c1 3ac0 32a9 ce3f
000002c0: 0ac1 93bf b096 50c0 f751 973f 488b dc3f
000002d0: 9de3 eb3f 7b7b fbbf 27fa 6740 2073 c53f
000002e0: 59ea 0cc0 cfae d0bf d9b3 3240 5ac7 2dc0
000002f0: 3e3e 47c0 21af c33f b8d1 3240 07af 16c0
00000300: b413 2940 29d8 153f 0ad4 71c0 ce29 5e40
00000310: 1220 50bf abfb e0bf 1671 84c0 cfb3 2c40
00000320: 8400 9dbf 71f3 f33f 3870 cbbf 1e92 adbe
00000330: 199a 393f 3a50 01bf c1fc 18c0 4983 49c0
00000340: 95b6 75c0 9174 57c0 7499 2d40 bede 2140
00000350: 2fec 0440 9643 b83f e991 0e3f 84d3 0a40
00000360: 9d75 c9bf a707 b53f 7e64 67bf 3de8 e3be
00000370: 0525 63c0 9b8f 0040 76df db3f 7b76 9ebe
00000380: ffa1 50c0 d7f8 2fc0 2be3 83bf c2fe dcbf
00000390: 6307 f7bf 5b5e 5340 13d8 5940 1b1e 2cbf
000003a0: bee9 25bf a3dc 7dbf cd46 fbbe 360e 3d3d
000003b0: 4974 443f 4712 bc3e c84c 883d bda9 bcbf
000003c0: b2ba 2840 520c 0a40 5ae5 833f 690e aabf
000003d0: e1a7 e1bf bed4 44c0 f98f d33f 2e2d 31c0
000003e0: ae29 f1bf 3297 1540 9252 0040 56ed 45c0
000003f0: d20f 0d40 8175 e9bf c669 0ac0 ef65 5340
2.5843568 -2.124536 1.9515471 2.3402755 1.2168835 -2.8501105 -2.476779 0.7264713
2.833465 2.2125278 -3.3653286 -2.491455 -2.9298053 3.0365562 3.1142473 -0.9566926
-3.840558 0.3068652 -1.8091606 -2.2980971 -2.107735 3.173261 2.143337 -3.126706
1.2948288 -3.95558 2.3705168 2.3688526 2.1485054 -2.187129 -1.6924376 1.6493905
3.1424596 -0.9609892 1.8764421 1.3054831 2.905427 -1.9039243 -3.3098767 -4.5911007
-2.507957 -2.7703614 1.6974443 -2.6159625 1.3899386 0.99358004 -0.48725766 -1.1216508
-0.21610828 1.3228955 3.0624993 -1.6276174 -1.4277612 1.1730915 2.4176304 -3.4695826
2.4539154 -2.0601623 2.3162725 -1.7030901 3.167925 -2.5989242 -1.0171055 2.1321168
0.6742914 0.6718228 0.51641226 3.7961788 2.8179488 1.4551731 -0.82101583 1.6894149
0.7334691 4.341823 -3.113216 -4.9494147 -0.82121545 1.2015632 0.59224194 0.16971983
3.48468 -1.8665848 -1.9366586 -1.975183 2.6328611 2.162737 -2.0877557 -1.8669078
-2.017964 1.3962922 2.78306 -2.2602828 2.1049442 -3.3376174 3.0824308 1.5480486
0.36531395 -1.4617615 2.7075505 0.5993107 1.8610086 1.5579108 2.933628 1.4752762
4.5104213 0.37394676 -0.0026843417 -0.08708876 2.2927475 4.0753307 -2.0109067 1.3779318
2.931379 2.4525304 -2.9114397 -1.1629181 -2.2968552 2.1357136 -1.7557234 -2.900861
-2.2774792 2.8274426 -2.196347 -0.68132746 1.7601 1.9807036 -3.5948584 0.57437867
-3.1242957 -1.2498116 -0.8451358 -1.0783604 -0.1377548 -1.8595321 0.89447004 0.7429098
-0.7650705 -3.5009432 2.064998 4.8447475 -0.6283324 -1.2818024 -0.6697386 2.6923497
2.675865 0.58517766 -1.1498117 1.1597517 -2.9478533 -3.443809 -0.2917 2.8200777
2.7954834 3.2762594 -2.7097468 1.2762839 -2.715485 3.286871 -1.9688351 0.4932209
1.3665872 1.782667 -3.6485734 1.6151028 -2.3040755 1.4733313 2.4119306 2.63806
3.0608878 0.7763241 -2.2028656 3.421616 -0.6159928 -1.4496028 -2.9180846 1.6145384
-1.1543286 -3.2591972 1.1821889 1.7230005 1.8428837 -1.9647058 3.624643 1.5425758
-2.2018034 -1.6303347 2.792227 -2.7152925 -3.113174 1.528782 2.7940502 -2.3544328
2.6418276 0.5853296 -3.7785668 3.4713016 -0.81298935 -1.7576803 -4.1388044 2.6984746
-1.2265782 1.9058667 -1.5893621 -0.3390054 0.7250076 -0.5051304 -2.3904269 -3.148638
-3.839269 -3.3664896 2.712491 2.52922 2.0769155 1.4395626 0.5569139 2.16916
-1.5739018 1.414296 -0.90387714 -0.4451312 -3.5491345 2.008765 1.717757 -0.30949768
-3.2598875 -2.749563 -1.0303701 -1.7265246 -1.9299129 3.302634 3.4038131 -0.6723344
-0.6480979 -0.9916479 -0.49077454 0.04615613 0.7673994 0.36732695 0.0665527 -1.47393
2.636395 2.157002 1.0304368 -1.3285648 -1.7629358 -3.0754848 1.6528312 -2.7683825
-1.8840845 2.3373532 2.0050397 -3.0926108 2.2040906 -1.8238984 -2.162706 3.3030965

weight f4 [32]
00000000: 7ae2 d4bf b9ca 6240 bd72 33bf 23bd 66bf
00000010: ff4c 2340 aa78 53bc 16e5 3f40 0882 4640
00000020: 987e 3540 8427 2f40 b09a 0440 6e33 d6bf
00000030: 9dc8 b13f 0f33 6c40 8328 37c0 5f42 a63e
00000040: d829 8340 72ce 1d40 31b0 dd3e cdfd 7b3f
00000050: a52a a6be dddc 9340 807f 4240 cd95 4240
00000060: af40 6740 a3a1 4040 f17a 1e40 1b14 c7bf
00000070: cdc9 abbf 64ce 8940 9c62 0ec0 45dc fcbd
-1.6631615 3.5436232 -0.7009695 -0.9013235 2.5515745 -0.0129071865 2.9983573 3.1016865
2.8358517 2.7367868 2.0719414 -1.6734445 1.3889347 3.6906164 -2.8618476 0.32472512
4.098858 2.4657254 0.43298486 0.98434144 -0.3245441 4.620711 3.039032 3.040393
3.613323 3.0098655 2.4762537 -1.5553011 -1.342096 4.306444 -2.2247686 -0.123467006

bias f4 [32]
00000000: 0663 34c0 96ea 843f 9a4f 6bbf a3d1 0fc0
00000010: e68c 04c0 001c 6540 62e2 1cc0 f1c5 1840
00000020: 2ff1 7b3e df88 67c0 ba2c 8ebe 6d26 4140
00000030: 8cec fa3f b1b8 0bc0 2dd8 abbf 5d58 dc3f
00000040: f2ec 21bf 1717 19bf 9c6d 57c0 ebe7 54c0
00000050: 7517 1a40 35f0 debf 66a8 933f 8c1e c63f
00000060: 69be 2a40 383c ef3f 8a9c adbf 88e0 dbbf
00000070: ada6 c53f dbbe 7f3e ad99 cbbf f4dc 55c0
-2.818544 1.038409 -0.9191834 -2.2471702 -2.0710998 3.579834 -2.4513173 2.3870814
0.24603723 -3.617729 -0.277685 3.0179703 1.9603438 -2.1831477 -1.3425347 1.7214466
-0.63252175 -0.5980086 -3.366065 -3.3266551 2.4076817 -1.7417055 1.1535766 1.5478072
2.6678717 1.8690252 -1.3563397 -1.7177896 1.544149 0.2497515 -1.5906273 -3.341611

running_mean f4 [32]
00000000: ab9b 10c0 4e41 8a40 4b0a 66c0 fa68 2a40
00000010: 73b3 7ebe 098d 4841 4cc7 a1c0 3828 c93f
00000020: 8001 5540 d5e1 3bbf 26bf 3b41 1ee6 fcc0
00000030: 1060 8b40 b47d 38c1 dc28 54bf b6d9 ad40
00000040: 2302 413b 2b99 5641 0bc5 ee40 9fab 0bc1
00000050: 90b8 3a41 bbb0 8bbf a054 ac3f 3337 a740
00000060: b877 3941 1ca7 0240 a0fe ea3d 4912 84c0
00000070: 8c73 51c1 2a61 cf3f d8cf ce3c 57e0 1141
-2.2595012 4.320472 -3.5943782 2.6626573 -0.24873142 12.534432 -5.055578 1.5715399
3.3282166 -0.7339147 11.734167 -7.9030905 4.3554764 -11.530689 -0.82874846 5.432826
0.0029450736 13.412395 7.461553 -8.7294 11.670059 -1.0913309 1.3463326 5.225488
11.591728 2.0414495 0.11474347 -4.127232 -13.09071 1.6201527 0.025245592 9.11727

running_var f4 [32]
00000000: 3a7f a243 a748 c843 9722 f942 4950 1443
00000010: 23b8 e743 6ba0 0144 4788 2143 02bb 6a43
00000020: 4870 5843 ced9 b843 8d64 b443 7314 0344
00000030: 0180 9c43 e1fd ea43 929d 1443 4a72 fd43
00000040: 9fd5 9e43 9935 5644 d8d8 1743 22dd 0343
00000050: 34b3 3444 69ff 8d43 cc9c 0343 4566 0444
00000060: bbcb 5144 ebb1 0844 a05a 8343 737c 6043
00000070: 7629 1d44 6f67 0844 d412 3644 cf2d 9842
324.99396 400.5676 124.56756 148.31361 463.43857 518.50653 161.53233 234.7305
216.4386 369.7016 360.78555 524.3195 313.00003 469.98343 148.61551 506.89288
317.6689 856.83746 151.84705 131.8638 722.80005 283.9954 131.61249 529.59796
839.1833 546.77997 262.708 224.48613 628.6478 545.61615 728.2942 76.08947

weight f4 [32, 16]
00000000: 516d 3e3d 3277 4a3e d670 43bf bb2b 5a3e
00000010: 01d9 363f 525a acbd 81d2 97bd 5ded 253f
00000020: 9949 bdbe adaf af3e 5b0a 5dbf ea11 b93f
00000030: 7580 f2be 68e6 b93d 2d18 693d a1ec 863e
00000040: 6e77 06bd cd9f 04bf 904a 8fbe dbe6 113c
00000050: aaef f6bd 02e2 ffbe 2525 1cbf 061c 55bf
00000060: 8e98 6a3e 4c10 34bf 90b5 63bf 7e33 9bbf
00000070: 9eab 653e 5529 4cbf 93ec dc3e f99f 70bf
00000080: deb2 ecbe fe5b 38be ec45 e23d 5152 c53e
00000090: 56be 6ebe a107 cd3e cfcd 26bf 1774 f8be
000000a0: 35f1 47bc 3819 8d3e 64b1 93be e938 743e
000000b0: 84df 083f 2b42 553f 9b36 88be fd04 acbd
000000c0: 7373 98be b3a7 9abf f8e7 753e 54f2 3ebf
000000d0: 9b7d 1c3e 8216 aa3f dfdd 263e cc83 31bf
000000e0: f99a 3d3f 2c60 01c0 3711 0fbf 3c24 4d3d
000000f0: 8af5 7bbf aa41 5abf 00d7 b83f e7dd 133f
00000100: b5b2 4fbe cdac 793f 2a41 983f 14c2 373f
00000110: 235f 6cbf 7024 073e 4218 40bf ea38 b43f
00000120: 50ab ccbd c13c 563d 1092 393f b6a4 aa3c
00000130: 113b f6bd f9d3 83bf fd06 a93e 3c74 ecbe
00000140: 515c 953e 42ce b33e d02b da3f 9c54 22bf
00000150: 2711 9abe 49c9 ee3c ffd9 c4be a947 333f
00000160: a150 2abf a8c3 643f e256 a83e 158c 7fbf
00000170: 697a 413f 80d8 ff3f 43fd 8dbe c456 513f
00000180: 3504 7fbf 2440 2c3f e599 20bf 094c 053c
00000190: faf9 193f 4029 293f eaa4 8c3e e4cb f73f
000001a0: 7ce7 b43f d137 c9be 2a0c 173e a06b cabf
000001b0: be9d 4fbf 8e1b 2f3f 61e4 f33e 86e2 8a3d
000001c0: c6fd 143f 7285 bb3f 307b 8d3e fd26 0a3f
000001d0: 1227 95be 9a1d 7bbf 957a c6be 0f5c 7dbe
000001e0: e783 a33f 1857 37bf a872 0d3f 58e8 6a3d
000001f0: fabf 633f d2bb 35bf 77b6 68bf 1e51 2abf
00000200: 8b2b 943f 89d7 98bf 7734 03c0 88f7 08c0
00000210: 85f6 17c0 8ed5 2dc0 a31e 4440 b81f d73f
00000220: bd5f 7740 1a94 3040 d9b7 b0bf e750 c33e
00000230: 9420 16c0 01b0 c93f 37fa debf c2c8 99bf
00000240: a8ce 743f 537e e2bf b252 84bf 9503 d53e
00000250: 1dd6 6240 b3b9 1740 2b91 673f f10c f03f
00000260: 2c4a cfbf 42ee 6540 20bd 8abf 85fe f8bd
00000270: 46f0 2240 d115 a4be f64a b63e b547 5440
00000280: 7498 3e3f d071 1dc0 06a7 50c0 940c 4440
00000290: 4b6c c33f 8e48 6b3f fd30 e73f 75e5 e83f
000002a0: a7fd 843f 0072 553f 11dd 4640 dd73 2140
000002b0: d1cc 1a40 9099 da3f f537 ee3f 42b4 2940
000002c0: 4196 23bf c7dc 6140 9613 90bf 2621 39c0
000002d0: d3d7 5fbe 9eca 11c0 5aec 8a3f 3e00 e93f
000002e0: 2c08 74bf 5d06 ae40 5492 3cc0 139c d3bf
000002f0: 1463 aebf 900a af3f 33c5 0640 d39f a8bf
00000300: 37f6 ec3d 05ea 8e40 a416 84c0 e82c eebf
00000310: 8c15 17c0 3aad b13f d070 82c0 5ecb 2640
00000320: a548 493e cae2 293f 7551 a93f 601d 1840
00000330: 0c3d 9a3f d7fb 5dc0 1f5e 55c0 f9c5 01c0
00000340: d68d 03c0 dce3 2940 46cc 0cc0 40f5 26c0
00000350: 3569 22c0 de58 7f3f fd51 71bf 5054 2ec0
00000360: b6a7 2540 cb9c 44c0 2d7e 35c0 6597 f83f
00000370: 4805 0140 190e 8ac0 5f36 c43f 2791 09c0
00000380: 6815 4ec0 fae4 bd3f 7b82 65c0 ddd3 80bf
00000390: 36d3 54c0 ef05 1540 65e1 1fc0 1d8b 04c0
000003a0: 3d4c 2e40 46d8 2ec0 8b54 68be 356a 2740
000003b0: 2ec1 833f 6bf2 23c0 7723 e73f 9fcb 14bf
000003c0: 0e74 89bf 6283 0cc0 d186 89bf fa09 24c0
000003d0: 32a9 f03f 55be f53d 37f1 d5bf 80d8 3440
000003e0: b4e1 1ac0 ffe1 7440 1968 59c0 f9a7 15bf
000003f0: 5cf9 3fbf 5c30 ffbf 89c7 07c0 fd6b 8abf
0.04649097 0.19772032 -0.7634405 0.21305744 0.7142487 -0.08415665 -0.07413197 0.6481531
-0.36970213 0.34313717 -0.86343926 1.4458592 -0.4736363 0.0907715 0.05690782 0.2635241
-0.03282874 -0.51806337 -0.27986574 0.008905138 -0.12057431 -0.49977118 -0.6099418 -0.83245885
0.22909757 -0.7033737 -0.8894892 -1.2125089 0.22428748 -0.7975057 0.43149242 -0.939941
-0.46230215 -0.18003842 0.11048493 0.38539365 -0.23314795 0.40044883 -0.6515779 -0.4852607
-0.012203504 0.27558303 -0.28846276 0.23849835 0.5346606 0.8330409 -0.2660416 -0.08399389
-0.2977558 -1.2082428 0.2401427 -0.74588513 0.1528229 1.3288119 0.16295575 -0.6934173
0.74064595 -2.0214949 -0.5588564 0.050083384 -0.9842154 -0.85256445 1.4440613 0.5776047
-0.20283015 0.975293 1.1894886 0.71780515 -0.9233267 0.13197494 -0.75037014 1.4079869
-0.09993613 0.052304033 0.724885 0.020830493 -0.12022985 -1.0299064 0.33013144 -0.4618243
0.29171994 0.351183 1.704462 -0.63410354 -0.3009121 0.029148715 -0.38447568 0.7003122
-0.6652928 0.8936105 0.32878786 -0.99823123 0.7557741 1.9987946 -0.27732286 0.8177302
-0.99615794 0.6728537 -0.62734824 0.008135804 0.6014706 0.6607857 0.2746957 1.9359097
1.4133143 -0.39300397 0.14750734 -1.5814095 -0.8110007 0.6840142 0.47635177 0.06781487
0.5819973 1.4650099 0.27633047 0.5396574 -0.2913137 -0.98092043 -0.38765398 -0.24742149
1.2774628 -0.7161727 0.55253077 0.057350487 0.8896481 -0.70989716 -0.9090342 -0.66530025
1.1575788 -1.1940776 -2.0500772 -2.140108 -2.3744214 -2.7161593 3.06437 1.6806555
3.8652184 2.7590394 -1.3806106 0.3814766 -2.3457384 1.5756837 -1.742011 -1.2014391
0.9562783 -1.7694801 -1.0337737 0.41604295 3.5443184 2.3707092 0.90455884 1.8753949
-1.619451 3.592667 -1.0838966 -0.12157921 2.5459151 -0.32047895 0.35604066 3.3168766
0.74451375 -2.4600716 -3.2601943 3.0632677 1.5267423 0.91907585 1.8061825 1.8195025
1.0389909 0.83377075 3.1072428 2.5226967 2.418751 1.7078114 1.8610827 2.651627
-0.63901144 3.5291002 -1.1255977 -2.8926482 -0.21859674 -2.2779918 1.0853379 1.8203199
-0.9532497 5.438277 -2.9464312 -1.6532005 -1.3623986 1.3675098 2.105786 -1.3173774
0.11570399 4.466067 -4.1277637 -1.8607454 -2.36069 1.388099 -4.076271 2.6061625
0.19656618 0.6636168 1.3227984 2.376793 1.204988 -3.468496 -3.3338697 -2.0277083
-2.055532 2.6545324 -2.1999679 -2.6087189 -2.5376713 0.99744976 -0.9426573 -2.723896
2.5883613 -3.07207 -2.8358262 1.9421202 2.0159473 -4.314221 1.5329093 -2.1494844
-3.2200565 1.4835503 -3.586089 -1.0064656 -3.3253913 2.3284872 -2.498132 -2.0709908
2.7234032 -2.7319503 -0.226885 2.6158574 1.0293329 -2.561671 1.8057698 -0.581232
-1.0738542 -2.195519 -1.0744268 -2.563109 1.8801634 0.119991936 -1.6714238 2.825714
-2.4200258 3.8262937 -3.3969786 -0.5845943 -0.7498987 -1.9936633 -2.1215537 -1.0814205

weight f4 [32]
00000000: 0000 803f 0000 803f 0000 803f 0000 803f
00000010: 0000 803f 0000 803f 0000 803f 0000 803f
00000020: 27b3 823e 2bf7 0440 77b4 4540 5a43 9a3f
00000030: ff0d c43f 0c96 bbbf 3878 003f 6a4d fd3f
00000040: 0000 803f 0000 803f 0000 803f 0000 803f
00000050: 0000 803f 0000 803f 0000 803f 0000 803f
00000060: 14e0 0940 51f1 4440 ee37 7c40 accc 4e40
00000070: cec8 323d 7b4c f8bf 6e73 eabf 70f1 9c3f
1.0 1.0 1.0 1.0 1.0 1.0 1.0 1.0
0.25527307 2.077586 3.0891397 1.2051804 1.5316771 -1.4655166 0.5018344 1.978925
1.0 1.0 1.0 1.0 1.0 1.0 1.0 1.0
2.1543016 3.0772288 3.9409137 3.2312422 0.043648534 -1.939834 -1.8316476 1.2261181

bias f4 [32]
00000000: 0000 0000 0000 0000 0000 0000 0000 0000
00000010: 0000 0000 0000 0000 0000 0000 0000 0000
00000020: 7748 16c0 8f05 54be 6d29 10c0 017d c2bf
00000030: bdef 04c0 bba3 a6bf 561a 9cbf 3a50 07c0
00000040: 0000 0000 0000 0000 0000 0000 0000 0000
00000050: 0000 0000 0000 0000 0000 0000 0000 0000
00000060: 4e93 babf 9a99 24bf a222 fcbe 8d2f 56c0
00000070: 075a 1f40 03c9 0ac0 4a48 edbf 05ce af3f
0.0 0.0 0.0 0.0 0.0 0.0 0.0 0.0
-2.348173 -0.20705245 -2.2525284 -1.5194398 -2.0771325 -1.3018717 -1.2195537 -2.1142716
0.0 0.0 0.0 0.0 0.0 0.0 0.0 0.0
-1.4576204 -0.6429688 -0.49245173 -3.3466523 2.4898698 -2.1685188 -1.8537686 1.3734747

running_mean f4 [32]
00000000: 0211 1a3f 7d6e 3440 439e 93bf b0dc ad40
00000010: b2b8 0240 f609 c4c0 6720 453f a1dd 5440
00000020: e30a dac0 6758 0f3f 4a75 2940 5000 63c1
00000030: f7ec 8f41 f2b6 c441 db2a b241 e87b ecbd
00000040: f1a8 4240 0cdf 81c0 a5fb 6fc0 0208 44c0
00000050: ee88 7840 ae8b 1040 2600 bd3e e8b6 393f
00000060: 5d3a a63f 7db4 76c0 0630 b1c0 2ac9 1dc1
00000070: 8ffa 8240 7ee0 0cc0 017e 0941 fb84 b540
0.601822 2.8192437 -1.1532673 5.4331894 2.042523 -6.126216 0.7700257 3.3260272
-6.813829 0.55994266 2.6477838 -14.187576 17.990705 24.589329 22.270926 -0.11547071
3.0415614 -4.0584774 -3.7497342 -3.0629888 3.8833575 2.2585254 0.36914176 0.7254472
1.2986561 -3.8547661 -5.537112 -9.861612 4.093086 -2.201202 8.593263 5.672483

running_var f4 [32]
00000000: e196 ab40 d61a dc41 660d f740 8a2c 0342
00000010: e8cd 2142 e959 1c42 0b9f 3241 a644 e942
00000020: 9704 8343 df54 6544 8e9d 1444 38e7 9443
00000030: 482b 8c44 b0e0 8444 d1a0 4144 991d b643
00000040: 4aea 8041 5fda ff41 10d2 e141 6a6b 0342
00000050: 1a48 0641 fdf2 c441 d6cb 5241 d4f8 d941
00000060: 1e49 2a44 756c 1344 e6ea 1144 efa6 9a43
00000070: 4189 9743 271a b942 fd95 5243 6cf9 6543
5.362168 27.513103 7.7203856 32.793495 40.45108 39.087803 11.163829 116.63408
262.03586 917.3261 594.4618 297.8064 1121.3525 1063.0215 774.51276 364.23123
16.114399 31.981627 28.22757 32.854897 8.392603 24.618647 13.174765 27.246498
681.14246 589.69464 583.6703 309.30417 303.0723 92.55108 210.58589 229.9743

weight f4 [32]
00000000: f565 8b40 9ce5 633f b65f e83f e06e 3c3f
00000010: 5734 aa3f 92a9 aebe bfe5 ecbe 505d 4ec0
00000020: 2053 f9be 0733 b640 50e1 14be 020c 0d40
00000030: 13b3 84bf 5d95 953f e947 76be c2b3 fc3e
00000040: ef0f c53e 89e4 cc3f 0d82 6d3f 63e4 853f
00000050: b385 88c0 3bc7 7940 d6b2 ea3f e900 3cc0
00000060: 9c92 17c0 d07c 5ebe 5fd9 11be 8c70 1d40
00000070: 1ec3 1dbf 6fc9 3840 79fa d4be bfec b23f
4.356196 0.8902223 1.8154209 0.7360668 1.3297223 -0.34113747 -0.46269032 -3.2244453
-0.48696232 5.693729 -0.14539075 2.203858 -1.0367149 1.1686207 -0.24050869 0.49355894
0.3848872 1.6007243 0.92776567 1.0460323 -4.2663207 3.902785 1.8335826 -2.9375556
-2.3683233 -0.217273 -0.14243077 2.4599943 -0.6162585 2.8872945 -0.41597345 1.3978499

bias f4 [32]
00000000: 9a03 293f 01b7 8dbf 586f 0bc0 f1c5 0440
00000010: 95ec 14c0 2543 0b40 a8f9 48c0 8f4f 2c3f
00000020: b814 cebf bf2b 103f d70c a7bf 1489 8e3e
00000030: 6851 0a3f 1f79 e93f 326a f33e d921 803f
00000040: 6443 4140 eae9 3dc0 68ae ef3f cdf9 c5bd
00000050: 541a 5c3e 5275 eabf f84d d73e dcfa 34bf
00000060: 4010 dfbf 929e 8140 8d81 33c0 8fbe 2040
00000070: 68a2 88c0 414c c0be 7696 cebe 1104 56c0
0.6602112 -1.1071473 -2.178671 2.0745814 -2.3269398 2.1759732 -3.1402378 0.67308897
-1.6100073 0.5631675 -1.3050793 0.27838957 0.54030466 1.8240088 0.47541958 1.001033
3.0197382 -2.967402 1.87251 -0.09666786 0.21494418 -1.8317053 0.42051673 -0.7069528
-1.7426834 4.0506067 -2.8047822 2.5116308 -4.269825 -0.37558177 -0.40349168 -3.3439982

running_mean f4 [32]
00000000: 2063 4dc0 ec43 593f b0a1 5b40 d65f 4c40
00000010: 0855 67c0 92d3 d73f e6c9 17c0 b170 9e3f
00000020: ec66 8cbd 9e12 0cc0 7f7d a7bf 5e17 5340
00000030: 4641 2ec0 0d3f f0bf cdc4 eebf 5618 783f
00000040: f836 c740 5aa8 86c0 7319 14c0 ed15 21c0
00000050: fc31 3540 95d2 8fbf e49c 6c3f 0021 80c0
00000060: 1445 8840 7fdc e8be a461 8140 ff5e 27bf
00000070: ee97 ed3e 2ad9 dfbf 389e 1d40 1d83 013f
-3.209175 0.84869266 3.4317436 3.1933494 -3.614565 1.6861441 -2.371698 1.2378141
-0.06855568 -2.1886363 -1.3085173 3.2983012 -2.722734 -1.8769242 -1.8653809 0.96912134
6.22546 -4.2080507 -2.3140533 -2.5169632 2.8311758 -1.123614 0.92426896 -4.0040283
4.2584324 -0.45480725 4.043169 -0.6537933 0.46404976 -1.7488148 2.462782 0.5059069

running_var f4 [32]
00000000: 3a84 3142 4366 e841 c9b0 7242 c226 2d42
00000010: f143 0742 4447 9c41 46a4 7041 4f10 8d41
00000020: 80a9 dd41 60e6 0642 c169 fd41 b997 1c42
00000030: 9484 1a42 5a09 4042 572a 1142 4c99 1542
00000040: b76b a742 4061 3c42 9c76 0042 8490 c241
00000050: f7da 7641 af2e 2542 c4f5 2442 4c3d 0b42
00000060: 36dd 3f42 c798 bd41 74c8 b242 eb10 1842
00000070: 4011 9341 9a91 2142 034f 3f42 0512 2f41
44.379128 29.049932 60.67264 43.28785 33.81635 19.534798 15.040106 17.632963
27.707764 33.724976 31.676638 39.148167 38.62947 48.009132 36.291348 37.399704
83.71038 47.09497 32.11583 24.320564 15.428458 41.29559 41.240005 34.80986
47.966026 23.699598 89.39151 38.01652 18.383423 40.39219 47.82716 10.941899

weight f4 [32]
00000000: b6ee 4dbf ae06 5dbe 19f2 3940 231c 2440
00000010: a4e5 91bf 618c 593e 14a6 6b3f ca39 c93e
00000020: daca 5b40 9e1f 5440 861b 17bf b63a 6440
00000030: a414 90bf 014c a93e b81c c7bf 85c6 863e
00000040: a1d7 35bf 1c9d 6d3e d281 7240 ff10 3e40
00000050: ccd1 13bf 6ca2 e53f 2217 9040 5c69 8cbf
00000060: e43d 913f 1f7a 3cbe 2f86 163f 967c fabf
00000070: ad6f debf 16dd dbbe 20d4 3d40 df30 c03f
-0.8044237 -0.2158458 2.9054015 2.5642173 -1.1398206 0.21244957 0.9205029 0.39301902
3.434256 3.3144298 -0.5902637 3.5660834 -1.1256299 0.330658 -1.5555639 0.26323333
-0.7103215 0.23204464 3.7891736 2.9697874 -0.57742 1.7940192 4.502824 -1.0969653
1.1347013 -0.1840596 0.587985 -1.9569271 -1.7377831 -0.42942113 2.966072 1.5014914

bias f4 [32]
00000000: 6268 863f 4ba5 08c0 2117 05c0 f652 3f40
00000010: 4792 17bf 1f0f 2440 9345 11c0 b754 c13f
00000020: 4627 64bf adf0 af3f cd80 2cc0 6cda b83e
00000030: 206c c43f d687 953e 012a adbe 0883 38bf
00000040: 6510 95c0 192f 1740 1eab 543f 6918 6740
00000050: ddd4 89c0 4438 1640 c7d0 cd3e c820 f63f
00000060: 9976 4f40 b5c7 4f40 37c8 2fc0 241c 6c40
00000070: 93f4 99bf 2890 4b3f 3776 3cc0 8625 f53e
1.0500605 -2.1350887 -2.0795367 2.9894385 -0.59207577 2.563423 -2.2698715 1.5103978
-0.89122427 1.3745323 -2.6953614 0.36104143 1.5345497 0.29205197 -0.3382111 -0.7207494
-4.6582513 2.3622496 0.83073604 3.6108649 -4.3072343 2.3471842 0.40198347 1.9228754
3.2416136 3.2465641 -2.7465951 3.6892176 -1.2027763 0.7951684 -2.9447153 0.4788019

running_mean f4 [32]
00000000: b83f c740 4785 3d40 f121 93c0 bacf ee40
00000010: 9c67 c340 b282 05c1 c0a5 223f 346e acc0
00000020: c2bc f93f 4ce5 8d40 0af9 0b40 e6b1 29c1
00000030: 4e9a f940 4fcf 08c1 b731 a9c0 6a87 1e40
00000040: 20e7 27c1 8946 04c1 c0b9 c640 119c c83f
00000050: c783 e5bf 6fbd 32c1 2c1d 3941 f1ed 65c0
00000060: fdca 19c0 4eff 4140 5c8d 0a41 cec1 f440
00000070: 2a5f d040 823a 9a3f e99e 81c0 92a8 d840
6.226528 2.9612596 -4.597893 7.4628572 6.1063976 -8.344408 0.63534164 -5.3884525
1.9510729 4.4342403 2.1870751 -10.605932 7.800086 -8.550612 -5.2873187 2.477015
-10.493927 -8.2672205 6.2101746 1.5672628 -1.793084 -11.171248 11.569622 -3.5926478
-2.4030144 3.0312076 8.659512 7.648658 6.5116167 1.2049105 -4.050648 6.7705774

running_var f4 [32]
00000000: fe14 a443 5182 0f44 356f 8942 3a53 0944
00000010: 5b7d 1144 cad1 8e43 caa3 a042 2d23 0943
00000020: d13d eb42 eb08 8b44 a934 fd42 b6df 1c44
00000030: dc4e e142 78c5 3743 e548 4143 8b87 9544
00000040: 040b 5e44 1030 6243 b717 f742 d025 3b44
00000050: 2de9 5943 eb0b 8844 c814 c543 edb9 7d43
00000060: d704 ce43 39d9 1644 acd9 f143 c07d 2c44
00000070: f1f3 f243 8984 9c43 0302 6443 483f 0944
328.164 574.0362 68.7172 549.3004 581.9587 285.63898 80.3199 137.1374
117.620735 1112.2787 126.60285 627.4955 112.65402 183.77136 193.28474 1196.2357
888.1721 226.18774 123.54632 748.5908 217.91084 1088.3724 394.16235 253.72627
412.0378 603.3941 483.70056 689.96484 485.9058 313.03543 228.00786 548.9888

weight f4 [32, 16]
00000000: 75e5 fc3f 5f09 07bf d90f 7abe 3366 3a40
00000010: c519 4640 b47a 49bd 9678 2fc0 348a c73f
00000020: 7c26 4dc0 c5ba 88bf 465d 11c0 9fe8 4fc0
00000030: c867 c7bf 7f77 e33f dade 8b3e 5c87 19c0
00000040: a30d ad3e 206f 80bf dfa7 80c0 d6df 1cbe
00000050: 656a 2cc0 c91f 893f 15a5 c73f 3b3a 1940
00000060: e8dd cabf e57c f43f 7837 a9bf ed44 3f40
00000070: b1fe a33f 1d60 47c0 28e9 be3f 7535 bebf
00000080: a225 34c0 0f14 80c0 b318 863f 44eb f93f
00000090: ea8e 8bc0 806e 3940 a1e7 3940 efda cfbf
000000a0: 9028 11c0 791b 57bf 218d 1e40 09b6 d63f
000000b0: b647 10c0 080f 883f 925e 0840 5929 07c0
000000c0: 4180 f2be b6ee f63f aec4 ffbf 5c4e 70bf
000000d0: 56c2 12c0 2e67 e8bf 0743 0ac0 5f96 88bf
000000e0: 72db 8940 183d 473f 3f43 c23f 37a3 b440
000000f0: 3c3c c2bd 3b80 09c0 1054 bcbf a3fc 4abf
00000100: 9e5f 46c0 5f04 35c0 4153 0640 4ca3 57c0
00000110: 2393 8ebf 60ae 7c3f e7c4 3140 d7ce 45c0
00000120: fca9 42bf 8a3c 4ac0 9dba 1140 26c3 54c0
00000130: 29b3 1fbe f8b9 6c3f bcbb 1240 fd19 dd3f
00000140: 164b 4a40 364a 2840 c5a2 20c0 1ce7 0040
00000150: 346c 07c0 3cf4 0dc0 38c8 58c0 363d 6cc0
00000160: 5907 073f 8ebf 3540 5a37 46c0 0820 e1be
00000170: 5302 a7bf ef8f 5540 a3a3 e4bf f0cb c8bf
00000180: 18c4 22c0 ec13 4dbe e95d 5140 ebdd 27c0
00000190: e66e 2b40 1f1c 2240 6c87 06c0 62e4 d3bf
000001a0: b118 4440 f1ce 0240 0408 14c0 789d 893e
000001b0: 455f c4bf a8e6 1240 4eaa 293e 1767 66c0
000001c0: f876 babf 6a09 0cc0 ce09 843f 6c8d 06c0
000001d0: 448b 6040 2d3b 7c3f b801 3d40 8335 25c0
000001e0: 04c5 0bc0 36de 28c0 ffa3 833f 4243 32c0
000001f0: d370 3a40 79aa 2f40 69f6 e93f ac91 e33f
00000200: 7649 e73e 0310 0440 8800 03c0 eef1 b1be
00000210: 5741 09c0 03f0 a13f dfcd d4bf 8079 f73f
00000220: 31cd 45c0 f98b 8ac0 2ac6 af3f 4a9f b73f
00000230: 0fd3 1ec0 f7fd 29c0 b1f8 b3bf efd0 2ec0
00000240: e730 853e 2286 e03f e1ad c93f 7eb4 7840
00000250: d43e 3a40 7c41 4e3f 52df 323f 04fc 01c0
00000260: c16c c13d a501 bd3f cbc3 b9bf 9947 4fc0
00000270: 4f5f 3b40 9109 d73f 3940 31c0 4527 f3bf
00000280: cec2 4e40 277b 7c3f 8ad6 ed3f fcf5 e33e
00000290: fad2 953e d766 39bf 236a 593f 52a1 0640
000002a0: be2e 0cc0 aa78 a6bf f14b e0bf 6072 29c0
000002b0: f984 8bc0 1ab9 6940 5b03 3340 9afb 24bf
000002c0: bfd8 af3f f3c4 2340 860a be3f 753b 0740
000002d0: f64c 963e 3475 61bf 3c41 4bc0 90f1 8bc0
000002e0: 5464 06c0 339a 7940 1d21 7fbf e1de 12c0
000002f0: 7593 81bf 6695 4ebf 8f5e 2cbf 7d43 303f
00000300: d9ae 3c40 7b86 d23f 1f7e 7ac0 02fb ac3e
00000310: 54b0 e63f f683 18c0 c79f 8dbf 5ffe af3f
00000320: 671c 4a40 0add 1d40 d729 39c0 6983 1a40
00000330: d8f9 abbf 5d49 1fc0 2c3b 18c0 5895 3b40
00000340: b22f 5cc0 e56b 68c0 dafb 0440 656e 81c0
00000350: b9ac 1c40 5331 303f 0a6b 6340 4c8c 2fc0
00000360: 34eb ebbf 8394 3ac0 7299 693f 99a8 59bf
00000370: 470e 1f40 b5ae 853f f545 1c40 06fd 233f
00000380: e0e4 cfbc 597e 2ac0 7c9d 06c0 3eda a53e
00000390: 19b0 bd3f fdc2 29c0 7253 69c0 51b1 3e40
000003a0: 1d62 07c0 5b71 0cc0 115b 4b40 3300 5640
000003b0: 26f4 edbf a258 01c0 b4d3 e2bf f147 0b40
000003c0: c00a 8740 9945 d53f e723 26c0 6661 a13f
000003d0: 237d 36c0 756e e3bf 2b0a 14c0 27e4 1d40
000003e0: 301c 99bf 5bdc 8d3f 1532 62bf 448b 2d40
000003f0: 3cae 99bf 58e2 b8bf 24df 7c3f 41f2 cc3f
1.9757525 -0.52748674 -0.24420108 2.9124877 3.0953228 -0.049189284 -2.741735 1.5589051
-3.205474 -1.0681998 -2.271318 -3.248573 -1.5578547 1.7770842 0.2731846 -2.3988867
0.33799466 -1.0033913 -4.020492 -0.15319762 -2.6939938 1.0712825 1.5597254 2.394179
-1.584897 1.9100615 -1.3220053 2.988582 1.2812101 -3.1152413 1.4914904 -1.4860064
-2.814797 -4.0024486 1.0476288 1.9524922 -4.3611956 2.8973694 2.9047625 -1.6238688
-2.2681007 -0.84026295 2.4773638 1.6774303 -2.254377 1.0629587 2.130772 -2.1118987
-0.47363475 1.9291599 -1.9981897 -0.93869567 -2.2931113 -1.8156488 -2.160341 -1.067089
4.3080378 0.77827597 1.5176772 5.6449237 -0.09484145 -2.1484516 -1.4713154 -0.79291743
-3.099586 -2.8283918 2.0988314 -3.3693419 -1.1138653 0.98703575 2.777643 -3.0907495
-0.76040626 -3.159945 2.277015 -3.324411 -0.15595688 0.92471266 2.2927084 1.7273556
3.160833 2.6295295 -2.5099347 2.0141058 -2.1159792 -2.218032 -3.3872204 -3.691236
0.52745587 2.8398166 -3.0971284 -0.4396975 -1.3047584 3.33691 -1.7862438 -1.5687237
-2.5432186 -0.20027131 3.2713568 -2.6229198 2.6786437 2.5329664 -2.1020155 -1.6554072
3.064007 2.0438807 -2.3129892 0.26877952 -1.5341574 2.2953281 0.16568872 -3.600042
-1.4567556 -2.1880746 1.0315492 -2.1023817 3.5085 0.98527795 2.95323 -2.581391
-2.1838999 -2.6385627 1.0284423 -2.785355 2.9131362 2.7447798 1.8278323 1.777883
0.45173234 2.0634773 -2.0469074 -0.3475489 -2.144613 1.2651371 -1.6625327 1.9333954
-3.090649 -4.3295865 1.373235 1.4345486 -2.481632 -2.6561258 -1.406027 -2.7315023
0.26013872 1.7540934 1.5756189 3.8860164 2.9100847 0.8056867 0.6987201 -2.0310068
0.09444571 1.4766127 -1.4512876 -3.238745 2.9276922 1.6799794 -2.7695448 -1.8996359
3.23064 0.98625416 1.8581097 0.4452361 0.29262525 -0.72422546 0.84927577 2.1035962
-2.190353 -1.3005574 -1.7523175 -2.647606 -4.359982 3.6519227 2.7970798 -0.64446414
1.3738021 2.5588958 1.4846961 2.113004 0.29355592 -0.8806946 -3.1758566 -4.3732376
-2.0998735 3.9000366 -0.996599 -2.2948534 -1.0123125 -0.80696714 -0.67331785 0.6885298
2.9481719 1.644729 -3.9139478 0.33785254 1.8022561 -2.3830543 -1.1064385 1.3749503
3.1579835 2.4666162 -2.8931787 2.4142706 -1.3435621 -2.4888527 -2.3786116 2.9309902
-3.440411 -3.6315854 2.0778718 -4.044726 2.4480422 0.6882526 3.5534081 -2.742938
-1.8431153 -2.9153144 0.91249764 -0.85022885 2.4852464 1.0443941 2.4417698 0.6405796
-0.02537769 -2.6639616 -2.103362 0.32393068 1.4819366 -2.6525261 -3.645718 2.9795725
-2.1153634 -2.1944187 3.1774333 3.3437622 -1.8590133 -2.0210347 -1.7720857 2.176266
4.2200623 1.6661865 -2.5959413 1.2607849 -2.8513877 -1.7768084 -2.3131206 2.4670503
-1.1961727 1.1082872 -0.8835767 2.711625 -1.2006297 -1.4444075 0.98777986 1.601143

weight f4 [32]
00000000: 4dc0 9b40 bf19 39bf 798e 4bbe fa50 1c40
00000010: 0417 4f3d 24ed b6bf 794b b740 229f 63bf
00000020: c9ad e6be 9601 7d3f 2210 bebd 4b88 b33f
00000030: 99c6 20be 7d8f 98be fad3 a83f ba61 73be
00000040: c4ad 9040 dccd 1c40 1fa3 2040 6268 2e40
00000050: 661c 8d3f 69a1 7a40 6660 6840 dbbe 153d
00000060: 96bf 1040 7dff 0040 071b 8c40 5eef c73e
00000070: 1269 d03f be82 a3bf 9647 9240 309f 2a40
4.867224 -0.7230491 -0.19878568 2.4424424 0.05055906 -1.429112 5.727963 -0.8891469
-0.45054463 0.98830545 -0.09280421 1.4025968 -0.15700759 -0.29796973 1.318969 -0.23767748
4.5212116 2.4500647 2.5099561 2.725121 1.1024292 3.9161017 3.6308837 0.036558967
2.2616935 2.0155938 4.378299 0.3904981 1.6282065 -1.2774274 4.5712385 2.665966

bias f4 [32]
00000000: 0a70 e13e 5bcd 00c0 7510 1bc0 1354 3340
00000010: c1db 39bf 2325 2140 f96f bebf 7fec 1d3f
00000020: ba55 0440 ca9e cbbf 7af0 8840 8c37 10c0
00000030: 7498 5b40 d378 623e f9f8 49c0 31ab b0bf
00000040: 4a11 19bf 0f7a f0be 6b2d 92bf f59e 8240
00000050: f767 4cc0 7e81 663f bdf6 c13f 9e4c 93c0
00000060: 654e 3cc0 7669 d3be c72b 0040 1bad 8840
00000070: d987 d5bf 0cdb f03e c846 9a3f 1c0d bc3e
0.44030792 -2.012534 -2.4228795 2.8020065 -0.7260094 2.5178916 -1.4877921 0.6168899
2.0677323 -1.5907834 4.279355 -2.2533903 3.43118 0.22116403 -3.155821 -1.3802243
-0.59792006 -0.46968123 -1.142011 4.081904 -3.1938455 0.9004134 1.5153424 -4.6031027
-2.9422848 -0.41291398 2.002672 4.271131 -1.6682082 0.4704212 1.2052851 0.36728752
