Experiments/2022_07_26 13-51-41 wine_100runs_learning-rate_3mv-features_custom-loss /models/Model_run19_optimizer_params0.1_magnesium.pt (torch, 248205 bytes, 318 tensors)

weight f4 [12]
000000 00 00 80 3f 00 00 80 3f 00 00 80 3f 00 00 80 3f
       1.0 1.0 1.0 1.0
000010 00 00 80 3f 00 00 80 3f 00 00 80 3f 00 00 80 3f
       1.0 1.0 1.0 1.0
000020 00 00 80 3f 00 00 80 3f 00 00 80 3f 00 00 80 3f
       1.0 1.0 1.0 1.0

bias f4 [12]
000000 00 00 00 00 00 00 00 00 00 00 00 00 00 00 00 00
       0.0 0.0 0.0 0.0
000010 00 00 00 00 00 00 00 00 00 00 00 00 00 00 00 00
       0.0 0.0 0.0 0.0
000020 00 00 00 00 00 00 00 00 00 00 00 00 00 00 00 00
       0.0 0.0 0.0 0.0

running_mean f4 [12]
000000 00 00 00 00 00 00 00 00 00 00 00 00 00 00 00 00
       0.0 0.0 0.0 0.0
000010 00 00 00 00 00 00 00 00 00 00 00 00 00 00 00 00
       0.0 0.0 0.0 0.0
000020 00 00 00 00 00 00 00 00 00 00 00 00 00 00 00 00
       0.0 0.0 0.0 0.0

running_var f4 [12]
000000 00 00 80 3f 00 00 80 3f 00 00 80 3f 00 00 80 3f
       1.0 1.0 1.0 1.0
000010 00 00 80 3f 00 00 80 3f 00 00 80 3f 00 00 80 3f
       1.0 1.0 1.0 1.0
000020 00 00 80 3f 00 00 80 3f 00 00 80 3f 00 00 80 3f
       1.0 1.0 1.0 1.0

weight f4 [12]
000000 69 66 66 3f 67 66 66 3f cc cc 8c 3f cc cc 8c 3f
       0.90000015 0.90000004 1.0999999 1.0999999
000010 cc cc 8c 3f 67 66 66 3f 79 66 66 3f 67 66 66 3f
       1.0999999 0.90000004 0.9000011 0.90000004
000020 cd cc 8c 3f 67 66 66 3f cc cc 8c 3f cd cc 8c 3f
       1.1 0.90000004 1.0999999 1.1

bias f4 [12]
000000 b8 cc cc 3d 7d cc cc bd bd cc cc 3d c0 cc cc 3d
       0.099999845 -0.099999405 0.09999988 0.099999905
000010 c1 cc cc 3d c9 cc cc 3d b0 cc cc bd a1 cc cc bd
       0.09999991 0.09999997 -0.099999785 -0.09999967
000020 8f cc cc 3d c4 cc cc bd c8 cc cc 3d c2 cc cc bd
       0.09999954 -0.099999934 0.099999964 -0.09999992

running_mean f4 [12]
000000 7b f6 4a 3e b3 7b 72 3b ef 21 f1 40 46 83 8d 3c
       0.19820587 0.0037 7.5353923 0.01727451
000010 43 a0 5a 3d 6d b7 c3 3c 5f ec 83 3c e4 9c bb 3c
       0.053375494 0.023891175 0.016103921 0.02290196
000020 ac dd 05 3e d8 40 d2 3c 31 1e 1b 3c 14 eb 8e 3c
       0.13072842 0.025665686 0.009467647 0.017446078

running_var f4 [12]
000000 1a 16 8c 3f dc 7a 7d 3f b5 37 84 44 07 0d 82 3f
       1.0944245 0.99015594 1057.7408 1.0160226
000010 92 a8 86 3f 21 a3 7d 3f de 45 7e 3f 8e 6d 7e 3f
       1.0520194 0.9907704 0.9932536 0.9938592
000020 67 12 7f 3f 53 d5 7e 3f b9 95 7d 3f a9 f0 80 3f
       0.99637455 0.99544257 0.99056584 1.0073444

weight f4 [32, 12]
000000 b5 f0 30 3f 68 78 02 3f 2f 87 46 3f 24 e0 97 3e
       0.6911729 0.50964975 0.77550024 0.29663193
000010 d1 1f 49 bf 9a 3c f0 3e b3 68 c4 be ed 1a be be
       -0.78564173 0.46921235 -0.3836113 -0.37129918
000020 12 37 e9 bd 0f e4 c8 3f 25 79 69 bf 15 c3 28 bd
       -0.11387457 1.5694598 -0.91200477 -0.04120167
000030 3b c1 96 3e 40 00 6c bc 17 db ae 3e dd 6b 1c 3f
       0.29444298 -0.0144043565 0.34151527 0.61102086
000040 b5 92 36 bf 32 03 34 be d3 98 37 3f 80 05 94 3e
       -0.7131761 -0.17579344 0.71717566 0.28910446
000050 cc f1 b6 3e bb 97 29 3d 27 d3 cf bf e4 6f e1 be
       0.3573135 0.041404467 -1.6236314 -0.44030678
000060 78 1a 10 be 50 48 57 3e 3f 42 29 bf 7b eb 6a 3e
       -0.14072597 0.21023679 -0.6611671 0.22941391
000070 94 89 80 3e ed a7 ef bf 8a e0 a8 be 32 24 b1 3e
       0.25104964 -1.8723122 -0.3298381 0.34597927
000080 5a 64 8e 3e 66 36 8b 3f b2 1c ac 3e 66 5d ab bf
       0.27810937 1.0875976 0.33615643 -1.3387878
000090 06 08 ac 3f 99 2b ca 3d 0c b2 f3 3d e4 3f 8d bf
       1.3439949 0.09871597 0.11899194 -1.1035123
0000a0 c5 3f 8f bf a6 fd 99 bd 90 ff 8e 3b d3 a4 c9 3e
       -1.1191336 -0.07519083 0.0043639615 0.39383563
0000b0 3e 1d d0 3e 1e 6c 34 3f e0 29 a5 bd 76 ec 3f bf
       0.4064731 0.70477474 -0.08064628 -0.74970186
0000c0 b7 9a 99 bf a0 b2 6a 3f 9a 10 14 3f 88 1f 09 3f
       -1.200034 0.9167881 0.5783783 0.5356374
0000d0 12 86 1e 3f 6c c4 ef 3e 58 6f db be 7d 2c e9 3f
       0.61923325 0.46829545 -0.42858386 1.8216702
0000e0 f8 2e 9a be 72 05 35 be cc e1 04 40 ab a3 8d 3f
       -0.3011396 -0.17677858 2.0762815 1.1065573
0000f0 56 68 3a bf 52 41 b5 3f 51 2c ef be 34 5e c6 be
       -0.72815454 1.4160559 -0.46713498 -0.38743746
000100 9b ea 40 bf fc bc 58 3e 55 08 15 bf 50 f8 13 3e
       -0.7535798 0.21165842 -0.5821584 0.14450192
000110 d1 b3 02 bf b5 eb 0d bf 18 1d 60 bf fb 9e 3c bf
       -0.5105563 -0.55437785 -0.87544394 -0.73680085
000120 f9 e8 61 bf 2c 99 02 bf 1c 18 18 bd dd 37 15 bf
       -0.88246113 -0.5101497 -0.037132367 -0.58288366
000130 8a 99 91 3e 39 ff 8e bf 91 64 37 bf 25 4c 9e 3d
       0.28437454 -1.1171638 -0.7163783 0.07729367
000140 36 cc d6 3e 29 c6 b0 bf b0 d7 08 bf b4 48 c2 3e
       0.41952676 -1.3810474 -0.53454113 0.37946093
000150 9e 0c 0d bd b8 d0 78 be a9 81 79 be ac be 59 bf
       -0.03443586 -0.2429837 -0.24365868 -0.8505657
000160 31 0b b1 3f 99 c7 d6 3f 4c 42 ce 3f 71 71 47 bf
       1.383154 1.6779662 1.6113982 -0.7790747
000170 77 c9 46 3f 9a df c4 3f 7e 83 fa be a1 bc 88 3d
       0.7765116 1.5380738 -0.48928446 0.06676603
000180 74 e6 25 3f a6 55 0b 3e 84 c9 d5 3c 2f 29 55 3f
       0.6480477 0.13606891 0.026097067 0.83265966
000190 b6 03 14 be 6c de fe 3c 0c cd a5 3e 70 88 22 3f
       -0.1445454 0.031111918 0.32383 0.6348944
0001a0 a4 19 ff 3e 30 f2 95 3e b4 eb 33 3f 59 51 75 3f
       0.4982425 0.29286337 0.7028153 0.9582725
0001b0 6a 6a 90 3f d1 9c 8e be d3 ee 55 3e f0 f2 86 bf
       1.1282475 -0.27854016 0.20891885 -1.0542889
0001c0 68 9b 34 3c f7 60 50 3f 11 6b 39 3f 5d ec 56 bf
       0.01102338 0.81397957 0.72428995 -0.8395441
0001d0 2a e3 09 3e d7 b9 af be a9 9e 15 3e 68 7b 45 3f
       0.13465562 -0.34321472 0.14611305 0.7714143
0001e0 96 4f bc be 08 04 b4 bc 6f 09 37 be 94 c9 91 3f
       -0.3677947 -0.021974578 -0.17874692 1.1389642
0001f0 0a 0f e0 3e 0c cd 8a be 6c ec 94 3c 96 e4 a7 be
       0.43761474 -0.27109563 0.018179141 -0.32791585
000200 8d d2 5e bf 30 46 d5 3b cb 8f ad 3d ed be 8e 3e
       -0.87040025 0.006508611 0.08474692 0.2788004
000210 22 b4 5d bd 9c e7 00 be fd 68 c0 be 7a ec 88 3d
       -0.054126866 -0.12588352 -0.375801 0.06685729
000220 00 af 7d 3f 4d 32 47 bf eb 82 bb be 5b 60 dd be
       0.99095154 -0.7781113 -0.3662332 -0.43237576
000230 76 7d bb bf 44 79 c3 bd 54 6c 4c 3e 93 25 0d 3f
       -1.4647663 -0.09544614 0.19963199 0.5513546
000240 c8 fa 83 be 5f 13 25 3f 52 33 d1 bf 3f 24 16 bf
       -0.25777268 0.6448268 -1.6343787 -0.5864906
000250 fa 90 36 bf bc 1c 35 bf 09 97 5d bd 9c 12 e4 be
       -0.71314967 -0.7074697 -0.054099116 -0.44545448
000260 ca 3e 0b bf 9c f5 48 3f 4f e6 dd 3e c2 80 0f 3f
       -0.54392684 0.7849977 0.43339774 0.56055844
000270 51 ec 1c bf ae b5 e2 3e dc 26 35 3f a4 dd 14 3f
       -0.6129809 0.44279236 0.7076242 0.58150697
000280 59 2f 0e 3f 7a e0 8b 3f e2 28 d9 be 06 33 b3 3e
       0.55540997 1.092788 -0.42414004 0.34999865
000290 10 25 3b 3f a2 9b e5 be 5a 9d 39 bf ed 68 df 3e
       0.7310343 -0.448453 -0.72505724 0.4363474
0002a0 6a 0a 75 3e 28 92 6f 3e b6 e7 4e 3f 7a 73 0d bf
       0.23929754 0.23395598 0.8082231 -0.5525433
0002b0 24 5f c9 bf b6 09 61 bf 2f 61 6a bf 04 37 ec 3e
       -1.573216 -0.8790544 -0.9155454 0.46135724
0002c0 b3 37 29 3e 64 41 c9 3e 58 08 4d 3e 7d 35 8c be
       0.16525154 0.39307702 0.20022714 -0.27384558
0002d0 82 2d 73 3e ff 06 89 bf e1 99 23 3f d5 3d 13 3f
       0.23747829 -1.070526 0.63906676 0.57516223
0002e0 b6 c6 41 bf 78 96 3d 3f 1a 7a 20 3e ac 0c 81 3e
       -0.75693834 0.7405772 0.15671578 0.2520498
0002f0 cf 84 eb be d0 1e df be 64 bb 76 3e bc d3 38 bf
       -0.45999762 -0.43578196 0.24094921 -0.7219808
000300 ee 76 d6 3e 5e 52 a4 be 32 fc 2a 3f 53 55 49 3f
       0.4188761 -0.3209409 0.6679107 0.7864582
000310 4c e5 ab bf 9c 67 a0 bf 74 c5 93 3c 57 0b 80 3f
       -1.3429351 -1.2531619 0.018038489 1.0003461
000320 59 9f 18 be 63 61 b8 3f e6 29 42 bf 66 68 34 bf
       -0.14904536 1.440472 -0.7584518 -0.704718
000330 12 90 84 3f 01 33 d7 bd 9f 6d 84 bd 74 8d 04 bf
       1.0356467 -0.10507775 -0.06466221 -0.5177834
000340 2a 00 36 3e f6 fe 67 bf 50 72 aa be 44 48 aa 3e
       0.177735 -0.90623415 -0.3329034 0.3325826
000350 1f 01 ed be cc 50 81 bf b3 b5 00 3f 20 60 d9 be
       -0.46289918 -1.0102782 0.5027725 -0.4245615
000360 5f 64 a5 bf 6d 0b 80 3f a8 16 1f 3c e4 b2 11 3f
       -1.2921256 1.0003487 0.0097099915 0.5691359
000370 26 c6 19 3d 5f 5d 1b bf ec 87 1b bf 0b 74 92 bf
       0.037542485 -0.6068935 -0.60754275 -1.1441664
000380 0f 0f 23 3f 4c b6 95 3f 6c c1 d7 3c 58 e9 43 3f
       0.6369485 1.1696258 0.026337348 0.7652793
000390 0d 8a 95 bf dc da ba be 3c 36 29 bf 89 a9 75 3d
       -1.1682755 -0.364951 -0.6609838 0.059976134
0003a0 b6 3a 62 bf 70 4b 91 3e 8b ce bf bf 4e c3 01 3f
       -0.88370836 0.28377867 -1.4984907 0.50688636
0003b0 04 23 d1 3f d0 5a a6 3e c3 6b 8a 3f 80 ee 7e 3f
       1.6338811 0.3249116 1.0814136 0.9958267
0003c0 d1 2a 6b be f4 f8 05 3e 59 09 5d 3f d9 c9 d7 3d
       -0.22965552 0.1308325 0.8634239 0.10536546
0003d0 f1 45 19 3f 6c 50 c7 3e e3 c3 9c 3e 4c c3 50 be
       0.5987235 0.38928545 0.306182 -0.20387
0003e0 8c 7d 20 3e 4e dc 37 bd a7 ba 31 bd 4f 32 c6 bf
       0.15672892 -0.044887833 -0.043390896 -1.5484103
0003f0 78 67 20 bf 23 08 e5 be e4 b4 48 3f c4 06 8b bc
       -0.6265788 -0.4473277 0.7840102 -0.016971

weight f4 [32, 16]
000000 19 af 3e be 7d 33 c7 3f be 52 a4 3e 99 36 a6 be
       -0.18621482 1.5562588 0.32094377 -0.3246353
000010 d6 c7 b7 bf 20 fa 5e 3e 51 f4 40 3f 55 e5 28 3f
       -1.435786 0.21775103 0.753728 0.6597493
000020 9e 6e 67 3d 52 03 b3 3e 36 a1 3d 3e ca 05 09 bd
       0.056501977 0.3496347 0.18518528 -0.033452787
000030 1e 94 20 3f 0d a4 8b bd 0e da 05 bf 69 69 c4 3f
       0.6272601 -0.068183996 -0.5228585 1.5344669
000040 9a 3a 13 3f d4 6b b9 be 94 e1 86 3f c7 ba 99 3f
       0.57511294 -0.3621508 1.0537591 1.2010125
000050 29 97 f7 be 94 e7 f3 be 76 c0 9a be 0d 15 91 be
       -0.48357514 -0.47637618 -0.3022496 -0.28336373
000060 c7 70 3d 3d cc 44 9f be 91 ff b3 bd e5 6e 2a 3f
       0.04625013 -0.31107175 -0.0878898 0.6657546
000070 27 c8 cd 3e 9f 3a 07 3f b3 92 46 bf 89 8c b2 3d
       0.40191767 0.52823824 -0.77567595 0.08718211
000080 d2 7c bd be ff cf b1 bf 67 bf c5 bf b3 24 ef bf
       -0.37009293 -1.38916 -1.5449036 -1.8683075
000090 8a c8 ea 3e 84 30 a1 bf 6d 79 45 3d f1 9e 01 bf
       0.45856124 -1.2592931 0.048211504 -0.5063315
0000a0 5f d3 01 3f f4 bc a8 3e ce b3 f4 be 07 73 e1 bf
       0.5071315 0.3295666 -0.4779343 -1.7613229
0000b0 6c 20 8f 3f 52 a1 0c 3f 75 f6 a7 3e ce 22 3c 3f
       1.1181769 0.54933655 0.3280522 0.7349061
0000c0 c1 c0 c3 3e 74 78 d0 3e a6 3c fd be 1a 13 85 be
       0.38232997 0.40716898 -0.49460334 -0.25991136
0000d0 36 4e 00 3f a9 7b ec 3d bb 73 e1 bd 35 e3 4a 3f
       0.5011934 0.11547024 -0.11008402 0.7925294
0000e0 50 d9 e1 3e 61 21 a5 be 59 b4 3f be c9 1d a0 3d
       0.4411111 -0.3225203 -0.18721141 0.07818181
0000f0 07 d1 d5 be fb 54 9e 3d f7 96 81 be c5 de 8b bf
       -0.41761038 0.077310525 -0.2531049 -1.0927359
000100 e2 9a 90 3e 34 95 07 be 49 ad da be 9e dd 18 bf
       0.28243166 -0.1324051 -0.4271033 -0.5971316
000110 30 f3 7b bc 9c 40 57 be 68 f3 fa 3e ec a0 50 3f
       -0.015377805 -0.2102074 0.4901383 0.8149555
000120 e8 20 cd 3f 52 b0 8f 3e 97 8c 65 bf 8f b4 ca be
       1.6025667 0.2806421 -0.8966765 -0.3959088
000130 38 17 86 be cd 51 9c bf 5c a4 a7 be ea c7 8b 3f
       -0.2618959 -1.2212464 -0.32742584 1.0920384
000140 c5 2e 18 bf f3 6a 91 bf 85 bd 1f 3f ac b4 6b 3d
       -0.59446365 -1.1360763 0.6239856 0.05754535
000150 84 74 bb bf b8 09 29 bd e5 c7 90 3e e9 ed 30 3e
       -1.4644933 -0.041269034 0.28277507 0.17278256
000160 03 8b 48 bf bb 7c 63 bf 74 a3 9f 3e ea c5 a7 be
       -0.78337115 -0.888622 0.31179392 -0.32768184
000170 9f 98 cf bf 4c 8c b5 be b2 79 00 3e 2b 63 33 3e
       -1.6218451 -0.354586 0.12546423 0.17518298
000180 dc ec 38 be a0 46 5e 3c 69 04 7a be db 64 92 3f
       -0.18059105 0.013566643 -0.24415745 1.1437029
000190 b9 e8 b8 3e 7d 1e 00 3f d4 db 28 3f e2 23 74 3e
       0.36115053 0.5004652 0.6596043 0.23841813
0001a0 e8 60 a8 bc 50 16 2e 3f a5 da ba 3d b4 ef e9 3e
       -0.020554021 0.68002796 0.091237344 0.4569069
0001b0 12 32 4e 3f 19 f6 e5 bd 1f ce ae 3f ae 64 80 bf
       0.8054515 -0.1122858 1.3656653 -1.0030725
0001c0 f2 f3 58 3e 49 ea 66 bf c4 94 bb bf 12 29 91 bf
       0.21186808 -0.9020124 -1.4654775 -1.1340659
0001d0 2f 8a 22 3f db 87 65 bf 3f 40 a8 3e f5 f7 52 3e
       0.634921 -0.89660424 0.32861516 0.206024
0001e0 ea f7 a0 bf ba fd 76 3f 75 21 55 bf 7b a7 75 3f
       -1.2575657 0.96480906 -0.83254176 0.9595868
0001f0 5a 9e 97 bf e4 9c a5 3c 6e 59 21 bf 60 af 54 be
       -1.18452 0.020216413 -0.63027084 -0.20770025
000200 0b 85 22 bf 01 1c 21 3f 54 f0 3e bf fa 80 e0 3d
       -0.6348426 0.62933356 -0.7458546 0.109621
000210 b8 0a 7b bf be a7 c9 3f 80 31 81 bf 50 b5 24 3f
       -0.9806323 1.5754316 -1.0093231 0.6433916
000220 d2 97 1f bf 2e 85 40 be e0 9c 2c bf 1e 46 14 3f
       -0.62341034 -0.18800804 -0.6742687 0.5791949
000230 48 db 75 3f 84 10 a6 bc 3e e5 34 3e dd c1 e4 3d
       0.9603772 -0.020271547 0.17665574 0.11169789
000240 09 89 b9 be b6 69 f7 bd 4c 0a cf bf a2 21 aa be
       -0.36237362 -0.1208071 -1.6175017 -0.33228785
000250 e4 94 0c bf 91 27 12 3f 6f 37 2b bf 3c 4e 8f be
       -0.5491469 0.57091624 -0.6688146 -0.27989376
000260 b6 da 84 3f df df 7b 3f 0b 65 3f bf 9d f9 36 bf
       1.0379245 0.98388475 -0.74763554 -0.7147463
000270 36 4b bd be 64 df 16 bf 33 1d ad 3e 46 33 ca be
       -0.36971444 -0.5893462 0.3381134 -0.39492244
000280 23 ae ed 3d 61 1a 78 be 0a 33 9d 3f 74 41 c1 3e
       0.116054796 -0.24228813 1.2281201 0.3774525
000290 b8 55 fa be a0 40 bf 3b 85 dc 9d 3d 26 56 a3 3d
       -0.48893523 0.0058365613 0.077080764 0.07975416
0002a0 ca cd 9d be 88 19 98 bf 96 a8 7c bf 76 a0 5f bf
       -0.30821067 -1.1882792 -0.9869474 -0.8735422
0002b0 4b b3 9f 3e 1a a3 67 bf 64 ba 45 3e d4 f6 9a 3c
       0.31191477 -0.9048325 0.19309384 0.018916525
0002c0 70 6e 5d 3c 93 23 94 be 70 ae 17 bf 82 d9 f3 bd
       0.0135151 -0.2893339 -0.59250546 -0.11906721
0002d0 5c dc cc bf f0 46 c8 3e 64 5e 84 bf 54 37 4a 3f
       -1.6004748 0.3911662 -1.0341306 0.78990674
0002e0 57 b9 55 3f d9 1b 0a 3f 8a ab ef bf a2 66 fd 3d
       0.8348593 0.5394874 -1.8724225 0.12373091
0002f0 16 87 50 bf b0 89 12 bf 36 72 2d bd 8f d2 a5 bf
       -0.81456125 -0.57241344 -0.04234525 -1.2954882
000300 d8 b3 56 3e f4 8c 63 3d 01 9d 6f bf 80 39 43 bc
       0.20967042 0.055554345 -0.93598944 -0.011915565
000310 6d ae e5 3e 20 0a 39 bf c4 14 02 bf e3 2b 8c bf
       0.4485964 -0.72281075 -0.50812936 -1.0950893
000320 24 ea 29 3f 65 c1 7d bf c2 00 57 be 7a bd e0 3e
       0.66372895 -0.9912322 -0.20996383 0.4389456
000330 73 cc de be 3c b9 50 3f 17 91 ee 3d 00 48 ae 3f
       -0.43515357 0.81532645 0.116487674 1.3615723
000340 2a e8 20 3e f3 87 ab bf f8 93 80 be 21 c9 81 3f
       0.15713564 -1.3400863 -0.2511289 1.0139505
000350 42 19 9b be 09 1f 8e bf e8 30 6b 3f 82 a5 8d 3f
       -0.30292708 -1.1103221 0.918715 1.1066134
000360 ea fe 8d bd 37 d7 f7 3d d1 a8 e3 3e c1 9d 7a bf
       -0.069333866 0.12101596 0.44464734 -0.97896963
000370 2f a0 97 bf 00 b9 a6 3b 80 7e d2 3e 68 2d 25 3e
       -1.1845759 0.0050879717 0.41112137 0.16130602
000380 b8 cd be be 1c c4 17 3f 36 61 5c 3e 34 4e ae be
       -0.37266326 0.59283614 0.21521458 -0.3404404
000390 d4 e7 f4 3c 9d 99 2c bf 46 06 40 bf 8e dc 88 3e
       0.0298957 -0.67421895 -0.7500957 0.2673077
0003a0 e0 90 6b 3b 38 5c b1 bf 1c 40 98 bf 56 0b 05 3e
       0.0035944507 -1.3856268 -1.1894565 0.12992606
0003b0 52 f2 b7 3e e3 c2 a2 3f 0a af 7c 3f c2 24 05 3f
       0.35927063 1.2715725 0.9870459 0.5200921
0003c0 8e fa 06 bf 52 6c 8b be 24 b3 83 3f 68 cc ac be
       -0.52726066 -0.2723108 1.0289044 -0.337497
0003d0 0c 58 10 be 7b 48 56 bf 0a da 78 bf 86 ab a7 bf
       -0.14096087 -0.83704346 -0.972077 -1.309922
0003e0 ac e7 22 3e 39 5f a3 3f fe 5a 55 be 84 fd 8e 3f
       0.15908688 1.2763435 -0.20835492 1.1171117
0003f0 52 d4 cb 3e 54 df 2b bd 5f 8d b6 3f d8 2e 4f 3d
       0.39810425 -0.04196103 1.4261893 0.050581783

weight f4 [32]
000000 cc cc 8c 3f 68 66 66 3f cd cc 8c 3f cd cc 8c 3f
       1.0999999 0.9000001 1.1 1.1
000010 c9 cc 8c 3f 67 66 66 3f 68 66 66 3f cd cc 8c 3f
       1.0999995 0.90000004 0.9000001 1.1
000020 68 66 66 3f 67 66 66 3f 67 66 66 3f 67 66 66 3f
       0.9000001 0.90000004 0.90000004 0.90000004
000030 cd cc 8c 3f cc cc 8c 3f cd cc 8c 3f 68 66 66 3f
       1.1 1.0999999 1.1 0.9000001
000040 cc cc 8c 3f 6a 66 66 3f c9 cc 8c 3f 72 66 66 3f
       1.0999999 0.9000002 1.0999995 0.9000007
000050 c6 cc 8c 3f 6a 66 66 3f cc cc 8c 3f 67 66 66 3f
       1.0999992 0.9000002 1.0999999 0.90000004
000060 6b 66 66 3f 67 66 66 3f cb cc 8c 3f 67 66 66 3f
       0.9000003 0.90000004 1.0999998 0.90000004
000070 68 66 66 3f cb cc 8c 3f cc cc 8c 3f c7 cc 8c 3f
       0.9000001 1.0999998 1.0999999 1.0999993

bias f4 [32]
000000 6f cc cc bd c2 cc cc 3d c6 cc cc 3d c5 cc cc bd
       -0.0999993 0.09999992 0.09999995 -0.09999994
000010 81 cc cc 3d c8 cc cc bd bf cc cc 3d bf cc cc 3d
       0.099999435 -0.099999964 0.0999999 0.0999999
000020 c6 cc cc 3d b7 cc cc 3d c3 cc cc 3d c8 cc cc bd
       0.09999995 0.09999984 0.09999993 -0.099999964
000030 c1 cc cc bd 73 cc cc bd bb cc cc bd 4b cc cc 3d
       -0.09999991 -0.09999933 -0.09999987 0.09999903
000040 b3 cc cc 3d b0 cc cc 3d c8 cc cc 3d c6 cc cc 3d
       0.09999981 0.099999785 0.099999964 0.09999995
000050 7f c9 cc bd ac cc cc bd c6 cc cc bd c8 cc cc 3d
       -0.0999937 -0.099999756 -0.09999995 0.099999964
000060 c0 cc cc 3d ad cc cc bd c0 cc cc bd c5 cc cc bd
       0.099999905 -0.09999976 -0.099999905 -0.09999994
000070 c5 cc cc 3d ba cc cc 3d c8 cc cc 3d b7 cc cc bd
       0.09999994 0.09999986 0.099999964 -0.09999984

running_mean f4 [32]
000000 68 9a 4d 31 db 41 28 32 dd 43 2a b2 96 c8 fb 32
       2.9919196e-09 9.793861e-09 -9.910733e-09 2.9311462e-08
000010 43 76 29 b2 02 cf 9b b2 dd 43 2a b2 ed ec ec 32
       -9.863984e-09 -1.8138511e-08 -9.910733e-09 2.7581757e-08
000020 8f c2 f5 32 c5 2b 92 32 ff cb 18 b3 45 12 5f b3
       2.8610229e-08 1.7016541e-08 -3.557579e-08 -5.193785e-08
000030 c9 c8 c8 b2 7f b2 e5 32 a1 a0 a0 31 b1 b0 30 31
       -2.337437e-08 2.674028e-08 4.6748743e-09 2.5711808e-09
000040 98 98 18 b2 a8 41 db b1 f2 be 0b b2 d3 d3 53 33
       -8.88226e-09 -6.381203e-09 -8.134281e-09 4.931992e-08
000050 05 6c d2 b1 54 ed 06 b0 ec eb 6b 33 1b e7 33 31
       -6.124085e-09 -4.908618e-10 5.492977e-08 2.6179297e-09
000060 a4 3d 57 31 7c 15 2f b2 84 b6 e9 32 ec b8 05 b3
       3.1321656e-09 -1.0191226e-08 2.7207768e-08 -3.113466e-08
000070 f6 c2 0f 33 d1 37 1e 32 f6 c2 0f b2 81 81 01 b3
       3.3472098e-08 9.209502e-09 -8.3680245e-09 -3.0152936e-08

running_var f4 [32]
000000 b5 e8 84 3f 90 c6 83 3f 42 0b 8a 3f 45 66 88 3f
       1.0383517 1.0294971 1.0784686 1.065621
000010 ad 11 9f 3f db 3f 91 3f 82 9b 8f 3f 70 1d a0 3f
       1.2427269 1.1347612 1.1219332 1.2508984
000020 af c9 89 3f be 5c 87 3f 4d db 82 3f 73 cf 84 3f
       1.0764674 1.0575178 1.0223175 1.0375808
000030 08 08 94 3f ed 8b 91 3f 22 00 8a 3f 4e 6b 82 3f
       1.1564951 1.1370827 1.078129 1.0188997
000040 a0 4d 8d 3f 61 c3 83 3f 30 c4 85 3f 83 ba 93 3f
       1.1039314 1.0294 1.0450497 1.1541294
000050 7d aa 89 3f 5a 1e 83 3f 37 69 87 3f 63 5f 94 3f
       1.0755154 1.0243638 1.0578984 1.159161
000060 4e db 86 3f c3 84 87 3f b8 8d 96 3f 07 fe 82 3f
       1.0535676 1.0587391 1.1761999 1.0233773
000070 27 2d c1 3f 92 4f 87 3f fc 09 93 3f f2 70 8a 3f
       1.5091904 1.0571158 1.1487422 1.0815718

weight f4 [32]
000000 ca cc 8c 3f 67 66 66 3f 6a 66 66 3f 67 66 66 3f
       1.0999997 0.90000004 0.9000002 0.90000004
000010 ca cc 8c 3f 68 66 66 3f 67 66 66 3f cb cc 8c 3f
       1.0999997 0.9000001 0.90000004 1.0999998
000020 ca cc 8c 3f 67 66 66 3f cc cc 8c 3f cd cc 8c 3f
       1.0999997 0.90000004 1.0999999 1.1
000030 67 66 66 3f cc cc 8c 3f 68 66 66 3f cc cc 8c 3f
       0.90000004 1.0999999 0.9000001 1.0999999
000040 ca cc 8c 3f 6b 66 66 3f 6f 66 66 3f 69 66 66 3f
       1.0999997 0.9000003 0.9000005 0.90000015
000050 c9 cc 8c 3f cc cc 8c 3f 68 66 66 3f 84 66 66 3f
       1.0999995 1.0999999 0.9000001 0.90000176
000060 cc cc 8c 3f 74 66 66 3f cb cc 8c 3f cc cc 8c 3f
       1.0999999 0.9000008 1.0999998 1.0999999
000070 69 66 66 3f cc cc 8c 3f cb cc 8c 3f 6a 66 66 3f
       0.90000015 1.0999999 1.0999998 0.9000002

bias f4 [32]
000000 ad cc cc 3d a9 cc cc bd 86 cc cc bd bd cc cc 3d
       0.09999976 -0.09999973 -0.09999947 0.09999988
000010 b2 cc cc bd 79 cc cc 3d c4 cc cc bd c3 cc cc bd
       -0.0999998 0.099999376 -0.099999934 -0.09999993
000020 ba cc cc 3d bb cc cc 3d 44 cb cc 3d c3 cc cc 3d
       0.09999986 0.09999987 0.09999707 0.09999993
000030 c9 cc cc bd 5e cc cc 3d 4a cc cc 3d 36 cc cc bd
       -0.09999997 0.099999174 0.099999025 -0.09999888
000040 47 cc cc bd b9 cc cc bd 3a cc cc 3d c0 cc cc bd
       -0.099999 -0.09999985 0.099998906 -0.099999905
000050 7a cc cc bd bd cc cc bd b7 cc cc bd 9f cc cc 3d
       -0.09999938 -0.09999988 -0.09999984 0.09999966
000060 a0 cc cc bd b6 cc cc bd 58 cc cc 3d c3 cc cc 3d
       -0.099999666 -0.09999983 0.09999913 0.09999993
000070 c0 cc cc bd c3 cc cc 3d bb cc cc bd c6 cc cc 3d
       -0.099999905 0.09999993 -0.09999987 0.09999995

running_mean f4 [32]
000000 c4 f2 81 bb 9c 5a b1 3b f7 f3 17 bc d1 0f 1f bb
       -0.0039657075 0.005412413 -0.009274474 -0.0024270902
000010 ce 03 30 bb d1 88 d2 3b 33 0d a0 bb 98 4d b6 3b
       -0.0026857737 0.006425001 -0.004884386 0.005563449
000020 ad 3c 45 bb 21 3a fd b9 df 48 0b 3b f4 e6 8b 3b
       -0.003009598 -0.0004829923 0.0021253151 0.004269475
000030 b4 6a 90 ba ca 2a 24 39 52 b8 c1 bb d8 dd 97 3b
       -0.0011018128 0.00015656199 -0.0059118653 0.0046346
000040 b2 c7 96 3b b8 c0 a9 3a 9c 27 1f 3b b7 fa a6 ba
       0.0046014423 0.0012951111 0.0024285084 -0.0012739514
000050 0e 03 9f bb c3 85 80 ba 11 cc b0 3a ef 11 86 3a
       -0.004852659 -0.0009805489 0.0013488551 0.0010228733
000060 96 d9 ee ba fa a9 9b bb 3d c5 f5 3a d8 18 0c bb
       -0.0018222805 -0.0047504874 0.0018750798 -0.0021377113
000070 e1 c6 e6 bb 13 7e 9f bb cc fe 6f 37 c3 c2 02 3c
       -0.007042751 -0.004867324 1.4304835e-05 0.007981005

running_var f4 [32]
000000 1f 48 86 3f 84 1b 7e 3f 3e 27 89 3f 1c 55 80 3f
       1.049076 0.99260736 1.0715101 1.0025973
000010 38 c9 84 3f 9e d1 82 3f 73 54 83 3f 97 23 83 3f
       1.0373907 1.022022 1.0260147 1.0245236
000020 f7 07 82 3f f2 38 83 3f 3c 40 83 3f 50 a2 84 3f
       1.0158681 1.0251753 1.0253978 1.0362034
000030 0f 46 84 3f 05 47 83 3f 21 dc 83 3f 2c 43 86 3f
       1.033388 1.0256048 1.0301553 1.0489249
000040 fe 40 7e 3f ef eb 7c 3f 59 74 84 3f 43 4a 84 3f
       0.9931792 0.98797506 1.0348006 1.0335163
000050 93 1f 82 3f a4 b1 83 3f 5e 39 81 3f 59 f2 84 3f
       1.0165886 1.0288587 1.0095632 1.0386459
000060 01 56 87 3f 48 e2 89 3f 2e ff 8b 3f 86 2f 8e 3f
       1.0573121 1.077218 1.093725 1.1108253
000070 b4 49 8e 3f de 7d 81 3f 38 db 85 3f 85 bb 80 3f
       1.1116242 1.0116537 1.0457525 1.0057226

weight f4 [32, 16]
000000 bd 79 84 3e 19 13 82 3e 3e 2d 41 bf af 03 b0 3e
       0.2587413 0.25405195 -0.7545966 0.3437781
000010 fa 17 6c bf 75 f3 42 bf 47 e4 cd be 7b 32 a9 bf
       -0.92224085 -0.76152736 -0.40213224 -1.321853
000020 b0 b9 0c 3e 2a 60 8b be cf 82 76 bf ae 0a 03 3f
       0.13742709 -0.27221805 -0.9629335 0.5118817
000030 be 42 8a bf a2 9d 64 3f 42 08 58 3f 7b 84 ce 3e
       -1.0801618 0.8930303 0.843876 0.4033545
000040 9f b1 26 bf 8d c5 8e bf 98 4c 7f bf 34 a2 7c 3d
       -0.6511478 -1.1154038 -0.9972625 0.061678126
000050 00 14 33 bc fa 27 5a 3f 5e ba 45 bf 40 bc 5a bf
       -0.010930061 0.8521725 -0.772375 -0.85443497
000060 19 a4 1f be 12 80 b5 bf 0f e1 8d bf ce 22 5a 3f
       -0.15589942 -1.4179709 -1.1084307 0.8520936
000070 5d 14 a6 3e f3 a2 24 3e a8 e2 f8 3d 1c 09 81 bf
       0.3243741 0.16077785 0.12152606 -1.0080905
000080 80 e0 2f bf b1 ba e5 3f 80 f5 41 bf 4a b9 8a be
       -0.68701935 1.7947599 -0.7576523 -0.2709449
000090 7f 94 06 3f 9c a3 7a 3e 9d bb 25 bf d0 90 d3 bf
       0.5257034 0.24476475 -0.647394 -1.6528568
0000a0 30 74 ec bc 08 ed 31 bf 12 f9 45 be 33 84 00 3f
       -0.028863996 -0.69502306 -0.19333294 0.5020172
0000b0 76 b1 4b bf 04 1c 0d 3f 7e 3d 36 be 6e 51 b6 bf
       -0.7956766 0.55120873 -0.17796895 -1.42436
0000c0 b1 0f 44 bf 8f b3 c1 bd fc 16 4d 3f 8a 6b ea 3e
       -0.76586443 -0.09458076 0.80113196 0.4578517
0000d0 4a 2f 25 3f ea 39 6c bf f9 63 e7 be 77 b8 ac bf
       0.6452528 -0.9227587 -0.4519346 -1.3493794
0000e0 07 61 22 3f e5 f9 76 bd 3e c0 cd be de 36 94 3e
       0.634293 -0.06029691 -0.40185732 0.2894811
0000f0 d6 03 98 3f 1b a0 0e be f9 e8 91 3f a8 4d 02 be
       1.1876171 -0.13928263 1.1399223 -0.12724936
000100 2b dd ba bf 63 ca 4f 3f b6 b2 0e 3e 08 1e 37 3c
       -1.4598745 0.8116819 0.1393536 0.011176594
000110 01 aa de 3f d8 7c 17 bd e1 18 c3 be a4 76 30 bf
       1.7395631 -0.036984295 -0.3810492 -0.6893103
000120 71 0a 0a bf ce 3f c1 3e 44 ad 1e bd d5 0e e8 be
       -0.5392218 0.37743992 -0.038739458 -0.45323816
000130 7e 82 50 bf 8e 2e 4a bf dc 17 cd 3e 75 1e 5f 3f
       -0.81449115 -0.78977287 0.40057266 0.8715585
000140 19 03 96 3f f7 21 cb 3e 7a a3 2b bf 80 56 cb 3c
       1.1719695 0.3967435 -0.6704632 0.02482152
000150 16 f7 22 3f c5 7b 60 3d 5a 29 13 3e d8 53 86 3e
       0.63658273 0.054805536 0.14371243 0.26235843
000160 43 0a 0e 3f 5a dc 0d bf 2e e8 29 3f bf c1 be bd
       0.5548441 -0.55414355 0.66369903 -0.09314298
000170 f3 6f 23 be 94 63 96 bf c3 4e 2a 3f a3 ee 02 3f
       -0.15960674 -1.1749139 0.6652643 0.5114538
000180 74 7a 65 3f 3f 95 2f bf 9e 5a cf 3e 23 fd ab 3f
       0.89639974 -0.68587106 0.40498823 1.3436626
000190 62 06 1c bf 78 3f d4 be f8 ce 89 be 0a 91 ba 3e
       -0.6094724 -0.41454673 -0.26915717 0.3643878
0001a0 bd d6 ed 3f 5f c7 c3 3e dc 42 eb 3e 08 04 20 be
       1.8581158 0.38238046 0.45949447 -0.15626538
0001b0 3a 60 9b 3d 60 63 6a 3f c4 55 ca be fe 2d 4b 3e
       0.07586713 0.91557884 -0.3951856 0.19841763
0001c0 3c b5 5f 3d c7 e7 45 bf 99 f7 b8 3e 5c af 37 3e
       0.054616198 -0.7730679 0.36126402 0.17937988
0001d0 f9 55 6f bf 09 05 c9 be 0d a6 6a 3d 97 e8 7a bf
       -0.9349056 -0.39261654 0.057287265 -0.98011154
0001e0 4a c0 da be 94 af 08 3f 6a 35 4c 3e 03 6d 85 3f
       -0.4272483 0.5339291 0.19942251 1.0423893
0001f0 5c 2b 42 be fb cb 08 be b5 f3 63 3d 84 72 25 bf
       -0.18961853 -0.13359062 0.05565234 -0.6462786
000200 86 79 14 bf ea 79 e8 be 00 4f ef bf f4 e0 18 3f
       -0.5799793 -0.45405513 -1.8695984 0.5971825
000210 03 0b ae 3f 66 ab 07 3f 51 0a 05 bf a0 81 4c bf
       1.359711 0.5299591 -0.51968867 -0.7988529
000220 91 a7 0a bf 13 26 86 bf c7 cf ee 3e 45 a0 c1 3f
       -0.54161936 -1.0480369 0.46642897 1.5127035
000230 17 8c a9 3f fe 4c 32 be 6c 96 12 3f ae fc d4 3e
       1.3245877 -0.17412183 0.57260776 0.4159903
000240 d2 0b d9 3e 3e 46 c0 be 4c 8a 87 3f bc 69 43 bf
       0.4239183 -0.3755359 1.058908 -0.7633321
000250 5e 84 e3 be 95 70 2b bf a6 5f f3 3e ad 0d be 3d
       -0.44436926 -0.6696866 0.4753391 0.09279952
000260 50 2d dd 3e fd 1b b5 3e d6 f7 40 bd b0 a2 4d bf
       0.43198633 0.35372916 -0.047111355 -0.80326366
000270 fc 02 1c be 98 7e ab 3e 43 c4 be bf 52 7f 20 3f
       -0.15235513 0.3349502 -1.4903644 0.62694275
000280 35 25 9c 3f 87 03 47 bf 44 6f b0 3e e2 8c 9f 3d
       1.2198855 -0.7773976 0.3445989 0.07790543
000290 d6 be b2 3e cf 5f e6 3d 2d 44 9f 3f 0c 73 14 3d
       0.3491122 0.11248743 1.2442681 0.03624253
0002a0 3e e4 42 3e c2 1a 1c 3f ec 16 62 bf f7 2a 82 3f
       0.1903238 0.6097833 -0.88316226 1.0169362
0002b0 a2 01 52 be e8 7d aa 3f 86 dc ea 3e 58 31 6f be
       -0.20508435 1.3319674 0.4587137 -0.23358667
0002c0 32 3c 4b 3d 20 4a 56 bf a6 a0 39 3f 51 fc da be
       0.049617954 -0.83706856 0.72510755 -0.42770627
0002d0 ee 35 a3 3d 8a 6c d6 3d 65 f1 55 3f 93 7d 4f bf
       0.07969271 0.10469921 0.83571464 -0.81050986
0002e0 ec 86 0b 3f e7 ee 22 3e 85 40 9b 3d d4 7a 2e bf
       0.5450275 0.15911447 0.075806655 -0.6815617
0002f0 8f cb 20 be 4a ed a4 3d 50 1a 04 3f 68 e5 c4 3e
       -0.15702651 0.08053072 0.5160265 0.38456273
000300 64 af 13 be df 96 3b 3f 11 3b d7 be 61 e2 63 3f
       -0.14422375 0.73277086 -0.42037252 0.890173
000310 0e 55 e1 3e 1c d5 70 3e ac aa 91 be 1b 8e 59 bf
       0.44010204 0.23518795 -0.28450525 -0.8498246
000320 0d 1c a5 3f a6 08 e2 3f dd af 05 be 8c e0 d4 be
       1.2899185 1.7658889 -0.13055368 -0.41577566
000330 a3 cc 5d 3f 38 a0 ae bf 3e d6 36 3d 7d a3 89 bf
       0.86640376 -1.3642645 0.04463791 -1.0753018
000340 28 7d 8d bf bf 2d ab be 2e 14 13 3e 46 10 c4 3e
       -1.105382 -0.3343334 0.14363167 0.38293666
000350 72 d1 00 bd 21 38 c5 3e 7e bc d7 3e 04 df f8 3e
       -0.031449743 0.38519385 0.42135996 0.48607647
000360 17 fd 77 3f b4 66 4e bf 08 4c 92 3d bf 07 31 3f
       0.9687056 -0.8062546 0.07143408 0.69152445
000370 4c 09 86 bf e7 ea e0 3d bf 6a 60 bf 28 c4 73 3e
       -1.0471587 0.10982304 -0.8766288 0.23805296
000380 7c d3 bd 3d d6 87 2f bf c3 d3 7c bf 1f c6 ad 3e
       0.09268853 -0.68566644 -0.9876062 0.33940217
000390 1b 81 67 3f 3a bc 73 3f 8a c3 5a 3f b5 66 3c be
       0.90431374 0.95209086 0.8545462 -0.18398555
0003a0 64 41 6c 3f 54 59 29 bf 70 e0 24 3c 31 11 95 3e
       0.9228728 -0.6615193 0.010063276 0.29114679
0003b0 07 69 09 3f 7c b3 92 3e b8 3f b5 3f 37 3c e8 3e
       0.53675884 0.2865256 1.416007 0.4535844
0003c0 7f c3 07 3e 9e a0 b2 be 1c f8 75 3f ec 7e 2e 3f
       0.1325817 -0.34888166 0.9608171 0.6816242
0003d0 6d 51 e8 3e e0 3f 65 bf 21 8d 39 bf 4b 58 2f bf
       0.45374623 -0.8955059 -0.7248097 -0.684941
0003e0 d4 df 6f 3e 4f b2 0c be bf 95 a9 bd a1 8d 8a bf
       0.23425227 -0.13739894 -0.08280515 -1.0824472
0003f0 04 75 ec 3d 24 33 9d 3e 34 51 9b 3d a4 94 8b 3f
       0.115457565 0.3070308 0.07583848 1.0904737

weight f4 [32]
000000 68 66 66 3f cd cc 8c 3f cb cc 8c 3f cc cc 8c 3f
       0.9000001 1.1 1.0999998 1.0999999
000010 cc cc 8c 3f ca cc 8c 3f cb cc 8c 3f 69 66 66 3f
       1.0999999 1.0999997 1.0999998 0.90000015
000020 cc cc 8c 3f c7 cc 8c 3f 67 66 66 3f 67 66 66 3f
       1.0999999 1.0999993 0.90000004 0.90000004
000030 67 66 66 3f 67 66 66 3f c8 cc 8c 3f 67 66 66 3f
       0.90000004 0.90000004 1.0999994 0.90000004
000040 6d 66 66 3f cc cc 8c 3f 83 66 66 3f 6b 66 66 3f
       0.9000004 1.0999999 0.9000017 0.9000003
000050 a1 cc 8c 3f 6d 66 66 3f c9 cc 8c 3f cb cc 8c 3f
       1.0999948 0.9000004 1.0999995 1.0999998
000060 c7 cc 8c 3f 70 66 66 3f c2 cc 8c 3f 7c 66 66 3f
       1.0999993 0.9000006 1.0999987 0.9000013
000070 cb cc 8c 3f 67 66 66 3f 67 66 66 3f 6a 66 66 3f
       1.0999998 0.90000004 0.90000004 0.9000002

bias f4 [32]
000000 99 cc cc bd ba cc cc 3d 7d cc cc 3d bf cc cc 3d
       -0.099999614 0.09999986 0.099999405 0.0999999
000010 30 cc cc 3d b2 cc cc 3d b0 cc cc bd c3 cc cc 3d
       0.09999883 0.0999998 -0.099999785 0.09999993
000020 b7 cc cc bd a8 cb cc 3d ae cc cc bd c0 ca cc 3d
       -0.09999984 0.09999782 -0.09999977 0.09999609
000030 bf cc cc bd 91 cc cc 3d 55 cb cc 3d bb cc cc 3d
       -0.0999999 0.099999554 0.0999972 0.09999987
000040 65 cc cc bd a1 cc cc 3d a3 cc cc 3d c0 cc cc 3d
       -0.09999923 0.09999967 0.09999969 0.099999905
000050 b2 cc cc 3d 99 cc cc 3d 91 cc cc 3d a9 cc cc bd
       0.0999998 0.099999614 0.099999554 -0.09999973
000060 ab cc cc 3d 29 be cc 3d c5 cc cc bd c3 cc cc bd
       0.09999975 0.09997208 -0.09999994 -0.09999993
000070 bd cc cc bd c2 cc cc bd bd cc cc 3d c0 cc cc bd
       -0.09999988 -0.09999992 0.09999988 -0.099999905

running_mean f4 [32]
000000 ed 78 5f 3b 93 18 9b 3b ee 9e fc 3a 6d 70 c2 ba
       0.0034099177 0.004733154 0.0019273439 -0.0014834531
000010 7d d9 12 bb 72 14 62 bb 9d 44 1d bb cd de f4 3b
       -0.0022407465 -0.003449705 -0.0023997196 0.007472849
000020 97 0a 30 3b 4f c4 23 3b 9a 35 76 bb 6f e4 82 bb
       0.002686178 0.0024988835 -0.003756857 -0.0039945166
000030 7f 5c 82 bb d4 57 5c ba e8 51 19 bc e1 b7 f8 38
       -0.0039783115 -0.00084054214 -0.009357907 0.00011859812
000040 a0 06 8b 3b 9f 90 23 3b b0 a3 0d 3c 52 97 7d 3a
       0.004242733 0.0024958027 0.008644983 0.00096737326
000050 3a 7b 26 3a bc 8a 28 3b 24 be 18 3c 09 73 d4 b9
       0.00063507596 0.0025717458 0.009322677 -0.000405215
000060 e3 36 a3 3b cc 41 64 bb ef f7 f1 ba fd bc 95 3b
       0.0049809082 -0.0034829257 -0.0018460731 0.0045696483
000070 b2 a2 b6 3b b6 51 50 3a 4d fa 21 3a 01 fa f6 39
       0.005573594 0.0007946746 0.00061789603 0.00047107044

running_var f4 [32]
000000 b5 b1 80 3f cb c5 82 3f be 1c 85 3f f7 2e 87 3f
       1.0054232 1.0216612 1.0399396 1.0561208
000010 e9 05 85 3f e6 0b 81 3f 7e f5 81 3f ec 24 80 3f
       1.0392429 1.0081756 1.0153043 1.0011268
000020 ed 39 82 3f 4f 39 80 3f 18 4e 81 3f 7d 52 82 3f
       1.0173928 1.0017489 1.0101957 1.0181423
000030 16 60 85 3f f6 47 83 3f 99 22 82 3f 31 10 87 3f
       1.0419948 1.0256336 1.0166808 1.0551816
000040 d8 b9 80 3f c1 6b 86 3f ff 29 84 3f 61 61 7d 3f
       1.0056715 1.0501634 1.0325316 0.98976713
000050 8c 14 80 3f eb 6f 81 3f b6 8d 85 3f cc 18 85 3f
       1.000627 1.011228 1.0433872 1.0398192
000060 8d 12 8b 3f eb 09 81 3f b4 2d 87 3f 03 e4 81 3f
       1.0865036 1.0081152 1.0560822 1.0147709
000070 3b 59 86 3f 0e 95 83 3f ec bc 7f 3f dd e4 80 3f
       1.0495981 1.0279863 0.99897647 1.0069844

weight f4 [32, 16]
000000 51 6d 3e 3d 32 77 4a 3e d6 70 43 bf bb 2b 5a 3e
       0.04649097 0.19772032 -0.7634405 0.21305744
000010 01 d9 36 3f 52 5a ac bd 81 d2 97 bd 5d ed 25 3f
       0.7142487 -0.08415665 -0.07413197 0.6481531
000020 99 49 bd be ad af af 3e 5b 0a 5d bf ea 11 b9 3f
       -0.36970213 0.34313717 -0.86343926 1.4458592
000030 75 80 f2 be 68 e6 b9 3d 2d 18 69 3d a1 ec 86 3e
       -0.4736363 0.0907715 0.05690782 0.2635241
000040 6e 77 06 bd cd 9f 04 bf 90 4a 8f be db e6 11 3c
       -0.03282874 -0.51806337 -0.27986574 0.008905138
000050 aa ef f6 bd 02 e2 ff be 25 25 1c bf 06 1c 55 bf
       -0.12057431 -0.49977118 -0.6099418 -0.83245885
000060 8e 98 6a 3e 4c 10 34 bf 90 b5 63 bf 7e 33 9b bf
       0.22909757 -0.7033737 -0.8894892 -1.2125089
000070 9e ab 65 3e 55 29 4c bf 93 ec dc 3e f9 9f 70 bf
       0.22428748 -0.7975057 0.43149242 -0.939941
000080 de b2 ec be fe 5b 38 be ec 45 e2 3d 51 52 c5 3e
       -0.46230215 -0.18003842 0.11048493 0.38539365
000090 56 be 6e be a1 07 cd 3e cf cd 26 bf 17 74 f8 be
       -0.23314795 0.40044883 -0.6515779 -0.4852607
0000a0 35 f1 47 bc 38 19 8d 3e 64 b1 93 be e9 38 74 3e
       -0.012203504 0.27558303 -0.28846276 0.23849835
0000b0 84 df 08 3f 2b 42 55 3f 9b 36 88 be fd 04 ac bd
       0.5346606 0.8330409 -0.2660416 -0.08399389
0000c0 73 73 98 be b3 a7 9a bf f8 e7 75 3e 54 f2 3e bf
       -0.2977558 -1.2082428 0.2401427 -0.74588513
0000d0 9b 7d 1c 3e 82 16 aa 3f df dd 26 3e cc 83 31 bf
       0.1528229 1.3288119 0.16295575 -0.6934173
0000e0 f9 9a 3d 3f 2c 60 01 c0 37 11 0f bf 3c 24 4d 3d
       0.74064595 -2.0214949 -0.5588564 0.050083384
0000f0 8a f5 7b bf aa 41 5a bf 00 d7 b8 3f e7 dd 13 3f
       -0.9842154 -0.85256445 1.4440613 0.5776047
000100 b5 b2 4f be cd ac 79 3f 2a 41 98 3f 14 c2 37 3f
       -0.20283015 0.975293 1.1894886 0.71780515
000110 23 5f 6c bf 70 24 07 3e 42 18 40 bf ea 38 b4 3f
       -0.9233267 0.13197494 -0.75037014 1.4079869
000120 50 ab cc bd c1 3c 56 3d 10 92 39 3f b6 a4 aa 3c
       -0.09993613 0.052304033 0.724885 0.020830493
000130 11 3b f6 bd f9 d3 83 bf fd 06 a9 3e 3c 74 ec be
       -0.12022985 -1.0299064 0.33013144 -0.4618243
000140 51 5c 95 3e 42 ce b3 3e d0 2b da 3f 9c 54 22 bf
       0.29171994 0.351183 1.704462 -0.63410354
000150 27 11 9a be 49 c9 ee 3c ff d9 c4 be a9 47 33 3f
       -0.3009121 0.029148715 -0.38447568 0.7003122
000160 a1 50 2a bf a8 c3 64 3f e2 56 a8 3e 15 8c 7f bf
       -0.6652928 0.8936105 0.32878786 -0.99823123
000170 69 7a 41 3f 80 d8 ff 3f 43 fd 8d be c4 56 51 3f
       0.7557741 1.9987946 -0.27732286 0.8177302
000180 35 04 7f bf 24 40 2c 3f e5 99 20 bf 09 4c 05 3c
       -0.99615794 0.6728537 -0.62734824 0.008135804
000190 fa f9 19 3f 40 29 29 3f ea a4 8c 3e e4 cb f7 3f
       0.6014706 0.6607857 0.2746957 1.9359097
0001a0 7c e7 b4 3f d1 37 c9 be 2a 0c 17 3e a0 6b ca bf
       1.4133143 -0.39300397 0.14750734 -1.5814095
0001b0 be 9d 4f bf 8e 1b 2f 3f 61 e4 f3 3e 86 e2 8a 3d
       -0.8110007 0.6840142 0.47635177 0.06781487
0001c0 c6 fd 14 3f 72 85 bb 3f 30 7b 8d 3e fd 26 0a 3f
       0.5819973 1.4650099 0.27633047 0.5396574
0001d0 12 27 95 be 9a 1d 7b bf 95 7a c6 be 0f 5c 7d be
       -0.2913137 -0.98092043 -0.38765398 -0.24742149
0001e0 e7 83 a3 3f 18 57 37 bf a8 72 0d 3f 58 e8 6a 3d
       1.2774628 -0.7161727 0.55253077 0.057350487
0001f0 fa bf 63 3f d2 bb 35 bf 77 b6 68 bf 1e 51 2a bf
       0.8896481 -0.70989716 -0.9090342 -0.66530025
000200 e0 3b da 3c 41 ba 93 3e da 5a 63 be 74 6a 98 3e
       0.026639879 0.28853038 -0.22202626 0.29768717
000210 e4 99 14 be 40 6e a0 be 8f 9a e4 3e e0 32 6e be
       -0.1451183 -0.31334114 0.4464917 -0.23261595
000220 b1 b5 11 3f 21 28 f4 3e 07 0a ea 3e ec eb 1b 3f
       0.56917864 0.47686866 0.45710775 0.60906863
000230 12 81 7e 3e cc 7f 77 bf c2 3c f2 3e f0 da 0b 3e
       0.24853924 -0.9667938 0.4731198 0.13657737
000240 e4 6b 2b 3f 1b f4 3d be 84 70 98 be 31 9f 2c 3f
       0.66961503 -0.1855015 -0.29773343 0.67430407
000250 3b 5c 59 3f 27 eb 92 3e 66 43 4c 3f 77 4a cc 3f
       0.8490636 0.28695032 0.7979034 1.5960225
000260 a2 ff 75 be e0 43 d8 3e 53 e3 f4 be 00 a5 4c 3e
       -0.24023297 0.42239285 -0.47829685 0.19984818
000270 6b 9a 9c be 23 3f c4 bd cb d1 d2 3e 1b 42 2a 3f
       -0.30586562 -0.09582355 0.41175684 0.6650712
000280 bd 4d 88 3e c0 ce e7 3d 08 5e 08 3e ce a6 63 bf
       0.2662181 0.11318731 0.1331712 -0.889264
000290 2e 01 0b be 54 bb f7 be bf d8 ab be 76 3f ad 3e
       -0.13574669 -0.48385108 -0.33563802 0.3383748
0002a0 c0 09 dd bb 45 02 82 bf 70 8a 13 3f 99 b3 2f 3f
       -0.006745547 -1.0156943 0.57633114 0.6863342
0002b0 ce 16 65 bf ce e2 2c 3f d1 db ae 3e d4 39 a0 3e
       -0.8948792 0.67533576 0.34152082 0.3129412
0002c0 20 7e 9d be 87 2a 1f 3e 46 71 1f bf 1e 14 97 bf
       -0.30760288 0.15543567 -0.62282217 -1.1803014
0002d0 42 41 39 3f 61 23 52 bf 20 4d 6a 3e 38 8f 16 bf
       0.723652 -0.82085234 0.22880983 -0.58812284
0002e0 3a 8f 8e 3e 7f 1d 84 3f 3f ad 10 3f 45 c1 e5 bd
       0.27843648 1.0321501 0.5651435 -0.11218504
0002f0 72 99 02 3f 7a 4b a1 be 52 85 a8 bd 54 86 17 bf
       0.5101539 -0.31502897 -0.08228554 -0.59189343
000300 0d ce db bf c6 49 11 3f 42 a4 71 be 32 a3 d6 3e
       -1.7172257 0.56753194 -0.23597816 0.41921383
000310 37 2e 0c bf a8 d6 95 3d cc 11 37 bf cd f5 cd 3f
       -0.5475802 0.07316333 -0.7151153 1.6090637
000320 b6 56 4b bf ed 3c 93 3f 3e 35 52 3e 8b 36 ce 3e
       -0.79429185 1.1502968 0.20528123 0.40275988
000330 a5 5c da 3e 0e d4 8f bf 5b 75 ff bd f3 e2 f8 3d
       0.42648807 -1.1236589 -0.12473556 0.12152662
000340 18 24 1c 3d 16 ed 0d 3f 3d dd f4 bd ea ab bc be
       0.03812036 0.5543989 -0.1195626 -0.3684991
000350 26 05 e5 be 53 0c 90 bf 45 ee 3b 3e e7 cc f6 be
       -0.4473049 -1.1253761 0.18352611 -0.48203203
000360 22 0e 00 3e d6 b2 88 bf c8 73 b4 3c f9 1a b0 bd
       0.12505391 -1.0679576 0.022027865 -0.085988946
000370 64 05 d9 be 14 46 b3 bf e4 88 00 bf 5e 6f 48 be
       -0.42386925 -1.4005761 -0.5020888 -0.19573733
000380 4e c2 7a bf fd a5 60 3f fa a9 e7 3d 9f a6 13 3f
       -0.97952735 0.8775328 0.11311717 0.5767612
000390 b8 09 d4 be f8 26 10 3e 7b bc f9 be ea 36 37 bd
       -0.41413665 0.14077365 -0.48776612 -0.044730105
0003a0 c3 09 8a be 7c 93 76 3d a2 5e 79 3e f3 61 90 bd
       -0.26960573 0.060199246 0.24352506 -0.07049932
0003b0 7d 4d e1 bf bd da 96 be 82 81 06 be dc 06 93 bd
       -1.7601773 -0.2946376 -0.13135341 -0.07179043
0003c0 a8 23 ea 3e 26 92 c6 3e 5a 07 9f 3e a6 61 4c bf
       0.4573033 0.38783377 0.31060296 -0.798365
0003d0 e5 39 0b 3f ea d7 02 40 d9 5f b3 be ac 96 cc 3c
       0.54385215 2.0444283 -0.35034063 0.02497419
0003e0 85 fe f9 bd 10 ab ff 3c 0c 8b 9d be 43 43 30 bf
       -0.12206749 0.031209499 -0.30770147 -0.68852633
0003f0 c9 c7 ab 3d 95 fd 3b bf 20 ab c6 3e 48 79 29 3e
       0.08387715 -0.7343381 0.38802433 0.16550171

weight f4 [32]
000000 00 00 80 3f 00 00 80 3f 00 00 80 3f 00 00 80 3f
       1.0 1.0 1.0 1.0
000010 00 00 80 3f 00 00 80 3f 00 00 80 3f 00 00 80 3f
       1.0 1.0 1.0 1.0
000020 cc cc 8c 3f cc cc 8c 3f cc cc 8c 3f cc cc 8c 3f
       1.0999999 1.0999999 1.0999999 1.0999999
000030 69 66 66 3f 67 66 66 3f 65 cc 8c 3f 67 66 66 3f
       0.90000015 0.90000004 1.0999876 0.90000004
000040 00 00 80 3f 00 00 80 3f 00 00 80 3f 00 00 80 3f
       1.0 1.0 1.0 1.0
000050 00 00 80 3f 00 00 80 3f 00 00 80 3f 00 00 80 3f
       1.0 1.0 1.0 1.0
000060 68 66 66 3f cc cc 8c 3f cc cc 8c 3f 71 66 66 3f
       0.9000001 1.0999999 1.0999999 0.90000063
000070 69 66 66 3f 67 66 66 3f cc cc 8c 3f 6c 66 66 3f
       0.90000015 0.90000004 1.0999999 0.90000033

bias f4 [32]
000000 00 00 00 00 00 00 00 00 00 00 00 00 00 00 00 00
       0.0 0.0 0.0 0.0
000010 00 00 00 00 00 00 00 00 00 00 00 00 00 00 00 00
       0.0 0.0 0.0 0.0
000020 4e cc cc 3d c1 cc cc bd 3a cc cc bd da cb cc 3d
       0.099999055 -0.09999991 -0.099998906 0.09999819
000030 b8 cc cc bd c2 cc cc 3d bd cc cc 3d c3 cc cc bd
       -0.099999845 0.09999992 0.09999988 -0.09999993
000040 00 00 00 00 00 00 00 00 00 00 00 00 00 00 00 00
       0.0 0.0 0.0 0.0
000050 00 00 00 00 00 00 00 00 00 00 00 00 00 00 00 00
       0.0 0.0 0.0 0.0
000060 c6 cc cc 3d 9d cc cc 3d be cc cc bd b5 cc cc 3d
       0.09999995 0.099999644 -0.09999989 0.09999982
000070 b1 cc cc 3d a3 cc cc bd bc cc cc bd bc cc cc bd
       0.09999979 -0.09999969 -0.099999875 -0.099999875

running_mean f4 [32]
000000 88 b5 1e bb ed 2a a5 3b fa 0f f5 3a 83 f2 eb bb
       -0.0024217088 0.0050405175 0.0018696778 -0.0072005405
000010 c3 4a 8b 3a 92 3a 34 bb fa a3 7c bc 49 02 e4 3b
       0.0010627139 -0.002750073 -0.015419954 0.00695828
000020 74 27 7e ba e3 cd f0 bb d8 c2 b8 ba bf 36 27 bb
       -0.000969521 -0.0073487624 -0.0014096154 -0.002551481
000030 5b b4 4b 38 16 1a 0c 3c 06 1c 1d 3b 49 2d f6 bb
       4.856694e-05 0.008551141 0.0023973002 -0.0075127226
000040 af ca eb ba 44 e1 d9 3a b7 93 fd 3a 60 73 b4 bb
       -0.0017989482 0.001662292 0.0019346391 -0.005506918
000050 b6 cc 80 3b 41 07 96 3a 63 85 ce 3a 2d 63 08 bb
       0.0039306534 0.0011446254 0.0015756305 -0.0020811066
000060 8e b4 43 bb 98 ed c7 3a 9b c6 d4 3b d7 df fa ba
       -0.0029862258 0.0015253304 0.006493402 -0.0019140196
000070 db 1c d6 bb 2c 38 b8 ba f4 0f bb bb 98 2b 46 3b
       -0.0065342016 -0.0014054826 -0.005708689 0.0030238386

running_var f4 [32]
000000 b5 b5 7f 3f 12 b6 7f 3f b3 13 7c 3f b2 57 90 3f
       0.9988664 0.9988719 0.9846756 1.1276762
000010 3c 64 81 3f 0d 6a 83 3f 1c eb 83 3f 9a 69 84 3f
       1.0108714 1.0266739 1.0306125 1.0344727
000020 5b d6 7d 3f e5 fb 80 3f 83 11 7f 3f b0 00 81 3f
       0.99155205 1.0076872 0.99636096 1.0078335
000030 1a bb 85 3f b8 42 7e 3f 65 c7 80 3f b8 33 82 3f
       1.0447724 0.99320555 1.006085 1.0172033
000040 07 af 83 3f 40 fe 82 3f 70 bf 82 3f d1 33 83 3f
       1.0287789 1.0233841 1.0214672 1.0250188
000050 df e8 80 3f 0e 58 81 3f 6e b7 85 3f ed 4f 80 3f
       1.0071067 1.0104997 1.0446603 1.0024391
000060 34 df 80 3f 8a f2 85 3f 8e 2f 80 3f c2 d9 7e 3f
       1.0068116 1.0464642 1.0014513 0.9955102
000070 9d fa 84 3f b5 c1 8b 3f 94 b1 83 3f 31 ff 83 3f
       1.0388981 1.091849 1.0288568 1.0312253

weight f4 [32]
000000 cc cc 8c 3f 67 66 66 3f cc cc 8c 3f ca cc 8c 3f
       1.0999999 0.90000004 1.0999999 1.0999997
000010 cc cc 8c 3f cc cc 8c 3f c9 cc 8c 3f cc cc 8c 3f
       1.0999999 1.0999999 1.0999995 1.0999999
000020 cb cc 8c 3f 6c 66 66 3f 68 66 66 3f cb cc 8c 3f
       1.0999998 0.90000033 0.9000001 1.0999998
000030 c8 cc 8c 3f 67 66 66 3f 67 66 66 3f 6c 66 66 3f
       1.0999994 0.90000004 0.90000004 0.90000033
000040 cc cc 8c 3f 6f 66 66 3f cb cc 8c 3f 70 66 66 3f
       1.0999999 0.9000005 1.0999998 0.9000006
000050 6a 66 66 3f 6f 66 66 3f c7 cc 8c 3f cb cc 8c 3f
       0.9000002 0.9000005 1.0999993 1.0999998
000060 c6 cc 8c 3f 69 66 66 3f 6c 66 66 3f cc cc 8c 3f
       1.0999992 0.90000015 0.90000033 1.0999999
000070 ca cc 8c 3f 69 66 66 3f b9 cc 8c 3f 8b cc 8c 3f
       1.0999997 0.90000015 1.0999976 1.0999922

bias f4 [32]
000000 c2 cc cc bd c7 cc cc bd c6 cc cc bd c8 cc cc 3d
       -0.09999992 -0.09999996 -0.09999995 0.099999964
000010 c1 cc cc bd bb cc cc 3d b0 cc cc 3d 38 cc cc 3d
       -0.09999991 0.09999987 0.099999785 0.09999889
000020 03 c3 cc bd af cc cc 3d c0 cc cc bd b7 cc cc 3d
       -0.09998133 0.09999978 -0.099999905 0.09999984
000030 b5 cb cc 3d b9 cc cc bd c4 cc cc 3d 90 cc cc bd
       0.099997915 -0.09999985 0.099999934 -0.09999955
000040 b7 cc cc 3d 6a cc cc bd a4 cc cc 3d 9a cc cc 3d
       0.09999984 -0.099999264 0.099999696 0.09999962
000050 bb cc cc 3d b1 cc cc 3d 8c cc cc bd 70 cc cc bd
       0.09999987 0.09999979 -0.09999952 -0.09999931
000060 8c cc cc bd 93 cc cc bd 00 cc cc 3d 97 cc cc bd
       -0.09999952 -0.09999957 0.099998474 -0.0999996
000070 87 cc cc bd ba cc cc bd ba cc cc bd 40 cc cc 3d
       -0.09999948 -0.09999986 -0.09999986 0.09999895

running_mean f4 [32]
000000 03 59 45 b9 a8 1e dd ba 24 0e 2e 3b 63 f5 89 ba
       -0.00018820543 -0.0016870098 0.0026558721 -0.0010525401
000010 8e 8c 8e 3b d3 5b c4 39 32 99 cd ba f3 ec a4 ba
       0.0043502515 0.00037452448 -0.0015685915 -0.0012582823
000020 b1 3d 91 3a b7 db 0d bb 12 30 95 3a 76 82 ad 3a
       0.0011081008 -0.0021645853 0.0011382124 0.0013237733
000030 e1 dc fa 38 dd 4a 6a b7 e3 8b 26 b9 76 00 8b ba
       0.00011962071 -1.3964917e-05 -0.00015883106 -0.0010604996
000040 a6 b9 fe 39 2e 8c 1d 3a 74 5a ba 3a a5 71 0a 39
       0.00048584974 0.0006009963 0.0014217631 0.00013203041
000050 e8 24 86 3a b8 c9 cd ba f7 23 c8 38 71 14 a6 3a
       0.0010234388 -0.0015700376 9.543442e-05 0.0012670887
000060 f4 14 04 ba e0 2f d9 39 64 9a 7c 3b c4 cf 82 3a
       -0.00050385226 0.00041425135 0.0038544172 0.0009980132
000070 3a b1 42 3a 4f 0b 36 bb fd b5 90 39 56 62 b1 ba
       0.00074269215 -0.0027777737 0.00027601412 -0.0013533335

running_var f4 [32]
000000 e6 57 7b 3f 09 96 7b 3f 89 90 7b 3f 20 ae 7b 3f
       0.98181 0.9827581 0.9826742 0.9831257
000010 f4 16 7d 3f be d4 7b 3f 0d 9f 7b 3f f1 76 7c 3f
       0.9886315 0.98371494 0.9828957 0.9861899
000020 8e 89 7b 3f 02 a4 7b 3f e5 64 7b 3f 34 72 7b 3f
       0.98256767 0.9829713 0.9820083 0.98221135
000030 34 b9 7b 3f 7e ab 7b 3f e2 86 7b 3f 38 7b 7b 3f
       0.9832947 0.9830855 0.9825269 0.9823489
000040 dd ca 7b 3f 4a 61 7b 3f ce de 7b 3f 37 b1 7c 3f
       0.9835642 0.98195326 0.9838685 0.9870791
000050 4b 5e 7b 3f 34 4b 7b 3f 19 07 7c 3f 2a be 7b 3f
       0.98190755 0.98161626 0.9844833 0.9833704
000060 0f 85 7b 3f 80 7e 7b 3f ca ad 7c 3f 8d 91 7b 3f
       0.98249906 0.982399 0.9870268 0.9826897
000070 67 f5 7c 3f a1 b4 7b 3f d0 ff 7b 3f 91 07 7c 3f
       0.98811954 0.9832249 0.98437214 0.98449045

weight f4 [32]
000000 67 66 66 3f cc cc 8c 3f 67 66 66 3f ca cc 8c 3f
       0.90000004 1.0999999 0.90000004 1.0999997
000010 69 66 66 3f c9 cc 8c 3f 69 66 66 3f 68 66 66 3f
       0.90000015 1.0999995 0.90000015 0.9000001
000020 cb cc 8c 3f 6a 66 66 3f 69 66 66 3f 71 66 66 3f
       1.0999998 0.9000002 0.90000015 0.90000063
000030 cc cc 8c 3f cc cc 8c 3f ca cc 8c 3f cb cc 8c 3f
       1.0999999 1.0999999 1.0999997 1.0999998
000040 6a 66 66 3f b9 cc 8c 3f 68 66 66 3f c4 cc 8c 3f
       0.9000002 1.0999976 0.9000001 1.099999
000050 6b 66 66 3f c2 cc 8c 3f 6b 66 66 3f c1 cc 8c 3f
       0.9000003 1.0999987 0.9000003 1.0999986
000060 76 66 66 3f 6e 66 66 3f 6c 66 66 3f cb cc 8c 3f
       0.90000093 0.90000045 0.90000033 1.0999998
000070 ca cc 8c 3f b2 66 66 3f 6c 66 66 3f ca cc 8c 3f
       1.0999997 0.9000045 0.90000033 1.0999997

bias f4 [32]
000000 b7 cc cc bd c7 cc cc bd c1 cc cc bd c8 cc cc 3d
       -0.09999984 -0.09999996 -0.09999991 0.099999964
000010 b7 cc cc bd ae cc cc 3d b3 cc cc bd d6 cb cc bd
       -0.09999984 0.09999977 -0.09999981 -0.09999816
000020 10 cc cc bd b1 cc cc 3d ad cc cc bd a5 cc cc bd
       -0.09999859 0.09999979 -0.09999976 -0.0999997
000030 59 cc cc 3d ab cc cc bd 55 cc cc 3d b3 cc cc bd
       0.09999914 -0.09999975 0.09999911 -0.09999981
000040 bf cc cc bd b8 cc cc 3d af cc cc bd 60 cc cc 3d
       -0.0999999 0.099999845 -0.09999978 0.09999919
000050 26 cc cc bd 31 cc cc 3d 50 cc cc bd 89 cc cc bd
       -0.09999876 0.09999884 -0.09999907 -0.099999495
000060 a0 cc cc 3d 78 cc cc bd 93 cc cc 3d 00 c2 cc 3d
       0.099999666 -0.09999937 0.09999957 0.0999794
000070 8c cc cc 3d ac cc cc 3d aa c7 cc bd da ca cc 3d
       0.09999952 0.099999756 -0.099990204 0.09999628

running_mean f4 [32]
000000 34 d9 7a bb 87 56 0b 3b d6 4f ce bb 4c ca da 39
       -0.0038276436 0.002126129 -0.0062961383 0.00041730923
000010 fe 09 01 3a c9 ff a4 3b b3 f2 99 bb b8 64 ed 3b
       0.00049224484 0.005035375 -0.0046981215 0.0072446726
000020 9b 40 b5 bb 3b bd 53 bb 96 39 f1 39 06 ed 53 ba
       -0.005531383 -0.0032308835 0.00046010007 -0.00080843305
000030 94 98 d4 3a e8 e7 a7 3a a3 01 94 bb 23 2f e2 39
       0.0016219788 0.0012810202 -0.0045167967 0.000431412
000040 1d 96 8d 3b ec 16 3d 3b fa 59 87 3b 88 62 55 bb
       0.0043208734 0.0028852774 0.004130599 -0.003255995
000050 df 7c 53 bb d1 65 88 ba 1a 1a 1b bb 37 88 b4 3a
       -0.0032270474 -0.001040632 -0.002366668 0.0013773505
000060 63 19 2e bb 6d 80 de ba d6 3c 40 bb 4f b7 97 3a
       -0.0026565425 -0.001697553 -0.0029333136 0.0011575016
000070 66 43 9b bb 74 0d fd ba ec be ab b9 29 0e 35 3b
       -0.004738259 -0.0019306378 -0.0003275791 0.0027626848

running_var f4 [32]
000000 21 3b 84 3f a4 f4 7e 3f a2 5a 88 3f 06 bd 7f 3f
       1.0330545 0.9959204 1.0652659 0.998978
000010 5b c6 83 3f 24 55 83 3f d8 4a 84 3f 9a de 84 3f
       1.0294908 1.0260358 1.033534 1.0380433
000020 7d 7a 86 3f 3a 3e 85 3f f6 b3 81 3f 40 76 8b 3f
       1.050613 1.0409615 1.0133045 1.0895462
000030 94 f1 83 3f 8c fb 81 3f 17 ce 80 3f f8 6c 85 3f
       1.0308099 1.0154891 1.0062894 1.042388
000040 00 a1 80 3f 67 2c 7e 3f 76 c7 84 3f 5e e4 88 3f
       1.0049133 0.992865 1.0373371 1.0694692
000050 29 15 83 3f 52 f4 83 3f 59 26 81 3f bf 2b 82 3f
       1.0240833 1.0308936 1.0089828 1.01696
000060 87 cb 85 3f 2d 28 88 3f cb c8 8d 3f 3d 0d 87 3f
       1.0452737 1.0637261 1.1076902 1.0550915
000070 2b 7e 89 3f 23 e5 81 3f 93 f8 89 3f 18 c1 80 3f
       1.0741628 1.0148052 1.0778984 1.0058928
