Experiments/2022_07_26 13-51-41 wine_100runs_learning-rate_3mv-features_custom-loss /models/Model_run79_optimizer_params0.02_flavanoids.pt (torch, 253773 bytes, 318 tensors)

weight f4 [12]
000000 00 00 80 3f 00 00 80 3f 00 00 80 3f 00 00 80 3f
       1.0 1.0 1.0 1.0
000010 00 00 80 3f 00 00 80 3f 00 00 80 3f 00 00 80 3f
       1.0 1.0 1.0 1.0
000020 00 00 80 3f 00 00 80 3f 00 00 80 3f 00 00 80 3f
       1.0 1.0 1.0 1.0

bias f4 [12]
000000 00 00 00 00 00 00 00 00 00 00 00 00 00 00 00 00
       0.0 0.0 0.0 0.0
000010 00 00 00 00 00 00 00 00 00 00 00 00 00 00 00 00
       0.0 0.0 0.0 0.0
000020 00 00 00 00 00 00 00 00 00 00 00 00 00 00 00 00
       0.0 0.0 0.0 0.0

running_mean f4 [12]
000000 00 00 00 00 00 00 00 00 00 00 00 00 00 00 00 00
       0.0 0.0 0.0 0.0
000010 00 00 00 00 00 00 00 00 00 00 00 00 00 00 00 00
       0.0 0.0 0.0 0.0
000020 00 00 00 00 00 00 00 00 00 00 00 00 00 00 00 00
       0.0 0.0 0.0 0.0

running_var f4 [12]
000000 00 00 80 3f 00 00 80 3f 00 00 80 3f 00 00 80 3f
       1.0 1.0 1.0 1.0
000010 00 00 80 3f 00 00 80 3f 00 00 80 3f 00 00 80 3f
       1.0 1.0 1.0 1.0
000020 00 00 80 3f 00 00 80 3f 00 00 80 3f 00 00 80 3f
       1.0 1.0 1.0 1.0

weight f4 [12]
000000 b1 8d 6f 3f 43 4d 6d 3f 69 2d 77 3f 4b a8 61 3f
       0.9357558 0.9269602 0.96553665 0.8814742
000010 4e 0e 87 3f ce f9 7a 3f 83 3f 95 3f 95 c2 6d 3f
       1.055124 0.9803742 1.1660007 0.92875034
000020 7a 13 87 3f 59 0c 86 3f 87 2e 72 3f 2a 4d 85 3f
       1.0552819 1.0472518 0.94602245 1.0414174

bias f4 [12]
000000 88 70 c9 bd 68 d9 0f 3c 9e 4a cb 3d 1b 46 71 bc
       -0.09835917 0.008779861 0.099263415 -0.014726187
000010 03 3e f5 3d af a2 0a 3d 92 21 96 3d 3c 30 bc 3d
       0.119747184 0.033846553 0.07330622 0.091888875
000020 69 2c 7c bd dc 63 38 be d7 38 10 be 47 94 1e bd
       -0.06156579 -0.18006843 -0.14084183 -0.038715627

running_mean f4 [12]
000000 8d 50 f5 3e a6 80 1e 40 cc 2c 50 3f 20 23 bc 43
       0.47913018 2.476602 0.81318355 376.2744
000010 7d 14 94 3f 93 e5 95 3f 87 83 47 3f e2 4e 30 3e
       1.1568753 1.1710685 0.7793507 0.17217591
000020 23 10 1a 42 76 9e a5 3f d1 d5 19 41 ba 2b ce 40
       38.51576 1.2938983 9.614701 6.4428377

running_var f4 [12]
000000 90 6a 08 3f 64 21 4c 40 f1 1b 2e 3f f4 25 46 47
       0.532876 3.189538 0.68011385 50725.953
000010 8a b4 2f 3f 66 ab 0b 3f 28 fd d6 3f 7c dd 02 3f
       0.68634856 0.5455841 1.6796007 0.5111921
000020 38 4c 69 44 9f 18 3c 3f 72 ed bc 40 da 8a 56 3f
       933.1909 0.7347507 5.903985 0.8380562

weight f4 [32, 12]
000000 56 d5 1a 3f 3d 45 0b 3f be 8b 40 3f fa 41 50 3e
       0.60481775 0.54402524 0.7521323 0.20337668
000010 e0 88 61 bf be 56 cc 3e e2 26 87 be 27 8b 9e be
       -0.8809948 0.3990993 -0.26396853 -0.3096554
000020 c4 88 2e 3d 63 85 d5 3f 59 3b 67 bf 8c b0 e8 bd
       0.0426109 1.6681331 -0.9032493 -0.11361799
000030 d9 d4 9f 3d 47 67 31 be 32 e4 b8 3e 25 9a f4 3e
       0.07804269 -0.17324553 0.361116 0.47773853
000040 81 55 39 bf 8f d7 5e be 55 62 68 3f de 4c b8 3e
       -0.72396094 -0.21761917 0.9077504 0.35996145
000050 5f 57 da 3e 23 d1 85 bc 06 57 b5 bf d0 81 4d be
       0.42644784 -0.016335076 -1.4167182 -0.20069051
000060 31 c0 42 3d 33 68 b6 3e 28 b4 4d bf 4b 62 c0 3c
       0.04754657 0.35626373 -0.8035302 0.02348437
000070 d4 e7 3e 3d 65 0e dd bf f6 5e 5e be 19 72 03 3f
       0.046607807 -1.7270018 -0.21715912 0.51345974
000080 94 c8 9f 3e 4b ee 96 3f 7f 0d c1 3e 6b 08 a5 bf
       0.31207716 1.1791471 0.3770561 -1.2893194
000090 06 e5 9d 3f 8a d2 b7 3d 3d 7e 64 3e e6 73 5f bf
       1.2335517 0.08975704 0.22313781 -0.8728622
0000a0 3e 01 98 bf 3c e8 f7 3d 40 80 ce 3d b9 7d e1 3e
       -1.1875379 0.12104842 0.100830555 0.4404123
0000b0 84 c0 26 3f 42 09 73 3f 79 09 c1 bd 44 81 16 bf
       0.65137506 0.94936 -0.09425635 -0.58790994
0000c0 9a 90 a3 bf 65 8f 77 3f 09 4f 32 3f b8 5b 1f 3f
       -1.2778504 0.9670318 0.6965185 0.62249327
0000d0 ba fa 0c 3f bc 07 0a 3f 38 26 1b bf ca 6e e0 3f
       0.5507008 0.5391805 -0.6060519 1.753381
0000e0 3c 1d b9 be 1a 1e 25 be 09 ef 10 40 7b 1e 7e 3f
       -0.36155117 -0.16124764 2.2645895 0.9926526
0000f0 6f 4b 5a bf 23 36 ad 3f fd a6 9a be 0f 37 94 be
       -0.8527135 1.3532146 -0.30205527 -0.28948256
000100 a2 78 35 bf ff 53 a4 bc ab 36 07 bf 2d 52 7f 3e
       -0.70887196 -0.020059584 -0.5281779 0.24933691
000110 c4 6a a3 be 97 6d fe be 50 96 65 bf 2c 39 6c bf
       -0.31917393 -0.49692985 -0.89682484 -0.9227474
000120 5c 43 73 bf 11 9e e6 be 57 e6 89 be b1 47 0b bf
       -0.9502466 -0.4504247 -0.26933548 -0.5440627
000130 61 e9 04 ba 20 55 92 bf 53 a7 22 bf 05 fd 21 be
       -0.00050701766 -1.1432228 -0.63536566 -0.15819176
000140 2a c9 a0 3e d0 e5 c1 bf bd 15 17 bf 86 2d 37 3e
       0.31403476 -1.5148258 -0.59017545 0.1788846
000150 57 18 d0 bd 26 b5 ca be c7 a2 1e 3b 6e e3 7a bf
       -0.101608925 -0.3959133 0.002420591 -0.9800328
000160 92 53 c2 3f e0 c0 be 3f 00 0e b1 3f e5 7b 2b bf
       1.5181754 1.4902611 1.3832397 -0.66985923
000170 f1 17 38 3f 23 b2 e0 3f 7f 39 22 bf 67 19 b3 3d
       0.7191153 1.7554363 -0.6336898 0.087450795
000180 56 07 43 3f ea 55 31 3c 3c 74 1a 3e e7 e5 5f 3f
       0.7618307 0.010823706 0.15083402 0.8746018
000190 0f 16 0a be dd 6c a9 3d 92 8a 05 3f 66 2c e7 3e
       -0.13484977 0.08272717 0.52164567 0.4515106
0001a0 bb 8f 36 3f 7e 43 8b 3e 92 fc 0e 3f 9e a9 68 3f
       0.71313065 0.2719993 0.5585414 0.90883815
0001b0 41 1c 99 3f 38 3e e3 bd 5c 46 01 3e 4c c0 75 bf
       1.1961747 -0.11095852 0.12624496 -0.95996547
0001c0 3f 80 0a be b0 57 3c 3f 6c 91 36 3f 41 c9 61 bf
       -0.13525485 0.735713 0.71315646 -0.88197714
0001d0 e6 41 0b 3e 59 94 d3 be be 1d 51 bd b8 ff 4c 3f
       0.13599357 -0.41324118 -0.051053755 0.80077696
0001e0 3f de 87 be c9 e6 f8 bd 2e 8f a8 be 2f 74 76 3f
       -0.26536748 -0.12153394 -0.32921737 0.9627103
0001f0 9d 76 b0 3e 75 36 a1 be a3 e7 3e be ed e7 a8 bd
       0.34465495 -0.3148686 -0.1864305 -0.08247361
000200 5e 7d 8d bf 5d f5 96 3c 66 6f 8e 3e 77 43 62 3e
       -1.1053884 0.018427545 0.27819365 0.22096048
000210 7d da fb bd ed 3b 8c be 68 be 68 be df bb 2e 3e
       -0.12297533 -0.2738947 -0.22728884 0.17063855
000220 48 80 9c 3f c2 61 6f bf 14 db 55 be 91 1c bc be
       1.2226648 -0.9350854 -0.20884353 -0.36740544
000230 58 7c a6 bf ae d2 33 be ac cc 9a 3e 4c a3 ef 3e
       -1.3006697 -0.17560837 0.30234277 0.46804273
000240 5e 6c c3 be 8b eb fc 3e 09 fb df bf cb 20 08 bf
       -0.38168615 0.49398455 -1.7498485 -0.5317504
000250 b7 5a 14 bf 44 e7 4e bf eb f5 93 3d 4f 23 84 be
       -0.5795092 -0.80821633 0.072246395 -0.25808188
000260 2c fa 02 bf e4 7e 1d 3f fe 8b d6 3e a7 dd d4 3e
       -0.5116298 0.61521745 0.4190368 0.41575357
000270 5b c1 0c bf 7d d0 bb 3e 9a 10 1c 3f fd 00 02 3f
       -0.5498254 0.366825 0.6096283 0.5078276
000280 ce cb 50 3f ca fb a8 3f fa c9 13 bf b3 29 cc 3d
       0.8156098 1.320184 -0.57730067 0.09968891
000290 7e cb f5 3e c1 f8 11 bf b3 be 36 bf 18 af a2 3e
       0.48006815 -0.57020193 -0.71384734 0.3177421
0002a0 87 5a a4 3e 81 4e 27 3e 79 19 6f 3f f7 f1 0a bf
       0.32100317 0.1633854 0.93398243 -0.5427546
0002b0 6c 47 ad bf 86 9b 56 bf d5 05 8e bf e5 fd fe 3e
       -1.3537421 -0.8383106 -1.109553 0.4980308
0002c0 91 db 97 3e 92 3a 10 3f e1 1e 5b 3b 2e e0 89 be
       0.29659703 0.5633937 0.0033435153 -0.26928848
0002d0 2c 2b 90 3d 97 48 87 bf d1 de 16 3f f6 45 a3 3e
       0.070394844 -1.0569028 0.5893374 0.31889313
0002e0 49 fb 5d bf f2 92 50 3f d0 52 8f 3e 63 c5 83 3e
       -0.86711556 0.8147422 0.27992868 0.25736532
0002f0 54 80 7b be bc 9b 17 bf 1f 6f ac 3e fa 7f 26 bf
       -0.24560672 -0.59222007 0.3367853 -0.65039027
000300 2d ef 20 3f 01 df ed be 45 ea 34 3f c7 b8 32 3f
       0.62864953 -0.464592 0.70669967 0.698132
000310 9a a1 97 bf bf aa a5 bf 29 10 8d bd 3d 50 88 3f
       -1.1846192 -1.2942733 -0.06887848 1.0649487
000320 1c a8 d4 bd 39 9d bb 3f 1a 04 79 bf 99 bb 30 bf
       -0.10383627 1.4657356 -0.97271883 -0.6903625
000330 5b ee 8a 3f 31 cf 0a 3b ac 60 e6 3c 56 56 c2 be
       1.085399 0.0021180625 0.028122269 -0.37956494
000340 67 a0 29 3e a0 4d 83 bf 19 e4 b3 be 8b 44 d4 3e
       0.16565095 -1.0258064 -0.35134962 0.41458544
000350 fa d6 e0 be 38 1c 56 bf 28 bf df 3e 35 23 a8 be
       -0.43914014 -0.8363681 0.43700528 -0.3283936
000360 90 b9 a8 bf 4f d3 9f 3f 23 22 e9 bd 57 21 08 3f
       -1.3181629 1.2486361 -0.11383464 0.5317587
000370 62 5e 46 3e 18 4d d2 be 83 90 f8 be 92 a9 68 bf
       0.19371942 -0.41074443 -0.48547754 -0.90883744
000380 05 42 47 3f be 92 a9 3f 67 af c4 3d d0 8c 6d 3f
       0.7783511 1.3247907 0.09603768 0.9279299
000390 d5 50 93 bf 1f e3 d0 be 8a 8b 1e bf 65 12 30 be
       -1.1509043 -0.4079828 -0.6193167 -0.17194517
0003a0 53 7a 51 bf 9c 3e 84 3d 3b 4b d2 bf da 22 e6 3e
       -0.81827277 0.06457254 -1.6429209 0.44948465
0003b0 db cf ec 3f 80 3d ce 3e 90 46 71 3f c3 af 3f 3f
       1.8500932 0.40281296 0.94248295 0.74877566
0003c0 43 6d 90 be 6c 3e 34 3e 42 96 4d 3f 04 96 8b 3e
       -0.2820836 0.17601937 0.803074 0.2726289
0003d0 a2 76 d2 3e df a0 15 3e f6 4f 7b 3e d9 93 f7 be
       0.41106135 0.14612149 0.24542221 -0.48354986
0003e0 d9 db c0 3d e3 79 37 be 67 45 30 bd d5 cb d3 bf
       0.094169326 -0.1791759 -0.043034937 -1.654658
0003f0 ea 2f e0 be e7 af c9 be d6 e8 07 3f 82 cd ee bd
       -0.43786556 -0.39392015 0.53089654 -0.11660291

weight f4 [32, 16]
000000 fd 8e ac be 17 bc c2 3f b1 24 02 3f e0 25 b4 be
       -0.3370284 1.521365 0.50837237 -0.35185146
000010 6c 3c ae bf bc e8 7c 3e 91 98 62 3f a8 85 e7 3e
       -1.3612189 0.24698156 0.8851405 0.4521916
000020 9e 21 1a 3e b1 1e 7b 3e 16 7f 51 3e a0 fd e5 3b
       0.15051886 0.24523427 0.20458636 0.00701876
000030 ab a2 49 3f e9 4e 8b be 61 ae f7 be 78 bb b8 3f
       0.78763837 -0.2720864 -0.48375228 1.4432211
000040 f8 2d 13 3f 1c e1 b1 be ae e5 69 3f c6 52 a0 3f
       0.5749202 -0.34742057 0.9136609 1.252526
000050 09 ae bb be 68 e9 0c bf 79 e9 05 bf 64 c3 85 be
       -0.36656216 -0.5504365 -0.52309376 -0.26125634
000060 4a fa 7a 3d fa 99 70 be 7e b8 0b be a7 62 0e 3f
       0.06127385 -0.23496237 -0.13644597 0.5561928
000070 c5 f8 17 3f 42 8a 30 3f bd 33 3f bf 3b 10 fe 3d
       0.5936397 0.68960965 -0.7468832 0.124054395
000080 58 b2 65 be 09 4e b3 bf b2 de be bf da 72 ce bf
       -0.22431314 -1.400819 -1.4911711 -1.61288
000090 81 e4 c6 3e b0 73 8e bf b3 5e ed bd 14 cb 0b bf
       0.3884621 -1.1129055 -0.11590328 -0.5460675
0000a0 ff 17 f2 3e 66 f8 15 3f b8 ac 0c bf da 06 e4 bf
       0.47283933 0.5858215 -0.5495105 -1.7814591
0000b0 5e 08 92 3f 19 ec 2e 3f 02 be e7 3e fb 42 1d 3f
       1.1408803 0.68329006 0.45262152 0.6143033
0000c0 ef a5 83 3e ba 3e 0e 3e fd 0e 05 bf 96 f6 ca be
       0.25712535 0.13891116 -0.51975995 -0.39641255
0000d0 f2 a1 21 3f 69 05 50 3e 97 9d b6 bd 1b d4 35 3f
       0.63137734 0.20314564 -0.089167766 0.7102677
0000e0 77 55 cb 3e 8f 21 b6 be 57 bd 64 bd 75 ba 54 3e
       0.39713642 -0.35572478 -0.05584463 0.20774253
0000f0 18 d8 c6 be 04 a4 40 3e f0 91 da bd 61 db a6 bf
       -0.3883674 0.18812567 -0.106723666 -1.3035699
000100 b2 99 59 3e 67 64 f2 3c d6 9e 90 be ea 1a 05 bf
       0.21250036 0.029588891 -0.28246182 -0.5199419
000110 53 61 56 bd c4 43 a5 be af ee 22 3f 0b 82 55 3f
       -0.05233891 -0.32278264 0.6364545 0.83401555
000120 6a 40 ca 3f 94 f2 9e 3d 3e 1f 6c bf 04 ea d4 be
       1.5800908 0.07761112 -0.9223517 -0.4158479
000130 8d 65 7b be 21 a5 ad bf 21 7c 8c be 9f c1 89 3f
       -0.24550457 -1.3566018 -0.27438453 1.0762213
000140 aa d8 16 bf 02 e8 69 bf 02 ed 1d 3f 3f ea d9 3d
       -0.58924353 -0.9136964 0.6168977 0.10640382
000150 ad 15 bd bf 39 bd 90 be 81 b1 a2 3e 0b 75 e0 3e
       -1.477224 -0.28269365 0.3177605 0.43839297
000160 6f ab 2c bf 59 47 8e bf 7b 32 8b 3e 0f 26 f1 be
       -0.67449087 -1.1115524 0.2718695 -0.4709935
000170 d8 75 e5 bf 19 41 2c be b3 ab 38 bd 14 ab 59 bc
       -1.7926588 -0.16821708 -0.04508562 -0.013285417
000180 d3 04 87 be 27 39 b5 3d 73 9f 20 be db 7c 8a 3f
       -0.26370868 0.088487916 -0.15685825 1.0819353
000190 97 8f 8e 3e 3f 8c 0a 3f 87 f3 32 3f b5 b3 46 3e
       0.27843925 0.5412025 0.69902843 0.1940449
0001a0 8b 56 bc bd 2a bd 1e 3f 41 76 73 3e 7a 45 15 3f
       -0.09196194 0.6200739 0.23775579 0.5830914
0001b0 ac d2 26 3f f5 c7 08 be 56 60 cc 3f 90 ec 47 bf
       0.6516521 -0.13357528 1.5966899 -0.7809534
0001c0 9f 2b 56 3e 16 d5 88 bf 20 37 a8 bf f6 81 a1 bf
       0.20915078 -1.0690029 -1.3141823 -1.2617786
0001d0 d2 57 c1 3e 30 d0 58 bf b4 63 07 3f cf ab 10 3e
       0.37762314 -0.8469267 0.5288651 0.1412804
0001e0 33 1a af bf 6c 6e 4c 3f 75 d2 31 bf 86 22 77 3f
       -1.367987 0.7985599 -0.69461757 0.96537054
0001f0 72 c8 8e bf eb d5 89 3c 0a 0f 1b bf 1e 10 28 be
       -1.1154921 0.016825637 -0.6056982 -0.16412398
000200 69 1f 62 bf 50 0c 47 3f e7 b2 56 bf 0e 98 16 3e
       -0.8832918 0.7775316 -0.83866733 0.14706442
000210 3f 88 8b bf cf 8d b8 3f 54 6c 3a bf 71 1d 19 3f
       -1.0900954 1.4418277 -0.72821546 0.5981055
000220 78 78 5e bf df 83 46 be 3b 6d 5d bf 8e e1 0a 3f
       -0.8690257 -0.19386242 -0.864948 0.5425042
000230 91 f9 62 3f be 6d 3d bd bf 88 77 3e 46 92 81 3e
       0.8866206 -0.046247236 0.24173258 0.2530691
000240 b2 a3 39 be 75 77 35 be 97 c9 de bf 31 fc a8 be
       -0.18128851 -0.1772135 -1.740527 -0.33004907
000250 f6 f4 27 bf 89 75 05 3f 1a e3 15 bf 91 b6 b0 be
       -0.65608156 0.5213247 -0.58549654 -0.34514287
000260 7c 47 6b 3f e1 14 67 3f 94 b6 18 bf f6 37 2e bf
       0.9190595 0.90266234 -0.5965359 -0.6805414
000270 ae 9e 0d bf 27 eb e4 be 15 e6 64 3e 66 45 1a bf
       -0.5532025 -0.44710657 0.22353394 -0.60262144
000280 75 57 80 3e 47 93 a0 bd 82 13 87 3f 28 34 14 3f
       0.25066724 -0.07840591 1.0552828 0.57892084
000290 34 2d b9 be dc 0f 8b 3d 4b a5 b3 3d e1 e9 82 3d
       -0.361673 0.06790134 0.087717615 0.06392265
0002a0 1c 38 89 be a2 fb ac bf 40 55 91 bf e6 41 73 bf
       -0.2680062 -1.3514292 -1.1354141 -0.9502243
0002b0 e6 22 10 3e 70 1f 4f bf bb aa a5 3e ef d0 23 3e
       0.14075813 -0.80907345 0.3235682 0.1599767
0002c0 32 b9 0b be 68 31 23 be 69 85 de be f8 ea 6b be
       -0.13644865 -0.15936816 -0.4346116 -0.23038852
0002d0 c9 de e0 bf 12 11 9f 3e 8a b3 65 bf 30 04 7f 3f
       -1.7567989 0.3106771 -0.8972708 0.99615765
0002e0 f1 cd 42 3f 8d f3 9b 3e 60 da de bf 56 de 91 3e
       0.7609549 0.30459252 -1.7410393 0.2848994
0002f0 d2 ec 35 bf a7 ca 29 bf 3b 58 47 be f8 80 b2 bf
       -0.71064484 -0.6632485 -0.19467251 -1.3945608
000300 05 2c 29 bc f0 83 15 3e 85 b6 66 bf be fa 87 bd
       -0.0103254365 0.14601111 -0.9012225 -0.06639622
000310 47 2a 06 3f 3f 99 63 bf bc 03 89 be 5a ac 6d bf
       0.5240826 -0.8890571 -0.26760662 -0.9284111
000320 6e 1c d2 3e 0e 6b 83 bf 97 1f 59 be 5e 85 c0 3e
       0.41037315 -1.0267045 -0.21203457 0.3760175
000330 db fc 17 bf 30 ea 52 3f fe 6c d2 3d 52 9f ac 3f
       -0.593702 0.8238859 0.10274695 1.3486121
000340 f8 d2 7a 3d 76 12 ad bf c0 0b fc bd 0f c2 67 3f
       0.06123635 -1.3521259 -0.12306929 0.90530485
000350 fa b1 b4 be 9b a3 90 bf 8b fa 6b 3f 64 31 93 3f
       -0.35292035 -1.1299928 0.92179173 1.1499448
000360 50 26 34 bd 7f 29 7a 3e c5 10 17 3f 95 09 50 bf
       -0.04398185 0.24429892 0.59009963 -0.8126462
000370 4c 81 90 bf 0b 9b 0c be 59 a8 83 3e e2 ea b4 3e
       -1.1289458 -0.13731019 0.25714377 0.3533545
000380 f2 c4 57 be f2 21 f5 3e 02 2c 3d 3e c3 f2 a5 be
       -0.21071222 0.4787746 0.18473819 -0.32411775
000390 ff 6d c3 bd 1f 87 4c bf 36 ea 20 bf 5a 43 43 3e
       -0.095424645 -0.7989368 -0.6285738 0.19068661
0003a0 37 52 a2 3b 30 78 b0 bf df 69 97 bf e9 a4 83 3d
       0.0049536484 -1.3786678 -1.1829184 0.064279385
0003b0 6b a2 42 3e b0 3a b0 3f 9b 87 57 3f dc d3 ba 3e
       0.1900727 1.376791 0.8419129 0.3648976
0003c0 f9 82 b3 be e6 5b 35 be 62 a7 79 3f 07 a6 06 be
       -0.35060862 -0.17710838 0.9752103 -0.13149272
0003d0 5e e7 71 be 47 f4 64 bf d1 0e 98 bf 33 bb a1 bf
       -0.23623416 -0.8943524 -1.1879522 -1.2635254
0003e0 53 c7 aa 3d 64 2a a5 3f 3c fc 1d be 55 07 69 3f
       0.08338799 1.2903562 -0.15428251 0.9102681
0003f0 5b d5 c9 3e 4a ea 3d be 0d 1b b3 3f fb 16 20 bd
       0.3942059 -0.18546405 1.399263 -0.039084416

weight f4 [32]
000000 07 86 62 3f 33 f9 7f 3f 9b 35 81 3f 3d 1f 56 3f
       0.8848576 0.9998962 1.0094484 0.83641416
000010 be 0c 8e 3f fa 7d 78 3f e1 4a 69 3f 9c 07 91 3f
       1.1097639 0.97067225 0.9112988 1.1330447
000020 d7 24 69 3f b8 45 86 3f 73 49 6f 3f 7f 9b 7c 3f
       0.9107184 1.0490026 0.9347145 0.9867477
000030 b3 45 83 3f f1 79 60 3f be fa 86 3f 38 cd 6e 3f
       1.0255646 0.8768607 1.054527 0.9328189
000040 fe 5d 51 3f 46 be 91 3f 33 70 84 3f 2a b4 83 3f
       0.81784046 1.1386192 1.034674 1.0289357
000050 b3 db 86 3f 2d 18 82 3f 96 46 6a 3f 1b 3c 7b 3f
       1.0535797 1.0163628 0.91513956 0.9813859
000060 c5 18 6b 3f 73 a2 81 3f 8c 67 82 3f 08 d3 7d 3f
       0.9183467 1.01277 1.018785 0.99150133
000070 f8 b5 6c 3f a3 38 82 3f cc dc 95 3f d3 82 77 3f
       0.9246516 1.0173534 1.1708007 0.96683997

bias f4 [32]
000000 af 73 ac bd 17 76 eb 3d 80 89 a0 bd c3 76 93 bc
       -0.084205024 0.11497133 -0.07838726 -0.018000966
000010 50 12 cd bb 18 48 2e 3e 8d ab 0f 3d e9 8f 91 3c
       -0.0062582865 0.17019689 0.035075713 0.017768817
000020 3c c1 28 3d 86 ff 70 3d 07 f3 bf bd 55 18 ac 3c
       0.041199908 0.058837436 -0.09372526 0.021007696
000030 e8 16 8f bd 49 ff 4d 3d 37 de e8 3d 59 11 1f 3d
       -0.06986791 0.050292287 0.11370509 0.038834903
000040 af 42 b6 bd d4 47 ea bb ce 60 46 bc 3e 31 16 be
       -0.08899438 -0.007149676 -0.012108041 -0.14667222
000050 e5 94 85 3d b1 39 89 bd 6f e6 8a bd f4 3e ac 3d
       0.0652254 -0.06700457 -0.06782233 0.08410445
000060 c7 4f 6a bd 2d 02 6a 3d 37 b0 dd bd 6f 22 80 bc
       -0.057204988 0.05713098 -0.10824626 -0.01564142
000070 c9 6a 89 3d 76 61 03 be 05 2e 50 bb 46 b0 e0 bb
       0.06709821 -0.12830147 -0.003176571 -0.006856951

running_mean f4 [32]
000000 b9 03 56 be f7 37 0d 3e f9 54 7e be c8 15 87 be
       -0.20899858 0.1379088 -0.24837102 -0.26383805
000010 46 7c 9e 3d d8 94 1e 3e e9 69 50 3e 17 a6 37 ba
       0.07738547 0.15486467 0.20352902 -0.00070056453
000020 36 bb 09 be 41 29 65 bd 82 a2 b9 3c 0b e3 9d 3d
       -0.13450322 -0.055947546 0.022660498 0.07709321
000030 33 7e 90 be ba 12 92 3e d7 a9 4e be c1 0f 9f 3d
       -0.28221282 0.28529912 -0.20181976 0.07766677
000040 18 7e 11 be c5 2f 6f 3c cd 10 63 be 5d 4a a2 be
       -0.14208257 0.0145987915 -0.22174378 -0.3169736
000050 4c 3b 19 3e 4d 88 db 3d 32 f6 d1 be ed 4e ac bd
       0.14964026 0.10719357 -0.41008145 -0.084134914
000060 a0 a2 1f bd 9d 4f aa bd 34 e7 26 be 7b 31 9c 3d
       -0.03897345 -0.08315966 -0.16299134 0.07626625
000070 59 a7 b2 3e bd 4b 3d be 15 76 5f 3d 70 a2 25 be
       0.348933 -0.18485923 0.05455597 -0.16175246

running_var f4 [32]
000000 37 32 95 40 ca 7e 2a 40 85 68 94 40 63 af 42 40
       4.6623797 2.6639886 4.6377587 3.0419548
000010 30 81 49 41 cd cc a1 40 c8 f3 ae 40 2d 8c 19 41
       12.59404 5.05625 5.4672585 9.596723
000020 e4 e9 5a 40 8f ae 01 40 e1 fd d7 3f 7d 33 42 40
       3.4205256 2.0262792 1.6874353 3.0343926
000030 46 34 92 40 d6 ba a8 40 e7 4f 86 40 d6 17 42 40
       4.568881 5.272807 4.1972537 3.0327048
000040 cd c2 e7 40 24 35 3d 40 45 45 f2 40 5e c6 ba 40
       7.2425294 2.9563684 7.5709558 5.8367147
000050 f2 cf 0f 40 5e cc 02 40 09 15 79 40 12 1e 89 40
       2.247067 2.0437236 3.891909 4.2849207
000060 91 94 16 41 e8 e2 90 40 54 fa 36 41 e4 40 85 40
       9.411271 4.5276985 11.436115 4.164171
000070 d1 10 11 41 41 3a 56 40 98 02 ac 40 c2 b0 0e 41
       9.066606 3.3473055 5.3753166 8.918154

weight f4 [32]
000000 a1 5c 80 3f 4c 18 87 3f b9 8f 81 3f bd de 7f 3f
       1.0028268 1.055429 1.0121986 0.99949247
000010 63 6c 85 3f e0 8a 95 3f 3b 30 8a 3f 42 41 6d 3f
       1.0423702 1.1683006 1.0795969 0.926777
000020 9a b7 80 3f 95 ae 8a 3f 70 53 8e 3f d9 53 8f 3f
       1.0056031 1.0834528 1.1119213 1.1197463
000030 ce 6e 71 3f 95 d0 84 3f f3 91 87 3f e4 20 8f 3f
       0.943097 1.0376154 1.0591415 1.1181912
000040 00 e6 74 3f c5 4f 6f 3f 80 6d 8d 3f 3a a7 7e 3f
       0.9566345 0.93481094 1.1049042 0.9947392
000050 7d 5e 6b 3f 9d 8a 59 3f 35 4d 69 3f b2 f5 6b 3f
       0.9194105 0.8497713 0.91133434 0.92171776
000060 af d9 7b 3f c2 ad 7f 3f 7e a8 84 3f c4 ae 8a 3f
       0.98379034 0.9987451 1.036392 1.0834584
000070 4e a8 75 3f 72 eb 92 3f 60 0f 7a 3f 6a 9b 8f 3f
       0.9595994 1.1478102 0.9767971 1.1219304

bias f4 [32]
000000 34 8d 80 3d 57 23 81 bd 49 81 7b bd 43 38 f4 bd
       0.06276932 -0.06305569 -0.061402593 -0.119247936
000010 ba d8 cb 3d 25 dc b4 3d 7f f8 89 3c 5e b3 3e bd
       0.09953447 0.08831052 0.016842125 -0.046557777
000020 49 29 4c 3d 15 f0 81 3c 17 dc 02 3e 34 15 0a 3e
       0.04984406 0.01586155 0.1277927 0.13484651
000030 86 ad 21 bd f4 fe da bd c5 6d 28 3e c7 66 30 3d
       -0.039472125 -0.1069316 0.16448124 0.043066766
000040 35 4e 2b bd 6e 42 e7 bb 54 69 39 3c 91 88 2c 3c
       -0.04182263 -0.0070574796 0.011316616 0.010530607
000050 71 6a a8 3d 85 93 39 3e f3 50 18 3e 3c 4b 3e bd
       0.08223427 0.1812268 0.1487463 -0.046458468
000060 04 23 cb 3c d8 4d f4 3d 6b ff ad 3d 28 a5 90 3d
       0.02479697 0.1192891 0.08495983 0.07062751
000070 7e b9 86 bd 4e ee 3a bc 37 67 b3 3d a4 3d f8 3d
       -0.065783486 -0.011409355 0.08759921 0.12121132

running_mean f4 [32]
000000 af 87 b7 bd 43 11 55 be a4 75 a8 be 1e d6 b4 3d
       -0.089614265 -0.20807366 -0.32902253 0.08829902
000010 cd bc 00 be bb 87 07 3e 0d 32 17 3e cf a7 ca 3e
       -0.12572022 0.13235371 0.14765187 0.39581153
000020 f1 f4 72 3e 9c 15 88 3e be 41 52 be dc 0e 7e 3e
       0.2372625 0.26578987 -0.20532891 0.24810356
000030 77 bf 7f bd ff 28 a8 3b 02 27 5e be 0c 81 7e bd
       -0.062438454 0.0051318402 -0.21694568 -0.062134787
000040 39 93 2a 3e 8b ef 28 3e 0c a8 ee 3c 20 b5 02 3d
       0.16657723 0.16497628 0.029132865 0.031911016
000050 94 1c 49 3d b9 ca a1 3c 17 47 0e 3e 40 17 10 3e
       0.04909952 0.019749986 0.13894306 0.14071369
000060 0e a7 53 be e0 5e ce bd 8d e3 9e 3d c6 c1 d2 3b
       -0.20669195 -0.1007669 0.077582456 0.006431791
000070 a1 a1 54 be 5b 69 a3 be 56 2f 94 be 85 1a 8b 3d
       -0.20764782 -0.31916317 -0.28942364 0.067921676

running_var f4 [32]
000000 a7 f0 35 40 7d ee 74 3f a8 fa 55 40 cc 51 d9 3f
       2.8428133 0.95676404 3.3434238 1.6978087
000010 74 28 b0 3f fe b5 f6 3f e4 fe a7 3f 39 4b 3c 40
       1.3762345 1.927429 1.3124661 2.9420912
000020 53 a1 cc 3f ac 83 fd 3f 48 dd 4a 40 18 49 3c 40
       1.5986732 1.9805808 3.169756 2.9419613
000030 db e5 c3 3f f9 96 0a 40 2f 16 a6 3f 7b f9 c7 3f
       1.5304521 2.1654646 1.297552 1.562301
000040 16 35 4d 3f c4 a4 00 3f a8 9e 08 40 56 35 12 40
       0.8015913 0.5025141 2.1346836 2.2845054
000050 e9 99 82 3f 02 3c c9 3f 0b 51 78 3f dd 24 fa 3f
       1.020322 1.5721438 0.9699866 1.95425
000060 ef 02 e8 3f 03 7f 3c 40 70 12 4b 40 ca 03 d5 3f
       1.8125895 2.9452522 3.1730003 1.6641781
000070 ae 3c 36 40 90 b4 d2 3f cb 39 0a 40 78 a0 d0 3f
       2.8474536 1.6461353 2.1597774 1.6298971

weight f4 [32, 16]
000000 dd bd 0a 3d a9 a2 c8 ba b6 52 2b bf 40 fa 27 3e
       0.033872474 -0.0015307266 -0.6692308 0.16404057
000010 fd 66 89 bf d5 71 0d bf 4d 1d 14 be 1d 46 c7 bf
       -1.0734555 -0.5525182 -0.14464302 -1.5568272
000020 a0 80 86 3d 79 d8 fe bd 78 f0 90 bf 88 aa cf 3e
       0.06567502 -0.12443633 -1.1323385 0.40559793
000030 cf b6 71 bf 42 f3 39 3f 67 9c 6d 3f 89 13 f3 3e
       -0.9441957 0.72636807 0.92816776 0.47475842
000040 91 eb 0d bf c3 2e 7b bf f6 0b 88 bf 2d 31 20 3e
       -0.5543757 -0.9811823 -1.062865 0.15643759
000050 39 ed 38 3e 02 8f 19 3f c8 c4 80 bf e7 e8 24 bf
       0.18059243 0.5998384 -1.0060053 -0.6441788
000060 45 43 3f 3c 10 eb a7 bf 1b 62 8f bf 97 6e 40 3f
       0.011673753 -1.311861 -1.1201814 0.75168747
000070 23 8f 9c 3e 8f cb 86 3e 49 e1 c7 3d 27 45 84 bf
       0.30577955 0.26327178 0.097597666 -1.0333604
000080 67 e0 35 bf 67 8c fa 3f b1 a8 1b bf 54 eb 57 be
       -0.71045536 1.9574097 -0.6080428 -0.21085864
000090 0b 72 23 3f 22 fe 94 3b 14 2f 5e bf b8 02 bb bf
       0.6384589 0.0045468966 -0.86790586 -1.4610205
0000a0 ab a6 0a 3c 34 a6 46 bf 7d d7 ac be 63 b9 fa 3e
       0.008462588 -0.77597356 -0.33758155 0.48969564
0000b0 69 82 39 bf ab 09 35 3f 4c 5d a1 bd c9 6b a7 bf
       -0.72464615 0.7071788 -0.07879123 -1.3079768
0000c0 8e 8c 56 bf 54 cb 98 be dd 5a 50 3f 52 fb f9 3e
       -0.8380822 -0.29842627 0.81388646 0.48824555
0000d0 1a 86 54 3f ee aa 7b bf a8 6a 00 bf 12 ef 9a bf
       0.8301712 -0.98307693 -0.50162745 -1.2104208
0000e0 b8 fd 1b 3f 4e 50 29 bd 7e 81 c2 be 35 7f bf 3e
       0.6093402 -0.04133635 -0.3798942 0.3740174
0000f0 29 53 91 3f ac f5 86 be a0 11 7f 3f 5f f8 52 be
       1.1353503 -0.26359308 0.9963627 -0.20602559
000100 44 dc d3 bf 5b 90 4a 3f f9 81 60 3e 9e 7d 83 3e
       -1.6551595 0.7912652 0.2192458 0.25681776
000110 9f 0d ca 3f a3 3f 17 be 94 de 80 be 13 8b 2a bf
       1.5785407 -0.14770369 -0.25169814 -0.6661846
000120 3d 00 0d bf 42 c4 b2 3e 89 0b 7a be 7c 7c 03 bf
       -0.5507849 0.34915358 -0.24418463 -0.51361823
000130 13 b3 47 bf 8c 78 14 bf ad 67 1f 3f 07 aa 5f 3f
       -0.7800762 -0.5799644 0.6226757 0.87368816
000140 43 8c 92 3f 32 de ae 3e 15 24 2e bf a5 06 58 3e
       1.1449054 0.34153897 -0.68023807 0.21096285
000150 2c 9e e8 3e 6f 52 e4 bb 51 3b 81 3e bd 5b 90 3e
       0.45433176 -0.0069678347 0.25240567 0.2819499
000160 a1 d5 c2 3e 38 85 44 bf 55 69 0a 3f 6a c5 ad 3d
       0.3805361 -0.76765776 0.54066974 0.08484919
000170 eb 9d 51 be fc 43 68 bf a0 ba 70 3f b6 ad c1 3e
       -0.20470397 -0.90728736 0.9403477 0.37827843
000180 16 19 76 3f fc bd 60 bf 65 41 25 3e 37 a2 a9 3f
       0.9613203 -0.87789893 0.16138227 1.3252629
000190 c0 8e 33 bf 59 35 5f be 4c eb 73 bd 44 3c 04 3e
       -0.70139694 -0.21797694 -0.05955057 0.12913615
0001a0 5c 6d e5 3f 17 a1 b5 3e 68 f2 cd 3e 9c e4 03 3c
       1.7923999 0.35474464 0.40224004 0.00805011
0001b0 0e cf 17 be f7 da 44 3f 9f e7 08 bf a5 15 e2 3b
       -0.14825079 0.76896614 -0.53478426 0.006899553
0001c0 cf f5 6c 3d 5c e3 6d bf cb f4 c5 3e b4 0b 4d 3e
       0.05785161 -0.9292505 0.38663325 0.20023996
0001d0 99 60 69 bf 86 f6 23 be 19 ab d7 bd f9 68 5c bf
       -0.9116302 -0.1601201 -0.10530681 -0.86097676
0001e0 3b 08 29 bf 1e 04 19 3f 05 8c d8 3d d4 b2 8a 3f
       -0.66028184 0.5977191 0.105735816 1.0835824
0001f0 41 dd b0 be aa db 0c 3c 15 a8 a0 bd 5e 05 24 bf
       -0.34543803 0.008597294 -0.07844559 -0.6407069
000200 cb 60 11 bf 80 28 cd be de 0e f5 bf a1 8c 29 3f
       -0.5678832 -0.40069962 -1.9145162 0.6623021
000210 8d 8a a9 3f 36 da 34 3f f0 de b3 be 12 d0 1c bf
       1.3245407 0.70645463 -0.35131025 -0.6125499
000220 38 37 13 bf bb 41 98 bf 7e a9 2a 3f 85 3a be 3f
       -0.5750613 -1.1895059 0.66664875 1.4861609
000230 a4 5c 8c 3f be 1b 26 be 5d b9 9a 3e 76 aa 7c 3e
       1.0965772 -0.1622152 0.30219546 0.246744
000240 6a 51 d2 3e 04 15 fd be c8 af 83 3f 89 f5 4c bf
       0.4107774 -0.49430096 1.0288019 -0.80062157
000250 83 83 10 bf e1 1c 25 bf f2 7f 00 3f 1d 0d 85 bd
       -0.5645067 -0.6449719 0.5019523 -0.06496642
000260 f7 9d 59 3e e1 45 96 3e 90 5b 3e be 01 28 38 bf
       0.21251665 0.29350188 -0.18589616 -0.7193604
000270 a8 fc ad be a7 d4 8b 3e 7b 16 c1 bf b2 6f dd 3e
       -0.33981824 0.27310678 -1.5084985 0.4324928
000280 33 2f a9 3f b7 2e 2f bf e0 8e cd 3e 7a 24 2d bd
       1.3217529 -0.68430656 0.40148067 -0.042271115
000290 f5 3c b6 3e 4b f3 ab 3d 47 75 99 3f 32 a9 65 bd
       0.35593382 0.08396014 1.1988915 -0.05606956
0002a0 df 42 5f 3e 9e 05 47 3f f5 d5 4d bf bb 6c 65 3f
       0.21802853 0.77742946 -0.804046 0.89619035
0002b0 18 ba d0 bd be 12 b2 3f 3c cb a4 3e 91 04 83 be
       -0.101917446 1.391197 0.32186306 -0.2558942
0002c0 1b ca 69 3e 36 d7 21 bf 87 4d 1f 3f 50 75 e9 be
       0.22831003 -0.6321901 0.6222767 -0.45597315
0002d0 da 1c 17 be c0 7e 80 3e 60 fa 6d 3f 60 5c 50 bf
       -0.147571 0.25096703 0.92960167 -0.81390953
0002e0 6f ec 11 3f d3 df 14 bd c4 bb 3d 3e 29 e7 d9 be
       0.57001394 -0.036346268 0.18528658 -0.42559174
0002f0 41 48 9d be 57 8a 9d bd ab 09 28 3f 66 12 85 3e
       -0.30719188 -0.07692402 0.6563975 0.259906
000300 bc 72 96 be 1a 7b 10 3f 33 7b cf be 37 dc 67 3f
       -0.2938441 0.5643784 -0.4052368 0.90570396
000310 af bc 07 3f e6 b2 76 3e 44 c1 8d be 33 34 56 bf
       0.53022283 0.24091682 -0.27686512 -0.836734
000320 ca 97 92 3f f1 e3 d3 3f 2a a4 a8 be b1 a6 2e bf
       1.1452572 1.6553937 -0.32937747 -0.682231
000330 5e f5 7e 3f 53 01 9d bf 35 3c 0a 3e 70 c6 9d bf
       0.9959315 -1.2266029 0.1349953 -1.2326183
000340 08 73 9b bf 39 87 0a bf 53 f6 70 3e 1b bf 8c 3e
       -1.214448 -0.54112583 0.23531465 0.27489552
000350 37 b3 28 be e5 c3 bc 3e b0 05 1d 3f b6 6e 9d 3e
       -0.16474615 0.36868206 0.61336803 0.30748528
000360 8e 85 59 3f 49 74 72 bf ab 4d 11 3d 26 5e 05 3f
       0.84969413 -0.9470869 0.03547446 0.52096784
000370 33 e2 68 bf 2b e0 ea 3d 26 08 16 bf 6f 43 92 3e
       -0.9097015 0.11468538 -0.58606184 0.28567073
000380 c6 45 fd 3d b2 fe 07 bf 19 e8 84 bf 24 81 46 3e
       0.12366824 -0.5312301 -1.038333 0.193852
000390 7c 86 1f 3f 41 f0 8b 3f 20 7f 4c 3f 6c 27 f4 bd
       0.6231458 1.0932695 0.7988148 -0.119215816
0003a0 37 7e 33 3f d7 07 73 bf 39 d4 83 3e 73 15 f1 3e
       0.70114464 -0.9493384 0.2574785 0.47086677
0003b0 49 c3 bf 3e b7 2a b8 3e f4 fb bb 3f e3 68 d0 3e
       0.37453678 0.3597009 1.4686265 0.40705022
0003c0 78 64 47 3e ce 2f 83 be 12 39 70 3f bc c4 48 3f
       0.1947192 -0.2562241 0.9383708 0.7842519
0003d0 ea df 04 3f 25 0b 33 bf 6a 7c 48 bf 9e be 0a bf
       0.51904166 -0.6993888 -0.7831484 -0.5419711
0003e0 b0 14 60 3e df 55 80 bc 7c f9 44 be c9 77 7c bf
       0.21882892 -0.015665947 -0.19235796 -0.9862028
0003f0 a3 85 90 3d dc 40 bc 3e a0 3c b8 3c ad 1d 90 3f
       0.07056739 0.36768234 0.022489846 1.1259056

weight f4 [32]
000000 c8 45 8a 3f 2d cc 59 3f 79 e3 87 3f 5f 6e 77 3f
       1.0802546 0.8507717 1.0616294 0.9665279
000010 ef 7f 6f 3f af e3 85 3f f8 32 85 3f 8a b8 87 3f
       0.93554586 1.0460109 1.040618 1.0603192
000020 17 ae 85 3f f5 e6 66 3f 9a 56 74 3f a3 34 75 3f
       1.0443753 0.9019616 0.95444643 0.9578344
000030 9e 89 67 3f a9 cd 88 3f 35 c7 53 3f 2c d5 7a 3f
       0.9044436 1.0687762 0.8272584 0.97981524
000040 bf 67 7b 3f 6a a9 61 3f 09 76 71 3f f0 a6 6d 3f
       0.9820518 0.8814913 0.9432073 0.9283285
000050 f5 b3 8a 3f 99 3b 95 3f d5 4e 81 3f 4e 58 80 3f
       1.0836169 1.1658813 1.0102183 1.0026948
000060 e0 47 86 3f d0 d9 8a 3f 87 21 6a 3f 62 d5 72 3f
       1.0490685 1.0847721 0.9145741 0.94856846
000070 42 34 82 3f 7e ce 8a 3f 72 6c 6b 3f 34 10 7b 3f
       1.0172198 1.0844266 0.9196235 0.980716

bias f4 [32]
000000 43 1a dc 3d 79 ed 31 bd f6 cc e2 3d 73 fb 39 bd
       0.107471965 -0.043439362 0.110742494 -0.045405816
000010 3d 58 8b bd 63 0f e0 bd 11 bd 28 3c f0 84 3d bd
       -0.068039395 -0.10940435 0.010298983 -0.046269357
000020 9d 2e fa 3c 79 52 24 3d 3c 70 32 bd e9 0d a5 bc
       0.030539805 0.040117715 -0.043564066 -0.020148234
000030 3c bc 21 bd 2f 99 02 bd 94 e9 9c 3b 28 61 4d 3d
       -0.039486155 -0.03188437 0.004788587 0.050141484
000040 2e 64 d1 3d 86 70 46 be 06 ae 99 3d 28 02 b6 bc
       0.10224186 -0.19378862 0.075038955 -0.022217825
000050 5f 41 7d bd 7c 83 23 bd ae 78 8d 3d 09 38 1e 3d
       -0.06182992 -0.039920315 0.069077834 0.038627658
000060 a8 e1 85 bd f1 78 fc bd f1 63 8c bb cb e1 79 bd
       -0.06537181 -0.12327755 -0.004284375 -0.06100635
000070 27 48 b3 bd e6 ee b6 3c b2 22 27 be 53 33 1e bb
       -0.08753996 0.022330713 -0.16321829 -0.0024139478

running_mean f4 [32]
000000 2f 62 6a 3e 2b 63 91 3e 01 38 8d 3d fd 3d a0 be
       0.22889017 0.28395972 0.068954475 -0.31297293
000010 b3 ef 0f be 0e 34 5c 3e ac da c9 ba 11 84 5e 3e
       -0.14056282 0.21504232 -0.0015400252 0.21730067
000020 1c 9b 0f 3f 4e ed 96 be 52 04 53 3e c4 84 0a 3d
       0.56096053 -0.29477924 0.20607117 0.03381802
000030 e9 41 ff bd 67 d0 e5 3d b6 09 e1 3e a2 d1 d1 be
       -0.12463743 0.1122139 0.4395272 -0.4098025
000040 53 e2 8d 3e a9 c6 83 be 04 1d 42 be 86 9b 74 be
       0.27711734 -0.25737503 -0.18956381 -0.23887452
000050 c5 d6 7f 3e 22 ce b1 3d ea 27 56 3e 6c 8b c3 3c
       0.24984272 0.08681895 0.20913664 0.023870192
000060 7b 73 41 be 75 f4 a2 bd f6 d7 af 3b 10 10 0f 3f
       -0.18891709 -0.07956783 0.0053663207 0.55883884
000070 71 bb ff 3b 42 96 ae 3d f1 3c 95 bd 6e 39 13 3e
       0.007804327 0.08524753 -0.07287014 0.14377376

running_var f4 [32]
000000 4e 98 c7 3f ef 65 00 40 78 0b ab 3f 68 91 dc 3f
       1.5593355 2.0062215 1.3362875 1.7231874
000010 c8 e9 d2 3f 7d 47 02 40 73 3a 88 3f 01 42 48 3f
       1.6477594 2.0356133 1.0642837 0.78225714
000020 97 f2 de 3f 4c ee b1 3f 93 d2 c5 3f a7 87 24 40
       1.7417783 1.3900847 1.5454887 2.5707796
000030 99 b1 2f 40 a6 ce 85 3f db 62 56 40 61 7b e1 3f
       2.7452147 1.0453689 3.3497837 1.7615777
000040 42 c0 58 3f de ae 24 40 5a 92 1d 40 dd 97 2b 3f
       0.8466836 2.573173 2.4620576 0.670286
000050 26 83 83 3f 76 af de 3f 3a f2 d4 3f 9c 09 09 40
       1.0274398 1.7397296 1.6636422 2.1412115
000060 f2 3e 8c 40 89 3c c7 3f df 4a f0 3f b2 21 9d 3f
       4.3826838 1.5565349 1.8772849 1.2275908
000070 ec 60 90 40 83 23 30 40 76 0e d0 3f 91 db ed 3f
       4.5118313 2.7521675 1.6254413 1.8582631

weight f4 [32, 16]
000000 51 6d 3e 3d 32 77 4a 3e d6 70 43 bf bb 2b 5a 3e
       0.04649097 0.19772032 -0.7634405 0.21305744
000010 01 d9 36 3f 52 5a ac bd 81 d2 97 bd 5d ed 25 3f
       0.7142487 -0.08415665 -0.07413197 0.6481531
000020 99 49 bd be ad af af 3e 5b 0a 5d bf ea 11 b9 3f
       -0.36970213 0.34313717 -0.86343926 1.4458592
000030 75 80 f2 be 68 e6 b9 3d 2d 18 69 3d a1 ec 86 3e
       -0.4736363 0.0907715 0.05690782 0.2635241
000040 6e 77 06 bd cd 9f 04 bf 90 4a 8f be db e6 11 3c
       -0.03282874 -0.51806337 -0.27986574 0.008905138
000050 aa ef f6 bd 02 e2 ff be 25 25 1c bf 06 1c 55 bf
       -0.12057431 -0.49977118 -0.6099418 -0.83245885
000060 8e 98 6a 3e 4c 10 34 bf 90 b5 63 bf 7e 33 9b bf
       0.22909757 -0.7033737 -0.8894892 -1.2125089
000070 9e ab 65 3e 55 29 4c bf 93 ec dc 3e f9 9f 70 bf
       0.22428748 -0.7975057 0.43149242 -0.939941
000080 de b2 ec be fe 5b 38 be ec 45 e2 3d 51 52 c5 3e
       -0.46230215 -0.18003842 0.11048493 0.38539365
000090 56 be 6e be a1 07 cd 3e cf cd 26 bf 17 74 f8 be
       -0.23314795 0.40044883 -0.6515779 -0.4852607
0000a0 35 f1 47 bc 38 19 8d 3e 64 b1 93 be e9 38 74 3e
       -0.012203504 0.27558303 -0.28846276 0.23849835
0000b0 84 df 08 3f 2b 42 55 3f 9b 36 88 be fd 04 ac bd
       0.5346606 0.8330409 -0.2660416 -0.08399389
0000c0 73 73 98 be b3 a7 9a bf f8 e7 75 3e 54 f2 3e bf
       -0.2977558 -1.2082428 0.2401427 -0.74588513
0000d0 9b 7d 1c 3e 82 16 aa 3f df dd 26 3e cc 83 31 bf
       0.1528229 1.3288119 0.16295575 -0.6934173
0000e0 f9 9a 3d 3f 2c 60 01 c0 37 11 0f bf 3c 24 4d 3d
       0.74064595 -2.0214949 -0.5588564 0.050083384
0000f0 8a f5 7b bf aa 41 5a bf 00 d7 b8 3f e7 dd 13 3f
       -0.9842154 -0.85256445 1.4440613 0.5776047
000100 b5 b2 4f be cd ac 79 3f 2a 41 98 3f 14 c2 37 3f
       -0.20283015 0.975293 1.1894886 0.71780515
000110 23 5f 6c bf 70 24 07 3e 42 18 40 bf ea 38 b4 3f
       -0.9233267 0.13197494 -0.75037014 1.4079869
000120 50 ab cc bd c1 3c 56 3d 10 92 39 3f b6 a4 aa 3c
       -0.09993613 0.052304033 0.724885 0.020830493
000130 11 3b f6 bd f9 d3 83 bf fd 06 a9 3e 3c 74 ec be
       -0.12022985 -1.0299064 0.33013144 -0.4618243
000140 51 5c 95 3e 42 ce b3 3e d0 2b da 3f 9c 54 22 bf
       0.29171994 0.351183 1.704462 -0.63410354
000150 27 11 9a be 49 c9 ee 3c ff d9 c4 be a9 47 33 3f
       -0.3009121 0.029148715 -0.38447568 0.7003122
000160 a1 50 2a bf a8 c3 64 3f e2 56 a8 3e 15 8c 7f bf
       -0.6652928 0.8936105 0.32878786 -0.99823123
000170 69 7a 41 3f 80 d8 ff 3f 43 fd 8d be c4 56 51 3f
       0.7557741 1.9987946 -0.27732286 0.8177302
000180 35 04 7f bf 24 40 2c 3f e5 99 20 bf 09 4c 05 3c
       -0.99615794 0.6728537 -0.62734824 0.008135804
000190 fa f9 19 3f 40 29 29 3f ea a4 8c 3e e4 cb f7 3f
       0.6014706 0.6607857 0.2746957 1.9359097
0001a0 7c e7 b4 3f d1 37 c9 be 2a 0c 17 3e a0 6b ca bf
       1.4133143 -0.39300397 0.14750734 -1.5814095
0001b0 be 9d 4f bf 8e 1b 2f 3f 61 e4 f3 3e 86 e2 8a 3d
       -0.8110007 0.6840142 0.47635177 0.06781487
0001c0 c6 fd 14 3f 72 85 bb 3f 30 7b 8d 3e fd 26 0a 3f
       0.5819973 1.4650099 0.27633047 0.5396574
0001d0 12 27 95 be 9a 1d 7b bf 95 7a c6 be 0f 5c 7d be
       -0.2913137 -0.98092043 -0.38765398 -0.24742149
0001e0 e7 83 a3 3f 18 57 37 bf a8 72 0d 3f 58 e8 6a 3d
       1.2774628 -0.7161727 0.55253077 0.057350487
0001f0 fa bf 63 3f d2 bb 35 bf 77 b6 68 bf 1e 51 2a bf
       0.8896481 -0.70989716 -0.9090342 -0.66530025
000200 ca 5c 0d 3e f8 83 11 3e 06 b8 0a be f6 6f e3 3d
       0.13804927 0.14210498 -0.13546762 0.11105339
000210 dc 78 9a be ff 63 ca be e2 59 08 3f ed 75 b3 bd
       -0.30170333 -0.39529416 0.5326215 -0.08762727
000220 ec af e7 3e 6c 2f 0c 3f 79 00 12 3f f9 a4 0a 3f
       0.45251405 0.5475986 0.5703197 0.5415798
000230 de e0 a1 3d e4 3f 76 bf 70 71 7a 3e 68 9b 40 3d
       0.07904218 -0.9619124 0.24457335 0.047023207
000240 83 ca 1f 3f 0f 3c fe 3b 95 f7 9c be 4a 29 24 3f
       0.62418383 0.0077586244 -0.3065764 0.641255
000250 03 20 33 3f c8 1c a0 3e 91 e6 66 3f 1a 5c df 3f
       0.6997072 0.31271958 0.90195566 1.7449982
000260 e0 6d a8 be b9 86 17 3f f7 20 16 bf bb 49 11 3e
       -0.32896328 0.59189945 -0.5864405 0.14188282
000270 cb 97 ac be d1 66 c0 bd ec ab 9a 3e d8 6e 03 3f
       -0.3370956 -0.09394611 0.3020929 0.5134101
000280 6e 5f 18 3e 2d 9d 28 bd 71 d5 77 bc 44 05 5e bf
       0.14880154 -0.04116552 -0.015126572 -0.86726785
000290 ad c9 3f bd 53 13 0a bf 5c d1 ca be 20 36 7f 3e
       -0.046823192 -0.53935736 -0.39612854 0.24922991
0002a0 e4 f9 92 3d 6a 79 50 bf 22 ac 24 3f d8 f0 2a 3f
       0.07176569 -0.81435263 0.64325154 0.6677375
0002b0 fe 52 43 bf cb bb 1b 3f ac c1 04 3f 1c ce cb 3e
       -0.7629851 0.60833424 0.5185802 0.39805686
0002c0 fa d4 29 be 98 51 d9 3e 72 ca ec be 2d 81 8a bf
       -0.1658515 0.42445064 -0.46248204 -1.0820671
0002d0 3e cc 18 3f 0c 6e 4c bf b8 b5 81 3e 80 35 37 bf
       0.5968665 -0.7985542 0.25333953 -0.7156601
0002e0 44 2f 2a 3e ee c4 9b 3f cc 0e e6 3e 18 95 97 be
       0.16619593 1.2169473 0.44933164 -0.29605937
0002f0 dd ba 47 3f 0e fd d0 be 01 50 0a be 31 ca 07 bf
       0.78019506 -0.40818065 -0.13507082 -0.53042895
000300 a5 2b ef bf 9b 56 f1 3e ef 4b 39 be 28 fd b1 3e
       -1.8685194 0.47136387 -0.18095373 0.34763455
000310 a2 f3 f5 be 45 e2 1e bd f9 26 5c bf e1 61 bc 3f
       -0.4803744 -0.038790006 -0.8599697 1.471737
000320 6b 44 51 bf 2e d9 8a 3f 62 25 59 3e a8 c4 6b 3e
       -0.8174502 1.0847528 0.21205667 0.23024237
000330 73 41 f3 3e 53 4d 7f bf 20 de 00 be 02 5d 59 3e
       0.4751087 -0.9972736 -0.12584734 0.21226886
000340 1d e1 59 3d 25 2c 8f 3e f9 45 94 be 98 12 8b be
       0.0531932 0.27963367 -0.28959635 -0.27162623
000350 6e 50 86 be 2d 51 9b bf 48 ac 89 3e db c7 27 bf
       -0.26233238 -1.2134148 0.26889253 -0.6553933
000360 c3 49 8a 3e ea e8 6f bf 75 fb c0 3c 6d 2d 49 be
       0.270094 -0.93714774 0.023557404 -0.19646235
000370 ec d3 51 be cc ba d0 bf a7 6a 18 bf 72 14 68 bd
       -0.20490998 -1.6307006 -0.5953774 -0.056660123
000380 f7 c7 5b bf 07 cf 33 3f f5 8f d5 3d 44 da 3f 3f
       -0.85852 0.70237774 0.10427848 0.7494242
000390 78 e4 e2 be 87 9c 67 bd ec d6 01 bf 4a 07 80 b9
       -0.44314933 -0.05654576 -0.5071857 -0.00024419493
0003a0 89 8b 1b be 57 1f 32 3e c4 cf 57 3e 46 b2 81 be
       -0.15189947 0.17394768 0.2107535 -0.25331324
0003b0 67 74 e2 bf a5 fb 0c bf 57 9c c2 be 92 48 09 3e
       -1.7691773 -0.5507148 -0.38009903 0.1340659
0003c0 ef 60 19 3f ae 96 ba 3e 6a 88 e8 3e 4f a9 24 bf
       0.59913534 0.36443084 0.45416576 -0.64320844
0003d0 ac 57 29 3f ea 7b f2 3f 7c 07 93 be a8 88 a1 bd
       0.661494 1.8944066 -0.28716648 -0.07887393
0003e0 3a fb 3c be d9 09 29 3e 1a 4c 80 be 0f cd 36 bf
       -0.1845521 0.16507663 -0.2505806 -0.71406645
0003f0 a0 3a 43 3e 22 b0 61 bf 64 78 f0 3e 96 74 91 3e
       0.19065332 -0.8815938 0.4696685 0.2840926

weight f4 [32]
000000 00 00 80 3f 00 00 80 3f 00 00 80 3f 00 00 80 3f
       1.0 1.0 1.0 1.0
000010 00 00 80 3f 00 00 80 3f 00 00 80 3f 00 00 80 3f
       1.0 1.0 1.0 1.0
000020 4a 1a 8b 3f 8c 0e 65 3f f3 f3 7e 3f a0 be 6a 3f
       1.0867398 0.8947532 0.99590987 0.9169712
000030 8e 28 84 3f e5 e2 76 3f 0b 6a 8e 3f 53 eb 8c 3f
       1.0324876 0.96439964 1.1126112 1.1009315
000040 00 00 80 3f 00 00 80 3f 00 00 80 3f 00 00 80 3f
       1.0 1.0 1.0 1.0
000050 00 00 80 3f 00 00 80 3f 00 00 80 3f 00 00 80 3f
       1.0 1.0 1.0 1.0
000060 53 06 98 3f 3c 71 5e 3f de 09 58 3f b7 c1 81 3f
       1.187693 0.8689153 0.84390056 1.0137242
000070 a7 ff 7a 3f f9 30 80 3f 2d 38 74 3f b4 4a 87 3f
       0.98046345 1.0014945 0.9539822 1.0569673

bias f4 [32]
000000 00 00 00 00 00 00 00 00 00 00 00 00 00 00 00 00
       0.0 0.0 0.0 0.0
000010 00 00 00 00 00 00 00 00 00 00 00 00 00 00 00 00
       0.0 0.0 0.0 0.0
000020 ad 26 01 be a2 a6 b8 3d 27 e3 7e bd 73 34 cb 3c
       -0.1261241 0.09016158 -0.062228348 0.024805283
000030 53 79 51 3c 8f 36 4d 3d da 83 db bd 43 77 bf 3d
       0.012785274 0.05010086 -0.10718508 0.09348919
000040 00 00 00 00 00 00 00 00 00 00 00 00 00 00 00 00
       0.0 0.0 0.0 0.0
000050 00 00 00 00 00 00 00 00 00 00 00 00 00 00 00 00
       0.0 0.0 0.0 0.0
000060 96 36 b1 3c 21 e0 73 bd 45 a9 a2 3c 90 83 a7 bd
       0.021632474 -0.059539918 0.019856105 -0.081793904
000070 be 0d 5c 3d be 78 b0 bd 42 d5 de 3d 63 4f 62 3d
       0.053724043 -0.0861678 0.108805194 0.05525149

running_mean f4 [32]
000000 1b db 0e 3e e7 c3 18 3d c4 72 47 bd ea 1c 51 3e
       0.1395077 0.037296202 -0.048693433 0.20421186
000010 eb 31 80 be 25 b0 ba be 1d 36 9a be 9b 8e 68 be
       -0.25038084 -0.36462513 -0.3011941 -0.2271065
000020 e1 1b ca 3c 13 2e 17 3d bc 15 c4 3d df 0c 30 be
       0.024671497 0.036909174 0.09574458 -0.1719241
000030 2f 3c 85 be d8 62 c0 3d f7 57 65 3d 3c ca 42 be
       -0.2602248 0.09393853 0.055992093 -0.19022459
000040 6c 47 43 3d 87 78 e9 3e d0 3f 43 bc 40 dd 24 be
       0.047675535 0.45599768 -0.01191707 -0.16100025
000050 88 9e 8d 3d c0 03 cd 3d 87 87 8b 3e 31 e5 b1 bd
       0.06915003 0.10010481 0.27251837 -0.08686293
000060 ca 39 d0 3d 83 d6 8d bd 0d 41 cb 3d 3c 05 fa bd
       0.101672724 -0.069256805 0.09924517 -0.1220803
000070 ad d0 5d 3d 9b 6f 3b be 33 46 09 3c 35 03 3b 3e
       0.054154087 -0.18304293 0.008378553 0.18262942

running_var f4 [32]
000000 4f 64 45 3f 5c 3a a9 3f 7e a0 15 3f 20 92 02 41
       0.77106184 1.3220935 0.58448017 8.160675
000010 bc 8d 07 40 f3 7b 0a 40 16 8a 19 40 21 b4 c0 3f
       2.1180258 2.1638153 2.399053 1.5054971
000020 95 30 6a 3f e4 52 b6 3f 04 72 c9 3f c0 88 16 40
       0.9148038 1.4244046 1.573792 2.3520966
000030 a5 d5 79 40 50 f6 94 3f 0d a4 56 3f 8d b1 17 40
       3.9036648 1.1637669 0.8384407 2.3702118
000040 ed e8 ab 3f ac 1e 55 40 d0 b2 f2 3f e5 4e e9 3f
       1.3430458 3.329997 1.8960819 1.8227202
000050 53 b4 7e 3f a9 40 c2 3f 44 2a 57 40 59 fc 41 3f
       0.994939 1.5175983 3.3619547 0.75775677
000060 a9 21 0c 40 92 8d 10 40 f9 2b 88 3f 8c 9a 62 3f
       2.1895545 2.2586408 1.0638419 0.8851707
000070 e1 5d 25 40 e6 65 4e 40 f9 6a 2d 40 b4 9e 0c 40
       2.583855 3.2249694 2.709654 2.1971865

weight f4 [32]
000000 02 1b 53 3f 98 d2 71 3f 9d d4 86 3f dd e1 80 3f
       0.82463086 0.94461966 1.0533634 1.0068928
000010 1a 17 91 3f eb 8f 4d 3f 29 e0 7e 3f d3 6d 7e 3f
       1.1335175 0.80297726 0.9956079 0.9938633
000020 4b 6b 7b 3f 76 a4 89 3f 16 1f 83 3f 07 a1 84 3f
       0.9821059 1.0753314 1.0243862 1.0361642
000030 d6 e5 6c 3f e9 6a 7b 3f 22 21 83 3f ca 65 77 3f
       0.925382 0.98210007 1.0244486 0.9663969
000040 9c 13 62 3f 31 d4 6c 3f b5 35 66 3f c9 a3 85 3f
       0.8831117 0.9251128 0.899257 1.0440608
000050 a2 c3 83 3f 04 32 6b 3f f9 88 86 3f 5f f3 6a 3f
       1.0294077 0.9187319 1.0510551 0.91777605
000060 59 78 5a 3f 54 dd 89 3f b3 4e 7d 3f 21 61 81 3f
       0.85339886 1.0770669 0.9894821 1.0107766
000070 3d f3 65 3f 20 fb 79 3f d9 67 97 3f 8f 80 80 3f
       0.8982428 0.9764881 1.1828567 1.0039233

bias f4 [32]
000000 cf 7f 70 3c ba 33 58 be dd e6 97 bd 03 82 1c 3e
       0.014678909 -0.21113482 -0.074170806 0.1528397
000010 ca 1a 0a be 3c 56 cb bc dc 79 ba bd 38 9c f8 3c
       -0.13486782 -0.024821393 -0.09105274 0.030347928
000020 ff 02 ab 3d 13 eb 3c 3c 9d fd 6f 3d eb ef 21 bc
       0.08350181 0.011530655 0.058591474 -0.009883861
000030 1b 46 82 3d c6 2b 61 3c 10 2e bc 3c 76 55 d6 bd
       0.06361028 0.013743347 0.022971183 -0.10465519
000040 55 0a ae 3c 13 20 79 bc 12 86 0a 3e 33 37 78 3d
       0.021245161 -0.015205401 0.13527706 0.060599517
000050 b5 0b 16 3e c9 7d 36 be 9f e7 86 bc 36 78 c7 3d
       0.14652903 -0.1782142 -0.016467867 0.09739725
000060 30 c1 8c 3d f2 b5 34 3d f0 cc 66 bc 4f 63 b7 3d
       0.06872785 0.04411883 -0.014086947 0.089544885
000070 97 b0 8f bd b2 55 10 3e 4a 20 b7 bd aa 95 43 bc
       -0.07016104 0.1409519 -0.089417055 -0.011937538

running_mean f4 [32]
000000 67 7e 24 bd d3 a9 dc bd 02 a0 8d bd a0 69 d1 bd
       -0.04015961 -0.10774579 -0.06915285 -0.102252245
000010 e1 62 c8 3d c8 3d 4c 3e 59 1d 35 3e 0c 84 52 be
       0.09784485 0.19945443 0.17686976 -0.20558184
000020 fa 37 1c be 3f 0e 9f bd 0b 37 02 3c eb de 0e 3d
       -0.15255728 -0.07766389 0.007947694 0.03488056
000030 f4 74 5d bd 9e 07 37 3e 59 45 a0 3d ea 97 3a bd
       -0.054066613 0.17874 0.07825727 -0.045555033
000040 2c eb 07 be a7 a9 4b 3d db 12 10 3d cb 5b f5 3d
       -0.13273305 0.04972234 0.035174232 0.11980399
000050 a0 50 d5 3c ea e0 14 3e f0 dc f2 bb 7a 51 02 3e
       0.026039422 0.14538923 -0.0074115917 0.12726393
000060 6e 39 ac 3c eb 4d 28 3d 49 a7 65 3e 76 51 b5 bb
       0.021023478 0.041089933 0.22427095 -0.0055333925
000070 b8 dc 4e 3e 14 e8 38 3c 3c e4 07 be ac 81 56 bd
       0.20201385 0.0112858005 -0.13270658 -0.05236976

running_var f4 [32]
000000 a4 b4 e4 3e 8a 13 04 3f a2 75 de 3e a8 d5 c2 3e
       0.44669068 0.51592314 0.43449122 0.38053632
000010 63 69 40 3f 9c ad e3 3e 20 99 f0 3e 25 20 55 3f
       0.7516081 0.4446839 0.46991825 0.83252174
000020 58 95 ac 3e 53 c0 d3 3e 2a a0 9d 3e a9 48 b9 3e
       0.3370769 0.4135767 0.30786258 0.36188248
000030 f5 e0 af 3e b2 95 e0 3e b7 52 0c 3f 5f 53 b5 3e
       0.34351316 0.43864208 0.5481371 0.3541517
000040 6c ea 01 3f 4a c6 bc 3e 9e f4 f7 3e 8b 21 6b 3f
       0.50748324 0.36870033 0.48428816 0.9184806
000050 23 ef 9a 3e e7 51 d5 3e 3e 3e fe 3e b5 b2 00 3f
       0.30260572 0.4166405 0.49656862 0.50272685
000060 0a f1 ae 3e 23 6d ba 3e 92 5f 9b 3f c8 a2 af 3e
       0.34168273 0.3641139 1.2138541 0.3430388
000070 b5 e4 08 3f 43 78 c0 3e ae 74 3b 3f 10 e4 0c 3f
       0.5347398 0.37591752 0.73224914 0.55035496

weight f4 [32]
000000 4c d1 6a 3f 2a 2b 7e 3f 88 91 7f 3f 46 8c 8c 3f
       0.9172561 0.99284613 0.9983144 1.0980308
000010 0d 6f 74 3f 20 1d 7a 3f 80 eb 7f 3f cf 27 78 3f
       0.9548195 0.9770069 0.9996872 0.96935743
000020 20 5a 80 3f 8b 19 76 3f 9b 33 7c 3f 40 4d 91 3f
       1.0027504 0.96132725 0.98516244 1.13517
000030 ef 15 89 3f 09 8b 81 3f 36 63 6d 3f 4b 75 8e 3f
       1.0709819 1.0120555 0.9272951 1.1129545
000040 d0 89 6f 3f 7b de 70 3f 7d 79 8c 3f 3f 56 83 3f
       0.9356966 0.9408948 1.0974575 1.0260695
000050 cd 90 71 3f be 34 69 3f 30 c8 7f 3f 1b c7 6d 3f
       0.94361573 0.91096103 0.99914837 0.92881936
000060 3e a0 70 3f 22 f4 8b 3f 9c a3 6e 3f 52 28 50 3f
       0.9399451 1.0933878 0.932184 0.81311524
000070 64 53 80 3f b1 26 74 3f 96 a4 87 3f 4d aa 76 3f
       1.0025449 0.9537154 1.0597103 0.9635361

bias f4 [32]
000000 fa db ab bd b2 fd 3e be 7d b9 94 bd 65 50 16 3e
       -0.083915666 -0.18651465 -0.072619416 0.14679106
000010 c4 3c 2c be 6d 5d 03 3e d4 5c 0a be 8f 37 3a 3d
       -0.16820055 0.12828608 -0.13511974 0.04546314
000020 1d 78 66 3d f9 21 81 3d 71 9d 49 be 8c f4 3f 3d
       0.056266893 0.06305308 -0.19688965 0.046864077
000030 5a b5 37 3d 52 5c 5e bc 1d 39 2c 3d 22 83 bc 3d
       0.044850685 -0.013571816 0.042046655 0.09204699
000040 f3 37 89 bd b9 e1 ff 3c 01 a7 06 be 17 04 e8 3d
       -0.067001246 0.031235563 -0.13149644 0.11328905
000050 a9 2f 30 bd e2 c6 87 3c b6 dd d7 bc 26 b7 da bc
       -0.043014202 0.016574327 -0.026350837 -0.02669866
000060 a4 72 1b 3e 1a 7e 1f bd 6d 3e a8 3c b3 09 5a 3e
       0.1518045 -0.03893862 0.02053758 0.21292762
000070 51 d7 eb 3d 1e 76 02 3e 92 ad fb bd 95 2d df 3d
       0.11515678 0.1274037 -0.12288965 0.10897366

running_mean f4 [32]
000000 8c c2 84 be 3f 08 7e 3e 39 24 58 be e5 97 e0 3c
       -0.25929677 0.24807833 -0.21107568 0.027416179
000010 80 c8 0b be 83 47 b0 3e ab ce 2e be c1 fd f6 3c
       -0.13650703 0.3442956 -0.17071025 0.030150296
000020 c3 68 35 be 9b 48 df 3b af 8f a4 3d 12 48 12 3e
       -0.17715745 0.006814075 0.08035218 0.14285305
000030 88 9c 15 bd 66 7e fa 3d b3 e3 48 be af 8d 00 be
       -0.036526233 0.1223114 -0.1961811 -0.12554048
000040 5b b8 b7 3b 4c d3 1d bd c5 72 97 3e 5e 92 a4 be
       0.0056066937 -0.038531587 0.2957975 -0.3214292
000050 78 6c a6 be 29 93 46 be 1c 1f 8b bd bd ff 2e 3d
       -0.3250463 -0.19392075 -0.06793043 0.04272436
000060 7c ec 05 be 3e b1 d9 bd 5f 47 a9 3d 2c f7 6d be
       -0.13078493 -0.106295094 0.08265566 -0.2323882
000070 18 39 12 be 25 ae 94 be 3a b1 ae 3e dd 5c 4b bd
       -0.14279592 -0.29039112 0.34119588 -0.04964911

running_var f4 [32]
000000 65 43 2b 40 7a 83 96 3f c6 9e 25 40 96 74 4c 3f
       2.6759884 1.1758873 2.5878158 0.79865396
000010 ec 9f 9f 40 b8 76 11 40 53 80 7f 3f 0e 33 38 40
       4.9882717 2.272871 0.9980518 2.8781161
000020 2a 68 f2 3f d2 dc 76 40 e2 18 f9 3f 41 27 c7 40
       1.8938038 3.8572278 1.9460719 6.2235417
000030 f4 e9 b0 3f 30 b5 f3 3f 26 0c 5f 3f 54 d3 fa 3f
       1.3821397 1.9039669 0.8712791 1.9595742
000040 97 32 6e 3f 40 de 2f 3f 0d 6e 3d 40 59 b0 a4 40
       0.93045944 0.686985 2.959842 5.146527
000050 97 0c 87 3f 46 09 28 40 53 1c 64 3f 62 76 f0 3f
       1.0550717 2.625566 0.8910572 1.8786128
000060 32 ac 38 40 a6 0a 37 40 e2 97 f4 40 9f 3e c8 3f
       2.88551 2.860025 7.6435404 1.564411
000070 c9 c4 b0 40 f2 5c e6 3f f6 51 a1 40 3b 92 04 40
       5.5240216 1.7997115 5.041255 2.0714252
