Experiments/2022_07_26 13-51-41 wine_100runs_learning-rate_3mv-features_custom-loss /models/Model_run26_optimizer_params1.0_flavanoids.pt (torch, 258189 bytes, 318 tensors)

weight f4 [12]
1.0 1.0 1.0 1.0 1.0 1.0 1.0 1.0
1.0 1.0 1.0 1.0
00000000: 0000 803f 0000 803f 0000 803f 0000 803f
00000010: 0000 803f 0000 803f 0000 803f 0000 803f
00000020: 0000 803f 0000 803f 0000 803f 0000 803f

bias f4 [12]
0.0 0.0 0.0 0.0 0.0 0.0 0.0 0.0
0.0 0.0 0.0 0.0
00000000: 0000 0000 0000 0000 0000 0000 0000 0000
00000010: 0000 0000 0000 0000 0000 0000 0000 0000
00000020: 0000 0000 0000 0000 0000 0000 0000 0000

running_mean f4 [12]
0.0 0.0 0.0 0.0 0.0 0.0 0.0 0.0
0.0 0.0 0.0 0.0
00000000: 0000 0000 0000 0000 0000 0000 0000 0000
00000010: 0000 0000 0000 0000 0000 0000 0000 0000
00000020: 0000 0000 0000 0000 0000 0000 0000 0000

running_var f4 [12]
1.0 1.0 1.0 1.0 1.0 1.0 1.0 1.0
1.0 1.0 1.0 1.0
00000000: 0000 803f 0000 803f 0000 803f 0000 803f
00000010: 0000 803f 0000 803f 0000 803f 0000 803f
00000020: 0000 803f 0000 803f 0000 803f 0000 803f

weight f4 [12]
0.2875907 -1.5699707 -0.1706804 -5.5306864 -6.313084 4.7843914 4.8527117 6.720696
4.277287 0.19920592 -4.1118717 1.364918
00000000: 173f 933e cdf4 c8bf d8c6 2ebe 62fb b0c0
00000010: c904 cac0 bc19 9940 6a49 9b40 f10f d740
00000020: 89df 8840 a3fc 4b3e 7494 83c0 a2b5 ae3f

bias f4 [12]
-6.1411276 -3.332788 -4.418486 3.890649 -2.9655626 2.5359845 2.2485423 -1.7767749
6.822947 -3.2171464 -3.097435 0.92995733
00000000: 1e84 c4c0 664c 55c0 3d64 8dc0 6500 7940
00000010: c7cb 3dc0 924d 2240 1ee8 0f40 5c6d e3bf
00000020: 9555 da40 bae5 4dc0 603c 46c0 af11 6e3f

running_mean f4 [12]
1.6213602 0.67259574 13.5580435 9.157531 1.8707907 1.1429611 56.154205 524.81934
0.2503691 3.4686964 1.6695572 1.1587923
00000000: bb88 cf3f 3c2f 2c3f bfed 5841 3f85 1241
00000010: 1276 ef3f 8d4c 923f e89d 6042 7034 0344
00000020: 6130 803e 1fff 5d40 0db4 d53f 4e53 943f

running_var f4 [12]
0.56391674 0.3310275 7.835196 0.78224057 0.6334555 0.5415419 1252.8975 69443.46
0.30715433 3.8959768 0.3507484 2.096014
00000000: d95c 103f 707c a93e edb9 fa40 eb40 483f
00000010: 242a 223f 7da2 0a3f b89c 9c44 bba1 8747
00000020: 5543 9d3e af57 7940 4b95 b33e 1825 0640

weight f4 [32, 12]
-3.4026773 -0.052081257 4.719943 4.1328835 -4.0254626 2.200034 -5.406996 1.4817655
-4.342409 -1.911679 -3.7133846 5.062923 -0.3843236 -4.7389684 4.838056 4.932142
-2.5768268 4.210484 1.8674513 4.7806106 3.231676 4.3475747 4.5941567 5.431114
5.1984243 -3.873197 3.6725283 -4.343994 -6.305125 1.4447865 -1.9203968 -3.6937737
6.0414367 5.9217873 3.4373631 -1.3276352 4.61641 4.08314 -4.0638905 3.9233716
-5.1096764 4.106378 7.387449 4.353763 -4.8898735 1.5058864 3.2924218 -5.547876
-7.4080195 4.0204186 4.6824145 -5.108867 2.1679375 -1.332564 2.4246519 5.8249726
-2.399546 0.73437816 -2.4955082 7.5365825 1.6694872 4.654028 -4.454068 -3.5735862
5.446616 -4.6233225 -1.7357969 5.1470356 -1.6314241 0.112281665 0.05101278 2.8342624
2.8594024 7.549315 7.115872 0.94808936 5.483238 -6.5247283 1.4055253 4.310652
5.3025 -2.1640933 -6.227443 -3.5198836 -4.48166 -0.77714324 3.9392602 0.37976572
-1.4469069 2.0309637 7.3246703 -4.6458516 3.3635998 3.4596374 5.210452 2.0667303
5.6658263 4.4470754 -4.4047937 -2.9028509 -2.2964866 2.8315892 2.16761 6.3379707
-5.4115815 0.93160284 3.086231 -4.679766 0.6438653 7.3393435 4.525758 0.32849523
1.8278857 8.356723 2.7689588 4.4865284 -4.4445744 -5.530638 -4.2911143 -2.7976062
1.1713796 -4.433579 4.1449733 -3.5646548 1.2247195 -7.247107 3.8942537 -4.311305
-0.87105143 4.1443086 -2.9088063 -1.7391667 5.4236794 -1.1827132 -4.6950107 8.246145
2.5584695 6.2482634 -5.270437 4.5886874 4.4784503 2.8488886 4.5780053 4.9318733
5.7308617 3.4459667 2.7425544 2.4207048 4.146402 1.3669254 8.0737915 2.133617
-5.197961 -2.998197 4.67781 5.116532 4.8259935 -4.6757736 5.259817 3.2521229
-7.523366 3.0461783 -5.1140947 -4.000015 4.215335 2.4894798 2.4197102 1.2134057
-5.211921 -3.4123476 5.1087976 1.8354174 4.882591 0.34870267 -5.389737 -3.9154122
5.756109 3.7036657 5.746225 -0.76004475 -4.6859665 -1.8000525 5.1578517 -5.448491
-4.193245 -3.998438 -2.9957721 -1.5611484 -5.332943 -4.5719104 -4.5665054 3.8629546
-5.5716023 -0.34886688 -1.0008247 3.9492753 -6.576429 -5.9773703 5.2715244 0.37695727
-5.2003274 -2.727502 -5.9833527 5.799062 5.2577095 3.3584712 -4.189318 7.7516446
7.1485066 3.3915012 4.8824587 -3.576479 -3.3106117 -5.813139 1.4287218 0.1350713
-2.3277907 0.26392245 -4.5249853 -1.26501 -5.0944977 -1.6804367 -8.731623 -2.4650607
6.2602777 0.2755547 -4.0438137 -6.7767544 -1.3332529 -2.6939619 3.8538482 -7.0313697
-6.7749076 -0.52895164 -3.906578 5.4703846 -1.5760198 -1.201307 -3.7302427 -2.9803553
5.229104 -6.0462527 5.16761 5.1230507 -4.3452888 5.209152 -0.95023036 4.4153953
-5.079197 -0.24451508 -3.3683903 7.1513424 -4.016649 -4.594778 5.0626535 -3.8943062
00000000: 77c5 59c0 2853 55bd c609 9740 9540 8440
00000010: 97d0 80c0 5bcd 0c40 1c06 adc0 7eaa bd3f
00000020: 04f5 8ac0 e6b1 f4bf 18a8 6dc0 7703 a240
00000030: 10c6 c4be a1a5 97c0 5bd1 9a40 1bd4 9d40
00000040: bbea 24c0 49bc 8640 a508 ef3f c3fa 9840
00000050: c8d3 4e40 551f 8b40 5503 9340 b0cb ad40
00000060: 7e59 a640 76e2 77c0 b40a 6b40 0002 8bc0
00000070: 96c3 c9c0 c4ee b83f 90cf f5bf ca66 6cc0
00000080: 7353 c140 487f bd40 c2fd 5b40 f3ef a9bf
00000090: a1b9 9340 15a9 8240 640b 82c0 8518 7b40
000000a0: 7882 a3c0 7367 8340 fb65 ec40 0752 8b40
000000b0: d879 9cc0 e3c0 c03f 0ab7 5240 3388 b1c0
000000c0: 7f0e edc0 45a7 8040 57d6 9540 d77b a3c0
000000d0: 7dbf 0a40 7591 aabf 7f2d 1b40 2d66 ba40
000000e0: 2992 19c0 3500 3c3f 68b6 1fc0 af2b f140
000000f0: c2b1 d53f cced 9440 ba87 8ec0 a3b5 64c0
00000100: ae4a ae40 42f2 93c0 982e debf 84b4 a440
00000110: 81d2 d0bf eef3 e53d c7f2 503d 8e64 3540
00000120: 7300 3740 fd93 f140 39b5 e340 fcb5 723f
00000130: b076 af40 93ca d0c0 41e8 b33f dcf0 8940
00000140: 14ae a940 8180 0ac0 3747 c7c0 c645 61c0
00000150: c269 8fc0 dcf2 46bf d71c 7c40 a770 c23e
00000160: 3f34 b9bf 4ffb 0140 b363 ea40 d1aa 94c0
00000170: 3845 5740 b36a 5d40 06bc a640 4f45 0440
00000180: 734e b540 714e 8e40 12f4 8cc0 4fc8 39c0
00000190: a3f9 12c0 c238 3540 1fba 0a40 a8d0 ca40
000001a0: ad2b adc0 867d 6e3f cf84 4540 a5c0 95c0
000001b0: 5bd4 243f e7db ea40 02d3 9040 8730 a83e
000001c0: 29f8 e93f 23b5 0541 9f36 3140 a491 8f40
000001d0: f439 8ec0 fdfa b0c0 cf50 89c0 fb0b 33c0
000001e0: c4ef 953f e1df 8dc0 9fa3 8440 4e23 64c0
000001f0: 9cc3 9c3f 4de8 e7c0 743b 7940 36f6 89c0
00000200: 3afd 5ebf 2d9e 8440 e229 3ac0 049d debf
00000210: c88e ad40 2563 97bf 873d 96c0 36f0 0341
00000220: f7bd 2340 c6f1 c740 6ba7 a8c0 87d6 9240
00000230: 774f 8f40 3154 3640 057f 9240 e8d1 9d40
00000240: 3863 b740 b88a 5c40 0386 2f40 d4ec 1a40
00000250: 53af 8440 69f7 ae3f 402e 0141 2e8d 0840
00000260: b255 a6c0 76e2 3fc0 9fb0 9540 a1ba a340
00000270: 8a6e 9a40 f09f 95c0 6c50 a840 c822 5040
00000280: 6abf f0c0 96f4 4240 aaa6 a3c0 1f00 80c0
00000290: 06e4 8640 a353 1f40 88dc 1a40 e150 9b3f
000002a0: 0fc8 a6c0 e763 5ac0 457b a340 f5ee ea3f
000002b0: 2f3e 9c40 2889 b23e ba78 acc0 1d96 7ac0
000002c0: 0c32 b840 dc08 6d40 13e1 b740 4b92 42bf
000002d0: 70f3 95c0 1f68 e6bf 1f0d a540 0a5a aec0
000002e0: 102f 86c0 68e6 7fc0 bbba 3fc0 b6d3 c7bf
000002f0: 78a7 aac0 174d 92c0 d020 92c0 a63a 7740
00000300: 914a b2c0 ae9e b2be 061b 80bf edc0 7c40
00000310: 1b72 d2c0 9e46 bfc0 54b0 a840 8b00 c13e
00000320: 1569 a6c0 658f 2ec0 a077 bfc0 ea91 b940
00000330: 283f a840 31f1 5640 e50e 86c0 790d f840
00000340: 91c0 e440 5b0e 5940 1a3d 9c40 08e5 64c0
00000350: 10e1 53c0 3c05 bac0 5be0 b63f 2250 0a3e
00000360: 86fa 14c0 d820 873e aecc 90c0 d9eb a1bf
00000370: 2006 a3c0 8d18 d7bf bab4 0bc1 8ec3 1dc0
00000380: 3254 c840 8115 8d3e ec66 81c0 2cdb d8c0
00000390: 08a8 aabf df69 2cc0 73a5 7640 fb00 e1c0
000003a0: 0bcc d8c0 6069 07bf 6005 7ac0 640d af40
000003b0: 04bb c9bf 6ec4 99bf 4cbc 6ec0 24be 3ec0
000003c0: d254 a740 e77a c1c0 105d a540 08f0 a340
000003d0: 9b0c 8bc0 60b1 a640 4c42 73bf eb4a 8d40
000003e0: c888 a2c0 2962 7abe b593 57c0 ccd7 e440
000003f0: 6388 80c0 6c08 93c0 4201 a240 503c 79c0

weight f4 [32, 16]
-5.8141513 0.70638514 -1.0931768 -2.8121607 5.6036 -3.0830264 2.423236 -5.855924
0.25128454 0.94762945 0.40998396 2.5319932 -0.033130128 -2.8283756 7.561333 6.061941
5.392744 -3.7731836 3.1009374 -2.2258866 3.935894 -4.6905007 -7.1551647 3.5238233
-6.4755664 -4.3284082 4.2079744 0.592998 -4.2874436 3.9134707 -5.43241 -2.1342642
2.5458393 3.1697845 -5.9416366 3.0670955 -4.251997 -7.0689945 0.016169308 3.2800972
-4.64833 4.7700677 -4.5559835 -6.2810273 -3.3096309 -2.6431642 4.608963 4.954402
5.3636928 4.5884 -4.0207577 3.4523103 1.7056757 2.32223 -3.7803023 5.3073344
3.9086223 2.4623458 -5.1873503 -4.2158136 -4.9289474 6.4743533 4.125641 2.9405425
-4.522501 -0.37775788 1.1182195 1.1990806 3.4132178 -6.6934357 1.6143904 -4.415188
2.514316 -3.190684 -5.646048 3.7443168 -5.7504177 -1.0431906 3.733149 3.3585975
3.9726493 2.9113007 4.899636 5.1267214 -5.906145 -3.0843534 -5.0134096 5.1775985
1.8255845 5.0002146 -3.871536 -3.8333561 2.0142407 -2.9012468 1.9047222 4.561077
-7.7935967 4.110767 -4.4711466 -0.7510578 6.9916105 -1.2634537 -4.8307657 -6.7018614
6.481463 1.1187844 -1.2808917 -5.0402236 1.9266484 -1.4458984 3.3704472 -1.1891018
0.58843726 2.24162 -7.461139 3.6269193 5.086519 -1.6975774 -0.84453946 5.3820024
0.89992106 3.6233637 -3.8572936 -4.420965 -6.383832 4.6526623 5.5217056 1.3732357
-6.3415947 -6.4269853 -1.8710713 -5.5223055 5.2562957 1.1585721 -5.6253724 -1.5529077
-5.9528556 -6.82353 4.7698708 2.0846572 0.73583406 -0.7587445 1.980718 -0.6495049
-7.590446 2.1061969 4.568428 -3.3468251 -0.29132605 6.25731 4.4286895 -2.7789512
5.8143163 -2.9666305 -5.266505 5.4155746 -2.658541 -0.5530168 -0.006829281 -2.599641
4.6769757 -6.660629 2.225006 5.999493 -3.775594 6.333411 2.7382712 -6.502453
-3.9692674 -6.279198 3.3010535 4.409663 1.351825 -4.414399 4.9279623 4.66526
1.2284777 0.6594814 -3.7062037 3.7399943 3.7318819 -4.8850536 -6.5829306 6.5814505
5.275426 3.4722638 -8.323323 -3.368319 1.6911622 -6.6890163 0.15837583 3.8745987
-5.5877566 -6.6695347 -1.3694651 -4.9982367 4.8875217 6.6022906 -1.2220846 -4.7060685
3.2765648 -5.6101503 5.0991178 5.988432 -2.88484 -1.425109 -2.3973112 -3.279942
3.6891534 1.9225395 -3.6305366 5.130562 2.0527232 -3.8224277 -5.544147 3.5948274
-0.8482307 -0.9779501 -3.1544363 -6.267925 -2.6844454 3.2854261 3.8998792 -0.4377146
5.535586 -3.2088814 6.608528 -5.5224814 -2.4834092 6.307719 6.108767 -3.9703937
-2.1218204 -4.881315 -4.925824 2.995641 2.366067 1.820728 3.468677 4.2049956
3.908826 -2.1900444 0.51645565 4.290346 5.6143627 -6.541622 -8.922362 1.6366043
-1.157547 0.02883499 -4.9073577 -1.9092572 -6.470288 -5.4076657 5.526174 5.3934307
00000000: 870d bac0 a8d5 343f 38ed 8bbf 71fa 33c0
00000010: b150 b340 4e50 45c0 4c16 1b40 bb63 bbc0
00000020: 5ea8 803e d897 723f 6be9 d13e 2d0c 2240
00000030: 75b3 07bd 1b04 35c0 71f6 f140 6cfb c140
00000040: 5c91 ac40 d77b 71c0 c275 4640 ed74 0ec0
00000050: b0e5 7b40 9518 96c0 1cf7 e4c0 5286 6140
00000060: d737 cfc0 5282 8ac0 baa7 8640 b8ce 173f
00000070: bd32 89c0 4e76 7a40 4dd6 adc0 c997 08c0
00000080: 08ef 2240 c0dd 4a40 e321 bec0 4b4b 4440
00000090: 5c10 88c0 3435 e2c0 7f75 843c 1ded 5140
000000a0: 1fbf 94c0 65a4 9840 9eca 91c0 2dfe c8c0
000000b0: fed0 53c0 9a29 29c0 a07c 9340 768a 9e40
000000c0: 5fa3 ab40 2cd4 9240 0caa 80c0 a7f2 5c40
000000d0: 9553 da3f 6b9f 1440 79f0 71c0 afd5 a940
000000e0: de26 7a40 1397 1d40 c6fe a5c0 f2e7 86c0
000000f0: f0b9 9dc0 e72d cf40 4005 8440 d931 3c40
00000100: 54b8 90c0 7b69 c1be d121 8f3f 797b 993f
00000110: 2972 5a40 a030 d6c0 58a4 ce3f 3849 8dc0
00000120: 8eea 2040 2b34 4cc0 6dac b4c0 e3a2 6f40
00000130: 6c03 b8c0 4587 85bf eaeb 6e40 43f3 5640
00000140: e33f 7e40 c052 3a40 d1c9 9c40 1a0e a440
00000150: 24ff bcc0 0c66 45c0 da6d a0c0 e3ae a540
00000160: c1ac e93f c201 a040 3fc7 77c0 b555 75c0
00000170: 52e9 0040 07ae 39c0 f0cd f33f 58f4 9140
00000180: 2565 f9c0 678b 8340 a213 8fc0 5345 40bf
00000190: 46bb df40 dab8 a1bf a295 9ac0 a675 d6c0
000001a0: 2568 cf40 5434 8f3f 42f4 a3bf 8349 a1c0
000001b0: 6a9c f63f 3313 b9bf 68b5 5740 7d34 98bf
000001c0: d3a3 163f b476 0f40 a7c1 eec0 721f 6840
000001d0: c3c4 a240 374a d9bf bd33 58bf 5d39 ac40
000001e0: 3a61 663f 31e5 6740 e6dd 76c0 8c78 8dc0
000001f0: 5a48 ccc0 9ce2 9440 d0b1 b040 30c6 af3f
00000200: 58ee cac0 dda9 cdc0 447f efbf bab6 b0c0
00000210: 9333 a840 174c 943f 0d03 b4c0 aec5 c6bf
00000220: cb7d bec0 5c5a dac0 c8a2 9840 066b 0540
00000230: 9f5f 3c3f 143d 42bf 2b88 fd3f f445 26bf
00000240: efe4 f2c0 eecb 0640 9030 9240 6232 56c0
00000250: b028 95be e23b c840 d3b7 8d40 56da 31c0
00000260: e10e ba40 46dd 3dc0 3587 a8c0 634c ad40
00000270: 8925 2ac0 8292 0dbf 29c8 dfbb 8560 26c0
00000280: c9a9 9540 df23 d5c0 8066 0e40 d9fb bf40
00000290: 55a3 71c0 4eab ca40 d63f 2f40 1814 d0c0
000002a0: 7a08 7ec0 31ef c8c0 7644 5340 f61b 8d40
000002b0: 9a08 ad3f c242 8dc0 deb1 9d40 cf49 9540
000002c0: c23e 9d3f c6d3 283f 7132 6dc0 115c 6f40
000002d0: 27d7 6e40 5c52 9cc0 5ea7 d2c0 3e9b d240
000002e0: 4ad0 a840 9239 5e40 552c 05c1 8a92 57c0
000002f0: 0178 d83f 6c0c d6c0 462d 223e 6df9 7740
00000300: e7ce b2c0 d46c d5c0 a24a afbf 8ef1 9fc0
00000310: 9466 9c40 f745 d340 456d 9cbf 1d98 96c0
00000320: 3db3 5140 5a86 b3c0 f92b a340 3ca1 bf40
00000330: 38a1 38c0 f969 b6bf 8c6d 19c0 92ea 51c0
00000340: 171b 6c40 c615 f63f b65a 68c0 902d a440
00000350: d15f 0340 a8a2 74c0 a769 b1c0 a711 6640
00000360: a625 59bf f05a 7abf 49e2 49c0 d792 c8c0
00000370: f4cd 2bc0 6c44 5240 9f97 7940 211c e0be
00000380: 8523 b140 505e 4dc0 1079 d340 2bb8 b0c0
00000390: 2df0 1ec0 d6d8 c940 057b c340 ee1a 7ec0
000003a0: e8cb 07c0 bc33 9cc0 5aa0 9dc0 95b8 3f40
000003b0: a46d 1740 9d0d e93f cefe 5d40 538f 8640
000003c0: 352a 7a40 b029 0cc0 7036 043f 844a 8940
000003d0: dca8 b340 f854 d1c0 ffc1 0ec1 407c d13f
000003e0: 802a 94bf 5b37 ec3c 1309 9dc0 8a62 f4bf
000003f0: 990c cfc0 990b adc0 6bd6 b040 fc96 ac40

weight f4 [32]
-6.623687 -4.8976026 -1.0491824 -6.580324 5.4639363 5.1020217 4.809269 5.4034886
2.724564 -0.5051088 -0.051994544 -3.1435068 -0.34914008 -2.3610759 6.374675 -2.1640968
-5.776924 -6.3101025 5.678122 -6.7867823 3.114978 3.237732 8.9109535 5.381045
7.746312 1.7231066 1.3862623 -2.8390834 -5.104519 1.1110045 -0.40363815 -3.1162286
00000000: 3ef5 d3c0 29b9 9cc0 9c4b 86bf 0492 d2c0
00000010: 91d8 ae40 c343 a340 88e5 9940 61e9 ac40
00000020: 425f 2e40 cf4e 01bf 3bf8 54bd 372f 49c0
00000030: 7dc2 b2be de1b 17c0 56fd cb40 9080 0ac0
00000040: 90dc b8c0 5cec c9c0 2db3 b540 522d d9c0
00000050: cd5b 4740 0037 4f40 4493 0e41 8531 ac40
00000060: cae1 f740 c28e dc3f 0b71 b13f 8bb3 35c0
00000070: 3858 a3c0 6535 8e3f a9a9 cebe 4a70 47c0

bias f4 [32]
-0.08434339 4.531721 2.0635715 -2.6403265 4.414358 -6.849163 -8.6525345 7.4470987
2.0954587 3.9113703 -3.266933 -4.302164 4.731939 3.4353275 4.6113133 -4.157094
-0.63100636 -0.991951 -1.9428042 -1.4950355 5.264239 7.3572683 1.6737409 5.658759
1.5485189 -4.814307 -5.6341414 -4.2553735 0.42022783 -6.248045 5.6085734 -5.0042825
00000000: 3abc acbd dc03 9140 8e11 0440 1cfb 28c0
00000010: 6c42 8d40 582c dbc0 c870 0ac1 a24e ee40
00000020: ff1b 0640 e453 7a40 6e15 51c0 54ab 89c0
00000030: 0b6c 9740 68dc 5b40 e18f 9340 ea06 85c0
00000040: a289 21bf 80f0 7dbf cfad f8bf 535d bfbf
00000050: a574 a840 be6e eb40 243d d63f 8e14 b540
00000060: de35 c63f ce0e 9ac0 e34a b4c0 052c 88c0
00000070: 1a28 d73e fcef c7c0 6f79 b340 1523 a0c0

running_mean f4 [32]
10.902979 25.988235 -15.422892 -24.963177 -24.036547 -62.534187 -42.65615 41.32622
-78.04925 -31.457256 -37.310417 20.605234 -70.97988 14.037588 15.773466 -13.235274
60.62057 1.0657374 64.83772 -21.096834 -13.984135 39.560287 18.63626 5.3144574
-40.3457 -37.46247 7.7429066 11.210716 59.990494 -60.395157 -30.762554 35.435703
00000000: 9a72 2e41 e8e7 cf41 2ac4 76c1 96b4 c7c1
00000010: d94a c0c1 0223 7ac2 e69f 2ac2 0d4e 2542
00000020: 3719 9cc2 76a8 fbc1 de3d 15c2 85d7 a441
00000030: b3f5 8dc2 f699 6041 1e60 7c41 afc3 53c1
00000040: 777b 7242 156a 883f eaac 8142 51c6 a8c1
00000050: 04bf 5fc1 bc3d 1e42 0f17 9541 0910 aa40
00000060: ff61 21c2 92d9 15c2 e4c5 f740 185f 3341
00000070: 44f6 6f42 a494 71c2 b619 f6c1 29be 0d42

running_var f4 [32]
2491.0566 1849.881 1788.6467 5792.098 4564.0825 3154.9395 4849.967 1966.2621
5898.229 3948.594 2254.7559 3281.002 2491.045 4642.5635 6016.4995 2191.8857
3163.1262 5115.0317 3106.084 8076.986 4905.431 2500.0632 3017.3142 4387.178
1730.4459 5008.9424 1979.663 3113.08 2775.4136 3470.6902 3433.2832 1989.8392
00000000: e8b0 1b45 313c e744 b294 df44 c900 b545
00000010: a9a0 8e45 082f 4545 bc8f 9745 63c8 f544
00000020: d551 b845 81c9 7645 18ec 0c45 0810 4d45
00000030: b8b0 1b45 8214 9145 ff03 bc45 2cfe 0845
00000040: 05b2 4545 41d8 9f45 5821 4245 e367 fc45
00000050: 734b 9945 0341 1c45 0795 3c45 6d19 8945
00000060: 454e d844 8a87 9c45 3775 f744 4891 4245
00000070: 9e76 2d45 0beb 5845 8894 5645 dbba f844

weight f4 [32]
6.2035108 -3.7827802 -2.4774053 -3.52714 -1.3590869 -5.714138 6.6648254 -1.2306033
-4.7926636 2.8983104 2.528307 5.1459703 -4.699048 5.4613233 6.4429736 -2.5347714
6.158256 -5.589455 -4.7831025 -3.8430455 3.3907597 -3.2602768 -6.001394 7.35227
-3.720883 4.1521835 6.4675856 3.8703482 -4.8728647 -3.1940684 -5.0102143 -2.9733188
00000000: 2983 c640 1219 72c0 cf8d 1ec0 a9bc 61c0
00000010: 8ff6 adbf 38da b6c0 4046 d540 6984 9dbf
00000020: 805d 99c0 eb7d 3940 c8cf 2140 caab a440
00000030: 9a5e 96c0 29c3 ae40 d72c ce40 b239 22c0
00000040: 6f10 c540 d1dc b2c0 2d0f 99c0 75f4 75c0
00000050: 3502 5940 60a8 50c0 6b0b c0c0 cc45 eb40
00000060: f222 6ec0 b0de 8440 76f6 ce40 c9b3 7740
00000070: 82ee 9bc0 9e6b 4cc0 ad53 a0c0 db4a 3ec0

bias f4 [32]
-4.38345 -3.9701033 -0.89674056 5.2415247 3.9342346 4.7657485 -4.2515936 -5.9247484
-2.0103712 5.901711 0.662829 3.942455 -5.2290225 -2.4091456 -3.7557461 4.319713
2.8325357 -4.035761 -4.849746 -6.250376 0.7644402 7.0714345 0.012075022 -3.3967576
-3.0324762 0.08304611 -4.212093 5.123208 5.508869 5.990569 5.7483587 -3.0521522
00000000: 3945 8cc0 2c16 7ec0 ca90 65bf 92ba a740
00000010: 80ca 7b40 0381 9840 0e0d 88c0 8a97 bdc0
00000020: eca9 00c0 d1da bc40 29af 293f 2f51 7c40
00000030: 2754 a7c0 712f 1ac0 255e 70c0 173b 8a40
00000040: 4448 3540 f424 81c0 1f31 9bc0 1503 c8c0
00000050: 5ab2 433f 3149 e240 50d6 453c 7a64 59c0
00000060: 1714 42c0 1414 aa3d 77c9 86c0 52f1 a340
00000070: a848 b040 beb2 bf40 8ef2 b740 7656 43c0

running_mean f4 [32]
15.854111 65.47643 59.277065 61.368473 18.783115 78.06356 41.741978 74.308075
21.937698 -82.43319 -89.85154 125.31193 -72.22204 96.794945 -84.01436 125.4266
18.003584 -145.03508 -24.090094 78.43985 101.76582 -58.911808 -2.5621824 -64.04846
-50.97048 -37.039963 -70.67331 1.1541841 85.14804 91.97585 -56.950535 62.981564
00000000: 70aa 7d41 eff3 8242 b71b 6d42 5179 7542
00000010: d243 9641 8b20 9c42 c9f7 2642 bc9d 9442
00000020: 6880 af41 cbdd a4c2 fdb3 b3c2 b59f fa42
00000030: af71 90c2 0397 c142 5a07 a8c2 6bda fa42
00000040: 5707 9041 fb08 11c3 83b8 c0c1 34e1 9c42
00000050: 1a88 cb42 b1a5 6bc2 ccfa 23c0 d018 80c2
00000060: c6e1 4bc2 ec28 14c2 bc58 8dc2 4ebc 933f
00000070: cc4b aa42 a3f3 b742 59cd 63c2 1fed 7b42

running_var f4 [32]
2220.487 6835.6665 7161.261 2975.9297 1653.1488 7446.8984 3821.0159 1593.8558
2303.5544 4600.821 9187.375 4821.3867 6160.069 3947.3472 5618.317 5785.1357
2535.2366 6460.0146 2482.9004 10026.431 7990.4395 3567.409 1344.7972 4853.966
10625.715 2397.6807 4761.8296 5627.7456 1929.4048 4369.7437 1971.0203 4751.5884
00000000: cbc7 0a45 559d d545 17ca df45 e0fe 3945
00000010: c3a4 ce44 30b7 e845 41d0 6e45 633b c744
00000020: dff8 0f45 91c6 8f45 808d 0f46 18ab 9645
00000030: 8d80 c045 8eb5 7645 8992 af45 16c9 b445
00000040: c973 1e45 1ee0 c945 682e 1b45 b9a9 1c46
00000050: 84b3 f945 8bf6 5e45 8319 a844 baaf 9745
00000060: dc06 2646 e4da 1545 a3ce 9445 f7dd af45
00000070: f42c f144 f38d 8845 a660 f644 b57c 9445

weight f4 [32, 16]
5.352251 -4.5592394 4.456705 -4.498793 5.3709993 -0.89908165 2.0957572 1.5507356
2.6004438 3.9991367 -7.5163603 -0.49186558 1.2283794 3.9379685 6.114939 4.137626
-6.867705 -4.6310787 6.038038 -4.2939034 1.4604149 6.7474146 6.3427973 0.7861064
-4.34197 -6.914933 0.65543616 -3.4666777 -1.1814195 0.29671085 -4.063107 -1.1810093
3.637404 6.4475393 -3.255965 5.376628 -5.7995715 -4.4358835 -5.1917057 3.3210192
-2.1706038 3.4880846 6.3187594 0.006642324 2.1599648 1.88719 6.386173 3.1102211
3.5329275 4.214547 4.9789658 4.903617 -3.693563 -5.4754496 -4.783816 -4.4935308
5.25538 -4.4100404 3.8953044 -4.010435 5.5507793 4.513482 5.3386445 4.13981
-8.087047 -3.7966588 -2.4058995 -4.425438 4.7832985 -3.625398 -2.3560803 6.457436
-7.691315 5.531847 -2.1488504 5.017647 -6.198695 3.6905048 -5.192648 0.74902636
6.837588 -4.251236 -2.0430734 -4.403782 1.9659909 4.059111 5.409058 -5.406783
0.05556185 -5.4920344 -3.5108469 -5.546508 1.4768046 -3.6377544 0.727522 5.775366
4.7352524 -5.048761 4.0194726 -3.2443 4.086559 3.840368 4.575939 -4.2812753
7.1074758 5.1162014 4.371767 -4.2215652 -4.3504014 -3.4004815 -6.3863974 -4.3533735
4.296001 3.5361133 -4.1670156 4.7405143 -5.2851505 3.3759055 3.8813717 3.6789362
4.740588 5.068349 4.4200206 5.6750655 4.468535 4.465619 4.301383 3.8631628
-5.976217 -4.8195114 3.6526835 -3.9485154 7.645662 0.72919834 2.9871707 -3.8301585
4.302104 -5.29316 -5.8873386 1.4013323 -5.5005097 -2.7590914 -0.6665637 -1.4313928
-3.9067745 -4.8112326 -0.023643719 -5.241561 0.97470033 4.43134 6.406332 -5.631323
-0.60180753 -3.924587 -5.1468124 -3.814764 -2.8595104 -3.1878996 -3.196784 -4.114415
7.0194144 3.906914 5.463355 4.925451 3.9565873 -0.83238727 1.9274153 1.8713254
0.40719116 4.121197 6.544939 0.017535891 4.441171 5.6148906 5.803132 1.4994617
-4.4127927 -5.154093 -1.3793044 3.5378144 6.531468 -4.245147 -3.716505 -0.47116122
5.88518 3.7414443 -4.119532 -0.9917734 -7.12964 -2.2162662 -4.5378294 -1.4542714
-4.5959535 -3.7419949 -4.701074 -2.8950598 4.1694627 4.836811 4.1254745 -5.7587285
-3.9379826 6.103243 -4.5813932 3.5975323 -3.061231 -6.6231613 -3.9782915 -5.662185
-5.653113 -4.9320917 4.271874 4.743443 4.382573 -4.0819683 -3.9152484 4.7637396
-0.88343614 3.4932568 -4.2870893 4.994006 3.5553327 4.443787 -5.344706 4.738883
4.4268126 3.8347492 3.0045812 -4.161126 -3.7211177 -3.1073449 -3.2579403 -4.847617
-3.0608346 -5.2101107 4.50552 -4.2056255 4.9988766 4.662659 5.683514 4.7363386
3.1800473 -5.492679 6.6541753 -3.776966 0.9148913 -6.4672136 3.3616955 0.70882964
-4.640991 7.846159 -4.6472163 -0.12965856 0.35879925 5.4627495 5.7623467 6.1821785
00000000: a445 ab40 4ae5 91c0 549d 8e40 1df6 8fc0
00000010: 3adf ab40 372a 66bf e320 0640 817e c63f
00000020: ac6d 2640 dbf1 7f40 0686 f0c0 ced5 fbbe
00000030: 893b 9d3f ad07 7c40 95ad c340 6f67 8440
00000040: 3dc4 dbc0 cc31 94c0 9b37 c140 a867 89c0
00000050: e0ee ba3f d2ea d740 32f8 ca40 453e 493f
00000060: 6bf1 8ac0 2247 ddc0 aaca 273f 0cde 5dc0
00000070: c138 97bf 7cea 973e f904 82c0 502b 97bf
00000080: 3acb 6840 3e52 ce40 bb61 50c0 560d ac40
00000090: 1796 b9c0 c2f2 8dc0 7422 a6c0 948b 5440
000000a0: 2ceb 0ac0 c73c 5f40 4733 ca40 daa7 d93b
000000b0: dd3c 0a40 718f f13f 875b cc40 dd0d 4740
000000c0: 7c1b 6240 92dd 8640 b053 9f40 6eea 9c40
000000d0: 5663 6cc0 e236 afc0 0515 99c0 01cb 8fc0
000000e0: 132c a840 0d1f 8dc0 ab4c 7940 7c55 80c0
000000f0: fc9f b140 726e 9040 2dd6 aa40 5379 8440
00000100: 8b64 01c1 75fc 72c0 42fa 19c0 309d 8dc0
00000110: c810 9940 8506 68c0 05ca 16c0 51a3 ce40
00000120: 411f f6c0 e404 b140 c486 09c0 9090 a040
00000130: b65b c6c0 3b31 6c40 2c2a a6c0 31c0 3f3f
00000140: 85cd da40 200a 88c0 b7c1 02c0 c8eb 8cc0
00000150: 97a5 fb3f 3de4 8140 0117 ad40 5e04 adc0
00000160: d394 633d bfbe afc0 b7b1 60c0 fe7c b1c0
00000170: ef07 bd3f f8d0 68c0 e23e 3a3f cccf b840
00000180: 3087 9740 738f a1c0 859f 8040 9ca2 4fc0
00000190: 17c5 8240 97c8 7540 186e 9240 3500 89c0
000001a0: 7170 e340 ecb7 a340 84e5 8b40 1017 87c0
000001b0: 7d36 8bc0 7da1 59c0 5e5d ccc0 d64e 8bc0
000001c0: d778 8940 ae4f 6240 3158 85c0 4bb2 9740
000001d0: f41f a9c0 d60e 5840 6568 7840 b173 6b40
000001e0: e6b2 9740 ea2f a240 cf70 8d40 239a b540
000001f0: 3dfe 8e40 5ae6 8e40 eea4 8940 0f3e 7740
00000200: 2b3d bfc0 7039 9ac0 91c5 6940 7ab4 7cc0
00000210: 43a9 f440 beac 3a3f ce2d 3f40 5121 75c0
00000220: d6aa 8940 9161 a9c0 1465 bcc0 db5e b33f
00000230: 2d04 b0c0 f494 30c0 eba3 2abf e137 b7bf
00000240: 9808 7ac0 9ef5 99c0 79b0 c1bc deba a7c0
00000250: f685 793f 8acd 8d40 ac00 cd40 cc33 b4c0
00000260: 0f10 1abf 6f2c 7bc0 b0b2 a4c0 1825 74c0
00000270: 3802 37c0 8c06 4cc0 1c98 4cc0 4aa9 83c0
00000280: 0b9f e040 e10a 7a40 ced3 ae40 4b9d 9d40
00000290: ba38 7d40 5517 55bf 8bb5 f63f 9787 ef3f
000002a0: 5c7b d03e d9e0 8340 2470 d140 6ea7 8f3c
000002b0: 131e 8e40 2fad b340 42b3 b940 5cee bf3f
000002c0: 9935 8dc0 54ee a4c0 0c8d b0bf 8d6b 6240
000002d0: c901 d140 3fd8 87c0 38db 6dc0 0b3c f1be
000002e0: 6553 bc40 d373 6f40 35d3 83c0 dde4 7dbf
000002f0: 0326 e4c0 4ed7 0dc0 e635 91c0 9125 babf
00000300: 0d12 93c0 d87c 6fc0 336f 96c0 a948 39c0
00000310: 3d6c 8540 28c7 9a40 e303 8440 8147 b8c0
00000320: e807 7cc0 c44d c340 c69a 92c0 f83d 6640
00000330: 35eb 43c0 f0f0 d3c0 549c 7ec0 9f30 b5c0
00000340: 4de6 b4c0 b2d3 9dc0 31b3 8840 49ca 9740
00000350: 0a3e 8c40 7c9f 82c0 6e93 7ac0 8e70 9840
00000360: df28 62bf 8591 5f40 d62f 89c0 e6ce 9f40
00000370: 928a 6340 8133 8e40 d507 abc0 eea4 9740
00000380: 73a8 8d40 886c 7540 0f4b 4040 f227 85c0
00000390: cb26 6ec0 bdde 46c0 1882 50c0 ae1f 9bc0
000003a0: b7e4 43c0 3ab9 a6c0 382d 9040 7c94 86c0
000003b0: ccf6 9f40 8134 9540 59df b540 1690 9740
000003c0: e585 4b40 07c4 afc0 01ef d440 d0b9 71c0
000003d0: 5136 6a3f 6af3 cec0 0526 5740 dc75 353f
000003e0: 0083 94c0 bc13 fb40 ffb5 94c0 37c5 04be
000003f0: 89b4 b73e d8ce ae40 2565 b840 68d4 c540

weight f4 [32]
-2.5470579 1.650703 6.5563364 1.0532746 1.8082211 -0.43478847 1.3385245 -4.5402513
-1.593006 7.404586 -1.0818921 5.5532355 -4.7027025 0.7506861 -2.4802287 -4.0192404
3.7824986 5.472797 6.848933 5.476737 5.954126 -5.2146087 -2.24038 -3.5004842
-4.768678 -0.9929352 5.7722044 -3.7733974 4.3866763 7.312716 0.5076652 -2.7775288
00000000: ff02 23c0 3c4a d33f 82cd d140 b4d1 863f
00000010: ca73 e73f 989c debe c554 ab3f bd49 91c0
00000020: 9fe7 cbbf 5ef2 ec40 717b 8abf 1bb4 b140
00000030: 8a7c 96c0 f72c 403f 11bc 1ec0 9e9d 80c0
00000040: 7514 7240 2721 af40 762a db40 6e41 af40
00000050: 3388 be40 13de a6c0 6362 0fc0 ef07 60c0
00000060: 0399 98c0 0031 7ebf e6b5 b840 587f 71c0
00000070: a75f 8c40 c501 ea40 59f6 013f 08c3 31c0

bias f4 [32]
-4.555957 6.209618 5.6458187 -3.6539867 -1.9598852 -5.6430135 -3.7937424 3.658715
-6.1442537 -7.4748225 5.7379074 -4.96805 1.5551821 -6.912666 3.9010108 -2.9284172
-3.5807676 -1.4222813 1.9121237 -3.3618093 4.378267 -0.97328997 -1.2138606 -4.8662033
-4.0911207 6.8772445 -1.9689796 5.091352 3.053741 -4.0097766 -4.844906 4.4360595
00000000: 66ca 91c0 31b5 c640 8caa b440 ebda 69c0
00000010: 85dd fabf 9193 b4c0 adcc 72c0 6328 6a40
00000020: ba9d c4c0 bf31 efc0 f09c b740 44fa 9ec0
00000030: 3510 c73f 8f34 ddc0 29aa 7940 306b 3bc0
00000040: 4c2b 65c0 500d b6bf 78c0 f43f e227 57c0
00000050: c31a 8c40 8829 79bf c95f 9bbf f0b7 9bc0
00000060: 76ea 82c0 6312 dc40 8607 fcbf 5bec a240
00000070: 7e70 4340 1750 80c0 7809 9bc0 33f4 8d40

running_mean f4 [32]
9.740089 -31.883581 17.02479 -32.257576 87.781525 -61.693184 -15.1806755 -27.224575
14.107248 -49.684555 5.7003393 67.56668 9.335999 66.02601 -44.562523 9.20558
64.62309 -40.841766 60.150402 34.435898 -39.391476 -27.245598 -15.758619 -19.9144
29.808308 7.7516646 -16.7689 32.511784 -16.570698 -38.734394 -11.264029 -0.375302
00000000: 68d7 1b41 9311 ffc1 c532 8841 c207 01c2
00000010: 2490 af42 d2c5 76c2 0ce4 72c1 eecb d9c1
00000020: 4ab7 6141 fcbc 46c2 2e69 b640 2422 8742
00000030: 4060 1541 510d 8442 0640 32c2 0e4a 1341
00000040: 063f 8142 f85d 23c2 039a 7042 5cbe 0942
00000050: df90 1dc2 fcf6 d9c1 4e23 7cc1 b150 9fc1
00000060: 6a77 ee41 a30d f840 b526 86c1 110c 0242
00000070: ca90 84c1 05f0 1ac2 7639 34c1 9527 c0be

running_var f4 [32]
3777.203 4633.577 8767.672 7219.3457 17659.525 9849.023 11206.687 6242.7
5322.3667 7748.0254 8912.831 4611.295 10136.8955 11344.241 4992.966 5650.5366
1859.5405 15205.8 17293.664 10054.772 14933.785 6187.5215 10741.052 10461.388
1655.9437 8492.137 2387.3381 8483.213 3847.4265 10446.587 11853.82 3615.212
00000000: 3f13 6c45 9ecc 9045 b0fe 0846 c49a e145
00000010: 0df7 8946 18e4 1946 bf1a 2f46 9a15 c345
00000020: ef52 a645 3420 f245 5343 0b46 5c1a 9045
00000030: 9563 1e46 f740 3146 ba07 9c45 4b94 b045
00000040: 4c71 e844 3397 6d46 541b 8746 171b 1d46
00000050: 2457 6946 2c5c c145 35d4 2746 8d75 2346
00000060: 33fe ce44 8cb0 0446 6935 1545 da8c 0446
00000070: d376 7045 593a 2346 4837 3946 64f3 6145

weight f4 [32, 16]
0.04649097 0.19772032 -0.7634405 0.21305744 0.7142487 -0.08415665 -0.07413197 0.6481531
-0.36970213 0.34313717 -0.86343926 1.4458592 -0.4736363 0.0907715 0.05690782 0.2635241
-0.03282874 -0.51806337 -0.27986574 0.008905138 -0.12057431 -0.49977118 -0.6099418 -0.83245885
0.22909757 -0.7033737 -0.8894892 -1.2125089 0.22428748 -0.7975057 0.43149242 -0.939941
-0.46230215 -0.18003842 0.11048493 0.38539365 -0.23314795 0.40044883 -0.6515779 -0.4852607
-0.012203504 0.27558303 -0.28846276 0.23849835 0.5346606 0.8330409 -0.2660416 -0.08399389
-0.2977558 -1.2082428 0.2401427 -0.74588513 0.1528229 1.3288119 0.16295575 -0.6934173
0.74064595 -2.0214949 -0.5588564 0.050083384 -0.9842154 -0.85256445 1.4440613 0.5776047
-0.20283015 0.975293 1.1894886 0.71780515 -0.9233267 0.13197494 -0.75037014 1.4079869
-0.09993613 0.052304033 0.724885 0.020830493 -0.12022985 -1.0299064 0.33013144 -0.4618243
0.29171994 0.351183 1.704462 -0.63410354 -0.3009121 0.029148715 -0.38447568 0.7003122
-0.6652928 0.8936105 0.32878786 -0.99823123 0.7557741 1.9987946 -0.27732286 0.8177302
-0.99615794 0.6728537 -0.62734824 0.008135804 0.6014706 0.6607857 0.2746957 1.9359097
1.4133143 -0.39300397 0.14750734 -1.5814095 -0.8110007 0.6840142 0.47635177 0.06781487
0.5819973 1.4650099 0.27633047 0.5396574 -0.2913137 -0.98092043 -0.38765398 -0.24742149
1.2774628 -0.7161727 0.55253077 0.057350487 0.8896481 -0.70989716 -0.9090342 -0.66530025
-2.1838684 -0.124616645 6.124535 4.9543223 6.920372 4.373795 -0.20125471 -3.191331
2.4570389 -5.0132184 3.3175068 1.8088807 3.2560813 -4.6302366 6.8416476 -0.89691263
2.9711072 6.923858 -4.6659045 -1.3392088 -4.013668 3.366596 7.239667 -4.840878
0.5693459 2.5414839 -3.6508334 -4.1308293 5.725054 -6.5033436 -0.36095685 -2.6730301
4.7724915 6.5618525 3.9869144 5.2444797 -5.402588 -1.0262135 4.930766 -2.8905902
-4.270679 4.8643312 1.5952684 -5.619381 4.490838 -6.2531776 -1.6167121 3.3910158
-4.6231914 -4.162273 -4.9309287 -5.656435 5.0445232 3.6963344 4.537048 3.7291772
-5.495379 5.541013 -3.9320302 4.1975946 -3.8077853 4.005643 4.283566 -4.9170146
-7.2677093 -3.423786 -1.3255535 -5.1146626 -1.7468052 -2.6082978 -5.973011 7.9788465
-2.3606822 -4.8175397 0.27136272 -0.8927225 -3.0180871 5.2556067 -1.398773 1.8615174
2.5487325 -2.5481138 -1.6306223 -4.7411113 0.1687657 -7.728153 -6.785143 0.24130468
-5.760577 -1.2866532 5.637065 4.753546 -4.8886003 4.9189157 2.9289494 5.8593445
5.0980053 4.4809675 6.7821507 -2.4136806 -2.7395911 6.396332 2.1590009 -3.4113626
-6.766683 0.35829696 6.893913 -6.631322 0.5221582 -4.8411765 2.18766 2.8827102
5.1848044 3.9295533 5.3310275 -5.0864067 -3.406171 -2.4253113 2.850446 -4.2344766
-4.901509 4.0968804 4.4847198 -5.502932 4.4473376 -5.435574 -3.0554855 4.7890463
00000000: 516d 3e3d 3277 4a3e d670 43bf bb2b 5a3e
00000010: 01d9 363f 525a acbd 81d2 97bd 5ded 253f
00000020: 9949 bdbe adaf af3e 5b0a 5dbf ea11 b93f
00000030: 7580 f2be 68e6 b93d 2d18 693d a1ec 863e
00000040: 6e77 06bd cd9f 04bf 904a 8fbe dbe6 113c
00000050: aaef f6bd 02e2 ffbe 2525 1cbf 061c 55bf
00000060: 8e98 6a3e 4c10 34bf 90b5 63bf 7e33 9bbf
00000070: 9eab 653e 5529 4cbf 93ec dc3e f99f 70bf
00000080: deb2 ecbe fe5b 38be ec45 e23d 5152 c53e
00000090: 56be 6ebe a107 cd3e cfcd 26bf 1774 f8be
000000a0: 35f1 47bc 3819 8d3e 64b1 93be e938 743e
000000b0: 84df 083f 2b42 553f 9b36 88be fd04 acbd
000000c0: 7373 98be b3a7 9abf f8e7 753e 54f2 3ebf
000000d0: 9b7d 1c3e 8216 aa3f dfdd 263e cc83 31bf
000000e0: f99a 3d3f 2c60 01c0 3711 0fbf 3c24 4d3d
000000f0: 8af5 7bbf aa41 5abf 00d7 b83f e7dd 133f
00000100: b5b2 4fbe cdac 793f 2a41 983f 14c2 373f
00000110: 235f 6cbf 7024 073e 4218 40bf ea38 b43f
00000120: 50ab ccbd c13c 563d 1092 393f b6a4 aa3c
00000130: 113b f6bd f9d3 83bf fd06 a93e 3c74 ecbe
00000140: 515c 953e 42ce b33e d02b da3f 9c54 22bf
00000150: 2711 9abe 49c9 ee3c ffd9 c4be a947 333f
00000160: a150 2abf a8c3 643f e256 a83e 158c 7fbf
00000170: 697a 413f 80d8 ff3f 43fd 8dbe c456 513f
00000180: 3504 7fbf 2440 2c3f e599 20bf 094c 053c
00000190: faf9 193f 4029 293f eaa4 8c3e e4cb f73f
000001a0: 7ce7 b43f d137 c9be 2a0c 173e a06b cabf
000001b0: be9d 4fbf 8e1b 2f3f 61e4 f33e 86e2 8a3d
000001c0: c6fd 143f 7285 bb3f 307b 8d3e fd26 0a3f
000001d0: 1227 95be 9a1d 7bbf 957a c6be 0f5c 7dbe
000001e0: e783 a33f 1857 37bf a872 0d3f 58e8 6a3d
000001f0: fabf 633f d2bb 35bf 77b6 68bf 1e51 2abf
00000200: 80c4 0bc0 0337 ffbd 31fc c340 cf89 9e40
00000210: b073 dd40 21f6 8b40 b715 4ebe c43e 4cc0
00000220: 2040 1d40 496c a0c0 0852 5440 6789 e73f
00000230: a363 5040 e62a 94c0 c7ee da40 119c 65bf
00000240: 9f26 3e40 3f90 dd40 174f 95c0 326b abbf
00000250: f86f 80c0 4f76 5740 5aab e740 79e8 9ac0
00000260: a7c0 113f aca7 2240 41a7 69c0 c12f 84c0
00000270: a433 b740 641b d0c0 56cf b8be ed12 2bc0
00000280: 40b8 9840 b2fa d140 9b29 7f40 c7d2 a740
00000290: 00e2 acc0 f75a 83bf d6c8 9d40 6eff 38c0
000002a0: 67a9 88c0 9aa8 9b40 c131 cc3f f8d1 b3c0
000002b0: f2b4 8f40 081a c8c0 6cf0 cebf 6706 5940
000002c0: 2ff1 93c0 5731 85c0 2bca 9dc0 8401 b5c0
000002d0: bc6c a140 be90 6c40 7f2f 9140 d7aa 6e40
000002e0: 25da afc0 fa4f b140 62a6 7bc0 b252 8640
000002f0: c1b2 73c0 3a2e 8040 f912 8940 2f58 9dc0
00000300: 1391 e8c0 4f1f 5bc0 bdab a9bf 51ab a3c0
00000310: 5097 dfbf 5aee 26c0 e822 bfc0 b652 ff40
00000320: 6b15 17c0 4929 9ac0 0ef0 8a3e 7689 64bf
00000330: 5728 41c0 ee2d a840 fe0a b3bf 3446 ee3f
00000340: 6f1e 2340 4c14 23c0 3bb8 d0bf 2fb7 97c0
00000350: ead0 2c3e 084d f7c0 e41f d9c0 9318 773e
00000360: a656 b8c0 0db1 a4bf d662 b440 0d1d 9840
00000370: 6a6f 9cc0 c267 9d40 e873 3b40 c07f bb40
00000380: dc22 a340 1664 8f40 6107 d940 be79 1ac0
00000390: 7655 2fc0 c0ae cc40 122d 0a40 c453 5ac0
000003a0: ab88 d8c0 b372 b73e ef9a dc40 ca33 d4c0
000003b0: 29ac 053f ebea 9ac0 9f02 0c40 537e 3840
000003c0: ebe9 a540 cd7d 7b40 c797 aa40 d8c3 a2c0
000003d0: b5fe 59c0 4d38 1bc0 b56d 3640 d580 87c0
000003e0: 29d9 9cc0 a519 8340 d382 8f40 0518 b0c0
000003f0: 9750 8e40 39f0 adc0 138d 43c0 de3f 9940

weight f4 [32]
1.0 1.0 1.0 1.0 1.0 1.0 1.0 1.0
-2.3613749 7.412662 -0.8203904 -1.4153334 9.327627 3.8081515 -0.45143285 -2.7214003
1.0 1.0 1.0 1.0 1.0 1.0 1.0 1.0
-0.09453088 2.385752 -5.2331076 5.99463 1.9826807 -1.6423043 5.203573 -5.035032
00000000: 0000 803f 0000 803f 0000 803f 0000 803f
00000010: 0000 803f 0000 803f 0000 803f 0000 803f
00000020: c420 17c0 8734 ed40 1b05 52bf a529 b5bf
00000030: f63d 1541 c1b8 7340 3522 e7be 6c2b 2ec0
00000040: 0000 803f 0000 803f 0000 803f 0000 803f
00000050: 0000 803f 0000 803f 0000 803f 0000 803f
00000060: 6899 c1bd 29b0 1840 9e75 a7c0 02d4 bf40
00000070: 7bc8 fd3f 0737 d2bf ac83 a640 fb1e a1c0

bias f4 [32]
0.0 0.0 0.0 0.0 0.0 0.0 0.0 0.0
4.4114413 -7.6270313 3.8845906 -4.9268064 -4.046374 -4.1647673 -3.1234105 -4.71223
0.0 0.0 0.0 0.0 0.0 0.0 0.0 0.0
-6.8275723 7.089914 -2.7831056 -3.8103764 6.4529247 5.563038 -2.384103 -4.113627
00000000: 0000 0000 0000 0000 0000 0000 0000 0000
00000010: 0000 0000 0000 0000 0000 0000 0000 0000
00000020: 872a 8d40 a410 f4c0 229d 7840 66a8 9dc0
00000030: e57b 81c0 c645 85c0 f5e5 47c0 97ca 96c0
00000040: 0000 0000 0000 0000 0000 0000 0000 0000
00000050: 0000 0000 0000 0000 0000 0000 0000 0000
00000060: 797b dac0 93e0 e240 671e 32c0 35dd 73c0
00000070: 5c7e ce40 6804 b240 2595 18c0 d5a2 83c0

running_mean f4 [32]
-3.4594288 5.3450875 -3.454918 1.5802462 13.16936 -0.018251475 5.5525813 8.239394
39.994865 -50.260475 -14.452381 -43.321835 59.29174 33.18223 16.369522 5.1553793
-1.6312734 -8.20796 2.231009 -0.110138066 -3.9449518 3.5893254 -1.9206642 1.3542675
-57.26255 11.580222 84.27471 39.954018 -13.883845 49.178272 -82.51888 -35.754204
00000000: 4867 5dc0 f50a ab40 601d 5dc0 8245 ca3f
00000010: b3b5 5241 1e84 95bc bfae b140 8fd4 0341
00000020: befa 1f42 ba0a 49c2 f43c 67c1 8f49 2dc2
00000030: be2a 6d42 9bba 0442 c8f4 8241 def8 a440
00000040: 91cd d0bf ce53 03c1 dac8 0e40 1190 e1bd
00000050: 177a 7cc0 82b7 6540 53d8 f5bf a358 ad3f
00000060: da0c 65c2 9748 3941 a78c a842 ead0 1f42
00000070: 3b24 5ec1 8db6 4442 ab09 a5c2 4e04 0fc2

running_var f4 [32]
72.66756 101.18804 23.155071 61.54256 25.086098 119.12957 57.14189 77.372025
3079.5361 14552.403 11347.41 2835.6892 14288.822 8383.62 11672.198 4312.2627
34.15908 20.482231 211.70285 27.873232 329.90787 39.45115 56.719482 13.0906315
8987.422 15866.375 22222.41 5675.4736 9498.631 3471.151 4089.6309 14103.42
00000000: ca55 9142 4760 ca42 963d b941 952b 7642
00000010: 54b0 c841 5742 ee42 4c91 6442 7abe 9a42
00000020: 9478 4045 9d61 6346 a44d 3146 073b 3145
00000030: 4a43 5f46 7bfe 0246 cb60 3646 1ac2 8645
00000040: e6a2 0842 9cdb a341 eeb3 5343 61fc de41
00000050: 35f4 a443 facd 1d42 c0e0 6242 3a73 5141
00000060: b06d 0c46 80e9 7746 d29c ad46 ca5b b145
00000070: 866a 1446 6af2 5845 189a 7f45 ae5d 5c46

weight f4 [32]
0.5076686 5.0542502 -0.111152165 2.3397312 -1.016338 5.4543943 -0.38619617 -2.4440029
-4.680057 2.5975697 6.609416 -2.2117798 -4.150526 5.609109 3.498224 -7.9672093
3.6247785 7.241326 -0.19749777 1.062554 5.0488424 6.288452 7.7222304 1.9697511
-0.43073416 5.8126893 3.3070922 1.4625795 -2.0366488 -4.5389457 3.6695263 -6.417704
00000000: 92f6 013f 6bbc a140 bfa3 e3bd 28be 1540
00000010: 5d17 82bf 668a ae40 81bb c5be 8b6a 1cc0
00000020: 07c3 95c0 953e 2640 5680 d340 cd8d 0dc0
00000030: 1cd1 84c0 d27d b340 e7e2 5f40 61f3 fec0
00000040: 5ffc 6740 f1b8 e740 db3c 4abe c501 883f
00000050: 1e90 a140 003b c940 831c f740 ce20 fc3f
00000060: 3089 dcbe 8d01 ba40 66a7 5340 ce35 bb3f
00000070: 7458 02c0 0b3f 91c0 85d9 6a40 d55d cdc0

bias f4 [32]
-2.402269 -0.2527634 -6.523005 2.4481995 -4.9252567 -5.11365 4.1994405 1.8041779
1.9123708 5.2266335 -4.7315345 -1.4141145 2.9275813 -0.26356372 -1.2521417 1.6650052
5.1148014 3.7747993 2.6762803 2.5455804 0.6832394 0.80766296 1.5470123 -5.444957
4.712081 1.5350244 5.990888 -6.125477 -5.2927275 5.916742 -0.68321234 1.6813782
00000000: c6be 19c0 346a 81be 75bc d0c0 4daf 1c40
00000010: b49b 9dc0 05a3 a3c0 d161 8640 4def e63f
00000020: 91c8 f43f 9540 a740 bb68 97c0 b401 b5bf
00000030: 7e5d 3b40 d3f1 86be 2e46 a0bf e41e d53f
00000040: 74ac a340 5096 7140 2d48 2b40 caea 2240
00000050: c7e8 2e3f 00c3 4e3f 8004 c63f 163d aec0
00000060: 5ec9 9640 ae7b c43f 5bb5 bf40 e803 c4c0
00000070: 065e a9c0 f355 bd40 01e7 2ebf 6737 d73f

running_mean f4 [32]
8.25418 6.588797 12.108671 11.283866 -4.7488823 -12.026476 -12.877231 3.7201867
5.587965 0.5447231 -5.42071 -1.722319 -6.875127 15.046762 -8.652496 5.6675286
9.14866 -11.3337555 8.380076 11.981559 10.130476 14.478531 7.5376773 8.353083
-7.805761 7.954329 -7.8786564 10.465165 11.352396 -9.9711275 10.275547 -6.260508
00000000: 1f11 0441 6dd7 d240 1ebd 4141 b78a 3441
00000010: d8f6 97c0 726c 40c1 2309 4ec1 8a17 6e40
00000020: 9cd0 b240 f972 0b3f 7576 adc0 f374 dcbf
00000030: 0a01 dcc0 8abf 7041 a070 0ac1 655c b540
00000040: e960 1241 1057 35c1 cb14 0641 77b4 3f41
00000050: 6e16 2241 10a8 6741 a734 f140 3aa6 0541
00000060: cbc8 f9c0 dd89 fe40 f41d fcc0 5171 2741
00000070: 6aa3 3541 bd89 1fc1 a468 2441 1556 c8c0

running_var f4 [32]
408.2457 269.3583 966.89764 729.3044 130.12328 832.4701 967.9296 81.07837
178.27925 601.8897 392.9945 461.41635 440.05743 1404.9165 581.6924 562.73206
1368.5366 1359.1132 659.82117 1119.7714 606.8636 1237.7285 349.59003 687.209
524.49585 456.24805 1130.6842 1304.0688 746.1391 693.0401 1312.2953 249.06795
00000000: 731f cc43 ddad 8643 73b9 7144 7b53 3644
00000010: 8f1f 0243 161e 5044 7ffb 7144 2028 a242
00000020: 7d47 3243 f178 1644 4c7f c443 4bb5 e643
00000030: 5a07 dc43 549d af44 506c 1144 daae 0c44
00000040: 2c11 ab44 9fe3 a944 8ef4 2444 aff8 8b44
00000050: 45b7 1744 50b7 9a44 86cb ae43 60cd 2b44
00000060: bc1f 0344 c01f e443 e555 8d44 3402 a344
00000070: e788 3a44 9142 2d44 7309 a444 6511 7943

weight f4 [32]
10.606467 -2.4588547 -4.845617 -0.44587427 -4.2117953 -2.553913 -2.284611 -3.9880712
5.1189413 -3.3880675 2.565171 5.3719015 1.5601231 -3.721292 -0.35754243 0.39921412
4.172104 1.1501557 -0.39158097 -3.4403894 1.4618189 -1.7819473 4.6654243 -2.1898403
2.139776 0.13590726 0.4425077 3.714932 3.8058503 6.017447 -4.487729 -0.55551887
00000000: 17b4 2941 e05d 1dc0 4b0f 9bc0 a249 e4be
00000010: 07c7 86c0 5073 23c0 1137 12c0 8f3c 7fc0
00000020: 5ece a340 19d6 58c0 c32b 2440 9ee6 ab40
00000030: 1db2 c73f a629 6ec0 cd0f b7be cb65 cc3e
00000040: e081 8540 4d38 933f 4d7d c8be 572f 5cc0
00000050: e21c bb3f d916 e4bf 284b 9540 5826 0cc0
00000060: 17f2 0840 462b 0b3e 5f90 e23e 72c1 6d40
00000070: 0d93 7340 ed8e c040 7a9b 8fc0 7c36 0ebf

bias f4 [32]
-8.671508 -1.0129323 -4.2693357 1.9577398 -5.2056823 -1.720842 -6.325932 -2.0857358
-6.6681027 2.0533712 -3.3473878 -2.4014814 2.555406 3.0728035 9.395858 -4.132773
3.5093017 -2.3891644 -5.006325 -0.19436882 -3.1631393 -6.612788 -1.5818437 -5.3324127
7.8369317 -5.704346 -7.5293794 4.231651 0.95786095 -1.002589 -0.60863 -7.1764264
00000000: 7fbe 0ac1 c4a7 81bf 669e 88c0 3897 fa3f
00000010: f394 a6c0 8d44 dcbf 096e cac0 b27c 05c0
00000020: 1961 d5c0 6f6a 0340 9a3b 56c0 dfb1 19c0
00000030: c68b 2340 d0a8 4440 6f55 1641 ad3f 84c0
00000040: 6698 6040 12e8 18c0 d033 a0c0 9f08 47be
00000050: e070 4ac0 f69b d3c0 db79 cabf 20a3 aac0
00000060: 25c8 fa40 018a b6c0 adf0 f0c0 af69 8740
00000070: 6036 753f d654 80bf 2dcf 1bbf 49a5 e5c0

running_mean f4 [32]
3.7260854 -60.29837 83.21553 20.3457 40.679615 13.024856 24.827164 59.629604
-63.693283 -14.573981 -63.436203 68.01907 -52.450108 23.69115 -65.90562 0.5464998
-30.67664 26.187248 37.40999 41.542038 -5.1001697 -0.5269568 87.08597 -22.441654
58.21059 14.266647 -47.67578 -20.34054 10.736868 8.925327 58.819843 58.409744
00000000: 2f78 6e40 8831 71c2 5a6e a642 fec3 a241
00000010: edb7 2242 cf65 5041 089e c641 b784 6e42
00000020: ecc5 7ec2 072f 69c1 acbe 7dc2 c409 8842
00000030: e9cc 51c2 7a87 bd41 adcf 83c2 69e7 0b3f
00000040: c269 f5c1 7c7f d141 d4a3 1542 0c2b 2642
00000050: 9734 a3c0 a4e6 06bf 042c ae42 8288 b3c1
00000060: a5d7 6842 3044 6441 00b4 3ec2 6db9 a2c1
00000070: 36ca 2b41 24ce 0e41 8547 6b42 94a3 6942

running_var f4 [32]
3577.2695 5585.522 11449.806 3163.1006 1800.0802 5281.7764 1374.3684 2437.97
7460.4194 1246.6792 4634.805 5154.121 17232.455 1782.6957 2405.2556 3454.858
8954.092 782.7891 8395.858 4764.4653 8855.821 3271.4412 5546.1396 3125.5283
4460.9414 115.422615 6727.419 3447.1497 3514.6294 4185.272 4044.7139 12918.322
00000000: 5094 5f45 2d8c ae45 39e7 3246 9cb1 4545
00000010: 9102 e144 360e a545 cacb ab44 855f 1845
00000020: 5b23 e945 bcd5 9b44 71d6 9045 f810 a145
00000030: e9a0 8646 43d6 de44 1754 1645 baed 5745
00000040: 5ee8 0b46 81b2 4344 6f2f 0346 b9e3 9445
00000050: 495f 0a46 0f77 4c45 1e51 ad45 7458 4345
00000060: 8867 8b45 61d8 e642 5a3b d245 6572 5745
00000070: 12aa 5b45 2dca 8245 6ccb 7c45 4ad9 4946

weight f4 [32, 16]
-3.400157 -2.4493537 -1.9830736 -0.5907134 6.9985456 -5.5309634 -0.9495591 4.718223
1.8526622 5.275509 3.0805097 -2.1964636 0.753224 -5.0851517 -6.1528955 -4.922631
5.3387856 4.453432 -5.333831 -2.890808 -4.498835 3.46675 4.385572 4.1006594
-4.3180213 4.2445707 -5.04901 4.581079 -2.3859806 3.7462208 3.4458902 4.198537
-2.3946028 -7.361618 0.6322776 4.0752425 1.3972332 4.8653374 5.383211 -3.7405028
3.0340898 -3.302633 0.075299956 -5.9262967 -4.5168824 6.398109 4.9000654 -3.9536471
2.093102 6.7704277 -5.323843 3.137917 2.7702644 -3.4498832 -3.1882277 4.7775702
-0.25611514 5.8743196 -7.503891 1.6426917 -1.4705238 5.684632 -2.1956441 -1.4192294
-2.6265955 1.3565967 -5.3309355 -3.6156352 -3.9048395 -1.6073472 3.9684067 -4.7398114
-5.113677 -4.7107315 0.87499815 3.4596715 -3.787997 6.3843517 4.959494 -6.371159
0.69315785 6.8230996 2.1705751 5.691075 0.4235136 -8.010955 -6.7375646 -4.8958783
3.6261148 4.965074 -1.8285652 -3.1876712 -4.7771525 3.278913 -3.1062276 -4.211694
2.4821587 -3.2930424 4.108215 -5.5482817 -0.9941868 1.8687474 0.8307685 -1.3955946
6.7661247 -5.230398 6.5030093 -3.741986 6.7838426 -5.534955 -0.37318245 -5.8788247
5.9121227 -6.0840898 -0.26811522 5.0377464 -2.1679327 3.8214564 6.474071 -4.258497
4.3386097 -6.225004 0.43958855 -6.95643 6.4943137 4.151219 3.9498012 -5.667072
-4.0353007 5.566222 -4.8072977 2.9066243 2.2220833 -4.640352 -2.8362658 3.9861832
-5.9469666 3.3810003 -5.442205 4.5633273 -1.9293077 1.2402313 -5.058276 0.6606323
-2.8078353 1.4203186 -5.2622027 4.831415 4.4672976 -1.7890501 -2.307829 5.9903164
-5.7970996 -0.30822757 -2.939225 2.1544542 -4.8795576 4.528793 -2.9126506 3.2054505
-1.6102176 -4.3165517 -3.4919424 3.493992 -4.84328 3.4571843 -4.2387657 3.709788
-2.5666213 5.1688757 -2.821107 5.9712863 -6.6999702 -4.08472 -2.3278346 5.179488
-7.724192 -1.0366791 7.5999947 1.0904667 4.580271 -2.04156 5.157364 -3.3628078
1.3826169 1.2775949 0.015525857 -5.712978 -1.6047705 -0.6614108 0.18403327 -6.3127985
4.273248 4.1563644 -6.50164 4.7592497 -3.0527816 3.25704 -2.7002218 2.0866566
5.0737114 5.108449 -6.425657 5.5151687 3.458586 4.2007933 4.325498 -2.0175903
3.1591651 3.2604342 4.826014 5.8601766 3.7000074 -2.7059383 -4.7471995 4.645019
2.2879388 1.3104323 4.525231 -4.7019286 2.1966083 -1.8175818 -8.589247 -6.1316185
-2.5591717 -5.598925 -4.318651 1.5837897 0.01805046 4.450201 -3.3083024 2.5990918
-1.6842289 -1.3943442 3.5113397 1.0487713 5.221027 -2.6022413 -5.9331484 -7.199299
0.34488633 0.8667468 -6.533001 0.81280905 3.4039352 5.925528 5.545248 -2.2897868
4.7773476 2.4427133 -3.8803294 8.34661 1.4309053 -6.9672914 4.330816 1.4170872
00000000: 2c9c 59c0 36c2 1cc0 5bd5 fdbf fe38 17bf
00000010: 16f4 df40 a7fd b0c0 4e16 73bf affb 9640
00000020: 0924 ed3f f8d0 a840 1227 4540 dc92 0cc0
00000030: 4ad3 403f 90b9 a2c0 85e4 c4c0 3186 9dc0
00000040: 55d7 aa40 8482 8e40 beae aac0 0003 39c0
00000050: 75f6 8fc0 3bdf 5d40 9b56 8c40 9a38 8340
00000060: 3b2d 8ac0 86d3 8740 7d91 a1c0 3398 9240
00000070: e8b3 18c0 15c2 6f40 7789 5c40 6a5a 8640
00000080: 2c41 19c0 6092 ebc0 f2dc 213f 6368 8240
00000090: 8ad8 b23f d8b0 9b40 4443 ac40 6664 6fc0
000000a0: 872e 4240 575e 53c0 dd36 9a3d 39a4 bdc0
000000b0: 4d8a 90c0 4fbd cc40 56cd 9c40 8e08 7dc0
000000c0: 62f5 0540 58a7 d840 ec5c aac0 a2d3 4840
000000d0: 034c 3140 e3ca 5cc0 ec0b 4cc0 dbe1 9840
000000e0: 8621 83be 6dfa bb40 e01f f0c0 b943 d23f
000000f0: 203a bcbf 81e8 b540 6f85 0cc0 4fa9 b5bf
00000100: 241a 28c0 f6a4 ad3f 0697 aac0 9166 67c0
00000110: e4e8 79c0 8ebd cdbf 60fa 7d40 89ac 97c0
00000120: 3ea3 a3c0 50be 96c0 e1ff 5f3f 426b 5d40
00000130: 8b6e 72c0 9c4c cc40 2db4 9e40 89e0 cbc0
00000140: cb72 313f d556 da40 b4ea 0a40 491d b640
00000150: c6d6 d83e df2c 00c1 219a d7c0 09ab 9cc0
00000160: 4412 6840 e3e1 9e40 6d0e eabf ce02 4cc0
00000170: 6fde 98c0 b6d9 5140 6fcc 46c0 32c6 86c0
00000180: b0db 1e40 35c1 52c0 7f76 8340 868b b1c0
00000190: 0783 7ebf 1d33 ef3f 3fad 543f d8a2 b2bf
000001a0: 1884 d840 6c5f a7c0 a718 d040 b37c 6fc0
000001b0: 3d15 d940 5a1e b1c0 c511 bfbe 551f bcc0
000001c0: 1c30 bd40 ddb0 c2c0 6646 89be 3835 a140
000001d0: 69bf 0ac0 be92 7440 972b cf40 9c45 88c0
000001e0: e4d5 8a40 3c33 c7c0 c011 e13e 139b dec0
000001f0: 6bd1 cf40 c9d6 8440 8bc9 7c40 a758 b5c0
00000200: 2f21 81c0 7e1e b240 62d5 99c0 2206 3a40
00000210: 9d36 0e40 c37d 94c0 6185 35c0 a01d 7f40
00000220: 8d4d bec0 4f62 5840 8b26 aec0 c706 9240
00000230: 8ef3 f6bf e6bf 9e3f 66dd a1c0 331f 293f
00000240: 93b3 33c0 00cd b53f f763 a8c0 f49a 9a40
00000250: 1af4 8e40 98ff e4bf 78b3 13c0 acb0 bf40
00000260: d781 b9c0 01d0 9dbe 431c 3cc0 94e2 0940
00000270: 5625 9cc0 dfeb 9040 de68 3ac0 1a26 4d40
00000280: 9c1b cebf 3121 8ac0 fc7b 5fc0 919d 5f40
00000290: 26fc 9ac0 8242 5d40 f8a3 87c0 2b6d 6d40
000002a0: 8643 24c0 6e67 a540 048d 34c0 c714 bf40
000002b0: 2866 d6c0 07b6 82c0 3efb 14c0 5ebe a540
000002c0: 952c f7c0 e7b1 84bf 2833 f340 6a94 8b3f
000002d0: 9491 9240 eba8 02c0 2009 a540 3e38 57c0
000002e0: 97f9 b03f 3b88 a33f 2a60 7e3c b7d0 b6c0
000002f0: 1f69 cdbf 3852 29bf 3873 3c3e 7202 cac0
00000300: 73be 8840 f000 8540 6f0d d0c0 c64b 9840
00000310: c660 43c0 5873 5040 6fd0 2cc0 c88b 0540
00000320: d85b a240 6a78 a340 fb9e cdc0 437c b040
00000330: 7959 5d40 e66c 8640 7b6a 8a40 3320 01c0
00000340: c32f 4a40 f4aa 5040 b56e 9a40 9186 bb40
00000350: eccc 6c40 182e 2dc0 0fe9 97c0 ffa3 9440
00000360: 976d 1240 3fbc a73f b1ce 9040 3376 96c0
00000370: 3b95 0c40 85a6 e8bf 8e6d 09c1 3836 c4c0
00000380: 78c9 23c0 652a b3c0 6432 8ac0 9fb9 ca3f
00000390: 8fde 933c 0c68 8e40 3abb 53c0 8557 2640
000003a0: d094 d7bf df79 b2bf cab9 6040 233e 863f
000003b0: a712 a740 1f8b 26c0 5adc bdc0 a860 e6c0
000003c0: f194 b03e 1ee3 5d3f 580e d1c0 4114 503f
000003d0: 13da 5940 ed9d bd40 ac72 b140 de8b 12c0
000003e0: 08e0 9840 6a55 1c40 5157 78c0 b78b 0541
000003f0: e827 b73f 0df4 dec0 0b96 8a40 1d63 b53f

weight f4 [32]
-2.6716354 -3.4883285 -3.178646 0.14802802 0.79582 -0.23388955 -1.2264141 -1.8863938
-0.055145696 7.026704 -2.7854223 2.5401082 -3.4536757 5.5736756 7.061272 9.160419
0.569939 3.9270196 -2.9246848 -1.2101294 -4.2351217 -5.660132 4.9726896 3.4063113
5.934534 6.7496467 5.774702 5.420956 1.3741472 3.4590485 7.602394 -3.4373863
00000000: 13fc 2ac0 c640 5fc0 f06e 4bc0 a894 173e
00000010: dcba 4b3f be80 6fbe 23fb 9cbf 5a75 f1bf
00000020: 74e0 61bd c2da e040 5c44 32c0 2291 2240
00000030: 0609 5dc0 8d5b b240 f1f5 e140 1491 1241
00000040: 86e7 113f 4a54 7b40 092e 3bc0 85e5 9abf
00000050: 1e86 87c0 cd1f b5c0 4620 9f40 0101 5a40
00000060: b4e7 bd40 1bfd d740 5cca b840 7978 ad40
00000070: 0ee4 af3f 0d61 5d40 d046 f340 23fe 5bc0

bias f4 [32]
-6.2568674 -3.7429543 -4.6185637 2.5074115 -7.467666 -4.814321 -7.52283 -4.69066
0.2765619 -6.928634 -4.361552 -4.060422 -0.33579373 -2.6730602 -3.5307016 -3.880889
3.772642 -4.7778654 -6.4406586 2.145828 -2.6289697 -2.66195 -0.30719453 0.82550895
-5.6842546 1.5148629 -2.7281673 -2.9154415 -6.0510316 5.650113 -4.6787486 6.227711
00000000: 4238 c8c0 908c 6fc0 46cb 93c0 6e79 2040
00000010: 1ff7 eec0 eb0e 9ac0 06bb f0c0 e319 96c0
00000020: 8599 8d3e 5fb7 ddc0 d591 8bc0 faee 81c0
00000030: 28ed abbe 6b13 2bc0 04f7 61c0 7c60 78c0
00000040: f772 7140 46e4 98c0 e019 cec0 3f55 0940
00000050: 0a41 28c0 645d 2ac0 9a48 9dbe 8e54 533f
00000060: 6ae5 b5c0 07e7 c13f 4b9a 2ec0 9896 3ac0
00000070: 0da2 c1c0 bacd b440 4fb8 95c0 6949 c740
