Experiments/2022_07_26 13-51-41 wine_100runs_learning-rate_3mv-features_custom-loss /models/Model_run8_optimizer_params0.05_magnesium.pt (torch, 249613 bytes, 318 tensors)

weight f4 [12]
0	0x3f800000	1.0
1	0x3f800000	1.0
2	0x3f800000	1.0
3	0x3f800000	1.0
4	0x3f800000	1.0
5	0x3f800000	1.0
6	0x3f800000	1.0
7	0x3f800000	1.0
8	0x3f800000	1.0
9	0x3f800000	1.0
10	0x3f800000	1.0
11	0x3f800000	1.0

bias f4 [12]
0	0x00000000	0.0
1	0x00000000	0.0
2	0x00000000	0.0
3	0x00000000	0.0
4	0x00000000	0.0
5	0x00000000	0.0
6	0x00000000	0.0
7	0x00000000	0.0
8	0x00000000	0.0
9	0x00000000	0.0
10	0x00000000	0.0
11	0x00000000	0.0

running_mean f4 [12]
0	0x00000000	0.0
1	0x00000000	0.0
2	0x00000000	0.0
3	0x00000000	0.0
4	0x00000000	0.0
5	0x00000000	0.0
6	0x00000000	0.0
7	0x00000000	0.0
8	0x00000000	0.0
9	0x00000000	0.0
10	0x00000000	0.0
11	0x00000000	0.0

running_var f4 [12]
0	0x3f800000	1.0
1	0x3f800000	1.0
2	0x3f800000	1.0
3	0x3f800000	1.0
4	0x3f800000	1.0
5	0x3f800000	1.0
6	0x3f800000	1.0
7	0x3f800000	1.0
8	0x3f800000	1.0
9	0x3f800000	1.0
10	0x3f800000	1.0
11	0x3f800000	1.0

weight f4 [12]
0	0x3f574758	0.84093237
1	0x3f32d87c	0.6986158
2	0x3f81d40b	1.0142835
3	0x3f871caf	1.0555629
4	0x3f5fee13	0.8747265
5	0x3f938651	1.1525365
6	0x3f206a34	0.62662053
7	0x3f942096	1.1572444
8	0x3f980122	1.1875346
9	0x3f843c2a	1.0330861
10	0x3f85524e	1.0415742
11	0x3f54b256	0.8308462

bias f4 [12]
0	0xbdbdcbdc	-0.09267399
1	0xbdee198b	-0.11625966
2	0x3eb8a677	0.36064503
3	0x3d7a4280	0.061098576
4	0xbe56e1b4	-0.20984536
5	0xbec7e305	-0.3904039
6	0x3bcc1eae	0.0062292432
7	0x3f09edcc	0.53878474
8	0x3e6d8d2b	0.23198383
9	0x3ebc4834	0.36773837
10	0xbddfa282	-0.10919668
11	0xbea1c35d	-0.31594363

running_mean f4 [12]
0	0x400b39b7	2.1753976
1	0x3f64ee1f	0.89425844
2	0x3ec6572c	0.38738382
3	0x404c00f0	3.1875572
4	0x3edaf0f8	0.4276197
5	0x3e8997da	0.26873666
6	0x3ec8cec0	0.39220238
7	0x3e9e04ff	0.30863187
8	0x3e903f33	0.28173217
9	0x3d72289e	0.059120767
10	0x3e1f7d64	0.15575176
11	0x430237dc	130.2182

running_var f4 [12]
0	0x3f70a0de	0.93995464
1	0x3fe21274	1.7661881
2	0x3f67eaa2	0.90592396
3	0x4030bd6d	2.7615616
4	0x3f6ca9f5	0.92446834
5	0x3f659103	0.89674395
6	0x3f58d867	0.84705204
7	0x3f905d88	1.1278543
8	0x3fa11e85	1.2587439
9	0x3f564928	0.8370538
10	0x3f578cfd	0.84199506
11	0x466d1450	15173.078

weight f4 [32, 12]
0	0x3ed1389a	0.40863496
1	0x3f0b7ecd	0.5449036
2	0x3f28136a	0.65654624
3	0x3e460115	0.1933635
4	0xbf923551	-1.1422521
5	0x3eb0cf01	0.3453293
6	0xbd9d135f	-0.0766971
7	0xbf0dba5c	-0.55362487
8	0xbe36d39d	-0.17854162
9	0x3fb61a78	1.4226828
10	0xbfa10b24	-1.2581525
11	0x3cffae23	0.031210965
12	0x3e69b7d6	0.22824034
13	0x3d5f5b54	0.054530457
14	0x3ed80c49	0.42196873
15	0x3edcdc20	0.43136692
16	0xbf41d722	-0.7571889
17	0xbe002b9b	-0.12516634
18	0x3f8283b1	1.0196439
19	0x3e21470a	0.15749756
20	0x3eb1344f	0.3461022
21	0x3e40f092	0.1884177
22	0xbfed46e3	-1.8537258
23	0xbda01737	-0.07816928
24	0xbf07758f	-0.52913755
25	0x3e771ee1	0.24132873
26	0xbf5e7606	-0.8689884
27	0x3e851d96	0.25999135
28	0xbe13e99f	-0.14444588
29	0xbff244a5	-1.8927199
30	0xbf018a25	-0.50601417
31	0x3e1d1e4f	0.15343593
32	0xbb8a4ea2	-0.0042207995
33	0x3f60b40d	0.87774736
34	0x3f025133	0.5090515
35	0xbfd4ba45	-1.6619345
36	0x3fb6e14c	1.4287505
37	0x3e8e6057	0.27807876
38	0x3e304277	0.17212854
39	0xbf74106e	-0.9533757
40	0xbf6c20c2	-0.92237484
41	0x3e9a84d0	0.30179453
42	0x3e2e342d	0.17012091
43	0x3f36be12	0.71383774
44	0x3f62d6a2	0.88608754
45	0x3f89761a	1.0739167
46	0x3da88b19	0.08229656
47	0xbdc772a5	-0.097386636
48	0xbf994218	-1.1973295
49	0x3f3a0ce3	0.72675914
50	0x3f902008	1.1259775
51	0x3f0c8054	0.54883313
52	0x3f3d641a	0.7398087
53	0x3ecafb58	0.39644885
54	0xbf295ea0	-0.6616001
55	0x3fd3042e	1.648565
56	0xbe7acfff	-0.24493407
57	0xbe1ba5db	-0.15199988
58	0x401341fd	2.3009026
59	0x3f8ce7b1	1.1008207
60	0xbf8162ac	-1.0108237
61	0x3faecfff	1.3657225
62	0xbf129486	-0.5725788
63	0x3dbfc14a	0.09363039
64	0xbf835b8a	-1.026231
65	0xbe5f7541	-0.21822073
66	0xbe932884	-0.28741848
67	0xbe83597b	-0.25654206
68	0xbf2eb4dc	-0.6824472
69	0xbf286066	-0.6577209
70	0xbf326036	-0.69678056
71	0xbf077657	-0.5291495
72	0xbf5a8a02	-0.85366833
73	0xbf160eeb	-0.58616513
74	0xbe845451	-0.25845578
75	0xbeafa59e	-0.34306043
76	0x3ec33dc4	0.3813306
77	0xbfaed8a6	-1.3659866
78	0xbf32c9b8	-0.6983905
79	0xbe758d0a	-0.23979583
80	0x3b6a6682	0.0035766666
81	0xbfbc6c7d	-1.4720608
82	0xbf0bfaf0	-0.54679775
83	0xbe26fa2a	-0.16306368
84	0x3c94a748	0.018146172
85	0xbeb5b5c3	-0.35490236
86	0xbdec8348	-0.115484774
87	0xbfa59beb	-1.2938207
88	0x3fa20df5	1.2660509
89	0x3fc330a0	1.5249214
90	0x3fab12a7	1.3365067
91	0xbf5a63e6	-0.8530868
92	0x3f531ad6	0.82462823
93	0x3fe00055	1.7500101
94	0xbf29d70e	-0.6634377
95	0x3e97deb3	0.29662094
96	0x3f85cd1a	1.0453217
97	0xbd6916ed	-0.05690663
98	0x3ee3872e	0.4443907
99	0x3f8ed98f	1.1160144
100	0xbe900440	-0.28128242
101	0x3cf6e8ae	0.030140247
102	0x3edf760d	0.43644753
103	0x3f0bcdc9	0.5461088
104	0x3ea91799	0.33025816
105	0x3e21346c	0.15742654
106	0x3f163ea0	0.5868931
107	0x3f3e8f47	0.74437374
108	0x3fb55327	1.4166001
109	0xbf057785	-0.521355
110	0x3e05c9cd	0.13065262
111	0xbf85e59d	-1.0460697
112	0x3e5fd345	0.21857937
113	0x3f502601	0.8130799
114	0x3eb35312	0.35024315
115	0xbf6cbca3	-0.92475337
116	0x3e4059bc	0.18784231
117	0xbf01f469	-0.50763565
118	0x3e27e4bf	0.16395853
119	0x3f014118	0.5048995
120	0xbe9988ba	-0.29987127
121	0xbe730e54	-0.23735934
122	0xbe4920e6	-0.19641456
123	0x3f604930	0.87611675
124	0x3ea67c94	0.3251692
125	0xbf03eab3	-0.5153
126	0xbe210bc1	-0.1572714
127	0xbebd17b1	-0.36932138
128	0xbfa89600	-1.3170776
129	0xbd96f5eb	-0.07371124
130	0xbb5c2e2c	-0.0033596857
131	0x3dc04593	0.0938827
132	0x3e39b8e1	0.18136932
133	0x3dd46c56	0.10372226
134	0xbf0796d3	-0.52964514
135	0x3dfb5cd0	0.12273562
136	0x3f857fae	1.042959
137	0xbf12232c	-0.5708492
138	0xbeb8bd1c	-0.3608178
139	0xbea4cf3d	-0.3218936
140	0xbfc6f064	-1.5542111
141	0x3d841958	0.064501464
142	0xbc2ecc90	-0.010668889
143	0x3f4f0ce8	0.8087907
144	0xbee9b566	-0.4564621
145	0x3f03e3ee	0.5151967
146	0xbfea80a7	-1.8320512
147	0xbef1821c	-0.47169578
148	0xbe77cacb	-0.24198453
149	0xbf6afc0c	-0.91790843
150	0xbd1819e3	-0.037134062
151	0xbeb6a803	-0.35675058
152	0xbeea5148	-0.45765138
153	0x3f7199f6	0.9437555
154	0x3f0315ce	0.51205146
155	0x3f1f2426	0.62164533
156	0xbeb376ee	-0.35051674
157	0x3eeac248	0.4585135
158	0x3f3467b9	0.7047077
159	0x3e6a9892	0.22909763
160	0x3f7f6e8f	0.99778074
161	0x3fc0ac80	1.5052643
162	0xbe8124f0	-0.25223494
163	0x3ec5812b	0.3857511
164	0x3f05e453	0.5230152
165	0xbef15d7d	-0.47141638
166	0xbf40faca	-0.75382674
167	0x3f359f57	0.7094626
168	0x3d9f40d4	0.07776037
169	0x3ce3fa64	0.027829356
170	0x3f236f82	0.6384202
171	0xbf418122	-0.75587666
172	0xbfc8355b	-1.5641283
173	0xbf86740c	-1.0504165
174	0xbfa72a91	-1.3059865
175	0x3ed201c9	0.41016987
176	0x3edb1d77	0.42795917
177	0x3ed423c1	0.41433528
178	0xbdf2ecaf	-0.1186155
179	0xbee1bb4c	-0.4408821
180	0xbd534481	-0.051579002
181	0xbf6140a9	-0.8798929
182	0x3f762237	0.9614596
183	0x3f4da1e9	0.8032518
184	0xbf3138f3	-0.6922752
185	0x3f599650	0.84994984
186	0x3e606bf6	0.21916184
187	0x3e8c3a59	0.27388266
188	0xbe17f1f5	-0.14838393
189	0xbf3a4ad5	-0.72770435
190	0x3d9f77a7	0.07786494
191	0xbf3a6650	-0.72812366
192	0x3f316ed3	0.6930973
193	0xbf4016fd	-0.7503508
194	0x3f4b1520	0.7932911
195	0x3f637048	0.888432
196	0xbf5e7727	-0.8690056
197	0xbfc6edc8	-1.5541315
198	0x3e442778	0.19155681
199	0x3f9ce23f	1.2256545
200	0x3e891037	0.26770183
201	0x3fb2d1ec	1.3970313
202	0xbf8022c9	-1.0010616
203	0xbe9a18db	-0.30097088
204	0x3fa449da	1.2835038
205	0xbe72cad4	-0.23710185
206	0xbdde35e8	-0.108501256
207	0xbf5621fd	-0.8364561
208	0x3ea47d60	0.32126904
209	0xbf2fc538	-0.68660307
210	0xbe375b7f	-0.17905997
211	0x3f0c2c01	0.54754645
212	0xbea09daf	-0.31370303
213	0xbf953985	-1.1658179
214	0x3f0b186b	0.54334134
215	0x3d571427	0.052509453
216	0xbf77bed2	-0.96775544
217	0x3fa25943	1.268349
218	0x3d5fccdc	0.05463873
219	0x3efa52ea	0.48891383
220	0x3ec5219a	0.38502198
221	0xbdd91841	-0.10600329
222	0xbe3ce429	-0.18446411
223	0xbfb7fe1c	-1.4374423
224	0x3f8671a1	1.0503427
225	0x3f827f9f	1.0195197
226	0x3d4b4bbc	0.049632773
227	0x3f87db12	1.061373
228	0xbf30c0a2	-0.69043934
229	0x3d732abb	0.059366923
230	0x3b9ac850	0.004723586
231	0xbed50feb	-0.41613707
232	0xbf9466db	-1.1593889
233	0x3e192a0e	0.14957449
234	0xbf9a1160	-1.2036552
235	0x3f72b99b	0.9481446
236	0x3fe8a39c	1.817493
237	0x3f6b4374	0.918998
238	0x3f68bac6	0.90909994
239	0x3f978c56	1.1839702
240	0xbe3e9985	-0.1861325
241	0x3eb1b006	0.34704608
242	0x3f2e32d6	0.6804632
243	0x3e07e3b1	0.13270451
244	0x3e8308db	0.25592694
245	0x3deeb395	0.11655346
246	0x3f079688	0.5296407
247	0xbe9f4dd0	-0.31114054
248	0x3e05cc9e	0.13066337
249	0xbd985d3f	-0.0743966
250	0xbdb3b934	-0.08775559
251	0xbff4e253	-1.9131569
252	0xbf81ef9c	-1.0151248
253	0xbdf7bc28	-0.12096435
254	0x3e8058b4	0.25067675
255	0x3dcc34f9	0.09971041

weight f4 [32, 16]
0	0xbf034dc3	-0.5129053
1	0x3faaaee9	1.3334628
2	0x3d24f7e9	0.040275488
3	0xbf1a0e64	-0.6017821
4	0xbf8927ac	-1.0715232
5	0x3e5942c2	0.21216872
6	0x3f5c8dfd	0.86154157
7	0x3ecaec90	0.39633608
8	0x3ca9bc1f	0.020719586
9	0x3e9229af	0.28547427
10	0x3ee08dcf	0.4385819
11	0x3e6110b4	0.21979028
12	0x3f57b73c	0.8426397
13	0xbecea90e	-0.40363353
14	0xbf013f8f	-0.5048761
15	0x3fdda49b	1.7315859
16	0x3f79579b	0.973993
17	0xbedfbcfb	-0.43698868
18	0x3f29dd4d	0.66353303
19	0x3fb3d083	1.4048008
20	0xbea82a4b	-0.32844767
21	0xbe80bcd7	-0.25144073
22	0xbee93b5c	-0.455531
23	0xbe9616e8	-0.2931435
24	0xbec6dd1c	-0.38840568
25	0xbc09abc0	-0.008402765
26	0xbd0597b1	-0.032615367
27	0x3f10b4ac	0.56525683
28	0x3ec84725	0.3911678
29	0x3f3749d5	0.71597034
30	0xbf0fb5aa	-0.5613657
31	0x3ec6a3e3	0.3879691
32	0xbce72b4b	-0.028218886
33	0xbf95ab3a	-1.1692879
34	0xbfe80fad	-1.8129784
35	0xbfdc9f84	-1.723618
36	0xbcb8d980	-0.02256465
37	0xbf5076d4	-0.8143132
38	0xbc1c4bf6	-0.009539595
39	0xbeea7b39	-0.45797136
40	0x3f330d9a	0.6994263
41	0x3f2764fb	0.6538846
42	0xbf3134ea	-0.69221365
43	0xbfc5e00f	-1.5459002
44	0x3f67bc16	0.9052137
45	0x3f4fdfef	0.8120107
46	0x3e5bace7	0.21452676
47	0x3f71998d	0.94374925
48	0x3ec800c4	0.39063084
49	0x3f1a77bb	0.60338944
50	0xbf5179f9	-0.8182674
51	0x3deee5f0	0.11664951
52	0x3ed64f36	0.41857308
53	0xbe787035	-0.24261554
54	0xbebcbfc5	-0.3686506
55	0x3f7bc741	0.9835091
56	0x3f4c1825	0.7972434
57	0x3d2a690d	0.04160409
58	0xbf0faea7	-0.56125873
59	0x3c8cb6ec	0.017177068
60	0xbf1d176f	-0.6136388
61	0x3d3d00a3	0.046143185
62	0xbd538f5e	-0.051650397
63	0xbf4af716	-0.79283273
64	0x3eddcc47	0.43319914
65	0x3e9a6e22	0.3016215
66	0xbebab6c1	-0.36467555
67	0xbec533a7	-0.3851597
68	0x3d24ee1c	0.04026614
69	0xbd328bd6	-0.04359039
70	0x3e87c139	0.26514605
71	0x3f45d26e	0.77274215
72	0x3fca3ed0	1.5800419
73	0x3df6accb	0.120446764
74	0xbf8d7079	-1.1049949
75	0xbf26410a	-0.6494299
76	0xbf1a83a7	-0.60357136
77	0xbf9e6a6e	-1.237623
78	0xbdf2c181	-0.11853314
79	0x3fa33ad5	1.2752329
80	0xbed48d4d	-0.41514054
81	0xbf586758	-0.8453269
82	0x3ee0ec1a	0.4393013
83	0x3ca7062c	0.020388685
84	0xbfd63a2c	-1.6736503
85	0x3e999f20	0.30004215
86	0x3f22dd57	0.6361899
87	0x3ec0d61a	0.37663347
88	0xbf835ebc	-1.0263286
89	0xbf5fe974	-0.87465596
90	0x3e09bf06	0.13451776
91	0xbef2824a	-0.47365028
92	0xbfc5a6ed	-1.5441567
93	0xbe83e186	-0.25757998
94	0x3e570544	0.20998102
95	0xbc82c479	-0.015962826
96	0xbe206363	-0.15662913
97	0xbcd1ce55	-0.025611082
98	0x3e36fda0	0.17870188
99	0x3f677fd4	0.90429425
100	0x3e579b25	0.21055277
101	0x3f2bee1c	0.671602
102	0x3f1fb824	0.6239035
103	0x3e4119a0	0.18857431
104	0xbe49a9fa	-0.19693747
105	0x3ecbfd52	0.39841706
106	0x3f0d30c0	0.5515251
107	0x3f515a39	0.81778294
108	0x3f515943	0.8177683
109	0xbeca0708	-0.3945849
110	0x3fae3226	1.3609054
111	0xbf9ddc3a	-1.2332833
112	0xbc199ad4	-0.009375293
113	0xbf8f04b7	-1.1173314
114	0xbf97e6ec	-1.1867347
115	0xbf7ea7cf	-0.99474806
116	0x3eb78900	0.3584671
117	0xbec2c746	-0.3804266
118	0x3f1e8606	0.61923254
119	0x3e11878a	0.1421186
120	0xbfd99052	-1.6997168
121	0x3f7d659e	0.9898318
122	0xbf50a9d5	-0.81509143
123	0x3f510e4a	0.8166243
124	0xbf2acccf	-0.66718763
125	0xbebc629e	-0.3679399
126	0xbeba23ff	-0.36355588
127	0xbec140fe	-0.37744898
128	0xbf299324	-0.66240144
129	0x3f20c5ff	0.6280212
130	0xbf3a2ec5	-0.72727615
131	0x3e7cd8e0	0.24692106
132	0xbfa87d71	-1.3163282
133	0x3fadde6b	1.3583502
134	0xbf89766a	-1.0739262
135	0x3f2bc52f	0.67097753
136	0xbf01c2f7	-0.5068812
137	0xbe0f2b8f	-0.1398146
138	0xbf4c41ed	-0.79788095
139	0x3ec752a9	0.38930252
140	0x3f927988	1.1443338
141	0xbd737cf8	-0.05944535
142	0x3e004e9a	0.12529984
143	0x3c35a4d2	0.0110866595
144	0xbed39331	-0.41323236
145	0xbe3a1f78	-0.18176067
146	0xbfe5e387	-1.7960061
147	0xbea5030b	-0.32228884
148	0xbf14937c	-0.58037543
149	0x3f09ff29	0.5390497
150	0xbf3b95f9	-0.73275715
151	0xbed33ee2	-0.41258913
152	0x3f8ba911	1.091097
153	0x3f3b6cbf	0.7321281
154	0xbf182870	-0.594367
155	0xbf0bdd55	-0.546346
156	0xbef5ba3b	-0.47993645
157	0xbed39571	-0.41324952
158	0x3e3bc656	0.18337378
159	0xbec4ffc1	-0.38476375
160	0x3ea78518	0.3271873
161	0xbe15c97b	-0.1462764
162	0x3f93c570	1.1544628
163	0x3edfa991	0.43684056
164	0xbee60db3	-0.44932327
165	0xbe432ea0	-0.19060755
166	0x3dac77cd	0.08421288
167	0x3e46a906	0.19400415
168	0xbeaf736e	-0.34267753
169	0xbf9c334c	-1.2203155
170	0xbf8ede51	-1.1161596
171	0xbf79323e	-0.9734229
172	0x3e38dc81	0.18052866
173	0xbf435592	-0.76302445
174	0x3ee09178	0.43860984
175	0xbc0a489d	-0.008440164
176	0x3e672530	0.2257278
177	0xbe9858e3	-0.29755315
178	0xbef59ecb	-0.47972712
179	0x3e25eead	0.16204329
180	0xbfdd9dcf	-1.7313784
181	0x3f298e63	0.6623289
182	0xbf45edb1	-0.77315813
183	0x3f2ecefc	0.68284583
184	0x3efefb42	0.4980107
185	0x3edb9723	0.42888746
186	0xbfe02202	-1.7510378
187	0x3e877c82	0.2646218
188	0xbf34a31c	-0.70561385
189	0xbf351af7	-0.7074427
190	0x3ddd36b0	0.108014464
191	0xbfcecd38	-1.6156378
192	0x3ec53102	0.38513952
193	0x3da0f88c	0.078599066
194	0xbf30dc56	-0.69086206
195	0x3ef24848	0.4732077
196	0x3f0d4bbd	0.5519369
197	0xbf926bf7	-1.1439198
198	0xbf339ee8	-0.70164347
199	0xbf32ef4c	-0.6989639
200	0x3f65c96e	0.8976048
201	0xbf42ff74	-0.7617104
202	0xbec59a73	-0.38594398
203	0x3dace499	0.08442039
204	0xbf19e53b	-0.601154
205	0x3f83fa04	1.0310674
206	0x3ce0f850	0.027462155
207	0x3f5c6e1c	0.86105514
208	0x3e00a9e0	0.12564802
209	0xbf86368f	-1.04854
210	0x3dec89c8	0.11549717
211	0x3f78a10a	0.97120726
212	0xbee01f98	-0.43774104
213	0xbfad1c74	-1.3524308
214	0x3fa4465c	1.2833972
215	0x3f6820a3	0.906748
216	0xbe2ca927	-0.16861401
217	0x3e0c8669	0.13723148
218	0x3e8153b9	0.25259188
219	0xbf3c03cb	-0.7344329
220	0xbf9678b4	-1.1755586
221	0xbe322480	-0.17396736
222	0x3f07950f	0.5296182
223	0x3dc9f77d	0.09861658
224	0xbf399bc7	-0.7250332
225	0x3f3351f5	0.7004693
226	0xbd0b1538	-0.033955783
227	0xbeb309be	-0.3496837
228	0x3e240e14	0.16020995
229	0xbf80dcdd	-1.0067402
230	0xbf4664b9	-0.7749744
231	0x3edf8c18	0.4366157
232	0xbe456486	-0.19276628
233	0xbf95440d	-1.1661392
234	0xbf9c2a97	-1.2200497
235	0xbe4742a9	-0.19459023
236	0x3d8fc866	0.07020645
237	0x3fa777ad	1.3083397
238	0x3f0e554c	0.555989
239	0x3f22a08a	0.63526213
240	0xbed492f0	-0.41518354
241	0xbd8fc79d	-0.07020495
242	0x3f6311db	0.8869912
243	0xbe50b8c6	-0.20382985
244	0xbeeb4128	-0.45948148
245	0xbf502a36	-0.8131441
246	0xbf814b6f	-1.0101146
247	0xbfa1494f	-1.2600497
248	0x3ddb042f	0.10694157
249	0x3fb91a24	1.4461102
250	0xbe114599	-0.14186706
251	0x3f86c3ca	1.05285
252	0x3eb5e79c	0.35528266
253	0xbe822b17	-0.254235
254	0x3fbc96f8	1.4733572
255	0x3e75ab9b	0.23991244

weight f4 [32]
0	0x3f5f980b	0.87341374
1	0x3f2160be	0.6303824
2	0x3f4e66cb	0.806256
3	0x3f957297	1.1675595
4	0x3f8d268c	1.1027389
5	0x3f3f6e72	0.747779
6	0x3f8cfa78	1.1013937
7	0x3f56c4a6	0.8389381
8	0x3faacd09	1.3343822
9	0x3f78123e	0.96902835
10	0x3f4841b0	0.7822523
11	0x3f608101	0.87696844
12	0x3f65019d	0.89455587
13	0x3f8a5b61	1.0809137
14	0x3f608166	0.87697446
15	0x3facdeaa	1.3505452
16	0x3f5e4cc5	0.8683589
17	0x3f563a9d	0.83683187
18	0x3fa0e542	1.2569964
19	0x3f8eeb47	1.1165551
20	0x3f813a99	1.0096008
21	0x3f5c8f40	0.8615608
22	0x3f6227e9	0.8834215
23	0x3f917d04	1.1366277
24	0x3f98803a	1.1914132
25	0x3f571edc	0.8403146
26	0x3f2d92ca	0.6780211
27	0x3f4b1756	0.7933248
28	0x3f95de95	1.1708552
29	0x3f5e3435	0.8679841
30	0x3f334f59	0.7004295
31	0x3f8c568e	1.0963914

bias f4 [32]
0	0x3e30b985	0.1725827
1	0x3cb7e5a3	0.022448367
2	0xbe29d0b6	-0.16583523
3	0xbc801520	-0.015635073
4	0x3cefcfa2	0.029273812
5	0xbe72a625	-0.23696192
6	0x3e238022	0.15966848
7	0x3e7af206	0.24506387
8	0xbcedec09	-0.029043214
9	0xbc862bd3	-0.016378319
10	0xbd66b359	-0.056323383
11	0xbe03d6f4	-0.12874967
12	0x3c9ee29c	0.019395165
13	0xbc55aafb	-0.013041253
14	0x3c9edb3a	0.019391645
15	0xbe84774f	-0.25872275
16	0xbe827fa8	-0.2548802
17	0x3da1558b	0.07877644
18	0xbe74f3df	-0.23921154
19	0x3be65502	0.0070291767
20	0x3e1cf050	0.15326047
21	0xbe2422f5	-0.1602896
22	0x3d880210	0.066410184
23	0xbe6d8cb8	-0.23198211
24	0x3db83aa8	0.08995563
25	0x3e0da052	0.13830689
26	0xbdd69468	-0.10477525
27	0xbe09cd1a	-0.13457146
28	0xbe1eb1c8	-0.15497506
29	0x3e9a939b	0.3019074
30	0xbc89fd8b	-0.016844532
31	0x3ea1701d	0.31530848

running_mean f4 [32]
0	0x3e1ea6cb	0.15493314
1	0x3e458c7a	0.19291869
2	0x3e79eba3	0.24406295
3	0x3e4e5ca3	0.20152526
4	0x3c89cc2b	0.016820988
5	0xbcb31303	-0.021859651
6	0x3c05ea53	0.008173543
7	0xbdcd0209	-0.10010154
8	0x3d16d150	0.03682071
9	0xbe699fb1	-0.22814824
10	0xbd9d8e46	-0.07693152
11	0xbe242690	-0.16030335
12	0xbdb87351	-0.0900637
13	0xbde7a853	-0.11311402
14	0x3ea576dd	0.32317248
15	0x3d8aea17	0.0678293
16	0x3f061540	0.52376175
17	0xbceef06d	-0.029167378
18	0xbdc47b5e	-0.09593843
19	0x3e1a86ec	0.15090531
20	0x3db58c4f	0.08864652
21	0x3cbcc1ef	0.023041693
22	0xbdf901a2	-0.121585146
23	0xbe71df80	-0.23620415
24	0x3d90817c	0.07055947
25	0xbe11e09a	-0.14245835
26	0x3d174a0d	0.036935855
27	0xbd69321c	-0.056932554
28	0xbe8cf2f1	-0.275291
29	0xbded60cd	-0.11590729
30	0x3b869442	0.004107029
31	0xbcca01f0	-0.024659127

running_var f4 [32]
0	0x40632142	3.548905
1	0x403d1fa4	2.9550562
2	0x40b362bb	5.605802
3	0x4000cef5	2.0126317
4	0x41164518	9.391869
5	0x402ad747	2.6693895
6	0x4017918b	2.3682582
7	0x4028378b	2.62839
8	0x3fe753e0	1.8072472
9	0x4023d895	2.560094
10	0x3fc93d7e	1.5721891
11	0x3ff8c6ba	1.9435647
12	0x40788d8e	3.8836398
13	0x4060b96b	3.511317
14	0x4005d1b5	2.0909245
15	0x3ffba3cd	1.9659363
16	0x405c8496	3.4455924
17	0x403be067	2.9355714
18	0x4068d25c	3.6378393
19	0x4013487c	2.301299
20	0x3fb432c0	1.4077988
21	0x3fb1b332	1.3882811
22	0x40343917	2.8159845
23	0x4017ef9b	2.3739994
24	0x3fb5f2a7	1.4214677
25	0x3fac20e5	1.3447539
26	0x4010b98e	2.2613254
27	0x3fe2b27d	1.771072
28	0x40949d45	4.644198
29	0x4024c233	2.574353
30	0x40814ad5	4.040385
31	0x407a8f75	3.915006

weight f4 [32]
0	0x3f8fb043	1.1225666
1	0x3f64507b	0.89185303
2	0x3f9ca3f4	1.2237535
3	0x3fa2f064	1.2729611
4	0x3f8ab67d	1.0836941
5	0x3f8d3291	1.1031057
6	0x3f84f2a1	1.0386544
7	0x3f8567ee	1.0422342
8	0x3f664777	0.89952797
9	0x3f9739f1	1.1814557
10	0x3fa7ea8e	1.3118455
11	0x3f91f8d6	1.1404064
12	0x3f8ecb63	1.1155819
13	0x3f84e5a8	1.0382586
14	0x3f4f2315	0.80912906
15	0x3f305382	0.6887742
16	0x3f755bd4	0.95843244
17	0x3f7f9257	0.9983267
18	0x3f80f4b5	1.0074679
19	0x3f687775	0.90807277
20	0x3f85f7db	1.0466264
21	0x3f41e26c	0.7573612
22	0x3f4e00a8	0.8046975
23	0x3f8b0ad4	1.086268
24	0x3f8bd7b3	1.0925201
25	0x3f572678	0.84043074
26	0x3fa22a34	1.2669129
27	0x3f8664ad	1.0499474
28	0x3f74e245	0.9565776
29	0x3f9c3438	1.2203436
30	0x3f58c1cb	0.84670705
31	0x3f3cb993	0.73720664

bias f4 [32]
0	0x3cae0e04	0.021246918
1	0x3d4c66c9	0.04990271
2	0xbe69e0a9	-0.22839607
3	0xbe50338b	-0.20332162
4	0x3dea62ba	0.11444612
5	0xbea5201a	-0.32251054
6	0x3d9d71fc	0.076877564
7	0x3e866705	0.26250473
8	0x3ea57968	0.32319188
9	0x3c2daabb	0.010599787
10	0x3ec9046e	0.39261192
11	0x3e676c0f	0.22599815
12	0xbd7361b6	-0.059419356
13	0xbe6f46ed	-0.233669
14	0xbe00d1c6	-0.12580022
15	0x3e8ab922	0.2709437
16	0x3e3815ed	0.17977114
17	0xbe31df09	-0.17370237
18	0x3e0c9e37	0.13732229
19	0x3e7746eb	0.24148147
20	0x3ce9c875	0.028537968
21	0x3e29158f	0.1651213
22	0x3e4886c5	0.1958266
23	0xbe50500c	-0.20343035
24	0xbdd70e2a	-0.105007485
25	0x3e5ccbbe	0.21562096
26	0x3e315ed3	0.17321329
27	0x3d8b6da8	0.06808025
28	0x3dcc1a03	0.09965899
29	0xbd602c1d	-0.05472957
30	0xbe59ab07	-0.21256648
31	0xbeac65e2	-0.3367148

running_mean f4 [32]
0	0xbe7b30d8	-0.24530351
1	0x3d76d129	0.060258064
2	0xbe256df5	-0.16155227
3	0x3dbdcb5a	0.09267302
4	0xbde0ff85	-0.109862365
5	0x3e0ed563	0.13948588
6	0x3dcb4404	0.09925082
7	0x3e1574f1	0.14595391
8	0xbdba4536	-0.09095232
9	0xbd69da6f	-0.05709308
10	0x3d9e0d83	0.07717421
11	0x3e44f280	0.19233131
12	0xbdd9853b	-0.10621115
13	0x3e2ec2b6	0.17066464
14	0xbdb1758f	-0.08665001
15	0xbd703139	-0.058640692
16	0xbaf49eb9	-0.0018663026
17	0xbd37b2c8	-0.044848233
18	0x3e535236	0.2063683
19	0xbcce7006	-0.025199901
20	0x3d97988a	0.074021414
21	0x3d5f7f9c	0.054565057
22	0xbdd4578c	-0.10368261
23	0xbc705fd3	-0.014671284
24	0x3b72f32e	0.0037071216
25	0xbdc91128	-0.098177254
26	0x3d27ab63	0.04093493
27	0x3e7e9fa8	0.24865592
28	0xbdee06f7	-0.11622422
29	0xbdd6369a	-0.10459633
30	0xbd9662b2	-0.073430434
31	0xb9e24421	-0.0004315684

running_var f4 [32]
0	0x3fa0c719	1.256076
1	0x3f8173d3	1.0113472
2	0x40247974	2.569913
3	0x3f9e8873	1.2385391
4	0x3fcf1192	1.6177237
5	0x3faa55dc	1.3307452
6	0x40105aea	2.255549
7	0x4005e30d	2.091983
8	0x3fae3c05	1.3612067
9	0x3faa6567	1.3312196
10	0x3fef18c3	1.8679432
11	0x402a7207	2.6632097
12	0x401b3606	2.4251723
13	0x3f918b88	1.1370707
14	0x3fb324bc	1.3995585
15	0x3fa0673a	1.2531502
16	0x3f9c19a0	1.219532
17	0x3f86fb53	1.0545448
18	0x402b845b	2.6799533
19	0x3fd38e31	1.6527768
20	0x3fca8033	1.5820373
21	0x3fb2fa18	1.3982573
22	0x3f822609	1.0167857
23	0x3fe804d2	1.8126471
24	0x3fe49b6b	1.785993
25	0x40493f21	3.144478
26	0x4036dcd3	2.857228
27	0x3fff5d86	1.9950416
28	0x40105c4d	2.2556336
29	0x3fc88a55	1.5667216
30	0x3fc5a741	1.5441667
31	0x3fa53044	1.2905354

weight f4 [32, 16]
0	0x3e928a1e	0.28621
1	0x3eacb7b9	0.3373392
2	0xbf2cac19	-0.674501
3	0xbd5702c4	-0.052492872
4	0xbf64b01b	-0.89331216
5	0xbf08620f	-0.53274626
6	0xbf0c66f2	-0.5484458
7	0xbfd5a336	-1.6690433
8	0x3e755460	0.23957968
9	0xbd07034c	-0.03296213
10	0xbf836047	-1.0263757
11	0x3f011fdb	0.5043923
12	0xbf8a872e	-1.0822504
13	0x3f306f3f	0.6891975
14	0x3f99fa93	1.2029594
15	0x3ed5a6d7	0.4172885
16	0xbf459826	-0.77185285
17	0xbf9fa558	-1.2472334
18	0xbfa9a7eb	-1.325437
19	0x3d8305d0	0.06397593
20	0xbe295705	-0.16537102
21	0x3f5794c5	0.8421138
22	0xbf18e4ec	-0.5972431
23	0xbf130aa8	-0.57438135
24	0xbea66dad	-0.3250555
25	0xbfbdfccd	-1.4842774
26	0xbfb4d4d7	-1.4127454
27	0x3f373f8b	0.71581334
28	0x3ece6182	0.40308768
29	0x3ee18ea7	0.44054148
30	0x3e67ecd6	0.2264894
31	0xbf77fe5e	-0.9687251
32	0xbf7a9866	-0.9788879
33	0x3fe7fc27	1.8123826
34	0xbf1e37a2	-0.6180364
35	0x3d303d35	0.04302712
36	0x3f54607a	0.8295971
37	0xbde09d3b	-0.10967489
38	0xbf5628a7	-0.8365578
39	0xbfb29967	-1.3953065
40	0x3e63512d	0.22198935
41	0xbeda607c	-0.42651737
42	0xbf18dd12	-0.59712327
43	0x3ee5ae5d	0.4485959
44	0xbf34ebc3	-0.70672244
45	0x3f7c2551	0.9849444
46	0xbe1f94c0	-0.15584087
47	0xbf96c9e2	-1.178036
48	0xbf8d3b65	-1.1033751
49	0xbee74313	-0.4516836
50	0x3f39b7cb	0.7254607
51	0x3f4628ce	0.77406013
52	0x3f652bee	0.89520156
53	0xbf9bed03	-1.2181705
54	0xbf00f9da	-0.50381243
55	0xbf88b760	-1.0680962
56	0x3f130614	0.5743115
57	0xbca0f008	-0.019645706
58	0xbf36e0e4	-0.71436906
59	0x3ebdcbe5	0.37069622
60	0x3f6cbfd9	0.92480236
61	0xbce60cc4	-0.028082259
62	0x3f574d78	0.8410258
63	0xbe80d325	-0.2516109
64	0xbfc1cd8b	-1.5140852
65	0x3f2c99a5	0.6742194
66	0x3e8b6c87	0.27231237
67	0xbdeb6122	-0.11493136
68	0x3fd4d56f	1.6627635
69	0x3d341bb0	0.043971717
70	0xbe72b4e0	-0.23701811
71	0xbf49bda7	-0.7880501
72	0xbecab127	-0.39588282
73	0x3ed57157	0.41688034
74	0xbeb84df1	-0.35996965
75	0xbe8f3730	-0.27971792
76	0xbf3a92b9	-0.7288013
77	0xbf406044	-0.7514689
78	0x3f427171	0.7595435
79	0x3f67726a	0.90408957
80	0x3f83b8fc	1.0290828
81	0x3f06a103	0.52589434
82	0xbf7e3d3b	-0.9931218
83	0x3e9b7225	0.30360523
84	0x3f4bda00	0.79629517
85	0x3dae940d	0.08524332
86	0xbdb7c043	-0.08972218
87	0x3f1dab8a	0.6158987
88	0x3f24a648	0.64316225
89	0xbf5ab54b	-0.8543288
90	0x3f105753	0.56383246
91	0xbcd8a18e	-0.026444223
92	0xbe812a2e	-0.25227493
93	0xbf7c37ff	-0.98522943
94	0x3f09b0ef	0.53785604
95	0x3e63db67	0.22251664
96	0x3f92c095	1.1465021
97	0xbf2194ce	-0.6311768
98	0x3ee7dc1c	0.45285118
99	0x3f9299fb	1.1453241
100	0xbf644dec	-0.891814
101	0xbebfd4ee	-0.3746714
102	0xbdc084d2	-0.094003335
103	0xbd9b0796	-0.07569806
104	0x4000d15c	2.0127783
105	0x3e8048f2	0.25055653
106	0x3f03dd39	0.51509434
107	0x3d256c10	0.04038626
108	0xbd5e53d4	-0.054279163
109	0x3f249554	0.64290357
110	0xbe54db1a	-0.20786706
111	0x3e8f6d32	0.28012997
112	0xbde9317c	-0.113863915
113	0xbf2be05f	-0.6713924
114	0x3e872544	0.2639562
115	0x3f14e120	0.58156013
116	0xbf1d3d01	-0.6142121
117	0xbed30d02	-0.41220862
118	0xbe780db9	-0.24223985
119	0xbf1e0131	-0.6172057
120	0xbea71802	-0.32635504
121	0x3f2dbbae	0.678645
122	0x3c4e9aa0	0.012610108
123	0x3fb7d6c3	1.4362415
124	0xbec9ddd9	-0.3942707
125	0x3e9d721a	0.30751115
126	0x3d873e17	0.066036396
127	0xbf3fd701	-0.74937445
128	0xbe56b2a2	-0.2096658
129	0xbe31e081	-0.17370798
130	0xbfe296d1	-1.7702276
131	0x3f09327b	0.5359265
132	0x3f601c1a	0.8754288
133	0x3f039a4e	0.51407325
134	0xbf02acd6	-0.51044977
135	0xbf7c3d55	-0.98531085
136	0xbf0aa447	-0.5415692
137	0xbfa7c03c	-1.310554
138	0x3f7b9dd8	0.98287725
139	0x3fbe42a7	1.4864091
140	0x3fbfa5cb	1.4972471
141	0xbeefe482	-0.46854025
142	0x3f39a908	0.72523546
143	0x3edd3db5	0.4321114
144	0x3ebbeee9	0.3670571
145	0xbeecf134	-0.46277773
146	0x3f99cf19	1.2016326
147	0xbf8027e6	-1.0012176
148	0xbf0e2c82	-0.55536664
149	0xbf249c68	-0.64301157
150	0x3ef49d30	0.47776175
151	0x3dcf9535	0.10135881
152	0x3ef5163e	0.47868532
153	0x3e52a072	0.20569018
154	0x3ded6019	0.11590595
155	0xbeeeda0f	-0.4665074
156	0xbe09543f	-0.13411044
157	0x3e80e28d	0.25172845
158	0xbf9eeaae	-1.2415369
159	0x3f2c5e83	0.67331713
160	0x3faeeca9	1.3665973
161	0xbf3d990d	-0.7406166
162	0x3eeff9ac	0.46870172
163	0xbd226596	-0.03964766
164	0x3e85cd18	0.26133037
165	0x3e21a5fa	0.15785971
166	0x3fa625f8	1.2980337
167	0xbe00fa74	-0.1259554
168	0x3e37045d	0.17872758
169	0x3f355bbd	0.70843107
170	0xbf44367a	-0.76645625
171	0x3f846df2	1.0346053
172	0xbcb5f8ad	-0.022213304
173	0x3fae7e65	1.3632323
174	0x3f103060	0.56323814
175	0xbe217ee8	-0.15771067
176	0x3ef39b01	0.47579196
177	0xbf47e445	-0.78082687
178	0x3f5cbe1e	0.86227596
179	0xbf3e069b	-0.7422883
180	0xbd217085	-0.039413948
181	0xbd56b8d1	-0.05242235
182	0x3f385c10	0.72015476
183	0xbf32775b	-0.6971337
184	0x3f3ee54d	0.74568635
185	0x3e5a9eea	0.21349683
186	0x3e281739	0.16415109
187	0xbede7334	-0.43447268
188	0x3e10ee92	0.14153507
189	0xbb2d7e2c	-0.002647291
190	0x3f3bae5a	0.73312914
191	0x3ef43013	0.47692928
192	0xbe8d130c	-0.27553594
193	0x3f360c99	0.7111297
194	0xbe5b01d3	-0.21387415
195	0x3f8c9b12	1.0984824
196	0x3f48708b	0.78296727
197	0xbe1345c4	-0.14382082
198	0xbf10521f	-0.56375307
199	0xbef0373f	-0.4691715
200	0x3fad9f03	1.3564152
201	0x3fe7c84c	1.8108001
202	0xbe6bf01d	-0.23040815
203	0xbed1ba29	-0.4096234
204	0x3f6235d1	0.8836337
205	0xbf89f080	-1.077652
206	0x3e338314	0.17530471
207	0xbfad59d5	-1.354304
208	0xbf8194ce	-1.0123537
209	0xbee53d20	-0.44773197
210	0xbcb5836e	-0.022157397
211	0x3ef24277	0.47316334
212	0xbd3efe42	-0.046629198
213	0x3ec1ce39	0.37852648
214	0x3eb01c7c	0.34396732
215	0x3ed7917d	0.42103186
216	0x3f8ff871	1.1247693
217	0xbf460b0d	-0.7736061
218	0x3d9dbb37	0.07701724
219	0x3f30fa9d	0.69132406
220	0xbf94ba2c	-1.1619315
221	0x3d958e6b	0.07302555
222	0xbf3625e2	-0.71151555
223	0x3dfc1715	0.1230909
224	0xbea40788	-0.32036996
225	0xbf6d9d55	-0.92818195
226	0xbf8b905c	-1.090343
227	0x3dc98e02	0.09841539
228	0x3f086631	0.5328093
229	0x3fad3942	1.3533099
230	0x3fa2db75	1.2723223
231	0x3e54b61d	0.20772596
232	0x3f059b2c	0.521899
233	0xbf60ceb4	-0.87815404
234	0xbe3192e2	-0.17341188
235	0x3e27b8fa	0.16379157
236	0x3f138c73	0.57636184
237	0x3ec8d791	0.39226964
238	0x3f8d4c68	1.1038942
239	0x3edb02d0	0.42775583
240	0x3e026c9e	0.12736747
241	0xbee7422d	-0.45167676
242	0x3f80342f	1.0015925
243	0x3ee3f041	0.44519237
244	0x3f4275d4	0.7596104
245	0xbefe076b	-0.49615034
246	0xbf51574e	-0.8177384
247	0xbe6315c5	-0.22176273
248	0x3ef96d14	0.48716033
249	0xbcc9ad06	-0.024618637
250	0xbf0e9581	-0.55696875
251	0xbf966298	-1.1748838
252	0xbdccdaf8	-0.100027025
253	0x3f42234a	0.75835097
254	0x3e6ea0cb	0.23303525
255	0x3f7cd11e	0.9875659

weight f4 [32]
0	0x3f5e410e	0.86818016
1	0x3f6f2753	0.9341938
2	0x3fa3b49a	1.278949
3	0x3f48e9a8	0.7848153
4	0x3f71d97b	0.94472474
5	0x3f5199f8	0.8187556
6	0x3f2dbd1b	0.6786668
7	0x3f7d256b	0.9888522
8	0x3f6cdf5d	0.92528325
9	0x3f7fced7	0.9992499
10	0x3fb140b8	1.3847876
11	0x3f98e5a1	1.1945077
12	0x3f975306	1.1822212
13	0x3f2270e4	0.6345351
14	0x3f906c9f	1.1283149
15	0x3f422cd4	0.7584965
16	0x3f48d319	0.7844711
17	0x3f971e49	1.1806117
18	0x3f69350b	0.9109656
19	0x3f6a58a8	0.9154153
20	0x3f4f5551	0.8098956
21	0x3f6cdcaf	0.92524236
22	0x3f47bec0	0.78025436
23	0x3f9ccfc6	1.2250907
24	0x3f77bf59	0.9677635
25	0x3f77b1ef	0.9675588
26	0x3f60691a	0.8766037
27	0x3f97b956	1.1853435
28	0x3f8f5eb5	1.1200777
29	0x3f332101	0.69972235
30	0x3f950a2c	1.1643729
31	0x3f7c925b	0.9866082

bias f4 [32]
0	0x3e8908db	0.2676457
1	0xbe379de7	-0.17931329
2	0xbd7a98fa	-0.061181046
3	0x3e88ca9c	0.2671708
4	0x3e25ccc2	0.1619139
5	0x3e050964	0.12991863
6	0x3e9be91b	0.30451283
7	0xbe83bad9	-0.2572849
8	0xbea7e17e	-0.32789224
9	0xbda4ac83	-0.080407165
10	0xbe9a2642	-0.30107313
11	0x3cce5174	0.025185324
12	0x3db13795	0.086531796
13	0x3d9dd3e7	0.07706433
14	0xbdee9ece	-0.11651383
15	0xbd7eb931	-0.06218833
16	0x3c9e6138	0.019333467
17	0xbe7165dc	-0.23574013
18	0x3e7ef078	0.24896419
19	0xbe815776	-0.2526204
20	0xbcb07ed5	-0.021544853
21	0xbe0dba71	-0.13840653
22	0xbe0dce79	-0.13848294
23	0xbd5c8051	-0.05383331
24	0xbc66ba5c	-0.0140825175
25	0x3d647d5d	0.05578362
26	0x3ec02fa1	0.37536338
27	0x3e8b40f5	0.27197996
28	0x3e2151d2	0.15753868
29	0xbe9ef7b0	-0.31048346
30	0x3da4fd38	0.0805611
31	0xbe55ac53	-0.20866518

running_mean f4 [32]
0	0xbda2227f	-0.07916736
1	0x3dc45c67	0.09587937
2	0xbe10eb91	-0.14152361
3	0xbe153be0	-0.14573622
4	0xbe877e38	-0.26463485
5	0x3e270d46	0.16313657
6	0x3ddafb50	0.10692465
7	0x3dd5e541	0.10444117
8	0x3df70c95	0.12062947
9	0xbd90add5	-0.07064406
10	0x3cd861f8	0.026413903
11	0xbdcc17b5	-0.09965459
12	0xbd090734	-0.033454135
13	0x3d979773	0.074019335
14	0x3d143072	0.036179014
15	0xbe4085f2	-0.18801096
16	0xbd41a086	-0.047272228
17	0xbd968937	-0.073503904
18	0x3e2c2151	0.16809584
19	0xbd61be98	-0.055113405
20	0x3da2bc58	0.0794608
21	0xbe0838b1	-0.13302876
22	0x3d4d5d1f	0.050137635
23	0xbc1967b3	-0.009363103
24	0xbd1cc081	-0.038269524
25	0xbd0866ec	-0.03330128
26	0x3dd48784	0.1037741
27	0x3e137e5b	0.1440367
28	0x3ddbd983	0.107348464
29	0x3d2f01f7	0.042726483
30	0x3d038201	0.032106403
31	0xbd4b1003	-0.049575817

running_var f4 [32]
0	0x3f91eb2b	1.1399893
1	0x3fb2a774	1.3957353
2	0x3fd0749b	1.6285585
3	0x402b1102	2.672913
4	0x3ffc85da	1.9728348
5	0x3fa9e047	1.3271569
6	0x4001ebb1	2.0300105
7	0x3f97323e	1.1812208
8	0x3fdad22a	1.7095387
9	0x3fa8398c	1.3142562
10	0x3faa1584	1.3287816
11	0x3f989c65	1.1922728
12	0x4044708c	3.0693693
13	0x3f7a98e1	0.97889525
14	0x3fb0ea89	1.3821574
15	0x40418b1b	3.0241153
16	0x3f809856	1.0046489
17	0x3fe7f515	1.8121668
18	0x3fe943e4	1.8223844
19	0x3fc019ba	1.5007851
20	0x3f8392b5	1.0279146
21	0x3fca213a	1.579139
22	0x3fee57ff	1.8620604
23	0x40190c0d	2.3913605
24	0x402515b2	2.5794492
25	0x3f9bd603	1.2174686
26	0x3fa8ec99	1.3197204
27	0x3f8c72e8	1.0972567
28	0x4003aee5	2.0575497
29	0x3fcdbf69	1.6074039
30	0x3f8130c7	1.0093011
31	0x3f88dfcd	1.0693299

weight f4 [32, 16]
0	0x3d3e6d51	0.04649097
1	0x3e4a7732	0.19772032
2	0xbf4370d6	-0.7634405
3	0x3e5a2bbb	0.21305744
4	0x3f36d901	0.7142487
5	0xbdac5a52	-0.08415665
6	0xbd97d281	-0.07413197
7	0x3f25ed5d	0.6481531
8	0xbebd4999	-0.36970213
9	0x3eafafad	0.34313717
10	0xbf5d0a5b	-0.86343926
11	0x3fb911ea	1.4458592
12	0xbef28075	-0.4736363
13	0x3db9e668	0.0907715
14	0x3d69182d	0.05690782
15	0x3e86eca1	0.2635241
16	0xbd06776e	-0.03282874
17	0xbf049fcd	-0.51806337
18	0xbe8f4a90	-0.27986574
19	0x3c11e6db	0.008905138
20	0xbdf6efaa	-0.12057431
21	0xbeffe202	-0.49977118
22	0xbf1c2525	-0.6099418
23	0xbf551c06	-0.83245885
24	0x3e6a988e	0.22909757
25	0xbf34104c	-0.7033737
26	0xbf63b590	-0.8894892
27	0xbf9b337e	-1.2125089
28	0x3e65ab9e	0.22428748
29	0xbf4c2955	-0.7975057
30	0x3edcec93	0.43149242
31	0xbf709ff9	-0.939941
32	0xbeecb2de	-0.46230215
33	0xbe385bfe	-0.18003842
34	0x3de245ec	0.11048493
35	0x3ec55251	0.38539365
36	0xbe6ebe56	-0.23314795
37	0x3ecd07a1	0.40044883
38	0xbf26cdcf	-0.6515779
39	0xbef87417	-0.4852607
40	0xbc47f135	-0.012203504
41	0x3e8d1938	0.27558303
42	0xbe93b164	-0.28846276
43	0x3e7438e9	0.23849835
44	0x3f08df84	0.5346606
45	0x3f55422b	0.8330409
46	0xbe88369b	-0.2660416
47	0xbdac04fd	-0.08399389
48	0xbe987373	-0.2977558
49	0xbf9aa7b3	-1.2082428
50	0x3e75e7f8	0.2401427
51	0xbf3ef254	-0.74588513
52	0x3e1c7d9b	0.1528229
53	0x3faa1682	1.3288119
54	0x3e26dddf	0.16295575
55	0xbf3183cc	-0.6934173
56	0x3f3d9af9	0.74064595
57	0xc001602c	-2.0214949
58	0xbf0f1137	-0.5588564
59	0x3d4d243c	0.050083384
60	0xbf7bf58a	-0.9842154
61	0xbf5a41aa	-0.85256445
62	0x3fb8d700	1.4440613
63	0x3f13dde7	0.5776047
64	0xbe4fb2b5	-0.20283015
65	0x3f79accd	0.975293
66	0x3f98412a	1.1894886
67	0x3f37c214	0.71780515
68	0xbf6c5f23	-0.9233267
69	0x3e072470	0.13197494
70	0xbf401842	-0.75037014
71	0x3fb438ea	1.4079869
72	0xbdccab50	-0.09993613
73	0x3d563cc1	0.052304033
74	0x3f399210	0.724885
75	0x3caaa4b6	0.020830493
76	0xbdf63b11	-0.12022985
77	0xbf83d3f9	-1.0299064
78	0x3ea906fd	0.33013144
79	0xbeec743c	-0.4618243
80	0x3e955c51	0.29171994
81	0x3eb3ce42	0.351183
82	0x3fda2bd0	1.704462
83	0xbf22549c	-0.63410354
84	0xbe9a1127	-0.3009121
85	0x3ceec949	0.029148715
86	0xbec4d9ff	-0.38447568
87	0x3f3347a9	0.7003122
88	0xbf2a50a1	-0.6652928
89	0x3f64c3a8	0.8936105
90	0x3ea856e2	0.32878786
91	0xbf7f8c15	-0.99823123
92	0x3f417a69	0.7557741
93	0x3fffd880	1.9987946
94	0xbe8dfd43	-0.27732286
95	0x3f5156c4	0.8177302
96	0xbf7f0435	-0.99615794
97	0x3f2c4024	0.6728537
98	0xbf2099e5	-0.62734824
99	0x3c054c09	0.008135804
100	0x3f19f9fa	0.6014706
101	0x3f292940	0.6607857
102	0x3e8ca4ea	0.2746957
103	0x3ff7cbe4	1.9359097
104	0x3fb4e77c	1.4133143
105	0xbec937d1	-0.39300397
106	0x3e170c2a	0.14750734
107	0xbfca6ba0	-1.5814095
108	0xbf4f9dbe	-0.8110007
109	0x3f2f1b8e	0.6840142
110	0x3ef3e461	0.47635177
111	0x3d8ae286	0.06781487
112	0x3f14fdc6	0.5819973
113	0x3fbb8572	1.4650099
114	0x3e8d7b30	0.27633047
115	0x3f0a26fd	0.5396574
116	0xbe952712	-0.2913137
117	0xbf7b1d9a	-0.98092043
118	0xbec67a95	-0.38765398
119	0xbe7d5c0f	-0.24742149
120	0x3fa383e7	1.2774628
121	0xbf375718	-0.7161727
122	0x3f0d72a8	0.55253077
123	0x3d6ae858	0.057350487
124	0x3f63bffa	0.8896481
125	0xbf35bbd2	-0.70989716
126	0xbf68b677	-0.9090342
127	0xbf2a511e	-0.66530025
128	0x3e052d0f	0.1300547
129	0x3c2cc83b	0.010545786
130	0xbd9255fd	-0.07145307
131	0x3d8948bc	0.06703326
132	0xbe476d48	-0.19475281
133	0xbf052656	-0.5201162
134	0x3ede4c15	0.4341742
135	0xbe88a268	-0.26686406
136	0x3edf9079	0.4366491
137	0x3f28d94d	0.65956575
138	0x3f2d66f5	0.67735225
139	0x3efb81c9	0.49122456
140	0x3e543716	0.20724139
141	0xbf873902	-1.0564272
142	0x3dcd2957	0.100176506
143	0x3e36ead0	0.17863011
144	0x3f2bf2a3	0.6716711
145	0x3de3c5d7	0.11121719
146	0xbeaf826f	-0.342792
147	0x3ec4e11b	0.38452992
148	0x3f048915	0.5177167
149	0x3f175cff	0.59126276
150	0x3f40e595	0.75350314
151	0x3ff77216	1.9331691
152	0xbeb24b34	-0.34823
153	0x3e973840	0.29535103
154	0xbedb6f58	-0.42858386
155	0x3ed49a33	0.41523895
156	0xbf29c3f6	-0.6631464
157	0xbdf6bb5e	-0.12047456
158	0x3f1c4a45	0.61050826
159	0x3ed2ffe3	0.4121085
160	0x3ed2188c	0.41034353
161	0xbdaa6222	-0.083194986
162	0x3d67c033	0.05657978
163	0xbec9508b	-0.39319262
164	0xbe388709	-0.18020262
165	0xbf01555c	-0.50520873
166	0xbe698517	-0.22804676
167	0x3f2298d7	0.63514465
168	0x3e2c7204	0.16840369
169	0xbf2e9214	-0.6819165
170	0x3f6c5314	0.9231427
171	0x3f3bf9a6	0.7342781
172	0xbf33feb5	-0.7031053
173	0x3f160133	0.5859558
174	0x3f2e04c3	0.67976016
175	0x3e84a571	0.25907472
176	0x3ddaf1fb	0.10690685
177	0x3d435a25	0.04769339
178	0xbf3a1e6f	-0.7270269
179	0xbfcbe091	-1.5927907
180	0x3eb173db	0.34658703
181	0xbeb51e41	-0.35374644
182	0x3eccfa90	0.40034914
183	0xbf20c70a	-0.6280371
184	0x3dee349d	0.11631129
185	0x3fa4677c	1.2844081
186	0x3f1f508f	0.622323
187	0xbb439462	-0.0029843082
188	0x3ed1d405	0.4098207
189	0xbf43bef7	-0.76463264
190	0x3d82757f	0.06370067
191	0xbe966c7c	-0.29379642
192	0xbff0238f	-1.8760852
193	0x3f0e3ac9	0.5555845
194	0xbcdc448a	-0.02688815
195	0x3f14a3e1	0.5806256
196	0xbee92bff	-0.4554138
197	0xbe478b2f	-0.19486688
198	0xbf42a89d	-0.76038533
199	0x3fe6e244	1.8037801
200	0xbf440c9b	-0.76581734
201	0x3f92bfa4	1.1464734
202	0x3efcb51b	0.49356923
203	0x3ad631d0	0.001634175
204	0x3e40c305	0.18824394
205	0xbf37ccf8	-0.7179713
206	0xbc006022	-0.00783542
207	0x3e22603a	0.1585702
208	0x3ea5e6ef	0.3240275
209	0x3e436b56	0.19083914
210	0xbf16bc2b	-0.5888087
211	0xbf15fbde	-0.58587444
212	0xbef944a5	-0.48685184
213	0xbf69ca78	-0.9132457
214	0x3f05f6bb	0.52329606
215	0xbf2f9e33	-0.6860077
216	0xbe0d7ce0	-0.13817167
217	0xbf4b152c	-0.7932918
218	0x3e5da89e	0.21646354
219	0xbd785b09	-0.060633693
220	0xbf2125b0	-0.6294813
221	0xbfe0c69a	-1.7560608
222	0xbeaf1ed5	-0.3420321
223	0xbd9afa5b	-0.07567283
224	0xbf67cdd9	-0.90548474
225	0x3f0c87c5	0.5489467
226	0xbe6f2534	-0.23354036
227	0x3ef2de6e	0.47435325
228	0xbf119f4e	-0.56883705
229	0x3b8b3ba1	0.0042490517
230	0xbe171889	-0.14755453
231	0x3e941a1e	0.28926176
232	0xbefe24bc	-0.496374
233	0x3e971979	0.29511622
234	0x3e84d8bb	0.25946602
235	0xbe7d9342	-0.24763206
236	0xc002d0b3	-2.043988
237	0xbe46af32	-0.19402769
238	0xbea11baa	-0.31466419
239	0x3d8ba4cb	0.06818541
240	0x3f284f67	0.6574616
241	0x3eb07df2	0.3447109
242	0x3e4b6307	0.19861995
243	0xbf652191	-0.89504343
244	0x3ed7deb3	0.42162094
245	0x40119d60	2.2752304
246	0xbdcb5781	-0.099287994
247	0xbcb7217e	-0.022354838
248	0xbd4f6a26	-0.05063834
249	0x3dbd41e7	0.092410855
250	0xbe80fbe7	-0.25192186
251	0xbf0b7da8	-0.5448861
252	0xbe6d3622	-0.23165181
253	0xbeee4b4e	-0.46541828
254	0x3f11d1cb	0.56960744
255	0x3e0598c3	0.13046555

weight f4 [32]
0	0x3f800000	1.0
1	0x3f800000	1.0
2	0x3f800000	1.0
3	0x3f800000	1.0
4	0x3f800000	1.0
5	0x3f800000	1.0
6	0x3f800000	1.0
7	0x3f800000	1.0
8	0x3f93a817	1.1535672
9	0x3f9a7368	1.2066469
10	0x3f8ad2a7	1.0845536
11	0x3f52ece6	0.8239273
12	0x3f8883b4	1.0665193
13	0x3f719fdb	0.94384545
14	0x3faca90c	1.3489089
15	0x3f788939	0.97084385
16	0x3f800000	1.0
17	0x3f800000	1.0
18	0x3f800000	1.0
19	0x3f800000	1.0
20	0x3f800000	1.0
21	0x3f800000	1.0
22	0x3f800000	1.0
23	0x3f800000	1.0
24	0x3f8a1157	1.0786542
25	0x3f933881	1.1501619
26	0x3f80fe1e	1.007755
27	0x3f3c6103	0.7358553
28	0x3f3bb93f	0.7332954
29	0x3fa5a555	1.294108
30	0x3f9e6b09	1.2376415
31	0x3f78c851	0.9718066

bias f4 [32]
0	0x00000000	0.0
1	0x00000000	0.0
2	0x00000000	0.0
3	0x00000000	0.0
4	0x00000000	0.0
5	0x00000000	0.0
6	0x00000000	0.0
7	0x00000000	0.0
8	0xbd96af91	-0.073577054
9	0xbe475ef7	-0.1946982
10	0xbee2daac	-0.44307458
11	0xbd3d8ac5	-0.04627492
12	0xbe01d539	-0.12678994
13	0xbe2138d1	-0.1574433
14	0xbd2e02cb	-0.042483132
15	0xbd69c801	-0.057075504
16	0x00000000	0.0
17	0x00000000	0.0
18	0x00000000	0.0
19	0x00000000	0.0
20	0x00000000	0.0
21	0x00000000	0.0
22	0x00000000	0.0
23	0x00000000	0.0
24	0x3d9f575f	0.077803366
25	0x3c795074	0.015216935
26	0x3e6feaca	0.23429409
27	0xbc13fc6d	-0.009032351
28	0x3e354299	0.17701186
29	0xbe3b7ec2	-0.18310073
30	0x3ea041b6	0.31300133
31	0x3d2a7773	0.041617822

running_mean f4 [32]
0	0x3d62b3fa	0.05534742
1	0x3d951202	0.07278825
2	0xbc1f9718	-0.009740613
3	0xbd20152d	-0.039082695
4	0x3d38e342	0.045138605
5	0xbe211026	-0.15728816
6	0xbe200c9a	-0.15629807
7	0x3cdca7ab	0.026935419
8	0xbc68b8c0	-0.014204204
9	0x3dcab259	0.09897298
10	0xbcdbd5db	-0.026835373
11	0xbe18362b	-0.14864413
12	0xbd14277d	-0.03617047
13	0x3d436ad8	0.047709316
14	0xbd29a9b0	-0.041421592
15	0xbda7ca6f	-0.08192908
16	0x3d1500bc	0.036377653
17	0x3d0635e8	0.032766253
18	0xbdcb2b0b	-0.09920319
19	0xbe22f2cf	-0.15912937
20	0x3e672007	0.22570811
21	0xbd983134	-0.0743126
22	0x3e072bed	0.1320035
23	0x3d88f068	0.06686479
24	0x3dd98d5e	0.10622667
25	0xbd6bbec8	-0.05755499
26	0xbdb4c194	-0.088259846
27	0xbe00d229	-0.1258017
28	0xbd1c3068	-0.0381321
29	0x3e28dd9b	0.16490786
30	0x3cb0e96c	0.02159568
31	0x3b34b634	0.0027574422

running_var f4 [32]
0	0x3f8fbb0a	1.1228955
1	0x3f9b12e3	1.2115139
2	0x3f664774	0.8995278
3	0x406e9a47	3.7281663
4	0x3fc58e50	1.5434055
5	0x4004bc3d	2.0739892
6	0x3fdc282a	1.7199757
7	0x400b5e35	2.177625
8	0x3f737b11	0.9510966
9	0x3f8ca0fa	1.0986626
10	0x3f891688	1.0710001
11	0x3fbcc689	1.4748088
12	0x3fd97cea	1.6991246
13	0x3fc4be55	1.5370585
14	0x3fa791aa	1.3091328
15	0x3fe515fe	1.7897336
16	0x3f9a1255	1.2036844
17	0x3fc658f9	1.5495902
18	0x3ff60a3b	1.9221872
19	0x3f99915a	1.1997483
20	0x3f8e0b14	1.1097131
21	0x3fcaeeca	1.5854123
22	0x4019a6a6	2.4007964
23	0x3f7f417e	0.9970931
24	0x3f740b03	0.953293
25	0x3fe1d0b5	1.7641817
26	0x3f9162a2	1.1358225
27	0x3fe3ee41	1.7807084
28	0x3f9df2c7	1.2339715
29	0x401c064c	2.4378843
30	0x4031eca0	2.7800674
31	0x3f93c43f	1.1544265

weight f4 [32]
0	0x3fa45502	1.2838442
1	0x3f46bdd2	0.7763339
2	0x3f99853e	1.1993787
3	0x3fcb8058	1.5898542
4	0x3fa15b99	1.2606078
5	0x3fa8f02e	1.3198297
6	0x3f796278	0.97415876
7	0x3faa673e	1.3312757
8	0x3f9f697a	1.2454064
9	0x3f66170d	0.8987892
10	0x3f5c375a	0.8602196
11	0x3f954836	1.1662662
12	0x3f7bbb07	0.98332256
13	0x3f79e0a5	0.97608405
14	0x3f12441a	0.57135165
15	0x3f814db8	1.0101843
16	0x3f00b5d2	0.50277436
17	0x3f961bc7	1.1727227
18	0x3f3d52c1	0.739544
19	0x3fc99259	1.5747787
20	0x3f6d0630	0.92587566
21	0x3f91628d	1.13582
22	0x3f4e5289	0.8059469
23	0x3f6aafad	0.9167431
24	0x3fa1a4a3	1.2628368
25	0x3f5b9c02	0.85784924
26	0x3f82121a	1.0161774
27	0x3faed99b	1.3660158
28	0x3f7b3039	0.98120457
29	0x3f8c9f0e	1.098604
30	0x3f1d6034	0.6147492
31	0x3f989ce6	1.1922882

bias f4 [32]
0	0xbe02a2d7	-0.12757431
1	0xbebc2908	-0.36750054
2	0xbea62f1d	-0.3245782
3	0x3f1acb9e	0.60466945
4	0xbefea476	-0.4973485
5	0x3f1eb08a	0.6198813
6	0xbe739340	-0.2378664
7	0x3e00395c	0.12521881
8	0xbd0f32ec	-0.034960672
9	0x3e05bacc	0.13059539
10	0x3de06a6d	0.10957799
11	0x3da91454	0.082558304
12	0xbbe2085b	-0.0068979687
13	0xbe318fee	-0.17340061
14	0x3e231aa6	0.15928134
15	0xbe89dc75	-0.26926008
16	0x3f0050f6	0.50123537
17	0xbea9c35c	-0.3315686
18	0x3ebf4d48	0.37363648
19	0x3f144ec6	0.579327
20	0x3e9b7079	0.30359247
21	0x3f0a24ad	0.5396221
22	0x3e7da675	0.2477053
23	0x3ec86001	0.39135745
24	0xbcdeab8d	-0.027181411
25	0xbd8a179a	-0.06742783
26	0xbd67ace9	-0.056561384
27	0xbeca66a2	-0.39531428
28	0x3dac358b	0.0840865
29	0xbe2f8f69	-0.1714455
30	0xbea673e0	-0.3251028
31	0xbd8bcff7	-0.068267755

running_mean f4 [32]
0	0x3b23d3b2	0.0024998006
1	0xba727b39	-0.0009249929
2	0x3d3257d4	0.04354079
3	0x3d1df44e	0.038563065
4	0x3be52277	0.006992634
5	0x3bf3ea19	0.007443678
6	0xbcbcc1ee	-0.023041692
7	0xbd3adf3b	-0.045623045
8	0x3c01cd4d	0.007922483
9	0xbcbe02a9	-0.023194628
10	0xbb2b120d	-0.0026103288
11	0xbc817db3	-0.015807008
12	0xbbb946ca	-0.0056541907
13	0xbd03d9b3	-0.032190036
14	0x3d06b0b5	0.032883365
15	0x3d006932	0.031350322
16	0x3d3e1d85	0.04641487
17	0x3caaa7b1	0.020831915
18	0xbd8e4d22	-0.06948306
19	0xbbddaa4d	-0.006764686
20	0x3cb020ee	0.021500077
21	0xbc9d86d3	-0.019229328
22	0xbbc4e723	-0.006008999
23	0x3c5e4c40	0.013567984
24	0x3d3781ff	0.04480171
25	0xbc95993f	-0.01826155
26	0x3ca01cf7	0.019545062
27	0xbcf0196d	-0.029308999
28	0xbca49552	-0.020090733
29	0xbcf74571	-0.03018448
30	0x3c265bd5	0.01015373
31	0xbbe42986	-0.006962958

running_var f4 [32]
0	0x3f3d8381	0.74028784
1	0x3f3c4ae9	0.73551804
2	0x3f4d886f	0.80286306
3	0x3f3f1293	0.74637717
4	0x3f6774ed	0.9041279
5	0x3f3a7a8b	0.72843236
6	0x3f41517f	0.7551498
7	0x3f5a19ef	0.8519582
8	0x3f3ad6ed	0.729842
9	0x3f4351bd	0.762966
10	0x3f39c14c	0.7256057
11	0x3f3eb558	0.7449546
12	0x3f3e66e1	0.7437573
13	0x3f43dbe8	0.76507425
14	0x3f483993	0.7821285
15	0x3f3bd5ae	0.73372924
16	0x3f52d916	0.82362497
17	0x3f3daf4f	0.74095625
18	0x3f4ec6fd	0.8077238
19	0x3f53a1d2	0.82668793
20	0x3f3ade9f	0.7299594
21	0x3f394131	0.723651
22	0x3f3de073	0.7417061
23	0x3f49be72	0.7880622
24	0x3f39c675	0.72568446
25	0x3f36b1b5	0.7136491
26	0x3f59531b	0.84892434
27	0x3f381024	0.7189963
28	0x3f530d5c	0.8244226
29	0x3f4e1b17	0.80510086
30	0x3f584e83	0.844948
31	0x3f49ba88	0.7880025

weight f4 [32]
0	0x3f5223eb	0.82086056
1	0x3f960cbc	1.1722636
2	0x3f84fc4c	1.0389495
3	0x3fb7d4ee	1.4361856
4	0x3f316959	0.6930137
5	0x3f5cf082	0.86304486
6	0x3f3d6fe5	0.7399886
7	0x3f326292	0.69681656
8	0x3f95b012	1.1694357
9	0x3f94acb3	1.1615204
10	0x3f5e4e0c	0.8683784
11	0x3fbc367b	1.4704126
12	0x3f46818e	0.77541435
13	0x3f926be2	1.1439173
14	0x3f645798	0.8919616
15	0x3f677b65	0.9042266
16	0x3f23889d	0.6388033
17	0x3f9faad6	1.247401
18	0x3f99da56	1.2019756
19	0x3faeab34	1.3645997
20	0x3f47c2f6	0.7803186
21	0x3fa1297c	1.2590785
22	0x3f6f8a0b	0.9357001
23	0x3f45ddb4	0.7729142
24	0x3f951a35	1.1648623
25	0x3f8d694b	1.1047758
26	0x3f612339	0.8794437
27	0x3fa123a6	1.2589004
28	0x3fad0e25	1.3519942
29	0x3f8c6742	1.0969012
30	0x3f8b04c4	1.0860829
31	0x3f93b56b	1.1539739

bias f4 [32]
0	0x3f087d53	0.5331623
1	0xbed6d70c	-0.41960943
2	0xbeb4e44f	-0.35330436
3	0x3f192396	0.59819925
4	0xbeac20de	-0.33618826
5	0x3f1963b6	0.5991777
6	0xbe45a95a	-0.19302884
7	0x3f0afbd8	0.54290533
8	0x3e0ea99d	0.1393189
9	0x3e2e6a5f	0.17032765
10	0xbc9f9138	-0.019478425
11	0x3ddabbac	0.10680327
12	0x3ec9cce8	0.39414144
13	0x3ed31369	0.41225746
14	0x3b0755b4	0.0020650448
15	0xbe6dc564	-0.2321983
16	0x3d1ff295	0.039049704
17	0x3efb0956	0.4903056
18	0xbdaf0e5d	-0.085476615
19	0x3eea6553	0.4578043
20	0xbec55674	-0.3854252
21	0x3dd5f565	0.10447196
22	0xbe461ae5	-0.19346197
23	0xbe4d3643	-0.2004023
24	0x3d96066e	0.07325445
25	0x3ea4c371	0.3218036
26	0xbbeb1988	-0.0071746744
27	0x3ede4132	0.43409115
28	0xbe9e01a3	-0.30860624
29	0x3dc01fd1	0.093810685
30	0xbe3b378d	-0.1828291
31	0xbe7d821e	-0.24756667

running_mean f4 [32]
0	0xbdbab744	-0.091169864
1	0x3ddfaf0b	0.10922059
2	0xbeb3e22c	-0.35133493
3	0x3bb504e8	0.0055242665
4	0xbddf59dc	-0.10905811
5	0x3e4cc8dc	0.19998497
6	0x3e6d8435	0.23194964
7	0x3c83dd6a	0.01609679
8	0x3e9cdea4	0.3063861
9	0x3e601075	0.21881278
10	0xbda0172c	-0.0781692
11	0x3ec9adca	0.39390403
12	0xbe09d16c	-0.13458794
13	0x3c8f8123	0.017517632
14	0xbe796e2c	-0.24358433
15	0x3d638adb	0.055552345
16	0x3d10f167	0.03538647
17	0x3b2d0536	0.002640081
18	0x3e80d1bb	0.25160012
19	0xbd6639ca	-0.056207456
20	0xbcff6def	-0.03118035
21	0xbe045cf6	-0.12926087
22	0x3dfe0cc1	0.12404776
23	0xbdb0f71b	-0.08640882
24	0xbd1ea0b3	-0.038727473
25	0xbe95d357	-0.29262802
26	0x3e099040	0.13433933
27	0xbe8c8f90	-0.2745328
28	0x3d6824a0	0.056675553
29	0xbec46117	-0.38355324
30	0xbd737ee7	-0.059447195
31	0xbe1d2748	-0.15347016

running_var f4 [32]
0	0x3fbc21fc	1.4697871
1	0x3f8648d9	1.0490981
2	0x40358695	2.8363392
3	0x3fc6fbba	1.5545571
4	0x3fecea81	1.8509065
5	0x3fa08c67	1.2542847
6	0x3ffb7f5d	1.9648243
7	0x4043a32d	3.0568345
8	0x3fc27c05	1.5194098
9	0x3fe82214	1.81354
10	0x3fc74731	1.5568601
11	0x3feb5866	1.8386352
12	0x403e36e0	2.9720993
13	0x3faee564	1.3663754
14	0x3ffb3657	1.9625958
15	0x3f8a76b1	1.0817472
16	0x3f93b622	1.1539958
17	0x3f81b424	1.01331
18	0x40359552	2.8372388
19	0x402c0b0d	2.6881745
20	0x40030bfa	2.047606
21	0x3fadbbc7	1.357293
22	0x3f9d6c9c	1.229877
23	0x4058053b	3.3753192
24	0x40500505	3.2503064
25	0x405c9ba1	3.4469988
26	0x4052d6a3	3.2943504
27	0x40711309	3.7667868
28	0x40a9ad16	5.3023787
29	0x3fb34359	1.4004928
30	0x3fd1d1c1	1.6392137
31	0x3fd768f0	1.6828899
