Experiments/2022_07_26 13-51-41 wine_100runs_learning-rate_3mv-features_custom-loss /models/Model_run30_optimizer_params0.5_flavanoids.pt (torch, 264717 bytes, 318 tensors)

weight f4 [12]
00000000: 0000 803f 0000 803f 0000 803f 0000 803f
00000010: 0000 803f 0000 803f 0000 803f 0000 803f
00000020: 0000 803f 0000 803f 0000 803f 0000 803f
1.0 1.0 1.0 1.0 1.0 1.0 1.0 1.0
1.0 1.0 1.0 1.0

bias f4 [12]
00000000: 0000 0000 0000 0000 0000 0000 0000 0000
00000010: 0000 0000 0000 0000 0000 0000 0000 0000
00000020: 0000 0000 0000 0000 0000 0000 0000 0000
0.0 0.0 0.0 0.0 0.0 0.0 0.0 0.0
0.0 0.0 0.0 0.0

running_mean f4 [12]
00000000: 0000 0000 0000 0000 0000 0000 0000 0000
00000010: 0000 0000 0000 0000 0000 0000 0000 0000
00000020: 0000 0000 0000 0000 0000 0000 0000 0000
0.0 0.0 0.0 0.0 0.0 0.0 0.0 0.0
0.0 0.0 0.0 0.0

running_var f4 [12]
00000000: 0000 803f 0000 803f 0000 803f 0000 803f
00000010: 0000 803f 0000 803f 0000 803f 0000 803f
00000020: 0000 803f 0000 803f 0000 803f 0000 803f
1.0 1.0 1.0 1.0 1.0 1.0 1.0 1.0
1.0 1.0 1.0 1.0

weight f4 [12]
00000000: ae22 06c0 f776 4640 a6bd fb3f 3033 1cbf
00000010: f187 0040 3a8d 7fbf 3e4d 0f40 3924 e63e
00000020: 6a9a 10c0 aaa2 7140 05db b03f 0f24 b6bf
-2.0958667 3.101011 1.9667251 -0.61015606 2.0082972 -0.9982487 2.2390895 0.4494951
-2.2594247 3.7755532 1.381684 -1.4229754

bias f4 [12]
00000000: 2d20 3640 fc97 b6bf 1ab2 d9bf 8a54 0dc0
00000010: d5e2 4340 1f66 113f fe99 5bc0 09cd 1b3f
00000020: 0f12 c93f 472c 9d40 c535 853f dd39 1540
2.8457139 -1.4265132 -1.7007477 -2.2082849 3.0607197 0.5679645 -3.431274 0.60859734
1.5708636 4.911655 1.0407034 2.3316567

running_mean f4 [12]
00000000: 7b9d 3e41 26d1 0740 91af 1b40 c94c 0a40
00000010: 6db2 8d41 8c35 bc3f 25fd 623f 4fad 8e40
00000020: 9d7e 2b44 ffcd a83e 17d4 8a42 8ecd c73f
11.913447 2.1221404 2.4325907 2.1609366 17.712122 1.4703841 0.8866752 4.458656
685.97833 0.32969663 69.41424 1.5609605

running_var f4 [12]
00000000: 513d 2a3f c7c1 dd3e de84 013f a917 243e
00000010: d320 1a41 d064 b73e 61bc 063e 0448 8b40
00000020: 576d b247 096f c63d 5813 e144 3a08 2140
0.6649981 0.43311903 0.50593364 0.1602465 9.633014 0.358191 0.13157798 4.352541
91354.68 0.09689147 1800.6045 2.516127

weight f4 [32, 12]
00000000: 4e6f 2340 16ce 8c3f 3b71 c2be ee83 ffbf
00000010: ea01 ddbe 1805 3940 7768 febf 85ce eb3f
00000020: edd7 1f40 3c7d 7340 482e a43f 3e4f 3cc0
00000030: 8ceb 0140 2245 24c0 70d2 65c0 18e0 efbe
00000040: a922 20bf 0225 c63e 2e34 ddbe 0e07 01be
00000050: c0a1 2140 79cb 4440 370a a5bf cfb1 1340
00000060: f2cc 2bbf 577c 1cc0 2259 54c0 5338 f7bf
00000070: 667a 2640 b381 89c0 b205 cdbf 726a 833f
00000080: 1a5c 843f 6f4c 1d3f c166 0840 9ee4 30bf
00000090: 0450 2cc0 0c34 3e40 c13f 7f40 407b 5bbe
000000a0: 4002 a7bf 5570 e03f 8c79 3740 01aa b7bf
000000b0: 74f3 1340 d8c3 77bc a214 e63f f04a 993e
000000c0: 5de1 1cc0 bba5 9a3f 900c aabf f863 6a3f
000000d0: d5cb 633d 62b3 de3f 8e88 08c0 a43c 9340
000000e0: cc6f 71bf d54f 4cc0 69cd a740 ff27 ec3f
000000f0: dc73 7c3f 6ca5 9340 c646 f13f d35e 0340
00000100: 797f 46c0 b276 893f 6021 3ebf ca57 2b40
00000110: 38d9 e43f a64a f4be 9302 06c0 6493 35c0
00000120: 9cb4 0dc0 a969 2bc0 2fe9 813f 77e8 14c0
00000130: 5a88 423e f426 b8bf 46aa b8bf 74c7 363f
00000140: 689f 06c0 fbdb 89c0 33f4 0540 5fdb bf3f
00000150: 2f94 e53f 50ba 3840 081f d4bf 1b90 42c0
00000160: 9c86 28bf ea82 6240 cbd3 5640 6cd9 0940
00000170: 6115 4540 7b64 733e 35a6 a1bf ac9f 1440
00000180: c416 7440 d36b 33bf 2ed9 863e 6ed5 26c0
00000190: 8a10 23c0 27d6 413f 4283 5b40 d2c6 e1be
000001a0: 61b4 a83f 8850 2ec0 ee9e 1dc0 5b87 6c40
000001b0: 749c cfbf d7cf d33e 0803 2f40 b93b 47c0
000001c0: a336 1f40 a447 2bc0 bfc0 89bf 2d6a 48c0
000001d0: 0676 52c0 fc60 61c0 bb46 0940 a2f9 c9bf
000001e0: 9c3b d23f 5260 51c0 33dc 4bc0 ddca 8dbf
000001f0: 2ad6 5640 008d 5cc0 a5f1 2fc0 f67f 6b3f
00000200: ee31 5fc0 2af0 0b40 58c0 3c40 96ea f0bf
00000210: c538 0340 09d2 e73f 03d8 16c0 6be9 1d40
00000220: fba3 8e3f 1ecc 3ec0 0a27 3cbf ee6f 2a40
00000230: 15b2 573f 8c94 90c0 89bb b7bf ca59 0e40
00000240: 6617 4f40 a82b e0bf a465 37c0 5cbf 78c0
00000250: c20e 163f 2f53 1d3f 60d7 27c0 6649 6ebf
00000260: 093f 2ec0 cd7b 7940 8284 843f 7ae0 08c0
00000270: a401 fabf a418 3a3f 20b7 a9be a1d0 c1bf
00000280: 5d25 6d40 7ffe 3f40 0638 a2bf 8d79 2bc0
00000290: a809 c1bf ac1d 33c0 3b13 d3bf bf79 2b40
000002a0: 77f3 d3bf bf11 1440 0ea4 2340 b4d7 cb3f
000002b0: 34ae 5bc0 3baf 8ebe 152d cc3e c4f3 27c0
000002c0: 37c7 d53e 8bfd 2d40 2d19 21c0 5b95 11c0
000002d0: 7e27 b03f 67fc bebf b6d0 0cc0 1f99 01c0
000002e0: 5b96 4640 b319 e7bf fa82 0440 9bf7 8c3f
000002f0: 0e9f b03f 4103 94c0 0754 1040 8fe4 e7bf
00000300: 71b3 2740 a247 e1bf 8083 13bf 05a8 3b40
00000310: 1393 933f ba68 f1bf a897 06c0 08d3 4740
00000320: 74a2 1ac0 5f50 8240 d1e6 b03f f079 76c0
00000330: 463a 833f cc76 29c0 69ee 693e 7555 22c0
00000340: c6e4 bb3f 56b2 8cbf cc94 f8bf 0ae0 0b3f
00000350: 3e5b 3bbf 20b8 0b40 ea12 3240 7ee5 0c40
00000360: db5c 8bbf 2d30 ec3f 74a3 11c0 8484 3140
00000370: 6ede 7ac0 0ed1 e73f 5288 6cbf a6d1 1c3f
00000380: c9e7 7c3f 1269 4d40 7e10 21c0 08d0 50bf
00000390: ac1b 2bc0 747b d3bf 15c8 0bc0 e82a 45c0
000003a0: 42bf 33c0 ffaa ddbe b9c5 04c0 0a08 2140
000003b0: dca6 e53f 415f 333f 428d 05bf b9e4 36c0
000003c0: a0c3 933f 4454 15be 032a d53f 5f13 0c3f
000003d0: 354d 37bf b898 51c0 0599 7240 c48a 1bc0
000003e0: 2b58 6a40 b04c c2bf 122d 913f 7a8e 17c0
000003f0: 2c00 a3bf 8cd7 44c0 cd11 c5bf ec35 22c0
2.5536685 1.1000392 -0.37977013 -1.9962137 -0.43165523 2.890936 -1.987563 1.84224
2.497554 3.8045187 1.2826624 -2.9423366 2.0300016 -2.5667195 -3.590969 -0.46850657
-0.6255289 0.3870011 -0.43203872 -0.12600347 2.5254974 3.074919 -1.2893742 2.3077276
-0.67109597 -2.445089 -3.3179402 -1.9314064 2.6012206 -4.2970824 -1.6017363 1.026686
1.0340607 0.61444753 2.1312716 -0.6909884 -2.6923838 2.9719267 3.9882662 -0.21433735
-1.3047562 1.7534281 2.8667936 -1.4348756 2.3117342 -0.015122376 1.7975047 0.29939985
-2.451255 1.2081827 -1.3285084 0.9155879 0.05561431 1.7398493 -2.1333346 4.6011524
-0.94311213 -3.1923726 5.2438245 1.8449706 0.9861429 4.613943 1.8849723 2.0526626
-3.1015303 1.0739348 -0.74269676 2.6772332 1.787879 -0.47713202 -2.093907 -2.837121
-2.2141485 -2.678324 1.0149287 -2.3266885 0.18997326 -1.4386888 -1.4426963 0.7139809
-2.1034794 -4.308103 2.0930297 1.4988822 1.7935847 2.8863716 -1.657197 -3.0400455
-0.658304 3.5392404 3.3566768 2.1538954 3.0794299 0.23768799 -1.2628847 2.3222456
3.8138895 -0.700864 0.2633757 -2.6067767 -2.5478845 0.75717396 3.4298863 -0.44097
1.3180047 -2.7236652 -2.4628253 3.6957614 -1.6219621 0.41369507 2.73456 -3.1130202
2.4877098 -2.6762476 -1.0761946 -3.1314805 -3.2884536 -3.5215445 2.144942 -1.5779307
1.6424441 -3.271504 -3.185315 -1.1077534 3.3568215 -3.446106 -2.7491238 0.9199213
-3.4874225 2.1865335 2.9492397 -1.882159 2.05034 1.8110973 -2.3569343 2.4673717
1.1143793 -2.9812083 -0.7349707 2.6630816 0.84256107 -4.518133 -1.4354106 2.2242303
3.2358031 -1.7513323 -2.8655787 -3.8866796 0.5861627 0.61455053 -2.6225204 -0.9308075
-2.7225974 3.8981812 1.0352938 -2.138701 -1.9531751 0.7269385 -0.33147526 -1.5141793
3.7054055 2.9999082 -1.2673347 -2.6792939 -1.5081072 -2.798686 -1.6490244 2.6793058
-1.6558675 2.3135831 2.556888 1.5925202 -3.4325075 -0.27868065 0.39878145 -2.6242533
0.4175355 2.7186 -2.5171616 -2.274741 1.3762052 -1.4920777 -2.2002387 -2.0249708
3.102927 -1.8054718 2.0704942 1.1013063 1.379854 -4.625397 2.2551286 -1.8116626
2.6203272 -1.7599986 -0.5762253 2.93213 1.1529258 -1.8860085 -2.1030064 3.1222553
-2.4161654 4.072311 1.382044 -3.8511925 1.0252159 -2.6478758 0.22844853 -2.536466
1.4679191 -1.0991924 -1.9420409 0.5463873 -0.731861 2.183113 2.7824044 2.201507
-1.0887712 1.8452202 -2.2756014 2.773713 -3.919826 1.8110673 -0.9239551 0.612574
0.98791176 3.209538 -2.5166316 -0.8156743 -2.673564 -1.652205 -2.184087 -3.0807438
-2.8085485 -0.43294522 -2.074568 2.5161157 1.7941546 0.7006722 -0.5216867 -2.8577101
1.1544075 -0.14582926 1.6653446 0.5471706 -0.71602184 -3.2749462 3.7905896 -2.4303446
3.6616313 -1.5179653 1.1341879 -2.368071 -1.2734427 -3.075656 -1.5396057 -2.5345411

weight f4 [32, 16]
00000000: a815 06c0 6c4f eb3f 8a60 edbf 4581 1540
00000010: ad00 5dc0 d803 eb3e d22a b43c 84ec d3bf
00000020: 327f 0240 0e69 a23f 6c4e 21c0 4962 35c0
00000030: d703 0ac0 3d06 dc3e 7cf5 2240 8533 8540
00000040: ca67 bcbf 8b6b a0bf a64a 7940 f32f 01bf
00000050: 0053 5cc0 a590 38c0 a58f c93f d6a5 b63f
00000060: c066 91bf 369f a23f d189 c3bf 5c34 1a40
00000070: e356 2140 e694 1740 aae1 33c0 f8bc 11c0
00000080: 2567 42c0 7fab 86c0 0243 cbbf c747 05c0
00000090: 84e5 32bf b5a7 67bf a0e0 ed3f e6db e73f
000000a0: 2f13 39c0 3cb6 4d40 b62a 26bf 1630 c83f
000000b0: 4482 6a40 f2f3 f5bf 5b95 14c0 f94a 913f
000000c0: 41a9 1340 525b 193d 8b0d 81c0 81c4 3c3f
000000d0: cc79 4540 7ed8 4e3f e55f f3bf 76c3 69bf
000000e0: fa6f b23f 5ffa 4640 c2fe 39c0 1c2f b9bf
000000f0: 8e9b ebbf 09a4 5240 2199 de3f 7391 cd3e
00000100: aec7 203f b310 f13f bad4 7e3f 570b b13f
00000110: 1420 1ac0 2a8e 17c0 5749 98bf 2de7 76bf
00000120: aeb1 2c40 346d fd3e 5a6a 22c0 7c6e 44c0
00000130: 8ee2 16bf c4b6 ed3f c510 1140 8830 8e40
00000140: 1e35 df3f 68d8 ed3f da77 f6bf 6685 4440
00000150: 6232 a9bf 0b7a 393f 1d24 e8bc bb38 18c0
00000160: 5372 1840 1fb1 bdbf dfe4 37c0 896d d4bf
00000170: 3f9a 71c0 67e4 0840 32e3 2140 9714 6740
00000180: dad9 1bc0 a150 59c0 945a f7be 2c92 1fbf
00000190: bde7 6c40 c8b4 4540 2be4 3140 7718 47c0
000001a0: e669 113f c37d aebf e476 3d40 3d02 0d3f
000001b0: 17bb 0140 8fc9 23c0 4917 40bf dcd8 4dc0
000001c0: a3fb 01c0 6336 19be 2b5c 333f 2f9a 14c0
000001d0: f39f 8640 ad71 2440 02b5 1d3f 0834 fdbf
000001e0: a264 7ac0 c37c 18c0 fe69 3fbe 76ad 5c40
000001f0: 002c 1440 ac73 a83f bfa6 adbf e45c 07c0
00000200: bdbc 9c3f a402 2b40 d244 0240 f7b7 5240
00000210: 04dd 15c0 9a86 5940 7951 cdbf 2bf5 babf
00000220: 84ae 1b40 eb1d 5a3f fcad 3fc0 ed34 983e
00000230: dd15 143e 0cb7 eabf 50d7 0140 7670 6840
00000240: c260 2f40 0020 c6bf 33a1 7ac0 390d 9e3f
00000250: ff7e 593f a0c6 5440 0c17 62c0 c331 0b40
00000260: 2cb9 80c0 d36f 8c3e 240b 4a3f 2047 29be
00000270: 7127 f4bf 2b16 84bf 72c3 0740 d169 68be
00000280: 7182 8cbf 2678 443e c540 5b40 4fb1 83be
00000290: 294f 2340 3c82 15c0 3bb5 fbbf 90ef 043e
000002a0: 612e a3bd 9e98 92c0 a39d 14c0 15b4 0c40
000002b0: 7696 fdbd bc2b a0bf 5c9f 1fc0 cd70 e73f
000002c0: c7ed 4e40 9b5b 10bf f1d2 c2bf 977c 4e3f
000002d0: a685 5ac0 8ac3 3940 4281 25bf 4d86 d2bf
000002e0: 8e43 1940 8b00 4dbf 008e 90c0 478a c2bf
000002f0: 73f3 a9c0 bb13 563f 8021 f13f 2b87 053e
00000300: 1a64 d83f 696b 853f 6829 90bf babb 86be
00000310: 6678 63c0 e651 b4be d6ed ac3e aa6e a73f
00000320: f68d 9140 02c5 8d3f 9d2e 78bf 5d9f d9bf
00000330: bd8c 38c0 1a56 5f40 5e11 2d3f 8537 6440
00000340: c40f 1dc0 f560 8fc0 61e3 d9bf 8bd5 af3f
00000350: d2dc bebf 0fbb 1f40 059c e73f fed9 813f
00000360: 9ed6 27c0 28b3 2d40 f27e 38bf e8d6 79c0
00000370: 9438 1040 a67f 8dbf c3ad 1f3f e00d 2bc0
00000380: a438 01c0 3892 6b40 4ff5 f63f b083 28c0
00000390: a3c2 1ebf c468 97be 7e82 7abe ebad 2640
000003a0: 0765 52c0 6157 b83f 08bf 5dc0 3f61 8b3e
000003b0: 3548 1940 0dfc 4340 9376 d7bf eeb4 5640
000003c0: e836 8a3e 1440 3040 af4a 34be 82fb d9bf
000003d0: e09a 6ec0 3667 43c0 adfd 8f3e b53c 8bc0
000003e0: fa1c 4a40 9ece 9d3f ad79 2d40 e75b 143f
000003f0: 923e 83be c504 89bf f5f2 c53f 7e21 1840
-2.0950718 1.8383613 -1.8545086 2.336015 -3.4531662 0.4590137 0.021993075 -1.6556554
2.0390134 1.268831 -2.5204115 -2.8341238 -2.1564844 0.4297351 2.5462332 4.162539
-1.4719174 -1.253282 3.8951812 -0.5046379 -3.442566 -2.8838284 1.5746962 1.4269359
-1.1359482 1.2704837 -1.5276433 2.4094458 2.5209281 2.368463 -2.8106484 -2.2771587
-3.0375454 -4.2084346 -1.5879824 -2.082506 -0.69881463 -0.90490276 1.8584175 1.8113983
-2.8917959 3.2142477 -0.6490892 1.5639675 3.6642008 -1.9215071 -2.321616 1.1351005
2.3072054 0.037440605 -4.032903 0.7373734 3.085559 0.8079909 -1.901364 -0.91313875
1.3940423 3.1090314 -2.9061742 -1.4467502 -1.8406847 3.291262 1.7390481 0.4015003
0.6280469 1.8833221 0.99543345 1.3831586 -2.408208 -2.368052 -1.1897382 -0.96446496
2.6983447 0.49497378 -2.5377412 -3.0692434 -0.58939445 1.8571401 2.2666485 4.443424
1.7438085 1.8581667 -1.9255326 3.070642 -1.3218501 0.7245185 -0.028337533 -2.3784626
2.3819778 -1.4819678 -2.8733442 -1.6595927 -3.7750394 2.1389406 2.529492 3.6106317
-2.4351716 -3.3955462 -0.48311293 -0.62332416 3.7016442 3.089159 2.7795513 -3.1108682
0.56802213 -1.363213 2.9603815 0.5508154 2.027044 -2.5591772 -0.7503553 -3.216361
-2.0309837 -0.14962153 0.7006251 -2.3219106 4.207025 2.5694382 0.6160432 -1.9781504
-3.9123921 -2.3826149 -0.18692777 3.4480872 2.3151855 1.31603 -1.3566512 -2.1150446
1.2245098 2.6720362 2.0354505 3.2924783 -2.3416147 3.3988404 -1.6040488 -1.4606069
2.4325266 0.852019 -2.9949942 0.2972788 0.14461465 -1.8337111 2.0287666 3.631864
2.7402806 -1.5478516 -3.9160888 1.2347785 0.84959406 3.324623 -3.5326567 2.1749122
-4.022604 0.27429065 0.7892325 -0.16531038 -1.9074537 -1.0319265 2.121304 -0.22696616
-1.0977308 0.19186458 3.4258282 -0.25721213 2.5517066 -2.3360739 -1.9664682 0.12982011
-0.079678304 -4.58113 -2.3221214 2.1984913 -0.12382214 -1.2513347 -2.4941015 1.8081299
3.2332628 -0.5638978 -1.5220624 0.8065886 -3.4144073 2.9025598 -0.64650357 -1.6447235
2.3947482 -0.80078954 -4.517334 -1.5198449 -5.310968 0.83623856 1.8838348 0.13039844
1.6905549 1.0423404 -1.1262636 -0.263151 -3.5542235 -0.35218734 0.33775204 1.3080647
4.548579 1.1075747 -0.96946126 -1.7001759 -2.88359 3.4896302 0.67604625 3.5658886
-2.4540873 -4.4805856 -1.7022516 1.3737043 -1.4911139 2.4957922 1.8094488 1.0144651
-2.6224742 2.7140598 -0.72068703 -3.9037418 2.2534533 -1.105458 0.62374514 -2.6727219
-2.019082 3.6807995 1.9293612 -2.6330376 -0.6201574 -0.29572117 -0.24463841 2.604365
-3.2874162 1.4401666 -3.4647846 0.2722263 2.3950322 3.062259 -1.6833061 3.354793
0.26995015 2.753911 -0.17606615 -1.7029879 -3.7282028 -3.0531745 0.28123227 -4.3511605
3.1580186 1.232868 2.7105515 0.5795273 -0.25633675 -1.070458 1.546477 2.3770442

weight f4 [32]
00000000: aee8 cfbf c918 f93f bed5 7440 0110 dd3f
00000010: 812d bd40 6504 2540 0c8c 283f 4173 13c0
00000020: f7a6 8040 4b9c c7bf 4360 42bf d6d8 0940
00000030: 1283 e93f 5d2c ffbf 8678 4fbf 609f 3cbe
00000040: 54ab c13f 9839 4fc0 7267 1ac0 3891 1140
00000050: 1c5a 2740 6562 8240 6dda 30c0 d511 7340
00000060: 4208 6c40 e0a0 0f3f f26d 2cc0 507d a240
00000070: 11c5 7040 64bc 2540 fc4b cd3e 1d4e 18c0
-1.6242883 1.9460689 3.8255458 1.7270509 5.9118047 2.5783932 0.65838695 -2.3039095
4.0203815 -1.5594572 -0.75928134 2.1538596 1.8243124 -1.9935414 -0.8104328 -0.18420172
1.513041 -3.2378902 -2.4125638 2.2744884 2.6148748 4.074511 -2.7633317 3.7979634
3.688004 0.5610485 -2.6942105 5.077797 3.762028 2.5896235 0.40097034 -2.3797677

bias f4 [32]
00000000: e410 28c0 9f3d 0040 0fd8 983f 3bfc c73f
00000010: 5025 e1bf 9823 e0bf 1610 a1bf ba23 4440
00000020: 9ebb 35c0 73f0 38c0 6a80 29c0 ad67 53c0
00000030: 3c92 14c0 a6bf b73f b796 0540 f203 8ebf
00000040: 1d0f 02c0 ae7b a73e 330a 1f40 b027 ba3f
00000050: 26be cf3f 23a6 933e 89a5 76bf f7bd e2bf
00000060: 0b0c ed3f 6afb ddbf 1713 3d3f 6017 843e
00000070: 6d15 a33e 5624 46c0 25e1 1ec0 dba7 22c0
-2.626031 2.003761 1.1940936 1.562385 -1.7589512 -1.7510862 -1.2583034 3.0646806
-2.8395762 -2.8896759 -2.6484628 -3.3032029 -2.3214254 1.4355361 2.087324 -1.1094954
-2.0321724 0.32711548 2.4849975 1.4543362 1.6229904 0.2883769 -0.96346337 -1.7714223
1.85193 -1.734235 0.73857254 0.25799084 0.31852284 -3.0959678 -2.4824917 -2.541495

running_mean f4 [32]
00000000: a028 0f42 a652 1c42 a549 e141 acb7 ccc1
00000010: 5414 91c0 57c9 c2c1 c20f 49c1 5423 2541
00000020: afba ecc0 96ce 96c1 2287 1c42 3e8c 16c1
00000030: a839 3942 95ec bd3f d607 bac1 5799 c1c0
00000040: d4f6 c341 1a1e 2042 d2e0 25c0 5eb4 8340
00000050: 3d56 c7c1 b2ef 3bc0 193e 5d41 7912 75bf
00000060: 4f59 e341 38c3 eb41 c41c 4842 9dd1 14c0
00000070: bfe1 3941 4725 6c41 4965 cdc1 605e 8841
35.789673 39.08071 28.16096 -25.589684 -4.5337315 -24.34831 -12.566347 10.321125
-7.3977885 -18.850872 39.131966 -9.409239 46.306305 1.4837824 -23.253826 -6.0499682
24.495522 40.029396 -2.591847 4.1157675 -24.917109 -2.9365048 13.827661 -0.9573131
28.418608 29.470322 50.02809 -2.3252938 11.617614 14.759101 -25.674456 17.046082

running_var f4 [32]
00000000: bb00 ef43 c5a9 2f44 37fa ab43 ab75 c443
00000010: 1750 c143 caf3 7943 7516 b543 c514 2143
00000020: fb59 b643 49dd f443 bbff 1b44 e909 a643
00000030: 79f0 2d44 0205 1643 9789 2b43 9748 6d43
00000040: 37d3 0844 b77c 7843 a4e0 5143 e7ef 8a43
00000050: ecb1 5e43 4359 0043 8551 dd42 4991 5f43
00000060: 702b 5c43 729a a943 617c 1244 a127 d842
00000070: 22fd 8d43 02a7 0d43 f61b 2e43 e20f 0744
478.0057 702.65265 343.9548 392.91928 386.6257 249.9523 362.17545 161.08113
364.70297 489.7288 623.9958 332.07742 695.7574 150.01956 171.53746 237.28355
547.30023 248.48717 209.8775 277.87424 222.695 128.34868 110.65922 223.56752
220.16968 339.2066 585.9434 108.0774 283.9776 141.65237 174.10922 540.24817

weight f4 [32]
00000000: 9280 c6bf e7e4 4440 e240 3bbe 2881 34bf
00000010: 159f b33f 5031 3a40 a82a 7940 952b 853f
00000020: 96cf 7140 c7c1 3ebf 46e8 843f 55de 5f40
00000030: 2dcf 9940 f06f 6a40 c914 1940 7e9c 1c40
00000040: bc42 0140 b04c 5c40 7230 cabf a3a9 d1bf
00000050: 2287 9f3f 053a ca3f 9d0e 053e fcac 023f
00000060: 9f09 7a40 ff81 5cbf d683 6740 46aa 9540
00000070: 747e 6e40 7504 8240 098c 0d3f 4803 0d40
-1.5507987 3.076471 -0.1828647 -0.70509577 1.4032923 2.9092598 3.8932285 1.0403925
3.778295 -0.7451443 1.0383384 3.497945 4.80654 3.6630821 2.3918936 2.4470515
2.0196981 3.4421806 -1.5796034 -1.6379894 1.2463114 1.5798956 0.12993856 0.51045203
3.9068372 -0.8613586 3.6174216 4.6770353 3.726468 4.063044 0.552918 2.2033253

bias f4 [32]
00000000: 0ef4 1dc0 44c2 84c0 ac80 d93f 95a5 c03f
00000010: ec27 5cbf f569 783f b51d 6cc0 afaa 08c0
00000020: 7f3e c43f 7cd4 883f aa8a c5bf 46f8 f6bf
00000030: 19a8 1d40 72cd 25c0 fa62 913f 09eb d53f
00000040: 0ca7 41c0 969e 043f 411d 25c0 72df 03c0
00000050: cb68 cfbe 490d 14c0 a1d1 8040 14f4 4e3f
00000060: f51c fd3f 472c 06c0 fa79 bb3e 6379 2cbe
00000070: 3b05 6c40 2f06 7fbf 93e3 6a40 8d50 4d40
-2.468021 -4.148714 1.6992393 1.5050532 -0.85998416 0.9703668 -3.6893132 -2.1354177
1.5331572 1.0689845 -1.5432942 -1.9294517 2.4633849 -2.5906644 1.135833 1.6712352
-3.0258207 0.5180448 -2.5799105 -2.060513 -0.40509638 -2.3133109 4.0255895 0.80841184
1.9774462 -2.0964525 0.36616498 -0.1684318 3.6878192 -0.9961881 3.67014 3.2080414

running_mean f4 [32]
00000000: 8d6a ed40 4ac9 3241 82ea 5040 f61d a8c0
00000010: d5f3 f540 b5d0 d03f 9890 aac1 526d c0c0
00000020: 6bf2 6ec0 be8f c740 fadc 8640 638a 0040
00000030: f3ab d7bf a36c 2a41 f07c 8941 7ab0 36c1
00000040: 04b9 44c0 c0b7 0ec1 e630 3b40 eae0 07c1
00000050: 2bed 97be d0ba 2641 6e5c e93f 484f 4341
00000060: 743f 74c0 8f5e 0ec0 dfd6 d0bf fb6c 8741
00000070: 37f6 4441 982a 8dc1 6366 4640 32c5 3641
7.4192567 11.174143 3.2643132 -5.2536573 7.6860147 1.6313692 -21.320602 -6.013345
-3.733546 6.2362967 4.2144747 2.0084465 -1.684935 10.651523 17.186005 -11.418085
-3.0737925 -8.919861 2.9248595 -8.492411 -0.29673132 10.4206085 1.8231332 12.206856
-3.8163729 -2.2245214 -1.6315573 16.928213 12.310111 -17.645798 3.0999992 11.423143

running_var f4 [32]
00000000: ce6c 1644 9ded 1044 b777 9243 0126 1544
00000010: 6b73 bb43 f768 0344 bd9f d643 1931 3044
00000020: 36ef ee43 953f 8c43 bedd 8043 c4f1 5644
00000030: a723 3044 af95 8243 debf f143 beb1 4444
00000040: 1b60 3043 93e2 9043 0cff 4343 bd59 c343
00000050: 6a31 1644 c546 c042 6d20 9b43 7dc1 1f44
00000060: ab77 ed43 670f 8743 d4c4 f243 37df 1244
00000070: 50f1 2443 ca64 5444 bbb8 1743 a6b2 e543
601.7001 579.7127 292.93527 596.5938 374.9017 525.6401 429.24796 704.76715
477.86884 280.49673 257.73236 859.7776 704.55707 261.1694 483.49896 786.7772
176.37541 289.7701 195.99628 390.70108 600.7721 96.13822 310.25333 639.02325
474.9349 270.12033 485.53772 587.48773 164.94263 849.5748 151.7216 459.3957

weight f4 [32, 16]
00000000: 5a38 2cc0 4969 37c0 a870 7e3f 3878 78bf
00000010: ed38 783f 77b5 5ebd 7454 0540 0802 86bf
00000020: 857f 6fc0 169e 1a40 69a6 4dbc 90f9 02bf
00000030: ff43 a4c0 47ba 6a3e bc65 b5bf 9674 733f
00000040: 18c4 a53f 5d3e 963f 5543 1b40 6a0a 0340
00000050: a847 17c0 f181 58c0 d3b2 66c0 aa84 24c0
00000060: 4d1e bbbf 31d1 61c0 86e1 f93f ff74 ffbf
00000070: f96c 1d40 04ab 0940 bf57 1240 61a2 8f3f
00000080: 85f7 56c0 5b9e 9740 0f83 8d3d ad18 b13f
00000090: 1cb1 fe3e d295 61c0 a909 60c0 42dc 13bf
000000a0: b311 2f3f 0dbb 163f 6219 45bf a044 6440
000000b0: d446 86bf 97e1 463d 7120 4640 1780 a33c
000000c0: 5003 7d3f 490f 7c3f a254 dbbf 03b0 4d3f
000000d0: 14dc 19bf 1e92 1fc0 2e79 47c0 4628 c8be
000000e0: 5abb 7640 8bc8 4540 07b4 ad3e 88c6 0abf
000000f0: e14b 2a40 a670 2640 9eb0 883c aa64 1d40
00000100: 12e4 7bc0 6195 27c0 3f76 b4bf 0026 10c0
00000110: cd93 91bf 3b19 4940 e03e 3e40 959a 513d
00000120: 0d96 f6bf a412 4bbf f234 ac3e 079b a5be
00000130: 2d8b 8bc0 9e32 3abe 8aa7 58c0 2d0c e83e
00000140: 64b5 f0bf 3c89 2840 eff5 0440 4fcf 3cbe
00000150: ebec 953f afd9 44be 38b6 e4bf f21a 00c0
00000160: 0ec8 5440 d9b2 27c0 1e73 5a40 27d1 0bc0
00000170: ba42 413f bc20 993f 4138 1840 54a9 4040
00000180: 0a87 2740 d269 5f40 82e7 8dbf ee05 cfbf
00000190: f8e5 473f 26b7 933f c0d0 86c0 297e 3440
000001a0: 6058 2740 4e90 1e40 077f 8140 6bfe 45c0
000001b0: 1a32 15c0 14cd 1040 fa78 1bc0 3f40 2540
000001c0: 1b1b b1bf 14cd abbf 4615 40c0 c425 1f40
000001d0: 8def 04c0 ddeb 1f40 b4d5 e5be d660 f13e
000001e0: e37f 1040 f478 d8bf 7e3c bc3d 3db3 8240
000001f0: aedf 1c40 6bcd 31c0 0c3a c0bd 6cdc 34be
00000200: 6b39 db3f b56f f63f 4ef3 213f 7320 41c0
00000210: 51d1 44bf 3f0d 27c0 dbff 19c0 d3c3 34c0
00000220: 610a 9c3f 3c4c 56c0 ca0c 3640 622c 0fc0
00000230: 6f55 3e3f 77f5 0a40 1d88 3640 b7f6 3140
00000240: 8fd7 e8bf a701 08c0 adeb f33f bc94 40c0
00000250: 7b1b b1be d023 d93f 8f94 c2be 3c73 bb3f
00000260: 57bb 43c0 ffcf f8bf 9d4f c63f 6886 1940
00000270: 78f6 83c0 74dc 17c0 3fb6 4dc0 389d a0bf
00000280: 64f2 82bf 1ffb 60c0 0757 1340 a528 2a40
00000290: 7311 c7bf f666 0840 9090 06c0 c6fb 06c0
000002a0: 123a 54bf d25c 3f40 be48 2ac0 63ae 8340
000002b0: 1a33 b53f a42e 513c 82f7 f93f 5a9e f73f
000002c0: 8f77 05c0 3305 44c0 d96c b93f 155e 1cc0
000002d0: 300d 1440 dbbc 2d40 0ea4 7d40 07e2 f93f
000002e0: af79 cbbf a7db f0bf 3098 2ec0 9187 75bf
000002f0: 7c46 42c0 3dcd 0bc0 13d8 c5bf f9a6 03c0
00000300: 1956 0940 ce0c 2640 2ae6 be3f 373b 4340
00000310: 5d8f 5240 c0fe f6bf 184b 3440 6898 36c0
00000320: 428b 3fbe 9372 03bf 7b26 af3d eae1 9a3f
00000330: 2004 4a40 4e46 9fbf fb77 3240 85b4 abc0
00000340: 7acf 51c0 a253 23c0 966d 4640 8b6b e83f
00000350: 596e 14c0 c468 3140 d6e3 3840 9431 cd3f
00000360: 6bde 8cbf 8322 a83f 1ae2 02c0 5b5b 0440
00000370: 0037 66c0 1838 0a40 52c3 42c0 36a6 e0bf
00000380: 814d c53f 12f7 3fc0 7616 4dc0 494f f43f
00000390: 8b0d e4bf 76c6 5840 d941 c6bf 818d 0e40
000003a0: 3a35 b43f 842b 30c0 58bd 36c0 7f4c fdbf
000003b0: 9bb3 94bf 9171 4e40 590b abbf 5103 ddbf
000003c0: fad4 eebf e82f 5540 b295 f53f 92bb 4940
000003d0: e9f6 56c0 80c8 e63f 8f36 bebe 407d 62c0
000003e0: 99f0 4240 ccbd 4e40 ebb9 903e cf90 0040
000003f0: 0912 693f 2b04 82bf a9aa d6bd f932 ed3f
-2.6909394 -2.865801 0.9939065 -0.9705844 0.9696186 -0.054372277 2.0832796 -1.046937
-3.7421582 2.4158988 -0.012551882 -0.5116205 -5.1333003 0.22922622 -1.4171672 0.9509977
1.2950468 1.1737782 2.4259846 2.0475106 -2.3637486 -3.382931 -3.6046646 -2.5705972
-1.4618622 -3.528393 1.9521949 -1.9957579 2.4597762 2.151063 2.2866056 1.1221429
-3.3588574 4.7380805 0.06909763 1.3835655 0.497445 -3.5247693 -3.5005896 -0.5775796
0.6838638 0.58879167 -0.76991856 3.5666885 -1.0490365 0.048554983 3.09573 0.019958539
0.9883318 0.98460823 -1.7135203 0.803467 -0.6010144 -2.4932933 -3.1167712 -0.39093226
3.855185 3.0903652 0.33926412 -0.54209185 2.6608813 2.6006255 0.01668578 2.459269
-3.9357953 -2.6184924 -1.4098586 -2.2523193 -1.137323 3.142165 2.9725876 0.05117281
-1.9264542 -0.7932532 0.33634144 -0.3234484 -4.360739 -0.18183371 -3.3852258 0.4532179
-1.8805356 2.6333761 2.0775106 -0.18438457 1.1712927 -0.19223665 -1.7868109 -2.0016446
3.3247104 -2.620291 3.4132762 -2.1846406 0.7549244 1.1963115 2.3784335 3.010335
2.6176171 3.4908338 -1.1086276 -1.6173685 0.7808528 1.1540267 -4.212982 2.8202002
2.614769 2.4775577 4.0467563 -3.0936534 -2.331183 2.262517 -2.4292588 2.5820463
-1.3836397 -1.342196 -3.0012984 2.48668 -2.077121 2.498771 -0.44889605 0.47144192
2.2578056 -1.6911912 0.091912255 4.0843797 2.4511523 -2.7781627 -0.093860716 -0.1766221
1.7126898 1.925284 0.6326188 -3.0176055 -0.7688189 -2.6101835 -2.4062412 -2.8244522
1.2190667 -3.348403 2.8445306 -2.237084 0.7434911 2.171232 2.8520577 2.7806833
-1.8190783 -2.1251009 1.9056298 -3.009078 -0.34591278 1.6964054 -0.38003966 1.4644542
-3.0583093 -1.9438475 1.5493046 2.3988285 -4.1238365 -2.3728304 -3.2142484 -1.2547979
-1.0230222 -3.5153272 2.3021867 2.6587307 -1.55522 2.1312842 -2.1025734 -2.109117
-0.8290111 2.9900403 -2.6606898 4.1150374 1.415622 0.012767468 1.9528658 1.93452
-2.0854223 -3.0628173 1.4486343 -2.4432423 2.313305 2.7146518 3.963138 1.9522103
-1.589651 -1.8817033 -2.7280388 -0.9590998 -3.035552 -2.1844018 -1.5456566 -2.0570662
2.14588 2.5945315 1.491399 3.0504892 3.2900002 -1.9296494 2.8170834 -2.8530521
-0.18705466 -0.513467 0.085522614 1.2100194 3.1565018 -1.244333 2.788573 -5.365786
-3.2782884 -2.5519795 3.1004386 1.815782 -2.319235 2.7720194 2.888906 1.6030755
-1.1005377 1.3135532 -2.0450501 2.068076 -3.597107 2.1596737 -3.0431714 -1.7550724
1.5414277 -2.999455 -3.204496 1.9086696 -1.7816633 3.387113 -1.5488845 2.2273867
1.4078743 -2.752656 -2.8553066 -1.978897 -1.1617311 3.2256815 -1.3362838 -1.7266637
-1.8658745 3.331049 1.9186308 3.1520734 -3.3588202 1.8029938 -0.37151 -3.5388947
3.045935 3.2303343 0.28266844 2.0088384 0.91043144 -1.0157522 -0.104817696 1.8531181

weight f4 [32]
00000000: ab47 ac3e 8831 383f 9102 993f 235a 1340
00000010: 0088 503f 47b6 0d40 f6e5 07c0 5493 c0bd
00000020: 09d0 ddbf 8b91 bb3f 061d 683f 0d35 873d
00000030: b25c f7bf d1da 1f3e 8515 0ac0 e511 7540
00000040: e776 9140 cf8c 23bf 233b 193f c080 5740
00000050: cefb 1740 9fd5 3740 9470 2ac0 3ee3 5d3f
00000060: 6878 e8bf bfea 7c40 21a1 4a40 6d89 873f
00000070: 27fe f6be c5ab bcbe ab06 e83f d89f 43bf
0.33648428 0.7195058 1.1953908 2.3023765 0.8145752 2.2142503 -2.1234107 -0.094031006
-1.7329112 1.4653791 0.90669286 0.066019155 -1.9325163 0.15610816 -2.1575634 3.8292172
4.5457644 -0.6388673 0.5985586 3.3672333 2.374744 2.8724134 -2.6631212 0.8667487
-1.8161745 3.9518278 3.1660845 1.0588814 -0.48240778 -0.368498 1.8127035 -0.7641578

bias f4 [32]
00000000: cd8a 393d 143b 513d 4591 d33f e760 15c0
00000010: f5aa 7a3d df78 d6bf 8399 b73f 98c4 c7be
00000020: c913 6840 3160 323f f3a8 17bf 5dcd 2340
00000030: 2a0a d6bf 7886 8fbe 7c14 fdbe 7d8d ca3f
00000040: 52d6 85bf 1822 36c0 bb2d be3e 819c 0fc0
00000050: 5d68 01bf e812 a13f bb02 803e 86ba 8bbf
00000060: 4f60 00c0 95db 07c0 6094 52c0 1430 a3bf
00000070: b3e6 4ac0 6463 1dc0 dfe4 45c0 19b1 4640
0.045298386 0.051081732 1.6528708 -2.3340394 0.061198194 -1.6755637 1.4343723 -0.39017177
3.6262076 0.69678026 -0.5924217 2.5594094 -1.6721852 -0.2803228 -0.4942969 1.5824429
-1.045603 -2.845831 0.37144265 -2.2439272 -0.5054987 1.2583895 0.25002083 -1.0916297
-2.0058782 -2.1227772 -3.290306 -1.2749047 -3.1703308 -2.4591913 -3.0920942 3.1045592

running_mean f4 [32]
00000000: 538a a7c0 69cf b841 d7ed 0440 c189 2c41
00000010: 9d39 3bc1 a59c 9d40 bee8 ecc0 7378 e13f
00000020: 7a24 0241 2012 1dc1 4d29 8641 acb1 08c1
00000030: 2035 4dc1 6ddc 2cc1 6279 fd40 c5fe bbbd
00000040: f280 3640 af0e 23c1 0071 af41 4d5a 9dc0
00000050: e29e 6c40 d837 ca3f 7afa 80c1 55cf 2bbf
00000060: 9a38 5640 fa71 2341 aeca bc40 8b63 52c1
00000070: ef15 1c41 a13f 2f40 0a4d 8f41 7ab7 0140
-5.2356353 23.101274 2.0770166 10.783631 -11.701566 4.9253716 -7.403411 1.7614883
8.133905 -9.816925 16.770166 -8.543377 -12.82547 -10.803815 7.921067 -0.09179453
2.8516202 -10.191085 21.930176 -4.917273 3.6971974 1.5798292 -16.122303 -0.6711324
3.3472047 10.215326 5.899741 -13.1493025 9.755355 2.7382586 17.912617 2.0268235

running_var f4 [32]
00000000: b031 8644 45bb ac44 ce6a ea43 7c44 8744
00000010: 4e3b 1644 e75d 3744 a6a8 d243 2bca 8744
00000020: 8925 7144 1812 0d44 02fb 9e43 78df be44
00000030: 991a 2543 9ab1 d043 7827 8443 138c a944
00000040: 77d6 b543 220c b944 4da1 bb43 7696 2644
00000050: 13fd 8d43 e0c6 9344 7a6a 8943 aeb7 3644
00000060: 0c7e c643 dce1 8943 664e 0944 3d9a f043
00000070: 2378 c843 1199 1844 073b 0444 2141 ac44
1073.5527 1381.8522 468.8344 1082.1401 600.92664 733.4672 421.31757 1086.3177
964.5865 564.2827 317.961 1526.9834 165.1039 417.3875 264.30835 1356.3773
363.6755 1480.3792 375.26016 666.35095 283.97714 1182.2148 274.83185 730.87
396.98474 275.76453 549.225 481.205 400.93857 610.39166 528.9223 1378.0353

weight f4 [32, 16]
00000000: 516d 3e3d 3277 4a3e d670 43bf bb2b 5a3e
00000010: 01d9 363f 525a acbd 81d2 97bd 5ded 253f
00000020: 9949 bdbe adaf af3e 5b0a 5dbf ea11 b93f
00000030: 7580 f2be 68e6 b93d 2d18 693d a1ec 863e
00000040: 6e77 06bd cd9f 04bf 904a 8fbe dbe6 113c
00000050: aaef f6bd 02e2 ffbe 2525 1cbf 061c 55bf
00000060: 8e98 6a3e 4c10 34bf 90b5 63bf 7e33 9bbf
00000070: 9eab 653e 5529 4cbf 93ec dc3e f99f 70bf
00000080: deb2 ecbe fe5b 38be ec45 e23d 5152 c53e
00000090: 56be 6ebe a107 cd3e cfcd 26bf 1774 f8be
000000a0: 35f1 47bc 3819 8d3e 64b1 93be e938 743e
000000b0: 84df 083f 2b42 553f 9b36 88be fd04 acbd
000000c0: 7373 98be b3a7 9abf f8e7 753e 54f2 3ebf
000000d0: 9b7d 1c3e 8216 aa3f dfdd 263e cc83 31bf
000000e0: f99a 3d3f 2c60 01c0 3711 0fbf 3c24 4d3d
000000f0: 8af5 7bbf aa41 5abf 00d7 b83f e7dd 133f
00000100: b5b2 4fbe cdac 793f 2a41 983f 14c2 373f
00000110: 235f 6cbf 7024 073e 4218 40bf ea38 b43f
00000120: 50ab ccbd c13c 563d 1092 393f b6a4 aa3c
00000130: 113b f6bd f9d3 83bf fd06 a93e 3c74 ecbe
00000140: 515c 953e 42ce b33e d02b da3f 9c54 22bf
00000150: 2711 9abe 49c9 ee3c ffd9 c4be a947 333f
00000160: a150 2abf a8c3 643f e256 a83e 158c 7fbf
00000170: 697a 413f 80d8 ff3f 43fd 8dbe c456 513f
00000180: 3504 7fbf 2440 2c3f e599 20bf 094c 053c
00000190: faf9 193f 4029 293f eaa4 8c3e e4cb f73f
000001a0: 7ce7 b43f d137 c9be 2a0c 173e a06b cabf
000001b0: be9d 4fbf 8e1b 2f3f 61e4 f33e 86e2 8a3d
000001c0: c6fd 143f 7285 bb3f 307b 8d3e fd26 0a3f
000001d0: 1227 95be 9a1d 7bbf 957a c6be 0f5c 7dbe
000001e0: e783 a33f 1857 37bf a872 0d3f 58e8 6a3d
000001f0: fabf 633f d2bb 35bf 77b6 68bf 1e51 2abf
00000200: 2133 d23e afa1 4840 7e1c 8a3f 0169 93be
00000210: dadd cfbd d6c6 f3be 0aeb 34c0 5dd1 3ebf
00000220: 3e6d 0dc0 d416 4f40 bbaf 8840 b09b cb3e
00000230: f74d 6cc0 1cb4 49bf d32a 4bbf e46d 0540
00000240: 286d b7bf 0067 06c0 3ffe 1bc0 c643 f2be
00000250: eb02 2e40 d4e5 3940 1545 abbf 3b48 4340
00000260: b45e 1540 5952 08c0 d9d1 3dc0 8404 1540
00000270: 817c 00c0 f3a4 2f40 d0d7 4440 9da2 693e
00000280: b56f febf d02a 26c0 e69f 0a3f bab4 6d3f
00000290: ce10 3640 1711 4cc0 1a0e 0840 e047 f5bf
000002a0: fef4 d63f a1bc 80bf 3df2 0f3f d319 6340
000002b0: c3f6 213e 889a b4bf cfb3 0340 803d eb3e
000002c0: b785 e8bf 5f53 06c0 295e afbf 0d72 5dc0
000002d0: 1a13 a93f 9315 b23f 7be2 85bf ea98 e23f
000002e0: c878 34c0 edad 533e 63f8 24c0 9212 723f
000002f0: f278 06c0 99a5 46c0 fb37 e5bf a53f 50c0
00000300: d1be 06c0 9d77 4240 0b0e 5f40 721d 7240
00000310: 0182 fbbf 45ff 613f d579 84c0 a484 c1bf
00000320: 157b 1f40 2e7e ebbf 7f12 07c0 d715 7dbe
00000330: bf90 6240 e2e7 0a40 5b46 0040 108d 4740
00000340: a7e2 4fbf ccc9 e1bf 87a1 33c0 d6ad 5abf
00000350: fe65 6d40 3e20 b1bf 9fa2 793f 4e0f 38c0
00000360: 3cd4 12bf 688c 61bf 8505 eabf 2f72 f6bf
00000370: 0833 cf3f d592 85c0 79ee 6e3f fea7 2b40
00000380: 7697 933e dd55 8940 d882 e73f 3a0d eebe
00000390: 468a 0f3f b1e8 a03e 9382 adbe 888b 02bf
000003a0: ef2d 93c0 553f fbbd 992c e33e 7f29 e7bf
000003b0: 2316 01bf 6a5c 5bc0 c674 833f 50de 563f
000003c0: d4f1 d7bf 851b 8540 c052 8840 8c15 1a40
000003d0: 60aa 223f 188e 7abf d722 f9bf 09d7 9fbf
000003e0: 4665 0a40 972c cdbf 01c6 8bbf 94a5 c03f
000003f0: 4a64 d03f 387f acbe b904 0440 d28a 2a40
0.04649097 0.19772032 -0.7634405 0.21305744 0.7142487 -0.08415665 -0.07413197 0.6481531
-0.36970213 0.34313717 -0.86343926 1.4458592 -0.4736363 0.0907715 0.05690782 0.2635241
-0.03282874 -0.51806337 -0.27986574 0.008905138 -0.12057431 -0.49977118 -0.6099418 -0.83245885
0.22909757 -0.7033737 -0.8894892 -1.2125089 0.22428748 -0.7975057 0.43149242 -0.939941
-0.46230215 -0.18003842 0.11048493 0.38539365 -0.23314795 0.40044883 -0.6515779 -0.4852607
-0.012203504 0.27558303 -0.28846276 0.23849835 0.5346606 0.8330409 -0.2660416 -0.08399389
-0.2977558 -1.2082428 0.2401427 -0.74588513 0.1528229 1.3288119 0.16295575 -0.6934173
0.74064595 -2.0214949 -0.5588564 0.050083384 -0.9842154 -0.85256445 1.4440613 0.5776047
-0.20283015 0.975293 1.1894886 0.71780515 -0.9233267 0.13197494 -0.75037014 1.4079869
-0.09993613 0.052304033 0.724885 0.020830493 -0.12022985 -1.0299064 0.33013144 -0.4618243
0.29171994 0.351183 1.704462 -0.63410354 -0.3009121 0.029148715 -0.38447568 0.7003122
-0.6652928 0.8936105 0.32878786 -0.99823123 0.7557741 1.9987946 -0.27732286 0.8177302
-0.99615794 0.6728537 -0.62734824 0.008135804 0.6014706 0.6607857 0.2746957 1.9359097
1.4133143 -0.39300397 0.14750734 -1.5814095 -0.8110007 0.6840142 0.47635177 0.06781487
0.5819973 1.4650099 0.27633047 0.5396574 -0.2913137 -0.98092043 -0.38765398 -0.24742149
1.2774628 -0.7161727 0.55253077 0.057350487 0.8896481 -0.70989716 -0.9090342 -0.66530025
0.41054633 3.1348684 1.0789945 -0.2879105 -0.10149737 -0.47612637 -2.8268456 -0.74538213
-2.2097926 3.2357683 4.2714515 0.39767218 -3.6922586 -0.7879045 -0.7936222 2.0848322
-1.4330187 -2.1000366 -2.437393 -0.47317332 2.718928 2.9046526 -1.3380457 3.0512836
2.3339052 -2.130026 -2.965933 2.3284006 -2.007599 2.7444427 3.0756721 0.22815938
-1.987784 -2.596363 0.54150236 0.9285389 2.8447757 -3.188543 2.1258607 -1.916256
1.6793516 -1.0057565 0.56229 3.5484512 0.15816788 -1.4109659 2.0578496 0.45945358
-1.8165807 -2.0988386 -1.370061 -3.460086 1.3208954 1.3912834 -1.0459741 1.7702916
-2.819872 0.20671816 -2.5776603 0.94559586 -2.101132 -3.1038573 -1.7907709 -3.2538846
-2.1053965 3.0385506 3.485232 3.7830472 -1.9649049 0.88280135 -4.139872 -1.5118604
2.4918873 -1.8397882 -2.110504 -0.24715362 3.5400846 2.170403 2.0042942 3.1179848
-0.8120522 -1.7639709 -2.8067338 -0.854215 3.70935 -1.3837965 0.97513765 -2.8759341
-0.57355094 -0.8810487 -1.8282934 -1.9253596 1.6187449 -4.174174 0.9333263 2.6821284
0.28826493 4.2917314 1.8086805 -0.46494466 0.56070364 0.3142753 -0.33888683 -0.5099416
-4.599357 -0.12267939 0.44369963 -1.8059539 -0.504244 -3.4275155 1.0270011 0.8393297
-1.6870675 4.1596093 4.2601013 2.407565 0.6354122 -0.9787307 -1.9463757 -1.2487499
2.1624312 -1.6029233 -1.0919801 1.505053 1.6280606 -0.3369081 2.0627882 2.664723

weight f4 [32]
00000000: 0000 803f 0000 803f 0000 803f 0000 803f
00000010: 0000 803f 0000 803f 0000 803f 0000 803f
00000020: 01e5 df3f 2c6c 9a3f 052e e03f a55f f23e
00000030: 6d2c f43f 4979 ac40 0dfb 2540 c9b4 7a40
00000040: 0000 803f 0000 803f 0000 803f 0000 803f
00000050: 0000 803f 0000 803f 0000 803f 0000 803f
00000060: a482 40c0 ab74 f53e 7ec0 fcbf f3c7 ddbf
00000070: 12e2 e53f 23f2 adbf aa6a e2bf 5248 9640
1.0 1.0 1.0 1.0 1.0 1.0 1.0 1.0
1.7491761 1.2064261 1.7514044 0.47338596 1.9076058 5.3898053 2.593448 3.9172843
1.0 1.0 1.0 1.0 1.0 1.0 1.0 1.0
-3.0079737 0.47940573 -1.9746244 -1.7326645 1.7959616 -1.3589519 -1.7688801 4.696328

bias f4 [32]
00000000: 0000 0000 0000 0000 0000 0000 0000 0000
00000010: 0000 0000 0000 0000 0000 0000 0000 0000
00000020: 5078 0c40 e8af f83f 9e24 f8bf 2a81 41c0
00000030: a5c8 65bf 1364 08c0 adcd 35c0 2e80 5240
00000040: 0000 0000 0000 0000 0000 0000 0000 0000
00000050: 0000 0000 0000 0000 0000 0000 0000 0000
00000060: 532a 9b3e 1db7 983f deb7 6f40 b698 45bd
00000070: 665f a93f 71a0 9240 b317 f13f 36bb 303f
0.0 0.0 0.0 0.0 0.0 0.0 0.0 0.0
2.1948433 1.9428682 -1.9386175 -3.0235085 -0.89759284 -2.131108 -2.8406785 3.2890735
0.0 0.0 0.0 0.0 0.0 0.0 0.0 0.0
0.30305728 1.1930882 3.7455974 -0.04824134 1.3232238 4.582085 1.8835357 0.6903566

running_mean f4 [32]
00000000: 97db 0dc0 4df2 8c40 7760 fc3e f29e eb3f
00000010: 653f 2c3f bdbf 1540 b9b4 26c0 7eef 0d3e
00000020: 6a92 c5c0 a1c6 cec0 fa90 b940 389b bbc0
00000030: dd8d 9441 9b47 4841 6a44 843f 5f2c 4541
00000040: 4f39 6340 f863 b8bc d3b4 6fc0 71d5 0e3e
00000050: 19c2 db40 5d8c 11bf 3715 693d 3e75 a13e
00000060: b720 cc40 c64f b53f 4f8f f940 6ca5 a0c0
00000070: de2e ce40 64e9 8f40 2b01 d440 de3a bdc0
-2.2165277 4.4045777 0.49292347 1.8407881 0.6728423 2.3398278 -2.6047804 0.1386089
-6.174123 -6.4617467 5.7989473 -5.8626976 18.56927 12.517482 1.0333378 12.323333
3.5503728 -0.022508606 -3.7454116 0.13948609 6.8674436 -0.568548 0.056904998 0.3153476
6.3789935 1.416497 7.7987437 -5.020193 6.443221 4.49724 6.6251426 -5.913436

running_var f4 [32]
00000000: 06a5 8d41 6043 3f41 f65d 9341 a8d6 4e41
00000010: 6d1e 3e42 1a6d ac42 9f6d 1541 36c8 f341
00000020: 6208 9243 903c 0043 c289 ab43 f35a 3c44
00000030: 97ab 1b45 e7f9 1e43 7e95 d443 d654 7244
00000040: e39f 9f40 9163 1d41 463b 0d41 49ca 9b40
00000050: ed30 1c41 527e 7441 b354 0142 d6ff 9640
00000060: c1f7 6643 dbc0 2f44 39fa b643 b696 7243
00000070: 8996 0045 2f46 ad43 ea6e 3644 477b a744
17.705578 11.953949 18.42088 12.927406 47.529713 86.21309 9.339263 30.47276
292.0655 128.23657 343.07623 753.4211 2490.7244 158.97618 425.1679 969.32556
4.9882674 9.836808 8.826971 4.868443 9.761945 15.28084 32.332714 4.71873
230.96779 703.01337 365.95486 242.58871 2057.4084 346.5483 729.73303 1339.8524

weight f4 [32]
00000000: d3bd 14be 7c44 d83f fcaa d43f 004f 37be
00000010: 5a6a ca3f c1fa 3dbf 5ee9 1740 ba2a 353f
00000020: fd96 2540 05f8 34bf 9154 43c0 7d87 90bf
00000030: 0513 d1bd 0caa 133f c240 dabf cdf0 2940
00000040: dfbe bebf 5d4b 82bf 02b4 24bf 11fc d8bf
00000050: c9fe 8e40 e929 3d3f 6b1d 2d40 68fe 85bf
00000060: c88d 8b40 bc00 6b3f 2671 5ac0 1657 95bf
00000070: 2a9c ecbf 81d8 d03f d198 0e40 58f8 6940
-0.14525537 1.68959 1.661468 -0.1790123 1.5813706 -0.74210745 2.3736186 0.7076832
2.5873406 -0.7069095 -3.0520365 -1.1291348 -0.10208706 0.57681346 -1.7051013 2.6553223
-1.4901999 -1.0179249 -0.6433717 -1.6951925 4.4686017 0.73892075 2.7049205 -1.0468264
4.3610573 0.91797996 -3.413156 -1.1667202 -1.8485157 1.6316072 2.2280772 3.6557827

bias f4 [32]
00000000: 0fbe 0abf 0e46 d8bf 8d79 05bf 4309 863f
00000010: 95e3 1b40 c926 24be eada f5bf 41ab 50bf
00000020: dcf6 9440 566f 1ec0 d629 883f 5581 b1bf
00000030: 5259 8d3f c108 9e3f 2da7 fc3f 1d78 4c3f
00000040: 9068 30c0 7f8e 8040 1b2e ea3f 15a0 81bf
00000050: 6ba4 8f3b 951f 7dc0 d1f3 ad3f ef4b 32c0
00000060: 5d5c abbe 67ca 6cc0 b751 ccbe fde7 1dc0
00000070: 11f8 2fc0 07cb 5dc0 a6cd 0bc0 731d 903e
-0.54196256 -1.6896379 -0.52138597 1.0471576 2.4357655 -0.1603042 -1.9207432 -0.8151131
4.655134 -2.4755454 1.0637767 -1.3867594 1.1042883 1.2346421 1.9738518 0.7987078
-2.756382 4.0173945 1.829532 -1.0126978 0.004383614 -3.9550526 1.3590032 -2.7858846
-0.33468905 -3.6998537 -0.39906093 -2.4672844 -2.7495158 -3.4655168 -2.1844268 0.28147468

running_mean f4 [32]
00000000: 88bd 9840 f860 ef40 608d 8540 5c21 22c1
00000010: 6dee cebf 236c bfbf c057 88c0 8939 7340
00000020: d052 8040 f9c4 9cc0 7155 0141 5bf8 d140
00000030: 5643 1541 2973 9fbf c4e8 d8c0 7bae a640
00000040: 5719 b340 8948 0c40 b3e4 6a3e be60 ddbf
00000050: 907a b2bf 72ea b3bf 4856 4440 a0bb 3c40
00000060: eb5c b540 fb4b e140 b2e4 da40 7d68 8f40
00000070: c305 b2bf de54 a53f c676 b740 a4ed 6140
4.773136 7.480587 4.1735077 -10.133144 -1.6166512 -1.4954876 -4.2607117 3.8003867
4.010109 -4.8990445 8.08336 6.561567 9.328939 -1.2457019 -6.778414 5.208799
5.5968432 2.1919272 0.22938804 -1.7295148 -1.3943653 -1.4055922 3.0677662 2.9489517
5.6675925 7.040525 6.840417 4.481505 -1.3908008 1.2916524 5.7332487 3.5301294

running_var f4 [32]
00000000: 4efc f641 bf9d 3642 66bf 4c42 c82f 3342
00000010: b4b7 5f42 635a f041 9dfe d441 63ae f441
00000020: 623d d842 8079 2342 aa84 af41 73f1 a641
00000030: 2a8a 2a42 28c0 1842 76a9 9041 9c91 a041
00000040: 4d5b dc41 ca76 e340 5cf5 3542 3e09 a842
00000050: 9bf7 f041 6f9d fe41 2dcc 2f42 73f0 8e41
00000060: fdd7 1a42 ac32 9041 800e 1742 4cbb 9541
00000070: 6e4b 3442 5539 9c42 8040 8e42 8b36 d942
30.873196 45.65405 51.186913 44.79666 55.929398 30.044134 26.624323 30.58515
108.11989 40.868652 21.939777 20.867895 42.634926 38.187653 18.082745 20.071098
27.54458 7.1082506 45.48961 84.01805 30.120901 31.826872 43.94939 17.867407
38.710926 18.024742 37.76416 18.716454 45.07366 78.11198 71.12598 108.60653

weight f4 [32]
00000000: 58ed 4840 53c9 6840 0ee5 9e3e f26d aabf
00000010: adf3 f63f 8f6f 1bc0 cbff cabd dbf6 44bf
00000020: 68f2 5a40 e7f0 3540 c64d 0bc0 8475 ec3f
00000030: 1ee3 9c40 c29b 413f 0799 cbbd c01b 0240
00000040: ef3a 64bf 26b3 f23f 3e75 6540 6eb0 47c0
00000050: 1c13 e43f ffad 1cbf 4309 00bf 042a cc3f
00000060: eef9 cc3f 4e20 4a40 9cf6 3a40 91c1 debf
00000070: 30e5 8a40 fc1f 3f3f be38 1140 4d91 6640
3.1394863 3.6372879 0.3103413 -1.3314803 1.9293114 -2.428684 -0.0991207 -0.7693917
3.4210453 2.8428285 -2.176622 1.8473363 4.9027243 0.7562829 -0.09941297 2.0329437
-0.89152426 1.8960922 3.585281 -3.1201434 1.7818332 -0.61202997 -0.5001413 1.5950322
1.6013772 3.1582217 2.9213018 -1.7402822 4.340477 0.7465818 2.2690883 3.6026185

bias f4 [32]
00000000: 2ca3 96bf 4fbb 40be ff66 27c0 1981 813f
00000010: 4a23 40c0 759c c63e 131b 50c0 f906 29c0
00000020: dc69 9140 e3ad 5bc0 28ce b3bf 901f 0e40
00000030: 37d9 9f3f b3e6 29c0 3141 0340 20ea c43f
00000040: 1060 0f40 ab69 08c0 f1fd cfbf c578 3ebf
00000050: 0516 e23f e4c5 ffbf 1589 7fbd d8df 95be
00000060: 1735 5940 266e d83f 57b6 cebf 4d3e 763f
00000070: b55c 6b3f 8d6c b0bf 4916 7cc0 ac2b 8cbf
-1.1768546 -0.18821453 -2.6156614 1.0117522 -3.0021539 0.38791242 -3.2516525 -2.6410506
4.5441723 -3.4324882 -1.4047289 2.2206764 1.2488164 -2.6547058 2.050854 1.5383949
2.2402382 -2.1314495 -1.6249372 -0.7440303 1.766297 -1.9982266 -0.06238659 -0.29272342
3.3938653 1.6908615 -1.6149396 0.96188813 0.91938335 -1.3783127 -3.9388602 -1.0950828

running_mean f4 [32]
00000000: 68b8 0c40 9b39 35c1 f008 bac0 6129 0a41
00000010: 7731 8f40 e0a1 7b40 9618 e740 dbd6 2bc1
00000020: f0c8 e83f c835 1440 cb13 febf 432b 4940
00000030: c113 0241 8f41 0bc0 8e13 a2c1 9c26 ae40
00000040: 9f23 b540 0aa0 2a40 578b 533f b95b 8f40
00000050: 9093 dbc0 5bc1 89c0 3b3c 9140 02fd 833f
00000060: 1985 ea40 9af5 39c0 da32 ca40 82ef f0c0
00000070: 0cef ab40 7a41 8240 8be0 cf3f 78d3 15c1
2.1987553 -11.326564 -5.813591 8.635102 4.474788 3.931755 7.221751 -10.739955
1.8186321 2.3157825 -1.984979 3.1432655 8.129823 -2.1758764 -20.259548 5.442213
5.6605983 2.666018 0.8263449 4.4799466 -6.861763 -4.304853 4.5386024 1.0311587
7.3287473 -2.9056153 6.3187075 -7.529237 5.3729305 4.0704927 1.62404 -9.364128

running_var f4 [32]
00000000: 73ba fa43 2f2a 9243 d532 a043 9cdf 8f43
00000010: 9a09 2144 1bba 0044 596b c043 3234 0344
00000020: d77c 2244 3b2a 4a42 babb 5342 fde8 c443
00000030: fb61 1644 917f 9543 2b55 9b43 ce29 7143
00000040: bbab 1543 3d80 b942 8a6a cc42 01cc 9e43
00000050: bd78 3344 9fe6 1241 749b cc43 8f2a 0442
00000060: d8fe b343 5338 1b42 dbec d043 1cdb 1943
00000070: fb0a ff43 ec3b 3142 ff75 d142 dd4e 8e43
501.45663 292.32956 320.39713 287.74695 644.15 514.9079 384.83865 524.81555
649.9506 50.54124 52.933327 393.82022 601.53094 298.9966 310.66537 241.1633
149.67082 92.750465 102.208084 317.59378 717.88654 9.181304 409.21448 33.04156
359.99097 38.805004 417.85043 153.8559 510.0858 44.308517 104.73046 284.61612

weight f4 [32, 16]
00000000: 0591 c8bf b11b b8c0 0fea a2bf a27d 883f
00000010: f3d2 923f 4a3c 2fc0 5b65 0dc0 0699 a8bf
00000020: 5907 e2bd 5407 8040 9fb4 3640 d1c8 f13f
00000030: 6087 2a3f cd86 b2bf 9d24 163f 7232 073e
00000040: a141 bc3f 2677 2ac0 4f94 2440 7873 4bc0
00000050: 15b8 c93f cea2 c23f 33e5 54c0 7798 1f3f
00000060: 32e4 1ec0 ee45 81bf 312a 1a40 73b5 03c0
00000070: 9675 8bbf 63ef 99c0 f8d1 a43f 90dc c2be
00000080: 8613 2cc0 2992 4fc0 a3ff 0840 4c38 3fc0
00000090: 11a3 9bc0 4031 0b40 2e34 ad40 0133 b4bf
000000a0: 82d0 38c0 5734 e9bf 3b30 a43f b8f7 bebf
000000b0: 4a7b 9a3f 6e1d 28c0 121e 1140 ede0 1a3f
000000c0: 0134 af3f b2d2 233f 5e2f 34c0 28b3 0540
000000d0: a22f 5840 364d 8fbf da4f 92c0 ec8c d73f
000000e0: b82a 9b3f bd02 3040 baa4 1cc0 5c8c ce3f
000000f0: 8e88 c73e 4176 1fc0 7f7d d0bf e3ce e8bf
00000100: 48f4 1c40 42df 903f 7267 85be 1cfb 2c3f
00000110: a3c7 51c0 e9a7 fa3e e230 9d3f 1152 043f
00000120: 68d1 683f a518 103f c3d0 9ebf e04d 5340
00000130: 4432 c63f 24b6 e93f a482 6a40 2448 8040
00000140: caa9 4d40 c7bf 1d40 7ec4 12c0 ee6f 9c3f
00000150: 7019 f2bf 721f e6bf fd86 ad3f 77f2 21c0
00000160: 8659 0a40 0b8f 0040 3d2d 14c0 d2db 903e
00000170: 58a7 c6bf 22af e03f cd65 953f a302 4640
00000180: ce66 f7bf 9738 3340 23c4 a53f 1061 3b40
00000190: ec4f 6c40 0d1d cebf 6110 893f 1f58 1540
000001a0: 9521 5c40 3957 2ebe 2963 74c0 83b1 95be
000001b0: e5fa d43e 8df8 8b3f 8f54 1bc0 f671 4ec0
000001c0: 9aa6 4440 11cb 0dc0 1c58 6f3f d341 fabf
000001d0: 55db 0140 4d27 57c0 76aa c8bf 2567 ba3f
000001e0: 4668 1040 5e81 e63f f6a0 61c0 2028 2dc0
000001f0: 7a85 3040 1c8c f0bf 144f f13f 2444 0740
00000200: be4f a33f bf2f 6940 77fe 58c0 ebb0 edbf
00000210: ae40 f13e 36d9 f9bf 57c0 0dc0 db3b 0540
00000220: faa3 2f40 fa69 65c0 3c47 a23f 0c0c 1640
00000230: 4a04 3f40 cdee 2bc0 f42d cbbf 3222 3640
00000240: 4b2a 44c0 f115 213f 0130 e1bf e95c 8840
00000250: e4f9 6540 0084 a53f 74c8 e8bf 121c d5be
00000260: cb65 4cc0 9bf9 9cbf 2ff2 523f c064 cebf
00000270: d8b0 05c0 4b35 773f 9382 f13f 111e d2bf
00000280: 94ea 8040 2051 12bf 6d80 4dbf e808 28bf
00000290: 69a1 1abf 3a42 7fbf c168 54c0 3ee7 a93f
000002a0: 3534 3d40 5560 4a40 22e5 153f 485f 0840
000002b0: d770 98c0 1e11 60bf 0164 e4bf 2819 2140
000002c0: b3c6 73c0 0b7e 44c0 b0ac f83e 545b e4bf
000002d0: 360b 323f 50d9 0ebf 289a 9e3f 638a f1bf
000002e0: 6c1d 82c0 5ca8 8240 73ab d23e 8fa0 3ac0
000002f0: fdc0 e7bf 7521 2940 ca2c 343f 0e75 e8bf
00000300: a242 2d40 256d 0540 b426 68c0 e9db 4840
00000310: d96e 15c0 48e5 0bc0 dc86 7fbf 9de7 48c0
00000320: f8e2 3340 59ea 2640 17f4 d33e f6a9 cbbf
00000330: 9682 c9bf bdc2 4640 12aa fa3f c4bd 5840
00000340: 7d57 86bf b04c 11bd db17 3abf 8314 7ebc
00000350: e79a 07c0 9c27 3ac0 f907 d03f 3523 41c0
00000360: a139 123f 1cd1 f33f ddfc c3bf 0432 033f
00000370: 5050 9240 e9d7 6940 2129 0840 aa64 41bf
00000380: fae6 be3f ee05 a63f e55b a3bf b12b b23f
00000390: 7d18 e0bd 96ff 83bf 1322 84c0 a08b 36c0
000003a0: 3b1f 5e40 cd1d 42bf d40c 0840 6fbc 7940
000003b0: 0517 5340 f283 0ec0 4773 9e3d 3713 3740
000003c0: 5e87 5f40 c06e be3f a2dd bd3f 6e6e 55c0
000003d0: 1e18 2d40 5401 fabf 8911 9fbf 4292 5340
000003e0: 464c 603f 81e6 d3bf a1f7 1a40 8fd5 d73f
000003f0: b319 63bf 9ef9 9bbf 63f5 3fc0 e838 1c40
-1.5669256 -5.7533803 -1.2727679 1.066334 1.1470627 -2.7380548 -2.2093112 -1.3171699
-0.11036558 4.0008945 2.8547742 1.8889409 0.66612816 -1.3947388 0.5864962 0.13202837
1.4707528 -2.6635222 2.571552 -3.1789227 1.5759302 1.5205934 -3.3264892 0.6234202
-2.482678 -1.0099466 2.4088252 -2.0579498 -1.0895259 -4.810472 1.2876577 -0.380589
-2.6886916 -3.243296 2.1406028 -2.987811 -4.8636556 2.174881 5.4126196 -1.4078065
-2.8877263 -1.8219098 1.2827219 -1.4919348 1.2068875 -2.6267962 2.2674603 0.6049946
1.3687745 0.6399337 -2.815391 2.0890598 3.3779073 -1.1195438 -4.5722475 1.6839881
1.2122412 2.7501671 -2.447554 1.6136584 0.3897137 -2.4915926 -1.6288298 -1.8188137
2.4524097 1.1318133 -0.26055485 0.6757066 -3.2778099 0.4895623 1.2280543 0.51687723
0.9094453 0.56287605 -1.2407459 3.301628 1.548409 1.825871 3.6642237 4.008806
3.213488 2.4648302 -2.293243 1.2221658 -1.8914013 -1.7978346 1.355682 -2.5304239
2.161714 2.0087306 -2.3152611 0.2829271 -1.5519819 1.7553446 1.1671692 3.093911
-1.9328249 2.800329 1.2950481 2.9277992 3.692378 -1.6102616 1.0708123 2.3335035
3.4395497 -0.1702546 -3.8185523 -0.29236993 0.41597667 1.0935227 -2.427036 -3.2257056
3.0726686 -2.2155192 0.9349382 -1.9551338 2.029012 -3.3617737 -1.567702 1.4562727
2.2563643 1.800823 -3.5254493 -2.705574 2.7581468 -1.8792758 1.8852258 2.113534
1.275871 3.6435392 -3.3905313 -1.8569616 0.4711966 -1.9519413 -2.2148645 2.0817783
2.7443833 -3.5845933 1.2677989 2.3444853 2.9846368 -2.6864502 -1.5873399 2.845837
-3.0650814 0.62924105 -1.7592775 4.2613416 3.593377 1.2930908 -1.8186173 -0.41622978
-3.193713 -1.2263674 0.8240079 -1.6124496 -2.0889187 0.96565694 1.8867973 -1.6415426
4.028635 -0.57155037 -0.8027409 -0.6563859 -0.6040254 -0.9971043 -3.3188937 1.3273695
2.9563115 3.1621296 0.58552754 2.1308155 -4.7637744 -0.8752612 -1.7843019 2.5171604
-3.8090026 -3.070193 0.4856925 -1.7840371 0.69548357 -0.5580034 1.2390795 -1.8870357
-4.0660915 4.0830517 0.4114643 -2.9160497 -1.810577 2.642667 0.7038084 -1.8160722
2.707192 2.0847867 -3.6273623 3.1384223 -2.3348906 -2.1858692 -0.99815154 -3.1391366
2.810728 2.6080534 0.41397163 -1.5911243 -1.5742977 3.105636 1.9583151 3.3865824
-1.0495449 -0.035473526 -0.7269265 -0.01550782 -2.1188295 -2.9086676 1.6252433 -3.0177739
0.57119185 1.904819 -1.5311543 0.5124819 4.572304 3.653803 2.1275103 -0.75544226
1.4914238 1.297056 -1.2762419 1.3919584 -0.10942171 -1.0312374 -4.1291595 -2.852272
3.4706562 -0.7582672 2.125783 3.902126 3.29828 -2.2268033 0.07736831 2.8605478
3.4926372 1.4877548 1.4833262 -3.334865 2.704597 -1.9531655 -1.2427226 3.3058019
0.87616384 -1.6554719 2.421364 1.6862048 -0.8871109 -1.2185552 -2.9993522 2.4409733

weight f4 [32]
00000000: b28d ca3f b1f9 0a40 71a7 d63f 797b 8d3c
00000010: 2813 993f 90b1 c3bf 26ac ddbf 74e8 bbbe
00000020: b052 82bf 4f0f c7bf d999 1cc0 560a 893f
00000030: 8045 5b3f be86 6640 066d 3640 e127 43bf
00000040: f366 1340 bf01 4c3f b1c2 8b3e 6c94 683f
00000050: 8039 883f 8ccc ce3f 1b0f 90be 669a e4bf
00000060: 4db7 1abf a663 6b40 0119 3440 5a5b 4240
00000070: 0250 a83f 836b 2f3f 4bec 7e40 9e8c 843e
1.5824492 2.17149 1.6769849 0.01727079 1.1958971 -1.5288563 -1.731816 -0.36700785
-1.0181484 -1.5551547 -2.44689 1.0706279 0.85652924 3.601974 2.8504043 -0.76232725
2.3031585 0.79690164 0.27296975 0.90851474 1.0642548 1.6156173 -0.28136525 -1.7859619
-0.60435945 3.677957 2.814026 3.0368257 1.3149416 0.68523425 3.9831722 0.25888532

bias f4 [32]
00000000: d025 e5bf ce2c 19c0 1900 c1bf f75d 343f
00000010: 980d 3cc0 1baf 143f 641c d3bf 4f8a eebe
00000020: d4b9 2ebf a04a 79c0 ad87 c6bf 762c 21c0
00000030: e5ec 2f40 2747 813f 9676 5440 bc6f a53e
00000040: b7b1 e83f a90b 0a40 088d 693f 270e 82bf
00000050: 719a e93f b851 31c0 cc8a f53e f5c2 cabf
00000060: 5aba a4c0 448a 89bf 7890 16c0 9b81 1cbe
00000070: f996 67bf a8e1 f53f c8be 19bf a52a e0bf
-1.7902164 -2.3933597 -1.5078155 0.7045588 -2.9383297 0.5807969 -1.6493039 -0.46589896
-0.682523 -3.8951797 -1.5510155 -2.5183387 2.748834 1.0099839 3.319738 0.3231181
1.8179234 2.1569617 0.9123082 -1.0160569 1.8250257 -2.7706127 0.47957456 -1.5840746
-5.147748 -1.074532 -2.3525677 -0.15283816 -0.9046474 1.920949 -0.60056734 -1.7513014
