Experiments/2022_07_26 13-51-41 wine_100runs_learning-rate_3mv-features_custom-loss /models/Model_run14_optimizer_params0.02_flavanoids.pt (torch, 264781 bytes, 318 tensors)

weight f4 [12]
000000 00 00 80 3f 00 00 80 3f 00 00 80 3f 00 00 80 3f
       1.0 1.0 1.0 1.0
000010 00 00 80 3f 00 00 80 3f 00 00 80 3f 00 00 80 3f
       1.0 1.0 1.0 1.0
000020 00 00 80 3f 00 00 80 3f 00 00 80 3f 00 00 80 3f
       1.0 1.0 1.0 1.0

bias f4 [12]
000000 00 00 00 00 00 00 00 00 00 00 00 00 00 00 00 00
       0.0 0.0 0.0 0.0
000010 00 00 00 00 00 00 00 00 00 00 00 00 00 00 00 00
       0.0 0.0 0.0 0.0
000020 00 00 00 00 00 00 00 00 00 00 00 00 00 00 00 00
       0.0 0.0 0.0 0.0

running_mean f4 [12]
000000 00 00 00 00 00 00 00 00 00 00 00 00 00 00 00 00
       0.0 0.0 0.0 0.0
000010 00 00 00 00 00 00 00 00 00 00 00 00 00 00 00 00
       0.0 0.0 0.0 0.0
000020 00 00 00 00 00 00 00 00 00 00 00 00 00 00 00 00
       0.0 0.0 0.0 0.0

running_var f4 [12]
000000 00 00 80 3f 00 00 80 3f 00 00 80 3f 00 00 80 3f
       1.0 1.0 1.0 1.0
000010 00 00 80 3f 00 00 80 3f 00 00 80 3f 00 00 80 3f
       1.0 1.0 1.0 1.0
000020 00 00 80 3f 00 00 80 3f 00 00 80 3f 00 00 80 3f
       1.0 1.0 1.0 1.0

weight f4 [12]
000000 60 2a 84 3f 9c 53 4c 3f a9 32 82 3f ac 5b 86 3f
       1.0325432 0.7981508 1.017171 1.0496726
000010 d2 d7 76 3f 49 3e 69 3f 25 de 7e 3f 89 14 5c 3f
       0.96423066 0.91110665 0.99557716 0.85968834
000020 63 46 8a 3f be b1 80 3f d5 d4 78 3f ac 22 89 3f
       1.080273 1.0054243 0.97199756 1.0713706

bias f4 [12]
000000 f6 2b ab bd 7d 83 25 be 14 01 24 bd 1f ba 38 3c
       -0.08357994 -0.1616344 -0.04004009 0.0112748435
000010 cc 7b 1c bd 0e d3 f2 bb ff 20 ec bd 39 d0 5e 3e
       -0.038204 -0.0074104136 -0.11529731 0.21759118
000020 77 41 f1 3a 86 4e ad 3d 38 bd 75 bd 6d c3 1b be
       0.0018406351 0.08462243 -0.059994906 -0.15211268

running_mean f4 [12]
000000 df 37 3f 41 bd 0b aa 3e 12 82 95 40 26 9b 8f 41
       11.95114 0.3321208 4.6721277 17.950756
000010 04 56 0b 40 61 8d 2f 44 18 25 62 3f a4 7e 1b 40
       2.177125 702.20905 0.8833785 2.4296045
000020 4e 58 c3 3f fd 11 91 42 84 85 c2 3f e7 94 08 40
       1.5261323 72.53513 1.5196996 2.1340883

running_var f4 [12]
000000 22 c7 3a 3f 7c 4c c2 3d b4 41 a5 40 d3 90 20 41
       0.729601 0.094872445 5.1642704 10.035357
000010 71 d8 12 3e 6d b4 b5 47 49 c1 04 3e 05 2c 06 3f
       0.14340378 93032.85 0.12964357 0.5241092
000020 4e d3 20 40 4f ae d5 44 b5 c7 c5 3e e0 db e7 3e
       2.512897 1709.4471 0.38628927 0.4528494

weight f4 [32, 12]
000000 9d d0 0a 3f bb 6a f2 3e 95 e1 31 3f 97 30 30 3e
       0.5422457 0.47347054 0.69484836 0.17206036
000010 c4 58 5f bf d7 27 ba 3e 0a 34 8f be 42 8d a6 be
       -0.8724482 0.3635852 -0.2796939 -0.32529646
000020 0a e4 9b bd 21 88 dd 3f d1 65 7d bf b3 32 66 3d
       -0.076118544 1.7307168 -0.98983485 0.056200694
000030 d1 76 9d 3d ea 2e a8 bd f7 55 9c 3e d0 24 10 3f
       0.07688678 -0.08212073 0.30534336 0.5630617
000040 7c c5 2b bf b8 93 e8 be 80 f3 43 3f b0 c7 d9 3e
       -0.6709821 -0.454252 0.76543427 0.42535162
000050 06 47 b6 3e 5e b0 1f bb 94 fc c1 bf 4d 0f 76 be
       0.35601062 -0.0024366598 -1.5155206 -0.24029274
000060 59 86 a9 3d ca 07 f7 3e f7 af 1f bf 28 04 25 3e
       0.08277578 0.4824813 -0.62377876 0.16114867
000070 5e 77 99 3d 81 26 e6 bf bf 55 9e be 1f e1 ae 3e
       0.074934706 -1.79805 -0.30924794 0.3415613
000080 bf c1 85 3e 38 b8 8d 3f 77 b4 bc 3e c8 25 b1 bf
       0.2612438 1.1071844 0.36856434 -1.3839655
000090 f1 14 a8 3f 1e 1c 55 bd 38 0b 4a 3d 4d b5 77 bf
       1.3131391 -0.052028768 0.049327105 -0.9676102
0000a0 8b ef 93 bf 6d 93 a8 bd b0 28 0c 3e 0c f8 2d 3f
       -1.1557478 -0.08231244 0.13687396 0.67956614
0000b0 55 58 03 3f ec be 7c 3f ee 58 f6 bd 7b 58 e8 be
       0.5130666 0.98728824 -0.12028681 -0.45380005
0000c0 53 01 b0 bf 79 41 82 3f da e0 1f 3f b2 8f 3d 3f
       -1.3750404 1.0176231 0.6245247 0.74047387
0000d0 01 d0 3f 3f 7c 41 ed 3e 52 bf 37 bf eb 5d ca 3f
       0.74926764 0.46339023 -0.71776307 1.5809911
0000e0 d7 35 d0 be bc f0 24 be 71 92 09 40 69 99 80 3f
       -0.40666077 -0.16107458 2.149563 1.0046817
0000f0 81 b3 5b bf 87 e6 ad 3f 0d c8 ca be 6c f5 af be
       -0.85820776 1.3585976 -0.39605752 -0.3436693
000100 2e 3a 4d bf a5 72 78 bd 50 ea e3 be af 45 84 3e
       -0.801669 -0.06065621 -0.44514704 0.25834414
000110 19 15 a6 be f2 1e 13 bf bc 52 39 bf 2b ee 53 bf
       -0.3243797 -0.57469094 -0.7239187 -0.8278529
000120 dd 5e 4e bf c3 42 d2 be 16 b1 30 be 8a f2 ba be
       -0.806135 -0.4106656 -0.17255053 -0.36513168
000130 79 72 8f 3d bf c8 a0 bf 03 11 36 bf 83 e9 5c be
       0.07004256 -1.2561263 -0.7111971 -0.21573453
000140 38 e8 d5 3e a0 8c b7 bf 17 ef 38 bf 10 13 3d 3e
       0.4177873 -1.433979 -0.7223982 0.18464303
000150 6a 1d 2a be 32 f8 b2 be 2f fa 1b bd 5c 11 78 bf
       -0.16612783 -0.34954983 -0.03808039 -0.9690149
000160 35 fa ac 3f 5c 9d c0 3f 1c 57 b3 3f c1 e4 38 bf
       1.3513857 1.5048022 1.4010959 -0.7222405
000170 fa 4b 5e 3f 9c 6c dc 3f ec a0 12 bf af dd 7e 3d
       0.8683468 1.7220645 -0.572768 0.062223133
000180 9f c7 2f 3f 5a a0 5a bc bd ee 7a bc 35 23 85 3f
       0.6866397 -0.013343895 -0.015315709 1.0401369
000190 a0 b7 c5 bd bb e1 94 3d fc ac d4 3e 58 b0 0e 3f
       -0.09654164 0.07269617 0.41538227 0.5573783
0001a0 8f 8a 15 3f 10 31 dc 3e 10 00 02 3f 0b 94 64 3f
       0.5841455 0.43006182 0.50781345 0.89288396
0001b0 c0 46 a8 3f 9e b0 57 be 91 9f b7 3d da fa 70 bf
       1.3146591 -0.21063468 0.08965982 -0.9413277
0001c0 2d 67 ac bd 9f 96 3c 3f 1b 16 54 3f a6 42 3e bf
       -0.08418117 0.7366733 0.8284623 -0.7432045
0001d0 fa a7 09 3e ce cb c0 be 07 fd 1e bd f8 51 25 3f
       0.13442984 -0.3765549 -0.038815524 0.645782
0001e0 e6 44 83 be ca ad c2 bc 82 14 84 be 99 ee 7a 3f
       -0.25638503 -0.02376451 -0.25796896 0.9802032
0001f0 4d 0c c0 3e 17 4a de be 50 1b b3 bd b1 7e b6 be
       0.37509385 -0.434159 -0.08745444 -0.35643533
000200 a8 d6 83 bf cb 71 e2 bd 51 58 0d 3e 2b bd 4d 3e
       -1.0299883 -0.110568605 0.13803221 0.20091693
000210 11 7d ae bd 10 ee 4a be 4d 18 b5 be 46 b3 90 3d
       -0.08519948 -0.19817376 -0.35370103 0.07065444
000220 74 a9 86 3f 21 e8 7c bf 8b b1 a8 be dc 67 36 be
       1.0520463 -0.987917 -0.32947955 -0.17813057
000230 11 1d a6 bf b2 2e 06 be 4c cb c0 3e d6 3f 16 3f
       -1.297762 -0.1310375 0.37655103 0.58691156
000240 c9 9c a8 be 1e 67 b9 3e 6f 9e e8 bf e2 59 03 bf
       -0.32932118 0.36211485 -1.817335 -0.51309025
000250 4c 01 21 bf 84 25 2e bf 71 3d 0d 3e ea e0 15 be
       -0.62892604 -0.68025994 0.1379297 -0.14636579
000260 e6 a6 07 bf 19 3d 2a 3f 0f 60 c0 3e 97 79 12 3f
       -0.5298904 0.6649948 0.37573287 0.5721678
000270 91 68 08 bf 0b d1 ec 3e 61 6d 15 3f 4d e6 0f 3f
       -0.53284556 0.46253237 0.58370024 0.56210786
000280 83 b9 47 3f 01 54 8b 3f 3c fd 17 bf dd d9 25 3e
       0.78017443 1.0885011 -0.5937078 0.1619639
000290 61 9f 36 3f 68 eb e0 be 0e f1 67 bf a2 22 a9 3e
       0.7133694 -0.439296 -0.90602195 0.33034235
0002a0 9c 11 6b 3e 00 09 5f bd 47 d6 63 3f e0 33 33 bf
       0.22955936 -0.054451942 0.88998836 -0.7000103
0002b0 b4 22 c3 bf 9c f8 39 bf 55 36 82 bf b5 2c 10 3f
       -1.5244966 -0.7264497 -1.0172831 0.5631822
0002c0 09 38 7f 3e 30 86 15 3f a9 30 32 3e a3 b1 1b be
       0.2492372 0.5840788 0.17401375 -0.15204482
0002d0 3c 52 87 bc 9f 7d 63 bf 0a 45 4c 3f d7 d8 de 3e
       -0.016518705 -0.8886356 0.79792845 0.4352481
0002e0 fd d4 35 bf 59 5a 4f 3f 43 07 60 3e 05 0f 03 3e
       -0.7102812 0.80997235 0.2187777 0.12798698
0002f0 ea 5c dc be b0 df 0a bf f5 3f be 3e e3 8e 27 bf
       -0.43039638 -0.5424757 0.3715817 -0.654524
000300 44 35 02 3f f7 cd f6 be 82 42 38 3f 20 79 46 3f
       0.50862527 -0.48204014 0.7197648 0.7752857
000310 08 b7 a5 bf a1 fa 98 bf 71 d8 39 be 32 c5 9d 3f
       -1.2946482 -1.1951486 -0.18148972 1.2325804
000320 0c a8 53 be a6 bb b4 3f 58 6f 6c bf 48 c2 2e bf
       -0.20669574 1.4119766 -0.923574 -0.682652
000330 32 f3 9b 3f 99 2c 4e bd 54 c2 37 bd 61 27 ca be
       1.2183592 -0.0503355 -0.04486306 -0.3948317
000340 81 42 70 3e 37 77 6d bf 1e 7d 9a be c5 00 ba 3e
       0.23462869 -0.9276003 -0.30173582 0.36328712
000350 dc 43 cc be 91 05 75 bf 62 80 c1 3e f5 26 9b be
       -0.39895523 -0.9571162 0.3779326 -0.3030316
000360 dc 05 a2 bf 0f e9 84 3f a9 4d 9c 3d dc be ac 3e
       -1.2658038 1.0383624 0.07632 0.33739364
000370 8b d8 5c 3e d4 57 db be 46 9f cd be 74 64 89 bf
       0.2156698 -0.42840445 -0.40160578 -1.0733781
000380 5d 49 56 3f 3c 24 a8 3f 27 11 ac bd 8d a1 81 3f
       0.83705693 1.3136058 -0.08401709 1.0127426
000390 95 e6 94 bf 3c 9b a4 be b1 4e e2 be d4 20 9f bd
       -1.1632868 -0.32149684 -0.44200662 -0.07769933
0003a0 4f 0d 60 bf 04 2d 84 3e f0 96 c7 bf 19 62 cf 3e
       -0.8752031 0.25815594 -1.5592937 0.4050453
0003b0 8e 5c dc 3f 09 3a e1 3e c3 16 8b 3f ff c5 6b 3f
       1.7215745 0.4398959 1.0866321 0.92098993
0003c0 53 6f c3 be 20 8c c6 3d d3 ba 53 3f 1a 0e 3f 3e
       -0.3817087 0.096946955 0.82706946 0.18657723
0003d0 29 d8 f3 3e bd c6 af 3e 41 39 6b 3e 6d 3e af be
       0.47625855 0.34331313 0.2297106 -0.34227315
0003e0 23 f9 59 3d a2 3f 1d bc 62 8a 3f 3d c9 d2 db bf
       0.05321611 -0.009597691 0.04676283 -1.7173702
0003f0 99 d2 17 bf e0 63 69 be 99 81 28 3f ef 16 97 bd
       -0.5930572 -0.22792006 0.6582275 -0.07377421

weight f4 [32, 16]
000000 fa fb 9a be b7 e7 b6 3f 66 c1 dd 3e b6 1b d4 be
       -0.30270368 1.4289464 0.43311614 -0.41427392
000010 de 5a a9 bf 6e 21 0b 3c fa d9 59 3f 3d f3 14 3f
       -1.3230855 0.008491857 0.8509823 0.5818365
000020 6c 6f 3a 3e a1 2e 56 3e 34 d7 92 3e bf 95 74 3b
       0.18206567 0.20916225 0.28679812 0.00373207
000030 69 ae 4b 3f c7 2e 51 be ae 9a 0f bf 31 b4 b2 3f
       0.79563004 -0.20428 -0.560954 1.396124
000040 1a f3 38 3f e3 0a 9f be 32 88 7e 3f 80 d2 ae 3f
       0.72245944 -0.31062993 0.9942657 1.365799
000050 e3 1e b8 be 58 15 09 bf d1 3f e5 be 83 d0 72 be
       -0.35961065 -0.5354819 -0.4477525 -0.23712353
000060 cc 2d 0b bc 82 6e 4b be fe 53 d3 bd 97 f1 26 3f
       -0.008494806 -0.19866374 -0.103187546 0.65212387
000070 6f 01 08 3f 5b 3c 12 3f 96 f7 1c bf 9b d7 c6 3d
       0.5312719 0.57123345 -0.61315286 0.09709092
000080 bd 17 8b be 70 ce b9 bf 3c 67 c3 bf 92 94 e5 bf
       -0.27166548 -1.4516125 -1.526588 -1.7935965
000090 b8 e6 c7 3e aa 72 91 bf da 68 36 be 1e b6 1b bf
       0.39043212 -1.1363118 -0.17813435 -0.60824764
0000a0 24 f4 ae 3e 88 0e 02 3f f1 e2 b2 be 05 ec ca bf
       0.3417064 0.5080342 -0.34938768 -1.5853277
0000b0 12 ee 83 3f c2 c7 40 3f 2f 5c fb 3e 2d 4a 56 3f
       1.0307028 0.75304806 0.49093768 0.83706933
0000c0 20 31 6b 3e e5 b7 0f 3e a2 45 09 bf 1c 88 bb be
       0.22967958 0.14034994 -0.53621876 -0.3662728
0000d0 17 03 51 3f a1 62 81 3d b2 b4 27 bd bc ba 31 3f
       0.8164534 0.0631764 -0.04094381 0.6942556
0000e0 8b 58 fd 3e c6 6c c9 be 36 18 ee bc c4 e5 86 3e
       0.49481615 -0.393408 -0.029064279 0.26347172
0000f0 26 46 fc be 07 99 4b 3e 0a 9c 7a be 06 d6 91 bf
       -0.4927227 0.19882594 -0.24473587 -1.139344
000100 9b 7d a7 3e 40 14 6a 3d e7 26 b6 be 20 2a 1b bf
       0.32713017 0.05714822 -0.35576555 -0.6061115
000110 ae db cd 3c 2f c5 98 be 92 80 db 3e 72 20 83 3f
       0.025129166 -0.2983794 0.4287153 1.0244277
000120 09 78 bc 3f 77 53 5e 3c b3 f9 5c bf 68 77 e1 be
       1.4724132 0.013569704 -0.8631851 -0.44036412
000130 30 dd 99 be 1f 95 a7 bf 3c be a6 be 42 d8 89 3f
       -0.30051565 -1.3092383 -0.32567012 1.0769122
000140 9f b3 28 bf 7f 8d 7f bf f2 8f 2a 3f c0 93 64 3e
       -0.6589908 -0.9982528 0.66625893 0.22321987
000150 a7 a3 ab bf 55 78 0a be b7 1b 06 3f 7a d9 5d 3e
       -1.3409318 -0.13522466 0.5238604 0.21664992
000160 07 fd 37 bf 85 49 85 bf a5 2a 2b 3e 30 07 b4 be
       -0.71870464 -1.0413061 0.16715486 -0.35161734
000170 f8 f4 de bf f2 8e 62 be 9d 52 19 3e 7a 91 2a 3b
       -1.7418509 -0.22124842 0.1497292 0.0026026652
000180 bb 81 74 be 22 40 62 3e bd 5f ed bd fb 0a 8b 3f
       -0.23877613 0.22094777 -0.11590526 1.0862726
000190 db a5 70 3e d9 45 06 3f cd 01 41 3f b7 01 24 3e
       0.23500769 0.5245033 0.7539337 0.16016279
0001a0 1d f3 8d bd 66 92 cf 3e 87 e5 a1 3e 7e f3 24 3f
       -0.06931136 0.4054138 0.31620428 0.6443404
0001b0 bd 0c 50 3f 83 2d 3e be 96 68 be 3f 3c 85 6a bf
       0.8126944 -0.18572049 1.4875667 -0.9160955
0001c0 f4 f9 86 3d c3 67 88 bf 52 7f a7 bf 60 2c 95 bf
       0.065906435 -1.0656666 -1.308573 -1.1654167
0001d0 e6 0d 09 3f b2 c2 2c bf 5e df d0 3e 51 a2 fd 3d
       0.5353683 -0.6748458 0.40795416 0.12384475
0001e0 22 c0 b0 bf e5 57 74 3f c5 eb 49 bf d3 41 76 3f
       -1.3808634 0.95446616 -0.7887538 0.9619419
0001f0 56 2e 93 bf 92 5b d2 bd 5f da 04 bf f2 1b a8 3c
       -1.1498516 -0.10271372 -0.5189571 0.020521138
000200 29 66 32 bf 6d df 49 3f 97 1c 4d bf e9 cb 37 3e
       -0.69687134 0.78856546 -0.8012175 0.1794888
000210 47 e3 88 bf ef 08 ba 3f f9 ae 80 bf 6e fa 22 3f
       -1.069436 1.4533976 -1.0053397 0.63663375
000220 98 ee 14 bf bc b9 b3 be bb 74 5c bf 36 bb d5 3e
       -0.58176565 -0.35102642 -0.86115617 0.41744393
000230 c2 ea 85 3f 0d f8 b6 bd 3a 76 3d 3e 44 d0 26 3e
       1.0462267 -0.08934031 0.18502131 0.16290385
000240 41 62 a0 be 10 3b 0f be 54 f6 d5 bf 03 ce 2b be
       -0.31324962 -0.13987374 -1.6715798 -0.16777806
000250 db 73 37 bf b0 7e 17 3f 1f 10 1f bf e7 2f 52 be
       -0.71661156 0.59177685 -0.62133974 -0.20526086
000260 5d a5 80 3f ce 36 57 3f aa 88 34 bf 37 c8 29 bf
       1.0050465 0.84068 -0.7052103 -0.6632113
000270 8f 6f e1 be 05 8b f4 be 1b fa 6d 3e bf e0 02 bf
       -0.44030425 -0.47762313 0.23239939 -0.51124185
000280 c0 7e 70 3e 04 1f 47 be 5c 23 88 3f 49 a6 0c 3f
       0.23485851 -0.19445425 1.0635791 0.5494123
000290 e8 0f f1 be 41 21 d5 bd 02 be 77 bc 0e f3 88 3e
       -0.47082448 -0.10406733 -0.015120985 0.26747936
0002a0 51 3b 90 be 98 d4 98 bf c0 54 8f bf 99 cb 81 bf
       -0.28170255 -1.1939878 -1.1197739 -1.0140258
0002b0 9a dd 33 3e a3 61 5a bf ad fe 7f 3e a5 2c 81 3e
       0.17565003 -0.8530523 0.24999495 0.25229374
0002c0 e0 06 c8 bd 5d 92 02 be d8 56 08 bf 78 6c 37 be
       -0.09766936 -0.12751146 -0.53257513 -0.17912471
0002d0 a0 dc da bf c2 54 71 3e 8b a7 5e bf ab b8 6e 3f
       -1.709858 0.23567489 -0.869744 0.9325053
0002e0 5a 1d 48 3f 54 8c be 3e 4d c5 e8 bf 67 88 63 3e
       0.78169787 0.37216437 -1.8185211 0.22220002
0002f0 76 e0 28 bf 7c 6f 1e bf e0 06 0f be 49 1e bf bf
       -0.659675 -0.6188886 -0.13967466 -1.4931117
000300 82 8e 3d bc 7c c3 b0 3d 09 d2 68 bf 8c 5b ce bd
       -0.011569621 0.08631036 -0.9094549 -0.10076055
000310 3b 20 23 3f fb a4 80 bf cb da a0 be 69 bb 72 bf
       0.63721055 -1.0050348 -0.31416926 -0.94817215
000320 38 80 21 3f c7 20 8b bf ee 31 32 be 15 bc b0 3e
       0.6308627 -1.0869378 -0.17401859 0.34518495
000330 14 f0 01 bf 69 92 57 3f a6 c8 85 3d e6 de a3 3f
       -0.50756955 0.8420778 0.06532411 1.2802398
000340 4f 1a 13 3d 5e 1d 95 bf 0a b5 4f be ba cc 5d 3f
       0.03591376 -1.1649587 -0.20283905 0.8664051
000350 bd 35 d8 be 45 8b a9 bf d3 38 82 3f ef 5f 7b 3f
       -0.422285 -1.3245627 1.0173591 0.9819326
000360 59 7b e9 3d b2 e3 1a 3e c6 4c 1b 3f 43 bd 68 bf
       0.1140048 0.15125921 0.6066402 -0.9091379
000370 77 cc 88 bf 98 06 db bd d2 9f 53 3e d6 fb 4f 3e
       -1.0687398 -0.10694617 0.20666435 0.20310912
000380 fe ad 52 be ba 68 d3 3e 96 c3 9a 3d 44 ad 87 be
       -0.20574185 0.41290838 0.07556836 -0.2649938
000390 c1 32 cd bd 60 c5 30 bf d7 ff 28 bf 6f 58 86 3e
       -0.10019446 -0.6905117 -0.6601538 0.26239344
0003a0 01 41 82 3d 52 8f a6 bf f2 3f a8 bf 66 ea d3 bc
       0.06360055 -1.3012488 -1.3144515 -0.025868606
0003b0 8f ec 5b 3e 91 9e ac 3f a7 70 6a 3f 6b 3f 06 3f
       0.21476959 1.3485891 0.91578144 0.5244052
0003c0 45 6b d0 be 31 56 63 be ae 74 70 3f 1d da ef bd
       -0.4070684 -0.22200848 0.9392804 -0.11711524
0003d0 c3 83 70 be 7d 99 77 bf 17 da 7c bf bd a8 9a bf
       -0.23487763 -0.9671858 -0.9877028 -1.2082745
0003e0 3a 8d d6 3d de ef aa 3f ca aa 84 bd 1a cd 83 3f
       0.104761556 1.3354452 -0.06477888 1.0296967
0003f0 90 7b d2 3e 8c 81 6b be 6b 10 ab 3f 4e a2 b5 3d
       0.41109896 -0.22998637 1.3364385 0.08868848

weight f4 [32]
000000 c4 ce 87 3f 36 cc 88 3f ab 77 89 3f 3d 32 81 3f
       1.0609975 1.068732 1.0739645 1.0093457
000010 3e 27 66 3f 93 e7 6b 3f 73 4e 60 3f 58 8c 77 3f
       0.8990363 0.9215023 0.87619704 0.9669852
000020 a7 0f 84 3f d3 4e 7c 3f fb 8b 84 3f 59 fe 7e 3f
       1.0317277 0.98557776 1.0355219 0.99606854
000030 ed 75 7d 3f 65 ab 7a 3f 8a 5e 74 3f 9a e7 85 3f
       0.99008065 0.9791778 0.95456755 1.0461304
000040 ec 1f 86 3f e1 42 88 3f 7a 39 89 3f f9 c7 85 3f
       1.0478492 1.064541 1.0720665 1.0451652
000050 e7 aa 83 3f 09 3e 77 3f 7a 17 6c 3f 01 9c 7a 3f
       1.028653 0.96579033 0.9222332 0.97894293
000060 8b 77 61 3f bc 9f 7c 3f ca 65 8d 3f 1e 1a 8a 3f
       0.88073033 0.98681235 1.1046689 1.078922
000070 b9 7c 7f 3f ed df 78 3f 1e 71 83 3f 34 83 6b 3f
       0.99799687 0.97216684 1.0268896 0.91997075

bias f4 [32]
000000 a6 60 84 3d ab f8 21 3d 50 95 db bc 24 75 37 bd
       0.06463747 0.03954379 -0.026804596 -0.04478945
000010 b1 ce 1b 3e 6e 58 a8 3d 43 4c 57 3d f8 29 58 3d
       0.15215565 0.082199916 0.052562963 0.0527744
000020 a9 0e 57 bd c8 ef ff 3c 4b b5 e5 bd 78 08 1f 3e
       -0.052504215 0.031242266 -0.112162195 0.15530574
000030 5b 95 a6 bb 55 1c 54 bc 9c ae a1 bc 6c 5f 83 bd
       -0.0050837225 -0.012946208 -0.01973658 -0.06414685
000040 e0 fb 1c 3d 0a 2e 2d 3d 79 9e ba 3d 6c 9a b2 3c
       0.038326144 0.042280234 0.091122575 0.02180215
000050 67 37 de bd cc e1 98 bd b0 c0 f3 bd cd c4 34 bc
       -0.10850411 -0.07464942 -0.119019866 -0.011033249
000060 74 7e 4b 3d fd 89 10 bd 54 5d 82 ba d6 00 0e bd
       0.049681142 -0.035287846 -0.0009946027 -0.034668766
000070 61 9c c8 bc a9 9c a5 bc bf 74 78 3c 0b 4a a7 3d
       -0.02448863 -0.020216303 0.015164553 0.081684195

running_mean f4 [32]
000000 fe d6 25 3d 61 29 24 3e e5 29 af 3e 71 9e 62 3e
       0.040488236 0.1603141 0.3421165 0.22130753
000010 c5 22 07 3d 83 37 f9 3d a4 74 93 3d 50 01 17 be
       0.032992143 0.12168791 0.07199982 -0.14746594
000020 d4 1b c1 bd ed 50 f2 be e4 26 a6 bd 9c 41 d4 bd
       -0.09429136 -0.47327366 -0.081128865 -0.103640765
000030 0d 72 16 bd d8 a8 5a bc 25 5e 9e 3e 3a 59 2f 3e
       -0.03672986 -0.01334592 0.30931202 0.17123881
000040 39 ac 22 3f 3e e1 2c bd 3b 81 93 be 59 9b 98 3e
       0.6354404 -0.042206995 -0.28809533 0.2980602
000050 ad 9e f6 3d c8 49 1c 3d 24 a2 14 be 5e c9 3f be
       0.12041984 0.0381563 -0.14514977 -0.18729159
000060 ca 68 cf 3e a4 65 82 be 44 b1 b0 3e 20 9e 35 3a
       0.40509635 -0.2546817 0.34510243 0.00069281645
000070 f2 97 9f be 93 39 11 bf 7e 49 6e be 39 76 9e 3d
       -0.31170613 -0.56728476 -0.23270223 0.07737393

running_var f4 [32]
000000 48 25 b2 40 f8 1c 59 40 36 b1 07 41 aa a2 c9 40
       5.567051 3.392393 8.480764 6.3011065
000010 32 98 42 41 b6 12 03 41 35 bd f7 40 da 0f 43 41
       12.162157 8.192068 7.7418466 12.19137
000020 82 ef 6e 40 00 08 0a 41 41 e6 51 40 af 5b 73 40
       3.7333684 8.626953 3.2796786 3.802471
000030 42 de 06 41 8b 06 aa 40 b5 d0 ac 40 7e 8b 05 40
       8.429262 5.3132987 5.400477 2.086639
000040 36 0b a8 40 4d 16 05 40 56 15 e9 40 c7 cf e2 40
       5.2513685 2.0794861 7.2838545 7.0878634
000050 11 ad a9 40 f7 9a 26 40 ed 26 9c 40 8b e5 74 40
       5.3023763 2.6032083 4.8797517 3.8265102
000060 aa ec 83 40 f1 bd bf 40 0c 5d 3a 41 5a 9b b0 40
       4.1226397 5.991936 11.6477165 5.518964
000070 6f 08 6a 41 f2 73 07 41 8b 56 65 41 9b f7 d7 40
       14.627059 8.465807 14.333629 6.7489753

weight f4 [32]
000000 a7 14 84 3f f1 cb 76 3f 5a 11 84 3f 85 a8 91 3f
       1.0318803 0.9640494 1.0317795 1.1379553
000010 14 76 75 3f 5d bf 92 3f d7 2d 88 3f d1 bf 8d 3f
       0.958833 1.146465 1.0638989 1.1074163
000020 4d 39 7b 3f ae f5 6c 3f e1 eb 7a 3f 62 4b 6d 3f
       0.9813431 0.9256238 0.9801617 0.9269315
000030 44 5c 80 3f 04 0f 81 3f a6 df 73 3f 37 54 8a 3f
       1.0028157 1.0082707 0.95263135 1.080695
000040 2a 6e 69 3f c4 a2 60 3f 5e a7 67 3f 3b 32 93 3f
       0.9118372 0.8774836 0.9048976 1.1499704
000050 eb 99 8e 3f 87 d7 96 3f 65 29 86 3f 94 29 79 3f
       1.1140722 1.1784524 1.0481383 0.9732907
000060 2c 27 63 3f 23 47 5a 3f 9f 1d 83 3f 0f ef 76 3f
       0.88731647 0.85264796 1.0243415 0.96458524
000070 65 4f 97 3f 33 27 8c 3f 2f 8e 85 3f 9e a5 92 3f
       1.1821104 1.0949463 1.0434016 1.1456792

bias f4 [32]
000000 7c d4 ca 3d 61 68 d7 3a c7 4b f0 bc 0a 19 44 bd
       0.099038094 0.0016434306 -0.029333008 -0.04787544
000010 89 ef 81 bd 5a 3c 36 3d 42 e2 62 3d a9 5d 99 bd
       -0.06344516 0.04449115 0.055391558 -0.074885674
000020 3a ba c8 3d 4d ce 1c bd 5c 75 21 3d 0e 5f 83 bd
       0.09801145 -0.03828268 0.039418563 -0.064146146
000030 bf 50 2f bd 3a 9e 1c 39 d1 60 e7 bc a8 ce a9 bc
       -0.042801615 0.00014936263 -0.028244408 -0.020728424
000040 89 b3 23 3e bf d5 80 3d d7 46 40 3d 5d 9a da 3d
       0.15986456 0.06290769 0.04694256 0.10673974
000050 5b 79 94 bd 69 a2 ab 3d c3 ad cc 3d 1d e1 a4 3d
       -0.07249709 0.08380587 0.0999408 0.080507495
000060 c9 2d 95 3c 90 1b 53 bc c3 19 86 bc 29 e3 d7 bc
       0.018210309 -0.012884989 -0.016369706 -0.026353436
000070 ea 75 4d bd 7e ea 81 bc 52 cd 3c bd 35 c8 70 3c
       -0.05016128 -0.015858885 -0.046094246 0.014696171

running_mean f4 [32]
000000 28 bc 46 be 14 0f 9e 3e 7e 91 7a bf 10 cc 82 3c
       -0.19407713 0.3087088 -0.97878253 0.015966445
000010 c0 a5 7d be 13 61 90 3e 56 eb 3b bd 50 85 e5 3e
       -0.2477026 0.28199062 -0.04587873 0.44828272
000020 22 6c 03 3d 78 73 82 be ab 3b 56 bd a1 bc 8b 3e
       0.032085545 -0.2547872 -0.052302998 0.2729235
000030 d8 f0 9d be 01 83 6b be e6 99 5f be e1 58 34 3e
       -0.30847812 -0.22999193 -0.21836051 0.1761203
000040 1d f0 ab 3e 3f 11 95 3e 6a 09 ac 3e 29 bc 2d be
       0.3358163 0.2911472 0.33600932 -0.16966309
000050 47 a4 b4 3d 0f 2f 3d be 71 35 96 3e 78 28 5c 3c
       0.08820396 -0.18474983 0.29337648 0.013437383
000060 da 25 8c be fb 1b cc be 51 43 04 3b 69 87 76 3c
       -0.27372628 -0.39865097 0.0020181725 0.015046933
000070 5a 5b b3 be ff a8 b2 bd 70 49 cf be 44 ca 29 3e
       -0.35030633 -0.0872364 -0.40485716 0.16581064

running_var f4 [32]
000000 5d e1 17 40 46 fc 4e 3f 5e 75 89 40 23 f0 9b 3f
       2.37313 0.8085369 4.295577 1.2182659
000010 94 1a 32 40 3d 94 f7 3f 06 55 bf 3f b1 cc 46 40
       2.7828722 1.9342114 1.4947822 3.1062434
000020 8b 22 26 40 99 c7 51 40 ae d8 18 40 cb 99 7d 40
       2.5958583 3.2778075 2.388225 3.9625118
000030 10 d6 0f 40 16 d8 48 40 cc af b0 3f 88 06 f0 3f
       2.2474403 3.1381888 1.3803649 1.8751993
000040 39 87 88 3f a1 96 06 3f 99 ad 19 40 1d 85 3e 40
       1.0666267 0.5257359 2.4012206 2.9768746
000050 35 c9 da 3f fc da e3 3f d0 41 a6 3f 33 bf cb 3f
       1.7092654 1.7801204 1.2988834 1.5917724
000060 18 e2 48 40 28 a2 cb 40 dc 5b e2 40 04 60 aa 40
       3.1387997 6.3635445 7.0737133 5.3242207
000070 39 2c 85 40 58 0a 2a 40 22 51 79 40 98 27 44 40
       4.1616483 2.6568813 3.895577 3.0649166

weight f4 [32, 16]
000000 28 17 3e 3e 47 84 7b 3e 08 83 34 bf bc 0f b1 3e
       0.18563521 0.24562179 -0.7051244 0.34582317
000010 cb 5d 8e bf f6 8d 38 bf d4 4a 77 be 68 c9 c7 bf
       -1.1122373 -0.72091615 -0.24149638 -1.5608339
000020 95 62 1b 3d e8 39 8e be 0f b0 70 bf a9 a4 a9 3e
       0.037935812 -0.27778554 -0.94018644 0.33133438
000030 5d 4f 65 bf 67 95 28 3f f7 11 78 3f 5b e8 d4 3e
       -0.89574224 0.6585297 0.9690241 0.41583523
000040 52 81 c4 be 1a e8 73 bf 8c 9a 9c bf 50 04 85 3e
       -0.38379914 -0.95276034 -1.2234664 0.25979853
000050 81 7d 34 bd e1 c5 52 3f 1b e3 54 bf b8 2f 44 bf
       -0.044065002 0.8233319 -0.83159035 -0.76635313
000060 63 5d 8e bd 32 75 a8 bf b9 f3 94 bf 25 62 5e 3f
       -0.06951406 -1.3160765 -1.1636878 0.86868507
000070 8c d4 03 3e 61 e6 ab 3e 5c 73 e6 3d 9e 20 85 bf
       0.12874049 0.33574203 0.11252472 -1.0400579
000080 f6 92 45 bf 72 20 f5 3f 45 bc 1a bf db 14 29 be
       -0.7717737 1.9150527 -0.60443527 -0.16511862
000090 4e 3e 23 3f 22 cc 5b 3e 01 75 63 bf 14 a2 c7 bf
       0.63766944 0.21464589 -0.8885041 -1.5596337
0000a0 57 27 31 3d 3a 1b 40 bf ad 27 8f be 16 b8 dc 3e
       0.043250408 -0.75041544 -0.27959958 0.43109196
0000b0 7a 2a 3d bf df e6 2a 3f c8 ae c4 bd c0 b0 a8 bf
       -0.7389294 0.6675853 -0.096036494 -1.317894
0000c0 29 e9 6c bf 1e 15 9a be 78 94 47 3f a7 20 09 3f
       -0.92543274 -0.30094236 0.7796092 0.5356545
0000d0 ec 87 5f 3f da c4 80 bf a2 fd cd be 0b f3 9c bf
       0.87316775 -1.0060074 -0.4023257 -1.2261671
0000e0 a2 62 3b 3f b3 7c 91 bc db 55 11 bf 88 b5 e4 3e
       0.73197377 -0.017759657 -0.5677163 0.44669747
0000f0 be 26 84 3f da c4 ec bd 54 f2 7a 3f 89 ac 84 be
       1.0324323 -0.11560984 0.98026013 -0.25912884
000100 75 96 c3 bf da 7d 5a 3f 17 76 68 3e 21 63 1c 3e
       -1.5280291 0.85348284 0.22701298 0.1527219
000110 1d 0f c8 3f b4 ea b2 bd 8d ee 80 be 43 8b 32 bf
       1.5629612 -0.08736172 -0.25182 -0.69743747
000120 11 ce 2b bf 5e 6e a6 3d b4 ef 2c 3d 16 2f 13 bf
       -0.6711131 0.081265196 0.042220786 -0.5749372
000130 0e 5b 2d bf 84 eb 48 bf 3c f6 0b 3f 5a fd 77 3f
       -0.67717063 -0.7848437 0.546726 0.9687096
000140 b1 2f 8b 3f 82 f5 70 3e 87 b0 3e bf 47 14 85 3d
       1.0873929 0.23531154 -0.7448811 0.06498008
000150 2a c7 0b 3f 5b 2f 07 3d c5 49 50 3e 7a df c2 3e
       0.54600775 0.033004146 0.20340641 0.38061124
000160 37 cd e5 3e 81 86 18 bf 05 04 f9 3e 22 66 c6 3d
       0.4488313 -0.59580237 0.4863588 0.09687449
000170 6a e5 e2 bd ab 03 90 bf ac e9 40 3f 24 e7 f1 3e
       -0.110789135 -1.1251119 0.75356555 0.4724666
000180 fb 85 82 3f dc 57 2b bf 9d 37 82 3e ec dd af 3f
       1.0197138 -0.6693094 0.25433055 1.37396
000190 e7 e0 55 bf c2 c4 ca be 34 9a 03 be 9f 63 22 3e
       -0.835463 -0.3960324 -0.12851793 0.15858315
0001a0 b0 1f e6 3f ba 5e 44 3e 99 92 f4 3e d8 16 fe 3c
       1.797842 0.1917676 0.47768095 0.031016752
0001b0 ce 88 32 3d 91 c9 40 3f 5e 84 e3 be 39 40 09 3d
       0.0435875 0.75307566 -0.44436926 0.033508513
0001c0 a5 f5 2a bd 0c 49 70 bf dd 23 85 3e 50 1e 40 3e
       -0.04173817 -0.9386146 0.26003924 0.18761563
0001d0 84 b4 50 bf a0 e6 5b be 83 8a ef bd a3 d7 43 bf
       -0.81525445 -0.21474695 -0.11696341 -0.7650091
0001e0 7d c7 05 bf 85 72 32 3f b1 1d 7f bc 61 fa a3 3f
       -0.5225752 0.6970599 -0.015571044 1.2810785
0001f0 2f 10 b5 be 56 d5 3b 3d 5f 7c 2e bd 62 d1 fa be
       -0.3536391 0.04585775 -0.04259908 -0.4898787
000200 64 d6 d6 be f7 33 97 be d3 0a 00 c0 10 fc 43 3f
       -0.41960442 -0.29531834 -2.0006607 0.7655649
000210 93 52 9c 3f c6 7a 2b 3f e0 06 a4 be 42 47 43 bf
       1.22127 0.6698421 -0.32036495 -0.76280606
000220 b1 1e 2c bf e9 e0 a6 bf 2b 60 26 3f fd b1 af 3f
       -0.6723433 -1.3037387 0.6499049 1.3726193
000230 2f bb 9f 3f ee 9c 42 bc e6 24 f1 3e 59 3a 4b 3e
       1.2478999 -0.011878235 0.47098464 0.19846477
000240 df 11 d2 3e f0 8c d4 be 5d 5c 72 3f da b3 81 bf
       0.4102926 -0.41513777 0.94672185 -1.0133011
000250 4f 78 13 bf ea e6 10 bf 6d c4 0c 3f e7 a0 dd 3c
       -0.5760545 -0.56602347 0.5498722 0.027054263
000260 ea 0b a9 3e 89 23 19 3e 86 18 94 bc dd 45 1d bf
       0.33016902 0.14954962 -0.0180781 -0.6143473
000270 20 24 7f be 87 e4 1c 3e 57 7f b9 bf 1b 28 21 3f
       -0.24916124 0.15321551 -1.4491986 0.6295182
000280 43 46 b3 3f a2 f9 22 bf 33 d9 d2 3e 9c 7b fe bd
       1.4005817 -0.6366216 0.41181335 -0.1242592
000290 45 8c bd 3e e8 a7 03 3e 4a a2 a2 3f df 64 96 bd
       0.3702108 0.1285702 1.2705777 -0.073434584
0002a0 0b 22 36 3e d9 c9 3e 3f dd 88 32 bf e1 05 5e 3f
       0.17786424 0.74526745 -0.69740087 0.8672772
0002b0 d5 b2 04 be f3 25 ac 3f 9f 6a 03 3f b5 2f 84 be
       -0.12958844 1.3449081 0.51334566 -0.25817648
0002c0 b2 36 3c 3e dc d6 28 bf e4 2e 1f 3f 5b c8 ef be
       0.1838024 -0.6595285 0.62180924 -0.46832547
0002d0 52 77 94 bd b4 b1 51 3e da a2 7e 3f 88 a3 44 bf
       -0.07249321 0.20477945 0.9946724 -0.7681203
0002e0 a5 c7 03 3f 68 82 3e bd 16 e2 9a 3e b0 c7 1b bf
       0.5147651 -0.046511084 0.30250615 -0.60851574
0002f0 e2 92 12 be 4b 2a 37 be e6 fa 35 3f de 9b 68 3e
       -0.14313844 -0.17887227 0.71085966 0.22715709
000300 d9 16 85 be 3b b9 10 3f 8c 96 93 be 69 1b 6b 3f
       -0.25993994 0.5653264 -0.28825796 0.918387
000310 5f 8a 12 3f 30 16 c0 3d 05 2a d1 be ac a1 33 bf
       0.5724239 0.09379232 -0.4085237 -0.70168567
000320 b9 f6 99 3f 8e 0c de 3f 34 1c a5 be a1 e5 0d bf
       1.2028419 1.7347581 -0.3224808 -0.5542851
000330 ec e7 69 3f 9e d9 99 bf b7 80 af 3d c2 bc 8f bf
       0.9136951 -1.2019536 0.08569472 -1.1229479
000340 fc fd af bf e6 37 12 bf a5 16 71 3e ce b7 93 3e
       -1.3749385 -0.57116544 0.23543794 0.2885117
000350 ef f0 f3 bc 4e 41 86 3e 2e 30 02 3f 82 c3 dc 3e
       -0.029777972 0.262217 0.50854766 0.4311791
000360 08 27 46 3f ec 75 41 bf 99 99 85 3d 9d 2f f6 3e
       0.77403307 -0.7557056 0.06523437 0.480832
000370 c0 5c 6f bf 8b a6 13 3d f8 19 4f bf d3 2c ee 3e
       -0.935009 0.0360475 -0.80899 0.46518573
000380 52 93 4a 3c a8 2c 1d bf b4 e3 8d bf 43 6f 6d 3e
       0.012364225 -0.61396265 -1.1085114 0.23186974
000390 a6 2a 56 3f 5f b9 88 3f 7a cd 52 3f e4 51 eb 3d
       0.83658826 1.0681571 0.8234478 0.11490229
0003a0 ff af 57 3f ec 3f 45 bf 96 e8 ed 3d 25 8d e7 3e
       0.84252924 -0.7705066 0.11616628 0.45224872
0003b0 9f b2 b8 3e 83 de e2 3e ed 42 a2 3f f3 4f bc 3e
       0.36073777 0.44310388 1.2676674 0.36779746
0003c0 d3 d2 6d 3e b5 83 af be c7 3c 4f 3f 80 04 3e 3f
       0.23224954 -0.34280172 0.80952114 0.74225616
0003d0 24 97 01 3f 60 4a 46 bf 5d 4a 4d bf 14 dd 02 bf
       0.5062125 -0.7745724 -0.80191594 -0.5111859
0003e0 cf 51 b3 3e 65 7d 94 3c b4 07 81 be 9e 64 62 bf
       0.35023353 0.018126199 -0.2520119 -0.8843478
0003f0 f4 96 65 3c e8 3d dd 3e 23 5d 09 bd ef e6 8c 3f
       0.014013041 0.43211293 -0.033536088 1.1007975

weight f4 [32]
000000 39 d7 68 3f 56 3b 6e 3f 9b 5e 8a 3f 7a 5b 79 3f
       0.90953404 0.9305929 1.0810121 0.9740521
000010 45 6d 75 3f 82 49 73 3f 58 50 7e 3f 6c ca 73 3f
       0.9586986 0.9503404 0.99341345 0.95230746
000020 04 12 84 3f a1 62 4f 3f 94 12 82 3f 40 77 6c 3f
       1.0317998 0.8100987 1.016192 0.9236946
000030 41 e1 7e 3f 5d b0 8b 3f 5e f1 80 3f ef ba 7a 3f
       0.9956246 1.0913197 1.007366 0.9794149
000040 82 77 5b 3f 5d f7 70 3f 7c 5b 84 3f 96 38 7c 3f
       0.8572923 0.94127446 1.0340419 0.98523843
000050 88 3c 88 3f a7 b5 73 3f 0a 42 62 3f 39 f4 6a 3f
       1.0643473 0.95199054 0.8838202 0.91778904
000060 e7 79 79 3f c0 33 89 3f 2a d1 8c 3f ef 74 76 3f
       0.97451633 1.0718918 1.1001332 0.96272177
000070 cd 4a 91 3f a7 b7 8a 3f 47 f1 6a 3f e0 13 83 3f
       1.1350952 1.0837296 0.9177441 1.024044

bias f4 [32]
000000 8f de 77 bd e3 6d 37 bd fd 51 03 be 2e 23 14 be
       -0.060514983 -0.04478253 -0.12824245 -0.14466545
000010 c8 22 56 3e 41 35 04 3e 57 f0 08 3d a0 be 71 bd
       0.20911705 0.1291094 0.03343233 -0.059019685
000020 c6 09 51 bd 33 c3 8f 3d fe 26 1e bd f0 32 7c bd
       -0.05103471 0.07019653 -0.038611405 -0.061572015
000030 79 69 47 3d 1c ce 09 be d4 cb d3 bd f8 68 8f 3c
       0.04868457 -0.1345753 -0.103416115 0.017506108
000040 11 15 8f bc ac 36 48 bd 5b 9e ca 3d e8 cf 2d bc
       -0.0174661 -0.048880264 0.09893485 -0.010608651
000050 c8 92 3e bd fc a3 88 bc dd f4 87 3c 66 f5 ff bc
       -0.0465267 -0.016679756 0.016596252 -0.031244945
000060 99 94 0e 3c 6e 77 2d be 76 51 48 bc a0 38 9a bd
       0.008702421 -0.1694009 -0.012226453 -0.075303316
000070 4a 21 8e bd 26 1a 86 3d 6b 09 90 3d ac 7a 2b bd
       -0.06939943 0.06547956 0.07033046 -0.041865036

running_mean f4 [32]
000000 98 71 d3 3d b4 c6 b0 3e ed b0 cc 3d 81 56 0c bf
       0.10324401 0.34526598 0.099946834 -0.54819494
000010 a5 d5 e9 be 18 f8 db 3d dd f9 5a 3d e1 dc fb 3e
       -0.4567081 0.107406795 0.053460944 0.49191955
000020 96 a3 2e 3d 50 cc a8 3c 67 bb f4 3d 7c f1 50 bd
       0.042636476 0.020605236 0.11949807 -0.051011547
000030 6a 89 c8 be 00 2b 34 3e d6 0c b5 bd bd 03 fd be
       -0.3916734 0.17594528 -0.08840339 -0.49416915
000040 1a 0d 87 3e c0 78 8c 3e 90 67 84 3d 61 b2 57 be
       0.26377183 0.27435875 0.064650655 -0.2106414
000050 08 ea a4 3d 2f 9a a6 3d d9 f2 a4 3e 31 89 d8 be
       0.080524504 0.08134877 0.32216528 -0.4229217
000060 39 e8 7b be 5d 58 19 be ae df c3 bd c2 fb 02 3f
       -0.24600305 -0.14975114 -0.09564148 0.511654
000070 cb 8d 05 3e 01 20 14 3e 08 17 28 bd b2 20 54 bd
       0.13042371 0.14465334 -0.04103759 -0.051788993

running_var f4 [32]
000000 46 3f e3 3f 03 e3 1b 40 fa 9a 86 40 9d 2c 72 40
       1.7753685 2.4357307 4.206418 3.783973
000010 a4 df f3 3f 53 fb aa 3f d9 c9 e3 3f 65 cd 0d 3f
       1.9052625 1.3357948 1.7795974 0.5539153
000020 e8 2b 26 40 e3 ac a3 3f f6 f4 0a 40 e0 0c 02 40
       2.5964298 1.2787136 2.1712012 2.0320358
000030 06 04 66 40 eb 3e d5 3f e7 25 a4 3f 2a c9 40 40
       3.5939956 1.6659826 1.2824067 3.012278
000040 d8 c9 3d 3f 9f 8b a0 40 7e 5f 93 40 9c 15 83 3f
       0.74136114 5.0170436 4.6054068 1.024097
000050 4d cf 66 3f 73 2a 3a 40 84 f8 84 40 da b4 14 40
       0.90160066 2.908841 4.1553364 2.3235383
000060 bf f1 90 40 84 b0 65 3f 86 84 2b 40 0b b6 86 3f
       4.52951 0.89722466 2.6799636 1.0524305
000070 ec 74 55 40 b2 ea 8e 40 e5 5a d3 3f 17 f9 83 3f
       3.3352613 4.4661493 1.6512114 1.0310391

weight f4 [32, 16]
000000 51 6d 3e 3d 32 77 4a 3e d6 70 43 bf bb 2b 5a 3e
       0.04649097 0.19772032 -0.7634405 0.21305744
000010 01 d9 36 3f 52 5a ac bd 81 d2 97 bd 5d ed 25 3f
       0.7142487 -0.08415665 -0.07413197 0.6481531
000020 99 49 bd be ad af af 3e 5b 0a 5d bf ea 11 b9 3f
       -0.36970213 0.34313717 -0.86343926 1.4458592
000030 75 80 f2 be 68 e6 b9 3d 2d 18 69 3d a1 ec 86 3e
       -0.4736363 0.0907715 0.05690782 0.2635241
000040 6e 77 06 bd cd 9f 04 bf 90 4a 8f be db e6 11 3c
       -0.03282874 -0.51806337 -0.27986574 0.008905138
000050 aa ef f6 bd 02 e2 ff be 25 25 1c bf 06 1c 55 bf
       -0.12057431 -0.49977118 -0.6099418 -0.83245885
000060 8e 98 6a 3e 4c 10 34 bf 90 b5 63 bf 7e 33 9b bf
       0.22909757 -0.7033737 -0.8894892 -1.2125089
000070 9e ab 65 3e 55 29 4c bf 93 ec dc 3e f9 9f 70 bf
       0.22428748 -0.7975057 0.43149242 -0.939941
000080 de b2 ec be fe 5b 38 be ec 45 e2 3d 51 52 c5 3e
       -0.46230215 -0.18003842 0.11048493 0.38539365
000090 56 be 6e be a1 07 cd 3e cf cd 26 bf 17 74 f8 be
       -0.23314795 0.40044883 -0.6515779 -0.4852607
0000a0 35 f1 47 bc 38 19 8d 3e 64 b1 93 be e9 38 74 3e
       -0.012203504 0.27558303 -0.28846276 0.23849835
0000b0 84 df 08 3f 2b 42 55 3f 9b 36 88 be fd 04 ac bd
       0.5346606 0.8330409 -0.2660416 -0.08399389
0000c0 73 73 98 be b3 a7 9a bf f8 e7 75 3e 54 f2 3e bf
       -0.2977558 -1.2082428 0.2401427 -0.74588513
0000d0 9b 7d 1c 3e 82 16 aa 3f df dd 26 3e cc 83 31 bf
       0.1528229 1.3288119 0.16295575 -0.6934173
0000e0 f9 9a 3d 3f 2c 60 01 c0 37 11 0f bf 3c 24 4d 3d
       0.74064595 -2.0214949 -0.5588564 0.050083384
0000f0 8a f5 7b bf aa 41 5a bf 00 d7 b8 3f e7 dd 13 3f
       -0.9842154 -0.85256445 1.4440613 0.5776047
000100 b5 b2 4f be cd ac 79 3f 2a 41 98 3f 14 c2 37 3f
       -0.20283015 0.975293 1.1894886 0.71780515
000110 23 5f 6c bf 70 24 07 3e 42 18 40 bf ea 38 b4 3f
       -0.9233267 0.13197494 -0.75037014 1.4079869
000120 50 ab cc bd c1 3c 56 3d 10 92 39 3f b6 a4 aa 3c
       -0.09993613 0.052304033 0.724885 0.020830493
000130 11 3b f6 bd f9 d3 83 bf fd 06 a9 3e 3c 74 ec be
       -0.12022985 -1.0299064 0.33013144 -0.4618243
000140 51 5c 95 3e 42 ce b3 3e d0 2b da 3f 9c 54 22 bf
       0.29171994 0.351183 1.704462 -0.63410354
000150 27 11 9a be 49 c9 ee 3c ff d9 c4 be a9 47 33 3f
       -0.3009121 0.029148715 -0.38447568 0.7003122
000160 a1 50 2a bf a8 c3 64 3f e2 56 a8 3e 15 8c 7f bf
       -0.6652928 0.8936105 0.32878786 -0.99823123
000170 69 7a 41 3f 80 d8 ff 3f 43 fd 8d be c4 56 51 3f
       0.7557741 1.9987946 -0.27732286 0.8177302
000180 35 04 7f bf 24 40 2c 3f e5 99 20 bf 09 4c 05 3c
       -0.99615794 0.6728537 -0.62734824 0.008135804
000190 fa f9 19 3f 40 29 29 3f ea a4 8c 3e e4 cb f7 3f
       0.6014706 0.6607857 0.2746957 1.9359097
0001a0 7c e7 b4 3f d1 37 c9 be 2a 0c 17 3e a0 6b ca bf
       1.4133143 -0.39300397 0.14750734 -1.5814095
0001b0 be 9d 4f bf 8e 1b 2f 3f 61 e4 f3 3e 86 e2 8a 3d
       -0.8110007 0.6840142 0.47635177 0.06781487
0001c0 c6 fd 14 3f 72 85 bb 3f 30 7b 8d 3e fd 26 0a 3f
       0.5819973 1.4650099 0.27633047 0.5396574
0001d0 12 27 95 be 9a 1d 7b bf 95 7a c6 be 0f 5c 7d be
       -0.2913137 -0.98092043 -0.38765398 -0.24742149
0001e0 e7 83 a3 3f 18 57 37 bf a8 72 0d 3f 58 e8 6a 3d
       1.2774628 -0.7161727 0.55253077 0.057350487
0001f0 fa bf 63 3f d2 bb 35 bf 77 b6 68 bf 1e 51 2a bf
       0.8896481 -0.70989716 -0.9090342 -0.66530025
000200 cc bc 33 3e 7a 19 69 3e 73 f1 57 bd aa ef 6c 3e
       0.17552489 0.22763625 -0.0527205 0.231383
000210 a4 27 92 be df 25 a1 be 79 e3 f8 3e 1b dc 5a be
       -0.28545868 -0.31474206 0.48611048 -0.21373026
000220 99 a3 e9 3e 68 33 f7 3e d0 54 29 3f 73 c6 eb 3e
       0.45632628 0.48281407 0.6614504 0.46049842
000230 c0 d7 18 3e cd 3b 7b bf 0d 18 eb 3e eb f7 08 3d
       0.14926052 -0.98138124 0.45916787 0.033439558
000240 4f 68 28 3f 77 b6 9e bd 26 72 c2 be db 6d 25 3f
       0.6578416 -0.07749646 -0.37977713 0.6462075
000250 d8 f3 2d 3f 59 15 ec 3e 1d d6 75 3f 54 13 d4 3f
       0.679502 0.46110037 0.96029836 1.6568398
000260 6f a6 30 be ea 86 e2 3e 61 3b 02 bf 11 a5 0c 3e
       -0.1725099 0.44243556 -0.50871855 0.13734843
000270 1c 25 c6 be c8 03 ed bd 5b b7 c4 3e 9d 9f f2 3e
       -0.38700187 -0.11572987 0.3842114 0.473874
000280 3f ce 26 3e a0 1f 03 be ad ab 28 be 8e 4c 5c bf
       0.16289614 -0.12805033 -0.16471739 -0.86054313
000290 c9 13 68 bc ea 98 1b bf 38 5b dd be 61 3c 66 3e
       -0.014164873 -0.60780203 -0.43233657 0.2248397
0002a0 5b 01 82 bb 01 2d 4f bf 9c 32 2c 3f 25 9e 28 3f
       -0.0039674467 -0.80928046 0.67264724 0.6586631
0002b0 14 21 5e bf 4e fb e3 3e a5 9f fa 3e 58 0c 03 3f
       -0.86769223 0.44527668 0.48949924 0.5119071
0002c0 27 2e 1d be f9 47 80 3e 0f fb f5 be d7 f0 94 bf
       -0.15349637 0.2505491 -0.48043105 -1.1635998
0002d0 c9 49 29 3f 01 d0 22 bf 75 ab 10 3e 1f 13 4b bf
       0.6612821 -0.6359864 0.14127906 -0.7932605
0002e0 92 f7 99 3e 0a a3 8e 3f 96 42 f0 3e d8 78 48 be
       0.30071694 1.1143506 0.469258 -0.19577348
0002f0 3d d4 3a 3f af 1f f5 be df 2c 22 be 02 c9 02 bf
       0.729801 -0.47875735 -0.1583743 -0.51087964
000300 6c 6b de bf 47 28 cb 3e b5 e0 84 be 08 d1 de 3e
       -1.7376533 0.39679167 -0.25952688 0.43518853
000310 df 16 cb be de 94 e6 bd f1 33 47 bf 47 43 ca 3f
       -0.39665887 -0.11258863 -0.7781363 1.5801781
000320 2f f2 40 bf 27 cc 91 3f bc 44 37 3e 5f 88 c5 3e
       -0.7536954 1.1390427 0.17897314 0.38580605
000330 4b 81 f1 3e 4f 0b 76 bf a9 a6 fd bb dc 09 9d 3e
       0.47168955 -0.96111006 -0.0077408147 0.30671585
000340 a4 ef 54 3e af d7 b1 3e 16 44 c0 be 5b 11 c7 be
       0.2079454 0.34734866 -0.37551945 -0.3888043
000350 3a 75 dd be 2d c6 aa bf c6 f7 bc 3e d9 ab fc be
       -0.432535 -1.3341728 0.36907786 -0.4934986
000360 7a b8 1e 3e ef b4 50 bf 19 f6 08 3e 88 cb e8 bd
       0.1550006 -0.8152608 0.13375129 -0.113669455
000370 0a b3 dd be 15 37 c6 bf cc 70 27 bf 55 62 f5 bd
       -0.43300658 -1.548556 -0.6540649 -0.11981646
000380 87 ba 4e bf a8 c4 3b 3f 45 fc 5e bd df d4 0b 3f
       -0.8075337 0.7334695 -0.0544398 0.5462169
000390 18 32 1d bf cc cb c0 3d de 7f af be 29 94 32 3d
       -0.6140456 0.09413871 -0.34277242 0.043598328
0003a0 ae 0b e3 bd 4a 5f a8 3d 37 da bb 3e ae 5c 21 3c
       -0.11086212 0.082213 0.36689922 0.009848757
0003b0 a7 2e 04 c0 6e 52 c8 be f7 e2 2b be 8b 6c 2b bb
       -2.0653474 -0.3912539 -0.16785799 -0.0026157226
0003c0 34 4d 1d 3f e8 24 79 3e a9 a3 ae 3e 8d b9 42 bf
       0.6144593 0.24330485 0.34109238 -0.7606438
0003d0 87 fa 1d 3f 70 66 00 40 b9 24 06 be a3 36 84 bc
       0.617104 2.0062523 -0.13099946 -0.016139334
0003e0 50 31 4d bd 28 e2 18 3e 6d 63 8c be 13 40 34 bf
       -0.050095856 0.14930022 -0.27419606 -0.7041027
0003f0 e8 74 f7 3d fc cf 5c bf 00 c8 bb 3e 0d 63 9b 3e
       0.12082845 -0.8625486 0.36676025 0.30349007

weight f4 [32]
000000 00 00 80 3f 00 00 80 3f 00 00 80 3f 00 00 80 3f
       1.0 1.0 1.0 1.0
000010 00 00 80 3f 00 00 80 3f 00 00 80 3f 00 00 80 3f
       1.0 1.0 1.0 1.0
000020 56 24 87 3f 46 00 82 3f 7c 2e 81 3f ae ef 74 3f
       1.0557964 1.0156333 1.0092311 0.9567822
000030 57 40 86 3f 87 7c 59 3f 7e a4 80 3f d4 36 7c 3f
       1.0488385 0.8495564 1.0050199 0.9852116
000040 00 00 80 3f 00 00 80 3f 00 00 80 3f 00 00 80 3f
       1.0 1.0 1.0 1.0
000050 00 00 80 3f 00 00 80 3f 00 00 80 3f 00 00 80 3f
       1.0 1.0 1.0 1.0
000060 0d 4a 7a 3f 8a da 8f 3f 7e a4 82 3f c9 15 90 3f
       0.9776924 1.1238568 1.0206449 1.1256648
000070 71 15 82 3f 3c ad 89 3f 85 a6 69 3f 1d fe 81 3f
       1.0162793 1.0755992 0.91269714 1.0155674

bias f4 [32]
000000 00 00 00 00 00 00 00 00 00 00 00 00 00 00 00 00
       0.0 0.0 0.0 0.0
000010 00 00 00 00 00 00 00 00 00 00 00 00 00 00 00 00
       0.0 0.0 0.0 0.0
000020 da 92 28 3d 4e d8 e3 bd 5e 34 9e 3c 77 05 58 3c
       0.041155674 -0.11125241 0.01931208 0.013184897
000030 87 9b 82 3d 93 07 22 be 57 81 a9 bd 20 d5 44 3c
       0.06377321 -0.15823202 -0.08276623 0.012013704
000040 00 00 00 00 00 00 00 00 00 00 00 00 00 00 00 00
       0.0 0.0 0.0 0.0
000050 00 00 00 00 00 00 00 00 00 00 00 00 00 00 00 00
       0.0 0.0 0.0 0.0
000060 3d 41 9a 3d 3c f5 f1 bc 3b 35 b5 bc 50 d0 e2 bc
       0.075319745 -0.029535882 -0.022120109 -0.027687222
000070 0d a2 16 3d 39 f1 33 be 94 5b 12 3c 66 d9 0f bd
       0.036775637 -0.17572488 0.008932967 -0.035119437

running_mean f4 [32]
000000 2f ff 46 3e e2 2c bb 3d 40 9a 80 bd d0 9c 1d 3e
       0.19433282 0.0913942 -0.06279421 0.1539185
000010 a0 81 06 3d 8a 7e 43 bf f3 bc 16 bf 71 8c f2 3d
       0.032838464 -0.7636496 -0.58882064 0.11843193
000020 60 e7 a9 3d ab 56 1f bd 91 57 a8 bd b7 c1 75 bd
       0.082960844 -0.038901012 -0.08219827 -0.059999194
000030 57 22 25 3c 32 0b b7 3e c9 f3 20 3e 0f 6c 50 3e
       0.010078988 0.3575073 0.15717997 0.20353721
000040 7e e5 0c be 0c 17 b4 bc 1b 1e 36 3e 0e 75 ce be
       -0.1375942 -0.021983646 0.17784922 -0.4032368
000050 39 33 c8 bd 3e 20 6a 3e 31 38 8c bd 7f bf 61 3d
       -0.09775395 0.22863862 -0.06846655 0.055114266
000060 9f 3a 92 3e 19 94 d5 3d 0c ce df 3d 37 63 62 3e
       0.2856035 0.10428638 0.10927972 0.2210816
000070 49 f9 2a 3e ac 12 b6 3e 22 aa a2 bd 56 21 fb bd
       0.16696657 0.3556112 -0.079426065 -0.12262218

running_var f4 [32]
000000 e3 13 c9 3f f3 2e 53 3f eb 35 07 3f 5c 1b fb 40
       1.5709194 0.82493514 0.5281665 7.84709
000010 57 6a 35 40 05 80 0b 40 bd 70 fa 3f 71 58 88 40
       2.8346155 2.1796887 1.9565655 4.260796
000020 1d 1d 95 3f 17 5c 07 40 78 05 c9 3f 7c e6 9a 3f
       1.164951 2.1149957 1.5704794 1.2101588
000030 bd 2f 90 40 15 92 85 3f 1c 81 b3 3f ef c3 62 40
       4.5058274 1.0435206 1.4023776 3.5432088
000040 a4 5f 54 40 f4 c3 42 40 b6 13 ba 3f 90 c5 04 40
       3.3183374 3.04321 1.4537265 2.0745583
000050 cd 43 ee 3f e0 6a 21 40 c8 8e 27 40 73 59 26 3f
       1.8614441 2.5221481 2.6180897 0.6498024
000060 84 07 af 3f 31 c4 a3 40 18 ab b3 3f 04 8c e4 3f
       1.3674169 5.117699 1.4036589 1.7855229
000070 bb d7 96 40 c5 e6 df 40 1f 12 4a 40 84 51 17 40
       4.7138343 6.99692 3.157356 2.3643503

weight f4 [32]
000000 45 f6 5d 3f 45 8d 57 3f 2f 0d 7e 3f 43 50 76 3f
       0.867039 0.84199935 0.99238867 0.9621622
000010 86 4d 84 3f e3 c6 8e 3f 2b 31 8a 3f b3 8f 69 3f
       1.0336158 1.1154445 1.0796255 0.9123489
000020 30 82 8f 3f 1e cb 83 3f 50 ac 62 3f 16 ab 80 3f
       1.1211605 1.0296361 0.8854418 1.0052211
000030 97 b8 7a 3f 88 98 81 3f 31 41 79 3f 4a 5f 84 3f
       0.9793791 1.0124674 0.973651 1.034158
000040 72 4d 4c 3f 8d 92 6c 3f 0b b9 67 3f 2a 6b 6c 3f
       0.7980567 0.9241112 0.9051673 0.9235102
000050 bc 27 75 3f 65 89 74 3f a9 de 86 3f 16 53 6f 3f
       0.95763755 0.9552215 1.05367 0.93486154
000060 6b e0 8d 3f 11 57 80 3f 42 fc 63 3f af 33 6b 3f
       1.1084112 1.002657 0.8905679 0.9187574
000070 96 d7 72 3f ce c1 80 3f 89 67 6a 3f bc bc 81 3f
       0.9486021 1.0059144 0.9156423 1.0135722

bias f4 [32]
000000 51 48 4d bd 69 e4 e3 bd f4 c9 1a be 10 e8 33 3e
       -0.050117794 -0.1112755 -0.15116102 0.17568994
000010 e0 7b 68 bd de bb 0c 3e 3e e6 d2 bd d4 5b 12 3c
       -0.05675876 0.1374354 -0.102978215 0.008933026
000020 99 bb 2c 3d f4 3d 2e bc c3 ee 32 3d 17 0a 78 3d
       0.042171095 -0.010634888 0.043684732 0.060556497
000030 6d 77 ba 3b 66 61 14 3c 2d f6 b0 3d 7a fd 79 3d
       0.005690506 0.009056425 0.08640704 0.06103275
000040 1e 1b 71 bd 41 94 31 be ec df 6b 3d fe 20 10 bd
       -0.05886375 -0.1734171 0.057586595 -0.035187714
000050 d7 46 1a 3d e1 c7 ef 3d 6b 40 b4 3d 18 23 99 bc
       0.037665214 0.11708046 0.08801349 -0.018693492
000060 c9 27 5e 3d c0 10 0d bd 78 35 8d bd 1b ff 83 3d
       0.05423716 -0.034439802 -0.06894964 0.06445142
000070 73 df 8e 3d 43 28 0f bd 34 50 67 bc 28 ec cb 3d
       0.06976213 -0.034950506 -0.014118243 0.099571526

running_mean f4 [32]
000000 72 30 85 3d 94 48 e0 bd 11 4d 70 bc f4 a9 05 3e
       0.06503381 -0.10951343 -0.014666812 0.13053113
000010 7c d1 5b bd b8 58 f0 bc 4d b3 62 be ce a0 b9 3d
       -0.053666577 -0.02933918 -0.2213871 0.09063874
000020 40 b3 3f bd 03 04 8e 3d 86 53 a3 bd ec 59 ff bd
       -0.046801805 0.06934359 -0.07974915 -0.12468323
000030 07 c0 6e be 33 3d 92 3d 11 8a bc 3b 19 d3 30 3e
       -0.2331544 0.07140579 0.0057537635 0.17268027
000040 d8 05 58 bc 7b 3e a4 3d 27 f7 8e be 25 03 da bd
       -0.013184987 0.0801973 -0.27922937 -0.10645131
000050 14 01 63 3e 60 08 eb bd d7 ab cf 3d 89 7e a0 3e
       0.2216838 -0.11476207 0.10140198 0.3134654
000060 e9 7b e9 3d 5e 66 24 be 63 3c ae 3e 2b 0f 53 be
       0.11400587 -0.16054675 0.34030446 -0.20611255
000070 a0 3d a5 3e e8 c4 42 bd 4a d8 a0 3c d2 8b 96 3d
       0.3227358 -0.047551066 0.019634385 0.07350887

running_var f4 [32]
000000 4d 07 16 3e 7a 02 0b 3e 4f f6 12 3f 2c 13 92 3e
       0.14651223 0.13575163 0.5740709 0.28530252
000010 c7 39 af 3e 28 b5 45 3e a5 d8 ad 3e b5 f7 1d 3f
       0.34223768 0.19307387 0.3395435 0.61706096
000020 15 0a 39 3e 77 22 a8 3e 9b 26 0d 3e 29 f4 99 3e
       0.18070252 0.32838795 0.13784258 0.30069092
000030 f8 8b 85 3e e4 d8 91 3e 78 32 9f 3e 80 b4 3e 3e
       0.2608335 0.28485787 0.31093192 0.18623543
000040 c5 48 e0 3e 22 c8 79 3e 09 d4 5e 3e 79 32 b7 3e
       0.4380552 0.24392751 0.21760572 0.35780695
000050 de 54 8f 3e 80 55 c6 3d ea 6d 99 3e ae 4d a2 3e
       0.27994436 0.096842766 0.2996667 0.3169989
000060 0d 88 5d 3e e9 38 a4 3e 9c 48 0d 3f 85 67 87 3e
       0.2163393 0.3207467 0.5518892 0.26446167
000070 65 af 2b 3f 36 a1 97 3e 8b 1c e2 3e d3 cc 5c 3e
       0.67064506 0.29615182 0.44162402 0.21562509

weight f4 [32]
000000 c8 e5 8d 3f 5f e4 86 3f d5 a3 5d 3f 44 11 57 3f
       1.1085749 1.0538443 0.8657811 0.8401072
000010 02 bd 70 3f 47 c5 85 3f d2 d9 6d 3f 72 bd 58 3f
       0.94038403 1.0450829 0.9291049 0.8466407
000020 56 6a 68 3f 50 99 87 3f 81 30 92 3f fd 30 7c 3f
       0.90787256 1.0593662 1.1421052 0.9851225
000030 74 bb 7b 3f e8 d3 6b 3f 57 43 52 3f ec bc 69 3f
       0.98332906 0.9212022 0.82134 0.91303897
000040 5b 88 94 3f a0 56 9a 3f 25 3d 84 3f 63 ab 56 3f
       1.1604112 1.2057686 1.033116 0.83855265
000050 c0 2a 84 3f 6a e3 8f 3f 86 03 88 3f c2 5a 78 3f
       1.0325546 1.1241276 1.0626075 0.97013485
000060 4f e5 61 3f 1f 18 85 3f c1 0f 7e 3f 4d 76 69 3f
       0.8824052 1.0397986 0.9924279 0.9119614
000070 a6 c4 72 3f 57 96 89 3f 47 0e 77 3f aa 53 74 3f
       0.9483131 1.0749005 0.9650616 0.9544016

bias f4 [32]
000000 e9 c3 e5 bd 96 3d cc bd dd ad 5d be e2 0b 15 3e
       -0.112190075 -0.09972684 -0.21648355 0.14555314
000010 70 b7 2c be b2 6e d9 3d 92 0e ab bd 0c 44 b1 bc
       -0.16866851 0.106168166 -0.083523884 -0.021638893
000020 e8 2c 76 bb b7 d2 4e bd a0 ce bc 3d 40 b3 4e 3d
       -0.0037563387 -0.050493922 0.09219098 0.050463915
000030 ae c7 12 3d b5 92 de 3d cf c9 f4 3c 71 6f 1f 3c
       0.03583496 0.10867826 0.029881386 0.00973116
000040 75 16 96 3d 55 6a 0c bc ec 7d 23 be 0e bf 9b 3c
       0.07328502 -0.008570273 -0.15966004 0.019012
000050 c7 82 29 bd 91 24 10 3d d0 44 a5 bd c4 0b 29 be
       -0.041384485 0.035191122 -0.080697656 -0.16508394
000060 b7 53 9b bd d4 da c2 3d 5b f9 fd 3d 78 09 81 3d
       -0.07584327 0.095143944 0.124010764 0.06300634
000070 6d a3 f7 bc 3e cd 48 bd d0 58 1a be 9c 34 0a be
       -0.030229295 -0.04902386 -0.15072942 -0.13496631

running_mean f4 [32]
000000 b9 92 7e be d4 43 d3 bb 05 8c 18 bf d4 39 9b bd
       -0.24860658 -0.0064472947 -0.5958865 -0.07579389
000010 24 0d 5d be d9 5d 7c 3e 36 1f 3f 3e 22 6c 83 3e
       -0.21587044 0.24645175 0.1866425 0.25668436
000020 74 8e d2 3e 42 63 24 3e f4 50 63 bd e8 0d 81 3e
       0.41124308 0.16053489 -0.055497125 0.25205922
000030 c5 e3 7a be 18 20 22 be b4 46 68 be 63 17 15 3e
       -0.2450095 -0.15832555 -0.22683221 0.14559703
000040 9d 85 c5 3e ac 43 1e 3e 1f 9e 0a 3e 6b f3 24 bc
       0.385785 0.15455502 0.13536881 -0.010067801
000050 ea 0b c5 bd 1e 08 a2 bd 34 c9 dd 3e 09 63 07 3e
       -0.09621413 -0.079117045 0.43317568 0.13221373
000060 38 55 4e be 33 d4 b6 be 53 43 a1 3d 8b 52 af 3d
       -0.20149696 -0.3570877 0.07874169 0.08560666
000070 28 83 2f be 51 8b c7 be b5 13 ae be 57 0a 5f 3d
       -0.17139876 -0.38973477 -0.3399941 0.05445322

running_var f4 [32]
000000 4f 42 fd 3f bd 92 5d 3f 80 dd 8d 40 84 86 bd 3f
       1.9785861 0.8655203 4.4332886 1.4806676
000010 4b 79 71 40 2f 2c 3e 40 86 ac 2d 40 0c 63 77 40
       3.7730281 2.9714468 2.713655 3.8654203
000020 af 28 1e 40 ad b8 53 40 83 73 0a 40 13 de 81 40
       2.4712331 3.3081467 2.1633003 4.0583587
000030 c5 40 1f 40 73 0d cc 3f f5 95 e6 3f 8a cd 05 40
       2.4883282 1.5941604 1.8014513 2.09067
000040 5d c2 3d 3f 01 e9 05 3f c9 92 a4 40 99 b3 4b 40
       0.741247 0.5230866 5.142918 3.1828368
000050 e3 93 c3 3f f0 97 21 40 d4 f7 0f 40 78 f6 dd 3f
       1.5279506 2.5248985 2.2495012 1.7340841
000060 05 d4 40 40 97 60 c9 40 07 4d d1 40 69 35 4f 40
       3.0129406 6.2930408 6.5406528 3.237635
000070 95 6e 33 40 68 2a 0f 40 4e 35 c6 40 4a cc 46 40
       2.8036244 2.2369633 6.194007 3.1062188
