05_Saved_Experiments/2022_08_01 18-38-17 100_runs_train_val_split_custom_loss/models/Model_run24_train_val_split0.5_alcalinity_of_ash.pt (torch, 277409 bytes, 318 tensors)

weight f4 [12]
0	0x3f800000	1.0
1	0x3f800000	1.0
2	0x3f800000	1.0
3	0x3f800000	1.0
4	0x3f800000	1.0
5	0x3f800000	1.0
6	0x3f800000	1.0
7	0x3f800000	1.0
8	0x3f800000	1.0
9	0x3f800000	1.0
10	0x3f800000	1.0
11	0x3f800000	1.0

bias f4 [12]
0	0x00000000	0.0
1	0x00000000	0.0
2	0x00000000	0.0
3	0x00000000	0.0
4	0x00000000	0.0
5	0x00000000	0.0
6	0x00000000	0.0
7	0x00000000	0.0
8	0x00000000	0.0
9	0x00000000	0.0
10	0x00000000	0.0
11	0x00000000	0.0

running_mean f4 [12]
0	0x00000000	0.0
1	0x00000000	0.0
2	0x00000000	0.0
3	0x00000000	0.0
4	0x00000000	0.0
5	0x00000000	0.0
6	0x00000000	0.0
7	0x00000000	0.0
8	0x00000000	0.0
9	0x00000000	0.0
10	0x00000000	0.0
11	0x00000000	0.0

running_var f4 [12]
0	0x3f800000	1.0
1	0x3f800000	1.0
2	0x3f800000	1.0
3	0x3f800000	1.0
4	0x3f800000	1.0
5	0x3f800000	1.0
6	0x3f800000	1.0
7	0x3f800000	1.0
8	0x3f800000	1.0
9	0x3f800000	1.0
10	0x3f800000	1.0
11	0x3f800000	1.0

weight f4 [12]
0	0x3f666bf3	0.9000847
1	0x3f4b808e	0.79493034
2	0x3f3a057d	0.72664624
3	0x3f5cf4de	0.8631114
4	0x3fb305e3	1.3986171
5	0x3f8b352b	1.08756
6	0x3f992dd9	1.1967117
7	0x3f9262bb	1.143638
8	0x3fb1628a	1.3858197
9	0x3f86482f	1.0490779
10	0x3fc40b4d	1.5315949
11	0x3f577190	0.8415766

bias f4 [12]
0	0xbe83e4f2	-0.2576061
1	0x3f4bef7a	0.7966229
2	0x3f0e5ab8	0.55607176
3	0x3f0c15d8	0.5472083
4	0x3e9988cb	0.29987177
5	0xbf05321f	-0.52029604
6	0xbee0d54c	-0.43912733
7	0x3db79c6b	0.08965381
8	0x3f38389c	0.7196138
9	0xbf1a1e49	-0.6020246
10	0x3caaac0a	0.020833988
11	0xbd3e7702	-0.046500213

running_mean f4 [12]
0	0x3f833776	1.02513
1	0x3fd18cfc	1.637115
2	0x3f29a6ff	0.6627044
3	0x3e729058	0.23687875
4	0x4287a242	67.81691
5	0x405a4182	3.4102483
6	0x410d4184	8.828495
7	0x3fc1ec52	1.5150244
8	0x3fcaa404	1.5831304
9	0x43fb8106	503.008
10	0x3fdd44b9	1.7286597
11	0x3fa463cd	1.2842957

running_var f4 [12]
0	0x3f0ce73e	0.5504035
1	0x3fa21714	1.2663293
2	0x3eb51d22	0.3537379
3	0x3ea79435	0.3273026
4	0x4326825f	166.50926
5	0x4080c53f	4.024078
6	0x3f34da32	0.7064544
7	0x3f166573	0.5874855
8	0x3ec0d4ee	0.37662452
9	0x47698d3b	59789.23
10	0x3f265cb7	0.6498522
11	0x3f687e0b	0.90817326

weight f4 [32, 12]
0	0x3f6696f7	0.90074104
1	0x3e7e0b3e	0.24808976
2	0x3f9891b9	1.1919471
3	0x3e3f0f15	0.18658097
4	0xbf798ee2	-0.97483647
5	0xbe724601	-0.23659517
6	0xbe4ffe27	-0.20311795
7	0xbf12f872	-0.5741035
8	0xbef09705	-0.4699022
9	0x3fec0008	1.843751
10	0xbf8023fc	-1.0010982
11	0x3efe5af5	0.4967877
12	0xbf168e3a	-0.5881077
13	0x3e16bc6c	0.14720315
14	0x3e9edc73	0.31027564
15	0x3f0bc89f	0.54603
16	0xbf8f47e2	-1.1193812
17	0xbe1f9753	-0.1558507
18	0x3fbe439b	1.4864382
19	0xbeaeeb5b	-0.34163937
20	0x3ecc6ce9	0.39926842
21	0x3e34518a	0.1760923
22	0xbfa41009	-1.2817394
23	0xbf74f580	-0.95687103
24	0x3da1ffac	0.07910094
25	0x3e8e2edf	0.27770135
26	0xbf8751da	-1.0571854
27	0x3d3b09ff	0.04566383
28	0xbd34fdf8	-0.044187516
29	0xc008da3e	-2.1383204
30	0xbebc8b03	-0.36824808
31	0x3e8006b5	0.25005117
32	0x3ef8a6f5	0.48564878
33	0x3f8a1915	1.0788904
34	0x3ed188bf	0.4092464
35	0xbfa7cc6e	-1.3109262
36	0x3dbf1020	0.093292475
37	0x3ec1da49	0.3786185
38	0xbe169f1b	-0.14709131
39	0xbf8a981d	-1.0827671
40	0xbf884021	-1.064457
41	0x3f05e99f	0.523096
42	0x3f21c4f8	0.63191175
43	0x3efe6d38	0.49692702
44	0x3f8a2255	1.0791727
45	0x3fff59de	1.99493
46	0x3f22b8fb	0.6356351
47	0x3e6a324b	0.22870748
48	0xbf3f9b9a	-0.74846804
49	0x3f194106	0.5986484
50	0x3f9c99da	1.2234452
51	0x3df8a1f3	0.12140264
52	0x3f1aa436	0.60406816
53	0x3f3c97b4	0.7366898
54	0xbe46a576	-0.19399056
55	0x4008fea8	2.140543
56	0xbef5c468	-0.4800141
57	0xbe5060f3	-0.20349483
58	0x40248954	2.5708818
59	0x3fb3c027	1.4043015
60	0xbf943b4c	-1.1580596
61	0x3f67dc42	0.9057046
62	0xbf1d5a23	-0.6146566
63	0xbed476d8	-0.4149692
64	0xbf25d24e	-0.64774024
65	0xbe9e099d	-0.3086671
66	0xbfc9160d	-1.5709854
67	0xbf8e4107	-1.1113595
68	0xbec16cb0	-0.37778234
69	0xbe9f3a09	-0.31098965
70	0xbf53fcd6	-0.8280767
71	0xbf5e7b2e	-0.8690671
72	0xbf5c7573	-0.86116713
73	0xbeffef8d	-0.4998745
74	0xbed24f60	-0.41076183
75	0xbc938111	-0.01800588
76	0x3f0d667a	0.5523449
77	0xbf4d051e	-0.80085933
78	0xbf8fbc7b	-1.1229395
79	0xbe8efa07	-0.2792513
80	0xbee1aea1	-0.44078544
81	0xbff1cb43	-1.8890156
82	0xbf626896	-0.88440835
83	0xbe1c67b2	-0.15273932
84	0xbda7e674	-0.08198252
85	0xbf287807	-0.6580815
86	0x3e28c0d7	0.16479813
87	0xbfcf23cd	-1.61828
88	0x3fb41d76	1.4071491
89	0x3fb0d917	1.381625
90	0x3fe8c924	1.8186383
91	0xbf68cfe2	-0.90942204
92	0x3e369e22	0.1783376
93	0x40010069	2.01565
94	0xbf196afa	-0.5992886
95	0x3eaa57d5	0.33270136
96	0x3f174311	0.5908671
97	0x3e5c9fed	0.21545382
98	0xbea6bdf2	-0.32566792
99	0x3f580cce	0.8439454
100	0xbf2ec9a9	-0.6827646
101	0x3f1cc140	0.61232376
102	0x3f0f80eb	0.5605609
103	0x3e481a00	0.19541168
104	0x3f92930d	1.1451126
105	0x3d7cfd3b	0.061764937
106	0x3f7658cf	0.9622926
107	0x3f5da986	0.865868
108	0x3fe49027	1.7856492
109	0x3cd4b97d	0.025967354
110	0x3f4c065f	0.7969722
111	0xbf2a4883	-0.66516894
112	0xbdc0f6b3	-0.09422054
113	0x3f9ad8ce	1.2097414
114	0xbd848564	-0.06470755
115	0xbf652f7a	-0.8952557
116	0x3e874da9	0.26426437
117	0xbef36e52	-0.47545105
118	0xbe48fb27	-0.19627057
119	0x3f3f2baa	0.74676
120	0xbecdb7d5	-0.40179315
121	0xbf170feb	-0.59008664
122	0xb98e6702	-0.00027161097
123	0x3f730d9b	0.94942635
124	0x3f5024fb	0.8130643
125	0xbeb55016	-0.35412663
126	0x3dc21b2e	0.0947784
127	0xbd68ebf4	-0.056865647
128	0xbfc666d3	-1.550013
129	0x3e087d97	0.13329159
130	0x3e43e6aa	0.1913096
131	0x3e397e2e	0.1811454
132	0xbefa6647	-0.48906156
133	0x3ea66625	0.32499805
134	0xbd93704b	-0.071991526
135	0x3e70bbf4	0.23509198
136	0x3f509cd9	0.8148933
137	0xbfd6fe06	-1.6796272
138	0xbe9ad9e5	-0.30244365
139	0xbeda0eaf	-0.42589328
140	0xbfdb2a77	-1.7122334
141	0x3dc6e5a3	0.097117685
142	0x3e5a32e5	0.21308477
143	0x3f3706fd	0.7149504
144	0xbf086e84	-0.53293633
145	0x3fb8fc60	1.4452019
146	0xbf829d73	-1.02043
147	0xbf553116	-0.83278024
148	0xbf4aec52	-0.79266846
149	0xbf445d04	-0.7670443
150	0xbe0bf71a	-0.1366848
151	0xbeef2087	-0.46704504
152	0xbf037f86	-0.5136646
153	0x3ea6e191	0.3259397
154	0x3f173ce8	0.5907731
155	0x3e57f8ba	0.21090975
156	0xbe19e151	-0.15027358
157	0x3ebca43f	0.3684406
158	0x3e50b5af	0.20381807
159	0x3f6baf8a	0.92064726
160	0x3f595230	0.84891033
161	0x3fa2be30	1.2714291
162	0xbf4a1547	-0.78938717
163	0xbeca7a26	-0.39546317
164	0x3ec2da31	0.38057092
165	0xbeed06eb	-0.4629434
166	0xbf9e8550	-1.2384434
167	0x3e57462d	0.21022864
168	0x3f376295	0.716348
169	0xbbc658c8	-0.006053064
170	0x3f29f218	0.6638503
171	0xbf1cadd3	-0.61202735
172	0xbfab879d	-1.3400761
173	0xbfc48a90	-1.5354786
174	0xbfb963d8	-1.4483595
175	0x3f124fe2	0.5715314
176	0x3f82fa6c	1.0232673
177	0x3db8c705	0.09022335
178	0x3dc2eb99	0.09517593
179	0x3e310861	0.17288353
180	0x3ed36022	0.4128428
181	0xbfb96d43	-1.4486469
182	0x3f8ccb44	1.0999532
183	0x3f025a84	0.50919366
184	0xbf074c2d	-0.5285061
185	0x3efcddeb	0.4938806
186	0x3d031b31	0.032008354
187	0x3e1b16d5	0.15145428
188	0xbe1ea78c	-0.15493602
189	0xbf5168c7	-0.818005
190	0x3f35b648	0.70981264
191	0xbf0b9046	-0.5451702
192	0x3ed53a54	0.41646063
193	0xbf983162	-1.189007
194	0x3eae1efe	0.3400802
195	0x3f0cd103	0.55006427
196	0xc0073b3c	-2.1129904
197	0xbf974df8	-1.1820669
198	0xbebbfc78	-0.36716056
199	0x3f77aac1	0.96744925
200	0xbf2bc088	-0.67090654
201	0x3fb5aec9	1.4193965
202	0xbf546e9c	-0.82981277
203	0xbe3e3173	-0.18573551
204	0x3f5d0d21	0.8634816
205	0x3dcf7cf7	0.10131257
206	0x3d84f2bc	0.064916104
207	0xbf42f03e	-0.7614783
208	0x3f614bd4	0.8800633
209	0xbf4e43b5	-0.8057206
210	0xbf5711f1	-0.8401175
211	0x3ec7ebc7	0.3904707
212	0xbefa6c02	-0.48910528
213	0xbf1a8d48	-0.6037183
214	0x3f65238e	0.8950738
215	0x3f31463f	0.6924781
216	0xbfc7447d	-1.5567776
217	0x3f606958	0.8766074
218	0x3b81bfc0	0.003959626
219	0x3f3b9906	0.7328037
220	0x3e6615ee	0.22469303
221	0xbf1f43b4	-0.6221268
222	0xbf8ffc25	-1.1248823
223	0xbfa90f23	-1.3207744
224	0x3f4d003b	0.80078477
225	0x3f1d07ea	0.613402
226	0xbe9eb33c	-0.3099612
227	0x3f5827cd	0.8443573
228	0xbf616736	-0.8804811
229	0xbf89003d	-1.0703198
230	0xbe3d86da	-0.18508473
231	0xbec1e452	-0.37869507
232	0xc005d600	-2.0911865
233	0x3e1d7ecd	0.15380402
234	0xbf5d7f05	-0.8652194
235	0x3f93e0a0	1.1552925
236	0x3fbcb4f7	1.4742726
237	0x3f6a7edd	0.9159983
238	0x3fc12d09	1.5091869
239	0x3f8bd4be	1.0924299
240	0x3ec823b4	0.3908974
241	0xbf0e3650	-0.55551624
242	0x3ed33f74	0.41259348
243	0xbea08e3b	-0.31358513
244	0x3f4b6985	0.79457885
245	0x3e6ef620	0.23336077
246	0x3e30f36e	0.17280361
247	0xbf376cfe	-0.71650684
248	0x3ef52e8a	0.4788707
249	0x3ef64383	0.48098382
250	0x3d24b2b1	0.040209476
251	0xc005d245	-2.0909588
252	0xbf63257a	-0.8872906
253	0x3dcdba7d	0.100453354
254	0x3e7dee8c	0.2479803
255	0xbf2cb8c6	-0.6746944

weight f4 [32, 16]
0	0xbe706784	-0.23476988
1	0x3fcb2329	1.5870105
2	0x3edbb64c	0.4291252
3	0xbf56cde9	-0.83907944
4	0xbfb567f8	-1.4172354
5	0x3e877b01	0.26461032
6	0x3f5ed3a1	0.8704167
7	0x3eeeea02	0.4666291
8	0xbe60f4e8	-0.21968424
9	0x3f1ee45e	0.6206721
10	0x3e003707	0.12520991
11	0x3f3f638e	0.74761283
12	0x3ea8955a	0.32926446
13	0xbd562963	-0.052285563
14	0xbf00f0a4	-0.5036719
15	0x3ff7f2cf	1.9370974
16	0x3f5162b7	0.8179125
17	0xbeadfcf3	-0.33982047
18	0x3f521c72	0.82074654
19	0x3fbd52db	1.479091
20	0x3e88da38	0.26728988
21	0xbf564f8c	-0.8371513
22	0xbf98977b	-1.1921228
23	0xbea91f4d	-0.33031693
24	0xbf012c5e	-0.50458324
25	0xbdd40262	-0.10352017
26	0x3efd6e20	0.4949808
27	0x3eaf0f97	0.34191582
28	0x3f29cbd2	0.6632663
29	0x3da9bca9	0.08287937
30	0xbedb5ece	-0.42845768
31	0x3e8cb161	0.2747908
32	0xbd220e7d	-0.0395646
33	0xbfc45580	-1.5338593
34	0xbfeec433	-1.8653625
35	0xbfea17a0	-1.828846
36	0x3de7c61e	0.11317085
37	0xbfa2f188	-1.272996
38	0x3ea899b2	0.3292976
39	0xbf666575	-0.8999856
40	0xbe612c77	-0.21989618
41	0x3f639504	0.88899255
42	0xbef517cd	-0.4786972
43	0xbfa0fd1a	-1.257724
44	0x3f1b296f	0.606101
45	0x3f961b6f	1.1727122
46	0x3eec836a	0.4619401
47	0x3f5be84d	0.8590134
48	0x3f2c1373	0.6721718
49	0x3f890619	1.0704986
50	0xbf8f924d	-1.1216522
51	0xbe2efc58	-0.17088449
52	0x3f3b43cb	0.7315032
53	0xbf7d76ac	-0.99009204
54	0xbf311ebc	-0.6918752
55	0x3fafd8ff	1.3738097
56	0x3f3d61fc	0.7397764
57	0x3f89dea7	1.0771073
58	0xbee682d5	-0.45021692
59	0xbf1f3193	-0.6218502
60	0x3e1dddcb	0.15416639
61	0xbecfe21b	-0.40602192
62	0x3e879a50	0.2648492
63	0xbf0d6aba	-0.55240977
64	0xbf145c7a	-0.5795361
65	0x3ed52716	0.41631383
66	0xbe6f7f16	-0.23388323
67	0xbf2d75d4	-0.67757916
68	0x3f714e75	0.9426034
69	0xbf141a18	-0.57852316
70	0x3f301996	0.6878904
71	0x3e87d276	0.26527756
72	0x4001f371	2.0304835
73	0x3d2408ed	0.040047575
74	0xbf509406	-0.81475866
75	0xbf33c2d9	-0.7021919
76	0xbf3c98a0	-0.7367039
77	0xbfa0ead4	-1.2571664
78	0xbbe3f2ff	-0.0069564576
79	0x3fadba8b	1.3572553
80	0xbf91ee10	-1.1400776
81	0xbf2698d1	-0.6507693
82	0x3e0c1102	0.13678363
83	0xbee9533b	-0.45571312
84	0xbfaad21b	-1.3345369
85	0xbe9c3b69	-0.30514076
86	0x3f1f45e6	0.6221603
87	0x3e222d00	0.15837479
88	0xbf7ebdcc	-0.9950836
89	0xbfcf19d3	-1.6179756
90	0x3f052695	0.52011997
91	0xbebcdc5b	-0.36886868
92	0xbfeb1ef6	-1.8368824
93	0xbf003f69	-0.50096756
94	0xbdf349f7	-0.11879342
95	0x3f2a6ab2	0.66569054
96	0x3df29e5c	0.11846611
97	0xbe39076f	-0.18069242
98	0xbdfa6125	-0.1222556
99	0x3f1d78b2	0.6151229
100	0x3ee8b148	0.45447755
101	0x3f998653	1.1994117
102	0x3f096b97	0.53679794
103	0x3eeca397	0.4621856
104	0xbc9f6570	-0.019457549
105	0x3e79d5c9	0.24397959
106	0x3d7d9222	0.06190694
107	0x3e6dc492	0.23219517
108	0x3f95ca83	1.1702427
109	0x3ea9390f	0.33051345
110	0x3f8d57ca	1.1042416
111	0xbfc4d699	-1.537799
112	0x3eb19134	0.34681094
113	0xbfa6e490	-1.3038502
114	0xbfc4f751	-1.5387975
115	0xbf8ce909	-1.1008617
116	0x3eda69d6	0.4265887
117	0xbf36bf65	-0.71385795
118	0x3e81dbc9	0.25362995
119	0xbe962915	-0.29328218
120	0xbfca865b	-1.5822252
121	0x3f93bd62	1.154217
122	0xbf7b517e	-0.9817122
123	0x3f6da6d2	0.9283267
124	0xbfae3e93	-1.3612846
125	0xbd8c94af	-0.06864297
126	0xbf2aebee	-0.6676625
127	0x3ecb98b7	0.3976495
128	0xbf5a4fc9	-0.8527799
129	0x3f68324b	0.9070174
130	0xbeafd4af	-0.34341952
131	0xbdf8d9a6	-0.12150888
132	0xbf897309	-1.0738231
133	0x40159bad	2.3376267
134	0xbeea2b61	-0.4573622
135	0x3e8d296d	0.27570668
136	0xbf87c9f9	-1.0608512
137	0xbeb89da2	-0.36057764
138	0xbf0739a1	-0.5282231
139	0x3f036cb9	0.5133777
140	0x3fcd345f	1.6031607
141	0x3e7dc0ef	0.2478063
142	0x3eebefec	0.46081483
143	0x3e0c202e	0.1368415
144	0x3e85eab4	0.26155627
145	0xbefd0db5	-0.4942452
146	0xbfb1ecbe	-1.3900373
147	0xbc69b747	-0.014264888
148	0xbeb30ec1	-0.34972194
149	0x3e90f9e1	0.28315642
150	0xbf5383ee	-0.82623184
151	0xbe6cf5c4	-0.23140627
152	0x3fb70fb6	1.430167
153	0x3f666c88	0.90009356
154	0xbf9003cf	-1.1251162
155	0xbfb356cd	-1.4010864
156	0xbf66059b	-0.89852303
157	0x3caa7b20	0.020810664
158	0x3e4a48a2	0.1975427
159	0xbefe6e29	-0.4969342
160	0x3f46c2d2	0.7764102
161	0x3e079dc5	0.13243778
162	0x3fb6c001	1.4277345
163	0x3f3f64c2	0.7476312
164	0xbf58ee13	-0.8473827
165	0xbf2122a9	-0.6294351
166	0xbc0936fe	-0.008374928
167	0x3eb41366	0.3517105
168	0xbee117b5	-0.439634
169	0xbf243c43	-0.6415445
170	0xbfb67e9c	-1.4257388
171	0xbf595598	-0.8489623
172	0x3e3bae12	0.18328121
173	0xbf7476bf	-0.9549369
174	0x3dc57ae8	0.09642583
175	0xbe760963	-0.24027018
176	0x3e1920ab	0.14953868
177	0xbe971b62	-0.2951308
178	0xbe8f778b	-0.28020892
179	0xbf82d8fa	-1.0222466
180	0xc0164b3a	-2.3483415
181	0x3f668b26	0.90056074
182	0xbeeccd21	-0.4625025
183	0x3ed33071	0.41247895
184	0x3d966433	0.0734333
185	0xbcd92ea4	-0.026511498
186	0xbf7611f4	-0.96121144
187	0x3f34230c	0.7036598
188	0xbe797c38	-0.24363792
189	0xbf952299	-1.1651183
190	0xbe874e29	-0.2642682
191	0xbff73e07	-1.9315804
192	0x3f25dc91	0.6478968
193	0x3f01592f	0.5052671
194	0xbf1d0649	-0.61337715
195	0x3e4443db	0.1916651
196	0x3f43a5f6	0.7642511
197	0xbf5348fe	-0.8253325
198	0xbf4b310c	-0.79371715
199	0xbf8de51f	-1.1085547
200	0x3f85e1f5	1.0459582
201	0xbf9c0814	-1.2189965
202	0x3dd5bfd7	0.10436981
203	0xbd53d6fe	-0.051718704
204	0xbf701934	-0.93788457
205	0x3ef82332	0.48464352
206	0x3ce1804b	0.027526995
207	0x3f94ba32	1.1619322
208	0x3e1f58c8	0.15561211
209	0xbf5e77ad	-0.8690136
210	0xbef5ffaf	-0.48046634
211	0x3f269071	0.6506415
212	0xbed99d49	-0.42502812
213	0xbfc2b8bd	-1.5212628
214	0x3fabe2b1	1.3428556
215	0x3f6355cb	0.88802785
216	0x3e7f3141	0.24921133
217	0xbe4f253e	-0.2022905
218	0x3f63646b	0.888251
219	0xbcb6444c	-0.022249363
220	0xbfda2162	-1.7041438
221	0xbdb5c7f3	-0.08876028
222	0xbf004670	-0.5010748
223	0x3e9dc123	0.30811414
224	0xbf192b99	-0.5983215
225	0x3f485f1f	0.78270143
226	0x3f54855c	0.8301599
227	0xbc782dd8	-0.015147649
228	0xbd9c45cf	-0.076305024
229	0xbf58b983	-0.8465807
230	0xbefc43ec	-0.4927057
231	0x3e822306	0.25417346
232	0x3ea3917e	0.3194694
233	0xbfc61074	-1.5473771
234	0xbfc0b07d	-1.505386
235	0x3d7b633c	0.061373934
236	0x3f289881	0.658577
237	0x3f125c0f	0.5717172
238	0x3f974aac	1.1819663
239	0x3e70c801	0.23513795
240	0xbeece81e	-0.4627084
241	0xbda14d34	-0.078760535
242	0x3f58573a	0.845081
243	0x3d328351	0.043582264
244	0x3e8fbab0	0.2807212
245	0xbf8273dc	-1.0191607
246	0xbfa4a75f	-1.2863578
247	0xbf9c0bfe	-1.219116
248	0x3ec1c74d	0.37847367
249	0x3fa5d039	1.295417
250	0xbec9301d	-0.3929452
251	0x3f77d264	0.96805406
252	0xbe366e85	-0.17815597
253	0x3e2c306b	0.16815345
254	0x3fdf9ae6	1.7469146
255	0x3e5e1456	0.21687445

weight f4 [32]
0	0x3fb5f554	1.4215493
1	0x3f90e91e	1.1321142
2	0x3f5e9929	0.86952454
3	0x3fadf7be	1.359123
4	0x3f96b8cf	1.1775149
5	0x3f8cb611	1.0993062
6	0x3f3a0d84	0.72676873
7	0x3fa6176d	1.2975899
8	0x3fa09b9f	1.2547492
9	0x3f92734e	1.1441438
10	0x3f4272bf	0.7595634
11	0x3f8c87a9	1.09789
12	0x3f36e9cd	0.714505
13	0x3f551ae5	0.8324416
14	0x3fa0c41a	1.2559845
15	0x3fa087a7	1.2541398
16	0x3fb9d605	1.4518439
17	0x3fb390f1	1.4028608
18	0x3ee5af9d	0.44860545
19	0x3fea26bf	1.8293074
20	0x3f8805e2	1.0626795
21	0x3f21ad08	0.6315465
22	0x3fca7009	1.581544
23	0x3f16ae38	0.58859587
24	0x3feb2563	1.8370785
25	0x3f97ece0	1.1869164
26	0x3f25ec8c	0.64814067
27	0x3f774c33	0.96600646
28	0x3f2af61f	0.667818
29	0x3f9c8a38	1.2229681
30	0x3ff5bd89	1.9198467
31	0x3f95e7da	1.171138

bias f4 [32]
0	0x3f272732	0.6529418
1	0xbd2306a1	-0.039801244
2	0x3e4580a2	0.19287351
3	0x3f1bf3a6	0.60918653
4	0x3e381b6b	0.17979209
5	0x3e132c2e	0.14372322
6	0x3f1db4ae	0.6160382
7	0x3eb2b90f	0.34906814
8	0xbe996926	-0.29963034
9	0xbcbbc419	-0.022920655
10	0x3e1a382d	0.15060492
11	0xbcfb0658	-0.030642673
12	0xbecc88df	-0.39948174
13	0xbd674689	-0.056463752
14	0x3eece40e	0.46267742
15	0xbea9614f	-0.33082053
16	0x3edc3155	0.43006387
17	0xbf078be2	-0.5294782
18	0xbd926209	-0.07147605
19	0xbdfbf8f4	-0.123033434
20	0x3ed0a77f	0.4075279
21	0x3eaca311	0.3371816
22	0xbebcd784	-0.36883175
23	0x3ec2f36f	0.3807635
24	0xbea5705b	-0.32312283
25	0xbe41a6bd	-0.18911262
26	0xbdf5e7a0	-0.120070696
27	0x3d9f735b	0.07785674
28	0xbcc6463c	-0.024203412
29	0xbe8fa7ec	-0.28057802
30	0x3e4a5c54	0.19761783
31	0x3e9f62c4	0.3113004

running_mean f4 [32]
0	0xbf7e17d3	-0.992551
1	0x3e28e6a6	0.16494235
2	0x3f2bd532	0.67122185
3	0xbfba4b73	-1.4554275
4	0x3f860ddf	1.0472983
5	0x3f6c0dd5	0.92208606
6	0x3fa01cc2	1.2508776
7	0xc050c1d3	-3.26183
8	0x3ecfd507	0.40592214
9	0xbf4e55e8	-0.8059983
10	0xbf1a3025	-0.6022971
11	0x3df4fd95	0.119624294
12	0xbe0563ab	-0.13026302
13	0x3fa6c7e3	1.302975
14	0x3f97d61d	1.1862217
15	0xbeaa7697	-0.33293602
16	0xbfbf2fe7	-1.4936494
17	0x3e8e3894	0.2777754
18	0x3feccb07	1.8499459
19	0xbf3c3cf6	-0.7353052
20	0xbe0df58b	-0.13863198
21	0x3f4c3780	0.79772186
22	0xbf2b4961	-0.6690884
23	0xbc140480	-0.009034276
24	0xbf1f4bab	-0.62224835
25	0x3de17a8d	0.11009703
26	0x3ffc280f	1.9699725
27	0xbe39c563	-0.18141703
28	0x3fa496ab	1.285848
29	0xbe5af812	-0.21383694
30	0x3fc7e114	1.5615563
31	0xc00fd8e7	-2.2476137

running_var f4 [32]
0	0x40414313	3.019719
1	0x416fff61	14.999848
2	0x40827bd8	4.0776176
3	0x4174b0ea	15.293192
4	0x420fd4b5	35.95772
5	0x41b1c25b	22.2199
6	0x4183f131	16.49277
7	0x41eb5b2e	29.419521
8	0x41033f2e	8.202925
9	0x4049f0b8	3.1553173
10	0x4093bf13	4.6170745
11	0x412e3233	10.887256
12	0x408e32a3	4.4436812
13	0x413322a7	11.19596
14	0x415e8830	13.908249
15	0x4083d5aa	4.119832
16	0x413077bf	11.029235
17	0x416cf3a4	14.809483
18	0x40ef8263	7.4846663
19	0x41c87eef	25.06198
20	0x407e08de	3.9692912
21	0x4167ae42	14.480043
22	0x40f272da	7.57652
23	0x40294342	2.64473
24	0x41152cf9	9.32348
25	0x40da2c04	6.817873
26	0x40b4cda5	5.650103
27	0x40a6eb8a	5.2162523
28	0x41a2c25e	20.344906
29	0x412be7ec	10.744122
30	0x417f6d86	15.964239
31	0x41b4ecb0	22.61557

weight f4 [32]
0	0x3f028a55	0.5099233
1	0x3f8946a2	1.072468
2	0x3fac581e	1.3464391
3	0x3f5dff98	0.8671813
4	0x3f48179d	0.7816103
5	0x3f6f40a8	0.9345803
6	0x3f3085a6	0.6895393
7	0x3fd9d92c	1.7019401
8	0x3f4b8627	0.79501575
9	0x3fd9e14f	1.7021884
10	0x3f9e9c3c	1.2391429
11	0x3f97d592	1.1862051
12	0x3f8a867c	1.0822291
13	0x3f675517	0.9036421
14	0x3fc1af13	1.5131553
15	0x3f6889c1	0.90835196
16	0x3f64d51f	0.89387697
17	0x3f66b2d8	0.90116644
18	0x3fc4db99	1.5379516
19	0x3f60a445	0.87750655
20	0x3fdbca50	1.7171116
21	0x3f8d0338	1.1016607
22	0x3f83bc3a	1.0291817
23	0x40179660	2.3685532
24	0x3f9f35cd	1.2438294
25	0x3f9fc4b7	1.2481908
26	0x3fca0488	1.5782633
27	0x3f088878	0.53333235
28	0x3f661570	0.8987646
29	0x3f8dae27	1.1068772
30	0x3f93cb6e	1.1546457
31	0x3f145022	0.5793477

bias f4 [32]
0	0xbeb06086	-0.34448642
1	0x3e5f5c1e	0.21812484
2	0xbe8227f7	-0.25421116
3	0xbec7bf82	-0.39013296
4	0x3ee09279	0.4386175
5	0xbe06ec09	-0.13175978
6	0xbe084dca	-0.13310924
7	0xbe2bd10a	-0.16778961
8	0x3df7be69	0.12096865
9	0xbed5c3cd	-0.41750947
10	0x3f0e7fe4	0.55663896
11	0xbe15ad3c	-0.14616865
12	0x3e6bed75	0.23039801
13	0x3ea3ed5a	0.32017022
14	0x3ecab008	0.39587426
15	0xbe3e4379	-0.18580426
16	0xbf006268	-0.50150156
17	0xbe0103b5	-0.1259907
18	0xbe41ccdf	-0.18925808
19	0xbe727a6b	-0.23679511
20	0xbed195c6	-0.4093458
21	0x3c91c014	0.017791785
22	0xbec62d9f	-0.3870668
23	0x3ddeb5b0	0.10874498
24	0xbe92b6ab	-0.2865499
25	0x3f2149c7	0.630032
26	0xbe27eb71	-0.16398408
27	0x3e688a59	0.22709025
28	0xbd960919	-0.07325954
29	0xbe814d7d	-0.2525443
30	0x3e7d7c3a	0.2475442
31	0x3eb08a15	0.34480348

running_mean f4 [32]
0	0xbf8589a0	-1.0432625
1	0x3f6f9f04	0.93602014
2	0xbfb51189	-1.4145976
3	0xbec3874a	-0.38189155
4	0xbfb5b31e	-1.4195287
5	0x3e4e33fb	0.20137016
6	0x3f5470d3	0.82984656
7	0x3e6aba6f	0.22922681
8	0xbe48d1d7	-0.19611298
9	0xbe1eb963	-0.15500407
10	0x3f711b1d	0.94181997
11	0x3ec24239	0.3794115
12	0xbef394cf	-0.4757447
13	0x3f391359	0.7229515
14	0xbf5c054e	-0.85945594
15	0xbf319ad9	-0.69376904
16	0x3eb08bc9	0.34481648
17	0xbe3062d6	-0.17225203
18	0x400151d8	2.0206203
19	0xbf415a8b	-0.7552878
20	0xbf35eded	-0.7106617
21	0xbe9c05a3	-0.3047305
22	0xbde56082	-0.11200048
23	0xbeed50be	-0.46350664
24	0xbf4eb894	-0.80750394
25	0xbf8d1876	-1.102309
26	0x3f267499	0.65021664
27	0x3fa21bcb	1.2664732
28	0x3f2d035a	0.6758324
29	0xbfb1abd8	-1.3880568
30	0xbe21d4d7	-0.15803848
31	0x3e787b11	0.24265696

running_var f4 [32]
0	0x4082cefd	4.087767
1	0x40b7290b	5.72376
2	0x4090fa64	4.5305653
3	0x40e3bd88	7.116886
4	0x40ae6478	5.4497643
5	0x40949ce2	4.6441507
6	0x40075704	2.114686
7	0x40b14bcf	5.540504
8	0x410cfb6e	8.811384
9	0x40da9dfb	6.8317847
10	0x40101d35	2.2517827
11	0x412fb4d1	10.981645
12	0x407d1308	3.9542866
13	0x4099fd97	4.812206
14	0x404954a4	3.145791
15	0x40d6303e	6.693389
16	0x40a5a706	5.1766386
17	0x40941789	4.627873
18	0x40b0ed33	5.528955
19	0x40e1d785	7.0575585
20	0x40ab056b	5.3444114
21	0x4085d0d3	4.181741
22	0x401fad96	2.4949698
23	0x415a63e6	13.649389
24	0x4113e933	9.244433
25	0x4161f5fd	14.122556
26	0x4106776a	8.404154
27	0x4133425b	11.2037
28	0x4114b939	9.29522
29	0x402aed51	2.6707346
30	0x40b6102c	5.689474
31	0x4091024f	4.531532

weight f4 [32, 16]
0	0xbdc14474	-0.094368845
1	0xbcec8b3f	-0.028874991
2	0xbe901e81	-0.28148273
3	0x3e9791b8	0.29603362
4	0xbf6b4cec	-0.9191425
5	0xbf1fa6a7	-0.62363666
6	0xbeb81285	-0.3595163
7	0xbfb63aee	-1.4236734
8	0x3e92630f	0.285912
9	0xbe8a9650	-0.27067804
10	0xbf86a79b	-1.0519899
11	0x3f890ffb	1.0708002
12	0xbf6d66ce	-0.9273499
13	0x3f9629c9	1.1731502
14	0x3fc96ae4	1.5735745
15	0x3ed87663	0.42277822
16	0xbf340bec	-0.7033069
17	0xbf8df848	-1.1091394
18	0xbf6a9d14	-0.9164593
19	0x3ee66119	0.44995955
20	0x3e903e3d	0.28172484
21	0x3e6dc95e	0.23221347
22	0xbf881d98	-1.0634031
23	0xbf15c1ff	-0.5849914
24	0x3d394876	0.04523512
25	0xbfd2da82	-1.6472933
26	0xbf3b18dd	-0.73084813
27	0x3efaf460	0.49014568
28	0xbd550651	-0.052007977
29	0x3d742c60	0.05961263
30	0xbec4eaf9	-0.3846052
31	0xbfbba7b6	-1.4660556
32	0xbf0ff49c	-0.5623262
33	0x401adaab	2.4195964
34	0xbf5ebaa3	-0.87003535
35	0x3e75e3e6	0.24012718
36	0x3ef00cfa	0.468849
37	0xbe17f653	-0.14840059
38	0xbf151b1a	-0.5824448
39	0xbfbf78f3	-1.4958786
40	0xbe4f4a82	-0.20243266
41	0x3ca1e020	0.019760191
42	0xbf1ce9e6	-0.612944
43	0x3f45fde6	0.77340543
44	0xbf475a1f	-0.7787189
45	0x3f1e905e	0.61939037
46	0x3e065226	0.13117275
47	0xbfa98c37	-1.3245915
48	0xbee703fb	-0.45120224
49	0x3e5a9731	0.21346737
50	0x3f2d8abb	0.6778981
51	0x3f344478	0.70416975
52	0x3ec17bf1	0.37789872
53	0xbf81df42	-1.0146258
54	0xbf362ed4	-0.71165204
55	0xbfb447f1	-1.4084455
56	0x3f5d9a3b	0.8656346
57	0xbe7f059e	-0.24904487
58	0xbdb9ead5	-0.09077994
59	0x3bbbec96	0.0057349904
60	0x3fbeb93b	1.4900278
61	0xbe9f204e	-0.31079334
62	0x3fa70cf6	1.305083
63	0xbedea3a4	-0.43484223
64	0xbffaea11	-1.9602681
65	0x3ed3f8e3	0.41400823
66	0x3f04dce9	0.5189958
67	0xbdb6b62b	-0.089214645
68	0x3fdedc6a	1.7411015
69	0x3e134c97	0.14384685
70	0xbe70bd81	-0.2350979
71	0xbf1cdb15	-0.6127179
72	0xbe85060f	-0.25981185
73	0x3e28a153	0.1646779
74	0xbf00b269	-0.5027223
75	0xbf676e06	-0.9040226
76	0xbf673f1c	-0.9033067
77	0xbec9598f	-0.3932614
78	0x3f4003e8	0.7500596
79	0x3f11ee53	0.5700428
80	0x3f4a6459	0.7905937
81	0x3d8afe2b	0.0678676
82	0xbf0116bc	-0.50425315
83	0xbe1ec592	-0.15505055
84	0x3f4ea863	0.8072569
85	0x3e456e0d	0.19280262
86	0x3eec267a	0.46123105
87	0x3ea05c61	0.3132048
88	0x3f13a937	0.57680076
89	0xbf5e266a	-0.86777365
90	0x3ea89abe	0.3293056
91	0x3e268bf0	0.1626432
92	0xbda063e1	-0.078315504
93	0xbf3ef132	-0.74586785
94	0x3fa032e7	1.2515534
95	0x3f2dfd78	0.6796489
96	0x3ee8e9b6	0.45490807
97	0xbf6c0603	-0.92196673
98	0x3f31a58f	0.6939325
99	0x3f8b7b6b	1.0897039
100	0xbee92a5e	-0.45540136
101	0xbdc05d27	-0.093927674
102	0x3dd054bd	0.101724125
103	0xbe2a8ec9	-0.1665603
104	0x4013b28f	2.3077734
105	0x3e31967d	0.17342563
106	0x3ede47f9	0.43414286
107	0xbede1562	-0.4337569
108	0xbd666a2b	-0.056253593
109	0x3f9f18f8	1.2429495
110	0x3e2c9845	0.16854961
111	0xbecb35b5	-0.39689413
112	0x3ef3ad9a	0.47593385
113	0xbf0f8da2	-0.5607549
114	0xbf2f6d95	-0.68526584
115	0x3e3d8796	0.18508753
116	0xbfac55bf	-1.3463668
117	0x3c533486	0.0128909405
118	0xbeb5c8f1	-0.3550487
119	0xbecd157d	-0.40055457
120	0xbdd78f37	-0.10525363
121	0x3f430e19	0.76193386
122	0x3eeb6bd8	0.45980716
123	0x3fa0f0ff	1.2573546
124	0xbea7d262	-0.32777697
125	0xbd164488	-0.03668645
126	0xbeaed5d5	-0.34147516
127	0xbf40dd5e	-0.7533778
128	0xbf535809	-0.82556206
129	0xbf3a8d69	-0.72872025
130	0xbfdf3065	-1.7436644
131	0x3f59715b	0.8493859
132	0x3f8b7bb7	1.089713
133	0x3f2321b2	0.6372329
134	0xbef82319	-0.48464277
135	0xbf84b745	-1.036843
136	0xbf2b7bb0	-0.6698561
137	0xbfca0efa	-1.578582
138	0x3f6d4e41	0.9269753
139	0x3f901941	1.1257707
140	0x3fc28577	1.519698
141	0xbcda19f3	-0.026623702
142	0x3ed58a49	0.41707066
143	0x3e0fa38f	0.14027236
144	0x3db78318	0.08960551
145	0xbf4c41cb	-0.7978789
146	0x3f9fe9fc	1.2493281
147	0xbf5e6d28	-0.8688531
148	0xbef7c3cc	-0.4839157
149	0xbdd73397	-0.10507887
150	0x3e20d736	0.15707096
151	0x3e95d538	0.29264235
152	0x3f50cfca	0.8156706
153	0x3ebd860a	0.37016326
154	0xbecae002	-0.3962403
155	0xbfab6894	-1.339129
156	0xbf39ed3f	-0.72627634
157	0x3f0e204e	0.55518043
158	0xbfcd96ba	-1.6061623
159	0x3dffcb7b	0.12489983
160	0x3ff0d155	1.8813883
161	0xbf774b40	-0.965992
162	0x3d707489	0.058704887
163	0x3d79c192	0.06097562
164	0xbb9b21db	-0.0047342605
165	0x3d1f3b29	0.03887478
166	0x3f710b77	0.9415812
167	0xbcb14445	-0.021638999
168	0x3f0dbe8e	0.5536889
169	0x3f97ad27	1.1849717
170	0xbf956828	-1.1672411
171	0x3fc9e111	1.577181
172	0xbe9956ba	-0.2994898
173	0x3f5b59e8	0.8568406
174	0xbd15e355	-0.036593754
175	0xbed03d2f	-0.4067168
176	0xbda17a3b	-0.07884642
177	0xbf4a8027	-0.79101795
178	0x3f1af177	0.60524696
179	0xbfc53985	-1.5408179
180	0xbedb07e2	-0.42779452
181	0x3f4fa37e	0.81108844
182	0x3f72bf27	0.94822925
183	0xbf46dbad	-0.7767895
184	0x3ec235b5	0.379316
185	0xbd717993	-0.058953833
186	0x3dbb5410	0.09146893
187	0xbf12dab3	-0.5736496
188	0xbf781c8a	-0.9691855
189	0xbe4c6ec7	-0.19964133
190	0xbd6f3efc	-0.058409676
191	0xbe5d5275	-0.21613486
192	0xbe8ccaec	-0.27498567
193	0x3f06bc87	0.5263142
194	0xbf8a4386	-1.0801857
195	0x3f807ec2	1.0038683
196	0x3f4a9d47	0.79146236
197	0x3d349ca1	0.044094685
198	0xbf195a9a	-0.5990387
199	0xbebd17af	-0.36932132
200	0x3fa39a73	1.2781509
201	0x3fe76d9e	1.8080328
202	0xbe8ed047	-0.27893278
203	0xbf3a335a	-0.72734606
204	0x3f702274	0.9380257
205	0xbfaabcda	-1.3338883
206	0x3d58faa6	0.052973412
207	0xbf8062bb	-1.003013
208	0xbfd39451	-1.6529638
209	0xbeedc755	-0.4644114
210	0x3e80660b	0.25077853
211	0x3bb0949d	0.00538881
212	0xbe3d7789	-0.1850263
213	0x3ef8bc9d	0.485814
214	0x3e056e30	0.13030314
215	0x3f32c0ca	0.6982542
216	0x3f4220dc	0.7583139
217	0xbec667fb	-0.38751206
218	0xbf4a6f0b	-0.7907569
219	0x3f348a20	0.7052326
220	0xbf3078e0	-0.6893444
221	0x3da9bc4f	0.0828787
222	0xbfa164e2	-1.2608912
223	0x3f2080da	0.6269661
224	0x3e3f0157	0.18652855
225	0xbeded76f	-0.43523738
226	0xbf72d8fd	-0.9486235
227	0x3eb900d0	0.36133432
228	0x3f13cfef	0.57739156
229	0x3f9f3c9e	1.2440374
230	0x3f89f454	1.0777688
231	0xbe27473c	-0.16335768
232	0x3f5f8070	0.87305355
233	0xbfa26d23	-1.2689556
234	0x3f223533	0.63362426
235	0x3d351fd3	0.044219803
236	0x3f4646f9	0.77452046
237	0xbe2f5a6e	-0.1712434
238	0x3f99c4a9	1.2013141
239	0x3df463f6	0.119331285
240	0x3eabedd2	0.3357988
241	0xbe87002b	-0.26367316
242	0x3f346443	0.7046549
243	0x3ed3d70f	0.41375014
244	0x3f958d7c	1.1683803
245	0xbf6dee09	-0.9294134
246	0xbf569184	-0.8381579
247	0xbeb274a4	-0.34854615
248	0xbdee52a1	-0.11636854
249	0xbe31446f	-0.17311262
250	0xbea95beb	-0.3307794
251	0xbec99e96	-0.39378804
252	0x3b77ad96	0.0037792674
253	0x3f20dd35	0.62837535
254	0x3ef2d2b7	0.47426388
255	0x3fbf0b92	1.4925406

weight f4 [32]
0	0x3f9ba29d	1.2159001
1	0x3f43b6f8	0.76451063
2	0x3f393752	0.7235004
3	0x3f7a7aaa	0.9784342
4	0x3f54d4ae	0.83137023
5	0x3f606944	0.8766062
6	0x3fbeedf6	1.491637
7	0x3e9d0877	0.3067052
8	0x3f240b62	0.6407987
9	0x3f968830	1.1760311
10	0x3f6515cb	0.8948638
11	0x3f9c51d7	1.2212476
12	0x3f7c613d	0.98585874
13	0x3f812e21	1.0092202
14	0x3f3b5ba9	0.7318674
15	0x3f093946	0.5360302
16	0x3f702ba6	0.938166
17	0x3fa851b8	1.3149939
18	0x3f14c70d	0.5811623
19	0x3f85edb9	1.0463172
20	0x3f4d6b36	0.80241716
21	0x3f9bf288	1.218339
22	0x3fb86bab	1.4407858
23	0x3f8a8327	1.0821275
24	0x3f1c897f	0.611473
25	0x3f8ac51a	1.0841401
26	0x3f96d763	1.1784481
27	0x3f674a6f	0.9034795
28	0x3f1cf976	0.6131815
29	0x3f9b1278	1.2115011
30	0x3ed618bd	0.4181575
31	0x3f6fc1c3	0.9365503

bias f4 [32]
0	0xbe8cf955	-0.27533975
1	0xbd1fe045	-0.03903224
2	0x3dccda55	0.10002581
3	0x3e140835	0.14456256
4	0xbefe82e6	-0.49709243
5	0x3eaea2ef	0.34108683
6	0xbef59541	-0.47965434
7	0xbe653ef1	-0.22387291
8	0xbe47a997	-0.19498287
9	0xbe740953	-0.23831682
10	0xbf1ea4ea	-0.6197039
11	0xbe09e8d2	-0.1346772
12	0x3e21b3e5	0.1579128
13	0xbf036328	-0.51323175
14	0x3e0db206	0.13837442
15	0x3db0c61f	0.086315386
16	0x3eebb075	0.46033064
17	0xbea70ae8	-0.32625508
18	0xbe8233c5	-0.25430122
19	0xbd4011e2	-0.046892054
20	0xbde8f0de	-0.11374067
21	0x3dab5d6b	0.083674274
22	0x3e33fc7f	0.17576788
23	0xbf0fa168	-0.5610566
24	0xbe4be42e	-0.19911262
25	0x3e45f70d	0.19332524
26	0x3e64c4ac	0.2234065
27	0x3e30d7db	0.17269842
28	0x3e955f2a	0.29174167
29	0xbdc761a9	-0.09735424
30	0xbdd9df77	-0.10638326
31	0xbedb1e6d	-0.4279665

running_mean f4 [32]
0	0xbe2bf1fb	-0.16791527
1	0x3f3dbf83	0.7412035
2	0xbedde7a4	-0.4334079
3	0xbea5ec9c	-0.3240708
4	0xbf57d541	-0.84309775
5	0x3f16d43c	0.58917594
6	0x3e667d68	0.22508776
7	0x3eaf3a20	0.34224033
8	0x3faab5fd	1.3336788
9	0xbf8198bd	-1.0124737
10	0x3d0465df	0.032323714
11	0xbedd3dec	-0.43211305
12	0xbf0bf0a9	-0.54664093
13	0xbf678e04	-0.90451074
14	0x3f8f71f9	1.1206657
15	0xbe8b57ae	-0.27215332
16	0xbf1d3bb6	-0.61419237
17	0xbf49fa99	-0.78898007
18	0xbefd31bd	-0.4945201
19	0x3e026d8e	0.12737104
20	0x3e4a26bc	0.19741338
21	0xbe0f619c	-0.14002079
22	0xbf8a7283	-1.0816196
23	0x3aad5c2b	0.0013226321
24	0xbf86d7da	-1.0534623
25	0x3fab5809	1.3386241
26	0x3f8a22bc	1.079185
27	0x3ed57735	0.4169251
28	0x3ec069bb	0.37580666
29	0x3fbb9526	1.4654891
30	0xbe6285a5	-0.22121294
31	0xbe06e4e9	-0.1317326

running_var f4 [32]
0	0x40b3ebf1	5.6225514
1	0x409637a1	4.6942906
2	0x407f0738	3.9848156
3	0x412c631e	10.774199
4	0x41086702	8.525148
5	0x40d4828f	6.6409373
6	0x408855e9	4.260487
7	0x40a61c85	5.1909814
8	0x412200b4	10.125172
9	0x40f0629a	7.5120363
10	0x4097005b	4.7187934
11	0x40e428ae	7.129966
12	0x414c9a30	12.787643
13	0x40a7ed9f	5.2477565
14	0x40dc0f1b	6.876844
15	0x410f2819	8.947289
16	0x40d24672	6.5710993
17	0x40f39480	7.6118774
18	0x410d2b11	8.823014
19	0x409757f6	4.7294874
20	0x405e295f	3.471275
21	0x40188a7a	2.383452
22	0x40b85174	5.759943
23	0x412d6871	10.837998
24	0x4129b000	10.605469
25	0x40bf67c2	5.9814157
26	0x4108394d	8.513989
27	0x4070f2bd	3.7648156
28	0x40f0bab6	7.522792
29	0x409232a2	4.568681
30	0x40b328b8	5.5987206
31	0x40a4df2c	5.1522427

weight f4 [32, 16]
0	0x3d3e6d51	0.04649097
1	0x3e4a7732	0.19772032
2	0xbf4370d6	-0.7634405
3	0x3e5a2bbb	0.21305744
4	0x3f36d901	0.7142487
5	0xbdac5a52	-0.08415665
6	0xbd97d281	-0.07413197
7	0x3f25ed5d	0.6481531
8	0xbebd4999	-0.36970213
9	0x3eafafad	0.34313717
10	0xbf5d0a5b	-0.86343926
11	0x3fb911ea	1.4458592
12	0xbef28075	-0.4736363
13	0x3db9e668	0.0907715
14	0x3d69182d	0.05690782
15	0x3e86eca1	0.2635241
16	0xbd06776e	-0.03282874
17	0xbf049fcd	-0.51806337
18	0xbe8f4a90	-0.27986574
19	0x3c11e6db	0.008905138
20	0xbdf6efaa	-0.12057431
21	0xbeffe202	-0.49977118
22	0xbf1c2525	-0.6099418
23	0xbf551c06	-0.83245885
24	0x3e6a988e	0.22909757
25	0xbf34104c	-0.7033737
26	0xbf63b590	-0.8894892
27	0xbf9b337e	-1.2125089
28	0x3e65ab9e	0.22428748
29	0xbf4c2955	-0.7975057
30	0x3edcec93	0.43149242
31	0xbf709ff9	-0.939941
32	0xbeecb2de	-0.46230215
33	0xbe385bfe	-0.18003842
34	0x3de245ec	0.11048493
35	0x3ec55251	0.38539365
36	0xbe6ebe56	-0.23314795
37	0x3ecd07a1	0.40044883
38	0xbf26cdcf	-0.6515779
39	0xbef87417	-0.4852607
40	0xbc47f135	-0.012203504
41	0x3e8d1938	0.27558303
42	0xbe93b164	-0.28846276
43	0x3e7438e9	0.23849835
44	0x3f08df84	0.5346606
45	0x3f55422b	0.8330409
46	0xbe88369b	-0.2660416
47	0xbdac04fd	-0.08399389
48	0xbe987373	-0.2977558
49	0xbf9aa7b3	-1.2082428
50	0x3e75e7f8	0.2401427
51	0xbf3ef254	-0.74588513
52	0x3e1c7d9b	0.1528229
53	0x3faa1682	1.3288119
54	0x3e26dddf	0.16295575
55	0xbf3183cc	-0.6934173
56	0x3f3d9af9	0.74064595
57	0xc001602c	-2.0214949
58	0xbf0f1137	-0.5588564
59	0x3d4d243c	0.050083384
60	0xbf7bf58a	-0.9842154
61	0xbf5a41aa	-0.85256445
62	0x3fb8d700	1.4440613
63	0x3f13dde7	0.5776047
64	0xbe4fb2b5	-0.20283015
65	0x3f79accd	0.975293
66	0x3f98412a	1.1894886
67	0x3f37c214	0.71780515
68	0xbf6c5f23	-0.9233267
69	0x3e072470	0.13197494
70	0xbf401842	-0.75037014
71	0x3fb438ea	1.4079869
72	0xbdccab50	-0.09993613
73	0x3d563cc1	0.052304033
74	0x3f399210	0.724885
75	0x3caaa4b6	0.020830493
76	0xbdf63b11	-0.12022985
77	0xbf83d3f9	-1.0299064
78	0x3ea906fd	0.33013144
79	0xbeec743c	-0.4618243
80	0x3e955c51	0.29171994
81	0x3eb3ce42	0.351183
82	0x3fda2bd0	1.704462
83	0xbf22549c	-0.63410354
84	0xbe9a1127	-0.3009121
85	0x3ceec949	0.029148715
86	0xbec4d9ff	-0.38447568
87	0x3f3347a9	0.7003122
88	0xbf2a50a1	-0.6652928
89	0x3f64c3a8	0.8936105
90	0x3ea856e2	0.32878786
91	0xbf7f8c15	-0.99823123
92	0x3f417a69	0.7557741
93	0x3fffd880	1.9987946
94	0xbe8dfd43	-0.27732286
95	0x3f5156c4	0.8177302
96	0xbf7f0435	-0.99615794
97	0x3f2c4024	0.6728537
98	0xbf2099e5	-0.62734824
99	0x3c054c09	0.008135804
100	0x3f19f9fa	0.6014706
101	0x3f292940	0.6607857
102	0x3e8ca4ea	0.2746957
103	0x3ff7cbe4	1.9359097
104	0x3fb4e77c	1.4133143
105	0xbec937d1	-0.39300397
106	0x3e170c2a	0.14750734
107	0xbfca6ba0	-1.5814095
108	0xbf4f9dbe	-0.8110007
109	0x3f2f1b8e	0.6840142
110	0x3ef3e461	0.47635177
111	0x3d8ae286	0.06781487
112	0x3f14fdc6	0.5819973
113	0x3fbb8572	1.4650099
114	0x3e8d7b30	0.27633047
115	0x3f0a26fd	0.5396574
116	0xbe952712	-0.2913137
117	0xbf7b1d9a	-0.98092043
118	0xbec67a95	-0.38765398
119	0xbe7d5c0f	-0.24742149
120	0x3fa383e7	1.2774628
121	0xbf375718	-0.7161727
122	0x3f0d72a8	0.55253077
123	0x3d6ae858	0.057350487
124	0x3f63bffa	0.8896481
125	0xbf35bbd2	-0.70989716
126	0xbf68b677	-0.9090342
127	0xbf2a511e	-0.66530025
128	0x3d223a31	0.039606277
129	0x3ec32d9c	0.38120735
130	0x3e78237d	0.24232288
131	0x3f0ba3be	0.54546726
132	0xbea3264c	-0.31865156
133	0xbf5da9dd	-0.86587316
134	0x3f654c36	0.89569414
135	0xbf1ccd55	-0.6125081
136	0x3f45e33b	0.7729985
137	0x3ecd8d51	0.40146878
138	0x3f0f41f7	0.5596003
139	0x3d953501	0.072855
140	0x3ef328d8	0.474921
141	0xbf215c98	-0.6303191
142	0x3eab929b	0.3351029
143	0xbdbf9e1e	-0.0935633
144	0x3f6acf98	0.9172301
145	0xbf0ae293	-0.54251975
146	0xbef8457c	-0.48490512
147	0x3e0ae8fe	0.13565442
148	0x3f09b1e1	0.53787047
149	0x3eb406b1	0.35161355
150	0x3fa64ce9	1.2992221
151	0x400fd3fa	2.247313
152	0xbec39193	-0.38197002
153	0x3f3d0d36	0.73848283
154	0xbf12b672	-0.5730964
155	0xbe49736f	-0.1967294
156	0xbf6cb1e9	-0.9245897
157	0x3f282dbf	0.65694803
158	0x3e4a3b35	0.19749148
159	0x3e6b6c5c	0.22990555
160	0x3f21a3df	0.6314067
161	0x3dcf2e72	0.101162806
162	0xbeaf2c0d	-0.34213296
163	0xbf97846b	-1.1837286
164	0xbea87263	-0.3289977
165	0xbec27d84	-0.37986386
166	0xbf684c42	-0.9074136
167	0x3f516eed	0.81809884
168	0xbe54fb13	-0.20798902
169	0xbf1605a2	-0.58602345
170	0x3f0972ec	0.5369098
171	0x3ebfae44	0.37437642
172	0xbfbec7bb	-1.4904703
173	0x3eac95ee	0.33708137
174	0x3dd6c725	0.104872026
175	0x3e6e98f4	0.23300534
176	0xbec6052c	-0.3867582
177	0x3e532cb0	0.20622516
178	0xbe37ddd8	-0.1795572
179	0xbfa53dd1	-1.290949
180	0x3f387868	0.72058725
181	0xbf57d295	-0.843057
182	0x3eca0f15	0.39464632
183	0xbf127cf4	-0.57221913
184	0xbdaf6a36	-0.0856518
185	0x3fc0fc91	1.5077077
186	0xbc507c88	-0.012725003
187	0xbece87d3	-0.40338
188	0x3eda526c	0.42641008
189	0xbed3fb44	-0.41402638
190	0xbf04f95f	-0.5194301
191	0xbf6003e5	-0.8750594
192	0xbfd7e49e	-1.6866643
193	0x3e4369e6	0.19083366
194	0xbf78f74a	-0.97252333
195	0x3ee05344	0.43813527
196	0xbdffcd07	-0.12490278
197	0x3e0afe41	0.13573553
198	0xbfa2602f	-1.2685603
199	0x3fe5e87a	1.7961571
200	0xbf12f355	-0.57402545
201	0x3f91fecc	1.1405883
202	0xbc7c3189	-0.0153926695
203	0x3b5aaeb3	0.003336829
204	0x3ed1362b	0.4086164
205	0xbfaebf8d	-1.3652207
206	0xbeb3efd2	-0.35143906
207	0x3ee94d9a	0.45567018
208	0x3f2b7973	0.6698219
209	0x3f17391e	0.5907153
210	0xbe49136d	-0.19636317
211	0xbd738921	-0.05945695
212	0xbe6d6cce	-0.23186037
213	0xbf9297dd	-1.1452595
214	0x3df403e4	0.119148046
215	0xbf0287a9	-0.5098825
216	0x3dc1cf4e	0.09463368
217	0xbf8c3737	-1.095435
218	0x3f2b74db	0.6697518
219	0xbdf8f323	-0.1215575
220	0xbedd6e21	-0.43248084
221	0xc004a6a7	-2.0726717
222	0xbf03a4e3	-0.5142347
223	0xbca21fe7	-0.019790603
224	0xbf8b0754	-1.0861611
225	0x3f93cb13	1.1546348
226	0x3e87814d	0.26465836
227	0x3f94c204	1.1621709
228	0xbefb7ede	-0.4912023
229	0x3cd8caff	0.026463984
230	0xbebc9b21	-0.36837104
231	0xbe5ffc11	-0.218735
232	0xbd98f505	-0.07468609
233	0xbe8425ff	-0.2581024
234	0x3eda71fd	0.4266509
235	0xbecbc178	-0.39796042
236	0xbfccc74c	-1.599832
237	0xbf50e70c	-0.8160255
238	0xbf1b172f	-0.6058225
239	0xbe7693c3	-0.24079804
240	0x3eed8961	0.46393874
241	0x3ea7701f	0.3270273
242	0x3e65c0cd	0.22436829
243	0xbf4dda5e	-0.80411327
244	0x3f58727c	0.8454969
245	0x4006b57a	2.1048265
246	0xbf222bb1	-0.6334792
247	0x3d837d60	0.06420398
248	0x3f09294c	0.5357864
249	0xbe846478	-0.25857902
250	0xbf2b9983	-0.67031115
251	0xbeccac26	-0.3997509
252	0xbe8fedf9	-0.28111246
253	0xbf28cebd	-0.6594046
254	0x3f490b27	0.7853264
255	0x3e9c5915	0.30536714

weight f4 [32]
0	0x3f800000	1.0
1	0x3f800000	1.0
2	0x3f800000	1.0
3	0x3f800000	1.0
4	0x3f800000	1.0
5	0x3f800000	1.0
6	0x3f800000	1.0
7	0x3f800000	1.0
8	0x3f3197b7	0.69372123
9	0x3f935682	1.1510775
10	0x3f8fe5fb	1.124206
11	0x3f80f160	1.0073662
12	0x3fc0ed3d	1.5072399
13	0x3f894c5c	1.0726428
14	0x3f2bf94e	0.67177284
15	0x3f872c4d	1.0560395
16	0x3f800000	1.0
17	0x3f800000	1.0
18	0x3f800000	1.0
19	0x3f800000	1.0
20	0x3f800000	1.0
21	0x3f800000	1.0
22	0x3f800000	1.0
23	0x3f800000	1.0
24	0x3f824e1f	1.0180091
25	0x3f5e2b7c	0.867851
26	0x3f95410b	1.1660475
27	0x3f96c130	1.1777706
28	0x3fa45729	1.2839099
29	0x3feaa97a	1.833297
30	0x3dec5c03	0.11540987
31	0x3f2ee78e	0.68322074

bias f4 [32]
0	0x00000000	0.0
1	0x00000000	0.0
2	0x00000000	0.0
3	0x00000000	0.0
4	0x00000000	0.0
5	0x00000000	0.0
6	0x00000000	0.0
7	0x00000000	0.0
8	0xbe8f911c	-0.28040397
9	0x3dec6603	0.11542895
10	0xbde51a5c	-0.11186668
11	0xbe0ff8a3	-0.14059691
12	0x3e755f4e	0.23962137
13	0xbd93b84c	-0.07212886
14	0xbe32f075	-0.1747454
15	0x3e95282d	0.29132214
16	0x00000000	0.0
17	0x00000000	0.0
18	0x00000000	0.0
19	0x00000000	0.0
20	0x00000000	0.0
21	0x00000000	0.0
22	0x00000000	0.0
23	0x00000000	0.0
24	0xbf2dcde4	-0.6789229
25	0x3e89b709	0.26897457
26	0x3e47dc09	0.1951753
27	0x3dbb556b	0.091471516
28	0x3e556e2f	0.20842813
29	0xbe625d8b	-0.22105996
30	0xbe456049	-0.19275011
31	0x3eba68d5	0.36408105

running_mean f4 [32]
0	0xbdf64119	-0.12024135
1	0x3f7c265b	0.98496026
2	0x3d86ed82	0.0658827
3	0x3f7e0e51	0.99240595
4	0x3eef902d	0.46789685
5	0xbf3b9437	-0.7327303
6	0xbe8c1a50	-0.27363825
7	0xbe1a44e7	-0.15065347
8	0xbf14f58f	-0.5818719
9	0xbe192a44	-0.1495753
10	0x3d6bf61d	0.05760776
11	0xbf965a93	-1.1746391
12	0x3e66997f	0.22519492
13	0x3ea69046	0.32531947
14	0x3dac4868	0.08412248
15	0x3f0e0e82	0.5549089
16	0x3e16679f	0.14687966
17	0x3da46e28	0.08028823
18	0xbf8941e1	-1.072323
19	0xbf33dc45	-0.7025798
20	0x3f4b562c	0.7942836
21	0xbeea4707	-0.45757315
22	0x3e19e101	0.15027238
23	0x3f0863e5	0.53277427
24	0x3f845594	1.0338616
25	0xbeaa2d56	-0.33237714
26	0xbed6df2d	-0.41967145
27	0xbf9eaa55	-1.2395731
28	0xbe44cb41	-0.1921816
29	0x3f43c05b	0.76465386
30	0x3ebb93a9	0.36636093
31	0x3e1f9bbc	0.15586752

running_var f4 [32]
0	0x3f9ee161	1.241253
1	0x405a4784	3.410615
2	0x3f412207	0.75442547
3	0x41b5db15	22.731974
4	0x404584c4	3.0862284
5	0x40908493	4.5161834
6	0x4098f70d	4.7801576
7	0x405834f8	3.378233
8	0x409f2edd	4.9744706
9	0x408d64ad	4.4185395
10	0x40f37d9b	7.6090827
11	0x410dd7f6	8.865225
12	0x41178769	9.470559
13	0x408bf5ce	4.3737555
14	0x3fe572e9	1.7925693
15	0x4112f224	9.184116
16	0x404f7234	3.2413454
17	0x4089c672	4.3054743
18	0x407724ab	3.861613
19	0x407ec9fb	3.981078
20	0x3fc83884	1.5642247
21	0x4090d89f	4.526443
22	0x40834e9f	4.1033473
23	0x3fa28c7c	1.2699122
24	0x40d5a8ab	6.6768394
25	0x41408a85	12.033818
26	0x40b10cdd	5.53282
27	0x40a2270c	5.0672665
28	0x40aa512e	5.3224096
29	0x4109b260	8.606049
30	0x4116cf95	9.425679
31	0x4146de20	12.42923

weight f4 [32]
0	0x3f7ed07c	0.9953687
1	0x3f6843e4	0.9072859
2	0x3f86ba0f	1.052553
3	0x3fbd3525	1.4781843
4	0x3fa8ad4a	1.3177884
5	0x3f13ba9f	0.57706636
6	0x3f7e4b22	0.99333394
7	0x3fc96399	1.573352
8	0x3fb4a121	1.4111673
9	0x3fc4fca6	1.5389602
10	0x3f76b90e	0.9637612
11	0x3e615007	0.22003184
12	0x3f6e2884	0.9303057
13	0x3ef1c754	0.47222388
14	0x3f3f7752	0.74791443
15	0x3fa27646	1.2692344
16	0x3f774f5f	0.96605486
17	0x3fa54194	1.2910638
18	0x3f77f214	0.96853757
19	0x3fee440f	1.861452
20	0x3f213072	0.62964547
21	0x3f090381	0.5352097
22	0x3fb5c9ee	1.4202249
23	0x3fa8cca1	1.3187448
24	0x3fa31d05	1.2743231
25	0x3f5eed48	0.8708081
26	0x3e9377cb	0.28802332
27	0x3f861cd2	1.0477545
28	0x3d85221e	0.06500648
29	0x3f6857de	0.90759075
30	0x3f69e93c	0.9137151
31	0x3f993e37	1.1972111

bias f4 [32]
0	0xbee78180	-0.45215988
1	0xbf352f54	-0.7077534
2	0xbee2e61a	-0.4431618
3	0x3f3b6e8d	0.7321556
4	0xbec67dd4	-0.38767874
5	0x3f4ebf26	0.8076042
6	0xbf909705	-1.1296088
7	0xbd54fba0	-0.05199778
8	0xbe7b25a2	-0.24526075
9	0xbd8b08df	-0.067888014
10	0x3d2ca8e5	0.042153258
11	0xbdafd7e0	-0.08586097
12	0x3eaa2ee0	0.33238888
13	0xbdb18df8	-0.086696565
14	0x3dd06656	0.10175769
15	0xbf0856bd	-0.5325735
16	0xbe89c2a8	-0.26906323
17	0x3cf061ff	0.029343603
18	0x3cceea8a	0.025258321
19	0x3f2cb4f7	0.6746363
20	0x3f1f9fb6	0.62353075
21	0xbe70693e	-0.23477647
22	0x3ed9c139	0.4253023
23	0x3e914a99	0.28377226
24	0x3f2484d5	0.64265186
25	0x3f40a96a	0.75258505
26	0x3deeb964	0.11656454
27	0xbf2ec2ba	-0.6826588
28	0x3e1fc85d	0.15603776
29	0xbf20a25a	-0.6274773
30	0xbebcdde1	-0.3688803
31	0x3ebab7b8	0.3646829

running_mean f4 [32]
0	0x3dc5092c	0.0962089
1	0x3e692a8d	0.22770138
2	0x3db5699a	0.088580325
3	0x3d4e63d5	0.050388176
4	0xbddf8d0f	-0.10915577
5	0x3dc54a46	0.09633307
6	0x3d26c2d5	0.04071315
7	0xbe623e65	-0.22094114
8	0x3c005584	0.0078328885
9	0xbd6aa2dd	-0.057284225
10	0xbe82ffb9	-0.25585726
11	0xbe440610	-0.19142938
12	0xbd94b4ef	-0.07261073
13	0x3e6132b6	0.21992001
14	0x3e880778	0.26568198
15	0xbe481e7b	-0.19542877
16	0x3db2463d	0.08704803
17	0xbde2cba2	-0.11073996
18	0x3dea61bb	0.11444422
19	0xbd79510b	-0.060868304
20	0xbd5c9b81	-0.053859238
21	0x3e14d08c	0.1453268
22	0xbc51c69c	-0.0128037
23	0xbe96ce1a	-0.29454118
24	0xbe22ed45	-0.15910824
25	0xbe0fb60a	-0.14034286
26	0x3e490fb0	0.1963489
27	0xbdffb5d1	-0.124858506
28	0x3e143212	0.14472225
29	0xbe7f1f86	-0.24914369
30	0xbd80c66f	-0.06287848
31	0xbe2a0e30	-0.16606975

running_var f4 [32]
0	0x3f0d9115	0.552995
1	0x3f4a77d2	0.7908908
2	0x3e90a95e	0.28254217
3	0x3f2f3b4a	0.6844984
4	0x401e8133	2.4766357
5	0x3f477583	0.77913684
6	0x3ee203d2	0.4414354
7	0x3eff1e86	0.49827975
8	0x3f56bd91	0.83883005
9	0x3e74f32f	0.23920892
10	0x3f5c1fba	0.8598591
11	0x3f93d381	1.1548921
12	0x3eb950fb	0.36194596
13	0x3f32e067	0.6987366
14	0x3efd1d2f	0.49436328
15	0x3f12a044	0.57275796
16	0x3f275cc1	0.65375906
17	0x3f0c4a9f	0.5480136
18	0x3f338686	0.7012714
19	0x400ee6b8	2.232832
20	0x3e8b6eea	0.27233058
21	0x3f3aacc2	0.7291986
22	0x3f77cc4a	0.96796095
23	0x3f2f8722	0.6856557
24	0x3f14054f	0.578206
25	0x3f201ccb	0.62543935
26	0x3ec1e5c2	0.37870604
27	0x3eff82c2	0.49904448
28	0x3f174aec	0.59098697
29	0x3f133114	0.5749676
30	0x3f2b8072	0.66992867
31	0x4006063f	2.0941312

weight f4 [32]
0	0x3f8ffa41	1.1248246
1	0x3f412469	0.7544618
2	0x3f8b31a8	1.0874529
3	0x3fc84e39	1.5648872
4	0x3f83cf0c	1.0297561
5	0x3f99ca4f	1.2014865
6	0x3ed69868	0.41913152
7	0x3f0f4501	0.55964667
8	0x3ec6823e	0.38771242
9	0x3fec9a3a	1.8484566
10	0x3f944e82	1.1586459
11	0x3fb4d304	1.4126897
12	0x3f576265	0.84134513
13	0x3fa6ce02	1.3031619
14	0x3f4f5e1f	0.8100299
15	0x3fc3b48a	1.5289471
16	0x3f04e5de	0.5191325
17	0x3fb9818a	1.4492657
18	0x3faf4787	1.3693703
19	0x3fa128b9	1.2590553
20	0x3f840004	1.0312505
21	0x3ec514d0	0.3849244
22	0x3f5e84a3	0.8692114
23	0x3f0361a5	0.5132087
24	0x3f3dcad1	0.741376
25	0x3fbb6630	1.464056
26	0x3f8ab75e	1.0837209
27	0x3fbcc24f	1.4746798
28	0x3f7e25ce	0.99276435
29	0x3f4a388f	0.7899255
30	0x3ef7c804	0.48394787
31	0x3f090ec3	0.5353815

bias f4 [32]
0	0x3de016ad	0.10941825
1	0xbeda7538	-0.42667556
2	0xbe739a0e	-0.23789236
3	0x3f4b82c4	0.7949641
4	0xbf185c92	-0.5951625
5	0x3f3ae606	0.7300724
6	0xbe61f94e	-0.22067758
7	0x3f06bb78	0.52629805
8	0x3f36fafd	0.7147673
9	0xbebc7065	-0.368045
10	0xbdeef4e1	-0.11667801
11	0xbe3e4e7b	-0.18584625
12	0xbde57c50	-0.11205351
13	0xbceb3b89	-0.028714912
14	0xbf05ac8e	-0.5221642
15	0x3e8bd05b	0.273074
16	0x3f34412c	0.70411944
17	0xbe8182f4	-0.25295222
18	0xbcfb3e89	-0.030669468
19	0x3f439ac6	0.7640804
20	0x3e27df28	0.16393721
21	0x3f57303e	0.84057987
22	0xbf112bee	-0.56707656
23	0xbefc3689	-0.49260357
24	0xbeaa239e	-0.332303
25	0x3f5a626a	0.8530642
26	0xbc9a89f9	-0.018864619
27	0x3e9c3ad6	0.30513638
28	0x3e152f52	0.14568833
29	0x3f120638	0.5704074
30	0x3e6de84a	0.23233142
31	0x3f44f5f8	0.7693782

running_mean f4 [32]
0	0xc014b615	-2.3236134
1	0x3fb4189d	1.4070011
2	0xbf8eee34	-1.1166444
3	0xbf2e3d0a	-0.6806189
4	0xc0191ff5	-2.3925755
5	0xbe738d15	-0.23784287
6	0x3fac2844	1.3449788
7	0xbf39f459	-0.7263847
8	0x3faefc0d	1.367067
9	0x3f53e4ac	0.827708
10	0x3ecd88b9	0.40143374
11	0x3faafa81	1.3357698
12	0xbf0e0f43	-0.5549204
13	0xbf41286a	-0.7545229
14	0xbea6ee55	-0.32603708
15	0x3e1b0c32	0.15141371
16	0xbdba629b	-0.09100839
17	0xbf8f0d69	-1.1175967
18	0x3fac231e	1.3448217
19	0xbf6d3949	-0.92665535
20	0xbfb256b3	-1.3932709
21	0xbfc5690a	-1.542268
22	0x3f8fe9d6	1.1243236
23	0xbf6ceedd	-0.92551976
24	0xbedaa9c2	-0.4270764
25	0xc00ed3d8	-2.23168
26	0x3f6b67eb	0.9195544
27	0xbf13c451	-0.5772143
28	0x3f0a3a18	0.53994894
29	0xbfde4abe	-1.736656
30	0x3ed60765	0.41802517
31	0x3e2f9cfd	0.1714973

running_var f4 [32]
0	0x40771380	3.8605652
1	0x40cc29a6	6.380084
2	0x4122b2d3	10.168658
3	0x40e618ac	7.1905117
4	0x409ce32e	4.902732
5	0x40d538f3	6.663202
6	0x406d3dd9	3.7069
7	0x40d257bc	6.57321
8	0x406719e1	3.6109545
9	0x40a5fb82	5.1869516
10	0x40a98ba2	5.298295
11	0x416220bc	14.132992
12	0x40f37e9b	7.609205
13	0x401cf14d	2.4522278
14	0x40d77572	6.7330866
15	0x40f64133	7.695459
16	0x408ca4c3	4.3951125
17	0x40bb6226	5.855731
18	0x408afe0a	4.3435106
19	0x40fe6040	7.9492493
20	0x414b7509	12.716073
21	0x40785c8a	3.8806481
22	0x402b1079	2.6728804
23	0x418b92b7	17.446638
24	0x412988dc	10.595913
25	0x418d60d9	17.672289
26	0x4149c2ee	12.61009
27	0x40d803e9	6.7504773
28	0x4190456e	18.033901
29	0x409d0586	4.9069242
30	0x40db121b	6.84596
31	0x40556631	3.3343623
