05_Saved_Experiments/2022_08_01 18-38-17 100_runs_train_val_split_custom_loss/models/Model_run58_train_val_split0.6_alcalinity_of_ash.pt (torch, 271585 bytes, 318 tensors)

weight f4 [12]
0	0x3f800000	1.0
1	0x3f800000	1.0
2	0x3f800000	1.0
3	0x3f800000	1.0
4	0x3f800000	1.0
5	0x3f800000	1.0
6	0x3f800000	1.0
7	0x3f800000	1.0
8	0x3f800000	1.0
9	0x3f800000	1.0
10	0x3f800000	1.0
11	0x3f800000	1.0

bias f4 [12]
0	0x00000000	0.0
1	0x00000000	0.0
2	0x00000000	0.0
3	0x00000000	0.0
4	0x00000000	0.0
5	0x00000000	0.0
6	0x00000000	0.0
7	0x00000000	0.0
8	0x00000000	0.0
9	0x00000000	0.0
10	0x00000000	0.0
11	0x00000000	0.0

running_mean f4 [12]
0	0x00000000	0.0
1	0x00000000	0.0
2	0x00000000	0.0
3	0x00000000	0.0
4	0x00000000	0.0
5	0x00000000	0.0
6	0x00000000	0.0
7	0x00000000	0.0
8	0x00000000	0.0
9	0x00000000	0.0
10	0x00000000	0.0
11	0x00000000	0.0

running_var f4 [12]
0	0x3f800000	1.0
1	0x3f800000	1.0
2	0x3f800000	1.0
3	0x3f800000	1.0
4	0x3f800000	1.0
5	0x3f800000	1.0
6	0x3f800000	1.0
7	0x3f800000	1.0
8	0x3f800000	1.0
9	0x3f800000	1.0
10	0x3f800000	1.0
11	0x3f800000	1.0

weight f4 [12]
0	0x3f7f3e70	0.9970465
1	0x3f862f87	1.0483254
2	0x3f6c13c1	0.9221764
3	0x3fc2e39a	1.5225708
4	0x3f490e0d	0.78537065
5	0x3f4ea4d6	0.8072027
6	0x3f83de6c	1.0302253
7	0x3fa7cf92	1.311022
8	0x3f44e0e5	0.7690566
9	0x3f925c0c	1.143434
10	0x3f45ea8d	0.7731102
11	0x3f93951d	1.1529881

bias f4 [12]
0	0x3efdd89e	0.49579328
1	0xbeb60897	-0.3555343
2	0xbe658a12	-0.22415951
3	0xbe7ad2f3	-0.24494533
4	0x3dc8c8fe	0.09803961
5	0xbdfd5098	-0.12368888
6	0xbeb1dfd4	-0.3474108
7	0xbe022bb6	-0.12711987
8	0x3efa7be5	0.4892265
9	0xbf7555d4	-0.9583409
10	0xbf2eed35	-0.683307
11	0xbcac3d5f	-0.021025358

running_mean f4 [12]
0	0x4095a30f	4.6761546
1	0x3f131600	0.57455444
2	0x3dff66ad	0.12470756
3	0x3f5ae97a	0.85512507
4	0x3f46235f	0.7739772
5	0x3f5a6d7c	0.8532331
6	0x420e1d4e	35.528618
7	0x438c55ff	280.67184
8	0x3f73b375	0.95195705
9	0x3feeda18	1.8660307
10	0x3eb23f38	0.34813857
11	0x3f504454	0.8135426

running_var f4 [12]
0	0x3f5d2a51	0.86392695
1	0x3f3dbd99	0.7411743
2	0x3f25ffc2	0.6484338
3	0x3f484dbd	0.7824362
4	0x3f7e5035	0.99341136
5	0x3f2bfc79	0.6718212
6	0x42823033	65.09414
7	0x471bbf3b	39871.23
8	0x3f5087f1	0.8145743
9	0x4030a587	2.760103
10	0x3f29198a	0.66054595
11	0x3f8b8978	1.0901327

weight f4 [32, 12]
0	0x3de0c747	0.10975509
1	0x3e515521	0.2044263
2	0x3fa08bbf	1.2542647
3	0x3d7cd8bb	0.061730128
4	0xbf170a58	-0.5900016
5	0x3e890857	0.26764175
6	0xbe9c43b7	-0.30520412
7	0xbf5b5b27	-0.8568596
8	0x3e0f17db	0.13973944
9	0x3fcf6360	1.6202202
10	0xbfaa8948	-1.3323145
11	0x3d44023b	0.04785369
12	0x3f1ccf5b	0.612539
13	0x3d4b736d	0.049670625
14	0x3f8bd84a	1.0925381
15	0x3ed7bc5f	0.42135903
16	0xbf0578fe	-0.52137744
17	0x3e6d67cf	0.23184131
18	0x3f5ebe70	0.87009335
19	0x3ec451d8	0.38343692
20	0x3ed0e640	0.40800667
21	0x3f3dc4fe	0.7412871
22	0xbfd3145f	-1.6490592
23	0x3cca8d75	0.024725655
24	0xbdbd37c8	-0.09239155
25	0x3f37c071	0.7177802
26	0xbea202da	-0.316428
27	0x3ee50e61	0.44737533
28	0x3f118d4d	0.5685623
29	0xc0045974	-2.0679598
30	0xbe391728	-0.1807524
31	0xbdfa0548	-0.122080386
32	0x3f087b16	0.53312814
33	0x3f5b0388	0.85552263
34	0x3ed32c08	0.4124453
35	0xbfa6979a	-1.3015015
36	0x3fda5328	1.7056627
37	0x3ecfcb3c	0.40584743
38	0x3e674cde	0.22587916
39	0xbefc4e9b	-0.4927872
40	0xbf898c8c	-1.0746017
41	0x3e512572	0.2042444
42	0x3f0b6f17	0.54466385
43	0x3f71b772	0.9442054
44	0x3f7a9bb3	0.9789383
45	0x3f3c72e4	0.7361281
46	0x3e76f420	0.24116564
47	0x3e38217b	0.17981522
48	0xbfa465e8	-1.2843599
49	0x3fcf7a1c	1.620914
50	0xbde28e08	-0.110622466
51	0x3e90d576	0.28287858
52	0x3ec59537	0.38590404
53	0x3efd52b6	0.49477166
54	0x3cc7052b	0.024294456
55	0x400745b8	2.1136303
56	0xbd2f892a	-0.04285542
57	0x3d9c8896	0.07643239
58	0x402bcb3b	2.6842792
59	0x3fa6020a	1.2969372
60	0xbf9b7d79	-1.2147666
61	0x3fa5bef7	1.2948903
62	0xbf0ba967	-0.5455536
63	0xbea7c38b	-0.32766375
64	0xbf62bd6c	-0.88570285
65	0x3e8b56fd	0.27214804
66	0xbf5550c4	-0.83326364
67	0xbf47f6c2	-0.781109
68	0xbeeb1787	-0.45916387
69	0xbf1134cc	-0.56721187
70	0xbf59603a	-0.84912455
71	0xbf86e514	-1.0538659
72	0xbf7b2c87	-0.9811482
73	0xbf015d60	-0.50533104
74	0x3e3bda83	0.18345074
75	0xbf022857	-0.50842804
76	0x3e8a5f21	0.27025703
77	0xbfefb952	-1.872843
78	0xbf75791a	-0.9588791
79	0xbed85cbf	-0.4225826
80	0xbb915b31	-0.0044359197
81	0xbfa295be	-1.2701948
82	0xbf0dda14	-0.55410886
83	0xbec0e07f	-0.37671277
84	0xbc8a6100	-0.016891956
85	0xbe2ebc2b	-0.17063968
86	0x3e0fb43f	0.14033602
87	0xbf89afb2	-1.0756743
88	0x3f7826ad	0.96934015
89	0x3fdccb93	1.7249626
90	0x3fc25dfb	1.518493
91	0xbea904ab	-0.33011374
92	0x3f12da1a	0.57364047
93	0x3ffb7aff	1.964691
94	0xbf71fbc6	-0.945248
95	0x3f3914e0	0.7229748
96	0x3fae8139	1.3633186
97	0xbddb198d	-0.10698233
98	0xbcdeef72	-0.027213786
99	0x3f03af9b	0.5143983
100	0xbe8c3704	-0.27385724
101	0x3f7e8096	0.99414957
102	0x3f0d99a9	0.5531259
103	0x3f6dc9e7	0.92886204
104	0x3df76bee	0.12081133
105	0x3f79c4e2	0.97566044
106	0x3f42f443	0.76153964
107	0x3ee960ba	0.4558161
108	0x3f663a73	0.89932936
109	0xbeea0e87	-0.45714208
110	0x3da5d752	0.0809771
111	0xbfb0022a	-1.375066
112	0xbdeaecdd	-0.11470959
113	0x3f276f0f	0.65403837
114	0x3f0aa135	0.5415223
115	0xbfa479ae	-1.2849634
116	0xbe9c34ce	-0.30509037
117	0xbf11b413	-0.56915396
118	0xbe806c04	-0.2508241
119	0x3f34a736	0.70567644
120	0xbdb4af85	-0.0882254
121	0xbd10b4e4	-0.03532876
122	0x3e8bfe01	0.27342227
123	0x3fb7a8b9	1.4348365
124	0x3e9b5096	0.3033492
125	0xbf01c9d1	-0.5069857
126	0xbf2adba8	-0.6674142
127	0xbf3712ab	-0.7151286
128	0xbf2cb07a	-0.6745678
129	0xbe08c2ba	-0.13355532
130	0x3f222f7b	0.633537
131	0x3e808ee5	0.2510902
132	0x3be043cb	0.006844019
133	0xbef5ba1e	-0.4799356
134	0xbf3681ce	-0.71291816
135	0xbf7e4373	-0.9932167
136	0x3f7726c9	0.96543556
137	0xbed35c5f	-0.4128141
138	0x3d9dc3c4	0.07703355
139	0xbf80ef92	-1.0073111
140	0xbfb4cc03	-1.412476
141	0x3d16ede0	0.03684795
142	0x3bf8dbd0	0.007594563
143	0x3f63b873	0.8895332
144	0xbe8c8093	-0.27441844
145	0x3ee7d507	0.45279714
146	0xbff36ef3	-1.9018234
147	0xbfb1f655	-1.39033
148	0xbe868652	-0.26274353
149	0xbf362a7f	-0.71158594
150	0xbcbf76b7	-0.023372037
151	0xbe261977	-0.16220652
152	0xbf019963	-0.50624675
153	0x3f79c5e2	0.9756757
154	0x3efca869	0.49347237
155	0x3e30e702	0.17275622
156	0xbebf4ec3	-0.37364778
157	0x3f3f5c1b	0.74749917
158	0x3f04c462	0.51862156
159	0x3f4c5bd5	0.79827625
160	0x3f874f95	1.0571162
161	0x3eb8e197	0.3610961
162	0xbf6f71d2	-0.9353305
163	0x3edf202a	0.43579227
164	0x3f8e50ea	1.1118443
165	0xbf2f4eb5	-0.6847947
166	0xbf2c328c	-0.6726463
167	0x3eae0f5d	0.33996096
168	0x3ebeb65d	0.37248507
169	0xbeebaa87	-0.4602854
170	0x3f83d20d	1.0298477
171	0xbf1896e0	-0.59605217
172	0xbff8f6c3	-1.9450306
173	0xbf148501	-0.5801545
174	0xbf93fc92	-1.1561453
175	0x3e7da29b	0.2476906
176	0xbdd6d887	-0.10490518
177	0x3f3ded05	0.7418979
178	0xbced9167	-0.028999997
179	0xbf3ad489	-0.7298055
180	0x3d154818	0.036445707
181	0xbf66ef51	-0.9020892
182	0x3e8f4955	0.27985635
183	0x3f74f638	0.956882
184	0xbe0e082a	-0.13870302
185	0x3f35d326	0.7102531
186	0xbe1d4259	-0.15357341
187	0x3edfd169	0.43714455
188	0xbd3cff32	-0.04614181
189	0xbf50f08f	-0.81617063
190	0x3f353379	0.70781666
191	0xbf8a5038	-1.0805731
192	0x3ea0be12	0.31395012
193	0xbea60348	-0.32424378
194	0x3f147cb3	0.58002776
195	0x3ec51634	0.38493502
196	0xbffb5993	-1.9636711
197	0xbf19082d	-0.597781
198	0x3d3c949e	0.04604017
199	0x3fd6371e	1.673557
200	0xbe4404f4	-0.19142514
201	0x3fc6eb0f	1.5540484
202	0xbf74f1c8	-0.9568143
203	0xbedc32db	-0.4300755
204	0x3f8c6e2d	1.0971123
205	0x3eb96327	0.3620846
206	0xbf45c571	-0.77254397
207	0xbf176713	-0.59141654
208	0x3da4ac51	0.08040679
209	0xbf51c1d2	-0.8193637
210	0xbea96898	-0.3308761
211	0xbef02646	-0.469042
212	0xbf59c137	-0.8506045
213	0xbfbac718	-1.4592009
214	0x3e58da0e	0.21176931
215	0xbd932618	-0.07185
216	0xbfb7f84f	-1.4372653
217	0x3f7f306d	0.99683267
218	0x3d0202c5	0.031740922
219	0x3f6ba5de	0.9204997
220	0x3ea23f4a	0.3168891
221	0xbee37dd3	-0.44431934
222	0xbddc8e27	-0.10769301
223	0xbf8325d3	-1.0245918
224	0x3f793f50	0.9736223
225	0x3f8dfdf5	1.1093127
226	0x3e94942f	0.29019305
227	0x3f924bb7	1.1429356
228	0xbf8db6f6	-1.107146
229	0x3e054251	0.13013579
230	0xbefdceea	-0.49571925
231	0xbe96d136	-0.2945649
232	0xbfa6be59	-1.302684
233	0x3f0eac7f	0.5573196
234	0xbf9aa092	-1.2080252
235	0x3f67e82b	0.90588635
236	0x3fe47626	1.7848556
237	0x3f8e7698	1.1129942
238	0x3eb3893b	0.35065636
239	0x3eb0efe2	0.34558016
240	0xbefd95f1	-0.4952846
241	0x3ecf7272	0.40517002
242	0x3fd1e84b	1.6399015
243	0x3eacf90c	0.33783758
244	0x3e6e1aac	0.23252362
245	0x3d9827f7	0.07429498
246	0xbe0376c5	-0.12838276
247	0xbf0e87c2	-0.556759
248	0xbded9383	-0.11600401
249	0xbdc56a49	-0.09639413
250	0x3da02b44	0.07820752
251	0xbfe9e793	-1.8273796
252	0xbfc7963f	-1.5592726
253	0x3eafe0d8	0.3435123
254	0x3e44765b	0.19185774
255	0xbf122cbf	-0.5709953

weight f4 [32, 16]
0	0xbec99964	-0.3937484
1	0x3fab101c	1.3364291
2	0x3f234a87	0.63785595
3	0xbf83ccb6	-1.0296848
4	0xbfe6ddde	-1.8036458
5	0x3ed141c3	0.40870485
6	0x3f74f1cb	0.95681447
7	0x3de7426d	0.112919666
8	0xbf122a29	-0.5709558
9	0xbd7932c0	-0.060839415
10	0x3edafbec	0.42770326
11	0x3defe368	0.11713296
12	0x3f09e97b	0.5387189
13	0xbe32d4e9	-0.17464031
14	0xbded6193	-0.115908764
15	0x3fc253ec	1.5181861
16	0x3ef639ef	0.48091075
17	0xbe28088c	-0.1640951
18	0x3f9b82e9	1.2149326
19	0x3fc9817e	1.5742643
20	0x3e2e68dc	0.17032188
21	0xbf716645	-0.94296676
22	0xbeff9870	-0.49920988
23	0xbdd4376b	-0.10362133
24	0x3dd41677	0.10355847
25	0xbeacc6d3	-0.3374544
26	0xbe78b81f	-0.24288987
27	0x3f488512	0.7832805
28	0x3ea2dcda	0.3180912
29	0x3e914e19	0.28379896
30	0xbf22aa49	-0.63541085
31	0xbdc5af85	-0.09652618
32	0xbf459fb5	-0.7719682
33	0xbf7115bc	-0.9417379
34	0xbfb72933	-1.4309448
35	0xbfe6295b	-1.7981371
36	0x3f04ed1a	0.5192429
37	0xbfa2f11c	-1.2729831
38	0x3e9a5d82	0.30149466
39	0xbf5c308c	-0.86011577
40	0x3ed6b2d4	0.4193331
41	0x3d91fd86	0.07128434
42	0xbf6d7419	-0.92755276
43	0xc0078e0e	-2.1180453
44	0x3f273bd7	0.65325683
45	0x3f314219	0.6924148
46	0x3f667589	0.90023094
47	0x3f29b167	0.6628632
48	0xbd95eca9	-0.0732053
49	0x3f902b4b	1.1263212
50	0xbf766b0c	-0.9625709
51	0x3e3486da	0.17629567
52	0x3f80507b	1.0024561
53	0xbf2a67ab	-0.66564435
54	0xbf524560	-0.8213711
55	0x3f7430c3	0.95386904
56	0x3f9164db	1.1358904
57	0x3d78f5ee	0.06078141
58	0xbf9d8e66	-1.2309082
59	0xbe3aa8c8	-0.18228447
60	0x3d1c642c	0.03818147
61	0x3db0c0c8	0.0863052
62	0x3eb94f5a	0.36193353
63	0xbeca2d38	-0.39487624
64	0x3f2f3d15	0.6845258
65	0x3d2d93ae	0.042377166
66	0xbe867c16	-0.26266545
67	0xbe1fb731	-0.15597226
68	0x3ea85d24	0.3288356
69	0xbf00febb	-0.5038869
70	0x3d6c7e4d	0.057737637
71	0x3fb2f111	1.3979818
72	0x3fde89bf	1.7385787
73	0xbf1a48b3	-0.6026718
74	0xbf8d73da	-1.105098
75	0xbf15bd5f	-0.5849208
76	0x3ba6288a	0.0050707506
77	0xbfb3482c	-1.40064
78	0xbf08381b	-0.5321061
79	0x3f925bbf	1.1434249
80	0xbf28a2ba	-0.658733
81	0xbed85646	-0.4225332
82	0x3e514604	0.20436865
83	0xbe2cba7e	-0.16868016
84	0xbf9d92f1	-1.2310468
85	0xbe1c475a	-0.15261593
86	0x3f09ed3a	0.53877604
87	0xbf015ed5	-0.5053533
88	0xbf7caedb	-0.9870431
89	0xbfa3aa15	-1.278628
90	0x3f28f7c3	0.66003054
91	0xbf86a95b	-1.0520433
92	0xc02329d5	-2.5494282
93	0x3e98f849	0.29876927
94	0xbe8bb38f	-0.2728543
95	0x3f1c5c6b	0.6107852
96	0xbea37607	-0.31925985
97	0xbe63c06b	-0.2224137
98	0x3e46d037	0.19415365
99	0x3fa88e9a	1.3168519
100	0xbd6a8aa5	-0.057261128
101	0x3f0be1f8	0.54641676
102	0x3f4bc7f0	0.79601955
103	0x3e3b5046	0.1829234
104	0xbec2bf31	-0.38036492
105	0x3ec43beb	0.38326964
106	0x3ec23065	0.37927547
107	0x3ea1e1bc	0.31617534
108	0x3f37f6cb	0.7186095
109	0xbf048411	-0.5176402
110	0x3fdec904	1.7405095
111	0xbf82b691	-1.0211965
112	0x3ed3e964	0.41389
113	0xbf73e813	-0.9527599
114	0xbfcb46c7	-1.5880975
115	0xbfc84bd4	-1.5648141
116	0x3f52a381	0.8228074
117	0x3ce2685b	0.027637651
118	0x3ec5d9df	0.38642785
119	0xbe6484f3	-0.22316341
120	0xbff7011f	-1.9297217
121	0x3f2e01ab	0.67971295
122	0xbf6c73ca	-0.9236418
123	0x3f319638	0.6936984
124	0xbf3e75ec	-0.74398685
125	0x3eff490e	0.49860424
126	0xbe7b0c96	-0.2451652
127	0xbf1d8e50	-0.61545277
128	0xbeed4020	-0.46337986
129	0x3f47e96a	0.78090537
130	0xbf43f571	-0.7654639
131	0x3e541b5c	0.20713562
132	0xbfa6a8be	-1.3020246
133	0x3fd0829f	1.6289862
134	0xbf8f6815	-1.1203638
135	0x3f2acbf3	0.6671745
136	0xbf3c8511	-0.73640543
137	0xbe4a57d5	-0.19760068
138	0xbf035323	-0.5129873
139	0x3f3dc3ec	0.7412708
140	0x3f8d8846	1.1057212
141	0xbeb029c1	-0.34406856
142	0x3efe8e9c	0.49718177
143	0x3e0f9c0f	0.14024375
144	0xbf47d97f	-0.7806625
145	0xbe9c079c	-0.30474555
146	0xc002c47a	-2.043242
147	0xbf086998	-0.53286123
148	0xbf72aa4b	-0.94791096
149	0x3f65036a	0.89458334
150	0xbf0bb9a1	-0.5458012
151	0xbf0b0d1e	-0.5431689
152	0x3e7c355e	0.24629733
153	0x3efaf5c3	0.49015626
154	0xbf336430	-0.7007475
155	0xbea62c7e	-0.3245582
156	0xbc15f3a6	-0.009152329
157	0xbf041988	-0.5160146
158	0x3f4e9447	0.80695003
159	0xbecfbc0e	-0.40573162
160	0x3e806f79	0.25085047
161	0xbebf10df	-0.3731756
162	0x3f84cbb3	1.0374664
163	0x3df7ebd7	0.1210553
164	0xbedfa738	-0.43682265
165	0x3d8012c2	0.06253578
166	0x3e4ad6af	0.19808458
167	0xbe98fd0f	-0.29880568
168	0xbf23eedc	-0.64036345
169	0xbfc2a3e8	-1.520627
170	0xbf9d8ba3	-1.2308239
171	0xbfae553f	-1.3619765
172	0x3c249eb8	0.010047607
173	0xbe15e3e9	-0.14637722
174	0x3f2dc3dc	0.6787698
175	0x3f02d815	0.51110965
176	0x3eca9984	0.39570248
177	0x3eb8113d	0.35950652
178	0xbf483f18	-0.78221273
179	0xbdf91d03	-0.12163737
180	0xc0077533	-2.1165283
181	0x3e181577	0.14851938
182	0xbf4ff658	-0.81235266
183	0x3fb0a400	1.3800049
184	0x3eafa39a	0.34304506
185	0x3f0f6669	0.5601564
186	0xbfe58a7d	-1.7932888
187	0x3e4a9b0b	0.19785707
188	0xbf4bf539	-0.79671055
189	0xbef6b71e	-0.48186582
190	0xbe1bd9eb	-0.15219848
191	0xbfa09659	-1.2545882
192	0xbef308eb	-0.4746774
193	0x3e663e7d	0.22484775
194	0xbef56048	-0.4792502
195	0x3d20dfa8	0.039275795
196	0x3f86376d	1.0485665
197	0xbf2d0b21	-0.67595106
198	0xbf7035b1	-0.93831927
199	0xbf604fce	-0.8762177
200	0x3f7d0dae	0.98849
201	0xbfa024b7	-1.2511204
202	0xbf2d1067	-0.67603153
203	0x3e64619d	0.22302862
204	0xbe196ef0	-0.14983726
205	0x3f8c4123	1.0957378
206	0x3dddc7ee	0.10829149
207	0x3f60148f	0.8753137
208	0xbd6168d8	-0.055031627
209	0xbfbb4fbb	-1.4633707
210	0x3f0b6423	0.5444967
211	0x3f44fcbe	0.76948154
212	0x3e7f2b66	0.24918899
213	0xbfde2e1b	-1.735782
214	0x3f8f3825	1.1189009
215	0x3ea2578c	0.31707418
216	0x3e8e90be	0.27844805
217	0xbf01eee8	-0.50755167
218	0x3f8bc922	1.0920756
219	0xbf53cd86	-0.8273548
220	0xbf9ff18d	-1.249559
221	0xbcb22a5e	-0.021748718
222	0x3e5b1a2f	0.21396707
223	0x3e20f2e1	0.15717651
224	0xbe5d4183	-0.21607022
225	0x3f198d43	0.59981173
226	0x3d93ff88	0.07226473
227	0xbed0429c	-0.4067582
228	0xbd7b7328	-0.06138912
229	0xbebe964c	-0.37224042
230	0xbf4d9ff3	-0.8032219
231	0x3d0cd2a8	0.034380585
232	0x3dfc5e04	0.123226196
233	0xbfd31799	-1.6491576
234	0xbf93185f	-1.1491812
235	0x3c915023	0.017738407
236	0x3d994aff	0.074850075
237	0x3fe1ba50	1.7634983
238	0x3f0c36a4	0.54770875
239	0x3f0eca6a	0.5577761
240	0xbf37e0e5	-0.71827537
241	0xbf0232e0	-0.5085888
242	0x3f3bcf7b	0.73363465
243	0xbeb6bd2f	-0.3569121
244	0xbed2e8a8	-0.41193128
245	0xbeed9b65	-0.4640762
246	0xbf96a809	-1.177003
247	0xbf903a7e	-1.126785
248	0xb80018d7	-3.0540712e-05
249	0x3fce9f15	1.6142298
250	0x3eaf9af2	0.342979
251	0x3f9aece7	1.2103547
252	0x3f90813a	1.1289437
253	0xbef67125	-0.48133197
254	0x3fc6d36f	1.5533274
255	0xbe9f6171	-0.3112903

weight f4 [32]
0	0x3f5e4ef9	0.8683925
1	0x3f6739b5	0.9032243
2	0x3f50067e	0.81259906
3	0x3fb15f7a	1.3857262
4	0x3fa35df8	1.2763052
5	0x3f4d9927	0.80311817
6	0x3fafbd01	1.3729554
7	0x3f3e3c3f	0.7431068
8	0x3f1fac7e	0.6237258
9	0x3f895776	1.0729816
10	0x3f8ca483	1.0987705
11	0x3f6c75fa	0.9236752
12	0x3fc49a63	1.5359615
13	0x3f24c51c	0.64363265
14	0x3f9bcfe0	1.2172813
15	0x3f98e682	1.1945345
16	0x3ef5a2db	0.4797581
17	0x3fbe1392	1.4849722
18	0x3f5c89ca	0.8614775
19	0x3f3422b0	0.7036543
20	0x3fc6e675	1.553908
21	0x3fab896f	1.3401316
22	0x3faf8310	1.3711872
23	0x3f09da4f	0.5384874
24	0x3f82d7d1	1.0222112
25	0x3f3ac962	0.72963536
26	0x3fc17f7b	1.5117029
27	0x3f92503e	1.1430738
28	0x3f8c2409	1.0948497
29	0x3f1d0a5d	0.6134394
30	0x3fc0337d	1.5015713
31	0x3f98c756	1.1935833

bias f4 [32]
0	0xbddd32d5	-0.10800711
1	0x3d1a047d	0.037601937
2	0xbd2bc409	-0.041935
3	0xbed32317	-0.4123771
4	0x3ac5f9fb	0.0015104407
5	0xbe91f203	-0.28504953
6	0x3da21c4a	0.07915552
7	0x3e90f28d	0.28310052
8	0x3ef1c277	0.47218677
9	0xbe9710eb	-0.29505095
10	0x3d784c63	0.060619723
11	0xbd6129d0	-0.054971516
12	0xbf187327	-0.5955071
13	0x3d12ee86	0.035872005
14	0x3eba1159	0.3634136
15	0xbed8b397	-0.42324516
16	0x3e06a08b	0.1314718
17	0xbebbeece	-0.3670563
18	0xbda6de22	-0.08147837
19	0x3eaf94cf	0.3429322
20	0xbbd992ff	-0.0066398378
21	0xbe80f012	-0.2518316
22	0x3e80c5b7	0.25150844
23	0xbda486af	-0.08033501
24	0xbef30b0f	-0.47469375
25	0x3e2cde36	0.16881642
26	0xbddaa671	-0.106762774
27	0xbc96ea14	-0.018422164
28	0x3e692a05	0.22769935
29	0xbea9fb92	-0.33199745
30	0xbe67bf76	-0.2263163
31	0x3cc575c8	0.024104014

running_mean f4 [32]
0	0xbe7650f3	-0.24054317
1	0xbcc81142	-0.024422292
2	0xbe4eedde	-0.20207927
3	0x3c6e87c9	0.014558741
4	0xbf9fc4a7	-1.2481889
5	0x3e3e924b	0.18610494
6	0x3f255d23	0.6459524
7	0xbea0a96d	-0.31379262
8	0xbedcaacf	-0.43099067
9	0x3edb0be0	0.42782497
10	0xbe9f9598	-0.31168818
11	0xbd9113f5	-0.070838846
12	0xbe569d21	-0.20958377
13	0x3ef1ff17	0.4726493
14	0xbccd2e49	-0.025046485
15	0x3d4cdde6	0.050016306
16	0xbefad352	-0.4898935
17	0x3f03801c	0.51367354
18	0xbf12a95d	-0.5728968
19	0xbd208d53	-0.039197277
20	0xbe31747b	-0.1732959
21	0xbd37152a	-0.044697918
22	0x3f303110	0.68824863
23	0xbda47b49	-0.08031327
24	0x3f0a2f74	0.5397866
25	0xbe95167c	-0.29118717
26	0xbe77a387	-0.24183474
27	0xbf14ac90	-0.5807581
28	0x3f012de9	0.5046068
29	0x3f1c7d16	0.61128366
30	0xbe3b651e	-0.18300292
31	0x3cfc754a	0.030817647

running_var f4 [32]
0	0x40f4e45e	7.652877
1	0x4087d3ec	4.2446194
2	0x40b29566	5.580737
3	0x40bf8fe8	5.9863167
4	0x413b384c	11.701244
5	0x409f23a3	4.9731
6	0x412304f0	10.188705
7	0x4116400d	9.390637
8	0x40f91cb3	7.7847533
9	0x40db7ffa	6.859372
10	0x4003d57b	2.0599048
11	0x408aca1d	4.337172
12	0x40782e50	3.8778267
13	0x40b2fbf1	5.5932546
14	0x40da670c	6.825079
15	0x408be5d8	4.371807
16	0x411aafe8	9.667946
17	0x405748bd	3.3638146
18	0x40783ef4	3.8788424
19	0x4002dae1	2.0446093
20	0x4083c3db	4.117658
21	0x40e80380	7.2504272
22	0x403cf0e5	2.952203
23	0x4036d58d	2.856784
24	0x40a0b877	5.0225177
25	0x40263e7b	2.5975635
26	0x410c0090	8.750137
27	0x40a7f9b8	5.2492332
28	0x412002fd	10.00073
29	0x4120e060	10.054779
30	0x411647b9	9.39251
31	0x4151a94e	13.103834

weight f4 [32]
0	0x3f409c30	0.75238323
1	0x3f9c7280	1.2222443
2	0x3f8b30df	1.0874289
3	0x3f7fac9a	0.99872744
4	0x3f2f26ae	0.68418396
5	0x3f856bba	1.04235
6	0x3fa437f2	1.2829573
7	0x3f904450	1.1270847
8	0x3fd6ea34	1.6790223
9	0x3fee2711	1.8605672
10	0x3f9f4013	1.2441429
11	0x3f86bb40	1.0525894
12	0x3f82d89f	1.0222358
13	0x3f849e1d	1.0360752
14	0x3f796885	0.9742511
15	0x3f75c23a	0.9599949
16	0x3f8f0c8c	1.1175704
17	0x3fb48f6e	1.4106271
18	0x3f7c3f08	0.9853368
19	0x3f5850d5	0.8449834
20	0x3f303de4	0.6884444
21	0x3f587de8	0.8456712
22	0x3f8a7432	1.081671
23	0x3f72790f	0.9471597
24	0x3f9b67ac	1.2141013
25	0x3f9e044b	1.234506
26	0x3fe75997	1.8074216
27	0x3f687b9d	0.9081362
28	0x3fbee312	1.4913046
29	0x3f7dc8e4	0.9913466
30	0x3eea998b	0.4582027
31	0x3f93c270	1.1543713

bias f4 [32]
0	0x3f28b6e9	0.659041
1	0xbf1c0ed2	-0.60960114
2	0xbd3f7f27	-0.04675212
3	0x3e65f786	0.22457704
4	0x3e14b163	0.14520793
5	0xbd12644f	-0.035740193
6	0xbd46f42c	-0.048572704
7	0x3e56eb2b	0.20988147
8	0x3ee0aa51	0.4387994
9	0x3daf9298	0.085728824
10	0x3eed2084	0.4631387
11	0x3e88f95b	0.26752743
12	0x3ec2e7d8	0.38067508
13	0x3de92705	0.113843955
14	0x3e94a6a9	0.29033402
15	0x3e91b170	0.28455687
16	0xbebdc54b	-0.37064585
17	0xbe484438	-0.19557273
18	0x3df483c0	0.11939192
19	0x3dee2635	0.11628381
20	0xbeb5cbb6	-0.35506982
21	0xbdb118e2	-0.08647324
22	0x3e511d33	0.20421295
23	0x3e507cf4	0.20360166
24	0x3f0e15e5	0.5550216
25	0x3f12587b	0.5716626
26	0x3ceb8c4b	0.02875342
27	0x3d99eb99	0.0751564
28	0xbd38dff1	-0.045135442
29	0x3e15f244	0.14643198
30	0x3ed6a9c8	0.41926408
31	0xbdf60747	-0.12013107

running_mean f4 [32]
0	0xbf035e16	-0.5131544
1	0xbe901fd0	-0.2814927
2	0xbb1fb317	-0.002436822
3	0xbce8fffc	-0.028442375
4	0xbd899681	-0.067181595
5	0x3f3988dc	0.72474456
6	0x3cc3f8e1	0.023922386
7	0x3e8f7754	0.28020728
8	0xbf12bf58	-0.5732322
9	0x3e1c5f93	0.15270834
10	0x3cd93d81	0.026518585
11	0x3e741d91	0.23839404
12	0xbe33da91	-0.17563845
13	0x3f14a0a5	0.58057624
14	0xbe807a6c	-0.250934
15	0xbed80a64	-0.42195427
16	0xbe297c2e	-0.16551277
17	0xbd854c50	-0.06508696
18	0x3e87fd63	0.26560506
19	0xbea4faa9	-0.3222249
20	0x3da8e59a	0.08246918
21	0x3ed13a66	0.40864867
22	0xbf373e42	-0.7157937
23	0xbd905f19	-0.070493884
24	0x3d3e332f	0.04643553
25	0xbcd1d88f	-0.025615958
26	0xbc02b027	-0.007976568
27	0x3e122d25	0.14275034
28	0xbeb74b6c	-0.3579973
29	0xbef6018f	-0.48048064
30	0x3e90c19a	0.28272706
31	0x3aea982c	0.0017898134

running_var f4 [32]
0	0x4044b787	3.0737016
1	0x3fdeba32	1.7400572
2	0x40359c37	2.8376596
3	0x4071cfb4	3.7783022
4	0x400654af	2.0989187
5	0x40abf692	5.373849
6	0x4064dac3	3.5758522
7	0x4080773d	4.0145555
8	0x400c66c4	2.1937723
9	0x4013313b	2.2998798
10	0x40236c02	2.5534673
11	0x40b959b3	5.7921996
12	0x406737c8	3.6127796
13	0x4003d214	2.0596972
14	0x401a2725	2.4086392
15	0x405c4d2d	3.4422104
16	0x3fe1ad9c	1.7631106
17	0x400b883b	2.1801898
18	0x4065a4ee	3.5881915
19	0x40a46b3a	5.138089
20	0x4023aaa6	2.5572906
21	0x3fe6b810	1.8024921
22	0x3fa2e4cd	1.2726074
23	0x40e47f6e	7.1405554
24	0x406ae7b1	3.6703913
25	0x4085d832	4.182641
26	0x404fc7dd	3.2465737
27	0x4084bfdc	4.1484203
28	0x40a9becd	5.304541
29	0x3ff409ad	1.9065453
30	0x4021d400	2.5285645
31	0x407b570e	3.9271884

weight f4 [32, 16]
0	0x3df0d564	0.11759451
1	0x3e808abf	0.25105855
2	0xbec4590f	-0.38349196
3	0x3db8e063	0.09027173
4	0xbfbb7031	-1.4643613
5	0xbf433bb9	-0.76263005
6	0xbdab5ea7	-0.08367663
7	0xbfe6fd3c	-1.8046031
8	0x3dcc7fbb	0.099853
9	0xbea0df62	-0.31420428
10	0xbf1b42f9	-0.6064907
11	0x3edf2221	0.43580726
12	0xbe92ae0f	-0.2864842
13	0x3eaa1233	0.3321701
14	0x3fad1c41	1.3524247
15	0x3f54b6fe	0.83091724
16	0xbe7afdae	-0.24510834
17	0xbf11a103	-0.5688631
18	0xbf413322	-0.7546865
19	0x3d97fbc5	0.07421068
20	0x3e867814	0.26263487
21	0x3f157ced	0.58393747
22	0xbf7c75ed	-0.9861744
23	0xbf4fd9b6	-0.81191576
24	0x3c8f4af6	0.017491799
25	0xbfec54f2	-1.8463423
26	0xbf178340	-0.59184647
27	0x3f5ab21a	0.8542801
28	0x3e46de6e	0.19420788
29	0x3ea97fd5	0.3310534
30	0xbd9dd0de	-0.07705854
31	0xbfa0cbe1	-1.2562219
32	0xbfb07d92	-1.3788321
33	0x3fa438ef	1.2829875
34	0xbf1c0057	-0.6093802
35	0xbe93c831	-0.2886367
36	0x3f998b10	1.1995564
37	0x3ee46d90	0.4461484
38	0xbf5618b6	-0.83631456
39	0xbfaaf9b4	-1.3357453
40	0xbeb7f869	-0.3593171
41	0xbf8cdbc5	-1.1004568
42	0xbf82ef80	-1.022934
43	0x3e020580	0.1269741
44	0xbf3b6882	-0.7320634
45	0x3f7f1e64	0.9965575
46	0xbf6f5c85	-0.9350055
47	0xbfb9e8c0	-1.4524155
48	0xbf515d06	-0.8178257
49	0x3d0d1d7b	0.034451943
50	0x3f062289	0.52396446
51	0x3f1b9d80	0.607872
52	0x3f6f473e	0.9346808
53	0xbfaec13f	-1.3652724
54	0xbeb4958e	-0.3527035
55	0xbf68a2cf	-0.90873426
56	0x3f51101d	0.8166521
57	0x3e8a430e	0.27004284
58	0xbf47cc3d	-0.7804602
59	0x3ef7e482	0.48416525
60	0x3fa70c21	1.3050576
61	0xbeb09b4d	-0.34493485
62	0x3f7e0d8e	0.9923943
63	0xbece6d17	-0.40317604
64	0xbfc77415	-1.55823
65	0x3f073270	0.52811337
66	0x3e3dbbb5	0.18528636
67	0xbe6a1a51	-0.22861601
68	0x3f86eccc	1.0541015
69	0x3e9c5515	0.30533662
70	0xbd8c1003	-0.068389915
71	0xbf54fa74	-0.8319466
72	0xbf79a92d	-0.97523767
73	0x3e04d161	0.12970497
74	0x3dc49852	0.09599365
75	0xbf2e1586	-0.6800159
76	0xbf3be1b8	-0.73391294
77	0xbf9dae09	-1.2318736
78	0x3f04ded2	0.51902497
79	0x3fc6d154	1.5532632
80	0x3f174fbe	0.5910605
81	0x3ead8ac8	0.33894944
82	0xbec6e884	-0.3884927
83	0xbe88c20d	-0.2671055
84	0x3ec0c115	0.3764731
85	0x3e84e104	0.25952923
86	0x3e061a31	0.13095929
87	0xbd25ff9d	-0.040526975
88	0x3e10fd1d	0.14159055
89	0xbf9080c6	-1.1289299
90	0x3f5f9509	0.87336785
91	0xbf2554b7	-0.6458239
92	0x3e6c3852	0.2306836
93	0xbf9bf6d3	-1.21847
94	0x3f9c4838	1.220954
95	0x3f2a5ec6	0.6655086
96	0x3fb2707f	1.3940581
97	0xbeef4888	-0.46735024
98	0x3de3978b	0.11112889
99	0x3f98c6ba	1.1935647
100	0xbf982d2f	-1.1888789
101	0xbf014c86	-0.5050739
102	0x3e8d6248	0.27614045
103	0x3dfa9316	0.12235086
104	0x3fdc2f08	1.7201853
105	0x3ef72262	0.4826842
106	0x3f0934e2	0.5359632
107	0x3e1eed64	0.15520245
108	0x3f0dce9f	0.55393404
109	0x3ea22bc8	0.31674027
110	0x3e431519	0.19051017
111	0x3eec9b72	0.46212345
112	0xbe93eefc	-0.28893268
113	0xbf82b426	-1.0211227
114	0x3f34b4f0	0.7058859
115	0x3d1bcc04	0.03803636
116	0xbf87bd3d	-1.0604626
117	0xbec4ca52	-0.38435608
118	0x3e02f173	0.12787418
119	0xbf6343e4	-0.8877547
120	0xbf59afa5	-0.8503364
121	0x3f2b9750	0.6702776
122	0xbeb87f66	-0.36034697
123	0x3f26424b	0.64944905
124	0x3ea7f93f	0.32807347
125	0xbdbb5181	-0.09146405
126	0x3e9ace8b	0.30235705
127	0xbf002c5d	-0.50067693
128	0x3cbd323f	0.023095248
129	0x3e12eb2d	0.14347525
130	0xc00b51fb	-2.1768787
131	0x3f6df78d	0.9295586
132	0x3f9b0cb9	1.2113258
133	0x3ed61e3b	0.4181994
134	0xbef5331b	-0.47890553
135	0xbf244190	-0.6416254
136	0x3cd4746a	0.025934417
137	0xbf50156f	-0.81282705
138	0x3f4cea1f	0.8004474
139	0x3fe2c3c2	1.771599
140	0x3f9b37fe	1.2126462
141	0xbf02bfd4	-0.51073956
142	0x3f327198	0.6970458
143	0x3f1b66f3	0.60703963
144	0x3f02e5e5	0.5113204
145	0xbf504847	-0.81360286
146	0x3f84f5cd	1.0387512
147	0xbfb9dcdd	-1.4520527
148	0xbf8b2852	-1.087168
149	0xbdfc46d5	-0.12318198
150	0x3f520532	0.8203918
151	0xbe4c3096	-0.19940409
152	0x3eface95	0.48985735
153	0x3e9abe05	0.30223098
154	0xbeec0154	-0.46094763
155	0xbf124c72	-0.57147896
156	0xbe410fea	-0.18853727
157	0xbee10de9	-0.43955925
158	0xbf05092d	-0.51967126
159	0x3ef2c2e1	0.47414306
160	0x3fa7f5c8	1.3121881
161	0xbf653140	-0.89528275
162	0x3ecfb958	0.40571094
163	0xbd65d284	-0.056108966
164	0x3edfcd5a	0.43711358
165	0x3e730278	0.2373141
166	0x3f8edad8	1.1160536
167	0x3e00791e	0.12546203
168	0x3eb4b7c9	0.35296467
169	0x3fa80721	1.3127176
170	0xbf486fbd	-0.782955
171	0x3f77a837	0.9674105
172	0xbee5fd34	-0.4491974
173	0x3fa19379	1.262313
174	0x3ea3f301	0.32021335
175	0xbf01254f	-0.50447553
176	0x3ed7c4f1	0.42142442
177	0xbf4c7810	-0.798707
178	0x3f27a065	0.6547912
179	0xbf4ea0ae	-0.8071393
180	0xbec6de96	-0.38841695
181	0x3f0fcb90	0.56169987
182	0x3f835b72	1.0262282
183	0xbf4242d1	-0.75883204
184	0x3f097aeb	0.5370318
185	0x3e4a49fb	0.19754784
186	0x3f142ba9	0.5787912
187	0xbf10b1f9	-0.56521565
188	0xbf2d5898	-0.6771331
189	0xbe78c2bf	-0.2429304
190	0x3eace59f	0.33768937
191	0x3ecd90ca	0.40149528
192	0xbf45eb81	-0.77312475
193	0x3ee07dba	0.43845922
194	0x3eae45ff	0.34037778
195	0x3f472bce	0.77801216
196	0x3f3edef6	0.7455896
197	0xbe840070	-0.25781584
198	0xbe8e8536	-0.27836007
199	0xbf23ca64	-0.639807
200	0x3fafaccb	1.3724607
201	0x3fc11268	1.5083742
202	0xbf38a9af	-0.72133917
203	0xbf2e7c51	-0.6815844
204	0x3fcf66fe	1.6203306
205	0xbf928c7b	-1.1449121
206	0x3ed79f66	0.421138
207	0xbf85fafd	-1.046722
208	0xbf968c2d	-1.1761528
209	0x3dab9235	0.08377496
210	0x3f0d5e09	0.5522161
211	0x3e12bec9	0.14330591
212	0xbdbc8b5c	-0.09206268
213	0xbe44bc92	-0.19212559
214	0x3f2003fc	0.6250608
215	0xbe06be35	-0.13158496
216	0x3ee6bf3e	0.4506778
217	0xbfd71267	-1.6802491
218	0x3f075bf4	0.52874684
219	0x3e9793cf	0.29604957
220	0xbeffc793	-0.4995695
221	0xbe6d82ca	-0.23194423
222	0xbf456965	-0.77113944
223	0x3f0d9407	0.55303997
224	0xbf07f927	-0.5311455
225	0xbf3cb94b	-0.73720235
226	0xbefb8860	-0.49127483
227	0x3cac954e	0.021067288
228	0x3f634092	0.887704
229	0x3fb8355f	1.4391288
230	0x3f35aaa5	0.7096351
231	0xbee62bd3	-0.4495531
232	0x3f1195ee	0.568694
233	0xbfae7379	-1.362899
234	0x3ee029ac	0.43781793
235	0xbdba2bcf	-0.09090387
236	0x3f1c2359	0.60991436
237	0x3e5af523	0.21382575
238	0x3fac0b0e	1.3440874
239	0x3ed54c34	0.416597
240	0xbecd22a5	-0.40065494
241	0xbe3609f1	-0.1777723
242	0x3f8af81f	1.085697
243	0x3f1d4934	0.61439824
244	0x3f1bd36a	0.6086947
245	0xbf072f03	-0.5280611
246	0xbf96eb98	-1.1790648
247	0xbf30dd16	-0.6908735
248	0x3edd6a3f	0.43245122
249	0xbe8d6e23	-0.2762309
250	0xbf14d5a9	-0.5813852
251	0xbfa300e6	-1.2734649
252	0x3f18da3f	0.5970802
253	0x3f101c06	0.5629276
254	0x3de96248	0.11395699
255	0x3f6983ea	0.9121691

weight f4 [32]
0	0x3f90c341	1.1309587
1	0x3f8d916f	1.1060008
2	0x3fb85b53	1.440287
3	0x3f97761e	1.1832922
4	0x3f920ec8	1.1410761
5	0x3f197e84	0.5995867
6	0x3f666905	0.90004
7	0x3f5c93f3	0.8616325
8	0x3f63693f	0.8883247
9	0x3f7570c8	0.95875216
10	0x3f97656f	1.182783
11	0x3f7035ec	0.9383228
12	0x3f6baf0e	0.9206399
13	0x3f7710d8	0.96510077
14	0x3f009341	0.5022469
15	0x3f265240	0.64969254
16	0x3f769614	0.9632275
17	0x3fd0347a	1.6266015
18	0x3f9a95c5	1.2076956
19	0x3f916609	1.1359264
20	0x3fdc45eb	1.7208837
21	0x3f92299a	1.1418946
22	0x3f1c60b6	0.6108507
23	0x3f559f93	0.83446616
24	0x3ee9d882	0.45672995
25	0x3f69a844	0.9127238
26	0x3f8a8805	1.082276
27	0x3fa1dcfb	1.2645563
28	0x3f3a378f	0.72741026
29	0x3f633b42	0.88762295
30	0x3f39a5a7	0.7251839
31	0x3f091ded	0.5356129

bias f4 [32]
0	0xbe970626	-0.29496878
1	0x3e9d6937	0.30744335
2	0xbee07230	-0.43837118
3	0x3ee6fb16	0.45113438
4	0x3ee2e3bf	0.4431438
5	0x3ee5aba8	0.44857526
6	0x3de47a8b	0.11156186
7	0x3d19edda	0.03758035
8	0x3d97aaf5	0.07405654
9	0x3e2f95e0	0.17147017
10	0x3d5ea3f4	0.054355577
11	0x3f0b570f	0.54429716
12	0xbe57ff7d	-0.21093555
13	0x3f1cc974	0.61244893
14	0x3d8fce12	0.07021727
15	0x3eac2352	0.33620697
16	0x3e9d7a23	0.30757245
17	0xbebc2d16	-0.36753148
18	0x3e4cdd18	0.20006216
19	0x3e9153b7	0.28384182
20	0xbe6bb0f2	-0.23016718
21	0xbed76676	-0.4207036
22	0x3d75c2e5	0.06000032
23	0x3e4ac308	0.19800961
24	0x3e93c4bd	0.28861037
25	0x3d165a9f	0.036707517
26	0x3e119ce9	0.14220013
27	0x3e118200	0.14209747
28	0x3c6dd273	0.014515507
29	0xbdeb6d11	-0.11495412
30	0xbec96896	-0.39337605
31	0xbd6627aa	-0.05619017

running_mean f4 [32]
0	0xbe8ffeeb	-0.28124174
1	0x3eea09f6	0.45710725
2	0xbeffbe76	-0.49949998
3	0xbe1f8c96	-0.15580973
4	0xbf10e7df	-0.5660381
5	0x3d740c70	0.059582174
6	0x3ed1c541	0.40970805
7	0x3ddbdae6	0.10735111
8	0x3e6efa72	0.23337725
9	0xbc889f22	-0.016677443
10	0x3edadd39	0.42746904
11	0x3e6243bb	0.2209615
12	0x3c6b76f6	0.014371624
13	0xbbf396d0	-0.0074337497
14	0x3ec5c610	0.38627672
15	0xbedf2cb5	-0.43588796
16	0x3d85d9ea	0.065357044
17	0xbeb73b17	-0.3578727
18	0x3d90cda6	0.07070474
19	0xbc07839b	-0.008271123
20	0x3e9e225e	0.30885595
21	0xbe333adc	-0.17502922
22	0xbd5055d2	-0.050863095
23	0x3b299963	0.002587878
24	0xbeb74950	-0.3579812
25	0x3e03144c	0.12800711
26	0x3e2c10e9	0.16803326
27	0x3e4412d9	0.19147815
28	0xbe197680	-0.1498661
29	0xbdd04864	-0.101700574
30	0xbd8b6919	-0.06807155
31	0xbc67165f	-0.014104455

running_var f4 [32]
0	0x3fd01777	1.6257161
1	0x405356b1	3.3021662
2	0x40dead9b	6.958692
3	0x406b97aa	3.6811318
4	0x40260a02	2.5943608
5	0x40278851	2.617695
6	0x406d0d47	3.7039354
7	0x3ff86a7b	1.9407495
8	0x40696142	3.6465611
9	0x409cab57	4.8959155
10	0x40a0c3db	5.023908
11	0x404facb3	3.2449157
12	0x40b82f6d	5.7557893
13	0x3ffe1de8	1.9852877
14	0x40546c47	3.3191087
15	0x40a91b0c	5.2845516
16	0x3fdb8f5c	1.7153125
17	0x406381f4	3.5548067
18	0x4110f562	9.059908
19	0x4069b125	3.651437
20	0x3fa1c9d5	1.2639719
21	0x40abf7e1	5.3740087
22	0x409c9889	4.89362
23	0x400ad005	2.1689465
24	0x40c6b22c	6.2092495
25	0x407b3391	3.9250224
26	0x40db50ab	6.853597
27	0x3fe9934b	1.8248075
28	0x40a79517	5.2369494
29	0x4080c0f9	4.023556
30	0x3fb96962	1.4485285
31	0x40872e58	4.224407

weight f4 [32, 16]
0	0x3d3e6d51	0.04649097
1	0x3e4a7732	0.19772032
2	0xbf4370d6	-0.7634405
3	0x3e5a2bbb	0.21305744
4	0x3f36d901	0.7142487
5	0xbdac5a52	-0.08415665
6	0xbd97d281	-0.07413197
7	0x3f25ed5d	0.6481531
8	0xbebd4999	-0.36970213
9	0x3eafafad	0.34313717
10	0xbf5d0a5b	-0.86343926
11	0x3fb911ea	1.4458592
12	0xbef28075	-0.4736363
13	0x3db9e668	0.0907715
14	0x3d69182d	0.05690782
15	0x3e86eca1	0.2635241
16	0xbd06776e	-0.03282874
17	0xbf049fcd	-0.51806337
18	0xbe8f4a90	-0.27986574
19	0x3c11e6db	0.008905138
20	0xbdf6efaa	-0.12057431
21	0xbeffe202	-0.49977118
22	0xbf1c2525	-0.6099418
23	0xbf551c06	-0.83245885
24	0x3e6a988e	0.22909757
25	0xbf34104c	-0.7033737
26	0xbf63b590	-0.8894892
27	0xbf9b337e	-1.2125089
28	0x3e65ab9e	0.22428748
29	0xbf4c2955	-0.7975057
30	0x3edcec93	0.43149242
31	0xbf709ff9	-0.939941
32	0xbeecb2de	-0.46230215
33	0xbe385bfe	-0.18003842
34	0x3de245ec	0.11048493
35	0x3ec55251	0.38539365
36	0xbe6ebe56	-0.23314795
37	0x3ecd07a1	0.40044883
38	0xbf26cdcf	-0.6515779
39	0xbef87417	-0.4852607
40	0xbc47f135	-0.012203504
41	0x3e8d1938	0.27558303
42	0xbe93b164	-0.28846276
43	0x3e7438e9	0.23849835
44	0x3f08df84	0.5346606
45	0x3f55422b	0.8330409
46	0xbe88369b	-0.2660416
47	0xbdac04fd	-0.08399389
48	0xbe987373	-0.2977558
49	0xbf9aa7b3	-1.2082428
50	0x3e75e7f8	0.2401427
51	0xbf3ef254	-0.74588513
52	0x3e1c7d9b	0.1528229
53	0x3faa1682	1.3288119
54	0x3e26dddf	0.16295575
55	0xbf3183cc	-0.6934173
56	0x3f3d9af9	0.74064595
57	0xc001602c	-2.0214949
58	0xbf0f1137	-0.5588564
59	0x3d4d243c	0.050083384
60	0xbf7bf58a	-0.9842154
61	0xbf5a41aa	-0.85256445
62	0x3fb8d700	1.4440613
63	0x3f13dde7	0.5776047
64	0xbe4fb2b5	-0.20283015
65	0x3f79accd	0.975293
66	0x3f98412a	1.1894886
67	0x3f37c214	0.71780515
68	0xbf6c5f23	-0.9233267
69	0x3e072470	0.13197494
70	0xbf401842	-0.75037014
71	0x3fb438ea	1.4079869
72	0xbdccab50	-0.09993613
73	0x3d563cc1	0.052304033
74	0x3f399210	0.724885
75	0x3caaa4b6	0.020830493
76	0xbdf63b11	-0.12022985
77	0xbf83d3f9	-1.0299064
78	0x3ea906fd	0.33013144
79	0xbeec743c	-0.4618243
80	0x3e955c51	0.29171994
81	0x3eb3ce42	0.351183
82	0x3fda2bd0	1.704462
83	0xbf22549c	-0.63410354
84	0xbe9a1127	-0.3009121
85	0x3ceec949	0.029148715
86	0xbec4d9ff	-0.38447568
87	0x3f3347a9	0.7003122
88	0xbf2a50a1	-0.6652928
89	0x3f64c3a8	0.8936105
90	0x3ea856e2	0.32878786
91	0xbf7f8c15	-0.99823123
92	0x3f417a69	0.7557741
93	0x3fffd880	1.9987946
94	0xbe8dfd43	-0.27732286
95	0x3f5156c4	0.8177302
96	0xbf7f0435	-0.99615794
97	0x3f2c4024	0.6728537
98	0xbf2099e5	-0.62734824
99	0x3c054c09	0.008135804
100	0x3f19f9fa	0.6014706
101	0x3f292940	0.6607857
102	0x3e8ca4ea	0.2746957
103	0x3ff7cbe4	1.9359097
104	0x3fb4e77c	1.4133143
105	0xbec937d1	-0.39300397
106	0x3e170c2a	0.14750734
107	0xbfca6ba0	-1.5814095
108	0xbf4f9dbe	-0.8110007
109	0x3f2f1b8e	0.6840142
110	0x3ef3e461	0.47635177
111	0x3d8ae286	0.06781487
112	0x3f14fdc6	0.5819973
113	0x3fbb8572	1.4650099
114	0x3e8d7b30	0.27633047
115	0x3f0a26fd	0.5396574
116	0xbe952712	-0.2913137
117	0xbf7b1d9a	-0.98092043
118	0xbec67a95	-0.38765398
119	0xbe7d5c0f	-0.24742149
120	0x3fa383e7	1.2774628
121	0xbf375718	-0.7161727
122	0x3f0d72a8	0.55253077
123	0x3d6ae858	0.057350487
124	0x3f63bffa	0.8896481
125	0xbf35bbd2	-0.70989716
126	0xbf68b677	-0.9090342
127	0xbf2a511e	-0.66530025
128	0xbd3bee35	-0.04588147
129	0x3eb3a25e	0.35084814
130	0xbeb6d63e	-0.3571033
131	0x3f416124	0.7553885
132	0xbe42a426	-0.1900793
133	0xbef964df	-0.4870977
134	0x3edb75a0	0.42863178
135	0x3c2e2489	0.010628828
136	0x3f7a49eb	0.9776904
137	0x3ee64275	0.44972578
138	0x3f38d8ca	0.72205794
139	0x3f12e4b8	0.5738025
140	0x3e4884ab	0.19581859
141	0xbf5a4728	-0.85264826
142	0x3ef03e19	0.46922377
143	0xbd9b598e	-0.075854406
144	0x3f51269d	0.81699544
145	0xbe17cc5c	-0.1482405
146	0xbf17bc1b	-0.592714
147	0x3e8bbfb0	0.27294683
148	0x3ea75e51	0.32689145
149	0x3f4cd60a	0.800141
150	0x3f8498c3	1.0359119
151	0x3fd49823	1.6608928
152	0xbf545c27	-0.82953113
153	0x3ebf81d6	0.37403744
154	0xbf82165c	-1.0163074
155	0x3ebe7432	0.37198025
156	0xbe9b9a35	-0.30391088
157	0xbf3d0269	-0.738318
158	0x3f47be91	0.78025156
159	0x3ee472ff	0.44618985
160	0xbe34e02f	-0.17663644
161	0xbf24b3c4	-0.643368
162	0x3dfbf05d	0.12301705
163	0xbf7fef86	-0.9997486
164	0x3e41f7f7	0.18942247
165	0xbefea29a	-0.4973343
166	0xbf2d8337	-0.6777834
167	0x3ea3520f	0.31898543
168	0xbe96e5ae	-0.29472107
169	0xbf5d252c	-0.86384845
170	0x3e934ae2	0.2876807
171	0x3f013569	0.5047212
172	0xbf8fecd6	-1.1244152
173	0x3cc4b47f	0.024011848
174	0x3f130393	0.5742733
175	0x3f2133e8	0.6296983
176	0x3c945d33	0.018110847
177	0xbd318da4	-0.04334797
178	0xbec798f3	-0.38983878
179	0xbfd2f49b	-1.6480898
180	0x3e186092	0.14880589
181	0xbef8b3f7	-0.48574802
182	0x3e501033	0.2031868
183	0xbec80059	-0.39062765
184	0x3eb61847	0.35565397
185	0x3fd2e1fb	1.6475214
186	0x3f60ad55	0.87764484
187	0xbdd45694	-0.10368076
188	0x3f07e895	0.53089267
189	0xbf450369	-0.7695833
190	0xbd83b524	-0.06431034
191	0xbf1670f5	-0.5876611
192	0xc002fa81	-2.0465395
193	0x3f048893	0.51770896
194	0x3e6306c6	0.22170553
195	0x3f1ecde4	0.62032914
196	0xbedf25ca	-0.43583518
197	0xbed92bca	-0.4241622
198	0xbf14abf0	-0.58074856
199	0x3fe418cd	1.7820069
200	0xbf52f3e3	-0.8240339
201	0x3f808872	1.004164
202	0xbe33406c	-0.17505044
203	0xbe37ae27	-0.17937528
204	0x3f318ac5	0.6935237
205	0xbf30d7ad	-0.69079095
206	0xbe9d9051	-0.30774167
207	0xbd9a6276	-0.07538311
208	0x3f3992da	0.724897
209	0x3f50235b	0.8130395
210	0xbee5e0d0	-0.4489808
211	0xbe558157	-0.2085012
212	0xbf315f9c	-0.69286513
213	0xbf4285ec	-0.759856
214	0x3f3538cd	0.70789796
215	0xbe9e1ca7	-0.30881235
216	0x3eda145c	0.42593658
217	0xbf659c0b	-0.8969123
218	0x3efe2d4d	0.49643937
219	0x3ee35388	0.44399667
220	0x3dddb339	0.108252
221	0xbfd8ad2f	-1.6927851
222	0xbea46dc6	-0.32115
223	0xbdf9f00c	-0.122039884
224	0xbf2ad06f	-0.66724294
225	0x3f800bc3	1.0003589
226	0x3e7ddc93	0.24791174
227	0x3f203c2d	0.6259182
228	0xbf7bb4a3	-0.98322505
229	0x3e6f3d3d	0.23363204
230	0xbec9f4c6	-0.3944456
231	0xbe5265ea	-0.2054669
232	0xbe65ebc8	-0.22453225
233	0xbd83bfeb	-0.0643309
234	0x3f0da67d	0.55332166
235	0xbdfbd580	-0.12296581
236	0xbfe572aa	-1.7925618
237	0xbf3c614c	-0.73585963
238	0xbf80949a	-1.004535
239	0xbeaefbf5	-0.34176603
240	0x3dcc71ee	0.09982668
241	0x3e45bde0	0.19310713
242	0x3f296f88	0.6618581
243	0xbf3bc8b7	-0.7335314
244	0x3f8f24f1	1.1183149
245	0x3fddc77c	1.7326503
246	0xbf32a693	-0.6978542
247	0xbe812813	-0.25225887
248	0xbd3c2df9	-0.04594228
249	0x3e132479	0.14369382
250	0xbf8af88b	-1.0857099
251	0xbf72d202	-0.94851696
252	0x3e73b8c7	0.23800956
253	0xbeed570b	-0.4635547
254	0x3db70db3	0.0893816
255	0x3ea16d35	0.3152863

weight f4 [32]
0	0x3f800000	1.0
1	0x3f800000	1.0
2	0x3f800000	1.0
3	0x3f800000	1.0
4	0x3f800000	1.0
5	0x3f800000	1.0
6	0x3f800000	1.0
7	0x3f800000	1.0
8	0x3fa03898	1.2517271
9	0x3f9ae91b	1.2102388
10	0x3f1b13db	0.6057717
11	0x3f867f5f	1.050762
12	0x3f1df2cd	0.6169861
13	0x3fad4b57	1.3538617
14	0x3f8266b8	1.0187597
15	0x3f9c47b8	1.2209387
16	0x3f800000	1.0
17	0x3f800000	1.0
18	0x3f800000	1.0
19	0x3f800000	1.0
20	0x3f800000	1.0
21	0x3f800000	1.0
22	0x3f800000	1.0
23	0x3f800000	1.0
24	0x3f52ff1f	0.82420534
25	0x3fb3fc2c	1.4061332
26	0x3f2b9226	0.6701988
27	0x3eeb2b0f	0.4593129
28	0x3f8620e5	1.0478789
29	0x3f94a340	1.161232
30	0x3fae75de	1.362972
31	0x3fa97c6b	1.3241094

bias f4 [32]
0	0x00000000	0.0
1	0x00000000	0.0
2	0x00000000	0.0
3	0x00000000	0.0
4	0x00000000	0.0
5	0x00000000	0.0
6	0x00000000	0.0
7	0x00000000	0.0
8	0x3ecccd4e	0.40000385
9	0xbde070b8	-0.109589994
10	0xbe75b089	-0.23993124
11	0x3c907c4a	0.01763739
12	0xbe6e3d58	-0.23265588
13	0x3e75492e	0.23953697
14	0xbea6778b	-0.3251308
15	0x3d42fd1e	0.047604673
16	0x00000000	0.0
17	0x00000000	0.0
18	0x00000000	0.0
19	0x00000000	0.0
20	0x00000000	0.0
21	0x00000000	0.0
22	0x00000000	0.0
23	0x00000000	0.0
24	0x3eeef528	0.46671414
25	0x3ebb5817	0.36590645
26	0xbeb299d3	-0.34882984
27	0x3eae9888	0.34100747
28	0xbee3e024	-0.44506943
29	0x3e914125	0.28370014
30	0xbe03c157	-0.12866722
31	0x3d863747	0.06553512

running_mean f4 [32]
0	0x3eb11315	0.3458487
1	0xbe452521	-0.19252445
2	0x3dd4ecd5	0.103967346
3	0x3e84a35c	0.25905883
4	0xbe94310b	-0.28943667
5	0xbf06ddf4	-0.52682424
6	0x3eb1b0e3	0.34705266
7	0xbecd856d	-0.40140858
8	0x3deb9514	0.11503044
9	0x3ee4f570	0.44718504
10	0xbd921173	-0.071322344
11	0xbe8e9aa4	-0.27852356
12	0xbdee22be	-0.1162772
13	0xbe8803ad	-0.26565304
14	0xbe80e535	-0.2517487
15	0xbe88ceb4	-0.26720202
16	0x3dd828ff	0.105546944
17	0x3eae9ce3	0.3410407
18	0xbe354bb1	-0.17704655
19	0x3e33e41c	0.17567486
20	0x3e43faef	0.19138692
21	0xbe4f851d	-0.20265622
22	0x3ef9cac4	0.4878751
23	0x3d3feded	0.046857763
24	0x3e6f12dd	0.2334704
25	0xbecf83b6	-0.40530175
26	0xbec31e35	-0.38108984
27	0xbea37058	-0.3192165
28	0x3eb72da2	0.35777003
29	0x3eebb2a5	0.46034732
30	0x3e181916	0.1485332
31	0x3ca68fdf	0.020332275

running_var f4 [32]
0	0x3f9ad15d	1.2095143
1	0x3fda5b27	1.7059067
2	0x3f6d972f	0.9280881
3	0x40a6b01e	5.2089987
4	0x3f813cd5	1.009669
5	0x4085025e	4.156539
6	0x3ff43a89	1.9080364
7	0x40d8573b	6.7606483
8	0x405ada24	3.4195642
9	0x40217df9	2.5233138
10	0x4031e031	2.7793086
11	0x40a5f5e8	5.186268
12	0x408686ca	4.2039537
13	0x406e2bf5	3.721433
14	0x3fcb6828	1.5891161
15	0x40921972	4.565606
16	0x3fbbd636	1.4674747
17	0x40051668	2.0794926
18	0x402d1b3a	2.7047868
19	0x3fb50891	1.4143239
20	0x4036c2c6	2.855638
21	0x3fd5c537	1.670081
22	0x407564aa	3.834269
23	0x3f841383	1.0318455
24	0x407a0eca	3.9071527
25	0x408f1bcb	4.4721427
26	0x40149f0b	2.3222072
27	0x3fa70f97	1.3051633
28	0x409de18e	4.9337835
29	0x402f853e	2.7425075
30	0x4085aaa0	4.1770782
31	0x407e8c93	3.97733

weight f4 [32]
0	0x3f855f55	1.0419718
1	0x3f99b980	1.2009735
2	0x3fc4c3a0	1.53722
3	0x3fd7bf58	1.6855268
4	0x3fac2a32	1.3450377
5	0x3f900c78	1.1253805
6	0x3f9931b7	1.1968297
7	0x3f9ac37d	1.2090908
8	0x3f344cdd	0.70429784
9	0x3f9760c0	1.1826401
10	0x3f931338	1.149024
11	0x3fb07720	1.3786354
12	0x3f522197	0.82082504
13	0x3f99274f	1.1965121
14	0x3f81119c	1.0083499
15	0x3f027519	0.50959927
16	0x3f47a00f	0.77978605
17	0x3f80c6ef	1.006071
18	0x3f951f62	1.1650202
19	0x3ff27014	1.8940454
20	0x3ef5516a	0.47913677
21	0x3fc79731	1.5593015
22	0x3f951d69	1.16496
23	0x3f2021e4	0.62551713
24	0x3f2c4c98	0.6730437
25	0x3f1316fe	0.5745696
26	0x3fb2f65c	1.3981433
27	0x3f989d04	1.1922917
28	0x3ef6b504	0.4818498
29	0x3fa1cdb9	1.2640907
30	0x3f942d7c	1.1576381
31	0x3ef6f03a	0.48230153

bias f4 [32]
0	0xbe4be3fc	-0.19911188
1	0xbf1148dc	-0.567518
2	0xbebedb94	-0.372769
3	0x3f3871a1	0.72048384
4	0xbf14c15d	-0.5810755
5	0x3f597086	0.8493732
6	0x3e174d24	0.1477552
7	0x3ea0b99c	0.3139161
8	0xbdfc30e6	-0.12314014
9	0x3e352152	0.17688492
10	0x3e734b54	0.23759204
11	0x3dbedaee	0.09319101
12	0xbe8ed309	-0.27895382
13	0xbf166550	-0.5874834
14	0xbe927e34	-0.2861191
15	0xbc449e4c	-0.012000632
16	0xbd49c490	-0.049259722
17	0x3e848d44	0.25889027
18	0x3f1cb3d4	0.61211896
19	0x3f37d2f2	0.7180625
20	0x3f4af01b	0.7927262
21	0x3f043bec	0.51653934
22	0x3e5bc854	0.21463138
23	0x3e7e32e7	0.24824105
24	0xbeedcf5c	-0.46447265
25	0x3e9fe467	0.31228945
26	0xbed48d84	-0.41514218
27	0xbe3964c5	-0.18104847
28	0x3d17575f	0.036948558
29	0x3e1f9d58	0.15587366
30	0xbd47747b	-0.04869507
31	0xbebf3a6b	-0.37349257

running_mean f4 [32]
0	0x3bea9a53	0.00715951
1	0x3dfb7907	0.122789435
2	0xbda692be	-0.081334576
3	0x3e4d3c96	0.20042643
4	0x3d7f602c	0.062347576
5	0x3c8a9834	0.01691828
6	0xbc8b80d2	-0.0170292
7	0xbc0cd616	-0.008595964
8	0x3d4e95e0	0.0504359
9	0xbd0569ff	-0.03257179
10	0xbe54a61a	-0.20766488
11	0xbddbc007	-0.10729986
12	0x3c36aa8e	0.011149062
13	0xbce417d3	-0.027843392
14	0x3e40a300	0.1881218
15	0xbc970137	-0.018433196
16	0x3e88e59e	0.26737684
17	0xbcb8aa92	-0.022542272
18	0xbe5408db	-0.20706503
19	0x3e40e5b7	0.1883763
20	0xbd9d3be9	-0.076774426
21	0xbc0f38c3	-0.00874156
22	0x3cf41ada	0.02979796
23	0xbde2def1	-0.11077679
24	0x3e3b02ff	0.18262862
25	0xbd3b0143	-0.0456555
26	0xbdb4b4df	-0.08823561
27	0xbd485435	-0.04890843
28	0xbdead6bc	-0.114667386
29	0x3c3cddef	0.0115275225
30	0xbe4eb8d6	-0.20187697
31	0x3cd89212	0.02643684

running_var f4 [32]
0	0x3f22b482	0.63556683
1	0x3f15434e	0.58305824
2	0x3f07358f	0.528161
3	0x3f2197c6	0.6312221
4	0x3fd67b83	1.6756443
5	0x3f1a7207	0.6033024
6	0x3f270abd	0.6525076
7	0x3f6276bf	0.8846244
8	0x3f258d7a	0.64669
9	0x3f56793a	0.8377873
10	0x3f1cedbd	0.6130026
11	0x3f16cf59	0.5891014
12	0x3f0c8755	0.54894
13	0x3f1cc162	0.6123258
14	0x3f335c6f	0.7006292
15	0x3f08d15f	0.53444475
16	0x3f6734e3	0.90315074
17	0x3f00145f	0.50031084
18	0x3f24c594	0.6436398
19	0x3f3de320	0.7417469
20	0x3eef76ee	0.46770424
21	0x3f0f8594	0.560632
22	0x3f0d9e7d	0.5531996
23	0x3f31b2f3	0.6941368
24	0x3f10bdc7	0.5653958
25	0x3f082bd4	0.53191876
26	0x3f59f3a8	0.85137415
27	0x3f1d5671	0.61460024
28	0x3f2fc1c9	0.6865507
29	0x3f423978	0.7586894
30	0x3f49b202	0.78787243
31	0x3f436bb9	0.76336247

weight f4 [32]
0	0x3f805c82	1.0028231
1	0x3f34169e	0.7034701
2	0x3f5b895b	0.8575646
3	0x3fe52c25	1.7904097
4	0x3edfe9b9	0.43733004
5	0x3f857d2d	1.0428826
6	0x3f9bc702	1.2170107
7	0x3f26b200	0.65115356
8	0x3fbf89c2	1.4963915
9	0x3fbb4c33	1.4632629
10	0x3f168467	0.5879578
11	0x3f5c329c	0.86014724
12	0x3f1191d4	0.5686314
13	0x3f38c294	0.721719
14	0x3f2faef4	0.6862633
15	0x3f78eddd	0.9723795
16	0x3edfa55c	0.43680847
17	0x3f866462	1.0499384
18	0x3eaf5a5e	0.34248632
19	0x3fa2c41c	1.2716098
20	0x3f43a1e1	0.7641888
21	0x3f1fcf89	0.6242605
22	0x3ff37024	1.9018598
23	0x3f29a287	0.6626362
24	0x3f716fad	0.9431103
25	0x3fc2e48d	1.5225998
26	0x3fa72391	1.3057729
27	0x3ed57028	0.4168713
28	0x3f257529	0.646319
29	0x3edd9f40	0.4328556
30	0x3f4a5bbc	0.79046226
31	0x3f739dce	0.95162666

bias f4 [32]
0	0x3e1e8d06	0.15483484
1	0xbf1fdc15	-0.62445194
2	0xbf209ef5	-0.6274255
3	0x3f515c62	0.8178159
4	0xbf0cdb40	-0.5502205
5	0x3f468da8	0.775599
6	0xbec32fae	-0.38122314
7	0x3d57d090	0.052689135
8	0x3d6a1f86	0.05715897
9	0xbcf6b344	-0.030114777
10	0xbe6df493	-0.23237829
11	0xbd28bcbe	-0.041195624
12	0x3e9c2ae3	0.3050147
13	0x3ea51373	0.322414
14	0xbc06b324	-0.008221421
15	0xbf0dd59d	-0.55404073
16	0x3e29d73d	0.16586013
17	0xbe8a5fd9	-0.2702625
18	0x3e62be0e	0.22142813
19	0x3f66e29a	0.90189517
20	0xbe7ce05c	-0.24694961
21	0x3e0f190f	0.13974403
22	0xbe8a2009	-0.26977566
23	0xbe74bb52	-0.23899582
24	0x3eebc6aa	0.46050006
25	0x3efeb71c	0.49749076
26	0xbebc2e15	-0.36753908
27	0x3e01cdcc	0.12676162
28	0xbf0e4b75	-0.5558389
29	0xbc0c5ffa	-0.0085678045
30	0xbe885b49	-0.26632145
31	0x3dd1b05b	0.10238715

running_mean f4 [32]
0	0xbe361566	-0.177816
1	0x3d269051	0.040664975
2	0xbfac8c6c	-1.3480353
3	0xbeef8d90	-0.4678769
4	0xbccd4833	-0.025058841
5	0x3f140084	0.57813287
6	0x3f4234e4	0.75861955
7	0xbf11539b	-0.56768197
8	0x3f3743c3	0.7158777
9	0x3f0b63eb	0.5444934
10	0x3e11e4d1	0.14247443
11	0x3f3b9276	0.73270357
12	0xbf685ec6	-0.9076961
13	0x3e4d0ab1	0.2002361
14	0xbf824c97	-1.0179623
15	0xbedc28cd	-0.4299988
16	0x3c451176	0.012028089
17	0xbe6a4c0f	-0.22880577
18	0x3f87d417	1.06116
19	0xbe82ec90	-0.25571108
20	0xbedf29b9	-0.4358652
21	0xbebfab05	-0.37435165
22	0x3e068c20	0.13139391
23	0xbdc0a975	-0.09407321
24	0xbe8b6209	-0.27223232
25	0xbfa3e24a	-1.2803433
26	0x3e870022	0.2636729
27	0xbe7519de	-0.23935649
28	0x3e620b95	0.2207473
29	0xbf9f7f71	-1.2460767
30	0x3e831009	0.2559817
31	0xbe2c705e	-0.1683974

running_var f4 [32]
0	0x408da8e6	4.4268675
1	0x401e3c19	2.472418
2	0x405a4479	3.4104292
3	0x40a95dcc	5.2927
4	0x40443fb8	3.066389
5	0x4028b7e4	2.6362238
6	0x407ff8bb	3.9995563
7	0x40efc2d5	7.492533
8	0x407c8a36	3.9459357
9	0x40638a20	3.5553055
10	0x4055cd08	3.340639
11	0x40c61f74	6.1913395
12	0x40c78f87	6.2362704
13	0x40829572	4.080743
14	0x408bc856	4.368205
15	0x404b97e6	3.1811461
16	0x402fc08d	2.7461274
17	0x406aad23	3.6668174
18	0x403f53ee	2.9894977
19	0x40cc7fc8	6.3905983
20	0x40abe389	5.3715253
21	0x400cd0ec	2.2002516
22	0x3fb2b882	1.3962557
23	0x411be711	9.743913
24	0x409775dd	4.7331376
25	0x410317c3	8.193301
26	0x408fdba0	4.4955597
27	0x40b9fd45	5.8121667
28	0x41537d49	13.218087
29	0x40349b9b	2.8219974
30	0x4000e151	2.0137522
31	0x40373b83	2.8630073
