05_Saved_Experiments/2022_08_01 18-38-17 100_runs_train_val_split_custom_loss/models/Model_run31_train_val_split0.6_alcalinity_of_ash.pt (torch, 268833 bytes, 318 tensors)

weight f4 [12]
0	0x3f800000	1.0
1	0x3f800000	1.0
2	0x3f800000	1.0
3	0x3f800000	1.0
4	0x3f800000	1.0
5	0x3f800000	1.0
6	0x3f800000	1.0
7	0x3f800000	1.0
8	0x3f800000	1.0
9	0x3f800000	1.0
10	0x3f800000	1.0
11	0x3f800000	1.0

bias f4 [12]
0	0x00000000	0.0
1	0x00000000	0.0
2	0x00000000	0.0
3	0x00000000	0.0
4	0x00000000	0.0
5	0x00000000	0.0
6	0x00000000	0.0
7	0x00000000	0.0
8	0x00000000	0.0
9	0x00000000	0.0
10	0x00000000	0.0
11	0x00000000	0.0

running_mean f4 [12]
0	0x00000000	0.0
1	0x00000000	0.0
2	0x00000000	0.0
3	0x00000000	0.0
4	0x00000000	0.0
5	0x00000000	0.0
6	0x00000000	0.0
7	0x00000000	0.0
8	0x00000000	0.0
9	0x00000000	0.0
10	0x00000000	0.0
11	0x00000000	0.0

running_var f4 [12]
0	0x3f800000	1.0
1	0x3f800000	1.0
2	0x3f800000	1.0
3	0x3f800000	1.0
4	0x3f800000	1.0
5	0x3f800000	1.0
6	0x3f800000	1.0
7	0x3f800000	1.0
8	0x3f800000	1.0
9	0x3f800000	1.0
10	0x3f800000	1.0
11	0x3f800000	1.0

weight f4 [12]
0	0x3f80032b	1.0000967
1	0x3f4d5c45	0.8021892
2	0x3f79daab	0.97599286
3	0x3f56592f	0.83729833
4	0x3f372cfd	0.7155302
5	0x3f979ccb	1.1844724
6	0x3f5e0e10	0.8674021
7	0x3f8c8a99	1.0979797
8	0x3fa35328	1.2759752
9	0x3f8a1376	1.0787189
10	0x3f76ca16	0.9640211
11	0x3f8a5d44	1.0809712

bias f4 [12]
0	0x3d81f504	0.06345561
1	0x3d1e03dc	0.0385779
2	0xbdb4fa71	-0.088368304
3	0xbd5d3ebb	-0.054014903
4	0xbdb9b961	-0.09068561
5	0xbe4ca7b5	-0.1998585
6	0xbd9943d4	-0.0748364
7	0xbe7613e1	-0.2403102
8	0x3bc0e2fb	0.005886433
9	0x3e82cb6a	0.25545818
10	0x3e989e16	0.2980811
11	0x3ea5c308	0.3237536

running_mean f4 [12]
0	0x3e2c8cb1	0.16850545
1	0x3d157d03	0.036496174
2	0x3e707c2a	0.23484865
3	0x3fada5e8	1.3566256
4	0x3e900287	0.28126928
5	0x429e5513	79.16616
6	0x3e652ccf	0.22380374
7	0x41288fe4	10.53513
8	0x3f02bd3e	0.5107001
9	0x3e7de9cc	0.24796218
10	0x3e78673f	0.24258135
11	0x3dd40085	0.103516616

running_var f4 [12]
0	0x3f6ddf7a	0.92919123
1	0x3f659b5a	0.8969017
2	0x3f7f73c5	0.99786025
3	0x3f7536ae	0.9578656
4	0x3f722af6	0.94596803
5	0x461423ce	9480.951
6	0x3f8009d8	1.0003004
7	0x41c3a504	24.455574
8	0x3fb0cec5	1.3813101
9	0x3f676d77	0.90401405
10	0x3f6f893e	0.9356879
11	0x3f66783d	0.9002722

weight f4 [32, 12]
0	0x3ef4646b	0.47732863
1	0x3e85da4b	0.26143107
2	0x3f686116	0.9077314
3	0x3d99b033	0.075043105
4	0xbf6ea634	-0.93222356
5	0x3f05aafa	0.52214015
6	0xbf153c69	-0.58295304
7	0xbf1cf438	-0.6131015
8	0x3eb769aa	0.35822803
9	0x3fb9c03d	1.4511791
10	0xbf9e6775	-1.2375323
11	0x3db57d6c	0.08861813
12	0x3c9f00fd	0.019409651
13	0xbe7490ea	-0.23883405
14	0x3e1fcf1a	0.15606347
15	0x3f0ec8be	0.5577506
16	0xbeafc21e	-0.34327787
17	0xbe374df5	-0.17900832
18	0x3f3b8302	0.7324678
19	0x3eee5ccb	0.4655517
20	0x3f60b846	0.8778118
21	0x3ed0d7da	0.40789682
22	0xbfc6534e	-1.5494173
23	0xbe472bc8	-0.19450295
24	0x3e30e0b7	0.17273222
25	0x3edcb7a2	0.4310885
26	0xbf55e4ab	-0.83552045
27	0x3e64b8d6	0.22336134
28	0x3df6d965	0.120531835
29	0xbfde3fc8	-1.7363214
30	0xbe9b2d33	-0.30307922
31	0x3f4fd4a4	0.8118384
32	0x3f17a353	0.5923359
33	0x3f5d26e0	0.86387444
34	0x3ee59160	0.44837475
35	0xbfb7ea15	-1.4368311
36	0x3fb7bf55	1.4355265
37	0xbea772c2	-0.3270474
38	0xbe343131	-0.1759689
39	0xbf1171e5	-0.56814414
40	0xbf5fc40e	-0.8740853
41	0x3d864d22	0.06557681
42	0x3ea5797c	0.32319248
43	0x3f581b0f	0.8441629
44	0x3f1ae548	0.60506105
45	0x3f99f70b	1.2028517
46	0x3e92be3c	0.28660762
47	0xbe6d7beb	-0.23191802
48	0xbfb27359	-1.3941451
49	0x3f2d2fb9	0.67650944
50	0x3f559d61	0.83443266
51	0x3ee0f465	0.43936458
52	0x3f82a5e1	1.0206872
53	0x3eb34195	0.35010973
54	0xbeacd093	-0.3375288
55	0x3fc0e5da	1.5070145
56	0xbedf9a0d	-0.4367222
57	0xbee5b9d3	-0.44868335
58	0x40124360	2.2853622
59	0x3f9b8ddd	1.2152668
60	0xbf78d622	-0.9720174
61	0x3f8dd80f	1.1081561
62	0xbf1ba987	-0.60805553
63	0xbf166210	-0.5874338
64	0xbf4f6a33	-0.8102142
65	0xbd2dd81a	-0.04244242
66	0xbf14e93e	-0.581684
67	0xbe46f0c9	-0.1942779
68	0xbf0ab1e3	-0.54177684
69	0xbf0704a4	-0.52741456
70	0xbf6cc606	-0.9248966
71	0xbf246994	-0.642236
72	0xbf6953b9	-0.91143376
73	0xbf115a5b	-0.56778497
74	0xbe6aba94	-0.22922736
75	0xbe87b742	-0.26507002
76	0x3ebe916e	0.3722033
77	0xbf889db9	-1.0673133
78	0xbf150504	-0.5821078
79	0xbe9c91ad	-0.30579892
80	0xbd273259	-0.0408195
81	0xbfdb3d5c	-1.71281
82	0xbeea37e8	-0.45745778
83	0x3e758dae	0.23979828
84	0xbd32f902	-0.043694504
85	0xbf225883	-0.6341631
86	0xbe99b2b7	-0.3001916
87	0xbf8faa3a	-1.1223824
88	0x3fece9a5	1.8508803
89	0x3fc897a5	1.5671278
90	0x3fc4bd89	1.5370342
91	0xbf73a154	-0.9516804
92	0x3edcae42	0.43101698
93	0x3fc20570	1.5157909
94	0xbeb0d677	-0.34538624
95	0x3e876a7a	0.26448423
96	0x3f4bcae0	0.7960644
97	0xbe9a442c	-0.30130136
98	0x3d317099	0.043320272
99	0x3f874928	1.05692
100	0xbe835ac7	-0.25655195
101	0x3d8b4d51	0.06801856
102	0x3ef63716	0.48088902
103	0x3eb1dafc	0.34737384
104	0x3f43bab0	0.7645674
105	0x3ee0f74e	0.43938679
106	0x3ed7116c	0.4200548
107	0x3f5b6627	0.8570275
108	0x3f76748f	0.96271604
109	0xbe27d3ed	-0.16389437
110	0x3e9d8ae2	0.30770022
111	0xbf8c1d3f	-1.0946425
112	0xbe7a1e83	-0.24425702
113	0x3f8e0757	1.109599
114	0x3e87f99a	0.26557618
115	0xbf881b4a	-1.0633328
116	0x3e541066	0.2070938
117	0xbf011653	-0.5042469
118	0xbdc4c422	-0.09607722
119	0x3f12b6a6	0.5730995
120	0xbe9f54d8	-0.31119418
121	0xbd8efd65	-0.06981925
122	0xbed7b103	-0.42127237
123	0x3f60d84b	0.87830037
124	0x3e431d4c	0.19054145
125	0xbf03074e	-0.5118302
126	0xbd7e048a	-0.062016048
127	0xbe387d12	-0.1801646
128	0xbf974b04	-1.1819768
129	0xbed64dfe	-0.41856378
130	0x3dfbe803	0.12300112
131	0xbb90133d	-0.0043968246
132	0x3e2fcfe6	0.1716915
133	0x3d5b715a	0.053574897
134	0xbf0d0c6f	-0.550971
135	0x3e9d8a2a	0.30769473
136	0x3f839cfa	1.028228
137	0xbf69e9fa	-0.91372645
138	0xbdd934c6	-0.10605769
139	0xbe39cdbe	-0.1814489
140	0xbfb67161	-1.425335
141	0xbe0ac4ae	-0.1355159
142	0x3f08f221	0.5349446
143	0x3f4c1cac	0.7973125
144	0xbf3155a1	-0.69271284
145	0x3f051966	0.5199188
146	0xbfc78d0b	-1.5589918
147	0xbf683c24	-0.9071677
148	0xbecb2e48	-0.39683747
149	0xbf2a2b8d	-0.66472703
150	0x3e8d1eda	0.275626
151	0xbee1a0ad	-0.44067898
152	0xbf2990ee	-0.6623677
153	0x3f78727f	0.9704971
154	0x3e95cdfa	0.2925871
155	0x3f43eba5	0.7653144
156	0xbf34ddc7	-0.70650905
157	0x3e091552	0.1338704
158	0x3ec39d2f	0.3820586
159	0x3f35243d	0.7075842
160	0x3f40e2e5	0.75346214
161	0x3f99dd3b	1.2020639
162	0xbf312490	-0.69196415
163	0x3e74c605	0.23903663
164	0x3ee99a5f	0.45625588
165	0xbf7a0be3	-0.9767439
166	0xbf25f866	-0.6483215
167	0x3ef088b9	0.4697931
168	0x3e6554a5	0.2239557
169	0xbe9c50bd	-0.30530348
170	0x3f62f66e	0.8865727
171	0xbf284839	-0.65735203
172	0xbfbcedd7	-1.4760083
173	0xbf8b9539	-1.0904914
174	0xbf9af3b0	-1.2105618
175	0x3ecbaba6	0.39779395
176	0x3e11388a	0.14181724
177	0x3e44cf84	0.19219786
178	0xbd509ce4	-0.050930873
179	0xbebd98cd	-0.3703064
180	0x3d9cde2e	0.07659565
181	0xbf449ef0	-0.7680502
182	0x3f969471	1.1764051
183	0x3eeb0939	0.45905474
184	0xbece851b	-0.40335926
185	0x3f8c68e3	1.0969509
186	0x3e513970	0.20432067
187	0x3ee256f7	0.44206974
188	0xbc901353	-0.01758734
189	0xbf2eaf55	-0.68236285
190	0x3ed72b3f	0.42025182
191	0xbf32d49b	-0.6985566
192	0x3e87fb65	0.26558986
193	0xbf0f3116	-0.55934274
194	0x3f354735	0.7081178
195	0x3fa9e3b5	1.3272616
196	0xbf8f9301	-1.1216737
197	0xbf96994c	-1.1765532
198	0x3e0c3dfc	0.1369552
199	0x3f5ecb86	0.870293
200	0x3e0622a7	0.13099156
201	0x3fbf2fde	1.4936483
202	0xbf893b43	-1.072121
203	0xbf0d6553	-0.55232733
204	0x3f45ced5	0.77268726
205	0x3dbe9e69	0.09307558
206	0xbe0fa620	-0.14028215
207	0xbf263f2b	-0.64940137
208	0xbdbae613	-0.091259144
209	0xbf9fc8c9	-1.248315
210	0xbef10fc9	-0.47082356
211	0x3e2acd14	0.16679794
212	0xbf059e5e	-0.52194774
213	0xbf9026a0	-1.1261787
214	0x3e4f3831	0.20236279
215	0xbdefd99c	-0.117114276
216	0xbf68fc83	-0.910103
217	0x3fbbb5c5	1.4664847
218	0x3db92847	0.090408854
219	0x3ebad0a2	0.364873
220	0x3ed64066	0.41846007
221	0xbec29c36	-0.38009804
222	0xbefc204b	-0.49243388
223	0xbf92a5b4	-1.1456819
224	0x3f74eb2c	0.95671344
225	0x3f9eded5	1.2411753
226	0xbdd423d1	-0.10358394
227	0x3f5fbcde	0.87397563
228	0xbf3c6e9c	-0.73606277
229	0xbf0e9ad3	-0.55704993
230	0xbeec0434	-0.46096957
231	0xbed15b97	-0.4089019
232	0xbf91da98	-1.1394835
233	0x3e1c8e99	0.15288772
234	0xbf9d2757	-1.227763
235	0x3f654cb8	0.8957019
236	0x3fa5c390	1.2950306
237	0x3f64201e	0.89111507
238	0x3fbdb74a	1.482156
239	0x3f108759	0.56456524
240	0xbe252ab1	-0.16129567
241	0x3e3bf009	0.18353285
242	0x3f31b06a	0.6940981
243	0x3da1a980	0.07893658
244	0x3ee32bd5	0.4436938
245	0x3eb8ca4b	0.36091837
246	0x3ed56193	0.41676006
247	0xbeb276b1	-0.3485618
248	0xbc505b2e	-0.012717051
249	0x3e24aa06	0.16080484
250	0x3da31ce7	0.07964497
251	0xbff9eba4	-1.9525037
252	0xbf65d37c	-0.89775825
253	0x3e0ad2ef	0.13557027
254	0x3f0b1511	0.5432902
255	0x3d67665c	0.056494102

weight f4 [32, 16]
0	0x3deb129e	0.1147816
1	0x3f97505d	1.18214
2	0x3f0ebb8a	0.5575491
3	0xbeef8f04	-0.467888
4	0xbfce43f3	-1.6114486
5	0x3d8d8e96	0.06911962
6	0x3f885e02	1.0653689
7	0x3ee9601d	0.4558114
8	0x3d7f3c0b	0.06231312
9	0x3eda2e53	0.42613468
10	0x3d811452	0.06302704
11	0x3c2b84d6	0.010468682
12	0x3f6d3bf4	0.92669606
13	0xbe5079b2	-0.20358923
14	0xbea93674	-0.33049357
15	0x3f9d30b3	1.2280487
16	0x3ed58c1d	0.4170846
17	0xbed2b03d	-0.41150084
18	0x3f9ae1a0	1.2100105
19	0x3fb48ffb	1.4106439
20	0xbde549e8	-0.11195737
21	0xbf0d8e6c	-0.55295444
22	0xbe8aea73	-0.27131996
23	0xbcc14249	-0.023591178
24	0x3e1a5946	0.15073118
25	0xbf112d7f	-0.56710047
26	0xbeab2b3a	-0.33431417
27	0x3e9ca18e	0.30592006
28	0x3ec277ae	0.37981933
29	0x3f5a68ad	0.8531597
30	0xbf10bc71	-0.5653754
31	0xbdb87982	-0.09007551
32	0xbeadf245	-0.339739
33	0xbf892b07	-1.0716256
34	0xbfd26b53	-1.6439003
35	0xbfdff8ff	-1.7497863
36	0x3d4dfec7	0.050291803
37	0xbf8ebc02	-1.1151125
38	0x3e19133c	0.14948744
39	0xbf16a9dd	-0.5885294
40	0x3dc68735	0.096937574
41	0x3f1657b0	0.5872755
42	0xbf26d5d2	-0.65170014
43	0xbfe5c103	-1.7949528
44	0x3f67467c	0.90341926
45	0x3f5e432a	0.86821234
46	0x3f4040e4	0.75099015
47	0x3f82d938	1.022254
48	0x3e85f450	0.26162958
49	0x3eab9022	0.33508402
50	0xbf38901e	-0.72094905
51	0xbdbf8649	-0.09351785
52	0x3e26f46c	0.16304177
53	0xbe99e91d	-0.30060664
54	0xbebaea20	-0.36506748
55	0x3f987c77	1.1912984
56	0x3f560263	0.8359739
57	0x3d218a35	0.039438445
58	0xbd9c9763	-0.07646062
59	0x3f0aacd6	0.54169977
60	0xbe50e335	-0.20399173
61	0xbe650582	-0.22365382
62	0xbf035047	-0.5129437
63	0xbf8f3119	-1.1186858
64	0x3f19d99a	0.6009766
65	0x3e633488	0.22188008
66	0xbe112504	-0.14174277
67	0xbe706f94	-0.23480064
68	0xbe30b75b	-0.17257445
69	0xbe8d6645	-0.27617088
70	0x3e4e0234	0.20118028
71	0x3f8d1b61	1.102398
72	0x3faadcb7	1.3348607
73	0xbcb631e4	-0.022240587
74	0xbf8c45eb	-1.0958837
75	0xbf19d3c8	-0.6008878
76	0xbf35fea5	-0.7109168
77	0xbf8f5512	-1.1197836
78	0xbe8cbf63	-0.27489766
79	0x3fa8dd91	1.3192617
80	0xbf08da85	-0.53458434
81	0xbf29456b	-0.6612155
82	0x3f3bf37d	0.7341841
83	0x3eeec717	0.46636268
84	0xbfd1b3ef	-1.6383036
85	0x3dde9497	0.10868185
86	0x3f010bc2	0.50408566
87	0xbc6b282c	-0.014352839
88	0xbf43f616	-0.7654737
89	0xbf7929f6	-0.9732965
90	0xbdd45fba	-0.10369821
91	0xbf055432	-0.52081597
92	0xc002d7a5	-2.044412
93	0x3cf06018	0.029342696
94	0x3ec58ad7	0.3858249
95	0xbdf0a768	-0.1175068
96	0xbdabef50	-0.083952546
97	0x3e027731	0.1274078
98	0x3e4491aa	0.19196191
99	0x3f888e95	1.0668513
100	0x3b9d3508	0.0047975816
101	0x3f1926a7	0.59824604
102	0x3f1efa8a	0.6210104
103	0x3eb98081	0.36230853
104	0xbed26762	-0.410945
105	0x3f311f6f	0.6918859
106	0x3ee8f1a0	0.45496845
107	0x3e8d449e	0.27591413
108	0x3f8976ca	1.0739377
109	0xbeaba36d	-0.3352312
110	0x3fac8049	1.347665
111	0xbf82b96a	-1.0212834
112	0x3ed76bcd	0.42074433
113	0xbfa56587	-1.2921609
114	0xbfc605a4	-1.5470471
115	0xbfa11a99	-1.2586242
116	0x3f0fa28d	0.5610741
117	0xbf0456d6	-0.51695
118	0x3ea4a131	0.3215423
119	0xbe76a07d	-0.24084659
120	0xbfc59dad	-1.5438744
121	0x3f1f099d	0.62124044
122	0xbf297171	-0.6618872
123	0x3f78e8be	0.97230136
124	0xbf2f386b	-0.6844546
125	0xbd3d55f1	-0.04622454
126	0xbea32579	-0.31864527
127	0xbe24f8e6	-0.16110572
128	0xbf521e8f	-0.8207788
129	0x3ea1e1d5	0.3161761
130	0xbf49c8da	-0.788221
131	0xbdd39555	-0.10331217
132	0xbfa21836	-1.2663639
133	0x3fbe670f	1.4875201
134	0xbf5f9392	-0.8733455
135	0x3f64a94d	0.8932083
136	0xbf829358	-1.0201216
137	0xbe43ef84	-0.19134337
138	0xbeeef07c	-0.4666785
139	0x3f132151	0.5747271
140	0x3f8e6790	1.1125355
141	0xbe5fb2ff	-0.21845625
142	0x3be5ae9c	0.0070093405
143	0x3f052548	0.5201001
144	0xbe0335c1	-0.12813474
145	0xbe384e8c	-0.17998713
146	0xbfccefb7	-1.6010655
147	0xbdd91d58	-0.106013
148	0xbf6c268b	-0.9224631
149	0x3f2e5c7d	0.68109876
150	0xbef079e8	-0.46968007
151	0xbe7d4c7a	-0.24736205
152	0x3f4d8f37	0.80296654
153	0x3f38faaa	0.72257483
154	0xbf7c0e1b	-0.98459023
155	0xbf70ada0	-0.9401493
156	0xbf0652bf	-0.5247001
157	0xbe7f1f88	-0.24914372
158	0x3f04ccf5	0.5187524
159	0xbe84206a	-0.2580598
160	0x3eefb780	0.46819687
161	0xbe8ab2b0	-0.27089453
162	0x3f8e36d7	1.1110486
163	0x3ef09f6e	0.46996635
164	0xbece2701	-0.40264133
165	0xbdd2503d	-0.102692105
166	0xbe778556	-0.24171957
167	0x3d5b0992	0.053475924
168	0xbef80610	-0.48442125
169	0xbf88da22	-1.0691569
170	0xbf63b9d2	-0.88955414
171	0xbf30f458	-0.6912284
172	0x3e991ab8	0.29903197
173	0xbf861165	-1.0474058
174	0x3f153018	0.5827651
175	0x3e79065b	0.2431883
176	0x3dde30de	0.108491644
177	0x3dee05a3	0.11622169
178	0xbf0fa4f3	-0.5611107
179	0xbe04e53e	-0.12978074
180	0xbfcb2c81	-1.5872957
181	0x3bcd64fd	0.0062681423
182	0xbf94a03e	-1.1611402
183	0x3fa2c18d	1.2715317
184	0x3f87c298	1.060626
185	0x3ed07f21	0.40721992
186	0xbfb433c5	-1.4078299
187	0x3e2e7dfc	0.17040247
188	0xbf044a09	-0.5167547
189	0xbf416ae2	-0.75553715
190	0xbec042a1	-0.37550834
191	0xbfbfa837	-1.497321
192	0x3e662659	0.22475566
193	0x3d21ddb4	0.039518073
194	0xbf819155	-1.0122477
195	0x3ae92104	0.0017786329
196	0x3f0b2637	0.54355186
197	0xbf73e5ab	-0.9527232
198	0xbf334634	-0.70028996
199	0xbf2dbaf5	-0.678634
200	0x3f1c9843	0.6116983
201	0xbf6a4b0d	-0.9152077
202	0xbda16e81	-0.07882405
203	0x3a760a27	0.0009385668
204	0xbf31d9b7	-0.6947283
205	0x3f1c50bb	0.61060685
206	0xbd624cf1	-0.05524916
207	0x3fb53d7f	1.4159392
208	0x3caf5e0e	0.021407153
209	0xbfaffd1c	-1.3749118
210	0xbe5895ad	-0.21150847
211	0x3f436fe5	0.7634261
212	0xbe4e0cbb	-0.20122044
213	0xbfcdaead	-1.6068932
214	0x3f6237fb	0.8836667
215	0x3f92f6ad	1.148153
216	0x3d20f665	0.03929748
217	0x3e874ddf	0.26426598
218	0x3f405d24	0.7514212
219	0xbf4027a8	-0.7506051
220	0xbf9a2eab	-1.2045492
221	0xbe3087a7	-0.17239247
222	0x3cf7c62f	0.030245868
223	0x3ee78a1d	0.4522256
224	0xbd9832f6	-0.07431595
225	0x3f113023	0.56714076
226	0x3f048581	0.5176621
227	0xbea89716	-0.3292777
228	0xbe53e2fc	-0.20692056
229	0xbf5fb3e4	-0.87383866
230	0xbf48ee03	-0.7848818
231	0x3d94c9c8	0.07265049
232	0x3caf3925	0.021389553
233	0xbfc16112	-1.5107749
234	0xbf97092c	-1.1799674
235	0x3e76f195	0.24115594
236	0xbe79c92e	-0.2439315
237	0x3fbe35cc	1.4860168
238	0x3f2893a8	0.65850306
239	0x3f00964d	0.5022934
240	0xbe32928d	-0.17438717
241	0xbc53793f	-0.012907325
242	0x3f9788fc	1.1838679
243	0x3c477520	0.012173921
244	0xbe85f87b	-0.26166138
245	0xbf489dea	-0.7836596
246	0xbf58af6c	-0.8464267
247	0xbfb2dd4d	-1.3973786
248	0x3e69068a	0.227564
249	0x3f9e07e9	1.2346164
250	0xbeb0e9c5	-0.34553352
251	0x3f3cf895	0.73816806
252	0x3e0bf736	0.13668522
253	0x3d9a7e3f	0.07543611
254	0x3fcb6cdc	1.5892596
255	0x3e82cd58	0.2554729

weight f4 [32]
0	0x3f5a21b2	0.85207665
1	0x3f29e58a	0.66365874
2	0x3f6dface	0.9296082
3	0x3f2dd551	0.6790362
4	0x3f90628a	1.1280072
5	0x3f92271a	1.1418183
6	0x3f72914e	0.9475297
7	0x3fa73911	1.306429
8	0x3f82b151	1.0210363
9	0x3f79d28c	0.97586894
10	0x3f9c9383	1.2232517
11	0x3f9369d6	1.1516674
12	0x3fa4981e	1.2858922
13	0x3f439459	0.76398236
14	0x3f77afa3	0.96752375
15	0x3f644493	0.89167136
16	0x3f6e9d5b	0.93208855
17	0x3f18dab4	0.59708714
18	0x3fa8b83c	1.3181224
19	0x3f85be43	1.0448688
20	0x3f79dd3a	0.9760319
21	0x3f8b9ad0	1.090662
22	0x3f3d1fc8	0.7387662
23	0x3f9f33cb	1.2437681
24	0x3f46a14f	0.7758989
25	0x3f757919	0.95887905
26	0x3f37b5be	0.7176169
27	0x3f59c086	0.8505939
28	0x3fa837ce	1.314203
29	0x3f86e4e1	1.0538598
30	0x3f9a6081	1.2060701
31	0x3fa5068b	1.2892622

bias f4 [32]
0	0xbe1d0b89	-0.15336432
1	0x3cbfa2f4	0.023393132
2	0xbc2c3b71	-0.010512219
3	0xbe21ac4b	-0.15788381
4	0x3e67ac8b	0.22624414
5	0xbe777177	-0.24164377
6	0x3e3b9b7c	0.18321031
7	0xbe3ca871	-0.1842363
8	0x3d3e2eef	0.046431478
9	0xbd3a65d8	-0.045507282
10	0xbe8e853d	-0.27836028
11	0x3e83e1dc	0.25758255
12	0xbe0a393f	-0.134984
13	0x3e10cf5e	0.14141604
14	0x3ea61b11	0.32442525
15	0xbea56926	-0.32306784
16	0xbe1f2f8e	-0.15545484
17	0xbe93ad0b	-0.2884296
18	0xbdc04902	-0.09388925
19	0xbe7a57c7	-0.24447547
20	0x3e5c53a5	0.21516283
21	0x3e738e28	0.23784697
22	0xbc026dab	-0.007960717
23	0x3e27e2e0	0.1639514
24	0x3e136214	0.14392883
25	0x3d5d6420	0.054050565
26	0x3edbb2e9	0.42909935
27	0x3d93a995	0.072100796
28	0x3e0fae25	0.14031275
29	0xbe9b3207	-0.30311605
30	0xbd07359d	-0.033010114
31	0xbe8cabf0	-0.27474928

running_mean f4 [32]
0	0x3d2a37cd	0.041557122
1	0xbcdf9399	-0.02729206
2	0x3cffb96a	0.031216342
3	0x3d46ffa9	0.04858366
4	0xbcec9a17	-0.02888207
5	0xbd905e40	-0.07049227
6	0xbc9a4972	-0.01883385
7	0x3b30a9f9	0.002695678
8	0x3d83e658	0.06440419
9	0x3cbde934	0.023182489
10	0xbc278f0f	-0.010226979
11	0x3d14ea55	0.03635629
12	0x3d94cd1c	0.07265684
13	0xbd828f09	-0.06374938
14	0x3d1f45db	0.03888498
15	0xbd8baf09	-0.06820495
16	0x3d00e145	0.031464834
17	0x3c741d1d	0.014899519
18	0x3dad8328	0.08472282
19	0x3da99202	0.08279802
20	0xbdac3d31	-0.08410109
21	0xbcefdfd3	-0.029281532
22	0x3df5d16b	0.12002834
23	0xbcdaaf20	-0.026694834
24	0xbd65f0da	-0.056137897
25	0x3d421858	0.047386497
26	0xbb4e4cda	-0.0031478913
27	0xba86032c	-0.0010224334
28	0xbdb75105	-0.08951
29	0x3db88d32	0.09011306
30	0xbd356757	-0.044288006
31	0x3d2a0309	0.0415068

running_var f4 [32]
0	0x4013101d	2.2978585
1	0x3fb7bd53	1.4354652
2	0x4008eb95	2.1393788
3	0x3ff89924	1.9421735
4	0x401aed8f	2.4207494
5	0x406472b7	3.5695016
6	0x402b9547	2.6809862
7	0x406e9d83	3.7283638
8	0x40134724	2.301217
9	0x3fd6e6cb	1.6789182
10	0x3fb2548a	1.3932049
11	0x402c9d52	2.697102
12	0x4011aa64	2.2760248
13	0x3fd904f4	1.6954637
14	0x4043432b	3.0509746
15	0x3fe0adce	1.7553041
16	0x4026366a	2.5970712
17	0x3fe75f9c	1.8076053
18	0x4029d5c2	2.6536717
19	0x4018fbca	2.390368
20	0x3fe18812	1.761965
21	0x4002cdd0	2.0438118
22	0x4006f15e	2.108482
23	0x3faf30f6	1.3686817
24	0x3fb94776	1.4474933
25	0x3fedf05b	1.8588976
26	0x40891609	4.28394
27	0x3fd4f48e	1.6637132
28	0x403a575e	2.9115825
29	0x40088185	2.1329052
30	0x40042c6e	2.0652118
31	0x40061b40	2.0954132

weight f4 [32]
0	0x3fa17619	1.2614166
1	0x3f8afe1c	1.0858798
2	0x3f88ea21	1.069645
3	0x3f7fa1ff	0.9985656
4	0x3f6a01dd	0.91409093
5	0x3f96ee88	1.1791544
6	0x3f1ae6b5	0.6050828
7	0x3f890fce	1.0707948
8	0x3f6f0262	0.9336301
9	0x3f942546	1.1573875
10	0x3f29d0c2	0.66334164
11	0x3f5985db	0.8496987
12	0x3f25c57c	0.6475446
13	0x3f7bb4de	0.98322856
14	0x3f5e3edc	0.86814666
15	0x3faf88c0	1.3713608
16	0x3f7e7f07	0.9941258
17	0x3f74519c	0.95437026
18	0x3f86f8aa	1.0544636
19	0x3f726ce6	0.94697416
20	0x3f8119bb	1.0085977
21	0x3f84d047	1.0376061
22	0x3f7ba464	0.98297715
23	0x3f82f324	1.0230451
24	0x3f2bf341	0.6716805
25	0x3f818356	1.0118206
26	0x3f57d98d	0.8431633
27	0x3fa7eaa3	1.311848
28	0x3f30a745	0.69005233
29	0x3f89dc12	1.0770285
30	0x3fa46d92	1.2845938
31	0x3fa52c7d	1.2904202

bias f4 [32]
0	0x3dccb815	0.09996048
1	0xbe038608	-0.12844098
2	0xbe9a0cd5	-0.30087915
3	0x3e88cb10	0.26717424
4	0xbd1eeed4	-0.038801983
5	0x3e708ae0	0.23490477
6	0x3e354674	0.17702657
7	0x3b40a389	0.002939435
8	0xbe314aad	-0.17313643
9	0xbd65414b	-0.05597047
10	0xbe34da80	-0.17661476
11	0x3e5b8baa	0.21439996
12	0xbe394c6f	-0.18095563
13	0x3e9be40c	0.30447423
14	0x3e1d6704	0.15371329
15	0x3ec92b9a	0.39291078
16	0x3e918311	0.28420308
17	0xbdc3ad63	-0.09554555
18	0xbd2b5240	-0.041826487
19	0x3d646921	0.05576432
20	0xbe6a2830	-0.22866893
21	0x3e2884f9	0.16456975
22	0xbec96ece	-0.3934235
23	0x3da4b5fb	0.080425225
24	0x3e8e3be1	0.2778006
25	0x3df5fafe	0.120107636
26	0xbe8e04a2	-0.2773791
27	0xbea6512c	-0.32483804
28	0xbebd7b7f	-0.37008283
29	0xbd0750e8	-0.033036143
30	0xbe8667e2	-0.2625113
31	0x3ec96195	0.39332262

running_mean f4 [32]
0	0xbe0da4f8	-0.13832462
1	0x3c8bd6df	0.017070232
2	0xbe240af5	-0.16019805
3	0x3ce9e8b1	0.028553339
4	0xbd4bb89d	-0.049736608
5	0x3de9c0a9	0.114137
6	0x3ceda266	0.029008102
7	0x3dc31fa0	0.09527516
8	0xbcace2da	-0.021104265
9	0x3d5e1b94	0.05422552
10	0x3cdbcbd7	0.026830597
11	0x3df53e13	0.1197473
12	0xbd1c46a7	-0.038153317
13	0xbd873dae	-0.06603561
14	0x3d0d0ee3	0.034438025
15	0x3db6268d	0.08894072
16	0x3da49f21	0.08038164
17	0x3dbb979e	0.09159778
18	0x3d6c14e5	0.057637114
19	0xbd8969c7	-0.067096286
20	0x3d18425a	0.037172653
21	0x3cbdaaac	0.023152672
22	0xbc0210fb	-0.007938619
23	0xba8b4989	-0.0010626774
24	0x3d7588fb	0.059945088
25	0xbe2a7d1b	-0.16649286
26	0x3c139b8a	0.009009251
27	0xbd2b6cb0	-0.0418517
28	0xbd32b6d0	-0.043631375
29	0xbde38153	-0.11108651
30	0xbe037dc2	-0.12840942
31	0x3cb37982	0.021908525

running_var f4 [32]
0	0x3f8a67f8	1.0812979
1	0x3f8284dc	1.0196795
2	0x3f9ee904	1.2414861
3	0x3fa30820	1.2736855
4	0x3fca9860	1.5827751
5	0x3fc4bfd5	1.5371042
6	0x3faa3a23	1.3298992
7	0x3fc5385d	1.5407826
8	0x3f9c5dee	1.2216165
9	0x3f957c63	1.1678585
10	0x3fe00dcd	1.7504212
11	0x3fbf61fd	1.4951779
12	0x3fb7c175	1.4355913
13	0x3fc9668c	1.573442
14	0x3fbefba2	1.4920542
15	0x3f978fda	1.1840775
16	0x3f88f2b4	1.0699067
17	0x3f75c32e	0.96000946
18	0x3fa489a5	1.2854506
19	0x3fcdd17d	1.6079556
20	0x3fa3229d	1.2744938
21	0x3fc3c8d3	1.5295662
22	0x3f954dff	1.1664428
23	0x3fe97212	1.8237936
24	0x3fd29346	1.6451194
25	0x3fbb7175	1.4643999
26	0x3fe9f40d	1.8277603
27	0x3f9bca49	1.2171108
28	0x4004a8da	2.072806
29	0x3fcd81a1	1.6055185
30	0x3fc61aa1	1.5476876
31	0x3fe0cd14	1.7562585

weight f4 [32, 16]
0	0x3ea4d780	0.32195663
1	0x3df0afdb	0.11752292
2	0xbec7aabb	-0.38997445
3	0x3e14a3f0	0.14515662
4	0xbfaa9ac2	-1.3328478
5	0xbf0eccbd	-0.55781156
6	0x3d1c8506	0.0382128
7	0xbfaff18c	-1.3745589
8	0x3de65211	0.11246122
9	0xbe877d80	-0.26462936
10	0xbf8ae462	-1.0850947
11	0x3f2f5f99	0.68505245
12	0xbf823972	-1.0173781
13	0x3f618c3d	0.8810461
14	0x3f6a9a4a	0.91641676
15	0x3ed58513	0.4170309
16	0xbf20ba36	-0.62784135
17	0xbf43bcf9	-0.76460224
18	0xbfa2a5ad	-1.270681
19	0x3eb3b7a2	0.35101038
20	0x3ec5e105	0.3864824
21	0x3f0e8d56	0.5568441
22	0xbf9937b9	-1.197013
23	0xbf4a183e	-0.7894324
24	0xbdc0ee93	-0.094205044
25	0xbfa75da0	-1.3075447
26	0xbf936030	-1.1513729
27	0x3f1c0c0d	0.6095589
28	0x3e323f57	0.17406975
29	0xbc501d93	-0.012702364
30	0x3d9edd73	0.07757082
31	0xbf57e758	-0.8433738
32	0xbefbc78e	-0.49175686
33	0x40110b42	2.2663121
34	0xbf00149d	-0.50031453
35	0xbec615d3	-0.38688526
36	0x3eb3d14e	0.35120624
37	0x3ed5fcc8	0.4179442
38	0xbee4a3a8	-0.4465611
39	0xbff1126f	-1.883375
40	0x3cfa0ca4	0.030523606
41	0xbf70ca8b	-0.94059056
42	0xbecab94c	-0.39594495
43	0x3e52f9b7	0.20603071
44	0xbf4be334	-0.7964356
45	0x3f521f11	0.82078654
46	0x3e80361e	0.25041288
47	0xbf77a1eb	-0.9673144
48	0xbef0bd85	-0.47019592
49	0xbd285916	-0.041100584
50	0x3f290878	0.6602855
51	0x3f365a8c	0.71231914
52	0x3f46f4f9	0.7771755
53	0xbf8bfbf6	-1.0936267
54	0xbf1204bd	-0.5703848
55	0xbf9f26fd	-1.2433773
56	0x3f2fa369	0.6860872
57	0xbe1e0a2d	-0.15433569
58	0xbea3731e	-0.31923765
59	0x3ecc6565	0.39921108
60	0x3f79192d	0.9730404
61	0xbf0604fc	-0.52351356
62	0x3f89bae1	1.0760156
63	0xbdf1b485	-0.118020095
64	0xbfc1bc47	-1.5135583
65	0x3f60a17a	0.87746394
66	0x3f15a069	0.5844789
67	0x3e5f4995	0.21805413
68	0x3fc4b197	1.5366696
69	0x3d1e4382	0.0386386
70	0xbe07dae1	-0.1326709
71	0xbf32a0d5	-0.6977666
72	0xbedb1e64	-0.42796624
73	0x3ee53658	0.44768023
74	0xbebd0e2b	-0.36924872
75	0xbf2dfa7f	-0.6796035
76	0xbf45b3a4	-0.77227235
77	0xbeaf49d4	-0.34236014
78	0x3f2d3b0b	0.6766822
79	0x3f96e47c	1.1788478
80	0x3f841641	1.0319291
81	0x3eaccf7b	0.33752045
82	0xbeda3df8	-0.42625403
83	0x3e1be005	0.15222175
84	0x3e87662f	0.26445147
85	0x3e234346	0.15943632
86	0x3efaad7b	0.4896048
87	0x3e46ece0	0.19426298
88	0x3ed0c477	0.4077489
89	0xbf2bc189	-0.67092186
90	0x3eed5e36	0.4636094
91	0x3cdc7500	0.026911259
92	0xbed5a6ba	-0.41728765
93	0xbf8be091	-1.0927907
94	0x3f840436	1.0313785
95	0x3f49298c	0.7857902
96	0x3faddd9f	1.3583258
97	0xbf5237b1	-0.8211623
98	0x3ed3f4b7	0.4139764
99	0x3f87c64e	1.0607393
100	0xbf8ce320	-1.1006813
101	0xbe8bcee8	-0.27306294
102	0x3cbd523b	0.0231105
103	0x3ec1ccc1	0.37851527
104	0x3fe3a1b9	1.7783729
105	0x3e06a643	0.13149361
106	0x3ee0e20d	0.43922463
107	0x3e12994e	0.14316294
108	0x3dd150de	0.10220502
109	0x3f4262e3	0.7593214
110	0xbf1ef5c7	-0.62093776
111	0xbde46e20	-0.11153817
112	0x3d622209	0.05520824
113	0xbf8d6612	-1.1046774
114	0x3f01a6dd	0.5064524
115	0xbca1e37a	-0.01976179
116	0xbf541320	-0.8284168
117	0xbe713a7d	-0.23557468
118	0xbd515512	-0.05110652
119	0xbf31fe27	-0.6952843
120	0xbf1bfc53	-0.6093189
121	0x3f56ab04	0.838547
122	0x3e6c9ae4	0.23105961
123	0x3f896bdc	1.0736041
124	0xbee4e039	-0.44702318
125	0xbd92ee32	-0.071743384
126	0xbd4d0842	-0.050056703
127	0xbe2831da	-0.16425267
128	0xbe8b1d9d	-0.2717103
129	0xbef034a3	-0.4691516
130	0xbfed1d02	-1.8524477
131	0x3f69400d	0.9111336
132	0x3fad2777	1.3527669
133	0x3edf0980	0.43561935
134	0xbf34a9d4	-0.7057164
135	0xbeeb0f42	-0.45910078
136	0xbee76970	-0.4519763
137	0xbf88e925	-1.069615
138	0x3f55b0a7	0.83472675
139	0x3fd23f8c	1.6425643
140	0x3fadea8d	1.3587204
141	0xbe94a63e	-0.29033083
142	0x3e88ff57	0.2675731
143	0xbd147ceb	-0.036251944
144	0x3f36cef0	0.7140951
145	0xbed3c3e0	-0.41360378
146	0x3f962eae	1.1732996
147	0xbf971f63	-1.1806453
148	0xbf36d07a	-0.7141186
149	0xbf1be935	-0.6090272
150	0x3edb12ca	0.42787772
151	0x3de43233	0.11142387
152	0x3f07dc0a	0.5307013
153	0x3e1911ac	0.14948148
154	0x3baa2c3d	0.005193262
155	0xbf72b9af	-0.9481458
156	0xbee616ed	-0.44939366
157	0x3e43d7dc	0.19125313
158	0xbf8e9413	-1.1138939
159	0x3f1ae239	0.6050144
160	0x3f75095c	0.95717406
161	0xbf5906fe	-0.84776294
162	0x3f15a61a	0.58456576
163	0xbdd74c10	-0.10512555
164	0x3f37656c	0.7163913
165	0xbe010bc8	-0.1260215
166	0x3f5f82ef	0.87309164
167	0x3e011a2d	0.12607642
168	0x3ee9a624	0.45634568
169	0x3f855834	1.0417542
170	0xbf8e61f3	-1.1123642
171	0x3f845e84	1.0341344
172	0xbe471ec3	-0.19445328
173	0x3fc39529	1.5279895
174	0x3e511ba3	0.20420699
175	0xbe4e6142	-0.20154288
176	0x3edc8023	0.4306651
177	0xbf07ad63	-0.5299894
178	0x3ec2c446	0.3804037
179	0xbf3c6e23	-0.73605555
180	0x3e04dd15	0.12974961
181	0x3de87061	0.113495596
182	0x3f25e58d	0.6480339
183	0xbf2cf65b	-0.6756341
184	0x3f11165f	0.5667476
185	0x3e3d0c52	0.18461731
186	0x3e4b19b9	0.19834031
187	0xbf5e2659	-0.86777264
188	0xbe5fd38b	-0.21858041
189	0x3d0ca5d7	0.034337845
190	0x3f58c175	0.8467019
191	0x3ef518e6	0.47870559
192	0xbe4176ce	-0.18892977
193	0x3ed6ac1b	0.4192818
194	0xbe0279e2	-0.12741807
195	0x3f861fcf	1.0478457
196	0x3e2f4a5f	0.17118214
197	0x3ea93ac7	0.33052656
198	0xbe5094ea	-0.20369306
199	0xbf13c2c3	-0.5771906
200	0x3fa382d7	1.2774304
201	0x3ff15034	1.8852601
202	0xbebc160e	-0.36735576
203	0xbecbe3b8	-0.39822173
204	0x3f5f2632	0.87167656
205	0xbf8c7945	-1.0974509
206	0x3e2d8538	0.1694535
207	0xbfaf9a21	-1.3718911
208	0xbfa2d56f	-1.2721385
209	0xbe9ac96c	-0.30231798
210	0x3e00c3a6	0.12574634
211	0x3e6cc499	0.23121871
212	0xbe922458	-0.28543353
213	0x3ed98ed9	0.42491797
214	0x3f48845a	0.7832695
215	0x3e21d9ec	0.15805787
216	0x3f7ac81d	0.979616
217	0xbf527436	-0.82208574
218	0x3d4b76ed	0.049673963
219	0x3f12d5df	0.5735759
220	0xbf69a098	-0.9126067
221	0x3e9b78a8	0.3036549
222	0xbf1e3b6b	-0.61809415
223	0x3f0159f8	0.50527906
224	0x3e06427b	0.13111298
225	0xbeedbefb	-0.4643477
226	0xbfa4a3a0	-1.2862434
227	0xbd81e6e1	-0.06342865
228	0x3f58e84e	0.8472947
229	0x3fa320c6	1.2744377
230	0x3f2e8ebe	0.6818656
231	0xbe8f5a45	-0.27998558
232	0x3f15a219	0.58450466
233	0xbf79edbd	-0.97628385
234	0x3ea520c0	0.3225155
235	0x3e0ad145	0.13556392
236	0x3eb9b78f	0.36272857
237	0x3deff52e	0.11716686
238	0x3fc680cf	1.5508059
239	0x3ea27752	0.3173166
240	0xbd60c59a	-0.054875948
241	0xbd144cd8	-0.036206096
242	0x3f7309a1	0.9493657
243	0x3f3aa8fe	0.7291411
244	0x3e9236f9	0.28557566
245	0xbf029988	-0.5101552
246	0xbf0ad885	-0.5423663
247	0xbf1b1e74	-0.6059334
248	0x3f102f70	0.56322384
249	0x3e963e79	0.29344538
250	0xbede49b5	-0.4341561
251	0xbf601280	-0.8752823
252	0xbec52de4	-0.38511574
253	0x3f0a978f	0.5413751
254	0x3ea93b79	0.33053187
255	0x3fae1d35	1.3602663

weight f4 [32]
0	0x3fa68246	1.3008506
1	0x3f8e69fb	1.1126093
2	0x3f349450	0.70538807
3	0x3f7c9669	0.9866701
4	0x3f1e669d	0.61875325
5	0x3f9b8f3b	1.2153085
6	0x3f9c0ac9	1.2190791
7	0x3f688d7a	0.90840876
8	0x3f59a527	0.8501763
9	0x3f6cea76	0.9254526
10	0x3f96ae37	1.1771916
11	0x3f334427	0.7002587
12	0x3f23c45d	0.639715
13	0x3fb6588f	1.4245776
14	0x3f2e3b49	0.6805921
15	0x3f589668	0.846045
16	0x3f8a4fee	1.0805643
17	0x3f83bc2a	1.0291798
18	0x3f61af76	0.8815836
19	0x3f80bdaf	1.0057887
20	0x3f2f64eb	0.68513364
21	0x3fa48594	1.2853265
22	0x3f2b3d19	0.668901
23	0x3f8329e7	1.0247163
24	0x3f8e4785	1.1115576
25	0x3f7334fc	0.9500272
26	0x3fa9ff2a	1.3280995
27	0x3f8a4d20	1.0804787
28	0x3f84d578	1.0377645
29	0x3facf530	1.3512325
30	0x3f30a4eb	0.69001645
31	0x3f763c38	0.96185637

bias f4 [32]
0	0x3deffb33	0.11717834
1	0x3ecfadc5	0.40562263
2	0x3cd3975a	0.025829006
3	0x3dd51ce4	0.10405901
4	0x3e17e5f5	0.14833815
5	0x3d268235	0.04065152
6	0xbe0f4aeb	-0.13993423
7	0xbdd42a84	-0.10359672
8	0x3e8b12e3	0.27162847
9	0x3e3a8c20	0.18217516
10	0xbddb4318	-0.107061565
11	0x3e14d130	0.14532924
12	0xbe3c3778	-0.18380535
13	0xbe570a60	-0.21000051
14	0xbe893421	-0.26797584
15	0x3e023c6f	0.12718366
16	0x3e88356e	0.26603264
17	0x3db18e94	0.08669773
18	0xbe9a1e80	-0.30101395
19	0xbd926c71	-0.0714959
20	0xbec4ae4a	-0.38414222
21	0x3e1b3fe0	0.15161085
22	0x3ea796c1	0.32732204
23	0xbde4cb81	-0.11171628
24	0xbe54ed23	-0.20793585
25	0xbda919ef	-0.082568996
26	0x3dd9c07b	0.10632416
27	0xbea1d590	-0.31608248
28	0xbec20064	-0.37890923
29	0x3ed15a35	0.40889135
30	0xbe7c7397	-0.24653469
31	0xbe28d211	-0.16486384

running_mean f4 [32]
0	0x3e0de18d	0.13855572
1	0x3e042dfe	0.1290817
2	0x3da9d54c	0.08292636
3	0xbda03834	-0.0782322
4	0xbcd983ac	-0.026552044
5	0x3cf6a5bb	0.030108323
6	0x3b664b3f	0.0035140065
7	0x3d3e99a1	0.04653323
8	0x3dc73537	0.09726947
9	0xbde35b93	-0.11101451
10	0x3db316ee	0.08744608
11	0xbd20784b	-0.03917722
12	0xbdb83735	-0.08994905
13	0x3d99165a	0.07474966
14	0x3de2c79e	0.1107323
15	0xbcfc7b1d	-0.030820424
16	0x3dae2899	0.08503837
17	0x3aba05db	0.0014192419
18	0x3ba77679	0.0051105586
19	0xbdb2908c	-0.087189764
20	0xbad11b8c	-0.0015953644
21	0x3e091143	0.13385491
22	0xbc642d15	-0.013926764
23	0xbcd7dab4	-0.026349403
24	0xbcd996b9	-0.026561128
25	0x3dbac7b9	0.09120125
26	0x3d92af98	0.07162398
27	0x3d340d08	0.04395774
28	0x3d76d9dc	0.06026636
29	0x3cb073e0	0.021539629
30	0x3c702f43	0.014659706
31	0xbce52805	-0.027973184

running_var f4 [32]
0	0x3fb79f27	1.4345444
1	0x3fa36ac5	1.2766958
2	0x3fdce99d	1.7258793
3	0x3f9f0970	1.2424755
4	0x3ff2aa0c	1.8958144
5	0x3f9d9afe	1.2312925
6	0x3f9ff083	1.2495273
7	0x3f818480	1.0118561
8	0x3fcd3398	1.603137
9	0x3f9a9b68	1.2078676
10	0x3fa22f92	1.2670767
11	0x3fc2be72	1.5214369
12	0x3f9c2de6	1.2201507
13	0x3f73d2c8	0.952435
14	0x3fabd86a	1.3425419
15	0x3fcc1923	1.5945171
16	0x3fc9e87b	1.5774072
17	0x3fce7b00	1.6131287
18	0x3fa57cbf	1.2928694
19	0x3f91b35e	1.1382864
20	0x3f83730e	1.0269487
21	0x3fcdc965	1.6077086
22	0x3f9b11e1	1.2114831
23	0x3f8d7af1	1.1053144
24	0x3fc3e185	1.5303198
25	0x3f87a7d4	1.0598092
26	0x3fa97e19	1.3241607
27	0x3f8ffe98	1.1249571
28	0x40166245	2.349748
29	0x3fc4af6b	1.5366033
30	0x3f7bfe82	0.98435223
31	0x3f9e0f41	1.2348405

weight f4 [32, 16]
0	0x3d3e6d51	0.04649097
1	0x3e4a7732	0.19772032
2	0xbf4370d6	-0.7634405
3	0x3e5a2bbb	0.21305744
4	0x3f36d901	0.7142487
5	0xbdac5a52	-0.08415665
6	0xbd97d281	-0.07413197
7	0x3f25ed5d	0.6481531
8	0xbebd4999	-0.36970213
9	0x3eafafad	0.34313717
10	0xbf5d0a5b	-0.86343926
11	0x3fb911ea	1.4458592
12	0xbef28075	-0.4736363
13	0x3db9e668	0.0907715
14	0x3d69182d	0.05690782
15	0x3e86eca1	0.2635241
16	0xbd06776e	-0.03282874
17	0xbf049fcd	-0.51806337
18	0xbe8f4a90	-0.27986574
19	0x3c11e6db	0.008905138
20	0xbdf6efaa	-0.12057431
21	0xbeffe202	-0.49977118
22	0xbf1c2525	-0.6099418
23	0xbf551c06	-0.83245885
24	0x3e6a988e	0.22909757
25	0xbf34104c	-0.7033737
26	0xbf63b590	-0.8894892
27	0xbf9b337e	-1.2125089
28	0x3e65ab9e	0.22428748
29	0xbf4c2955	-0.7975057
30	0x3edcec93	0.43149242
31	0xbf709ff9	-0.939941
32	0xbeecb2de	-0.46230215
33	0xbe385bfe	-0.18003842
34	0x3de245ec	0.11048493
35	0x3ec55251	0.38539365
36	0xbe6ebe56	-0.23314795
37	0x3ecd07a1	0.40044883
38	0xbf26cdcf	-0.6515779
39	0xbef87417	-0.4852607
40	0xbc47f135	-0.012203504
41	0x3e8d1938	0.27558303
42	0xbe93b164	-0.28846276
43	0x3e7438e9	0.23849835
44	0x3f08df84	0.5346606
45	0x3f55422b	0.8330409
46	0xbe88369b	-0.2660416
47	0xbdac04fd	-0.08399389
48	0xbe987373	-0.2977558
49	0xbf9aa7b3	-1.2082428
50	0x3e75e7f8	0.2401427
51	0xbf3ef254	-0.74588513
52	0x3e1c7d9b	0.1528229
53	0x3faa1682	1.3288119
54	0x3e26dddf	0.16295575
55	0xbf3183cc	-0.6934173
56	0x3f3d9af9	0.74064595
57	0xc001602c	-2.0214949
58	0xbf0f1137	-0.5588564
59	0x3d4d243c	0.050083384
60	0xbf7bf58a	-0.9842154
61	0xbf5a41aa	-0.85256445
62	0x3fb8d700	1.4440613
63	0x3f13dde7	0.5776047
64	0xbe4fb2b5	-0.20283015
65	0x3f79accd	0.975293
66	0x3f98412a	1.1894886
67	0x3f37c214	0.71780515
68	0xbf6c5f23	-0.9233267
69	0x3e072470	0.13197494
70	0xbf401842	-0.75037014
71	0x3fb438ea	1.4079869
72	0xbdccab50	-0.09993613
73	0x3d563cc1	0.052304033
74	0x3f399210	0.724885
75	0x3caaa4b6	0.020830493
76	0xbdf63b11	-0.12022985
77	0xbf83d3f9	-1.0299064
78	0x3ea906fd	0.33013144
79	0xbeec743c	-0.4618243
80	0x3e955c51	0.29171994
81	0x3eb3ce42	0.351183
82	0x3fda2bd0	1.704462
83	0xbf22549c	-0.63410354
84	0xbe9a1127	-0.3009121
85	0x3ceec949	0.029148715
86	0xbec4d9ff	-0.38447568
87	0x3f3347a9	0.7003122
88	0xbf2a50a1	-0.6652928
89	0x3f64c3a8	0.8936105
90	0x3ea856e2	0.32878786
91	0xbf7f8c15	-0.99823123
92	0x3f417a69	0.7557741
93	0x3fffd880	1.9987946
94	0xbe8dfd43	-0.27732286
95	0x3f5156c4	0.8177302
96	0xbf7f0435	-0.99615794
97	0x3f2c4024	0.6728537
98	0xbf2099e5	-0.62734824
99	0x3c054c09	0.008135804
100	0x3f19f9fa	0.6014706
101	0x3f292940	0.6607857
102	0x3e8ca4ea	0.2746957
103	0x3ff7cbe4	1.9359097
104	0x3fb4e77c	1.4133143
105	0xbec937d1	-0.39300397
106	0x3e170c2a	0.14750734
107	0xbfca6ba0	-1.5814095
108	0xbf4f9dbe	-0.8110007
109	0x3f2f1b8e	0.6840142
110	0x3ef3e461	0.47635177
111	0x3d8ae286	0.06781487
112	0x3f14fdc6	0.5819973
113	0x3fbb8572	1.4650099
114	0x3e8d7b30	0.27633047
115	0x3f0a26fd	0.5396574
116	0xbe952712	-0.2913137
117	0xbf7b1d9a	-0.98092043
118	0xbec67a95	-0.38765398
119	0xbe7d5c0f	-0.24742149
120	0x3fa383e7	1.2774628
121	0xbf375718	-0.7161727
122	0x3f0d72a8	0.55253077
123	0x3d6ae858	0.057350487
124	0x3f63bffa	0.8896481
125	0xbf35bbd2	-0.70989716
126	0xbf68b677	-0.9090342
127	0xbf2a511e	-0.66530025
128	0xbd215734	-0.039389804
129	0x3df05a3c	0.11735961
130	0xbeb3d03f	-0.35119817
131	0x3e29f3b7	0.16596876
132	0xbeecd44c	-0.4625572
133	0xbf2375bd	-0.6385153
134	0x3eac9c66	0.33713073
135	0x3e44e215	0.19226868
136	0x3e535639	0.2063836
137	0x3f227af4	0.6346886
138	0x3ebb1955	0.36542764
139	0x3ed2d4e7	0.41178057
140	0x3e06f7f9	0.13180532
141	0xbf97dacc	-1.1863647
142	0x3d37b02e	0.044845752
143	0xbe4214b4	-0.1895321
144	0x3f5910bc	0.8479116
145	0xbcf36c1d	-0.029714638
146	0xbee44eaa	-0.44591266
147	0x3ebf4f63	0.37365255
148	0x3f178904	0.59193444
149	0x3f276fae	0.65404785
150	0x3f54af19	0.8307968
151	0x3fdd9e43	1.7313923
152	0xbf211bc6	-0.62933004
153	0x3f0baf35	0.5456422
154	0xbf1da143	-0.6157419
155	0x3e0718d2	0.13193062
156	0xbec474ea	-0.38370448
157	0xbcf132ba	-0.029443134
158	0x3eb5fed4	0.3554598
159	0x3f1d1046	0.61352956
160	0xbb8c81c2	-0.0042879293
161	0xbe8fd821	-0.2809458
162	0xbe378bba	-0.17924395
163	0xbf770458	-0.96491003
164	0x3c2b63c6	0.0104608
165	0xbf12dfc0	-0.57372665
166	0xbe8f0e77	-0.27940723
167	0x3ee1aaaf	0.44075534
168	0xbe32e687	-0.17470752
169	0xbf20f44a	-0.62872756
170	0x3f7a0b93	0.9767391
171	0x3f519c62	0.81879246
172	0xbf649ada	-0.89298785
173	0x3f50e569	0.8160005
174	0x3e98f8ef	0.2987742
175	0x3f014db8	0.50509214
176	0xbe908dae	-0.28233093
177	0x3ef4a055	0.47778574
178	0xbebcb927	-0.3686001
179	0xbf829c42	-1.0203936
180	0x3f611f8c	0.8793876
181	0xbf84a98d	-1.0364243
182	0xbdd266f5	-0.10273544
183	0xbf34ae90	-0.7057886
184	0x3e805271	0.25062898
185	0x3f6a949c	0.9163301
186	0x3e3c125f	0.18366383
187	0xbf15b32d	-0.58476526
188	0x3f639f7c	0.8891523
189	0xbf03d0ca	-0.5149046
190	0xbef4d31a	-0.47817308
191	0xbef1b16a	-0.4720567
192	0xbfdd22d2	-1.7276251
193	0x3e110ee3	0.14165835
194	0xbe79a337	-0.24378668
195	0x3e7e8eef	0.24859212
196	0xbebb1133	-0.3653656
197	0x3e2bc9b5	0.16776164
198	0xbf53922c	-0.82644916
199	0x3fe3e5b1	1.7804471
200	0xbf68dc6a	-0.90961325
201	0x3fa55026	1.2915084
202	0x3ef9d163	0.48792562
203	0x3f32d6a8	0.6985879
204	0x3e9b5321	0.3033686
205	0xbf9485ef	-1.1603373
206	0x3c34c503	0.011033299
207	0x3ec1fd49	0.37888554
208	0x3d59c4be	0.053166144
209	0x3f19e7cf	0.60119337
210	0xbe8e8ca6	-0.2784168
211	0xbe738690	-0.237818
212	0xbe887c3d	-0.26657286
213	0xbf9f2ca7	-1.2435502
214	0x3ea3fcd0	0.32028818
215	0xbf34910a	-0.7053381
216	0x3f01cca0	0.5070286
217	0xbf89a0df	-1.0752219
218	0x3dc545ce	0.09632455
219	0xbe840491	-0.25784734
220	0x3d6ea45b	0.05826221
221	0xbfae25ca	-1.3605282
222	0xbf086c1e	-0.53289974
223	0xbeeddced	-0.46457615
224	0xbf81937f	-1.0123137
225	0x3f69c5b9	0.91317326
226	0x3d92bdca	0.07165106
227	0x3f51c9e3	0.8194868
228	0xbe37bb28	-0.17942488
229	0xbe37c459	-0.17945994
230	0xbf3ab807	-0.72937053
231	0xbe03c223	-0.12867026
232	0xbd138c85	-0.03602268
233	0xbdddaa00	-0.108234406
234	0xbb8c6b58	-0.0042852573
235	0xbef81776	-0.484554
236	0xbfdb0497	-1.7110776
237	0xbf2415d7	-0.64095825
238	0xbeff40fa	-0.4985426
239	0x3e9a91de	0.30189413
240	0x3f59295b	0.8482873
241	0x3ecf73cf	0.40518042
242	0x3f1d3646	0.6141094
243	0xbf0bffa9	-0.5468698
244	0x3ece1b53	0.40255222
245	0x400e6036	2.2246222
246	0xba610c55	-0.00085849065
247	0xbe81b40d	-0.2533268
248	0x3ccd9f16	0.025100272
249	0x3e45616b	0.19275443
250	0x3b1ed91f	0.00242383
251	0xbefb03fe	-0.49026483
252	0x3e696d51	0.22795607
253	0xbf15add2	-0.58468354
254	0x3f144934	0.579242
255	0x3e43a968	0.19107592

weight f4 [32]
0	0x3f800000	1.0
1	0x3f800000	1.0
2	0x3f800000	1.0
3	0x3f800000	1.0
4	0x3f800000	1.0
5	0x3f800000	1.0
6	0x3f800000	1.0
7	0x3f800000	1.0
8	0x3f4dca4b	0.803868
9	0x3f85c988	1.0452127
10	0x3fa3ae50	1.2787571
11	0x3f9e46c4	1.2365346
12	0x3f684e28	0.90744257
13	0x3f670662	0.90244114
14	0x3fa35946	1.2761619
15	0x3f5df693	0.8670437
16	0x3f800000	1.0
17	0x3f800000	1.0
18	0x3f800000	1.0
19	0x3f800000	1.0
20	0x3f800000	1.0
21	0x3f800000	1.0
22	0x3f800000	1.0
23	0x3f800000	1.0
24	0x3f4178d2	0.7557498
25	0x3f3fd89b	0.7493989
26	0x3f2956aa	0.66147864
27	0x3f94b747	1.1618432
28	0x3f98a767	1.1926087
29	0x3fae39d3	1.3611397
30	0x3fac724e	1.3472383
31	0x3f4fdf6d	0.81200296

bias f4 [32]
0	0x00000000	0.0
1	0x00000000	0.0
2	0x00000000	0.0
3	0x00000000	0.0
4	0x00000000	0.0
5	0x00000000	0.0
6	0x00000000	0.0
7	0x00000000	0.0
8	0xbdb5d550	-0.08878577
9	0xbbc42fbf	-0.005987137
10	0xbd94b77a	-0.07261558
11	0xbe8bea3f	-0.27327153
12	0x3ebffcd6	0.37497586
13	0x3e1385bc	0.14406484
14	0xbe48f163	-0.19623332
15	0x3e9746e7	0.29546282
16	0x00000000	0.0
17	0x00000000	0.0
18	0x00000000	0.0
19	0x00000000	0.0
20	0x00000000	0.0
21	0x00000000	0.0
22	0x00000000	0.0
23	0x00000000	0.0
24	0x3d07f15f	0.033189174
25	0x3db2349a	0.08701439
26	0x3edf7db0	0.4365058
27	0x3e94ad0e	0.2903828
28	0x3e43df83	0.19128232
29	0xbeaf909a	-0.3429001
30	0x3cb48155	0.022034327
31	0x3e371e3c	0.17882627

running_mean f4 [32]
0	0x3de4fa1f	0.11180519
1	0xbb65888b	-0.0035024013
2	0x3c9735ac	0.01845821
3	0x3de56f3c	0.11202857
4	0xbcbd373e	-0.02309763
5	0xbe21058a	-0.15724769
6	0xbd5f0e3d	-0.054456938
7	0xbd3dd49d	-0.046345342
8	0xbca16a88	-0.019704118
9	0x3dee4ecc	0.11636123
10	0xbd9756af	-0.073895805
11	0xbe307d0e	-0.17235205
12	0xbd9457b5	-0.07243291
13	0xbd46add4	-0.04850562
14	0x3d1a17cd	0.037620354
15	0x3db75757	0.08952206
16	0xbb5ca86c	-0.0033669723
17	0x3dc4d299	0.09610481
18	0xbda593c3	-0.08084824
19	0xbdd27082	-0.102753654
20	0xbcf2ad7e	-0.029623743
21	0xbd636d91	-0.055524413
22	0xbb8e0fe0	-0.0043353885
23	0x3ca401e8	0.02002044
24	0x3e5b4559	0.21413173
25	0xbda4aeca	-0.08041151
26	0xbd2f46c8	-0.04279211
27	0xbccc2719	-0.024920987
28	0x3def2c76	0.11678402
29	0xbda8f338	-0.08249515
30	0x3d374235	0.044740874
31	0x3d85a59c	0.06525728

running_var f4 [32]
0	0x3f7e1a3d	0.99258786
1	0x3fa4c20f	1.2871722
2	0x3f6cc5bd	0.92489225
3	0x4045b25b	3.089011
4	0x3f7a7a0d	0.97842485
5	0x3fc0413f	1.5019912
6	0x3fbde041	1.4834062
7	0x3fff24f8	1.9933157
8	0x3f89b64b	1.0758756
9	0x3fa9f70b	1.3278517
10	0x3f96ea80	1.1790314
11	0x3f9b2413	1.2120384
12	0x3fd733cd	1.6812683
13	0x3fafe0f2	1.3740523
14	0x3f94b083	1.1616367
15	0x40738ef1	3.8055995
16	0x3f6a6cae	0.9157208
17	0x3f96c10d	1.1777664
18	0x3fb2f460	1.3980827
19	0x3fa4648d	1.2843186
20	0x3f938b05	1.15268
21	0x3f8db626	1.1071212
22	0x400d074d	2.2035706
23	0x3f8ab6f2	1.083708
24	0x3fdc3264	1.7202878
25	0x3ff683aa	1.9258931
26	0x3f98056e	1.1876657
27	0x3fa5f5c6	1.2965629
28	0x4009395b	2.1441257
29	0x4077fa05	3.874635
30	0x3fbcc79b	1.4748415
31	0x3f98ef00	1.1947937

weight f4 [32]
0	0x3f762abe	0.9615897
1	0x3faa9c8f	1.3329028
2	0x3f9c5430	1.2213192
3	0x3fa29ffa	1.2705071
4	0x3f662f79	0.8991619
5	0x3f86f0ba	1.0542214
6	0x3f45ca3f	0.7726173
7	0x3f42875f	0.7598781
8	0x3f85234e	1.0401399
9	0x3f522d38	0.8210025
10	0x3f8d3777	1.1032552
11	0x3f28777f	0.65807337
12	0x3f8b15c6	1.086602
13	0x3f5367ae	0.8258008
14	0x3f500f3a	0.81273234
15	0x3f72b6a6	0.9480995
16	0x3f92a480	1.1456451
17	0x3f9179ed	1.1365334
18	0x3f903dff	1.126892
19	0x3fc0206c	1.5009894
20	0x3f8cf0ee	1.1011026
21	0x3f79bb96	0.9755186
22	0x3f3672f6	0.71269166
23	0x3f7d0089	0.9882894
24	0x3fb021db	1.3760332
25	0x3f68ff28	0.9101434
26	0x3f8695c8	1.051446
27	0x3f994627	1.1974534
28	0x3f812889	1.0090495
29	0x3f976e7d	1.1830593
30	0x3f596038	0.84912443
31	0x3f8caba9	1.0989887

bias f4 [32]
0	0xbea6f029	-0.32605103
1	0xbec4d933	-0.3844696
2	0xbeba2e82	-0.36363608
3	0x3f066ea8	0.525126
4	0xbe8a4783	-0.27007684
5	0x3f032cc7	0.512402
6	0xbec8c6a7	-0.3921406
7	0x3f0b68d9	0.5445686
8	0xbd1d4aaf	-0.038401302
9	0x3e28d54d	0.16487618
10	0xbe9f6a13	-0.31135616
11	0xbddd0590	-0.107920766
12	0xbd6aa7ad	-0.057288814
13	0x3e5edac9	0.21763147
14	0x3db6a19a	0.08917542
15	0xbe5ce8d8	-0.21573198
16	0x3e205acd	0.15659638
17	0x3e9785c0	0.2959423
18	0x3ecd404e	0.40088123
19	0x3e2a76f6	0.16646942
20	0xbd608224	-0.05481161
21	0x3e86398a	0.26215774
22	0xbd33958b	-0.043843787
23	0x3c237ffa	0.009979242
24	0xbceb5fa4	-0.028732128
25	0xbe77c4f6	-0.24196228
26	0x3e96d106	0.29456347
27	0xbe9aa584	-0.30204403
28	0x3d85bca5	0.06530122
29	0xbe59cfe7	-0.21270715
30	0xbe13062b	-0.14357822
31	0x3c911b46	0.0177132

running_mean f4 [32]
0	0x3d18ff84	0.037353054
1	0x3cd3bcb3	0.025846815
2	0x3d45cd06	0.04829123
3	0x3d50047f	0.050785538
4	0xbd021447	-0.03175762
5	0xbd68e9b5	-0.056863505
6	0xbd01a538	-0.031651706
7	0x3d56e614	0.052465513
8	0x3d4a2afc	0.0493574
9	0xba1f63d8	-0.00060802465
10	0xbd48910e	-0.04896646
11	0xbd3a55a2	-0.045491822
12	0xbc345eb7	-0.01100891
13	0xbc056483	-0.00814164
14	0x3c8e0cbf	0.017340062
15	0xbc7a14f7	-0.0152637875
16	0x3d39aa0b	0.04532818
17	0xbcf67cfa	-0.03008889
18	0x3d6091d4	0.054826573
19	0x3d9b6682	0.07587911
20	0x3a07523a	0.0005162094
21	0xbc9875b0	-0.018610805
22	0x3d9178c2	0.07103111
23	0xbca35456	-0.019937675
24	0xbc936127	-0.017990662
25	0xbcb2fe4c	-0.021849774
26	0x3d687f46	0.056762002
27	0xbcd90cbc	-0.02649533
28	0xbcb00904	-0.021488674
29	0xbb57f3e3	-0.0032951764
30	0x3c468a2b	0.012117903
31	0xbcb36a7c	-0.021901362

running_var f4 [32]
0	0x3f5f4a84	0.87223077
1	0x3f5d758a	0.86507475
2	0x3f5cc92a	0.8624445
3	0x3f5cc00a	0.8623053
4	0x3f596c95	0.8493131
5	0x3f5adc0d	0.8549202
6	0x3f610acf	0.8790712
7	0x3f6ae04c	0.917485
8	0x3f5c2901	0.86000067
9	0x3f5402c0	0.82816696
10	0x3f6d4dbb	0.9269673
11	0x3f7be24e	0.9839219
12	0x3f606b80	0.8766403
13	0x3f5b2aea	0.85612357
14	0x3f55dc94	0.835397
15	0x3f552bc6	0.8326992
16	0x3f6110a7	0.87916034
17	0x3f5a4ce1	0.8527356
18	0x3f6dda75	0.92911464
19	0x3f82466c	1.0177741
20	0x3f50e2f6	0.81596315
21	0x3f5525ac	0.8326061
22	0x3f6e96e6	0.93199
23	0x3f554493	0.8330776
24	0x3f5229a8	0.8209481
25	0x3f570ea2	0.840067
26	0x3f700c3c	0.9376867
27	0x3f61db38	0.88225126
28	0x3f693c17	0.91107315
29	0x3f5b2ae5	0.85612327
30	0x3f6139bd	0.87978727
31	0x3f8a9e71	1.0829602

weight f4 [32]
0	0x3f63e265	0.89017326
1	0x3fa42185	1.2822729
2	0x3f628556	0.88484704
3	0x3fbfc5ce	1.498224
4	0x3f65d7c4	0.8978236
5	0x3f9c8b33	1.222998
6	0x3f32d22e	0.6985196
7	0x3f935de0	1.1513023
8	0x3f806269	1.0030032
9	0x3f82e364	1.0225644
10	0x3f450f9a	0.7697693
11	0x3faa0372	1.3282301
12	0x3f4c1c75	0.7973092
13	0x3f248ef0	0.64280605
14	0x3f3127b0	0.69201183
15	0x3f830c17	1.0238065
16	0x3f39430f	0.7236795
17	0x3f9faf03	1.2475284
18	0x3f4c12d3	0.79716223
19	0x3f8c22bf	1.0948104
20	0x3f69274b	0.9107558
21	0x3f8c7166	1.0972106
22	0x3f949a54	1.1609597
23	0x3f6f00a7	0.9336037
24	0x3f8e14e5	1.1100127
25	0x3f98b5a0	1.1930428
26	0x3f6bd904	0.92128015
27	0x3f6f4ac9	0.9347349
28	0x3f534c96	0.82538736
29	0x3fa0b851	1.2556249
30	0x3fa2335c	1.2671924
31	0x3f7b337f	0.9812545

bias f4 [32]
0	0x3cfb251c	0.030657344
1	0xbebfc5b8	-0.37455535
2	0xbeb276e4	-0.3485633
3	0x3f09c0ff	0.53810114
4	0xbeb7e9eb	-0.35920653
5	0x3f0b8eba	0.5451466
6	0xbdd6971d	-0.10478041
7	0x3f078b3e	0.5294684
8	0xbe73d390	-0.23811173
9	0xbc09f568	-0.008420326
10	0xbe4de05e	-0.2010512
11	0xbd86f22c	-0.06589159
12	0x3e117824	0.14205986
13	0x3de5ce72	0.11221017
14	0x3e582251	0.2110684
15	0x3ea7cf7c	0.32775486
16	0xbce4214c	-0.027847908
17	0x3ecb455e	0.3970136
18	0xbe263af9	-0.16233434
19	0x3f0a9f3b	0.54149216
20	0xbd851857	-0.06498783
21	0x3e9a82e0	0.30177975
22	0xbec9361d	-0.39299098
23	0x3e265086	0.16241655
24	0x3bcd9138	0.006273415
25	0xbd7e16e5	-0.062033553
26	0xbe113632	-0.1418083
27	0x3ea97735	0.3309876
28	0xbbf5e3e1	-0.007503972
29	0xbe34ce40	-0.17656803
30	0xbe8fb19e	-0.280652
31	0x3d943aaf	0.072377555

running_mean f4 [32]
0	0xbe089b50	-0.13340497
1	0x3dfc937f	0.1233282
2	0xbdf3f56f	-0.11912047
3	0xbac0ab88	-0.0014699558
4	0xbd976adf	-0.07393431
5	0x3e265b23	0.16245703
6	0x3d39ff71	0.045409624
7	0x3d4361b4	0.0477006
8	0x3da7ba70	0.08189857
9	0x3d6090e8	0.054825693
10	0x3d99e37d	0.07514093
11	0x3e084921	0.13309146
12	0xbd46974b	-0.048484128
13	0x3d14e1d1	0.036348168
14	0x3d07ec92	0.033184595
15	0x3bf8b0aa	0.0075894194
16	0x3d38009d	0.04492246
17	0x3c842832	0.016132448
18	0x3d49b80f	0.049247798
19	0xbd6bac81	-0.05753756
20	0xbdb00413	-0.08594527
21	0xbdb3dbf9	-0.08782191
22	0x3da14592	0.078745976
23	0xbd1f5d7b	-0.03890751
24	0x3cb84ffc	0.022499077
25	0xbe96614d	-0.2937111
26	0x3d9e62a1	0.07733656
27	0xbcf849a6	-0.030308556
28	0x3cd34a15	0.025792161
29	0xbe179b55	-0.14805348
30	0xbd964d62	-0.07338978
31	0x3cc7b4cf	0.024378208

running_var f4 [32]
0	0x3f9bdb43	1.2176288
1	0x4003ef77	2.0614908
2	0x401b20ce	2.4238772
3	0x3f890fe3	1.0707973
4	0x3fab242b	1.3370413
5	0x3fdafa3e	1.7107618
6	0x3f9681ae	1.1758325
7	0x3ffb7d4f	1.9647616
8	0x3fa4c032	1.2871153
9	0x3f84fbbf	1.0389327
10	0x3fe677b7	1.8005284
11	0x40030c28	2.047617
12	0x3fa7d7d1	1.3112737
13	0x3faf04a8	1.3673296
14	0x3ff84f94	1.9399285
15	0x3fc47b6d	1.5350167
16	0x3f7d9c9c	0.9906709
17	0x3f7f9c6a	0.99848044
18	0x3fda39fa	1.7048943
19	0x3f9ae728	1.2101793
20	0x3f967304	1.175385
21	0x3fa29857	1.270274
22	0x3f6f6b8f	0.93523496
23	0x3fca3a0b	1.5798963
24	0x40355f7b	2.8339527
25	0x3fdb9efa	1.7157891
26	0x401e82b8	2.4767284
27	0x3fc28193	1.5195793
28	0x40326b6d	2.7878067
29	0x3fa111fd	1.2583615
30	0x3fcd3a67	1.6033448
31	0x3f9a866e	1.2072275
