04_Experiments/2022_08_02 10-12-49 100-runs-optimizer_params-custom_loss/models/Model_run75_optimizer_params0.2_alcalinity_of_ash.pt (torch, 271905 bytes, 318 tensors)

weight f4 [12]
00000000: 0000 803f 0000 803f 0000 803f 0000 803f
00000010: 0000 803f 0000 803f 0000 803f 0000 803f
00000020: 0000 803f 0000 803f 0000 803f 0000 803f
1.0 1.0 1.0 1.0 1.0 1.0 1.0 1.0
1.0 1.0 1.0 1.0

bias f4 [12]
00000000: 0000 0000 0000 0000 0000 0000 0000 0000
00000010: 0000 0000 0000 0000 0000 0000 0000 0000
00000020: 0000 0000 0000 0000 0000 0000 0000 0000
0.0 0.0 0.0 0.0 0.0 0.0 0.0 0.0
0.0 0.0 0.0 0.0

running_mean f4 [12]
00000000: 0000 0000 0000 0000 0000 0000 0000 0000
00000010: 0000 0000 0000 0000 0000 0000 0000 0000
00000020: 0000 0000 0000 0000 0000 0000 0000 0000
0.0 0.0 0.0 0.0 0.0 0.0 0.0 0.0
0.0 0.0 0.0 0.0

running_var f4 [12]
00000000: 0000 803f 0000 803f 0000 803f 0000 803f
00000010: 0000 803f 0000 803f 0000 803f 0000 803f
00000020: 0000 803f 0000 803f 0000 803f 0000 803f
1.0 1.0 1.0 1.0 1.0 1.0 1.0 1.0
1.0 1.0 1.0 1.0

weight f4 [12]
00000000: f856 de3f c17a 1740 0396 3240 30cc eabd
00000010: ba34 c43f 03f2 563f 4d25 4540 6374 5a3f
00000020: 581f 3f3e f2b9 2a40 a6a4 1240 9570 0f40
1.7370291 2.3668673 2.790406 -0.11464727 1.5328591 0.8396303 3.0804017 0.8533384
0.186643 2.6675992 2.2912993 2.2412465

bias f4 [12]
00000000: 22e8 5dbf 2ac9 e5bf e309 de3e 4330 52bf
00000010: fae3 053e a5ac a7bb 2273 c13d 2fb2 d3bf
00000020: f343 993f 7893 b6be 1ca3 cfbd 4b41 e63f
-0.8668233 -1.7952015 0.43366918 -0.8210489 0.13075247 -0.0051170164 0.09445788 -1.6538752
1.1973861 -0.35659385 -0.101385325 1.7988676

running_mean f4 [12]
00000000: d81c 603f c04d bc3e 8304 7e3f faa1 9443
00000010: 6140 f93f be68 423f 6797 683f 4d9a 093e
00000020: 09b7 1a42 a2fe 183f 9d0d 673f 7fad 9f40
0.8754401 0.3677807 0.99225634 297.26544 1.9472772 0.75941074 0.9085602 0.13437767
38.678745 0.5976354 0.9025515 4.9899287

running_var f4 [12]
00000000: 38a2 443f 6c16 233f 089b 4e3f cbb7 1547
00000010: b74b 3140 e620 783f a3ce 253f 4274 1f3f
00000020: 45ca ad42 2ff8 3d3f 6d94 8a3f f5a9 5a3f
0.76810026 0.6370609 0.8070531 38327.793 2.7702463 0.969252 0.6476843 0.6228677
86.89506 0.74206823 1.0826546 0.85415584

weight f4 [32, 12]
00000000: c42c 3540 4746 4cbf f6cf 2e40 643e ae3f
00000010: e9cf 063f 364d cf3f c49c 913f 73dd ccbf
00000020: d81b 41be 129d 2abe 8aad 0bc0 9bbd cbbe
00000030: e001 4040 72b6 bfbf 8d79 4140 7b8e 263e
00000040: 1fd4 9c3e a22f 4a3d 7665 f73e 9de7 2e3f
00000050: db5f 4fbf 6cf2 59be 42fe 3fc0 fda6 003f
00000060: 8ff8 fd3e 34df b73e e4dc b0bf bb36 7fbf
00000070: 06d3 9f3f 4253 bf3d e9fb a9bf ecd3 613f
00000080: abf3 1a40 74da 4040 8558 0640 560f 2840
00000090: 84a9 3440 73a6 9cbf 2b01 0640 13af 68c0
000000a0: 32e6 a53e 27dd 1c3f 6063 8d3f f1d8 a73f
000000b0: d259 41bf 3f33 6440 f1ee b83f 29d7 613e
000000c0: 125b 553f 2c01 8f3f 2e2f e4bd faf0 e73f
000000d0: 1c4d 4340 24ef dc3f a318 8ebf a220 b93f
000000e0: fbd5 c93f 6d8c c83f b546 433f 67f5 1140
000000f0: 03e5 12c0 cc77 623f ee42 21bf 3bb4 f1bf
00000100: 2f3e 5ebe ddf8 50bf 823a c1bf ccb1 db3f
00000110: 17f6 8e3f 6dc9 4fc0 2345 15c0 57e0 38bf
00000120: a8ee 2c3e d651 4140 9db2 b93f c91e 473f
00000130: 0afd 05c0 2dbc 7b3f 38f0 2dbe 16b7 c8bf
00000140: f603 6c3f 6925 1cc0 1967 e8be c5f8 64bf
00000150: c64f 7dbf 8151 39c0 7ac4 ff3f 2228 8f3e
00000160: 5665 cd3f 6e62 1c3e 0a81 db3f 99ca d2bf
00000170: 84e7 e1be 6e1f 3b40 ec15 11c0 c582 b03f
00000180: fe22 54bf 26d4 d4be 33b7 4a3f 8631 adbf
00000190: 57aa a8bf 47e0 e9bf 3da2 6c40 2180 463f
000001a0: 97c1 96be aa37 af3d 0b0c c33f 6872 a63d
000001b0: e801 c53f c634 8d3f c12c d73e cfa5 cdbe
000001c0: c74f 103f eff3 c53e 5189 2c40 b4ec 7a3f
000001d0: 8738 f93f d68b 1fbe 1f4d 80be 77af 6840
000001e0: 1d06 fcbf 7120 c0bf 2a5c 063e e34f 143e
000001f0: 5bd2 a73f 186c 5fbe 7ae7 7bbe 9978 e3bf
00000200: 0a4a 923f 1f9b d3bf 4acc 9e3f 76e5 c13e
00000210: bc6a c33e 26bf b1be e1e3 6fbe 6066 87bf
00000220: d21b 943e e743 55c0 a9ad 29c0 2775 9f3f
00000230: 8e25 1dc0 ac3c 14bf 12d5 b7bf 5828 70be
00000240: 4d64 c7bf 8c5c 1940 c6d8 f1bf ff38 173e
00000250: fa82 273e b319 873f 3b0f 9d3f 044a 6c3f
00000260: 3511 80bc 29ae 1e40 01da 05bf 161f bd3f
00000270: a7cb 9f3f cfc1 f53e 1a99 343f 5cf6 1c40
00000280: 98ba eb3f d3cb 4340 d2f2 023e 3a04 49bf
00000290: 1bb2 3240 b271 44bf 4387 433f e6b9 fd3f
000002a0: 7123 503f be04 7640 8013 aa3e 9e56 413f
000002b0: 221b 10c0 1902 32bf 1936 623d 4027 963e
000002c0: d081 1540 3f3f 0f40 ffcc cfbf 650a 533f
000002d0: 1823 973f 1506 bebe 4670 f93e ff75 5e3f
000002e0: affb 0fc0 9265 da3f 747e fcbf e14b 853f
000002f0: 25f9 21bf 4029 cfbf 8dc7 c63e edc2 14be
00000300: 8bf5 a63e 8f04 69bf 9d4d 8bbf bbfc 3ebd
00000310: a33e dcbf 6260 58c0 5d13 923f 8d8e d13f
00000320: df84 153f 03df a7bf 489f 20c0 b2fe 96bf
00000330: 8dd9 dabf be56 e83f 488e 0ec0 680e 6fbf
00000340: 1902 c3bf d665 4bbf fbd6 19c0 c2bc 55be
00000350: 699c 283e b059 b3bf 8cde b73f 7f2d 2340
00000360: 2db7 13c0 7b5a 2e40 50a9 21c0 4a85 5bbe
00000370: b5bd 46c0 bf78 a8bf 17d6 9b3f 553d 8dbe
00000380: 4b2b f3bf 083a c33e 69a0 013e 8bcd 98bf
00000390: 6f37 80bf 1300 9e3f f28a 073f 7ded a1bf
000003a0: 6ee3 1dc0 dde7 303f 5bfe cebe 6900 b43f
000003b0: 492d 753f e76c 1f40 a0ac 363f a616 6240
000003c0: a9c5 0c3c 2e3c a3bf e16e 553f d1f7 bebf
000003d0: fe91 983f 1522 d83f de88 9b3f b387 fe3e
000003e0: 4bbf 09c0 de03 9c3d e6c2 73bf 8c34 6bc0
000003f0: 58aa 9e3e 9cc9 d83f a955 2740 355f fa3e
2.8308573 -0.79794735 2.731443 1.361279 0.52660996 1.6195438 1.1375966 -1.6005081
-0.18858278 -0.1666148 -2.182467 -0.39793095 3.0001144 -1.4977553 3.0230439 0.1626529
0.30630586 0.049361832 0.48319596 0.68322164 -0.8100564 -0.21283883 -2.9998937 0.50254804
0.49603698 0.35912478 -1.381741 -0.9969289 1.2486274 0.09342052 -1.3280002 0.8821399
2.4211223 3.0133333 2.0991528 2.625936 2.8228464 -1.2238296 2.0938213 -3.6356857
0.32402188 0.6127495 1.1045952 1.311308 -0.7552768 3.5656278 1.4447919 0.22054733
0.8334209 1.1172233 -0.11141811 1.8120415 3.0515814 1.726048 -1.1101269 1.4463084
1.5768427 1.5667855 0.76279765 2.2806032 -2.2952278 0.88464046 -0.6299275 -1.8883127
-0.21703409 -0.81629735 -1.509598 1.7163634 1.1168851 -3.246669 -2.3323448 -0.72217315
0.16887915 3.0206199 1.4507633 0.7778135 -2.0935693 0.9833401 -0.16986167 -1.5680873
0.92193544 -2.4397833 -0.45391157 -0.8944209 -0.9894985 -2.8955996 1.9981835 0.27960306
1.604655 0.15271923 1.7148755 -1.6468078 -0.44121945 2.9237933 -2.266963 1.3789908
-0.82865894 -0.41568106 0.7918579 -1.3530738 -1.3176984 -1.8271569 3.6974022 0.7753926
-0.29444572 0.08555539 1.523805 0.0812729 1.5391207 1.103173 0.42026332 -0.40165564
0.5637173 0.3866267 2.6958811 0.9801743 1.9470376 -0.15580687 -0.2505884 3.6357095
-1.9689366 -1.50099 0.13121095 0.144836 1.311107 -0.21818578 -0.2460002 -1.7771178
1.1428845 -1.6531714 1.2406094 0.37870377 0.3816737 -0.34716147 -0.23426773 -1.0578117
0.28927475 -3.3322694 -2.6512244 1.2457627 -2.4554172 -0.5790508 -1.4361899 -0.2345289
-1.5577484 2.3962736 -1.8894279 0.14767836 0.16358557 1.0554718 1.2270273 0.9230044
-0.015633205 2.47938 -0.5228577 1.4775112 1.2484025 0.47999427 0.70546114 2.4525366
1.8416319 3.0593154 0.12787941 -0.78522074 2.7921207 -0.76735985 0.7637827 1.9822357
0.8130408 3.8440394 0.33218002 0.7552279 -2.251656 -0.6953445 0.055227373 0.2932682
2.3360481 2.2382352 -1.6234435 0.82437736 1.1807585 -0.37114015 0.4871847 0.868988
-2.2497365 1.7062247 -1.972609 1.0413781 -0.6327079 -1.6184464 0.3882412 -0.14527483
0.3260921 -0.9102258 -1.0883061 -0.04662774 -1.7206615 -3.3808827 1.1412159 1.6371628
0.5840587 -1.3114933 -2.5097218 -1.1796477 -1.7097641 1.8151472 -2.2274342 -0.9338136
-1.5235015 -0.79452264 -2.4037464 -0.20872787 0.16465916 -1.4011745 1.4364791 2.5496519
-2.3080552 2.7242725 -2.525959 -0.21437564 -3.1053288 -1.3161849 1.217471 -0.27585855
-1.8997587 0.38130212 0.12658848 -1.1937727 -1.0016917 1.2343773 0.5294639 -1.2650601
-2.4670062 0.69103795 -0.40428433 1.4062625 0.95772225 2.4910219 0.71357155 3.5326324
0.008592048 -1.275274 0.8337231 -1.4919378 1.1919553 1.6885401 1.2151144 0.49712905
-2.1523006 0.07617925 -0.95219266 -3.6750822 0.30989337 1.6936526 2.6146033 0.48900762

weight f4 [32, 16]
00000000: 2ce5 ddbf e1b9 993f 7fb7 cbbe d5b3 efbf
00000010: 19e1 c4bf bdfc cf3e 15ce ec3f c8ca afbf
00000020: 3431 d83f a667 b6bf 5648 0d3f 476d 4cbf
00000030: f3ed e7bf 501d 923d 2487 a0be 5b47 5e40
00000040: 9834 1240 8d5a 9f3f 52a9 04be 27bb 4340
00000050: 9705 6d3f f0a8 1fc0 ae4a 09c0 1ccd 653f
00000060: cdbd 713f 5465 8b3f c804 36bf acf0 03bf
00000070: 3bdc 62bf 98cc d73f 1bf8 76bf 76ee bf3f
00000080: 44d7 f9be 7a56 24c0 b21d 82bf d8df 65bf
00000090: aaa6 92bf b42d d3be bb98 d2be 437a a03f
000000a0: bc3a 893f 610a 853d 7c32 c3bf 6937 19c0
000000b0: c137 4540 a562 363f 69ce c0be 6800 43bf
000000c0: 6cc0 8b3f b64f 9a3f b4db d8bf 91cf d2be
000000d0: 1684 823e 95d2 1ec0 0720 e639 9536 1a40
000000e0: adc0 5840 513b 2b3f 56a9 9d3e 473b 423f
000000f0: 8d40 7d3d b05d 93bf 0090 92be 0be7 40be
00000100: 3a26 2640 d7b8 e4be c8c4 7f3f b4ee 183f
00000110: b060 dabf bf5c 1ac0 0af5 4ebf 8c12 f23f
00000120: 2a58 8f3f bda3 2c3f bdf6 fbbf c1ac 3ec0
00000130: e868 25bf 7427 2abf 2451 a23f f180 9b3f
00000140: d0bd 77bf 6bf9 e1bf 0004 af3f ff28 aa3f
00000150: 4d3a 8e3f 88ff f2bd f87f 583f 7e20 61bf
00000160: 5f38 313e 6abf 06c0 1971 1c3f 5e99 4dbf
00000170: bec1 c2bf 128c 8d3f d8e8 3c40 5928 8540
00000180: 0f64 0bc0 3a30 3c3f 4200 16c0 7d66 ddbe
00000190: 93a9 f8bc db6b 1940 2efc d63f 2140 90bf
000001a0: 41de 2bbe 7ca8 0e3f e349 2cbf 86df 84bc
000001b0: e4c8 49bd 568e 32bf 2bc7 4240 688f 3fbe
000001c0: 67a0 20c0 d24c 25c0 5ef5 d0bf 5e11 63c0
000001d0: a328 b03f 6460 5b3f b7af ae3f d886 a9bf
000001e0: b17d 23c0 70bc 84bf e99d a03f 9547 0f40
000001f0: 04cb 37bf 673a 35bf 5faf c63e dee3 3c3f
00000200: 6e1f 43c0 d6d2 1e3e 25a6 d7bf 9812 bcbf
00000210: cb86 c3bf 47a1 4340 a5a3 2a3f 0ffa 9e3f
00000220: 958b 55bf c662 17be 464d 593f 0e09 1940
00000230: f28f 6cbf 09fb 93bf 787a be3e 7b80 d53f
00000240: bfea d93f 4f59 633f 6378 3ac0 df9d 9e3f
00000250: 5a2a 623c 55bf ebbf d351 d8bf da38 f23f
00000260: ef5b 4a40 5808 a13f 2552 ca3e 35cd 3abe
00000270: a466 e6be 37df 8bbf fd84 8bbf c732 a43e
00000280: 4129 4fbf b8ed aebf d875 0a40 cf39 073f
00000290: 450b 32bf 9647 063f 787f bf3f 5cbd ed3e
000002a0: 8e81 afbf e75d 89bf 8393 dcbf ea39 b4bf
000002b0: e50f 1f40 fdcb 82bf 81c9 df3f fd79 edbe
000002c0: 90e2 4abd ef12 0040 091b 1440 19cd 733f
000002d0: c22d a8bf ad5c a23f a601 03c0 b698 86bf
000002e0: 298d 213f 0bb3 ebbf f25e 24c0 ccc1 40c0
000002f0: ed62 753f 2e58 d2bf 5f00 fa3f 866d 43c0
00000300: 5008 693d a94f 42bf 9fac 9e3e 90d8 e9be
00000310: 15f4 0740 6578 5abc 3518 17c0 1687 edbf
00000320: a020 f53f 80bf 43c0 16ed 1d40 36c9 8d3f
00000330: ae55 abbd 05df a13f e326 573d 5523 b23e
00000340: 2a70 253f 5d7d eebf 8f78 0a40 421a e43e
00000350: 7864 28be 131b 43c0 e807 963d 69f2 883d
00000360: a2ce c43f bd1c 5ebf 9ec1 0f3f 3ea5 13c0
00000370: 16d1 2c3f 786e 11c0 7727 c8bf 8ef7 93bf
00000380: 6d85 0940 a98a c13d 6ab1 fd3f 7518 c23e
00000390: 12ad a3be 14d7 27c0 98a5 1fc0 31ca f03f
000003a0: cd3a f33e 6d87 bfbe ad8f f63b 43fb c53d
000003b0: 993d d53f e7d3 083e 55bd f33f 2837 41bf
000003c0: 8a26 4c3f 12ed 863d df24 b13a 7c36 a53f
000003d0: 30b5 94bf bdeb 4ec0 d8fc 02c0 447e 40be
000003e0: 3976 8a3f 1f35 3540 3f1c aebf 274c 1cbe
000003f0: 8712 57bf 98df 493f 818e ce3f 6dac 223f
-1.7335563 1.2009851 -0.39788434 -1.8726755 -1.5381194 0.40622512 1.8500391 -1.3733759
1.6890016 -1.4250381 0.551885 -0.79854244 -1.8119491 0.07134497 -0.31353104 3.4731052
2.28446 1.2449509 -0.12955216 3.0582979 0.92586654 -2.4946861 -2.145183 0.897661
0.9443024 1.0890298 -0.71101046 -0.5153911 -0.88617295 1.6859312 -0.9647233 1.4994648
-0.48797047 -2.567778 -1.0165312 -0.89794683 -1.1457112 -0.41245806 -0.4113215 1.2537311
1.0721049 0.0649612 -1.5249782 -2.394007 3.081528 0.7124427 -0.37657478 -0.76172495
1.0918097 1.2055576 -1.6942048 -0.41173986 0.254914 -2.481603 0.0004389288 2.4095814
3.38676 0.66887385 0.30793256 0.758717 0.06182914 -1.1512966 -0.28625488 -0.18838136
2.5960832 -0.44672272 0.9990964 0.5973923 -1.7060757 -2.4119108 -0.8084265 1.891191
1.119878 0.67437345 -1.9684674 -2.979294 -0.646132 -0.6646645 1.2681012 1.2148725
-0.96774006 -1.7654241 1.3673096 1.3293761 1.1111542 -0.11865145 0.84570265 -0.87940204
0.1730666 -2.105433 0.61110073 -0.80312145 -1.5215375 1.1058371 2.9517117 4.1611753
-2.177982 0.7351109 -2.3437657 -0.43242255 -0.030354297 2.397208 1.6795709 -1.126957
-0.16784002 0.55725837 -0.6730024 -0.016219866 -0.04926385 -0.6974844 3.0434062 -0.18707049
-2.5097902 -2.5828137 -1.632488 -3.547935 1.3762401 0.85693955 1.3647374 -1.3244276
-2.5545466 -1.0370007 1.254819 2.238744 -0.7179415 -0.7079224 0.38805673 0.737852
-3.0487933 0.15510115 -1.6847578 -1.4693174 -1.527551 3.0567186 0.6665595 1.2420062
-0.8341611 -0.14783773 0.84883535 2.3911777 -0.92407143 -1.1560985 0.3720281 1.6679834
1.7024764 0.8880815 -2.9135978 1.2391928 0.013804043 -1.8417765 -1.6899971 1.89236
3.1618612 1.2580671 0.39515796 -0.18242343 -0.45000184 -1.0927495 -1.089996 0.3206999
-0.80922323 -1.3666296 2.1634426 0.52822584 -0.69548446 0.5245298 1.4960775 0.46433532
-1.3711412 -1.0731782 -1.7232517 -1.4080174 2.4853451 -1.0218502 1.7483369 -0.46382132
-0.049532473 2.0011556 2.31415 0.9523483 -1.3138964 1.2684532 -2.0469756 -1.0515354
0.6310602 -1.8414015 -2.568295 -3.0118284 0.95854074 -1.643316 1.9531363 -3.0535598
0.056892693 -0.759028 0.30991074 -0.45673037 2.1242726 -0.013334368 -2.3608525 -1.855685
1.9150581 -3.0585632 2.4675956 1.107703 -0.083659515 1.2646185 0.05252732 0.3479258
0.64624274 -1.8632008 2.1636083 0.44551283 -0.16444576 -3.0485275 0.07325727 0.06686861
1.5375559 -0.867626 0.5615481 -2.3069606 0.6750654 -2.2723675 -1.5637044 -1.1559923
2.1487687 0.094502755 1.9819767 0.37909284 -0.3196798 -2.6225023 -2.494482 1.8811704
0.475058 -0.3740801 0.0075244517 0.09667065 1.6659423 0.13362084 1.9042155 -0.75474787
0.79746306 0.06588186 0.0013515017 1.2907252 -1.1617794 -3.2331383 -2.0466824 -0.18798167
1.0817329 2.8313673 -1.360237 -0.15263425 -0.84012645 0.788568 1.6137239 0.6354435

weight f4 [32]
00000000: bc73 cfbe 5a4a 8f3f 7c32 6abf 5d83 ac3d
00000010: bd1e 3a3f f9a4 da3f 0c21 5640 f712 293f
00000020: 6a41 e43f fc72 bdbd 7c54 303f 3b99 d33f
00000030: 59bc c43f c042 18be f61e 4140 9e32 bf3e
00000040: 1fff 523f caaf 3f40 f3ee f13f e772 963d
00000050: d3ee 7e3f 1ac5 0640 2bae b53d 25fb be3f
00000060: bd13 6640 8e67 b83e 1391 0240 2934 c73f
00000070: 03db 2540 ce16 0dbf 7933 2a40 cd23 813e
-0.40517986 1.1194565 -0.91483283 0.08423493 0.7270315 1.7081596 3.345767 0.66044563
1.7832463 -0.09250447 0.6887891 1.6531137 1.5369979 -0.14869213 3.0175147 0.37343305
0.82420534 2.9951043 1.8901047 0.07346135 0.99583167 2.1057801 0.088711105 1.4920393
3.5949547 0.36016506 2.0401046 1.5562793 2.5914924 -0.5511292 2.6593916 0.25222626

bias f4 [32]
00000000: a8be f13e da3b bbbf 919e de3f 20a1 cdbe
00000010: cb5c 11bf 94ef 0140 4cb4 11bf f45a 2cc0
00000020: 16e3 d73f 834f 17bf b8f7 69bf 2358 2a3e
00000030: 3c99 0d3d 0b6f 913e daf7 b2bf e2aa 5cbe
00000040: 9f5c b0bf 1efa 2e40 a225 33c0 6a76 ccbf
00000050: ec2a 8dbf 20ce 6b3c 0d85 6740 38e2 17bf
00000060: e5b4 83bf 5fb2 68bf 1502 b4bf e0e2 32bd
00000070: 1634 19be da49 02c0 28d0 4bbf 1f14 a8bf
0.47215772 -1.462764 1.7392141 -0.4016199 -0.56782216 2.0302477 -0.56915736 -2.6930513
1.6866176 -0.591057 -0.91393614 0.16635184 0.034569964 0.28405032 -1.3981888 -0.21549562
-1.3778266 2.734016 -2.799172 -1.5973637 -1.1028724 0.014392406 3.6174958 -0.5932956
-1.028958 -0.9089717 -1.4063135 -0.043673396 -0.14961275 -2.0357575 -0.79614496 -1.313114

running_mean f4 [32]
00000000: ffbf a93f 4a2b 993a c312 693f b784 86be
00000010: c007 f7bf ce9d 47bd 7095 66bf 8b61 ca40
00000020: 7361 15be 6165 943f f079 9040 13cc 05c0
00000030: 4370 eabf 7989 893f d313 25c0 f6d7 15c0
00000040: 9c47 92bf fd83 663f 9d94 20c0 e1be 1a3f
00000050: 9cd9 6abf 74d2 a1bf 8734 883f df43 f9bc
00000060: 5b71 fbbf bb8f ba3f f5f7 8bc0 aac9 f93f
00000070: 42c3 e2be 2cda 3f40 bc05 8c3f 946d 0b40
1.3261718 0.0011685875 0.91044253 -0.26273128 -1.929924 -0.04873448 -0.90071774 6.324407
-0.14587955 1.1593438 4.514885 -2.0905807 -1.831551 1.0745078 -2.579335 -2.3413062
-1.1428103 0.9004515 -2.5090706 0.6044751 -0.91738296 -1.264235 1.064103 -0.030427871
-1.9643968 1.4575113 -4.374018 1.9514668 -0.44289595 2.9976912 1.093925 2.178563

running_var f4 [32]
00000000: a4b4 c042 7e2f 8642 77e3 2a42 0ce4 c342
00000010: b43f 3a42 24ad bc42 626b 8642 fe1e aa42
00000020: 0859 3c42 f6e2 9c42 f745 1e42 504e 2d42
00000030: 2656 de41 0846 2142 f70c ce42 0acd ab41
00000040: 86b8 2942 fa08 7b42 c6d8 0342 7c50 3c42
00000050: e93e de41 77d3 8c42 d825 4d42 9508 d241
00000060: a142 5d42 c706 9742 92c2 2542 4135 2342
00000070: 3e49 1c42 2baa fe42 cc2c 1342 4a8f b342
96.35281 67.09276 42.722134 97.945404 46.56221 94.338165 67.20973 85.06053
47.086945 78.44328 39.568325 43.326477 27.792065 40.31839 103.02532 21.475117
42.4302 62.758766 32.961693 47.078598 27.780718 70.41302 51.286957 26.25419
55.315067 75.51324 41.44001 40.802006 39.071526 127.33236 36.793747 89.77986

weight f4 [32]
00000000: 9a0c 603f 2413 2e40 84e8 1e40 463a 45bd
00000010: 7e02 5740 2770 893e 5247 4640 b07b 013f
00000020: f460 d63f 1576 82be a391 da3f 5553 b03f
00000030: 271e 293f 9fa1 4a3f 88e9 1040 78e2 473f
00000040: 414e f83e c359 3640 11b6 0940 42ee 7abe
00000050: 91bb 1b40 e30e 98be 7071 953f b76e 973f
00000060: c4ad 1640 1ca7 823e 1a7e 19bf 6933 f73e
00000070: b1fe 913f e733 863f 126b ce3f 197c 1a3e
0.8751923 2.7199183 2.4829416 -0.048151277 3.359527 0.26843378 3.098103 0.5057936
1.6748338 -0.25480714 1.7075695 1.3775431 0.66061634 0.79152864 2.2642536 0.7807994
0.48497203 2.8492286 2.1517375 -0.2450495 2.4333231 -0.29698858 1.1675243 1.1830662
2.3543558 0.2551812 -0.5995804 0.4828141 1.1405851 1.0484589 1.6126425 0.15086402

bias f4 [32]
00000000: 72af 09bf bae2 1d3f a88f ce3f 6e5f 5b3f
00000010: e0eb c43f 50fa 62be f552 2fbf 4109 7fbe
00000020: 5426 673f 75a2 b43f 9253 90bf 1e4a 0340
00000030: ebc7 c2bf 2e1a c1bf deaf 16be 8411 333f
00000040: 89d3 8e3f e9a6 5d3f ccf8 91be b6ee af3e
00000050: 15f8 2140 343b 81bf f302 1040 94fb a53d
00000060: 988b 273f 6af1 a6bf 78bf c43f e49f 8c3f
00000070: e4dd 873f 5492 4ebe 04b1 1440 043f 5d3e
-0.53783333 0.6167408 1.613759 0.8569249 1.5384483 -0.22165799 -0.6848596 -0.24905874
0.9029286 1.4112078 -1.1275504 2.0513988 -1.521726 -1.5086114 -0.14715526 0.699486
1.1158305 0.8658281 -0.2851013 0.3436181 2.5307667 -1.0096192 2.25018 0.08104625
0.6544738 -1.3042424 1.5370932 1.0986295 1.0614591 -0.20173007 2.3233042 0.2160607

running_mean f4 [32]
00000000: 0c13 c0be 5494 e3bf 1849 913f 08a2 3ec0
00000010: f5ea a8bf 6b42 163f c316 3abe 11e1 cc3f
00000020: 4232 753f 7d54 d6bf 4fa3 f93e d191 c13f
00000030: 34e1 b33f b479 e4be 2e97 98bf 8ae1 49bf
00000040: 53c5 0d40 397b 5e40 83f8 1a40 43c5 eabf
00000050: 466b bcbf cb37 c5be dd0b 873f 0b54 3d40
00000060: 8044 723f df6d 88bf 8af4 ec3f 2b64 2dbf
00000070: afb7 d7bf 053d ccbf 4b27 513f 71fd c0bc
-0.37514532 -1.7779641 1.1350431 -2.9786396 -1.3196703 0.58695096 -0.18172745 1.6006185
0.9577981 -1.6744534 0.48757407 1.5122625 1.4053102 -0.44624102 -1.1921136 -0.7885977
2.2151687 3.476271 2.421418 -1.834145 -1.4720237 -0.3851913 1.0550495 2.9582546
0.9463577 -1.065853 1.8512127 -0.6773097 -1.6852931 -1.5956122 0.8170058 -0.02355835

running_var f4 [32]
00000000: f129 9e41 db9c 2242 f84f 8741 faf2 4f41
00000010: 932f a741 4dc6 6741 a95e 6d42 6283 0242
00000020: cdd6 c441 fe6f 2e42 b958 b741 dbf2 8941
00000030: 8d2e 0642 2acd d541 15ae 1542 478f 0842
00000040: 7924 9141 fd3b 0d42 b2a6 2342 a706 3842
00000050: 386e e441 b27d bf41 8566 4342 b260 5f41
00000060: f97a f441 5260 7941 3591 3341 dac6 e641
00000070: 8e38 c841 3c46 8340 1802 8941 f913 a640
19.77048 40.65318 16.914047 12.99682 20.89823 14.485913 59.34244 32.628304
24.604883 43.609367 22.918322 17.243582 33.54546 26.725178 37.420002 34.13992
18.142809 35.308582 40.91279 46.006496 28.553818 23.936375 48.850117 13.961107
30.560045 15.586016 11.222951 28.847095 25.027615 4.1023235 17.126022 5.189938

weight f4 [32, 16]
00000000: d496 5c3f e61c da3d 1528 263e 66e2 3bbf
00000010: 0397 093d b25c 6d3f 438c 09bf 76c6 fbbe
00000020: 1b29 833f ba53 613f 48ff 46c0 afd7 0440
00000030: 2261 0ec0 a8b3 8e3f 63e3 2740 b347 fc3f
00000040: 2fb4 e9bf 9d35 e2be b110 18c0 090d 9f3f
00000050: a5b9 ddbf ebe8 d83f 26fb 65bf 89df aa3e
00000060: 9c14 0ec0 90ba c7be f1e8 95bf 9a1b 6a3f
00000070: 4112 9ebf 2f6d ea3e 7af0 f13e fbd1 f5bf
00000080: 975c bcbf 1af5 1340 5f2b ff3f dcd3 493f
00000090: fe64 1e40 4f37 abbf e79d 94bf b66a ecbf
000000a0: 90cd ca3f a618 923e dbf7 4bbf 16dc f5bd
000000b0: 8b33 5c3e ed8f 0540 03cf 4d3f 4d30 febe
000000c0: 3058 16bf 50c5 adbd 2a50 9a3e f25d 2b3f
000000d0: b851 17bf 0751 15c0 c9b3 37c0 e310 073c
000000e0: 69a9 683f edd4 4f3f 96c4 d53f 0932 3e3f
000000f0: c7d4 823f be6f 22be 8f94 3d40 1f9c 9a3f
00000100: f17a 1cc0 3b5e 003f 9a71 f73f a2b2 3b40
00000110: 4477 2c40 b7ef 203f a7a5 533f 38e1 ddbf
00000120: 7e95 f5be 12dc 1a3e 128c 13c0 633b 40be
00000130: 99cd 883f e748 92be 6069 1cbe e67c d93e
00000140: fcf1 4e3f 2748 9b3f 08eb 18c0 393c ac3f
00000150: f780 503e e445 a9bf 660e 65bf 76c3 99be
00000160: b175 dcbe 87d1 b6bf 0de3 c2bc ff0e 30bf
00000170: b667 9e3f a0b0 1b3e 37c0 0040 653a cd3f
00000180: 11b9 0940 395a febf 26b5 aebf 830d 81bd
00000190: 87b2 08c0 01e4 8e3f 5ee5 aa3f 21fc ae3f
000001a0: d4e1 2940 a301 8ebf 790e 933e d2d5 c93f
000001b0: 5104 91bf 4282 e5be ed90 e0bf 0ec7 35bd
000001c0: 69fe 883e e2e0 f4bf d42f 0c3f 0c46 c23f
000001d0: a71b a9bf 860f e0bf f669 1bc0 a2ae 90bf
000001e0: f5bd 383f 3d3d 76be e76d 013f daf6 cdbe
000001f0: ec28 423f 62c1 90bf e779 913e 5d60 d4bf
00000200: 1425 08c0 37b1 d3be f0b2 bebf 5a32 b5be
00000210: 4068 863e 8033 e03f 3618 79bf 71bb 203f
00000220: cd60 26c0 6984 14c0 8834 2b3f 74ec d63f
00000230: 6724 d93f 417a a1bf 7d26 653f b794 6a3f
00000240: 7073 f43d 8cac aabf 1b86 863f fc20 84be
00000250: 65ed 52c0 662b 383f 06f4 c43f d17c 46bf
00000260: 15cb 213f b191 75bf f73f 0cbf 53f7 bf3e
00000270: b2af ca3f 675f 89bf a7ff 51c0 0047 60bf
00000280: 89d4 f03e eb1e 1cc0 c91e fe3e 3674 5cbe
00000290: e7d6 1fbf d875 fc3f 38fe 3040 d968 6dbf
000002a0: 552f f9be 778b 39bf 6f68 cf3d 264d 9c3f
000002b0: 7f32 91bf 0cd8 f23f eb44 c73f cacc 98bf
000002c0: ab26 8b3f 27d2 0e3e 70a0 1340 dbfd 0e3f
000002d0: 0b35 0d40 4a13 2dbf 0f14 ad3d 7219 e8bf
000002e0: e1dc 0340 1863 ab3f e351 9f3d b57c 46bf
000002f0: bbe6 e0bf b99f 563f e391 0a40 d247 81be
00000300: 8552 9dbf 6d2c eb3f 8aa5 18bf 8acd 2640
00000310: 04da f43f faf9 aabf c7e1 dbbf 3762 e93e
00000320: 2c82 0140 f571 e13f a57b fdbf a1c6 883f
00000330: d039 0bbf 4eea 613e ccfb cb3f 365a a5bf
00000340: a510 ebbe 1824 96bf 94b4 703f f549 81bf
00000350: 567a c2be 9f70 ca3f 8fb1 4640 c348 51bf
00000360: 0fec 2b3f 74c6 ebbf 8ba0 843f 84c6 97be
00000370: 0a7f a0be 2dc5 d4be 1b25 b4bf 6036 f53e
00000380: 362b f0bf 3d4d 7cbf f884 08c0 35d4 f83e
00000390: 7f1a 4b3f 1ecc bf3f a0ff b6be 22c3 143f
000003a0: 8305 7fbf bb30 09c0 b130 673f 97cb 0cbf
000003b0: 2392 a73f c43a c1be 502d 2140 2ba8 a03f
000003c0: 3e29 973e 416f f43e dff6 f83f 5599 b83f
000003d0: 5912 c3be ee3d 54c0 3e35 44c0 3713 6abe
000003e0: 25e0 d83f dcb6 003f 3ff9 0abf a8fe d53e
000003f0: b50d 84bf 3a20 ac3f 56cb 96be 070c 4cbf
0.86167645 0.10650043 0.16226228 -0.7339233 0.03359128 0.92719567 -0.5372965 -0.4917485
1.0246919 0.8801838 -3.1093311 2.0756643 -2.2246785 1.1148577 2.6232536 1.9709381
-1.8258113 -0.4418153 -2.3760188 1.2425853 -1.7322279 1.6946081 -0.8983635 0.3337367
-2.220008 -0.39009523 -1.1711713 0.91448367 -1.2349321 0.45786425 0.47253782 -1.9204706
-1.4715756 2.3118348 1.9935111 0.78838897 2.474914 -1.3376254 -1.1610688 -1.8470066
1.5843983 0.2853443 -0.7967507 -0.12004869 0.21504037 2.0869095 0.80394 -0.49646226
-0.58728313 -0.084849 0.30139285 0.66940224 -0.5910907 -2.3330705 -2.8703482 0.008243772
0.908835 0.81184274 1.6700618 0.742951 1.0221184 -0.15862939 2.9621923 1.2078894
-2.4450037 0.50143784 1.9331543 2.932778 2.6947794 0.62865776 0.8267464 -1.7334356
-0.47965616 0.15123013 -2.3054242 -0.18772654 1.0687743 -0.28571245 -0.15274572 0.42478102
0.8083799 1.2131394 -2.3893452 1.3455878 0.20361696 -1.3224454 -0.89475095 -0.30031937
-0.4305854 -1.4282693 -0.023789907 -0.6877288 1.23754 0.15204096 2.0117319 1.6033446
2.1519206 -1.9871284 -1.3649032 -0.06301405 -2.1358964 1.1163331 1.3351247 1.3670694
2.6544085 -1.109425 0.2872198 1.5768378 -1.1329442 -0.4482594 -1.7544228 -0.044379286
0.267566 -1.9131129 0.5476048 1.5177627 -1.3211564 -1.7504737 -2.4283423 -1.1303294
0.7216485 -0.24046798 0.5055832 -0.40227395 0.7584369 -1.1309016 0.28413317 -1.6591908
-2.127263 -0.41346142 -1.4898357 -0.35389978 0.2625141 1.7515717 -0.9730257 0.6278601
-2.5996583 -2.3205817 0.6687703 1.679091 1.6964234 -1.2615434 0.89511853 0.9163317
0.119360805 -1.3333907 1.0509676 -0.25806415 -3.2957394 0.7194122 1.538697 -0.77534205
0.63200504 -0.9592543 -0.547851 0.3749338 1.5834868 -1.073224 -3.2812288 -0.8760834
0.4703715 -2.439387 0.49632862 -0.21528706 -0.6243729 1.9723463 2.7655163 -0.9273811
-0.48668924 -0.7247843 0.10127341 1.2211044 -1.1343535 1.8972182 1.5567907 -1.1937497
1.0871176 0.13947354 2.3066673 0.558561 2.2063625 -0.6760756 0.084510915 -1.8132765
2.0603564 1.3389616 0.077792905 -0.7753404 -1.7570413 0.8383747 2.1651542 -0.25250107
-1.2290808 1.8372933 -0.5962759 2.606295 1.9129033 -1.3357537 -1.7178277 0.45582744
2.02357 1.7612902 -1.9803358 1.0685617 -0.5438509 0.22062036 1.5936217 -1.2918155
-0.45911136 -1.1729765 0.9402554 -1.0100695 -0.3798396 1.5815619 3.1045873 -0.8175165
0.6715707 -1.8419938 1.0361494 -0.29643643 -0.31346923 -0.41556683 -1.4073824 0.47893047
-1.8763187 -0.98555356 -2.1331158 0.485994 0.79337305 1.4984167 -0.357419 0.5811025
-0.99617785 -2.1435993 0.9030867 -0.54998153 1.3091472 -0.37740147 2.5183907 1.2551321
0.29523653 0.4774113 1.9450339 1.4421793 -0.38099936 -3.31628 -3.0657496 -0.22858892
1.6943403 0.5027902 -0.5428657 0.4179585 -1.0316683 1.3447335 -0.29452008 -0.7970585

weight f4 [32]
00000000: cd03 b03e 2939 ad3f f41b 4f3e 5cf4 9d3f
00000010: dd9c 27be 36cb d8bd b4fa 883f a826 583f
00000020: 3f64 903f bf47 e03f 99d0 d23f 8601 2140
00000030: 5585 77bf d752 bf3f 368e c63f 6fb2 5940
00000040: 1c84 af3f 3ccc 3ebf 2426 e23e 0f50 7d3e
00000050: a65b e63d b42f 2b3f 7822 1d40 14e5 abbe
00000060: 12f0 6c3f 6a89 1140 bc06 34bf 3c5a 103f
00000070: 3ad9 53bf a873 083f ed94 1140 3afc 183f
0.343779 1.3533069 0.20225507 1.2340198 -0.16368432 -0.105856344 1.0701509 0.84433985
1.1280593 1.7521895 1.6469909 2.515718 -0.96687824 1.4947156 1.5512149 3.4015157
1.3712192 -0.74530387 0.44169724 0.24737571 0.11247949 0.66869664 2.4552288 -0.3357321
0.9255382 2.274012 -0.70322776 0.56387687 -0.82753336 0.5330148 2.2747147 0.5975987

bias f4 [32]
00000000: 9043 c93f 269a 39bf bbb1 06bf 2f34 7ebe
00000010: b68e e7bf 8488 aebf 3fcd 0440 c2c4 fa3e
00000020: d3f8 04bf 077d 9bbd 574d 06c0 7037 03bf
00000030: e3ef a43f 1dce d0be 53cd 14c0 00a0 ccbf
00000040: a722 443e 3734 883f 6e1b c23c f620 593f
00000050: da12 76bf a343 9ebf d15d b1bf 7fc6 2dbe
00000060: 99ef a93f 69f3 0a40 8239 4040 0221 d73f
00000070: fe82 d5bf 3d23 5abf 2202 bfbf 5f84 1440
1.5723743 -0.72500837 -0.52614945 -0.24824594 -1.8090427 -1.3635411 2.0750272 0.4897824
-0.51942176 -0.075922064 -2.0984704 -0.51256466 1.2885708 -0.40782252 -2.325032 -1.5986328
0.19153844 1.0640935 0.02369472 0.8481592 -0.96122515 -1.2364391 -1.3856755 -0.16970252
1.3276244 2.1711066 3.00351 1.6806948 -1.6680601 -0.8521002 -1.4922526 2.3205793

running_mean f4 [32]
00000000: febd 4c40 cad8 0340 1643 933f 2cf5 10be
00000010: 47f7 4940 9c31 2bc0 508d ed3e 272a 933f
00000020: 4486 603f aa85 9d3e 155d 0f3f a343 a03f
00000030: 6329 1440 b867 dcbd bd55 e7be 821d ae3f
00000040: 40ad c83f c6e6 51bf 08a2 de3f d7b7 833f
00000050: 63e2 1d40 b410 c53f fd25 2040 480a 2940
00000060: 5ab7 b63f 5a84 00c0 07b1 0dc0 eef3 bdbe
00000070: 84f2 e63e 49b4 ab3e 41a4 c5bf 718c 98bf
3.1990962 2.0601068 1.1504848 -0.14156026 3.1557176 -2.674903 0.46396875 1.1497239
0.87704873 0.3076604 0.56001407 1.2520641 2.315026 -0.1076197 -0.451826 1.3602755
1.5677872 -0.8199276 1.7393198 1.0290478 2.4669425 1.5395722 2.5023186 2.6412525
1.4274704 -2.008078 -2.21393 -0.37100166 0.451069 0.33535984 -1.5440751 -1.1917859

running_var f4 [32]
00000000: 92b0 b741 9da0 0242 9c69 cd42 33e1 bd42
00000010: a3ab ad41 08a0 be41 46d9 b042 a8f8 0f42
00000020: 3a6a be41 2b51 a942 aea7 ab42 ac46 1f42
00000030: 8ea1 a742 bef8 b042 0845 b541 c350 a142
00000040: 391d 9f41 2b28 eb41 cf07 fc41 c970 0742
00000050: c3cc 1e42 31a0 a541 f853 ff41 5658 e741
00000060: 353d 9d42 0ec6 1442 b554 df41 cd55 7042
00000070: 81b4 e041 aa17 8a42 c6e9 8342 5e7b ac41
22.961216 32.65685 102.70627 94.93984 21.708807 23.82814 88.42436 35.99283
23.801868 84.65853 85.8275 39.819016 83.81554 88.485825 22.658707 80.65774
19.889269 29.394613 31.503813 33.86014 39.699963 20.703218 31.916 28.918133
78.619545 37.193413 27.91636 60.08379 28.088137 69.04622 65.95659 21.560238

weight f4 [32, 16]
00000000: 516d 3e3d 3277 4a3e d670 43bf bb2b 5a3e
00000010: 01d9 363f 525a acbd 81d2 97bd 5ded 253f
00000020: 9949 bdbe adaf af3e 5b0a 5dbf ea11 b93f
00000030: 7580 f2be 68e6 b93d 2d18 693d a1ec 863e
00000040: 6e77 06bd cd9f 04bf 904a 8fbe dbe6 113c
00000050: aaef f6bd 02e2 ffbe 2525 1cbf 061c 55bf
00000060: 8e98 6a3e 4c10 34bf 90b5 63bf 7e33 9bbf
00000070: 9eab 653e 5529 4cbf 93ec dc3e f99f 70bf
00000080: deb2 ecbe fe5b 38be ec45 e23d 5152 c53e
00000090: 56be 6ebe a107 cd3e cfcd 26bf 1774 f8be
000000a0: 35f1 47bc 3819 8d3e 64b1 93be e938 743e
000000b0: 84df 083f 2b42 553f 9b36 88be fd04 acbd
000000c0: 7373 98be b3a7 9abf f8e7 753e 54f2 3ebf
000000d0: 9b7d 1c3e 8216 aa3f dfdd 263e cc83 31bf
000000e0: f99a 3d3f 2c60 01c0 3711 0fbf 3c24 4d3d
000000f0: 8af5 7bbf aa41 5abf 00d7 b83f e7dd 133f
00000100: b5b2 4fbe cdac 793f 2a41 983f 14c2 373f
00000110: 235f 6cbf 7024 073e 4218 40bf ea38 b43f
00000120: 50ab ccbd c13c 563d 1092 393f b6a4 aa3c
00000130: 113b f6bd f9d3 83bf fd06 a93e 3c74 ecbe
00000140: 515c 953e 42ce b33e d02b da3f 9c54 22bf
00000150: 2711 9abe 49c9 ee3c ffd9 c4be a947 333f
00000160: a150 2abf a8c3 643f e256 a83e 158c 7fbf
00000170: 697a 413f 80d8 ff3f 43fd 8dbe c456 513f
00000180: 3504 7fbf 2440 2c3f e599 20bf 094c 053c
00000190: faf9 193f 4029 293f eaa4 8c3e e4cb f73f
000001a0: 7ce7 b43f d137 c9be 2a0c 173e a06b cabf
000001b0: be9d 4fbf 8e1b 2f3f 61e4 f33e 86e2 8a3d
000001c0: c6fd 143f 7285 bb3f 307b 8d3e fd26 0a3f
000001d0: 1227 95be 9a1d 7bbf 957a c6be 0f5c 7dbe
000001e0: e783 a33f 1857 37bf a872 0d3f 58e8 6a3d
000001f0: fabf 633f d2bb 35bf 77b6 68bf 1e51 2abf
00000200: e932 56bf 5464 ff3c 848e 91bd f521 38bf
00000210: ec73 e7bf a193 a53f 3847 973f a73b a63f
00000220: 0852 d03f 4bdc 71bf 9c9e b23f 57da 673f
00000230: 6a59 b8bf f238 b5bf 9703 ed3f 446f 85bf
00000240: 1e6d b03e bc2d b0bf 0938 12bf dd43 3dbf
00000250: a210 053f 6119 0d40 4ec6 5640 01e4 263f
00000260: aea8 9b3f 8aec 0240 6f2f 8c3f 6f74 353f
00000270: 2348 823f 2ed8 a9bf 8243 7d3f 7beb 203f
00000280: ca51 a03f 30d8 b73e 2450 853f ae9e 92be
00000290: 5a96 f1bf 75ac 2b3f 714e 6e3f 8163 5dbf
000002a0: 7699 fdbe 4778 10c0 4f71 ee3f 71bf f23f
000002b0: 1108 413e 531d 233f 7fe5 ea3f 8bde 883e
000002c0: 00a0 cb3e 5577 d7be d54d acbf 30c3 11c0
000002d0: 350e f6be bc6f e63e 6004 b23f 8b31 8b3e
000002e0: d69f 8abf 5d5f 0b40 b7ca b8bf 1796 863f
000002f0: c7b2 05bf e8d9 07c0 f347 23c0 904c d1bf
00000300: 72b4 07c0 6031 f439 9956 f93f 7239 a23f
00000310: 68f7 bfbf 56dc 8dbf 1fce 46c0 14fe 7a40
00000320: 08e8 2bbf 9fab 8d3f 8696 1a3f f490 2ebf
00000330: 1a51 5f3f df12 b1be 9b1b 4bbe f5d5 6bbe
00000340: b7ec d93f e3aa 593f 7f3d e7bf 080e 8cbf
00000350: d3d7 09c0 a4ee 983f b663 873f acb9 d3be
00000360: 7039 b93e b796 4d3f 6823 10bf de98 aabf
00000370: 853d a3bf c552 5cc0 479f 1fc0 01e1 3cbf
00000380: 7c4e 01bf 71c2 59be e9bc 0cc0 538d 8b3f
00000390: 2e6a 9bbf 508c 78be e688 43bf 209e 6e3f
000003a0: 8e1f dfbf f479 823f 6c27 653e 6ac9 2ac0
000003b0: 7b77 77be 74c6 e9be 6eb4 663e 2308 c9bf
000003c0: 874e f73f 4678 2140 db30 34be 41dd 1b3f
000003d0: 5a8e b23f 4615 603e a8b9 cbbf 2e69 adbf
000003e0: 02f0 67bf 72b3 9e3f 833b 98bf 4477 f6bf
000003f0: 8aec b43f cc56 83bf 5b4d ce3f 9891 df3f
0.04649097 0.19772032 -0.7634405 0.21305744 0.7142487 -0.08415665 -0.07413197 0.6481531
-0.36970213 0.34313717 -0.86343926 1.4458592 -0.4736363 0.0907715 0.05690782 0.2635241
-0.03282874 -0.51806337 -0.27986574 0.008905138 -0.12057431 -0.49977118 -0.6099418 -0.83245885
0.22909757 -0.7033737 -0.8894892 -1.2125089 0.22428748 -0.7975057 0.43149242 -0.939941
-0.46230215 -0.18003842 0.11048493 0.38539365 -0.23314795 0.40044883 -0.6515779 -0.4852607
-0.012203504 0.27558303 -0.28846276 0.23849835 0.5346606 0.8330409 -0.2660416 -0.08399389
-0.2977558 -1.2082428 0.2401427 -0.74588513 0.1528229 1.3288119 0.16295575 -0.6934173
0.74064595 -2.0214949 -0.5588564 0.050083384 -0.9842154 -0.85256445 1.4440613 0.5776047
-0.20283015 0.975293 1.1894886 0.71780515 -0.9233267 0.13197494 -0.75037014 1.4079869
-0.09993613 0.052304033 0.724885 0.020830493 -0.12022985 -1.0299064 0.33013144 -0.4618243
0.29171994 0.351183 1.704462 -0.63410354 -0.3009121 0.029148715 -0.38447568 0.7003122
-0.6652928 0.8936105 0.32878786 -0.99823123 0.7557741 1.9987946 -0.27732286 0.8177302
-0.99615794 0.6728537 -0.62734824 0.008135804 0.6014706 0.6607857 0.2746957 1.9359097
1.4133143 -0.39300397 0.14750734 -1.5814095 -0.8110007 0.6840142 0.47635177 0.06781487
0.5819973 1.4650099 0.27633047 0.5396574 -0.2913137 -0.98092043 -0.38765398 -0.24742149
1.2774628 -0.7161727 0.55253077 0.057350487 0.8896481 -0.70989716 -0.9090342 -0.66530025
-0.8367143 0.03117577 -0.07107261 -0.71926814 -1.8082252 1.2935678 1.1818609 1.2986954
1.6275034 -0.94476765 1.3954654 0.90567535 -1.4402287 -1.4158003 1.851672 -1.042458
0.3445825 -1.3763957 -0.5711675 -0.73931676 0.51978505 2.204674 3.3558536 0.65191656
1.2160852 2.0456872 1.0951976 0.7088079 1.0178264 -1.3269098 0.98931134 0.62859315
1.252496 0.35907125 1.0415082 -0.28636688 -1.8874009 0.67060024 0.9308844 -0.86479956
-0.49531144 -2.2573411 1.8628329 1.8964673 0.18850733 0.6371662 1.8351287 0.26732287
0.39770508 -0.4208323 -1.3461252 -2.2775383 -0.48057714 0.45007122 1.3907585 0.27186236
-1.0830028 2.1776955 -1.4436864 1.0514554 -0.5222592 -2.122675 -2.5512664 -1.635149
-2.1203885 0.00046576094 1.9479553 1.2673781 -1.4997377 -1.1082866 -3.1063306 3.9217577
-0.67150927 1.1068 0.6038593 -0.6818993 0.87233126 -0.3458471 -0.1983475 -0.23030837
1.7025365 0.8502638 -1.8065642 -1.0941782 -2.1537979 1.1947827 1.0577304 -0.41352594
0.36176634 0.803081 -0.56304026 -1.3327901 -1.2753149 -3.4425519 -2.4940965 -0.7378083
-0.5051038 -0.2126558 -2.1990302 1.0902504 -1.2141778 -0.24272275 -0.76380765 0.9321003
-1.7431505 1.0193467 0.2237832 -2.6685433 -0.24166672 -0.4565922 0.22529766 -1.5705608
1.932084 2.522966 -0.17596762 0.6088448 1.3949692 0.21883115 -1.5916033 -1.3547723
-0.906006 1.2398512 -1.1893162 -1.9255147 1.4134686 -1.0260863 1.6117357 1.7466307

weight f4 [32]
00000000: 0000 803f 0000 803f 0000 803f 0000 803f
00000010: 0000 803f 0000 803f 0000 803f 0000 803f
00000020: 90c2 283f ebd9 12bf 37ad 75bc 2646 aabf
00000030: 04a4 3c40 5eb2 6c40 0eb3 a93f f2d4 5ebe
00000040: 0000 803f 0000 803f 0000 803f 0000 803f
00000050: 0000 803f 0000 803f 0000 803f 0000 803f
00000060: 9fe7 50bd bc76 6a3f 7aa4 8b3f b4d6 733f
00000070: fef2 1f40 e4e4 2240 8bfd 7e3f 66ce 7ebf
1.0 1.0 1.0 1.0 1.0 1.0 1.0 1.0
0.6592188 -0.57363766 -0.014994911 -1.3302658 2.9475107 3.6983867 1.3257768 -0.2176092
1.0 1.0 1.0 1.0 1.0 1.0 1.0 1.0
-0.05100214 0.91587424 1.0909569 0.95249486 2.499206 2.5452204 0.99605626 -0.9953369

bias f4 [32]
00000000: 0000 0000 0000 0000 0000 0000 0000 0000
00000010: 0000 0000 0000 0000 0000 0000 0000 0000
00000020: 76f0 a73f 72dc 283f 0286 28c0 8358 463e
00000030: 2e23 53bf a0ee 3bbf 43e5 c1bf 7c9f f2bd
00000040: 0000 0000 0000 0000 0000 0000 0000 0000
00000050: 0000 0000 0000 0000 0000 0000 0000 0000
00000060: e451 8bbd 057e fabf af30 11bf 2f40 91bf
00000070: e63d 2c3f 7ca9 0840 ebea 84be 2b9d 04c0
0.0 0.0 0.0 0.0 0.0 0.0 0.0 0.0
1.3120258 0.6596137 -2.6331792 0.19369702 -0.82475555 -0.7341099 -1.514809 -0.118468255
0.0 0.0 0.0 0.0 0.0 0.0 0.0 0.0
-0.06802729 -1.9569708 -0.5671491 -1.1347712 0.6728195 2.1353445 -0.25960478 -2.0720928

running_mean f4 [32]
00000000: 9f4d 4e3f a6ac bd3f 1097 f13e bf39 473f
00000010: 2c06 36bf c966 abbf 5182 afbf 8124 76bf
00000020: 77b0 70bf d070 69bf c9da 24c0 e18a 8440
00000030: 767c 81bf 2925 1840 277a bf3e 20dc c6bf
00000040: 872b 35be 8899 41bd 568d b6bf 7b9d febe
00000050: 8bb3 bf3f 82cd 2cbf b14d 7cbd b671 553e
00000060: fee9 a03e 9332 7f40 bcc2 513f 1fd4 3cc0
00000070: e492 9bbe 055b 16be 1b49 e13f db08 8ebf
0.8058719 1.4818313 0.47185564 0.7782249 -0.7110317 -1.3390743 -1.3711644 -0.9614945
-0.94019264 -0.91187763 -2.5758536 4.141953 -1.0116107 2.377268 0.37397882 -1.5535927
-0.17692386 -0.04726556 -1.4261882 -0.49729523 1.4976667 -0.6750108 -0.06159753 0.20844159
0.31428522 3.9874618 0.81937766 -2.9504468 -0.30385506 -0.14683159 1.7600435 -1.1096452

running_var f4 [32]
00000000: c3ab d840 909a 7940 9a55 1640 287b 2341
00000010: 0773 8d40 dc04 1241 163a 6340 46da 3d40
00000020: 07de ca41 3e2a 6e42 7d29 5a41 2965 8142
00000030: bf44 7d42 f9db 8542 09fb 2c42 a0d6 8342
00000040: b579 9940 c0a6 a740 f526 b240 3c72 1840
00000050: fc28 1940 050d eb40 13ce 2f41 bc86 1140
00000060: 993c af42 63b0 8642 ecae 2842 6528 8142
00000070: 9051 b242 f29f ed42 5352 e741 6f3a b041
6.770967 3.9000587 2.3489747 10.217567 4.4202914 9.126186 3.5504203 2.9664474
25.358412 59.541252 13.635129 64.69758 63.317135 66.929634 43.24515 65.91919
4.796107 5.239105 5.5672555 2.3819723 2.3931265 7.3453393 10.987811 2.2738485
87.618355 67.344505 42.170822 64.578896 89.1593 118.81239 28.915197 22.028532

weight f4 [32]
00000000: bb96 913e ea1e 4040 a321 ae3f 190b 1a3e
00000010: fd19 ecbd a7e5 c93f dc25 0d40 0c32 38bf
00000020: 8bc6 3140 fe65 0b40 ec80 bcbe 53dd 7e3e
00000030: 9b24 983f 3a77 8ebf 8bbb 76bf 29d7 a5bd
00000040: 6231 0b3d da9b 9bbe be41 1340 7f65 0440
00000050: bdd5 c3bf 9e62 87be 9c26 e43f 7c4b 083f
00000060: 5ded 1640 7666 0540 4bbe 9c3e d907 713f
00000070: 32ab 9ebf b26c b83e 87c6 10bf 2696 5ebf
0.2843531 3.0018868 1.3604015 0.15043296 -0.11528394 1.5773209 2.2054358 -0.71951365
2.777743 2.1781 -0.3681711 0.24889116 1.1886171 -1.1130135 -0.9637992 -0.08097679
0.033982642 -0.30392343 2.3008876 2.0686948 -1.5299603 -0.26442426 1.7824283 0.5324018
2.3582375 2.0843787 0.30613932 0.941526 -1.2395995 0.36020428 -0.5655293 -0.8694786

bias f4 [32]
00000000: 1f47 c6bf 51e7 46bf 111a debf bf18 b83f
00000010: b850 893f 42e5 bc3f cb2b a9bf b896 36bf
00000020: fb9d 81bf 52c0 9a3f 18f6 8cbf 0c41 bbbf
00000030: 91d1 bc3e cc47 443f 53e1 82be e742 793e
00000040: f4ae ac3f 8ef7 313f 7b42 93bf e4a7 f9bc
00000050: f5b6 aabf 95da a83f 160d 7e3f 726b dabf
00000060: b9da 11c0 0d0d a73e 534f 2cbf 7b6a b8bf
00000070: 64c4 3c3f 348d 23c0 fa8f d0bf 202e 7cbe
-1.5490454 -0.7769671 -1.7351705 1.4382552 1.0727758 1.4757464 -1.321649 -0.7132373
-1.0126337 1.2089942 -1.1012602 -1.4629226 0.36878636 0.76672053 -0.25562534 0.24341927
1.3490891 0.69518363 -1.1504663 -0.030475564 -1.3337084 1.3191706 0.9923872 -1.706404
-2.2789748 0.32627144 -0.6730854 -1.4407495 0.7373717 -2.5554934 -1.6293938 -0.2462697

running_mean f4 [32]
00000000: d486 633c b46c 0d3b cb22 bbbc 31b4 2bbf
00000010: 6cb7 313d c4ab 073f 8ef0 a43e e0a0 4ebe
00000020: a216 8dbd 31ee 043f 6310 8d3e 4921 14be
00000030: 1f2f 5cbd 32ae ed3e 99ca d33c cf1c 703d
00000040: ef31 b33e 5fd5 ba3e 4fcf 3abe fb6e 853d
00000050: 9701 09bf 2b53 653e 031f 44bc 14d6 d23d
00000060: b879 aa3d b632 123f 3bb1 40bf c829 863e
00000070: f8ba 053f e0b2 26be 45b0 aebe 825f b8be
0.013887126 0.0021579685 -0.022843739 -0.67071825 0.043387815 0.5299647 0.3221478 -0.20178556
-0.068890825 0.5192595 0.27551565 -0.14465822 -0.053755876 0.46421963 0.025853442 0.058621224
0.34999034 0.36490914 -0.18243144 0.065153085 -0.5351805 0.22395007 -0.011970284 0.102947384
0.08323997 0.5710863 -0.7527043 0.26203752 0.52238417 -0.16279173 -0.34118858 -0.36010367

running_var f4 [32]
00000000: aa72 c33f f763 d13f 614d e240 4029 bf40
00000010: 8ab7 8340 0c44 9640 4697 6440 d9cd aa40
00000020: 9cee 5e3f aa5e 1f40 04f9 ef3f e890 bf3f
00000030: 28d0 6940 94aa 2240 57c7 8140 d806 d23f
00000040: 6e13 0840 c3bc 0940 6eab 0640 9635 be40
00000050: 8488 3540 3172 2240 cbff bc40 8872 9240
00000060: b833 5640 9caf 1c40 cda4 ae40 3f43 e83f
00000070: e189 b240 3f21 8040 b9ca 1640 9dc9 c740
1.5269368 1.6358632 7.0719457 5.9737854 4.1161547 4.6958065 3.571733 5.337628
0.8708284 2.4901528 1.8747869 1.4966097 3.6533298 2.5416613 4.0555835 1.6408339
2.126186 2.152146 2.1042132 5.9440413 2.8364573 2.5382197 5.9062247 4.576481
3.3469067 2.4482183 5.4576173 1.8145522 5.579331 4.0040584 2.3561232 6.243361

weight f4 [32]
00000000: b72e 4740 ef0e a53f b1d3 ad3f 0a57 813f
00000010: 616f a4bd c1d5 a1bd b2af a53f 0250 8ebe
00000020: 51bd 3d40 316b 8fbf 7368 553e f06f f63f
00000030: ac9a 323f 8e1c e43e 73d0 803f a036 e33f
00000040: b705 463f e6bc 0540 aed7 543f f78e fb3e
00000050: f140 553f 869c 30bf bc47 4240 6d57 ad3e
00000060: bfa3 3540 44f3 8d3f 399d 5f3f 4ad0 72bf
00000070: 4ed1 b53f 2d99 f8bc 204f 2a40 b05b 6440
3.1122262 1.2895182 1.3580228 1.0104687 -0.08029056 -0.079020984 1.2944243 -0.27795416
2.96468 -1.1204587 0.20840625 1.9252911 0.6976726 0.44553035 1.0063614 1.7751045
0.7735247 2.0896544 0.831416 0.4913251 0.8330222 -0.68988836 3.0356283 0.33855763
2.8381193 1.1089864 0.8734928 -0.94849074 1.42045 -0.030346477 2.6610794 3.5680962

bias f4 [32]
00000000: 9ada 31c0 d2b6 4cbf e76a 15c0 1985 a43f
00000010: 6ed3 0abf 117b 963f 078a 17c0 62b0 abbf
00000020: 0c99 febf 55cf 6abf e892 87bf 0e23 363f
00000030: f9e5 db3f 3a85 dd3e c5b4 bc3f dc7a 9b3f
00000040: 1f92 0340 8ef7 94bf 8461 1f40 4e4e 8d3f
00000050: ec32 e5bf 9ae1 8bbe b5b1 47bf ea95 96bf
00000060: 7ac4 2e3f b464 a7bf 70dd b7bf 37dc 1240
00000070: 4b1b a5be 751f 34bf 71ce 423f cd98 6f3d
-2.7789674 -0.7996646 -2.3346498 1.2853118 -0.54228866 1.1756307 -2.3677995 -1.3413203
-1.9890456 -0.91722614 -1.0591707 0.7114724 1.7179557 0.43265706 1.4742666 1.2146869
2.0557935 -1.1638048 2.490327 1.1039522 -1.7906165 -0.27320558 -0.78005534 -1.17645
0.6826855 -1.3077607 -1.4364452 2.2946908 -0.32247385 -0.703605 0.76096255 0.05849533

running_mean f4 [32]
00000000: 93d2 1cc0 e7e3 b23e a471 d13f bdc0 3ec0
00000010: 9b00 d5bf 3a60 42bf c37b 753f 26f2 7b3e
00000020: 460c e23f d55c 64be 836f 543e 1956 a23f
00000030: e9af 45bf c244 34c0 c8dd 93bf cb8c 483f
00000040: f9c6 d03f 3ed1 933e 04e0 ecbe 7d51 133e
00000050: fda5 c43e 6b82 1bc0 6355 6d40 e92b 1040
00000060: 4346 c03f cc88 babf 9b6b 92bf 23a2 84bf
00000070: c302 16c0 fe90 bfbf 491f eabf a8ba 643f
-2.4503524 0.349395 1.6362805 -2.9805138 -1.664081 -0.7592808 0.9589197 0.24604091
1.7659996 -0.22301038 0.20745663 1.2682525 -0.7722154 -2.8166966 -1.1552057 0.78339833
1.6310722 0.28870577 -0.4626466 0.14386554 0.3840789 -2.429835 3.7083366 2.25268
1.5021442 -1.4572997 -1.1439089 -1.036198 -2.3439186 -1.4966123 -1.8290797 0.89347315

running_var f4 [32]
00000000: a635 a641 d224 c241 71a8 7a41 a67d 8641
00000010: 655f 0941 dcb3 4941 3c86 bf41 f84b 0542
00000020: 2b56 a541 4253 b441 152f 2841 4ce4 5941
00000030: 11b6 2b41 51ee 8a41 df9a 0142 a7dd 1342
00000040: 2ad0 9741 c135 ed41 d556 a341 7179 ac41
00000050: b048 5641 ab36 eb41 d92b 2e42 d5ea 8341
00000060: 9279 da41 05aa 8a41 5599 6741 26de d841
00000070: e52d 0642 11b2 ad40 9abd 4641 fb32 9a41
20.776196 24.267979 15.666123 16.811352 8.58579 12.606411 23.940544 33.32419
20.667074 22.540653 10.511495 13.618237 10.73195 17.366365 32.40124 36.966457
18.976643 29.651247 20.417398 21.559298 13.392746 29.401693 43.54282 16.489664
27.30936 17.333017 14.474935 27.10847 33.54482 5.4279866 12.421289 19.274893

weight f4 [32, 16]
00000000: 3096 a43e 0c7d 053d f410 91bf e861 71bf
00000010: 072f 79bf dc81 2040 72cd 1240 0af6 89bf
00000020: 0b6a b63f b48d 07c0 9453 a73f e721 92bf
00000030: 1812 be3f 8738 d63f e272 003f 5935 49c0
00000040: 25dd 4040 c0a1 1a40 fb3f d0bf 7943 b5bf
00000050: d69f 0fbf e100 dfbd 0a93 cd3f 375e 4bbf
00000060: 2320 1040 a509 2b40 2c7f bcbf 4c9d 4f3e
00000070: 721b fe3e f052 04bf c99e e5be 2d7b d23f
00000080: c298 d7be d30f 10c0 5baf 133f 56f2 c1bd
00000090: e621 c3bf 6fee e23f c158 2c40 26d4 30bf
000000a0: 11b8 883f 8c74 51be 3e9d 7e3e 68de 19c0
000000b0: f089 31bf 325f 483f 20f3 863f 01f8 c6bf
000000c0: 26ea 1340 12bf 2b40 09d7 5fbf 5e00 3b3c
000000d0: c49c 07bf 5d42 b2bf fb65 55bf 9f69 623f
000000e0: a316 0f40 1c93 89bc ac41 7abf 6a4d 8c3f
000000f0: 1248 0040 e577 fb3c 88a1 963e 934d 9ebf
00000100: b914 dd3e 27cf e73f 643c 88bf 8ca6 fd3f
00000110: c561 d3bf 0ba6 2bc0 ba66 b0bf f36f c7be
00000120: 5d2b 83bf b09d ad3f a270 15c0 e926 8ebe
00000130: 705c dabf fa4c aa3f faf6 1e40 c9bc 1c40
00000140: 1b4d 0c40 64df e83f 2fba 06c0 4f15 b9bf
00000150: 2ad2 52bf e066 913e d385 873f d0af a6bf
00000160: 024d 1c40 cefe f73e 8f7a 29bf bca0 a5bf
00000170: 6194 093f 88d6 d03f 3e69 9d3e e15e f1bf
00000180: 4e88 1840 c066 483f c114 c5bf 9bd2 23c0
00000190: ab89 01c0 99e9 013f ac33 8a3f bc08 113f
000001a0: 57ad 8040 d18f 38bf 4826 713f d543 c9be
000001b0: 397d c83f 02a1 063e 33bb 11c0 5a48 07c0
000001c0: 528f 2240 ef23 bd3f ae47 17c0 cba5 fd3e
000001d0: cf0e 20bd 9137 d73e 1031 323f 2e5a b9bf
000001e0: 6f82 ff3f 0602 04c0 dca9 afbf 423b e0bf
000001f0: c139 43bf 50ee bb3f 2436 7c3f c6aa bc3d
00000200: 21bf d83e 4ff6 1c40 4857 ccbf 3fc8 ae3d
00000210: 427b eabf e6e3 7ebe c421 843f 0c15 c13f
00000220: 119d 00c0 48b2 9fbf a1f0 d0bf 39ab 883f
00000230: e551 5bbe ab59 b9bf b1f1 17bf 6917 3f40
00000240: 8a22 3ebf 14c5 413f 3b56 2ebf 9a51 1140
00000250: 642d e73f 192e 1bc0 39e5 c5bf 0d54 0840
00000260: a289 71bf 02ca 31bf 2825 a33f b949 5c3f
00000270: 1284 e13f 9829 a13f 55a8 bf3e 171d b83c
00000280: 6338 0f40 309f 96bf 2df2 d2bf a875 493d
00000290: 8b8f 77bf 98fd a03f 5e8f 653f a2b5 1fc0
000002a0: 6ebb 2340 bf52 4b3f 314f 873f fbb7 f03b
000002b0: 315f 17c0 1767 9a3f a526 96bf fa64 2ac0
000002c0: 232e 043e 54b2 043d eecd 0740 9f91 f43f
000002d0: e3e3 cb3f e854 31c0 1ea5 8dbe ea4f febf
000002e0: 70bb 403f 8a01 b5be be8c 253e 037d bdbf
000002f0: 57b6 fa3f b372 a83f 9e50 f43f 4259 723f
00000300: 51ca 4e3f c845 f23d d23e 6ac0 2496 aebf
00000310: 8cd7 8cbf 3725 c73f 8a0f 8c3f 2e24 3fc0
00000320: b372 c2bf afed a6bf 4c5f 15bf a3e3 a2bf
00000330: f271 323f be53 12bf 577a 4b3f 237c ef3f
00000340: ad70 acbf 5861 273f 2419 ad3f 53d7 1fbf
00000350: 2395 15bf 0296 25c0 2d07 bbbf 6e5a 8abc
00000360: 2391 10c0 b5d7 823c 2c46 f03e 18bc 2b40
00000370: f05b 983f 3023 82bf 10f6 373f a21d 9c3f
00000380: 6a72 4bbf 0187 4abe 7479 9dbf c429 df3e
00000390: b669 2bbe dd53 c23f 16bf 45c0 c027 31bf
000003a0: f35d 01c0 1fd6 41bf 82b5 bd3f af72 5040
000003b0: 0da2 76bf 65b4 31bf e3b0 c73f aa5a 8c3f
000003c0: 1797 1740 0d37 02bf 7490 e2be 0143 1abf
000003d0: 79f8 29bf c8fc 763f 4555 003f 46d2 cc3f
000003e0: 46fc 63be 81ca 2d40 4828 50bf 0e2c 1e3f
000003f0: b675 c8bf 406e 703f 4067 183e 9ff3 ae3f
0.32145834 0.032589957 -1.1333299 -0.9429002 -0.97337383 2.507926 2.2937894 -1.077821
1.4251112 -2.1180239 1.3072381 -1.1416596 1.4849272 1.6736001 0.501753 -3.143881
3.0134976 2.4161224 -1.6269525 -1.4161216 -0.56103265 -0.108888395 1.6060498 -0.79440635
2.2519615 2.6724637 -1.472631 0.20274848 0.49630314 -0.5168905 -0.44847706 1.644384
-0.42108732 -2.2509658 0.57689446 -0.0947005 -1.524472 1.7729014 2.692917 -0.6907371
1.0681173 -0.20454615 0.2486467 -2.4041996 -0.693511 0.78270257 1.0542946 -1.5544435
2.3111663 2.683537 -0.8743749 0.011413662 -0.5297358 -1.3926502 -0.83358735 0.88442415
2.2357566 -0.01679378 -0.9775646 1.0961125 2.0043988 0.030696819 0.29420114 -1.2367424
0.43179873 1.8110093 -1.064343 1.9816451 -1.6514212 -2.6820095 -1.378135 -0.38952598
-1.0247608 1.3563747 -2.3349996 -0.2776406 -1.705946 1.3304741 2.4838243 2.4490225
2.1922061 1.8193173 -2.1051137 -1.4459628 -0.82351935 0.283988 1.0587715 -1.3022404
2.4422002 0.48436588 -0.66202635 -1.2939677 0.53742033 1.631547 0.30744356 -1.885708
2.3833194 0.78281784 -1.5396959 -2.5597293 -2.0240276 0.50747067 1.0797019 0.5665395
4.0211596 -0.72094446 0.9419904 -0.39309564 1.5663215 0.13147357 -2.2770507 -2.113791
2.5399976 1.4776591 -2.36375 0.49540552 -0.039076623 0.4203458 0.69606113 -1.4480646
1.996168 -2.0626235 -1.3723712 -1.7518084 -0.7626 1.4682102 0.9852011 0.0921226
0.4233332 2.4525335 -1.5964136 0.08534288 -1.8318865 -0.24891624 1.0322804 1.5084548
-2.0095866 -1.2476282 -1.6323434 1.0677253 -0.21417959 -1.448049 -0.59353167 2.9858038
-0.7427145 0.7569134 -0.6810033 2.2706056 1.8060727 -2.4246886 -1.5460578 2.13013
-0.94350636 -0.69448864 1.2745714 0.8604999 1.761843 1.2590818 0.37433115 0.022474809
2.2378166 -1.176733 -1.6480156 0.04918447 -0.96703404 1.2577391 0.89671886 -2.495461
2.5583148 0.79423136 1.0571042 0.007346151 -2.365185 1.206271 -1.1730543 -2.6624131
0.12908225 0.03239663 2.121944 1.910694 1.592892 -2.7708073 -0.27665037 -1.9868138
0.75286007 -0.35352737 0.1616697 -1.4803776 1.9586896 1.3160003 1.9087102 0.94667447
0.8077746 0.11829716 -3.6600842 -1.3639569 -1.100328 1.5558232 1.0942242 -2.9865832
-1.5191253 -1.3041285 -0.58348536 -1.2725719 0.69705117 -0.5715903 0.7948355 1.8709759
-1.3471886 0.6538291 1.3523297 -0.62437934 -0.5843069 -2.5872808 -1.4611565 -0.016888823
-2.2588584 0.015971998 0.46928537 2.6833553 1.1903057 -1.0166988 0.71859837 1.2196543
-0.79471457 -0.19778062 -1.230269 0.43586552 -0.16739544 1.5181843 -3.089788 -0.6920128
-2.0213592 -0.7571735 1.4821017 3.2569997 -0.9634102 -0.69415885 1.5600857 1.0965168
2.3685968 -0.5086525 -0.44250834 -0.6025849 -0.66394764 0.96479464 0.5013011 1.600167
-0.22264203 2.7154849 -0.81311464 0.6178597 -1.5660923 0.9391823 0.14883137 1.3668097

weight f4 [32]
00000000: 3d87 8440 235e 4640 beee 90be 8c55 183f
00000010: 67f3 893f 82a1 14bf 26c3 1140 1e8e e13f
00000020: 6040 523f 501c 833f d16e ad3f 0bc8 813f
00000030: d2fc d0be dcf5 2540 5def 3d3f 1bff b13d
00000040: fdc1 5140 b1c5 a03f 82bc 54bf 67b8 ca3f
00000050: 6a14 2a40 9411 2cbf 4d09 a83f f2ce 3140
00000060: 5304 c53f 3c26 473f a64b 3a40 6cea 0d40
00000070: 63a1 db3e 43d5 2f40 181b 623f add8 883f
4.1415086 3.0994956 -0.28307146 0.59505534 1.0777406 -0.5805894 2.277536 1.7621496
0.8212948 1.0243015 1.3549443 1.0139173 -0.40817887 2.593131 0.74193364 0.08691236
3.277465 1.2560331 -0.8310014 1.5837525 2.657496 -0.6721432 1.3127838 2.778256
1.5391945 0.77792716 2.9108672 2.217433 0.42896566 2.7473915 0.8832259 1.0691124
