04_Experiments/2022_08_02 10-12-49 100-runs-optimizer_params-custom_loss/models/Model_run74_optimizer_params0.1_alcalinity_of_ash.pt (torch, 284513 bytes, 318 tensors)

weight f4 [12]
0	0x3f800000	1.0
1	0x3f800000	1.0
2	0x3f800000	1.0
3	0x3f800000	1.0
4	0x3f800000	1.0
5	0x3f800000	1.0
6	0x3f800000	1.0
7	0x3f800000	1.0
8	0x3f800000	1.0
9	0x3f800000	1.0
10	0x3f800000	1.0
11	0x3f800000	1.0

bias f4 [12]
0	0x00000000	0.0
1	0x00000000	0.0
2	0x00000000	0.0
3	0x00000000	0.0
4	0x00000000	0.0
5	0x00000000	0.0
6	0x00000000	0.0
7	0x00000000	0.0
8	0x00000000	0.0
9	0x00000000	0.0
10	0x00000000	0.0
11	0x00000000	0.0

running_mean f4 [12]
0	0x00000000	0.0
1	0x00000000	0.0
2	0x00000000	0.0
3	0x00000000	0.0
4	0x00000000	0.0
5	0x00000000	0.0
6	0x00000000	0.0
7	0x00000000	0.0
8	0x00000000	0.0
9	0x00000000	0.0
10	0x00000000	0.0
11	0x00000000	0.0

running_var f4 [12]
0	0x3f800000	1.0
1	0x3f800000	1.0
2	0x3f800000	1.0
3	0x3f800000	1.0
4	0x3f800000	1.0
5	0x3f800000	1.0
6	0x3f800000	1.0
7	0x3f800000	1.0
8	0x3f800000	1.0
9	0x3f800000	1.0
10	0x3f800000	1.0
11	0x3f800000	1.0

weight f4 [12]
0	0x3f409485	0.7522662
1	0x400c0f37	2.1884286
2	0x3fcdd043	1.6079181
3	0x3fcddc7a	1.6082909
4	0x3f5e1bc5	0.8676112
5	0x3fe8ef93	1.8198112
6	0x3fab36ad	1.3376061
7	0x3fbc7886	1.4724281
8	0x3f7062b1	0.9390059
9	0x40025cb0	2.0369072
10	0x3f81a186	1.0127418
11	0x3f4f9f79	0.8110271

bias f4 [12]
0	0xbf9e59bb	-1.2371134
1	0x3f0c50f1	0.54811007
2	0x3f3f1516	0.7464155
3	0xbeb44095	-0.35205522
4	0xbf876eed	-1.0580727
5	0x3f612f36	0.87962663
6	0xbf7bad97	-0.9831175
7	0xbfadca18	-1.3577299
8	0xbd2ad0f2	-0.041703172
9	0x3ee6fd98	0.45115352
10	0x3ef8fc1f	0.48629853
11	0x3f7a5ff7	0.9780268

running_mean f4 [12]
0	0x3ea5282c	0.3225721
1	0x4008e955	2.1392415
2	0x40163146	2.3467574
3	0x413bdd75	11.741567
4	0x3fb779fa	1.4334099
5	0x3f5e3573	0.8680031
6	0x40080f25	2.1259243
7	0x40950ea0	4.6580353
8	0x42b636ed	91.10728
9	0x4004a4f7	2.0725687
10	0x442bb2a8	686.7915
11	0x3fec6556	1.8468425

running_var f4 [12]
0	0x3de5c3bb	0.11218973
1	0x3e335d96	0.17516169
2	0x3f186796	0.5953306
3	0x3f3023b3	0.6880447
4	0x3ecc636f	0.39919612
5	0x3e14d502	0.14534381
6	0x3f9f541b	1.2447542
7	0x4099007a	4.781308
8	0x435a10c4	218.06549
9	0x3eefb847	0.4682028
10	0x47a99756	86830.67
11	0x3f81f5b3	1.0153106

weight f4 [32, 12]
0	0x3eb44c25	0.35214344
1	0x3fdca0cf	1.7236575
2	0x3f0b99fe	0.5453185
3	0xbecc1239	-0.39857653
4	0xbeb422f4	-0.35182917
5	0x3f01dc67	0.5072693
6	0xbf92d28a	-1.1470501
7	0xbf4d0bda	-0.8009621
8	0xbed393e9	-0.41323784
9	0x3fcfdde5	1.6239592
10	0xbfb427a0	-1.4074593
11	0xbd4b4b80	-0.04963255
12	0xbd9267f8	-0.07148737
13	0x3ebb7589	0.3661311
14	0x3da29095	0.07937733
15	0x3e34ab69	0.17643513
16	0xc04ea3aa	-3.2287393
17	0x3f04dff9	0.51904255
18	0x3f8fa832	1.1223204
19	0x3fc4129c	1.5318179
20	0x3dbfa8fe	0.093584046
21	0x3f7da53e	0.99080265
22	0xbfbbc10e	-1.4668291
23	0xbfb877e3	-1.4411587
24	0x3f5dc6c5	0.86631423
25	0x3e7b35ac	0.24532193
26	0xbfb2ec92	-1.3978446
27	0x3f38085e	0.7188777
28	0x3e79281d	0.24331708
29	0xc014321a	-2.315558
30	0x3fc0e06a	1.5068486
31	0x3fe59532	1.7936156
32	0x3eb38274	0.35060465
33	0x3f169b53	0.58830756
34	0x3e710a48	0.23539078
35	0xbfaca43d	-1.3487622
36	0x3efac691	0.4897962
37	0x3fbf623e	1.4951856
38	0xbf325f30	-0.69676495
39	0xbfb8c007	-1.4433602
40	0xbfabd1ab	-1.342336
41	0x3f94304d	1.157724
42	0x3f4cc3f6	0.7998651
43	0x3f20a0e0	0.62745476
44	0x3e9c0a87	0.30476782
45	0x3fef6726	1.8703353
46	0x3ee7da50	0.45283747
47	0xbf0312f8	-0.5120082
48	0xbf98c381	-1.1934663
49	0x3e930705	0.28716293
50	0x3f415284	0.75516534
51	0x3f43f5b8	0.7654681
52	0x3f85598f	1.0417956
53	0x3fcdee24	1.60883
54	0xbfcade1b	-1.5849031
55	0x3f85c07d	1.0449368
56	0x3ed5ae50	0.41734552
57	0x3f213259	0.6296745
58	0x40355785	2.8334668
59	0x3fc6fb85	1.5545508
60	0x3b8f6630	0.0043761954
61	0x40007fc0	2.0077972
62	0xbdeeca70	-0.11659706
63	0x3bd7bad4	0.006583551
64	0xbea3bcc1	-0.31979945
65	0xbf6c357b	-0.92269105
66	0xbdbef878	-0.093247354
67	0x3f43df8c	0.7651298
68	0xbf90f329	-1.1324207
69	0xbfc8711c	-1.5659518
70	0xc0096007	-2.146486
71	0xbf8de530	-1.1085567
72	0xbfdd9f4d	-1.731424
73	0xbfcbfc41	-1.5936357
74	0x3e954b6f	0.29159114
75	0x3ef1a795	0.47198167
76	0x3f1674c0	0.58771896
77	0xbfd9a0c0	-1.7002182
78	0x3e105560	0.14095068
79	0xbeaa2038	-0.33227706
80	0x3ecef008	0.40417504
81	0xbfae306a	-1.3608525
82	0xbeb4ee8d	-0.3533825
83	0x3f6195a0	0.88118935
84	0xbfdb30df	-1.7124289
85	0xbf10e8a2	-0.5660497
86	0x3eaf1ebf	0.34203145
87	0x3ed77dd3	0.42088184
88	0x3f8e08d6	1.1096447
89	0x3fe3502d	1.7758843
90	0x400839a8	2.128519
91	0xc0312fde	-2.7685466
92	0x3e2ed7e8	0.17074549
93	0x400319c3	2.0484474
94	0x3f244ffd	0.6418455
95	0xbede4ad0	-0.43416452
96	0x3fb34bf6	1.4007556
97	0x4038cffb	2.8876941
98	0xbcf9fcbb	-0.03051602
99	0x3fa4fff2	1.2890608
100	0x3e6db107	0.23212062
101	0x3e74118d	0.2383482
102	0x3efaa1f1	0.48951676
103	0x3e8a5404	0.27017224
104	0x3fa0ea1e	1.2571447
105	0x3f7fbeb5	0.9990037
106	0x3f4b7d66	0.7948822
107	0x3f55b02b	0.83471936
108	0xbf4f976b	-0.8109042
109	0x3f7854c8	0.97004366
110	0x3fe4ad4a	1.7865384
111	0xbfa1ad45	-1.2631003
112	0xbe79abeb	-0.24381988
113	0x3fe33dee	1.7753274
114	0xbeea4c43	-0.45761308
115	0xbfb4a5c4	-1.4113088
116	0x3f838e6c	1.0277839
117	0xbd13d831	-0.036094848
118	0x3f55b276	0.83475435
119	0x3f84fd3a	1.0389779
120	0xbfcd046d	-1.6016976
121	0xbfcff47d	-1.6246487
122	0x3eb39d4e	0.3508095
123	0x3fc992bc	1.5747905
124	0x3f4f83da	0.81060565
125	0xbde10b6b	-0.10988506
126	0x3f5625bc	0.8365133
127	0xbe366db9	-0.17815293
128	0xbf1bece0	-0.6090832
129	0x3f2c6889	0.6734701
130	0x3f3aec4c	0.7301681
131	0x3f5eda03	0.8705141
132	0xbf273e22	-0.6532918
133	0x3ec09c6c	0.3761934
134	0xbf9a1861	-1.203869
135	0xbf93e4a0	-1.1554146
136	0x3f0d250f	0.5513467
137	0xbfbae166	-1.4600036
138	0xbf0b2fd3	-0.5436985
139	0xc0038b94	-2.0553942
140	0xc01d786f	-2.4604757
141	0xbe10be5e	-0.1413512
142	0x3dd7a2b7	0.10529082
143	0xbf2daf34	-0.67845464
144	0xbfe4f01e	-1.7885778
145	0x400c7131	2.1944087
146	0xbfb6bcc4	-1.4276357
147	0xbf57dc0a	-0.8432013
148	0xbcff36c0	-0.031154037
149	0xbf22ad49	-0.6354566
150	0xbf6979a3	-0.9120123
151	0xbfb2bdd2	-1.3964179
152	0x3a003084	0.0004890042
153	0x3ea1e437	0.31619427
154	0x3e775c39	0.24156274
155	0x3f500434	0.81256413
156	0xbe5b4d6d	-0.21416254
157	0xbde6f9ed	-0.11278138
158	0x3fccb21f	1.5991858
159	0xbde33453	-0.110939644
160	0x3e6cab36	0.23112187
161	0x4024402b	2.5664165
162	0xbfa6bc11	-1.3026143
163	0xbf6564a8	-0.89606714
164	0xbeb0ac2d	-0.3450636
165	0xbf2286a4	-0.63486695
166	0xbeb598c7	-0.35468122
167	0xbf33e3f2	-0.7026969
168	0x3ebed31d	0.37270442
169	0xbed49348	-0.41518617
170	0x3fbad84b	1.4597257
171	0xbf98435b	-1.1895555
172	0xbe5a12e0	-0.21296263
173	0x3f72d096	0.94849527
174	0xc04076df	-3.0072553
175	0x3ebb9179	0.36634424
176	0x3f49ca7b	0.78824586
177	0x3f63bbb5	0.88958293
178	0x3f6175f4	0.8807061
179	0x3e89aa91	0.26887944
180	0xbe6d6cdd	-0.2318606
181	0xbf504076	-0.8134836
182	0x400d6b95	2.2096913
183	0x3f02178b	0.50817174
184	0x3ed42101	0.4143143
185	0x3fa6323a	1.2984078
186	0xbf4d602d	-0.8022488
187	0x3f972f8a	1.1811383
188	0x3e13a842	0.14419654
189	0xbf4c3995	-0.79775363
190	0x3e61e798	0.22061002
191	0x3e907649	0.28215244
192	0x3f86d9db	1.0535234
193	0xbfe9a650	-1.825388
194	0x3fc7d9ca	1.5613339
195	0x3f8bba5a	1.0916245
196	0xbdbaeb88	-0.09126955
197	0xbfa39a23	-1.2781414
198	0x3efc61d1	0.49293378
199	0x3e9d72c8	0.30751634
200	0x3eabddf8	0.33567786
201	0x400c35f9	2.1907942
202	0x3fc768c1	1.5578843
203	0x3e473722	0.19454625
204	0xbfc65008	-1.5493174
205	0x3e89c146	0.26905268
206	0x3f696650	0.9117174
207	0x3cd46d6c	0.025931083
208	0x400e115e	2.21981
209	0xbf275e0a	-0.6537787
210	0x3ed870ce	0.42273563
211	0x3f18a44a	0.59625685
212	0x3ed1e074	0.40991557
213	0xbf98462c	-1.1896415
214	0x3fee9191	1.8638173
215	0x3eff81ec	0.4990381
216	0xc062a70d	-3.541446
217	0x4003c4de	2.0588908
218	0xbf5db9b6	-0.866115
219	0x4003986c	2.056178
220	0xbf8f19ee	-1.1179788
221	0xbeee6eab	-0.46568808
222	0xbf2459b6	-0.6419939
223	0xbf26c630	-0.6514616
224	0x3e306d78	0.17229259
225	0xbe8d849e	-0.2764024
226	0x3ea7f4f4	0.32804072
227	0xbcbd55f0	-0.023112267
228	0x3ddfd5fc	0.10929486
229	0x3e0b5427	0.1360632
230	0xbfc02799	-1.5012084
231	0xbf38e489	-0.72223717
232	0xbea38a1d	-0.3194131
233	0xbf67d4a7	-0.90558857
234	0xbfc83412	-1.5640891
235	0x3fe82c4d	1.813852
236	0x403eabef	2.979244
237	0x3f944c0c	1.1585708
238	0x3ef9bb5b	0.48775753
239	0xbedc45b2	-0.43021923
240	0xbe9ca421	-0.3059397
241	0xbdadf2c0	-0.084935665
242	0xbe5e846b	-0.21730201
243	0x3f0782e5	0.52934104
244	0x3f3a36c8	0.7273984
245	0xbe71d2cf	-0.23615573
246	0x40022dfc	2.0340567
247	0xbe3dd3cf	-0.1853783
248	0xbf34bb18	-0.7059798
249	0xbf908706	-1.1291206
250	0x3f538704	0.8262789
251	0xc0118e4c	-2.27431
252	0x3ea3036a	0.31838542
253	0xbf0881ab	-0.5332286
254	0xbe8e0707	-0.27739736
255	0x3eb58dff	0.35459897

weight f4 [32, 16]
0	0xbf29dfff	-0.66357416
1	0x3f979c57	1.1844586
2	0x3eebbf82	0.46044546
3	0xbfbf2063	-1.4931759
4	0xbf92e431	-1.1475888
5	0xbf845d53	-1.034098
6	0x3fb34cc6	1.4007804
7	0x3f7015e1	0.93783385
8	0x3e4d887e	0.20071599
9	0x3f7ef4d2	0.99592316
10	0x3fa329b3	1.27471
11	0x3fa669a9	1.3000995
12	0x3f218629	0.6309534
13	0x3f30f44c	0.6912277
14	0xbfefb7b6	-1.8727939
15	0x3f184e35	0.59494334
16	0x3f79e959	0.97621685
17	0x3fa3af7b	1.2787927
18	0x3f1ca2b7	0.61185783
19	0x3ffe287f	1.9856108
20	0xbfae6b6b	-1.3626531
21	0x3f0ed696	0.5579618
22	0xbf9fceb7	-1.2484959
23	0xbf999ccc	-1.2000976
24	0x3f0b16de	0.5433177
25	0x3df7aade	0.12093137
26	0xbf7dcaac	-0.9913738
27	0x3d23f3fe	0.04002761
28	0x3f5f5d23	0.8725149
29	0x3fa7b0f0	1.3100872
30	0xbf0a374a	-0.53990614
31	0xbeada8b7	-0.33917782
32	0xbdf30d1d	-0.118677355
33	0xbec37409	-0.38174465
34	0xc00eef2c	-2.233348
35	0xbff65158	-1.9243574
36	0x3f4fa7b7	0.8111529
37	0xbfa0157d	-1.2506558
38	0xbf6a30c1	-0.9148064
39	0x3e12943c	0.1431436
40	0x3ff9b465	1.9508177
41	0x3f1f5460	0.6223812
42	0xbf2e856b	-0.6817233
43	0xc030f0e8	-2.7647038
44	0x3ee9ef30	0.45690298
45	0x3fc9316f	1.5718211
46	0x3eae3a7d	0.34028998
47	0x3f7f7bf9	0.9979854
48	0x3eebaef4	0.46031916
49	0x3e04996b	0.1294915
50	0xbfcc5456	-1.5963237
51	0x3dfa2594	0.12214199
52	0x3f186855	0.595342
53	0xbf4daa4a	-0.80337965
54	0xbf7d3e95	-0.9892362
55	0x4003cc94	2.0593615
56	0x3fc4c8b7	1.5373753
57	0x3fd47edb	1.6601213
58	0xbf9c6f49	-1.2221462
59	0x3de42339	0.11139531
60	0x3f2e50c3	0.6809198
61	0x3e41d378	0.18928325
62	0x3f14f8c1	0.5819207
63	0xbff8ab1d	-1.942722
64	0x3f88f7e8	1.0700655
65	0xbf91adce	-1.1381166
66	0xbf7bdaca	-0.9838072
67	0xbd8ee2a7	-0.06976824
68	0x3f1b8457	0.6074881
69	0xbfd18b80	-1.6370697
70	0x3dbe765e	0.092999205
71	0x40024fd3	2.036122
72	0x4002793a	2.038649
73	0x3f58b285	0.846474
74	0xbee2004e	-0.44140857
75	0xbf9ab233	-1.2085632
76	0xbfbb3196	-1.4624507
77	0xbe80ebfb	-0.2518004
78	0x3ed7df18	0.42162395
79	0x3fa1599c	1.2605472
80	0xbebac6ca	-0.3647979
81	0xbef6734a	-0.48134834
82	0x3fb9b672	1.4508803
83	0xbdfa6400	-0.12226105
84	0xc025e896	-2.592321
85	0x3f208c8b	0.6271445
86	0x3f46ecfe	0.7770537
87	0xbfa74431	-1.3067685
88	0xbf76d892	-0.9642421
89	0xc000cc31	-2.0124629
90	0xbf0fe1ba	-0.56203806
91	0xbf259bff	-0.64691156
92	0xc008f439	-2.1399062
93	0x3e6af3cd	0.22944565
94	0xbea70a5e	-0.32625097
95	0x3ef3dbaa	0.47628528
96	0xbf3b6f12	-0.73216355
97	0xbf3fe743	-0.7496225
98	0xbc78b0d8	-0.015178882
99	0x3e06c33c	0.13160414
100	0x3e079c6c	0.13243264
101	0x3e31ecdc	0.17375511
102	0x3f3deee5	0.7419265
103	0x3f54e593	0.831628
104	0xbf3c37d1	-0.7352267
105	0x3fac5ca6	1.3465774
106	0x3faf738a	1.3707135
107	0x3fb337cd	1.4001404
108	0x3f84b956	1.036906
109	0xbf1c7174	-0.61110616
110	0x3ee1786f	0.44037196
111	0xbfe12d84	-1.7592015
112	0x3f25d400	0.6477661
113	0xbfb76b5d	-1.432964
114	0xbfbbe1ba	-1.4678261
115	0xc007053b	-2.1096942
116	0xbe73d1c0	-0.23810482
117	0xbf20162b	-0.62533826
118	0x3f36c5fb	0.71395844
119	0x3e1235e3	0.14278369
120	0xc006a965	-2.104089
121	0x3fcaa596	1.5831783
122	0xbec91284	-0.3927194
123	0x3f536c16	0.825868
124	0xbf46a6d3	-0.77598304
125	0xbc2918ec	-0.010320883
126	0xbf262676	-0.64902437
127	0x3f3d562d	0.7395962
128	0xbf9caa4c	-1.223947
129	0x3fa85bfc	1.3153071
130	0xbeed19a1	-0.46308616
131	0x3eb5f167	0.35535738
132	0xc002ce6f	-2.0438497
133	0x3f63132c	0.8870113
134	0xbf20614d	-0.6264847
135	0x3cff6a2b	0.031178555
136	0xbecc8b1a	-0.39949876
137	0xbfb0d986	-1.3816383
138	0xbea7fb70	-0.3280902
139	0x3f971ad4	1.1805062
140	0x3fecf65d	1.8512684
141	0xbf9f460a	-1.2443249
142	0xbf60dcaa	-0.87836707
143	0xbf369e97	-0.7133574
144	0x3eeb81a3	0.45997342
145	0xbe8d7c1c	-0.2763375
146	0xc0442301	-3.0646365
147	0xbedcbb45	-0.43111625
148	0xbf156284	-0.5835345
149	0x3e153db3	0.14574318
150	0xbf70289f	-0.9381198
151	0x3ff36231	1.9014341
152	0x3faea74a	1.3644803
153	0x3fb25b74	1.3934159
154	0xbf53f107	-0.82789654
155	0xbef5169a	-0.47868806
156	0xbe300405	-0.17189033
157	0x3f2a2317	0.6645979
158	0x3ed03d23	0.40671644
159	0xbf4a1bc5	-0.7894862
160	0x3ed4a6ed	0.41533604
161	0x3ed97e4c	0.4247917
162	0x3fd45e81	1.659134
163	0x3f23bcdb	0.63960046
164	0xbeeed715	-0.4664847
165	0xbfd2cee4	-1.6469388
166	0xbec3f725	-0.38274494
167	0xbf5be9b4	-0.8590348
168	0x3f68c299	0.9092193
169	0xbfa11364	-1.2584043
170	0xbfc43a8b	-1.5330366
171	0xbfb98950	-1.449503
172	0xbf3b901d	-0.73266774
173	0xbfa8af16	-1.3178432
174	0x3f12209e	0.5708102
175	0x3f09bcc6	0.5380367
176	0x3ebe0e25	0.37120166
177	0x3f676b6e	0.903983
178	0xbe9511d5	-0.29115167
179	0xbd25e1ff	-0.04049873
180	0xc018f791	-2.3901103
181	0x3f6d53c8	0.92705965
182	0xbf2a77fd	-0.6658934
183	0xbda2f370	-0.07956588
184	0x3ea93a9a	0.33052522
185	0x3f8992e9	1.0747958
186	0xc00291fd	-2.0401604
187	0x3e85f3b9	0.26162508
188	0x3f35d338	0.7102542
189	0xbfdbf511	-1.7184163
190	0x3db05331	0.086096175
191	0xc00e3e9e	-2.2225718
192	0x3f8b5529	1.0885364
193	0xbf72a724	-0.94786286
194	0xbfe2a886	-1.7707679
195	0x3d4b452e	0.04962652
196	0x3e3d443b	0.18483059
197	0x3f885f40	1.0654068
198	0xbdcaf8f6	-0.09910767
199	0xbfcddf96	-1.6083858
200	0xbf5803bf	-0.84380716
201	0xbde80ff8	-0.11331171
202	0xbf20cc97	-0.6281218
203	0x3f9f62e7	1.2452058
204	0xbe458576	-0.19289193
205	0x3fdd409b	1.7285341
206	0x3f7b7d75	0.9823831
207	0x3fd4f8e1	1.6638452
208	0xbfbaba06	-1.458802
209	0xbff6e8e3	-1.9289821
210	0xbeca91d6	-0.3956439
211	0xbe8aec08	-0.27133203
212	0x3e4dd5fd	0.20101161
213	0xc0192163	-2.3926628
214	0x3fe14ca0	1.7601509
215	0x3fde7553	1.7379555
216	0x3f6eff37	0.93358177
217	0x3e882eea	0.26598293
218	0x3fa9232b	1.3213857
219	0x3eb976f3	0.36223564
220	0xbf694d5a	-0.91133654
221	0xbf82e98b	-1.0227522
222	0xbf1a4f3c	-0.6027715
223	0x3f2e539f	0.68096346
224	0x3f051b50	0.519948
225	0x3e42a30e	0.19007513
226	0xbf5cdb25	-0.8627189
227	0xbf4b6acd	-0.7945984
228	0x3f649f56	0.8930563
229	0xbfcb95fd	-1.5905148
230	0xbe2e1174	-0.16998845
231	0xbe1912c5	-0.14948566
232	0xbe99c307	-0.30031607
233	0xbe6bf780	-0.23043633
234	0xbfa52ae5	-1.2903715
235	0xbf88b75f	-1.068096
236	0xbddd0b99	-0.10793228
237	0x403531ac	2.8311567
238	0x3f4dcb98	0.80388784
239	0x3fa994b7	1.3248509
240	0xbf073ee8	-0.5283036
241	0xbf6266ef	-0.88438314
242	0x3f5c861b	0.8614213
243	0x3e734a3c	0.23758787
244	0x3e93982e	0.2882704
245	0xbf896551	-1.0734044
246	0xbfff11fd	-1.9927365
247	0xbf236c7f	-0.63837427
248	0x3f2aec20	0.6676655
249	0x3ffed670	1.9909191
250	0xbf4b8193	-0.7949459
251	0x3fbeda96	1.4910457
252	0x3ef20b54	0.47274268
253	0x3e88a313	0.26686916
254	0x3fb2b94c	1.3962798
255	0xbfa20401	-1.2657472

weight f4 [32]
0	0x3efd4697	0.49467918
1	0x4001a613	2.0257614
2	0x3faa56ac	1.33077
3	0x3f565493	0.837228
4	0x3ff9a38c	1.9503036
5	0x3fa57678	1.2926779
6	0x3f526203	0.82180804
7	0x3ff670fe	1.9253232
8	0x3fb509eb	1.4143652
9	0x3fb9b505	1.4508368
10	0x3f8596b8	1.0436621
11	0x3f44f67b	0.769386
12	0x3fb55886	1.416764
13	0x3fa79c95	1.309466
14	0x3f73ad91	0.95186716
15	0x3f4a9048	0.79126406
16	0x3e1eb8bd	0.1550016
17	0x3ff5a9c2	1.9192431
18	0x3fd7ed7c	1.686935
19	0x3f871f16	1.0556362
20	0x3fad18a9	1.3523151
21	0x3ff0efca	1.8823178
22	0x3fb9fc81	1.4530183
23	0x4017233b	2.3615253
24	0x3ffc7dbe	1.9725873
25	0xbecd6ad1	-0.40120557
26	0x3eab63ea	0.33474666
27	0x40293618	2.6439266
28	0x3f885e65	1.0653807
29	0x3f8aefc6	1.0854423
30	0x3fe51f9a	1.7900269
31	0x4002d2f5	2.0441258

bias f4 [32]
0	0x3d996a2e	0.07490955
1	0x3f11ceab	0.56955975
2	0xbf7a27b5	-0.9771684
3	0x3e77d7fa	0.24203482
4	0xbe8e65bd	-0.27811995
5	0xbf13d568	-0.5774751
6	0xbfad826a	-1.3555424
7	0x3fe192bc	1.7622905
8	0xbeb7c168	-0.35889745
9	0xbf03b62b	-0.5144984
10	0xbf5a0fb7	-0.8518023
11	0xbfbc39dc	-1.4705157
12	0xbe8518b1	-0.259954
13	0x3f258b3b	0.64665574
14	0xbcf5c7c2	-0.030002479
15	0x3ed8c52d	0.42337933
16	0x3e96b866	0.2943756
17	0xbf2fbaf1	-0.68644625
18	0xbf02d65d	-0.5110834
19	0xbe5c8bbe	-0.21537682
20	0xbe527b18	-0.20554769
21	0xbf03d61a	-0.5149857
22	0xbfa352aa	-1.2759602
23	0xbef225d2	-0.4729448
24	0xbf63e7a6	-0.8902534
25	0x3f7892a4	0.97098756
26	0x3f343f96	0.70409524
27	0x3e031125	0.12799509
28	0x3d8d73ab	0.069068275
29	0xbe8fae99	-0.28062895
30	0xbf1e9ff2	-0.6196281
31	0xbf141c70	-0.5785589

running_mean f4 [32]
0	0x40747964	3.819909
1	0xbe22adc0	-0.15886593
2	0xc1092e9a	-8.573877
3	0x3fe874ff	1.8160704
4	0x40a70c50	5.220253
5	0xc045993b	-3.0874774
6	0xbf1b3279	-0.6062389
7	0x40760c2f	3.8444936
8	0x3e350cf7	0.17680727
9	0x4102cc34	8.174854
10	0x3f19063c	0.5977514
11	0x3f5d7053	0.8649952
12	0x40aebe3a	5.460721
13	0x408d9d5b	4.4254584
14	0x40a69f41	5.20694
15	0x3f925c58	1.1434431
16	0xbfb5aa96	-1.4192684
17	0xbebb9f6d	-0.3664507
18	0x40b66397	5.699657
19	0xbfd8fff4	-1.6953111
20	0xc09c2c4c	-4.8804073
21	0xc075ed46	-3.842607
22	0xc019a0a1	-2.400429
23	0x3fec682c	1.8469291
24	0xbf896569	-1.0734073
25	0x3f902c56	1.126353
26	0x406d4aa6	3.7076812
27	0x400b1531	2.1731684
28	0xbe75e25a	-0.24012128
29	0xbe3fb0cb	-0.18719785
30	0xc0608107	-3.5078752
31	0xbe97891e	-0.295968

running_var f4 [32]
0	0x4213da79	36.963352
1	0x4181b491	16.213167
2	0x42b1d3a0	88.91333
3	0x41bf00c1	23.875368
4	0x42bd8df1	94.77723
5	0x4275ece7	61.48135
6	0x41d228e9	26.269976
7	0x42a9f5d2	84.98012
8	0x429d0779	78.514595
9	0x4297469c	75.63791
10	0x41ed0066	29.625195
11	0x41e44280	28.53247
12	0x41a93d4e	21.154934
13	0x42619b1a	56.401466
14	0x42897ddf	68.74584
15	0x41be28a9	23.769854
16	0x4232a495	44.660725
17	0x41663cdf	14.389861
18	0x42086d23	34.10658
19	0x41e746f5	28.909647
20	0x41e63255	28.774576
21	0x4255e919	53.477634
22	0x41fd5d13	31.670446
23	0x41cc133f	25.509398
24	0x42b21dc2	89.05812
25	0x4181e73e	16.237911
26	0x42bc3ad9	94.11494
27	0x41e072ee	28.056118
28	0x42a19bb4	80.80411
29	0x42704602	60.068367
30	0x42c3b4d3	97.85317
31	0x418e0fad	17.757654

weight f4 [32]
0	0x3f58e846	0.8472942
1	0x401f4330	2.4884758
2	0x3feb8b1e	1.840183
3	0x3fba61a8	1.4561052
4	0x3e6ee865	0.23330839
5	0x3e740ab3	0.23832206
6	0xbeee811b	-0.46582875
7	0x3fa2a0d3	1.270533
8	0x3fa7c427	1.3106736
9	0x3fe91223	1.820866
10	0x3fdf2b76	1.7435138
11	0x3f620c13	0.88299674
12	0x3fc31792	1.5241568
13	0x3fc2142a	1.5162404
14	0x3fd06993	1.6282219
15	0x3fa5dc37	1.2957829
16	0x3f8a08a0	1.0783882
17	0x400b324c	2.1749449
18	0x3f486a93	0.7828762
19	0x3e39c937	0.18143164
20	0x3ef98e48	0.48741364
21	0x3ec24953	0.37946567
22	0xbda8e627	-0.08247023
23	0xbe78dc39	-0.24302758
24	0x3f9bcc9e	1.2171819
25	0x40027dbd	2.0389245
26	0x4026deff	2.6073606
27	0x3f7ed604	0.9954531
28	0x40173887	2.3628252
29	0x4027ecf5	2.6238377
30	0x3fcd1791	1.6022817
31	0x3f7ebfc0	0.9951134

bias f4 [32]
0	0x3dff0ba5	0.12453393
1	0x3f67ecec	0.9059589
2	0xbf0d3b0c	-0.55168223
3	0xbf483b9f	-0.78215975
4	0xbe386062	-0.18005517
5	0x3f612fde	0.87963665
6	0xbf6da793	-0.9283382
7	0xbe8c6fdc	-0.27429092
8	0x3eee9282	0.46596152
9	0xbf1654a5	-0.5872291
10	0x3e95efb5	0.29284444
11	0xbeab9487	-0.33511755
12	0xbe2bfa9a	-0.16794816
13	0xbfef337a	-1.8687584
14	0xbebb78b5	-0.3661553
15	0xbe49e64d	-0.19716759
16	0xbe94ae8e	-0.29039425
17	0xbf899e1f	-1.075138
18	0x3fa3db13	1.2801231
19	0x3f15c0ba	0.584972
20	0xbf8ca917	-1.0989102
21	0xbf4ae711	-0.7925883
22	0xbf9be989	-1.2180644
23	0x3f8d359b	1.1031984
24	0x3f593f56	0.8486227
25	0x3f07db8c	0.53069377
26	0x3f1d1ca7	0.61371845
27	0xbee55308	-0.4478991
28	0x3ad0876e	0.0015909502
29	0x3fa484a0	1.2852974
30	0xbdad9bff	-0.084770195
31	0x3f13225f	0.5747432

running_mean f4 [32]
0	0xbf850769	-1.0392886
1	0x3f9150de	1.1352804
2	0x401c2e53	2.4403274
3	0x3f9d9145	1.2309958
4	0x3fde70b8	1.7378149
5	0x40038e78	2.0555706
6	0xc02396a3	-2.5560691
7	0x3d774723	0.060370576
8	0x3f5582f0	0.8340292
9	0x403252f3	2.7863128
10	0x3f887f1e	1.0663793
11	0x3f903b97	1.1268185
12	0xbf601312	-0.875291
13	0xbf94e2de	-1.1631734
14	0x400b5c5f	2.177513
15	0xc02fc261	-2.746239
16	0x3f736e61	0.950903
17	0xbf97775e	-1.1833303
18	0xc07c2b62	-3.9401479
19	0x3fb47ac3	1.4099964
20	0xc04d0f89	-3.2040732
21	0xbffc8bf6	-1.9730213
22	0xbdf3ca80	-0.11903858
23	0xbfca4014	-1.5800805
24	0x3fe9e27a	1.827224
25	0xc01928f9	-2.3931258
26	0x3feb5738	1.8385992
27	0x406014c0	3.5012665
28	0xbf998230	-1.1992855
29	0xbfc6582d	-1.5495659
30	0x3dd65ca3	0.10466888
31	0x3f3fd859	0.74939495

running_var f4 [32]
0	0x4082402a	4.0703325
1	0x41af550e	21.91653
2	0x42013a67	32.307034
3	0x4216059a	37.50547
4	0x423eb185	47.67336
5	0x42417fdf	48.374874
6	0x40d23383	6.568788
7	0x418ea8c2	17.832401
8	0x42391a62	46.275764
9	0x41ef9ffd	29.95312
10	0x4127254b	10.446605
11	0x41ea64d1	29.299227
12	0x412e2028	10.882851
13	0x41ed9ea5	29.702463
14	0x4198339b	19.025198
15	0x41885108	17.039566
16	0x412834da	10.512903
17	0x414a8b66	12.659033
18	0x41e6760e	28.807644
19	0x4227c0af	41.938168
20	0x414e3634	12.888233
21	0x41b25744	22.29261
22	0x40f5bd9a	7.6793947
23	0x42080af4	34.010696
24	0x41a2c706	20.34718
25	0x420e590e	35.586967
26	0x4270aab4	60.166702
27	0x4222bb5f	40.68298
28	0x4182a730	16.331635
29	0x415c89f6	13.783682
30	0x41a49b1a	20.575733
31	0x41830c9d	16.381159

weight f4 [32, 16]
0	0xbf3dee38	-0.7419162
1	0x3f03c499	0.5147186
2	0xbf7b23dd	-0.981016
3	0x3e6bdd1e	0.23033568
4	0xbfe44408	-1.7833261
5	0xbe379836	-0.17929158
6	0x3ed034a7	0.4066517
7	0xc0183bd1	-2.378651
8	0x3f78fc47	0.97259945
9	0x3ddbc4af	0.10730874
10	0xbf57a5f2	-0.8423759
11	0x3fa11b4a	1.2586453
12	0xbfdd3538	-1.7281866
13	0xbebab28f	-0.36464354
14	0x3eb79012	0.35852104
15	0xbd7d9a11	-0.061914507
16	0x3e3cf8ee	0.18454334
17	0xbf2296e1	-0.6351147
18	0xc00343a1	-2.0510027
19	0xbf0b2c4f	-0.54364485
20	0x3df501cf	0.119632356
21	0x3f1d89b6	0.61538255
22	0xbf8c3de3	-1.0956386
23	0xbec9e6e4	-0.39433968
24	0x3eb5cb6b	0.35506758
25	0xbfbb1be8	-1.4617891
26	0xbfb80ba4	-1.4378552
27	0x3fc41fcd	1.5322205
28	0xbe98950b	-0.2980121
29	0x3f078e1b	0.5295121
30	0xbeea19a8	-0.457227
31	0xc01aee66	-2.4208007
32	0xbf740109	-0.9531408
33	0x4016d129	2.3565161
34	0xbf9f45ed	-1.2443215
35	0xbf5a4b3e	-0.8527106
36	0x3f90fba5	1.1326796
37	0x3f810cdc	1.0082049
38	0xbeb58879	-0.35455683
39	0xc01fe17f	-2.4981382
40	0xbf3c7e5f	-0.73630327
41	0xbfa775c4	-1.3082814
42	0xbdbebb31	-0.09313048
43	0xbeb8c78a	-0.36089736
44	0x3e0de4eb	0.13856857
45	0xbf2872f2	-0.6580039
46	0xbef21313	-0.47280177
47	0xbee99682	-0.4562264
48	0xbf857932	-1.0427611
49	0xbff650dd	-1.9243428
50	0x3f21657b	0.6304547
51	0x3f478af4	0.779464
52	0x3fa5cb36	1.295264
53	0xbfd43c98	-1.6580992
54	0xbf2f3fa3	-0.68456477
55	0xbe05baa5	-0.1305948
56	0xbf354ea1	-0.70823103
57	0x3e8cf032	0.27527004
58	0xbf55ac17	-0.83465713
59	0x3f589e11	0.8461619
60	0x3f883e12	1.0643942
61	0x3f79fe06	0.97653234
62	0x3f4bf686	0.7967304
63	0xbf4e045a	-0.8047539
64	0xbf964717	-1.1740445
65	0x3f7b3509	0.981278
66	0x3fa2f12a	1.2729847
67	0x3f10d237	0.5657076
68	0x3f8856ae	1.0651453
69	0x3e1cb50f	0.15303443
70	0xbe4c48d6	-0.1994966
71	0xbfcdd2b0	-1.6079922
72	0x3ec680dd	0.3877019
73	0x3fcc5398	1.5963011
74	0x3dee0740	0.116224766
75	0xbf70adfe	-0.9401549
76	0xbfde19fa	-1.7351677
77	0xbf43d8bd	-0.7650259
78	0x3eed1af0	0.46309614
79	0x3fd75f9b	1.6826051
80	0x3f39014b	0.722676
81	0x3ff64f9e	1.9243047
82	0xbebccea3	-0.368764
83	0x3f6494cd	0.8928955
84	0x3f813ec8	1.0097284
85	0xbe26e4ee	-0.16298267
86	0xbe854ec8	-0.26036668
87	0xbea67980	-0.32514572
88	0x3f662d75	0.8991311
89	0xbf50a245	-0.81497604
90	0x3fe6f977	1.8044881
91	0x3ed68679	0.4189947
92	0x3e8f39da	0.27973825
93	0xbf7100e9	-0.94142014
94	0x3f91a119	1.1377288
95	0x3decd1f8	0.11563486
96	0x3ff79a28	1.934392
97	0xbf974799	-1.1818725
98	0xbb79c08c	-0.0038109152
99	0x3f94df20	1.1630592
100	0xbfa6df7a	-1.303695
101	0x3ebea6ca	0.37236625
102	0xbeaadf5e	-0.3337354
103	0xbea82a0d	-0.32844582
104	0x40266d4d	2.6004212
105	0x3f19a7fb	0.6002194
106	0x3f2262ec	0.6343219
107	0x3c3e5233	0.0116162775
108	0xbedc449f	-0.43021104
109	0x3e3c1aeb	0.18369643
110	0xbf92ee10	-1.1478901
111	0xbe7ffbf4	-0.24998456
112	0xbd719055	-0.058975536
113	0xbfcbeaaf	-1.5930995
114	0x3f8f10be	1.1176984
115	0x3e21e67d	0.1581058
116	0xbe970e35	-0.29503027
117	0x3e6c7cbd	0.23094459
118	0xbd99e099	-0.07513542
119	0x3e2d1ae8	0.16904795
120	0xbfa585b2	-1.2931426
121	0x3f85e4da	1.0460465
122	0x3db59917	0.0886709
123	0xbd698fe0	-0.057021976
124	0xbf6fe678	-0.9371104
125	0x3f88b402	1.0679934
126	0x3eca205c	0.39477813
127	0xbf325bf3	-0.69671553
128	0xbf6913dd	-0.91045934
129	0xbf0741f1	-0.52834994
130	0xbfb6f1be	-1.4292524
131	0x3f9ef8a4	1.2419629
132	0x3dca90bc	0.09890887
133	0x3cca5509	0.024698751
134	0xbf1127a8	-0.56701136
135	0xbfa380f1	-1.2773725
136	0xbf8a8dae	-1.0824487
137	0xbf8dcf84	-1.1078954
138	0x3f41f48a	0.7576376
139	0x400c3b43	2.191117
140	0x40060b17	2.0944269
141	0xbfc11ddf	-1.5087241
142	0xbeb1c1a3	-0.34718046
143	0xbea3a743	-0.31963548
144	0x3e82f3d0	0.2557664
145	0xbfa02ff7	-1.2514638
146	0x3fc98b29	1.5745593
147	0xbf707632	-0.9393035
148	0x3e5f9a00	0.2183609
149	0xbf5dbd2b	-0.8661677
150	0x3dc2f03a	0.09518476
151	0x3fadca45	1.3577353
152	0xbf47c4cc	-0.78034663
153	0x3c251c10	0.010077491
154	0x3da23056	0.079193756
155	0xbf13cc5a	-0.5773369
156	0x3dfa1656	0.122112915
157	0x3fc8aa22	1.567692
158	0xbf98cdb6	-1.1937778
159	0x3e52982a	0.20565858
160	0x3fd3cd3f	1.6547011
161	0x3f4e1f3e	0.8051642
162	0x3fb9be11	1.4511129
163	0xbf60218d	-0.87551194
164	0x3f37f18b	0.7185294
165	0xbf1f836f	-0.62309927
166	0x3f80cd2e	1.0062616
167	0x3e763ae6	0.24045905
168	0xbf53d37e	-0.82744586
169	0x3fd8d624	1.694035
170	0xbf3e29fa	-0.742828
171	0x3d9e7ca6	0.077386186
172	0x3eb63910	0.3559041
173	0x3fd8ef23	1.6947979
174	0x3f6f1d4c	0.9340408
175	0x3dfdcf53	0.123930596
176	0x3f106a0f	0.5641183
177	0xc00fa914	-2.2446947
178	0x3f8b5dad	1.0887963
179	0xbf99ecfa	-1.2025445
180	0x3e390eb0	0.18072009
181	0xbe1e0fbb	-0.15435688
182	0x3df23230	0.11825979
183	0xbc13c959	-0.009020173
184	0x3f355e31	0.7084685
185	0x3f0d9ee3	0.55320567
186	0x3e8c1d3a	0.27366048
187	0x3e5075f3	0.20357494
188	0xbf89bc2c	-1.076055
189	0x3f755aaf	0.958415
190	0x3f80af45	1.0053488
191	0x3eff3ba5	0.49850193
192	0xbcbc1c6f	-0.022962777
193	0x3f382852	0.71936524
194	0xbca5c7b8	-0.020236835
195	0x3fdd9ac9	1.7312862
196	0xbe4b4525	-0.19850595
197	0x3f8309ed	1.0237404
198	0x3e361933	0.1778305
199	0xbf5b262c	-0.8560512
200	0x3fe4df76	1.7880695
201	0x402a5d5a	2.6619477
202	0xbf80cb86	-1.006211
203	0xbe5cdf03	-0.21569447
204	0x3fb5109a	1.4145691
205	0xbf9f06b6	-1.2423923
206	0x3f1ff87d	0.6248854
207	0xbf942778	-1.1574545
208	0xbf3f2604	-0.7466738
209	0x3d90b70c	0.070661634
210	0x3f3f3e70	0.7470465
211	0xbeb141fd	-0.34620658
212	0xbf343fb0	-0.7040968
213	0x3f2a1e26	0.6645225
214	0xbeeb2a6b	-0.459308
215	0xbedee5c4	-0.43534672
216	0x3f826b48	1.018899
217	0xbfd4d57f	-1.6627654
218	0x3f9a1bb2	1.2039702
219	0x3ebc996f	0.3683581
220	0xbe8d4f9c	-0.275998
221	0xbf3ecb92	-0.74529374
222	0xbf78dc37	-0.9721102
223	0x3f8c22da	1.0948136
224	0x3e8cb06f	0.27478358
225	0xbfa17b5f	-1.2615775
226	0x3f2ed7be	0.68297946
227	0x3f1bea8c	0.60904765
228	0x3ff84971	1.9397413
229	0x3def1b07	0.11675077
230	0x3ebc4ba1	0.3677645
231	0x3f90e14a	1.1318753
232	0xbf066d8e	-0.5251092
233	0x3f9174e4	1.1363797
234	0xbf04d992	-0.51894486
235	0xbd4ead85	-0.05045845
236	0x4002deb6	2.0448432
237	0x3f2f7af3	0.6854698
238	0x3fe703ef	1.8048075
239	0x3f27b917	0.655168
240	0xbeb49219	-0.35267714
241	0xbf849ffa	-1.0361321
242	0x3fa2b85f	1.2712516
243	0x3fb1a056	1.3877056
244	0x3f895fee	1.07324
245	0xbf92df14	-1.1474328
246	0xbed177bc	-0.40911663
247	0x3e13fa02	0.14450839
248	0xbf6b2659	-0.9185539
249	0x3fb90905	1.4455878
250	0xbf9e748e	-1.237932
251	0x3e61fa53	0.22068147
252	0x3f1bed39	0.6090885
253	0x3f5c9945	0.8617137
254	0x3f5e9518	0.8694625
255	0x3f6e94b8	0.93195677

weight f4 [32]
0	0xbe0e79c5	-0.13913639
1	0x3f84cedf	1.0375632
2	0x3f72ccb8	0.94843626
3	0x3f5cb2eb	0.8621051
4	0x3f8dc8be	1.1076887
5	0x3fddfdbb	1.7343057
6	0x3f938208	1.1524057
7	0x3ef6a560	0.48173046
8	0x3f892d5e	1.071697
9	0x3eaf5e73	0.34251747
10	0x3fd06fa5	1.6284071
11	0x3f89cee2	1.0766261
12	0x3fc6b84a	1.552499
13	0xbf2b7025	-0.66967994
14	0x3effd146	0.4996435
15	0x3fe6ff52	1.8046668
16	0x3f7ae893	0.9801113
17	0x3f68be51	0.909154
18	0x3f9ccc12	1.2249777
19	0x402d3541	2.7063754
20	0x402f95f5	2.7435277
21	0x3fd5ad0f	1.6693438
22	0x3fb15c82	1.3856356
23	0x3f6aa5c5	0.91659194
24	0x4004ac50	2.0730171
25	0x4071218f	3.7676733
26	0x4013eb81	2.311249
27	0x3f5a1aba	0.8519703
28	0x4016a632	2.3538938
29	0x3f4a167f	0.78940576
30	0x3fd041f4	1.6270127
31	0x3feae619	1.835147

bias f4 [32]
0	0xbe235fe9	-0.15954556
1	0xbebd0717	-0.36919472
2	0x3d5b978c	0.053611323
3	0xbfd02b9e	-1.6263311
4	0x3f396d18	0.7243209
5	0x3e47e6e9	0.19521679
6	0xbed88a39	-0.42292956
7	0xbc3c6562	-0.011498781
8	0x3cf08d55	0.029364267
9	0x3fb88bef	1.4417704
10	0xbf112467	-0.5669617
11	0x3e099e87	0.1343938
12	0xbdba9a0b	-0.091114126
13	0x3f4f975f	0.8109035
14	0xbf878a58	-1.0589094
15	0xbf207f87	-0.6269459
16	0xbf1941f6	-0.59866273
17	0xbec63801	-0.38714603
18	0x3f759af5	0.9593957
19	0xbf6a8e61	-0.916235
20	0x3e575c5d	0.21031328
21	0xbf7a06e4	-0.97666764
22	0x3e24e183	0.16101651
23	0xbf39a924	-0.72523713
24	0xbec152e3	-0.3775855
25	0xbf1f3c16	-0.6220106
26	0xbf8a78ff	-1.0818175
27	0x3e126104	0.14294821
28	0xbf7864df	-0.9702892
29	0xbf2a544f	-0.66534895
30	0xbd370f08	-0.04469207
31	0xbe45be07	-0.19310771

running_mean f4 [32]
0	0x3c8d335e	0.017236408
1	0x40495cde	3.1462932
2	0x3fb385ab	1.4025167
3	0xc0355902	-2.8335576
4	0xc00f4625	-2.2386563
5	0xbfd173fd	-1.6363522
6	0x3f66dbe3	0.9017927
7	0xbfc37454	-1.5269876
8	0xbf418416	-0.7559217
9	0xbe3c43b4	-0.18385202
10	0xc0874bab	-4.227987
11	0xbfd94d1f	-1.697666
12	0xc0001d66	-2.0017943
13	0x3fadd590	1.3580799
14	0xc0715bb9	-3.7712233
15	0xc05e50e4	-3.4736872
16	0x400f4455	2.2385457
17	0x3fe8d239	1.8189155
18	0xbebc6b3f	-0.36800572
19	0xbf1d9f03	-0.6157076
20	0xbe9d10c7	-0.30676863
21	0xbcb4c55c	-0.022066765
22	0x4037ffb9	2.874983
23	0xbf9a592b	-1.2058462
24	0x407d3785	3.9565136
25	0x3f138b13	0.57634085
26	0x3fb3ecac	1.4056602
27	0x3e1d4bef	0.15360998
28	0x3f8b0061	1.0859491
29	0x3eb5bc54	0.35495245
30	0x3f803939	1.0017463
31	0x40a45e7e	5.1365347

running_var f4 [32]
0	0x4223077c	40.75731
1	0x42244570	41.06781
2	0x42aa5038	85.15668
3	0x4231ae74	44.420364
4	0x41a0d3c2	20.103397
5	0x4196cbaf	18.849455
6	0x414c8233	12.781787
7	0x4203b57c	32.92723
8	0x41dd3fbf	27.656126
9	0x41f9facf	31.247465
10	0x42170682	37.756355
11	0x41e7663d	28.924921
12	0x41eeb723	29.839422
13	0x41f026be	30.018917
14	0x42cfdd5d	103.93235
15	0x42a65e28	83.1839
16	0x41820902	16.254398
17	0x422da799	43.41367
18	0x426edcca	59.715614
19	0x417949d2	15.580523
20	0x41fb3814	31.402382
21	0x41b3b6f5	22.464334
22	0x423a8ce0	46.637573
23	0x421ee84f	39.726864
24	0x41a99ec7	21.202528
25	0x4268b488	58.1763
26	0x423bcebc	46.95189
27	0x417646aa	15.392252
28	0x41a99f3c	21.202751
29	0x4202db44	32.714127
30	0x41b1e8f8	22.238754
31	0x42816ad4	64.70865

weight f4 [32, 16]
0	0x3d3e6d51	0.04649097
1	0x3e4a7732	0.19772032
2	0xbf4370d6	-0.7634405
3	0x3e5a2bbb	0.21305744
4	0x3f36d901	0.7142487
5	0xbdac5a52	-0.08415665
6	0xbd97d281	-0.07413197
7	0x3f25ed5d	0.6481531
8	0xbebd4999	-0.36970213
9	0x3eafafad	0.34313717
10	0xbf5d0a5b	-0.86343926
11	0x3fb911ea	1.4458592
12	0xbef28075	-0.4736363
13	0x3db9e668	0.0907715
14	0x3d69182d	0.05690782
15	0x3e86eca1	0.2635241
16	0xbd06776e	-0.03282874
17	0xbf049fcd	-0.51806337
18	0xbe8f4a90	-0.27986574
19	0x3c11e6db	0.008905138
20	0xbdf6efaa	-0.12057431
21	0xbeffe202	-0.49977118
22	0xbf1c2525	-0.6099418
23	0xbf551c06	-0.83245885
24	0x3e6a988e	0.22909757
25	0xbf34104c	-0.7033737
26	0xbf63b590	-0.8894892
27	0xbf9b337e	-1.2125089
28	0x3e65ab9e	0.22428748
29	0xbf4c2955	-0.7975057
30	0x3edcec93	0.43149242
31	0xbf709ff9	-0.939941
32	0xbeecb2de	-0.46230215
33	0xbe385bfe	-0.18003842
34	0x3de245ec	0.11048493
35	0x3ec55251	0.38539365
36	0xbe6ebe56	-0.23314795
37	0x3ecd07a1	0.40044883
38	0xbf26cdcf	-0.6515779
39	0xbef87417	-0.4852607
40	0xbc47f135	-0.012203504
41	0x3e8d1938	0.27558303
42	0xbe93b164	-0.28846276
43	0x3e7438e9	0.23849835
44	0x3f08df84	0.5346606
45	0x3f55422b	0.8330409
46	0xbe88369b	-0.2660416
47	0xbdac04fd	-0.08399389
48	0xbe987373	-0.2977558
49	0xbf9aa7b3	-1.2082428
50	0x3e75e7f8	0.2401427
51	0xbf3ef254	-0.74588513
52	0x3e1c7d9b	0.1528229
53	0x3faa1682	1.3288119
54	0x3e26dddf	0.16295575
55	0xbf3183cc	-0.6934173
56	0x3f3d9af9	0.74064595
57	0xc001602c	-2.0214949
58	0xbf0f1137	-0.5588564
59	0x3d4d243c	0.050083384
60	0xbf7bf58a	-0.9842154
61	0xbf5a41aa	-0.85256445
62	0x3fb8d700	1.4440613
63	0x3f13dde7	0.5776047
64	0xbe4fb2b5	-0.20283015
65	0x3f79accd	0.975293
66	0x3f98412a	1.1894886
67	0x3f37c214	0.71780515
68	0xbf6c5f23	-0.9233267
69	0x3e072470	0.13197494
70	0xbf401842	-0.75037014
71	0x3fb438ea	1.4079869
72	0xbdccab50	-0.09993613
73	0x3d563cc1	0.052304033
74	0x3f399210	0.724885
75	0x3caaa4b6	0.020830493
76	0xbdf63b11	-0.12022985
77	0xbf83d3f9	-1.0299064
78	0x3ea906fd	0.33013144
79	0xbeec743c	-0.4618243
80	0x3e955c51	0.29171994
81	0x3eb3ce42	0.351183
82	0x3fda2bd0	1.704462
83	0xbf22549c	-0.63410354
84	0xbe9a1127	-0.3009121
85	0x3ceec949	0.029148715
86	0xbec4d9ff	-0.38447568
87	0x3f3347a9	0.7003122
88	0xbf2a50a1	-0.6652928
89	0x3f64c3a8	0.8936105
90	0x3ea856e2	0.32878786
91	0xbf7f8c15	-0.99823123
92	0x3f417a69	0.7557741
93	0x3fffd880	1.9987946
94	0xbe8dfd43	-0.27732286
95	0x3f5156c4	0.8177302
96	0xbf7f0435	-0.99615794
97	0x3f2c4024	0.6728537
98	0xbf2099e5	-0.62734824
99	0x3c054c09	0.008135804
100	0x3f19f9fa	0.6014706
101	0x3f292940	0.6607857
102	0x3e8ca4ea	0.2746957
103	0x3ff7cbe4	1.9359097
104	0x3fb4e77c	1.4133143
105	0xbec937d1	-0.39300397
106	0x3e170c2a	0.14750734
107	0xbfca6ba0	-1.5814095
108	0xbf4f9dbe	-0.8110007
109	0x3f2f1b8e	0.6840142
110	0x3ef3e461	0.47635177
111	0x3d8ae286	0.06781487
112	0x3f14fdc6	0.5819973
113	0x3fbb8572	1.4650099
114	0x3e8d7b30	0.27633047
115	0x3f0a26fd	0.5396574
116	0xbe952712	-0.2913137
117	0xbf7b1d9a	-0.98092043
118	0xbec67a95	-0.38765398
119	0xbe7d5c0f	-0.24742149
120	0x3fa383e7	1.2774628
121	0xbf375718	-0.7161727
122	0x3f0d72a8	0.55253077
123	0x3d6ae858	0.057350487
124	0x3f63bffa	0.8896481
125	0xbf35bbd2	-0.70989716
126	0xbf68b677	-0.9090342
127	0xbf2a511e	-0.66530025
128	0xbf424756	-0.758901
129	0xbe802aa7	-0.2503254
130	0xbe20954d	-0.15681954
131	0x3f34a921	0.7057057
132	0xbeac6162	-0.33668047
133	0xbfa564ca	-1.2921383
134	0x3e4426d9	0.19155444
135	0x3e7fcc4b	0.24980275
136	0x3d25d1ce	0.04048329
137	0x3fa0b563	1.2555355
138	0x3f35bdf9	0.70993
139	0x4006f8fa	2.1089463
140	0x3f32259d	0.69588643
141	0xbf775790	-0.96617985
142	0xbe049dbc	-0.12950796
143	0x3e1cc80e	0.1531069
144	0x3ef8a8f1	0.48566392
145	0xbfaf1c77	-1.3680562
146	0xbd3531ee	-0.04423707
147	0x3f2a5471	0.665351
148	0x3f758992	0.9591304
149	0xbf3c2b54	-0.73503613
150	0x3faa8fb2	1.3325102
151	0x4012b3be	2.2922206
152	0x3e45bc85	0.19310196
153	0x3fb8d062	1.4438593
154	0x3e47dfbe	0.19518945
155	0xbe1e6d91	-0.15471484
156	0xbf6e884d	-0.9317673
157	0x3f6193e8	0.8811631
158	0xbe912a19	-0.2835243
159	0x3f4d2a1d	0.80142385
160	0x3e008c38	0.12553489
161	0xbf2db24c	-0.67850184
162	0x3ede47ee	0.43414253
163	0xbfca0eea	-1.5785801
164	0x3f4c410c	0.79786754
165	0xbf276cec	-0.65400577
166	0x3e6536b7	0.22384153
167	0x3e4b00c6	0.19824514
168	0xbf5a60c8	-0.85303926
169	0x3ddef195	0.10885922
170	0x3fafd7ef	1.3737773
171	0xbe378480	-0.17921638
172	0xc0150e64	-2.3290033
173	0x3e05a139	0.13049783
174	0x3dedfef2	0.116208926
175	0x3f4eb447	0.8074383
176	0x3f84d11c	1.0376315
177	0x3f878de5	1.0590178
178	0x3c1ce8c9	0.009576985
179	0xbf3dd9b3	-0.7416031
180	0xbdd50232	-0.10400809
181	0x3e20d258	0.1570524
182	0x3f2562f4	0.64604115
183	0xbfd4e9b4	-1.663382
184	0x3f31989e	0.693735
185	0x3f2f33ed	0.6843861
186	0xbf89df4e	-1.0771272
187	0xbfc65b0e	-1.5496538
188	0x3f6ec524	0.9326956
189	0xbffcfb4a	-1.9764187
190	0xbf7f7743	-0.99791354
191	0xbf813b8a	-1.0096295
192	0xbf3db299	-0.74100643
193	0x3d1e8ac6	0.038706563
194	0xbf36fdb9	-0.714809
195	0x3f8076e0	1.0036278
196	0xbf0575b3	-0.5213272
197	0x3dbd16cb	0.09232863
198	0xbdab5c63	-0.08367231
199	0x400c4875	2.1919224
200	0xbfbb526d	-1.4634529
201	0x3ffa976a	1.9577458
202	0x3f928c3d	1.1449047
203	0x3ee98a63	0.45613393
204	0x3f547da6	0.83004224
205	0x3e5a911a	0.21344414
206	0x3f537aa8	0.82609034
207	0x3f517dc0	0.81832504
208	0x3f8f9e49	1.122018
209	0x3e62376d	0.22091456
210	0xbf05e768	-0.5230622
211	0x3f3273ca	0.6970793
212	0xbf7f6757	-0.9976706
213	0xbfe2c13c	-1.771522
214	0x3e4c3d6a	0.19945303
215	0x3f3502af	0.7070722
216	0x3eed9c23	0.46408185
217	0xbf987f32	-1.1913817
218	0xbfb80ec9	-1.4379512
219	0xbf588079	-0.84571034
220	0xbf4350e5	-0.7629531
221	0xbfee2efd	-1.860809
222	0xbf82128d	-1.0161911
223	0xbf65005b	-0.8945367
224	0xbef31915	-0.47480074
225	0x3fd6634c	1.6749053
226	0x3f502fcd	0.8132294
227	0x3ef39676	0.4757573
228	0xbd00302f	-0.03129595
229	0xbe8b5f53	-0.27221164
230	0xbf4ddd6b	-0.8041598
231	0xbe7bcf33	-0.24590759
232	0x3ebe6cd3	0.371924
233	0x3c97975a	0.018504787
234	0x3ead057a	0.3379324
235	0xbf8d56c6	-1.1042106
236	0xbfc38283	-1.5274204
237	0xbf8e64dc	-1.112453
238	0xbf8a0ba7	-1.0784806
239	0xbed82324	-0.4221431
240	0x3fb42376	1.4073322
241	0x3f98524d	1.1900116
242	0x3f1994ff	0.59992975
243	0x3ebf8057	0.37402603
244	0x3f289325	0.65849525
245	0x3fcc089b	1.5940126
246	0xbf45998f	-0.77187437
247	0xbf10bba2	-0.56536305
248	0x3f393fe5	0.7236312
249	0xbeb1f2fe	-0.347557
250	0xbf60c749	-0.87804085
251	0xbe1d5023	-0.15362601
252	0x3fdb1d5b	1.7118334
253	0xc023d417	-2.55982
254	0x3f3fe953	0.749654
255	0x3eb24b27	0.34822962

weight f4 [32]
0	0x3f800000	1.0
1	0x3f800000	1.0
2	0x3f800000	1.0
3	0x3f800000	1.0
4	0x3f800000	1.0
5	0x3f800000	1.0
6	0x3f800000	1.0
7	0x3f800000	1.0
8	0x3f5d2d54	0.8639729
9	0x40154411	2.3322794
10	0x3f2d645f	0.6773128
11	0x3fbee782	1.49144
12	0x3f8aa2bf	1.0830916
13	0x3fd46ba0	1.6595345
14	0x3f304c91	0.6886683
15	0x3f7d8e84	0.99045587
16	0x3f800000	1.0
17	0x3f800000	1.0
18	0x3f800000	1.0
19	0x3f800000	1.0
20	0x3f800000	1.0
21	0x3f800000	1.0
22	0x3f800000	1.0
23	0x3f800000	1.0
24	0xbeb79d29	-0.3586209
25	0x401319a7	2.2984407
26	0x3e2df063	0.16986232
27	0x3fd505fa	1.6642449
28	0x3f7ce3c8	0.98785067
29	0x3f904232	1.1270201
30	0x3fcfcfda	1.6235306
31	0x40108616	2.258184

bias f4 [32]
0	0x00000000	0.0
1	0x00000000	0.0
2	0x00000000	0.0
3	0x00000000	0.0
4	0x00000000	0.0
5	0x00000000	0.0
6	0x00000000	0.0
7	0x00000000	0.0
8	0xbe05be0b	-0.13060777
9	0x3d7ac359	0.061221454
10	0xbebbc610	-0.36674547
11	0xbe98c560	-0.29838085
12	0x3f48da92	0.7845851
13	0x3e9c71c8	0.30555558
14	0xbf8dab2f	-1.1067866
15	0x3f691b8e	0.9105767
16	0x00000000	0.0
17	0x00000000	0.0
18	0x00000000	0.0
19	0x00000000	0.0
20	0x00000000	0.0
21	0x00000000	0.0
22	0x00000000	0.0
23	0x00000000	0.0
24	0x3ed6c640	0.41948128
25	0xbe5fdb39	-0.2186097
26	0x3ea9b95f	0.3314924
27	0xbf4a22fc	-0.7895963
28	0x3e8c7057	0.27429458
29	0x3eb940c4	0.36182225
30	0xbe0248e2	-0.12723115
31	0xbf356daa	-0.7087046

running_mean f4 [32]
0	0x3e545234	0.20734483
1	0x3ffd6141	1.9795305
2	0xbde6bd8f	-0.11266624
3	0x3e17d267	0.14826356
4	0xbf57e6b4	-0.843364
5	0xbf5a4bf6	-0.8527216
6	0x3f985885	1.1902014
7	0x3eb16ba5	0.3465244
8	0xc0120f69	-2.2821906
9	0xbedb3a7f	-0.42818066
10	0xbd0f8aba	-0.03504441
11	0x403168ec	2.772029
12	0xc0526223	-3.2872398
13	0x40767d1a	3.8513856
14	0x3fdb6a46	1.7141807
15	0xbf2fc18d	-0.6865471
16	0xbf56b0d6	-0.8386358
17	0xc00edbd1	-2.2321665
18	0xbfbcfcb6	-1.4764621
19	0xbe924160	-0.28565502
20	0x3e0405ce	0.1289284
21	0xbf31e9be	-0.6949729
22	0xbefdafd1	-0.495482
23	0xbe86cbce	-0.26327366
24	0xc03429b4	-2.8150454
25	0x404b4a62	3.176415
26	0x405893ce	3.3840213
27	0xbf0dfb88	-0.5546193
28	0xc05e40e5	-3.4727108
29	0x4008faf8	2.140318
30	0xbe3617f4	-0.17782575
31	0xc07ffb77	-3.9997232

running_var f4 [32]
0	0x4082128d	4.0647645
1	0x40de5007	6.947269
2	0x3f22aac8	0.6354184
3	0x40cb21d6	6.3478804
4	0x3f4c059c	0.7969606
5	0x41387b9c	11.530178
6	0x4002ac85	2.0417798
7	0x418e80b8	17.81285
8	0x413748d7	11.455283
9	0x425da91e	55.415154
10	0x41aceba2	21.615055
11	0x4296da86	75.4268
12	0x4285135e	66.53783
13	0x41d93e11	27.155306
14	0x419d6d60	19.678406
15	0x4210a7a2	36.163704
16	0x411f8f47	9.97248
17	0x41340acc	11.252636
18	0x40a82d27	5.2555118
19	0x4041890e	3.0239902
20	0x4125565a	10.333582
21	0x41094a57	8.580649
22	0x414b8f38	12.7224655
23	0x40d1793b	6.5460486
24	0x424d9d16	51.403404
25	0x41833f8f	16.406034
26	0x425028f4	52.039993
27	0x41d75d51	26.920565
28	0x421db96f	39.431087
29	0x42e8cac8	116.39606
30	0x42121596	36.52108
31	0x422a60f8	42.594696

weight f4 [32]
0	0x3fac7c3f	1.3475417
1	0x400b1d42	2.1736608
2	0x3fe80aa9	1.8128253
3	0x3f9686d3	1.1759895
4	0x3fa75b2b	1.3074697
5	0x3e517665	0.2045532
6	0x3f133f8e	0.5751885
7	0x3f8bc87e	1.092056
8	0x3f8bf534	1.0934205
9	0x3fbe853a	1.4884408
10	0x3f3e6e47	0.7438702
11	0x3f9b0178	1.2109823
12	0x3f8ad5a8	1.0846453
13	0x3f80bc57	1.0057477
14	0x3fa35b3e	1.276222
15	0x3f385300	0.7200165
16	0x3ff7d03a	1.9360421
17	0x40682751	3.6273997
18	0xbe9e3c02	-0.30905157
19	0x3f92c01e	1.146488
20	0x3f44add3	0.76827735
21	0x3ce7275e	0.028217014
22	0x3f062ae4	0.52409196
23	0x3fbff395	1.499621
24	0x3de4b6d8	0.11167687
25	0x401b080b	2.422366
26	0x3f17eefc	0.59349036
27	0x3f352267	0.7075562
28	0x3f8f4bfd	1.1195065
29	0x3f7cb289	0.98709923
30	0x3fc4f595	1.5387446
31	0x3f410529	0.753985

bias f4 [32]
0	0xbfac76b2	-1.3473723
1	0xbf5254d2	-0.82160676
2	0xbf5dc739	-0.86632115
3	0x3f699222	0.91238606
4	0x3d9a913a	0.07547231
5	0x3f68b6b7	0.909038
6	0x3d17f2f5	0.037096936
7	0x3ef3c701	0.47612765
8	0x3e5e2521	0.21693851
9	0x400e3a6b	2.2223155
10	0xbf880d1f	-1.0629004
11	0x3f178191	0.5918208
12	0x3f583738	0.8445926
13	0x3ebe5096	0.37170857
14	0xbf86ee1a	-1.0541413
15	0xbeaf41f0	-0.34229994
16	0x3f825e62	1.0185053
17	0xbe8925ba	-0.26786596
18	0x3f825a34	1.0183778
19	0x3f150e85	0.5822528
20	0x3f0fff68	0.56249094
21	0xbe8eef7d	-0.2791709
22	0x3eb76339	0.35817888
23	0x3de9af02	0.11410333
24	0x3f1111ed	0.5666798
25	0x3e8349d8	0.25642276
26	0x3ede3f44	0.43407643
27	0x3f446618	0.7671828
28	0x3ed0302e	0.40661758
29	0x3d478052	0.04870636
30	0x3f89eac0	1.0774765
31	0xbee68a6e	-0.45027488

running_mean f4 [32]
0	0x3eead32f	0.45864245
1	0xbe431e84	-0.1905461
2	0xbfa0836f	-1.254011
3	0x3f384ea4	0.71994996
4	0x3f58cc5c	0.8468683
5	0xbf60e3d4	-0.8784764
6	0xbf598b69	-0.8497835
7	0x3f9ce165	1.2256285
8	0x3ef1315c	0.4710797
9	0x3fac6ea8	1.347127
10	0xbe093aa9	-0.13401283
11	0x3e85b7c6	0.2611677
12	0x3f26c124	0.6513846
13	0x3f71613e	0.94289005
14	0x3f31e974	0.69496846
15	0xbdb88849	-0.09010369
16	0xbe582859	-0.21109141
17	0xbe9013d5	-0.2814013
18	0x3f0adb64	0.54241014
19	0xbed7d8d1	-0.42157605
20	0xbe33ce1b	-0.17559092
21	0xbf227616	-0.63461435
22	0xbd8de6f8	-0.069288194
23	0x3f3877f1	0.72058016
24	0xbe4bba1c	-0.19895214
25	0x3f6033b5	0.875789
26	0x3f51f8e5	0.8202041
27	0x3f313a8e	0.6922997
28	0x3f1e0115	0.617204
29	0x3ea191cd	0.3155655
30	0xbf489611	-0.78353983
31	0xbe1d8c5d	-0.15385576

running_var f4 [32]
0	0x4002a19f	2.0411146
1	0x4026eb76	2.6081214
2	0x401fbff3	2.4960907
3	0x3fa95668	1.3229494
4	0x405666cf	3.350025
5	0x404c84ee	3.1956134
6	0x3f9169cc	1.1360412
7	0x409ee69f	4.965652
8	0x3fe90755	1.8205363
9	0x3fad5b2c	1.3543448
10	0x3f9b1d6f	1.2118357
11	0x3f2d8a49	0.6778913
12	0x3f933605	1.150086
13	0x40123e92	2.285069
14	0x3fa25070	1.2680798
15	0x3f5118f7	0.8167872
16	0x4024e50f	2.5764806
17	0x40093589	2.1438925
18	0x3f93d12e	1.1548212
19	0x3fcafc03	1.5858158
20	0x3f616c51	0.880559
21	0x3fed30f9	1.853057
22	0x3f2a8a39	0.6661716
23	0x400eaf1d	2.229438
24	0x3f862181	1.0478975
25	0x3f40c651	0.75302607
26	0x400f0fbb	2.235335
27	0x3f9a2f7e	1.2045743
28	0x40a34637	5.102321
29	0x3fa9d376	1.3267658
30	0x403a3f2d	2.910106
31	0x3fd44261	1.6582757

weight f4 [32]
0	0x3fca227f	1.5791777
1	0x3f9d7694	1.2301812
2	0x40007ab1	2.0074885
3	0x3fafad09	1.3724681
4	0x3e8d5f31	0.27611688
5	0x3ffc2813	1.969973
6	0x3d104491	0.03522164
7	0x3ed2df41	0.41185954
8	0x3f3154cd	0.6927002
9	0x3fa7aaec	1.3099036
10	0x3fc9cae7	1.5765046
11	0x3f33b282	0.70194256
12	0x3fa3911a	1.2778656
13	0x400d3758	2.206503
14	0x3ec5d83e	0.38641542
15	0x3f124a98	0.5714507
16	0x3f23d436	0.63995683
17	0x3f62617e	0.8843001
18	0x4035862f	2.836315
19	0x3ff3d215	1.9048487
20	0x3f9c1f4e	1.2197053
21	0xbfe63e7b	-1.7987818
22	0x3fa2499d	1.2678715
23	0x3f635e93	0.88816184
24	0x3db838a7	0.089951806
25	0x4035e9b3	2.8423889
26	0x404684a6	3.1018462
27	0x3ed5f727	0.41790125
28	0x4007cb93	2.1218002
29	0x400ab6f4	2.1674166
30	0x3f0d0b0b	0.55094975
31	0x3e5c09c1	0.21488096

bias f4 [32]
0	0xbf255cc2	-0.6459466
1	0xbf856818	-1.0422392
2	0xbf97bb3d	-1.1854016
3	0x3fa457ec	1.2839332
4	0xbf30eeb2	-0.6911422
5	0x3f734851	0.9503222
6	0xbf8f6428	-1.120244
7	0x3f143b55	0.57903033
8	0xbea2f70f	-0.31829116
9	0xbf966ead	-1.1752526
10	0xbf872018	-1.0556669
11	0x3f6ab19e	0.9167727
12	0xbffd2ab6	-1.9778659
13	0x3eb782b1	0.35841897
14	0xbe188cd7	-0.14897476
15	0x3f1733c9	0.5906339
16	0x3ed4311f	0.41443726
17	0x3e3aef9a	0.18255463
18	0x3f96acee	1.1771524
19	0x3e84658a	0.25858718
20	0xbf26b805	-0.6512454
21	0x3f75a139	0.9594913
22	0xbfb4854c	-1.4103179
23	0xbf5f4537	-0.8721499
24	0x3e743106	0.23846826
25	0x3df1d4d9	0.118081756
26	0x3ef80810	0.4844365
27	0x3f2d665c	0.67734313
28	0x3fb3ff5f	1.4062308
29	0x3f780a4f	0.9689073
30	0xbf393b2e	-0.72355926
31	0xbf10f454	-0.56622815

running_mean f4 [32]
0	0x3f9fbb33	1.2479004
1	0x3ef40d6e	0.47666496
2	0x3f3013cf	0.68780226
3	0x408fc828	4.493183
4	0x3f0c7ec5	0.54880935
5	0xc079fd2a	-3.906077
6	0x40670865	3.6098874
7	0x4018f446	2.3899093
8	0x3f52a6a5	0.8228553
9	0x408a664d	4.324988
10	0xc097e171	-4.7462697
11	0x40151d53	2.3299148
12	0x3eb543b7	0.35403225
13	0x401fe5a0	2.4983902
14	0xbfc5bcb3	-1.5448211
15	0x4062ef9e	3.545875
16	0xbd32618a	-0.04355005
17	0xbf1af53d	-0.60530454
18	0xbf881308	-1.0630808
19	0x400a1a3a	2.1578507
20	0x4031d488	2.7785969
21	0xc1119a18	-9.100121
22	0x3f11da53	0.5697376
23	0xbf9ae0f9	-1.2099906
24	0x4028f082	2.6396794
25	0xbed7de62	-0.42161852
26	0x4091604d	4.5430055
27	0xc00c1683	-2.188874
28	0xbfdfa29a	-1.7471497
29	0xbebdf683	-0.37102136
30	0xbfb6efb6	-1.4291904
31	0x3fa1a36d	1.2627999

running_var f4 [32]
0	0x41723c93	15.139789
1	0x41f25f49	30.296526
2	0x42248370	41.128357
3	0x422369a3	40.85316
4	0x41cbd75a	25.480152
5	0x422f413d	43.81371
6	0x41462cd9	12.385949
7	0x41efba75	29.966043
8	0x41d99ce2	27.201603
9	0x426345d1	56.81818
10	0x41e904fc	29.127434
11	0x41b45d81	22.545656
12	0x4164bb6c	14.295757
13	0x41d95a44	27.169075
14	0x4186e60a	16.862324
15	0x417b8abd	15.721372
16	0x416b3c82	14.702272
17	0x4185cfa6	16.72639
18	0x4245c506	49.442406
19	0x4216f855	37.74251
20	0x418fbe11	17.967806
21	0x41b7fb12	22.997593
22	0x417fed83	15.995486
23	0x4190274d	18.01919
24	0x415bc1d9	13.734826
25	0x4201731f	32.362423
26	0x427ee7d2	63.726387
27	0x41b2479f	22.284971
28	0x41b1e402	22.236332
29	0x410f34c4	8.950382
30	0x418eda99	17.856737
31	0x40b2ece0	5.5914154
