04_Experiments/2022_08_02 10-12-49 100-runs-optimizer_params-custom_loss/models/Model_run56_optimizer_params0.2_alcalinity_of_ash.pt (torch, 275297 bytes, 318 tensors)

weight f4 [12]
000000 00 00 80 3f 00 00 80 3f 00 00 80 3f 00 00 80 3f
       1.0 1.0 1.0 1.0
000010 00 00 80 3f 00 00 80 3f 00 00 80 3f 00 00 80 3f
       1.0 1.0 1.0 1.0
000020 00 00 80 3f 00 00 80 3f 00 00 80 3f 00 00 80 3f
       1.0 1.0 1.0 1.0

bias f4 [12]
000000 00 00 00 00 00 00 00 00 00 00 00 00 00 00 00 00
       0.0 0.0 0.0 0.0
000010 00 00 00 00 00 00 00 00 00 00 00 00 00 00 00 00
       0.0 0.0 0.0 0.0
000020 00 00 00 00 00 00 00 00 00 00 00 00 00 00 00 00
       0.0 0.0 0.0 0.0

running_mean f4 [12]
000000 00 00 00 00 00 00 00 00 00 00 00 00 00 00 00 00
       0.0 0.0 0.0 0.0
000010 00 00 00 00 00 00 00 00 00 00 00 00 00 00 00 00
       0.0 0.0 0.0 0.0
000020 00 00 00 00 00 00 00 00 00 00 00 00 00 00 00 00
       0.0 0.0 0.0 0.0

running_var f4 [12]
000000 00 00 80 3f 00 00 80 3f 00 00 80 3f 00 00 80 3f
       1.0 1.0 1.0 1.0
000010 00 00 80 3f 00 00 80 3f 00 00 80 3f 00 00 80 3f
       1.0 1.0 1.0 1.0
000020 00 00 80 3f 00 00 80 3f 00 00 80 3f 00 00 80 3f
       1.0 1.0 1.0 1.0

weight f4 [12]
000000 98 0f 3a 3f 53 a0 6d 3f 2f cb 0c 40 40 80 26 40
       0.72680044 0.9282276 2.1999013 2.6015778
000010 33 c4 39 3f cf fc 8b 3f ff b6 21 40 8c 1b a5 3f
       0.72565 1.0936526 2.5267942 1.2899032
000020 e4 fa 33 40 25 f8 ff 3f 7c 99 30 40 99 bb 9e bf
       2.8121881 1.9997603 2.759368 -1.2401

bias f4 [12]
000000 65 ba 4c 3f 26 21 f1 3f b0 c7 10 40 4a 98 cc 3e
       0.79971915 1.8838241 2.262188 0.39959937
000010 dd 24 fd bd c3 bc 2d bf 90 5c b1 be 7d f2 4d 3f
       -0.12360547 -0.6786615 -0.34640932 0.8044813
000020 8f 9a 55 40 33 bf 03 40 7b 00 09 bf 03 1b cd 3f
       3.3375585 2.0585449 -0.5351636 1.6023868

running_mean f4 [12]
000000 8f fe 75 3f 3f 38 51 3e ff ac 9e 3f 4b a5 c4 3f
       0.9609155 0.20431612 1.2396544 1.5362943
000010 93 0c b6 3f 10 39 b2 3f d3 27 11 3f 15 89 af 3f
       1.4222587 1.3923664 0.5670139 1.3713709
000020 44 42 f7 40 b6 13 4a 40 62 bb 71 42 f1 81 e6 43
       7.726839 3.157453 60.43299 461.01517

running_var f4 [12]
000000 76 e6 19 3f 0d 79 d5 3e b1 fc 83 3f 45 84 34 3f
       0.6011728 0.41693917 1.031149 0.7051433
000010 61 f3 e7 3e db e2 8a 3f 8e ea e0 3e 25 9b 2b 3f
       0.4530287 1.0850481 0.4392895 0.67033607
000020 e1 cd 48 3f 39 10 6e 40 26 92 10 43 5f 86 6e 47
       0.78439146 3.7197402 144.57089 61062.37

weight f4 [32, 12]
000000 85 bb 37 3f 7d 7d 60 3f 37 50 37 40 41 79 44 40
       0.7177051 0.8769148 2.864271 3.0699008
000010 1a 9e aa bf a8 a0 e9 3f 80 27 ef 3f 5d bc ff bf
       -1.3329499 1.8252153 1.868393 -1.9979359
000020 be 7a a7 3e 2f 45 b5 3f 80 24 e3 3d 6a 17 d9 3f
       0.32710832 1.4161738 0.11090946 1.696027
000030 27 3f dc 3f d9 6b 8f 3f c3 20 aa 3f 70 f0 5d 3f
       1.7206773 1.1204787 1.3291248 0.86695004
000040 26 65 4c 3f 04 f7 0a 3f 1a 08 61 be bb b5 08 3e
       0.7984184 0.54283166 -0.21975747 0.13350575
000050 df 2b 5a 40 e6 44 6b 3f 1a c0 85 c0 b6 f2 a1 3e
       3.4089277 0.91902006 -4.1797 0.31630486
000060 a9 5a aa 3f a6 ba c8 bf 53 35 c8 3f c3 67 ce 3f
       1.3308917 -1.568196 1.5641273 1.6125416
000070 9f 5c d2 3e 61 42 49 c0 6a a7 23 40 11 b1 ae 3f
       0.4108629 -3.1446764 2.5570931 1.3647786
000080 18 ae a0 3f 5d 29 ac 3f a0 8f 4d bf 7d 54 7d bf
       1.2553129 1.3450123 -0.8029728 -0.98957044
000090 b2 e8 5e 3e d4 5a ab 3f 6f be 53 bf de 0a 5c bf
       0.21768454 1.3387094 -0.82712454 -0.8595408
0000a0 65 23 8f 3f 05 f8 07 40 4d 77 3b be a2 77 15 3d
       1.1182677 2.124513 -0.18307228 0.036491044
0000b0 ae 0d 3c 40 61 b9 39 40 f3 8c 3c 3f 01 2d d0 3d
       2.938335 2.9019396 0.7365257 0.10164834
0000c0 0a 48 83 3d 22 19 99 40 ca ed 05 3f d6 a7 e9 bd
       0.06410225 4.784318 0.5231596 -0.11408965
0000d0 26 7b 16 40 1e c3 d8 3f a2 e1 ad bb 72 9e df 3d
       2.3512664 1.6934545 -0.0053064385 0.10918893
0000e0 8b 44 e1 bf 77 b4 9d bf 67 c3 7e 40 15 f6 8d 3f
       -1.7599043 -1.2320698 3.9806764 1.1090723
0000f0 22 cc e2 bf 7a 6f da be 56 a2 f3 bf 9e d0 59 bf
       -1.7718546 -0.42663175 -1.9033916 -0.8508395
000100 92 d5 e6 bf 5c d2 03 40 24 5b bd 3e 10 e9 04 3f
       -1.8033926 2.0597143 0.36983597 0.51918125
000110 9d 1a 1f c0 e2 34 02 c0 5e 4e 16 c0 f8 45 23 40
       -2.4859993 -2.0344777 -2.3485332 2.5511456
000120 95 70 92 bf eb a7 3a 3e 43 c4 b9 bf 66 78 9f bf
       -1.1440607 0.18228118 -1.4513019 -1.2458618
000130 a3 b4 a9 bf 33 84 87 be 4f d0 62 c0 1b d2 af bf
       -1.3258251 -0.26468047 -3.5439641 -1.3735994
000140 28 e6 01 40 9f 0b 53 c0 c0 e0 cd 3e f7 99 43 3f
       2.0296726 -3.2975843 0.40210533 0.76406807
000150 a4 f8 40 bf c3 90 f8 be 8f 4f c5 bc 80 94 62 c0
       -0.75379395 -0.48547944 -0.024085788 -3.5403137
000160 d4 7b cc bd 91 de be 3f 1c 0c db 3f 0d 9b ca bf
       -0.09984556 1.4911672 1.711307 -1.5828568
000170 53 68 b4 3f c7 ca 8d 40 f5 9f e7 3e 94 52 f6 3e
       1.4094337 4.431003 0.45239225 0.48109877
000180 c9 9f 09 40 58 84 cc 3f a5 d7 e0 be 08 66 04 40
       2.1503775 1.5977888 -0.43914524 2.0687275
000190 27 62 88 bf f3 2d 1c 3f ab 32 5f 3f af 2c 9a bd
       -1.0654954 0.6100761 0.8718669 -0.07528054
0001a0 7e 35 db 3f a9 eb 88 3f 41 73 d1 3e 76 7c c0 3e
       1.71257 1.0696918 0.40908244 0.37594956
0001b0 4d 47 ca 3f 5c 89 5f 3f 36 3d 30 c0 9a e8 df be
       1.5803009 0.8731897 -2.753736 -0.43732148
0001c0 97 f5 88 bf 6f 07 71 bf 1e db 5d be f7 01 72 c0
       -1.0699948 -0.9415197 -0.21665618 -3.78137
0001d0 d0 37 ca bf 2a c2 0c c0 2f 2f 3e c0 98 5a fe bf
       -1.5798283 -2.1993508 -2.9716299 -1.9871397
0001e0 b4 18 9c 3f 6e 56 cf bf 6e b0 76 3f 65 34 58 40
       1.2195039 -1.6198251 0.9636296 3.378198
0001f0 43 5c 7a 3e e1 99 7d bf f3 0d 7f 3f 7a 50 84 be
       0.24449258 -0.99062926 0.9963066 -0.2584265
000200 ae 82 e9 bf af 59 03 3f 13 70 ad 3f ab e8 f3 bd
       -1.8243005 0.5130872 1.3549827 -0.11909612
000210 81 61 7e 3e 50 c2 45 bf 35 5b 7a bf 95 e3 ac bf
       0.24841882 -0.7724962 -0.9779542 -1.3506953
000220 f3 40 2a 3f ad da 0a bf 5a 1b 06 40 2d 9f cf bf
       0.66505355 -0.5423992 2.0954194 -1.6220452
000230 1d 86 54 c0 6c c3 08 c0 9f 50 66 3f 3c c9 14 3f
       -3.3206856 -2.1369276 0.8996677 0.5811956
000240 c3 aa ba bf 35 97 d2 be 63 21 5b bf 29 9c 9d c0
       -1.4583362 -0.41130987 -0.8559782 -4.9253125
000250 a7 4a 59 c0 c7 a3 2c 3f 8e fd 7c bf e5 59 1a c0
       -3.3951814 0.67437404 -0.98824394 -2.4117367
000260 8b 6a 3d 3f f7 15 79 3f 81 99 96 3f 9d a9 d8 3f
       0.73990697 0.9729914 1.1765596 1.6926762
000270 f0 4b 83 bf 41 24 4a 40 52 35 34 40 69 dd 36 40
       -1.0257549 3.1584628 2.8157544 2.8572638
000280 e1 29 99 bf a2 24 be 3e c5 ff 22 be d9 80 e1 3f
       -1.1965905 0.37137324 -0.15917881 1.7617446
000290 99 1d 6d 3f 4d 7b 8d bd 1b 23 07 c0 87 b9 3d 3f
       0.9262329 -0.069082834 -2.1115177 0.7411122
0002a0 4c b9 f3 3d c9 26 bc 3f 0f ba 4f be 03 07 e2 bf
       0.11900577 1.4699336 -0.2028582 -1.765839
0002b0 d0 12 3d c0 dc 70 e9 bd 29 a8 19 c0 91 38 e5 be
       -2.9542732 -0.11398479 -2.4008887 -0.4476972
0002c0 0d 3c 90 3f f0 81 06 3f 83 44 ee 3e d7 2a bc bf
       1.1268326 0.5254202 0.46536645 -1.4700574
0002d0 46 91 e2 3d 47 56 48 bf b1 44 47 40 7c c3 9f 3f
       0.11062865 -0.7825665 3.1135676 1.2481532
0002e0 10 8e 59 bf d8 87 16 3f 53 10 01 c0 c8 b0 c5 3f
       -0.84982395 0.5880103 -2.0166214 1.5444574
0002f0 cd 0a 02 40 f6 c5 09 c0 98 3e 0d bf 3f 78 36 3f
       2.0319092 -2.1527076 -0.55173635 0.7127723
000300 57 f3 6c be 24 c9 8f 3f ae 4c 02 40 a5 d5 c3 3e
       -0.23139702 1.1233258 2.0359302 0.38248935
000310 28 b1 25 3f 8a f7 cb bf 51 85 c5 3f 07 9d 93 40
       0.64723444 -1.5934918 1.543131 4.6129184
000320 8f 03 af bf d7 44 09 3f b3 99 a7 be 8f c6 84 c0
       -1.3672961 0.53620666 -0.3273445 -4.149238
000330 58 f6 1b bf 9e 86 29 40 c6 c2 92 3d 0c 3f df 3d
       -0.60922766 2.6488414 0.07166056 0.10900697
000340 28 ee 69 3f 57 c3 a8 3e ec f1 e0 bf 55 b9 85 be
       0.9137902 0.32961532 -1.7573829 -0.2611796
000350 5d 90 3a c0 fd fd f5 bf be 01 20 40 ff 55 b3 3e
       -2.9150612 -1.9218136 2.5001063 0.35026547
000360 e2 4e dd bf b1 7e 0e 40 9f ab a6 3e 38 34 1f c0
       -1.7289698 2.2264826 0.32552812 -2.4875622
000370 0d f1 50 3f a2 56 ce be bf c3 db 3d 65 28 9c be
       0.81617814 -0.4030047 0.10730695 -0.3049957
000380 17 13 f2 3f 79 f7 ea 3f c1 16 ce 3e c3 05 67 bf
       1.8912076 1.8356773 0.40251735 -0.90243167
000390 14 37 6a 3f 2c 5b f4 3f 7b 90 89 c0 c8 fd 0f c0
       0.9149029 1.9090323 -4.298887 -2.2498646
0003a0 64 71 91 c0 76 fa e2 3f 7e 93 eb bf 2f eb 19 be
       -4.5450916 1.7732685 -1.8404386 -0.15031122
0003b0 87 fc 22 40 a5 16 52 40 7c 0d 32 3f 8f 47 25 3f
       2.546663 3.282632 0.69551826 0.64562315
0003c0 ba 40 bc 3e 6f 38 b9 40 21 fe 02 3e 51 6e 3f 40
       0.36768132 5.788139 0.12792255 2.9911082
0003d0 9e f3 6e 40 66 ea 85 be a5 ea 3b 3e aa 81 b7 3f
       3.7336192 -0.26155394 0.18351229 1.4336445
0003e0 4d 72 69 3f 7b 48 a1 3e d9 bb 63 bf ab 23 43 c0
       0.91190034 0.3150061 -0.8895851 -3.049052
0003f0 1b e4 15 c0 40 7d 8b 3f 01 ef 92 bf 1c 6e 15 c0
       -2.3420475 1.0897598 -1.1479188 -2.3348455

weight f4 [32, 16]
000000 c9 02 b4 3f 87 88 ad 3f cf df e8 3e 2b 4d a3 bf
       1.406335 1.355729 0.45483252 -1.2757925
000010 43 6c f8 bf 33 84 87 be c5 3c 88 3f 74 ce 83 bf
       -1.9408039 -0.26468047 1.0643545 -1.029738
000020 df ff 88 3f 24 27 41 3f 4b dc ed bf 9e 4a d6 bf
       1.0703086 0.7545035 -1.8582853 -1.6741521
000030 13 0f 77 3f ef 95 39 3f c4 5e ae 3f 03 21 6a 40
       0.96507376 0.72494406 1.362267 3.6582649
000040 54 c7 a8 bf 36 50 7c be 79 ed 35 3f 2d b9 ff be
       -1.318583 -0.24639973 0.7106548 -0.49945965
000050 f6 d2 b5 bd b1 c6 0c bf c0 40 78 bf 1c 14 4f be
       -0.08878128 -0.5499068 -0.969738 -0.20222515
000060 b3 5b 6c 3f ef 55 85 bf e6 a6 d9 3e 7e ef 01 40
       0.9232742 -1.041685 0.42510146 2.0302424
000070 15 d8 e9 bf 7c 41 03 40 5f 13 90 c0 8a 08 b5 3f
       -1.8269068 2.0508718 -4.5023646 1.4143231
000080 f1 60 41 3f 6f 92 b9 bd 91 db 0d c0 b8 3a 1d c0
       0.75538546 -0.09061133 -2.2165263 -2.456709
000090 21 a3 ac 3e eb eb 8a bf 07 8f 5a 3e 9a 5f ad bf
       0.33718207 -1.0853246 0.21343623 -1.35448
0000a0 4a ba 00 3f 4c b2 03 40 bb 6a 8a bf a9 5f 2a c0
       0.50284255 2.0577574 -1.0813822 -2.6620886
0000b0 3c c9 06 bf 07 44 bf 3e 81 3a f1 3f cc 37 9e 3f
       -0.5265081 0.37356588 1.8845979 1.2360778
0000c0 28 34 f1 3f db e5 a6 3f c8 57 98 be 60 10 b0 3f
       1.8844042 1.3038896 -0.29754472 1.3754997
0000d0 2a 8b 98 bf ad 43 98 bf 94 74 37 c0 ee 11 1a 40
       -1.191747 -1.1895653 -2.8664904 2.4073443
0000e0 f4 0d 20 3f 63 5f 0d 3f 2b a6 d9 be 2c 60 a8 be
       0.6252129 0.55223674 -0.4250959 -0.32885873
0000f0 26 41 64 3e 55 34 a0 bf e8 5f 39 c0 e9 d5 0f bf
       0.22290477 -1.251597 -2.8964787 -0.56185776
000100 b5 0a 53 3f b5 bf bf 3f 28 48 fc bf d7 e1 a8 3f
       0.8243821 1.4980379 -1.970952 1.3193921
000110 03 96 5b 3f 18 db f3 be bd 1c 41 3f b0 af 06 40
       0.85775775 -0.47628093 0.75434476 2.104473
000120 78 0d 6f 3f f9 43 6c bf 57 17 46 c0 8a 41 49 c0
       0.93379927 -0.9229122 -3.0951746 -3.1446252
000130 84 5e 98 3d 6c c6 15 40 05 83 1d 3f 12 08 77 3f
       0.074399024 2.3402357 0.61528045 0.9649669
000140 94 a4 75 bf b9 a5 97 3f 29 05 e6 be fd cd 3d bf
       -0.9595425 1.184745 -0.44925812 -0.7414244
000150 dd ce d0 bd 00 38 2a 3d dd c6 31 40 46 69 19 bf
       -0.10195706 0.041557312 2.7777627 -0.5992626
000160 18 ee e3 bd ba ff b6 bf 78 35 05 be d3 ed 0e c0
       -0.11129397 -1.4296792 -0.13008678 -2.2332656
000170 22 fa 68 c0 2b 55 19 40 06 f5 12 3e ef 37 0f 40
       -3.640267 2.3958232 0.14351282 2.237789
000180 e9 d5 2a c0 a1 b5 b3 3e a6 a1 96 bf b7 f2 eb 3f
       -2.669306 0.3509951 -1.1768081 1.8433446
000190 0e cc 0e c0 01 3a 77 3f 22 c6 81 3f 10 36 dc 3f
       -2.2312045 0.9657288 1.013859 1.7203999
0001a0 1f eb 50 bf 79 d8 f2 3f 83 e4 9c bf 95 3a 97 bf
       -0.81608766 1.8972312 -1.2257236 -1.1814753
0001b0 76 bb d1 3f 6f 6a cc 3d 96 69 2b 3f b1 60 0e c0
       1.6385334 0.09981238 0.66957986 -2.2246516
0001c0 53 30 9c 3e 18 4c 1d c0 e1 97 c7 bf 9c b9 70 c0
       0.30505618 -2.4577694 -1.5593225 -3.7613287
0001d0 85 cb 18 40 5c 91 4b bd 3b 7c ba bf a3 60 a1 bf
       2.3874218 -0.049699172 -1.4569162 -1.2607616
0001e0 59 b9 05 3c cc c3 b3 3d 7c 69 a3 3e b4 ce d9 3f
       0.008161866 0.0877758 0.31916416 1.7016206
0001f0 ef df 1c 3f ef 79 12 bf 81 ba ec bf 43 b1 19 c0
       0.61279196 -0.57217306 -1.8494416 -2.4014442
000200 24 77 37 3f 95 eb 71 3e 58 35 3a 3d e2 dc 50 40
       0.7166617 0.23625024 0.04546103 3.2634816
000210 3c 66 06 c0 4f 09 a6 3f 5f d9 57 bf a7 90 1e 40
       -2.09999 1.2971591 -0.84316057 2.4775789
000220 b8 67 10 c0 1d 5c 93 bf 6e 9c 84 bf 9b 8b 68 bf
       -2.2563305 -1.1512486 -1.0360239 -0.9083802
000230 e6 77 4b 40 d0 f7 e2 be 46 fa 00 3f 2c 58 2a 3e
       3.179193 -0.4432969 0.50381887 0.16635197
000240 8c e0 bf bf 44 0c fb bf f5 8e fc 3e a9 3f f1 bf
       -1.4990401 -1.9613118 0.49327818 -1.8847553
000250 f3 c5 ed be 59 9f fc 3f 64 9b 67 bf 85 31 17 c0
       -0.46440086 1.9736129 -0.9047148 -2.3623974
000260 ea 16 2b 3f e5 f5 47 40 cd 12 8a 3f e1 67 9f 3f
       0.6683184 3.1243832 1.0786988 1.2453576
000270 61 7b dc be a5 cc 51 c0 06 4f 65 bf c8 65 8b 3f
       -0.4306288 -3.2781155 -0.89573705 1.0890436
000280 e7 2c fd 3f e0 dc e1 3e 4d d3 da 3e f2 a6 47 40
       1.9779328 0.44113827 0.42739335 3.1195645
000290 40 45 58 bf 05 15 9c 3e a8 b8 77 bf 23 4c 88 3f
       -0.8448067 0.30484787 -0.9676614 1.0648235
0002a0 37 69 60 bf 38 3c e0 bf e1 b3 a5 bf f0 45 44 c0
       -0.87660545 -1.7518377 -1.294552 -3.0667686
0002b0 0d 17 7d 3f 79 d0 77 bf d8 ed 5e bf 83 d9 d0 be
       0.988633 -0.9680248 -0.8708167 -0.40790948
0002c0 eb 6f 19 bf e7 8f ba 3f f7 6f cd bf 98 fe a8 bf
       -0.599364 1.4575166 -1.6049794 -1.3202696
0002d0 48 f8 43 c0 68 85 9e 3e 82 66 df be 95 31 09 40
       -3.062029 0.30961156 -0.43632895 2.1436512
0002e0 0b 1e 10 3f cb 4d 9c 3f a2 56 cf bf fd f3 08 c0
       0.5629584 1.221124 -1.6198313 -2.1398919
0002f0 11 4e cd 3f 6b 10 3a c0 07 a5 ff bf 73 ab 9b be
       1.6039449 -2.907252 -1.9972237 -0.30404243
000300 05 d0 98 bf 83 40 d8 3e a2 71 da bf 91 4d 73 bf
       -1.1938483 0.4223672 -1.7065928 -0.9504023
000310 7d bd cc 3f 65 ef be 3e f3 10 85 3f cb 5f dc 3f
       1.5995327 0.3729202 1.0395797 1.7216734
000320 4d 2f 28 3f 5d e0 28 bf d0 5a 06 c0 3b 42 96 bf
       0.65697175 -0.6596735 -2.0992928 -1.1738962
000330 01 5b ee 3d f9 c3 44 40 b1 88 46 3f 39 f7 ca 3f
       0.11638451 3.0744612 0.77552325 1.5856696
000340 08 9c 2b 40 78 b0 2d bf 0a 1a d9 3e 1d 89 43 40
       2.6813984 -0.67847395 0.4240268 3.0552437
000350 5c 7b d6 bf 24 71 de be a4 e7 9e 3d a2 b2 c7 3f
       -1.6756396 -0.43445694 0.07759026 1.560139
000360 6f 51 53 3f 3c 32 98 bf 6f 5c 2c bf a0 e6 3f c0
       0.8254613 -1.189033 -0.6732854 -2.9984512
000370 bd 8d c2 3f 74 5c 7b 3f f7 4d f6 3f 78 7c de be
       1.5199505 0.9818795 1.9242543 -0.43454337
000380 c3 57 19 3f c7 d0 1a 40 f2 7f 9a bf 4e 17 43 3c
       0.5989954 2.4189928 -1.2070296 0.011907412
000390 8d 65 e3 bf fa f1 a0 be 4c c5 7f be 82 fa 97 3e
       -1.7765366 -0.31434613 -0.24977607 0.2968331
0003a0 df 1a 20 40 9c 53 89 c0 74 6f 2a c0 68 ae d5 bf
       2.50164 -4.291456 -2.6630526 -1.669385
0003b0 53 80 e3 be 9a 49 3c 40 27 fe 73 bf 03 80 57 be
       -0.4443384 2.9419923 -0.9530968 -0.21044926
0003c0 97 66 de 3d c2 d2 c3 3f a4 af fd 3f 0e 79 bd be
       0.10859411 1.5298693 1.9819226 -0.3700642
0003d0 9c d0 80 be 36 f4 3d c0 c4 81 cf bf 42 43 56 be
       -0.25159156 -2.9680305 -1.6211476 -0.20924094
0003e0 38 26 b3 3f fd 71 c6 3f 22 d4 1f be b9 34 c5 3e
       1.3996038 1.5503536 -0.15608266 0.38516787
0003f0 56 70 df bf 4c 5d 1f 40 c4 12 12 40 2d af 4a 3f
       -1.7456157 2.4900694 2.2823954 0.7917355

weight f4 [32]
000000 4d 38 0e bf 2b 2a 9e be 4a 0a a2 3f d2 71 69 bf
       -0.5555466 -0.30891547 1.265939 -0.911893
000010 f3 ca fd 3f 20 a2 e5 3f fd 2f 4e bd a6 5f 3a 40
       1.982756 1.7940102 -0.050338734 2.912088
000020 14 95 07 bf 35 3e 87 40 c9 bd 0c 40 4e 34 0e 40
       -0.5296185 4.2263436 2.1990836 2.2219424
000030 68 95 45 40 7d c2 91 40 08 73 eb bd b7 09 a1 bf
       3.087244 4.5549912 -0.1149655 -1.258109
000040 4c 31 ca bf ea 0e e1 3e 04 b7 00 40 ea f4 3d 40
       -1.5796294 0.4395669 2.0111704 2.9680734
000050 4d 53 8a 40 68 42 d8 bf 5e bd 45 3f 28 41 ba 40
       4.3226686 -1.6895266 0.77242076 5.8204536
000060 4c 9c e1 3e 10 94 a5 40 69 e7 01 40 a6 57 87 40
       0.44064558 5.174324 2.0297492 4.2294493
000070 c5 9c 5a 40 b0 60 b6 40 27 7d 63 3f 28 6c ef 3f
       3.4158185 5.6993027 0.8886284 1.8704882

bias f4 [32]
000000 f8 d2 41 3f dc 0c a9 3e 4b bb 14 bd b0 48 02 40
       0.7571254 0.33017623 -0.03631143 2.0356865
000010 5f 39 87 40 24 03 57 bf de 6a b4 3f 6c d6 4e bf
       4.2257533 -0.8398917 1.4095113 -0.8079593
000020 fd 5b 33 3f 6b 2e d6 bf a1 8b 4a bf 32 1d bb 3f
       0.7006224 -1.6732916 -0.79119307 1.4618285
000030 b4 83 e8 bf b3 44 ea 3e 3c c1 8f 3e 95 99 a6 3f
       -1.8165193 0.45755538 0.28077114 1.301562
000040 2a 62 0e c0 a2 00 fd be ba b3 97 be 09 3b d6 be
       -2.2247415 -0.49414545 -0.29629308 -0.41841915
000050 d5 6c 99 3f 1c 47 e6 3f 26 a3 6e bf 4c d6 92 be
       1.1986338 1.7990451 -0.93217695 -0.2867912
000060 b1 42 c9 bf 81 26 4e bf c8 8f ef be 3b a0 6f bf
       -1.5723478 -0.805275 -0.46789384 -0.9360387
000070 64 6e e2 3f 32 f8 5e bf dd 3a 16 c0 52 67 5b c0
       1.7689939 -0.87097466 -2.3473427 -3.4281812

running_mean f4 [32]
000000 09 62 0f 41 b4 76 75 41 2b 13 e4 40 09 ff 07 41
       8.961434 15.34148 7.12734 8.499764
000010 3c 07 93 bf 07 40 2d c1 ef 95 cc bf bf a2 28 40
       -1.1486583 -10.828132 -1.5983256 2.6349332
000020 06 4f fc 40 eb d3 15 c1 07 70 49 c0 83 0a 53 c1
       7.8846464 -9.364238 -3.1474626 -13.190066
000030 85 a2 2f c0 10 b1 4d 41 eb 02 82 40 9f f7 fb 40
       -2.7442944 12.855728 4.062856 7.873977
000040 bb 7b 83 3f df 18 d3 c0 df 6f e1 40 42 87 a4 40
       1.0272135 -6.596786 7.044906 5.141511
000050 39 8e fd 40 6e 3a 57 c0 7e 8b df 40 58 c2 89 bf
       7.923611 -3.3629413 6.985778 -1.0762434
000060 74 1c 8b be e3 48 27 c1 60 2c 4d c0 93 33 3a c0
       -0.27170146 -10.455295 -3.2058334 -2.9093978
000070 6b 02 b0 3f 8f 1a 6a 41 81 27 c3 40 81 a7 3f c0
       1.3750738 14.631484 6.0985723 -2.9945986

running_var f4 [32]
000000 11 ac bc 42 f7 a5 ff 42 4c 77 33 43 5d 53 07 43
       94.33607 127.82415 179.466 135.32564
000010 91 ad a1 42 c7 9b 2a 43 28 7c df 42 04 e4 1f 43
       80.839 170.6085 111.74249 159.89069
000020 43 95 1a 42 fb 22 23 43 e0 40 10 43 40 90 1a 43
       38.645763 163.13664 144.25342 154.56348
000030 83 2f 95 43 e0 e0 01 43 0f 25 b5 42 0f 7d d3 42
       298.3712 129.87842 90.57238 105.744255
000040 a7 04 16 43 98 50 9b 42 9a b4 d1 42 a9 8d ba 43
       150.01817 77.65741 104.85274 373.10672
000050 36 2c df 42 b0 74 2a 43 3a 2c cf 42 b7 a7 33 43
       111.58635 170.45581 103.58638 179.65514
000060 ca f7 12 42 22 fe 3e 43 cd 5d 9d 43 f4 45 78 42
       36.74198 190.9927 314.73282 62.068314
000070 ea 1e c5 42 f7 86 49 43 8c 14 62 43 61 7e 8f 42
       98.56038 201.5272 226.08026 71.74683

weight f4 [32]
000000 5d 67 17 3e 40 00 84 3f ac 9c 3e 3f e1 fd f2 3f
       0.14785524 1.0312576 0.7445781 1.8983728
000010 f0 32 95 3f e4 69 7b bf c4 18 f5 3f 8d e9 52 bf
       1.165617 -0.9820845 1.9148183 -0.8238762
000020 28 ec 43 40 7d cd 2f 40 e6 e6 c1 3f ff a0 ae 3f
       3.0612888 2.746917 1.514859 1.3642882
000030 9c 95 5e 3e 6e 4b 60 3f 43 c1 d3 3f dd ca 5a be
       0.21736759 0.87615097 1.6543354 -0.21366449
000040 28 67 b9 be f6 68 7f 3f 05 43 8d 40 a3 af 18 40
       -0.36211514 0.9976953 4.414431 2.38572
000050 e2 3f 55 3e 45 32 b1 40 85 c9 d0 3f 55 e3 53 bf
       0.2082515 5.5373864 1.6311499 -0.82768756
000060 b4 5d 8f 3e 32 50 34 40 b8 a2 ea bf cf bf b7 3f
       0.28001177 2.8173947 -1.8330908 1.435541
000070 c9 89 c6 3f 5d ab ae 3e 9d 9b 38 3f 67 7b cf 3d
       1.5510799 0.34115115 0.7211245 0.10130959

bias f4 [32]
000000 dd 54 3b 3f 90 df c9 3d 77 30 e4 3f 38 15 a3 3f
       0.73176366 0.09857094 1.782729 1.274085
000010 83 25 03 40 48 16 93 c0 17 04 99 3e dd 40 98 be
       2.0491645 -4.59647 0.29885933 -0.29736987
000020 3c a6 86 bf e3 92 3f bd 5d 69 d2 3f 59 9f 8b 3f
       -1.0519481 -0.04677094 1.6438404 1.0908004
000030 15 f8 d4 3f 95 f8 af be ff 05 ae bf cb 10 69 bd
       1.6638209 -0.3436934 -1.359558 -0.05690078
000040 10 bd e1 be 5a d7 94 bf c1 c7 73 3f 93 8b a4 3f
       -0.44089556 -1.162822 0.95226675 1.2855095
000050 e8 11 82 bf 43 e4 1a 3f 23 28 19 3e 4e b8 38 c0
       -1.0161715 0.6050455 0.14956717 -2.886249
000060 5c fd f2 3f b9 3d 7d 3e ca bc af 3f 2a f8 09 40
       1.8983569 0.24730577 1.3729489 2.1557717
000070 51 ba b6 be c3 aa 3e 3d 06 f1 9a 3f e1 c7 43 bf
       -0.35689023 0.04654957 1.2104805 -0.76476866

running_mean f4 [32]
000000 47 5b d4 bf c1 0e 8a 40 e5 20 be bd 8e c6 aa bf
       -1.6590356 4.314301 -0.09283618 -1.3341844
000010 1f fd dc 40 73 fc a6 40 0e 29 95 c0 bc 1e fc 3e
       6.9058986 5.2183166 -4.6612616 0.49242198
000020 a9 d7 ae c0 d5 31 0b c1 7c bd 33 c0 d6 69 14 c1
       -5.4638257 -8.699666 -2.8084402 -9.275839
000030 b6 99 ff 40 bb ae a0 bf 0d ec 96 40 60 7b a6 40
       7.9875135 -1.2553324 4.716315 5.2025604
000040 da 58 44 40 b8 a2 46 bf 11 50 ab 3d 41 db 19 c0
       3.067923 -0.7759204 0.08364881 -2.4040072
000050 93 ee 8c c0 fa 5b 4c 40 22 db 55 40 d2 be 76 c0
       -4.404123 3.1931138 3.3414998 -3.8553967
000060 e9 8c 74 bf e6 9f ab c0 95 fe df bf ae 7a c5 40
       -0.9552751 -5.363269 -1.7499567 6.1712255
000070 a3 c0 ab 40 82 23 e2 3f a4 89 91 c0 e6 99 61 40
       5.367265 1.7667086 -4.548052 3.5250182

running_var f4 [32]
000000 c1 9d 2d 42 e6 f9 aa 42 78 1a fc 41 dd 63 87 42
       43.404057 85.48808 31.512924 67.695045
000010 81 f4 00 43 cd 46 14 43 ef af 1c 43 a4 00 cf 41
       128.9551 148.27657 156.68724 25.875313
000020 4d 16 49 43 e1 1d 15 43 77 59 94 42 ac 8d 8c 43
       201.08711 149.11671 74.174736 281.1068
000030 a5 44 9e 42 e2 ab a5 42 c8 d3 ab 42 cc 06 f6 42
       79.13407 82.83571 85.913635 123.013275
000040 4b 9f 7c 42 47 8e 17 42 34 e8 9c 42 14 06 a9 42
       63.15556 37.888943 78.45352 84.51187
000050 0c 4d 00 43 0d 20 cc 42 d5 41 e5 42 13 f8 37 42
       128.30096 102.0626 114.62858 45.99226
000060 21 ef 22 43 2a d8 ff 42 46 d6 5e 42 4f db ea 42
       162.9341 127.922195 55.70925 117.42834
000070 20 f5 5b 42 c7 56 1c 43 24 d9 48 43 bb 4d 9e 42
       54.98938 156.33897 200.8482 79.15182

weight f4 [32, 16]
000000 b3 73 db be 4c de f6 3e 84 4c 7f 3e 2a b9 2f bf
       -0.4286171 0.48216474 0.24931532 -0.6864191
000010 f8 b0 28 c0 a4 c2 bd bf 19 db 3c bf a2 99 dc bf
       -2.6358013 -1.4825025 -0.73771816 -1.7234385
000020 1f 14 3f c0 26 96 9c bf 94 b4 15 3f a7 df 5d bf
       -2.985603 -1.2233322 0.58478665 -0.8666939
000030 8d f5 76 c0 1a 3e 06 bd 3e ae 71 3f c1 0e 28 3e
       -3.8587372 -0.03277407 0.944065 0.16411878
000040 8c 0d 46 3d e5 f3 25 bf 45 72 9d bf 61 1a cb 3e
       0.048352763 -0.6482528 -1.2300497 0.39668563
000050 b3 19 fd bc 3a c5 c6 3f 9e 7d 1a 3f d0 63 ec 3e
       -0.030896043 1.5528939 0.60347927 0.461699
000060 58 9a 10 bf 29 12 87 c0 53 aa 44 bf 9b ab 18 3f
       -0.5648551 -4.220967 -0.76822394 0.5963685
000070 20 74 7e 3f 77 1f 1e 40 ed 0a d3 3f 0f ed 84 c0
       0.9939594 2.4706705 1.6487709 -4.153938
000080 e2 a5 17 bf 6c 19 92 bf 63 6d 89 c0 9b 21 69 3e
       -0.5923749 -1.1414008 -4.294603 0.22766726
000090 0a 1a 3f 40 7e 75 63 3f 60 dc 9b be 0c f5 8a bf
       2.9859643 0.88851154 -0.3044157 -1.0856032
0000a0 68 e4 34 40 87 b9 1b bc 6b 75 2b c0 ef fb 31 40
       2.8264408 -0.009504682 -2.6790416 2.7810018
0000b0 0f 04 02 3e 71 14 9f 3e 87 59 18 3e 98 f5 55 c0
       0.1269686 0.31070283 0.14877902 -3.3431149
0000c0 a9 19 08 c0 0b 71 fe bf 15 fd 5c bf d5 2b 8e 3f
       -2.1265662 -1.9878248 -0.8632367 1.1107126
0000d0 ee b6 fc 3f d1 10 02 3f af 52 75 bf 0c 9a 1e be
       1.9743326 0.5080691 -0.9582929 -0.15488452
0000e0 17 c0 6c 40 34 b5 b7 3f e6 83 18 c0 b5 07 01 40
       3.6992242 1.4352174 -2.3830504 2.0160954
0000f0 53 0d 51 3f 75 92 d5 be 62 a6 a1 be 14 4e d3 bf
       0.81660956 -0.417133 -0.31572253 -1.6508203
000100 33 7b 5b bf 6f 90 87 3d 11 6d e1 bf ca 6a 12 bf
       -0.8573486 0.066193454 -1.761141 -0.571942
000110 6c cd 53 40 e9 2f 21 3e b9 44 2f 3f 22 22 4c 3e
       3.309413 0.15740933 0.6846424 0.19934896
000120 58 b6 ca 3f f6 bc e6 3f 48 7e 0f c0 b9 0f 04 40
       1.5836897 1.8026416 -2.2420826 2.0634596
000130 0d bf 41 3f 24 80 14 c0 e4 40 6b bf b2 3d 04 40
       0.75682145 -2.320321 -0.9189589 2.0662656
000140 44 00 92 3d d1 37 07 40 f3 54 38 c0 b1 ef 06 40
       0.07128957 2.1127818 -2.880185 2.1083796
000150 f6 15 ba 3f 53 52 ae bf 86 c5 a0 bf f0 49 9a 3f
       1.4537952 -1.3618873 -1.2560279 1.2053814
000160 81 08 d7 3f df a2 73 bf 66 0b 00 3f cb c9 f9 3f
       1.679947 -0.95170397 0.5001739 1.9514707
000170 b1 49 e8 be 54 c9 61 bf ab 1e 6a bf 46 6d 90 3f
       -0.45368722 -0.8819783 -0.91453046 1.1283348
000180 03 59 e9 3f 04 0f 6a bf 75 a6 7c 3f 88 9e 6f bf
       1.8230289 -0.9142916 0.98691493 -0.93601274
000190 5d cf e4 bf d5 36 fa bf 20 bd 5d 3f c3 d5 c0 bf
       -1.7875782 -1.9547983 0.86616707 -1.5065235
0001a0 15 07 bc 3f 9b af 04 40 89 75 35 3e 30 e2 43 3f
       1.4689661 2.073218 0.17720617 0.7651701
0001b0 ac 27 f1 bd 04 d7 47 bf 53 c3 42 be b6 ad 05 3f
       -0.11775145 -0.7806246 -0.19019823 0.52218187
0001c0 85 46 ba bf c2 a6 a4 bf ce 3c f2 be 2d b0 d9 be
       -1.4552771 -1.286339 -0.47312015 -0.42517224
0001d0 d9 f6 19 3f cc e8 90 3e 34 f1 95 bf 32 5f 3a c0
       0.60142285 0.2830261 -1.1714234 -2.9120603
0001e0 18 9f 86 bf 3a 79 07 40 78 64 76 3e 84 d8 39 3f
       -1.0517302 2.116774 0.24061763 0.72596
0001f0 ec ab 2c 3f db 82 e6 bf c7 3e cd bf b4 cc 4e 3f
       0.6744983 -1.8008684 -1.6034783 0.807811
000200 70 ad a5 3f 01 4c ab bf 7a 77 48 c0 6f b8 47 3f
       1.2943554 -1.338257 -3.1322923 0.780158
000210 02 af a4 be d6 f9 04 40 97 58 ac 3f f1 d2 b9 3f
       -0.3216477 2.0777488 1.3464535 1.4517499
000220 0f 17 31 bf 30 e0 e7 bf 23 75 89 be 25 ed 6f 40
       -0.6917581 -1.8115292 -0.2684718 3.7488492
000230 e2 4e 02 40 6d 6d 3c be 83 92 98 3e 84 76 77 bf
       2.0360646 -0.18401118 0.2979928 -0.96665215
000240 62 ed 49 3f 0a 2c 34 3e 71 3f c6 3f e2 0c 8a bf
       0.7887784 0.17594925 1.5488111 -1.0785182
000250 cb ee 26 c0 32 35 fe be f2 5b 2c 3f be 10 03 bf
       -2.6083248 -0.4964996 0.673278 -0.5119742
000260 b6 39 24 c0 bf f3 0f 40 3a cc 10 bf 67 f7 84 bf
       -2.5660224 2.249252 -0.56561625 -1.0388001
000270 dd 53 56 c0 af 6a 14 bf 35 0d 32 c0 91 73 cb bd
       -3.3488686 -0.57975286 -2.782056 -0.09934152
000280 46 f8 29 40 e5 88 2a 3f 66 65 80 bf d9 d4 a0 3f
       2.6557784 0.66615134 -1.0030944 1.2564956
000290 12 f4 6c bf e3 5c dc 3f f5 9f 25 40 05 ba 93 3e
       -0.9255992 1.7215847 2.587888 0.2885286
0002a0 2b 2a 8c be 7a 31 1c bf 54 f3 8c 3f 04 b7 9c 3e
       -0.27375922 -0.61012995 1.1011758 0.3060838
0002b0 a8 c6 18 40 da 6c b9 be 06 d3 02 40 c2 8c ba bf
       2.387125 -0.3621586 2.0441298 -1.4574206
0002c0 f2 15 10 3f fc 25 10 c0 e0 91 fa 3f 31 f9 ac 3f
       0.56283486 -2.2523184 1.9575768 1.3513547
0002d0 d4 c4 c6 bf ab 70 2f 3f 1d 5e d8 3f 4f 64 16 3f
       -1.5528817 0.6853129 1.6903721 0.5874681
0002e0 d6 18 92 be b6 da 88 40 11 5c ea bf 0a 8b d0 be
       -0.28534573 4.276698 -1.8309346 -0.40731078
0002f0 ce 7c 10 c0 14 16 ca bf dd d6 ab 3e 6d 25 35 bf
       -2.2576175 -1.5787988 0.33562365 -0.7076023
000300 ea 46 13 3f 69 ab c1 3d d5 c8 21 c0 9d dd 48 40
       0.5753008 0.09456522 -2.5278828 3.1385262
000310 07 7a d8 3e a4 09 1e 40 65 ed b6 3f 3a e6 0e 40
       0.422806 2.4693384 1.4291197 2.232802
000320 d1 5d c3 3f e0 5c aa 3f 4c cf 20 bf 47 54 ca 3e
       1.5263005 1.3309593 -0.6281631 0.39517424
000330 65 cd b5 3f e4 9c be 3c 04 c8 48 bf 10 bf 08 c0
       1.4203306 0.02326817 -0.784302 -2.1366615
000340 35 22 29 3e 57 1d 07 3f 21 b5 8f 3f 5b ce dd 3d
       0.16516955 0.52779144 1.1227151 0.10830375
000350 dc c1 1a 3f 93 43 96 bf 79 d7 26 be a4 fa 2b be
       0.60452056 -1.1739372 -0.16293134 -0.1679483
000360 6b 28 05 40 02 99 a2 be 09 a0 a6 3f 1f c6 14 40
       2.080592 -0.3175736 1.3017589 2.3245924
000370 21 34 48 be a5 35 40 c0 ad 97 5d c0 24 3c a7 3f
       -0.19551136 -3.0032742 -3.4623826 1.3065228
000380 57 57 b1 3f cd 0e 2c bf 94 7a 10 c0 3a f6 10 40
       1.3854779 -0.67210084 -2.2574816 2.2650285
000390 95 a1 96 bf 9c 9b 4f 40 22 f5 41 3f 58 bb 14 40
       -1.1768061 3.2438726 0.7576467 2.3239346
0003a0 77 e5 bf 3f 84 c5 a6 be 08 5f 87 bf b8 e4 88 3f
       1.4991902 -0.32572567 -1.0575876 1.06948
0003b0 84 52 51 3e b1 a6 20 40 73 1e c0 3e fc d4 37 bf
       0.20441633 2.510174 0.3752323 -0.71809363
0003c0 26 37 e8 3f d5 27 95 3f ec 67 18 3f 53 78 1b 40
       1.814183 1.1652781 0.5953357 2.429219
0003d0 bd 94 96 bf b0 cb 0c c0 5b 60 e0 be e6 7f 9c bf
       -1.1764141 -2.199932 -0.43823513 -1.2226532
0003e0 25 5b d7 bf 45 fe 89 bf 71 4a 92 bf b1 01 35 c0
       -1.682469 -1.0780722 -1.1428968 -2.8282282
0003f0 3d 02 9c bf ed e2 dd 3f 03 9e e7 3f 74 c9 f6 be
       -1.2188183 1.7334877 1.8095096 -0.48200572

weight f4 [32]
000000 1d 84 45 bd c6 fa 3d 40 08 ec 34 40 43 a5 43 3f
       -0.048221696 2.968431 2.8269062 0.76424044
000010 8f a3 5d 40 7a 62 6c 3f 07 e1 66 bf 62 b1 e2 3f
       3.4631078 0.92337763 -0.90187114 1.7710383
000020 0c d8 91 3c 85 c3 2b 40 aa b6 2b bf 72 32 40 40
       0.017803214 2.6838086 -0.670756 3.003079
000030 c3 27 03 40 d6 9d c3 bf c9 99 5c 40 b1 a6 2b c0
       2.0493019 -1.5282543 3.4468863 -2.682049
000040 65 b5 de 3e 7f 6c 00 40 03 98 29 3e da d7 3d 3f
       0.43497768 2.006622 0.16561894 0.7415749
000050 df f8 82 40 38 87 07 c0 46 03 d1 be 77 b7 9e bf
       4.09288 -2.117628 -0.4082281 -1.2399739
000060 39 a2 21 3f c8 b7 f2 3f a7 d1 c1 be f1 87 89 40
       0.6313816 1.8962336 -0.37855265 4.2978444
000070 2c 84 ca 3f 3c 60 08 40 47 78 0d 40 04 69 30 c0
       1.5821586 2.1308737 2.2104661 -2.7564096

bias f4 [32]
000000 68 26 27 3f aa 73 97 be 11 87 85 be 77 9e 03 bf
       0.6529298 -0.29580432 -0.2607961 -0.51413673
000010 33 95 b9 3f 26 02 cd bf 0b cf 6a bf 3f d5 ae bf
       1.4498657 -1.6016281 -0.9172217 -1.3658828
000020 9f c3 c4 bf b6 4d a6 bf 45 15 b7 bf 07 d7 67 be
       -1.5372199 -1.2992465 -1.4303366 -0.2264062
000030 82 1a 35 40 c6 fa a5 3f c5 4d ac bf 86 6f 73 bf
       2.829743 1.2967155 -1.3461233 -0.95092046
000040 c8 d0 da 3f f7 4d 14 40 24 36 4c 40 53 8f 5f bf
       1.7094965 2.3172586 3.1908045 -0.8732807
000050 47 6d 1d c0 58 09 a7 3b c6 ad a6 bf 06 17 65 3f
       -2.4597948 0.0050975494 -1.3021781 0.89488256
000060 c0 a6 ae 3e 14 e4 81 3e b7 71 a4 bf 7c a1 71 bf
       0.34111595 0.25369322 -1.2847203 -0.9438703
000070 2b bb ef 3f 6d 72 ee bf 91 1b 26 40 82 ec 33 3f
       1.8728994 -1.862867 2.5954325 0.7028276

running_mean f4 [32]
000000 3a 32 01 c0 00 a7 5b bf cf 63 30 40 4d 2e c1 3f
       -2.0186906 -0.85801697 2.7560918 1.5092255
000010 69 8e 58 40 43 88 e2 40 04 a9 8f bf 8e be a7 bf
       3.383692 7.0791335 -1.1223454 -1.3105028
000020 b0 d2 04 be 29 52 0c c0 af 83 42 c0 9a 24 80 c0
       -0.12970996 -2.1925147 -3.0392873 -4.004468
000030 40 9c 3e bf 85 7b 88 40 77 24 29 c0 d4 e8 1f 40
       -0.7445717 4.265078 -2.6428506 2.4985857
000040 d0 d9 4c 40 6d 67 b1 bf 10 da 8b 40 27 58 62 40
       3.2007942 -1.3859688 4.370369 3.5366304
000050 3c 51 d3 be 7b ef 8a c0 23 7c 81 c0 83 5b 00 bf
       -0.41272914 -4.3417335 -4.0464034 -0.50139636
000060 a2 32 af 40 82 8f 4a c0 22 9c 58 40 b8 d9 cb 40
       5.474931 -3.165009 3.3845296 6.370327
000070 79 c9 b7 40 e6 ae f7 c0 d9 aa 45 40 a5 ca b4 c0
       5.743344 -7.7401 3.0885527 -5.649737

running_var f4 [32]
000000 40 a8 97 43 3a 3d 08 43 8b 84 fd 42 16 06 25 43
       303.31445 136.23917 126.75887 165.02377
000010 61 43 1e 43 3d 60 89 42 7c 5c 2b 42 d3 98 b3 42
       158.2632 68.687965 42.840317 89.798485
000020 61 32 44 43 36 57 3d 43 72 07 a7 42 fd 1f 08 43
       196.1968 189.34067 83.51454 136.12495
000030 c3 1d 98 43 96 e2 9e 42 1a dc 49 43 9d 96 2f 43
       304.2325 79.44255 201.85977 175.58833
000040 1b 6d 5b 43 fd c0 49 43 0c 25 00 43 51 dd 31 42
       219.4262 201.75386 128.14471 44.46613
000050 93 1e 4d 43 d0 76 29 42 eb 48 65 42 74 a2 84 42
       205.11943 42.366028 57.32121 66.31729
000060 7d a7 34 43 db 87 18 43 57 6c 79 42 9a a0 ac 42
       180.65425 152.53069 62.3558 86.313675
000070 27 8a 67 43 98 84 9b 42 95 fd f7 42 0d d7 46 43
       231.53966 77.75897 123.99528 198.84004

weight f4 [32, 16]
000000 51 6d 3e 3d 32 77 4a 3e d6 70 43 bf bb 2b 5a 3e
       0.04649097 0.19772032 -0.7634405 0.21305744
000010 01 d9 36 3f 52 5a ac bd 81 d2 97 bd 5d ed 25 3f
       0.7142487 -0.08415665 -0.07413197 0.6481531
000020 99 49 bd be ad af af 3e 5b 0a 5d bf ea 11 b9 3f
       -0.36970213 0.34313717 -0.86343926 1.4458592
000030 75 80 f2 be 68 e6 b9 3d 2d 18 69 3d a1 ec 86 3e
       -0.4736363 0.0907715 0.05690782 0.2635241
000040 6e 77 06 bd cd 9f 04 bf 90 4a 8f be db e6 11 3c
       -0.03282874 -0.51806337 -0.27986574 0.008905138
000050 aa ef f6 bd 02 e2 ff be 25 25 1c bf 06 1c 55 bf
       -0.12057431 -0.49977118 -0.6099418 -0.83245885
000060 8e 98 6a 3e 4c 10 34 bf 90 b5 63 bf 7e 33 9b bf
       0.22909757 -0.7033737 -0.8894892 -1.2125089
000070 9e ab 65 3e 55 29 4c bf 93 ec dc 3e f9 9f 70 bf
       0.22428748 -0.7975057 0.43149242 -0.939941
000080 de b2 ec be fe 5b 38 be ec 45 e2 3d 51 52 c5 3e
       -0.46230215 -0.18003842 0.11048493 0.38539365
000090 56 be 6e be a1 07 cd 3e cf cd 26 bf 17 74 f8 be
       -0.23314795 0.40044883 -0.6515779 -0.4852607
0000a0 35 f1 47 bc 38 19 8d 3e 64 b1 93 be e9 38 74 3e
       -0.012203504 0.27558303 -0.28846276 0.23849835
0000b0 84 df 08 3f 2b 42 55 3f 9b 36 88 be fd 04 ac bd
       0.5346606 0.8330409 -0.2660416 -0.08399389
0000c0 73 73 98 be b3 a7 9a bf f8 e7 75 3e 54 f2 3e bf
       -0.2977558 -1.2082428 0.2401427 -0.74588513
0000d0 9b 7d 1c 3e 82 16 aa 3f df dd 26 3e cc 83 31 bf
       0.1528229 1.3288119 0.16295575 -0.6934173
0000e0 f9 9a 3d 3f 2c 60 01 c0 37 11 0f bf 3c 24 4d 3d
       0.74064595 -2.0214949 -0.5588564 0.050083384
0000f0 8a f5 7b bf aa 41 5a bf 00 d7 b8 3f e7 dd 13 3f
       -0.9842154 -0.85256445 1.4440613 0.5776047
000100 b5 b2 4f be cd ac 79 3f 2a 41 98 3f 14 c2 37 3f
       -0.20283015 0.975293 1.1894886 0.71780515
000110 23 5f 6c bf 70 24 07 3e 42 18 40 bf ea 38 b4 3f
       -0.9233267 0.13197494 -0.75037014 1.4079869
000120 50 ab cc bd c1 3c 56 3d 10 92 39 3f b6 a4 aa 3c
       -0.09993613 0.052304033 0.724885 0.020830493
000130 11 3b f6 bd f9 d3 83 bf fd 06 a9 3e 3c 74 ec be
       -0.12022985 -1.0299064 0.33013144 -0.4618243
000140 51 5c 95 3e 42 ce b3 3e d0 2b da 3f 9c 54 22 bf
       0.29171994 0.351183 1.704462 -0.63410354
000150 27 11 9a be 49 c9 ee 3c ff d9 c4 be a9 47 33 3f
       -0.3009121 0.029148715 -0.38447568 0.7003122
000160 a1 50 2a bf a8 c3 64 3f e2 56 a8 3e 15 8c 7f bf
       -0.6652928 0.8936105 0.32878786 -0.99823123
000170 69 7a 41 3f 80 d8 ff 3f 43 fd 8d be c4 56 51 3f
       0.7557741 1.9987946 -0.27732286 0.8177302
000180 35 04 7f bf 24 40 2c 3f e5 99 20 bf 09 4c 05 3c
       -0.99615794 0.6728537 -0.62734824 0.008135804
000190 fa f9 19 3f 40 29 29 3f ea a4 8c 3e e4 cb f7 3f
       0.6014706 0.6607857 0.2746957 1.9359097
0001a0 7c e7 b4 3f d1 37 c9 be 2a 0c 17 3e a0 6b ca bf
       1.4133143 -0.39300397 0.14750734 -1.5814095
0001b0 be 9d 4f bf 8e 1b 2f 3f 61 e4 f3 3e 86 e2 8a 3d
       -0.8110007 0.6840142 0.47635177 0.06781487
0001c0 c6 fd 14 3f 72 85 bb 3f 30 7b 8d 3e fd 26 0a 3f
       0.5819973 1.4650099 0.27633047 0.5396574
0001d0 12 27 95 be 9a 1d 7b bf 95 7a c6 be 0f 5c 7d be
       -0.2913137 -0.98092043 -0.38765398 -0.24742149
0001e0 e7 83 a3 3f 18 57 37 bf a8 72 0d 3f 58 e8 6a 3d
       1.2774628 -0.7161727 0.55253077 0.057350487
0001f0 fa bf 63 3f d2 bb 35 bf 77 b6 68 bf 1e 51 2a bf
       0.8896481 -0.70989716 -0.9090342 -0.66530025
000200 96 a8 c0 be fd c4 1b 3d b3 0f b1 bf b3 6c 0a bf
       -0.3762862 0.03802966 -1.3832916 -0.5407211
000210 03 a1 20 c0 81 bd c3 bb f9 3b 9e 3f 95 ab b7 3e
       -2.5098274 -0.0059735184 1.2362052 0.35873094
000220 00 db c6 bf b0 36 c1 3e 37 b5 13 40 19 bd 7d be
       -1.5535583 0.37737036 2.3079355 -0.24779166
000230 ea 95 ad bf fd ad 8a 3f 01 fc b0 bf b5 ac 9d bf
       -1.3561375 1.0834347 -1.3826905 -1.2318331
000240 84 43 47 bf ee 14 e2 bf a9 0f e1 3e 2e 6e ad 3e
       -0.77837396 -1.7662637 0.4395726 0.33873123
000250 8b 93 08 40 1e 7f c1 bd c7 d1 07 bf e7 42 e4 3f
       2.1340053 -0.09448074 -0.5305447 1.7832917
000260 f6 f6 22 c0 24 74 14 40 ac c2 a5 bf 9c 92 ce 3e
       -2.5463233 2.3195887 -1.2950034 0.4034623
000270 d8 ba 9c 3f d6 f0 09 c0 75 2d dd bf 21 4a 8b 3f
       1.224452 -2.1553245 -1.7279497 1.0881997
000280 d6 f0 28 be 4d 67 db 3f d9 17 ae 3f be 74 82 bd
       -0.16498122 1.71409 1.3601028 -0.06369923
000290 de 63 1b 3d bf de 06 b9 f8 84 ea bf e0 a8 a1 bf
       0.037937038 -0.00012862215 -1.8321829 -1.2629662
0002a0 c3 12 b9 bf c2 3e 20 c0 44 2e 88 bf a6 3c 7a 3d
       -1.4458851 -2.5038304 -1.0639119 0.061092995
0002b0 8e 09 15 c0 3c 0d 74 bf 82 eb 6d 3f 75 68 ac 3e
       -2.3287082 -0.95332694 0.9293748 0.33673444
0002c0 c2 0d 8c 3f ba 72 7c bf 04 0d 83 3e 03 cc 39 bf
       1.0941699 -0.9861256 0.25595868 -0.7257692
0002d0 b5 72 49 3f 36 eb 9f bf 46 30 bb 3d b4 42 0e bf
       0.78690654 -1.2493656 0.09140067 -0.5557053
0002e0 db 35 e8 bf 44 54 1d 40 d6 f7 30 3f 30 e3 ec be
       -1.8141435 2.4582682 0.6912817 -0.4626708
0002f0 e4 1a ee 3e bb b5 ac bf bd 4e 36 c0 78 db a9 3f
       0.4650489 -1.349296 -2.8485558 1.3270102
000300 a2 e6 49 c0 c5 bc 98 3f 31 45 ab 3e 2a 36 3b 40
       -3.1547017 1.1932608 0.33451226 2.925181
000310 db 0b e7 3e d2 e6 21 bf 17 37 f8 be e6 70 5a 3f
       0.45126233 -0.6324283 -0.4847953 0.8532852
000320 56 fb b2 3f bc 1e e7 3d 1b 42 a5 bf 14 6b bd bd
       1.3982952 0.11285159 -1.2910799 -0.09248939
000330 fe b7 2d 40 93 2d 47 3f 61 ad eb 3f f9 4a 8b bf
       2.714355 0.77803916 1.8412286 -1.0882255
000340 76 e9 9c 3f 2f 70 d3 3f 6a 9c be 3f 1d 52 a0 bf
       1.2258747 1.6518611 1.4891484 -1.2525059
000350 68 3d be 3f 5d ba b6 3c 78 fe 90 3c 5f c4 fd bf
       1.486249 0.022305662 0.017699465 -1.9825553
000360 c8 89 0a bf 40 03 51 c0 5a d5 6f 3f 06 4c 2c 3f
       -0.5411649 -3.2658234 0.93684924 0.673035
000370 95 34 d7 bf 4e c4 81 bf df f8 81 3f af d7 bd 3f
       -1.6812922 -1.0138032 1.0154074 1.4831446
000380 6c 2a 07 c0 b2 14 f2 3e f3 70 bb 3f 2d 13 be 3f
       -2.1119642 0.47281414 1.4643844 1.4849602
000390 da 9e 2a 3f d7 af c2 bf 4d d3 c3 bf cd 96 93 bf
       0.6664864 -1.5209912 -1.5298859 -1.1530396
0003a0 d3 c4 3d 3f 12 d4 76 bf b6 4a 67 bd d1 8d cb bf
       0.74128455 -0.96417344 -0.056467734 -1.5902654
0003b0 5a 62 f9 bf b4 e0 6c 3f bc 1f 56 bf 30 fd a6 3f
       -1.948314 0.9253037 -0.8364217 1.3046017
0003c0 b3 cd 56 3f a9 aa ee 3f 2e d7 fb bd 4d 14 44 3e
       0.8390762 1.8645831 -0.12296902 0.19148369
0003d0 67 4a 18 be 44 6a b6 40 fe d1 e9 3e 30 e9 cc 3d
       -0.14872132 5.700472 0.45668024 0.100054145
0003e0 6b c7 3f 40 a2 e0 30 be 2f 31 45 bf b4 61 6c bf
       2.9965465 -0.1727319 -0.77028173 -0.92336583
0003f0 fa 3d 50 3f 83 c4 c2 3f c0 a9 2d 40 06 e4 67 be
       0.8134457 1.5216221 2.7134857 -0.22645578

weight f4 [32]
000000 00 00 80 3f 00 00 80 3f 00 00 80 3f 00 00 80 3f
       1.0 1.0 1.0 1.0
000010 00 00 80 3f 00 00 80 3f 00 00 80 3f 00 00 80 3f
       1.0 1.0 1.0 1.0
000020 4f e1 71 3f 4b 88 10 40 e9 f0 bf bd ef b7 2a 3f
       0.9448442 2.2583187 -0.09372122 0.6668691
000030 c2 f1 d6 be b0 72 0c 40 62 a3 1f bf dc 02 17 40
       -0.41981322 2.1945 -0.6235868 2.3595495
000040 00 00 80 3f 00 00 80 3f 00 00 80 3f 00 00 80 3f
       1.0 1.0 1.0 1.0
000050 00 00 80 3f 00 00 80 3f 00 00 80 3f 00 00 80 3f
       1.0 1.0 1.0 1.0
000060 48 d7 b5 3f f5 2b 5a 40 36 c7 02 bf 99 fd 4b 3f
       1.4206324 3.408933 -0.5108522 0.79683834
000070 3e be ad 3f 54 e7 af 3f c1 f4 1c bf 6f 15 5b 3f
       1.3573682 1.3742471 -0.61310965 0.8557958

bias f4 [32]
000000 00 00 00 00 00 00 00 00 00 00 00 00 00 00 00 00
       0.0 0.0 0.0 0.0
000010 00 00 00 00 00 00 00 00 00 00 00 00 00 00 00 00
       0.0 0.0 0.0 0.0
000020 11 9e 61 40 bb 29 fe 3f 57 42 84 3f 22 3f d8 3e
       3.5252726 1.9856485 1.0332745 0.42235667
000030 ef 0e 65 3f aa 6b 6e 3e ba 21 7b be a2 09 57 3e
       0.8947591 0.23283258 -0.24524584 0.20999768
000040 00 00 00 00 00 00 00 00 00 00 00 00 00 00 00 00
       0.0 0.0 0.0 0.0
000050 00 00 00 00 00 00 00 00 00 00 00 00 00 00 00 00
       0.0 0.0 0.0 0.0
000060 1b fd 66 40 28 a8 02 3f 8b d1 a7 bf ec 60 13 c0
       3.6091983 0.51037836 -1.3110822 -2.3027906
000070 c2 48 1d c0 f9 11 d2 3f 24 fe 13 c0 a0 a1 ef 3f
       -2.4575658 1.6411735 -2.3123865 1.8721199

running_mean f4 [32]
000000 2a a7 cd 3f ff 4e 6a 3e c1 4b 10 3f 53 67 68 c0
       1.606664 0.22881697 0.5636559 -3.6313064
000010 59 6f 77 c0 10 4a 0b 3f 98 5c 6f c0 26 2b 17 40
       -3.8661711 0.54409885 -3.7400265 2.3620086
000020 2a d9 86 c0 78 7c 8c 40 f1 bd bc be 94 85 9a 40
       -4.2140093 4.390194 -0.36863664 4.828806
000030 ab 34 fc 3f 51 97 78 40 fe a0 23 40 b5 60 2e c1
       1.9703573 3.8842356 2.5567012 -10.89861
000040 77 8b 1c 40 e2 a9 bd bf 6b 4d 52 40 cf f8 4f bf
       2.4460123 -1.4817469 3.2859752 -0.81239027
000050 98 90 fb 3f 14 ef 4a 3d a2 54 19 c0 90 97 b1 3f
       1.9653502 0.04954441 -2.3957906 1.3874378
000060 88 88 05 bf 1c e9 7e bf 6f 78 d0 c0 71 34 e8 40
       -0.52161455 -0.99574447 -6.5147014 7.2564015
000070 98 bc e0 c0 4e d7 0f 3f 7e ae e7 bf e3 bc 16 40
       -7.0230217 0.56187904 -1.8100126 2.3552787

running_var f4 [32]
000000 f5 e8 14 41 43 72 40 41 1a 1c 08 40 7f 6a e2 41
       9.306874 12.027896 2.1267152 28.302
000010 38 c1 14 41 b3 41 19 41 94 9d 9d 41 cf 71 ae 41
       9.297173 9.57854 19.701942 21.80557
000020 92 e1 22 43 c3 80 27 43 5c da 9f 42 b7 1d 24 43
       162.88113 167.50298 79.92648 164.11607
000030 e4 da 40 43 17 b8 c5 42 f3 e8 aa 42 e1 90 9c 43
       192.85504 98.85955 85.45498 313.13187
000040 5e 91 5e 41 da 05 82 41 bf 2c a2 41 90 ec 3c 40
       13.91049 16.252857 20.271849 2.9519386
000050 6b 62 a5 41 ec cd a7 40 1c ed 54 41 a8 8a 64 41
       20.673056 5.243887 13.307888 14.283852
000060 43 64 18 43 01 63 c9 43 0d 73 5c 42 2e 8d 21 42
       152.39165 402.77347 55.112354 40.38787
000070 61 9e 4c 43 07 44 49 43 b6 c7 16 43 a2 b6 41 43
       204.61867 201.26573 150.78012 193.71341

weight f4 [32]
000000 dc 63 cf 3f 78 24 a9 be 22 16 98 3f 7c 40 3f 40
       1.620235 -0.33035636 1.1881754 2.9883108
000010 30 a8 16 40 1f 23 16 40 30 19 c8 3f 15 fe 4c 3f
       2.3540154 2.3458936 1.5632687 0.800752
000020 eb bd 4a 3f e8 4b dd be 0d db 76 3e 5a bc 26 40
       0.7919604 -0.43221974 0.24106999 2.605246
000030 64 c6 a3 3f 37 30 7b 40 1e ec 23 40 27 74 01 bd
       1.2794919 3.9248178 2.5612864 -0.031604912
000040 6e df da 3f 68 78 4a be cc 97 ef 3f 69 cf e0 40
       1.7099435 -0.19772494 1.87182 7.0253186
000050 ad 29 36 40 00 4a 01 40 1e 75 da 40 05 a9 d6 bf
       2.8462937 2.0201416 6.8267965 -1.6770331
000060 b1 1f d2 3f ac 0e 6c 3f 02 c0 d4 bf 32 25 12 3f
       1.6415921 0.9220989 -1.6621096 0.57088006
000070 c7 59 63 40 b3 14 dd 3f 70 99 aa 3f 27 66 19 3f
       3.5523546 1.7271942 1.3328075 0.599215

bias f4 [32]
000000 7d 53 f4 3e 7f c5 0a bf 86 0d 2e c0 75 a3 e2 3f
       0.47719947 -0.54207605 -2.7195754 1.7706133
000010 aa 65 15 bf c4 29 5d 3f a3 17 01 c0 03 19 cb be
       -0.5835825 0.86391854 -2.0170677 -0.3966752
000020 75 d1 8b 3f d2 3f 2b 3f d8 bd ce 3f 5b a6 b9 be
       1.0923296 0.6689426 1.6151686 -0.36259732
000030 25 20 17 c0 c7 8b f5 3f f6 b5 a1 bf 2a cd 14 bf
       -2.361337 1.9183282 -1.2633655 -0.58125556
000040 54 c5 14 40 13 a5 10 c0 3c 68 5c bd 65 13 e2 be
       2.324544 -2.2600753 -0.053810343 -0.44155422
000050 ea 52 e9 3e cd 21 00 bf b5 bf 4c bf 53 59 ce 3e
       0.4557107 -0.50051576 -0.7998002 0.40302524
000060 1f bb a2 bf d3 f8 1e c0 05 ae 0f bf 5c 01 8c 3f
       -1.2713355 -2.483937 -0.5612491 1.0937915
000070 8c 4a 17 bf 02 5f be 3f fa ab ad 3f 7e 06 39 c0
       -0.59098125 1.4872744 1.3568108 -2.8910213

running_mean f4 [32]
000000 79 66 c2 3f 94 b7 b5 3f ac 59 5d 3f a5 9f 12 40
       1.5187522 1.4196649 0.86464953 2.290994
000010 0f c5 2c bf 7b ad 5d bf 72 cf 14 c0 37 45 40 40
       -0.6748819 -0.86592835 -2.3251615 3.0042245
000020 c9 b2 7a 3f 7e 71 9a bf 59 71 af 3d 33 2f b9 bf
       0.97929054 -1.2065885 0.08566541 -1.4467529
000030 5d 6a 91 3e 1f e2 27 3f 8e d0 20 3e fd f2 ce bf
       0.2840146 0.6557941 0.15704557 -1.6167904
000040 1e 10 a1 3e 22 59 db bf 01 ba cc 3f c0 6a 1f 40
       0.3145761 -1.7136576 1.5994264 2.4908905
000050 b8 fe 16 3f 4b 39 16 bf b9 f6 f0 3f 8e 47 c1 bf
       0.5898242 -0.5868117 1.8825294 -1.5099962
000060 89 45 94 3f 1a c0 4c c0 a4 b7 9b 3f b6 a6 60 3f
       1.158372 -3.199225 1.2165418 0.8775438
000070 d8 81 3e bf cb 30 2a bf ea 5e ad bf d0 40 8e 3f
       -0.74416876 -0.664807 -1.354459 1.1113529

running_var f4 [32]
000000 40 d2 be 40 2c c2 b7 40 8b 24 dd 40 b5 e9 ae 41
       5.9631653 5.7424526 6.910711 21.864115
000010 13 e3 59 41 66 c1 7c 41 0b 8c d6 41 60 87 30 42
       13.617938 15.797216 26.81838 44.132202
000020 bf 74 3d 40 32 bf 3e 41 db 56 15 40 ad c6 2b 41
       2.9602506 11.921679 2.3334262 10.736005
000030 a1 d3 0c 40 7a 85 07 40 ad 54 1a 40 87 14 63 41
       2.2004168 2.1175218 2.4114182 14.192512
000040 a7 f5 19 41 62 8c 84 41 40 3e 2b 41 10 da e6 41
       9.622474 16.568546 10.702698 28.856476
000050 11 46 fb 40 b1 f1 25 41 f9 04 85 41 bf d7 a7 41
       7.852303 10.371507 16.627428 20.980345
000060 e4 a2 4b 41 be 76 86 42 e5 2b 01 41 70 44 00 41
       12.727268 67.23192 8.073216 8.016708
000070 18 6a 13 41 24 74 ea 40 e5 48 56 41 e2 73 9f 40
       9.213402 7.3266773 13.3927965 4.982896

weight f4 [32]
000000 cc e5 56 3f 1e c4 99 3f 11 01 b4 bf de 7f 09 3e
       0.8394439 1.2012975 -1.4062825 0.13427684
000010 56 98 0f 40 41 dd 86 be f7 26 f1 3d 21 a0 f3 3e
       2.2436728 -0.26340678 0.1177501 0.47583106
000020 20 e4 30 40 e7 ec 09 3f 18 18 4c 40 6d 1d 1a 40
       2.7639236 0.5387711 3.1889706 2.408046
000030 0e 8c ac 3f 92 e6 62 40 26 2c 5b 3f 61 d5 f2 be
       1.3480241 3.545323 0.8561424 -0.4742842
000040 21 c6 0a bf b6 87 0c 40 7a dd 0b c0 38 af bf 3f
       -0.5420857 2.1957831 -2.1853929 1.4975348
000050 4d f0 8c bd 0d d4 7b 3e 01 03 24 40 c0 a8 2e bf
       -0.06881771 0.2459261 2.5626833 -0.6822624
000060 7b c3 2a 40 d2 6d f7 be 4d 47 17 40 16 f3 03 40
       2.6681812 -0.48325974 2.3637269 2.0617118
000070 dc 3c 82 3f 59 45 24 40 91 c2 c1 3f 7b 2a 79 3d
       1.0174823 2.5667326 1.5137502 0.06083153

bias f4 [32]
000000 f2 a4 26 bf e5 8a 12 bf 9f 63 1e c0 a9 f6 55 3f
       -0.65095437 -0.57243186 -2.4748304 0.835795
000010 43 cf db bf 43 01 7a 3f a7 92 eb bf 15 02 ab be
       -1.7172626 0.97658175 -1.840413 -0.33400026
000020 78 24 36 40 dd ea 76 bf 26 47 03 bf 64 0d ac bf
       2.8459759 -0.9645212 -0.5128044 -1.3441586
000030 d3 3c b5 bd 07 a9 83 3e 84 89 d0 bd 99 25 a5 be
       -0.08849492 0.25714895 -0.10182479 -0.32255247
000040 a1 ab 15 3f 38 31 17 be 6a 82 cd 3f 10 36 16 be
       0.5846501 -0.14764869 1.6055424 -0.1466906
000050 39 78 2c 40 aa 64 04 bf 3e a7 54 c0 d4 22 b5 bf
       2.6948378 -0.517161 -3.3227077 -1.4151254
000060 8c c8 6e 3f de 01 ff bf 26 ac b1 3f 78 84 35 bf
       0.9327476 -1.9922445 1.388066 -0.70905256
000070 ec 47 eb 3f 41 13 ab 3d bb ba 21 c0 03 f9 d7 bf
       1.8381324 0.08353282 -2.5270221 -1.6872867

running_mean f4 [32]
000000 33 a4 6d c0 53 f8 c0 40 00 9c e1 bf 09 8d 73 40
       -3.713147 6.030313 -1.7625732 3.805483
000010 4c 8e 20 40 14 11 20 40 57 d6 48 3f d0 c5 41 c0
       2.508685 2.5010424 0.78452057 -3.0276985
000020 0f 39 48 3f 03 4b 3a bf 5f aa 21 40 4c c1 13 c0
       0.78212065 -0.7277071 2.5260236 -2.308673
000030 37 8a 29 3f 5d 2d c5 3f ee c3 9c 40 5f ee 15 3f
       0.66226524 1.5404469 4.898917 0.5856685
000040 f7 c1 99 bf 97 b3 ef 3e b4 09 bc c0 77 d7 4b 40
       -1.2012318 0.46816704 -5.8761845 3.185026
000050 6a 47 a0 c0 92 be ae c0 48 21 c2 40 74 e2 a6 c0
       -5.0087175 -5.460763 6.0665627 -5.215143
000060 4a bb a4 40 a4 a4 51 c0 6e ac a5 40 e8 ca ce c0
       5.1478624 -3.2756739 5.1772985 -6.462269
000070 e1 9a 59 40 15 17 c0 be 89 e6 eb bf e0 59 f5 3f
       3.400078 -0.3751761 -1.8429729 1.9168053

running_var f4 [32]
000000 cf 7f 32 41 62 ee de 42 e9 a0 b5 41 58 be 58 43
       11.156203 111.46559 22.70357 216.74353
000010 f6 f8 03 43 7a 1d fa 42 f0 aa ad 41 3d c7 2d 43
       131.9725 125.05757 21.708466 173.77827
000020 51 18 41 43 5d a3 f9 42 f0 c6 89 43 75 d1 15 43
       193.09499 124.81907 275.5542 149.81819
000030 40 07 f7 42 9c bc b2 43 9c b5 72 42 a4 75 9f 42
       123.51416 357.4735 60.677353 79.72977
000040 74 65 7f 43 ee 25 7a 43 1b 4d 4b 42 17 a9 8d 42
       255.3963 250.14816 50.8253 70.83025
000050 24 97 11 43 60 ec 4e 42 16 d8 a9 42 9b af 30 43
       145.5904 51.730835 84.92204 176.68596
000060 a3 6d 7b 43 6d 02 6b 43 25 b5 52 43 d6 e1 c1 42
       251.42827 235.00948 210.7076 96.941086
000070 88 be 31 43 69 d5 ea 42 ef ce 68 42 aa 49 05 42
       177.74426 117.41682 58.202084 33.321938
