04_Experiments/2022_08_02 10-12-49 100-runs-optimizer_params-custom_loss/models/Model_run81_optimizer_params0.01_alcalinity_of_ash.pt (torch, 275873 bytes, 318 tensors)

weight f4 [12]
00000000: 0000 803f 0000 803f 0000 803f 0000 803f
00000010: 0000 803f 0000 803f 0000 803f 0000 803f
00000020: 0000 803f 0000 803f 0000 803f 0000 803f
1.0 1.0 1.0 1.0 1.0 1.0 1.0 1.0
1.0 1.0 1.0 1.0

bias f4 [12]
00000000: 0000 0000 0000 0000 0000 0000 0000 0000
00000010: 0000 0000 0000 0000 0000 0000 0000 0000
00000020: 0000 0000 0000 0000 0000 0000 0000 0000
0.0 0.0 0.0 0.0 0.0 0.0 0.0 0.0
0.0 0.0 0.0 0.0

running_mean f4 [12]
00000000: 0000 0000 0000 0000 0000 0000 0000 0000
00000010: 0000 0000 0000 0000 0000 0000 0000 0000
00000020: 0000 0000 0000 0000 0000 0000 0000 0000
0.0 0.0 0.0 0.0 0.0 0.0 0.0 0.0
0.0 0.0 0.0 0.0

running_var f4 [12]
00000000: 0000 803f 0000 803f 0000 803f 0000 803f
00000010: 0000 803f 0000 803f 0000 803f 0000 803f
00000020: 0000 803f 0000 803f 0000 803f 0000 803f
1.0 1.0 1.0 1.0 1.0 1.0 1.0 1.0
1.0 1.0 1.0 1.0

weight f4 [12]
00000000: 7b23 773f c5ab 6d3f 7f33 813f f6a6 7c3f
00000010: e98b 6d3f 4582 8c3f f811 823f c159 8e3f
00000020: f09e 893f 431b 7e3f 0d66 773f d455 713f
0.96538514 0.92840225 1.009384 0.9869226 0.9279161 1.0977255 1.0161734 1.1121141
1.0751629 0.9926035 0.9664009 0.9427159

bias f4 [12]
00000000: 97ab 21bd 8075 1e3e 0f73 ab3b 2c38 54bd
00000010: aed0 223d 8f52 3bbd 9a58 20be 13e8 033e
00000020: d8d2 a13c a71f e33d 7f34 2cbe 6594 14be
-0.03947028 0.1547451 0.005232222 -0.051811382 0.039749794 -0.04573303 -0.15658799 0.12881498
0.019753858 0.110900216 -0.168169 -0.14509733

running_mean f4 [12]
00000000: c524 cc3e dc10 733f 2e0b 1243 8ec4 993e
00000010: b0c9 1e40 fd4f 3c3e e9d6 9941 f89b df3e
00000020: 462e 013f ac4f 863d a2dd e03e 9128 e83e
0.39871803 0.949476 146.04367 0.30032772 2.48106 0.18389888 19.229937 0.43673682
0.5046123 0.06558165 0.43919092 0.4534345

running_var f4 [12]
00000000: 934a 7c3f 1e9c e33f ee52 9546 8a39 5e3f
00000010: 48b1 6a3f 6eb4 513f cb4e 1c42 09f8 613f
00000020: 1bf3 683f 64eb 4f3f 1b74 833f d388 533f
0.9855129 1.7782018 19113.465 0.8680655 0.9167676 0.8191594 39.076946 0.88269097
0.9099595 0.8121855 1.0269808 0.8263065

weight f4 [32, 12]
00000000: d23c 1e3f f1eb 723e 3ba8 273f bd8d a63d
00000010: 2182 7bbf dfac a13e 3577 87be 1025 d4be
00000020: c870 223d a091 cf3f 020d 82bf 0bc8 62bd
00000030: 71ac 2b3e 9925 28bd 6052 8a3e 6d71 f73e
00000040: b884 36bf 9e77 9bbe 6205 683f 4213 db3e
00000050: b17b ec3e 7da8 2dbc 34b5 b7bf be30 99be
00000060: 6cd8 9c3b 8345 bb3e 509a 32bf b9d2 2f3e
00000070: 5e5d 2d3e 3244 e9bf 3024 84be 7d85 f03e
00000080: 79ae 6d3e ac3b 8a3f 064a e13e 64b0 9ebf
00000090: 7f31 953f 451b fa3d 1087 b93d 624a 7fbf
000000a0: ac25 9dbf 3e1f 6cbc 8c56 223e 2d37 063f
000000b0: dcea 223f 13b0 703f 2c00 4abd c7de fbbe
000000c0: 5a2c a7bf 8312 7c3f 59f9 333f ce84 193f
000000d0: 1e71 1a3f 44ee b53e 1987 d8be 0f3b ea3f
000000e0: 13a6 a2be 6c46 92be 2622 0f40 b993 813f
000000f0: 96a6 7dbf 2c4e af3f 13b0 eebe 1dc2 b9be
00000100: b0c1 41bf a317 c53d 7532 0bbf bbcc d13d
00000110: dd31 09bf 2bf2 d6be 983f 61bf ab16 58bf
00000120: 86c3 2cbf e3ee 0cbf 4e4e d1bd 39e5 efbe
00000130: fcf3 443e 2c1e 9ebf dd40 32bf ff3e 4cbe
00000140: 5ae3 6d3e 3afc c5bf 3009 16bf 9c74 183e
00000150: 0017 0abe 7139 acbe fe37 20be d505 8cbf
00000160: 81dc b53f bea4 c83f c9f0 ba3f 03f2 47bf
00000170: eec5 203f c62e d93f 414a 1dbf 2834 9c3d
00000180: c1c8 593f be55 533d 4db4 ac3d 7f18 493f
00000190: b8d5 11be b223 3e3e a058 133f 79d6 ff3e
000001a0: b927 023f b9a5 d63e 7924 0b3f 6779 633f
000001b0: 8c3d 983f 586c 54be c2e8 203d b1e8 73bf
000001c0: 4601 1cbd f6d9 503f 8aaf 0b3f 5c48 7cbf
000001d0: 27ed f33d f440 aebe 91c9 a8bd 99b0 313f
000001e0: 024e babe 3230 b0bd 2427 82be 8f5f 7a3f
000001f0: 7b42 d43e 1e5f bfbe 3f91 3ebe b580 9dbe
00000200: fd5f 86bf d6a8 22bd 0ec0 513e 3df2 a43e
00000210: d53a 593c 4615 1abe 77e1 bdbe 1c1b 433d
00000220: 7b53 7b3f 803c 78bf 42f3 91be 981d d8be
00000230: 9b4c bdbf 211d 11be 1a61 bf3e e514 e03e
00000240: 111d e3be 82c0 2a3f e80f d3bf f233 00bf
00000250: 9dd6 dabe 2c56 59bf 7be5 fd3d 4fdb 3cbe
00000260: 507c 1abf 4a48 2e3f ecf8 9c3e 5516 fc3e
00000270: 443d 06bf 067e c23e a5e5 303f 77c8 133f
00000280: 913d 403f 3587 8f3f 1caa 0dbf 394c 943e
00000290: 9e1f 0e3f 4251 d7be 6a22 47bf 33dc cf3e
000002a0: eeaa c93e 27c2 e53d b292 6e3f 8ae7 20bf
000002b0: 22d0 b9bf 4a14 47bf d825 7ebf 177c 163f
000002c0: adf3 983e 8c00 073f 077a 173e 5390 bfbd
000002d0: 5082 953d ae72 66bf a936 5a3f 330c 1a3f
000002e0: 52ff 0bbf 9135 4f3f c2a0 553e 1258 a63e
000002f0: ce2f 78be dcfd 22bf 8a6a e63e 4e2f 19bf
00000300: a6e0 1c3f 444a e7be 35c1 473f 243b 433f
00000310: 4e51 99bf 5136 8dbf d8cf b03c b8ab 9f3f
00000320: e490 1fbe 6f20 c23f ea5d 6abf faf7 0dbf
00000330: 9008 913f ea36 4e3c 6d25 883d eb1e c5be
00000340: 31ba 6f3e 010a 6dbf 8153 4bbe 18f8 c23e
00000350: 33c2 f9be 2c40 7dbf d607 b83e e758 abbe
00000360: 1b13 91bf c261 913f f9df a1bd 0cc4 e73e
00000370: a738 db3d 9e83 0cbf 16f3 cebe 822f 86bf
00000380: c27a 3c3f cc8c 993f cf91 dfbd 7680 813f
00000390: 0ca4 8abf d567 81be 674c e3be 4cb2 61be
000003a0: 1988 75bf 3996 823e 6aeb b9bf 51e2 083f
000003b0: 5dfa e13f 89a2 143f f6a9 673f 50be 5c3f
000003c0: e56c bfbe 9a2a 0f3e 3652 4b3f 480d dc3d
000003d0: f3b0 ef3e f530 903e d2eb 323e 1e78 b5be
000003e0: 9044 1dbc a2e6 e8bd 8179 11bd 89b5 dcbf
000003f0: e9fc 23bf e822 b4be 1d31 293f 207d c6bd
0.61811554 0.23722817 0.65491074 0.08132503 -0.98245436 0.31577203 -0.26458135 -0.41434526
0.039658338 1.6216316 -1.016022 -0.055366557 0.16765 -0.04105148 0.27015972 0.48328725
-0.7129626 -0.30364698 0.90633214 0.4278813 0.4618812 -0.010599253 -1.4352174 -0.2992
0.0047865417 0.3657647 -0.6976671 0.17170228 0.16930148 -1.8223937 -0.2580886 0.46976843
0.23211087 1.079946 0.44001788 -1.239758 1.165573 0.122122325 0.09058964 -0.99722874
-1.2277122 -0.014411746 0.15853328 0.5242794 0.63639617 0.9401867 -0.04931657 -0.49193403
-1.306041 0.98465747 0.7030235 0.5996827 0.60328853 0.35533345 -0.4229057 1.8299273
-0.3176733 -0.28569353 2.2364593 1.0123206 -0.99082315 1.3695731 -0.4661871 -0.3628091
-0.7568617 0.09623649 -0.54373866 0.10244127 -0.5359171 -0.41981634 -0.8798766 -0.8440959
-0.67485845 -0.5505201 -0.102200136 -0.4685457 0.19233698 -1.2352958 -0.69630224 -0.19945906
0.23231259 -1.5467598 -0.5860777 0.14888233 -0.13485336 -0.33637574 -0.1564636 -1.093928
1.4207917 1.5675275 1.4604732 -0.78103656 0.62802017 1.6967399 -0.6144143 0.076271355
0.8507195 0.051595442 0.08432827 0.78553003 -0.14241683 0.18568304 0.57557106 0.49968317
0.5084186 0.4192331 0.5435253 0.8885712 1.1893783 -0.20744455 0.039284475 -0.95276934
-0.038087152 0.8158258 0.54564726 -0.9854791 0.119104676 -0.3403393 -0.08241571 0.6941009
-0.3638764 -0.086029425 -0.25420487 0.9780206 0.4145697 -0.37377256 -0.18610094 -0.30762258
-1.0498043 -0.039711796 0.2048342 0.32216063 0.013258656 -0.15047178 -0.3708608 0.047633275
0.98174256 -0.96967316 -0.28505903 -0.42210078 -1.4789003 -0.14171268 0.3737877 0.4376594
-0.44358113 0.66699994 -1.6489229 -0.5007926 -0.42741862 -0.8489711 0.123972856 -0.18443035
-0.60345936 0.68079054 0.30658662 0.49235788 -0.52437234 0.37986773 0.6910041 0.5772776
0.7509394 1.1213137 -0.5533769 0.28964403 0.55516994 -0.42054182 -0.77786887 0.40597686
0.39388222 0.11218672 0.9319259 -0.628533 -1.4516642 -0.77765334 -0.99276495 0.58783096
0.2987341 0.5273521 0.14792643 -0.093536995 0.07300246 -0.9001874 0.85239655 0.60174865
-0.5468646 0.8094111 0.20862105 0.32489067 -0.24236986 -0.6366861 0.45003158 -0.59837806
0.61280286 -0.45173848 0.78029186 0.76262116 -1.1977937 -1.1032201 0.021583483 1.2474279
-0.15582615 1.5166148 -0.9154955 -0.5545651 1.1330738 0.012586335 0.066477634 -0.3850015
0.2341087 -0.9259339 -0.19856073 0.38079906 -0.48780975 -0.98926044 0.35943478 -0.33466265
-1.1333956 1.1357958 -0.079040475 0.4526676 0.10704165 -0.5488833 -0.40419835 -1.0483248
0.73624814 1.1996093 -0.10916483 1.0117328 -1.0831313 -0.2527453 -0.44394228 -0.22040671
-0.95910794 0.25505236 -1.4524968 0.5347033 1.765453 0.5806051 0.90493715 0.86227894
-0.37387767 0.13981095 0.7942232 0.10744721 0.4681469 0.2816235 0.17472771 -0.35443205
-0.009598866 -0.11372115 -0.035516266 -1.72429 -0.64057785 -0.3518288 0.66090566 -0.096918344

weight f4 [32, 16]
00000000: e6b8 4dbe b2b6 bf3f bb09 f83e b94d b1be
00000010: 1878 b1bf 7cba 2c3e ed52 693f 3a31 0c3f
00000020: 6660 7b3d ff15 803e 0aea 703e bfc8 de3d
00000030: 5972 333f fbd3 5fbe d520 01bf ab22 bc3f
00000040: c9dd 383f 1955 8abe db75 803f a54c a23f
00000050: b4db c8be c605 efbe c98a eabe 1d6f 5ebe
00000060: 0b6c b3bd 4ef5 32be 693a f8bd a536 0c3f
00000070: d40d fa3e cd82 1b3f 1f26 28bf 7abb d43d
00000080: 08a7 5bbe 6a3f b2bf 465f cdbf 080d dfbf
00000090: f317 bd3e cf55 98bf 1d45 2cbd bf6f 05bf
000000a0: 4082 c03e 5ee4 0a3f 1ad9 04bf 3b05 d6bf
000000b0: 461b 883f e3ae 493f 93d0 bc3e d122 473f
000000c0: 008b ee3e 382e fc3e 4865 14bf b9eb 1dbe
000000d0: 7532 cb3e dee5 ff3d a2fd 4fbe 1df1 613f
000000e0: 2755 fd3e 880c 6fbe 8766 8bbe 2eca 31bc
000000f0: e286 b9be bd9d 9dba 9b89 2cbd bacf 8dbf
00000100: 1235 5e3e b69b 9d3c 96e6 debe affd 0dbf
00000110: 5b2d ab3d 5ba2 89be 0764 123f d5bf 483f
00000120: fa7f be3f c8d2 613e ed90 6dbf 0e01 ddbe
00000130: 24f8 bbbe 5b23 9dbf 4aba fabe 5512 8c3f
00000140: 7979 39bf f0ea 6abf e958 ef3e 8b23 8d3d
00000150: 63ba bbbf c3e3 0abd 2f22 003f 6369 583e
00000160: e042 39bf 9b4c 76bf 1864 733e 276d 06bf
00000170: 3c92 d7bf 773b 74be 792c 273d 0cf8 263e
00000180: a2a5 51be 7843 4bbd 6b9c f239 d356 703f
00000190: 1a44 9c3e abaa 0b3f ea80 333f 8c49 5e3e
000001a0: 7747 f3bd 9959 0a3f 1e51 a43e 8325 1b3f
000001b0: 6ff2 3d3f 900f debd 1cfa cb3f ae48 68bf
000001c0: e9b0 053e a909 84bf 02c7 aabf eb36 97bf
000001d0: 44a8 e83e ce51 36bf 29d8 f83e 89e8 363d
000001e0: fb0b b7bf a417 513f 3f23 46bf 0d9e 823f
000001f0: b14c 89bf e35d c9bd b2f3 f5be 2941 97bd
00000200: 5953 38bf 7d9e 3f3f 30ab 4dbf c5eb 8c3b
00000210: eb1b 8cbf 6803 be3f 0200 5ebf f3cf 453f
00000220: 8ded 4cbf f23d 82be f214 27bf fd8f 0b3f
00000230: 533d 5a3f da41 cf3d 3726 4abb c7fa 3c3e
00000240: 59e3 24be 10f7 2abe c098 d6bf c642 09be
00000250: 7d35 40bf 35df 423f 92ab 22bf 9076 8bbe
00000260: 730b 643f 3452 613f c5f2 2dbf 7307 3dbf
00000270: c7b4 d1be e160 f0be c187 803e 9657 0fbf
00000280: 4e4b 403e 3023 2fbe f964 863f ae0b f43e
00000290: 78a4 c0be b2a2 30be 7baa 953d a09e 8a3e
000002a0: 4aad a1be 10bf a0bf 7b74 9bbf 83f4 72bf
000002b0: 737f 943e f7ae 2fbf 6449 ba3e 2d35 2b3e
000002c0: cbe8 2fbd 23dc e7bd 4b42 fabe 52cf 70bd
000002d0: e467 d8bf a5c1 723e 0a61 73bf a144 613f
000002e0: bc46 443f dcf5 e13e 217e e8bf dd93 323e
000002f0: 6060 20bf e3f5 3fbf 9085 64bd 9d90 b1bf
00000300: 2a3a d33d cbfc 733e 9fae 68bf c5de b33d
00000310: 8ed5 0b3f 6088 40bf 4282 08bf 0c54 6cbf
00000320: 0fed 2f3f 558b 86bf 1b05 9fbe 01e5 8a3e
00000330: 844a 19bf 1c7d 323f 1a5f f73d 8b0d a13f
00000340: a3ae 173e f8a9 a5bf 6033 06be 499d 623f
00000350: c762 bcbe 0f18 a4bf 7e10 793f 0e7c 843f
00000360: 682d d1b9 0e1e 3b3e e58d 133f 3547 53bf
00000370: cb7b 8fbf bdc7 cdbd f59d 8c3e 98b1 5d3e
00000380: d3f1 8abe 6a16 e43e 551b 973d 42b2 8dbe
00000390: bded 05bd 12f3 4fbf 805b 2bbf e2b4 223e
000003a0: d3b9 0e3e 9194 abbf 14a5 9fbf b8b7 d73b
000003b0: 1e33 883e ef4e b73f 6afe 523f cb7c df3e
000003c0: 1df5 a7be 43ff 4bbd 5728 653f cf7f 0dbe
000003d0: e356 54be 22bf 78bf 0e75 94bf 107a 97bf
000003e0: 851e 3a3e 5ed1 ac3f 0e4c 15be eb0a 703f
000003f0: e3b0 ab3e f043 0dbe 37c2 ac3f 0c0e 23bc
-0.20090064 1.4977629 0.48444924 -0.3462961 -1.3864775 0.16868013 0.9114216 0.54762614
0.06137123 0.25016782 0.23526779 0.10878133 0.70096356 -0.21858208 -0.5044072 1.469808
0.7221342 -0.2701805 1.0035967 1.267964 -0.3923012 -0.46684092 -0.4580901 -0.21722074
-0.08760842 -0.17476389 -0.12120516 0.5477088 0.48838675 0.6074646 -0.6568317 0.10387321
-0.21450436 -1.3925602 -1.60447 -1.7425852 0.36932334 -1.1901187 -0.0420581 -0.52123636
0.37599373 0.5425471 -0.5189377 -1.6720346 1.0633323 0.7878248 0.3687788 0.777875
0.46590424 0.49254012 -0.5796704 -0.15421952 0.39686933 0.124950156 -0.20311597 0.88258535
0.4947903 -0.23344624 -0.2722666 -0.010851426 -0.3623572 -0.0012025159 -0.04212342 -1.1079018
0.21699932 0.019239288 -0.43535298 -0.55465215 0.0835826 -0.2688168 0.5718388 0.7841771
1.4882805 0.22053063 -0.92799264 -0.43164867 -0.36712754 -1.2276415 -0.48970252 1.0943094
-0.7245098 -0.91764736 0.4674752 0.06891545 -1.4666256 -0.033908617 0.5005216 0.21133952
-0.7236767 -0.9621064 0.23768651 -0.52510303 -1.6841502 -0.23850809 0.040813897 0.1630556
-0.2047334 -0.04962489 0.00046274377 0.93882483 0.30520707 0.54557294 0.7011858 0.21707743
-0.11878865 0.54042965 0.32093138 0.60604113 0.7419805 -0.10842812 1.5935702 -0.907359
0.13055767 -1.0315448 -1.3341982 -1.1813635 0.45440876 -0.71218574 0.48602417 0.044655357
-1.4300531 0.816767 -0.7739753 1.0204483 -1.0726529 -0.098323606 -0.48037487 -0.07385475
-0.7200218 0.7485121 -0.80339336 0.004300567 -1.094602 1.484479 -0.8671876 0.7727043
-0.80049974 -0.25437886 -0.65266335 0.54516584 0.85249823 0.10119982 -0.0030845532 0.18455039
-0.16102351 -0.1669581 -1.6765366 -0.13404378 -0.75081617 0.76121837 -0.63543046 -0.27238894
0.8907997 0.88016057 -0.6794856 -0.7383949 -0.40958235 -0.46948913 0.25103572 -0.5599302
0.18778726 -0.17103267 1.0499564 0.4766516 -0.3762548 -0.17249563 0.07307907 0.27074146
-0.31577522 -1.2558308 -1.2144922 -0.94904345 0.29003486 -0.6862635 0.36384118 0.16719504
-0.042946618 -0.113212846 -0.48878703 -0.058791466 -1.6906705 0.23706682 -0.95069945 0.87995344
0.7667043 0.44132888 -1.8163491 0.17439218 -0.62647057 -0.7498457 -0.055791438 -1.3872257
0.10313828 0.23826902 -0.9089145 0.08782724 0.54622734 -0.7520809 -0.5332376 -0.92315745
0.687211 -1.0511271 -0.31058583 0.2712784 -0.59879327 0.6972215 0.12078686 1.2582258
0.14812712 -1.2942495 -0.13105536 0.8852125 -0.3679411 -1.2819842 0.9729079 1.0350358
-0.00039897417 0.18273184 0.5763839 -0.8253053 -1.1209654 -0.10047863 0.27464262 0.21649778
-0.27137622 0.4454835 0.0737826 -0.27675062 -0.032697428 -0.8123027 -0.6693649 0.15889314
0.13938074 -1.3404714 -1.2472253 0.0065831803 0.266015 1.4320964 0.82419455 0.43649897
-0.32804194 -0.049803983 0.8951468 -0.13818286 -0.2073627 -0.97166646 -1.1598222 -1.1834126
0.18175705 1.3501394 -0.14579794 0.9376666 0.3353339 -0.13795447 1.349677 -0.0099520795

weight f4 [32]
00000000: acc6 7c3f 9e5d 7e3f c701 843f 74b2 5c3f
00000010: 1349 7b3f c0dd 813f b492 873f abae 893f
00000020: 001f 833f 14ca 763f ef64 833f 01fd 6a3f
00000030: a9bf 813f bc29 823f 8308 7e3f c885 773f
00000040: 0edb 673f 4355 7f3f a837 7f3f 0632 803f
00000050: 11c1 673f 2a65 8e3f 90a2 7a3f c851 723f
00000060: 3b5d 7f3f 5d14 7b3f 4b55 7b3f fb8b 653f
00000070: 25c5 6f3f d69e 723f 8792 6e3f ae5e 733f
0.9874065 0.993616 1.0313042 0.862098 0.9815838 1.0145798 1.0591645 1.075643
1.0243835 0.96402097 1.0265177 0.91792303 1.0136615 1.0168986 0.9923174 0.9668851
0.90568626 0.99739474 0.996943 1.0015266 0.9052897 1.1124623 0.979043 0.9465604
0.99751633 0.98077947 0.9817702 0.8966672 0.93660194 0.94773614 0.93192333 0.95066345

bias f4 [32]
00000000: 5fbd 873d 570b a43d ef25 da3d cb7e a0bd
00000010: 8190 b93d fa9a 8f3b 2b70 ad3d e44c ee3c
00000020: fe78 33bd ed74 2cba 5efb 093c 3452 e4bd
00000030: df19 04bd 3c3c 5a3d 3cb0 cfbd c34b ef3b
00000040: 6297 4c3d 489c b7bc af18 bf3c 57c4 e0bd
00000050: 78f6 5c3d 6cc1 4dbd d5e9 163c 54db e03d
00000060: ec26 10bd d6aa 1fbd c677 0a3d 71f6 80bd
00000070: 1745 083d 8a9e 4f3d e8fa 953c cd32 283b
0.066279165 0.080099754 0.106517665 -0.07836684 0.09060765 0.0043824883 0.0846866 0.029089399
-0.04381656 -0.00065787026 0.008421747 -0.111484915 -0.032251235 0.0532801 -0.10141036 0.0073027327
0.049949057 -0.022413388 0.0233272 -0.10974949 0.05394599 -0.05023329 0.009211023 0.109793335
-0.03519337 -0.03898128 0.03380563 -0.06297005 0.033269014 0.050688304 0.018308118 0.0025665045

running_mean f4 [32]
00000000: 1e9c 5f3d d894 1b3d da9e cd3d 28df 303d
00000010: 8a8d 05bd 81ac df3d 2c48 803c 1423 1bbd
00000020: 45cc 48bd 0eef 9bbd 5bcd a5bc 1a1b 92bc
00000030: bf07 d83c bf65 973c 67f8 723d 86c6 74bd
00000040: 53c9 ae3d 67b6 123c 837f 0a3d f0b3 593b
00000050: 5332 ed3c 0bb0 f03b 4927 023c f5e2 90bc
00000060: 7936 c93c a45f 88bd 3d5d c23d 87d0 573b
00000070: c4f2 e6bc c92a cdbd 4d36 48bc 22af 073d
0.054592244 0.037983745 0.10040064 0.04318157 -0.032605685 0.109215744 0.015659414 -0.03787525
-0.04902293 -0.076139554 -0.020239523 -0.017835189 0.026370881 0.018481134 0.059318926 -0.05975964
0.08534493 0.008954621 0.03381301 0.0033218823 0.02895466 0.0073452047 0.007943937 -0.017686347
0.024562107 -0.06658867 0.0949044 0.0032930688 -0.028191932 -0.10017926 -0.012219978 0.033126004

running_var f4 [32]
00000000: 8804 0a40 fb8d 2740 b059 5640 ac49 dd3f
00000010: a7d5 9d40 7b5e 3340 bcca fe3f ace1 6f40
00000020: cd31 5740 bbcc cf3f d77d c33f 5d23 4840
00000030: e257 c840 e17e 5440 180c cf3f e4be 1d40
00000040: f49a 1a40 e8f2 d83f f0a0 7040 2e2c 6a40
00000050: 538d f23f ecee 893f 0f32 1140 d2b7 da3f
00000060: 4f1a 0f40 a1e2 f53f 7eec 6940 6654 0740
00000070: a013 0f41 baf7 f13f 0f45 2c40 58eb 9040
2.1565266 2.6180408 3.349224 1.7288108 4.9323306 2.8026416 1.990562 3.748149
3.3624146 1.6234354 1.5272778 3.1271584 6.260728 3.320244 1.6175566 2.464776
2.4157076 1.6949129 3.7598228 3.6589465 1.8949379 1.0776038 2.2686803 1.7087348
2.2359807 1.9209787 3.6550593 2.1145263 8.942291 1.8903725 2.691715 4.5287285

weight f4 [32]
00000000: c2af 813f a117 693f f16e 6a3f 9f51 833f
00000010: 9c44 6d3f 83c3 7c3f dea3 893f e14f 873f
00000020: 0e1b 883f ef5f 713f 0191 823f f734 863f
00000030: 5054 733f bb22 8c3f 5f9b 843f bb86 7f3f
00000040: bea7 873f c69c 863f 9603 783f cd22 723f
00000050: 4f95 6a3f c87d 753f d340 8c3f 0e57 813f
00000060: 29bf 873f f036 723f e407 843f 760e 733f
00000070: 2b36 833f 1a19 793f 215c 813f ca85 743f
1.0131762 0.9105168 0.91575533 1.0259284 0.92682815 0.9873583 1.0753133 1.0571252
1.0633256 0.9428701 1.0200502 1.0484914 0.95050526 1.0948099 1.0359915 0.9981496
1.0598066 1.0516593 0.9688047 0.9458435 0.91634077 0.9589505 1.0957283 1.0104692
1.0605212 0.9461508 1.0314908 0.9494394 1.0250906 0.97303927 1.010624 0.95516646

bias f4 [32]
00000000: 4137 0c3d 9c6e 2ebc 07ba 97ba b029 333b
00000010: c81c be3d 6a5c 273c 7f95 d63c f3ac b33c
00000020: 3adc 2b3b 0c5d 7f3d ea3e ce3d 74d9 6e3d
00000030: 6339 6dbd 291b cfbc 1352 1dbd 88c4 76bc
00000040: a057 093d c7c0 f3bd 2194 21bd 6f3c 113d
00000050: bd52 12bd 11da 333d bd35 203d 5aa3 b13d
00000060: cebc d73b d063 8e3b beb1 f03b 9afa 5cbc
00000070: cc49 89bd 850e df3d 2962 1f3d 40e1 99bc
0.03423238 -0.0106464885 -0.0011575826 0.002733808 0.09282833 0.010214904 0.026194332 0.021933055
0.0026223795 0.062344596 0.10070594 0.05831285 -0.057916056 -0.025281506 -0.03840835 -0.015061505
0.03353083 -0.11902004 -0.039447907 0.035458025 -0.035723437 0.043909136 0.03911375 0.08673735
0.0065837866 0.0043453947 0.0073454073 -0.013487482 -0.06703529 0.10891441 0.038911972 -0.018784165

running_mean f4 [32]
00000000: e32e 72bd fa57 e33d e859 b2be 31ee 153d
00000010: 7c8e e1bd 4227 f13d c0d8 9abc 6d0f c53d
00000020: ce64 80bd 2c55 e7bd 1b05 4d3c 86db 0e3d
00000030: 27a1 86bd 56c8 123c d543 a7bd 55ff 8ebc
00000040: c44e 803c a5c6 bb3c 741a 243e a0de 95bd
00000050: 20c2 94ba ef87 b2bc afc7 df3c f580 78bd
00000060: 2ac7 36bd 3b7e e5bd c5e6 c9bc 982a a3bc
00000070: 08d5 a9bd 155f c1bc 753c 73bd 2374 c33d
-0.059126746 0.111007646 -0.34834218 0.03660411 -0.11013505 0.11775066 -0.018902183 0.09622083
-0.06269227 -0.11295542 0.012513424 0.034877323 -0.06573706 0.008958897 -0.08167235 -0.017455736
0.015662558 0.02292187 0.16025716 -0.07317853 -0.0011349358 -0.021793334 0.027316896 -0.060669858
-0.04462353 -0.11205717 -0.024646172 -0.019917771 -0.082925856 -0.023604909 -0.05938383 0.09543636

running_var f4 [32]
00000000: b47c c83f f441 763f 457c 1d40 7dc6 7f3f
00000010: 53db d93f fb1b a83f 354f d63f 44bf da3f
00000020: dcc8 d53f c6c7 f73f 7c9e 9e3f 475e ce3f
00000030: a943 0b40 6d3f 903f 7c0e bb3f 79f9 a43f
00000040: 3156 583f a215 563f 2296 3340 6179 0440
00000050: f9ef a83f f4df d83f 9974 8f3f 40ca f83f
00000060: 5c19 c73f fe45 d03f 1742 5640 14e8 0c40
00000070: 83de 1640 8c82 b13f 19be 1140 7983 c93f
1.5663056 0.96194386 2.4607098 0.99912244 1.7020057 1.3133539 1.6742922 1.708962
1.6701922 1.9357841 1.2392116 1.6122521 2.1760046 1.1269356 1.4613795 1.2888633
0.8450652 0.8362676 2.8060384 2.0699084 1.3198234 1.6943345 1.1207458 1.9436722
1.5554614 1.627136 3.3477838 2.201665 2.357331 1.3867965 2.2772276 1.5743247

weight f4 [32, 16]
00000000: 467d b53d 5eb6 523e 0e82 24bf ca06 8e3e
00000010: 87b0 7bbf b18e 33bf 9949 a3be aa27 c3bf
00000020: d2c5 a53d ab08 77be c423 82bf 2825 d73e
00000030: 8a99 60bf 532f 423f 34fe 6c3f 96e9 043f
00000040: c557 05bf a9db 82bf 72bf 8dbf 3545 bd3d
00000050: b956 9c3c 1520 4d3f 7903 5abf d0bf 44bf
00000060: 5c9a 0dbe 0459 a4bf 662e 9cbf 2f52 353f
00000070: f6a7 743e 6a86 a23e 7b3f aa3d 523c 8ebf
00000080: afc6 5abf b33c e73f d574 22bf ab09 6ebe
00000090: 5667 273f 130a 2f3e 97fe 2fbf 27c1 d3bf
000000a0: 5b91 db3d 5749 66bf 4af3 7cbe e416 c83e
000000b0: 3d37 1cbf 579a 0d3f 0c4e 25be 3205 b1bf
000000c0: d37d 58bf 77a2 90be e001 2d3f a03b 103f
000000d0: 1bdf 513f a77b 87bf 99c4 b6be 3983 a2bf
000000e0: b4a1 363f c25c 063d 0b1a 09bf 9fd0 b63e
000000f0: 7af9 813f 0849 4dbe 8ed3 853f 69bd 72be
00000100: f7f3 d2bf 0a74 3c3f 9427 5f3e 0454 153e
00000110: 3621 cb3f 28cb 15be 2c01 81be 44eb 2ebf
00000120: e5f8 13bf 5544 433e 5e74 2fbd a6d3 08bf
00000130: b6a5 26bf 8f87 3fbf 6167 ee3e 32da 713f
00000140: 6cbe 8a3f 35af 883e b729 4cbf 00f7 db3d
00000150: bf96 053f 05ce a33c 5143 943e fa9f 973e
00000160: 353a cb3e 8e65 37bf bc75 153f b836 8cbd
00000170: 9e3f 04be a79c 87bf 8e3e 573f 3483 a83e
00000180: 6f6e 843f ef9b 40bf ee30 8e3e 2137 983f
00000190: fdd3 37bf 4426 99be 39bc 18be d101 8e3e
000001a0: 0147 e13f 2fcd 833e 27fa ae3e 3ae0 91bd
000001b0: 878a ddbc 72ce 533f 4d56 11bf 580a 903d
000001c0: 8200 803d 6e1f 5cbf da4d 153e c877 8f3e
000001d0: 6543 5bbf 7fd0 72be 2c57 59bd a796 5abf
000001e0: 373d 09bf 02b7 273f 1ee1 bf3d b0e4 8f3f
000001f0: 1005 bbbe c412 83bc 63bd 0fbd 8be6 14bf
00000200: fd97 06bf 12e0 97be e264 f7bf f4c9 3e3f
00000210: 9800 a63f 5d9c 173f 817f c7be acb7 30bf
00000220: af05 1fbf 5102 94bf 23a2 0b3f 3851 b73f
00000230: f648 993f f757 bdbd 0395 f43e a153 963e
00000240: 5507 e53e 3a70 e6be b23e 583f e8e4 67bf
00000250: 8c2c 1ebf 5d94 fdbe fe4d 203f ca99 49bd
00000260: c9e3 9b3e ce6c 553e 8a17 90bd d787 43bf
00000270: da82 a6be e201 603e c57d acbf 4be7 f13e
00000280: 6a84 ac3f af05 23bf 4b4c ec3e c6eb cf3c
00000290: 3a6e c03e 06bd 953c 0359 933f 0a5e 06bd
000002a0: c45f 933e 835a 393f 5e49 3abf f913 7e3f
000002b0: 6d81 77bd 32b7 b33f 5d2f df3e 8ba7 a1be
000002c0: 9c5f 003e 5c3d 1fbf 72a9 2c3f 7241 e1be
000002d0: fcae 053d 6333 1c3e 5723 6b3f 2b2e 39bf
000002e0: 02ae 063f 51a1 293b c905 773e 8952 17bf
000002f0: ab8f 5fbe 4b88 ffbc 309e 303f 6eac 8d3e
00000300: 0abe b2be e849 0c3f e407 72be 35c7 603f
00000310: fe64 003f f831 503e 2e54 b4be 5160 4dbf
00000320: e336 9a3f 96af c23f 7ea3 2bbe 9a3e 03bf
00000330: 36d1 813f 454d aebf 6791 eb3d 3cc6 9dbf
00000340: fdb9 a5bf 02f0 e6be c84a a63e fa1b a43e
00000350: 3b29 a8bd 00f2 703e f639 f93e 60f6 a93e
00000360: 16d6 6a3f d664 66bf 4bc1 2a3e 252e 003f
00000370: 68b1 57bf 77f4 d33c 592e 32bf 1ef2 df3e
00000380: c327 143e b91f 0dbf e75d 9abf 6c1f 5e3e
00000390: b540 403f d3db 873f 84fd 6f3f 1b5a 95bd
000003a0: 4474 4b3f f57a 41bf e4cd 073e e51f 9e3e
000003b0: 693d ba3e 24c1 e03e 4377 ab3f d972 9c3e
000003c0: 6a69 8b3e 2459 31be 1d1f 4f3f 2cb9 5c3f
000003d0: eaf3 003f 71a7 51bf b523 4fbf 3cee 2bbf
000003e0: 2c2c bb3e 2355 bdbd 22d0 f8bd 7439 68bf
000003f0: 7fcc 573d 2eb8 bb3e 2bc6 9f3d 4ff6 7c3f
0.08861785 0.2057738 -0.6426095 0.27739555 -0.98316234 -0.70139605 -0.31892088 -1.524648
0.08094372 -0.241244 -1.0167165 0.42020535 -0.8773428 0.7585346 0.92575383 0.51918924
-0.5208705 -1.0223285 -1.107405 0.09241716 0.019084321 0.8012708 -0.8516155 -0.7685518
-0.13828415 -1.2839665 -1.220166 0.7082853 0.23892197 0.31743175 0.08312889 -1.1112158
-0.8545942 1.8065399 -0.6345952 -0.23245876 0.65392053 0.17093687 -0.6874785 -1.654332
0.10721084 -0.8995566 -0.24702182 0.39079964 -0.61021787 0.5531363 -0.16143054 -1.382971
-0.8456699 -0.2824895 0.67580986 0.5634098 0.81981057 -1.0584611 -0.35696867 -1.2696296
0.7134049 0.032803304 -0.53555363 0.3570604 1.0154259 -0.2004739 1.0455186 -0.23705067
-1.6480702 0.7361456 0.21792442 0.1458283 1.586951 -0.14628279 -0.25196207 -0.68327737
-0.5780166 0.19069035 -0.042835586 -0.5344795 -0.65096605 -0.7481622 0.46563247 0.94473565
1.0839362 0.26696172 -0.7975115 0.10740471 0.52183145 0.019995699 0.28957608 0.2961424
0.39692846 -0.71639335 0.58382773 -0.06846374 -0.12914893 -1.0594682 0.84079826 0.329126
1.0346202 -0.75237936 0.27771705 1.1891824 -0.71807843 -0.29912007 -0.14915551 0.2773576
1.7599794 0.2574248 0.34175226 -0.07122846 -0.027043594 0.82736886 -0.5677231 0.07033223
0.06250097 -0.8598546 0.1458048 0.28021073 -0.8564971 -0.23712347 -0.05306165 -0.8538613
-0.5360903 0.6551362 0.093691096 1.1241665 -0.365273 -0.01600016 -0.035092723 -0.5816428
-0.52575666 -0.2966314 -1.9327662 0.74526906 1.2968931 0.59222966 -0.38964465 -0.6903026
-0.6211805 -1.1563207 0.54544276 1.4321661 1.1975391 -0.092452936 0.47769937 0.2936068
0.44732156 -0.45007497 0.84470665 -0.9058366 -0.61786723 -0.49527255 0.62619007 -0.04921893
0.30447224 0.20842287 -0.0703574 -0.7637915 -0.32521707 0.21875718 -1.3475882 0.47246775
1.347791 -0.6368055 0.46151957 0.02538098 0.37584096 0.01827861 1.1511539 -0.032804526
0.28784 0.72403735 -0.727682 0.99249226 -0.060426164 1.4040282 0.43590823 -0.31573138
0.12536472 -0.62203 0.67446053 -0.43995243 0.03263758 0.15253977 0.918508 -0.7233607
0.52609265 0.0025883506 0.241233 -0.59110314 -0.21832149 -0.03119292 0.68991375 0.27670616
-0.34910613 0.5480027 -0.23635823 0.87803966 0.501541 0.20331562 -0.35220474 -0.8022509
1.2048 1.5209835 -0.16761586 -0.512674 1.0141971 -1.3617331 0.11502343 -1.2326121
-1.2947384 -0.45104986 0.3247893 0.32052594 -0.08210989 0.23529816 0.48677033 0.33195782
0.9173292 -0.89997613 0.16675298 0.5007041 -0.84255075 0.025873406 -0.6960197 0.43739408
0.14468293 -0.5512653 -1.2059907 0.21691674 0.75098735 1.061396 0.9374621 -0.07292577
0.7947428 -0.7557824 0.13262135 0.3088371 0.36374977 0.43897355 1.3395771 0.30556372
0.27228862 -0.1731916 0.8090685 0.8622005 0.50372183 -0.8189612 -0.8091386 -0.6716039
0.36557138 -0.09244754 -0.12149073 -0.90712667 0.052685257 0.36663955 0.078014694 0.9881334

weight f4 [32]
00000000: 8aaa 773f ec2f 723f 4d31 803f 6c7f 6c3f
00000010: 29b7 8c3f f0a4 823f 0867 753f d418 853f
00000020: 059b 6e3f 7055 893f f43b 843f f730 673f
00000030: a4c5 863f 20ae 843f d07b 773f 9627 7d3f
00000040: 6ba0 663f d631 723f ce36 6d3f 9d15 693f
00000050: f5ac 833f c55c 733f 6b6b 7e3f 2e61 793f
00000060: 7a99 833f c4c3 893f 85d6 783f 4fd8 793f
00000070: 772a 823f 5b76 8b3f aeb6 753f beb8 853f
0.96744597 0.9460437 1.0015045 0.9238193 1.0993396 1.0206585 0.9586034 1.0398202
0.9320529 1.0729198 1.0330796 0.9030909 1.0529065 1.0365639 0.966733 0.9888853
0.9008853 0.94607294 0.9266175 0.91048604 1.0287157 0.9506343 0.99382657 0.9741391
1.0281212 1.0762868 0.9720233 0.97595686 1.0169209 1.0895494 0.9598187 1.0447004

bias f4 [32]
00000000: fcc2 d7bc 9b1c 4abd 2916 f3bd 8111 a4bd
00000010: 75d8 583c 03f9 933d 0029 94bc 29a8 e4bc
00000020: 66dc 453d f012 7a3d e2e2 423d 9df8 12bd
00000030: a8ef 26bd 5a3b eabc 55a8 25bd fe83 553c
00000040: cbc5 bd3c 4d57 3ebd aaac 4c3d 9ec3 73bd
00000050: 2f68 e93d 797d d63d 6280 b53c 6b46 3d3d
00000060: 5e8a 8bbd fad4 913d 074b e73c f472 74bd
00000070: 92ac 2a3d f1dd 6c3c ad33 24bd 01a0 a4bd
-0.026338093 -0.049343687 -0.11869461 -0.08011151 0.013235201 0.072252296 -0.018085957 -0.027912216
0.04830589 0.061053216 0.047579654 -0.035881627 -0.040755898 -0.028592754 -0.040443737 0.013031958
0.023165604 -0.046469975 0.049969353 -0.059512727 0.113968246 0.10473151 0.022155944 0.046209734
-0.06813501 0.071207 0.028234018 -0.05967994 0.041668482 0.014457212 -0.040088344 -0.08038331

running_mean f4 [32]
00000000: edc5 403c 9a00 043e 1b56 2d3d 27d8 97bd
00000010: bcb0 d8bd 6628 31bd fb21 583c eee5 153e
00000020: a872 773d 61c5 03bb 9977 3f3d 8bc2 b4bd
00000030: 40fe b3bd e82f cb3c e320 cebd 29ec 6dbd
00000040: c662 283d 8f04 c33c 49c0 9a3d da29 bfbb
00000050: c829 ddbc 3dc4 833d 6502 773d 1e53 90bc
00000060: 4de1 5c3d dea7 36bc 899a ce3c f3e7 9d3d
00000070: 7ff6 193e 0db0 2d3d 5c52 1a3c 7920 91bd
0.011765939 0.12890854 0.042318445 -0.07414275 -0.105805844 -0.043251418 0.013191695 0.14638492
0.06041208 -0.002010666 0.046744917 -0.088261686 -0.08788729 0.024803117 -0.100648664 -0.058086548
0.041109823 0.023805885 0.07556207 -0.0058338465 -0.026997462 0.06433914 0.060305018 -0.017617758
0.0539258 -0.011148421 0.025220172 0.077102564 0.15035437 0.042404223 0.00941905 -0.07086272

running_var f4 [32]
00000000: 2a2b db3f 57c3 ae3f 36d2 c73f 8d12 0740
00000010: fc7a f33f 75f9 953f 9427 bf3f 5028 613f
00000020: aa71 be3f 69df 813f f005 f53f 0db6 ab3f
00000030: dbad af3f df8c 9b3f 42e6 b53f 5ac2 0140
00000040: d973 5f3f 27d5 1940 00f2 f13f e45a 6a3f
00000050: 159e 883f 7b7a 913f d341 e73f cc62 e33f
00000060: 42a3 5c40 ab39 863f d986 c43f 3e87 883f
00000070: 123a 0940 7540 e43f e479 873f 92e0 a63f
1.7122548 1.3653363 1.5611026 2.1105072 1.9021907 1.1716753 1.4933953 0.87952137
1.4878438 1.0146304 1.9142437 1.3414932 1.3724931 1.2152365 1.4210894 2.0274873
0.87286144 2.4036348 1.8901978 0.9154494 1.0673243 1.1365503 1.8066963 1.7764525
3.4474645 1.0486349 1.5353652 1.0666273 2.1441693 1.7832171 1.0584073 1.3037283

weight f4 [32, 16]
00000000: 516d 3e3d 3277 4a3e d670 43bf bb2b 5a3e
00000010: 01d9 363f 525a acbd 81d2 97bd 5ded 253f
00000020: 9949 bdbe adaf af3e 5b0a 5dbf ea11 b93f
00000030: 7580 f2be 68e6 b93d 2d18 693d a1ec 863e
00000040: 6e77 06bd cd9f 04bf 904a 8fbe dbe6 113c
00000050: aaef f6bd 02e2 ffbe 2525 1cbf 061c 55bf
00000060: 8e98 6a3e 4c10 34bf 90b5 63bf 7e33 9bbf
00000070: 9eab 653e 5529 4cbf 93ec dc3e f99f 70bf
00000080: deb2 ecbe fe5b 38be ec45 e23d 5152 c53e
00000090: 56be 6ebe a107 cd3e cfcd 26bf 1774 f8be
000000a0: 35f1 47bc 3819 8d3e 64b1 93be e938 743e
000000b0: 84df 083f 2b42 553f 9b36 88be fd04 acbd
000000c0: 7373 98be b3a7 9abf f8e7 753e 54f2 3ebf
000000d0: 9b7d 1c3e 8216 aa3f dfdd 263e cc83 31bf
000000e0: f99a 3d3f 2c60 01c0 3711 0fbf 3c24 4d3d
000000f0: 8af5 7bbf aa41 5abf 00d7 b83f e7dd 133f
00000100: b5b2 4fbe cdac 793f 2a41 983f 14c2 373f
00000110: 235f 6cbf 7024 073e 4218 40bf ea38 b43f
00000120: 50ab ccbd c13c 563d 1092 393f b6a4 aa3c
00000130: 113b f6bd f9d3 83bf fd06 a93e 3c74 ecbe
00000140: 515c 953e 42ce b33e d02b da3f 9c54 22bf
00000150: 2711 9abe 49c9 ee3c ffd9 c4be a947 333f
00000160: a150 2abf a8c3 643f e256 a83e 158c 7fbf
00000170: 697a 413f 80d8 ff3f 43fd 8dbe c456 513f
00000180: 3504 7fbf 2440 2c3f e599 20bf 094c 053c
00000190: faf9 193f 4029 293f eaa4 8c3e e4cb f73f
000001a0: 7ce7 b43f d137 c9be 2a0c 173e a06b cabf
000001b0: be9d 4fbf 8e1b 2f3f 61e4 f33e 86e2 8a3d
000001c0: c6fd 143f 7285 bb3f 307b 8d3e fd26 0a3f
000001d0: 1227 95be 9a1d 7bbf 957a c6be 0f5c 7dbe
000001e0: e783 a33f 1857 37bf a872 0d3f 58e8 6a3d
000001f0: fabf 633f d2bb 35bf 77b6 68bf 1e51 2abf
00000200: f87d 123e 3503 663e 21ae 20be 0cef 0d3e
00000210: 997f 94be d56b c8be 4a99 273f 0caa bfbd
00000220: b6c7 f13e c13f 1e3f eeb3 0c3f 9dd9 003f
00000230: db51 203e 185e 56bf 605d 9a3e 7a6d 27bd
00000240: 1543 143f 4dd1 64bd 8c31 edbe c387 093f
00000250: bd90 263f 506d 003f d6e7 633f 4706 db3f
00000260: c7f7 d7be 0854 da3e 78ab 0cbf f0b8 b13d
00000270: 8304 efbe c445 96bd 9282 ab3e 32a5 143f
00000280: ed29 063e 1c23 d5bb 4743 c83c 5f3a 3fbf
00000290: 572d 6dba cc2d 1cbf 7e3c d9be 245f 843e
000002a0: 3635 0a3e 0069 74bf 24b3 2f3f 7c16 083f
000002b0: 08e1 3fbf 10dc 0a3f 2784 ec3e e30a eb3e
000002c0: 3897 89be b8fd 9c3e c738 e6be dc2b 9bbf
000002d0: 1039 263f c309 40bf 171d 0a3e d632 37bf
000002e0: ddb1 553e 9aea 8f3f 9d3c d03e 1c20 91be
000002f0: f68d 303f a2e4 c0be 185f 31be 467d dabe
00000300: c127 e4bf 191b f13e 34fc 2ebe b825 fc3e
00000310: 46d5 fabe d747 e23b 69ef 4abf 41b9 ca3f
00000320: 9d59 36bf 2d3e 873f 1bad 8d3e 6185 b73e
00000330: 34df f73e f116 85bf 9af1 2dbd 0b74 2c3e
00000340: 1b6d f93d 632f d53e 5d10 7cbe 3a26 63be
00000350: d348 bbbe f088 9fbf 97da 863e be8a f5be
00000360: f615 293e 5fd7 78bf 829c 2f3e ea22 4cbe
00000370: b414 a1be cbd0 c3bf 2438 19bf 9314 83bd
00000380: 6948 4abf d86b 363f f620 88bd 761d 293f
00000390: 76ba 15bf 44c0 013d b4d3 adbe b802 db3d
000003a0: 29c6 82be 3d10 693e 73e0 cc3e 6ba6 48be
000003b0: a212 f5bf 126f e6be fbbd 89be f1e3 533d
000003c0: d0de 1d3f 99e2 b63e 3590 d63e a1cd 1dbf
000003d0: a6c3 1b3f cf53 fc3f 039d 6cbe 616c 50bd
000003e0: 3d9b 6a3c 7fa2 163d 3ad5 46be 32b7 40bf
000003f0: 86f0 803e fc61 6abf d222 ab3e e2c5 833e
0.04649097 0.19772032 -0.7634405 0.21305744 0.7142487 -0.08415665 -0.07413197 0.6481531
-0.36970213 0.34313717 -0.86343926 1.4458592 -0.4736363 0.0907715 0.05690782 0.2635241
-0.03282874 -0.51806337 -0.27986574 0.008905138 -0.12057431 -0.49977118 -0.6099418 -0.83245885
0.22909757 -0.7033737 -0.8894892 -1.2125089 0.22428748 -0.7975057 0.43149242 -0.939941
-0.46230215 -0.18003842 0.11048493 0.38539365 -0.23314795 0.40044883 -0.6515779 -0.4852607
-0.012203504 0.27558303 -0.28846276 0.23849835 0.5346606 0.8330409 -0.2660416 -0.08399389
-0.2977558 -1.2082428 0.2401427 -0.74588513 0.1528229 1.3288119 0.16295575 -0.6934173
0.74064595 -2.0214949 -0.5588564 0.050083384 -0.9842154 -0.85256445 1.4440613 0.5776047
-0.20283015 0.975293 1.1894886 0.71780515 -0.9233267 0.13197494 -0.75037014 1.4079869
-0.09993613 0.052304033 0.724885 0.020830493 -0.12022985 -1.0299064 0.33013144 -0.4618243
0.29171994 0.351183 1.704462 -0.63410354 -0.3009121 0.029148715 -0.38447568 0.7003122
-0.6652928 0.8936105 0.32878786 -0.99823123 0.7557741 1.9987946 -0.27732286 0.8177302
-0.99615794 0.6728537 -0.62734824 0.008135804 0.6014706 0.6607857 0.2746957 1.9359097
1.4133143 -0.39300397 0.14750734 -1.5814095 -0.8110007 0.6840142 0.47635177 0.06781487
0.5819973 1.4650099 0.27633047 0.5396574 -0.2913137 -0.98092043 -0.38765398 -0.24742149
1.2774628 -0.7161727 0.55253077 0.057350487 0.8896481 -0.70989716 -0.9090342 -0.66530025
0.14305866 0.22462161 -0.15691425 0.1386072 -0.290036 -0.3914477 0.65468276 -0.09358606
0.4722268 0.6181603 0.5496205 0.5033205 0.15656225 -0.83737326 0.30149364 -0.04087589
0.5791486 -0.055863667 -0.46326864 0.5372278 0.65064603 0.501668 0.8902563 1.7111291
-0.42181227 0.42642236 -0.5494914 0.08677852 -0.4668313 -0.073375255 0.33498055 0.5806457
0.13101931 -0.0065044295 0.024446143 -0.7469844 -0.00090475887 -0.6100738 -0.42428964 0.25853837
0.13496861 -0.9547272 0.6863272 0.5315931 -0.74952745 0.5424204 0.46194574 0.45906743
-0.26873183 0.30662322 -0.44965193 -1.212276 0.6493082 -0.75014895 0.1348766 -0.71561944
0.2086863 1.124347 0.40671244 -0.2834481 0.68966615 -0.37674433 -0.17321432 -0.426737
-1.7824632 0.47090986 -0.17088395 0.49247527 -0.4899084 0.0069055366 -0.7927156 1.5837785
-0.7123049 1.056585 0.27671131 0.35843948 0.48412478 -1.0397626 -0.042466737 0.16841142
0.12179013 0.41637716 -0.24615617 -0.22182551 -0.36578998 -1.2463665 0.26338646 -0.47957414
0.16512284 -0.9720363 0.17149547 -0.19935194 -0.31461108 -1.5298094 -0.5985129 -0.064004086
-0.7901674 0.71258307 -0.06646912 0.6606058 -0.5848764 0.0316775 -0.3395058 0.10693878
-0.2554181 0.227601 0.4001499 -0.19594733 -1.9146311 -0.45006615 -0.26902756 0.051731054
0.6166811 0.35719755 0.41906896 -0.6164189 0.6084541 1.9713076 -0.2310677 -0.05088461
0.014319238 0.036776062 -0.19417277 -0.75279534 0.25183505 -0.9155576 0.33425003 0.2573691

weight f4 [32]
00000000: 0000 803f 0000 803f 0000 803f 0000 803f
00000010: 0000 803f 0000 803f 0000 803f 0000 803f
00000020: a6fc 793f b341 8a3f 842b 813f d68a 843f
00000030: 9c79 803f 6ba2 7a3f e18a 823f 7810 893f
00000040: 0000 803f 0000 803f 0000 803f 0000 803f
00000050: 0000 803f 0000 803f 0000 803f 0000 803f
00000060: 2276 793f 0d46 843f 3f69 763f fb8c 853f
00000070: 25ca 733f 76c9 793f 9649 823f 6cbf 793f
1.0 1.0 1.0 1.0 1.0 1.0 1.0 1.0
0.97651136 1.08013 1.0091405 1.0354869 1.0037112 0.9790408 1.0198632 1.0708151
1.0 1.0 1.0 1.0 1.0 1.0 1.0 1.0
0.9744588 1.0333878 0.9625434 1.0433649 0.95230323 0.9757303 1.0178707 0.9755771

bias f4 [32]
00000000: 0000 0000 0000 0000 0000 0000 0000 0000
00000010: 0000 0000 0000 0000 0000 0000 0000 0000
00000020: 6ef0 ebbc 2995 8bbd 1f8c babc 5393 a73c
00000030: 6b94 9b3c e4e5 6abc bda3 33bc 4fe1 903d
00000040: 0000 0000 0000 0000 0000 0000 0000 0000
00000050: 0000 0000 0000 0000 0000 0000 0000 0000
00000060: 8f60 413d 2616 ef3d f0b7 a83d 8b64 d93b
00000070: a95c 893c 7cfe d93c cb2f 823c 9a0b 713d
0.0 0.0 0.0 0.0 0.0 0.0 0.0 0.0
-0.02880117 -0.068155594 -0.022771893 0.020455992 0.01899167 -0.014337037 -0.010964331 0.07074224
0.0 0.0 0.0 0.0 0.0 0.0 0.0 0.0
0.047211226 0.11674146 0.08238208 0.0066343 0.016767817 0.026610605 0.01589193 0.058848955

running_mean f4 [32]
00000000: 05c2 ffba 4dea 9c3d 8a78 4f3d 8032 babd
00000010: 131d 193d 381d afbd c788 40be 392a 933d
00000020: 93a7 52bd 2853 afbd bd66 b5bc bcec c4bd
00000030: a26a ee3a 4eed 9e3d e4a5 8b3d 5d24 e7bd
00000040: 41a6 90bd e68e 533d b15f a93a 8439 c3bd
00000050: c157 053d 085b 9dbc 5c43 a23d ca76 ffbc
00000060: 82d5 263d 7ea2 4c3d 4f2d bd3d 1b19 38bd
00000070: 116e 15be d98a 8e3d bf0d 4dbd a860 56bc
-0.0019512778 0.07661877 0.050652064 -0.09091663 0.037381243 -0.08550495 -0.18802176 0.07185788
-0.051429342 -0.08560783 -0.022143716 -0.09615466 0.0018189738 0.07760106 0.068187505 -0.112862326
-0.070629604 0.05164995 0.0012922195 -0.095324546 0.03255439 -0.019208446 0.07923004 -0.031184573
0.04073096 0.049959652 0.092371576 -0.044945817 -0.14592768 0.06960077 -0.050061937 -0.013084568

running_var f4 [32]
00000000: ef85 823f d93e 833f d840 423f 84d3 8540
00000010: 7c86 bf3f a448 ce3f 71b8 943f 76ab eb3f
00000020: d799 7b3f 10d1 b73f f700 813f 39a4 a83f
00000030: ce4e dc3f eed3 733f ff12 843f 0d0a c23f
00000040: 4081 ba3f 5b06 fd3f 5102 a23f 36ad a33f
00000050: d37e 933f 343f ae3f 43df f23f 103c 653f
00000060: be04 9b3f 3d72 2240 7066 943f e7b2 5a3f
00000070: 2a76 e83f 791b 2240 c463 eb3f af52 0c40
1.0197123 1.0253555 0.75880194 4.18207 1.4962916 1.6115918 1.1618787 1.8411701
0.98281616 1.4360676 1.007842 1.3175117 1.7211549 0.95245254 1.0318297 1.5159317
1.4570694 1.9767565 1.2656957 1.2787235 1.1523079 1.3613038 1.8974384 0.89544773
1.2110822 2.5382226 1.1593761 0.85429233 1.8161061 2.5329268 1.8389821 2.1925466

weight f4 [32]
00000000: 8249 883f 7665 853f 1bbc 873f c32e 903f
00000010: db8c 833f f41e 5c3f 281b 6c3f b9c5 843f
00000020: f33c 7b3f f9a1 6e3f 4d2a 773f eb5d 863f
00000030: f9e2 803f 1c89 753f 4161 6d3f be29 863f
00000040: 5b51 793f 79fc 843f 5cb1 843f aac6 963f
00000050: 497c 7c3f 4c67 663f 6905 773f 1a2b 773f
00000060: 53be 803f 9058 673f 3819 713f 3247 763f
00000070: b648 7d3f 8b38 7d3f e9e6 813f 2ae4 6e3f
1.0647433 1.0421588 1.060428 1.126427 1.0277361 0.8598473 0.9222894 1.037284
0.98139876 0.932159 0.9654892 1.0497411 1.0069267 0.9591234 0.9272652 1.0481489
0.97389764 1.0389549 1.0366626 1.1779377 0.98627144 0.9000137 0.9649263 0.9655014
1.0058082 0.9036951 0.94179106 0.96202385 0.98939073 0.989144 1.0148593 0.933169

bias f4 [32]
00000000: 1cd9 123c 2c91 36be 88da fbbd 1adc 573e
00000010: d7cc 1bbe 0ab1 483e 9f39 cfbd 54f5 283d
00000020: e387 263d 4272 563d 879d b23d 06d3 d7bb
00000030: a40d b83c a686 8e3d b4e7 bfbd 5be7 d3bd
00000040: 530c 553d 3e6e 6b3d e265 b33d 29d9 d13d
00000050: 2ae5 473d 3fb1 bcbd db5c 7d3d 337a 973d
00000060: 4371 603d 17ba 1bbd c7b8 cc3c 8f39 643d
00000070: 7133 6abc afec acbd 92d6 f6bd e9b9 a43d
0.008962896 -0.17828816 -0.12297541 0.21080056 -0.15214859 0.19598785 -0.10118412 0.041249588
0.040656935 0.05235506 0.08721452 -0.0065864353 0.022467442 0.06959276 -0.09370366 -0.10346862
0.052013706 0.057478182 0.08759667 0.10246498 0.048802532 -0.092134945 0.061856132 0.073963545
0.054795515 -0.038019266 0.024990452 0.055718955 -0.014294491 -0.08443581 -0.12052645 0.08043272

running_mean f4 [32]
00000000: cad6 163c 688c 8a3c 12f4 1e3d 1311 c43c
00000010: 67a0 d4bc df02 4c3a 5f8a bf3c fd8f b5bc
00000020: 9dbc 33ba affe 01bc e9ac b4bc ddb9 6dbc
00000030: b25c aabc 33f3 013b 2d2b 023d 00c7 87bc
00000040: 27c4 dd3c 97fc cb3c 6065 0d3c 1862 623b
00000050: 4294 8c3c 58f4 2c3c f2fd a93c ff0a 86bc
00000060: 4e66 e13b 99c4 20bd 61f5 333c 0f12 01bd
00000070: 69e2 2739 5cf6 2c3c 4c2e db3c 8a88 ccbc
0.009206483 0.016912654 0.038806982 0.023933923 -0.025955392 0.000778241 0.02338141 -0.022163386
-0.00068564137 -0.007934256 -0.022055106 -0.014509645 -0.020796154 0.0019828796 0.031779457 -0.016574383
0.027071072 0.024900718 0.008630127 0.0034543332 0.017160539 0.010556303 0.020750973 -0.016362665
0.0068786507 -0.03924999 0.010983796 -0.031511363 0.00016010705 0.0105567835 0.026755475 -0.02496745

running_var f4 [32]
00000000: 166a 323f 8f64 303f dbd1 443f b314 3d3f
00000010: 2d45 583f aee8 3c3f 2af8 3c3f ba57 4b3f
00000020: 2a1d 353f bb02 3e3f 89c1 2f3f e086 353f
00000030: 7ddd 3b3f c86c 3b3f 4d84 353f 4fc5 343f
00000040: 3dd5 3f3f 8d55 3c3f 28b2 403f 3e27 3d3f
00000050: e97c 2d3f 7543 2f3f c902 3f3f 5034 393f
00000060: fc07 333f 5092 303f 39d7 423f fa8f 3b3f
00000070: ab2e 5c3f 1168 3f3f 60bc 333f 18ef 3b3f
0.69693124 0.6890344 0.76882714 0.7385971 0.84480554 0.7379254 0.7381617 0.79430735
0.70747626 0.74222916 0.68654686 0.7090893 0.7338484 0.7321286 0.70905 0.7061357
0.7493475 0.7356804 0.75271845 0.73888004 0.6776872 0.68462306 0.74613625 0.7234545
0.6993406 0.68973255 0.76109654 0.73266566 0.8600871 0.7476817 0.7020931 0.73411703

weight f4 [32]
00000000: 9b89 863f ecdb 8b3f 967e 723f 3352 953f
00000010: cecc 7d3f 94d1 773f afcd 5e3f 337d 683f
00000020: bdc3 853f 4ba7 5e3f 6b0e 643f 4f4d 8d3f
00000030: 0333 683f c174 813f bd5a 5a3f 0ee0 7d3f
00000040: 4bb0 7d3f 83c1 873f f427 753f 4d8a 883f
00000050: 0ff9 793f a754 6a3f 05f8 813f 0d01 683f
00000060: 11b2 783f 6f01 6e3f 4e68 873f 3941 713f
00000070: c13a 683f 0cab 863f 5a9e 6d3f 7eb5 833f
1.0510744 1.092649 0.94724405 1.166571 0.9914063 0.96804166 0.870326 0.9081604
1.045036 0.8697402 0.890845 1.1039218 0.9070284 1.0113755 0.85294706 0.99170005
0.99097127 1.060593 0.9576409 1.0667206 0.9764566 0.9153542 1.0153815 0.90626603
0.9714671 0.9297094 1.0578706 0.94240147 0.9071465 1.0520949 0.9281975 1.0289762

bias f4 [32]
00000000: f8cf 933d ee37 37be 1540 2bbe 2f2d 593e
00000010: 195a 34be bd88 593e 9667 11be 8371 133e
00000020: abe1 8abd 48bb 89bb c6fc f8bd a621 da3d
00000030: f740 fa3d 646d 3c3d b543 013e 992f bfbd
00000040: 0949 6a3d 715c 0f3e 6b51 9fbd d68f 383e
00000050: 0532 36bd 3802 4eba 9a88 05be 6d52 acbd
00000060: 656c 333d 975f 4fbd 3ded a2bd 4394 1b3e
00000070: 91ba dc39 2b52 de3d becc 06be 41d5 e7bd
0.07217401 -0.17892429 -0.16723664 0.21208642 -0.17612495 0.21243568 -0.14199671 0.1439877
-0.06781324 -0.004203234 -0.12157588 0.10650949 0.12219422 0.04600276 0.12623484 -0.093352504
0.057198558 0.14000107 -0.07779201 0.18023619 -0.044481296 -0.0007858607 -0.1304039 -0.08414159
0.043804545 -0.05062827 -0.07955406 0.15193276 0.00042100673 0.10855516 -0.1316404 -0.11319972

running_mean f4 [32]
00000000: 9b52 7dbd a523 1b3d d69e 0bbe 85d2 d73c
00000010: 5479 bdba 132a a03d d723 9fbc ea83 693d
00000020: 4469 5cbc b38d 22bb dc44 6ebc b4c2 723d
00000030: bea0 9bbc da92 813d 90a2 88bd 1605 70bc
00000040: 1789 2b3d fd42 f33c 192f a83d 077a c7bc
00000050: 080c 4abd fb9f 34bc 5f12 c23b f436 b9bc
00000060: 681c d7bc 95dc c5bd 207b d33c e6bd 103d
00000070: 1185 88bc 300d 62bd c850 41bd e955 abbb
-0.061846357 0.03787579 -0.1363481 0.0263455 -0.0014455714 0.07820525 -0.01942627 0.05701057
-0.013452832 -0.0024803698 -0.014542785 0.059267715 -0.018997546 0.06326838 -0.06671631 -0.01464965
0.041878786 0.029695028 0.08212108 -0.02435018 -0.04932788 -0.01102447 0.0059226 -0.022609212
-0.026258662 -0.09661213 0.025815547 0.03533735 -0.016665014 -0.055188358 -0.04719618 -0.005228747

running_var f4 [32]
00000000: cdfd ca3f 6662 4b3f bd09 3f40 4e08 6f3f
00000010: 358a bc3f ce19 b43f 35e1 ed3f b4b5 c73f
00000020: 74ee ac3f ad56 eb3f 22ec a73f 8049 d13f
00000030: 07a7 ff3f d96c 9e3f c904 943f 78e1 ef3f
00000040: 9fa9 8d3f c7c5 6d3f 8d94 0f40 e1a3 9b3f
00000050: 91a3 ec3f 2271 fd3f 9b90 733f fd44 9f3f
00000060: 3069 cf3f 9cd2 d63f fd1c 4040 e1b0 ce3f
00000070: 385c cf3f b8d5 923f a597 ac3f 7f0e 8e3f
1.5858704 0.7944702 2.9849694 0.93372047 1.4729677 1.4070375 1.8584353 1.5602326
1.351027 1.8385826 1.3118937 1.6350555 1.9972848 1.2376968 1.156396 1.8740683
1.1067389 0.9287991 2.2434418 1.2159387 1.8487417 1.980015 0.95142525 1.2442929
1.6203976 1.6783023 3.0017693 1.6147729 1.6200018 1.1471472 1.3483778 1.1098174

weight f4 [32, 16]
00000000: f731 0ebe 8bca 71bf 7311 7b3e db8d f9be
00000010: 64e7 6bbe de9e 2c3f aae0 593f 99dd 003e
00000020: e4b1 91bd 26a8 3c3e b045 dd3e 6543 06bf
00000030: 5e94 06bf 30b5 2a3f 26b6 05bf 9396 a6be
00000040: edd0 1b3f cd62 6e3f 5aa4 69bf 4009 1abf
00000050: d7fe db3d 136a 6dbf 9df0 08bf a1c6 483e
00000060: 581e d93e abe2 ea3b 12bb f7be 03df 203f
00000070: 6063 cabe 8989 95bf 2129 7ebf 9265 febc
00000080: 8ae6 53bf fe9f d2bf 08d0 9e3e 34b1 d3be
00000090: aa2e 58bf 5856 2b3f dec7 b53f 383b 003f
000000a0: 6043 b7be cb8f 803f 85c9 61be 1894 b4bd
000000b0: 2451 0bbe bb16 f2be e24c a63d 3734 54be
000000c0: b0ae e83d 4286 263f 037f 1abe aaad 523e
000000d0: f7cc 21be 1959 fabe f9fb 3abf 29e0 913e
000000e0: 2fdf 0d3e 0c99 efbd 6819 47bf 86cb 443f
000000f0: 7e7b 8e3f a6e6 82bf 8c7c c33e c43e 103f
00000100: d5e4 88bc 6153 dd3d 9ef2 493d 52e2 c8be
00000110: 8e9a 50bf cbc1 fabf 33b6 b83e 949e 8abf
00000120: 0e95 8cbd 6c60 82bf fa2c 05bf 586c b6be
00000130: ac72 273f 5f5b d5bc 8167 b83f 702e 423f
00000140: 957b 603f ebdf 693f 765e 32be 46e2 51bf
00000150: 34e8 9d3d a873 59be 334e 4dbf 90fb 4c3d
00000160: 2b88 3bbe 3701 3ebe 5127 3b3d 25a3 1d3f
00000170: 0179 b53d 4293 bfbd b4c4 fcbe 828d 483e
00000180: 5a67 e03e 8e22 043f 792a 32bf 0005 b93a
00000190: 4150 69be 6234 a2bd f7bb 55bf e654 df3f
000001a0: 4c62 913f fd73 2bbf 498a 0bbe 5af6 4f3f
000001b0: b100 e13c 3f13 ebbe 59d5 92be 1341 50bf
000001c0: a4a6 2d3f 4b65 f3bd e666 9fbf 7132 9e3d
000001d0: e149 a43f cb5a a0bf 9ee6 4d3f 844f d33c
000001e0: b509 c6bc 6fb8 ccbe aa28 97bf a804 26bf
000001f0: a50b ec3e 3059 1c3f 982c b0be faa6 3cbe
00000200: 4770 abbf 8ac2 243f fcb6 403e 086d 443d
00000210: e152 f9be bedb 963d d6c8 04be 27c4 29be
00000220: 5450 3cbf 8330 b6bf 90e7 21bf 0901 b6be
00000230: b67f a83d 2392 82bf d474 113f 4242 5f3f
00000240: d628 42bf ccf8 e23e 9c05 d5bd 3b58 2a3f
00000250: 6b8b 833f 0a11 27bf 3d1d 26bf db48 0c3f
00000260: 3f0c e33d 656a d53d e6ba d83f 491a 04bf
00000270: 3191 463e 6eea c5be 797f dfbe 3cda 58bb
00000280: 9b2a 3d3f b987 51bf a06c 593f c896 353f
00000290: 5faf ecbd 1c58 a0be 3eaf 82bf 7692 26bf
000002a0: dd2b 403f dbff 4e3f fc69 8a3f 70a7 23bf
000002b0: 38c6 aebf 0581 613f 0259 1d3f 9b71 31bf
000002c0: c3b8 043e 521a 4e3f 78d4 413e c0fa 533f
000002d0: b8fc 4bbf f0aa 18bf b367 e6b9 15c2 bbbd
000002e0: 4161 c1be ae5c c43e 52ec 7bbf 9a4a 99be
000002f0: e79f 9dbe bdef 8e3f 45c9 923f c42a 7f3e
00000300: a0aa 033f fcb7 cfbe 45ce e5bf a80e 023f
00000310: 6bc9 063f afe3 11be d6d4 8b3f d311 57bf
00000320: f63b 243f 35d7 003f 92ea dbbf 0a11 103e
00000330: 6907 6f3f 167e 85bd 0d57 82be 5d1e b33f
00000340: 5952 b6bd 3c36 933d 3f95 08bd ccdb 3bbf
00000350: c35b 8dbe c3d1 3cbf 2536 ed3e 3fb9 3abf
00000360: 38ef 36bf 1be8 973d 3b7a 163e 4a0b b43f
00000370: 9f54 d03f 3e94 7ebd 098d bebe cd53 02bf
00000380: c809 553d 311d debf 6107 9dbf 217e f83e
00000390: c24e 963f 04a4 4c3f c0bd a8bf 1db8 433e
000003a0: 0a1d 753e b50c 353f 05e7 523f 54af 5a3f
000003b0: 0c3a 423e e838 423f 5786 233f 9488 d3bd
000003c0: 16a0 a33f e3a1 24bf dd08 f83e 6f95 27bf
000003d0: ad07 073f 505c a73d 64ab 2c3f fcad 3d3f
000003e0: 91c1 8cbe b9c4 463f 73ef 543d 85fd ccbd
000003f0: f082 543f 5e29 fcbd 8210 acbe c875 373f
-0.13886248 -0.9444968 0.24518375 -0.4874104 -0.23037487 0.6742991 0.85108435 0.12584533
-0.07114008 0.18423519 0.4321723 -0.52446586 -0.5257014 0.6668272 -0.5223106 -0.32536754
0.6086567 0.9311951 -0.91266406 -0.60170364 0.10741966 -0.9273998 -0.53492147 0.19607021
0.42405963 0.007168134 -0.4838491 0.6284029 -0.39528942 -1.1682597 -0.9928151 -0.031054292
-0.8277365 -1.6455076 0.3101809 -0.41346133 -0.84446204 0.66928625 1.420162 0.5009036
-0.3579359 1.0043882 -0.2204953 -0.08817309 -0.13605171 -0.47282967 0.08120133 -0.20723043
0.11361444 0.6504861 -0.15087514 0.2057406 -0.15800844 -0.488961 -0.7304073 0.28491333
0.13854669 -0.11699113 -0.7777314 0.7687305 1.1131437 -1.0226638 0.3818096 0.5634577
-0.016710678 0.10806919 0.049303643 -0.3923517 -0.8148583 -1.9590391 0.36076507 -1.0829644
-0.068643674 -1.0185676 -0.52021754 -0.35629535 0.6540935 -0.026044546 1.4406587 0.7585211
0.8768857 0.91357297 -0.17418846 -0.8198589 0.07710305 -0.21235526 -0.8019745 0.050044596
-0.18313663 -0.18555151 0.045691792 0.61577064 0.0886097 -0.09354259 -0.49368823 0.19585231
0.4382885 0.51615226 -0.6959606 0.001411587 -0.2278452 -0.079201475 -0.83489937 1.7447784
1.1358123 -0.6697386 -0.1362697 0.8123528 0.02746615 -0.4591312 -0.28678396 -0.81349295
0.678324 -0.118845545 -1.2453277 0.07724465 1.2835046 -1.2527708 0.8043002 0.025794752
-0.02417455 -0.39984462 -1.1809285 -0.64850855 0.46102634 0.6107359 -0.34409022 -0.18423072
-1.3393639 0.64359343 0.18819803 0.047955543 -0.48696044 0.07366131 -0.12967238 -0.16578732
-0.7356007 -1.4233555 -0.6324396 -0.35547665 0.08227484 -1.0200847 0.5681889 0.87210476
-0.7584356 0.44330442 -0.104014605 0.6654088 1.0276922 -0.65260375 -0.64888364 0.5479867
0.1108632 0.10420684 1.6932037 -0.5160261 0.19391324 -0.38655418 -0.4365194 -0.0033089062
0.73893136 -0.8184772 0.84931374 0.709332 -0.11556887 -0.31317222 -1.020973 -0.6506723
0.7506693 0.80859154 1.0813594 -0.63927364 -1.3654242 0.88087493 0.6146394 -0.69313973
0.12961106 0.8050891 0.18928707 0.8280449 -0.79682493 -0.5963583 -0.0004394628 -0.091678776
-0.3776951 0.3835196 -0.9840747 -0.2993973 -0.30786058 1.1166912 1.1467673 0.24918658
0.5143223 -0.40570056 -1.7953573 0.50803614 0.5265109 -0.1424701 1.0924327 -0.8401157
0.64153993 0.5032838 -1.718096 0.14069 0.9337068 -0.065181896 -0.2545704 1.3993641
-0.08902425 0.07188079 -0.033345457 -0.7338226 -0.2760907 -0.7375757 0.46330371 -0.72938913
-0.7145877 0.074173175 0.14695065 1.4065945 1.6275824 -0.062153094 -0.37216976 -0.5090912
0.05201128 -1.7352659 -1.2267877 0.4853373 1.1742785 0.7993777 -1.3182907 0.19113202
0.23936859 0.70722514 0.8238376 0.8542378 0.18967456 0.7586808 0.6387686 -0.103287846
1.2783229 -0.6430952 0.48444262 -0.6546239 0.5274609 0.08171904 0.6744902 0.74093604
-0.2749143 0.77643925 0.05198617 -0.100092925 0.83012295 -0.12312578 -0.33606344 0.71664095
